runs/BallBalance_11-15-34-49/nn/BallBalance.pth (torch, 172255 bytes, 36 tensors)

value_mean_std.running_mean f8 [1]
000000 56 dc 2a 19 30 96 cc 3f
       0.22333337048414376

value_mean_std.running_var f8 [1]
000000 88 90 fd 1f d6 5e 91 3f
       0.01696333475355563

value_mean_std.count f8 []
000000 00 00 00 00 10 60 f3 40
       79361.0

running_mean_std.running_mean f8 [18]
000000 f4 af 76 03 c8 0a dc bf c3 3b d6 6c 78 88 a8 3f
       -0.43815803850407 0.04791618660521337
000010 3a f8 6a 3b 62 10 5f bf bd a8 ce 1b 25 c3 d7 bf
       -0.0018959960267888169 -0.3712857028537078
000020 97 8a 19 81 2e 8d bc 3f 8b 1c bb 81 e2 7a b1 3f
       0.11152926112985494 0.06828132312067418
000030 ad a2 84 e1 8f a9 b9 bf 3f a5 f9 e0 ca 65 e8 bf
       -0.10024356132329144 -0.7624258417173805
000040 0a 96 27 3c 28 a2 c9 3f e6 fc c6 84 3f b9 86 bf
       0.20026114403951595 -0.011095520247975842
000050 7e 83 67 3b 6b 53 d8 bf 3f 3a c6 9a b0 e1 d0 3f
       -0.3800914840813262 0.2637750159709959
000060 52 d0 d3 c0 d0 67 96 bf b6 fe c3 54 7f 7b ab bf
       -0.021880399483919462 -0.05367658529030221
000070 d8 d8 b8 9c ab 46 bf 3f cf b0 f8 0c 41 91 be 3f
       0.12217209411832941 0.11940390173612346
000080 74 79 76 9c 3c 55 d2 bf fb 90 3a ca 75 ab b2 bf
       -0.2864524391133252 -0.072928773758182

running_mean_std.running_var f8 [18]
000000 11 e8 1d be b1 0f d3 3f 41 5e e2 4b 26 ee 89 3f
       0.2978329044923394 0.012661265555194425
000010 16 ca 25 57 8b f8 c8 3f 7b bc e4 89 6d 86 cc 3f
       0.19508497004751807 0.22285241349297621
000020 ab 8b de 71 a2 90 bf 3f 5f 76 22 c4 16 35 92 3f
       0.12330069808972037 0.01778064319716177
000030 5a bf 4d 2e 6f d7 85 3f 4d 38 10 e6 e7 7f fc 3f
       0.01066481456811601 1.7812270151948895
000040 59 b6 c9 f2 23 01 d1 3f 48 e8 cc 4b 3a dd 05 40
       0.26569460592040667 2.7330213472278366
000050 69 2d 5a 8d c3 16 09 40 d7 41 cd 2c a2 2f e5 3f
       3.13611517363977 0.6620646357569581
000060 a7 07 7c e8 79 bf ef 3f 45 e0 d8 71 96 11 f4 3f
       0.9921235600197534 1.2542938658862266
000070 ef 74 48 ae 46 a0 7a 3f 4a 83 d0 2a 6d 3d 79 3f
       0.006500507447097833 0.006162096437976336
000080 bd 2e 98 fe 2b 94 c8 3f 85 7a 46 8c 5d 5c d5 3f
       0.19202184611673614 0.3337625379444165

running_mean_std.count f8 []
000000 00 00 00 00 20 60 e3 40
       39681.0

a2c_network.sigma f4 [7]
000000 c7 f1 c5 bd 16 8e 4b be f9 75 9c be 24 03 67 be
       -0.09665256 -0.1987842 -0.30558756 -0.22559792
000010 54 a3 49 be f2 97 26 bd 75 86 35 be
       -0.19691211 -0.04067225 -0.17727073

a2c_network.actor_mlp.0.weight f4 [128, 18]
000000 99 96 d8 bd a4 0a 38 3c 7a 67 e8 bd 19 a5 17 3e
       -0.10575599 0.011233006 -0.113478616 0.14809074
000010 1e bd 1f be 81 ee 37 3e e0 2c 24 be 35 4c 44 be
       -0.15599486 0.17962076 -0.16032743 -0.19169696
000020 f6 5a d4 bd e9 1f ad bd ac 76 e9 3d 84 7c 56 be
       -0.10368912 -0.08453352 0.11399588 -0.20945936
000030 89 b5 1b 3e f8 f3 2d be 59 4e fa 3e 8c c4 bf bb
       0.15205969 -0.16987598 0.488879 -0.0058522876
000040 11 2c 95 3c 22 1a 18 3e 01 b1 d8 3d 83 c0 4b 3e
       0.018209489 0.14853719 0.10580636 0.19897656
000050 3f 49 b1 3d c0 d7 03 bd f0 6f 4c bd 25 26 2d bd
       0.08656549 -0.032188177 -0.04991144 -0.042272706
000060 6d 07 38 3e 87 d8 8a 3e 9b 2c f2 3d ff 7a 15 3c
       0.17971583 0.27118322 0.11824914 0.009123563
000070 60 8c 36 3d 9b 56 f7 3c 5f 69 20 3d 2b 47 a6 bd
       0.044567466 0.030192664 0.03916299 -0.08119043
000080 f5 d7 08 bf 39 d9 02 3e c6 9c 88 be 83 27 bb 3e
       -0.53454524 0.12778176 -0.2668211 0.36553583
000090 d1 66 0c 3d 0a 89 17 bd 06 0b 07 3e 97 cb 3b bd
       0.03427774 -0.036995925 0.13187799 -0.045848455
0000a0 f5 4c e7 3d a3 0b 13 be 87 5d 01 3c 57 9f 8a be
       0.11293975 -0.14359908 0.007895834 -0.27074692
0000b0 d6 aa 12 3e 28 a1 0d be 61 f5 03 3a 1e 5b 9e bd
       0.14322981 -0.13831007 0.0005033818 -0.07732223
0000c0 83 2e d6 3d 69 94 82 bd 62 83 98 be c4 bb 9e be
       0.1045809 -0.06375963 -0.29787737 -0.3100263
0000d0 ff 69 b1 3e ef bc 9e bb d3 6e 8b 3e 69 39 e4 bd
       0.3465118 -0.0048443 0.2723299 -0.111437626
0000e0 b4 82 6d be b8 f5 54 be 43 4f 28 be 0c 26 1c 3e
       -0.2319439 -0.2079686 -0.16436486 0.15248889
0000f0 4f e5 d6 3d 32 0f 68 3e 62 82 d5 bd 7f 8d 05 3c
       0.10492956 0.22662047 -0.10425259 0.008151411
000100 8f c1 0f 3e 9f 75 c7 bd eb d7 32 3e 3c 4a 81 bd
       0.1403868 -0.09739231 0.17465179 -0.06312987
000110 a5 59 3d 3e ed 5f 2f be eb 30 41 be d2 4c ef 3d
       0.18491228 -0.17126437 -0.18866317 0.11684574
000120 6a c0 25 3e 58 f6 3c be 3f 18 02 3e a3 0c 60 3e
       0.16186681 -0.18453348 0.12704562 0.2187982
000130 df 28 36 be 46 fa 26 be 11 93 7d 3e eb 97 4a bd
       -0.17789029 -0.16306409 0.24763133 -0.049461287
000140 79 71 d5 bd 94 3c 89 be 77 ea 1c be e5 c9 fe bb
       -0.10422034 -0.2680403 -0.15323816 -0.0077755325
000150 8f 70 26 3c d9 93 3e bd 93 8b b4 bd e1 09 91 be
       0.010158672 -0.046527717 -0.08815684 -0.2832785
000160 6f b8 9e bd c4 c1 84 be 44 05 3a be 25 58 62 be
       -0.07750022 -0.2592908 -0.18166071 -0.22103937
000170 f8 94 87 3e c1 50 85 3d 3e c5 06 3e 81 42 47 be
       0.26480842 0.06509543 0.1316118 -0.19458963
000180 5a f1 3e be bc 9b a2 bd 3b be 74 3d af 88 82 be
       -0.18646756 -0.0793986 0.05975173 -0.25494906
000190 85 57 83 bd 5f 20 0b be 18 5f 03 bd 92 4b a4 bd
       -0.064131774 -0.13586567 -0.03207311 -0.080222264
0001a0 b7 5b 0b be e3 81 68 be 22 8b 1b be fa 65 98 be
       -0.13609205 -0.22705798 -0.15189794 -0.29765302
0001b0 67 a9 67 bd 3e a7 93 be 7d 3b 06 3e 76 67 2b bb
       -0.05655804 -0.28838533 0.1310863 -0.0026154197
0001c0 35 f3 19 3e 41 2c 1a 3d c9 9b c2 bd 7e f8 15 3e
       0.15034182 0.03763986 -0.0950237 0.14645573
0001d0 7d 86 99 bd e0 ad 21 be 1b 44 5e be f5 9f 6e be
       -0.07496355 -0.15788984 -0.21705668 -0.23303206
0001e0 23 c8 d8 3d e1 8e 7f bd 9e 89 ca 3d 4d 4e ce be
       0.10585048 -0.06239212 0.0988953 -0.40294114
0001f0 47 40 96 3e 0d 90 72 be 39 2f fa bd 23 71 08 bd
       0.29345915 -0.23687764 -0.12216038 -0.03331102
000200 5e d7 77 3c 34 ca 1f 3e 9a f1 59 3e 8b 37 02 be
       0.015127031 0.15604478 0.2128357 -0.127165
000210 ea 5d 92 3d 46 79 97 be 30 79 f4 ba e0 09 a7 bd
       0.07146819 -0.29584712 -0.0018651839 -0.081561804
000220 c8 34 81 3e 1a b8 68 bd 25 d5 09 3e 47 80 a4 3d
       0.2523558 -0.056816198 0.13460214 0.080322795
000230 db d1 33 3e ed ac 95 be 82 13 af 3e 7d 00 3b 3c
       0.17560522 -0.29233494 0.3419457 0.011413691
000240 ee 86 a0 3d 75 9b ae be c4 ba 16 3e 16 cd 57 bc
       0.07838236 -0.3410298 0.14719683 -0.013171455
000250 ba f6 ee bd f7 cd 20 3e 14 29 4d 3d 24 0d 18 be
       -0.11668153 0.1570357 0.050088003 -0.14848763
000260 a2 1b 42 be fb 02 32 bd d9 58 f8 3d 5c 5e f1 bc
       -0.18955854 -0.043459874 0.12126321 -0.02946394
000270 db 5d 08 be 16 bc 65 bd 2c de 9b be d6 ae 00 3e
       -0.13317053 -0.056087576 -0.3044294 0.12566695
000280 d1 87 71 3e 76 27 89 be e9 51 b6 3d 53 4f 49 3e
       0.23586966 -0.2678792 0.08902342 0.19659166
000290 0a 7a 16 bd 0a 50 c0 bd 18 25 9c 3d ab c9 6d 3d
       -0.03673748 -0.09390266 0.076242626 0.058053654
0002a0 7a ae cc 3d 0e 25 72 3d 9c 19 1e be a5 2b 88 3d
       0.09994216 0.05911737 -0.15439457 0.066489495
0002b0 06 16 91 bd ee c8 f5 bd 75 36 20 3d 02 77 26 3e
       -0.07084279 -0.12001215 0.039114434 0.16256335
0002c0 d8 bf c5 3d 4b b8 03 be a4 f7 c0 bc 71 86 a4 bb
       0.09655732 -0.12863271 -0.023555584 -0.0050209095
0002d0 c4 a2 bf 3d b9 92 a8 3b 44 32 6c be 71 2e 05 bd
       0.09357217 0.005144444 -0.2306605 -0.032514993
0002e0 09 94 86 3e 66 94 a9 3d 5b 54 ac 3d 8e 33 e0 bd
       0.26284817 0.08280258 0.08414527 -0.10947333
0002f0 d8 1c 13 be 89 a8 69 be be 75 3f 3d 8f 1b ec 3d
       -0.14366472 -0.22818197 0.046743147 0.11528694
000300 b4 09 68 3d a3 a0 32 3d fe 88 b4 be 5e 52 80 be
       0.05664988 0.043610226 -0.35260767 -0.2506284
000310 7c dd cc 3b 0f e2 fe 3d a3 23 53 bd 90 61 13 be
       0.006251989 0.12445461 -0.051547658 -0.14392686
000320 bb 60 80 3e d5 15 11 be 04 d8 38 be 21 c4 f8 3d
       0.250738 -0.14168485 -0.18051153 0.121467836
000330 b4 1f 2f bd 2a de 3f be c7 37 4e be 3e a9 6c 3e
       -0.042754844 -0.18737093 -0.20138465 0.23111436
000340 7c 01 17 3e f4 9e d4 3d 92 c1 6a be ee a9 0e be
       0.1474666 0.103818804 -0.22925404 -0.1393201
000350 31 20 b0 be 06 b9 9c 3e a5 81 32 3e 0b a2 74 3e
       -0.3439956 0.30609912 0.17432268 0.2388994
000360 09 ec 6a 3e 1d 12 b8 3c 97 ea 05 3e 1c e3 7d bd
       0.22941603 0.022469575 0.1307777 -0.061984167
000370 c2 3e e9 bd e3 e0 25 be 24 48 30 3d 43 05 e9 bd
       -0.11388923 -0.16199069 0.04303755 -0.11377957
000380 06 78 49 bd 64 12 6a bd 8f 6c 1a be b5 22 66 bd
       -0.04918673 -0.057146445 -0.15080474 -0.056185443
000390 5c 98 4a be 04 98 e8 3d 2d e4 07 be ad 17 b9 3e
       -0.19784683 0.1135712 -0.13270636 0.36150876
0003a0 91 9e 88 3c 74 35 7f be f5 88 b8 bd cd fb b0 bc
       0.016677173 -0.24922734 -0.090104975 -0.021604443
0003b0 2f 71 26 bd b4 9a 74 be b0 be 37 3e 93 7a 63 be
       -0.040635284 -0.2388714 0.17943835 -0.22214727
0003c0 19 ff 05 3e f9 86 ac 3d f6 a3 72 3e 11 fb 80 be
       0.13085593 0.084241815 0.23695359 -0.25191548
0003d0 09 42 36 3e cc 63 38 be 8a ed a2 3d 9e 0e 60 3e
       0.17798628 -0.1800682 0.07955463 0.21880576
0003e0 19 75 85 be dc 08 b1 3c 7e 51 cb bc 3f a4 8d be
       -0.260659 0.02161067 -0.024819132 -0.27664372
0003f0 52 36 37 3d b8 ca 88 be de 51 7f 3e f6 57 bc 3d
       0.04472954 -0.26717162 0.24933574 0.09196465

a2c_network.actor_mlp.0.bias f4 [128]
000000 8e 21 9f be 6f 8f 7b be 77 65 a5 bc a1 90 03 be
       -0.31080288 -0.24566434 -0.020189984 -0.1284814
000010 ea 5b 42 3d 76 08 dc bd 08 6d 16 be 82 0b 50 be
       0.047450937 -0.10743801 -0.1469003 -0.2031689
000020 eb 2e 0b 3e c4 e8 d0 bd cb 3b 66 be b1 ba 16 bc
       0.13592117 -0.102006465 -0.22483747 -0.009199784
000030 a9 f3 db bc 2d ce c2 3d 8d 88 8f 3d 77 f9 56 3d
       -0.026849585 0.09511981 0.07008467 0.052484002
000040 e2 37 41 be ff a2 1e 3d d4 0b dd bd dd 77 ea bd
       -0.18868974 0.038729664 -0.10793272 -0.11448643
000050 1d 93 9f 3d 3c 82 9d bc 28 25 fe 3d fe 12 53 be
       0.077917315 -0.01922714 0.12409431 -0.20612714
000060 cb 63 ac bd dd d7 f5 bd 3f 9c 3e 3e 9c 3c 0e bd
       -0.084174715 -0.12004063 0.1861429 -0.03472577
000070 8a b8 0b be f4 bf b7 bd e4 5f b4 bd ce e0 93 bd
       -0.13644615 -0.08972159 -0.08807352 -0.072206125
000080 72 b3 06 be ab 99 0d be eb d0 a1 bd 6e 9a 52 be
       -0.1315439 -0.13828151 -0.07901176 -0.20566723
000090 fe 84 9e 3d ab e1 0c be 9a 0b 36 bd c5 05 58 be
       0.0774021 -0.1375796 -0.044444658 -0.21095951
0000a0 89 8d a1 bc 49 21 23 be 76 c4 72 be cd 30 26 3e
       -0.01972081 -0.15930666 -0.23707756 0.16229554
0000b0 d0 ec d4 3d 38 62 88 be c4 3c 01 be 94 ae 21 be
       0.10396731 -0.26637435 -0.12620836 -0.15789253
0000c0 b3 d8 3f be de 76 96 bd 0b 2a 66 bb 9f b9 f3 bd
       -0.18735008 -0.07346891 -0.0035120274 -0.11900639
0000d0 6b d9 73 3d e5 41 95 be 55 fb 0d be 6a f3 26 3d
       0.059533518 -0.29151836 -0.13865407 0.04075948
0000e0 78 e0 af bc 5c 1e bc 3b 9e d7 7e bd bc 8a 5e be
       -0.02146934 0.005740924 -0.062217347 -0.2173261
0000f0 09 d0 26 be 25 a5 1e be e4 d2 88 bd 8d 7e 1e be
       -0.16290297 -0.15492685 -0.06680849 -0.15477963
000100 f0 7a fe bd cc d0 fc bd ee ed d3 3d 9b bd 88 be
       -0.12425792 -0.12344512 0.10348116 -0.26707157
000110 b2 81 58 3d 84 38 7b be 11 5f 66 be 7e ce 7d be
       0.052858062 -0.24533278 -0.22497202 -0.24785802
000120 b1 f2 f1 bc b1 02 27 be b4 37 bb 3d f8 a3 8b be
       -0.02953467 -0.1630962 0.09141484 -0.27273536
000130 d7 4c 34 be 69 f1 f0 bc 83 8c 01 be df b6 49 bd
       -0.17607437 -0.029411988 -0.12651257 -0.049246665
000140 15 0f 83 3c a6 e7 0d be 5d 22 d2 bd fb ce d1 bc
       0.015998403 -0.13857898 -0.102604605 -0.025611391
000150 ac 3b d0 3d 3e e5 1b be 23 90 ad bb a6 03 4d be
       0.101676315 -0.15224168 -0.0052967235 -0.20020923
000160 f9 b3 2f 3c c9 d1 de bd 22 37 9e be e9 6c bd 3c
       0.010724061 -0.10879857 -0.30901438 0.023123221
000170 f3 f2 1f bd 89 59 97 be e7 7e 9b bd 17 51 1e 3e
       -0.039050054 -0.29560497 -0.07592564 0.15460621
000180 ef 4a f6 bd 87 6f ca bc c7 e6 95 bd 2f 07 88 3d
       -0.12026011 -0.024711384 -0.07319408 0.06641995
000190 87 4c c9 bd 72 f6 44 be 84 ee 0f be 66 d8 c6 3c
       -0.098290496 -0.19234636 -0.1405583 0.024273109
0001a0 89 49 45 be ba 6f 38 be 2d f9 fa bd d1 d0 34 be
       -0.19266333 -0.1801137 -0.12254558 -0.17657782
0001b0 7a d5 10 bd a7 dd 35 3b 75 3e 81 bd 72 b9 5d 3e
       -0.035359837 0.0027750523 -0.06310741 0.21652773
0001c0 78 75 78 be 2d 46 19 be 36 3b bb bd 9b 1c d8 3d
       -0.24263561 -0.14968176 -0.09142153 0.10552331
0001d0 b2 bf 0e be 7a 90 ab bc 8b 23 59 be ca f8 a8 bc
       -0.13940313 -0.020942915 -0.21204965 -0.020626444
0001e0 39 2c 84 be 73 86 4c be 0f 1c 4a be 26 66 0b be
       -0.2581499 -0.19973163 -0.19737266 -0.13613185
0001f0 72 7d 45 be 5c 78 d3 bd 2f 34 9d bd 1a 84 18 3d
       -0.19286135 -0.10325691 -0.07675969 0.037235357

a2c_network.actor_mlp.2.weight f4 [64, 128]
000000 df ed a6 3e d4 27 86 3d 50 06 87 be 96 25 c2 3c
       0.32603356 0.06550565 -0.26372004 0.023699563
000010 fb 66 fd bd 51 c8 fc bd be 09 89 3d 81 89 8c 3d
       -0.123731576 -0.12342895 0.06691311 0.06862164
000020 c2 ea 8c bd 4a 7f cd bd 82 24 b5 bc c2 6e 1d 3d
       -0.06880714 -0.10034044 -0.022112135 0.038435705
000030 60 6a f7 3d 3e cf 56 be 35 1e 52 be 3c ec e0 bd
       0.12080836 -0.20977494 -0.20519336 -0.10982558
000040 92 b4 24 bc d2 b7 10 be 76 f6 28 3e 55 b8 61 be
       -0.010052817 -0.14132622 0.16500267 -0.22042973
000050 b4 b6 70 3c a8 b5 79 be 31 af 33 be ee dd 30 3e
       0.014691997 -0.24385703 -0.17547299 0.1727216
000060 25 89 5d bb 90 96 7f bd 32 75 a1 bd f7 dd ce 3d
       -0.0033803668 -0.062399447 -0.07883681 0.1010093
000070 17 c4 22 3d 37 eb 48 be 9b 0e e8 bc 26 26 0a 3e
       0.039737787 -0.19620977 -0.028327277 0.13491115
000080 03 ad 55 3e 3b 2a 26 3e 45 97 3c be f2 75 3e bd
       0.2086678 0.16227047 -0.1841708 -0.0464992
000090 1d 18 b9 3d 44 26 43 3e d4 06 87 3b b2 0c 8c 3e
       0.09037802 0.19057566 0.004120687 0.27353436
0000a0 52 27 18 be bb 3b a3 3e 3b de 49 3e e2 8b 4c bd
       -0.1485875 0.31881508 0.1971368 -0.04993809
0000b0 12 8c ed bd 89 b5 2a 3c f3 7a 1a 3d 2a 7f df 3d
       -0.11598982 0.010419258 0.03771491 0.109129265
0000c0 38 f0 33 3d 43 ac d3 3d b3 01 29 bd 50 73 16 be
       0.043930262 0.10335591 -0.041261386 -0.14692426
0000d0 d9 06 c7 bd 39 8d 98 bb c5 ea 5f be 1b 37 30 be
       -0.09718103 -0.004655507 -0.21866901 -0.17208521
0000e0 4c b0 d9 bd e9 14 f7 bd 7f f7 18 3d ce ee 00 3e
       -0.10629329 -0.12064535 0.037345406 0.12591097
0000f0 e0 60 1e 3e 22 19 94 3d c7 8b 6b 3c 79 2e 5f 3d
       0.15466642 0.07231356 0.014376587 0.05448768
000100 e6 ed 26 3d 7f 27 c0 3d 81 89 2d be 35 f1 b9 3e
       0.04075422 0.09382533 -0.16946985 0.3631684
000110 c1 58 88 3d 72 67 27 bd 6b b8 03 3e 16 a4 96 3e
       0.066575535 -0.040870138 0.12863319 0.29422063
000120 c5 78 8a bd dc d2 d6 3d f8 e7 24 bd d1 2b 85 3e
       -0.06761316 0.10489437 -0.040260285 0.26009992
000130 a2 51 9a bc 32 dc 86 bd 91 54 bd 3e 0e a1 13 bd
       -0.018837754 -0.06584968 0.36978582 -0.036042266
000140 41 ef 86 3d c4 29 2d bb 09 55 8f 3d 77 90 9d bd
       0.06588603 -0.00264226 0.06998641 -0.0769357
000150 e6 56 ed bc 7e 7f 9a 3d 64 18 64 3c 8e 48 13 3e
       -0.0289721 0.075438485 0.013921831 0.14383146
000160 f9 35 90 bd 02 6c c1 bd da 1b 9b 3e 54 b5 0c 3e
       -0.070415445 -0.09444429 0.30294687 0.13741046
000170 64 b6 a1 bd 80 6b bd 3e 9a 76 fa 3a 02 e9 0b be
       -0.078961164 0.36996078 0.0019108832 -0.13663104
000180 9b 29 36 be 15 b7 09 be 54 22 f6 bd d0 a6 9a 3d
       -0.17789309 -0.13448747 -0.12018266 0.07551348
000190 51 7a d4 3d 4b 7e 1e 3e c0 0b 90 3e 16 a5 1d bd
       0.103748925 0.15477864 0.28133965 -0.038487516
0001a0 60 a9 1d 3e 17 83 eb bd b0 5f c1 3d df b9 54 3e
       0.15396643 -0.11499613 0.09442079 0.20774029
0001b0 53 15 b6 bd 25 99 1c be fe 5a 43 be c1 50 6e 3d
       -0.08890786 -0.15292795 -0.1907768 0.05818248
0001c0 98 c2 89 3e 72 d5 e7 3d 4d c8 61 3e c2 d9 c3 bd
       0.26906276 0.11320008 0.22049065 -0.095630184
0001d0 d8 17 ba 3d f1 eb df 3d 5e 18 55 3e 65 d7 8a 3d
       0.09086579 0.10933674 0.20810077 0.067793645
0001e0 9a 5e 2b 3e 1f 1a a1 3e 7a c7 d9 3d 16 63 c6 3c
       0.16735306 0.3146524 0.1063375 0.02421717
0001f0 e9 dc 52 3e 75 5e 19 be 34 c0 79 3d ef 73 1e be
       0.20592083 -0.14977439 0.060974315 -0.15473913
000200 1f 66 9b 3d d9 1b fa 3c cb d6 66 3d 1c 16 6b 3d
       0.075878374 0.030530857 0.056357186 0.057394132
000210 05 91 2a 3e ae 7e ad bc bc 71 23 3c 66 f2 b0 3d
       0.16656883 -0.02117857 0.009975847 0.08639984
000220 16 7c 04 be 15 fd 12 3d 9f 66 23 3e 72 c0 36 be
       -0.1293796 0.03588589 0.15957116 -0.1784685
000230 d3 6f ff bc d8 5f f2 bd de ee 3c 3d 51 2d ba 3d
       -0.031181252 -0.11834687 0.04612624 0.09090675
000240 a6 86 63 bd f9 81 89 3c dd 3d 0c 3e b5 ac 0f 3e
       -0.055548333 0.016785609 0.13695474 0.14030726
000250 8a 43 40 3d ba 19 59 3d dd 46 18 be 8d bd 3e be
       0.04693941 0.05300305 -0.14870782 -0.18626995
000260 03 4b bf 3d b4 4c b8 3d eb 67 bf bd d2 67 93 3d
       0.09340479 0.08999005 -0.09345993 0.071975365
000270 06 63 53 3a 53 b3 84 3d 73 49 04 bd e5 26 0e bd
       0.0008063767 0.06479516 -0.03229661 -0.03470506
000280 d8 41 c4 3d b2 f8 da 3b 57 27 4a bd 58 5b 45 bd
       0.09582871 0.006682479 -0.049353924 -0.048182815
000290 28 4c a2 bc 43 87 f3 bc 20 fa f1 3d 9f 86 ed 3d
       -0.019811705 -0.029727584 0.11815286 0.115979426
0002a0 55 77 c5 bc f4 03 47 bd 91 dd 88 bc 7b 1b 12 be
       -0.024104754 -0.048587754 -0.016707214 -0.14268295
0002b0 10 55 34 be 03 f3 18 3e 85 32 33 3c 35 da 44 3e
       -0.17610574 0.14936452 0.010937338 0.19223864
0002c0 7b 33 36 bd d1 57 fc 3d 2d 14 3d 3d eb 69 95 bd
       -0.04448269 0.12321437 0.04616182 -0.07295593
0002d0 60 b0 77 3d fa fc 0e bd ea 20 6b 3d cf 11 fe 3d
       0.06047094 -0.034909226 0.057404436 0.124057405
0002e0 a0 28 30 be 7a f1 9c 3c 13 2b b5 3d 02 43 94 3d
       -0.17202997 0.019158114 0.088461064 0.07239343
0002f0 68 a2 bd 3c 73 af 92 bd b7 59 7e ba 37 7a cf 3b
       0.02314873 -0.071623705 -0.00097026996 0.006331708
000300 8c e5 e4 3d 15 94 28 bc 01 5b 8e be e9 d0 fa 3c
       0.11176595 -0.010289212 -0.27803805 0.030617194
000310 08 ef 29 be 1f f3 b9 bd e4 b9 f6 3d 90 61 99 bc
       -0.1659509 -0.09079575 0.120471746 -0.01872328
000320 cd fa 5a bd dd 21 3e 3d 57 59 b5 3d de f9 cc 3d
       -0.05346184 0.046419013 0.08854931 0.10008596
000330 0c 22 81 bc 00 03 d8 bd 96 4d 61 3d 8c 37 93 3c
       -0.015763305 -0.10547447 0.055005632 0.017970823
000340 30 01 ae 3c dd 4a f2 3c 35 e5 e2 bd c4 85 22 be
       0.0212408 0.029576713 -0.11078874 -0.1587134
000350 d0 ca af bd 1e 91 89 3d c1 da 74 bd 9f 65 24 be
       -0.08583605 0.06717132 -0.059778932 -0.1605439
000360 1d bd 0f be 5c 31 2a 3d 65 99 53 3e e2 5d 74 bc
       -0.14036985 0.04155098 0.20663984 -0.0149149615
000370 0a b8 b6 bd 95 e8 93 3e 60 d8 ff bd 4c ad 11 be
       -0.089218214 0.28888384 -0.12492442 -0.14226264
000380 3a c7 b6 bd 43 64 f8 bc 5b 02 58 3d 59 4a 87 be
       -0.08924718 -0.030321246 0.05273662 -0.2642391
000390 ec 54 c7 3d 8c 71 95 3d c7 d2 20 3d 96 2f 67 bb
       0.097329944 0.07297048 0.039263513 -0.0035276166
0003a0 09 9e 9d 3c 34 b5 a5 bc d8 5c 7c 3d 07 c5 4e 3e
       0.019240396 -0.020228006 0.06161198 0.20192347
0003b0 75 97 d4 bd fe c1 50 bc c3 67 47 bd d3 d7 ae bd
       -0.10380451 -0.012741564 -0.04868294 -0.08537259
0003c0 85 75 1e 3e 12 d6 80 3e 10 0f 14 bd ee 08 15 be
       0.15474518 0.25163323 -0.036147177 -0.14554188
0003d0 e5 c0 ee 3d 65 8d 97 bb f9 71 c4 3d 19 5f 74 bc
       0.116578855 -0.00462501 0.09592051 -0.014915251
0003e0 dd 57 7b 3d 23 71 cf 3c c8 80 82 3e f8 e4 31 bd
       0.06136309 0.025322502 0.25488877 -0.043431252
0003f0 56 55 02 3d 96 5e 9c 3b 40 94 ae bd ca df 27 3d
       0.031819664 0.0047720177 -0.0852437 0.040984906

a2c_network.actor_mlp.2.bias f4 [64]
000000 73 4f 8c be 5e 66 aa be 26 9d 94 3c 07 62 6a bd
       -0.27404365 -0.33281225 0.01814134 -0.057222392
000010 82 3d b5 bc 44 16 6b bd 95 8b 88 be 17 e4 86 bb
       -0.022124056 -0.05739428 -0.26668993 -0.004116546
000020 d3 99 dc bd 1f 03 bb 3d f2 be fc 3d 12 24 07 be
       -0.10771527 0.09131455 0.123411074 -0.13197353
000030 f1 dc 0a be 39 52 2e be 39 ba b2 3d 3e 53 88 3d
       -0.13560845 -0.17023553 0.087269254 0.06656502
000040 8d a0 4f bd c6 6c 6d be 1a 01 27 3e f6 82 70 3d
       -0.050690223 -0.23186025 0.16309014 0.058718644
000050 98 c9 62 bd 5e c3 4c 3d 70 1a 1e 3d 1d 2d d5 3d
       -0.055368036 0.049991004 0.03859943 0.10408995
000060 8c 33 81 be 10 78 4e be 8f 7b 47 bd 4d 5f 2f 3d
       -0.2523464 -0.20162988 -0.04870182 0.042815495
000070 fd 1a 21 3e 61 09 19 be e6 cc 64 bd ed 63 d0 bd
       0.15732951 -0.14944984 -0.05585947 -0.10175309
000080 7e 8e af be 88 68 bb bd de 1e bc bc 23 b8 55 be
       -0.342884 -0.09150797 -0.022963937 -0.20871024
000090 82 f0 87 3d 97 88 d3 3c 7f 23 09 3e e5 f8 8c be
       0.0663767 0.025821967 0.13392447 -0.2753364
0000a0 1d ce 3a bd 87 ce 1f 3e 98 93 d7 bd 34 93 26 3d
       -0.04560672 0.15606128 -0.10526198 0.040667728
0000b0 f9 13 dd bd 8d 52 1e 3c 25 d3 92 3d 31 71 3d 3e
       -0.10794825 0.009663236 0.07169179 0.1850021
0000c0 93 6b 1e 3d 0e 6b 05 be 85 54 25 bd 8b 33 28 3e
       0.03867681 -0.1302912 -0.040363807 0.16425912
0000d0 f3 6a 29 be aa d3 a6 bd 2a b1 69 bd 31 da a2 3d
       -0.16544704 -0.081458405 -0.057053722 0.07951773
0000e0 07 e1 f2 3d ad 50 95 bd 42 be 5b 3d 34 a1 1f 3d
       0.11859327 -0.07290778 0.05364824 0.038972095
0000f0 f5 9b ad 3c 93 9c 36 3d 84 bc fb bc 4f 39 a1 bc
       0.02119253 0.044582915 -0.03072954 -0.019680647

a2c_network.actor_mlp.4.weight f4 [32, 64]
000000 7a d3 07 3d 9f 98 be bc fc a0 ab 3c 74 ac fb 3c
       0.033160664 -0.023266135 0.020950787 0.03072188
000010 f7 8b 54 3e c9 35 66 3c aa 1c ea bd 33 08 7b b9
       0.20756517 0.014050909 -0.114312485 -0.0002394028
000020 7d 1a 24 be 2e b7 15 be 32 65 98 bd a3 4a 07 3d
       -0.1602573 -0.14620659 -0.074411765 0.033030163
000030 10 ce 23 3c ba 1c 34 bd 7d 34 73 bc b3 c7 89 be
       0.00999786 -0.04397271 -0.014844057 -0.2691017
000040 f3 6f a4 bd 9b a6 63 bd 8e 4b 4e be e6 e5 80 3c
       -0.08029165 -0.05557881 -0.2014601 0.015734624
000050 70 bd 2e 3d c6 05 df bc 81 3d b5 3d 42 aa 13 be
       0.04266113 -0.027224433 0.088496216 -0.14420417
000060 6f 14 62 bd 3d 07 53 be b0 c5 2a 3d 26 93 9b bc
       -0.05519527 -0.2060823 0.041692436 -0.018991064
000070 67 d0 c2 3d 01 af 3a be b9 81 b1 3d 8b d3 0c be
       0.09512406 -0.18230821 0.08667321 -0.13752572
000080 14 16 38 3c 1c cc 39 3e 28 b5 3e 3d 36 f8 a8 bd
       0.011235733 0.18144268 0.046559483 -0.082504675
000090 16 cb 1e 3e 77 1e 80 bd 4c a9 3e 3d 72 bf 6d bd
       0.15507159 -0.06255811 0.046548173 -0.058043905
0000a0 bd 38 03 be 2f 94 51 bd 8f cd d0 3d a1 4d 26 3e
       -0.12814613 -0.05116671 0.10195457 0.1624055
0000b0 c8 ad cf 3c b0 2e 9b bd ec 86 02 bd b3 87 eb 3d
       0.02535142 -0.07577264 -0.031866953 0.11500492
0000c0 e4 f1 71 bc ac 6c 9e bb 25 1a 2c bd 2b 3f 02 bd
       -0.014767144 -0.004834732 -0.04201712 -0.031798523
0000d0 91 3a 66 be 1d 95 9f be 4c 87 b3 bd fe 13 95 bd
       -0.22483279 -0.31168452 -0.0876604 -0.07279204
0000e0 27 f7 74 bd 33 fb db bd c2 8f b4 3d b6 49 be 3c
       -0.059806015 -0.10741272 0.08816482 0.023228507
0000f0 16 fd 7e bd e9 85 6d bd f9 a2 8e 3e a8 9d 54 bc
       -0.06225308 -0.057989035 0.27858713 -0.012977041
000100 f8 c5 6a 3e 58 d5 6a 3c 6e 9d 3d be 91 16 96 bd
       0.22927082 0.014333092 -0.18517086 -0.07328523
000110 88 b8 4b 3c df 90 9d bc 75 9c b8 3c 1e 6f 46 3e
       0.012434132 -0.019234119 0.022535542 0.19378325
000120 78 97 43 be 16 5c 33 bd 49 19 0f 3e 2c ec e3 bd
       -0.1910075 -0.043788992 0.1397449 -0.111290306
000130 eb 48 94 3d e7 5b 51 3d d6 8d 09 be 1d 21 21 be
       0.072404705 0.051113036 -0.13433012 -0.15735288
000140 42 99 4d bd db 1d 13 be 1a d8 19 3d 74 78 f6 3d
       -0.050194986 -0.14366858 0.037559606 0.12034693
000150 ce d0 53 bd a7 7b 05 ba a6 72 2f 3c d6 71 bf 3d
       -0.051712804 -0.0005091973 0.010708487 0.09347884
000160 5e 7d ff bd 31 da c6 bc 52 bb b2 3d 19 a0 24 3e
       -0.12475084 -0.024273964 0.08727135 0.16076697
000170 d5 33 e0 3d dc b0 08 3e 3b 13 a1 bc 53 5c 26 3e
       0.10947386 0.13348716 -0.01966249 0.16246156
000180 40 d1 24 3e b9 be 8b 3b 70 14 3c 3c a8 e0 e7 3d
       0.16095448 0.0042646793 0.011479482 0.11322147
000190 ec ce 0e bd af f5 95 3b 84 93 67 be bd 79 11 3e
       -0.034865305 0.004576407 -0.22614866 0.14206596
0001a0 82 c0 3e be da 85 34 bd 5a 61 2c 3d 0d d3 96 3c
       -0.18628123 -0.044072963 0.04208503 0.018411184
0001b0 e8 b1 9a 3c cf 88 0e 3c 19 c5 c8 bd 86 1f 4f be
       0.01888366 0.00869961 -0.098032184 -0.20226869
0001c0 e8 47 52 3b 53 f5 76 3d d1 0b 24 be 9b 2e f3 bd
       0.0032086316 0.060292553 -0.16020133 -0.11874124
0001d0 c1 05 43 be e8 f6 01 be 60 b1 fc bd 4b 69 bf 3d
       -0.19045164 -0.12691844 -0.12338519 0.09346255
0001e0 69 5a 1f be 2c 71 09 be 8f cf 4e 3d c7 38 dd bd
       -0.15561832 -0.13422078 0.050490912 -0.10801845
0001f0 48 c4 3c 3e 5b 03 04 3d 44 b3 0b bc 0b 97 f4 bd
       0.1843425 0.032229763 -0.008526627 -0.11942872
000200 b6 ad f3 3d 83 1c d0 bd 92 5e 29 3e cd 2f 32 3e
       0.11898367 -0.10161688 0.16539982 0.17401047
000210 a3 86 3e be 38 7b 91 bc 7d c0 fe bb 95 d0 9c 3d
       -0.18606047 -0.01775895 -0.0077744112 0.07656971
000220 ad a3 e6 bc 98 8c 44 3d 1d 28 1b 3e a8 72 45 bc
       -0.028154219 0.047985643 0.15152021 -0.012051262
000230 e0 f4 41 be a6 05 26 3d 32 a9 c3 3d 06 c2 4e 3e
       -0.18941069 0.04053273 0.09553756 0.20191202
000240 32 5a 8c 3d a3 48 bd bd f8 be fd 3d af 2a 84 bd
       0.06853141 -0.0924237 0.1238994 -0.06453454
000250 05 3e 41 3e 4d 04 e7 3d 2f 51 90 3d a4 96 18 3e
       0.18871315 0.11280117 0.070467345 0.14901215
000260 e7 8b be bd 37 cc b1 3d 60 10 e9 bc 24 b9 90 3d
       -0.09304028 0.08681529 -0.028450191 0.07066563
000270 38 00 d4 3d 53 79 f3 3d ab a5 5e bd 8d 20 51 3e
       0.10351604 0.11888375 -0.054357212 0.20422573
000280 38 e2 c8 bc a4 e1 f3 3c 41 ca 00 3e 8f a1 d6 bd
       -0.024521932 0.02977068 0.12577154 -0.104800336
000290 e5 d7 b3 bd 5e 80 99 bc 97 91 b5 bd 7a 91 cd 3b
       -0.08781413 -0.018737968 -0.0886566 0.0062734457
0002a0 ff 1a 51 3c f8 f8 2b 3d c5 6b c7 3d d9 a2 74 3d
       0.012762784 0.041985482 0.09737352 0.059725616
0002b0 78 d9 4f be 53 97 50 3e 10 fb 2b 3e bc ac 93 bc
       -0.20297801 0.20370226 0.16794991 -0.018026702
0002c0 16 54 d4 3d 9d 42 fc bd 82 e7 8b bd 49 e1 6e 3c
       0.103676006 -0.12317393 -0.06831266 0.014580079
0002d0 59 b1 cb bd f2 2e 4f 3d 82 8e 8a 3d 41 75 85 3d
       -0.09945936 0.05058188 0.067654625 0.06516505
0002e0 99 e3 e0 3d d9 bb 66 3c 06 aa b9 bd bf c4 50 bd
       0.10980911 0.014082872 -0.090656325 -0.05096888
0002f0 7a 8f 73 3e 6f 43 e0 bd df fe ca bd 60 0f 98 3d
       0.237852 -0.10950362 -0.09911894 0.074248075
000300 4d 87 65 be b9 b9 ca 3d 10 1b bc bd 48 f6 2b bd
       -0.22414894 0.09898705 -0.09184849 -0.04198292
000310 13 b2 1c be 43 bb ae 3d ab 45 01 bc 35 cb 32 3d
       -0.15302305 0.08531811 -0.007890145 0.043650825
000320 dd cc 0b ba f1 0f eb 3d 7b 15 0e be 66 c4 1b 3e
       -0.0005332956 0.1147765 -0.13875382 0.15211639
000330 77 94 ad 3a 32 ad 66 3d e1 0f 10 bc 9a 5b 91 3d
       0.0013243099 0.056317516 -0.008792848 0.0709755
000340 9a 49 65 be 0a d2 37 3e 8f 31 74 3d e6 6d 49 bd
       -0.22391358 0.17951217 0.059617575 -0.049177073
000350 e9 cc 07 bd 25 76 4f be 07 89 83 3e ea 12 c7 bd
       -0.033154402 -0.20259912 0.2569048 -0.097204044
000360 59 46 05 3d 2a 2c 4f 3d 6c ce c3 3d d6 14 0c be
       0.032537792 0.050579228 0.09560856 -0.13679823
000370 9e c2 51 be 80 cd 57 3d 4c 72 79 be e1 2a f0 3b
       -0.20484397 0.052686214 -0.24360007 0.0073293303
000380 36 74 18 3d 90 fb d4 bd f4 e0 46 be 7d c2 68 bc
       0.037220202 -0.10399544 -0.1942175 -0.014206526
000390 99 b9 df 3d eb 87 0b be 06 f1 d0 bd 40 ba 67 3d
       0.10924072 -0.13626067 -0.102022216 0.056574106
0003a0 5b 9c 00 be 7b 8a 01 3e df 49 f2 3d 42 f0 56 3d
       -0.12559645 0.12650482 0.11830496 0.05247522
0003b0 53 a3 45 bd 7f 72 9b bd 20 a4 07 bd cc cc 44 3e
       -0.04825146 -0.07590198 -0.033115506 0.19218749
0003c0 e1 5f a0 3d 05 6b 3e be c2 df 75 3d ff 0a 74 be
       0.078307875 -0.18595512 0.060027845 -0.2383232
0003d0 6e 0f ff 3d 9c d0 3d 3e e1 c6 e9 3c 44 89 19 be
       0.12454115 0.1853661 0.028537216 -0.14993769
0003e0 44 65 79 bc 24 ec 7a 3d 87 19 bd 3c 8f f1 00 3e
       -0.0152218975 0.061260357 0.023083461 0.12592147
0003f0 b3 8b 30 3e 16 f9 46 be a6 73 62 3d d0 c5 39 3e
       0.17240791 -0.19430956 0.055286072 0.18141866

a2c_network.actor_mlp.4.bias f4 [32]
000000 41 1d 83 bd 62 df 0c 3b 58 31 16 3e 9a cb ae bd
       -0.06402064 0.0021495451 0.1466726 -0.08534928
000010 36 a4 b8 bc eb 00 23 be 23 13 dc 3d e7 c8 10 3d
       -0.02253924 -0.15918319 0.107458375 0.035347845
000020 63 ee 8a 3d 25 7e cb bd 5a 73 d6 3c f8 c2 b0 bd
       0.0678375 -0.099361695 0.02617805 -0.08630937
000030 c8 43 45 bd 8b 5a cf bd 31 fd 7a bd 1e 26 0e 3c
       -0.048160344 -0.101246916 -0.06127662 0.00867608
000040 e9 d4 2a 3d a3 10 2f be ba 06 6f bc 4b b6 99 bb
       0.041706953 -0.1709619 -0.014589006 -0.0046909205
000050 95 ff e4 bd 75 5d f4 3b b7 18 9a bd 50 7f 7c bc
       -0.11181561 0.00745743 -0.07524245 -0.015411213
000060 e2 7b 44 3d 92 ec 8b 3d c8 a9 63 bd f9 71 5c bd
       0.047969706 0.068322316 -0.055581838 -0.05381963
000070 ce b7 97 3c 35 70 41 3d 22 3b 22 bd 49 a3 bd 3c
       0.018520262 0.04722615 -0.039607175 0.02314915

a2c_network.value.weight f4 [1, 32]
000000 c8 4f 27 3d 39 1c 55 3e 02 71 e7 bc 9b 0b 89 bd
       0.04084757 0.20811547 -0.028252129 -0.06691667
000010 75 60 37 be 11 67 6c 3e 9a e2 b8 bc ad 8e 92 bc
       -0.17907889 0.23086192 -0.02256899 -0.017890299
000020 52 85 a8 3c 0e 9a 85 3d 89 3b 97 3d 13 3f ac bc
       0.020571385 0.06523524 0.07384402 -0.02102617
000030 f1 7c 08 3d 32 7f 87 3d 25 88 ce bd 5a 15 ce 3d
       0.03332228 0.066160575 -0.10084561 0.10062666
000040 3d 40 3b 3e 80 66 92 3e 90 6b 03 be f8 05 25 be
       0.18286224 0.28593826 -0.12834 -0.16115558
000050 13 f4 26 3d f4 d9 43 3e a4 a3 1a bd 54 6f b8 bd
       0.04076011 0.19126111 -0.037753716 -0.09005609
000060 4d 1f eb 3c 5c a8 93 3e 3f 1e 31 3c 12 c2 19 be
       0.028701449 0.28839386 0.010810434 -0.15015438
000070 c5 87 57 3c bf 86 6c 3e c1 f9 e3 bd 30 cf 8b 3d
       0.013154929 0.23098277 -0.11131621 0.06826627

a2c_network.mu.weight f4 [7, 32]
000000 7a b0 66 bd a7 59 78 be 40 85 01 be 71 7b fa bd
       -0.056320645 -0.2425295 -0.12648487 -0.12230576
000010 7d fa 09 3e 7c 65 2e be 1b 8d 48 bd ce af 99 bd
       0.1347446 -0.170309 -0.048962694 -0.07504235
000020 c5 d5 12 be da 9b 39 3e 2f 78 a7 3d 16 e0 67 3d
       -0.14339359 0.18125859 0.0817722 0.05661019
000030 8c 7f 6c 3e d5 61 a6 bd fd 7b 2a bc 24 96 25 be
       0.2309553 -0.08124129 -0.010405538 -0.16170555
000040 fb 0b 5c be 9a 93 24 be 9e aa f6 bd f1 9f d7 bd
       -0.21488945 -0.1607193 -0.120442614 -0.10528553
000050 7e 6a 93 3e cd 1c 95 be 24 38 df bd ec 47 b0 bd
       0.28792185 -0.29123536 -0.1089938 -0.08607468
000060 84 6f 34 be 47 47 46 3e 8c 88 fc bd 25 35 42 be
       -0.17620665 0.19363128 -0.12330732 -0.18965586
000070 b9 b8 22 be 0b e7 1e 3c 50 19 d0 bd d6 6c 0c be
       -0.15890779 0.00969864 -0.10161078 -0.13713393
000080 25 73 7b 3e 18 07 f4 3c 0c 79 63 be bf a4 a8 bd
       0.24555643 0.029788539 -0.22214144 -0.08234548
000090 a9 d6 1f 3e 7a 8d 7b 3c f0 67 26 be 33 64 b3 bd
       0.1560923 0.015353555 -0.16250587 -0.08759346
0000a0 68 c8 81 bd a3 2a 28 3e 89 1c 65 be fd f3 5e 3e
       -0.063370526 0.16422515 -0.22374167 0.21772762
0000b0 40 fc 7a bd ca cc fe 3d c9 e4 82 3d a7 fe 9e 3d
       -0.06127572 0.12441404 0.063912936 0.07763415
0000c0 c3 e9 81 bd 38 8a da bd f3 50 69 be c5 34 f1 3d
       -0.06343415 -0.106708944 -0.22784786 0.11777643
0000d0 83 60 10 bd 4b fe 83 bd 12 f2 26 3e 49 ee 3b bd
       -0.03524829 -0.06444987 0.1630328 -0.045881543
0000e0 6a 01 b4 bd 86 12 0a be 0e db 06 3e 09 7c 30 3d
       -0.08789332 -0.13483629 0.131695 0.04308704
0000f0 ee 09 ad bd d8 ae 1e 3c eb c6 d1 3d f4 fb 14 bd
       -0.084491596 0.009685241 0.10243019 -0.036373094
000100 b9 d5 c7 3c 77 de 20 be f6 f5 48 be 64 72 0e be
       0.024393903 -0.15709864 -0.19625077 -0.13910824
000110 78 80 18 3d 57 b4 98 bd 89 85 a7 3c b6 2c 9a be
       0.037231892 -0.07456272 0.020449417 -0.30112237
000120 9d 86 06 3e 4a ff 8a be 5d fc ff bd aa b1 44 3e
       0.13137288 -0.27147895 -0.12499306 0.19208398
000130 1d d4 a2 3b db ad b5 bd ff 33 21 bc 47 11 18 be
       0.0049691335 -0.08871051 -0.009839057 -0.14850341
000140 b4 02 5b 3d f1 e8 cd bd 15 e5 f7 bc ac bf 61 be
       0.053469375 -0.10054196 -0.030260602 -0.22045773
000150 1c ab 48 3d b7 a1 ad bd 3d e2 05 be f0 4d 81 3e
       0.048991308 -0.0847811 -0.13074584 0.25254774
000160 ab c8 dc 3d 4c 42 c0 bd 96 d9 71 3d 57 63 20 3d
       0.10780462 -0.09387645 0.059045397 0.039157238
000170 73 44 00 3e 82 af 9b 3d 7a 1f 42 3d 7b 50 87 3e
       0.12526111 0.07601835 0.0473933 0.2642859
000180 e4 df 87 3e fe 02 19 3d c5 32 1c be d2 24 36 3e
       0.26538002 0.03735637 -0.15253742 0.17787483
000190 9f b2 c1 bd 09 ba 41 3e dd 34 24 3e 81 6f 2e 3e
       -0.094578974 0.18918623 0.1603579 0.17034723
0001a0 83 87 6e be 83 20 da 3d ed 52 09 3e ab ad 5a 3e
       -0.23293881 0.10650732 0.1341054 0.21355312
0001b0 56 c6 b9 bc be c9 23 3e a6 71 e0 3d 47 cf 17 be
       -0.022677582 0.15994927 0.10959177 -0.14825164
0001c0 09 dd 91 bc e1 5a ca 3d 81 90 de bd 0c a8 cb bd
       -0.017805593 0.09880615 -0.10867406 -0.09944162
0001d0 55 36 f1 bc 8c 65 03 bd 1b d3 a5 bd 3a 56 de bd
       -0.029444853 -0.032079265 -0.08096906 -0.1085629
0001e0 e1 1c 8e 3e c6 34 2e bd 30 63 3b be 68 79 38 3e
       0.27756408 -0.042530797 -0.18299556 0.18015063
0001f0 04 41 83 3e 95 cd 65 3d eb 00 75 3e 12 bc 11 be
       0.2563554 0.05610426 0.23926131 -0.142319
000200 ef d4 93 be 0d ae 0a 3e 75 c0 86 bd 49 c2 cd 3d
       -0.28873393 0.13542958 -0.06579677 0.100468226
000210 66 88 e0 3d bb d5 c5 3d cb 43 17 bd 43 10 1b 3e
       0.10963516 0.096599065 -0.036929887 0.15142922
000220 43 49 25 be b2 fe 23 be c4 c7 3e 3e 37 70 aa 3c
       -0.16141228 -0.16015127 0.18630892 0.020805461
000230 a6 f2 25 be b1 14 cb 3d 26 c5 29 be b0 3f b4 3a
       -0.16205844 0.09916056 -0.16579112 0.001375189
000240 94 b2 1c be e1 8a 13 3c f3 e4 10 3e 1d 77 9e bc
       -0.15302497 0.009005279 0.14149837 -0.019343907
000250 ed ee 43 bd 89 97 1a 3e f5 2a 66 3d ba d4 e2 3d
       -0.04783528 0.15096869 0.05619331 0.110757306
000260 e3 88 ee 3d 08 9a 99 bd 8f ae 43 be 20 94 fe bd
       0.11647203 -0.07500082 -0.19109558 -0.12430596
000270 a0 18 09 be 26 71 53 3d 1c 24 2a 3e 12 9e 23 3e
       -0.133883 0.05162158 0.16615337 0.15978268
000280 9d c9 c6 3d 2d 6c 47 bc 11 37 0e 3e 78 a3 5f bc
       0.097064234 -0.012171787 0.13888194 -0.013649814
000290 37 85 2a 3d a1 12 fc bd a9 97 3b 3e 29 4a b4 3c
       0.04163095 -0.12308241 0.18319573 0.022008019
0002a0 56 73 b7 bd ac a1 c8 bd 01 2b b5 3d 06 fb 1d bd
       -0.089575455 -0.097964615 0.08846093 -0.038569473
0002b0 57 e7 95 bd 8e 67 34 be ff c5 fb bd 3b 8f 72 3d
       -0.07319515 -0.17617628 -0.12293624 0.059218626
0002c0 cf 40 22 be 6d 49 ac 3d ac 51 d4 bd 50 ab 90 3d
       -0.15845035 0.08412442 -0.1036714 0.07063925
0002d0 e7 7b 3b 3d 24 00 06 3c b3 3a d2 bc 85 c8 04 bc
       0.04577246 0.008178744 -0.025662756 -0.008104448
0002e0 a4 e3 fa 3d a0 e0 94 3d 1f d6 24 bd 31 e1 f8 39
       0.1225045 0.07269406 -0.040243264 0.00047470027
0002f0 02 f9 de bd 1a bd 3d 3e 34 3e 52 3b e9 fd fb 3d
       -0.10887338 0.18529168 0.0032080533 0.12304289
000300 55 19 24 3d ab 5c 53 3d 00 a7 26 bd dc 6b e0 bd
       0.04006322 0.051602047 -0.040686607 -0.109580725
000310 8d 4e ea bc e5 24 08 3d c4 06 41 be f6 9c d4 3d
       -0.028601909 0.03323831 -0.18850237 0.103815004
000320 4a 27 12 3e 3d f5 32 3d 90 5e 6d bc 25 77 8f bc
       0.142728 0.04369091 -0.0144878775 -0.017512867
000330 1e da 70 3e 99 4c 0f bb ec 02 43 3e 5f d8 91 3c
       0.23520705 -0.0021865724 0.19044083 0.01780337
000340 9e 87 ca bc 28 f1 2e be 4d 1e 83 3d 1a 49 30 3d
       -0.02472287 -0.17084181 0.06402264 0.043038465
000350 e3 84 c4 bd af 70 0d bd 92 5c ba bc 93 25 2c be
       -0.09595659 -0.03453129 -0.02274922 -0.16811208
000360 60 da 10 bd 45 06 21 be 8f e6 8e 3d 6b c2 1d 3e
       -0.03536451 -0.15725048 0.06977569 0.15406196
000370 f8 92 cf 3d a2 60 a0 3d 30 4a 1c bd fe 8e e8 bd
       0.10135454 0.07830931 -0.03815669 -0.113553986

a2c_network.mu.bias f4 [7]
000000 69 c9 78 bd 29 96 38 be cc 86 7e bb 04 0c 42 bd
       -0.060738955 -0.18026032 -0.003883767 -0.04737474
000010 6c 41 71 bc b7 4c b3 3d 5c 7d ee bc
       -0.01472507 0.087548666 -0.02911251

exp_avg f4 [7]
000000 50 b3 cc ba a4 e5 96 3b 7c 6b b0 3a b1 83 2c bb
       -0.0015617404 0.004605012 0.0013459767 -0.0026323611
000010 3f fa 45 3b 83 cb 21 3c 23 ea 8c ba
       0.0030208973 0.009875181 -0.001075093

exp_avg_sq f4 [7]
000000 ea dc c2 39 4f 2f c7 39 0c 82 ab 39 8f 4c c6 39
       0.00037167157 0.00037991485 0.00032712554 0.00037822544
000010 f9 58 d0 39 59 4b 06 3a 59 a0 f0 39
       0.0003973914 0.0005122922 0.00045895836

exp_avg f4 [128, 18]
000000 1b eb 9c 3b a1 1f d2 3a 40 e9 f7 3b a4 19 0a 3c
       0.004788769 0.0016031155 0.0075656474 0.008428965
000010 ea 95 b5 3b a7 48 52 b9 bb cc 1c b9 71 5f e9 ba
       0.005541553 -0.00020054226 -0.00014953587 -0.0017804933
000020 40 d4 50 3b cf bc 25 3b be 52 9d 3a 60 32 28 b7
       0.0031864792 0.002528954 0.0012002809 -1.0025309e-05
000030 9b 24 71 ba 74 5a 74 3a 5a 71 f7 bb 93 73 09 bc
       -0.0009198875 0.000932134 -0.0075513544 -0.008389371
000040 56 47 51 bc 76 7e 08 bb c4 48 2c 3a f5 54 f3 3a
       -0.0127733555 -0.002082733 0.0006572122 0.0018564748
000050 a8 cc a2 3b 70 67 07 3b a9 51 00 3c c2 c0 a2 3b
       0.0049682446 0.0020661019 0.007831969 0.004966826
000060 4f c5 6f bb b2 5c 47 3b ac aa 2b 3b 9a 8a 80 3b
       -0.003658611 0.003042024 0.0026194258 0.0039227726
000070 6c 7c 4d 3b f5 e3 7c 3b c9 a4 56 3b a4 35 42 b9
       0.0031354679 0.0038588021 0.0032752028 -0.00018521264
000080 04 db aa 3a 7f e3 ac bb e2 86 1a 3a 4c 62 c0 bb
       0.0013035242 -0.005276143 0.0005894733 -0.005871093
000090 cc c7 d3 ba 81 08 bb 3a 40 45 0c 3b e1 f9 8e ba
       -0.0016157567 0.0014269502 0.002140358 -0.001090821
0000a0 6f 06 8e 3b 46 c2 8e 3b cb 33 30 bb 78 61 47 3b
       0.004334263 0.0043566553 -0.002688634 0.0030423086
0000b0 d5 9d b2 3a 82 e6 2a 3b 92 85 67 3b 68 fd 6b 3b
       0.001362736 0.0026077335 0.0035327417 0.0036009196
0000c0 72 22 72 3b 3d 4d 9b ba 0a 63 0c 3b 89 f3 0c bb
       0.00369468 -0.001184858 0.0021421337 -0.0021507463
0000d0 31 93 bc 3a d7 1c 86 bb 54 94 ab 3a 07 c1 2a 3a
       0.0014387128 -0.0040927934 0.001309047 0.00065137487
0000e0 bf 57 f9 3a 49 42 1e 3b cc 6c a5 3a 20 47 ee b9
       0.0019023343 0.0024148396 0.0012620925 -0.0004544789
0000f0 cc 1c ac 38 b9 e7 2b b9 17 bc 47 3a c3 fe 01 3a
       8.206963e-05 -0.00016394154 0.0007619275 0.0004958922
000100 68 eb 70 3a fc d7 10 b9 85 ae 34 ba 58 95 01 3a
       0.00091903517 -0.0001381337 -0.00068924605 0.00049432134
000110 c7 68 1e bb 2d 5c 19 bb 06 d9 4c bb fd 94 36 ba
       -0.002417134 -0.0023400888 -0.0031257286 -0.000696495
000120 01 e7 fa 39 3e 1e 99 3a 15 4f 3d 3b ed 17 cc 3a
       0.00047855827 0.0011681987 0.0028886248 0.0015571095
000130 1e 44 39 3b eb ac 05 3b 3b c3 9e ba b9 8a ed 3a
       0.002826936 0.0020397257 -0.0012112627 0.0018123008
000140 f8 c5 b3 3a 9c 24 a9 3a 51 65 4f 3b f6 44 0f 3b
       0.0013715615 0.0012904587 0.0031646083 0.0021861172
000150 c5 4a c2 3a ab fe 83 ba db d2 fd 35 0b 66 3b bb
       0.0014823308 -0.0010070404 1.8911336e-06 -0.0028594758
000160 58 20 bc ba 06 97 1f bb c8 ae 2f ba 10 60 55 3a
       -0.0014352901 -0.0024351492 -0.00067017647 0.00081396196
000170 18 33 d6 3a 37 7c 80 38 05 ce 4a 3b 00 79 4d 3b
       0.0016342131 6.1266524e-05 0.003094555 0.003135264
000180 35 a9 fc ba f3 9c 41 3a 51 b8 93 3a ed db e9 3a
       -0.0019276502 0.0007385753 0.001127014 0.0017842032
000190 63 66 9a 3a fc 5c 47 3b c7 1b 12 3b 43 a7 16 ba
       0.0011779781 0.0030420413 0.0022294389 -0.000574697
0001a0 01 b7 1b 3a 15 c4 71 ba 15 94 0b ba f3 58 d6 ba
       0.00059400505 -0.0009222639 -0.0005324495 -0.0016353413
0001b0 79 5a 8a 3a 30 b8 df 3a e5 36 95 3b db 75 5d 3b
       0.0010555527 0.0017068442 0.004553663 0.003379217
0001c0 9c 39 9c 3b b4 39 38 3b 45 86 28 ba ac a1 24 38
       0.0047676098 0.0028110566 -0.0006428699 3.9251216e-05
0001d0 8b 91 15 3b 24 d4 0c 3b 51 73 35 3b 4f d2 3a 3b
       0.0022822346 0.002148875 0.0027687142 0.0028506701
0001e0 52 0a b6 3a 38 64 dd b9 17 67 44 bb 2f e5 99 bb
       0.0013888574 -0.00042227074 -0.0029968673 -0.0046965103
0001f0 bb 09 db bb fc 12 19 bb 9a af c9 3a fd 14 01 3b
       -0.0066845096 -0.0023357263 0.0015387416 0.0019696348
000200 54 0e b5 3b 25 b7 89 3b b5 d2 b2 3b 8a a6 4c 3b
       0.0055253897 0.0042027407 0.005457247 0.0031227195
000210 da 78 9f ba b5 a0 f2 3a 8d 94 2a 3b 94 0b 3a 3b
       -0.0012166754 0.0018511029 0.0026028485 0.0028388249
000220 69 f6 86 3b 40 ca 21 3b 29 fa 0b 3a 68 bf 63 ba
       0.00411873 0.00246872 0.0005339706 -0.00086878845
000230 a5 09 5f bb 37 4b ce bb ea 65 cd bb f4 71 83 bb
       -0.0034032848 -0.0062955874 -0.0062682526 -0.004011387
000240 20 aa 5a bb df d4 55 ba 35 e4 8e bb 96 3a af bb
       -0.0033365563 -0.00081570254 -0.0043607005 -0.00534756
000250 29 6d 4a bb 36 54 51 3a c9 5b 28 3a a1 c0 35 3a
       -0.0030887818 0.00079852657 0.00064223685 0.0006933306
000260 26 06 de ba 8c 3b db ba 34 fc 0d 39 5f 4d 8e b9
       -0.0016939088 -0.001672612 0.00013540761 -0.00027141997
000270 03 7d d2 39 3e 23 76 ba 60 94 54 3b 1b ef 92 3b
       0.00040147462 -0.0009389407 0.0032437071 0.00448407
000280 56 2b 9e 3b f6 b2 da 3a 0a 53 b6 3a 0f bd d7 39
       0.0048269434 0.0016685415 0.0013910246 0.00041148855
000290 9e 00 0c 3b 6c 47 1c 3b 9f 8f b6 3a 93 33 f1 b9
       0.0021362673 0.0023846282 0.00139283 -0.00046005528
0002a0 01 31 58 38 71 94 97 39 2a dd 3e 3a f2 81 36 39
       5.154405e-05 0.00028911562 0.0007280881 0.00017405281
0002b0 c1 46 54 3a d3 8e 41 b9 92 ce a2 ba fa 5d 98 39
       0.00080977014 -0.0001845912 -0.0012421182 0.00029061717
0002c0 bb c8 fe ba e9 62 13 bb 27 13 0a bb c8 3b 3e ba
       -0.0019438484 -0.0022489375 -0.0021068545 -0.0007256833
0002d0 2c 36 a8 3a 23 a6 e3 3a f1 f4 ab 3b b9 68 46 3b
       0.0012833527 0.0017368238 0.005247705 0.0030274822
0002e0 ef f9 c2 3b b4 50 91 3b 0d 22 4c bb 8c a2 32 3b
       0.0059502046 0.0044346694 -0.0031148226 0.002725753
0002f0 10 7a 21 3b a6 ac 6c 3b 30 2f 7b 3b ae b8 5b 3b
       0.0024639405 0.0036113649 0.0038327686 0.0033526826
000300 bf 0c 51 3b e0 d3 5e ba 3d f8 40 ba be 4e a3 bb
       0.0031898466 -0.00085002 -0.0007361209 -0.004983752
000310 f1 6b 16 bb 2b 04 9d bb 05 f1 72 bb d6 b6 23 ba
       -0.0022952522 -0.0047917566 -0.0037069928 -0.0006245201
000320 f5 f6 1b bb 2f 97 a3 bb c6 a6 2e ba 1f 6b d5 3a
       -0.002379832 -0.0049923877 -0.00066624244 0.0016282535
000330 cc 16 ac 38 f5 33 de 3a 6b c1 61 ba bb e3 c5 b9
       8.2058454e-05 0.001695274 -0.00086118904 -0.0003774444
000340 aa b1 c4 39 b5 89 44 37 ef 16 29 3a 70 85 c8 39
       0.00037516403 1.1714573e-05 0.0006450256 0.0003824639
000350 04 9b 91 3b 83 2f 06 3b 04 99 ba 3b e0 44 48 ba
       0.004443528 0.0020475097 0.0056945104 -0.00076396577
000360 82 ab ed 3a 83 01 cf 38 40 da 10 3b f5 00 05 3b
       0.0018132778 9.870811e-05 0.0022102743 0.002029476
000370 e1 b7 d8 3a e7 79 b4 39 8b 95 a1 ba 91 a4 2a 39
       0.0016534292 0.000344231 -0.0012327892 0.00016273769
000380 02 d5 32 3a 3b 4e 25 3a 2b f3 24 b9 3e 45 06 b9
       0.0006821902 0.0006305908 -0.00015730846 -0.0001280503
000390 ca a4 00 39 07 a9 a4 39 81 60 f8 b9 ba e1 f4 ba
       0.0001226842 0.00031406453 -0.00047374147 -0.0018682994
0003a0 34 0b 13 ba 5e 0b 88 ba a2 32 2e bb 6b e0 19 ba
       -0.00056092744 -0.0010379364 -0.0026580472 -0.00058699277
0003b0 a1 aa 6d bb 80 94 86 bb 43 1a 04 bb 5a 6e fb 3a
       -0.0036265033 -0.004107058 -0.0020157255 0.0019182668
0003c0 63 d6 17 ba 71 a3 52 3a 0a 6b 97 ba e1 cb 9a ba
       -0.0005792139 0.0008035219 -0.0011552286 -0.0011810028
0003d0 17 d1 f4 b7 62 73 27 3a a3 86 47 3a 95 55 dc b9
       -2.9184432e-05 0.0006387738 0.000761131 -0.00042025434
0003e0 78 fe 0c 3b e1 75 94 3b d8 67 86 3b b6 3d ba 3a
       0.002151398 0.004530654 0.0041017346 0.0014209065
0003f0 ac 7b 09 ba 03 b6 82 b9 14 de 8f ba ea 50 8d ba
       -0.0005244564 -0.00024931142 -0.0010976219 -0.001078156
