runs/BallBalance_11-14-47-27/nn/BallBalance.pth (torch, 172255 bytes, 36 tensors)

value_mean_std.running_mean f8 [1]
0	0x3fc2017ccc9c6b92	0.1406703948094586

value_mean_std.running_var f8 [1]
0	0x3f76e90a84715854	0.00559333904592137

value_mean_std.count f8 []
0	0x409b840000000000	1761.0

running_mean_std.running_mean f8 [18]
0	0xbfae0e91ffb59c9e	-0.05870491262867826
1	0x3fbd2bede556e213	0.11395155762773639
2	0xbfbe96c690768e62	-0.11948815371447943
3	0xbfc56b8673de4af8	-0.16734390885957118
4	0x3f78a37ab0ac05ce	0.006015280969906068
5	0xbfb0173669fd181e	-0.0628541954766608
6	0xbfb9783c772328fb	-0.09949090870501102
7	0xbfca78fa1f61ecd3	-0.2068169263110123
8	0x3fe3d209cb061a27	0.6193894353207882
9	0xbfd0ffa273245286	-0.2656026958878005
10	0xbfe1a945b0208b7b	-0.5519131126387572
11	0x3fac17ee3735c1d2	0.054870075454235626
12	0xbfc4cd19c0822dec	-0.16250917339162585
13	0xbfc0bd9d201be544	-0.1307865530759874
14	0x3fbcd7103735c1d0	0.11265660617733109
15	0x3fc2f387a18fd628	0.14805693997156877
16	0xbfd1fd8f6c01298d	-0.28110108897512803
17	0x3fbbfc2fc597f908	0.10931681226790968

running_mean_std.running_var f8 [18]
0	0x3faec6bc14afdf93	0.06010997536208076
1	0x3fa116f9cb722ae8	0.03337841614218978
2	0x3fb97b10475c8cd5	0.09953405134415345
3	0x3fc126a9ae8c1748	0.133992395618572
4	0x3f9ab14d164c0e82	0.026066975103289376
5	0x3f95fd1b0ba878b1	0.021473333918145602
6	0x3f883543ad6f1121	0.011820343714028571
7	0x3ff6529388c4dc28	1.3951602308786821
8	0x3fe894e5780c2979	0.7681758255651366
9	0x4005d8d020778825	2.7308657204130378
10	0x4005c5c8edac61b3	2.72157464678113
11	0x3fe51cdc6166adba	0.6597730543484694
12	0x3feedc137a8482b9	0.9643647568628558
13	0x3ff36484c730334e	1.2120406895439433
14	0x3f7cba7e4dd36f15	0.007013791441945268
15	0x3f792a461180371d	0.006143830971280709
16	0x3fc453fde527079d	0.15881322564206082
17	0x3fc0de8ba3051631	0.13179154834704002

running_mean_std.count f8 []
0	0x408b880000000000	881.0

a2c_network.sigma f4 [7]
0	0xbdb417e7	-0.087936215
1	0xbe8035cf	-0.25041053
2	0xbe07c396	-0.13258204
3	0xbd9b7032	-0.07589759
4	0xbdc812c1	-0.09769202
5	0x3d270242	0.040773638
6	0xbe0f7166	-0.14008102

a2c_network.actor_mlp.0.weight f4 [128, 18]
0	0xbd42996f	-0.047509607
1	0xbbf26ea1	-0.007398442
2	0xbe8cf757	-0.27532455
3	0x3caf9128	0.02143152
4	0x3d952a90	0.07283509
5	0x3d9061f0	0.0704993
6	0x3bc35020	0.0059604794
7	0xbd118161	-0.035523776
8	0xbc28a2bc	-0.010292705
9	0xbe082757	-0.13296257
10	0x3c8d1b2d	0.017224872
11	0xbded6599	-0.11591644
12	0x3e27a66a	0.16372076
13	0xbd8f24b8	-0.069894254
14	0x3e86d55e	0.2633466
15	0xbe2dd601	-0.16976167
16	0xbdfea230	-0.124332786
17	0x3d966349	0.07343156
18	0x3d255d9f	0.040372487
19	0x3e5dc343	0.21656518
20	0x3d47983b	0.048729163
21	0xbdc37a11	-0.09544767
22	0x3e0b3b1c	0.13596767
23	0xbc58536d	-0.013203484
24	0x3df44764	0.11927679
25	0x3e7441ad	0.23853178
26	0x3e6938f4	0.22775632
27	0xbe00554c	-0.12532538
28	0x3dbb7837	0.091537885
29	0xbb9a3b8b	-0.004706805
30	0x3e2e35b9	0.17012681
31	0xbe6d45b7	-0.23171125
32	0xbdd3785d	-0.10325692
33	0xbe2d1ed7	-0.16906296
34	0xbe8b93af	-0.2726111
35	0x3de0a96c	0.10969815
36	0x3ccf2b89	0.025289314
37	0x3d950e16	0.07278077
38	0x3d1a4fc7	0.037673738
39	0xbd888807	-0.0666657
40	0x3e910e63	0.2833129
41	0xbe2c46b4	-0.16823846
42	0x3d9eb1b9	0.07748742
43	0xbe38682e	-0.18008491
44	0x3e17c2f8	0.14820468
45	0xbe269d71	-0.16270997
46	0xbd5a2edb	-0.05326734
47	0xbd7c1dc7	-0.061551835
48	0x3e3fee4e	0.1874325
49	0xbde968b5	-0.113969244
50	0xbd9ac768	-0.07557565
51	0xbebcf0a1	-0.36902335
52	0x3dd5cfaa	0.104399994
53	0x3cfc2d14	0.030783214
54	0x3e5cca97	0.21561657
55	0xbe8c99f3	-0.27461204
56	0xbe94a032	-0.2902847
57	0xbdffd57c	-0.12491891
58	0xbe1f0f49	-0.15533175
59	0x3e08e434	0.13368303
60	0x3e182b8a	0.14860359
61	0x3e43b316	0.19111285
62	0xbd725d54	-0.059171036
63	0xbe35854a	-0.17726627
64	0x3e1faca8	0.15593207
65	0xbdd183c2	-0.10230209
66	0x3d0ca4f3	0.034336995
67	0xbcdfd2fc	-0.027322285
68	0x3e9e03a0	0.3086214
69	0xbe913c5e	-0.2836637
70	0x3ccda39e	0.025102433
71	0x3d37c0a6	0.04486146
72	0x3e3f33d9	0.18672122
73	0xbe6fe352	-0.2342656
74	0x3e4b906e	0.19879314
75	0x3e925eec	0.28588045
76	0xbe1e2514	-0.15443832
77	0xbe3a9281	-0.1821995
78	0x3e18fce6	0.14940223
79	0xbdfcbf29	-0.123411484
80	0xbeb41afd	-0.3517684
81	0xbe891ac5	-0.26778236
82	0xbeb12ac4	-0.3460294
83	0x3dfc5c1e	0.123222575
84	0xbd451f56	-0.048125587
85	0xbddd95c0	-0.10819578
86	0x3bc5b35c	0.006033344
87	0xbe81b7c2	-0.2533551
88	0x3bf04e43	0.0073335483
89	0xbe264b44	-0.16239649
90	0x3cb13b53	0.021634733
91	0xbe2c7952	-0.16843155
92	0x3e6be47e	0.23036382
93	0x3e03b3da	0.12861577
94	0x3c9d4539	0.019198047
95	0xbe49de60	-0.19713736
96	0xbddbb7e4	-0.10728434
97	0x3e02c290	0.12769532
98	0xbd84a66a	-0.064770535
99	0xbe21afa8	-0.15789664
100	0xbe3f93f0	-0.18708777
101	0xbca90efa	-0.020637024
102	0xbc09e3f3	-0.008416164
103	0xbdf5667e	-0.119824395
104	0xbd69ca2c	-0.05707757
105	0xbd1bc1c5	-0.03802659
106	0xbe283133	-0.16425018
107	0xbe07658f	-0.13222335
108	0xbdb7c997	-0.08973997
109	0xbdd5c39f	-0.104377024
110	0x3d826ece	0.063687906
111	0xbda7e336	-0.08197634
112	0x3e5f9bd5	0.21836789
113	0xbc7a2bbe	-0.015269218
114	0xbe2c74fd	-0.16841502
115	0x3ec0ee36	0.3768174
116	0x3dd737cf	0.105086915
117	0xbe2e6144	-0.17029291
118	0xbe8ee791	-0.27911046
119	0xbe83a5d0	-0.25712442
120	0x3dbca6c3	0.09211495
121	0xbdd52184	-0.10406783
122	0x3de05dc1	0.10955382
123	0xbe67dda8	-0.22643149
124	0x3d5ce33d	0.05392765
125	0xbd4378f7	-0.047722783
126	0xbdf8d736	-0.12150423
127	0x3c35bf53	0.0110929785
128	0x3d44ca9e	0.048044793
129	0x3e24394e	0.16037485
130	0x3e917ba4	0.28414643
131	0xbe4cb100	-0.19989395
132	0x3c98ceeb	0.018653354
133	0xbe68d097	-0.2273582
134	0x3b874147	0.0041276547
135	0xbe77d322	-0.24201635
136	0x3e4ccf7e	0.20001027
137	0xbe145be8	-0.14488184
138	0x3d8983e2	0.06714608
139	0x3e097f3d	0.13427444
140	0x3e049083	0.12945752
141	0xbeb58849	-0.3545554
142	0x3e7d13ef	0.24714635
143	0x3dacc3f9	0.08435816
144	0x3d3a0fc3	0.045425188
145	0xbe9e3495	-0.30899492
146	0x3d975bc4	0.0739055
147	0xbd1f4e25	-0.038892884
148	0xbce57bb2	-0.028013084
149	0x3e1fc07e	0.15600774
150	0xbd88af2d	-0.06674037
151	0xbd8f4eb0	-0.0699743
152	0xbe6cb6aa	-0.23116556
153	0xbe1d1a4f	-0.15342067
154	0x3c835a91	0.016034396
155	0xbcb22c9c	-0.021749787
156	0xbde5e49c	-0.112252444
157	0xbda1e5a3	-0.07905128
158	0xbe990e1e	-0.29893583
159	0xbd2cca25	-0.042184968
160	0x3e4bdc58	0.19908273
161	0xbe10a504	-0.14125448
162	0x3d918464	0.0710533
163	0x3d870356	0.06592433
164	0xbc47e84b	-0.012201379
165	0xbddff0ba	-0.10934587
166	0x3cf578a3	0.02996475
167	0x3de3b3a5	0.11118249
168	0x3dc6863c	0.09693572
169	0xbcfee6e0	-0.03111595
170	0x3b99f408	0.0046982802
171	0x3d7dc916	0.06195935
172	0xbc444030	-0.011978194
173	0xbe04aad4	-0.12955791
174	0x3e540e46	0.2070857
175	0x3dbaa9ab	0.09114393
176	0xbc84a752	-0.016193066
177	0xbd9858fb	-0.07438847
178	0xbe7871f4	-0.2426222
179	0x3d3d0ee6	0.046156786
180	0x3de32585	0.11091141
181	0x3e432c6c	0.19059914
182	0xbe93469e	-0.28764814
183	0x3d039ae3	0.032130133
184	0x3e7564c9	0.23964228
185	0x3d9529c6	0.07283358
186	0x3db41dc6	0.08794741
187	0xbe94231c	-0.28933036
188	0xbc6236fc	-0.013807055
189	0xbe545b72	-0.20738009
190	0xbd61eefb	-0.05515955
191	0x3dbf14e5	0.09330157
192	0x3e181a85	0.14853866
193	0x3e35329b	0.17695086
194	0xbe17a30b	-0.1480829
195	0xbe87bf4b	-0.26513132
196	0x3a087da3	0.00052067096
197	0x3e28940c	0.16462725
198	0xbe049d31	-0.12950589
199	0xbe158204	-0.14600378
200	0x3e007424	0.12544304
201	0xbd7a5757	-0.06111845
202	0xbdbf6911	-0.09346212
203	0x3e4871ad	0.19574614
204	0xbe5163b8	-0.20448196
205	0xbdc80eca	-0.09768446
206	0xbe81dd0a	-0.25363952
207	0x3d348da8	0.044080406
208	0x3de1d8a5	0.1102765
209	0x3e36897f	0.17825888
210	0xbe7bac14	-0.24577361
211	0xbe5f7be9	-0.21824612
212	0xbde93eec	-0.113889545
213	0x3dc3b522	0.09556033
214	0x3e7f414f	0.24927257
215	0x3e7a9c36	0.24473652
216	0x3e857cab	0.26071677
217	0x3d5a6700	0.053320885
218	0x3da4033a	0.08008428
219	0xbce334ad	-0.027735079
220	0xbe5d9ba9	-0.21641411
221	0xbe2ed207	-0.17072307
222	0x3d82ff7e	0.063963875
223	0xbdcd133d	-0.10013435
224	0xbe4530c1	-0.1925688
225	0xbe292bf8	-0.16520679
226	0xbd9f205a	-0.077698424
227	0xbda7eab4	-0.08199063
228	0xbe5a3699	-0.2130989
229	0xbd51f8b7	-0.051262584
230	0xbe1e2b2a	-0.15446153
231	0x3e8189d3	0.25300464
232	0x3d3b207b	0.045685273
233	0xbe547309	-0.20747007
234	0xbdd9deb3	-0.1063818
235	0xbe16efb8	-0.14739883
236	0xbda5701d	-0.080780245
237	0xbea456cc	-0.3209747
238	0x3d882c63	0.06649091
239	0xbde0439b	-0.10950395
240	0x3e1d78e3	0.15378146
241	0x3e1fe666	0.15615234
242	0x3e54190e	0.20712683
243	0xbe1303b8	-0.14356887
244	0x3e659ca2	0.22423032
245	0xbe51641a	-0.20448342
246	0x3e2a4024	0.1662603
247	0x3e15c305	0.14625175
248	0x3d1d5b81	0.038417343
249	0x3d4d167e	0.05007028
250	0xbe2554af	-0.16145585
251	0xbe3450bb	-0.17608921
252	0x3e902f08	0.28160882
253	0xbeb8092b	-0.35944495
254	0x3dee3a98	0.116322696
255	0x3e77fd50	0.24217725

a2c_network.actor_mlp.0.bias f4 [128]
0	0x3de484aa	0.11158116
1	0x3dc8555a	0.097819045
2	0x3d8cd000	0.0687561
3	0x3e0350b3	0.12823753
4	0x3b857c10	0.0040736273
5	0xbd978c45	-0.07399801
6	0x3d355e3e	0.04427933
7	0x3bc69dc0	0.0060612857
8	0xbce11d0c	-0.027479671
9	0xbd2ccc0d	-0.042186785
10	0xbd6d777b	-0.057975274
11	0x3cb8ea1d	0.022572571
12	0xbc81fa2b	-0.01586636
13	0x3dfe3a05	0.1241341
14	0x3d0f8caf	0.035046276
15	0xbca63d1c	-0.020292811
16	0xbd0c4441	-0.03424478
17	0xbd8caaac	-0.068684906
18	0xbdad850e	-0.08472644
19	0xbdc3cf8f	-0.09561073
20	0x3dc32ca2	0.095299974
21	0x3d17d629	0.037069473
22	0xbc417755	-0.011808236
23	0xbddb7a42	-0.10716678
24	0x3dc86a37	0.09785884
25	0x3d69e2fa	0.057101227
26	0x3c255d9b	0.010093118
27	0x3cb13857	0.02163331
28	0xbd82139d	-0.06351397
29	0x3d8361fe	0.06415175
30	0x3c3a48c2	0.011369886
31	0xbcce016a	-0.025147159
32	0xbd938f74	-0.07205096
33	0x3e097463	0.13423304
34	0xbdc80ab6	-0.09767668
35	0xbdd78a15	-0.10524384
36	0x3d28ff38	0.04125902
37	0xbd9b45a3	-0.075816415
38	0x3d1d01c5	0.038331766
39	0xbd28eb37	-0.041239943
40	0xbb70ea44	-0.0036760727
41	0xbd80db7f	-0.062918656
42	0xbdfe2b50	-0.12410605
43	0x3db1c45a	0.08680029
44	0x3cd176a0	0.02556926
45	0x3d8bb889	0.06822307
46	0xbdd8f42a	-0.105934456
47	0x3dec8702	0.11549188
48	0x3c5ded4b	0.013545345
49	0x3d81fa3b	0.06346556
50	0xbe015c3f	-0.12632845
51	0xbe03f164	-0.12885052
52	0xbe2404fa	-0.16017523
53	0xbccefe4d	-0.025267744
54	0xbce0cc2b	-0.027441105
55	0x3bd4741d	0.0064835683
56	0xbe325ed4	-0.17418987
57	0xbd12e3f2	-0.035861917
58	0x3db4e8ad	0.08833442
59	0xbb9c2c5c	-0.0047660302
60	0x3da4f6a3	0.08054855
61	0xbdb52de7	-0.08846646
62	0xbd14fa82	-0.036371715
63	0xbc9dfca6	-0.019285511
64	0x3ac74584	0.0015203212
65	0xbd30c1cb	-0.043153565
66	0x3c0ae211	0.00847675
67	0xbde2b695	-0.11069981
68	0x3d092b46	0.033488534
69	0x3d45dd41	0.048306707
70	0xbd0f996c	-0.035058424
71	0xbd050906	-0.03247931
72	0xbd401098	-0.046890825
73	0xbd4f30d5	-0.05058368
74	0x3d71ca58	0.05903086
75	0xbbef00a2	-0.0072937766
76	0x3cb492e4	0.0220427
77	0xbd06fc16	-0.03295525
78	0xbe20fe5d	-0.15722032
79	0x3cdc5597	0.026896281
80	0xbdccf3da	-0.100074485
81	0x3cd0dcc2	0.02549589
82	0xbd7b970c	-0.061423346
83	0x3bec57ab	0.0072125993
84	0xbdaf6486	-0.08564095
85	0xbcc2b2e6	-0.023766946
86	0x3c5f7285	0.013638143
87	0x3e092e78	0.13396633
88	0x3dac2ad3	0.084066056
89	0xbd591960	-0.053002715
90	0xbbb1fb45	-0.005431565
91	0xbdb29bd0	-0.08721125
92	0x3d330b0b	0.043711703
93	0xbdae427c	-0.08508775
94	0xbd9e9027	-0.07742339
95	0xbdca4c0a	-0.098777846
96	0x3de61b65	0.11235694
97	0xbe0ca035	-0.13732989
98	0xbc9dc95e	-0.019261058
99	0x3d432b2e	0.0476486
100	0x3d2b7017	0.041854944
101	0xbc81387c	-0.015774004
102	0xbdda54ed	-0.106607296
103	0x3d96e053	0.07367005
104	0x3c82e126	0.0159765
105	0x3d45c7d9	0.048286293
106	0x3d134e44	0.03596331
107	0xbd8cb59d	-0.068705775
108	0x3de39e91	0.111142285
109	0xbd1daa55	-0.03849252
110	0xbce8399d	-0.028347785
111	0xbda95282	-0.0826769
112	0xbe3969db	-0.18106787
113	0xbda6534c	-0.08121356
114	0x3be9248c	0.0071149524
115	0x3d5986c2	0.05310703
116	0x3d9ccbab	0.07656034
117	0xbdaf2530	-0.08552015
118	0xbd993b53	-0.07482018
119	0x3d9fd448	0.07804161
120	0xbd82970e	-0.06376468
121	0xbddb93d4	-0.10721555
122	0x3d0457d6	0.03231033
123	0xbc28036a	-0.01025472
124	0xbc64c740	-0.0139635205
125	0xbdcd0688	-0.10011011
126	0xbd92a33f	-0.07160043
127	0x3cf372af	0.029717771

a2c_network.actor_mlp.2.weight f4 [64, 128]
0	0xbce1a4f1	-0.02754447
1	0x3e0f248b	0.13978784
2	0x3c50eaa7	0.012751258
3	0x3c8ed5d3	0.017435944
4	0x3e0a330e	0.13496038
5	0x3d644699	0.05573139
6	0x3d126fcb	0.035751145
7	0xbcd5fbe2	-0.026121084
8	0x3d8b6f60	0.068083525
9	0xbdbe20d5	-0.09283606
10	0x3d00c6a6	0.031439446
11	0xbdf10459	-0.117684074
12	0x3e5c9b49	0.21543612
13	0x3dacc17b	0.08435341
14	0x3d92ea2c	0.07173571
15	0x3d13aff6	0.03605648
16	0xbd387ce1	-0.04504097
17	0xbd05933b	-0.032611113
18	0x3cf88e02	0.030341152
19	0xbdf9938e	-0.12186347
20	0xbc229ca3	-0.00992504
21	0xbd449082	-0.047989376
22	0xbdc32afd	-0.09529684
23	0xbbe1e5a2	-0.0068938294
24	0x3b905aad	0.0044053406
25	0x3cbbf1e3	0.022942489
26	0x3d552f38	0.052046984
27	0x3da866b6	0.082227156
28	0x3cbf6b5f	0.023366628
29	0xbde6b877	-0.112656526
30	0x3d1f05a9	0.038823757
31	0xbba48a65	-0.0050213807
32	0x3d9f675f	0.07783388
33	0x3d673cad	0.05645435
34	0xbd8f5215	-0.06998078
35	0xbd196e84	-0.03745891
36	0xbc18739a	-0.009304905
37	0xbd37ca8b	-0.044870894
38	0xbd36be47	-0.044615056
39	0x3d950232	0.07275809
40	0xbd985f40	-0.074400425
41	0x3d582abc	0.05277513
42	0x3bbbfc78	0.0057368837
43	0xbd6cb0df	-0.057785865
44	0xbd4ffc55	-0.050777752
45	0x3ca5db4c	0.02024617
46	0xbc705693	-0.014669078
47	0xbd333597	-0.04375228
48	0x3c3c67f0	0.01149939
49	0xbda13163	-0.07870748
50	0x3e001b92	0.12510517
51	0xbda85bc5	-0.08220629
52	0xbdcacfae	-0.09902893
53	0xbb929aa6	-0.004474002
54	0xbccae92f	-0.024769394
55	0xbdbbb53e	-0.091654286
56	0xbd1ca166	-0.03823986
57	0x3da505c0	0.08057737
58	0x3c9103bf	0.017701982
59	0xbd084ca8	-0.03327623
60	0xbcfafc81	-0.030637981
61	0x3df2ba60	0.118519545
62	0x3bc65df8	0.0060536824
63	0x3ce648ab	0.028110823
64	0x3daa0c46	0.08303122
65	0x3d65f5fe	0.0561428
66	0x3d0c864a	0.034307756
67	0x3d9068b9	0.07051224
68	0x3da626a3	0.08112838
69	0xbd196460	-0.03744924
70	0xbd02c12e	-0.03192251
71	0xbde25508	-0.11051375
72	0xbdada4ff	-0.08478736
73	0x3e333575	0.17500861
74	0x3d739b2e	0.059474163
75	0x3d277faf	0.040893253
76	0x3d8f5a19	0.06999607
77	0xbd46eb8f	-0.04856449
78	0x3d280bb6	0.041026793
79	0x3ce9418c	0.028473638
80	0x3cceabf4	0.025228478
81	0xbd9cac47	-0.07650047
82	0xbcacb1b6	-0.021080833
83	0xbd9c1668	-0.07621461
84	0x3b970740	0.0046090186
85	0x3c2997fa	0.010351175
86	0x3cb844ec	0.022493802
87	0x3d896def	0.06710421
88	0xbcd1c0fe	-0.025604721
89	0xbb8729aa	-0.00412484
90	0x3dd66ddc	0.10470173
91	0x3d4c8357	0.049929943
92	0xbc69b709	-0.01426483
93	0xbd9a775b	-0.075422965
94	0x3dd6194d	0.104540445
95	0xbd93916e	-0.07205473
96	0xbd52e956	-0.051492058
97	0xbd181346	-0.037127756
98	0xbdbd8cae	-0.09255348
99	0x3d7eb425	0.062183518
100	0x3c02a8a1	0.007974775
101	0xbd57027c	-0.052492604
102	0xbd5e10be	-0.054215185
103	0xbe0f14c0	-0.13972759
104	0x3d0a1d4a	0.03371934
105	0xbde0cbc7	-0.109763674
106	0xbdae7d5c	-0.08520004
107	0x3cfb6837	0.030689342
108	0x3a8e06ca	0.0010835764
109	0xbd3d26f8	-0.04617974
110	0x3c8dfff1	0.017333956
111	0x3e663edf	0.22484921
112	0x3ceda412	0.029008899
113	0xbd8d95b3	-0.069133185
114	0xbcd816a3	-0.026377982
115	0xbc76d313	-0.015064972
116	0xbdc459eb	-0.09587463
117	0x3dde1799	0.10844345
118	0x3da0a498	0.07843894
119	0xbcb2660a	-0.021777172
120	0x3d8ab0e0	0.067720175
121	0xbd74ada9	-0.059735928
122	0xbd53c7e9	-0.05170432
123	0x3daa4bcd	0.08315239
124	0x3d0fbe2e	0.03509348
125	0x3dc88e88	0.09792811
126	0x3d9bbf26	0.07604818
127	0x3c2e6051	0.010643081
128	0xbd99d2b0	-0.075108886
129	0xbc84439a	-0.016145516
130	0x3d9f5835	0.07780496
131	0xbd827d1e	-0.063715205
132	0x3e6f39c8	0.23361886
133	0x3cb6a7ae	0.022296753
134	0xbccab89c	-0.024746232
135	0x3c5e06aa	0.0135513935
136	0x3dc91874	0.09819117
137	0xbcbe1bb5	-0.023206571
138	0x3dcd8be4	0.10036448
139	0xbcedf4b7	-0.029047353
140	0x3be1d381	0.0068916683
141	0xbd456563	-0.048192393
142	0x3dff030f	0.12451755
143	0x3d73162e	0.059347324
144	0xbd1192a0	-0.035540223
145	0xb857360c	-5.131033e-05
146	0xbd6d5334	-0.057940677
147	0x3d4cc4bb	0.049992304
148	0x3d5c33ab	0.053760212
149	0x3d844df6	0.06460182
150	0xbdb5ffe8	-0.08886701
151	0xbda2dab6	-0.07951872
152	0xbc64a221	-0.01395467
153	0x3e175cfb	0.14781563
154	0x3d6d6725	0.057959694
155	0x3dadc2c2	0.08484413
156	0x3af21082	0.0018468054
157	0xbd86e0a3	-0.06585815
158	0x3df655a2	0.12028052
159	0xbddf8b68	-0.109152615
160	0x3d34c692	0.044134684
161	0xbd8d34bd	-0.06894825
162	0x3e0ab49c	0.1354546
163	0xbd22c262	-0.03973616
164	0xbdfb702e	-0.12277256
165	0xbda86230	-0.08221853
166	0xbd31211f	-0.043244477
167	0x3dae1593	0.08500209
168	0x3dfbe3a1	0.12299276
169	0xbe0746b7	-0.1321057
170	0xbd5a09e5	-0.053232092
171	0xbc89e883	-0.016834503
172	0xbddcc7a1	-0.10780264
173	0x3d6a3c96	0.057186686
174	0xbdbfabc0	-0.093589306
175	0x3bc92f0e	0.0061396426
176	0xbd7c3074	-0.061569646
177	0x3d82cff9	0.06387324
178	0x3d3dede1	0.046369437
179	0xbd031719	-0.03200445
180	0x3db38d3d	0.087671734
181	0x3c65bce9	0.0140220905
182	0x3c132e43	0.008983198
183	0x3e015b45	0.12632473
184	0xbd8b9e93	-0.06817355
185	0x3b9bb886	0.0047522215
186	0xbc9ce5a3	-0.019152468
187	0xbd680eaf	-0.05665463
188	0xbd8977ac	-0.06712279
189	0x3dda88ff	0.10670661
190	0xbca54fa9	-0.020179586
191	0xbd9c63c9	-0.0763622
192	0x3d51808e	0.05114799
193	0x3dd9cdf3	0.10634985
194	0xbde5303f	-0.11190843
195	0xbd053746	-0.032523416
196	0x3d60fb4f	0.054927167
197	0xbdda7acc	-0.10667953
198	0xbc38590a	-0.011251697
199	0xbd77b863	-0.06047858
200	0xbde87683	-0.11350729
201	0xbbff8446	-0.0077977506
202	0x3d5b80f6	0.053589784
203	0xbd8f565a	-0.06998892
204	0xbde133df	-0.10996222
205	0xbdd85da1	-0.10564733
206	0xbc30ad84	-0.010783557
207	0xbdd0ec86	-0.10201363
208	0xbd855a30	-0.065113425
209	0xbc56747c	-0.0130892955
210	0xbe0d1ebe	-0.13781258
211	0xb9ce0972	-0.0003929842
212	0xbd4bb72a	-0.049735226
213	0xbd8edffc	-0.069763154
214	0x3c2db181	0.010601402
215	0xbdc8c089	-0.09802348
216	0xbda94c22	-0.08266474
217	0x3d6df5dd	0.0580958
218	0x3d7dabac	0.061931297
219	0x3ad6c011	0.0016384145
220	0xbc7f9a35	-0.015600731
221	0xbd8f262b	-0.06989702
222	0xbda56add	-0.08077023
223	0xbd2666b1	-0.040625278
224	0xbdec6a52	-0.115437165
225	0x3cd1774f	0.025569586
226	0x3d8bcd5d	0.06826279
227	0xbdaef03e	-0.08541916
228	0x3cda71e4	0.026665635
229	0xbd4f685d	-0.050636638
230	0xbc1208ce	-0.008913232
231	0xbdc8cced	-0.098047115
232	0xbdd3355b	-0.10312911
233	0xbdcad35e	-0.09903596
234	0xbd7b029f	-0.061281797
235	0xbb0978e4	-0.0020976597
236	0xbe0d5c8e	-0.13804838
237	0x3d886f48	0.0666185
238	0xbdbfbe6e	-0.093624935
239	0x3d2adc96	0.041714273
240	0x3d6c1939	0.05764124
241	0x3e058108	0.13037503
242	0xbd972c0c	-0.07381448
243	0xbd3db73b	-0.04631732
244	0xbcacb588	-0.021082655
245	0x3cafabfa	0.02144431
246	0x3d0943f5	0.033512075
247	0xbd2cb992	-0.04216916
248	0xbdd178e4	-0.10228136
249	0xbdc04df3	-0.09389868
250	0x3c9c0667	0.019046022
251	0x3c819476	0.015817862
252	0xbde8c358	-0.11365384
253	0x3df81ffb	0.12115475
254	0xbd8ad668	-0.06779176
255	0xbb351a73	-0.0027634173

a2c_network.actor_mlp.2.bias f4 [64]
0	0xbd6f9c76	-0.058498822
1	0xbdf5c082	-0.119996086
2	0x3d7492f3	0.059710454
3	0xbb829579	-0.0039851037
4	0xbdea257c	-0.11432931
5	0xbe07ac57	-0.13249336
6	0xbdb5c0e8	-0.088746846
7	0xbdd40f02	-0.10354425
8	0x3d53fdbd	0.051755656
9	0xbd749f6e	-0.059722356
10	0xbdb389a1	-0.08766485
11	0xbd7c5290	-0.061602175
12	0xbde20160	-0.110354185
13	0xbdf13e4f	-0.117794625
14	0x3dee099a	0.11622925
15	0x3d34a569	0.04410306
16	0xbad42499	-0.0016185223
17	0xbdd7d91c	-0.10539457
18	0x3d27506f	0.04084819
19	0xbd91938b	-0.0710822
20	0xbd787494	-0.060658053
21	0x3ceff1f2	0.029290173
22	0x3bdccbbb	0.0067381538
23	0xbdf63db9	-0.120234914
24	0xbda925d5	-0.08259169
25	0x38d918ab	0.00010351961
26	0x3c952c15	0.018209497
27	0xbd1a8e5d	-0.037733424
28	0x3bd90a2f	0.0066235284
29	0x3dbaee23	0.09127452
30	0x3ac0493d	0.0014670264
31	0x3cf3cb03	0.02975989
32	0xbe0225ec	-0.12709779
33	0xbdc8f97e	-0.09813212
34	0xbd9cdbc8	-0.076591074
35	0x3c4e8e32	0.012607144
36	0xbdbc7dda	-0.09203692
37	0xbc6c1e37	-0.014411501
38	0xbdfa9b69	-0.122366734
39	0xbdaebb57	-0.08531826
40	0x3d1e7d22	0.038693555
41	0xbd8e5f33	-0.069517516
42	0xbe3591e2	-0.17731431
43	0x3d80abdc	0.062827796
44	0xbddf665e	-0.10908197
45	0xbdda2be1	-0.106529005
46	0xbe02eda8	-0.12785971
47	0xbdf82024	-0.12115505
48	0x3d19626e	0.037447385
49	0xbd8aaa0f	-0.06770717
50	0x3d69e1a9	0.057099972
51	0x3c1d475e	0.009599535
52	0xbcf77126	-0.03020532
53	0x3d38bac8	0.045100003
54	0xbd0c0d3f	-0.03419232
55	0x3d532e0f	0.051557597
56	0x3c2d2882	0.01056874
57	0x3b5d5e59	0.003377816
58	0xbcd2544a	-0.025674958
59	0xbd18c60d	-0.03729825
60	0x3c9dc04a	0.01925673
61	0xbc3f7611	-0.011685864
62	0xbdd46650	-0.10371077
63	0xbd4dd881	-0.050255302

a2c_network.actor_mlp.4.weight f4 [32, 64]
0	0x3dd39e87	0.10332971
1	0x3d962069	0.073304005
2	0xbc352e67	-0.011058426
3	0x3cc12388	0.023576513
4	0x3d521a93	0.051294874
5	0x3e25e018	0.16198766
6	0x3ceb5399	0.028726386
7	0xbcd1a7e1	-0.025592746
8	0xbdb0edf4	-0.08639136
9	0xbbce8a2b	-0.006303092
10	0x3e03605c	0.12829727
11	0x3da8ebc3	0.08248093
12	0x3c878f6e	0.016547885
13	0x3dfd51b0	0.12369096
14	0xbd59a96b	-0.053140085
15	0xbd1b3be1	-0.0378989
16	0xbd827704	-0.06370357
17	0x3da42dfb	0.080165826
18	0xbdda8060	-0.10669017
19	0xbc5a32fa	-0.013317818
20	0x3d323e52	0.043516465
21	0xbcb00cdc	-0.021490507
22	0x3da055e3	0.078288816
23	0xbd1e08ef	-0.03858274
24	0x3d4d2e72	0.05009312
25	0xbd46c181	-0.048524383
26	0xbc9121d2	-0.017716322
27	0xbe1496c5	-0.14510639
28	0xbdac03a7	-0.08399134
29	0xbdc8f333	-0.098120116
30	0x3d1c33d0	0.03813535
31	0x3c8d5903	0.017254358
32	0x3de0290b	0.10945328
33	0xbc81f637	-0.015864475
34	0xbce8f0f5	-0.02843521
35	0x3da44d92	0.08022608
36	0x3e680dde	0.2266154
37	0x3cc98fa7	0.024604632
38	0xbc620c7c	-0.013796922
39	0xbdb2dde9	-0.08733732
40	0xbdbf0b71	-0.09328354
41	0xbdc1702d	-0.09445224
42	0x3e64be5e	0.22338244
43	0x3e1e5f21	0.15465976
44	0xbd271ea0	-0.04080069
45	0x3af09fee	0.001835821
46	0x3c177547	0.00924427
47	0x3e36c614	0.17848998
48	0x3dde0e2b	0.10842546
49	0x3d5e651d	0.054295648
50	0xbd275793	-0.040855
51	0xbc0475ed	-0.008084756
52	0xbe0c807c	-0.13720888
53	0xbe4bdec9	-0.19909205
54	0xbc4025ec	-0.011727791
55	0xbe92fc50	-0.28708124
56	0xbdddfd69	-0.1083935
57	0x3bdb8760	0.0066994876
58	0x3d620742	0.055182703
59	0xbd38f512	-0.045155592
60	0xbc607c72	-0.013701545
61	0xbdf47600	-0.11936569
62	0x3e3c7118	0.18402517
63	0xbd8f4cd7	-0.06997078
64	0x3da49d46	0.0803781
65	0xbb8b3049	-0.0042476994
66	0xbd5d372c	-0.054007694
67	0xbd9a49d4	-0.07533613
68	0xbbd802c4	-0.0065921266
69	0x3dccb525	0.09995488
70	0x3cc403cf	0.023927597
71	0x3d2fa70a	0.04288391
72	0xbdf82d3c	-0.12118003
73	0xbcaf8e1b	-0.021430066
74	0x3e0ed99c	0.13950199
75	0x3c87a4a7	0.016558005
76	0x3df8e34b	0.12152728
77	0x3d5d009e	0.053955667
78	0xbe017da7	-0.12645589
79	0x3ca2b9b6	0.019863945
80	0xbdb8a50f	-0.090158574
81	0xbcdc49cf	-0.026890663
82	0x3ca8384b	0.020534655
83	0x3d2b0433	0.04175205
84	0xbc94628b	-0.018113395
85	0xbd74ec51	-0.05979568
86	0x3b9c3654	0.0047672186
87	0x3d02e655	0.031957943
88	0x3c77e443	0.015130105
89	0x3bf9787b	0.0076132393
90	0x3d999cb4	0.07500592
91	0x3beff2c4	0.007322641
92	0x3d8fda30	0.07024038
93	0xbc5599de	-0.013037173
94	0xbd35d50a	-0.044392623
95	0x3df1f54b	0.11814364
96	0xbb4b40da	-0.0031013996
97	0xbd738101	-0.0594492
98	0xbd33565f	-0.04378354
99	0x3dc518c2	0.09623863
100	0x3cb62082	0.022232298
101	0x3c5d1157	0.013492904
102	0xbdec7933	-0.115465544
103	0xbc4d747e	-0.012539981
104	0xbd87aaa5	-0.06624345
105	0xbdbdf5d7	-0.09275406
106	0x3e096c3c	0.13420194
107	0x3b9aed2f	0.0047279815
108	0xbb925ac7	-0.004466388
109	0x3caee81b	0.02135091
110	0xbd72f25d	-0.059313167
111	0xbc83a996	-0.016072076
112	0x3a658633	0.0008755654
113	0x3d2201de	0.039552562
114	0xbe0ece6a	-0.13945928
115	0xbd9a7612	-0.075420514
116	0xbde23de5	-0.11046962
117	0x3ad1da73	0.0016010538
118	0x3c5f5344	0.013630692
119	0x3d8a9338	0.06766361
120	0x3c849eb9	0.016188966
121	0xbd489814	-0.048973158
122	0x3b985d37	0.004649784
123	0xbd8ceb97	-0.06880873
124	0x3e145447	0.14485274
125	0xbc615aa3	-0.01375452
126	0x3cbcadc6	0.02303208
127	0xbdc188e2	-0.094499364
128	0x3ce106a9	0.027468996
129	0xbd8ad34b	-0.06778582
130	0x3cbd5ac1	0.023114564
131	0x3ceed8e2	0.029156152
132	0xbe4552d0	-0.19269872
133	0xbe16ce7b	-0.14727204
134	0xbd9b6d7e	-0.07589243
135	0x3b6c2f28	0.003603885
136	0xbd8502e2	-0.064946905
137	0xbd1a09c4	-0.03760697
138	0xbd911cb5	-0.070855536
139	0x3dd4ff76	0.10400288
140	0x3d851be9	0.06499464
141	0xbc790ccb	-0.015200804
142	0x3d3da7a5	0.046302456
143	0x3bb5bb8b	0.0055460385
144	0xbce61dc0	-0.028090358
145	0xbe0f9ed7	-0.14025436
146	0xbbc9155a	-0.0061365785
147	0xbdf9ea11	-0.12202848
148	0x3dac8933	0.08424606
149	0x3d30f4b3	0.043202113
150	0xbd3f3a42	-0.04668642
151	0x3d93af3d	0.072111584
152	0x3bed3cba	0.007239905
153	0x3dcd5f6c	0.10027966
154	0xbe119bad	-0.14219542
155	0xbcd8a91d	-0.026447827
156	0xbd758582	-0.059941776
157	0x3da07a9e	0.07835887
158	0xbcbf9743	-0.023387557
159	0x3dc48ece	0.0959755
160	0x3d3e14bf	0.046406504
161	0x3dcd64b9	0.10028977
162	0x3daff84f	0.08592283
163	0x3b270596	0.0025485507
164	0xbd9d46ea	-0.076795414
165	0xbe2797c8	-0.16366494
166	0xbe3221f3	-0.17395763
167	0xbe098cba	-0.13432589
168	0x3c9c42e9	0.019074874
169	0x3de635ba	0.11240716
170	0xbd673c02	-0.056453712
171	0xbc95ac6c	-0.018270694
172	0xbd839fdf	-0.06426977
173	0x3ccf6242	0.025315408
174	0x3bfe2474	0.0077558104
175	0xbdf8edf1	-0.12154759
176	0xbd03b2c8	-0.03215292
177	0xbe0a83f5	-0.135269
178	0xbdf06fb2	-0.11740054
179	0xbdd1ffb4	-0.102538496
180	0xbe068fb7	-0.1314076
181	0xbb7290fe	-0.0037012692
182	0xbcb57ed2	-0.0221552
183	0x3d131b0e	0.035914473
184	0x3e1ab180	0.15106773
185	0x3d2c2046	0.042022966
186	0xbe04a7f5	-0.12954696
187	0x3cd12da3	0.025534457
188	0xbd35db27	-0.044398453
189	0xbe6ea743	-0.23305993
190	0x3dceebb0	0.101035476
191	0x390a5325	0.0001319168
192	0xbd71f576	-0.05907198
193	0x3daadece	0.08343278
194	0x3d116253	0.03549416
195	0xbd9c5cf8	-0.0763492
196	0xbe41da15	-0.18930848
197	0x3bf301b7	0.007415976
198	0x3d58e588	0.052953273
199	0x3cac527a	0.021035422
200	0xbd450a24	-0.048105374
201	0xba1eea62	-0.00060621474
202	0xbe08986d	-0.13339396
203	0x3e1205f1	0.14260079
204	0x3d7afdda	0.061277248
205	0xbc6a4931	-0.014299677
206	0x3da56202	0.08075334
207	0x3df34a13	0.11879363
208	0xbe0bacdf	-0.13640164
209	0x3dba6a73	0.09102335
210	0x3dafb766	0.08579902
211	0xbe222b76	-0.15836892
212	0xbc30c3b6	-0.010788849
213	0xbda29dbb	-0.07940241
214	0x3de60128	0.11230689
215	0x3d35bf97	0.044372167
216	0x3e67de67	0.22643434
217	0x3e30665e	0.1722655
218	0xbe468cb9	-0.19389619
219	0xbe0c3a00	-0.13694
220	0xbe841d3c	-0.25803554
221	0x3ca92dc3	0.020651704
222	0xbcae2216	-0.021256488
223	0x3d355211	0.044267718
224	0x3db68e8b	0.08913907
225	0xbdaa7e85	-0.08324913
226	0x3cbc700b	0.023002645
227	0x3c01be60	0.007918924
228	0x3cc8cff6	0.024513226
229	0xbe8d3470	-0.2757907
230	0xbe6f7185	-0.23383148
231	0xbe0bed08	-0.13664639
232	0xbe0e2f6e	-0.1388528
233	0x3d43d47f	0.047810074
234	0x3d8e7aff	0.069570534
235	0x3e07a18b	0.13245218
236	0xbdbb1fe4	-0.09136942
237	0x3d23f697	0.04003009
238	0xbd05aa00	-0.032632828
239	0x3d1a743f	0.037708517
240	0xbd0836c6	-0.03325536
241	0xbe03aa1d	-0.12857862
242	0xbe035c66	-0.12828216
243	0xbdf1ba77	-0.118031435
244	0x3d012e83	0.031538498
245	0x3e02b627	0.12764798
246	0xbc08aa68	-0.008341409
247	0xbdc260bf	-0.09491109
248	0x3e169ba5	0.14707811
249	0x3d0db660	0.034597754
250	0xbdf8690d	-0.12129412
251	0x3db2b974	0.087267786
252	0x3e0523f8	0.13002002
253	0xbe64f83e	-0.22360322
254	0x3e2dbf31	0.16967465
255	0xbd685b03	-0.05672742

a2c_network.actor_mlp.4.bias f4 [32]
0	0xbdac8a67	-0.08424836
1	0x3c5e7ab8	0.013579063
2	0x3c1912c0	0.009342849
3	0xbd75aa82	-0.059977062
4	0xbde3ae37	-0.11117213
5	0x3c44f0b0	0.012020275
6	0xbc06e01d	-0.008232144
7	0xbd85f14f	-0.065401666
8	0x3c8a0b80	0.016851187
9	0xbd44d552	-0.048055
10	0x3d7a7abc	0.061152205
11	0xbd8fea2d	-0.07027087
12	0xbda6f4df	-0.08152174
13	0xbd042a42	-0.032266863
14	0xbd4fa38d	-0.050693084
15	0xbce030f7	-0.027367098
16	0x3d4620a0	0.048370957
17	0x3d1c8a03	0.038217556
18	0xbd06ae91	-0.032881323
19	0xbcb3efd2	-0.021964941
20	0xbd977734	-0.07395783
21	0x3d8b8fc4	0.068145305
22	0xbd6aa6f5	-0.05728813
23	0xbd5b45b4	-0.05353327
24	0xbd0ee5ce	-0.034887128
25	0x3ccf33ea	0.02529331
26	0xbcf9bbab	-0.030484995
27	0xbda734c3	-0.081643604
28	0xbd2503d1	-0.040286843
29	0xbbff2a07	-0.0077869925
30	0xbda70bbf	-0.08156537
31	0xbd28e0a3	-0.041229855

a2c_network.value.weight f4 [1, 32]
0	0x3d184202	0.037172325
1	0x3c0a705f	0.008449643
2	0x3d249e4c	0.040190026
3	0x3d9a83cf	0.07544672
4	0xbd279548	-0.04091385
5	0xbb4b69d9	-0.0031038432
6	0x3ce2031b	0.027589371
7	0x3cbb70bd	0.022880906
8	0xbaf03360	-0.0018325858
9	0xba65d401	-0.0008767248
10	0x3d8bbb62	0.0682285
11	0xbd9962f1	-0.07489575
12	0xbd7717f5	-0.06032558
13	0xbcbb8746	-0.022891652
14	0x3cb22c66	0.021749686
15	0xbca6d89b	-0.020366957
16	0x3cfa0b9c	0.030523114
17	0x3de7fe34	0.11327782
18	0x3c92cf0a	0.01792099
19	0xbd54bcfd	-0.051938046
20	0xbb61a6b1	-0.0034431631
21	0x3d372fe9	0.044723425
22	0xbd11f4c8	-0.035633832
23	0xbb7032ed	-0.0036651448
24	0x3c95524a	0.018227715
25	0x3c8dab42	0.017293576
26	0x3a47991c	0.00076140626
27	0xbd9da465	-0.076973714
28	0x3cab3b00	0.020902157
29	0xbd0759a5	-0.033044476
30	0xbdfc8651	-0.12330306
31	0xbd182e53	-0.037153553

a2c_network.mu.weight f4 [7, 32]
0	0x3dedc28c	0.116093725
1	0xbb937612	-0.004500159
2	0xbdf980af	-0.121827476
3	0xbd109763	-0.035300624
4	0x3e1d31a1	0.15350963
5	0xbdf9e3e5	-0.122016706
6	0xbe0be191	-0.13660266
7	0x3dbcec4a	0.09224756
8	0x3ce1164b	0.02747645
9	0x3e1e8704	0.15481192
10	0xbcff2427	-0.031145168
11	0x3e275f55	0.1634496
12	0xbbe322fc	-0.0069316607
13	0x3dea1e06	0.11431508
14	0x3d28d674	0.041220143
15	0xbcee6283	-0.029099708
16	0xbcfe78e1	-0.031063499
17	0xbe2a81cb	-0.16651075
18	0xbd9290a5	-0.07156495
19	0x3b0f7259	0.0021888225
20	0x3d4e040f	0.05029684
21	0xbe4658b1	-0.1936977
22	0x3c853436	0.016260248
23	0x3dcb3974	0.09923068
24	0xbcc078e2	-0.023495141
25	0x3db26867	0.087113194
26	0xbe0ba845	-0.13638408
27	0xbd794355	-0.06085523
28	0xbdec8b4d	-0.11550007
29	0x3c999740	0.01874888
30	0x3e029029	0.12750305
31	0x3d2b218f	0.04178005
32	0x3e01e9cf	0.12686847
33	0x3d6ab687	0.057302978
34	0xbe235aa6	-0.15952548
35	0xbc2d1e77	-0.010566345
36	0x3d20d095	0.03926142
37	0x3e4ff27d	0.20307346
38	0xbd88e2e5	-0.06683902
39	0xbda6138d	-0.08109198
40	0xbd949d5b	-0.07256576
41	0x3e0f79a7	0.1401125
42	0xbd3bbd68	-0.04583493
43	0x3de6542e	0.11246525
44	0x3d34e776	0.04416605
45	0x3e46508b	0.19366662
46	0x3e01b988	0.12668431
47	0x3dab21ec	0.083560795
48	0x3da1596d	0.07878385
49	0xbe0e8932	-0.13919523
50	0xbd93b105	-0.07211498
51	0x3d4b35a3	0.0496117
52	0x3b8150de	0.0039464077
53	0xbdd74d2a	-0.10512765
54	0x3d968223	0.0734904
55	0xbda75ba8	-0.08171779
56	0xbdb8806a	-0.09008868
57	0xbb62376a	-0.0034517893
58	0x3e06e34c	0.13172644
59	0x3d7cc193	0.061708044
60	0x3cf16840	0.029468656
61	0x3d794bd9	0.06086335
62	0x3dd5819b	0.10425111
63	0xbdd0170d	-0.101606466
64	0xbd88087b	-0.066422425
65	0xbe0dcb22	-0.1384702
66	0xbc9aaed2	-0.018882189
67	0xbdb4bf24	-0.0882552
68	0x3d760825	0.06006636
69	0xbdf4a1b2	-0.119449034
70	0x3e1114ba	0.14168063
71	0xbde78a3d	-0.11305664
72	0x3cc0bd17	0.023527665
73	0xbe43a86b	-0.19107215
74	0x3d2d966a	0.042379774
75	0x3b5c8fc4	0.0033655027
76	0xbdb66f27	-0.089079194
77	0xbd800b45	-0.062521495
78	0xbd5c1c1c	-0.053737745
79	0xbd8c02cf	-0.06836473
80	0xbd9aea04	-0.07564166
81	0xbda76807	-0.081741385
82	0x3dd9d31f	0.10635971
83	0xbe058dfa	-0.13042441
84	0x3d83da22	0.0643809
85	0xbdb66bbc	-0.089072675
86	0xbdfadb49	-0.122488566
87	0x3dd49141	0.103792675
88	0x3d67df46	0.056609415
89	0xbd6468ac	-0.055763885
90	0x3b13ff53	0.0022582605
91	0x3d91b8bd	0.07115314
92	0x3e6e3cd7	0.23265396
93	0x3e09c5ce	0.13454363
94	0x3c97073e	0.01843607
95	0x3de8b744	0.1136308
96	0x3e0112ee	0.12604877
97	0x3caae8f1	0.020863028
98	0x3d889f4d	0.06671009
99	0x3e6b0c66	0.22953948
100	0xbc059df5	-0.008155336
101	0x3e71e383	0.23621945
102	0x3e80f0ca	0.25183707
103	0x3dcfc243	0.10144474
104	0xbe07bf17	-0.13256489
105	0x3e48a709	0.19594969
106	0x3d71a184	0.058991924
107	0x3d098cc7	0.03358152
108	0xbdc94d4e	-0.09829198
109	0x3df631d3	0.12021222
110	0x3e37ac02	0.1793671
111	0xbe28a662	-0.1646972
112	0xbda3827e	-0.07983874
113	0x3e135056	0.14386114
114	0x3d25c50c	0.04047112
115	0xbe1fa3cb	-0.15589826
116	0x3e0ac618	0.1355213
117	0xbe9c011e	-0.30469602
118	0xbd71ac1a	-0.05900202
119	0x3cbb5a2b	0.022870144
120	0x3e6d742d	0.23188849
121	0xbd3e8514	-0.046513632
122	0xbdf83cf7	-0.12121003
123	0x3e947f90	0.29003572
124	0x3e050ddb	0.12993567
125	0xbbe4cc03	-0.006982328
126	0x3dd4d99c	0.10393068
127	0xbe254f98	-0.16143644
128	0xbe679e02	-0.22618869
129	0x3dc305dd	0.09522603
130	0xbdd39013	-0.10330214
131	0x3a67e0ef	0.00088454684
132	0x3e6cd6b9	0.23128785
133	0xbc2e24dd	-0.010628906
134	0xbd2a62c3	-0.041598093
135	0x3de441fe	0.111453995
136	0xbe21c93f	-0.15799426
137	0xbdb2f67b	-0.08738419
138	0x3e947383	0.28994378
139	0xbbdd0cac	-0.0067458954
140	0xbdbafe42	-0.09130527
141	0x3d3840aa	0.044983543
142	0xbdfe86f1	-0.12428082
143	0xbdf35eb5	-0.11883298
144	0xbe432b56	-0.190595
145	0xbd922797	-0.071364574
146	0x3d50d893	0.05098779
147	0xbda9322c	-0.08261523
148	0xbd3035d4	-0.043020085
149	0x3df34798	0.1187889
150	0x3d3aabcf	0.045574006
151	0x3cb93ac4	0.02261103
152	0x3e244655	0.16042455
153	0xbc2cf4ee	-0.010556443
154	0xbe6d2199	-0.23157348
155	0xbe2479a3	-0.16062026
156	0xbe215215	-0.15753968
157	0x3e1a971c	0.15096706
158	0x3e1a9c29	0.15098633
159	0x3e4f240c	0.20228595
160	0x3e534715	0.20632584
161	0x3dd58329	0.104254074
162	0x3cc95f63	0.024581617
163	0x3dc55814	0.0963594
164	0x3e38442f	0.1799476
165	0xbd93c4b9	-0.07215256
166	0x3bd74819	0.006569874
167	0x3e486622	0.1957021
168	0xbdbfd373	-0.093665026
169	0x3d19246b	0.037388247
170	0xbce0ec09	-0.0274563
171	0xbc75479e	-0.014970688
172	0xbdb40e51	-0.08791793
173	0x3bb4e145	0.0055200183
174	0xbd43da87	-0.047815826
175	0xbda3310d	-0.0796834
176	0xbbb4d83b	-0.0055189407
177	0x3da90b55	0.082541145
178	0xbd198e41	-0.03748918
179	0x3d59db7f	0.053187843
180	0xbcafa132	-0.021439169
181	0xbe0e7ed0	-0.13915563
182	0x3de6a2ae	0.112614974
183	0x3caf6052	0.021408234
184	0x3dd2afb1	0.10287417
185	0xbcdb964a	-0.026805062
186	0xbe436660	-0.19082022
187	0x3ce7fd6e	0.028319087
188	0xbe0b9dca	-0.1363441
189	0x3c5e0d1b	0.013552929
190	0x3d0c0d4a	0.03419236
191	0xbcd9d907	-0.026592745
192	0xbd8a8163	-0.0676296
193	0xbe483e1a	-0.1955494
194	0xbd87dc96	-0.0663387
195	0xbe38cc9c	-0.18046802
196	0x3d74fabd	0.059809435
197	0xbdd1d2b8	-0.102452695
198	0x3d3c184d	0.045921613
199	0x3dc4da54	0.09611955
200	0x3d54611d	0.051850427
201	0xbdcd47be	-0.10023449
202	0x3e8483d2	0.2588182
203	0xbdaeafc1	-0.08529616
204	0xbe3be279	-0.18348111
205	0xbe147e17	-0.14501224
206	0xbc1528e7	-0.00910399
207	0xbe44ed95	-0.19231255
208	0xbdf86d70	-0.121302485
209	0xbdc0728e	-0.093968496
210	0x3e20001a	0.15625039
211	0xbdf1c388	-0.11804873
212	0x3dacff43	0.08447125
213	0xbd45b195	-0.04826506
214	0xbeafdbe6	-0.34347457
215	0xbcbd445b	-0.023103883
216	0x3e13d451	0.14436461
217	0xbe2bd0f3	-0.16778927
218	0xbdc5ddad	-0.09661422
219	0x3e86a989	0.2630122
220	0x3e6a3b76	0.22874245
221	0x3e209c1c	0.15684551
222	0xbd00ac26	-0.031414174
223	0xbddd17bd	-0.10795543

a2c_network.mu.bias f4 [7]
0	0xbdb31912	-0.08745016
1	0x3b0c30cb	0.0021391388
2	0xbb3e7a37	-0.0029064545
3	0xbdb6765b	-0.08909293
4	0xbc0d46b3	-0.008622813
5	0xbd9b39d2	-0.07579388
6	0x3c516a3e	0.012781678

exp_avg f4 [7]
0	0xbba45f9c	-0.0050162803
1	0x3bae9b77	0.0053285914
2	0x3aef8a26	0.0018275424
3	0x3b99b201	0.004690409
4	0x3af00645	0.0018312415
5	0xbbb9b460	-0.0056672543
6	0x3bd6108a	0.0065327333

exp_avg_sq f4 [7]
0	0x3a1f4da4	0.0006076938
1	0x3a2b6332	0.00065379136
2	0x3a05f12f	0.00051094865
3	0x3a19c26c	0.0005865458
4	0x3a3cfa42	0.0007208922
5	0x3a195c21	0.0005850215
6	0x3a218a47	0.00061622675

exp_avg f4 [128, 18]
0	0xbac7d881	-0.0015247018
1	0x3a4cfef2	0.0007819972
2	0x3969b802	0.0002228916
3	0xb901a134	-0.00012362452
4	0x3a2e98f7	0.0006660367
5	0x3ab3aa03	0.0013707284
6	0xb9cf4dc3	-0.00039540054
7	0xba72b3b4	-0.0009258345
8	0xba4f9bbd	-0.000791963
9	0x399522e0	0.00028445479
10	0xb849b80a	-4.8093534e-05
11	0x3aa9b1e9	0.0012946698
12	0xb905eecf	-0.00012772832
13	0x3a746131	0.0009322344
14	0x3a4ac80a	0.00077354966
15	0x3aaa2698	0.0012981473
16	0x3a815a62	0.0009868855
17	0x3a0f4558	0.000546535
18	0xbb32eb99	-0.0027301072
19	0x3bc96955	0.0061465898
20	0xba8a5311	-0.001055332
21	0xbab77488	-0.0013996521
22	0xb9ff66dd	-0.0004871403
23	0x3a223e5c	0.0006189102
24	0x3aa0f2ba	0.0012279369
25	0x3b0a9649	0.0021146706
26	0xb97a7c96	-0.0002388827
27	0xba9a34e4	-0.001176503
28	0x3ac3999c	0.0014923098
29	0xba05fa8d	-0.00051108823
30	0xbaa3adcc	-0.0012487709
31	0x3b291646	0.002580063
32	0xb9a5b624	-0.00031606958
33	0x3b4d26b9	0.0031303598
34	0xb910e896	-0.00013819555
35	0x3b080067	0.0020752193
36	0xbb6e2eb9	-0.0036343767
37	0x3a1d819c	0.0006008388
38	0x3a43e920	0.0007473398
39	0xba1da3f0	-0.00060135033
40	0x3acb30fc	0.0015502269
41	0x3b6342d3	0.0034677282
42	0xba3f7328	-0.00073032314
43	0xbb15847a	-0.0022814558
44	0x3995ed0d	0.0002859611
45	0x39f868ac	0.00047380233
46	0xbabea67f	-0.0014545469
47	0x3b1a8938	0.0023580324
48	0xb9acf7b4	-0.0003299095
49	0x3aaa79ca	0.0013006267
50	0x3b5fcb38	0.0034148227
51	0x3ab095a8	0.0013472335
52	0x3b386ab4	0.0028139772
53	0x392300cb	0.00015545187
54	0xbaa5af55	-0.0012640754
55	0xb9c96ad1	-0.00038417292
56	0x39fb3a1c	0.00047917746
57	0xba0da76f	-0.00054036727
58	0x39aba155	0.00032735863
59	0x3a842b6f	0.0010083745
60	0xbad84e24	-0.001650278
61	0xbac42637	-0.0014965002
62	0x3965712b	0.000218813
63	0x39afefe8	0.00033557345
64	0xbb041820	-0.0020155981
65	0x3b01dbaf	0.001981478
66	0xba3b3eea	-0.0007142859
67	0xbab5970b	-0.0013854218
68	0x3aa9a6af	0.0012943352
69	0x3a1f2474	0.00060708006
70	0x39f180f6	0.00046063185
71	0x385e4bfa	5.2999683e-05
72	0xbbf48369	-0.0074619544
73	0x3a8ab58c	0.001058267
74	0x3b010e4b	0.0019692357
75	0xbb3a87b3	-0.002846223
76	0x3abe5a5f	0.0014522782
77	0x3bcebdf9	0.0063092676
78	0xbaec443d	-0.0018025708
79	0xbb950622	-0.00454785
80	0x3b868d08	0.0041061677
81	0x3ab140a6	0.0013523295
82	0xbbb9abf4	-0.0056662504
83	0x3b7a81e4	0.0038224394
84	0xbb141a23	-0.0022598587
85	0xba84350f	-0.0010086613
86	0x3c036f09	0.008022078
87	0x3a9e1346	0.0012060187
88	0x3b7b2168	0.0038319472
89	0xb9f07d9d	-0.00045869956
90	0xbad3aacb	-0.0016148923
91	0x39a7d417	0.0003201074
92	0x3a08a544	0.0005212615
93	0xba8f6f4e	-0.0010943206
94	0xb9417912	-0.00018451017
95	0x3a4baf50	0.0007769959
96	0xba03d886	-0.0005029518
97	0xba8008fa	-0.00097683
98	0x3ad4280a	0.0016186249
99	0x3a23dcbc	0.00062508485
100	0xbad83afa	-0.0016497069
101	0xb7f3ebe5	-2.9077704e-05
102	0xb95b77d2	-0.00020930104
103	0x394fb5b1	0.00019808744
104	0x3adc6e25	0.0016817494
105	0x36fe30ba	7.5754624e-06
106	0x39170fbc	0.00014406344
107	0xb8b026fe	-8.399597e-05
108	0xbb33e5ff	-0.002745032
109	0xba1527bb	-0.0005689819
110	0x3a821f4d	0.0009927541
111	0xba9661ce	-0.001147324
112	0x39bf9018	0.00036537717
113	0x3af29464	0.0018507359
114	0xbafccb59	-0.0019286677
115	0xbb1bc468	-0.002376819
116	0x3a220876	0.00061810703
117	0x3a37fef8	0.00070188893
118	0xbb0f5067	-0.0021867992
119	0x3ad12657	0.0015956861
120	0xbb1d0613	-0.002395992
121	0x396a9d2b	0.00022374529
122	0x3b409b25	0.0029389348
123	0x39bf8362	0.00036528247
124	0x3ab742a9	0.0013981658
125	0xb984c412	-0.00025323086
126	0xba3e3307	-0.00072555285
127	0x3a585dcd	0.00082537235
128	0xb9a01307	-0.00030531755
129	0xb8ef93aa	-0.00011423913
130	0x3899de10	7.336971e-05
131	0x3aba14a3	0.0014196824
132	0xba6cd800	-0.0009034872
133	0x3917cdaa	0.00014477098
134	0xba6809bb	-0.00088515476
135	0x39aa9632	0.0003253683
136	0x39221dad	0.00015460579
137	0x3a336227	0.0006842934
138	0x3a806514	0.0009795749
139	0xb943ba54	-0.00018666062
140	0x399c8756	0.00029855472
141	0x3a8a8975	0.001056953
142	0x3a6b877f	0.0008984729
143	0x39a4c732	0.0003142893
144	0xba4d46cb	-0.00078306784
145	0x3990c610	0.00027613388
146	0xb7f3b537	-2.9052242e-05
147	0xba4b824e	-0.00077632524
148	0xba03ba07	-0.00050249737
149	0x3a3489af	0.00068869715
150	0xba21ecd1	-0.0006176951
151	0xb93cfdf3	-0.0001802368
152	0x3a3f578e	0.00072991184
153	0x39b8cf90	0.0003524986
154	0xba620780	-0.00086223334
155	0xb825a692	-3.9494196e-05
156	0xba1ba1e1	-0.00059369026
157	0xb9d65bf8	-0.00040885783
158	0x3a26c97a	0.000636242
159	0xb8bf03af	-9.108276e-05
160	0xb915521f	-0.0001424034
161	0xb77dd84a	-1.5130334e-05
162	0xba930aab	-0.0011218389
163	0x3a4eb488	0.00078851776
164	0x39cd6b8a	0.0003918077
165	0x39d290b9	0.00040162148
166	0x3ab5cc96	0.0013870175
167	0x3a689730	0.00088726263
168	0x39f9df72	0.0004765946
169	0xba9bcdeb	-0.001188693
170	0x39419f4e	0.0001846526
171	0xb8b36642	-8.554432e-05
172	0xb92df9a3	-0.00016591563
173	0x3a80758b	0.0009800656
174	0x3afb1101	0.0019154848
175	0x3a498d41	0.000768859
176	0x3a62aadc	0.0008646676
177	0x3aaacdc9	0.00130313
178	0x3a995ed4	0.0011701235
179	0x3921b833	0.00015422776
180	0xbb28ef9e	-0.0025777589
181	0x3b795f3b	0.0038051147
182	0xba640b2c	-0.00086991745
183	0xba832a2b	-0.0010007074
184	0x38faf33d	0.000119662356
185	0x3b1324c0	0.0022452325
186	0x39c93249	0.00038375173
187	0x3ab70d25	0.0013965709
188	0xba84ecc2	-0.001014136
189	0xb8492005	-4.7951955e-05
190	0x3a9bb207	0.0011878618
191	0x39bb8217	0.00035764344
192	0xba7ed503	-0.0009721072
193	0x3b1c5119	0.002385205
194	0x39d0962d	0.0003978474
195	0x3b020fc4	0.0019845823
196	0x3a90a030	0.0011034068
197	0x3a9f917b	0.0012174094
198	0x3b4e9a7e	0.003152519
199	0xbaaacf5c	-0.0013031769
200	0xba3988b0	-0.0007077558
201	0x398fa021	0.0002739439
202	0xbaf4c5b0	-0.0018674638
203	0xbb17bb1a	-0.0023152293
204	0x388b4f30	6.642786e-05
205	0x3b291fc5	0.002580629
206	0xba7ce832	-0.0009647637
207	0xb9fe5237	-0.0004850791
208	0x3a79c72a	0.0009528274
209	0xba9c95d6	-0.001194651
210	0xbb06f607	-0.002059342
211	0xbb2e962f	-0.002663981
212	0xbb21f750	-0.002471406
213	0xbadb5a85	-0.0016735351
214	0xbaf28a7d	-0.0018504407
215	0xb98e3682	-0.00027124962
216	0xb9ce6e0c	-0.00039373373
217	0xbae25f66	-0.0017270863
218	0x3a48ab21	0.0007654895
219	0xb9ea6d80	-0.00044713542
220	0xb919130f	-0.00014598317
221	0x3a3cd943	0.00072040054
222	0xba2f17bd	-0.00066792575
223	0xbac8ff06	-0.0015334792
224	0x3aa505e5	0.0012590258
225	0x3a9c2564	0.0011912999
226	0xbadc9c54	-0.0016831257
227	0xb9b31c1b	-0.0003416248
228	0x3814c2d9	3.5467416e-05
229	0x3899e7e4	7.3388015e-05
230	0x3aa65ca0	0.0012692399
231	0xba85b773	-0.0010201767
232	0x38b85386	8.789361e-05
233	0xba55ea0e	-0.0008160182
234	0x39895a99	0.00026198177
235	0x3afdf7eb	0.0019376253
236	0xba0aff1e	-0.00053022976
237	0x3991ea59	0.00027831158
238	0xb8c6066f	-9.442574e-05
239	0xba997de0	-0.0011710487
240	0x3a76154b	0.0009387328
241	0x3a86ec93	0.0010293893
242	0xba52de9b	-0.0008044035
243	0xba6e855a	-0.00090988504
244	0x3ae97dc2	0.0017813968
245	0xba82532b	-0.0009942999
246	0x39b00d32	0.00033579167
247	0x3a97e774	0.0011589364
248	0xbab7604d	-0.0013990492
249	0x3a9900ab	0.0011673173
250	0xba18c80d	-0.000582815
251	0x3a4f017f	0.0007896646
252	0xbb2a1dba	-0.002595766
253	0x3a6c0e07	0.0009004776
254	0x39580f4c	0.00020605064
255	0xbac6d328	-0.0015169131

exp_avg_sq f4 [128, 18]
0	0x36a04120	4.775953e-06
1	0x3695e8fc	4.467669e-06
2	0x36279407	2.4971102e-06
3	0x3653e2b5	3.157341e-06
4	0x365c8a6d	3.286313e-06
5	0x363a79e5	2.7787112e-06
6	0x36474e92	2.9699045e-06
7	0x36a7a4c0	4.9961673e-06
8	0x36c3c91e	5.834866e-06
9	0x364bded1	3.0379053e-06
10	0x362629cc	2.4760257e-06
11	0x36721f4b	3.6079025e-06
12	0x3670fb43	3.590904e-06
13	0x36aaf87b	5.0953217e-06
14	0x36789a32	3.7044633e-06
15	0x3651cbd4	3.126207e-06
16	0x36653d3a	3.4159298e-06
17	0x3604ae80	1.9771105e-06
18	0x374e1b4d	1.2284913e-05
19	0x37417519	1.153096e-05
20	0x374ae86d	1.2094254e-05
21	0x37333f25	1.0683933e-05
22	0x374c249e	1.2167873e-05
23	0x375be534	1.3106783e-05
24	0x371a99c1	9.214914e-06
25	0x37488db7	1.19539245e-05
26	0x3717c706	9.04664e-06
27	0x3754fe3d	1.2695379e-05
28	0x373726a1	1.0916644e-05
29	0x3774532d	1.4562899e-05
30	0x37786144	1.4804598e-05
31	0x374bb629	1.2142155e-05
32	0x36ec83f5	7.04871e-06
33	0x36df64cd	6.6576526e-06
34	0x37348be4	1.0761407e-05
35	0x3729a67f	1.011195e-05
36	0x3715b430	8.923045e-06
37	0x37187ac9	9.088494e-06
38	0x370fffe8	8.583047e-06
39	0x36fecd90	7.5937205e-06
40	0x36e6ac81	6.8746162e-06
41	0x36fed114	7.59413e-06
42	0x36df4b92	6.6547154e-06
43	0x3746d6f9	1.1851772e-05
44	0x3726965d	9.92938e-06
45	0x370fb7be	8.566245e-06
46	0x371029f7	8.59284e-06
47	0x375d0031	1.3172671e-05
48	0x3725f155	9.890956e-06
49	0x374b48ed	1.2116722e-05
50	0x370ca5dd	8.383268e-06
51	0x36996d56	4.5724837e-06
52	0x37144def	8.839633e-06
53	0x36ff3224	7.6054293e-06
54	0x3695f25e	4.4687613e-06
55	0x363a79b2	2.7786996e-06
56	0x3647a782	2.9750813e-06
57	0x368d9389	4.219303e-06
58	0x367d5e2d	3.7754755e-06
59	0x36667d16	3.434548e-06
60	0x369be649	4.6461687e-06
61	0x36982380	4.5340857e-06
62	0x3681b068	3.865036e-06
63	0x3664f3e4	3.411661e-06
64	0x36848ebd	3.9505235e-06
65	0x36a80233	5.007046e-06
66	0x36b0bffa	5.2675578e-06
67	0x36a0dd2f	4.7941207e-06
68	0x3692cc5a	4.3749287e-06
69	0x361b984d	2.318545e-06
70	0x368960f3	4.0942045e-06
71	0x364a583b	3.0151703e-06
72	0x37c63f3a	2.3632881e-05
73	0x3750acda	1.2438011e-05
74	0x37bcb87c	2.2497254e-05
75	0x37deed5f	2.6574997e-05
76	0x37adb6b1	2.070828e-05
77	0x3806c74b	3.2133696e-05
78	0x37fd54e2	3.0199477e-05
79	0x38054530	3.1774107e-05
80	0x375e0b5f	1.3234879e-05
81	0x37e366b0	2.7108326e-05
82	0x37d29f00	2.5107991e-05
83	0x37d2bb21	2.512109e-05
84	0x37c8cffd	2.393871e-05
85	0x381460ed	3.537622e-05
86	0x37bd3f40	2.2560009e-05
87	0x37a3b978	1.951748e-05
88	0x37daa352	2.6063677e-05
89	0x376a92c5	1.3981659e-05
90	0x370b187e	8.290748e-06
91	0x36977f24	4.514952e-06
92	0x36c6b5db	5.9220306e-06
93	0x36f3b9e5	7.2636053e-06
94	0x36ff40b2	7.6071237e-06
95	0x36cee129	6.1654905e-06
96	0x3701006f	7.6891e-06
97	0x3700c17f	7.674446e-06
98	0x36f5bdcb	7.323664e-06
99	0x36d8b59d	6.458444e-06
100	0x36e7fb81	6.9136154e-06
101	0x36fe9be9	7.58794e-06
102	0x36f295cc	7.2296007e-06
103	0x3733441e	1.0685091e-05
104	0x3706c141	8.032018e-06
105	0x368c6690	4.184265e-06
106	0x36f7cc40	7.3849515e-06
107	0x36bdd6b4	5.6576337e-06
108	0x37943d54	1.7671533e-05
109	0x3757efd7	1.2870841e-05
110	0x374402d6	1.1683171e-05
111	0x376b4f0d	1.4025497e-05
112	0x3735a731	1.0827368e-05
113	0x373ef1f8	1.138122e-05
114	0x379567fa	1.7810602e-05
115	0x3788cb96	1.6307265e-05
116	0x3787fde5	1.6211483e-05
117	0x3747693e	1.1885828e-05
118	0x373fec53	1.1439511e-05
119	0x37927a98	1.7461643e-05
120	0x376f508b	1.4264263e-05
121	0x379488b8	1.770664e-05
122	0x377d3b70	1.5093814e-05
123	0x371a4dbc	9.197214e-06
124	0x375f0173	1.3292173e-05
125	0x372710e5	9.957909e-06
126	0x3707a5bc	8.085215e-06
127	0x370c3522	8.357021e-06
128	0x37036f6f	7.834154e-06
129	0x3737e908	1.0961907e-05
130	0x37028e08	7.781673e-06
131	0x37323a46	1.0623195e-05
132	0x3712593b	8.723054e-06
133	0x3735e087	1.0840718e-05
134	0x37283118	1.0025011e-05
135	0x375a9fdf	1.3031035e-05
136	0x3719fba2	9.1780985e-06
137	0x3775e8bb	1.4657325e-05
138	0x3788926c	1.6280646e-05
139	0x374c8892	1.2191145e-05
140	0x36eaf69c	7.0024525e-06
141	0x36c09a60	5.7400175e-06
142	0x37476f66	1.1887261e-05
143	0x3726b90b	9.937455e-06
144	0x36bb9dc9	5.591403e-06
145	0x3627adf1	2.4986186e-06
146	0x36a8a9ed	5.026572e-06
147	0x36bc932f	5.619971e-06
148	0x36a2a482	4.8471275e-06
149	0x36bd6d46	5.64536e-06
150	0x36babc3c	5.5651453e-06
151	0x36e10a6b	6.7067353e-06
152	0x365357a9	3.1492475e-06
153	0x36f90676	7.4215304e-06
154	0x369885a5	4.5455113e-06
155	0x36c4b453	5.8622477e-06
156	0x36e793a0	6.9015223e-06
157	0x3707e28e	8.099376e-06
158	0x366594f3	3.421036e-06
159	0x3683e875	3.931166e-06
160	0x36c0b129	5.74267e-06
161	0x366839dd	3.4604375e-06
162	0x36db3bd8	6.5336753e-06
163	0x36da239e	6.5010527e-06
164	0x365e9789	3.3168783e-06
165	0x36a8ea7a	5.034087e-06
166	0x36848b3d	3.950116e-06
167	0x36b47f8a	5.3792655e-06
168	0x36d086bd	6.2145687e-06
169	0x36ef076b	7.1236186e-06
170	0x36af6838	5.227539e-06
171	0x36ce9e47	6.1577043e-06
172	0x36ad5c92	5.1665784e-06
173	0x36bf75f0	5.7059733e-06
174	0x36ab3846	5.102748e-06
175	0x36f8e7d5	7.4179648e-06
176	0x36650e6a	3.413205e-06
177	0x36892c4c	4.088075e-06
178	0x3696385e	4.4769104e-06
179	0x3659aa12	3.2434514e-06
180	0x36722622	3.6083006e-06
181	0x36a374f5	4.871394e-06
182	0x3628b058	2.5136596e-06
183	0x363503d6	2.6973335e-06
184	0x36785692	3.700527e-06
185	0x36658085	3.4198467e-06
186	0x3657a92d	3.213597e-06
187	0x36b96172	5.5247738e-06
188	0x36991acd	4.5628753e-06
189	0x368e8685	4.24759e-06
190	0x366de2bc	3.5447729e-06
191	0x368053a2	3.8244334e-06
192	0x36a4d58f	4.9124424e-06
193	0x36c5ae91	5.8913797e-06
194	0x36836b83	3.9166202e-06
195	0x361da864	2.349284e-06
196	0x363ef86b	2.8456805e-06
197	0x36169fff	2.2444872e-06
198	0x377f35f1	1.5211744e-05
199	0x37312251	1.0558012e-05
200	0x37095b0f	8.187038e-06
201	0x3734b35c	1.0770596e-05
202	0x370df083	8.460253e-06
203	0x37363fe0	1.0862917e-05
204	0x379e5099	1.8872599e-05
205	0x377735b8	1.4734855e-05
206	0x37345c54	1.0750333e-05
207	0x3732ddf3	1.0661303e-05
208	0x37332696	1.0678215e-05
209	0x37353a2a	1.0801983e-05
210	0x37419e05	1.1540488e-05
211	0x375f3c34	1.3305853e-05
212	0x37416b07	1.1528616e-05
213	0x371e04cd	9.418652e-06
214	0x371dc669	9.404125e-06
215	0x370e8585	8.494947e-06
216	0x370a3491	8.23768e-06
217	0x36ba0d45	5.5447767e-06
218	0x36c37865	5.8254686e-06
219	0x36e97660	6.957722e-06
220	0x37060588	7.98831e-06
221	0x371332db	8.7737235e-06
222	0x36cdc8cd	6.1328524e-06
223	0x37059733	7.962622e-06
224	0x36c6f7fc	5.929729e-06
225	0x36fc6164	7.521523e-06
226	0x36cfd561	6.1939213e-06
227	0x36efb3d5	7.1436903e-06
228	0x36ec46b6	7.04158e-06
229	0x372ff897	1.0488692e-05
230	0x36abc5d6	5.1192283e-06
231	0x36b5d2c2	5.418756e-06
232	0x36e78a65	6.9004477e-06
233	0x369bb4e5	4.640419e-06
234	0x37232a7c	9.725449e-06
235	0x36afe095	5.241551e-06
236	0x370e5e17	8.485767e-06
237	0x37271860	9.959651e-06
238	0x37074c67	8.064416e-06
239	0x37453a64	1.175571e-05
240	0x375f644e	1.331519e-05
241	0x372f865d	1.0462097e-05
242	0x36d0b97a	6.2204754e-06
243	0x37429c38	1.1599674e-05
244	0x37181570	9.064897e-06
245	0x37180c1d	9.062726e-06
246	0x371c3dd0	9.312716e-06
247	0x376615dd	1.3714159e-05
248	0x36e5dff6	6.8508043e-06
249	0x36c72d55	5.9359395e-06
250	0x37177df3	9.029626e-06
251	0x36f051e9	7.162093e-06
252	0x36ee0677	7.0937053e-06
253	0x36d83e87	6.444581e-06
254	0x36e16d06	6.7182145e-06
255	0x36ed2842	7.067837e-06
