runs/BallBalance_24-13-13-49/nn/BallBalance.pth (torch, 172255 bytes, 36 tensors)

value_mean_std.running_mean f8 [1]
00000000: 5a8d 8c51 0b9a c03f
0.1297010563076622

value_mean_std.running_var f8 [1]
00000000: 081b ad0d dfb1 773f
0.005784865667755275

value_mean_std.count f8 []
00000000: 0000 0000 0004 9940
1601.0

running_mean_std.running_mean f8 [18]
00000000: 5317 d76f d16b c5bf b844 0933 a800 b43f
00000010: a9d1 70bf 2db0 a7bf 3c5f 16ba 7f67 d6bf
00000020: 4abb f69c 288d aebf b0b9 5bc1 b418 a0bf
00000030: c8ce 5987 056f b8bf 66fe 6404 1462 edbf
00000040: ed56 f0b0 6f23 e13f 64a1 2784 ebbe b53f
00000050: eeb3 2d51 41c3 fabf ece2 fa0f 36f9 c7bf
00000060: e828 800f 2f09 c2bf dc6f 624c d06f b1bf
00000070: c2bf a8f0 4e23 b63f 2788 9609 a608 c03f
00000080: 4c8c 29be b95e dabf e438 8ec3 4b17 c13f
-0.16735284768054245 0.07813502546311468 -0.04626601182863805 -0.3500670735606837 -0.0596707049947925 -0.031438492396648754 -0.09544405512297793 -0.9182224355535709
0.5355757194363072 0.08494445778308585 -1.6726697131191446 -0.18729282169603978 -0.1409052682577745 -0.06811239113670758 0.08647626281231083 0.12526393383183285
-0.41203158922707384 0.13352343605624306

running_mean_std.running_var f8 [18]
00000000: cac2 70cc 6200 b13f d9da 16ca 4b0a 913f
00000010: 1678 989b a7c2 a33f 7034 b9c4 4de5 be3f
00000020: 7912 1059 4023 943f f5b1 57cd a8f7 893f
00000030: 5859 e93d f140 7c3f 588e 2bb6 fd2b f73f
00000040: 06e1 b498 8df4 e13f 7e65 f297 abea 0740
00000050: 61e9 c7dc e84e 0340 efcb b2c5 3724 e13f
00000060: 7825 3c9a 8b72 ec3f ebc8 4270 1615 f43f
00000070: 0e39 54af f756 643f ec3f 5145 70aa 6b3f
00000080: ac03 e310 afbb b63f 8942 558c 4de7 a23f
0.06641213885519473 0.01664083882288989 0.03859447264061104 0.12068639805620918 0.01966572326274949 0.012679404036099998 0.006897871352143113 1.4482400051137088
0.5611026747274372 2.9895851012085464 2.413530087328738 0.5356711255357122 0.8889825832749656 1.2551483521643216 0.002482875594643669 0.0033771698750015757
0.08880132829928183 0.03692095125245937

running_mean_std.count f8 []
00000000: 0000 0000 0008 8940
801.0

a2c_network.sigma f4 [7]
00000000: 4b59 e7bc bcdf 62bd 12d6 58bd 1ece 2fbc
00000010: dd21 14be 299b 64be d5cb 64bd
-0.02824082 -0.05538915 -0.05293853 -0.0107302945 -0.14466043 -0.22324814 -0.055858452

a2c_network.actor_mlp.0.weight f4 [128, 18]
00000000: 596e 34bd 9a47 d13c e4d2 50be 6174 a33d
00000010: 1deb 9cbd a21b 003e 1f5b 54be 3592 b1bd
00000020: b85e c7bd 82f3 38be cd65 8e3d 8108 82be
00000030: f8c2 1e3e 63f5 0ebe d055 403e 97d7 4ebd
00000040: 496c 78bc 1015 7f3e 0004 a43d b784 3f3e
00000050: 2b51 cb3d c300 9abd e62e 293e 8897 3fbd
00000060: 0a6a f23d 14e6 573e 7123 323e f6c0 e4bd
00000070: 05d1 023d 352c a43d d877 d63d 8ca2 34be
00000080: 9d9a 84be 5f0e ecbd 466a 70be b04a 123e
00000090: 1417 333e 7aa1 adba f194 813d 6874 063e
000000a0: 5503 9d3e 70e7 fabd e495 c53d 4fe9 1bbe
000000b0: 2810 d13c e611 d6bd 141e 7b3c b7f8 0fbe
000000c0: 6575 7a3e c49a 2bbd 5d65 a1bd df1b 35be
000000d0: 8fbc 353e 2dd3 273d f63f 673e c243 fcbd
000000e0: 6241 1fbe b81e 30be 2599 abbd c06a 393e
000000f0: b0f1 0a3e 585d 8c3e c476 69bd 528d 13be
00000100: 0d8a d23d 3a67 58bb 7140 d53d d789 e1bd
00000110: 17c2 a53b 7371 b1bc 77fa 28be 582a 713d
00000120: 7121 13bd 3837 8d3c a657 e73d 2f4d 0a3e
00000130: e4a9 23be b7f6 2dbe e453 243e 7e55 17be
00000140: e54f 10bc 8a4b 8dbe 57be 63be 73f0 a33d
00000150: db47 34bd 4387 4cbe c691 c8bc 618b 4cbe
00000160: d7d5 84be 53da 32bd b0dd 97be ebfa a3bd
00000170: 55e9 3c3e 77ae 733d d733 d23d 3d26 a5be
00000180: 3c2d d2bd 75bf 7ebd 5d4b 563e 4ea0 2ebe
00000190: 02ac dabd f9d4 b1bd 6a28 e8bc 4ebc 13be
000001a0: 23f2 333e 2236 3cbe 933b 0dbe df78 2dbe
000001b0: b1fc 5abe ad24 e1bc 29b2 4e3e 77dd 3bbe
000001c0: 00df 853e 70be ef3c bcca 15bd 145f d03d
000001d0: 9c12 193e 48fb a23b 64be 6bbe e3a3 97be
000001e0: a73b c23d 3dc3 24bd 6e32 e73d 65b6 4abe
000001f0: 1cec 673d a683 97be 9015 41bb a416 a73d
00000200: 7d86 373d dcde 903e 52b6 923e 46f0 19be
00000210: 034f 173d d63e 0ebe 9890 fc3c 21bd 27be
00000220: 43d1 3f3e e55f 33be b822 163e a51c 073e
00000230: ae75 cb3d 7310 39be a77e 633e a242 183e
00000240: 39ff 8f3d 0342 91be e154 b63d 2632 3ebb
00000250: 7cbe 3ebe 0913 3e3e d2c1 983c 82a2 22be
00000260: 9264 3ebe bc7d 32bd 2216 433e 5404 cabd
00000270: 282b 23be 363d 71bd 5e38 28be 2e77 2b3e
00000280: 6bd9 633e 73f0 77bd 0b1b 66bc b709 433e
00000290: d58d 423d 7cfc e6bd c806 2c3e 6deb 473d
000002a0: e8e7 983d bc77 d0bd d76d 4d3a 6a60 44bc
000002b0: a8e4 b8bd c561 23bd 3852 123d 0d1f 183e
000002c0: 5a98 8b3d f51b fdbd b206 ffbb e835 5cbd
000002d0: 0a33 ac3d 8669 333d 0cd3 9bbe 7ef1 aa3c
000002e0: f37b 3e3e b11c f03d 1fe6 5a3d 25fb f0bd
000002f0: 88e7 50be 1a97 bebe ae41 6bbb acc4 ac3d
00000300: ce81 883d 937b bf3d 2f17 febd 4081 44be
00000310: 5fe0 123d 5829 b33e bc4c 773d a610 10be
00000320: c32f 1d3c bbd8 37bd 8a00 7abe 0462 193e
00000330: 06f6 18be c0fc 42bd 8e96 c1be b2c1 c33d
00000340: 35b9 993e 39c8 5a3d 50fe 67be 84d4 44be
00000350: 67b5 63be c915 7d3e 6898 2e3e 60dd c73e
00000360: 9f4c f83d ce14 2d3d 6cf2 833c 9c02 21be
00000370: f410 31be dfc9 1abe 37c9 af3d c094 4cbe
00000380: 457e b13c 4853 51bd b525 19be 79f2 4dbe
00000390: d88c 73bd d6fd 84bc a6d5 d73d 9c4c 5a3d
000003a0: ade8 39bd 4d3c 8abe 2558 ef3b cda6 bebd
000003b0: f4c2 093d ffda 79be 46c3 153e ef0d e6bd
000003c0: 0658 ee3d a47e 043e 2a42 223e c316 2bbe
000003d0: 1d8c 543d 3ec9 7bbd ef56 9c3d 2095 223e
000003e0: 4cd2 59bd e07c 153d c194 16be d712 93be
000003f0: 4cc7 653d 0999 60be 7e74 383e 8e02 423e
-0.04405055 0.025546838 -0.20392948 0.07981182 -0.07662032 0.12510541 -0.20737885 -0.08670465
-0.09734863 -0.18061641 0.06953011 -0.25397113 0.15504062 -0.13960795 0.18782735 -0.05049857
-0.015162536 0.24910378 0.080085754 0.1870297 0.09927591 -0.075196765 0.16521797 -0.04677537
0.118366316 0.21083862 0.17396332 -0.11169617 0.031937618 0.08016244 0.10472077 -0.17640132
-0.2589921 -0.115261786 -0.2347804 0.14286304 0.17489272 -0.0013246976 0.063272364 0.13130343
0.30666605 -0.122511744 0.0964773 -0.15225719 0.0255204 -0.104526326 0.015326995 -0.14059721
0.24458845 -0.041895643 -0.07880662 -0.17686413 0.1774771 0.040972877 0.22582993 -0.12317611
-0.15552285 -0.17199218 -0.083788194 0.18107128 0.13568759 0.27414966 -0.05699803 -0.14409378
0.10280237 -0.0033020512 0.10412682 -0.11012619 0.0050585377 -0.021660542 -0.16501795 0.058878273
-0.035920564 0.017238244 0.112960145 0.13506006 -0.15982777 -0.16988645 0.16047627 -0.14778706
-0.008808111 -0.27596694 -0.22240578 0.080048464 -0.04401384 -0.19973473 -0.024483573 -0.19975044
-0.25944397 -0.04366524 -0.29661322 -0.08006843 0.18448384 0.059492555 0.10263794 -0.32255736
-0.10262534 -0.062194306 0.20927186 -0.17053339 -0.10677339 -0.086831994 -0.028339583 -0.14427301
0.17572837 -0.18380025 -0.13792257 -0.1694064 -0.21385457 -0.027483309 0.2018515 -0.18346201
0.26146698 0.029265612 -0.036570296 0.10174385 0.14948505 0.0049738027 -0.23021847 -0.29617223
0.09484034 -0.040225256 0.112889156 -0.1979614 0.056621656 -0.29592627 -0.0029462315 0.08158615
0.044805992 0.28295028 0.28654724 -0.15033063 0.036940586 -0.13891158 0.030830666 -0.1638074
0.18732171 -0.1751705 0.14661682 0.13194521 0.09934555 -0.18072681 0.22216283 0.14869168
0.07031102 -0.28370675 0.08902908 -0.002902159 -0.18627352 0.18561949 0.018647108 -0.15882304
-0.18593052 -0.04357694 0.19051412 -0.09864107 -0.15934432 -0.058896266 -0.16427752 0.16744682
0.22250907 -0.060532045 -0.0140445335 0.19046675 0.047498543 -0.11278626 0.16799462 0.048808504
0.074661076 -0.101790875 0.0007836497 -0.0119858775 -0.09027988 -0.039888162 0.03572294 0.14855595
0.06816168 -0.12358848 -0.0077827806 -0.053762347 0.084081724 0.043801807 -0.30434453 0.020867106
0.1860197 0.117242225 0.053442117 -0.11766652 -0.20400822 -0.37224656 -0.0035897302 0.0843595
0.06665383 0.09349742 -0.12406766 -0.1918993 0.03585851 0.3499248 0.060375914 -0.14068851
0.009593907 -0.044884425 -0.24414268 0.14978796 -0.149376 -0.047604322 -0.37810177 0.09558429
0.30024114 0.053413603 -0.22655606 -0.19221693 -0.22237168 0.24715342 0.17050326 0.39036083
0.12123989 0.04225617 0.016106807 -0.15723652 -0.17291623 -0.1511607 0.085833006 -0.19978619
0.021666655 -0.051104814 -0.1495579 -0.20112027 -0.05946049 -0.01623432 0.10538797 0.053295717
-0.045387913 -0.2699913 0.007304209 -0.093091585 0.033633187 -0.24399947 0.14625272 -0.11233126
0.11637883 0.12938935 0.15845552 -0.16707902 0.051891435 -0.061471216 0.07633769 0.15877199
-0.05317907 0.036496043 -0.14705183 -0.2872531 0.056098267 -0.21933378 0.18013188 0.18946287

a2c_network.actor_mlp.0.bias f4 [128]
00000000: 9b57 aa3d 686a 803b 82a5 1c3e bc8b 88bc
00000010: 0b89 af3d d29f 103e 76af 023c ecfe 793d
00000020: 003e 113d cbf3 5f3c 2551 a03d e0a9 8b3c
00000030: fb6e 073e 074d 3abd 7bc4 5a3c 8acc ee3d
00000040: e5d0 36be 3324 56bd 6431 d6bd 2a13 1a3d
00000050: adf5 42be 41e0 0d3d aeb6 63bc e1e2 2ebe
00000060: 145f 453d 98cf 3f3d 3466 c8bd 5e3e d43d
00000070: 5273 a5bd 18d3 3c3d fcad 083e 1ba8 6bbd
00000080: b9e9 60bd 3dff f23d babd 6e3c 6467 b2bd
00000090: 7fea 82bb 391a 72be 6c55 47bd e92e 553c
000000a0: 1564 9dbc d477 4cba 9099 ae3d cc87 353d
000000b0: de5b 31be 07bb 473d 8e0a abbd b79e 76bd
000000c0: 5af1 79bc c4d0 363e 1093 483d 88a0 3dbc
000000d0: b4dd eb3c 8721 5abe 362a 1bbd 0ac4 3bbd
000000e0: 8222 ab3c 9862 b23d 6a2a f43d 875e 09be
000000f0: 560e f63d 2168 16bd 3d07 203e 27be 19bc
00000100: 6ecd 673c 7745 453e 814c 2fbd 5a21 03be
00000110: 8a4f 973d 601a 60bc 1b60 ebbd 0672 5fbe
00000120: 0705 283e 9c49 dcbc 8c3a ff3c d49e c5bd
00000130: aa05 cb3d 2d3e 9dbb b934 f33c 8134 ea3c
00000140: 5b39 f73d 4cd5 783d d330 90bd ba5f f9bd
00000150: a3c8 843d b0e0 363e b3c3 2c3e a5ae 1c3d
00000160: d804 013d 3b5a 9cbd bd7a 923c a1d8 9c3d
00000170: 469a 0c3e 406c ebbd 3e38 e0bc a803 403d
00000180: fadc 88bd c34d 9dbd 84b0 743d bdaf a53c
00000190: a62c 4ebd ac67 69bd bd07 6b3d c3ca 323c
000001a0: 1d9e 3c3d b444 973c 8c31 acbd 923b ef3d
000001b0: 5a47 1d3d ca7d bd3d 52d5 f83d af0a 313e
000001c0: 38e1 2dbe e9d0 6d3c 85bb 183e 8fe0 903d
000001d0: db4e 32be f78f 30be 54b2 9ebd 1817 923d
000001e0: ea40 cf3b cee5 01be 47da 803d ffbd 6d3d
000001f0: 64ec 59bd 9edc a23d e578 8d3d d369 1f3e
0.08317491 0.0039189346 0.15297511 -0.016668193 0.08571061 0.14123467 0.007976403 0.061034128
0.03545952 0.013668965 0.07827977 0.017048776 0.1322593 -0.045483615 0.013352509 0.116601065
-0.17853124 -0.052280616 -0.10458639 0.037615933 -0.1903903 0.034637693 -0.013898535 -0.17078735
0.048186377 0.046828836 -0.09785119 0.10363458 -0.08078636 0.046099752 0.1334762 -0.057533365
-0.054910395 0.11865089 0.0145716015 -0.087111264 -0.0039952393 -0.23642816 -0.04866545 0.0130116725
-0.019212762 -0.0007799838 0.085253835 0.04431896 -0.17320201 0.048762348 -0.083516225 -0.060209956
-0.015255297 0.17853075 0.048968375 -0.011573918 0.02879224 -0.21301852 -0.037882052 -0.045841254
0.020890478 0.087102115 0.11922152 -0.13414966 0.12014453 -0.0367204 0.15627761 -0.009383715
0.014148099 0.1926478 -0.04279757 -0.12805691 0.07388218 -0.013678163 -0.1149294 -0.2182084
0.16408168 -0.026890568 0.031155847 -0.09649435 0.0991319 -0.0047986717 0.029688226 0.028589489
0.120714866 0.06075029 -0.070405625 -0.121764615 0.06483581 0.17859149 0.16871528 0.03825249
0.03149876 -0.076343976 0.017880792 0.07658506 0.13730726 -0.114952564 -0.027370568 0.046878487
-0.06682773 -0.076808475 0.05973865 0.0202254 -0.05033555 -0.056983635 0.057380427 0.0109126
0.046049226 0.018465377 -0.08407888 0.11681284 0.038398124 0.09252508 0.121500626 0.17289232
-0.16980445 0.01451514 0.14915283 0.07074081 -0.17412893 -0.17242418 -0.07748857 0.07133311
0.006324877 -0.1268532 0.06291633 0.058042523 -0.053203955 0.07952236 0.069078244 0.15567712

a2c_network.actor_mlp.2.weight f4 [64, 128]
00000000: 54c7 b1bd 074c b13d aa94 34bd fd18 debc
00000010: 50e4 153d a3b5 8ebc a60a b83d 0849 bbbc
00000020: 64b1 863d e07d 82bd abbb 933d 0838 51bd
00000030: 443c bd3d c892 ea3d 5361 743d 125f b1bd
00000040: 550f 5f3d 7cd8 49bd 8b3b a03d 0ac0 ecbd
00000050: e532 abbb 0a5a 78bd 9e53 ccbd 92fd 05bd
00000060: b4c4 83bc c402 33bd 92be a23d 253c 6cbc
00000070: d78a 0c3d f99d 53bc 2229 97bd 6ca5 8c3c
00000080: 0f76 8b3d 8e24 393d 87b0 c1bd 53f1 413d
00000090: 6829 6c3d 735a 18bc 3f1f af3c 11d3 603d
000000a0: 2655 febc 25b6 583d 0613 65bd fd13 25bd
000000b0: 0b6d 22bc 7626 05bd 596d 1cbd f34a d33b
000000c0: 1468 833d 85be 1abc c251 203d 8d01 f0bd
000000d0: 37df 92bd 9f02 043c 07a9 ebbc e614 90bd
000000e0: 25ea 3dbe fc72 9c3c d881 cc3c 7068 533d
000000f0: 328e c1bd 6773 8b3d 95c2 74bc cb5d 8e3d
00000100: 5fa5 053e cd4a 00bd 897c f9bc d8ed 1b3d
00000110: ae60 bd3d 67e8 a43c 7d46 fa3a 99b6 aebd
00000120: 1002 b9bd 1a83 143e 19b3 273d 7f27 54bb
00000130: a3d2 0b3d a2cd 48bc 3915 903d eb5e 103d
00000140: e6a5 a2bc a9f0 39bd 540f 13ba f39a 99bc
00000150: 0b85 3d3d 891a b33d bf0a 493c 7533 da3d
00000160: 0d85 be3a 45bb c5bc 81ae 1bbd 9c63 d23d
00000170: 6e08 30bd b4c1 6fbd afc1 743d c8ff e6bc
00000180: f62d 39bd 639c 54bd 1fca d5bd 54a0 b43d
00000190: 63cb 6a3d 5516 aabd 46a3 e53c baa8 e4bd
000001a0: ded6 103d 91e2 8bbd 9d9a a9bd d77c 4e3d
000001b0: 174a a7bb 75bf 02bd 7eb1 4abd 6a1d d63d
000001c0: 1fe4 603d 23d0 a4bd fa9b 00bd 7f18 17bd
000001d0: 99ce 4bbd ff8d e03d 9f92 8d3d 47f2 a3bc
000001e0: acab 24bd 06b4 933a 5c87 313c 74d4 0f3d
000001f0: e81c 973d 000b b5bc f98b cbbc 20d1 f7bd
00000200: 8cd4 11be c6b8 7e3d c5e5 90bd 5540 42bd
00000210: 517c 263d 1fde 0cbe 15ac bbbd 4d9f 7bbd
00000220: 3cf5 3a3d 1d7d 983c 811d 72bc 8871 0c3d
00000230: bd6e 9abd 7813 883c 2bd4 1e3c 76a3 b5bd
00000240: 9106 1f3e 4a00 98bc 3e64 743d 71cb bfbc
00000250: 7d44 573e 589d c3bd 36c8 99bd c7d0 163d
00000260: 906e a6bc c720 493d f9f0 9c3c 109a 44bd
00000270: fe67 9a3d af50 adbb 8276 a7bd 1f35 513a
00000280: 3f21 e73d be86 dfbc 53b3 aebd 15d5 3e3d
00000290: 8a16 393d 4af3 ea3d 5109 38bc 883e d43d
000002a0: dafa 273c cb6d eebd 72e4 ccbd ad25 75bc
000002b0: 18dc 6b3d ebb6 16bd f5fc c4bd 5e8b 083e
000002c0: cb78 69bd 7e51 aabd 41dc 6ebd d96b 14be
000002d0: 9053 29bd 7bc1 3d3e 9397 983d c42c 1a3e
000002e0: f664 62bd 39bb a3bd 5da5 eb3d 26ba 8a3d
000002f0: 421b e73c 4220 203e 38ea 02be 4b39 043d
00000300: fc48 d03d 337c 04be 59eb 803b 0995 c83d
00000310: d0e5 89bc 7ba9 20bc 88b6 993c 183c 9d3d
00000320: fe42 15be c50f 7f3d 50ba 79bc 6724 42bd
00000330: 1f82 dfbd 91bd 0ebe b313 a63d 0491 fcbd
00000340: fe05 81bc 85dc eebc 25b5 85bd 796f a63d
00000350: c8f1 0dbe e292 34be e5ae 6bbd 3771 b5bb
00000360: 07b4 00be ff4d c83d 2b7f 85bc 1458 86bd
00000370: 6c32 703d d8ee de3d 8586 6fbc 0f7b 01be
00000380: dd69 13bc 1483 1ebd 2852 9dbd 6ad8 52bd
00000390: a85c 3d3d 59e9 d0bd b3c0 373d a4ca 83bd
000003a0: 667c 5c3c f156 4ebd ce52 b4bd 99e5 7abc
000003b0: 0828 85bd 2421 94bd 2d6a 3dbe db4f f5bd
000003c0: a736 e33c 06c7 e3bc 9e2f 51bd a92d 12be
000003d0: 6d9e 0e3e 6593 8a3d 15e0 bb3d 2915 c4bd
000003e0: 7770 9dbd af66 fabc ebdd 4d3d 8616 d0bd
000003f0: 6218 12be cffa 89bc d36c fabd 8e85 d0bd
-0.08680597 0.08657079 -0.04408709 -0.027111525 0.03659469 -0.017420596 0.08986406 -0.022861972
0.06576803 -0.06371665 0.07213529 -0.051078826 0.092400104 0.114537776 0.059663128 -0.08660711
0.05445798 -0.04927872 0.07823857 -0.11560066 -0.005224573 -0.060632743 -0.09976886 -0.032712527
-0.016085006 -0.04370381 0.07946505 -0.014418636 0.034312095 -0.012916082 -0.07380892 0.017168723
0.06809627 0.045200877 -0.09457498 0.047349285 0.057656676 -0.0092989085 0.021377204 0.05488879
-0.031046461 0.05290808 -0.055926345 -0.040302265 -0.009913693 -0.032507382 -0.03819022 0.0064481436
0.06416336 -0.009444837 0.03914047 -0.11719046 -0.07171481 0.008057266 -0.028767122 -0.07035236
-0.1854635 0.019097798 0.024964258 0.05161327 -0.0945095 0.068091206 -0.01493897 0.06951483
0.13051365 -0.031321336 -0.03045489 0.038068622 0.09246956 0.02013035 0.0019094493 -0.085309215
-0.090335965 0.14503136 0.040942285 -0.0032372174 0.034136426 -0.012256058 0.07035298 0.03524677
-0.019854497 -0.045395527 -0.0005609889 -0.018750643 0.046269458 0.087452956 0.0122706285 0.10654346
0.0014535502 -0.024137149 -0.038008217 0.10272905 -0.04297679 -0.05853434 0.059755024 -0.028198138
-0.045209847 -0.051906954 -0.10438942 0.08819643 0.05732287 -0.08305041 0.028031956 -0.111649945
0.035361163 -0.068303235 -0.08281443 0.050412025 -0.0051052677 -0.03192087 -0.049485676 0.10454829
0.054905053 -0.080475114 -0.03139875 -0.036888596 -0.049757574 0.109645836 0.069127314 -0.020012988
-0.04020278 0.0011268861 0.010835495 0.03511472 0.0737856 -0.022099972 -0.024847018 -0.12100434
-0.14241236 0.062187932 -0.07075075 -0.047424633 0.0406459 -0.13756607 -0.091636814 -0.061431218
0.04564403 0.018614346 -0.014777542 0.03428796 -0.07540653 0.016610846 0.0096941395 -0.08869068
0.15529849 -0.018554825 0.05966591 -0.023412438 0.2102222 -0.09551495 -0.0750889 0.0368202
-0.020316392 0.049103525 0.019157873 -0.047998488 0.07539366 -0.0052891592 -0.081769004 0.0007980633
0.11285638 -0.02728593 -0.08530297 0.04658993 0.04518751 0.11472185 -0.01123269 0.103634894
0.010252679 -0.11642035 -0.1000451 -0.014962596 0.057582945 -0.036795538 -0.0961856 0.13334414
-0.056999963 -0.08316325 -0.05831552 -0.14494266 -0.041339457 0.18530838 0.074507855 0.15056139
-0.055272065 -0.07994694 0.1150615 0.06773786 0.02821124 0.15637305 -0.1278466 0.0322812
0.10170171 -0.12938003 0.0039343056 0.09794051 -0.016833216 -0.009806032 0.018763795 0.076774776
-0.14576337 0.0622709 -0.015242174 -0.047397997 -0.109134905 -0.13939501 0.08109226 -0.12332347
-0.015749928 -0.029157886 -0.06528691 0.081267305 -0.13861763 -0.17634156 -0.05753984 -0.005537178
-0.12568675 0.097805016 -0.01629599 -0.06559768 0.058641836 0.108853996 -0.014619474 -0.126446
-0.008997408 -0.038699225 -0.07681686 -0.05147592 0.046230942 -0.102007575 0.044861507 -0.06435135
0.013457393 -0.050375883 -0.08804856 -0.015313529 -0.06501776 -0.072328836 -0.18497534 -0.11978122
0.027736021 -0.027804863 -0.051070802 -0.1427523 0.13927622 0.067663945 0.091736 -0.095743485
-0.076874666 -0.030566541 0.050260466 -0.10160546 -0.14267114 -0.016843228 -0.12227788 -0.101817235

a2c_network.actor_mlp.2.bias f4 [64]
00000000: 47bc 5abd 863e 6bbe 936c 953c d257 86bd
00000010: 7aa3 aa3c 9fd1 f4bd 12c4 73be 4a65 93bd
00000020: 55c5 a93d c306 133b b2a0 013d 4aac 753c
00000030: b22c 8dbc db68 41be 82fc e03d 067f 43bd
00000040: eebe cb3c de49 48bd 2e2a 883c 3ccc aabd
00000050: 16b0 05be a4df 3d3d cdad acbd a2e0 09bd
00000060: 56bf 00be 834b 2bbc 8b4e a93c b2ec 883b
00000070: 4ecc 07bd 5619 0c3e 1552 3dbd 2f6a 093d
00000080: a5e1 0dbe 8330 bcbc a8c7 18be 6df7 943d
00000090: 9239 cc3c 10b7 0e3d 315f 563d ff72 1bbe
000000a0: 518c 3c3e a11e cebd 94d9 cabd b616 813d
000000b0: d725 70be 2b91 30be 6b7c d5bb c22a 4cbd
000000c0: 048e c03d f6c2 cd3b 2028 5d3d 085e b43d
000000d0: 0d83 8ebc 7d21 c73d 0a48 94bd 9587 103e
000000e0: bcea 173e 83f0 3d3d 22ca 97bc b2cd 63bd
000000f0: e51c 73bd a547 a1bd c901 14be 9eb9 63bd
-0.05340221 -0.2297307 0.018240249 -0.06559719 0.020829905 -0.119540446 -0.23805264 -0.07197054
0.08289591 0.002243445 0.03164739 0.01499469 -0.017233226 -0.18887655 0.10985662 -0.04772856
0.024871316 -0.04889857 0.016621675 -0.08339736 -0.13055453 0.04635586 -0.08431587 -0.033661492
-0.12572989 -0.010455015 0.020667335 0.004178607 -0.033153825 0.1368154 -0.046220858 0.03354853
-0.13855608 -0.022972351 -0.14919913 0.07273755 0.024929795 0.03484255 0.052336875 -0.15180586
0.18412901 -0.10064436 -0.09904781 0.0630316 -0.23451935 -0.17242877 -0.006515076 -0.049845465
0.09402087 0.0062793447 0.053993344 0.088069975 -0.017396474 0.09723184 -0.07240303 0.1411422
0.14835638 0.046371948 -0.018529002 -0.05561609 -0.059353728 -0.07874993 -0.14453806 -0.05559694

a2c_network.actor_mlp.4.weight f4 [32, 64]
00000000: ef81 d53d bed2 e63d d172 91bd bce0 8e3d
00000010: c3e2 25bc 2326 d0bb 601e 4f3c b849 5d3c
00000020: e561 afbd 06f0 73bd 982c 7ebd a07d 663d
00000030: 7a11 26bd 1b1f 0a3d 7d8a 85bc 9810 5b3c
00000040: 030a dabd cf5f 853b 9d60 0bbe 4fe7 99bc
00000050: b4df e63c 6870 f63c a0ed 403d 1917 a23c
00000060: 7827 bebc f437 b6bd 3ed9 a0bd 57d8 87bd
00000070: 0786 103d a34e 1cbd 9272 083d 5f0f 5ebc
00000080: b98e c23d bf43 933d 7a9e 8fbd 1961 82bd
00000090: 2bdc e53c fb21 82bd 7f10 b73c e764 35bd
000000a0: 9983 10bd b285 313d f198 953d 8655 233d
000000b0: 2137 ebbc a5af 0bbd 71b6 63bc 3a08 a13d
000000c0: 06c2 083e 49cc 62bd 525d 633d b1c0 dd3c
000000d0: b298 aebd 5a8c 18be 1e88 fb3b f53e 0dbe
000000e0: cb45 6cbd 7063 83bd 9440 fb3c 1dd1 60bc
000000f0: e523 80bd 58a3 acbd 450f 4b3e 5cd2 72bd
00000100: b87b 5a3d 305e a03d e13b 03be 3ab7 25be
00000110: 9cd8 afbd 39d6 113d 9e28 413c afb1 a83d
00000120: 6c8e 69be 6c1e 01bd f7d7 9d3a b24a 78bc
00000130: 01bf 253d c85f ad3d 5451 48be 2db3 313d
00000140: 28ec 27be 5aea efbd 00b7 813d 9497 e23d
00000150: d8b0 823d 5b44 bdbc f9a5 813c 61ef 563c
00000160: fdbf 983b 912d d1bd bf55 9f3d 96e8 c3bc
00000170: 0a53 8c3d dfe0 a5bc dbfe ccbd 770b cc3d
00000180: a2d5 fb3c 967e b23b 988e 153d 43c3 943d
00000190: e578 86bd 2cf3 0dbd 588c a7be 6052 c93d
000001a0: 322c 3abe a019 cfbb 11bd 3c3d 57e1 6abd
000001b0: caa1 203e 3a7b 1c3e e721 03be 8696 87bd
000001c0: 5222 dcbd 890b 8cba d04c 87be 7b2a 13be
000001d0: 92cb 10be f4ec b0bd d065 f93d e7ac af3d
000001e0: 9545 20be 798e 3ebd 0780 6ebd 71e0 79bc
000001f0: 1167 183e 89d2 343c cb80 bebc a376 b4bc
00000200: ac54 e93c 4146 633d 58e0 5bbd 57d0 ed3d
00000210: bfb8 47be 82c3 02be bf92 22bc 2111 b23d
00000220: 9548 d1bd eaf3 d4bc da5b 12bd f925 97bc
00000230: a9b7 20bd a647 983d b265 e53c 5490 4a3e
00000240: fb42 813c 392e 38bc e227 b63c 149b babd
00000250: 3729 213e 0f11 6b3d 0abe 39bd 9634 103e
00000260: dad8 213d 1dc6 b2bc d994 56bd 7134 31bd
00000270: 022a cfbc 4d52 6b3d ff62 83bd 5bf9 da3c
00000280: 5f6b 853c 9f6e d63d dca3 f43d e21f 913b
00000290: bde2 d5bd 5463 17be e95f 44be f0dc 4abd
000002a0: 5cd4 44bd 9693 193e 07c9 363d 92be 63bd
000002b0: 7a1b bdbc 0f48 403e 6269 893c 306f 15be
000002c0: 3893 29bc b81f d0bc f990 a7bd d44e 04be
000002d0: 9196 20be 6ca2 8ebc 2982 d43d b532 cfbc
000002e0: 5e22 b43d 8ce4 663d 7a27 74be e3cc 863d
000002f0: 48fa 503e 1e3b 2ebd 41f5 b43d 7f1d b33b
00000300: 8844 c8bd 3805 bb3d 8bed d5bd 7085 02be
00000310: 40b0 1bbe ddec f6bd 91a0 a53c c959 86bd
00000320: b86f 9dbd f67a 863d d480 7cbd b8d5 a03d
00000330: 6540 423d 63cd 6fbd 24e8 3b3d 5d67 543d
00000340: ef22 2abe 7431 54bc 65f9 a73d a3f9 15be
00000350: 73e7 5dbc f2b6 ecbd c1a5 003d a25c 883c
00000360: 82e6 033b f530 bc3d 0680 81bd 38e8 25bc
00000370: 0124 06be ce26 173d 7d4e eabd 2075 2c3d
00000380: 1b05 9d3c 3f0d 733d 9a9f a2bd 9fa3 7e3d
00000390: 872e 233d 489f 04be f9a0 9ebd fc9e aabd
000003a0: ea3e 77bd f2bc 983d 7a8e 313d ab9c c23d
000003b0: 20de 4ebe b35b 08bd 8230 eb3a 4497 773d
000003c0: 1d6a 69bb 36d2 76bd 88f1 36bd 2cfa c7bd
000003d0: 2333 b33d e000 b53d 82ef 5ebd 3d31 11bd
000003e0: 8e9a 1d3d fb38 b23d e6be 1fbe 6975 043e
000003f0: f55f b03d 2697 f8bd d4fd 09bd f9a5 c13c
0.104251735 0.11270665 -0.071019776 0.069764584 -0.010124865 -0.0063522025 0.012641519 0.013506345
-0.08563594 -0.059555076 -0.062054247 0.05627215 -0.04054401 0.03372107 -0.016301388 0.0133706555
-0.10646441 0.004070259 -0.13611074 -0.018787054 0.028182842 0.030082896 0.047101617 0.019786404
-0.02321218 -0.08897391 -0.07853936 -0.066330604 0.03528407 -0.03816093 0.033312388 -0.013553469
0.094998784 0.07190656 -0.07012649 -0.06366176 0.028059086 -0.063541375 0.022346733 -0.04428568
-0.03528175 0.043340392 0.07304562 0.039876483 -0.028712811 -0.034103055 -0.013898478 0.07862897
0.13355264 -0.055370603 0.05550892 0.027069421 -0.08525218 -0.1489729 0.0076761385 -0.13793547
-0.057683747 -0.064154506 0.030670442 -0.0137217315 -0.06256846 -0.08429593 0.19830044 -0.059282646
0.053340644 0.07830465 -0.1281581 -0.16183177 -0.08586237 0.03560469 0.011789469 0.082370155
-0.22808236 -0.031523153 0.0012042512 -0.0151545275 0.04046536 0.084655344 -0.19562274 0.043383766
-0.1639868 -0.11714621 0.063337326 0.110640675 0.063813865 -0.023103883 0.015826212 0.013118596
0.0046615587 -0.10213769 0.07780027 -0.023914617 0.06851776 -0.020248828 -0.10009547 0.09963124
0.030741517 0.005447219 0.03651294 0.07263806 -0.065660276 -0.034655735 -0.3272426 0.09830165
-0.18180922 -0.0063201934 0.046078745 -0.057343807 0.15686718 0.15281382 -0.12805901 -0.06620507
-0.107487336 -0.001068459 -0.2642579 -0.14371674 -0.14140156 -0.08638945 0.12177622 0.085779004
-0.15651543 -0.04652259 -0.058227565 -0.015251265 0.14883067 0.011036524 -0.023254773 -0.022029227
0.028482758 0.05548692 -0.053680748 0.11612003 -0.19504069 -0.12769893 -0.009922682 0.08694673
-0.10218922 -0.025995214 -0.035732128 -0.018450724 -0.039237652 0.07435541 0.028002594 0.1978162
0.01577901 -0.011241489 0.022235814 -0.0911161 0.15738378 0.057389315 -0.04534725 0.1408256
0.039513446 -0.021822983 -0.052388046 -0.043262903 -0.025288586 0.057451535 -0.064153664 0.02673023
0.01628655 0.10470318 0.11945316 0.0044288496 -0.104436375 -0.14783984 -0.19177212 -0.04952711
-0.048054084 0.14997706 0.04462531 -0.055601664 -0.02308439 0.18777488 0.016773883 -0.14593196
-0.010350041 -0.02540575 -0.08181948 -0.12920696 -0.15682437 -0.017411433 0.103763886 -0.025292734
0.087956175 0.056370303 -0.23843184 0.06582048 0.20407975 -0.042536847 0.08835841 0.0054661627
-0.09778696 0.09131855 -0.10445698 -0.12746215 -0.15203953 -0.12056897 0.020218166 -0.06560094
-0.07687324 0.06566422 -0.061646298 0.078532636 0.047424693 -0.05854548 0.045875683 0.051856387
-0.16614889 -0.012951244 0.08201865 -0.1464601 -0.013543951 -0.115583315 0.031408075 0.016645733
0.0020126407 0.09189025 -0.06323247 -0.010126166 -0.13099672 0.03690224 -0.11440752 0.042103887
0.019167474 0.059338804 -0.07940598 0.06216776 0.039839294 -0.12951386 -0.07745547 -0.08331105
-0.060362734 0.074579135 0.043348767 0.09502538 -0.20201921 -0.033290576 0.0017943534 0.060446993
-0.0035616227 -0.060259067 -0.044663936 -0.097645134 0.08749988 0.088380575 -0.05442763 -0.035447348
0.038477473 0.087022744 -0.15600166 0.12935413 0.08612052 -0.12138204 -0.033689335 0.023638712

a2c_network.actor_mlp.4.bias f4 [32]
00000000: bb67 0cbe 15dd 7bbd a77f 273c 6da1 8dbd
00000010: 007e e3bc 7142 19be ef29 a2bd 76d3 7bbc
00000020: 9ae8 253d bb1a 13be 3cbc ecbc b97f 8ebd
00000030: 8c4a 28bd 0301 35be a367 3abd 2395 4c3c
00000040: 7728 6a3c 345b dabc b04f 8b3d 025c cf3c
00000050: 4bff 10be 9602 6d3d fccc 20bd c00a 713d
00000060: ef77 52bd 0ede eabc 3997 103a 97a5 d5bb
00000070: 5975 66bd 6229 afbd b26b 53bd 699b 213d
-0.13711445 -0.061490137 0.010223306 -0.06915555 -0.027770042 -0.14966752 -0.079181544 -0.01537024
0.04050503 -0.14365666 -0.02889835 -0.06957955 -0.04108672 -0.17676167 -0.045508992 0.012486729
0.014291874 -0.026654817 0.068023086 0.025312427 -0.14159887 0.057863794 -0.03925799 0.058848143
-0.05138391 -0.028670337 0.0005515698 -0.006519984 -0.056264255 -0.08552815 -0.051616378 0.03945485

a2c_network.value.weight f4 [1, 32]
00000000: fb00 e2bc 3c9b 2b3e 8703 3a3d ba76 953c
00000010: 773c a3bd bebb 223d 7cf6 893c ddf7 a1bc
00000020: 8602 9f3b d4f9 d93d a42f dd3c a226 853c
00000030: a911 43bc ba8d b83d fd8a 1ebc 9877 89bc
00000040: 0b95 883c 9e3d 4e3c efff aabd 566a 903a
00000050: d869 283d 700c db3c ff95 dabb 3a3f dabc
00000060: 0ce6 d8bc 252e 8e3d 6c65 f0bc e1e2 47bc
00000070: 737f fbbb e67c 813b 878c cfbd 4ca3 9bbc
-0.027588358 0.16758436 0.04541352 0.01824509 -0.07970517 0.039729826 0.016841166 -0.01977151
0.0048525957 0.10643354 0.027000256 0.016253773 -0.011906066 0.09011407 -0.009676692 -0.01678066
0.016672632 0.012587933 -0.08349597 0.0011018019 0.041116565 0.02673933 -0.006670713 -0.026641477
-0.026476882 0.06942395 -0.029345237 -0.012200088 -0.0076751052 0.0039516566 -0.10134225 -0.018998764

a2c_network.mu.weight f4 [7, 32]
00000000: 5260 2c3b 2288 9ebc 9a6a 16be c181 5bbd
00000010: 54a3 e63d 012b fd3c 1d94 9a3d 25d0 413c
00000020: 3d22 16be 01fa 633e 58c9 d03d 3c09 5b3e
00000030: b11d 3e3d 7cd2 243e 66ad 023c ff25 13be
00000040: 5bb8 b1bd f3cc 11be 037f 96bd 2f88 aebb
00000050: 40cb 083e 7d12 93be dfff 32bd 812d 5fbd
00000060: be91 cf3c 0f1d 9a3d d6ac fabd d1e2 07bd
00000070: a804 27bd 3cee d33c cd07 343d ef95 adbd
00000080: fecf 923d 126a 17bd b0de 05be 8e87 9abd
00000090: 6422 d63c 87bb e13c be27 1dbe 34c4 8bbd
000000a0: 76c2 84bd f000 b1bd a271 12be d761 2a3e
000000b0: b739 323d 2c5d 8c3d 18fa 8ebc 1b06 213e
000000c0: 73d2 06be f571 00be 1b6a 31be b97c e43d
000000d0: c8cf 81bb a55e bc3d 1102 1b3c b049 a9bd
000000e0: df79 b5bd b897 e4bd a87f d13d 92d9 72bd
000000f0: 0fbc f0bd ff25 6f3d e053 bf3d a049 44bd
00000100: 5d08 323d 0c13 1dbe 6a76 f0bd bf47 5abd
00000110: 0a93 223e 3a2e a1bc a603 433e 9acb 99bd
00000120: 3431 7c3d ab26 51be 24d2 663d 333b 513e
00000130: 7bbd 3cb9 a347 ef3b a8a7 233e 4ffc 38bd
00000140: 01cb d1bc 1953 20bd b25e d53d a1b7 183d
00000150: db8e c8bc db8e 18be bed0 a7bc d643 6d3d
00000160: 2cbe 163e 929a 31be c62c 9c3d 9639 703e
00000170: f1b1 873e aa1e 843d 1954 6d3e 69bb bf3d
00000180: 09e2 bf3d cef0 d83b e450 94bb f8ce 5a3e
00000190: 6e5b cdbd ff94 713e caf2 473e fa66 343e
000001a0: e5bd 1dbe 4b4b 313e c631 453e 580d b4bd
000001b0: 1f78 503d 0570 3c3d 7310 353e 6889 07be
000001c0: 2292 68be 56a1 033e 3bad 8dbc eef4 a6bd
000001d0: 52ae 1f3e 1567 47be 41ea 76bd a53d d0bd
000001e0: 9533 2b3e cd61 94bd 1f30 82bd 5bb8 3a3e
000001f0: 1fe6 be3d 71a3 0ebd b3f8 c63d 0f21 47be
00000200: 4a9d 12be d8b8 213e 4659 b6bd d2bf c03d
00000210: 0747 293e 2138 793d f761 d73b 7ebc 2a3e
00000220: 3b2e cabd 6a78 1cbd 9092 3d3e 8c61 e2bb
00000230: 58bb 99bd abd3 163e ab8f dabd 51e6 90bd
00000240: 8bc0 2ebe 33a5 27bd d064 cd3d 40d8 47bd
00000250: 5688 25bd 250b 493d 5f2b 0d3d 6c94 d53d
00000260: d26f c03d 5ecf a6bd 9335 ecbd d96b 9fbd
00000270: 7d44 d5bd 535a cbbd 50cf 3c3e 2424 813d
00000280: f1aa 233d 1c13 8a3b b5f1 133e 10ab 803c
00000290: 2eb2 bb3d 1353 1fbe f741 4a3e e4d3 ca3d
000002a0: 02a3 e1bd 34f2 62bd f220 753d 6f42 9f3d
000002b0: 1d0a 383c 0b3d 07bd 757f 21bd bf0e 86b8
000002c0: 01d7 39be b123 833d e755 5cbd 3b9a dd3d
000002d0: e4d3 8b3d 8544 cbbd 53f9 b1bd 90e6 45bd
000002e0: 3c64 d53d c140 d33a dec5 07be 281c 5b3d
000002f0: fe84 82bd 1999 963d 3792 f13d d5c8 c0bc
00000300: 96b4 a8bd f984 bdbd f88d afbd 03ff e0bc
00000310: 6a9e 1e3d 4232 923d 535d b53c a77e 723e
00000320: f782 0dbe 0511 a3bc bab1 5f3e dba0 1dbd
00000330: 3dba 333e a9d0 67bd 8d9d 0f3e c6f1 db3c
00000340: 9200 e9bd 5cf4 d8bd 6e9e 453e c69e 1f3e
00000350: d383 b53d 055a 8bbc b132 53be 4326 63be
00000360: dcc1 eebc c898 02be 398d 27bd 2a0a 543e
00000370: 12b4 1a3e 8857 593d a76e e03d 49b0 86be
0.0026302529 -0.019352023 -0.14689103 -0.05359054 0.11261621 0.030904295 0.075477816 0.011829411
-0.14661498 0.22263338 0.10194653 0.21390241 0.046415035 0.16095918 0.007975912 -0.14369963
-0.08677741 -0.14238338 -0.07348444 -0.005326293 0.13358784 -0.28725043 -0.04370105 -0.054486755
0.02533805 0.07525074 -0.12239997 -0.033175293 -0.040775925 0.025870435 0.043952752 -0.08475863
0.071685776 -0.03696639 -0.1307323 -0.07545386 0.026139446 0.02755524 -0.15347192 -0.06824532
-0.06482403 -0.08642757 -0.1430116 0.16638885 0.043512072 0.068537086 -0.017453238 0.15724985
-0.13166218 -0.12543471 -0.17325632 0.111566015 -0.003961537 0.091977395 0.009460942 -0.08266008
-0.08861136 -0.111617506 0.102294266 -0.059289522 -0.11754619 0.058385845 0.0934217 -0.047921777
0.043465007 -0.15339297 -0.11741336 -0.05329108 0.15876403 -0.019675363 0.1904436 -0.07509537
0.06157036 -0.20424907 0.05635275 0.20432739 -0.00017999664 0.007302241 0.15981925 -0.045162495
-0.025609495 -0.039141748 0.10418452 0.037284497 -0.024482181 -0.14898245 -0.020485278 0.05792602
0.14720982 -0.1734412 0.07625727 0.23459467 0.26502946 0.06451161 0.23176612 0.093619175
0.09369285 0.006620503 -0.0045262445 0.21368015 -0.100272045 0.23591994 0.1952621 0.17617407
-0.1540447 0.17313878 0.19257268 -0.087916076 0.050895806 0.046005268 0.17682056 -0.1323601
-0.22711995 0.12854514 -0.017294517 -0.081521854 0.15593842 -0.19472916 -0.060281996 -0.10168008
0.16718896 -0.072452165 -0.063568346 0.18234389 0.09321236 -0.03482384 0.09715404 -0.19446205
-0.14317814 0.15793169 -0.08903746 0.09411587 0.16531001 0.060844544 0.0065729576 0.16673467
-0.09872099 -0.038200773 0.1851294 -0.006908601 -0.07506436 0.14729182 -0.10671934 -0.07075179
-0.17065637 -0.04092903 0.10028994 -0.048790216 -0.040413223 0.049082894 0.03446519 0.104287
0.09396328 -0.08145021 -0.11533656 -0.07784242 -0.10413454 -0.09929337 0.18438458 0.063057214
0.039957944 0.004213704 0.14447673 0.015706569 0.091648445 -0.15559034 0.19751726 0.09903696
-0.110174194 -0.055406764 0.059845872 0.07776343 0.01123288 -0.0330172 -0.039428193 -6.3923646e-05
-0.18148424 0.06403292 -0.05379286 0.10820433 0.06827524 -0.099251784 -0.08690133 -0.048315585
0.10419509 0.0016117321 -0.13259074 0.05349365 -0.063730225 0.0735342 0.117954664 -0.023533264
-0.08237569 -0.09253878 -0.08572 -0.027465349 0.038725294 0.07138492 0.022139227 0.23681127
-0.1381949 -0.019905576 0.21845141 -0.03848348 0.17551513 -0.05659548 0.14024945 0.026848685
-0.11377062 -0.10593483 0.19298717 0.15587911 0.08863034 -0.017010698 -0.20624806 -0.22182564
-0.029145174 -0.12753594 -0.040906165 0.20707002 0.15107754 0.053061992 0.10958605 -0.2630637

a2c_network.mu.bias f4 [7]
00000000: d851 cabd b1c3 38bd aded 023d b5c1 f2bd
00000010: 159e 8a3b 7e45 91bd caa3 173d
-0.09878892 -0.0451085 0.031964947 -0.11853353 0.0042302706 -0.07093333 0.037021436

exp_avg f4 [7]
00000000: e12b 68bb 3ad9 123a 364f 33bb 10f1 0dbb
00000010: a0d9 02ba 5a2e 2d3c d94b 043b
-0.0035426544 0.0005601827 -0.0027360446 -0.0021658577 -0.0004991535 0.010570133 0.002018681

exp_avg_sq f4 [7]
00000000: 2f1c 553a 6b3b 283a 556e 8b3a 637b 183a
00000010: 8c6d 1f3a a676 1c3a 93e5 093a
0.0008129505 0.00064175454 0.001063774 0.0005816726 0.00060816924 0.0005968608 0.00052603445

exp_avg f4 [128, 18]
00000000: 80a9 c9ba d0b0 283b 79da 003b 9043 f238
00000010: 51e5 acba 5b62 2c3b 4be2 e73a 8e2b 9a39
00000020: a23c 75ba 596e 6f3b d3b3 7a3b 8269 273a
00000030: 7953 1a3b 6538 64bb 2113 b83a 971c 443b
00000040: 5c55 bb3a 466a 45ba 2016 fe39 b043 52ba
00000050: 7b42 2ab9 d079 6139 c8c6 a539 a39e 04ba
00000060: b6bb 67ba facb 6739 7bc2 94b9 84e1 15ba
00000070: 9817 34ba 9224 76ba 7cbf b0b8 5f2a 1e39
00000080: e86e c8b9 b425 17ba 8ed2 4ab8 c653 21ba
00000090: e534 c6b9 5657 653a 3f42 a83a d1da e639
000000a0: 1562 1eb9 cab1 fb3a 3290 8f3a 9a1c 133a
000000b0: 53b9 8eba bc2a f13a 53a8 253b 39f0 153b
000000c0: 13dd b93a f18f 22bb 9f3c 2d3a 155e ec3a
000000d0: 298d ad3a 408f 19b9 2dd9 a0b9 9679 8339
000000e0: 7dac cfb8 0452 75b9 5b8b 6d38 ffcd 80b9
000000f0: e6ba f4b9 cd9d 6ab9 ff10 9239 6c08 9c39
00000100: 433d 1db8 3ae8 a7b9 64c1 0f3a db91 72ba
00000110: ba3e e6b7 2b1b 10b8 e208 bbb9 9f77 eeb9
00000120: d0b2 6d3a 0653 4aba aa6a 253a e2a2 283a
00000130: 0b3f b539 7cb4 543a 3e23 02ba d23b 273a
00000140: f771 5eba eb52 03b9 3bfd fdb9 d2e3 b739
00000150: 2418 9fb9 e4fd df39 e2a1 44ba be5d df39
00000160: e2ad ac39 214f 67ba 2cea bd3a 3cd6 ceba
00000170: f754 9b3a b4eb 683a d0a8 eb38 2e08 213b
00000180: 1736 29ba 3dda c939 a737 dbba 040f b5b9
00000190: 7998 54ba d68b 643a 8599 18b9 58d3 a63a
000001a0: 24b8 19ba 46a9 a53a 417c 4b3a d38b 6539
000001b0: 8054 1d39 cf55 f8ba 4a06 da3a 5e8a 1bb9
000001c0: 5871 26ba 2c37 4c3b 3489 91b9 6ab9 fbb9
000001d0: 67e3 49bb 2e4c 373a 360b 2739 4d12 063a
000001e0: 0c9d 5e3a ecdd 703a 4068 a03a 3617 e23a
000001f0: 4598 a23a 84b5 873a 460b 2aba e0a0 163b
00000200: 73ea c83a 4ed9 4e3a 9c26 a1b9 9308 003b
00000210: 5e2b 9d3a d8c1 5e3a 0c72 99b8 3222 223b
00000220: 5216 5f3b 2f21 1d3b 630d d23a a94b 6dbb
00000230: f82f 223a 2bab 253b 4668 b53a f8d1 24ba
00000240: d89c 91b7 a045 3938 1712 d4ba 5c88 94ba
00000250: 63df 4d3a b231 efba 29a3 deb9 df63 7ab9
00000260: dd0f cc3a 5708 8cba 362f d7ba bf47 3339
00000270: 2567 1aba b490 fd39 86f7 b9ba 3b3f d4ba
00000280: 7341 0abb 7255 9e39 c923 91b8 8283 1db8
00000290: 12a9 f739 881c 9639 5eb7 f6b9 8d2a 103a
000002a0: f2c6 bb39 469e 80b9 c50c e9b9 f296 f638
000002b0: 597a b639 181b ad38 1729 15b9 47fe 8f39
000002c0: 7261 533a fc67 063a c3b1 343a 2a1d 273a
000002d0: f15b 4f39 b3b9 ebb9 2566 9b3a 00b8 043a
000002e0: 67da 7b3a 3cbe a83a 98d4 c0b8 b124 6e3a
000002f0: 8044 0dbb 2f0a f43a e39a aa3a b254 9f3a
00000300: 5c32 823a fdfc 83bb f4ca 5fb9 43f3 553a
00000310: 0ede 5e3a fbd5 39bb 7f57 6e3a e579 01bb
00000320: 5b2d 22bb f8d5 96ba 1e16 093b f406 5fbb
00000330: 9fc4 6cba 5924 8739 9605 9c3a 396b 22bb
00000340: d1e1 3fbb 497a c0b9 d0ff 07bb c43a 333a
00000350: 28f5 10bb 08a6 6dbb 01fa 1fbb d87d 67ba
00000360: f950 bfb8 3bea 89b8 ad73 2c3a 25e6 28b9
00000370: f313 5eba 225b cb3a b115 8b39 ffe2 25ba
00000380: 8a9c f2b9 1653 c239 204d 48b9 588c 3db7
00000390: 0931 043a 2294 ad3a 7556 0e3a 8090 923a
000003a0: 31ee 8439 cbb4 953a b0ad 0a39 f73e f3b8
000003b0: be77 05b8 20e0 4d39 5ed4 6237 5d20 8238
000003c0: 84f3 4938 80fc 1838 c41b c4b6 2312 4fb9
000003d0: b11d 1539 0552 a5b8 0be0 9b38 ef28 8939
000003e0: 64b7 1639 42c6 d1b7 52f4 9339 5066 0139
000003f0: b660 423a abe0 26ba 4521 673a f777 073a
-0.0015385598 0.0025740154 0.001966147 0.00011552044 -0.00131909 0.0026303742 0.0017691342 0.0002940562
-0.00093550433 0.0036534278 0.0038254156 0.00063862663 0.0023548289 -0.0034823653 0.0014043787 0.0029924267
0.0014292407 -0.00075307896 0.0004846314 -0.00080209505 -0.0001623723 0.00021503051 0.00031619356 -0.0005059039
-0.0008839922 0.00022105864 -0.0002837366 -0.00057175034 -0.0006869971 -0.00093896047 -8.428001e-05 0.00015083839
-0.00038229604 -0.0005765811 -4.8356647e-05 -0.0006154146 -0.00037804912 0.0008748671 0.0012837126 0.0004403205
-0.00015104593 0.0019202766 0.0010953008 0.0005611867 -0.0010888971 0.0018399577 0.002527733 0.002287878
0.0014180265 -0.0024805034 0.00066084595 0.001803341 0.0013240922 -0.00014644582 -0.00030679387 0.00025076856
-9.9026576e-05 -0.00023395574 5.6634988e-05 -0.00024567542 -0.00046678557 -0.00022374764 0.00027859953 0.00029760913
-3.748877e-05 -0.00032025744 0.00054838345 -0.00092533015 -2.7447346e-05 -3.4357578e-05 -0.00035674038 -0.00045484022
0.00090674777 -0.000771806 0.00063101447 0.0006432963 0.0003456998 0.00081140525 -0.0004964358 0.00063794584
-0.000848561 -0.00012524023 -0.00048444592 0.0003507422 -0.0003034483 0.00042723038 -0.0007500929 0.00042603718
0.0003293595 -0.0008823742 0.0014489344 -0.00157804 0.0011850883 0.000888522 0.00011237117 0.0024571526
-0.00064548984 0.00038500308 -0.001672496 -0.00034534198 -0.00081098784 0.0008718347 -0.0001455304 0.001272778
-0.0005863926 0.0012638948 0.0007762351 0.0002189123 0.00015004165 -0.0018946471 0.0016633954 -0.00014833498
-0.0006349287 0.0031160815 -0.0002775878 -0.00048012595 -0.0030805708 0.00069922477 0.00015930537 0.00051144214
0.000849203 0.00091883424 0.00122381 0.0017249349 0.0012404999 0.0010353778 -0.0006486665 0.0022984073
0.001532866 0.0007890657 -0.0003073708 0.001953636 0.0011991074 0.0008497513 -7.3168514e-05 0.002473962
0.0034040404 0.0023976078 0.0016025718 -0.0036208427 0.00061869575 0.0025279026 0.001384028 -0.00062873913
-1.7358383e-05 4.417228e-05 -0.0016179708 -0.0011332142 0.00078534166 -0.0018249063 -0.00042464703 -0.00023879063
0.0015568692 -0.0010683638 -0.0016417268 0.00017097498 -0.00058900035 0.00048363733 -0.0014188148 -0.001619316
-0.002109614 0.0003019977 -6.920804e-05 -3.7554193e-05 0.00047237478 0.00028631487 -0.00047057396 0.00054995046
0.00035815645 -0.00024531985 -0.00044450737 0.0001175831 0.000348049 8.2543294e-05 -0.00014225054 0.00027464537
0.0008063532 0.0005127189 0.00068929436 0.000637489 0.00019775309 -0.0004496105 0.0011856003 0.00050628185
0.00096074346 0.0012874077 -9.194872e-05 0.0009084447 -0.0021555722 0.0018618758 0.001301613 0.0012155978
0.0009933221 -0.0040279613 -0.00021342543 0.0008161554 0.00085017167 -0.0028356302 0.00090920174 -0.0019756493
-0.0024746272 -0.001150786 0.0020917724 -0.0034031244 -0.00090319844 0.00025776288 0.001190352 -0.0024783148
-0.0029278884 -0.00036712203 -0.0020751841 0.0006837065 -0.002211878 -0.0036262292 -0.0024410489 -0.0008830703
-9.122672e-05 -6.576298e-05 0.00065785163 -0.00016107464 -0.00084716006 0.0015514831 0.00026528307 -0.00063280755
-0.00046274468 0.00037064467 -0.00019102218 -1.1297954e-05 0.0005042707 0.0013243 0.0005429753 0.001118198
0.00025354468 0.0011421678 0.00013225409 -0.00011598871 -3.182119e-05 0.00019633817 1.3520095e-05 6.204911e-05
4.8148926e-05 3.6474783e-05 -5.8444875e-06 -0.00019747815 0.00014220808 -7.8830904e-05 7.432707e-05 0.00026161174
0.00014373433 -2.5007063e-05 0.00028220058 0.00012340513 0.0007414924 -0.00063658756 0.0008816908 0.00051677175

exp_avg_sq f4 [128, 18]
00000000: 40a1 1337 6b82 1137 8f77 4f37 edb4 0637
00000010: c017 df36 3644 1637 17f4 f436 2167 4937
00000020: dda5 3137 e298 c537 68e7 3937 f422 3a37
00000030: 8fd5 4937 b199 7237 2f74 8d36 35a9 1337
00000040: 22f0 ec36 e267 0e37 7cb2 8036 4da0 8e36
00000050: dcbb 7d36 b4ef 8536 5b70 6636 2a9a 9636
00000060: 2bec 9136 321b d436 0466 e436 cfe2 0a37
00000070: eefc e136 0a79 d936 ada1 ff36 4b53 2337
00000080: d508 c835 21cb 2e36 86f9 b736 2e9f 8036
00000090: 9ec9 5736 11b5 8c36 3b40 4a36 7bb8 6036
000000a0: 793e 5c36 8fe5 e636 f841 c236 d31a d636
000000b0: 2b79 b236 6f4d 2437 c6d1 1037 a287 e436
000000c0: 04e9 1337 b96c ef36 2548 0036 5ed3 3d36
000000d0: c7ae 8d36 3f9e 2c36 c91e 2936 ce27 fa35
000000e0: c143 2e36 d6e8 6736 20be 2a36 5f97 7836
000000f0: 00e6 9036 810b 9d36 2be7 7036 cc27 b236
00000100: 78ae d636 4e99 9f36 43ad dd36 261b 1037
00000110: 64ff 9935 2e64 ed35 75cb c836 6def 3f36
00000120: 9d7d 4336 21e3 5136 b265 a036 3e40 7536
00000130: 61aa 5236 4a8a e736 2c4d 8e36 56f6 ae36
00000140: 9759 e236 45c8 e236 6c7d a636 e50a ba36
00000150: 90e8 d236 0c63 da36 25eb 0e36 c25e 0b36
00000160: df41 9936 c572 8436 2224 1937 1815 2837
00000170: 0d53 3337 df82 0d37 c4cc e436 2c16 2e37
00000180: ddc3 1137 2ed4 8437 c83d 9037 5c5c a737
00000190: 8187 5037 f80f 7b37 1263 6037 4535 7f37
000001a0: 84c0 7636 4644 f136 c646 0137 d284 0b37
000001b0: f2c9 5537 75e5 3f37 3b52 4f37 7089 1937
000001c0: b01f e936 129d 2237 a189 1737 1eb8 4b37
000001d0: 4673 5337 f9da bf37 cda2 2037 931e 2b37
000001e0: c043 5e37 5413 5c37 c5e3 a636 c221 2f37
000001f0: d9a1 dc36 5e12 9e36 b6f3 6c36 e5c6 9a36
00000200: 38b4 6636 e5b3 4f36 3a06 3a36 2c72 7836
00000210: 3b7c 8a36 2ac6 b436 a87f 9236 7a46 0e37
00000220: e1af d636 7934 ad36 c4af c036 3bdc c436
00000230: 0afc cd35 9dba 4236 2f79 4f36 4797 6236
00000240: 7943 3a37 7657 f336 e85c 7037 e273 1337
00000250: 439b ae36 4355 1737 28aa f836 9399 8737
00000260: faf1 4237 16ce 0238 0582 4d37 2f8a 2537
00000270: 9c8b 8237 6c19 6d37 3f8f d836 0eb1 2c37
00000280: 1a14 0237 8b83 0637 711a 5036 9fed 5b36
00000290: 562c 6e36 a69b 1e36 9114 fb35 d638 2c36
000002a0: ae68 2136 296e 8a36 df68 7536 3fde ef36
000002b0: f8fb 7636 2205 3f36 4d4d 7d36 9a33 8136
000002c0: 9781 c935 7c08 3736 cbcb e735 03a4 1536
000002d0: dcd3 bd36 f1f2 b836 0804 1737 c2a9 e036
000002e0: 2dc5 bc36 2e7d 2637 c436 1237 f0c8 5437
000002f0: bfd8 6037 f009 7037 052c 5637 27c7 6937
00000300: f1da 3f37 68e6 7c37 201b 8536 b65f cd36
00000310: bcf5 0e37 64c1 2537 b619 e637 f731 e537
00000320: f615 dd37 4324 9b37 12ee 6337 9cd5 9637
00000330: 7060 8537 2f3e c837 e9b6 da37 8a64 5a38
00000340: f73d a237 cfc4 a937 270d e037 5bf3 e937
00000350: 7f42 4437 4fda a737 c587 6137 487e 8437
00000360: 03c5 0837 ed38 1e37 0017 1637 d056 eb36
00000370: 8be7 a636 f489 1237 4bbe c936 ec1b 4037
00000380: 9120 4137 6866 9737 8114 1737 fadb 1237
00000390: e6e5 4237 d332 3937 dfec 8336 3abb dc36
000003a0: 260b ce36 06f4 9b36 ce56 a836 868e 6936
000003b0: ea57 c436 3c21 9036 a076 6536 e432 b636
000003c0: ffdb b936 ae1b 1837 ce52 f036 491e 4b37
000003d0: 460b e636 71f4 e936 4b5b 0a37 7099 4037
000003e0: e8dd 0b36 8b47 7636 a721 9536 0e8d b336
000003f0: 5e40 5836 fc20 5636 64a2 8636 83df 7036
8.799427e-06 8.673039e-06 1.2365998e-05 8.0291475e-06 6.6486828e-06 8.956578e-06 7.3001825e-06 1.2004545e-05
1.058864e-05 2.3555422e-05 1.1080738e-05 1.1094602e-05 1.2030257e-05 1.4460108e-05 4.215653e-06 8.801279e-06
7.061303e-06 8.488047e-06 3.8354756e-06 4.2505912e-06 3.7809286e-06 3.991614e-06 3.433807e-06 4.4882954e-06
4.3488303e-06 6.3212583e-06 6.8068057e-06 8.278249e-06 6.7349674e-06 6.4811948e-06 7.6184137e-06 9.73495e-06
1.4903732e-06 2.6046257e-06 5.4828733e-06 3.833228e-06 3.2154853e-06 4.193404e-06 3.0137733e-06 3.3485983e-06
3.2818918e-06 6.8812583e-06 5.7893303e-06 6.3808197e-06 5.318919e-06 9.793191e-06 8.6319105e-06 6.8107192e-06
8.816136e-06 7.135412e-06 1.911548e-06 2.8286227e-06 4.222474e-06 2.5722109e-06 2.5200882e-06 1.8638036e-06
2.5967458e-06 3.455721e-06 2.5442641e-06 3.704299e-06 4.31831e-06 4.680304e-06 3.5897344e-06 5.3094464e-06
6.398008e-06 4.7564163e-06 6.6064836e-06 8.58939e-06 1.1473717e-06 1.7687032e-06 5.98415e-06 2.8600582e-06
2.913038e-06 3.1275633e-06 4.7802105e-06 3.6545239e-06 3.1391612e-06 6.9004354e-06 4.2409138e-06 5.2142814e-06
6.7457545e-06 6.7586393e-06 4.9617865e-06 5.5445003e-06 6.2855615e-06 6.508437e-06 2.129652e-06 2.076777e-06
4.5674237e-06 3.9472675e-06 9.1279235e-06 1.0018492e-05 1.0688568e-05 8.434726e-06 6.8187674e-06 1.03763705e-05
8.6882765e-06 1.583443e-05 1.7194907e-05 1.995096e-05 1.2429316e-05 1.4964484e-05 1.3374507e-05 1.5211587e-05
3.6768915e-06 7.1903078e-06 7.705477e-06 8.31597e-06 1.2742808e-05 1.1437912e-05 1.2357307e-05 9.15151e-06
6.94763e-06 9.692523e-06 9.032346e-06 1.2142611e-05 1.2603419e-05 2.2870941e-05 9.574648e-06 1.0199513e-05
1.3248005e-05 1.3117522e-05 4.9737014e-06 1.0438673e-05 6.5753525e-06 4.710905e-06 3.5308599e-06 4.612712e-06
3.4377572e-06 3.0950116e-06 2.7719784e-06 3.7021337e-06 4.127183e-06 5.3874874e-06 4.366e-06 8.480269e-06
6.398172e-06 5.1619104e-06 5.7425077e-06 5.8668934e-06 1.5347043e-06 2.9016876e-06 3.0915942e-06 3.376468e-06
1.1102174e-05 7.252146e-06 1.4326746e-05 8.788864e-06 5.203679e-06 9.020153e-06 7.4107847e-06 1.6164768e-05
1.1619641e-05 3.1186348e-05 1.2249225e-05 9.86694e-06 1.5562218e-05 1.413222e-05 6.4539777e-06 1.0293223e-05
7.753284e-06 8.01765e-06 3.1009806e-06 3.2771857e-06 3.549057e-06 2.3634434e-06 1.8706943e-06 2.566308e-06
2.40518e-06 4.125545e-06 3.6568888e-06 7.148628e-06 3.6803522e-06 2.8464206e-06 3.7744933e-06 3.850507e-06
1.5013383e-06 2.7274064e-06 1.7270153e-06 2.2298198e-06 5.6573026e-06 5.5119094e-06 9.00124e-06 6.6954826e-06
5.625791e-06 9.923517e-06 8.715029e-06 1.2682969e-05 1.3401906e-05 1.43074285e-05 1.2765643e-05 1.3934251e-05
1.1435463e-05 1.5074016e-05 3.9668666e-06 6.1206183e-06 8.521074e-06 9.879794e-06 2.743011e-05 2.7322194e-05
2.635548e-05 1.8494326e-05 1.3585684e-05 1.7980863e-05 1.5899743e-05 2.3870814e-05 2.60728e-05 5.2068885e-05
1.934076e-05 2.0238016e-05 2.6709005e-05 2.7889086e-05 1.1697993e-05 2.000961e-05 1.3442656e-05 1.579443e-05
8.152102e-06 9.430788e-06 8.946052e-06 7.013652e-06 4.9741407e-06 8.734398e-06 6.01242e-06 1.1450593e-05
1.1511279e-05 1.804829e-05 9.005075e-06 8.753495e-06 1.16168285e-05 1.1038693e-05 3.9316797e-06 6.578307e-06
6.1405763e-06 4.647768e-06 5.0168956e-06 3.4802665e-06 5.8514897e-06 4.2954034e-06 3.4192708e-06 5.429947e-06
5.5390406e-06 9.066351e-06 7.162197e-06 1.2106794e-05 6.8558466e-06 6.972398e-06 8.246697e-06 1.1479817e-05
2.084178e-06 3.66985e-06 4.4444637e-06 5.3510366e-06 3.2223975e-06 3.1907684e-06 4.012416e-06 3.5892888e-06

exp_avg f4 [128]
00000000: 3310 323b eeef 72ba e03e 093b fce5 56ba
00000010: 1948 68ba 9afc 6138 1447 2b3b 3fc8 f03a
00000020: d6ca 52bb 308f 013b c25c 93ba 2132 b1bb
00000030: cab4 c53a 2268 fc39 8bf0 2eba af73 863a
00000040: 8cf7 67bb 9c21 9db9 7514 ceba 9cb8 41bb
00000050: 0572 b0bb d9ba 97b9 3ad5 c7ba c2ae 2cba
00000060: 9e8e 9a3a 304f 8cba fbc8 b3bb a2b0 023b
00000070: 2fbc 3abb 3330 beb9 a278 b939 2b26 cd39
00000080: 98e8 0ebb 89b2 89ba 98a0 923b 52a9 afbb
00000090: c8be 6bbb cf6d b4ba 8add 893b a165 b9ba
000000a0: c30f dfba 9cdc 563b 1966 003b 1673 f5ba
000000b0: a0b8 aebb 5b41 8239 4791 093b f199 973a
000000c0: 4c6c 003b c1b5 f23a d9be 903b 9a1e 5d39
000000d0: 39df 313a 0ff4 36bc c447 01bb 704a a6bb
000000e0: ca5b 3a3b 30a0 9eba 030a d0b9 658a aabb
000000f0: e3b3 dfba 7d91 83bb 98e3 4338 1350 09bb
00000100: f25d e8ba 8904 683a cdff 85ba 8904 2ebb
00000110: d0cf 06bb 7813 6dbb 38f0 f0b7 2912 90bb
00000120: 30c1 1c3b b8f6 55bb 55cf fd39 766c fa3a
00000130: 783a 313a c11d 86bb 5b1e 4abb 30ed 893a
00000140: f5dc 60ba d083 643a 0161 583a be5d 58bb
00000150: 3327 eb3a 46ce 603b 07d5 ef3a 60ca 66bb
00000160: 2581 913b 40b0 4b3a 6ec8 8f3a c684 6aba
00000170: c94c b9ba 56ea 7939 9454 14bb 0c15 8737
00000180: da98 e739 e615 3cba 498a 0839 c793 ba38
00000190: 85e3 13ba dd95 f138 d439 553a f369 d53a
000001a0: 9826 ffb9 4402 273a d90f 043b dc1d d6b9
000001b0: ded5 82ba 311f fd3a 9179 883b 0683 993b
000001c0: 0363 bbba 2d5e e33a 23a6 f53a 44ed bd3b
000001d0: 1979 c8b9 0adb 39bb 6263 b0b8 fe6f 363a
000001e0: 1a3d 413b 6b7a 30bb f9c3 213a 7ce7 593b
000001f0: 591a 2a3b ed1b c3b9 e751 833a 4144 ad3b
0.00271703 -0.00092673197 0.0020942017 -0.00081977225 -0.0008860841 5.3879434e-05 0.0026134895 0.0018370225
-0.0032164357 0.0019769184 -0.0011242854 -0.005407587 0.0015083787 0.0004814277 -0.0006673417 0.0010257865
-0.0035395352 -0.00029970414 -0.0015722649 -0.0029559499 -0.005384686 -0.00028940177 -0.0015246042 -0.000658732
0.0011791771 -0.0010704752 -0.005486605 0.0019941707 -0.0028493514 -0.00036275535 0.00035375828 0.00039129084
-0.0021806117 -0.0010505478 0.0044747107 -0.0053607607 -0.0035971869 -0.0013765636 0.0042073177 -0.0014144668
-0.0017018247 0.0032785302 0.0019592105 -0.0018726315 -0.0053320676 0.00024844226 0.0020991133 0.0011566264
0.00195958 0.0018517302 0.004417282 0.00021087602 0.0006785277 -0.011166587 -0.0019726614 -0.0050747916
0.0028436058 -0.0012102183 -0.0003968031 -0.005204486 -0.001706716 -0.0040151463 4.6703586e-05 -0.002095227
-0.0017728193 0.00088507734 -0.0010223329 -0.0026552996 -0.0020570643 -0.0036174934 -2.872209e-05 -0.004396696
0.002391886 -0.0032648277 0.00048410395 0.001910581 0.00067607267 -0.0040929024 -0.0030840847 0.0010522958
-0.0008577847 0.00087171514 0.0008254201 -0.003301486 0.001794076 0.0034302636 0.001829774 -0.003521584
0.004440444 0.0007770099 0.0010969767 -0.00089461764 -0.0014137264 0.00023833787 -0.002263342 1.6103055e-05
0.00044173637 -0.0007174894 0.00013021486 8.896697e-05 -0.0005641508 0.0001151969 0.0008133922 0.0016282186
-0.00048666145 0.0006370882 0.0020151048 -0.00040839508 -0.000998195 0.0019311664 0.0041648825 0.0046848087
-0.0014296476 0.0017346792 0.0018741529 0.0057961065 -0.00038237197 -0.0028359317 -8.4108455e-05 0.0006959437
0.0029485882 -0.0026928436 0.0006170865 0.0033249548 0.0025955646 -0.00037214105 0.0010018916 0.0052876775
