runs/BallBalance_11-16-09-10/nn/BallBalance.pth (torch, 172255 bytes, 36 tensors)

value_mean_std.running_mean f8 [1]
0	0x3fc45949e2a924f9	0.15897487227838505

value_mean_std.running_var f8 [1]
0	0x3f7c1806267a2620	0.006858848595251682

value_mean_std.count f8 []
0	0x40de384000000000	30945.0

running_mean_std.running_mean f8 [18]
0	0xbf7a4ef98abef63d	-0.0064229724629832315
1	0x3fb7803b2a91a965	0.09180040158540732
2	0xbfb48a778e1ae6ef	-0.08023783892977197
3	0xbfa1d4aa10bd462d	-0.034825624984147964
4	0x3fb4c511753563f9	0.08113202201401738
5	0xbf7b7c05f1fd0e19	-0.006710074638081953
6	0xbfba3ee8d3a9e672	-0.10252242248125201
7	0xbfb5db1aac683bc1	-0.0853745146671221
8	0x3fd6dc7ab02191d8	0.3572069854765494
9	0xbfd667456e0bf20c	-0.3500531744646487
10	0xbfc5af07f8ec430d	-0.16940402655065903
11	0x3fcc29386f747e38	0.22000794832364234
12	0xbfa300b466ba4359	-0.03711475137709525
13	0xbfc3a27cf7183d09	-0.1533962446705817
14	0x3fbb1f989322e4ae	0.10595086662478323
15	0x3fc310d3ea1d7baa	0.14895104342846582
16	0xbfc89d7d8a59f8aa	-0.19230622535173342
17	0x3fb9dce860250f92	0.1010270342567863

running_mean_std.running_var f8 [18]
0	0x3fcf9cce57e262d6	0.24697284022547333
1	0x3fa1ae116f926a73	0.03453115927660102
2	0x3fbb94dfcd503997	0.10774039042028104
3	0x3fd4a93aa3fa4483	0.32282892239988586
4	0x3fabd51727eea56f	0.05436012613729246
5	0x3f82ac9923c3fe64	0.00911826744459105
6	0x3f8d6a4907d4f586	0.014362879325399158
7	0x400ca44a711266ff	3.580220111250014
8	0x3fe757226cda8125	0.7293865324063843
9	0x4006b62b37549e2d	2.838949615735848
10	0x401578cf609c0eaa	5.367978581929188
11	0x3fe5b62e1b6004bc	0.6784887823743229
12	0x3feeacf86460a262	0.9586145363328564
13	0x3ff3fe442557177b	1.249576707706608
14	0x3f79a35c9e54bc61	0.006259309569300959
15	0x3f729d26deeb93ad	0.0045444029226232975
16	0x3fd1a0c2c73942d7	0.2754370637458527
17	0x3fca414cf2be3604	0.20511781552015418

running_mean_std.count f8 []
0	0x40ce388000000000	15473.0

a2c_network.sigma f4 [7]
0	0xbf06d46a	-0.5266787
1	0xbf2a1884	-0.6644366
2	0xbedd965e	-0.43278784
3	0xbf0f4117	-0.55958694
4	0xbedb866e	-0.42876
5	0xbf01e37e	-0.5073775
6	0xbe174690	-0.14773011

a2c_network.actor_mlp.0.weight f4 [128, 18]
0	0xbe09009f	-0.13379143
1	0x3dbe0c77	0.09279721
2	0xbe160bbf	-0.14652918
3	0x3d6ac7af	0.05731934
4	0xbb0b7e84	-0.0021285126
5	0x3e87ae24	0.26500046
6	0xbce28495	-0.02765111
7	0xbe55c584	-0.20876127
8	0xbe41bc13	-0.18919401
9	0xbe3d4cc9	-0.18486322
10	0x3e33638f	0.17518447
11	0xbe7a940c	-0.24470538
12	0x3dfd4e2f	0.12368428
13	0xbe1d27ca	-0.1534721
14	0x3e71a5c0	0.23598385
15	0xbe792acc	-0.24332732
16	0xbd8da135	-0.069155134
17	0x3e69daee	0.22837421
18	0x3cbe9c9c	0.023268037
19	0x3e8ff80c	0.28118932
20	0x3dd4270d	0.10359011
21	0xbd8c35bd	-0.06846187
22	0x3dadf058	0.084931076
23	0x3db021f8	0.08600229
24	0x3e0c8ea3	0.13726287
25	0x3e8f9ba5	0.28048435
26	0x3e31076f	0.17287992
27	0xbdc294c1	-0.09501029
28	0x3e026c02	0.12736514
29	0xbdad0c8e	-0.0844966
30	0x3d919dc2	0.07110168
31	0xbe217ae5	-0.15769537
32	0xbe5fd772	-0.2185953
33	0xbea964bc	-0.33084667
34	0xbe8b9837	-0.27264568
35	0x3e7a884c	0.24466056
36	0xbdc66a58	-0.09688252
37	0x3e4406ae	0.19143173
38	0x3d62fb73	0.055415582
39	0xbcbfdfc4	-0.02342213
40	0x3e0b5f2a	0.13610521
41	0xbcf9cbff	-0.03049278
42	0x3d1a68b0	0.037697494
43	0xbe4dde37	-0.201043
44	0x3e08f8b9	0.1337613
45	0xbe1ffa59	-0.15622844
46	0x3e780b49	0.24223055
47	0xbdedfd3e	-0.11620568
48	0x3dd0efab	0.10201963
49	0xbe1d1fc5	-0.1534415
50	0xbd6a93df	-0.057269927
51	0xbebcb03a	-0.368532
52	0x3dfcbd5c	0.12340805
53	0x3e5d2289	0.21595205
54	0x3e83ad3e	0.2571811
55	0xbe9d3274	-0.30702555
56	0xbe5195f1	-0.20467354
57	0xbe633e70	-0.22191787
58	0x3dc3ef00	0.0956707
59	0x3dad03c1	0.084479816
60	0xbaa93a34	-0.0012911023
61	0x3e1c3fff	0.15258788
62	0xbd62515b	-0.055253368
63	0xbe52c5af	-0.20583223
64	0x3c6f3b4e	0.014601542
65	0xbd19bba1	-0.037532452
66	0xbd85181d	-0.0649874
67	0xbbe129f5	-0.0068714567
68	0x3e7c2b41	0.24625875
69	0xbf211f30	-0.62938213
70	0xbcf98d22	-0.030462805
71	0xbe1795ed	-0.14803286
72	0x3e49e897	0.19717632
73	0xbe8dbefd	-0.27684775
74	0x3e2d5e67	0.16930543
75	0x3e93de4d	0.2888054
76	0xbe9072db	-0.28212628
77	0xbddf610e	-0.109071836
78	0x3d8864dd	0.06659863
79	0xbe15cd14	-0.14629012
80	0xbe217738	-0.15768135
81	0xbe7cbbe8	-0.24681056
82	0xbdbf2b9f	-0.09334492
83	0x3c17d73a	0.009267623
84	0x3d31e782	0.043433674
85	0xbd9fc294	-0.07800785
86	0x3e6853e6	0.22688255
87	0xbee2e7e3	-0.4431754
88	0x3ddfea29	0.109333344
89	0xbe08ca92	-0.13358524
90	0xbdce54fa	-0.10074802
91	0xbe67db4a	-0.22642246
92	0x3e32f88a	0.17477623
93	0x3daa7c22	0.08324458
94	0x3e0f84ad	0.14015456
95	0xbe448184	-0.19190031
96	0x3d3fb2f9	0.04680154
97	0x3e71a6ef	0.23598836
98	0xbdda67c8	-0.10664326
99	0xbb8e9f12	-0.0043524588
100	0xbcab1edd	-0.02088874
101	0xbc05d264	-0.008167837
102	0x3c849ec9	0.016188996
103	0xbe052071	-0.13000657
104	0xbe767ea7	-0.24071752
105	0xbe5c25f3	-0.21498851
106	0xbe9a627b	-0.3015326
107	0xbea71542	-0.32633406
108	0xbdc60a3c	-0.09669921
109	0xbd9dd030	-0.07705724
110	0x3ce4a9f2	0.027913067
111	0xbd899fc3	-0.06719925
112	0x3eb16828	0.34649777
113	0x3d3e69d4	0.046487644
114	0xbdd5bb4b	-0.10436114
115	0x3e68dff5	0.22741683
116	0x3cf8005a	0.030273605
117	0xbd23a4b2	-0.039951988
118	0xbe435bc9	-0.19077982
119	0xbe291fd6	-0.1651605
120	0x3d87b59b	0.06626435
121	0xbd1da5df	-0.038488265
122	0x3d33b339	0.043872092
123	0xbeca6878	-0.39532828
124	0x3de9035f	0.11377596
125	0xbe7230e1	-0.23651458
126	0xbd7ca24a	-0.06167821
127	0xbdfb6443	-0.12274983
128	0x3d5cf2c6	0.053942464
129	0x3e451a33	0.19248275
130	0x3e8d13fe	0.27554315
131	0xbe04da0c	-0.12973803
132	0xbcc96eb7	-0.024588926
133	0xbe16062f	-0.14650796
134	0xbcdb0223	-0.026734417
135	0xbe28becf	-0.16479038
136	0x3e1c9f94	0.15295249
137	0xbd76dd93	-0.060269903
138	0x3d48e53f	0.04904675
139	0x3dbb36fc	0.09141347
140	0x3e599809	0.21249403
141	0xbf0dfa88	-0.55460405
142	0x3e95959f	0.29215714
143	0x3ca48ffe	0.020088192
144	0x3b855123	0.00406851
145	0xbeb260d1	-0.3483949
146	0x3dc3c2b3	0.0955862
147	0xbdcbc096	-0.09948842
148	0xbd946bb0	-0.07247102
149	0x3e6fe94a	0.23428836
150	0xbc98b265	-0.018639753
151	0xbdb81c1e	-0.08989738
152	0xbe1aca26	-0.15116176
153	0x3dc2d694	0.09513584
154	0x3e76c5ef	0.24098943
155	0x3cdfac2b	0.027303776
156	0xbc6e48cd	-0.014543724
157	0xbe01bd62	-0.126699
158	0xbeafa3d3	-0.34304675
159	0xbd732219	-0.05935869
160	0x3e8e8f94	0.27843916
161	0xbe8213a8	-0.25405622
162	0x3e2b9cdb	0.16759054
163	0x3d10c268	0.03534165
164	0x3d294435	0.041324813
165	0xbd549242	-0.051897295
166	0x3e973b2d	0.29537335
167	0x3e1be119	0.15222587
168	0x3c507b9a	0.012724781
169	0xbd9f40f2	-0.07776059
170	0x3b72d809	0.0037055037
171	0x3d42dbd3	0.047572922
172	0xbe2ce4be	-0.16884133
173	0x3d814e9f	0.06313824
174	0x3dff2144	0.12457517
175	0x3dd8c863	0.10585096
176	0xbd073dd7	-0.03301796
177	0xbec09529	-0.376138
178	0x3c9da161	0.01924199
179	0x3d7655cf	0.060140427
180	0x3e852e6f	0.2601199
181	0x3d285412	0.0410958
182	0xbd9fc71e	-0.078016505
183	0xbbef0288	-0.007294003
184	0x3e71c399	0.23609771
185	0x3dee762b	0.116436325
186	0x3df09880	0.11747837
187	0x3cd985eb	0.026553115
188	0x3c971500	0.01844263
189	0xbdef6cbb	-0.116906606
190	0xbe5ec36b	-0.21754234
191	0x3dc0231e	0.09381698
192	0xbda2c901	-0.07948495
193	0x3c8d43c4	0.017244227
194	0xbe906107	-0.28199026
195	0xbe67b47f	-0.22627448
196	0xbcd0bd89	-0.025481002
197	0x3e383358	0.17988336
198	0xbe335b61	-0.17515327
199	0x3dddfaf0	0.10838878
200	0x3e13226a	0.14368597
201	0x3cc823b3	0.024431085
202	0xbec88fa3	-0.39172086
203	0x3e134b15	0.1438411
204	0xbdfadd62	-0.12249257
205	0xbe315629	-0.17318024
206	0xbd4aae1a	-0.049482442
207	0x3de36a47	0.11104255
208	0x3e8dfa3c	0.27729976
209	0xbd96bcb2	-0.073602095
210	0xbc3e6ce4	-0.011622641
211	0xbe7ac67d	-0.2448978
212	0xbe7a0713	-0.24416761
213	0x3eb927f1	0.36163285
214	0x3e32e32f	0.17469476
215	0x3ec5ec5f	0.386569
216	0x3e93772c	0.28801858
217	0xbb586c08	-0.0033023376
218	0xbdd0fe0c	-0.102047056
219	0xbe177e1b	-0.14794199
220	0xbd4773f6	-0.048694573
221	0xbe5e000e	-0.21679708
222	0xbca30182	-0.01989818
223	0xbb3319b9	-0.0027328564
224	0xbdab2a33	-0.08357658
225	0xbcd6180d	-0.026134515
226	0xbe117055	-0.14203008
227	0xbdaddb6c	-0.08489117
228	0x3dbcd389	0.09220035
229	0xbe847dc5	-0.25877205
230	0xbb95dd5f	-0.0045735086
231	0x3ed43681	0.41447833
232	0xbdb66d2a	-0.0890754
233	0xbed2683a	-0.41095144
234	0xbd817647	-0.06321388
235	0xbe29d053	-0.16583376
236	0xbcf30454	-0.02966515
237	0xbe907a7f	-0.28218457
238	0x3eb781e0	0.35841274
239	0xbdd9e411	-0.10639203
240	0x3e612f6c	0.21990746
241	0x3e59a94b	0.21255986
242	0x3e0c417e	0.13696858
243	0xbe1dae31	-0.1539848
244	0x3e377f66	0.17919692
245	0xbb0a7940	-0.00211294
246	0x3d5caf12	0.053877898
247	0x3e145b2e	0.14487907
248	0xbd2644ac	-0.040592834
249	0xbe037575	-0.12837775
250	0xbe0841ea	-0.13306394
251	0xbec85e83	-0.39134607
252	0x3e772420	0.24134874
253	0xbe909d30	-0.28244925
254	0x3e5b68f4	0.21426755
255	0x3dba5a33	0.090992354

a2c_network.actor_mlp.0.bias f4 [128]
0	0x3e1f91e9	0.15583004
1	0x3d7840a4	0.06060852
2	0x3dd69b4f	0.104788415
3	0x3b11ad7e	0.0022228654
4	0x3d56ffa6	0.0524899
5	0xbd3f675a	-0.046729423
6	0xbe2d7a3c	-0.1694116
7	0xbb86a793	-0.004109332
8	0x3ba5a9d1	0.005055644
9	0xbcbb052b	-0.022829613
10	0xbe23baeb	-0.15989272
11	0xba49f10e	-0.00077034615
12	0x3d4ba4cd	0.049717713
13	0x3e219966	0.15781173
14	0xbc7ee8e0	-0.015558451
15	0xbdfe9b6e	-0.124319896
16	0xbe3ce0fd	-0.18445201
17	0xbdb12767	-0.086500935
18	0xbe7b87be	-0.245635
19	0xbe5354df	-0.20637845
20	0x3be741b2	0.007057392
21	0xbc25ed28	-0.010127343
22	0xbd4a8d51	-0.049451176
23	0xbe0c01d2	-0.1367257
24	0x3cf4880d	0.02985003
25	0x3d4d5831	0.050132934
26	0xbe14cacf	-0.1453049
27	0x3e4ed1c9	0.20197214
28	0xbde58925	-0.11207799
29	0xbd8047ad	-0.06263671
30	0xbd011108	-0.031510383
31	0xbc0b7b19	-0.0085132355
32	0xbe22d0c2	-0.15899947
33	0xbdbb6268	-0.09149629
34	0xbe9a553c	-0.30143154
35	0xbe634f90	-0.2219832
36	0xbe4902b5	-0.19629939
37	0xbe66c7a7	-0.22537099
38	0xbdf81ce2	-0.12114884
39	0x3b91437e	0.0044330945
40	0x3dad271c	0.08454725
41	0xbcc40be5	-0.023931453
42	0xbe3266c5	-0.17422016
43	0xbd93bf07	-0.0721417
44	0xbdb52d65	-0.08846549
45	0x3a5ad7f1	0.0008348218
46	0xbea22c5b	-0.31674466
47	0xbddaaaf9	-0.10677142
48	0xbd698c99	-0.05701885
49	0xbca64c79	-0.020300137
50	0xbd7e5eab	-0.062102
51	0xbe5af17e	-0.21381184
52	0xbea7b854	-0.3275782
53	0xbe465bca	-0.19370952
54	0xbc47458b	-0.012162576
55	0xbe27fcdb	-0.1640505
56	0xbea6dc76	-0.32590073
57	0x3ce11d9a	0.027479935
58	0x3c53f495	0.012936731
59	0x3cf3a2b6	0.029740673
60	0xbc27cf5a	-0.010242308
61	0xbddcc4e5	-0.10779742
62	0xbc10f5b8	-0.008847646
63	0xbdabbd08	-0.08385664
64	0x3af0f55a	0.0018383667
65	0x3dabd50c	0.08390245
66	0x3d2a3c0c	0.04156117
67	0xbe18ed55	-0.14934285
68	0xbda0a61c	-0.07844183
69	0xbe0cb66a	-0.1374146
70	0xbe86296d	-0.2620348
71	0xbe22d5e3	-0.15901904
72	0xbe0d1701	-0.13778307
73	0x3de226e6	0.110425755
74	0x3d22561a	0.039632894
75	0xbe340cdf	-0.17583035
76	0x3d4f1075	0.050552804
77	0xbe488ef2	-0.1958578
78	0xbe81dfad	-0.25365964
79	0xbdddd8ea	-0.10832389
80	0xbd982f1f	-0.07430863
81	0x3e2534d4	0.16133434
82	0x3d787650	0.060659707
83	0x3e3403f2	0.1757963
84	0xbe4d7741	-0.20065023
85	0xbb2765e0	-0.00255429
86	0x3e23629b	0.15955584
87	0x3d223003	0.03959657
88	0xbd3d6a93	-0.046244215
89	0x3cf4e8ed	0.029896224
90	0x3c4d531f	0.012532025
91	0xbd921476	-0.07132809
92	0x3de248d0	0.11049044
93	0xbe0f97bd	-0.14022727
94	0xbcebfd30	-0.028807253
95	0xbe293ea0	-0.16527796
96	0x3e06851b	0.13136713
97	0xbddc43f9	-0.10755152
98	0xbc1281df	-0.0089420965
99	0xbd9cfe8e	-0.0766574
100	0x3d701a60	0.058618903
101	0x3c6769ce	0.014124347
102	0xbdf4fe46	-0.11962561
103	0x3cd22009	0.025650041
104	0x3d0ce92e	0.034402065
105	0xbdf78d1a	-0.1208746
106	0xbd993ad1	-0.074819215
107	0xbdea2144	-0.11432126
108	0xbdb38244	-0.087650806
109	0xbdf721da	-0.120670035
110	0x3d4c4715	0.049872477
111	0x3d8e4891	0.06947435
112	0xbe7c6979	-0.2464961
113	0xbe2a6f3e	-0.16643998
114	0x3daa8a8a	0.083272055
115	0x3db30fbc	0.087432355
116	0xbd8f70ba	-0.07003923
117	0xbe344f7a	-0.17608443
118	0xbdb545d3	-0.088512085
119	0x3dc61657	0.0967223
120	0xbe3f8d7d	-0.18706317
121	0xbe81da21	-0.25361732
122	0xbe1c4d53	-0.15263872
123	0x3cab6430	0.020921797
124	0xbcd60a4a	-0.026127953
125	0xbdc87243	-0.09787419
126	0x3d6a2193	0.057160925
127	0x3cfc46fe	0.03079557

a2c_network.actor_mlp.2.weight f4 [64, 128]
0	0xbd0c99d8	-0.034326404
1	0x3e328a11	0.1743548
2	0x3c840e44	0.016120084
3	0xbb23bea5	-0.002498546
4	0x3e1ac663	0.15114741
5	0xbc79767f	-0.015226006
6	0x3bee3489	0.0072694463
7	0xbe067a2e	-0.13132545
8	0x3d51b5ff	0.051198956
9	0xbde5ee46	-0.11227088
10	0x3dd31b3c	0.10307929
11	0xbd4c6a58	-0.049906105
12	0x3e24807b	0.16064636
13	0x3d1e3b40	0.038630724
14	0x3d783cf6	0.060605012
15	0x3e3d583a	0.18490687
16	0xbd054571	-0.032536928
17	0x3b1c453b	0.0023844976
18	0x3c905efe	0.01762342
19	0xbdc1e36d	-0.09467206
20	0xbd92ccb7	-0.071679525
21	0x3c794ca2	0.015216025
22	0xbce5c6f8	-0.028048977
23	0x3c96176e	0.018321719
24	0xbca3c06d	-0.019989217
25	0xbd8e6b1c	-0.06954023
26	0x3ca16664	0.019702144
27	0x3e154193	0.14575796
28	0x3d8d0b40	0.068869114
29	0xbe7fbc8e	-0.24974272
30	0x3c12eafc	0.008967157
31	0xbac7c3f6	-0.0015240896
32	0xbd70a02b	-0.058746498
33	0x3d7204f6	0.059086762
34	0xbe4fe12c	-0.2030074
35	0xbd6c05c2	-0.05762268
36	0x3d421609	0.047384296
37	0xbda2de90	-0.07952607
38	0xbe0e21db	-0.13880102
39	0xbe35e2a3	-0.17762236
40	0xbdfe2e89	-0.124112196
41	0xbc0f08d8	-0.008730136
42	0x3d91cbf7	0.07118981
43	0xbc52f504	-0.012875799
44	0xbe036b7b	-0.1283397
45	0x3e3495c2	0.17635253
46	0xbe1c2d4a	-0.15251651
47	0xbbc2db3c	-0.005946545
48	0xbccceee9	-0.025016265
49	0xbdaac9c3	-0.08339264
50	0x3e4777b5	0.19479258
51	0x3dd9fe7e	0.10644244
52	0xbe178e0d	-0.14800282
53	0xbb8b4acb	-0.0042508594
54	0xbd89b3ca	-0.06723745
55	0xbd8aefd2	-0.06784023
56	0xbdffd8a4	-0.12492493
57	0xbd412372	-0.047152944
58	0x3e332e44	0.17498118
59	0xbdede4b7	-0.116158895
60	0x3d8ce51d	0.068796374
61	0xbd16c53b	-0.036809187
62	0x3c72a390	0.014809504
63	0x3d375d78	0.044766873
64	0x3d03e6ed	0.03220265
65	0xbe091f12	-0.13390759
66	0xbe2d8ff0	-0.16949439
67	0xbd848e7f	-0.064724915
68	0x3d8b3de4	0.06798914
69	0x3d71ceb5	0.05903502
70	0x3cd60866	0.026127052
71	0xbe5eae78	-0.21746242
72	0x3d33f039	0.043930266
73	0x3e312d8e	0.17302534
74	0x3bf65804	0.0075178165
75	0x3cb4521d	0.02201181
76	0x3dc286b5	0.094983496
77	0x3caa1be8	0.02076526
78	0xbdd9ba61	-0.10631252
79	0x3ddf92c2	0.10916664
80	0xbcdfc6bb	-0.027316442
81	0xbe41a51a	-0.18910637
82	0xbd81541a	-0.06314869
83	0xbe663f02	-0.22484973
84	0xbd99976e	-0.07499586
85	0xbe21665d	-0.15761705
86	0x3c548e18	0.012973331
87	0x3e4f4c6a	0.20243993
88	0xbca033b8	-0.019555911
89	0xbd45fd02	-0.04833699
90	0x3e3833b2	0.1798847
91	0x3dab30d6	0.08358924
92	0xbcf4684e	-0.029834893
93	0x3baeeeb9	0.0053385166
94	0x3db25ea2	0.08709456
95	0xbdc2629c	-0.094914645
96	0xbdec22b5	-0.11530057
97	0xbe15e1a1	-0.14636852
98	0xbe3a9431	-0.18220593
99	0x3d15a288	0.036531955
100	0x3d82f98e	0.06395255
101	0xbe154313	-0.14576368
102	0xbd73b7b2	-0.059501357
103	0xbdda1ea3	-0.10650375
104	0x3df6ea70	0.12056434
105	0xbd29c2c1	-0.041445497
106	0xbd62e96d	-0.055398393
107	0x3b0e92c9	0.0021754971
108	0x3e621180	0.22076988
109	0x3d397fae	0.04528778
110	0xbdb6ded6	-0.08929221
111	0x3d9e9371	0.07742966
112	0xbd1e536c	-0.038653776
113	0xbe2f9d35	-0.17149813
114	0xbd77aea3	-0.06046928
115	0x3c6d86f9	0.014497512
116	0xbe0029a7	-0.12515889
117	0x3c5accbc	0.013354477
118	0x3bfd72d4	0.007734636
119	0xbe1c8e1a	-0.15288582
120	0x3dbf4a69	0.093403645
121	0xbda2f386	-0.07956605
122	0xbd6f0852	-0.058357544
123	0xbd679bfe	-0.05654525
124	0xbdcfe96e	-0.10151945
125	0x3d304094	0.043030336
126	0xbc28da10	-0.010305896
127	0x3dc13555	0.094340004
128	0xbe8ad7c6	-0.27117747
129	0xbe544bc5	-0.20732029
130	0xbdc132c4	-0.09433511
131	0xbe14d993	-0.14536123
132	0x3def51a5	0.11685494
133	0xbe41cf9a	-0.1892685
134	0xbd899bb8	-0.06719154
135	0xbdd1d88b	-0.102463804
136	0x3d7aeb41	0.06125951
137	0x3d962133	0.07330551
138	0x3d5b7954	0.053582504
139	0xbda59967	-0.080859
140	0xbd5256b8	-0.051352233
141	0xbdfdb698	-0.123883426
142	0x3db379fb	0.087635
143	0x3ccba07a	0.024856795
144	0xbceaf6a8	-0.028682068
145	0xbdece1a2	-0.115664735
146	0x3bf3f7da	0.0074453177
147	0x3ce3cc05	0.027807245
148	0x3df163c9	0.11786611
149	0xbd1756c2	-0.036947973
150	0x3c8194f4	0.015818097
151	0x3c9d40a8	0.01919587
152	0xbe907f81	-0.28222278
153	0x3d8e5444	0.06949666
154	0x3d82b45b	0.06382056
155	0xbd589040	-0.052871943
156	0xbd3d7c27	-0.04626098
157	0xbd767495	-0.060169775
158	0x3c26f5cd	0.010190439
159	0xbda331e2	-0.07968499
160	0x3c994512	0.018709693
161	0xbdf33078	-0.11874479
162	0xbcfa04fb	-0.030519953
163	0xbe06c2d9	-0.13160266
164	0xbd9934f6	-0.074808046
165	0xbce2a56d	-0.027666772
166	0x3c990d8f	0.018683223
167	0xbdee9450	-0.11649382
168	0x3da7f75f	0.08201479
169	0xbe11c43e	-0.14235017
170	0xbce9760c	-0.028498672
171	0x3debc2bc	0.11511752
172	0xbdc149c3	-0.09437897
173	0xbda2552d	-0.07926402
174	0x3d6d8cc2	0.057995565
175	0x3cce545c	0.02518671
176	0xbd9b0824	-0.07569912
177	0x3de2b80d	0.11070261
178	0x3e038cbf	0.12846659
179	0xbd81bb68	-0.06334573
180	0xbd1293ad	-0.035785366
181	0xbd815f1a	-0.06316967
182	0xbe010867	-0.12600861
183	0x3d5f26ce	0.054480366
184	0x3d618c7f	0.05506563
185	0xbe78ad3e	-0.24284837
186	0x3cd19f2e	0.025588598
187	0xbe9170f0	-0.28406477
188	0xbd70f29b	-0.058825117
189	0xbd8b73a0	-0.06809163
190	0xbdeda6f1	-0.11604107
191	0xbd431462	-0.04762686
192	0xbd848eec	-0.06472573
193	0x3ce97e17	0.028502507
194	0xbd2bb43f	-0.041919943
195	0x3c4a15aa	0.012334267
196	0x3df14abf	0.11781835
197	0xbe4ff55f	-0.20308445
198	0xbda3cb3a	-0.07997747
199	0xbe11b43e	-0.14228913
200	0xbca91f60	-0.020644844
201	0xbddf72b2	-0.10910548
202	0x3c7b079b	0.0153216375
203	0xbe7150b0	-0.23565936
204	0xbea251b8	-0.3170297
205	0xbd9022e4	-0.07037905
206	0xbe1fc7ed	-0.1560361
207	0xbe4be83d	-0.1991281
208	0x3d109884	0.0353017
209	0xbe2c47eb	-0.1682431
210	0xbe96c7f0	-0.29449415
211	0xbdc39cdc	-0.09551403
212	0x3d55c685	0.052191276
213	0xbd0508ce	-0.0324791
214	0xbe235032	-0.15948561
215	0xbe8cfe6b	-0.27537856
216	0xbdc63147	-0.09677368
217	0xbe2c5425	-0.16828974
218	0xbd80a195	-0.06280819
219	0xbd401353	-0.04689343
220	0xbe6c35eb	-0.23067443
221	0x3d143ab1	0.036188785
222	0xbdb5a0fa	-0.088685945
223	0x3db31b1a	0.087454036
224	0xbe5a5e12	-0.21324947
225	0xbe2e21a1	-0.17005016
226	0xbdc2b50d	-0.09507189
227	0xbe079e62	-0.13244012
228	0xbe09345a	-0.13398877
229	0xbe47ea51	-0.19522978
230	0xbdbf9e7f	-0.093564026
231	0xbe1710d1	-0.14752509
232	0xbe01bab2	-0.12668875
233	0xbe967cc6	-0.2939207
234	0xbd5bae8f	-0.05363327
235	0x3ceb7a3f	0.028744815
236	0xbded345b	-0.11582252
237	0x3d51bef9	0.051207516
238	0xbe678eb5	-0.22613032
239	0x3e1c9f38	0.15295112
240	0x3c4185b3	0.0118116615
241	0x3dcb0d68	0.099146664
242	0xbcc78735	-0.024356464
243	0xbdc0ba91	-0.09410585
244	0xbca40985	-0.02002407
245	0x3ca9f46e	0.020746436
246	0x3d9435f9	0.07236857
247	0xbdf53fe3	-0.11975076
248	0xbd910f16	-0.070829555
249	0xbd9d6dc5	-0.076869525
250	0x3d2be34b	0.04196481
251	0xbe6e0eb2	-0.23247793
252	0xbe79b56f	-0.24385618
253	0xbceb5baf	-0.028730242
254	0xbd4f056d	-0.050542284
255	0xbde7edf6	-0.11324684

a2c_network.actor_mlp.2.bias f4 [64]
0	0xbd891003	-0.06692507
1	0xbd9bdb85	-0.076102294
2	0x3d7d6cb9	0.061871264
3	0x3d4d1436	0.050068103
4	0xbecabd87	-0.39597723
5	0xbe95d1d1	-0.2926164
6	0xbdbd2040	-0.09234667
7	0xbdd3e7fc	-0.10346982
8	0x3d0d7abc	0.034540877
9	0xbe748e22	-0.23882344
10	0xbda880db	-0.08227702
11	0xbcd59f86	-0.026077043
12	0xbe8aa536	-0.2707917
13	0xbe47c0c3	-0.19507127
14	0xbd525585	-0.05135109
15	0xbe8d6b4c	-0.27620924
16	0xbe8cc929	-0.27497223
17	0xbe8c3161	-0.27381423
18	0xbe22c55a	-0.15895596
19	0xbe003ae3	-0.12522464
20	0xbd41bc4d	-0.04729872
21	0xbdc226ee	-0.094800815
22	0xbe7692c4	-0.24079424
23	0xbe167bcc	-0.14695662
24	0xbed6e17b	-0.41968903
25	0xbd801848	-0.06254631
26	0xbe6ca365	-0.23109205
27	0xbe90e375	-0.28298536
28	0xbe665497	-0.22493206
29	0xbda38fbc	-0.079863995
30	0xbde84f41	-0.113432415
31	0xbdcda964	-0.10042074
32	0xbdde4f25	-0.10854939
33	0xbe862c48	-0.2620566
34	0xbc9c99c6	-0.019116294
35	0x3c47ceb2	0.012195276
36	0xbe47e7dc	-0.19522041
37	0xbea786ef	-0.32720134
38	0xbe1d4fc8	-0.15362465
39	0xbd86aaef	-0.06575572
40	0xbc9e6c9a	-0.019338895
41	0xbd94e229	-0.07269699
42	0xbe91ec14	-0.28500426
43	0xbe968789	-0.2940028
44	0xbe246972	-0.16055849
45	0xbe03605a	-0.12829724
46	0xbea1b798	-0.31585383
47	0xbe4a7573	-0.19771366
48	0xbdd9e0aa	-0.106385544
49	0xbd9ac51c	-0.07557127
50	0xbd6f4abb	-0.058420878
51	0x3af0e9ef	0.0018380265
52	0x3d307996	0.043084703
53	0x3b6b128d	0.0035869211
54	0x3d546467	0.051853564
55	0xbdf635eb	-0.12022003
56	0xbd20e941	-0.03928495
57	0xbdf1bc36	-0.118034765
58	0xbd224a02	-0.03962136
59	0xbe9077fd	-0.28216544
60	0x3ba52406	0.0050396947
61	0xbe2d1def	-0.1690595
62	0xbe0eb839	-0.13937463
63	0xbdebead2	-0.11519398

a2c_network.actor_mlp.4.weight f4 [32, 64]
0	0xbd4b30dd	-0.049607147
1	0x3e2b7c7b	0.16746704
2	0xbd4af437	-0.049549308
3	0x3dfe6254	0.12421098
4	0xbdb330ce	-0.08749543
5	0xbd9c7fd9	-0.076415725
6	0xbd0a6ae5	-0.03379335
7	0xbe82be34	-0.25535738
8	0xbe072ce4	-0.13200718
9	0xbe0c0334	-0.13673097
10	0x3d85e02a	0.065368965
11	0xbd97f625	-0.07419995
12	0x3d1f4700	0.03888607
13	0xbe347a0e	-0.17624685
14	0xbe4cc656	-0.19997534
15	0xbe5d3417	-0.21601902
16	0xbe2985a1	-0.16554882
17	0xbe374c78	-0.17900264
18	0xbe502da7	-0.20329915
19	0xbe353049	-0.176942
20	0x3bd542c0	0.0065082014
21	0xbd892691	-0.06696809
22	0xbd8b2025	-0.067932405
23	0xbe3f6c09	-0.18693556
24	0xbec01bcd	-0.3752121
25	0xbc0452e5	-0.008076404
26	0xbd1b0c8a	-0.037853755
27	0xbe25c366	-0.1618782
28	0x3d84bd75	0.064814486
29	0xbe268091	-0.16259982
30	0xbd9721c4	-0.07379487
31	0xbdd8672d	-0.10566554
32	0xbd318e50	-0.04334861
33	0xbdbf0760	-0.093275785
34	0x3d8fd63a	0.07023282
35	0x3c2ad675	0.010427107
36	0x3cd147f8	0.025547013
37	0xbdff6302	-0.12470056
38	0xbe63b1f5	-0.22235854
39	0xbe324831	-0.17410351
40	0xbd439c5c	-0.047756538
41	0x3df1c5f8	0.11805338
42	0xbdab953c	-0.083780736
43	0xbd435f9f	-0.047698613
44	0xbd85abb0	-0.065268874
45	0xbdd7b047	-0.10531669
46	0xbda4d1c7	-0.08047824
47	0xbb120231	-0.0022279138
48	0x3ddadd96	0.106867954
49	0xbdfdc655	-0.123913445
50	0xbe8bb66f	-0.27287623
51	0xbdc8e85a	-0.098099425
52	0xbd8915ee	-0.06693636
53	0xbe6d6a8a	-0.23185173
54	0x3dd9ae7a	0.10628982
55	0xbebb689a	-0.36603242
56	0xbd9e1fe8	-0.077209294
57	0x3d6599b8	0.0560548
58	0x3e38de7a	0.18053618
59	0xbd0b6e6a	-0.034040846
60	0xbe4df6e7	-0.20113717
61	0xbd502da0	-0.05082476
62	0x3df6dc58	0.12053746
63	0x3d7c821d	0.061647523
64	0x3e66fcf6	0.22557434
65	0xbd6c845e	-0.057743423
66	0xbd6fd324	-0.05855097
67	0xbe4972c7	-0.1967269
68	0xbe19eae6	-0.15031013
69	0xbdd9320a	-0.10605247
70	0xbdd47144	-0.10373166
71	0x3e0b5fb2	0.13610724
72	0xbe3182b6	-0.17335019
73	0x3cc57b6a	0.0241067
74	0x3ced69c5	0.028981099
75	0x3cbe4384	0.023225553
76	0x3da25fda	0.079284385
77	0xbd3b2e15	-0.045698244
78	0xbd5e934b	-0.05433969
79	0xbe99aa25	-0.30012622
80	0xbe2ba9f1	-0.16764046
81	0xbc76e0cc	-0.015068244
82	0x3b3958f6	0.0028281785
83	0x3e22fffb	0.15917961
84	0xbe1700fd	-0.14746471
85	0x3ca37ee1	0.019957962
86	0xbe5bf077	-0.21478449
87	0x3d800ce0	0.06252456
88	0xbe2e4411	-0.17018153
89	0xbcecdf4d	-0.028915072
90	0xbcb80942	-0.022465352
91	0x3d5daeb5	0.05412169
92	0x3d722425	0.0591165
93	0xbd3144ae	-0.04327839
94	0xbe16645d	-0.14686723
95	0x3e040798	0.12893522
96	0x3e08ceba	0.1336011
97	0xbe33a991	-0.17545153
98	0xbdc5e530	-0.09662855
99	0x3e1e2680	0.15444374
100	0xbdd6dc6b	-0.1049126
101	0xbe155ab8	-0.14585388
102	0xbdca3902	-0.098741546
103	0x3e205619	0.15657844
104	0xbcd487d8	-0.025943682
105	0xbd06eebd	-0.032942522
106	0x3d148d2c	0.036267444
107	0xbddb2d9b	-0.10702058
108	0xba6105df	-0.00085839437
109	0x3e29e033	0.16589431
110	0xbe74f6a3	-0.2392221
111	0xbdf30673	-0.118664645
112	0xbdb52607	-0.08845144
113	0xbb40380c	-0.0029330282
114	0xbddc6c80	-0.10762882
115	0xbbb122a2	-0.00540574
116	0xbd43f7e4	-0.04784383
117	0x3da08306	0.07837491
118	0x3d090632	0.033453174
119	0x3d201361	0.03908098
120	0xbd7439e3	-0.059625518
121	0xbdd83c1e	-0.105583414
122	0xbd0e1887	-0.03469136
123	0xbdc262f8	-0.09491533
124	0x3c8b58f7	0.017010195
125	0xbe151f53	-0.1456273
126	0x3cd28e2b	0.025702557
127	0xbe204662	-0.15651849
128	0xbe8bf641	-0.27336314
129	0xbe15ada6	-0.14617023
130	0xbdb19780	-0.086714745
131	0x3d9caa01	0.07649613
132	0xbe8a6b38	-0.27034926
133	0xbd636749	-0.055518422
134	0xbea736c3	-0.32658967
135	0x3d35809a	0.044312097
136	0xbdaf75ce	-0.08567391
137	0xbd4b19bd	-0.049585093
138	0x3c359015	0.011081715
139	0xbdbafafc	-0.09129903
140	0x3c833785	0.016017685
141	0xbe06b7a8	-0.13155997
142	0x3d0e69de	0.03476893
143	0xbe0bc40b	-0.13649003
144	0xbe540e7c	-0.2070865
145	0xbda32829	-0.07966644
146	0xbcdbbd4d	-0.026823664
147	0xbe1e7431	-0.15474011
148	0xbc67c51d	-0.014146117
149	0xbd86ca2f	-0.06581532
150	0xbcd6d3ed	-0.026224101
151	0x3d003d95	0.03130873
152	0x3c8d596d	0.017254556
153	0x3d9b541f	0.07584404
154	0xbcc4c07b	-0.024017563
155	0xbcf565a0	-0.029955685
156	0xbb27ebc0	-0.0025622696
157	0x3e0c37d9	0.13693179
158	0x3d9489ec	0.07252869
159	0x3dad56bb	0.08463808
160	0xbd91dd70	-0.07122314
161	0x3dc0d084	0.09414771
162	0x3d90307e	0.07040499
163	0xbc434772	-0.011918889
164	0xbe45cc7b	-0.19316284
165	0xbd35ba53	-0.044367146
166	0xbe24755a	-0.16060391
167	0xbe35a9da	-0.17740574
168	0xbd12f8cf	-0.035881814
169	0x3d8a8012	0.06762709
170	0x3dc73c65	0.09728316
171	0xbd0cb9bc	-0.034356818
172	0xbe5664a0	-0.20936823
173	0x3d826471	0.06366814
174	0x3dce4dda	0.10073443
175	0xbdd93b0a	-0.10606964
176	0x3cb99891	0.022655757
177	0xbdbe5d1f	-0.09295105
178	0x3cba0c89	0.022711055
179	0xbca36453	-0.0199453
180	0xbe46caf6	-0.19413361
181	0xbe3b6a96	-0.18302378
182	0xbda04cc9	-0.078271456
183	0x3dc2a0b0	0.09503305
184	0xbd1e3635	-0.038625915
185	0x3d88b65d	0.06675408
186	0xbcc11d4c	-0.02357354
187	0xbe1a4f3c	-0.15069288
188	0xbe0915b5	-0.13387187
189	0xbd04a149	-0.032380376
190	0xbd6c869a	-0.057745554
191	0x3e24b5ba	0.16084948
192	0xbd757171	-0.05992264
193	0x3e2b7081	0.16742136
194	0xbcff7365	-0.031182954
195	0xbd601eff	-0.05471706
196	0xbe69dc3f	-0.22837923
197	0xbcbd14ba	-0.023081172
198	0x3d695037	0.056961264
199	0x3e205c4a	0.15660205
200	0xbe7ac25e	-0.24488208
201	0xbdde83ea	-0.10865004
202	0xbd4cad41	-0.049969915
203	0xbd6ac124	-0.0573131
204	0xbdf09648	-0.11747414
205	0xbd39358a	-0.045217074
206	0xbdbaec15	-0.0912706
207	0xbe5a52ef	-0.21320699
208	0xbe90406b	-0.28174147
209	0x3bce81fb	0.006302116
210	0xbaff1d40	-0.0019463673
211	0x3d4e5fbc	0.05038427
212	0xbce24d88	-0.02762486
213	0xbe29d7dd	-0.16586252
214	0xbca1ee98	-0.01976709
215	0x3ddda9fc	0.108234376
216	0xbd8ab749	-0.0677324
217	0x3d008d66	0.031384848
218	0xbde74fae	-0.112944946
219	0xbdcba006	-0.099426314
220	0xbb973c4f	-0.0046153436
221	0xbe13bc5f	-0.14427327
222	0xbe4c6038	-0.1995858
223	0xbda421ac	-0.08014235
224	0x3aecbd6f	0.0018061827
225	0xbe3de9a9	-0.18546166
226	0x3c46220e	0.01209308
227	0x3bd11ffc	0.0063819867
228	0xbcc7e21b	-0.024399808
229	0xbe9d0680	-0.30669022
230	0xbd890af0	-0.06691539
231	0x3d80f357	0.062964134
232	0xbe82d620	-0.2555399
233	0xbe01c5e7	-0.1267315
234	0x3d51bc46	0.051204942
235	0xbd83869f	-0.06422161
236	0x3c08636d	0.008324486
237	0x3d7f1c12	0.06228263
238	0xbde9f47b	-0.11423584
239	0xbd8e59d4	-0.06950727
240	0xbe42b1b4	-0.19013101
241	0xbe6f3e22	-0.23363546
242	0xbe4889ad	-0.19583769
243	0xbda16ff5	-0.07882682
244	0xbd9bc1ea	-0.076053455
245	0xbd1ee651	-0.038793866
246	0x3b1cc860	0.0023923144
247	0xbe25ea4d	-0.1620266
248	0x3d19a778	0.037513226
249	0xbe34fffd	-0.17675777
250	0xbd6159e7	-0.05501738
251	0xbdb7cd44	-0.08974698
252	0x3de027c8	0.10945088
253	0xbe085ec6	-0.13317403
254	0x3d071d35	0.03298684
255	0xbceea2a3	-0.029130286

a2c_network.actor_mlp.4.bias f4 [32]
0	0xbdd9447f	-0.10608768
1	0x3d2ebcbd	0.042660464
2	0x3d1efe78	0.0388169
3	0xbe3869bf	-0.18009089
4	0xbe73f132	-0.23822477
5	0xbdf18266	-0.1179245
6	0x3babdbda	0.005244714
7	0xbdbf0340	-0.09326792
8	0xb9e92065	-0.0004446536
9	0xbd907aea	-0.07054694
10	0x3da7ffef	0.08203112
11	0xbdb69323	-0.08914783
12	0xbe1b81c6	-0.15186223
13	0xbe1a0d5d	-0.1504416
14	0xbe4c208b	-0.19934289
15	0x3d718115	0.058960993
16	0xbd51891b	-0.051156145
17	0x3e63182e	0.22177193
18	0xbd63e56b	-0.055638712
19	0x3cf78e47	0.03021921
20	0x3e08f0dc	0.1337313
21	0x3c2a815a	0.010406816
22	0xbe0b67b0	-0.13613772
23	0xbd69364c	-0.056936547
24	0xbe2fec02	-0.17179874
25	0x3e1258fc	0.14291757
26	0xbe27cd74	-0.16386968
27	0xbdcf8597	-0.10132902
28	0xbdfc9dcd	-0.123347856
29	0xbd9b7347	-0.07590347
30	0xbe41c2dd	-0.1892199
31	0xbd1dc97d	-0.038522232

a2c_network.value.weight f4 [1, 32]
0	0x3d978b7d	0.07399652
1	0x3d8de71e	0.06928848
2	0x3d466cc7	0.048443582
3	0x3d77091d	0.060311425
4	0xbc8ded6e	-0.01732513
5	0x3d1a5d44	0.0376866
6	0x3bdc1fba	0.0067176493
7	0xbe03f040	-0.12884617
8	0x3c1380be	0.0090028625
9	0x3cb09320	0.02155453
10	0xbcb7494b	-0.022373816
11	0xbb880607	-0.004151109
12	0x3cc7a7a4	0.02437193
13	0xba8b0dc6	-0.0010608963
14	0xbcb57c8b	-0.022154113
15	0x3e2aa6a2	0.16665128
16	0x3d9a867a	0.075451806
17	0x3e4e8c86	0.20170793
18	0x3c499f78	0.012306087
19	0x3d94457e	0.07239817
20	0x3d5e5bf0	0.054286897
21	0x3d978f97	0.074004345
22	0x3cdbc589	0.02682759
23	0xb9c694d3	-0.00037876386
24	0x3cec7534	0.02886448
25	0x3d505994	0.05086668
26	0xbd15e962	-0.036599524
27	0xbc69f93f	-0.014280616
28	0xbd1ecd17	-0.038769808
29	0xbd29b3ed	-0.041431356
30	0x3bc76dd6	0.0060860915
31	0x3cf6abab	0.030111155

a2c_network.mu.weight f4 [7, 32]
0	0x3d74ebaa	0.05979506
1	0xbe3dbdc0	-0.18529415
2	0xbc8d0380	-0.017213583
3	0xbcbb5608	-0.022868171
4	0x3e0ad052	0.1355603
5	0xbe31bd81	-0.17357446
6	0x3e30b3d7	0.17256103
7	0xbca74bd1	-0.020421894
8	0xbe45d894	-0.19320899
9	0x3e3d9e0a	0.18517318
10	0x3e1f0d11	0.15532328
11	0x3e8e753e	0.27823824
12	0xbe3bec36	-0.18351826
13	0x3e253d82	0.16136745
14	0x3e04560a	0.12923446
15	0xbd2af663	-0.04173888
16	0xbed3ad88	-0.4134333
17	0xbdc38ae6	-0.09547977
18	0xbeaad2d0	-0.33363962
19	0xbd42f367	-0.047595408
20	0x3e624572	0.22096804
21	0xbec2e12b	-0.38062415
22	0xbeb4afa3	-0.3529025
23	0xbe96b2d4	-0.2943331
24	0xbe714554	-0.23561603
25	0x3dd67eca	0.10473402
26	0xbe90cbfd	-0.2828063
27	0x3d816ab8	0.06319183
28	0xbd7c943c	-0.061664805
29	0xbcb565b4	-0.022143222
30	0xbd536671	-0.051611368
31	0xbe479b1a	-0.1949276
32	0x3eb59687	0.35466406
33	0x3d0b878c	0.034064814
34	0xbd17cc56	-0.037060104
35	0x3d531c3c	0.0515406
36	0x3eaff29b	0.3436478
37	0x3d040a28	0.03223625
38	0xbeabc6ec	-0.33550203
39	0x3d672d24	0.056439534
40	0xbe2ffa35	-0.1718529
41	0xbd82ed27	-0.063928895
42	0xbe48bbaf	-0.19602846
43	0xbcc6e9d9	-0.02428143
44	0x3e09566b	0.13411872
45	0x3ce8cb7b	0.02841734
46	0x3ba45b91	0.0050157984
47	0x3d7c162d	0.061544586
48	0xbe10b533	-0.14131622
49	0xbdae1cca	-0.08501585
50	0xbe5b41ea	-0.21411863
51	0x3d117407	0.035511043
52	0xbe987393	-0.29775676
53	0xbb90632b	-0.004406353
54	0x3c897a8c	0.016782068
55	0xbd5be9f3	-0.05368991
56	0xbd15ad30	-0.036542118
57	0xbe4484fa	-0.19191352
58	0xbcdcb21b	-0.026940396
59	0xbd7bfb18	-0.06151876
60	0xbe4c5581	-0.19954492
61	0x3e69cc30	0.22831798
62	0x3eb35c29	0.3503125
63	0x3d2eb4ab	0.042652767
64	0xbd6555bd	-0.05598997
65	0xbdfc9086	-0.12332253
66	0x3d2a2ae8	0.041544825
67	0x3c6f54e1	0.014607639
68	0xbd370e3f	-0.04469132
69	0x3d00d6e0	0.03145492
70	0xbb276fca	-0.002554881
71	0xbe0e393c	-0.1388902
72	0x3d3ed8b4	0.046593383
73	0xbe67fe88	-0.2265569
74	0xbd192e57	-0.03739771
75	0x3da32fee	0.07968126
76	0x3e108639	0.14113702
77	0xbcfbe74f	-0.030749945
78	0xbd1fe38e	-0.039035372
79	0x3e81559e	0.25260633
80	0xbd7bd0cf	-0.061478432
81	0x3cdc5b49	0.026898997
82	0xbb071758	-0.002061328
83	0xbc4e418c	-0.01258887
84	0xbe1e6155	-0.15466817
85	0x3e02d507	0.12776576
86	0xbd868f56	-0.06570308
87	0x3bcdc056	0.0062790317
88	0x3e49a3e5	0.19691427
89	0xbe8f6244	-0.28004658
90	0x3d8cb99a	0.06871338
91	0x3c0fd8e2	0.008779736
92	0x3e0c47d8	0.13699281
93	0x3d98c2f3	0.074590586
94	0x3e257270	0.16156936
95	0x3e984135	0.2973725
96	0x3c97e497	0.018541617
97	0x3dfe00f8	0.124025285
98	0xbe2b3395	-0.16718896
99	0x3e228f2d	0.1587493
100	0xbc0e7c56	-0.008696636
101	0x3e0e8a80	0.13920021
102	0x3e33f3bd	0.17573448
103	0xbe20c99b	-0.15701906
104	0xbeb5871c	-0.35454643
105	0x3ea05846	0.31317347
106	0x3e88c156	0.26710004
107	0x3ea9747f	0.33096692
108	0xbe357277	-0.17719446
109	0x3e9d8529	0.30765656
110	0x3ec4d3b5	0.3844277
111	0xbe960ca5	-0.29306522
112	0x3ca57626	0.02019794
113	0x3d9448b9	0.07240433
114	0xbcbfce3a	-0.023413766
115	0xbe204920	-0.15652895
116	0x3e756fe7	0.23968469
117	0xbec44b75	-0.3833882
118	0x3b43e20a	0.0029889368
119	0xbe8cac95	-0.2747542
120	0x3e408301	0.18799974
121	0x3e439c5c	0.19102615
122	0xbcdf769f	-0.027278243
123	0x3eaa4b6e	0.33260673
124	0x3d9b1eeb	0.075742565
125	0xbd3b1f5f	-0.045684215
126	0x3e67abbe	0.22624108
127	0xbe11a463	-0.14222865
128	0xbe8ae82e	-0.27130264
129	0x3e84a45e	0.25906652
130	0xbdff6f50	-0.12472403
131	0x3e150bc5	0.14555271
132	0x3dfcea54	0.12349382
133	0x3e73ed06	0.23820886
134	0xbd8e5af3	-0.06950941
135	0x3e1dd537	0.15413366
136	0xbdb3f3fb	-0.0878677
137	0xbca113a3	-0.019662684
138	0x3e83feea	0.25780421
139	0x3d89195d	0.06694291
140	0x3e16caef	0.1472585
141	0x3e592134	0.21204072
142	0x3c61dea2	0.01378599
143	0x3e31f639	0.17379083
144	0xbeb15da6	-0.3464176
145	0xbd7a64d9	-0.061131332
146	0x3d8d120f	0.0688821
147	0x3b17b577	0.0023148933
148	0xbd9dcb15	-0.077047504
149	0x3e422201	0.18958284
150	0x3dc6dd62	0.09710194
151	0x3e120cec	0.14262742
152	0x3cac4a36	0.02103148
153	0x3bdec3f2	0.006798261
154	0xbe73085c	-0.23733658
155	0xbdc45873	-0.09587183
156	0xbde573dc	-0.11203739
157	0x3d2cfd0a	0.042233504
158	0x3e2d02fe	0.16895673
159	0x3ec7d5f4	0.3903042
160	0x3e56782c	0.2094428
161	0xbc1965e6	-0.009362673
162	0xbd0fd5fd	-0.035116185
163	0x3d965328	0.073400795
164	0x3d35e27d	0.04440545
165	0xbddd18dc	-0.10795757
166	0x3ddf79c5	0.109118976
167	0x3e3a8aca	0.18217006
168	0xbdbcf1dc	-0.092258185
169	0x3bae448a	0.005318229
170	0x3e88fef8	0.26757026
171	0x3e011d6d	0.12608881
172	0xbe4b5e5a	-0.19860211
173	0xbca6ffb2	-0.020385597
174	0xbca7c166	-0.020477962
175	0x3d7c026f	0.06152576
176	0xbe0e59a9	-0.1390139
177	0x3cd3782f	0.025814144
178	0xbe2c685b	-0.16836683
179	0xbc678832	-0.014131593
180	0x3e57f57f	0.21089743
181	0xbe1f33af	-0.1554706
182	0xbd8b10c9	-0.06790311
183	0xbabdece6	-0.0014490157
184	0x3ed53b66	0.4164688
185	0x3e5f2d1a	0.21794549
186	0xbd25f0be	-0.040512793
187	0x3e9c8a42	0.30574232
188	0xbdec3ca0	-0.11535001
189	0x3deb6db0	0.114955306
190	0xbbf3153f	-0.007418304
191	0x3e1abf9a	0.15112153
192	0x3dcd541c	0.10025808
193	0x3cf01669	0.029307561
194	0x3b8f68bb	0.0043764985
195	0xbc1b5c9c	-0.009482529
196	0xbe08ddd7	-0.13365875
197	0xbc808940	-0.015690446
198	0xbe293e7c	-0.16527742
199	0x3e095aaf	0.134135
200	0x3de08356	0.1096255
201	0xbe4f06cc	-0.20217437
202	0xbdd41d5f	-0.103571646
203	0xbe217957	-0.15768944
204	0x3cb430ef	0.02199599
205	0xbe413587	-0.18868075
206	0xbdb10ac9	-0.08644635
207	0x3da0c268	0.0784958
208	0x3cc0a6d6	0.023517054
209	0xbd72f807	-0.05931857
210	0x3e664109	0.22485746
211	0x3e4756dc	0.19466728
212	0xbeaca55b	-0.33719906
213	0x3db33a05	0.08751301
214	0x3d985c17	0.0743944
215	0x3d540c7c	0.05176972
216	0xbd08006d	-0.03320353
217	0xbebd89bd	-0.37019148
218	0xbb39f7fa	-0.0028376565
219	0x3d1b55a1	0.03792346
220	0x3e2423b1	0.1602924
221	0xb9ea7442	-0.00044718577
222	0xbd2b3da8	-0.041806847
223	0xbd3d1b87	-0.04616883

a2c_network.mu.bias f4 [7]
0	0xbceadf22	-0.028670851
1	0xbe8e4143	-0.27784166
2	0xbe0785f9	-0.132347
3	0xbe03ed27	-0.12883435
4	0xba03dc4f	-0.0005030082
5	0x3d575266	0.052568816
6	0x3d1ad8d1	0.03780443

exp_avg f4 [7]
0	0xbbcd78b5	-0.006270493
1	0xbb464922	-0.0030255993
2	0xb9cadca3	-0.0003869283
3	0x3b12c1bd	0.002239331
4	0xba67eb45	-0.00088470086
5	0xbc15e435	-0.009148647
6	0xbc7ba523	-0.015359196

exp_avg_sq f4 [7]
0	0x39136adc	0.0001405882
1	0x390f66d6	0.00013675852
2	0x3927b27e	0.00015992855
3	0x39182363	0.00014509032
4	0x391dc66c	0.00015046605
5	0x391ba3e6	0.00014843009
6	0x397aa2f6	0.00023902566

exp_avg f4 [128, 18]
0	0xbb33ef46	-0.002745585
1	0xbb15397e	-0.0022769864
2	0x3b30bbe8	0.002696747
3	0xbb2c567f	-0.0026296673
4	0xbaa498cc	-0.0012557744
5	0xbab40a7b	-0.0013736034
6	0x39a52d33	0.00031504928
7	0xbb05a663	-0.0020393364
8	0xba943283	-0.0011306558
9	0x3904d5e3	0.0001266818
10	0xbb02ec29	-0.0019977188
11	0x3b79a5ce	0.0038093212
12	0xb437e304	-1.7125791e-07
13	0x3b0b2744	0.002123312
14	0xba17c7df	-0.0005789976
15	0x39b8f295	0.00035275953
16	0xbadcb7b5	-0.0016839417
17	0x3ac48b0e	0.0014995055
18	0xbad96226	-0.0016585037
19	0xba4e1c35	-0.00078624795
20	0x3a236aff	0.00062339
21	0xbacfca0e	-0.0015853064
22	0xba90aa63	-0.0011037107
23	0xba4d7e77	-0.0007838974
24	0xba6c04b4	-0.00090033864
25	0xba8480fd	-0.0010109242
26	0xbadadab9	-0.0016697265
27	0x38c73bab	9.5001735e-05
28	0x394dee72	0.00019639151
29	0x398d7369	0.00026979603
30	0x39e6aef4	0.0004399937
31	0x3b9d7a3d	0.0048058317
32	0xbabbc591	-0.0014325847
33	0xba1afa42	-0.0005911925
34	0xba51fd14	-0.0008010429
35	0x3a71f294	0.00092295674
36	0xbae0a4a7	-0.0017138914
37	0xbb35afb8	-0.0027723145
38	0x3b1ac191	0.002361391
39	0xba92e817	-0.0011208084
40	0xb9fe0b8c	-0.00048455258
41	0xbad3de55	-0.0016164283
42	0x39cbf5e1	0.0003890237
43	0xb9806906	-0.0002449231
44	0xbaa25bf2	-0.0012387021
45	0xba30d307	-0.0006745313
46	0x3a2a2b84	0.00064914697
47	0x3b4a3768	0.0030855779
48	0xba93126b	-0.0011220699
49	0x3b65371c	0.0034975475
50	0xb914986f	-0.00014171166
51	0x3a61ce2c	0.0008613791
52	0xb9eefc1e	-0.0004558274
53	0x3aadc8cd	0.0013258696
54	0x39828c04	0.00024899852
55	0xbb249a17	-0.0025116259
56	0x3ad4c5f2	0.0016233309
57	0x3aea9499	0.0017897069
58	0x3907d726	0.00012954752
59	0xbae20271	-0.0017243159
60	0x3a85bb0b	0.0010202838
61	0x3b03854e	0.002006847
62	0xbaaf607d	-0.0013380196
63	0xbaccf9c1	-0.0015638397
64	0x3b98fd71	0.0046688844
65	0x3ab51d4d	0.0013817936
66	0xbb71a433	-0.0036871552
67	0x3aec144d	0.0018011421
68	0x3b2821ff	0.002565503
69	0x3b00a605	0.0019630205
70	0x3ade6fbd	0.0016970556
71	0x39adb754	0.0003313372
72	0xb8078123	-3.2306776e-05
73	0xbb0393e9	-0.0020077175
74	0x3b0a765b	0.0021127674
75	0x3a4c7796	0.0007799802
76	0x39b4e9b9	0.00034506412
77	0xbac28e6a	-0.0014843468
78	0x3a3d51f1	0.0007221988
79	0x3a7e1b85	0.0009693432
80	0xba3f8851	-0.00073063845
81	0xba480830	-0.00076306146
82	0x3b1bb4d7	0.0023758912
83	0x3afa4c39	0.0019096202
84	0xbb0a8864	-0.0021138424
85	0xb746f159	-1.1857913e-05
86	0x3af9ac8d	0.0019048617
87	0x3ae67567	0.0017582596
88	0x3a17d13e	0.00057913724
89	0x398567eb	0.00025445162
90	0x3ad01a01	0.001587689
91	0x39d0eee2	0.00039850833
92	0xbacc9f15	-0.0015611375
93	0x3af71e37	0.0018853609
94	0x3a0ed9dd	0.0005449334
95	0x3a7a0a90	0.0009538317
96	0x39f919f3	0.00047512315
97	0x3adff1bf	0.0017085596
98	0x3a81859c	0.0009881738
99	0xb993de52	-0.00028203666
100	0x3b0dc462	0.0021631946
101	0xbafdb59d	-0.0019356493
102	0x384bb40e	4.856666e-05
103	0xba6240e0	-0.0008630883
104	0x3a1b5308	0.00059251534
105	0x3977408c	0.00023579801
106	0x3a7b99fe	0.0009597837
107	0xba2dea2e	-0.0006634322
108	0x3a269d6a	0.0006355854
109	0x3aa01d11	0.0012215694
110	0xba593909	-0.0008286392
111	0x3a28797e	0.0006426795
112	0x38f3dc59	0.00011628186
113	0xb95708a9	-0.00020507224
114	0xb956538d	-0.00020439755
115	0x3aa2fba7	0.0012434617
116	0xba860fe1	-0.0010228121
117	0xba1235a1	-0.00055774493
118	0x3b0e93a9	0.0021755493
119	0xbabe8158	-0.0014534397
120	0xba663054	-0.0008781005
121	0x3a6ca6e0	0.0009027552
122	0xba1d63d9	-0.0006003953
123	0x38dcedbe	0.000105347004
124	0x39f8cda8	0.00047455472
125	0x386b4c44	5.6099394e-05
126	0x392bbdbe	0.00016378515
127	0xba1cb73b	-0.0005978231
128	0x3a8c0ab3	0.0010684341
129	0x39d36606	0.0004032107
130	0x3a0824a5	0.0005193449
131	0xba97d34e	-0.001158336
132	0x39ecdebd	0.0004517938
133	0x3ad6fc73	0.001640214
134	0xba33e8ae	-0.000686298
135	0xbaa47fbc	-0.0012550275
136	0x3b15f7d5	0.0022883315
137	0x3b0beddb	0.002135149
138	0xbaae3870	-0.0013291966
139	0x3aa1163a	0.0012289949
140	0xb670411b	-3.5800683e-06
141	0x3aa6cf21	0.0012726524
142	0x3995d29a	0.00028576405
143	0x3a3e51e3	0.0007260127
144	0x3ab1dc8d	0.0013569758
145	0xb8e59033	-0.0001094643
146	0x3a8293f2	0.0009962304
147	0x3aea945a	0.0017896995
148	0x3a977440	0.0011555031
149	0xbaa76aa0	-0.0012772866
150	0x3ae65822	0.0017573873
151	0x3b2415e2	0.0025037457
152	0x3ae912ca	0.0017782089
153	0xbb0eb834	-0.0021777274
154	0x3b37f77c	0.0028071096
155	0x3b20eb97	0.0024554485
156	0xbb338b5a	-0.0027396292
157	0xbb046ae1	-0.0020205306
158	0x3b4902fb	0.0030671943
159	0x3aec1b4f	0.001801351
160	0x3a84a29c	0.0010119262
161	0xb9742af9	-0.00023285662
162	0xb9c46545	-0.00037459485
163	0x3a1b3bae	0.0005921674
164	0x382fc7d5	4.190936e-05
165	0xba430a7a	-0.0007440221
166	0xb92c724b	-0.00016445776
167	0xba13e138	-0.0005641165
168	0xb9f89cb1	-0.0004741899
169	0x39867f25	0.00025653202
170	0xbab081ce	-0.0013466419
171	0xba3822a4	-0.0007024205
172	0x39f8cc0f	0.00047454282
173	0x389d9eeb	7.515944e-05
174	0xba8bf551	-0.0010677968
175	0x3ac33ffc	0.0014896388
176	0xbab0bd78	-0.00134842
177	0xb7aee19c	-2.0847474e-05
178	0xb9740969	-0.00023273159
179	0x3a11a9a9	0.00055565924
180	0x39ac3293	0.00032844077
181	0x3a9cd3ec	0.0011965013
182	0xba8c08f7	-0.0010683824
183	0x37f24254	2.8879535e-05
184	0xb8f4fee2	-0.00011682302
185	0x3a0f83df	0.00054746674
186	0xba4c3a66	-0.00077906845
187	0x399e76a4	0.00030224503
188	0xba8f279c	-0.0010921839
189	0x3984ea68	0.00025351648
190	0x3a30170c	0.00067173014
191	0xbb192f05	-0.0023373973
192	0x390887be	0.00013020539
193	0x39e14a47	0.00042970685
194	0xbaa1ffca	-0.0012359556
195	0xba344834	-0.0006877214
196	0x39729270	0.0002313347
197	0xb9158d1d	-0.00014262316
198	0x3a9c0fcd	0.0011906564
199	0x3bc9c027	0.0061569395
200	0xbacce238	-0.0015631383
201	0xbaafa01a	-0.0013399154
202	0x3aaaa71e	0.0013019776
203	0x3a22e16a	0.0006213399
204	0xb8d4332d	-0.0001011848
205	0x3a8695e1	0.0010268056
206	0x3b024e50	0.0019883104
207	0xb9a98d5a	-0.00032339507
208	0xbae695a6	-0.0017592206
209	0xb9d31b9b	-0.00040265624
210	0x3a6d552b	0.00090535235
211	0xbb1ad98f	-0.002362821
212	0xbb668273	-0.0035172969
213	0xba05aa98	-0.0005098968
214	0xbb07674a	-0.002066093
215	0xb8fb1cfc	-0.000119740114
216	0x3b5fd795	0.0034155597
217	0xb93c7ca8	-0.00017975515
218	0xbb0ef5e4	-0.0021814043
219	0x3b9f0f50	0.0048541203
220	0x3ac696cb	0.0015151141
221	0x3afac910	0.0019133408
222	0x3b1ff9a2	0.0024410267
223	0x3adda8df	0.001691129
224	0x3b957307	0.0045608315
225	0xb93a09cc	-0.00017741992
226	0x3aae1100	0.0013280213
227	0xbb175d91	-0.0023096541
228	0x39d6f847	0.00041002242
229	0xbbf4bcef	-0.0074688117
230	0x3ba416c7	0.005007598
231	0x3a7472c5	0.00093249633
232	0x3b02fd40	0.0019987375
233	0xbb0b6409	-0.0021269342
234	0xb97a0e4b	-0.00023847182
235	0xbba18e3d	-0.004930286
236	0x3ab38ac5	0.0013697973
237	0x3acf9bb7	0.0015839253
238	0xb9ce22bc	-0.0003931726
239	0xba5fbb66	-0.00085346994
240	0x3a87b9e1	0.0010355079
241	0x3a0d8de2	0.00053998653
242	0x3a267b7e	0.0006350799
243	0xba9f29fb	-0.0012143248
244	0x3acc966e	0.0015608796
245	0x3b1128b7	0.0022149512
246	0xbab3fcbf	-0.001373194
247	0x3a00d974	0.00049152155
248	0x3b72ed8f	0.0037067865
249	0x3a4cb9c7	0.00078096654
250	0x3ae5bed2	0.0017528182
251	0x38d092a6	9.945528e-05
252	0xba384538	-0.00070293574
253	0xbb8f808a	-0.0043793367
254	0x39feb514	0.0004858157
255	0x3a24d91f	0.0006288457

exp_avg_sq f4 [128, 18]
0	0x38430698	4.6497764e-05
1	0x37ebdab4	2.8116025e-05
2	0x3834b6bf	4.308554e-05
3	0x387d51e4	6.0396167e-05
4	0x3807f35c	3.2413154e-05
5	0x386d3284	5.655225e-05
6	0x3864cf21	5.455234e-05
7	0x388d775c	6.745636e-05
8	0x380b1cd0	3.3167016e-05
9	0x3860f806	5.363675e-05
10	0x388671e7	6.410834e-05
11	0x389afc09	7.3902374e-05
12	0x38a3604a	7.790381e-05
13	0x3895232a	7.1114235e-05
14	0x38e98f07	0.00011136947
15	0x3832813b	4.2558862e-05
16	0x38811bd3	6.156382e-05
17	0x384b7d40	4.851562e-05
18	0x385984bf	5.186046e-05
19	0x38271a0b	3.9840157e-05
20	0x383e4ff1	4.537398e-05
21	0x3872b443	5.7865178e-05
22	0x381308d7	3.5055764e-05
23	0x384521ef	4.7000063e-05
24	0x38438ab1	4.662079e-05
25	0x38961c38	7.1578135e-05
26	0x385f61f3	5.3258565e-05
27	0x384c62eb	4.8729515e-05
28	0x3895e725	7.147928e-05
29	0x389dffc4	7.5339834e-05
30	0x3891b450	6.9477246e-05
31	0x38a3852f	7.797253e-05
32	0x38994535	7.308499e-05
33	0x3866a3e6	5.4988916e-05
34	0x383cd548	4.5021327e-05
35	0x385cdd12	5.2657975e-05
36	0x38721743	5.771896e-05
37	0x38176006	3.6090634e-05
38	0x38286df3	4.015672e-05
39	0x389b0f22	7.393795e-05
40	0x3814609b	3.537592e-05
41	0x384d9b57	4.902048e-05
42	0x38723fe1	5.7756788e-05
43	0x3891f4b3	6.9597176e-05
44	0x384e1bb8	4.9140042e-05
45	0x38809376	6.1309824e-05
46	0x388c0175	6.6759916e-05
47	0x38a11267	7.680506e-05
48	0x38adb389	8.282724e-05
49	0x389d8c42	7.5124684e-05
50	0x38eefda3	0.00011395968
51	0x38375e47	4.3718403e-05
52	0x38925445	6.977519e-05
53	0x38518801	4.9956147e-05
54	0x37b8669e	2.1982294e-05
55	0x37412dfa	1.1514401e-05
56	0x377f2592	1.5207932e-05
57	0x37e035c9	2.6727927e-05
58	0x3759916b	1.2968066e-05
59	0x37b41027	2.1465194e-05
60	0x37c398b9	2.3316928e-05
61	0x37e0d8a8	2.680377e-05
62	0x37916b7d	1.73354e-05
63	0x37bdf7b4	2.2645901e-05
64	0x37de3fb5	2.6494128e-05
65	0x38009309	3.0654515e-05
66	0x380f5e4f	3.418169e-05
67	0x381468fd	3.5383728e-05
68	0x3843d8d7	4.669357e-05
69	0x3731d62e	1.059989e-05
70	0x37d54fec	2.5428795e-05
71	0x37859c4f	1.5927622e-05
72	0x37a2ae50	1.9393075e-05
73	0x371add47	9.230635e-06
74	0x3764363c	1.3602486e-05
75	0x37cb3100	2.4222303e-05
76	0x374c9e33	1.2196181e-05
77	0x37bbc510	2.2383902e-05
78	0x37dd1c08	2.6358306e-05
79	0x3808e22f	3.2635577e-05
80	0x375c42e5	1.3128597e-05
81	0x37bea3f6	2.2726115e-05
82	0x38114539	3.4635163e-05
83	0x381783ee	3.6124075e-05
84	0x3822c507	3.8807306e-05
85	0x3814b5d0	3.5455276e-05
86	0x38316309	4.2292322e-05
87	0x37510f60	1.24609505e-05
88	0x37cf1f7e	2.4690988e-05
89	0x37866170	1.6019418e-05
90	0x36e35676	6.7751926e-06
91	0x36c1ffa2	5.781608e-06
92	0x36f1676e	7.1944005e-06
93	0x37002997	7.639078e-06
94	0x36a0ba92	4.790091e-06
95	0x3711b2f7	8.684342e-06
96	0x37252df3	9.845465e-06
97	0x3756da1c	1.28061765e-05
98	0x370b2963	8.294682e-06
99	0x370cc3b8	8.39022e-06
100	0x37614155	1.3426256e-05
101	0x37713647	1.4377357e-05
102	0x3756dc0e	1.28066295e-05
103	0x378048f8	1.5292768e-05
104	0x375f4c91	1.3309663e-05
105	0x36d712fa	6.4097085e-06
106	0x3716a138	8.978233e-06
107	0x36d52bfd	6.3530156e-06
108	0x36ba71f2	5.556497e-06
109	0x36c9ec0e	6.017747e-06
110	0x36ce18d0	6.142167e-06
111	0x36d41888	6.320948e-06
112	0x367c0e1b	3.7559137e-06
113	0x37156109	8.903685e-06
114	0x370d06d6	8.4058465e-06
115	0x37387652	1.0994803e-05
116	0x371c3c5d	9.312379e-06
117	0x36fa695b	7.4628456e-06
118	0x3708ed36	8.161462e-06
119	0x37192f2a	9.130492e-06
120	0x371d210a	9.365622e-06
121	0x37549d20	1.2672768e-05
122	0x375fa03d	1.3329144e-05
123	0x36848d81	3.95038e-06
124	0x370689d5	8.019114e-06
125	0x37090835	8.167747e-06
126	0x38097a24	3.2777098e-05
127	0x376b0533	1.4008302e-05
128	0x37a149cb	1.9227058e-05
129	0x382790af	3.995065e-05
130	0x376a1a2f	1.3953583e-05
131	0x37cfa3db	2.4752624e-05
132	0x37e8c952	2.7750302e-05
133	0x380ad09d	3.309605e-05
134	0x378cc813	1.6782467e-05
135	0x380393aa	3.1370357e-05
136	0x37f0110f	2.8618173e-05
137	0x38023761	3.104599e-05
138	0x381f09b4	3.791759e-05
139	0x380ccbef	3.356853e-05
140	0x3881b63e	6.1851446e-05
141	0x378789ed	1.615748e-05
142	0x381aaa20	3.6874902e-05
143	0x37ad38d6	2.0649673e-05
144	0x3719ed19	9.174714e-06
145	0x36d934a3	6.4732317e-06
146	0x37245259	9.794335e-06
147	0x3733264e	1.067815e-05
148	0x36dd0633	6.587035e-06
149	0x3781ab6f	1.5457828e-05
150	0x379f0bd6	1.8959789e-05
151	0x377ffb3e	1.5257681e-05
152	0x37058929	7.959353e-06
153	0x372e91e8	1.040518e-05
154	0x37748728	1.4575002e-05
155	0x3787e2c8	1.6198857e-05
156	0x377830f6	1.47933515e-05
157	0x37955d6b	1.7805685e-05
158	0x37b38738	2.1401429e-05
159	0x36e36001	6.7763035e-06
160	0x37548e2c	1.2669287e-05
161	0x37347d2b	1.0757979e-05
162	0x37985303	1.8158467e-05
163	0x375a0eaa	1.2997227e-05
164	0x377d1bc4	1.508644e-05
165	0x379c3ae3	1.862407e-05
166	0x370fcebb	8.571597e-06
167	0x3783edd6	1.5727168e-05
168	0x3767f9b3	1.3826811e-05
169	0x379f1719	1.8965033e-05
170	0x37817b46	1.5435402e-05
171	0x378ae9b2	1.6559705e-05
172	0x375bfca1	1.3112237e-05
173	0x37981233	1.8128287e-05
174	0x3798523c	1.8158105e-05
175	0x37a8a353	2.0103214e-05
176	0x38136bde	3.514799e-05
177	0x3744c709	1.1728852e-05
178	0x37a9d40d	2.0245114e-05
179	0x37567397	1.2782307e-05
180	0x36f7cfcc	7.3853644e-06
181	0x36aff6fe	5.24416e-06
182	0x36f2f31f	7.240465e-06
183	0x3706cf58	8.035298e-06
184	0x3681a0bf	3.863213e-06
185	0x36c6fe6d	5.930479e-06
186	0x36d273c3	6.271964e-06
187	0x372a84eb	1.0163737e-05
188	0x36ef9221	7.1397667e-06
189	0x36c45275	5.8508544e-06
190	0x37023da9	7.76296e-06
191	0x37059671	7.962445e-06
192	0x3702d122	7.797296e-06
193	0x37194613	9.135826e-06
194	0x3763689e	1.3554612e-05
195	0x36be3eca	5.669751e-06
196	0x37284c81	1.0031393e-05
197	0x36d5d1a2	6.372299e-06
198	0x3768b190	1.386962e-05
199	0x37396fcd	1.105289e-05
200	0x37675782	1.3789047e-05
201	0x378c59e7	1.6731165e-05
202	0x3727d002	1.0002406e-05
203	0x37882dfd	1.6233878e-05
204	0x37952f5b	1.7784236e-05
205	0x37c4e641	2.3472241e-05
206	0x3770c98a	1.4352039e-05
207	0x376720e1	1.3776328e-05
208	0x37bc6abe	2.2461052e-05
209	0x37d19b69	2.498711e-05
210	0x37c340c2	2.3275967e-05
211	0x37e626d8	2.7436225e-05
212	0x37eea2b1	2.844757e-05
213	0x3783240b	1.56332e-05
214	0x37a19ced	1.926577e-05
215	0x377ca0cc	1.5057809e-05
216	0x390808a4	0.0001297319
217	0x389c2072	7.444703e-05
218	0x38c8d3f4	9.5762225e-05
219	0x39122b11	0.00013939689
220	0x388e56ed	6.787279e-05
221	0x38c6e0a3	9.4832176e-05
222	0x38d7ef56	0.00010296579
223	0x390c05c4	0.00013353588
224	0x38b5c35c	8.667141e-05
225	0x38f30f4f	0.000115899944
226	0x38e1632d	0.00010747309
227	0x39117c65	0.00013874618
228	0x390fa827	0.00013700184
229	0x390b1451	0.00013263641
230	0x39722fa4	0.00023096666
231	0x38ba3084	8.878208e-05
232	0x38f884a1	0.000118502656
233	0x38babd60	8.904445e-05
234	0x376708df	1.3770738e-05
235	0x37600048	1.3351506e-05
236	0x378878c2	1.6268696e-05
237	0x3785f018	1.5966638e-05
238	0x372d811e	1.0341666e-05
239	0x3793f740	1.76389e-05
240	0x37977b8d	1.8058136e-05
241	0x37a29eba	1.9385818e-05
242	0x37703e21	1.431958e-05
243	0x376aa83f	1.398666e-05
244	0x37b453ba	2.149666e-05
245	0x37d97f19	2.59276e-05
246	0x37b90477	2.2055798e-05
247	0x3801b0a7	3.0920517e-05
248	0x37f8d82d	2.9664569e-05
249	0x377cbc03	1.5064145e-05
250	0x378e9430	1.6996724e-05
251	0x3759113a	1.2938219e-05
252	0x375a1fe3	1.3001237e-05
253	0x372c8941	1.0283956e-05
254	0x371304eb	8.763028e-06
255	0x3753f42d	1.2633432e-05
