runs/BallBalance_11-16-09-10/nn/last_BallBalance_ep_400_rew_2.6925704.pth (torch, 173671 bytes, 36 tensors)

value_mean_std.running_mean f8 [1]
0	0x3fc406d058673128	0.15645794216687503

value_mean_std.running_var f8 [1]
0	0x3f7b8f4cea97c965	0.006728458838085015

value_mean_std.count f8 []
0	0x40c9008000000000	12801.0

running_mean_std.running_mean f8 [18]
0	0xbfbefcef55806b81	-0.12104698026125328
1	0x3fb5c1cce2c0c514	0.08498840843164529
2	0xbfa0e2d2c4f1151d	-0.03298052457879861
3	0xbfc49f85544bfcf3	-0.1611181890111549
4	0x3fb86a4c4e5cdd8c	0.09537197983887874
5	0xbf99d904727f9480	-0.025241918075967096
6	0xbfb7628318a04b81	-0.09134692527031342
7	0xbfdde85190f1528a	-0.4673046031432838
8	0x3fd6cdaa7589d185	0.35630284765581904
9	0xbf9c4bb6b0884c8d	-0.027632574581798287
10	0xbfe11eac4b07e0fd	-0.5349942651219234
11	0x3fcd11c5714ad40a	0.2271048358140038
12	0xbf963053ddd86804	-0.02166873017822725
13	0xbfbf6f13549118e9	-0.12278862776392753
14	0x3fbe47115391232b	0.11827190675934378
15	0x3fc2011caf433ac7	0.14065893705124763
16	0xbfcd01603b55a065	-0.2266044892996916
17	0x3fb2f821ccf9b894	0.07409869436534883

running_mean_std.running_var f8 [18]
0	0x3fccbae8f893aa33	0.22445404183902581
1	0x3f9f76fcab65c8e7	0.030727336846617794
2	0x3fc0b6381686208f	0.1305608854274891
3	0x3fd201b657cfe3bb	0.28135450911900833
4	0x3fb1eff72031f9a0	0.0700678304292297
5	0x3f82d1654e4ed5e8	0.009188453151959444
6	0x3f8592ea6b89d123	0.010534125716028136
7	0x400b52ee1a37d917	3.415493206815096
8	0x3fe332127f93cf26	0.5998623363252349
9	0x400b130b536ec11d	3.3842989462065263
10	0x401510fa5110373f	5.266579882254347
11	0x3fe67dd3fe5ddfb3	0.7028598754977707
12	0x3fef564ffdbc5e8f	0.9792861896302884
13	0x3ff49985b78ed0ca	1.287481038115447
14	0x3f76aefdca97d919	0.005537978527618636
15	0x3f77d2dfde60f584	0.005816339957218534
16	0x3fc9ec89ea289f1f	0.2025310891487999
17	0x3fccbf08c36bcceb	0.22457990209623033

running_mean_std.count f8 []
0	0x40b9010000000000	6401.0

a2c_network.sigma f4 [7]
0	0xbeb2e36c	-0.34939134
1	0xbe94f1aa	-0.29090625
2	0xbeb507e0	-0.3535757
3	0xbe5cd850	-0.21566892
4	0xbe8a1628	-0.2697003
5	0xbe39bded	-0.18138857
6	0xbdd3c88c	-0.10340986

a2c_network.actor_mlp.0.weight f4 [128, 18]
0	0xbdc26902	-0.09492685
1	0x3d9e2894	0.077225834
2	0xbe6456fd	-0.22298808
3	0x3d71cc4e	0.05903273
4	0xbd6595ba	-0.056050994
5	0x3e838e66	0.2569458
6	0x3c941e1d	0.018080765
7	0xbe294bda	-0.16532841
8	0xbe127703	-0.14303212
9	0xbe1c26b0	-0.15249133
10	0x3da9353f	0.08262109
11	0xbe7fa98f	-0.24967025
12	0x3e2f31f3	0.17108898
13	0xbe091c9a	-0.13389817
14	0x3e117fbc	0.14208883
15	0xbe5f1cd1	-0.21788336
16	0xbd05e3b3	-0.032687854
17	0x3e7079a8	0.23483908
18	0x3c1fdcaa	0.0097572
19	0x3eb02ef2	0.34410816
20	0x3d453888	0.048149616
21	0xbdbd8e17	-0.09255617
22	0x3dbcfb7f	0.092276566
23	0x3d26045b	0.040531497
24	0x3e0ab702	0.13546374
25	0x3e55a54f	0.20863841
26	0x3e668d50	0.22514844
27	0xbdadaed3	-0.08480611
28	0x3db52075	0.08844081
29	0xbe069ae7	-0.13145028
30	0x3e2febd9	0.17179812
31	0xbe00e738	-0.12588203
32	0xbe6d8b7b	-0.23197739
33	0xbe8ddb0f	-0.2770619
34	0xbe6c5797	-0.23080288
35	0x3e5a2323	0.21302466
36	0xbdc88721	-0.09791399
37	0x3e736dc3	0.2377234
38	0x3ce1ed42	0.027578954
39	0xbd8c9cf6	-0.068658754
40	0x3e00ad89	0.12566198
41	0xbdf799a4	-0.120898515
42	0x3d2b79d5	0.041864235
43	0xbe4be827	-0.19912778
44	0x3e4ddc18	0.2010349
45	0xbe33c2e6	-0.17554817
46	0x3e3df1af	0.18549226
47	0xbe160262	-0.14649346
48	0x3e330ce6	0.17485389
49	0xbe487580	-0.19576073
50	0xbddcc309	-0.107793875
51	0xbea69829	-0.32537964
52	0x3de8f8cb	0.113755785
53	0x3e2d3b9f	0.16917275
54	0x3e575d9b	0.21031801
55	0xbe79749f	-0.24360894
56	0xbe5480bc	-0.20752233
57	0xbe783fc5	-0.24243076
58	0x3d1f636a	0.038913168
59	0xbc8c9046	-0.017158639
60	0x3de66029	0.1124881
61	0x3dda7730	0.106672645
62	0xbd444780	-0.04791975
63	0xbe623322	-0.22089818
64	0x3c554973	0.013018
65	0xbd929378	-0.07157034
66	0xbd2478ed	-0.040154386
67	0xbd8a4472	-0.06751336
68	0x3e5b9641	0.21444036
69	0xbf045a29	-0.51700073
70	0xbdea4467	-0.11438828
71	0xbe3922b7	-0.18079649
72	0x3e2322bb	0.15931217
73	0xbe9365d4	-0.28788626
74	0x3e01f21c	0.12690014
75	0x3e8ff921	0.28119758
76	0xbe77ce81	-0.24199869
77	0xbe6bc1b2	-0.23023108
78	0x3e4f2334	0.20228273
79	0xbdfffb8f	-0.12499153
80	0xbe3f271a	-0.1866726
81	0xbeaf1400	-0.34194946
82	0xbdb40b0e	-0.08791171
83	0x3d874a3d	0.06605957
84	0x3d3804e3	0.044926535
85	0xbe118732	-0.14211729
86	0x3e306898	0.172274
87	0xbeb80099	-0.35937956
88	0xbccba936	-0.02486096
89	0xbe0e645d	-0.13905473
90	0xbe369b34	-0.17832643
91	0xbc94a648	-0.018145695
92	0x3e00b88a	0.12570396
93	0x3c99700c	0.018730186
94	0x3e2f3322	0.1710935
95	0xbe4e2139	-0.20129861
96	0xbc90a8b3	-0.017658567
97	0x3d9f4465	0.07776717
98	0x3d256ebb	0.040388804
99	0x3c894082	0.016754393
100	0xbcd28ed0	-0.025702864
101	0xbd4bedb4	-0.04978724
102	0x3db5757b	0.08860298
103	0xbe2486b7	-0.16067015
104	0xbdd505f9	-0.1040153
105	0xbe7944dc	-0.24342674
106	0xbe9ab70a	-0.30217773
107	0xbe9897e6	-0.2980339
108	0xbddad622	-0.10685374
109	0xbd07d4d7	-0.033161964
110	0x3dfbe595	0.12299649
111	0xbdef2283	-0.116765045
112	0x3e9a8423	0.30178937
113	0x3e03d5bb	0.128745
114	0xbdbc739f	-0.092017405
115	0x3e3d19ad	0.18466826
116	0x3d9d6fee	0.076873645
117	0x3d1b4f88	0.037917644
118	0xbe2922e7	-0.1651722
119	0xbe80b885	-0.25140777
120	0x3dae93e2	0.085243
121	0xbdcac66c	-0.09901127
122	0x3cb2f327	0.02184446
123	0xbe7ceb17	-0.24699055
124	0x3d1766cd	0.036963273
125	0xbea243dc	-0.31692398
126	0xbdbe3c6d	-0.09288869
127	0xbdd2a6e7	-0.1028574
128	0x3da98165	0.08276633
129	0x3e08e4ee	0.1336858
130	0x3e70f7b6	0.23531994
131	0xbea1f47c	-0.3163184
132	0x3d56cc58	0.05244097
133	0xbde2cce8	-0.11074239
134	0xbc2be9e0	-0.010492772
135	0xbe8b9e2e	-0.2726912
136	0x3e58953b	0.21150677
137	0xbdc3543c	-0.09537551
138	0x3d651b9d	0.055934537
139	0x3d4b4918	0.049630255
140	0x3dea4235	0.11438409
141	0xbeca3d8a	-0.39500076
142	0x3e369907	0.17831813
143	0xbcf2bb1a	-0.029630233
144	0xbd0c121e	-0.034196965
145	0xbe98c4e8	-0.29837728
146	0x3e1a2838	0.15054405
147	0xbd90409a	-0.07043572
148	0xbdf0ba3c	-0.117542714
149	0x3e5c89fc	0.21537012
150	0x3e14c727	0.14529096
151	0xbe37fc67	-0.17967378
152	0xbe091d0a	-0.13389984
153	0xbcea436f	-0.028596608
154	0x3e4f6398	0.20252836
155	0x3ce5822c	0.028016172
156	0xbd7cfb9e	-0.0617634
157	0xbe2ca7f1	-0.1686094
158	0xbe31737b	-0.17329209
159	0xbbd2948c	-0.0064263996
160	0x3e399342	0.1812258
161	0xbea3ecd3	-0.3201662
162	0x3e642494	0.22279578
163	0x3d987fd2	0.07446255
164	0x3e04e78e	0.12978956
165	0xbcb3b828	-0.021938398
166	0x3e822481	0.25418475
167	0x3e2abc9e	0.16673514
168	0x3d0240f6	0.031800233
169	0xbc5555d8	-0.013020955
170	0xbd2501b6	-0.040284835
171	0x3dbf4fcf	0.09341394
172	0xbdf5e045	-0.12005667
173	0xbd366d44	-0.044537798
174	0x3dd64ee0	0.10464263
175	0x3dfa3c10	0.12218487
176	0xbda7732e	-0.08176266
177	0xbe29320e	-0.16523
178	0xbc9c8cdc	-0.019110136
179	0xbc98b10d	-0.018639112
180	0x3e7115b7	0.2354344
181	0x3dd99fec	0.10626206
182	0xbe0dc6e8	-0.13845408
183	0xbd7bebc8	-0.061504155
184	0x3e8b82f0	0.27248335
185	0x3de0c1de	0.10974477
186	0xbd3cef7e	-0.046126835
187	0xbd2aa699	-0.041662786
188	0xbd3a61b4	-0.045503333
189	0xbe50f7f4	-0.20407087
190	0xbe7c5f2b	-0.24645679
191	0x3c9d7874	0.019222476
192	0xbd931c80	-0.0718317
193	0x3d1d786f	0.038444933
194	0xbe8d5441	-0.27603343
195	0xbe03d3c8	-0.12873757
196	0xbd72e065	-0.05929603
197	0x3e75732c	0.23969716
198	0xbe1e51bd	-0.15460868
199	0x3ab17a0c	0.0013540401
200	0x3ddc669d	0.107617594
201	0xbd2755a8	-0.040853173
202	0xbec01402	-0.37515265
203	0x3d914559	0.07093305
204	0xbe0a4c3f	-0.13505648
205	0xbdab7c5f	-0.08373331
206	0xbd80e747	-0.06294113
207	0xbd8cc794	-0.06874004
208	0x3e85bee6	0.26122206
209	0x3cba7b04	0.022763737
210	0xbdc1a544	-0.0945535
211	0xbe26246b	-0.1622483
212	0xbe491ce0	-0.19639921
213	0x3e956af6	0.29183167
214	0x3de4897a	0.11159034
215	0x3eed0694	0.4629408
216	0x3e84bcf2	0.25925404
217	0xbd8f1e07	-0.06988149
218	0x3c6ab7da	0.01432606
219	0xbdfa058c	-0.12208089
220	0xbd5a4774	-0.0532908
221	0xbe139c25	-0.14415033
222	0x3d05a011	0.032623354
223	0xbd3a8a9b	-0.04554234
224	0xbe02f18a	-0.12787452
225	0x3d489308	0.048968345
226	0xbdd16cd5	-0.10225836
227	0xbdde1882	-0.10844518
228	0x3cd97f05	0.026549825
229	0xbe894021	-0.2680674
230	0x3d852eb7	0.06503051
231	0x3eaeb16d	0.3411974
232	0xbdb39efd	-0.08770559
233	0xbeb6373f	-0.35589024
234	0xbd51dcfd	-0.05123614
235	0xbd76ca92	-0.06025178
236	0xbd4bf3ea	-0.04979316
237	0xbe7ed8dc	-0.24887413
238	0x3e903b58	0.28170276
239	0xbd8be80d	-0.068313695
240	0x3e6bf966	0.23044357
241	0x3dd12e9d	0.10213969
242	0x3e651a9c	0.22373432
243	0xbd8608a0	-0.06544614
244	0x3e14c67a	0.14528838
245	0xbdf96d87	-0.12179094
246	0x3dd221a3	0.10260322
247	0x3deed47b	0.11661621
248	0xbb51f20f	-0.0032035147
249	0xbdd0ba14	-0.101917416
250	0xbdbc576d	-0.09196363
251	0xbec35798	-0.38152766
252	0x3e4f894c	0.20267218
253	0xbe72164f	-0.23641323
254	0x3e2c59f6	0.16831192
255	0x3dd33e49	0.10314614

a2c_network.actor_mlp.0.bias f4 [128]
0	0x3e0ac9e0	0.13553572
1	0x3dd7423e	0.105106816
2	0x3defd767	0.117110066
3	0x3d610df4	0.054944947
4	0x3daf83fd	0.08570097
5	0xbdca4b31	-0.09877623
6	0xbd3c7faa	-0.046020187
7	0x3d9ac032	0.075561896
8	0x3c418471	0.011811362
9	0x3d74e3ad	0.05978744
10	0xbdac4faf	-0.08413636
11	0x3c31ba60	0.010847658
12	0xbd23015e	-0.039796226
13	0x3e0e549d	0.13899465
14	0xbc4b1cf2	-0.012397038
15	0xbe04cd35	-0.12968905
16	0xbdad390f	-0.08458149
17	0xbe10c692	-0.14138249
18	0xbe2a5910	-0.16635537
19	0xbe193a23	-0.14963584
20	0x3c98a5ce	0.01863375
21	0xbd951315	-0.0727903
22	0xbcddcd6c	-0.027075492
23	0xbd6b375b	-0.057425838
24	0x3d18560c	0.037191436
25	0x3e230c8f	0.1592276
26	0xbd19e7e8	-0.03757468
27	0x3dbb4162	0.0914333
28	0xbdd12285	-0.10211662
29	0xbce3740f	-0.027765302
30	0x3beaab07	0.0071615013
31	0xbb2f5b98	-0.0026757475
32	0xbe0c0309	-0.13673033
33	0x3c829faf	0.015945284
34	0xbe766059	-0.24060191
35	0xbe3ce1f4	-0.1844557
36	0xbdfb93fa	-0.12284084
37	0xbe3f3eaf	-0.18676256
38	0xbd62b627	-0.055349495
39	0x3d232ada	0.03983579
40	0x3e22efb3	0.1591175
41	0xbbdcf9f0	-0.006743662
42	0xbe32b9ee	-0.17453739
43	0xbced0cfa	-0.028936852
44	0xbb4c7ca7	-0.0031202228
45	0x3cf11d20	0.029432833
46	0xbe5ba225	-0.21448572
47	0x3d4f6ba8	0.05063978
48	0x3dd3abf7	0.10335534
49	0x3d9af54f	0.0756632
50	0xbdac0b24	-0.084005624
51	0xbe69de9c	-0.22838825
52	0xbe80e5c6	-0.25175303
53	0xbe1ef427	-0.15522824
54	0xbce0d588	-0.02744557
55	0xbe0df7aa	-0.13864008
56	0xbe706faa	-0.23480096
57	0x3cbedb79	0.023298012
58	0x3dc10515	0.094247974
59	0xbd45d95b	-0.04830299
60	0x3dc3d0fa	0.095613435
61	0xbd8aa81f	-0.06770348
62	0x3c8020fe	0.015640732
63	0x3d121c38	0.035671443
64	0x3d845677	0.06461804
65	0x3dcff40b	0.101539694
66	0x3d9333b0	0.07187593
67	0xbde0d07e	-0.10977267
68	0xbd3ed9b2	-0.04659433
69	0xbd388ee2	-0.04505814
70	0xbe2564d7	-0.16151749
71	0xbe0d9eff	-0.13830183
72	0xbdc29074	-0.095002085
73	0x3d91d351	0.071203835
74	0x3da69ad9	0.081350036
75	0xbdd08566	-0.10181694
76	0x3d802727	0.06257468
77	0xbe3e72fc	-0.1859855
78	0xbe642b20	-0.22282076
79	0xbe061d3e	-0.13097093
80	0xbd045093	-0.032303404
81	0x3dc4a310	0.09601414
82	0xbd1d990c	-0.038476035
83	0x3e6a4922	0.2287946
84	0xbe38c67f	-0.1804447
85	0x3cc581e7	0.024109794
86	0x3e01a646	0.12661085
87	0x3da6ad95	0.08138577
88	0x3da32b5e	0.07967256
89	0x3d7eb025	0.062179703
90	0x3d935057	0.07193058
91	0xbe24bb2a	-0.16087022
92	0x3dd505dd	0.10401509
93	0xbe07e9df	-0.13272808
94	0xbb64b44b	-0.0034897502
95	0xbe096b88	-0.13419926
96	0x3e2bf368	0.16792071
97	0xbdb1a309	-0.086736746
98	0xbcadc26a	-0.021210868
99	0xbdc1472a	-0.094374016
100	0x3d7622e2	0.06009186
101	0x3ca3e282	0.020005468
102	0xbdced3ed	-0.100990154
103	0x3d547b78	0.05187556
104	0x3d2374f3	0.039906453
105	0xbd331939	-0.043725226
106	0x3c60e0b3	0.0137254475
107	0xbd5b1adc	-0.053492412
108	0xbca3ef49	-0.020011561
109	0xbd0c2a33	-0.03421993
110	0xbbb421fb	-0.005497215
111	0x3d506c1b	0.050884347
112	0xbe933277	-0.2874944
113	0xbd74717b	-0.059678536
114	0x3e167907	0.14694606
115	0x3dba35ef	0.09092318
116	0x3cc5cb95	0.024144927
117	0xbd8671b0	-0.06564653
118	0xbd3b5b44	-0.045741335
119	0x3e38fbf5	0.18064864
120	0xbe1aa7f5	-0.15103133
121	0xbe1cf6c2	-0.15328506
122	0xbe0977b6	-0.13424572
123	0x3c97f907	0.018551363
124	0xbd8cec0b	-0.06880959
125	0xbd370c17	-0.044689264
126	0x3e2bb515	0.16768296
127	0xbc0e047e	-0.008668063

a2c_network.actor_mlp.2.weight f4 [64, 128]
0	0x3d16622b	0.036714714
1	0x3e23fbe4	0.16014057
2	0x3a8f8d8c	0.0010952218
3	0xbc3b4a64	-0.01143131
4	0x3e06807b	0.13134949
5	0xbd59c593	-0.053166937
6	0xbcc7b265	-0.024377057
7	0xbdd6c463	-0.104866765
8	0x3cdb6569	0.026781755
9	0xbdfefed2	-0.12450947
10	0x3d9b0ceb	0.07570823
11	0xbc92570a	-0.01786377
12	0x3e11c82e	0.14236519
13	0x3c95f1b2	0.018303726
14	0x3cef8a4d	0.029240752
15	0x3d7cc07a	0.061706997
16	0x3be6947f	0.007036745
17	0xbd0dcda8	-0.034619957
18	0x3d9937f2	0.07481374
19	0xbe07a609	-0.13246931
20	0xbc772152	-0.015083628
21	0xbd02e14a	-0.031953134
22	0xbcfbc388	-0.030732885
23	0x3d2242fc	0.039614663
24	0xbca2afc2	-0.019859198
25	0xbd70df66	-0.0588068
26	0x3d535cbb	0.051602107
27	0x3dc7aff6	0.09750359
28	0x3db12c79	0.086510606
29	0xbe57b0f2	-0.21063593
30	0xbd2e946c	-0.042622015
31	0xbd1ab266	-0.03776779
32	0xbacf3ccc	-0.0015810966
33	0x3ccdff70	0.025146216
34	0xbe49d2b7	-0.19709288
35	0xbd87ed41	-0.066370495
36	0x3cd94166	0.026520442
37	0xbd2fb59c	-0.042897806
38	0xbdf6da82	-0.12053396
39	0xbd9c33e6	-0.07627086
40	0xbe07b035	-0.13250811
41	0xbccc40df	-0.024933277
42	0xbcc451d7	-0.023964806
43	0x3c85cd57	0.016333265
44	0xbda724f5	-0.08161346
45	0x3dbc2371	0.091864474
46	0xbd900384	-0.070319206
47	0x39862551	0.00025586275
48	0xbd3f877d	-0.04676007
49	0xbcb71e53	-0.022353327
50	0x3e31b991	0.17355944
51	0xbd8c754f	-0.06858312
52	0xbdf2eac4	-0.11861184
53	0xbd522db4	-0.051313117
54	0xbe0370b3	-0.1283596
55	0xbd67f752	-0.056632347
56	0xbde45358	-0.11148709
57	0xbcc24ab1	-0.023717256
58	0x3dbeb9d7	0.0931279
59	0xbc34d2a0	-0.011036545
60	0x3d77f303	0.06053449
61	0x3d3aecc8	0.04563597
62	0x3bb4e195	0.0055200555
63	0x3c1ca46d	0.009560687
64	0xbc2a241d	-0.010384587
65	0xbdc18848	-0.09449822
66	0xbe1bf2ba	-0.15229312
67	0xbd5f8768	-0.054572493
68	0x3dcb3e5d	0.09924004
69	0xbb3443cc	-0.002750623
70	0x3d878e62	0.06618954
71	0xbe16db14	-0.14732009
72	0xbd3bce2d	-0.04585092
73	0x3e1ffccc	0.15623778
74	0xbb491fbd	-0.0030689084
75	0x3d7c9d39	0.061673377
76	0x3d5b24f6	0.053502046
77	0x3b849f8a	0.004047339
78	0xbd019e05	-0.03164484
79	0x3d2394d9	0.039936874
80	0xba0f6db4	-0.0005471364
81	0xbe14537e	-0.14484975
82	0xbccef061	-0.025261106
83	0xbe23abec	-0.15983552
84	0xbcb8b1e1	-0.022545757
85	0xbdef0999	-0.116717525
86	0x3cd77aa0	0.02630359
87	0x3e195cce	0.14976808
88	0xbb1966c7	-0.0023407207
89	0xbdba3ec6	-0.09094004
90	0x3d9a9155	0.07547251
91	0x3da89037	0.08230632
92	0xbde6782b	-0.11253389
93	0xbd2c43f6	-0.042057
94	0x3ce592bd	0.028024072
95	0xbdc2ac99	-0.09505577
96	0xbdb42f21	-0.087980516
97	0xbdc2379c	-0.09483263
98	0xbdbcfe03	-0.092281364
99	0x3ca303f2	0.019899342
100	0x3d6dc0de	0.05804526
101	0xbc119c14	-0.00888731
102	0xbd094177	-0.033509698
103	0xbd709da0	-0.058744073
104	0x3cd84dfd	0.026404375
105	0xbdc0ef24	-0.094206125
106	0xbd61a311	-0.055087153
107	0xbac28f04	-0.0014843647
108	0x3dbe3096	0.09286611
109	0x3d008931	0.031380836
110	0xbda43d0f	-0.080194585
111	0x3d810dbb	0.06301447
112	0x3b82f228	0.0039961524
113	0xbdd0a915	-0.101885
114	0xbd0d739a	-0.034534074
115	0x3d0c39b6	0.034234725
116	0xbd9bcccd	-0.07607422
117	0x3d15d88a	0.03658346
118	0x3c398cdd	0.011325088
119	0xbe0382b7	-0.12842833
120	0x3c374c6e	0.011187656
121	0xbd1b3a62	-0.037897475
122	0xbd89ca12	-0.06727995
123	0xbc9784ee	-0.018496003
124	0x3cc56ced	0.024099791
125	0xbd723690	-0.059134066
126	0xbd246330	-0.040133655
127	0xbc3fbc2d	-0.011702579
128	0xbe387c94	-0.18016273
129	0xbe56f6d6	-0.20992598
130	0xbdf94718	-0.12171763
131	0xbdb2fc90	-0.08739579
132	0x3e2bc644	0.16774851
133	0xbe2f7577	-0.17134653
134	0xbddd140f	-0.107948415
135	0xbd88f1d4	-0.0668675
136	0x3d93bef7	0.07214158
137	0x3d5c6698	0.05380878
138	0x3d405b90	0.04696232
139	0xbdb8f760	-0.09031558
140	0xbdab2f2c	-0.08358607
141	0xbdf3dd81	-0.11907483
142	0x3dd37f9d	0.10327075
143	0x3d0898f2	0.033348985
144	0xbda293cc	-0.07938346
145	0xbd2bdc3a	-0.04195807
146	0xbc9d9d58	-0.019240066
147	0x3d026b40	0.031840563
148	0x3e165a0d	0.14682789
149	0xbc3a9303	-0.011387589
150	0x3ab2a506	0.0013629503
151	0xbd3b3d54	-0.045712784
152	0xbe65674a	-0.22402683
153	0x3d9754b9	0.073892064
154	0x3db52e6f	0.08846747
155	0x3d03993d	0.03212856
156	0xbda2a8f2	-0.0794238
157	0xbd6cf81e	-0.05785381
158	0xbc702bdb	-0.014658893
159	0xbde6f41f	-0.11277031
160	0x3b12c7b3	0.0022396862
161	0xbe279faf	-0.16369508
162	0xbca15358	-0.019693062
163	0xbde904e6	-0.113778874
164	0xbd86c9d2	-0.06581463
165	0xbdae7967	-0.085192494
166	0xbcfd38ba	-0.030910838
167	0xbd0acf02	-0.033888824
168	0x3d761a03	0.0600834
169	0xbdd1ecfa	-0.10250278
170	0xbd6a65e7	-0.057226088
171	0x3d13ad4c	0.03605394
172	0xbde64fa5	-0.1124566
173	0xbddfbd3f	-0.10924768
174	0xbc529dac	-0.012854975
175	0x3a8979d9	0.0010488584
176	0xbddfa247	-0.10919624
177	0x3d9af0c2	0.07565452
178	0x3e0596d8	0.13045824
179	0xbdec4115	-0.11535851
180	0xbc74e0a1	-0.014946134
181	0xbd2b8615	-0.041875917
182	0xbdc0adc0	-0.0940814
183	0x3d1f1cb2	0.038845725
184	0xbce332ae	-0.027734127
185	0xbe0832dc	-0.13300651
186	0x3d67833f	0.05652165
187	0xbddf16b0	-0.10892999
188	0xbd1a04ce	-0.03760224
189	0xbdd258b3	-0.10270824
190	0xbda80f59	-0.08206052
191	0xbd58bdd5	-0.052915413
192	0xbc8d492d	-0.017246807
193	0x3cd8cf74	0.026466109
194	0xbd67168c	-0.056417987
195	0x3bf498a5	0.0074644857
196	0x3d610e8d	0.054945517
197	0xbe66ebd9	-0.22550906
198	0xbde40a68	-0.11134797
199	0xbe1c9790	-0.15292192
200	0xbda780ef	-0.08178889
201	0xbb9f4fe7	-0.00486182
202	0x3bd0a5eb	0.006367435
203	0xbe73185b	-0.2373976
204	0xbe84a126	-0.25904197
205	0xbdb33851	-0.08750976
206	0xbdf16d1b	-0.11788388
207	0xbe377e3a	-0.17919245
208	0xbb2e9526	-0.0026639192
209	0xbdf5feb5	-0.12011472
210	0xbe2b5c18	-0.1673435
211	0xbc8346da	-0.016024996
212	0x3cfa90a7	0.030586554
213	0x3c649914	0.013952512
214	0xbdbf3c75	-0.09337703
215	0xbe91f314	-0.28505766
216	0xbd7e81a4	-0.062135354
217	0xbdcd2999	-0.100177
218	0xbd3e4cd3	-0.046459984
219	0xbcd44d6d	-0.025915826
220	0xbe210280	-0.1572361
221	0x3c87277b	0.016498318
222	0xbe09ca75	-0.13456137
223	0x3d6a7621	0.057241563
224	0xbe3c0b67	-0.18363725
225	0xbdf6bf61	-0.120482214
226	0xbd8b58b6	-0.0680403
227	0xbe1e8db7	-0.15483747
228	0xbdbfe351	-0.09369529
229	0xbe0e7e62	-0.13915399
230	0xbd8b2f33	-0.06796112
231	0xbe160507	-0.14650355
232	0xbe012a6e	-0.12613842
233	0xbe9621ee	-0.2932276
234	0xbd3e1e6b	-0.046415728
235	0x3bf98d9b	0.0076157576
236	0xbe120da1	-0.14263012
237	0xbd083af8	-0.033259362
238	0xbe5f055f	-0.21779393
239	0x3e29c6b4	0.16579705
240	0x3d561ea8	0.05227533
241	0x3e17c6f2	0.14821985
242	0x3c463823	0.012098345
243	0xbdc36139	-0.09540028
244	0xbd5d96a7	-0.05409875
245	0x3d42b82d	0.047538925
246	0x3d975ddd	0.0739095
247	0xbd8f281e	-0.069900736
248	0xbe12e20d	-0.14344044
249	0xbdffc534	-0.124887854
250	0x3c9690d2	0.018379603
251	0xbe56afb8	-0.20965469
252	0xbe596b99	-0.21232451
253	0x3cdb761f	0.026789723
254	0xbd792ead	-0.06083553
255	0xbd51e1e8	-0.05124083

a2c_network.actor_mlp.2.bias f4 [64]
0	0xbd8259f8	-0.063648164
1	0xbd7ed74a	-0.062217034
2	0x3dfce5f3	0.12348547
3	0xbc7b043f	-0.015320837
4	0xbe957885	-0.29193512
5	0xbe3208df	-0.17386197
6	0xbd53cb2d	-0.051707435
7	0xbdf38f4c	-0.11892566
8	0x3df4fae3	0.11961915
9	0xbdfa7236	-0.12228815
10	0xbdcbac2e	-0.0994495
11	0x3d13e3c1	0.036105875
12	0xbe6d8c8c	-0.23198146
13	0xbe493de9	-0.19652523
14	0x3d60325e	0.054735534
15	0xbe404200	-0.18775177
16	0xbe29f590	-0.16597581
17	0xbe369190	-0.17828965
18	0x3ce1e8ad	0.027576769
19	0xbe39d77d	-0.18148609
20	0x3d28f826	0.041252278
21	0x3c5c1c88	0.013434537
22	0xbddec9f0	-0.1087836
23	0xbe02224e	-0.12708399
24	0xbe4070e0	-0.18793058
25	0xbcb7daeb	-0.022443255
26	0xbd93c51b	-0.07215329
27	0xbe61e178	-0.22058666
28	0xbdb48b6d	-0.08815656
29	0x3dd1ff79	0.10253806
30	0xbd1b2d36	-0.037884913
31	0xbc033f41	-0.008010686
32	0xbe1cc5c1	-0.15309812
33	0xbe1463a3	-0.14491133
34	0xbd3c1cad	-0.045925785
35	0x3d462677	0.048376527
36	0xbe3b21c3	-0.18274598
37	0xbe2c884b	-0.16848867
38	0xbdc91abc	-0.09819552
39	0xbe0d2795	-0.1378463
40	0x3ca0a62d	0.019610489
41	0xbdbf6f58	-0.09347409
42	0xbe7a2a2e	-0.24430153
43	0xbe0ce536	-0.13759312
44	0xbe176e0d	-0.14788075
45	0xbe0dea84	-0.13858992
46	0xbe32d7ae	-0.17465088
47	0xbe3affc5	-0.18261631
48	0xbd99d538	-0.075113714
49	0xbd84f4be	-0.06491993
50	0x3d7a5188	0.06111291
51	0x3d3a2903	0.045449268
52	0x3d3dc29b	0.04632817
53	0x3dab2c1a	0.08358021
54	0x3db95b7a	0.09050651
55	0x3c5624ac	0.013070267
56	0xbbdb197b	-0.006686387
57	0xbd9f90e1	-0.07791305
58	0xbd2aeae0	-0.0417279
59	0xbe563138	-0.20917213
60	0x3bc87fbf	0.006118744
61	0xbb5fd9a1	-0.0034156817
62	0xbe580814	-0.21096832
63	0xbdee2859	-0.116287895

a2c_network.actor_mlp.4.weight f4 [32, 64]
0	0xbcd63df0	-0.026152581
1	0x3e012d0d	0.12614842
2	0xbe3ce769	-0.18447651
3	0x3d2d07f3	0.04224391
4	0x3c937350	0.017999321
5	0xbcf2743f	-0.029596446
6	0xbd9f7e30	-0.0778774
7	0xbe19dc5c	-0.15025467
8	0xbe2c6bf8	-0.16838062
9	0xbbb2448e	-0.0054403013
10	0x3d716531	0.058934394
11	0xbe0ac925	-0.13553293
12	0xbc9d2ca3	-0.019186324
13	0xbcde4d74	-0.027136542
14	0xbe21be3a	-0.15795222
15	0xbde64c01	-0.11244965
16	0xbdc56656	-0.0963866
17	0xbe063a07	-0.13108073
18	0xbde3b516	-0.11118524
19	0xba4a0d94	-0.0007707712
20	0xbd116575	-0.035497148
21	0xbdaf1cef	-0.085504405
22	0xbc14d5a0	-0.009084135
23	0xbe187d20	-0.14891481
24	0xbe80a881	-0.25128558
25	0xbd266d5a	-0.04063163
26	0x3c042bf0	0.008067116
27	0xbe14a372	-0.14515474
28	0x3deb453d	0.114878155
29	0xbe191a35	-0.14951403
30	0xbdb499fe	-0.08818434
31	0x3bd4c86a	0.006493618
32	0xbd031252	-0.031999893
33	0xbd789959	-0.06069312
34	0x3c3ea3c0	0.011635721
35	0xbceb0903	-0.02869082
36	0x3bcd2ad5	0.0062612095
37	0x3bf2bd89	0.0074078483
38	0xbd572a7d	-0.052530754
39	0xbe0d0bec	-0.13774079
40	0xbdaeb1cc	-0.08530006
41	0xbca92776	-0.0206487
42	0x3d89d731	0.06730498
43	0x3d7fac7b	0.06242035
44	0xbcf2b0ff	-0.029625414
45	0xbd829ee8	-0.06377965
46	0x3bacc3d2	0.005272367
47	0xbba4459c	-0.005013181
48	0x3cc37d50	0.023863465
49	0xbd94d1cb	-0.07266577
50	0xbe263883	-0.16232495
51	0xbdd050c4	-0.10171655
52	0xbdf0f9eb	-0.11766418
53	0xbe8d9488	-0.27652383
54	0x3dd98bab	0.10622343
55	0xbe86af90	-0.2630582
56	0xbcf7415d	-0.030182535
57	0xbbfe995a	-0.007769746
58	0x3e4f6009	0.20251478
59	0x3d89b180	0.067233086
60	0xbe4e8063	-0.20166163
61	0xbde0f9f8	-0.10985178
62	0x3db69d83	0.08916762
63	0x3c933431	0.017969223
64	0x3dc8849d	0.09790919
65	0xbd0ddc40	-0.034633875
66	0xbce0770f	-0.027400522
67	0x3cfe4492	0.031038556
68	0xbddcb0f0	-0.10775936
69	0xbdfe7aaa	-0.1242574
70	0xbe0769e6	-0.13223991
71	0x3d917d5e	0.0710399
72	0xbe0d89cd	-0.13822098
73	0xbd5a56ea	-0.053305544
74	0x3dd9139b	0.105994426
75	0x3d1c0c96	0.03809794
76	0x3e09a247	0.1344081
77	0xbdfd5414	-0.12369552
78	0xbda2c437	-0.07947581
79	0xbe059819	-0.13046302
80	0xbe1872e1	-0.14887573
81	0xbdb8c157	-0.09021252
82	0xbb11e51e	-0.0022261809
83	0x3d290284	0.041262165
84	0xbdc4a642	-0.09602024
85	0x3c36ce7c	0.011157628
86	0xbe27e904	-0.16397482
87	0x3cd5d4ac	0.026102386
88	0xbe056329	-0.13026108
89	0x3cff3a10	0.031155616
90	0xbd4e385b	-0.050346714
91	0xbc01478f	-0.007890596
92	0x3cd50669	0.026004033
93	0x3b95a585	0.0045668506
94	0xbdb400dc	-0.087892264
95	0x3de76551	0.112986214
96	0x3ca8eaf6	0.02061985
97	0xbde78383	-0.11304381
98	0xbd595273	-0.053057145
99	0x3e4e0b0d	0.20121403
100	0xbd4f6e22	-0.05064214
101	0xbdbecaf5	-0.09316055
102	0xbe065bcf	-0.1312096
103	0xbd22577d	-0.039634217
104	0xbd2ee3e9	-0.04269782
105	0xb9ac06eb	-0.0003281155
106	0x3d4bf0e1	0.049790267
107	0xbd730d6b	-0.05933897
108	0xbd888810	-0.06666577
109	0x3cce506f	0.025184838
110	0xbe094a64	-0.13407284
111	0xbd7a3185	-0.06108238
112	0xbcade153	-0.021225607
113	0xbd34f6b0	-0.044180572
114	0xbc0ee93e	-0.008722601
115	0xbd4b47d1	-0.049629036
116	0xbd9664c4	-0.07343438
117	0x3cdd7bb0	0.027036518
118	0xbd0903e2	-0.03345097
119	0x3d4f38ed	0.050591398
120	0xbdc9fb96	-0.09862439
121	0xbd8e9c28	-0.06963378
122	0x3d3bacb3	0.045818996
123	0xbd75f814	-0.06005104
124	0x3c7cecc2	0.015437307
125	0xbdc12955	-0.094317116
126	0xbd64ab25	-0.05582728
127	0xbac25ed0	-0.0014829282
128	0xbda041d4	-0.07825056
129	0x3a412cd0	0.00073690433
130	0xbc01c4d1	-0.00792046
131	0x3d0c1c6e	0.0342068
132	0xbe8cdae5	-0.27510753
133	0xbdb296a8	-0.08720142
134	0xbe5be409	-0.21473707
135	0x3d27a953	0.040932965
136	0xbe016a39	-0.12638177
137	0xbd7ef9cf	-0.062249955
138	0xbd4218d2	-0.04738695
139	0x3c951064	0.018196292
140	0xbd86ccd8	-0.065820396
141	0xbe432ba9	-0.19059624
142	0xbd0e2af7	-0.034708943
143	0xbe0a3ce6	-0.13499793
144	0xbe7368e5	-0.23770483
145	0xbe027e2f	-0.12743448
146	0xbd64997a	-0.05581043
147	0xbe376d4e	-0.1791279
148	0x3d73fab3	0.059565257
149	0x3c560a3b	0.013063963
150	0xbd53adc9	-0.051679406
151	0x3e07cf2f	0.13262628
152	0xbc8ace1a	-0.01694398
153	0x3d561d79	0.0522742
154	0xbd6c5332	-0.05769653
155	0xbdcf3857	-0.10118168
156	0x3b5a1354	0.003327568
157	0x3d810628	0.06300002
158	0x3d3164d5	0.04330905
159	0x3d6b0812	0.057380743
160	0xbc83ab3a	-0.016072858
161	0x3dc0d33c	0.0941529
162	0x3d9c10d6	0.07620399
163	0x3c855f51	0.016280802
164	0xbe6a0e9c	-0.22857136
165	0xbde4861d	-0.111583926
166	0xbe1db69a	-0.15401688
167	0xbe23d805	-0.16000374
168	0xbd26eeab	-0.040754955
169	0x3e1646eb	0.1467549
170	0x3d3532d7	0.044237938
171	0xbde00b61	-0.1093967
172	0xbe25a4ae	-0.16176102
173	0x3da2cad4	0.07948843
174	0x3d35d75f	0.044394847
175	0xbe1c9bd9	-0.15293826
176	0xbcd7183f	-0.026256679
177	0xbd844aa3	-0.06459548
178	0xbd4177a1	-0.047233228
179	0x3c5bde87	0.013419754
180	0xbe061758	-0.13094842
181	0xbddb9e27	-0.107235245
182	0x3c06641d	0.00820258
183	0x3d672805	0.05643465
184	0x3c2b9163	0.010471675
185	0x3d001c9d	0.031277288
186	0xbdcee03f	-0.10101365
187	0xbe31f2a3	-0.17377715
188	0xbe10006f	-0.14062665
189	0xbd99461f	-0.07484078
190	0xbd942645	-0.07233862
191	0x3ddbe1dd	0.107364394
192	0xbe09c6c9	-0.13454737
193	0x3dd08f1c	0.10183546
194	0xbdc64737	-0.09681552
195	0xbc6939a0	-0.01423493
196	0xbdd599ca	-0.104297236
197	0xbda8f877	-0.08250516
198	0x3b7a2ec2	0.0038174842
199	0x3dbf4889	0.09340007
200	0xbe4adebc	-0.19811529
201	0xbcac3e89	-0.021025913
202	0xbdcea6bb	-0.10090395
203	0xbd311dc1	-0.043241266
204	0xbb91aff0	-0.004446022
205	0xbdc78898	-0.0974285
206	0x3cbc190c	0.022961162
207	0x3ab24ced	0.0013603248
208	0xbe09cd7e	-0.13457295
209	0x3da0c3b5	0.07849828
210	0x3d6da98a	0.058023013
211	0xbd743690	-0.059622347
212	0xbd54fef9	-0.052000973
213	0xbe2e8ec4	-0.17046648
214	0x3cc1c6a5	0.023654291
215	0x3d62cfa6	0.05537381
216	0x3db91179	0.09036536
217	0x3d20a25e	0.039217345
218	0xbdf511cc	-0.11966285
219	0xbd0523ba	-0.032504775
220	0xbcd87749	-0.026424067
221	0xbd44b1b7	-0.048021045
222	0xbdbac2eb	-0.09119209
223	0xbd806c69	-0.062706776
224	0x3c00a795	0.007852455
225	0xbdefd9d9	-0.11711473
226	0xbd44ff29	-0.048094902
227	0xbc836fab	-0.016044458
228	0xbc6476d4	-0.013944346
229	0xbe4bad82	-0.19890407
230	0xbd41c098	-0.047302812
231	0xbdff1e76	-0.12456982
232	0xbe2147d2	-0.15750054
233	0xbcfa3bdd	-0.030546123
234	0x3dcd5b4e	0.100271806
235	0x3d85d142	0.065340534
236	0xbde45915	-0.111498035
237	0x3d490e46	0.049085878
238	0x3dbcee84	0.09225181
239	0xbd931507	-0.07181745
240	0xbde37c10	-0.111076474
241	0xbe1d7b25	-0.15379007
242	0xbda5becb	-0.080930315
243	0xbd419469	-0.047260676
244	0xbd36cdb6	-0.044629775
245	0x3d3bcdde	0.045850627
246	0xbcaf9693	-0.021434104
247	0xbd926d78	-0.07149786
248	0xbc2f1565	-0.010686253
249	0xbd6b066f	-0.057379182
250	0xbbebfb1d	-0.007201566
251	0x3d742cf6	0.05961319
252	0x3d7fab5f	0.06241929
253	0xbe0b9fdb	-0.13635199
254	0x3d9207f1	0.07130421
255	0x3c3c1954	0.011480648

a2c_network.actor_mlp.4.bias f4 [32]
0	0xbe6b26eb	-0.22964065
1	0xbb9c3250	-0.00476674
2	0x3dd3b669	0.10337526
3	0xbe41b80a	-0.18917862
4	0xbe19178d	-0.1495039
5	0xbdac703a	-0.08419843
6	0x3d42ad4e	0.047528557
7	0xbe05cc59	-0.13066234
8	0x3ca41935	0.02003155
9	0xbc3f52e5	-0.011677478
10	0x3ca0f960	0.019650161
11	0xbded0745	-0.11573652
12	0xbce4be4a	-0.027922768
13	0xbdce4af1	-0.10072888
14	0xbe355a1d	-0.17710157
15	0x3cbfa1c3	0.023392564
16	0x3be60e4f	0.0070207487
17	0x3e12a5ef	0.14321111
18	0xbd8207b3	-0.06349125
19	0xbcd58ae6	-0.026067208
20	0x3dd779a4	0.10521248
21	0x3db342fb	0.0875301
22	0xbe0e49cf	-0.13895343
23	0xbd6305d8	-0.055425495
24	0xbe18dc26	-0.1492773
25	0x3e00d17a	0.12579909
26	0xbddfe418	-0.10932177
27	0xbe09cfa5	-0.13458116
28	0xbe1b27ca	-0.15151897
29	0xbde2bcb1	-0.11071146
30	0xbe284cb5	-0.16435511
31	0x3d2e2c0a	0.042522468

a2c_network.value.weight f4 [1, 32]
0	0x3ccdbb57	0.025113745
1	0x3d621332	0.055194087
2	0x3d9530da	0.07284708
3	0x3c3daeb7	0.0115773
4	0xbdae452b	-0.085092865
5	0x3c583c72	0.013198005
6	0x3c6d263f	0.014474451
7	0xbd8dc878	-0.06923002
8	0xbd26b158	-0.040696472
9	0x3d4b41e1	0.049623374
10	0xbd180c24	-0.037120953
11	0xbc63153a	-0.013860041
12	0x3c324061	0.010879607
13	0x3c4f18ff	0.012640237
14	0x391ee5c4	0.00015153649
15	0x3dd7a679	0.10529799
16	0x3d405f99	0.04696617
17	0x3e54a182	0.20764735
18	0x3cc3b775	0.02389119
19	0x3d3f20fa	0.04666231
20	0x3d42adc4	0.047528997
21	0x3d315a0b	0.043298762
22	0x3c3ed5c8	0.011647649
23	0xbd0d3266	-0.03447189
24	0x3c3983bd	0.011322913
25	0x3ce83d6f	0.028349606
26	0x3c9e3352	0.01931158
27	0xbc491075	-0.01227199
28	0xbca21214	-0.019784011
29	0xbc623b2c	-0.013808053
30	0xbdb39562	-0.08768727
31	0x3d1aaeb9	0.037764285

a2c_network.mu.weight f4 [7, 32]
0	0x3b9d6514	0.004803309
1	0xbe251fb2	-0.16125372
2	0xbd09d558	-0.033650726
3	0x3984626a	0.00025250326
4	0x3e19720b	0.1498491
5	0xbe043ec8	-0.12914574
6	0x3df2d699	0.118573375
7	0x3b85013f	0.0040589864
8	0xbe57dd80	-0.2108059
9	0x3e137cdc	0.14403099
10	0x3de31354	0.11087671
11	0x3e6d97b4	0.23202401
12	0xbde89eea	-0.113584355
13	0x3dabd0c0	0.08389425
14	0x3d747b64	0.059687987
15	0x3cca9cb2	0.024732921
16	0xbe978a2b	-0.295976
17	0xbcf84eae	-0.030310955
18	0xbe911533	-0.28336486
19	0xbcc67865	-0.02422733
20	0x3e3dfc23	0.18553214
21	0xbe99b159	-0.30018118
22	0xbea351d0	-0.31898355
23	0xbe992ce4	-0.2991706
24	0xbe0170e8	-0.12640727
25	0x3db4fe4a	0.08837564
26	0xbe40d092	-0.18829563
27	0x3ca92266	0.020646285
28	0xbd173187	-0.036912467
29	0x3c06a839	0.008218818
30	0xbd96ff86	-0.07372956
31	0xbe02b9b2	-0.1276615
32	0x3e94a62c	0.2903303
33	0x3cf6c79a	0.030124474
34	0xbdd300db	-0.103028975
35	0x3d90b018	0.07064837
36	0x3e77ea33	0.24210434
37	0x3c5eb619	0.01359322
38	0xbe87ae05	-0.26499954
39	0x3db737cd	0.0894619
40	0xbe52e593	-0.20595388
41	0x3d0cd308	0.034380943
42	0xbe4b9267	-0.19880067
43	0x3c1197f7	0.008886329
44	0x3ca94b9b	0.020665934
45	0x3e397148	0.1810962
46	0x3dcc55aa	0.099772766
47	0x3cbe943f	0.023264049
48	0xbd7b19c7	-0.06130388
49	0xbe0ac23e	-0.1355066
50	0xbe252d41	-0.16130544
51	0x3d8ed990	0.069750905
52	0xbe812a71	-0.25227693
53	0xbdab85df	-0.08375143
54	0x3dc00ac7	0.093770556
55	0xbd68f45d	-0.056873668
56	0xbc617b9c	-0.013762381
57	0xbe2ba1cd	-0.16760941
58	0x3d461e15	0.048368532
59	0xbdc91062	-0.09817578
60	0xbe6ea99d	-0.2330689
61	0x3e2d012d	0.1689498
62	0x3e9c5796	0.30535573
63	0x3bd17007	0.0063915285
64	0xbcf21446	-0.029550683
65	0xbdd88147	-0.10571533
66	0xbce2e5b5	-0.027697423
67	0xbbb1bd2f	-0.005424164
68	0xbdee91e0	-0.11648917
69	0xbc99406c	-0.018707477
70	0x3d1d2007	0.03836062
71	0xbe7c23ac	-0.24622983
72	0x3c5ab738	0.013349347
73	0xbe4a17b6	-0.19735608
74	0xbc1c6b26	-0.009547031
75	0x3dd30d7b	0.103053056
76	0x3e2c1a52	0.16806915
77	0x3c88ac58	0.016683742
78	0x3cb1a505	0.021685133
79	0x3e8813ee	0.26577705
80	0x3caf2f3d	0.02138483
81	0x3cd896d5	0.02643911
82	0x3c89ddfb	0.016829481
83	0xbd27e9d8	-0.040994495
84	0xbdececc2	-0.115685955
85	0x3e02a25a	0.12757245
86	0xbd3ac0a0	-0.045593858
87	0xbd929f0d	-0.07159243
88	0x3e44155d	0.19148774
89	0xbe70f8d2	-0.23532417
90	0x3d8517c3	0.06498673
91	0x3d602b6a	0.054728903
92	0x3e0e6522	0.13905767
93	0x3e047e4e	0.12938806
94	0x3d1a4475	0.037662942
95	0x3ea98404	0.33108532
96	0x3e38efb9	0.18060197
97	0x3e04cb86	0.12968263
98	0xbd3bab1a	-0.045817472
99	0x3e4aefa7	0.19817983
100	0xbd4f7775	-0.050651032
101	0x3e5a6ac4	0.2132979
102	0x3e065808	0.13119519
103	0xbbc00d1e	-0.0058609387
104	0xbe90f15a	-0.28309137
105	0x3e90c267	0.28273317
106	0x3e37a34c	0.17933387
107	0x3e51b580	0.20479393
108	0xbe274d5a	-0.16338101
109	0x3e4de904	0.2010842
110	0x3e8cce1c	0.27501
111	0xbe7b1a14	-0.24521667
112	0x3c1e2427	0.009652174
113	0x3d13a462	0.03604544
114	0xbd2b5e60	-0.04183805
115	0xbdde5674	-0.108563334
116	0x3de8de96	0.1137058
117	0xbecc387b	-0.3988684
118	0xbb4aa5b3	-0.0030921518
119	0xbe36d23c	-0.17853636
120	0x3e746f40	0.23870564
121	0x3db88b82	0.09010984
122	0xbd8729ef	-0.06599795
123	0x3e8e810e	0.27832836
124	0x3e1004e6	0.14064369
125	0x3dc614eb	0.096719585
126	0x3e1cd1b9	0.15314378
127	0xbe36572a	-0.17806688
128	0xbe678e12	-0.2261279
129	0x3e47f3d6	0.1952661
130	0xbca6703d	-0.020317191
131	0x3da02bd1	0.07820857
132	0x3e5a3c2a	0.21312013
133	0x3da69025	0.08132962
134	0xbe0ae39b	-0.13563387
135	0x3e893003	0.26794443
136	0xbdb9fe7d	-0.09081743
137	0xbd57bd84	-0.05267097
138	0x3e22e099	0.1590599
139	0xbd33418d	-0.043763686
140	0x3e0e1fe2	0.1387935
141	0x3d4510e7	0.048111822
142	0xbe23e1e1	-0.16004135
143	0x3df2fc9d	0.118645884
144	0xbe6daea1	-0.23211147
145	0xbd82eb92	-0.06392588
146	0x3e18e021	0.14929248
147	0x3cb99000	0.022651672
148	0xbe079b7f	-0.13242911
149	0x3e6d48f4	0.2317236
150	0x3e135709	0.1438867
151	0x3e1b6974	0.15176946
152	0x3e23730a	0.15961853
153	0xbd419183	-0.04725791
154	0xbe64801d	-0.22314496
155	0xbe330c8f	-0.1748526
156	0xbe6746d6	-0.22585616
157	0x3d58b506	0.052907012
158	0x3e520781	0.20510675
159	0x3eb46ba4	0.35238373
160	0x3e467ae1	0.19382812
161	0xbcf3eca6	-0.029775929
162	0xbc2bb318	-0.010479711
163	0x3de56c8f	0.112023465
164	0x3d7fda88	0.062464267
165	0xbc93cc52	-0.018041763
166	0x3e23bb7c	0.15989488
167	0x3d841eaa	0.06451161
168	0xbe643147	-0.22284423
169	0x3d24c930	0.04023093
170	0x3e49bf95	0.19701989
171	0x3de475f8	0.11155313
172	0xbe6616b9	-0.22469606
173	0x3d86453d	0.06556175
174	0x3d7726d1	0.060339753
175	0xbcede586	-0.02904011
176	0xbe6d8e1a	-0.23198739
177	0xbd878e2a	-0.066189125
178	0xbe5b9fcb	-0.21447675
179	0xbdb25af0	-0.08708751
180	0x3e37511d	0.17902036
181	0xbe47db59	-0.19517268
182	0xbd8e5821	-0.06950403
183	0xbe1d150d	-0.15340061
184	0x3eb80c05	0.3594667
185	0x3de7a4b7	0.11310714
186	0xbe42ded2	-0.19030312
187	0x3e65eed7	0.22454391
188	0xbd70135f	-0.058612224
189	0x3e1a237f	0.15052603
190	0x3d2f9860	0.042869925
191	0x3e285d9d	0.1644196
192	0x3dc4e21c	0.096134394
193	0x3d7e21b4	0.06204386
194	0x3a94a85f	0.0011341682
195	0xbcb06f23	-0.02153737
196	0xbdf22d0d	-0.11824999
197	0x3cdce288	0.026963487
198	0xbe2fa55b	-0.17152922
199	0x3e28a15a	0.164678
200	0x3d43259e	0.047643296
201	0xbe83ac26	-0.25717276
202	0xbe092dac	-0.13396329
203	0xbe2f9f79	-0.17150678
204	0x3d5e35ca	0.054250516
205	0xbe2fd02a	-0.17169252
206	0xbdc30c9c	-0.095238894
207	0x3d2d0895	0.042244513
208	0xbc6e76ae	-0.014554663
209	0xbe0f5db1	-0.14000584
210	0x3e48b1fe	0.19599149
211	0x3e1e6224	0.15467125
212	0xbeb68ee4	-0.35655892
213	0x3dc1b059	0.09457464
214	0x3d409f6e	0.047027044
215	0x3d02ea9b	0.03196202
216	0x3d432d7f	0.04765081
217	0xbedabf61	-0.42724136
218	0xbc18b058	-0.009319387
219	0x3c99a1d5	0.018753925
220	0x3e339aa2	0.17539456
221	0x3ddaa581	0.106760986
222	0xbc01a5e9	-0.007913091
223	0xbd75fb2b	-0.060053986

a2c_network.mu.bias f4 [7]
0	0xbc56571f	-0.013082295
1	0xbe6c5f4a	-0.23083225
2	0xbd77abc2	-0.060466535
3	0xbe313ec0	-0.17309093
4	0x3bae7b3a	0.0053247483
5	0xbdcb5658	-0.09928578
6	0xbdfe8b89	-0.12428958

exp_avg f4 [7]
0	0xbb5603ef	-0.0032656153
1	0x3a99f0ce	0.0011744739
2	0xbbea4d34	-0.0071503166
3	0xba197707	-0.0005854223
4	0x3ac82b48	0.0015271688
5	0xba6cf676	-0.0009039411
6	0xbae48def	-0.0017437319

exp_avg_sq f4 [7]
0	0x39a6c057	0.00031805292
1	0x399c77f7	0.0002984402
2	0x398aa1ab	0.00026441863
3	0x39acca5b	0.00032957163
4	0x3988f388	0.00026121386
5	0x398eab96	0.00027212192
6	0x397b9dea	0.00023996053

exp_avg f4 [128, 18]
0	0xbac3aa23	-0.0014928024
1	0xbaef6299	-0.0018263637
2	0x39a4520f	0.00031341656
3	0xb980c031	-0.00024557256
4	0xba62e0b4	-0.0008654699
5	0xb9e84d83	-0.0004430824
6	0x3afde278	0.0019369861
7	0xba4e113f	-0.0007860846
8	0xbae34bce	-0.0017341317
9	0x3a815ae5	0.0009869008
10	0xb7c205c6	-2.312929e-05
11	0x3817d4ac	3.619927e-05
12	0xb9f3b226	-0.00046481303
13	0x3b017f06	0.001975955
14	0x3ae5f993	0.0017545692
15	0x3a1c9193	0.000597262
16	0x3a944a50	0.0011313651
17	0xba12d146	-0.0005600642
18	0xbb0da843	-0.0021615184
19	0xbacd46d3	-0.0015661366
20	0x3a8c3452	0.0010696745
21	0xb98e8bee	-0.00027188606
22	0xbabb0afa	-0.0014270239
23	0x3b220c36	0.0024726517
24	0x3b9af714	0.004729161
25	0xbba08dbd	-0.004899709
26	0xbb4f6071	-0.0031643177
27	0x3b09df91	0.0021037797
28	0xbb0a7940	-0.00211294
29	0x3aada150	0.0013246927
30	0x3ba899aa	0.0051452713
31	0x3b509d59	0.0031832068
32	0x3a8f7a0a	0.0010946405
33	0x3b170137	0.0023041496
34	0xbad7eb1c	-0.0016473266
35	0x3a4cac53	0.0007807661
36	0xbb15f0c3	-0.00228791
37	0xbacc0cd5	-0.0015567789
38	0x3a6f0f88	0.0009119441
39	0xb9cdff74	-0.00039290974
40	0xba64540f	-0.00087100355
41	0x3a28cbef	0.000643908
42	0x3b392b59	0.0028254597
43	0xba891117	-0.0010457364
44	0xbb43f36d	-0.0029899732
45	0x3a38cae3	0.00070492754
46	0x3a77d438	0.00094539253
47	0xba5f52a2	-0.0008519088
48	0xb90da6fc	-0.00013509014
49	0x3afcbd41	0.0019282476
50	0x3a8e0bed	0.0010837294
51	0x3b10784f	0.0022044366
52	0xb9977f03	-0.00028895595
53	0xb96f7cc5	-0.00022839296
54	0x39d1cdb2	0.0004001684
55	0x3a6a297e	0.00089325744
56	0xb8804d0d	-6.1178675e-05
57	0xb88340f4	-6.258665e-05
58	0x3a917714	0.001109811
59	0xbad2bece	-0.0016078593
60	0xbb00ca85	-0.001965196
61	0x3b526085	0.0032100987
62	0x3ad46c65	0.001620662
63	0xba55d050	-0.0008156346
64	0x3b10fec8	0.0022124518
65	0xbacdcafe	-0.0015700755
66	0xbb3d4685	-0.0028881144
67	0xbac8880f	-0.0015299338
68	0xba59fb7f	-0.0008315369
69	0xb96c0a40	-0.00022510532
70	0x3a75c9c7	0.00093760755
71	0xb9f45e7f	-0.00046609712
72	0x396c2cd7	0.00022523418
73	0x39670810	0.0002203288
74	0x3946d94d	0.00018963702
75	0x39a3bfbf	0.00031232645
76	0x3a2b922b	0.0006544913
77	0xbae3935c	-0.0017362642
78	0xbb0c8b60	-0.0021445379
79	0x3b90f981	0.0044242744
80	0x38e3f81f	0.0001087042
81	0xbacac464	-0.0015469906
82	0x3b6e3c87	0.0036351995
83	0xbb68ca72	-0.0035521057
84	0xbbd2ecda	-0.0064369263
85	0xbb0e9bde	-0.0021760385
86	0xba8359d0	-0.0010021273
87	0x3a2c0bbb	0.0006563027
88	0x3a940067	0.0011291624
89	0xba51f0dd	-0.0008008609
90	0xb7ab4d83	-2.0420883e-05
91	0x38628223	5.4003798e-05
92	0xb8c18edf	-9.229569e-05
93	0xb73aee10	-1.1141892e-05
94	0xb870628e	-5.7312245e-05
95	0x39366b08	0.00017396745
96	0xb97d8b3c	-0.00024179829
97	0xb87d3d9d	-6.0377282e-05
98	0x38f87b19	0.0001184849
99	0x38eb9d56	0.00011234979
100	0x38ee503a	0.00011363668
101	0x3993513e	0.00028098555
102	0x3a480de4	0.00076314644
103	0xb9aa592e	-0.0003249137
104	0xb815cad9	-3.5713285e-05
105	0x393281f2	0.00017023811
106	0xb92c87e3	-0.0001645382
107	0x390fa0ff	0.00013697518
108	0x3a0f117a	0.00054576213
109	0x39e638b1	0.00043911257
110	0xb9e96e31	-0.00044523322
111	0xb84a7135	-4.8265985e-05
112	0x39a3878d	0.00031190776
113	0xb9dbc904	-0.00041920703
114	0xba77c8eb	-0.00094522414
115	0x39a98733	0.00032334923
116	0x3ab28458	0.0013619764
117	0xb88adfad	-6.622016e-05
118	0xb94b1d59	-0.00019370521
119	0x3992fa4e	0.00028033782
120	0x3a532a59	0.00080553215
121	0xb9cff264	-0.00039662712
122	0xb9432246	-0.00018609417
123	0xba1e0250	-0.0006027566
124	0x3927a342	0.0001598718
125	0x39464e1a	0.00018911847
126	0x39193c54	0.00014613691
127	0x38ae5107	8.312059e-05
128	0x39103741	0.00013753494
129	0x39ab3d43	0.00032661305
130	0x3975839d	0.0002341405
131	0xba0caa6c	-0.0005365971
132	0xba8e165f	-0.0010840407
133	0x3b207f7e	0.0024490054
134	0xb9d181fc	-0.00039960432
135	0xba64b838	-0.00087249605
136	0x3b0b3678	0.0021242183
137	0xbacd1dbf	-0.0015649124
138	0xbb2be6d2	-0.002623011
139	0xba5281b9	-0.00080301944
140	0xba54b215	-0.00081136945
141	0x3a33c168	0.0006857128
142	0x39e7ea53	0.0004423434
143	0xb8fcde86	-0.000120577446
144	0x39a3a7bf	0.00031214763
145	0xb92d2734	-0.0001651317
146	0x37130f02	8.765377e-06
147	0x397b3df2	0.00023960302
148	0x38b815f5	8.7778935e-05
149	0xba9c2cdf	-0.0011915228
150	0xbaa021eb	-0.001221714
151	0x3b3191ef	0.002709504
152	0xb7762b5f	-1.4672841e-05
153	0xba8e6c8e	-0.0010866092
154	0x3b187088	0.0023260433
155	0xbb11b638	-0.0022233855
156	0xbb81fc65	-0.0039668554
157	0xbaacbd18	-0.0013178913
158	0xb900b6d5	-0.00012275141
159	0xb8db4b96	-0.00010456813
160	0x3a892752	0.0010463989
161	0xba402381	-0.0007329509
162	0x3a225ee9	0.0006193952
163	0x399dae01	0.00030075017
164	0xb8f1bffa	-0.00011527534
165	0x39340030	0.00017166208
166	0xb75f47fc	-1.3308596e-05
167	0xb90504e4	-0.0001268569
168	0x3989bc12	0.000262708
169	0xb9f88457	-0.00047400847
170	0x3a50a732	0.00079594844
171	0x390c17f6	0.00013360367
172	0xb9429913	-0.00018558306
173	0xba3cfc6e	-0.0007209246
174	0x3a365188	0.0006954898
175	0xb9e555cc	-0.00043742207
176	0xb93be729	-0.00017919824
177	0xb88b9615	-6.6559915e-05
178	0xb7ba4005	-2.220274e-05
179	0x3713f814	8.819643e-06
180	0xb9999e90	-0.00029300572
181	0xb9c7f9b3	-0.00038142278
182	0x38aa5d95	8.123663e-05
183	0x3824ae04	3.926271e-05
184	0xba22552e	-0.00061925023
185	0x3ac513ae	0.0015035772
186	0x3ad2f9fa	0.0016096227
187	0xbb348506	-0.0027545108
188	0xba723290	-0.0009239102
189	0x3a808646	0.0009805642
190	0xbaf9fe37	-0.0019072954
191	0x3a7faf1a	0.000975357
192	0x3b5ecee0	0.0033997819
193	0x3ae2f8d1	0.0017316585
194	0x3919a2cf	0.00014651868
195	0x3a5cf79e	0.0008429232
196	0xba86b59d	-0.0010277514
197	0x3a6366a2	0.0008674656
198	0xba366796	-0.00069581845
199	0xbabae3e2	-0.0014258588
200	0x395a9d24	0.0002084864
201	0xb7356c5b	-1.0813669e-05
202	0xba731ad1	-0.00092737103
203	0x3a833ad6	0.0010012041
204	0x3a8293a8	0.0009962218
205	0xbaca1e46	-0.0015420399
206	0xbaeb4bfc	-0.0017951722
207	0x3a3322b3	0.00068334787
208	0xbacb268a	-0.0015499156
209	0x3abcf96f	0.0014417599
210	0x3a33358d	0.0006836288
211	0x3aff4f5f	0.001947861
212	0x3a59707a	0.00082946534
213	0x38b71927	8.730805e-05
214	0x38c14e17	9.2175025e-05
215	0x37905902	1.7207585e-05
216	0x39834967	0.00025040956
217	0x3a87159e	0.0010306125
218	0x39987a5d	0.00029082867
219	0xb8aa21c7	-8.112523e-05
220	0x3a833df2	0.0010012968
221	0xba80f3f2	-0.0009838326
222	0xbab6a2b8	-0.0013933992
223	0x3b131e97	0.0022448653
224	0x3ada7dcc	0.001666957
225	0xba254c67	-0.00063056353
226	0x3a35e8fc	0.00069393194
227	0x3aec020e	0.0018005983
228	0xba530b6f	-0.0008050715
229	0xbaa9cc37	-0.0012954538
230	0xba7f3779	-0.0009735744
231	0xbb088eb4	-0.002083701
232	0x39ad6249	0.0003307036
233	0xb98ceb09	-0.00026877996
234	0x392b657f	0.00016345641
235	0x3a18c79c	0.0005828084
236	0xb954c790	-0.00020292238
237	0xb939c6e3	-0.00017717066
238	0x3a134462	0.0005617795
239	0xba4613fd	-0.0007556079
240	0xba93c602	-0.0011274221
241	0x3aa837f8	0.0012834063
242	0x3a9d6e22	0.0012010972
243	0xb946778e	-0.00018927289
244	0x3a70e41f	0.0009189266
245	0x37e30f2c	2.7067574e-05
246	0xba0a2871	-0.00052703085
247	0xbaa966ad	-0.0012924277
248	0xb8b84c9a	-8.788072e-05
249	0xb9a7a3e9	-0.00031974845
250	0x39fb87c1	0.00047975595
251	0xb95165ca	-0.00019969713
252	0x39bbf18e	0.00035847392
253	0x3ad3d288	0.0016160766
254	0xb98bf748	-0.00026696385
255	0xba178d59	-0.00057812553

exp_avg_sq f4 [128, 18]
0	0x388cd813	6.715967e-05
1	0x3790d9bb	1.7267526e-05
2	0x37e54eb9	2.7335585e-05
3	0x3870d416	5.741798e-05
4	0x3817b25f	3.6167326e-05
5	0x381fdf0e	3.811629e-05
6	0x389f5a43	7.5985234e-05
7	0x388594e8	6.36967e-05
8	0x37aea28c	2.0818108e-05
9	0x381fec75	3.8128772e-05
10	0x3857b9cc	5.143303e-05
11	0x38635105	5.4196473e-05
12	0x38589cf2	5.164458e-05
13	0x3863e27e	5.4331955e-05
14	0x385f6512	5.3261472e-05
15	0x38325ee1	4.252687e-05
16	0x3862602c	5.3972166e-05
17	0x3814bcdb	3.5461835e-05
18	0x385d231f	5.2723215e-05
19	0x37ab82b6	2.0445656e-05
20	0x37ba55b7	2.2212842e-05
21	0x385b0b09	5.2223946e-05
22	0x380d612e	3.3707525e-05
23	0x37e3c54e	2.7152386e-05
24	0x3858296e	5.1536997e-05
25	0x388111cd	6.154515e-05
26	0x37c3f1eb	2.3358463e-05
27	0x37fd4726	3.0193081e-05
28	0x3851f9ae	5.0062015e-05
29	0x38262cc4	3.9619175e-05
30	0x38333073	4.2722048e-05
31	0x382df40f	4.147371e-05
32	0x3827af0f	3.997894e-05
33	0x37f419e6	2.9099127e-05
34	0x383891e5	4.4004893e-05
35	0x37e993c6	2.7844577e-05
36	0x38753b6f	5.8467904e-05
37	0x37ab1c7e	2.0398056e-05
38	0x37e25f03	2.6985543e-05
39	0x3864036a	5.4362616e-05
40	0x3823f21b	3.9087707e-05
41	0x37efc9cc	2.858499e-05
42	0x388ee385	6.8134665e-05
43	0x3880f74f	6.1495804e-05
44	0x37cf5f68	2.472075e-05
45	0x381035f1	3.4382512e-05
46	0x384e3c55	4.9170416e-05
47	0x384ac8f6	4.8347712e-05
48	0x384ecf65	4.930738e-05
49	0x385b653c	5.230795e-05
50	0x3855a8fe	5.0940544e-05
51	0x38089080	3.2559503e-05
52	0x3871b6b4	5.7629033e-05
53	0x38005c2c	3.060342e-05
54	0x375495eb	1.267109e-05
55	0x36ca17a0	6.0228194e-06
56	0x36a32a5e	4.8627107e-06
57	0x375e96c0	1.326733e-05
58	0x371a3e01	9.193552e-06
59	0x36da7487	6.510472e-06
60	0x378911f5	1.6340035e-05
61	0x379417e9	1.7654109e-05
62	0x36c2fb6f	5.8109213e-06
63	0x36e6a214	6.8734025e-06
64	0x377972c6	1.4868279e-05
65	0x37681fde	1.3835697e-05
66	0x375b59b1	1.30743e-05
67	0x3778051c	1.47831415e-05
68	0x37445bc6	1.1703878e-05
69	0x36db215a	6.5305912e-06
70	0x377e9066	1.51732e-05
71	0x3701d2ea	7.738106e-06
72	0x37fab6d8	2.9887466e-05
73	0x37899b7a	1.6404072e-05
74	0x372bf9f8	1.0250595e-05
75	0x37dfa900	2.6662368e-05
76	0x37c26d8d	2.3177616e-05
77	0x37c37739	2.3301329e-05
78	0x3824f893	3.933215e-05
79	0x382fe7e2	4.193921e-05
80	0x37907b5d	1.7223583e-05
81	0x37797791	1.4869395e-05
82	0x381370b0	3.515248e-05
83	0x38143474	3.53348e-05
84	0x37ff8743	3.0461355e-05
85	0x38076d93	3.2288557e-05
86	0x37ead2cc	2.7993134e-05
87	0x378b2fc5	1.6592336e-05
88	0x37e913c7	2.7784974e-05
89	0x37a9589d	2.0187634e-05
90	0x371f6da8	9.50267e-06
91	0x369f4475	4.7465387e-06
92	0x36ad2a93	5.160758e-06
93	0x37283e22	1.0028047e-05
94	0x37098807	8.197508e-06
95	0x36e72d77	6.8896293e-06
96	0x3755de85	1.2747599e-05
97	0x371ed990	9.468189e-06
98	0x36aafd45	5.0958793e-06
99	0x36cb4cee	6.0588272e-06
100	0x3727e96d	1.0008324e-05
101	0x373cae2a	1.1246224e-05
102	0x3720d436	9.586152e-06
103	0x3742443b	1.1579187e-05
104	0x3726b0a9	9.935503e-06
105	0x36d2046f	6.259004e-06
106	0x371df653	9.415281e-06
107	0x36cf7676	6.1828714e-06
108	0x374156a7	1.1523872e-05
109	0x36c27dbb	5.7962875e-06
110	0x36d3ced9	6.3123703e-06
111	0x373500ce	1.0788628e-05
112	0x371fd197	9.5259375e-06
113	0x36f03acc	7.1594022e-06
114	0x37693467	1.3900083e-05
115	0x3726feea	9.953723e-06
116	0x36d6451f	6.3857437e-06
117	0x3702a334	7.7866025e-06
118	0x37315630	1.0570089e-05
119	0x372c9c98	1.0288459e-05
120	0x371f9e20	9.513955e-06
121	0x3740018d	1.1444453e-05
122	0x3728831a	1.0044105e-05
123	0x36f9a725	7.4402365e-06
124	0x3748def8	1.1972843e-05
125	0x36f10332	7.1827317e-06
126	0x3749cf8b	1.2028856e-05
127	0x36d72a05	6.412391e-06
128	0x36b6484e	5.43244e-06
129	0x3747edc2	1.1916682e-05
130	0x3726c628	9.940508e-06
131	0x36d86061	6.4485216e-06
132	0x374f9169	1.2372017e-05
133	0x37823552	1.5522037e-05
134	0x36ddd338	6.6109023e-06
135	0x36cd1031	6.111361e-06
136	0x374724cd	1.1869893e-05
137	0x37391f2d	1.1034118e-05
138	0x37405f34	1.1466258e-05
139	0x374e5df4	1.2300432e-05
140	0x3748def3	1.1972838e-05
141	0x36ebd95a	7.028849e-06
142	0x374cb3fc	1.2201253e-05
143	0x36db4418	6.5346358e-06
144	0x379cccdf	1.869205e-05
145	0x372531c7	9.846356e-06
146	0x36bac7af	5.566478e-06
147	0x3795a4da	1.783895e-05
148	0x374ce5f2	1.2212886e-05
149	0x3727b1da	9.995385e-06
150	0x37b1b67a	2.1185017e-05
151	0x37ddaa79	2.6424636e-05
152	0x372ff4be	1.0487796e-05
153	0x371e63de	9.440786e-06
154	0x37c8d997	2.3943181e-05
155	0x379c87e6	1.8659932e-05
156	0x3786b47e	1.6058093e-05
157	0x3791ae08	1.7366387e-05
158	0x3757f9dd	1.28731745e-05
159	0x37096ca2	8.191129e-06
160	0x379abafe	1.8445306e-05
161	0x36fdaba0	7.5599673e-06
162	0x37544e0d	1.2654357e-05
163	0x369efc10	4.738111e-06
164	0x36dc1b95	6.559722e-06
165	0x373b46e5	1.1162575e-05
166	0x370e1aca	8.470097e-06
167	0x36df4554	6.6539887e-06
168	0x3777d0b3	1.4770939e-05
169	0x3745f6eb	1.1799605e-05
170	0x36ac6fce	5.1390152e-06
171	0x36f914d2	7.423202e-06
172	0x3727d83c	1.0004322e-05
173	0x373babff	1.11861145e-05
174	0x371212b3	8.706632e-06
175	0x371ea31f	9.4555135e-06
176	0x37322ca5	1.0620021e-05
177	0x3713fc63	8.820646e-06
178	0x374376f4	1.1650602e-05
179	0x36ee2564	7.0973056e-06
180	0x374800e3	1.1921135e-05
181	0x36edc77e	7.0863744e-06
182	0x369bfae6	4.6485684e-06
183	0x37486ebf	1.1946714e-05
184	0x3708f351	8.162883e-06
185	0x36f22921	7.21695e-06
186	0x377ec858	1.5186226e-05
187	0x376a435f	1.3963173e-05
188	0x36dc8ee0	6.5731438e-06
189	0x36e27ac3	6.749616e-06
190	0x3771608b	1.4387198e-05
191	0x372b2f28	1.0203374e-05
192	0x3737cdde	1.0955582e-05
193	0x3727019e	9.954352e-06
194	0x37259d8e	9.87145e-06
195	0x36f00306	7.1529093e-06
196	0x375a58f0	1.301452e-05
197	0x36df406f	6.653419e-06
198	0x375b66e7	1.3077376e-05
199	0x36b58132	5.4092607e-06
200	0x36ce53fa	6.1490546e-06
201	0x37496394	1.2003718e-05
202	0x3708ecb0	8.16134e-06
203	0x3703d60c	7.858045e-06
204	0x3797e8d5	1.8109024e-05
205	0x37705500	1.4324905e-05
206	0x36bbef66	5.600904e-06
207	0x37140b51	8.824122e-06
208	0x3740eb02	1.1498809e-05
209	0x3785d857	1.5955577e-05
210	0x37490093	1.1980667e-05
211	0x375a9dc7	1.3030548e-05
212	0x373a89ae	1.111852e-05
213	0x3711f9e3	8.700855e-06
214	0x373dad20	1.1305587e-05
215	0x36def879	6.6450416e-06
216	0x381a1b02	3.6741614e-05
217	0x374bd3d0	1.2149059e-05
218	0x379c1b0d	1.8609246e-05
219	0x3810b7b7	3.4503373e-05
220	0x37c1a033	2.3081991e-05
221	0x37c32a47	2.3265498e-05
222	0x383ca413	4.49755e-05
223	0x38191ca0	3.65047e-05
224	0x37879549	1.616277e-05
225	0x37e975ac	2.783056e-05
226	0x37fc7654	3.0095842e-05
227	0x37fd026a	3.0161074e-05
228	0x3810e904	3.4549288e-05
229	0x380b79ef	3.3253742e-05
230	0x380ed883	3.405708e-05
231	0x37df6d69	2.663462e-05
232	0x380b6ae8	3.3239747e-05
233	0x37c11448	2.3016837e-05
234	0x36f5d30a	7.326137e-06
235	0x36820dd0	3.87591e-06
236	0x368860bd	4.0643777e-06
237	0x36ff4b61	7.6083675e-06
238	0x36cd6311	6.121009e-06
239	0x3691c1ed	4.3439127e-06
240	0x3706a058	8.024355e-06
241	0x370cf0cb	8.400714e-06
242	0x3694037d	4.41115e-06
243	0x36d1b9b0	6.2503022e-06
244	0x36f21a1d	7.215202e-06
245	0x3707777e	8.0744485e-06
246	0x36f73f3f	7.3685364e-06
247	0x371cdb9c	9.349456e-06
248	0x36f5d645	7.3265132e-06
249	0x36bf74ec	5.705855e-06
250	0x36fdbe30	7.5621283e-06
251	0x36af45fd	5.223554e-06
252	0x37833895	1.5642765e-05
253	0x37266657	9.918199e-06
254	0x37191dd4	9.126456e-06
255	0x378e340a	1.6951952e-05
