runs/BallBalance_11-16-09-10/nn/last_BallBalance_ep_900_rew_2.6940715.pth (torch, 173671 bytes, 36 tensors)

value_mean_std.running_mean f8 [1]
0	0x3fc4286f7098995e	0.15748398778778044

value_mean_std.running_var f8 [1]
0	0x3f7b540869c800ad	0.0066719368592204455

value_mean_std.count f8 []
0	0x40dc204000000000	28801.0

running_mean_std.running_mean f8 [18]
0	0xbf86344282665b7a	-0.010841865162360288
1	0x3fb6b90cf2b3af6c	0.08876114774073834
2	0xbfb4afd04f6d183c	-0.08080770434489265
3	0xbfa33dafbb4c508b	-0.03758000527719315
4	0x3fb4e48bc3998935	0.08161233449348944
5	0xbf82352ac7c741e0	-0.00889047071623933
6	0xbfba6d09ffea623d	-0.10322630403460038
7	0xbfb90d22092a13ce	-0.0978566429494798
8	0x3fd6ed219a87b951	0.3582233437617975
9	0xbfd61b63652b24cc	-0.3454216468786171
10	0xbfc79f2752b5b63f	-0.18454448259892506
11	0x3fcd4e852624de5a	0.2289587436914527
12	0xbfa08c47eb0a9cd6	-0.032320258561691226
13	0xbfc434ea9d262a98	-0.15786488221450123
14	0x3fbb3d7d67b9e3aa	0.10640701086403107
15	0x3fc30a9609ec7b38	0.14876056179579122
16	0xbfc8daa295690186	-0.19417221351069375
17	0x3fbb2ab5a84c5e3f	0.1061204467663339

running_mean_std.running_var f8 [18]
0	0x3fcff0b238f71da6	0.24953296453007318
1	0x3fa214ceea84cbca	0.035315004470610825
2	0x3fbc092624920c56	0.10951460259279719
3	0x3fd4cc35fdbedb4d	0.3249640443786362
4	0x3facd522ba77c577	0.056313596021832994
5	0x3f82a2b12d81fc4c	0.009099373055731295
6	0x3f8df37e713765f6	0.014624584035959547
7	0x400c6e070c0d6b28	3.553724378737929
8	0x3fe7c6335772677b	0.7429444034525966
9	0x4006dd733bc47eea	2.858129946645808
10	0x4015bcda65fb5e36	5.434426873652731
11	0x3fe5ae34d2b8e1c4	0.6775154224079007
12	0x3feea266fa9f2f95	0.9573244948346536
13	0x3ff403853cd870ff	1.2508594872261367
14	0x3f78caf1f591b55d	0.006052918580377789
15	0x3f730474ed3b8abe	0.004642922158128724
16	0x3fd1a572c1a92d32	0.27572316085998516
17	0x3fca1c626a72abfb	0.20399122426655922

running_mean_std.count f8 []
0	0x40cc208000000000	14401.0

a2c_network.sigma f4 [7]
0	0xbf068bad	-0.5255688
1	0xbf22e8e0	-0.6363659
2	0xbed23a13	-0.41059932
3	0xbeffb450	-0.49942255
4	0xbecc2f0f	-0.39879653
5	0xbef6a9f6	-0.48176545
6	0xbe0cc6b7	-0.13747679

a2c_network.actor_mlp.0.weight f4 [128, 18]
0	0xbddfcc38	-0.109276235
1	0x3dbeeefd	0.09322927
2	0xbe16978c	-0.14706248
3	0x3d93019c	0.07178041
4	0xbc388a6e	-0.011263473
5	0x3e6f6943	0.23379998
6	0xbd062646	-0.032751344
7	0xbe423b51	-0.1896794
8	0xbe3d2fa8	-0.1847521
9	0xbe49416a	-0.1965386
10	0x3e49823c	0.19678587
11	0xbe77a2b7	-0.24183165
12	0x3e0cd134	0.1375168
13	0xbe196647	-0.14980422
14	0x3e455fbe	0.19274804
15	0xbe69023f	-0.22754763
16	0xbd9da636	-0.07697718
17	0x3e73caf5	0.2380789
18	0x3d0a6187	0.033784416
19	0x3e93df7b	0.2888144
20	0x3dd84b6e	0.10561262
21	0xbd82a48e	-0.063790426
22	0x3dc5a809	0.09651191
23	0x3db8e42b	0.090278946
24	0x3e04bad6	0.12961897
25	0x3e8d555a	0.2760418
26	0x3e2daca8	0.16960394
27	0xbdcf5a0e	-0.101245984
28	0x3dff440c	0.12464151
29	0xbd9a5b42	-0.07536937
30	0x3dc2097d	0.09474466
31	0xbe270c0a	-0.16313186
32	0xbe6ebe2f	-0.23314737
33	0xbead2b5d	-0.33822146
34	0xbe859543	-0.2609044
35	0x3e68c12e	0.22729942
36	0xbd9ab9b3	-0.075549506
37	0x3e500133	0.20312957
38	0x3d7be54d	0.061497975
39	0xbc2fb335	-0.010723879
40	0x3e0e149d	0.13875051
41	0xbd386c45	-0.04502513
42	0x3cf327d1	0.029682072
43	0xbe3ed988	-0.18637669
44	0x3e16943a	0.14704981
45	0xbe31f7b8	-0.17379653
46	0x3e815cc0	0.25266075
47	0xbdcf7bfb	-0.10131069
48	0x3df3d22a	0.1190532
49	0xbe26467a	-0.16237822
50	0xbda9591c	-0.082689494
51	0xbeb6c46e	-0.3569674
52	0x3e0153e7	0.12629662
53	0x3e5cd095	0.21563943
54	0x3e90fef3	0.2831951
55	0xbe8dee00	-0.27720642
56	0xbe520e7c	-0.20513338
57	0xbe4fd798	-0.20297086
58	0x3dead0a6	0.11465578
59	0x3da11d04	0.078668624
60	0x3b8ac2fd	0.00423467
61	0x3e1b76f8	0.15182102
62	0xbced95c6	-0.029002082
63	0xbe6d8a1d	-0.23197217
64	0x3ca47804	0.02007676
65	0x3c6664b5	0.014062096
66	0xbd003ab3	-0.03130598
67	0xbc814c41	-0.015783431
68	0x3e6f82af	0.23389696
69	0xbf1f2c08	-0.6217656
70	0xbcbf2a74	-0.023335673
71	0xbe18572b	-0.14877002
72	0x3e632bfb	0.22184746
73	0xbe8342e5	-0.25636974
74	0x3e321525	0.17390878
75	0x3e9df32f	0.30849597
76	0xbe87fbf1	-0.26559404
77	0xbe1b3a63	-0.15158992
78	0x3d40519e	0.046952836
79	0xbe208184	-0.15674406
80	0xbe11bccf	-0.14232181
81	0xbe834367	-0.2563736
82	0xbdb5a453	-0.08869233
83	0x3d1a5c0d	0.037685443
84	0x3d3677e2	0.044547923
85	0xbdd108e7	-0.10206776
86	0x3e55d3ec	0.20881623
87	0xbedc3fb6	-0.43017358
88	0x3dc678cf	0.09691011
89	0xbdff4e33	-0.12466087
90	0xbe01a92d	-0.12662192
91	0xbe1fd4d4	-0.15608531
92	0x3e0e335a	0.13886777
93	0x3d787d99	0.060666654
94	0x3e2a6d45	0.16643246
95	0xbe38da3c	-0.18052
96	0x3d41cd3d	0.04731487
97	0x3e717196	0.23578486
98	0xbdbf6e86	-0.093472525
99	0xbd40a96e	-0.04703658
100	0xbd0ddf49	-0.03463677
101	0xbc20a03e	-0.00980383
102	0x3ccaacea	0.024740655
103	0xbdbe673e	-0.09297036
104	0xbe6ba692	-0.2301276
105	0xbe7462f2	-0.2386587
106	0xbea4c652	-0.32182556
107	0xbe9f11f1	-0.31068376
108	0xbdf13236	-0.11777155
109	0xbd922e8d	-0.07137785
110	0x3bf551fe	0.007486581
111	0xbdeb054f	-0.11475622
112	0x3ebd3084	0.36951077
113	0x3de6d168	0.1127041
114	0xbd8c9c54	-0.06865755
115	0x3e71746a	0.23579565
116	0x3d46ad68	0.048505217
117	0xbd3f9eef	-0.04678243
118	0xbe4dc045	-0.20092876
119	0xbe019d64	-0.12657696
120	0x3dd1f82f	0.102524154
121	0xbd1e5160	-0.038651824
122	0x3cfea9ae	0.031086769
123	0xbec3f86e	-0.38275474
124	0x3deb7e5e	0.11498712
125	0xbe7ba93f	-0.24576281
126	0xbce30588	-0.027712598
127	0xbde4d570	-0.111735225
128	0x3d32d6fb	0.043662053
129	0x3e5665c4	0.20937258
130	0x3e9c5be8	0.3053887
131	0xbe2048de	-0.15652797
132	0xbd121af2	-0.03567023
133	0xbdea223c	-0.11432311
134	0xbc6ba4dc	-0.014382567
135	0xbe3d15ff	-0.18465422
136	0x3e32e222	0.17469075
137	0xbb77a581	-0.0037787857
138	0x3d88c381	0.066779144
139	0x3d8d7bb2	0.06908359
140	0x3e35f423	0.17768912
141	0xbf077c2b	-0.5292384
142	0x3e991b54	0.29903662
143	0x3cc157ad	0.023601377
144	0xbcdc629f	-0.026902495
145	0xbe8ed620	-0.2789774
146	0x3dd575b6	0.10422842
147	0xbde7416b	-0.11291774
148	0xbd0b267b	-0.033972245
149	0x3e4c6e46	0.19963941
150	0xbce8783a	-0.028377641
151	0xbe0ba181	-0.13635828
152	0xbe034780	-0.12820244
153	0x3d4a7eb6	0.049437247
154	0x3e6e57ed	0.23275729
155	0x3d27af30	0.040938556
156	0xbd192b53	-0.037394833
157	0xbe0d35c8	-0.13790047
158	0xbe9b312e	-0.3031096
159	0xbd9bdcae	-0.07610451
160	0x3e79d550	0.24397779
161	0xbe8465c6	-0.25858897
162	0x3e21e0af	0.15808366
163	0x3d400492	0.04687936
164	0x3d3270ce	0.04356461
165	0xbdac31db	-0.08407947
166	0x3ea3b854	0.3197657
167	0x3e5319a1	0.20615245
168	0x3cb1e0d4	0.021713652
169	0xbd976d4e	-0.07393895
170	0x3c51da7e	0.01280844
171	0x3cf006a9	0.02930005
172	0xbe2b2978	-0.16715038
173	0x3d9ba6c4	0.076001674
174	0x3dff2daf	0.12459885
175	0x3dd36576	0.103220865
176	0xbd50da2f	-0.050989326
177	0xbeb1f82d	-0.34759656
178	0x3bc3a20d	0.0059702457
179	0x3d1d2b63	0.038371455
180	0x3e79f399	0.24409331
181	0x3d74f372	0.05980248
182	0xbdc60342	-0.0966859
183	0xbd235db7	-0.039884295
184	0x3e876c08	0.2644961
185	0x3e2f79fb	0.17136376
186	0x3dcfedde	0.101527914
187	0x3cd2f9ed	0.02575394
188	0x3c043bec	0.008070927
189	0xbe162f83	-0.14666562
190	0xbe6c65c4	-0.23085696
191	0x3dbd3e4e	0.09240399
192	0xbd99f048	-0.07516533
193	0x3c8b792b	0.01702555
194	0xbe94afe5	-0.29040447
195	0xbe6b882c	-0.23001164
196	0xbcf396aa	-0.029734928
197	0x3e2db59a	0.16963807
198	0xbe382a08	-0.17984784
199	0x3de693ae	0.112586364
200	0x3e114b6f	0.14188932
201	0x3c84e8c4	0.016224273
202	0xbeb824e8	-0.35965657
203	0x3da938e8	0.08262807
204	0xbe220a00	-0.15824127
205	0xbe21ef79	-0.15814008
206	0xbd529ce2	-0.051419146
207	0x3dd667d5	0.10469023
208	0x3e969086	0.29407138
209	0xbd97bced	-0.074090816
210	0xbd470a76	-0.04859396
211	0xbe84d253	-0.25941715
212	0xbe7eaa89	-0.24869741
213	0x3eb48026	0.3525402
214	0x3e1832a3	0.14863066
215	0x3ecd44f5	0.40091673
216	0x3e8da25c	0.27662933
217	0xbc1d89e5	-0.009615396
218	0xbdd06a9a	-0.10176583
219	0xbe1a880e	-0.15090963
220	0xbd60be5b	-0.054869037
221	0xbe5af36b	-0.21381919
222	0xbc66ff7a	-0.014098996
223	0xbc91cac6	-0.017796885
224	0xbd9e2ea6	-0.07723741
225	0xbc91a0ce	-0.017776873
226	0xbe1a6b46	-0.15079984
227	0xbdd9e629	-0.10639603
228	0x3da13460	0.07871318
229	0xbe78dc1c	-0.24302715
230	0x3c9c4a84	0.0190785
231	0x3ecf9388	0.40542245
232	0xbdde1f49	-0.10845811
233	0xbecaefce	-0.3963608
234	0xbd85d3eb	-0.06534561
235	0xbe0a3d9b	-0.13500063
236	0xbcfe026e	-0.031007018
237	0xbe8c05fa	-0.2734831
238	0x3eacf076	0.33777207
239	0xbdda09ba	-0.106463864
240	0x3e806319	0.25075606
241	0x3e556471	0.20839097
242	0x3e2ca3b8	0.16859329
243	0xbe318ca9	-0.17338814
244	0x3e32f7ad	0.17477293
245	0xbcbaf62b	-0.02282246
246	0x3d8d6cd9	0.06905527
247	0x3e2fda0c	0.17173022
248	0xbcb3564b	-0.021891734
249	0xbe0b75e1	-0.13619186
250	0xbe05a995	-0.13052972
251	0xbecc89f2	-0.39948994
252	0x3e6b02d2	0.22950295
253	0xbe97c939	-0.29645708
254	0x3e580eeb	0.21099441
255	0x3db61040	0.08889818

a2c_network.actor_mlp.0.bias f4 [128]
0	0x3e0ad13e	0.13556382
1	0x3db624e6	0.088937566
2	0x3dd807c7	0.105483584
3	0x3bdf4952	0.0068141604
4	0x3cc36455	0.023851553
5	0xbcfb7ed9	-0.030700134
6	0xbdc30fb9	-0.09524483
7	0xbae6de22	-0.0017613808
8	0xbd11966e	-0.03554385
9	0x3caff0dc	0.021477155
10	0xbdca0893	-0.09864917
11	0xbd39db3a	-0.045375086
12	0x3c0cbf2c	0.008590501
13	0x3e263bd6	0.16233763
14	0xbb19b0de	-0.0023451368
15	0xbe010287	-0.1259862
16	0xbe216780	-0.15762138
17	0xbda3bbf1	-0.07994831
18	0xbe745d85	-0.238638
19	0xbe357475	-0.17720206
20	0xbcd2088d	-0.025638843
21	0xbc375779	-0.011190289
22	0xbdc5c758	-0.096571624
23	0xbe1c3d1b	-0.15257685
24	0x3d302cba	0.043011405
25	0x3da19ecb	0.078916155
26	0xbe00a5a4	-0.12563187
27	0x3e2514a3	0.16121154
28	0xbdb7fe56	-0.089840576
29	0xbc0d2abe	-0.008616148
30	0xbd69b5f5	-0.057058293
31	0xbbfb0d42	-0.0076614926
32	0xbe2b61dc	-0.16736549
33	0xbd8968cc	-0.067094415
34	0xbe833e23	-0.25633344
35	0xbe3fc9a9	-0.18729271
36	0xbe375895	-0.17904885
37	0xbe53b2a1	-0.2067361
38	0xbd9a71a5	-0.07541207
39	0x3afc5f32	0.0019254445
40	0x3d9ea45a	0.07746191
41	0xbd6be784	-0.057593837
42	0xbe2c05b7	-0.16799055
43	0xbdc8f0d4	-0.09811559
44	0xbda0fbc2	-0.07860519
45	0x3c536ff7	0.0129051125
46	0xbe8ddf67	-0.27709505
47	0xbd933c3a	-0.07189222
48	0xbcad1cf8	-0.021131977
49	0xba51ebc9	-0.0008007852
50	0xbccfaa27	-0.02534969
51	0xbe6b058a	-0.22951332
52	0xbe860034	-0.2617203
53	0xbe3afb95	-0.18260033
54	0x3c3c6432	0.011498498
55	0xbe16dc89	-0.14732565
56	0xbe9f05f7	-0.31059238
57	0x3cdefcf4	0.027220227
58	0x3d060e10	0.032728255
59	0x3d19cce0	0.0375489
60	0x3c409f3c	0.011756714
61	0xbdfb2c73	-0.122643374
62	0xbd215ee9	-0.039397154
63	0xbcc81376	-0.024423342
64	0x3cffa734	0.031207658
65	0x3d0dfa15	0.034662325
66	0x3ccfa8f5	0.02534912
67	0xbe0d991b	-0.13827936
68	0xbddb98bc	-0.10722491
69	0xbdbaa88b	-0.09114178
70	0xbe63d016	-0.22247347
71	0xbe2c0d61	-0.16801979
72	0xbdeaf6cd	-0.11472855
73	0x3de99b7e	0.11406611
74	0x3d9d1bc0	0.076713085
75	0xbe19cecd	-0.15020294
76	0x3d929911	0.07158101
77	0xbe554e28	-0.20830595
78	0xbe7689b4	-0.24075967
79	0xbdc75288	-0.097325385
80	0xbdadb768	-0.084822476
81	0x3e24efcf	0.16107105
82	0x3cdfb5a3	0.02730829
83	0x3e2f1bef	0.171005
84	0xbe5167ca	-0.20449749
85	0x3ca83d1e	0.020536955
86	0x3e2b7a0e	0.16745779
87	0x3d863f36	0.06555025
88	0xbd3c19b4	-0.04592295
89	0x3d8d380e	0.06895457
90	0x39820e63	0.0002480625
91	0xbdb1b33f	-0.086767666
92	0x3e06d8c5	0.13168629
93	0xbdddc4ec	-0.108285755
94	0xbcc8642b	-0.024461826
95	0xbe2952d4	-0.16535503
96	0x3e25b004	0.16180426
97	0xbdd20435	-0.10254709
98	0x3cc2d0a2	0.023781125
99	0xbdd4a0f6	-0.10382263
100	0x3d940a92	0.072285786
101	0x3d08a57f	0.033360954
102	0xbde5230f	-0.111883275
103	0x3bdec31f	0.0067981626
104	0x3c984a0c	0.018589996
105	0xbdcb3b56	-0.09923427
106	0xbdcc2bf8	-0.09969324
107	0xbdea7f1d	-0.11450026
108	0xbd78c8d0	-0.060738385
109	0xbdbb9d69	-0.09160883
110	0x3d3e287e	0.046425335
111	0x3d8506da	0.064954475
112	0xbe53c514	-0.20680648
113	0xbe0f6805	-0.14004524
114	0x3d940384	0.07227233
115	0x3deaa6bf	0.114575855
116	0xbd569205	-0.05238535
117	0xbdf92123	-0.121645235
118	0xbd9f9731	-0.07792509
119	0x3d9fc054	0.078003556
120	0xbe2d29c0	-0.16910458
121	0xbe7694e8	-0.2408024
122	0xbdb17faa	-0.08666928
123	0x3ccacc08	0.024755493
124	0xbbaa0502	-0.0051885853
125	0xbd862fcc	-0.06552085
126	0x3d801ac9	0.06255109
127	0x3d3ee63b	0.046606284

a2c_network.actor_mlp.2.weight f4 [64, 128]
0	0xbbbaf244	-0.00570515
1	0x3e03bcbb	0.12864964
2	0x3bfd1c94	0.007724354
3	0x3b614038	0.0034370553
4	0x3e3e1808	0.18563855
5	0xbd5ac932	-0.05341453
6	0xbbac9680	-0.0052669644
7	0xbddd6173	-0.108096026
8	0x3d83fe99	0.06445045
9	0xbdf8e099	-0.121522136
10	0x3d96751a	0.07346554
11	0xbd3ae5c7	-0.04562929
12	0x3e2113d8	0.15730226
13	0x3c87547a	0.016519774
14	0x3d1f0af4	0.038828805
15	0x3e4c9fc9	0.19982828
16	0xbcf61b16	-0.030042212
17	0xbb954c3f	-0.0045562084
18	0xbac3a4bd	-0.0014926415
19	0xbdef1f4f	-0.116758935
20	0xbd7049c5	-0.058664102
21	0x3cc13a07	0.02358724
22	0xbb43b2c2	-0.0029861187
23	0x397ec467	0.00024296493
24	0xbd50bfdc	-0.05096422
25	0xbdaf631a	-0.08563824
26	0x3d0d6525	0.034520287
27	0x3e1ef53c	0.15523237
28	0x3cea3923	0.028591698
29	0xbe7b24bf	-0.24525736
30	0x3c94d4aa	0.018167812
31	0xbc3e1d86	-0.011603719
32	0xbd8593e9	-0.06522352
33	0x3d4b55d3	0.049642395
34	0xbe760c2e	-0.24028084
35	0xbdbcf7d5	-0.09226958
36	0x3d25aefd	0.040450085
37	0xbde4a9da	-0.11165209
38	0xbe350629	-0.17678131
39	0xbe3a5358	-0.18195856
40	0xbdd8a9aa	-0.10579236
41	0x3c9275a4	0.017878361
42	0x3d8423da	0.06452151
43	0x3c0f07a7	0.008729852
44	0xbe077683	-0.13228802
45	0x3e038c3a	0.12846461
46	0xbe319cc6	-0.1734496
47	0x3c0f4553	0.0087445555
48	0xbccb9e0a	-0.024855632
49	0xbd8349a5	-0.06410531
50	0x3e3ab79c	0.18234104
51	0x3dd1d73c	0.10246131
52	0xbe2b91d6	-0.16754851
53	0xbcb7891c	-0.022404246
54	0xbde6671f	-0.112501375
55	0xbdde106d	-0.10842977
56	0xbe2009f4	-0.15628797
57	0xbd816d45	-0.0631967
58	0x3e22be12	0.15892819
59	0xbdd293e7	-0.102821164
60	0x3d690106	0.05688574
61	0xbd76910f	-0.060196932
62	0x3cbd7df1	0.023131343
63	0x3c1e6e10	0.009669796
64	0x3c5f0317	0.0136115765
65	0xbde2f942	-0.110826984
66	0xbe36d7fe	-0.17855832
67	0xbdb5f452	-0.08884491
68	0x3d644234	0.0557272
69	0x3cb1d277	0.021706803
70	0x3c9e525b	0.01932638
71	0xbe78b1c0	-0.24286556
72	0x3bfb7da0	0.007674888
73	0x3e256a58	0.16153848
74	0x3c343ab9	0.011000329
75	0x3d034f32	0.03205795
76	0x3d96eae5	0.07369021
77	0x3c8f73c8	0.017511263
78	0xbde7a5b8	-0.11310905
79	0x3dae51cf	0.085116975
80	0xbd223d90	-0.03960949
81	0xbe664db2	-0.22490576
82	0xbd2596f7	-0.040427174
83	0xbe48f405	-0.19624336
84	0xbd8ac2ff	-0.06775474
85	0xbe0ecf0e	-0.13946173
86	0x3b9ec0a7	0.0048447433
87	0x3e20c19d	0.15698858
88	0x3bf6278b	0.007512038
89	0xbda72092	-0.08160509
90	0x3e5292bc	0.20563787
91	0x3d941eb9	0.072324224
92	0xbd457b4b	-0.048213284
93	0xbc052975	-0.00812756
94	0x3da9e9f5	0.08296577
95	0xbdb4a9f3	-0.08821478
96	0xbe137090	-0.14398408
97	0xbe1483f7	-0.14503466
98	0xbe3ca55a	-0.18422452
99	0xb94b83ce	-0.0001940869
100	0x3d8de4c4	0.06928399
101	0xbe159c41	-0.14610387
102	0xbcd7f8d3	-0.026363766
103	0xbdc46a82	-0.09590627
104	0x3dcf63c0	0.10126448
105	0xbdb894cc	-0.09012756
106	0xbd0dac15	-0.03458794
107	0x3c3e1c21	0.011603386
108	0x3e3fd3a2	0.18733075
109	0x3bbab653	0.0056980043
110	0xbe002201	-0.12512971
111	0x3db04040	0.08606005
112	0xbd5c7320	-0.05382073
113	0xbe1039e4	-0.14084584
114	0xbcf0bb62	-0.029386226
115	0x3b0fa50f	0.002191845
116	0xbdf5dbd8	-0.120048225
117	0x3c84431a	0.016145278
118	0x3c863bdb	0.016385963
119	0xbdf47956	-0.119372055
120	0x3da0a318	0.07843608
121	0xbdc21c76	-0.09478085
122	0xbda3e3cc	-0.08002433
123	0xbdb99af4	-0.09062758
124	0xbddc9b6c	-0.10771832
125	0x3cfe4197	0.031037135
126	0xbcd74e6d	-0.026282514
127	0x3da8bacc	0.08238754
128	0xbe5f000b	-0.2177736
129	0xbe6aa69f	-0.22915123
130	0xbdf0f64c	-0.117657274
131	0xbe18b05e	-0.14911029
132	0x3df5e353	0.12006249
133	0xbe52eb57	-0.20597588
134	0xbd8fab9d	-0.070151545
135	0xbe01b22d	-0.12665625
136	0x3d80b0bc	0.062837094
137	0x3d79a530	0.06094855
138	0x3cfe4aa6	0.031041455
139	0xbd814328	-0.06311637
140	0xbd6fa474	-0.058506444
141	0xbe08c764	-0.13357311
142	0x3dbde5e2	0.09272362
143	0x3d251aa5	0.040308613
144	0xbd0963b6	-0.033542357
145	0xbde84d93	-0.11342921
146	0xbc941129	-0.018074589
147	0xbb29d836	-0.0025916225
148	0x3de7704e	0.11300717
149	0xbc9fc40f	-0.019502668
150	0xbb5b2c00	-0.0033442974
151	0xbc9045d1	-0.017611416
152	0xbe96ae98	-0.2943008
153	0x3d31f946	0.043450616
154	0x3d744806	0.059639
155	0xbd179a50	-0.0370124
156	0xbd86702d	-0.065643646
157	0xbdc698aa	-0.09697087
158	0x3c3ef896	0.011655947
159	0xbdba7c68	-0.0910576
160	0x3c33d7fc	0.010976788
161	0xbdea9f93	-0.114562176
162	0xbd663053	-0.05619843
163	0xbe1d2a77	-0.1534823
164	0xbd58154a	-0.052754678
165	0xbd02d761	-0.031943683
166	0xbc284513	-0.010270375
167	0xbe0ae027	-0.1356207
168	0x3d8d6648	0.06904274
169	0xbe07eb7f	-0.13273428
170	0xbbc903ad	-0.0061344714
171	0x3dcf1126	0.10110693
172	0xbdd3d612	-0.10343565
173	0xbdaee75a	-0.085402206
174	0x3bbb6148	0.005718384
175	0x3d91e40c	0.071235746
176	0xbda6cf65	-0.08145026
177	0x3dbad20b	0.09122094
178	0x3e0015e9	0.12508358
179	0xbd7a1b12	-0.061060973
180	0xbd78e514	-0.06076534
181	0xbd770c4e	-0.06031447
182	0xbe102ed1	-0.14080359
183	0x3cb2ff9b	0.021850398
184	0x3cef6d26	0.02922685
185	0xbe853ae5	-0.26021495
186	0x3d81c8a8	0.063371
187	0xbe814bbf	-0.25253102
188	0xbcb9cc7d	-0.022680515
189	0xbdabc245	-0.08386663
190	0xbe04c088	-0.1296407
191	0xbdafa955	-0.085772194
192	0xbd8cc54d	-0.0687357
193	0x3c87cd2e	0.01657733
194	0xbdb2068e	-0.086926565
195	0xbb9b0940	-0.0047313273
196	0x3d950e83	0.072781585
197	0xbe72600c	-0.23669451
198	0xbd9a581f	-0.07536339
199	0xbe0e6193	-0.13904409
200	0xbcd10268	-0.025513843
201	0xbdceb03a	-0.10092206
202	0xbc25202a	-0.010078469
203	0xbe8402d7	-0.25783417
204	0xbe8fb9fa	-0.28071576
205	0xbda5243f	-0.08063554
206	0xbe13b421	-0.14424182
207	0xbe465b62	-0.19370797
208	0xbc2e4452	-0.010636406
209	0xbe29fd4a	-0.16600528
210	0xbe7de51b	-0.24794428
211	0xbda70522	-0.08155276
212	0x3c2bb750	0.010480717
213	0xbd5aeac4	-0.053446546
214	0xbdfa6043	-0.12225392
215	0xbe8a7905	-0.27045456
216	0xbd5e953a	-0.054341532
217	0xbe235a98	-0.15952528
218	0xbcecff52	-0.02893034
219	0xbd773d88	-0.060361415
220	0xbe4c48cc	-0.19949645
221	0x3d4846ff	0.048895832
222	0xbde24d6b	-0.110499226
223	0x3d214abd	0.039377917
224	0xbe45f001	-0.19329835
225	0xbe4bef8f	-0.19915603
226	0xbde09817	-0.10966509
227	0xbe1539da	-0.1457285
228	0xbdf8fc93	-0.1215755
229	0xbe2c954d	-0.16853829
230	0xbd4257d2	-0.047447033
231	0xbe4227ef	-0.18960546
232	0xbe02f4cf	-0.127887
233	0xbe9e7b09	-0.30953243
234	0xbd80e743	-0.0629411
235	0x3b264f28	0.002537677
236	0xbdb4ca67	-0.08827668
237	0x3c5470d6	0.012966355
238	0xbe830b9b	-0.25594792
239	0x3e06ea65	0.13175352
240	0xba8b34b7	-0.0010620569
241	0x3db4bef6	0.088254854
242	0xbc37933e	-0.011204539
243	0xbd8dbff9	-0.069213815
244	0xbc7f3c61	-0.01557836
245	0x3d018afd	0.03162669
246	0x3d2db96d	0.042413164
247	0xbdbf2331	-0.09332884
248	0xbdc7514a	-0.097323015
249	0xbde4d302	-0.11173059
250	0x3cd75f65	0.026290605
251	0xbe69999f	-0.22812508
252	0xbe884e6d	-0.26622334
253	0xbd1e285c	-0.03861271
254	0xbd8ee9bc	-0.06978175
255	0xbd8d59c2	-0.069018856

a2c_network.actor_mlp.2.bias f4 [64]
0	0xbd1cc719	-0.03827581
1	0xbd8f7871	-0.07005394
2	0x3d8008e0	0.06251693
3	0x3d8f5d08	0.07000166
4	0xbea41de8	-0.32054067
5	0xbe838db9	-0.25694063
6	0xbdafadad	-0.08578048
7	0xbe00a67b	-0.12563507
8	0x3da3e2c9	0.0800224
9	0xbe408af1	-0.18803002
10	0xbdfd502f	-0.123688094
11	0xbcae55d1	-0.021281155
12	0xbe6099a9	-0.21933617
13	0xbe5bae99	-0.21453322
14	0xbcca57e7	-0.024700118
15	0xbe622dee	-0.22087833
16	0xbe629bcb	-0.22129743
17	0xbe76d83d	-0.24105926
18	0xbdfc2a4b	-0.12312754
19	0xbe1daacd	-0.15397187
20	0xbc8c3fa6	-0.017120194
21	0xbd97de73	-0.07415476
22	0xbe2d7ff7	-0.16943346
23	0xbe2213f0	-0.15827918
24	0xbec4a55b	-0.38407406
25	0xbc898edc	-0.016791753
26	0xbe417735	-0.1889313
27	0xbe50d291	-0.20392825
28	0xbe5abae2	-0.21360353
29	0xbd2eeea8	-0.04270807
30	0xbd86d3e2	-0.06583382
31	0xbd9008c1	-0.0703292
32	0xbdd508da	-0.10402079
33	0xbe4b6398	-0.19862211
34	0xbd04f274	-0.032457784
35	0x3c090e8d	0.008365286
36	0xbe2efdec	-0.17089051
37	0xbe720404	-0.23634344
38	0xbe135860	-0.14389181
39	0xbdb7a1ee	-0.089664325
40	0x3cf8dba1	0.030378165
41	0xbce47da7	-0.027891947
42	0xbe8ea5c7	-0.27860853
43	0xbe8a7285	-0.27040496
44	0xbe19f802	-0.15036014
45	0xbe21f463	-0.15815882
46	0xbe8c0767	-0.27349398
47	0xbe4763ed	-0.19471712
48	0xbd605eb2	-0.05477781
49	0xbd5834fd	-0.05278491
50	0xbd4416c8	-0.04787329
51	0x3aeedec2	0.0018224346
52	0x3d9d34c6	0.07676081
53	0x3d71f23b	0.0590689
54	0x3dad7de8	0.0847128
55	0xbd80c6cf	-0.0628792
56	0xbcc22ea3	-0.023703879
57	0xbd57998c	-0.052636668
58	0xbd2461cb	-0.040132325
59	0xbe5cd147	-0.21564208
60	0xbc7ebf4f	-0.015548541
61	0xbe0e7370	-0.13911223
62	0xbe080cf6	-0.13286194
63	0xbe021c12	-0.1270602

a2c_network.actor_mlp.4.weight f4 [32, 64]
0	0xbd34ba28	-0.044122845
1	0x3e200305	0.15626152
2	0xbd6f8bc9	-0.05848292
3	0x3da73ca9	0.08165867
4	0xbd82e0fa	-0.06390567
5	0xbd97c0c6	-0.074098155
6	0xbd412f43	-0.047164213
7	0xbe58c1c7	-0.2116767
8	0xbe49900a	-0.19683853
9	0xbe070b9c	-0.13188022
10	0x3d63d3af	0.0556218
11	0xbdc42bc2	-0.09578659
12	0x3c82a049	0.01594557
13	0xbe09d413	-0.13459806
14	0xbe4ba502	-0.19887164
15	0xbe4b872f	-0.19875787
16	0xbe16fea0	-0.14745569
17	0xbe1766e0	-0.14785337
18	0xbe6e5b42	-0.23277
19	0xbe0ccacc	-0.13749236
20	0x3a8745a2	0.0010320435
21	0xbdb5b78d	-0.088729
22	0xbd9ca9ce	-0.07649575
23	0xbe4b28b8	-0.19839752
24	0xbeac6fc1	-0.3367901
25	0xbd4dfaf9	-0.050288174
26	0xbccf49c3	-0.025303727
27	0xbe0e92c6	-0.13923177
28	0x3c8f7791	0.017513068
29	0xbe543325	-0.20722635
30	0xbdeb7f17	-0.1149885
31	0xbddd8e2b	-0.10818132
32	0xbcf20ab1	-0.029546114
33	0xbdc4ed4c	-0.09615573
34	0x3d4d8a26	0.050180577
35	0x3c486e06	0.012233263
36	0x3c52c007	0.012863166
37	0xbdec2df5	-0.11532203
38	0xbe264401	-0.16236879
39	0xbe21f26a	-0.1581513
40	0xbd469c08	-0.048488647
41	0x3dbbae9e	0.09164165
42	0xbcbad720	-0.022807658
43	0xbc2032be	-0.009777723
44	0xbdab94b9	-0.08377976
45	0xbd738867	-0.059456255
46	0xbdab87b6	-0.08375494
47	0xbb99a4c8	-0.004688833
48	0x3d40e631	0.047094528
49	0xbdb7d863	-0.08976819
50	0xbe70635d	-0.23475404
51	0xbdc49eb2	-0.09600581
52	0xbd9cacb4	-0.07650128
53	0xbe7326df	-0.23745297
54	0x3dc48bea	0.09596999
55	0xbec3a005	-0.38208023
56	0xbd900842	-0.07032825
57	0x3cec6e80	0.028861284
58	0x3e0ebc21	0.13938953
59	0xbd316d35	-0.04331704
60	0xbe56fdad	-0.20995207
61	0xbda883a8	-0.082282364
62	0x3dd08c38	0.101829946
63	0x3d24e642	0.040258653
64	0x3e3a128f	0.18171142
65	0xbdb8b885	-0.09019569
66	0xbd810a62	-0.063008085
67	0xbe376bea	-0.1791226
68	0xbdfa6c0e	-0.12227641
69	0xbde3d602	-0.11124803
70	0xbe0dc953	-0.1384633
71	0x3e0c53a6	0.13703784
72	0xbe42c3d8	-0.19020021
73	0xbd36d71c	-0.044638738
74	0x3c907681	0.017634632
75	0x3bb0ed28	0.005399365
76	0x3e0048b2	0.12527731
77	0xbdb4e1e1	-0.088321455
78	0xbcac1cc1	-0.021009805
79	0xbe897adf	-0.26851556
80	0xbe104701	-0.14089586
81	0xbc23e819	-0.010004067
82	0x3c90646b	0.017626008
83	0x3e06eff9	0.1317748
84	0xbe1fff7a	-0.156248
85	0x3c18957a	0.009312982
86	0xbe69c016	-0.22827181
87	0x3c656625	0.014001404
88	0xbe11e3cd	-0.14247055
89	0xbcc9a280	-0.024613619
90	0xbd2c38d8	-0.042046398
91	0x3d73e5fa	0.059545495
92	0x3d48dc51	0.049038235
93	0xbd0717b2	-0.032981582
94	0xbe0ed079	-0.13946714
95	0x3ded4745	0.11585859
96	0x3de28d72	0.11062135
97	0xbe2d680a	-0.16934219
98	0xbe07eec0	-0.1327467
99	0x3e0188a5	0.12649782
100	0xbdda6ca3	-0.10665252
101	0xbe13fdea	-0.1445233
102	0xbdc2cc8e	-0.09511672
103	0x3db4b611	0.08823789
104	0xbb0f35be	-0.0021852101
105	0xbc990650	-0.018679768
106	0x3d9cf64f	0.07664167
107	0xbda9148c	-0.08255872
108	0xbd8c7a1f	-0.0685923
109	0x3e0b889a	0.13626328
110	0xbe309c46	-0.17247114
111	0xbddadbb2	-0.10686435
112	0xbd3c23c6	-0.045932554
113	0x3ad075ff	0.0015904306
114	0xbda76dcb	-0.08175238
115	0xbc9e105c	-0.01929491
116	0xbd2d524e	-0.04231482
117	0x3d80e1bd	0.06293056
118	0xbbd2c958	-0.0064326935
119	0x3c91529e	0.01773959
120	0xbdd3dde3	-0.10345056
121	0xbdaeca78	-0.085347116
122	0xbcd9abf8	-0.026571259
123	0xbde46ab6	-0.11153166
124	0xbc936228	-0.01799114
125	0xbe03d723	-0.12875037
126	0x3cb1c06a	0.021698195
127	0xbdcc1331	-0.09964598
128	0xbe80c607	-0.25151083
129	0xbdd3c7c5	-0.103408374
130	0xbde51e6a	-0.11187442
131	0x3d2ad279	0.04170463
132	0xbe812c61	-0.2522917
133	0xbdddd464	-0.10831526
134	0xbe942ed5	-0.2894198
135	0x3db4f833	0.08836403
136	0xbe13653c	-0.14394087
137	0xbdb28157	-0.08716076
138	0x3c862536	0.016375165
139	0xbdc135ca	-0.094340876
140	0xbd14c1c4	-0.0363176
141	0xbdacf08d	-0.08444319
142	0x3bb83563	0.0056215986
143	0xbde05082	-0.10952856
144	0xbe3fe63c	-0.18740171
145	0xbc9632d1	-0.018334778
146	0xbda98f00	-0.08279228
147	0xbdb3ea97	-0.08784979
148	0xbcd90dee	-0.0264959
149	0xbd626e46	-0.055280946
150	0xbdd3bea3	-0.103390954
151	0x3d961574	0.073283106
152	0x3d5a4ef6	0.05329796
153	0x3d71cd18	0.059033483
154	0xbda60e4c	-0.08108196
155	0xbc8129f3	-0.015767073
156	0xbd4e49a2	-0.05036319
157	0x3d9e5d9f	0.077327006
158	0x3d638029	0.055542145
159	0x3d70571f	0.058676835
160	0xbd53113f	-0.05153012
161	0x3d08be7e	0.033384793
162	0x3dbaf3b4	0.09128514
163	0xbaee4a9e	-0.0018180197
164	0xbe5faed6	-0.21844038
165	0xbdcdf619	-0.10056705
166	0xbdcd0c3c	-0.10012099
167	0xbe0e73bf	-0.13911341
168	0xbdae2b15	-0.08504311
169	0x3d042fb4	0.032272056
170	0x3dec7705	0.11546139
171	0xb8f4c5af	-0.00011671648
172	0xbe549ec1	-0.20763685
173	0x3dcfa936	0.10139696
174	0x3ce611da	0.028084684
175	0xbdd7e5e8	-0.10541898
176	0xbd35f2e1	-0.04442108
177	0xbda3add7	-0.07992142
178	0x3cd28110	0.025696307
179	0x3a66dd32	0.00088067644
180	0xbe706c15	-0.2347873
181	0xbe24c9d2	-0.16092613
182	0xbd679a6c	-0.056543753
183	0x3d22c8db	0.039742332
184	0xbd29e62f	-0.041479286
185	0x3d0f87e3	0.0350417
186	0xbccc09f0	-0.024907082
187	0xbe1b08fb	-0.15140145
188	0xbdf25399	-0.11832351
189	0xbda0a68a	-0.07844265
190	0xbd8292e4	-0.063756734
191	0x3e132d04	0.14372641
192	0xbd8cbb36	-0.06871645
193	0x3dfde808	0.12397772
194	0xbcfe4cdb	-0.031042507
195	0xbdf01d3a	-0.117243245
196	0xbe357f09	-0.17724241
197	0xbcf73dfa	-0.03018092
198	0x3cb476ff	0.022029398
199	0x3e36d745	0.17855556
200	0xbe80da34	-0.25166476
201	0xbd9912cc	-0.07474288
202	0xbe0013d9	-0.12507571
203	0xbd77839b	-0.060428243
204	0xbd9ac7dc	-0.075576514
205	0xbd418e91	-0.047255103
206	0xbd342c6d	-0.04398768
207	0xbe20f769	-0.1571938
208	0xbe72be48	-0.23705399
209	0x3d2fd16c	0.04292433
210	0x3d6b626f	0.05746692
211	0x3da81e3f	0.08208894
212	0xbd4b019e	-0.04956209
213	0xbe2bc389	-0.1677381
214	0xbd1235d6	-0.035695873
215	0x3da0fbf6	0.07860558
216	0xbc38de17	-0.011283419
217	0x3d07a782	0.033118732
218	0xbdc6b518	-0.0970251
219	0xbd9f4dcc	-0.077785105
220	0x3c0f05b4	0.008729387
221	0xbdf56d32	-0.11983718
222	0xbe40245b	-0.18763869
223	0xbd57c1f1	-0.05267519
224	0x3c8fe0aa	0.017563183
225	0xbe3f7769	-0.18697895
226	0xbd6cc1b1	-0.057801906
227	0xbcbc7bd2	-0.02300826
228	0xbd53ed4e	-0.051739983
229	0xbe8f21f4	-0.27955592
230	0xbcf68c16	-0.030096095
231	0x3d7bee0d	0.06150632
232	0xbe4a6d32	-0.19768217
233	0xbe05c914	-0.13064986
234	0x3de5ed64	0.11226919
235	0xbd293fde	-0.041320674
236	0xbd28fd18	-0.041256994
237	0x3dca78c2	0.09886314
238	0xbcc4d7f8	-0.024028763
239	0xbd8bf178	-0.06833166
240	0xbe256e10	-0.16155267
241	0xbe41a10a	-0.18909088
242	0xbe2a04e4	-0.16603428
243	0xbd9c16e4	-0.076215535
244	0xbd852382	-0.06500913
245	0xbd0cb61e	-0.034353368
246	0xbcbe857d	-0.023257012
247	0xbe287764	-0.16451794
248	0x3c8c95a2	0.017161194
249	0xbe0537f5	-0.13009627
250	0xbd674ddc	-0.056470737
251	0xbd457748	-0.04820946
252	0x3d8198d8	0.06327981
253	0xbe110e6e	-0.1416566
254	0x3ba0302e	0.004888556
255	0x3a4232ac	0.00074080634

a2c_network.actor_mlp.4.bias f4 [32]
0	0xbe2f5ee4	-0.17126042
1	0xbc406e75	-0.011745085
2	0xbc0da466	-0.008645153
3	0xbe69defd	-0.2283897
4	0xbe6bc34b	-0.23023717
5	0xbe2a54a3	-0.16633849
6	0xbccc58e9	-0.02494474
7	0xbccb6efd	-0.024833197
8	0x3cae601e	0.021286067
9	0xbded1510	-0.11576283
10	0x3dfdcc72	0.123925105
11	0xbdaf745c	-0.08567116
12	0xbe329092	-0.17437962
13	0xbe22e602	-0.15908054
14	0xbe33e9a5	-0.17569597
15	0xbc36da45	-0.011160438
16	0xbdb8d6a8	-0.090253174
17	0x3e39472f	0.1809356
18	0xbd1de146	-0.038544916
19	0xbc5180ad	-0.012787026
20	0x3dac1856	0.08403079
21	0xbc5a9506	-0.013341194
22	0xbdf5a623	-0.11994579
23	0x39bcd92b	0.00036019957
24	0xbe30b420	-0.17256212
25	0x3dc2f47d	0.09519289
26	0xbe3f8ef5	-0.18706878
27	0xbd7ece62	-0.06220854
28	0xbe050dc5	-0.12993534
29	0xbd9a6f46	-0.07540755
30	0xbe361f65	-0.17785414
31	0xbcd03881	-0.025417568

a2c_network.value.weight f4 [1, 32]
0	0x3d75b5d9	0.059987877
1	0x3d81e493	0.06342425
2	0x3cdd5830	0.02701959
3	0x3d57cbf5	0.052684743
4	0xbcb2a6d3	-0.021808064
5	0x3d296a87	0.041361358
6	0x3ccc87fc	0.024967186
7	0xbddbbb0e	-0.10729037
8	0xbc01568f	-0.007894172
9	0x3ce79b87	0.028272403
10	0xbd121f2b	-0.035674255
11	0xbc4087ab	-0.011751096
12	0x3cf7b332	0.030236814
13	0x3c4340e7	0.011917329
14	0xbd07c8bf	-0.03315043
15	0x3e05c4b8	0.13063323
16	0x3d958c87	0.07302194
17	0x3e38cb5d	0.18046327
18	0x3bd65b7f	0.006541669
19	0x3d11cc68	0.035595328
20	0x3d70dfdb	0.058807235
21	0x3d089aed	0.033350874
22	0x3ca1c3c4	0.019746669
23	0xbd11b77f	-0.035575386
24	0x3d56e139	0.052460883
25	0x3d5cae04	0.05387689
26	0xba979452	-0.0011564589
27	0xbd262584	-0.04056312
28	0xbc985d89	-0.018599289
29	0xbb92e1d0	-0.0044824854
30	0xbc9ab406	-0.01888467
31	0x3cc56455	0.024095694

a2c_network.mu.weight f4 [7, 32]
0	0x3d70f291	0.05882508
1	0xbe09ef56	-0.13470206
2	0x3b42e8a9	0.0029740727
3	0x3d1c8c03	0.038219463
4	0x3e2a1e35	0.16613086
5	0xbdef2fcb	-0.11679038
6	0x3e43b6fd	0.19112773
7	0xbd588971	-0.05286545
8	0xbe7e2ce6	-0.24821815
9	0x3e51301d	0.2042851
10	0x3e21e36e	0.15809414
11	0x3e8d9505	0.27652755
12	0xbe03d44a	-0.1287395
13	0x3e45d7ec	0.19320649
14	0x3e1117a4	0.14169174
15	0x3c0867b8	0.00832551
16	0xbed2fd51	-0.4120889
17	0xbd96777e	-0.0734701
18	0xbeb7be58	-0.35887408
19	0xbc005d56	-0.007834753
20	0x3e590083	0.21191601
21	0xbebbfb29	-0.36715057
22	0xbeb4aef4	-0.3528973
23	0xbeb1a155	-0.346934
24	0xbe7400bc	-0.23828405
25	0x3dd50593	0.10401454
26	0xbe87df4d	-0.26537552
27	0x3d939af3	0.072072886
28	0xbd931107	-0.07180982
29	0x38dba30c	0.000104731036
30	0xbd48fd94	-0.049069956
31	0xbe22954d	-0.15877266
32	0x3e9e00f5	0.30860105
33	0x3d5b0301	0.05346966
34	0xbd437d5c	-0.047726974
35	0x3d908d39	0.07058186
36	0x3ead67a7	0.33868143
37	0x3d7a9f84	0.061187282
38	0xbe9fe810	-0.31231737
39	0x3cedf87e	0.029049154
40	0xbe4a24dc	-0.19740623
41	0xbcf94395	-0.030427733
42	0xbe48c84a	-0.19607654
43	0xbb116816	-0.0022187284
44	0x3e0b93bc	0.13630575
45	0x3d8a76f4	0.0676097
46	0x3d230aa0	0.039805055
47	0x3d753d37	0.059872832
48	0xbe09d449	-0.13459887
49	0xbdc8ff72	-0.09814347
50	0xbe66d196	-0.22540888
51	0x3d112002	0.035430916
52	0xbe93daca	-0.2887786
53	0xbc2249a5	-0.009905254
54	0x3c82c647	0.015963687
55	0xbd9160fe	-0.07098578
56	0xbd505042	-0.05085779
57	0xbe3b027d	-0.18262668
58	0xbcfbc348	-0.030732766
59	0xbd8b2fd2	-0.067962304
60	0xbe5656d6	-0.20931563
61	0x3e3c8f64	0.18414074
62	0x3ebeca4c	0.37263715
63	0x3d03b76f	0.032157358
64	0xbd599d26	-0.053128384
65	0xbd91fa45	-0.07127813
66	0x3d2ff3a4	0.042956963
67	0x3ce11d4d	0.027479792
68	0xbd2a90ba	-0.04164193
69	0x3d9c0406	0.07617955
70	0x3c14f23c	0.009090956
71	0xbe1d9782	-0.15389827
72	0x3d28b87f	0.041191574
73	0xbe663c77	-0.22484003
74	0xbc741ffc	-0.014900204
75	0x3dbe7ccd	0.093011476
76	0x3e498f21	0.19683506
77	0x3a2c2635	0.00065669726
78	0xbd1c77f6	-0.03820034
79	0x3e892563	0.26786336
80	0xbd8ee392	-0.06976999
81	0x3d6a599c	0.057214364
82	0xbc150a44	-0.009096686
83	0xbcddc3da	-0.027070928
84	0xbe29bb7e	-0.16575429
85	0x3e229fe2	0.15881303
86	0xbd802b1b	-0.06258222
87	0xbbf51ca5	-0.0074802213
88	0x3e4fb213	0.20282774
89	0xbe968401	-0.29397586
90	0x3d601171	0.054704133
91	0x3b86ed0c	0.0041176137
92	0x3e09f8a0	0.13473749
93	0x3d9f0c3a	0.07766004
94	0x3e1d11cc	0.1533882
95	0x3eb84a93	0.35994396
96	0x3c91550c	0.017740749
97	0x3e0359b0	0.12827182
98	0xbe291f72	-0.16515902
99	0x3e0368bb	0.1283292
100	0x3b87f851	0.0041494747
101	0x3e07b508	0.13252652
102	0x3e0a2dbd	0.1349401
103	0xbe066071	-0.13122727
104	0xbea79805	-0.3273317
105	0x3e908ce4	0.2823249
106	0x3e82b281	0.25526813
107	0x3ea3b72a	0.3197568
108	0xbe27534d	-0.1634037
109	0x3e98000f	0.29687545
110	0x3ebdd726	0.37078208
111	0xbe999df6	-0.30003327
112	0xbc93f845	-0.01806272
113	0x3d76c2c9	0.060244355
114	0xbd3d5db1	-0.04623193
115	0xbe5057c4	-0.2034598
116	0x3e629ff4	0.2213133
117	0xbec03d58	-0.37546802
118	0xbd0ec8bb	-0.0348594
119	0xbe72d7d6	-0.23715147
120	0x3e2a5e63	0.16637568
121	0x3e284400	0.1643219
122	0xbd550ac9	-0.05201224
123	0x3e9841a1	0.2973757
124	0x3d4f2428	0.05057159
125	0xbd367842	-0.04454828
126	0x3e76cf5f	0.24102543
127	0xbe05c9c7	-0.13065253
128	0xbe91ca02	-0.28474432
129	0x3e48117a	0.19537917
130	0xbe0b31e0	-0.13593245
131	0x3da97900	0.08275032
132	0x3dd373a0	0.10324788
133	0x3e3333f0	0.17500281
134	0xbde18368	-0.11011392
135	0x3e3ac5cd	0.18239518
136	0xbd30588e	-0.043053202
137	0xbd61ecc9	-0.055157457
138	0x3e724602	0.23659518
139	0x3d7fc7ae	0.06244629
140	0x3dc6f93a	0.09715505
141	0x3e14dcf9	0.1453742
142	0xbc32f7c9	-0.010923334
143	0x3e07f655	0.13277562
144	0xbe92267f	-0.28544995
145	0xbdb8f400	-0.09030914
146	0x3dfdb467	0.12387925
147	0xbd12fd3c	-0.035886034
148	0xbdb55389	-0.08853824
149	0x3e53cb7a	0.20683089
150	0x3dfa0ad0	0.122090936
151	0x3e27edf0	0.1639936
152	0x3d9ce587	0.07660966
153	0xbbe533f1	-0.0069947173
154	0xbe39d1c8	-0.18146431
155	0xbdf533e2	-0.119727865
156	0xbdb85a0f	-0.09001552
157	0x3cec7553	0.028864538
158	0x3e40047b	0.18751709
159	0x3eb4e88e	0.35333675
160	0x3e81fb8b	0.25387225
161	0xbcb46b24	-0.022023745
162	0xbd422e91	-0.04740769
163	0x3d8b04e9	0.06788046
164	0x3c46dfe3	0.01213834
165	0xbe0513ee	-0.12995884
166	0x3dfab2a6	0.12241106
167	0x3e355296	0.17707285
168	0xbdb59c78	-0.08867735
169	0x3c991b6f	0.01868984
170	0x3e937e12	0.28807122
171	0x3e18cb5c	0.14921325
172	0xbe7c981c	-0.246674
173	0xbc977dff	-0.018492697
174	0xbba924b1	-0.0051618447
175	0x3c8a220e	0.016861942
176	0xbe163075	-0.14666922
177	0x3d35f23a	0.04442046
178	0xbe2a9dfe	-0.16661832
179	0xbbdc2d0f	-0.0067192386
180	0x3e7920e5	0.24328955
181	0xbe38f740	-0.18063068
182	0xbd9040ea	-0.070436314
183	0x3c724cf4	0.014788855
184	0x3ebb57e4	0.36590493
185	0x3e7c582d	0.24643011
186	0xbd996859	-0.07490606
187	0x3eadba2b	0.33931097
188	0xbde3b9ee	-0.11119448
189	0x3e01a057	0.12658821
190	0xbc6d14e6	-0.014470315
191	0x3dfab13c	0.12240836
192	0x3dc20408	0.09473425
193	0x3cf63d26	0.030058455
194	0xbb58ec6e	-0.0033099907
195	0xbc8a11f4	-0.016854264
196	0xbdd6decc	-0.10491714
197	0xbcdc5fb9	-0.026901113
198	0xbe2270cd	-0.15863343
199	0x3e2c7f96	0.16845545
200	0x3dc48a41	0.09596682
201	0xbe5aa508	-0.21352017
202	0xbda36627	-0.079784684
203	0xbe18bd2d	-0.14915915
204	0x3d1478dc	0.036248073
205	0xbe4146be	-0.18874642
206	0xbdeba463	-0.11505964
207	0x3dbb3f15	0.09142891
208	0x3cecdb20	0.02891308
209	0xbd84f151	-0.0649134
210	0x3e593257	0.2121061
211	0x3e3f7f9d	0.18701024
212	0xbea57f09	-0.32323483
213	0x3db9f9a6	0.0908082
214	0x3d3a25bd	0.045446146
215	0x3d22c47e	0.03973817
216	0xbca4a0b6	-0.020096164
217	0xbeb5c2c9	-0.35500172
218	0x3c848b36	0.016179662
219	0x3d675548	0.056477815
220	0x3e051a2c	0.12998265
221	0x3ad2625d	0.0016051043
222	0xbcc66c16	-0.024221461
223	0xbd4a2d0c	-0.049359366

a2c_network.mu.bias f4 [7]
0	0xbd820dfc	-0.063503236
1	0xbe92a60a	-0.28642303
2	0xbe1a4ca1	-0.15068294
3	0xbe0ba439	-0.13636865
4	0x3d55b2d4	0.052172497
5	0x3dbdfa66	0.09276275
6	0x3d410e27	0.047132637

exp_avg f4 [7]
0	0xbbb2985f	-0.005450293
1	0xbb129938	-0.0022369158
2	0x39ba9c6d	0.0003559323
3	0x3b2b4ea3	0.00261394
4	0xbb5b3113	-0.0033445999
5	0x3c007d96	0.007842442
6	0xba348373	-0.00068860425

exp_avg_sq f4 [7]
0	0x3931454e	0.00016905853
1	0x39177af5	0.00014446287
2	0x392fc6a2	0.00016763297
3	0x3921d583	0.00015433696
4	0x3929bfab	0.00016188498
5	0x39206932	0.00015297977
6	0x3940785b	0.00018355383

exp_avg f4 [128, 18]
0	0x3af45edf	0.0018643996
1	0x3a9090c1	0.0011029468
2	0xb97c58c4	-0.0002406566
3	0x3a82c3e9	0.0009976599
4	0xb60c5475	-2.0910786e-06
5	0xba3c81a0	-0.00071909465
6	0x3ae03629	0.0017105985
7	0xbac047a8	-0.0014669793
8	0xbbab85c9	-0.0052344543
9	0x3a95d4f2	0.001143126
10	0xbadcdb74	-0.001685007
11	0xbb5a2428	-0.003328571
12	0x3a8a9b39	0.0010574824
13	0x3c158d03	0.009127858
14	0xbb404038	-0.0029335152
15	0x3a083aa5	0.0005196727
16	0x3ae951ba	0.0017800846
17	0x3a4bf01d	0.0007779615
18	0x3ac1a9a7	0.0014775292
19	0xba8f6a5d	-0.0010941733
20	0x3a91d735	0.0011126759
21	0x3a91d83e	0.0011127067
22	0xbafd77cf	-0.0019338074
23	0x390730f6	0.00012892843
24	0x3b587406	0.003302814
25	0x3b3adcef	0.0028513034
26	0x388a3718	6.590615e-05
27	0x39cfdc1f	0.0003964612
28	0x3a1e3880	0.0006035641
29	0xbb9448f0	-0.0045252964
30	0xbae36b5d	-0.0017350722
31	0xba3af028	-0.0007131123
32	0x39bfef24	0.00036608533
33	0x3a9a0e95	0.0011753613
34	0x3b1e35e7	0.0024141015
35	0x3a9b70d1	0.0011859183
36	0x3ad0192e	0.0015876645
37	0x3a0eb137	0.0005443277
38	0xb9a2d163	-0.00031055053
39	0x39e4104f	0.000434997
40	0x3a143ac9	0.00056545116
41	0x3a07eb49	0.00051849015
42	0x3b0e1039	0.002167715
43	0xb9e94276	-0.0004449074
44	0x39f29721	0.00046270437
45	0xba82ebef	-0.0009988527
46	0xbb0c9ef0	-0.0021457039
47	0xba8512b5	-0.001015267
48	0x3af9d438	0.0019060438
49	0x3b70078a	0.0036625587
50	0xbb66dac1	-0.0035225602
51	0x39b63838	0.0003475563
52	0xba8eaa28	-0.0010884451
53	0x3b011fd6	0.0019702814
54	0x3aa40762	0.0012514407
55	0x3b093217	0.0020934397
56	0xba15d911	-0.00057162443
57	0xb89800ac	-7.24805e-05
58	0x3abd6f45	0.0014452717
59	0x3a06f8c0	0.0005148761
60	0x3ad79bc5	0.0016449621
61	0x3b41e24a	0.0029584342
62	0x3bd4f5b9	0.006499019
63	0xbb1145b3	-0.0022166788
64	0x39265b8b	0.00015865096
65	0x3acd06c9	0.0015642281
66	0x39b4dff8	0.00034499145
67	0xbb3661f7	-0.0027829388
68	0xbb6798fc	-0.0035338989
69	0x3a0af73b	0.00053011224
70	0xbb3d7fcc	-0.0028915284
71	0x3ab979fd	0.0014150735
72	0xb95e222c	-0.000211843
73	0xba9fcc12	-0.0012191555
74	0xb984b5fd	-0.00025312594
75	0xb9928eaf	-0.00027953598
76	0x3b1edcaf	0.0024240424
77	0x383a1610	4.4366403e-05
78	0x38330f52	4.2691194e-05
79	0xbb8a0265	-0.004211711
80	0xba5ff071	-0.00085426035
81	0x39e36fbe	0.00043380068
82	0xbb85b54b	-0.0040804497
83	0x3b85baf5	0.004081125
84	0x3af740d3	0.0018863924
85	0x3b8a6a35	0.0042240866
86	0xbacdd81c	-0.0015704664
87	0xb9567a69	-0.00020454232
88	0xbae889d6	-0.0017741274
89	0x39f8423f	0.00047351603
90	0xb9c72016	-0.00037980144
91	0x3a5b11e3	0.00083568523
92	0x39f90ac5	0.00047501005
93	0xba0ebe27	-0.0005445205
94	0xba1eb1ce	-0.00060537166
95	0x3a8a7625	0.0010563774
96	0x3a0743ef	0.0005159964
97	0x3b4496e9	0.0029997176
98	0x3b94b178	0.0045377575
99	0xba00832d	-0.0004902359
100	0x3ae96697	0.0017807063
101	0x3a0467d3	0.00050508714
102	0x39b3efbf	0.00034320165
103	0xbb28a3d3	-0.0025732412
104	0x3aa00cba	0.0012210824
105	0x39b9df27	0.0003545221
106	0x390817da	0.00012978856
107	0xb936a92b	-0.00017419893
108	0x3a07f3a7	0.00051861483
109	0x3ad0c4ae	0.0015927756
110	0xb78ce0f7	-1.6794058e-05
111	0xb9bb1b2f	-0.00035687673
112	0x3a138542	0.0005627462
113	0x3ad70526	0.0016404733
114	0x3acef793	0.0015790336
115	0x3b9a3287	0.0047057304
116	0x3c1b8cb9	0.009494
117	0xbb2f6643	-0.0026763834
118	0x3ade3283	0.001695231
119	0x3b2a06ba	0.002594395
120	0xba56a392	-0.0008187826
121	0xbc0ac417	-0.008469603
122	0xba758bec	-0.0009366858
123	0xb81af7a2	-3.6947087e-05
124	0xbadcde77	-0.0016850968
125	0x39e792c9	0.00044169117
126	0x3a619a84	0.00086060935
127	0x39dbe36b	0.00041940375
128	0xb9cf67fc	-0.0003955959
129	0x3716767a	8.968282e-06
130	0x3aa45c25	0.0012539668
131	0x3a1cfae2	0.0005988312
132	0x3a942687	0.0011302986
133	0x398f43bb	0.0002732555
134	0x3b50d10c	0.0031862883
135	0xbadf9e4f	-0.001706073
136	0xbacda383	-0.0015688989
137	0x3acd25f4	0.001565157
138	0x3a7e1b49	0.0009693397
139	0xbaa4a0b6	-0.0012560103
140	0xbb2ddc0e	-0.0026528868
141	0xb902cadc	-0.00012473337
142	0xbb10905c	-0.00220587
143	0x3ab9e2d8	0.0014181985
144	0x38e59dfb	0.00010948997
145	0xb85ef41a	-5.3156262e-05
146	0x39295633	0.00016149208
147	0xb98da97a	-0.00027019886
148	0x39fd5bb8	0.00048324256
149	0x39d7f601	0.00041191283
150	0x38783a5d	5.9182163e-05
151	0xbaaa04d8	-0.0012971414
152	0xb98667fb	-0.00025635943
153	0xb8bc9e18	-8.993986e-05
154	0xbadadb07	-0.0016697355
155	0x3a20a6a2	0.0006128346
156	0xb8b0a5ad	-8.4231935e-05
157	0x3b253282	0.0025207107
158	0xb986c0a5	-0.00025702003
159	0xb9ac48ea	-0.00032860722
160	0x38b38411	8.5599844e-05
161	0x393f06d8	0.00018217729
162	0x3a3cfa40	0.0007208921
163	0x3ace9602	0.0015761259
164	0xb95f0faa	-0.00021272773
165	0xba228653	-0.00061998254
166	0x39ba5b17	0.00035544552
167	0x3aa8c953	0.0012877382
168	0x3aecd943	0.001807012
169	0x3b4dfdf3	0.0031431883
170	0x3bd52682	0.0065048346
171	0xbb4d1287	-0.003129156
172	0x3a77a631	0.00094470667
173	0x3acad6af	0.0015475358
174	0xba923364	-0.0011154232
175	0xbbacf006	-0.0052776365
176	0xbaffb1c4	-0.0019507934
177	0x39379cb5	0.00017510618
178	0xbaf9560c	-0.0019022836
179	0x3ac84d54	0.0015281835
180	0xb8aaa95c	-8.137777e-05
181	0xba27ac9a	-0.0006396264
182	0x39fdcd9d	0.00048409114
183	0xb97c6967	-0.00024071858
184	0x39306373	0.00016821716
185	0x3ac76dae	0.0015215182
186	0x3a7ac851	0.00095665926
187	0x3b2dec4a	0.0026538544
188	0x3bb317c3	0.005465479
189	0xbb00d396	-0.0019657365
190	0x3a7bcff1	0.0009605876
191	0x3b19847b	0.0023424912
192	0x37722565	1.4433031e-05
193	0xbba5d939	-0.0050612953
194	0x3a2f98de	0.0006698499
195	0xb956f1da	-0.00020498727
196	0xba4b1ea4	-0.0007748401
197	0x3a2052f9	0.00061158795
198	0xba0b8fcd	-0.0005323857
199	0xbb0157e9	-0.0019736236
200	0x3a7bd413	0.00096064917
201	0x3920e3df	0.00015343678
202	0x3a19da2d	0.00058689975
203	0x39215691	0.00015386405
204	0xba36b46c	-0.0006969634
205	0xbb223aa9	-0.0024754202
206	0xbb55edce	-0.0032642963
207	0x3a9e7b59	0.0012091204
208	0xbabf8535	-0.0014611842
209	0x3b162e0f	0.0022915637
210	0xba40f611	-0.00073608855
211	0x3b693ff7	0.0035591105
212	0x3b2a54ab	0.0025990407
213	0xbaa7139b	-0.0012746932
214	0x3b38093c	0.0028081676
215	0xbaa0adfe	-0.0012258885
216	0xbb4663ca	-0.0030271881
217	0xba806825	-0.0009796662
218	0x3a226fea	0.0006196486
219	0xba84a83b	-0.0010120937
220	0x39e9415a	0.00044489914
221	0xba4e2d0e	-0.000786499
222	0xbb863f64	-0.004096912
223	0xbb2d86d5	-0.0026478071
224	0xbb8ec0a1	-0.0043564592
225	0x3b6ae7b6	0.0035843677
226	0x3a9726a6	0.0011531904
227	0x3b90a1f1	0.004413836
228	0x3a1729a9	0.0005766401
229	0x3b73b837	0.0037188658
230	0x3bb27896	0.005446504
231	0xb9c28cdd	-0.00037107515
232	0x3b21ee33	0.0024708628
233	0xbb62f6f8	-0.0034632068
234	0x3a6dd42b	0.0009072448
235	0x3b0a37e5	0.0021090445
236	0xba446b85	-0.00074928283
237	0x3a0488e8	0.0005055801
238	0xbab0abf2	-0.0013478978
239	0xbab2855e	-0.0013620069
240	0x38922c1f	6.970041e-05
241	0x3affa1da	0.0019503192
242	0xbac67ffc	-0.0015144343
243	0x3935f42c	0.00017352466
244	0x3b07e314	0.0020734714
245	0xbbaa4cd1	-0.0051971455
246	0xb88d9800	-6.751716e-05
247	0x3ae5c336	0.0017529491
248	0xbb04110d	-0.0020151765
249	0x3a8cf6e2	0.0010754729
250	0xba05dc1f	-0.0005106348
251	0x3a17e3fe	0.00057941664
252	0xba7d1df1	-0.00096556457
253	0xbab25213	-0.0013604782
254	0x3a0524cf	0.0005079032
255	0x37b9bcce	2.2141638e-05

exp_avg_sq f4 [128, 18]
0	0x38236162	3.8952923e-05
1	0x37ced690	2.4657027e-05
2	0x3827c68f	4.0000825e-05
3	0x388a0301	6.580912e-05
4	0x381b7835	3.706683e-05
5	0x384cf2b0	4.886341e-05
6	0x3881eb18	6.194989e-05
7	0x3866de1c	5.504313e-05
8	0x37ff2910	3.041749e-05
9	0x3838c81d	4.405539e-05
10	0x388f8fe9	6.845577e-05
11	0x38947751	7.079414e-05
12	0x3898cfe2	7.286646e-05
13	0x389cb317	7.472018e-05
14	0x38b5c375	8.667159e-05
15	0x38422e5b	4.6296376e-05
16	0x3895301b	7.113834e-05
17	0x382fa495	4.187653e-05
18	0x38466bf4	4.7307418e-05
19	0x3847d7d8	4.7646317e-05
20	0x387a46f7	5.9670736e-05
21	0x3886309f	6.398674e-05
22	0x38424640	4.631863e-05
23	0x385f2d87	5.3209744e-05
24	0x387e6816	6.0655257e-05
25	0x38a51e08	7.873407e-05
26	0x388af2ac	6.625554e-05
27	0x38653064	5.4642922e-05
28	0x38bc8e40	8.991035e-05
29	0x38c422a3	9.35246e-05
30	0x38a5d2fc	7.907112e-05
31	0x38c395f4	9.3262555e-05
32	0x38bb8de3	8.943283e-05
33	0x3897a36c	7.230681e-05
34	0x387828c3	5.916577e-05
35	0x388219d9	6.2036976e-05
36	0x38556478	5.0876726e-05
37	0x3826e82f	3.9793722e-05
38	0x383cd9da	4.5025583e-05
39	0x38b46d8c	8.6034735e-05
40	0x3840f10d	4.6000863e-05
41	0x384b84ca	4.852264e-05
42	0x3893ba9b	7.044264e-05
43	0x38919e22	6.943593e-05
44	0x3870db47	5.7424677e-05
45	0x38769572	5.8790152e-05
46	0x38a8565d	8.026951e-05
47	0x38aaaf9e	8.138943e-05
48	0x38aa7c33	8.1293656e-05
49	0x38aa80ed	8.130246e-05
50	0x38f077f9	0.000114664384
51	0x3863e725	5.4336288e-05
52	0x38bbfc2a	8.963824e-05
53	0x38580270	5.1500683e-05
54	0x37658f82	1.3682877e-05
55	0x37356b43	1.08134145e-05
56	0x376248c9	1.3487596e-05
57	0x37cff5b1	2.4790732e-05
58	0x37667ca2	1.3738087e-05
59	0x37961011	1.7888875e-05
60	0x37cbe75f	2.4307226e-05
61	0x37d79c28	2.5702713e-05
62	0x37826d32	1.5548056e-05
63	0x379ad869	1.8459004e-05
64	0x37f78d4b	2.951049e-05
65	0x37e4fec0	2.7298345e-05
66	0x37d819f9	2.5761301e-05
67	0x3809258f	3.2698325e-05
68	0x381043ab	3.4395296e-05
69	0x373f3f35	1.1399204e-05
70	0x37ec4a5c	2.8168019e-05
71	0x375f5be7	1.33132335e-05
72	0x37a212af	1.9320605e-05
73	0x37266908	9.9188255e-06
74	0x3777ec84	1.4777415e-05
75	0x37f66b22	2.9375373e-05
76	0x377ed19a	1.5188381e-05
77	0x37a1e49c	1.929915e-05
78	0x37ff7d17	3.0456618e-05
79	0x38238d08	3.8993574e-05
80	0x3765ab95	1.3689413e-05
81	0x37c99b75	2.4033458e-05
82	0x383c2319	4.485538e-05
83	0x38204795	3.821364e-05
84	0x381715f7	3.602166e-05
85	0x382ad0cb	4.0725612e-05
86	0x3842f67d	4.6482764e-05
87	0x3783365a	1.5641726e-05
88	0x380e6dcc	3.3957695e-05
89	0x37973863	1.802686e-05
90	0x36c3c479	5.8343253e-06
91	0x36b7ccec	5.477681e-06
92	0x36d4fab8	6.34728e-06
93	0x36f9874f	7.4365303e-06
94	0x36a592ee	4.934488e-06
95	0x37053d70	7.941722e-06
96	0x372009c6	9.539019e-06
97	0x37522629	1.252586e-05
98	0x371a0e04	9.182379e-06
99	0x36ecaec6	7.0536944e-06
100	0x378059f5	1.5300679e-05
101	0x37851e09	1.5868822e-05
102	0x37593a78	1.2947821e-05
103	0x3797179f	1.8011602e-05
104	0x375e9d7d	1.3268899e-05
105	0x36cb98f6	6.0676784e-06
106	0x371f46ff	9.493669e-06
107	0x36c60843	5.9018216e-06
108	0x368d133e	4.2043675e-06
109	0x36adb5ec	5.1769803e-06
110	0x36961ec3	4.4739295e-06
111	0x36b8d2ee	5.5081828e-06
112	0x36570ddf	3.204557e-06
113	0x36f86ad4	7.4034124e-06
114	0x370cb6d3	8.387217e-06
115	0x37004859	7.646239e-06
116	0x371d76d9	9.385601e-06
117	0x36a90796	5.0374756e-06
118	0x37018d17	7.721849e-06
119	0x3705906d	7.9610445e-06
120	0x370a0b7d	8.228116e-06
121	0x373cd12f	1.1254378e-05
122	0x371d6398	9.381118e-06
123	0x365e192a	3.3095225e-06
124	0x36f4a717	7.2912185e-06
125	0x368c9f2a	4.1908543e-06
126	0x37b365fc	2.1385953e-05
127	0x37614d37	1.3429023e-05
128	0x37a233a2	1.9335948e-05
129	0x382aa7df	4.06875e-05
130	0x378626b1	1.5992062e-05
131	0x37cd9fee	2.4512377e-05
132	0x3809e57c	3.287707e-05
133	0x37f2d4d2	2.894775e-05
134	0x378c2630	1.6707083e-05
135	0x37ccf81c	2.443423e-05
136	0x3809f79a	3.2893942e-05
137	0x38038609	3.1357664e-05
138	0x37fb252b	2.993884e-05
139	0x380d3772	3.3668657e-05
140	0x385678fe	5.113426e-05
141	0x37900a85	1.7171036e-05
142	0x384362fc	4.658381e-05
143	0x379d1370	1.872491e-05
144	0x36df95b8	6.6633474e-06
145	0x36b756cd	5.46393e-06
146	0x36ffa005	7.618221e-06
147	0x37283ab3	1.0027247e-05
148	0x36ca6b54	6.0325638e-06
149	0x3727bc58	9.997828e-06
150	0x37697e57	1.3917298e-05
151	0x374aa049	1.20774575e-05
152	0x36e44c0d	6.803783e-06
153	0x36daaa1c	6.5167096e-06
154	0x3782f321	1.5610423e-05
155	0x37618abd	1.3443348e-05
156	0x3748bb07	1.1964475e-05
157	0x3760a91b	1.3390813e-05
158	0x37863dc9	1.6002816e-05
159	0x36c18cfa	5.76826e-06
160	0x373ae3f2	1.1139537e-05
161	0x36bac675	5.5663354e-06
162	0x37445bb6	1.17038635e-05
163	0x37398b04	1.1059226e-05
164	0x373d5974	1.1286105e-05
165	0x37763922	1.4676045e-05
166	0x37020947	7.750764e-06
167	0x3755d325	1.274495e-05
168	0x3767e472	1.3821862e-05
169	0x3783e383	1.572236e-05
170	0x378c6073	1.6734213e-05
171	0x372e57c4	1.0391643e-05
172	0x375f828a	1.3322229e-05
173	0x3782c906	1.5590816e-05
174	0x377ab94a	1.4944302e-05
175	0x3795dfc2	1.786638e-05
176	0x37ecf611	2.8247976e-05
177	0x3729a99a	1.0112673e-05
178	0x37a5acf3	1.9750069e-05
179	0x373cd476	1.1255141e-05
180	0x36e7b67a	6.9055795e-06
181	0x36ad3eac	5.1630977e-06
182	0x36f71949	7.364117e-06
183	0x370668af	8.011396e-06
184	0x368ff6cc	4.290463e-06
185	0x36c7cc15	5.9544204e-06
186	0x36e28a06	6.751393e-06
187	0x3721c726	9.642716e-06
188	0x3709ceb0	8.2139595e-06
189	0x36aea578	5.204867e-06
190	0x370a913c	8.259256e-06
191	0x370ab810	8.268296e-06
192	0x3716b494	8.982741e-06
193	0x37270c06	9.956775e-06
194	0x3776d25e	1.47117225e-05
195	0x36e89686	6.931662e-06
196	0x373dbe5a	1.13095975e-05
197	0x36e54101	6.8322993e-06
198	0x37512a6b	1.2467247e-05
199	0x3739c82f	1.1073468e-05
200	0x3762ba33	1.3514003e-05
201	0x378e7b91	1.698526e-05
202	0x372b7996	1.0220703e-05
203	0x376aac0d	1.3987546e-05
204	0x378b9c6e	1.6642934e-05
205	0x37c75371	2.3761504e-05
206	0x376fbba0	1.4289195e-05
207	0x37754542	1.4619263e-05
208	0x37dc314b	2.6248998e-05
209	0x37bcd3e8	2.2510023e-05
210	0x37c00acf	2.2893217e-05
211	0x37d9f3f1	2.598201e-05
212	0x37eeed21	2.8482233e-05
213	0x378f4a4d	1.7081527e-05
214	0x37ae4cb1	2.0778129e-05
215	0x376d8efc	1.4159592e-05
216	0x38a940d8	8.070626e-05
217	0x38859192	6.369049e-05
218	0x38b29831	8.516049e-05
219	0x38ef97df	0.00011424696
220	0x389131b5	6.9233975e-05
221	0x388da729	6.75454e-05
222	0x38d4fbba	0.000101558355
223	0x38d3fc44	0.00010108252
224	0x38ac517c	8.216777e-05
225	0x38abcf41	8.1925195e-05
226	0x38c5d106	9.432626e-05
227	0x38f1a83d	0.00011523112
228	0x38dc7c9d	0.000105136285
229	0x38ea9b2d	0.00011186893
230	0x392e7151	0.00016636147
231	0x38bfd15a	9.1465845e-05
232	0x38f5ade3	0.00011714899
233	0x389950fc	7.310693e-05
234	0x3759048c	1.2935267e-05
235	0x375858e8	1.2895303e-05
236	0x377c817e	1.505052e-05
237	0x3783adb0	1.5697296e-05
238	0x372e9fab	1.0408384e-05
239	0x3787218b	1.6108874e-05
240	0x3798409e	1.8149902e-05
241	0x37b16818	2.1148517e-05
242	0x377eaee6	1.51803015e-05
243	0x3766171a	1.3714447e-05
244	0x37e6721f	2.7471278e-05
245	0x37efd2ae	2.8589126e-05
246	0x37ba6eb7	2.2224483e-05
247	0x3803adb3	3.1394604e-05
248	0x37e159cc	2.6863905e-05
249	0x376f7121	1.427185e-05
250	0x3798fe77	1.8238306e-05
251	0x372dbb43	1.0355204e-05
252	0x370379f3	7.836602e-06
253	0x371c1bd2	9.304802e-06
254	0x36f29d88	7.230501e-06
255	0x372d7217	1.0338167e-05
