runs/BallBalance_11-16-09-10/nn/last_BallBalance_ep_700_rew_2.6489184.pth (torch, 173671 bytes, 36 tensors)

value_mean_std.running_mean f8 [1]
00000000: 10dd f1d4 2d01 c43f
0.15628598115629488

value_mean_std.running_var f8 [1]
00000000: 7d39 7818 b5df 7a3f
0.006561000256182556

value_mean_std.count f8 []
00000000: 0000 0000 40e0 d540
22401.0

running_mean_std.running_mean f8 [18]
00000000: 8643 f609 3e1b a1bf bd06 199d 6500 b73f
00000010: cd64 4660 5e3c b3bf c809 131f 13fc b3bf
00000020: 6ff8 c91b 3065 b63f e852 d4c6 111a 8fbf
00000030: 9c42 1e94 226f bbbf bd67 0780 309b c9bf
00000040: 8461 951d 8b60 d73f e76a 7b68 544e d0bf
00000050: dc9a 0a10 50ee d4bf ff03 9177 4eb0 cd3f
00000060: f02e bb82 f8ab 91bf c151 08d4 3964 c3bf
00000070: 7c18 11d4 caf5 bb3f ee1b bab1 a188 c23f
00000080: e42c d25c 6325 cabf 2520 43b7 d723 bb3f
-0.03341096755605748 0.08984980664629467 -0.07513990259612342 -0.07806510456706584 0.08748150518838015 -0.01518644226102013 -0.10716453663031661 -0.20004850627338824
0.3652675427342944 -0.25478086665468286 -0.3270454556135698 0.23194294775206 -0.017257578829954434 -0.15149615147733012 0.10921924283420198 0.144794666081196
-0.2042659953334357 0.10601566528487234

running_mean_std.running_var f8 [18]
00000000: bc40 2ddb 5cd4 d03f 40ad 8e9e dce1 a33f
00000010: b4cc a413 39ef bc3f b478 292c c62d d43f
00000020: 6d8e cbe9 e03d b03f e5bb cfc0 bb26 833f
00000030: 78ed 5a78 48b3 8e3f 3c3a 9d1c 5444 0c40
00000040: 4d8b 2bc8 8e05 e83f 1f7d 072b 24fa 0740
00000050: 1b8f 6433 d046 1540 4703 f475 4f1e e63f
00000060: 45e3 b7fd 82b6 ee3f 8e3b ad43 7506 f43f
00000070: bc1f b91f e6cf 763f 5eb9 1f08 29f4 733f
00000080: e9bc b9eb 1eb4 cf3f de4c b31c 7c05 c93f
0.26296159175855016 0.03883256373895927 0.11302525262435631 0.3152938300389778 0.06344419200791558 0.009351221868170565 0.014990392849873344 3.533363555477335
0.75067843528482 2.9971392976436984 5.319153597843775 0.6911999992154073 0.9597792582927488 1.2515766757603362 0.005569361611897191 0.0048715212633239895
0.24768435010944437 0.19547988320719062

running_mean_std.count f8 []
00000000: 0000 0000 80e0 c540
11201.0

a2c_network.sigma f4 [7]
00000000: 0d25 fbbe f0e0 00bf 517a afbe 4e3c c3be
00000010: 19e0 98be d6cd b5be 3ffa 28be
-0.49051705 -0.5034323 -0.34273008 -0.38131946 -0.29858473 -0.35508603 -0.16501711

a2c_network.actor_mlp.0.weight f4 [128, 18]
00000000: d249 f3bd cce1 db3d a124 12be b4b3 373d
00000010: b0d7 83bd 91a6 4f3e e588 003d cbec 29be
00000020: 5720 32be e174 1dbe d999 1e3e fb5e 74be
00000030: e897 f53d 9928 29be 475a 343e afc1 7abe
00000040: 28ff 95bd 8dbb 583e 247d d63c 82c8 a83e
00000050: 3db9 b03d dd54 8bbd 4ed8 b23d cc8c 723c
00000060: 3629 1f3e 3ff1 863e f4cf 343e 7d27 04be
00000070: af11 043e f305 c1bd 5214 cf3d 8eab 1cbe
00000080: eb31 69be 6265 a4be d832 81be fb6c 443e
00000090: 71ab 8ebd f0aa 6b3e 5b8b 5c3d 3a60 84bc
000000a0: b479 e93d b103 dfbd faaa 4e3d a12b 1fbe
000000b0: e7ec 143e b98b 45be ff7d 863e 62cd e3bd
000000c0: 8cb7 d23d ac06 2dbe 808f d2bd f67a aebe
000000d0: 57e4 f63d 40c4 313e 5350 8f3e fa7a 88be
000000e0: 3016 4fbe 62d5 4fbe 9589 f33d 62cd 8f3d
000000f0: db8a 3b3d 4e50 413e 0947 76bd 08ab 60be
00000100: 1c21 893d 4cec cd3b 1fa1 b5bd 5bf3 4eba
00000110: 5e04 5b3e 9ddf 17bf 5ad6 3dbd 3ea6 48be
00000120: 5a51 5a3e ef13 8fbe d908 4b3e 181b 993e
00000130: e37f a1be 4394 2cbe fb0c 123e 463a e4bd
00000140: 5680 fabd 5f2d 92be 1a63 85bd 52c8 5a3c
00000150: e5eb 8bbb f6d6 b7bd b9a9 3e3e eddc d1be
00000160: 713a 693d 7bb0 06be 2cea 1abe edbd e3bd
00000170: 49d7 e43d 814f 7f3d 8eef 803e bd44 61be
00000180: 5604 19bd 1cc7 193e 44f6 eebd db6f ddbc
00000190: 7e90 57bd 0edf 633d 37ea 343d 6d0b eabd
000001a0: 9039 20be b666 84be cfc7 a0be 5c16 9ebe
000001b0: c138 a6bd b684 b8bd 4ede 3c3d 4cad babd
000001c0: e931 c83e 164a f53d 7e22 bfbd 9994 923e
000001d0: 9af0 d13a 97a7 11bd 6be5 03be 0e6e 42be
000001e0: b476 a63d 1dd0 0d3c 9c94 32bc 7ca1 9dbe
000001f0: 0e31 c73d e47a a0be 6f88 6ebc 6552 e1bd
00000200: c484 ad3d 2d78 453e 2ccc 953e 46e1 70be
00000210: c2b7 bbbb 24dc 5cbd 3276 50bc 3a0b 54be
00000220: 144d 5c3e 0294 f8bc af23 d03b 8e60 d63d
00000230: 103e 143e acae 00bf ebd7 8c3e 12db 47bd
00000240: dab2 27bd f489 91be f99b f33d 2681 c3bd
00000250: 4841 a5bd ba5a 553e 21b5 f13c 9032 f6bd
00000260: 2e3c 2ebe 5a36 893d 3777 6c3e f032 133d
00000270: 0288 7dbd 8c24 32be fd0b 99be 6628 6abd
00000280: b3ab 6d3e 0df4 a6be e56a 5b3e 385a 573d
00000290: a323 a73d 3c4b dfbc 762a 9b3e 0ab3 4b3e
000002a0: 99b0 3c3c 410a 393d 52a9 6cbd 4fc2 133d
000002b0: 5224 a9bd 4462 8bbb cf04 c43d b6c8 c73d
000002c0: 06ca 80bd 34a0 80be c9fd bc3c 2b77 71ba
000002d0: ba61 873e d258 bb3d fee3 d5bd 2818 c6bc
000002e0: 95d2 a43e 2e78 f93d 5d51 853c 1eae d53c
000002f0: b890 a1bc d92c 5cbe 0648 67be 8fb4 623d
00000300: 12ad 90bd 5485 063d fe6a 81be 70a5 45be
00000310: 955a 00bd 7722 323e c81b 46be 1142 b23d
00000320: 4a4d 3b3e a22e bfbc 724d cebe 14c0 9e3d
00000330: 501a 0cbe 6fb4 29be e631 8cbd 6aa2 9f3d
00000340: 59fd 6c3e ace8 d5bd 685a 82bd 8734 6dbe
00000350: ab08 7dbe 8854 b33e 7733 053e c7d7 cc3e
00000360: 6f91 833e 7e94 60bd 8d75 a7bd 04d2 1dbe
00000370: a552 11bd 80d1 05be 67f3 57bc 22c0 d9bd
00000380: 6f24 ccbd 453c 1b3d 6b0a 55be 981f d5bd
00000390: 1292 a63d 6257 4bbe 7287 643d a70c c53e
000003a0: 8b04 c9bd 2706 a9be 0c75 2bbd ef30 cbbd
000003b0: a3a2 91bd 76b7 64be cff6 b93e 2b3a 78bd
000003c0: af81 493e 886c 3d3e 1951 0d3e 41f1 27be
000003d0: cd2b 603e 95cc a33c b57b b43d 70ef 183e
000003e0: 7b9f 08bd 002f 0ebe 2329 d0bd 18c7 c6be
000003f0: cf39 733e f934 91be 8b08 223e 4f6b e83d
-0.118793145 0.10736427 -0.14271785 0.044849113 -0.064376235 0.20278384 0.031380553 -0.16594236
-0.17395149 -0.15376617 0.15488376 -0.23864357 0.119918644 -0.16519393 0.17612563 -0.24487947
-0.07324058 0.21165295 0.026182719 0.32965475 0.086290814 -0.06803296 0.08732663 0.014804076
0.15543064 0.2635593 0.17657453 -0.12905689 0.12897371 -0.09424963 0.10111298 -0.15299818
-0.22772948 -0.321086 -0.25234103 0.19182198 -0.069662936 0.23014426 0.053843837 -0.016159166
0.11400166 -0.10889376 0.050456025 -0.15543987 0.14543496 -0.19291581 0.26268002 -0.11123158
0.10288915 -0.16897076 -0.10281277 -0.34078187 0.12055271 0.1736002 0.2799097 -0.26656324
-0.20223308 -0.20296243 0.11891476 0.070215955 0.04578672 0.1887829 -0.06012634 -0.21940243
0.06695768 0.0062842723 -0.08868622 -0.0007894539 0.21388385 -0.5932558 -0.046347 -0.19594666
0.21320096 -0.27944896 0.19827594 0.29903483 -0.31542882 -0.16853432 0.14262764 -0.11143927
-0.122315094 -0.2855024 -0.06513043 0.013353424 -0.004270064 -0.089765474 0.18619432 -0.40988865
0.0569405 -0.1315326 -0.15128392 -0.1112021 0.11173875 0.06233168 0.25182766 -0.21998878
-0.03735765 0.1501736 -0.11668065 -0.027030876 -0.052628033 0.055632643 0.044168677 -0.114279605
-0.15646958 -0.25859612 -0.31402442 -0.30876434 -0.08116294 -0.090096876 0.046110444 -0.09115085
0.39100578 0.119770214 -0.09332751 0.28628996 0.001601714 -0.035560217 -0.12880485 -0.18987295
0.081281096 0.008655575 -0.010899689 -0.30787265 0.09726153 -0.31343758 -0.0145588955 -0.11002044
0.08472589 0.19284125 0.29257333 -0.23523435 -0.0057286927 -0.05392088 -0.012723492 -0.20707408
0.21513778 -0.030344013 0.00635191 0.10467635 0.144768 -0.5026653 0.27508482 -0.048792906
-0.04094205 -0.28425562 0.11894984 -0.095461175 -0.08069092 0.2083539 0.029505314 -0.12021363
-0.17015144 0.0669982 0.23092352 0.03593725 -0.061897285 -0.17396754 -0.2989196 -0.057167433
0.2321003 -0.3260807 0.21427496 0.052576274 0.08161094 -0.027257554 0.30305833 0.19892517
0.011516714 0.045175795 -0.057778664 0.03607398 -0.08258881 -0.0042536575 0.0957123 0.097550794
-0.06288533 -0.25122225 0.023070233 -0.0009211178 0.26441747 0.091478005 -0.10443877 -0.02418144
0.3219191 0.121811256 0.016274149 0.026084002 -0.019722328 -0.21501483 -0.22586069 0.055347975
-0.070642605 0.032841995 -0.2527694 -0.1930139 -0.031336386 0.1739596 -0.19346535 0.087040074
0.18291202 -0.023337666 -0.4029346 0.0775148 -0.13681912 -0.16572736 -0.06845455 0.0779465
0.2314352 -0.10444769 -0.063649 -0.23164569 -0.24710338 0.3502543 0.13007914 0.40008375
0.25696895 -0.054829113 -0.08176718 -0.15412146 -0.035479207 -0.13068199 -0.01318059 -0.106323496
-0.09967887 0.037899274 -0.20804755 -0.10406417 0.081333295 -0.19857553 0.055793233 0.38486215
-0.0981532 -0.33012506 -0.04185967 -0.09921443 -0.071110986 -0.2233561 0.36321113 -0.06060235
0.19678377 0.18498433 0.13800468 -0.16400625 0.21891709 0.019995013 0.08812658 0.14935088
-0.033355217 -0.13885117 -0.10164096 -0.3882377 0.23752521 -0.28360727 0.15823571 0.113485925

a2c_network.actor_mlp.0.bias f4 [128]
00000000: f119 193e 95c5 d63d 51ee e73d a175 9e3c
00000010: 36e8 893d 77aa b2bd d6b3 89bd c8dc 5d3c
00000020: 4184 a2bc be60 593d 6d38 d3bd eb11 6ebc
00000030: fa3c 06bd cc5a 0c3e f776 a2bc 1c09 00be
00000040: 99c6 e0bd 539f 14be ff76 5ebe 15e5 3ebe
00000050: 5b4f 43bc 24a4 83bd 86c0 6dbd 3318 d4bd
00000060: fb42 233d 688d e73d aca0 6abd 5891 0e3e
00000070: caaa afbd 37b2 98bc e25c ffbc c567 ccbb
00000080: d032 36be c2ea d8bc dba2 87be 53e2 56be
00000090: 03e6 11be dc51 43be 2a4f 93bd e091 e1bc
000000a0: 5362 fa3d 2003 68bd 2547 18be 1772 91bd
000000b0: fd01 08bd 0180 8e3c a6a7 70be b31d 023d
000000c0: dfef 433d 3a52 533d 8798 1cbd 43ac 77be
000000d0: 2697 87be 4810 41be 47df 83bc 7207 21be
000000e0: 4d85 8ebe 4467 383c 475f d03d ec3c f4bb
000000f0: 90dd a93d 2f7e cbbd 6d75 28bc bb52 10bc
00000100: dc2b 4e3d e7dc 433d c3a6 e73c d5b6 07be
00000110: 68a3 ddbd 8220 8bbd 1213 33be 8057 28be
00000120: 2d43 d2bd 6125 c73d 21d3 943d f552 dabd
00000130: 1aa8 7e3d e9b1 57be 01e7 80be e2d4 0ebe
00000140: 6b87 8bbd 9e2f 073e 4b33 bdbb 9686 5e3e
00000150: 3794 57be e8d1 8f3c 8760 133e 1faa 903d
00000160: 934b 763d 6c45 793d e4b0 5c3d 86c7 09be
00000170: c319 da3d b1e0 febd 7acf 1fbd c188 23be
00000180: daa5 323e 8aaf cbbd ebe2 8abc f433 0abe
00000190: 8434 913d 5248 263d 30a8 c1bd cbd6 a63c
000001a0: 9666 923c df2a bdbd 9d16 39bd 5f8b d2bd
000001b0: 771b 23bd 72ea 41bd 1380 963c 8b51 593d
000001c0: 0082 95be 5d87 f9bd 50f5 f93d 472c cc3d
000001d0: 080d 043c c580 8dbd 4569 81bd 1068 083e
000001e0: 637c 37be 03ec 4bbe 4853 b4bd cd8e 143c
000001f0: 06c3 8bbd 7c0e 85bd a71e bb3d a95b 233c
0.14951302 0.104869045 0.11324752 0.0193432 0.06733744 -0.0872392 -0.06723754 0.013541408
-0.019838454 0.053070776 -0.10313497 -0.014530639 -0.032772996 0.13706511 -0.019832117 -0.12503475
-0.109753795 -0.14513902 -0.21725081 -0.18642075 -0.011920775 -0.06427792 -0.058044933 -0.10356178
0.0398588 0.11306268 -0.057282135 0.13922632 -0.08577497 -0.018639667 -0.03117222 -0.006237956
-0.17792821 -0.026479129 -0.26491436 -0.20984773 -0.14247899 -0.19074196 -0.07192834 -0.027535379
0.12225785 -0.056643605 -0.1487089 -0.07101839 -0.03320502 0.017395021 -0.23501453 0.031766605
0.04783618 0.05159209 -0.0382314 -0.24186806 -0.26482505 -0.18853867 -0.016097678 -0.15725496
-0.27836075 0.011255089 0.10174423 -0.0074535515 0.08294213 -0.09936177 -0.010281903 -0.008808787
0.050334796 0.04781809 0.02827776 -0.13253339 -0.10822183 -0.0679331 -0.17487743 -0.16439629
-0.10266719 0.09723926 0.07266832 -0.10660354 0.062172033 -0.21063961 -0.25176242 -0.13948396
-0.06812938 0.13201758 -0.005773937 0.21731028 -0.21052633 0.017556146 0.14392291 0.07063698
0.060130667 0.06085722 0.053879634 -0.13455018 0.10649445 -0.124452 -0.039016224 -0.15970136
0.1744608 -0.09945591 -0.016953906 -0.13496381 0.07090095 0.040596314 -0.09455907 0.020366093
0.017871182 -0.09236693 -0.04518758 -0.10280489 -0.039821114 -0.047342725 0.018371617 0.05305628
-0.29200745 -0.121840216 0.12204993 0.09969383 0.0080597475 -0.069093265 -0.06318907 0.13320947
-0.17918544 -0.1991425 -0.08804947 0.0090672495 -0.06824307 -0.06496903 0.09136706 0.009970584

a2c_network.actor_mlp.2.weight f4 [64, 128]
00000000: 6385 773d d2b6 343e 6755 cc3d 0b16 38bb
00000010: 9f63 4e3e 308c a0bd dfaa 47bd c1da a9bd
00000020: 03f7 053d 3a08 49be 1e78 9d3c da49 8d3a
00000030: fb84 113e f264 7b3d 71e8 073d c190 0b3e
00000040: f42c 033d 2804 1cbd 173f 363d 9b29 47be
00000050: c62c 7abd 699a f93a 7cdd c0bb 9550 9d3c
00000060: 42d4 09bc 2d69 d4bd ca29 a43d 6eeb 5e3e
00000070: a654 533d c9b2 87be 7619 15bb 8a47 94bc
00000080: b844 a6bd ed96 043d ae70 93be 42ab 0dbe
00000090: bb08 c23b ce80 98bd c43b 4cbe 9b4f 2bbe
000000a0: c17c bbbd 7c28 1dbc 91e1 ff3c cf4f 7b3c
000000b0: 4a75 b5bd 0eb9 bd3d d34a 58be f426 423c
000000c0: 1774 06bd ccbb eabc 1ffd 113e a100 dd3a
000000d0: 9806 37be a8c3 53bd e71b 2abe ea37 35be
000000e0: 3975 29be 6771 81bd b6ac 103e 0dac 91bd
000000f0: 349f 8e3d 12df d13c 580a 503d fb43 74bd
00000100: c9c4 cc3b 59b3 d8bd 0de9 68be cd11 a7bd
00000110: c04b f83c 3050 ebbc 00d2 a43d c67e 40be
00000120: 64ac 33bd d050 223e 5e31 39bd 6ba6 043e
00000130: 5146 dd3d eff1 503c 4b1b 15bd 6955 8d3d
00000140: c690 9ebb a613 5ebe ae69 ef3c d055 f5bd
00000150: 24ab 79bd 4782 24be 4b5c 3ebc 4bd1 273e
00000160: e706 573d f77b ddbd 1c2d 763e 3324 983d
00000170: e949 97bd d74a 9cbd d717 963d 9195 a3bd
00000180: 94b8 0abe 0ca4 01be 4915 24be 51a2 e83c
00000190: 878f 0f3e 9e24 c1bd 381f 003d 8ea5 4abd
000001a0: 8813 b33d 2196 b8bd 7a4f 47bd e02b cdbb
000001b0: f028 fc3d ba32 f83b 3904 22be 3095 773d
000001c0: ce14 a4bd 9dac c7bd eeff c43c 75fc 463c
000001d0: cbf4 39bd a266 87bb 2be3 083d 56e0 c6bd
000001e0: 53c9 66bb fdd6 4bbd 3428 10be 7d90 b5bd
000001f0: 5ace 11bd 145f b1bd 0bae 1fbd d3a8 883c
00000200: 7bc1 38be 13fc 3bbe 6613 dbbd 5fc7 f6bd
00000210: 5434 0d3e e720 56be 608d a8bd 7e91 08be
00000220: 5d4e a53d 95c1 2f3d 016b 183d 0cd5 e7bc
00000230: 5746 74bd 6d7a 34be af83 ee3d ddc6 813d
00000240: 2212 e8bc 60a2 d4bd 3246 e53b 93af 993c
00000250: 3ab7 093e 300f 94bb fff7 433c 333f 28ba
00000260: 90e2 7dbe 4b33 5f3d a042 b63d 9be7 ddbc
00000270: 236d 2cbd 7212 08be 0ca7 133d 200b bbbd
00000280: 0d4d 3d3c dfed f0bd ecbe 42bd b6a4 1fbe
00000290: a045 94bc cd9e 2bbd 1017 f4bc 5562 0fbe
000002a0: 12ef 823d 635c f6bd 4777 8e3c d642 ac3d
000002b0: bcb6 fabd dc6d 49bd 4c71 f8bb 0a03 8a3d
000002c0: 9f3f adbd 90ba cb3d c6fc 0d3e ed20 47bd
000002d0: 9d11 82bd caa8 27bd 50ed 09be e021 123d
000002e0: aa55 163d 6b30 51be f4f1 cb3d 566d 64be
000002f0: 65e4 033d 02e9 a8bd a8b1 b9bd d27c 83bd
00000300: 9d91 e9bc 1488 dc3c 1145 d7bd 8dbc 50bc
00000310: 2cc2 923d a242 63be e9d3 94bd 2b32 07be
00000320: 10ad b3bb eef3 95bd 589f 14bd f0da 69be
00000330: d6fc 83be 6923 77bd 0f28 1fbe b5e3 3bbe
00000340: 4aa2 793c 2c93 2abe 8942 55be 4f6b a1bd
00000350: 20c4 643c d27b 90bd 0422 eebd f690 62be
00000360: 60d3 32bd fcd7 11be 1741 963a 3df5 8fbd
00000370: 3a2a 46be 251a 8e3d 5afd ecbd 494e 193d
00000380: ca62 38be f63e 27be 2580 00be 6073 24be
00000390: 48e1 d8bd 23e9 13be f33e 16bd e2b7 27be
000003a0: 5249 aabd 67b1 97be 5054 56bd 33a8 d53b
000003b0: cf0f 57bd 0a04 0f3d 71dd 82be cd0e e83d
000003c0: 8139 ad3c 179a c93d 3c22 f7ba b02a a0bd
000003d0: 1ac7 29bc 8844 9a3c b324 233d b195 c7bd
000003e0: 0128 ccbd 8d2a bfbd d839 1b3d 5612 5dbe
000003f0: d498 8cbe 37a4 c43a 16b7 6bbd 479d 03bd
0.060429942 0.17647865 0.09977227 -0.002808931 0.2015519 -0.07839239 -0.04874694 -0.08293677
0.03270627 -0.19632044 0.019222315 0.0010779456 0.14210884 0.061375566 0.033180658 0.13629438
0.032025293 -0.0380899 0.04449376 -0.19449465 -0.061077856 0.001904321 -0.005885778 0.019203464
-0.008412423 -0.10371623 0.08015783 0.21769497 0.0515944 -0.2650359 -0.0022750772 -0.018100519
-0.08118576 0.032370497 -0.28796905 -0.13834861 0.005921451 -0.074464425 -0.19944674 -0.16729586
-0.09154654 -0.009592172 0.031235488 0.015338852 -0.08860262 0.09263812 -0.21122293 0.011850107
-0.032825556 -0.028654002 0.14256714 0.0016861149 -0.17873609 -0.051700264 -0.16612206 -0.17697111
-0.16548623 -0.06320458 0.14128384 -0.07112894 0.06963959 0.025619064 0.050791115 -0.059635144
0.0062490446 -0.10581083 -0.22745152 -0.08157692 0.030309558 -0.02872476 0.08047867 -0.1879836
-0.043865576 0.1585114 -0.045213096 0.12954108 0.108044274 0.012752994 -0.03640298 0.06901056
-0.0048390357 -0.21687183 0.029225197 -0.11979258 -0.060954228 -0.16065322 -0.011618684 0.16388433
0.052496817 -0.1081466 0.24040645 0.074287795 -0.07387144 -0.07631462 0.07328766 -0.07987512
-0.13546973 -0.12660235 -0.16023745 0.028397711 0.14019595 -0.09430812 0.031279773 -0.04947429
0.0874396 -0.0901301 -0.04865978 -0.006261334 0.12312496 0.0075744065 -0.15821923 0.06044501
-0.08011781 -0.0974972 0.024047818 0.012145151 -0.04539947 -0.004132108 0.03341977 -0.097107574
-0.0035215213 -0.049765576 -0.14077836 -0.088654496 -0.035597183 -0.08660713 -0.03898434 0.016682064
-0.18042557 -0.18357877 -0.10697059 -0.12049746 0.13789493 -0.20910989 -0.0823009 -0.13336751
0.08071587 0.042909224 0.037211422 -0.02829983 -0.059637394 -0.17624827 0.116462104 0.06336758
-0.028328959 -0.10382533 0.0069968933 0.018760478 0.13448802 -0.004518412 0.011960982 -0.0006418109
-0.24793458 0.054492276 0.088994265 -0.027087977 -0.04209627 -0.13288286 0.03604798 -0.09132981
0.011554015 -0.1176412 -0.04754536 -0.15590176 -0.018099606 -0.04189949 -0.029796153 -0.14002354
0.06393255 -0.1202934 0.01739086 0.084111854 -0.12241885 -0.049177036 -0.0075818654 0.06738861
-0.084594004 0.09947693 0.13865957 -0.048615385 -0.06351016 -0.040932454 -0.13469434 0.035676837
0.03670279 -0.20428626 0.09958258 -0.22307333 0.032200236 -0.08247568 -0.09067088 -0.06420292
-0.028511817 0.026920356 -0.1051122 -0.0127402665 0.071659416 -0.22193387 -0.07266981 -0.13202731
-0.005483277 -0.073219165 -0.036284775 -0.22837424 -0.25778836 -0.060336504 -0.15542625 -0.18348582
0.015236447 -0.16657704 -0.20826162 -0.078817956 0.0139627755 -0.07054867 -0.11627582 -0.2212561
-0.043658614 -0.14242548 0.001146349 -0.07029197 -0.19352046 0.069385804 -0.115717605 0.037428174
-0.18006435 -0.16332611 -0.12548883 -0.16059637 -0.10589844 -0.14444403 -0.036681127 -0.1637874
-0.08314766 -0.29627535 -0.0523265 0.006520295 -0.05250531 0.03491596 -0.2555957 0.11330948
0.021145584 0.098438434 -0.0018854807 -0.07820642 -0.010362411 0.018831506 0.03982992 -0.09745348
-0.09968568 -0.09334288 0.03789696 -0.21589026 -0.2746035 0.0015002553 -0.05754765 -0.032132413

a2c_network.actor_mlp.2.bias f4 [64]
00000000: e523 bbbc 14f6 8fbd d885 ad3d d9e3 083d
00000010: e0cb aabe b026 6fbe 1acf aabd 72b6 04be
00000020: 90d5 e53d 68e0 27be 86ad d1bd 1039 d7bb
00000030: 42a1 67be cf5b 4fbe fd16 423b c1a2 6ebe
00000040: 3a03 62be d829 70be 7ec1 12bd fc4b 16be
00000050: 5d25 173c a576 05bd eae9 25be 83c3 1ebe
00000060: e185 a5be dad0 f13a 953d 22be 8c08 79be
00000070: 8768 03be bf9d c13c 35fa d1bc 73d9 053c
00000080: 7602 fcbd 1af5 30be f534 03bd 1087 3e3d
00000090: 54db 2abe bee3 5cbe 1789 0fbe 7f3b ffbd
000000a0: e11e 563d f04f 38bd 1b58 87be 833d 56be
000000b0: d24d 16be 3e8b 29be a954 72be 5adc 56be
000000c0: 62fa 90bd 0d70 4dbd e607 8f3c 870d 113d
000000d0: 198f 9f3d 9e25 b83d c1ec e53d b4c6 f4bc
000000e0: 83aa d03b c476 3cbd 4499 33bd fef8 67be
000000f0: 1346 023c 0840 dbbd 36bf 33be 1001 e4bd
-0.022844264 -0.070293576 0.08472794 0.033420417 -0.3335867 -0.23354602 -0.08340283 -0.12960222
0.112223744 -0.16394198 -0.10238175 -0.0065680817 -0.22620109 -0.20249866 0.0029615753 -0.23304273
-0.22071543 -0.23453462 -0.03582906 -0.14677423 0.009225217 -0.03258385 -0.16202512 -0.1550427
-0.32328704 0.0018449083 -0.15843804 -0.24319667 -0.12832843 0.02363479 -0.025632003 0.00816952
-0.12305157 -0.17280999 -0.032032926 0.046515524 -0.1668523 -0.21571252 -0.1401714 -0.1246252
0.052275542 -0.04499811 -0.26434407 -0.20921902 -0.14678124 -0.16557023 -0.23665108 -0.20982495
-0.07079007 -0.050155688 0.017459821 0.03541329 0.077909656 0.0899155 0.11226798 -0.029879905
0.006367983 -0.0460117 -0.043847337 -0.22653577 0.007951277 -0.10705572 -0.1755341 -0.11133015

a2c_network.actor_mlp.4.weight f4 [32, 64]
00000000: 0da8 66bd bb32 ec3d 8998 03be ffe6 b93d
00000010: 587c ccbc abbc 87bd 5953 a6bd f032 22be
00000020: 464e 45be 43ae babd 1363 a93d 68a4 a9bd
00000030: 7002 88bc 936d a1bd cb77 2fbe 5616 30be
00000040: a349 1dbe 7c61 0fbe 069a 12be 3bb0 3ebd
00000050: 7bbd 09bd 8bd5 4dbd 0865 8bbd 4610 09be
00000060: 58a3 96be 3733 8bbd 87af 4cbd 3214 0fbe
00000070: 8bb2 283d f3f3 2abe ba26 7cbd fb1b 52bd
00000080: 727c 96bd 57fd acbd b0f2 bf3c dafb f43b
00000090: 228c b7bc 30ab 9bbd 7a13 bbbd 6e11 e8bd
000000a0: 1531 e9bd 0325 eb3b 07d3 503d b8f2 9a3d
000000b0: 5661 a0bd 8d3a 15bd 4a63 17bd 0b2e 9e3b
000000c0: 33c3 eeba f8af 08be a93d 2cbe 0157 fabd
000000d0: 2738 06be 94b3 81be 6397 473d 163c b4be
000000e0: ff06 cabd eeaf 03bd e018 f83d 8d95 87bc
000000f0: 0fc3 5ebe 6ef1 e3bd 19b3 8c3d bca6 093c
00000100: 1da9 3c3e 6309 82bd d228 47bd f6df f9bd
00000110: 2afa 0abe fd2f 03be 55a4 06be 045e 083e
00000120: fced 35be 5c60 88bd b01f cb3c 3ea2 af3c
00000130: b31a 273e ebad b8bd 8ee5 d1bb a70b 5fbe
00000140: 4925 d8bd 8288 22bc fff7 713d c7ce 093e
00000150: 5789 08be 76c0 b53c d219 72be 65b9 913c
00000160: d26a 26be 43de 023d 7bf9 9abd 9ce3 683d
00000170: 4f65 8c3d 1882 64bc 444e cebd 64ee 193e
00000180: 1a76 cc3d 5e73 31be a73d 08be 7a29 2b3e
00000190: 5ae6 95bd 05a1 17be 3266 a5bd 8703 473d
000001a0: 0c05 733c 53f8 86bc 1b4e a73d f091 94bd
000001b0: 246d 4ebd ad70 9d3d 32fb dcbd 6442 9ebd
000001c0: ec7a 1fbd 2c91 1cbc 548b 84bd 5544 b1bc
000001d0: 8357 15bd 9d44 8f3d cbba 6ebc 44b8 033d
000001e0: 820f c0bd e1b6 6abd 8a82 d03c c962 cfbd
000001f0: f3ef c7bb d9e5 07be 466e 9e3c 9894 5cbd
00000200: f1e7 46be e91c b8bd 43d1 fabd d782 e83c
00000210: c11d 86be 2973 c8bd 9d5c 80be 78e7 863d
00000220: f92a 27be dedb 9abd 3175 693d bb25 b6bd
00000230: 37b6 cdbc 86ce a7bd df95 02bb 2a82 c7bd
00000240: dc74 39be 682f 10bc e674 d1bd cc8b a3bd
00000250: 30b6 d8bc 83ac 96bd 741e dfbd 99a7 ba3d
00000260: 35df 403d c819 d13c 52af 9cbd 09cb c3bc
00000270: ea56 73bd 84dc f73c 3b80 903c dfea 1b3d
00000280: f314 26bd 9373 df3c 42d8 083e cbc7 33bd
00000290: e965 85be ad9e 08be 4868 f8bd e132 d6bd
000002a0: 311f bdbd 5918 9a3d 63b5 ed3d ee54 13bb
000002b0: f818 25be b9d9 fd3d ed5a e2bc 3607 0bbe
000002c0: 5ee1 f8bc e1c6 98bd 905d 22bc 3a71 4ebc
000002d0: 840f 44be 2a3a 2cbe 58e4 1abd 2d3b 7f3c
000002e0: 0a0c 41bd 8ebf d93c 34ad 76bd 085a 1bbe
000002f0: 2570 d4bd 9426 c8bd be10 c6bc 3b14 b63d
00000300: c9ce 9ebd 0aef 0f3e bec5 a9bd db92 17be
00000310: ac6a 30be b168 69ba 5d8d 343d 198f 2c3e
00000320: 6653 89be e703 5fbd 59b9 efbd 83ea 3fbd
00000330: baaa 9bbd 41ae c4bc 0cff 7abd 45f2 d0bd
00000340: c826 5dbe 1b10 243d d90e ad3d d7e3 e43d
00000350: b2c5 0fbd 67c9 21be 68fb 1fbd 76e1 db3d
00000360: 5d21 a3bc 3d97 723c 853b 9fbd fc0c 89bd
00000370: 71c0 ef3c 4a0a d7bd 05a2 4cbe e860 c6bc
00000380: 526b 313d 712c 59be 6a6c 10bd c1b3 afbc
00000390: dc96 a7bd 55e1 91be 85e6 19bd 8f22 cb3d
000003a0: 7c65 89be 6f51 23be f8a3 db3d 79d1 ecbc
000003b0: 8a5e 253c 4663 0a3e 751f 48bd 7198 8cbd
000003c0: 887a 3bbe ae04 63be c9ff 33be 5992 e6bd
000003d0: 4a42 b7bd f488 2fbd b8c3 0ebc 8cde 20be
000003e0: d178 2a3d 64e9 13be ac6e 35bd 2456 a6bc
000003f0: 81bd aa3d 4c4e 09be 9743 3d3d c455 01bd
-0.05631261 0.115331136 -0.12851156 0.09077262 -0.024961635 -0.066277824 -0.08121366 -0.15839744
-0.1926814 -0.09115269 0.0827085 -0.08283311 -0.016602725 -0.07882228 -0.17135541 -0.1719602
-0.15360121 -0.14002031 -0.14316568 -0.046554785 -0.03362797 -0.05025248 -0.068063796 -0.13385114
-0.29421496 -0.06796878 -0.049972083 -0.13972548 0.041185897 -0.16694622 -0.06156037 -0.051296216
-0.07347955 -0.08446758 0.023431152 0.007476312 -0.022405688 -0.07601011 -0.09134574 -0.113314494
-0.11386315 0.007176043 0.0509825 0.07565826 -0.07831065 -0.03643279 -0.036959924 0.004827266
-0.0018216133 -0.13348377 -0.16820396 -0.12223626 -0.13107358 -0.2533232 0.048728358 -0.35202092
-0.09864616 -0.0321502 0.121141195 -0.016550804 -0.21754096 -0.111300334 0.06870098 0.008401569
0.18423887 -0.063494466 -0.048622914 -0.1220092 -0.13571993 -0.12811275 -0.13148625 0.13317114
-0.17766565 -0.06659004 0.024795383 0.021439668 0.16318779 -0.09017547 -0.006405539 -0.21781789
-0.105539866 -0.009920241 0.059074398 0.13457786 -0.13333641 0.0221865 -0.23642662 0.017788598
-0.16251686 0.031950247 -0.07567116 0.05685769 0.068552606 -0.013947032 -0.10073522 0.15032345
0.099834636 -0.17329165 -0.13304769 0.16715041 -0.07319327 -0.14807518 -0.08076133 0.04858735
0.014832746 -0.016475832 0.08169194 -0.07254398 -0.050397053 0.07687507 -0.10790099 -0.07727507
-0.038935587 -0.009556096 -0.06471887 -0.021639029 -0.03646041 0.06995509 -0.014570902 0.03215815
-0.09377958 -0.057303313 0.02545287 -0.10126264 -0.006101602 -0.13271274 0.019339692 -0.053852648
-0.19424416 -0.08989889 -0.12246945 0.028382702 -0.26194575 -0.0978759 -0.25070658 0.06587118
-0.16324987 -0.075614676 0.056996528 -0.08893915 -0.0251113 -0.08193688 -0.0019925756 -0.09741624
-0.18110985 -0.008800365 -0.10227375 -0.079856485 -0.026454061 -0.07357123 -0.1089448 0.09113998
0.047087867 0.025524989 -0.07650627 -0.023900526 -0.05940906 0.030256517 0.01763927 0.038065787
-0.040547322 0.02727679 0.13363746 -0.04389171 -0.26054314 -0.1334178 -0.12129265 -0.10458923
-0.09234465 0.07524175 0.116068624 -0.0022481042 -0.16122806 0.12395043 -0.027631247 -0.1357697
-0.030380901 -0.07459808 -0.009910002 -0.0126002375 -0.19146544 -0.16819063 -0.03781542 0.015578073
-0.047130622 0.026580598 -0.060223773 -0.15171063 -0.10372952 -0.09772983 -0.024177905 0.088905774
-0.07754285 0.1405603 -0.082896695 -0.14802115 -0.17228192 -0.0008903845 0.044080127 0.16851462
-0.2682144 -0.05444708 -0.11705274 -0.046854507 -0.07600923 -0.024008872 -0.061278388 -0.10202459
-0.21596825 0.040054422 0.084500976 0.111762695 -0.035100646 -0.15799485 -0.03905812 0.10736363
-0.01991337 0.014806566 -0.07775024 -0.0669193 0.029266568 -0.10500009 -0.1998368 -0.02421613
0.04331524 -0.2120836 -0.03525964 -0.021448018 -0.08183071 -0.28492227 -0.037573356 0.09918701
-0.2683524 -0.15949033 0.10724634 -0.028908478 0.010093341 0.13514432 -0.048858125 -0.068650134
-0.1830846 -0.22169754 -0.17578043 -0.11258382 -0.089481905 -0.042855218 -0.008713655 -0.15709895
0.041619126 -0.144445 -0.044294998 -0.020304747 0.08336926 -0.13408774 0.046207037 -0.031575933

a2c_network.actor_mlp.4.bias f4 [32]
00000000: 6ed5 61be f1d2 ff39 3c89 893c b34a 6cbe
00000010: ec1a 3ebe 396f edbd 0772 77bc 2ab6 9ebd
00000020: 49b1 cc3c 44c3 a8bd 7ac7 b23d e973 c1bd
00000030: c4e5 dcbd 4612 1dbe e507 2dbe d102 c2ba
00000040: b1ab 4ebd 3277 2d3e 119b 8bbd 5bb2 febc
00000050: cc9a a23d e224 d73c d44f 1fbe 860e bdbc
00000060: 5a6f 51be b86d bd3d 323f 42be 6c8d cdbd
00000070: c4b9 25be f733 e9bd 535f 41be df29 a0bc
-0.22054073 0.00048794554 0.016789071 -0.2307537 -0.18564957 -0.1159348 -0.01510287 -0.07749589
0.02498688 -0.08240369 0.087294534 -0.09445936 -0.10786012 -0.15339002 -0.16897543 -0.0014801865
-0.050456706 0.1694 -0.06816686 -0.031090906 0.079396814 0.026262704 -0.15557796 -0.023078214
-0.20452634 0.09249443 -0.1896942 -0.1003674 -0.16184145 -0.11386865 -0.1888402 -0.019551216

a2c_network.value.weight f4 [1, 32]
00000000: 2c0a 093d 8b94 523d ccd0 1a3d dc7c be3d
00000010: 596a ecbb f6de 773d fa14 853d bf2e a9bd
00000020: 0049 e0bc 13ee 8a3d 9452 2bbd 5684 843c
00000030: 7059 1c3d d1b7 3e3d 86e8 6d3c 9acf 023e
00000040: fdfd 8e3d 3853 343e 38c4 c93c 7d0e e23c
00000050: 26db 163d 4d6d d63c db0a ab3b e77e 38bd
00000060: f8cd a23d b7fa 153d dd55 803c 4cd9 e6bc
00000070: 4429 823c e416 b63c 7800 03bd 10d5 32bc
0.033456966 0.051411193 0.03779678 0.09301159 -0.007214826 0.060515366 0.064981416 -0.08260869
-0.02737856 0.0678369 -0.0418268 0.016176384 0.03817123 0.04656202 0.01452077 0.12774506
0.06982038 0.1760987 0.024629697 0.0275948 0.03683009 0.026175166 0.0052198 -0.0450429
0.07949442 0.036616053 0.015665943 -0.028179787 0.015888818 0.022227712 -0.03198287 -0.010915056

a2c_network.mu.weight f4 [7, 32]
00000000: 6372 7abc c6f8 20be 7148 2cbd b235 45bc
00000010: 551b 273e 113c 1abe d095 123e 9755 fcbc
00000020: 4a05 61be 2700 2b3e 5499 173e 4005 8e3e
00000030: c8b0 1fbe ef2a 183e a43b e23d b64d b1bc
00000040: 58c7 bebe 5ed6 88bd 39e8 9dbe 1dc8 bcbd
00000050: 7d45 553e cfb1 b2be e975 abbe d9f6 afbe
00000060: bb99 22be ccc2 c63d c929 7ebe 9379 fd3c
00000070: bfcf 94bd 3d36 12bd 2af2 83bc 949c 4abe
00000080: 57a4 9e3e 98a0 023d 1953 c8bc d4ec cc3d
00000090: ebaa a43e c354 233d 6d00 8cbe 485b b53c
000000a0: 8641 52be 8f06 9f3b abd4 47be 57d5 a0bb
000000b0: c431 ae3d 6b6a d93d ce1a a73d 71d2 7c3d
000000c0: 850a a8bd 09a3 abbd 0197 37be 3c81 a23d
000000d0: f05c 80be d94a 70bd f52c 833d d8ae b9bd
000000e0: 2771 a83b b9cc 2fbe e61e 5b3d b1ed 67bd
000000f0: f928 0bbe 7f5c 4b3e cbac af3e 06f1 1ebd
00000100: 65a0 ba3c 8634 77bd 6830 533d 9e68 f63c
00000110: 1a24 15bd 4ea2 923d 7268 c4bb 4693 4ebe
00000120: 4c67 ee3c 4dd4 74be cf49 23bd 89b0 8b3d
00000130: e00f 593e 85c2 81bc f276 6ebd e93e a13e
00000140: 150b 97bd 3360 9a3d 5a10 a4bc 9508 d13b
00000150: 688d 48be 72ae 213e 01e8 a7bd b40b 3ebd
00000160: 4901 503e 10f0 a4be 38e6 a63c f5f6 c53a
00000170: 8497 293e 2f72 ef3d 942d 083e b906 bc3e
00000180: b897 923d d595 193e 08ba 08be 36b1 223e
00000190: 77a9 0ebd b5fe 323e 83d4 f43d 0356 edbd
000001a0: 2416 8dbe 215a 933e 1da2 7b3e 790b 963e
000001b0: 59cc 22be c2a0 923e c823 af3e 9712 8ebe
000001c0: adce aebc b522 643d 44fd 28bd 7205 47be
000001d0: a475 313e 6817 bcbe 8b68 e5bc 170d 52be
000001e0: 200c 3e3e e941 083e 375b 4cbd 3f1e 973e
000001f0: e978 d63d 7f12 903c d180 3d3e 28a3 ccbd
00000200: 08f8 97be 44a0 413e 6c91 f0bd edf1 963d
00000210: 68c7 133e fd9d db3d 9a52 14be b40a 7d3e
00000220: 6808 41bd 6f1d 74bd 8522 6d3e 4436 4c3d
00000230: 825f cd3d 95ab f33d 9896 49bd ec6a f03d
00000240: 6955 84be fe0d a1bd 767a 023e 8a45 46bd
00000250: 8c91 c6bd 12be 5f3e 17d4 0f3e 2bb7 433e
00000260: abb7 093e cdb8 4dbc faa3 51be 5905 05be
00000270: 6a02 4ebe 4283 443d c671 513e 7ef7 bb3e
00000280: 4a38 4a3e f3fc 4cbd e010 95bb 1486 cf3d
00000290: 4b13 933d 71f7 c5bd 8c55 2c3e fea2 0c3e
000002a0: b600 47be 1264 4f3d 7bd5 893e dedb 293e
000002b0: 7daa 33be 3823 5d3d 6677 933d 965f f13c
000002c0: 77ea 53be 2b1b 57bd 3510 6abe 3f33 3fbb
000002d0: cd82 833e e187 50be 0764 afbd 0055 dbbd
000002e0: cf36 ad3e 62a1 573e 1af9 10be 6f26 a73e
000002f0: 96ff 9bbd 91e7 033e 3eb7 713b 68a8 163e
00000300: f8f1 b23c 09eb 963d df56 c9bc 3513 03bd
00000310: 573e d1bd 1833 5e3c d554 24be 5c6a 0f3e
00000320: aeb8 a23d 323b 71be 6fcb 5dbd bb92 f3bd
00000330: 6a60 d93d f6bd 11be bcf6 92bd 913d f13d
00000340: 77d7 73bc ea9a b5bd 5a6f 3b3e 189c 033e
00000350: 92c3 92be 9d85 e43d 06a3 f53c 5843 e23c
00000360: eef7 2c3c 9381 b1be 0c41 94bb 908c 6b3d
00000370: f0b8 0d3e ea94 0d3d f2b8 15bc 5e9f b93c
-0.015286061 -0.157199 -0.042061273 -0.012036728 0.1631902 -0.15061976 0.14314961 -0.030802531
-0.21974674 0.16699277 0.14804584 0.2773838 -0.1559478 0.14860128 0.11046532 -0.0216435
-0.37261462 -0.06681512 -0.30841234 -0.09217856 0.20827289 -0.34901282 -0.33488396 -0.34368017
-0.15878956 0.09705123 -0.24820627 0.03094176 -0.07266187 -0.035696257 -0.016106684 -0.19786292
0.30984756 0.031891435 -0.024453687 0.10006109 0.3216165 0.039875757 -0.27344075 0.022138253
-0.20532808 0.004853077 -0.1951472 -0.0049082446 0.08505586 0.10616001 0.081594095 0.06172413
-0.082051314 -0.08380706 -0.17928697 0.07934806 -0.25070906 -0.05866513 0.06405059 -0.09066552
0.005140442 -0.17167939 0.053496264 -0.056623165 -0.13589849 0.19859503 0.34311518 -0.038804077
0.02278156 -0.060352825 0.051559836 0.030079182 -0.036411382 0.071598634 -0.005993896 -0.20173368
0.02910199 -0.23909111 -0.03986531 0.06820781 0.21197462 -0.015839824 -0.058218904 0.3149331
-0.073751606 0.0753788 -0.020027328 0.006379197 -0.19585192 0.15789202 -0.08198548 -0.04639788
0.2031299 -0.32214403 0.020373449 0.0015103506 0.16561705 0.11691701 0.13298637 0.3672388
0.07157844 0.14998563 -0.13352215 0.15887913 -0.034829583 0.17479976 0.11954596 -0.11588671
-0.27555954 0.287797 0.2457356 0.29305628 -0.15898265 0.28638273 0.34206986 -0.27748558
-0.021338785 0.05569716 -0.041257158 -0.19435671 0.17330033 -0.36736608 -0.028003952 -0.20512806
0.18559313 0.13306393 -0.049891677 0.29515263 0.104722805 0.017586945 0.18506171 -0.09992057
-0.2968142 0.18908793 -0.11746487 0.073703624 0.14431536 0.10723493 -0.14484635 0.24711114
-0.047127157 -0.059598383 0.231577 0.04985644 0.10027982 0.11897961 -0.049215883 0.11739144
-0.25846413 -0.07863997 0.12742028 -0.04840616 -0.096957296 0.2184985 0.1404575 0.19112842
0.1344897 -0.012556267 -0.20472708 -0.12990321 -0.20118108 0.04797674 0.20453557 0.3671226
0.19748035 -0.05004592 -0.004549131 0.10132995 0.07181414 -0.09666336 0.16829509 0.13734052
-0.19433865 0.050632544 0.26920685 0.16587779 -0.17545505 0.053988665 0.07200508 0.029464524
-0.2069491 -0.052516144 -0.22857745 -0.0029174832 0.2568573 -0.20364334 -0.085640006 -0.10709572
0.33830878 0.21057656 -0.14157525 0.3264651 -0.076171085 0.12881304 0.0036882902 0.1471268
0.021843895 0.07369048 -0.024577556 -0.03200074 -0.102169685 0.013561986 -0.16047986 0.14005417
0.07945381 -0.23557737 -0.054149088 -0.11893221 0.10614093 -0.1423262 -0.07175967 0.11779321
-0.014882914 -0.08867438 0.18304196 0.12852514 -0.28664833 0.11158297 0.029984962 0.027620003
0.010557158 -0.3466917 -0.0045243558 0.057507098 0.1384008 0.034565844 -0.009138333 0.022659

a2c_network.mu.bias f4 [7]
00000000: b4b2 183c 64dd 86be 66b7 13be 1718 19be
00000010: 1199 753d d433 b5bc ed2c 193c
0.00931995 -0.26340783 -0.1442543 -0.14950596 0.05996043 -0.02211944 0.00934909

exp_avg f4 [7]
00000000: 8555 06bc 3d15 9abb 127f 5b3c 8fd2 29bc
00000010: 31a8 eb3a bf7a 41bb aa6b a8ba
-0.0081991 -0.004702239 0.013396995 -0.0103651425 0.0017979202 -0.0029522625 -0.0012849469

exp_avg_sq f4 [7]
00000000: e597 4a39 e81c 3d39 763a 4b39 4822 5c39
00000010: 52e3 6139 4dce 5939 cedf 7139
0.00019320806 0.00018035213 0.00019381367 0.00020993606 0.00021542356 0.00020771586 0.00023066925

exp_avg f4 [128, 18]
00000000: 36a5 08bb 6c04 2039 fabb 71ba af31 64bb
00000010: 2096 a33a 3ad1 a0ba 2a33 ba39 b107 2cbb
00000020: 7860 ee3a cad7 fc39 2154 55bb 8016 d63a
00000030: c781 88ba df80 813b e153 d63a c66f 86bb
00000040: 1ccd b2b9 e320 b4ba 9cee b5ba 6bce 703a
00000050: cf6d eeba d0d8 2fbb 202d 823a 44bb a3b9
00000060: ae41 90bb 8498 3dbb e985 7b3b 0ccf 063a
00000070: aaa1 82bb 23fa 4dbb 9dfa 4aba e93d 0f3c
00000080: ec22 643a f0ef 68bb d017 e13a 0b4a 40ba
00000090: 2e71 2fba adee b639 b092 19ba 098e abba
000000a0: aa76 953a 329d 5e39 59ad 2abb 6286 09ba
000000b0: 2aa9 973a 8cff 7238 26b0 cab9 4854 b5ba
000000c0: a21d 81ba cfd7 c83b c934 6b3a a347 b7ba
000000d0: 9a4b 553a 1e25 80b9 3c83 3e3a 3824 c5ba
000000e0: 098d ab3a dacf 983a ea1e 7ab9 fa5d a2ba
000000f0: 941b 7a3b c463 313a 7a91 74bb a0b7 87ba
00000100: 2958 963a 4102 e337 206f 41b9 a7ba 6c3a
00000110: e94c 19bb a7d0 653b 6d8f 2abb e821 9f3a
00000120: da88 8aba c555 33bb 24a5 073b 758c d8ba
00000130: 7962 7739 3683 c2ba 17fe c13b 77c7 a5ba
00000140: 3f09 d1ba 45bf 073a fd6e 05bb e0f5 893b
00000150: f201 fcba 66fb 88bb eb41 393b 4a63 71b9
00000160: 97e9 8bba 6665 a3ba 31b2 e839 fc7c af3a
00000170: a40a b3b8 2eae 403a f2c1 ae39 701e acb8
00000180: 86d9 e938 3f12 fc3a ef00 3d38 5f3a 1cbb
00000190: 21f0 633b f979 6bbb f464 1b3a 1886 923b
000001a0: 7e68 47bb 19f9 e53a 29d1 c7ba 3bbf 923a
000001b0: cfd5 953a 83b3 99b9 c103 523a f1e0 f03a
000001c0: dd77 1aba 89ea a5b9 38ca d43a 19d1 da3a
000001d0: 60c0 f0ba c4f0 b6ba a56b 1e3b 0c05 d8ba
000001e0: a159 1e3a eb4e 62b9 8665 22bb ebc1 513b
000001f0: f0d7 aeba 43f2 a13a e779 e23a 65f0 a5ba
00000200: 7dad ea3a 7fe9 313b dfd9 a9b9 86a8 0039
00000210: 57c7 a63a 599f 343b 496b 37bb 2336 86ba
00000220: 4e96 883b fe9b 07bb 2c9b 14ba 4b4c 323b
00000230: bab8 7aba c4bc 983b be33 aeb9 7c74 c83a
00000240: f1d6 a73a 9843 eaba bad4 073b 459a fc3a
00000250: 2c87 acba 09fa b4ba 2750 bb3b c4a5 8e3a
00000260: 4920 7ebb e05b 60ba 1d0c a63a 513b 9c3a
00000270: d5b7 533a 7d56 5ebb 083a ebba ce8d 743b
00000280: 8bf0 deba 04ea 6c3a a579 033b 3d5c dbba
00000290: 02cc e13a 141a 4f3b 6583 d0ba 9171 d3b8
000002a0: 98cc 433b a265 da3a a846 6fbb 59a7 0dba
000002b0: 0cc2 f23a 379f 76ba 3f3c 0639 8d35 e0ba
000002c0: 74c5 03bb f0bf 9c3b d54d 00ba f232 c23a
000002d0: 8e71 633a a865 32b9 54ac 8739 b305 a73a
000002e0: 0917 ceb9 b012 613a 7953 9fba 909c 3e3a
000002f0: ee53 6d39 ed8f 5d39 0c6b 543a c1cd 0bbb
00000300: 60ba 4c37 619c 0a3b dd10 19b7 8925 b53a
00000310: 7322 a03a b5ff 9039 e5c7 1db9 680f a3ba
00000320: 3695 ac3a eba8 97b9 fe27 dbb9 c5ac 223a
00000330: ef06 cc3a 5954 96b9 bcaf cc39 18aa 033b
00000340: 2aeb 5cba ede2 523b 085b 563a 5556 68bb
00000350: 5bcc 8b3b f57f 55ba 14e1 033b 9989 c8ba
00000360: e13c 9b39 4334 f139 8b08 cb39 e684 483a
00000370: 1748 04ba 7efc 963a 51df ba3a 03da c73a
00000380: eac4 57ba 8145 313a c25d 103b 076a a13a
00000390: 815d 1139 a3ac 4bbb abce 583a 20ed aab7
000003a0: e073 503a 3991 07ba 096f 2eba 9da7 4c3b
000003b0: 50e3 23bb 70b3 86ba 3c8d d33a 8198 79ba
000003c0: 5237 7bbb 486d cfb7 cd7a 133b 515c 23bb
000003d0: 62dc 6d3a 706a 63bb 1db3 3e3a b5a2 b23b
000003e0: 434d 8abb 2243 caba 1a11 16bb 9d7d 833a
000003f0: 09cd daba 5f01 713a be36 c3ba dca1 2fbb
-0.0020850427 0.00015260436 -0.0009221431 -0.0034819653 0.0012480654 -0.0012269386 0.00035514805 -0.0026249702
0.0018186709 0.0004822596 -0.0032551365 0.001633361 -0.0010414653 0.00395213 0.0016351902 -0.00410268
-0.00034103624 -0.0013742711 -0.0013880315 0.0009186032 -0.0018190684 -0.0026832111 0.0009931661 -0.00031229306
-0.004402361 -0.0028930018 0.0038379377 0.0005142547 -0.003986557 -0.003142961 -0.0007743033 0.008742788
0.00087027135 -0.0035543405 0.0017173234 -0.0007335252 -0.00066925853 0.00034891572 -0.0005858345 -0.0013088594
0.0011403162 0.0002123013 -0.0026043265 -0.000524616 0.00115708 5.7935293e-05 -0.00038659683 -0.0013834322
-0.000985075 0.006129242 0.0008972404 -0.0013983141 0.00081365707 -0.00024441717 0.000726748 -0.0015040701
0.0013088296 0.0011658624 -0.00023853374 -0.0012387626 0.003816341 0.00067668804 -0.0037318156 -0.0010354407
0.0011470366 2.7061558e-05 -0.00018447312 0.0009030499 -0.002339179 0.0035066993 -0.002602543 0.0012140842
-0.0010569349 -0.0027364355 0.0020697797 -0.0016521352 0.0002359244 -0.0014840129 0.0059201824 -0.0012647946
-0.001594819 0.00051783427 -0.0020360344 0.004210219 -0.0019226654 -0.0041803597 0.002826805 -0.00023020539
-0.0010674474 -0.0012466132 0.0004438325 0.0013388689 -8.537367e-05 0.00073501735 0.00033332367 -8.2072685e-05
0.00011150823 0.0019231512 4.506198e-05 -0.0023838503 0.003478058 -0.0035930856 0.0005927824 0.0044715516
-0.0030427272 0.001754555 -0.001524483 0.0011195907 0.0011431518 -0.0002931618 0.00080114236 0.0018377585
-0.0005892495 -0.00031645995 0.0016234582 0.0016694396 -0.0018367879 -0.0013957252 0.0024173048 -0.0016480996
0.00060405774 -0.00021582439 -0.002477975 0.0032006453 -0.0013339501 0.0012355525 0.0017278761 -0.0012660144
0.0017904487 0.002714723 -0.00032396519 0.00012269811 0.0012724203 0.00275608 -0.002798753 -0.0010239523
0.0041683083 -0.0020692344 -0.00056688744 0.0027206119 -0.00095642696 0.0046611745 -0.00033226417 0.0015293504
0.0012805146 -0.0017872928 0.002072616 0.001927205 -0.0013162843 -0.0013807426 0.005716342 0.0010883142
-0.0038776568 -0.00085586123 0.0012668405 0.0011919533 0.00080764043 -0.0033926063 -0.0017946372 0.0037315967
-0.0017008943 0.00090375566 0.002006152 -0.0016735863 0.0017226937 0.0031601237 -0.0015908299 -0.000100824174
0.0029876586 0.0016662369 -0.003651062 -0.000540366 0.0018520965 -0.000940788 0.00012801679 -0.0017105803
-0.0020106705 0.004783623 -0.00048944104 0.0014816208 0.0008676284 -0.00017013273 0.000258776 0.0012742787
-0.00039308544 0.00085858535 -0.0012155614 0.00072712544 0.00022633348 0.00021129819 0.00081031094 -0.0021332356
1.2202741e-05 0.0021150338 -9.123437e-06 0.001382039 0.0012217298 0.00027656337 -0.00015047153 -0.0012440505
0.0013167027 -0.00028926818 -0.00041800732 0.0006205554 0.0015566031 -0.00028673073 0.00039040844 0.0020090397
-0.0008427376 0.0032178715 0.0008177017 -0.0035451849 0.0042663044 -0.0008144372 0.002012317 -0.0015299796
0.00029609262 0.0004600604 0.00038725542 0.0007649198 -0.00050461426 0.001151934 0.0014257227 0.0015247468
-0.00082309416 0.0006762371 0.002202854 0.0012314924 0.0001386311 -0.0031078241 0.0008270542 -2.0376e-05
0.0007951837 -0.0005171481 -0.0006654119 0.0031227835 -0.0025007315 -0.0010276865 0.0016140114 -0.0009521321
-0.0038332534 -2.4727211e-05 0.0022503615 -0.002492685 0.0009073672 -0.0034700893 0.0007274615 0.005451525
-0.004220636 -0.0015431384 -0.0022898377 0.0010031943 -0.0016693185 0.0009193625 -0.0014893634 -0.0026799357

exp_avg_sq f4 [128, 18]
00000000: 0807 3838 b06b e537 ebc3 f337 5111 6538
00000010: 78dd 2238 bde1 1f38 d6d9 5838 426b 3138
00000020: 8091 ce37 bced 1438 965c 6738 9b73 8438
00000030: 33a5 8138 fc0e 8d38 db87 9738 4134 3438
00000040: 41e8 5238 b2c2 0d38 acbc 4438 6f80 3138
00000050: e84a 1438 6a57 8238 1c7a 4138 f785 3c38
00000060: 33f7 6138 4793 5838 8439 2938 c589 4238
00000070: 2dd5 8d38 6e81 9938 edb9 9238 a3a2 a338
00000080: 7c3e 8938 b7da 7138 2687 6938 12c3 2d38
00000090: dac1 4038 d1d9 1d38 ce88 f937 c044 7638
000000a0: f304 2d38 ddcd 2538 49f8 7338 af04 5038
000000b0: 911b 2438 5222 2238 7ee2 8438 b642 9838
000000c0: ac05 9938 b962 9f38 f991 aa38 e780 2838
000000d0: 81d9 5838 2711 1038 152b 5537 363f 3a37
000000e0: e4b8 1737 c182 8e37 5c7e 6337 9059 5137
000000f0: 24df bb37 c57b 9637 62b1 5537 c689 3437
00000100: d5f1 cc37 311c ce37 20dc a437 fe94 d137
00000110: e035 c837 3079 0c37 aa67 9737 d6dd 0a37
00000120: 5862 bb37 0fe5 3f37 b0d6 2e37 c354 a637
00000130: 591c 9837 5ac7 9c37 71f5 e537 ff4c 1a38
00000140: 8826 5637 622c 7137 8c73 1838 e588 1b38
00000150: cef6 e137 efd6 0838 1d68 3738 f862 6c37
00000160: 17b8 c937 4413 8437 6e01 f136 ce5f be36
00000170: 1f6a 8336 ff21 0a37 9ba5 cd36 749e e836
00000180: 8536 1f37 3297 1f37 9488 1437 a57e c436
00000190: f499 6237 245f 8337 7ad9 8537 e228 a037
000001a0: cd1c 5f37 0648 d736 f36d 2e37 f835 ae36
000001b0: fce1 ae36 2f5f 9336 00aa 5236 373b af36
000001c0: ed89 8d36 225a a036 478f e536 69bc af36
000001d0: e8f4 b636 3001 5a36 d3b9 e736 d88b f736
000001e0: d727 bb36 a73e 0e37 bfcf ea36 1145 6436
000001f0: e816 cb36 3862 3236 3d5e 4c37 7454 4937
00000200: 19a4 1037 7c38 9237 ffce 5b37 8735 4437
00000210: 8c48 9437 66d2 8137 b3f6 4237 15df 2437
00000220: 777b af37 6687 b437 b1d1 9f37 0d28 c337
00000230: c7d4 b837 c2c7 1b37 a3d0 8b37 3730 fe36
00000240: abef 2f37 bdff 2a37 a28c d636 92db 6e37
00000250: a515 4c37 5762 2e37 8af6 9737 6508 8c37
00000260: 34b5 4237 c4a3 0537 35fe cc37 cb61 be37
00000270: d040 a837 0e81 d337 cbe6 b337 792a 1437
00000280: dfeb 5937 438b d436 8484 0e37 b843 cd36
00000290: e67a c636 0e39 1437 f96e c636 b6c3 ee36
000002a0: 20ec 2237 7f55 0037 6384 d736 43cb be36
000002b0: 0877 1837 1b7e 2837 217e 1f37 3ba2 4e37
000002c0: 67c4 4537 a7e6 c836 416b 2037 4464 8f36
000002d0: 216b e236 44ae a836 53b3 5c36 0fdc e436
000002e0: a64c 9b36 2609 c236 bd51 0637 3526 1037
000002f0: a22d cd36 f5be a036 c56d 1537 17e1 f236
00000300: d40b f836 eee6 1f37 613d ea36 557e 8336
00000310: ba1f 1737 6101 8836 b0d6 9537 2aa5 3037
00000320: a501 1f37 208e 9e37 18ef 6237 ca14 5a37
00000330: 7b16 ac37 30b1 9d37 0c71 3b37 d0fc 7737
00000340: 09f7 b237 4189 b737 9a32 bd37 10ba f137
00000350: 049c ef37 f86a 8a37 5208 b937 978c 6137
00000360: 798a 1b38 5a9e fb37 bf74 f737 e4b8 4638
00000370: 950e 1238 c484 0538 6efe 2738 9d97 0b38
00000380: 96c3 d237 fdf1 1338 d010 2b38 863a 5438
00000390: afc8 5338 76a1 5638 1079 5638 6d5d 4538
000003a0: 9af9 2838 ee1b e437 da48 6f37 7d60 5737
000003b0: 4a2c 1737 a9b6 7437 91b0 2e37 bfe2 4037
000003c0: 0d49 7537 8362 6737 cbbc 6437 a7f3 3d37
000003d0: 6aca 9f37 bb14 c137 def4 a837 2edd d837
000003e0: 630d c237 8500 4837 6627 7937 e853 f336
000003f0: 18b7 1637 9b6c 6e37 e8fb c536 3b94 3d37
4.3875567e-05 2.7349073e-05 2.9059089e-05 5.461398e-05 3.883007e-05 3.811879e-05 5.170129e-05 4.229998e-05
2.4624867e-05 3.5507357e-05 5.516092e-05 6.315784e-05 6.18197e-05 6.726195e-05 7.225546e-05 4.296401e-05
5.0284205e-05 3.3798344e-05 4.6905756e-05 4.23197e-05 3.535571e-05 6.215165e-05 4.612851e-05 4.4947457e-05
5.3874403e-05 5.1635576e-05 4.0346305e-05 4.6381512e-05 6.763111e-05 7.319717e-05 6.996454e-05 7.802739e-05
6.544308e-05 5.766257e-05 5.5677396e-05 4.1428088e-05 4.5956906e-05 3.7634574e-05 2.9746818e-05 5.8715e-05
4.1251024e-05 3.953079e-05 5.816695e-05 4.9595426e-05 3.912632e-05 3.8655773e-05 6.336438e-05 7.260351e-05
7.296665e-05 7.600099e-05 8.133421e-05 4.017437e-05 5.170098e-05 3.434825e-05 1.270582e-05 1.1101181e-05
9.04335e-06 1.6988606e-05 1.3559675e-05 1.2478224e-05 2.2396045e-05 1.7939028e-05 1.27370895e-05 1.0760914e-05
2.4431307e-05 2.4570241e-05 1.9652827e-05 2.4984121e-05 2.3866945e-05 8.372866e-06 1.8048875e-05 8.277091e-06
2.2337932e-05 1.1437819e-05 1.0421194e-05 1.9828212e-05 1.8133012e-05 1.868948e-05 2.741322e-05 3.678817e-05
1.2764365e-05 1.4375053e-05 3.6347235e-05 3.7082373e-05 2.6937018e-05 3.26251e-05 4.3727563e-05 1.4089739e-05
2.404679e-05 1.5744597e-05 7.182526e-06 5.6735944e-06 3.9164584e-06 8.233356e-06 6.128755e-06 6.932585e-06
9.489832e-06 9.512341e-06 8.853287e-06 5.8559986e-06 1.3506495e-05 1.566072e-05 1.5956106e-05 1.9092524e-05
1.32985415e-05 6.415884e-06 1.0396808e-05 5.191887e-06 5.211912e-06 4.392022e-06 3.1391392e-06 5.2223e-06
4.218184e-06 4.7788644e-06 6.8414115e-06 5.2373402e-06 5.4525335e-06 3.2485223e-06 6.9059693e-06 7.3774536e-06
5.5776723e-06 8.478447e-06 6.9979283e-06 3.401485e-06 6.052538e-06 2.6581238e-06 1.2181289e-05 1.2000197e-05
8.621276e-06 1.7430859e-05 1.3101612e-05 1.1694973e-05 1.7676757e-05 1.5475973e-05 1.162074e-05 9.827102e-06
2.0919118e-05 2.1520722e-05 1.9051922e-05 2.3264462e-05 2.2033591e-05 9.28523e-06 1.6667245e-05 7.575403e-06
1.0486615e-05 1.0192333e-05 6.394069e-06 1.4237028e-05 1.2164387e-05 1.0394105e-05 1.8115406e-05 1.669321e-05
1.1605491e-05 7.965547e-06 2.443707e-05 2.2695303e-05 2.0057341e-05 2.5213256e-05 2.1445934e-05 8.831376e-06
1.2989126e-05 6.3343045e-06 8.494713e-06 6.1173596e-06 5.915167e-06 8.8347715e-06 5.9137788e-06 7.1157365e-06
9.71093e-06 7.649301e-06 6.422911e-06 5.686104e-06 9.08762e-06 1.00429415e-05 9.506505e-06 1.2316329e-05
1.17878435e-05 5.987316e-06 9.561715e-06 4.2734046e-06 6.7477963e-06 5.0270773e-06 3.2886935e-06 6.8205477e-06
4.628283e-06 5.7827156e-06 8.006054e-06 8.591965e-06 6.1147884e-06 4.790602e-06 8.90665e-06 7.238366e-06
7.392353e-06 9.530906e-06 6.980889e-06 3.918811e-06 9.007688e-06 4.0532764e-06 1.7862156e-05 1.0528873e-05
9.477521e-06 1.890125e-05 1.3526318e-05 1.2998653e-05 2.0514466e-05 1.8798368e-05 1.1172389e-05 1.478121e-05
2.1334288e-05 2.1879214e-05 2.2554119e-05 2.881608e-05 2.856367e-05 1.6500693e-05 2.2057593e-05 1.3443779e-05
3.7083842e-05 2.999527e-05 2.9499059e-05 4.737907e-05 3.4822693e-05 3.183332e-05 4.005286e-05 3.3281383e-05
2.5125028e-05 3.52729e-05 4.0785235e-05 5.0599243e-05 5.049322e-05 5.1171948e-05 5.1134324e-05 4.705547e-05
4.028678e-05 2.7192724e-05 1.4262472e-05 1.2837464e-05 9.010613e-06 1.4586062e-05 1.0412318e-05 1.1496885e-05
1.4620146e-05 1.37916095e-05 1.3633816e-05 1.1322008e-05 1.9048533e-05 2.3017046e-05 2.0141186e-05 2.5852201e-05
2.3132836e-05 1.192105e-05 1.485073e-05 7.2517323e-06 8.983327e-06 1.4211192e-05 5.9003833e-06 1.12997905e-05

exp_avg f4 [128]
00000000: c7cd c8ba 26e6 01bc 7a30 a3bb eeec 923b
00000010: cf4d bb3b d51e eeb9 b461 2d3b 249f 7d3a
00000020: 170c fe3b c238 8b3b 740d 07bb e007 683a
00000030: b67f 293b 55d9 7abb c78d eab9 2aa2 29ba
00000040: ef59 64bb 6018 973a b67d 59b9 e70f 973a
00000050: 834d 183c 5ffc 363b 694d e53b b386 153a
00000060: 35c5 62bb f772 313b de5c 43ba d261 57bb
00000070: 6acd 80bb 0fda 73ba 192a 3d3b 2ef5 1fbb
00000080: e79f 993b ee9b e439 5869 a03a af5b 28bb
00000090: 5715 803b 6410 90bb 3b29 1a3b 2e8b 87bb
000000a0: b8c9 123b 19e8 f73a 2eb7 79ba 7419 023c
000000b0: bb53 64bb 31a0 1a3a fef8 723b c60e 8c39
000000c0: bbcf 1039 8ec9 14ba db61 8a3a f880 6b3b
000000d0: d7c4 58bb b944 dab9 a913 e8b9 6cfc 163c
000000e0: 2419 8e39 e504 f13a 451e d6ba 0700 7ebb
000000f0: a99e d9ba 01df a4bb 2486 d9ba 83c2 2f39
00000100: a6c1 9c3a d77f ce3b ea37 e23b 44ad 92bb
00000110: b62a ba3b b84e 98b9 a4c2 80bb 6cb5 f0b9
00000120: b929 04bb 17ed 8cbb 28a1 703b 8649 ecbb
00000130: c5e4 8ebb cd9f ef3a 4463 fabb 8235 723a
00000140: d190 ffba 213d 233a c461 63bb 3e37 85bb
00000150: 819a c7b9 b207 6a3b 0555 9dba bf32 c6bb
00000160: 252c e739 c9a2 d6bb 0d37 f03a 5c0e 6bbb
00000170: 082c c0bb 6659 2cba 415d 60bb d9d3 463a
00000180: 3fa2 1cbb 2a80 513b 14b8 2ebb 0187 25ba
00000190: 3984 7fbb 4533 03bb 5c59 c9bb bcbb 003b
000001a0: 25b8 c3ba e7ed 33bb 1a8b 883b 357a 613a
000001b0: ec9e da3a 7c19 81bb 9b9c ab3b c129 683b
000001c0: 0d48 2eb9 7675 ebb9 aa03 33bb da67 7fbb
000001d0: c2e0 93bb b9f0 723b c351 cf3a af0b 8b38
000001e0: e0c3 0f3b cbf9 80bb aba9 753b 8c2d 233b
000001f0: ebba 40bb 5c45 643b 90b9 f138 037e b63a
-0.0015320115 -0.007928407 -0.004980144 0.0044838106 0.0057160626 -0.0004541787 0.002645594 0.0009674898
0.007752906 0.0042487094 -0.0020607384 0.0008851271 0.0025863475 -0.0038276513 -0.0004473759 -0.00064710027
-0.0034843644 0.001152765 -0.00020741564 0.0011525125 0.009295824 0.002792142 0.0069977534 0.00057039707
-0.0034602408 0.002707658 -0.0007452498 -0.0032864702 -0.0039307373 -0.00093022076 0.0028864203 -0.0024407613
0.0046882513 0.00043603725 0.0012238426 -0.0025689413 0.003908794 -0.004396485 0.002352311 -0.0041364646
0.0022398066 0.0018913775 -0.0009525892 0.007940639 -0.0034839946 0.0005898504 0.003707468 0.00026713888
0.00013810296 -0.0005675786 0.0010557728 0.0035935026 -0.003307631 -0.00041631403 -0.00044265136 0.0092154555
0.00027103082 0.00183883 -0.0016335925 -0.003875734 -0.001660307 -0.005031467 -0.0016595763 0.00016761762
0.0011959567 0.006301861 0.006903638 -0.0044762213 0.005681361 -0.0002905035 -0.003929453 -0.00045911537
-0.002016647 -0.0043007242 0.003671715 -0.007210913 -0.0043607675 0.0018281877 -0.007641228 0.00092395407
-0.0019498115 0.00062270655 -0.0034695724 -0.0040654233 -0.00038071352 0.0035710153 -0.0012003487 -0.00604853
0.00044092644 -0.006550167 0.0018326953 -0.0035866713 -0.005864624 -0.00065746007 -0.003423527 0.00075846683
-0.0023900417 0.003196726 -0.0026660012 -0.00063143676 -0.0038988723 -0.0020019573 -0.0061446857 0.0019643148
-0.0014932199 -0.0027455033 0.004166973 0.0008601279 0.0016679442 -0.0039398056 0.0052371747 0.0035425278
-0.00016620774 -0.00044910208 -0.0027315416 -0.0038971812 -0.004512877 0.0037069751 0.0015817214 6.630213e-05
0.002193682 -0.0039360276 0.0037485163 0.0024898974 -0.0029408287 0.003483138 0.00011526339 0.0013923052
