runs/BallBalance_11-16-09-10/nn/last_BallBalance_ep_1000_rew_2.827514.pth (torch, 173671 bytes, 36 tensors)

value_mean_std.running_mean f8 [1]
0	0x3fc4441d22ddedd1	0.1583286686180672

value_mean_std.running_var f8 [1]
0	0x3f7bf6794ef8c337	0.0068268526661519535

value_mean_std.count f8 []
0	0x40df404000000000	32001.0

running_mean_std.running_mean f8 [18]
0	0xbf86ed17b4a2ff73	-0.011194405746550484
1	0x3fb84eca0ee8f208	0.09495222915661128
2	0xbfb3e33e0ad0153e	-0.07768619312272038
3	0xbfa6736ac69fa34e	-0.043849312540095484
4	0x3fb461be8f75002c	0.07961646082276336
5	0xbf76fd75166ebec2	-0.005612809537452969
6	0xbfba1bd4a597f97f	-0.10198716204465617
7	0xbfb8a915b5c5ec85	-0.09633002937146003
8	0x3fd75140c01c9f48	0.36433428536337376
9	0xbfd5e1feff08b830	-0.3419187059943196
10	0xbfc8458f5509e746	-0.18962279941825438
11	0x3fcaeba66bfa2d2b	0.21031646988226646
12	0xbfa31da266068f44	-0.03733546729497886
13	0xbfc3770ba5c2fada	-0.15207048028783882
14	0x3fbaf67b4911c65e	0.10532351049348551
15	0x3fc3244fe1f53775	0.1495456555662106
16	0xbfc9a44a70dc04a7	-0.20032625685420166
17	0x3fbab84a1b6da42a	0.10437453431735891

running_mean_std.running_var f8 [18]
0	0x3fcf4c91c3485562	0.2445242122200098
1	0x3fa1d586bcc226a1	0.03483220152072631
2	0x3fbbb13b37561f5b	0.10817308522211759
3	0x3fd4ac317b43af45	0.32300984418428796
4	0x3fab6f8f22dddbf5	0.05358550358408102
5	0x3f82c28fc02bb2d4	0.009160159160694382
6	0x3f8d5bc6a239f2f9	0.014335204911952714
7	0x400c61fa64fe20ed	3.547840870862379
8	0x3fe7a568c34a4a0c	0.7389415563832826
9	0x4006d55e8889cc0f	2.854184214310869
10	0x40157f52eaa6389b	5.374339739222843
11	0x3fe5dc300536892f	0.6831283666436202
12	0x3feeb0d57c141256	0.9590861724287361
13	0x3ff405047632fd63	1.25122495814852
14	0x3f79e6560c05c01d	0.006323181267688963
15	0x3f725e25d5755974	0.004484317577711717
16	0x3fd1a3f3f25a6827	0.2756318918924329
17	0x3fca59322927b0c5	0.20584704408191193

running_mean_std.count f8 []
0	0x40cf408000000000	16001.0

a2c_network.sigma f4 [7]
0	0xbf0943ed	-0.5361927
1	0xbf36ec30	-0.71454144
2	0xbee4aa35	-0.44661108
3	0xbf0f16f7	-0.55894417
4	0xbef068bb	-0.46954903
5	0xbf06670a	-0.52500975
6	0xbe11a07f	-0.1422138

a2c_network.actor_mlp.0.weight f4 [128, 18]
0	0xbe0a2df1	-0.13494088
1	0x3db07a58	0.08617085
2	0xbe14795b	-0.14499418
3	0x3d6c1190	0.057633936
4	0xbbdcdbc8	-0.006740067
5	0x3e8c9e4b	0.27464518
6	0xbc25dc92	-0.010123389
7	0xbe5ebb55	-0.21751149
8	0xbe4d43a1	-0.2004533
9	0xbe38e108	-0.18054593
10	0x3e332d2d	0.17497702
11	0xbe821572	-0.25406986
12	0x3df45563	0.11930349
13	0xbe266903	-0.16250996
14	0x3e6f76ae	0.23385116
15	0xbe6dd485	-0.23225601
16	0xbda00c3f	-0.07814836
17	0x3e72e109	0.23718657
18	0x3cd1368b	0.025538703
19	0x3e8ab2f8	0.27089667
20	0x3dc5f3b8	0.09665626
21	0xbd8a309a	-0.06747551
22	0x3da6b25f	0.0813949
23	0x3dc47105	0.09591869
24	0x3e2168c1	0.15762617
25	0x3e8b5354	0.27212012
26	0x3e36648a	0.1781179
27	0xbdbc7fef	-0.09204089
28	0x3debbc1c	0.115104884
29	0xbd9fb51f	-0.07798218
30	0x3db9979e	0.09062122
31	0xbe29a112	-0.1656535
32	0xbe66c11c	-0.22534603
33	0xbea73965	-0.32660976
34	0xbe8e432b	-0.2778562
35	0x3e87b3d5	0.26504388
36	0xbdc7de0e	-0.097591504
37	0x3e36e660	0.17861319
38	0x3d6c02fd	0.057620037
39	0xbcd54628	-0.02603443
40	0x3e035445	0.12825115
41	0xbcf6c385	-0.030122528
42	0x3d5e7b57	0.054316845
43	0xbe5584c3	-0.20851426
44	0x3e120e9d	0.14263387
45	0xbe206926	-0.15665111
46	0x3e6b9594	0.23006278
47	0xbddbd101	-0.10733224
48	0x3dd46cb9	0.103723
49	0xbe2540f7	-0.16138063
50	0xbd726153	-0.059174847
51	0xbebae46c	-0.36502397
52	0x3de3af9a	0.11117478
53	0x3e6b25c4	0.22963625
54	0x3e779f44	0.24181849
55	0xbe900171	-0.281261
56	0xbe427b95	-0.18992455
57	0xbe75e447	-0.24012862
58	0x3db6128d	0.08890257
59	0x3d917e08	0.07104117
60	0x3b7d34fd	0.003863632
61	0x3e161762	0.14657357
62	0xbc881d34	-0.016615488
63	0xbe51c2dd	-0.2048449
64	0x3b3746f1	0.0027965868
65	0xbba27330	-0.004957579
66	0xbd8d0ed6	-0.06887595
67	0xbca5c576	-0.020235758
68	0x3e6f1548	0.23347962
69	0xbf23a6fd	-0.6392668
70	0xbd7cb4cc	-0.06169586
71	0xbe1a6cce	-0.15080568
72	0x3e3b8fe7	0.18316613
73	0xbe833b95	-0.25631395
74	0x3e3610fd	0.17779918
75	0x3e8a5f7e	0.2702598
76	0xbe9bda44	-0.3043996
77	0xbe04f1f0	-0.12982917
78	0x3d897570	0.067118526
79	0xbe1503d8	-0.14552248
80	0xbe11f296	-0.14252695
81	0xbe786874	-0.24258596
82	0xbdda330a	-0.10654266
83	0x3ca47768	0.020076469
84	0x3d11ba93	0.03557832
85	0xbdbb02fa	-0.09131427
86	0x3e6075d0	0.21919942
87	0xbee8e9fa	-0.4549101
88	0x3dc4fcc6	0.09618525
89	0xbdf023cf	-0.1172558
90	0xbda0ae86	-0.07845788
91	0xbe6892b5	-0.22712214
92	0x3e1a5827	0.1507269
93	0x3de6687f	0.112504
94	0x3e2b211b	0.16711847
95	0xbe47406e	-0.19458172
96	0x3d573498	0.05254039
97	0x3e82b2d0	0.25527048
98	0xbda930b8	-0.082612455
99	0xbcec436b	-0.028840741
100	0x3c09db40	0.00841409
101	0x3c464fdf	0.012104004
102	0x3d0cf1c8	0.034410268
103	0xbdf1f124	-0.11813572
104	0xbe84278b	-0.2581142
105	0xbe4bdd56	-0.19908652
106	0xbe9a843d	-0.30179015
107	0xbeafe3a5	-0.34353366
108	0xbdc46499	-0.095895
109	0xbdcbe116	-0.09955041
110	0x3d079ef5	0.033110578
111	0xbd7e6ca8	-0.06211534
112	0x3ea72c69	0.3265107
113	0x3d58b3c7	0.052905824
114	0xbdaa2c95	-0.083092846
115	0x3e6b020c	0.2295
116	0x3d6dbeb4	0.058043197
117	0xbd48e3b3	-0.049045276
118	0xbe4ee24c	-0.20203513
119	0xbdff02a1	-0.12451673
120	0x3d94adbe	0.07259701
121	0xbd90c346	-0.070684955
122	0x3d09047d	0.033451546
123	0xbecf46eb	-0.40483794
124	0x3de40290	0.11133301
125	0xbe7f60df	-0.24939297
126	0xbd865c99	-0.0656063
127	0xbe05e754	-0.13076526
128	0x3d75dfde	0.06002795
129	0x3e40b60a	0.18819442
130	0x3e813597	0.25236198
131	0xbe112ed0	-0.14178014
132	0xbc81281d	-0.015766198
133	0xbe1297d7	-0.14315735
134	0xbbad1ad8	-0.005282741
135	0xbe2ca0de	-0.16858241
136	0x3e187177	0.14887033
137	0xbd1dd8e8	-0.038536936
138	0x3d0a4f85	0.033767242
139	0x3d8a114a	0.06741579
140	0x3e5196f1	0.20467736
141	0xbf0f96ac	-0.5608928
142	0x3e901769	0.2814286
143	0x3cb1f750	0.021724373
144	0xbb3d2321	-0.002886005
145	0xbe9d8bd5	-0.30770746
146	0x3d931e17	0.071834736
147	0xbdde1e02	-0.10845567
148	0xbdd2a140	-0.10284662
149	0x3e4d506f	0.20050214
150	0xbcbf6883	-0.023365265
151	0xbd781367	-0.06056538
152	0xbe0ffab3	-0.14060478
153	0x3d7ca672	0.061682172
154	0x3e93576f	0.28777644
155	0x3cc8b570	0.024500579
156	0xbd57d58e	-0.052693896
157	0xbe03bf4e	-0.12865946
158	0xbec53d58	-0.38523364
159	0xbd6a7dc2	-0.05724884
160	0x3e81e302	0.25368506
161	0xbe841da1	-0.25803855
162	0x3e2afe7b	0.16698639
163	0x3cd51942	0.02601302
164	0x3d1d3bfa	0.038387276
165	0xbd40555e	-0.046956412
166	0x3e8e72d4	0.27821982
167	0x3e220725	0.15823038
168	0x3cf7e4e4	0.03026051
169	0xbd993352	-0.07480492
170	0x3c8f2e59	0.017478155
171	0x3d3ec09a	0.046570398
172	0xbe277de7	-0.16356622
173	0x3d85da3a	0.06535764
174	0x3de95c32	0.11394538
175	0x3dbb7ae6	0.091543004
176	0xbd29daca	-0.04146842
177	0xbec6a879	-0.3880041
178	0x3cc91b19	0.024549054
179	0x3d4b79c7	0.049676683
180	0x3e86e86a	0.26349193
181	0x3cc30d2b	0.02380999
182	0xbdb18398	-0.08667678
183	0xbc169ee8	-0.00919316
184	0x3e634a28	0.22196257
185	0x3e007274	0.1254366
186	0x3df9f57e	0.12205027
187	0x3ccf64fe	0.025316712
188	0x3d0ebe1f	0.034849282
189	0xbdf24bef	-0.118308894
190	0xbe7aa7ab	-0.24478023
191	0x3def5ab6	0.116872236
192	0xbd79a0bd	-0.060944308
193	0x3c7e1bd5	0.015509565
194	0xbe937556	-0.28800458
195	0xbe6d2caf	-0.23161577
196	0xbcb04c18	-0.02152066
197	0x3e4b19ab	0.1983401
198	0xbe39a2c5	-0.18128498
199	0x3db99b55	0.0906283
200	0x3e202891	0.15640475
201	0x3cb2547f	0.021768807
202	0xbedbba8b	-0.42915758
203	0x3e086697	0.13320385
204	0xbe05a954	-0.13052875
205	0xbe2094a1	-0.15681697
206	0xbdb2789d	-0.087144114
207	0x3dc47df8	0.09594339
208	0x3e93ddc6	0.28880137
209	0xbd923556	-0.07139079
210	0xbcffc3d2	-0.031221304
211	0xbe8ad618	-0.27116466
212	0xbe7b808e	-0.24560758
213	0x3eb397f3	0.35076866
214	0x3e43deb2	0.1912792
215	0x3ec6c9e7	0.38825914
216	0x3e91a4e5	0.28446117
217	0x3c8f37b3	0.017482614
218	0xbdbdc7ba	-0.092666104
219	0xbe18060c	-0.14846057
220	0xbd147393	-0.036243033
221	0xbe69f4e4	-0.22847325
222	0xbd12b93d	-0.03582119
223	0xbab43902	-0.00137499
224	0xbdc1820d	-0.09448633
225	0xbcadbe15	-0.021208802
226	0xbe07a454	-0.1324628
227	0xbdc5b302	-0.09653284
228	0x3dbd2ff0	0.09237659
229	0xbe7f6176	-0.24939522
230	0x3b02875b	0.0019917104
231	0x3ed2920c	0.4112705
232	0xbda76ae0	-0.08174682
233	0xbedb8c71	-0.42880586
234	0xbd84c69f	-0.064831965
235	0xbdfa9baf	-0.122367255
236	0xbd010b8a	-0.031505145
237	0xbe90f3c3	-0.28310975
238	0x3ecb2c6e	0.39682335
239	0xbde93fc3	-0.11389115
240	0x3e6a024d	0.2285244
241	0x3e5123b4	0.20423776
242	0x3e28b926	0.16476879
243	0xbe1d95e8	-0.15389216
244	0x3e45c963	0.19315104
245	0xbcbaa237	-0.022782428
246	0x3d651f48	0.055938035
247	0x3e3095f0	0.17244697
248	0xbd42b245	-0.047533292
249	0xbdeb33ec	-0.11484513
250	0xbe2a7443	-0.16645913
251	0xbed13617	-0.4086158
252	0x3e74ab8b	0.23893563
253	0xbe7b2398	-0.24525297
254	0x3e4d5f43	0.2005587
255	0x3daa018c	0.08301076

a2c_network.actor_mlp.0.bias f4 [128]
0	0x3e231b3c	0.15928358
1	0x3da4b30a	0.080419615
2	0x3dc4d4f7	0.09610932
3	0xbcc99ba3	-0.024610346
4	0x3ca22d11	0.01979688
5	0xbd01f4a2	-0.03172744
6	0xbe240279	-0.16016568
7	0xbd1af619	-0.037832353
8	0xbd21317e	-0.03935384
9	0xbca73568	-0.020411208
10	0xbdfa6657	-0.12226551
11	0xbbf78e9f	-0.0075548436
12	0x3d42c043	0.047546636
13	0x3e268cd1	0.16264655
14	0x3b834c93	0.004006931
15	0xbe0a92dd	-0.13532586
16	0xbe281c48	-0.16417038
17	0xbdcac2f4	-0.099004656
18	0xbe80d824	-0.25164902
19	0xbe61d7b9	-0.22054948
20	0xbd20f8a4	-0.039299622
21	0xbca9a684	-0.020709284
22	0xbdc79b20	-0.097463846
23	0xbe13ba37	-0.14426504
24	0x3d0efc4b	0.034908574
25	0x3d551d75	0.052030046
26	0xbe2b0d2b	-0.16704242
27	0x3e51f79f	0.20504616
28	0xbdb1e690	-0.086865544
29	0xbd87c986	-0.066302344
30	0xbd3e26dd	-0.04642378
31	0x3b6e432f	0.0036355963
32	0xbe202110	-0.15637612
33	0xbdbb83c4	-0.09155992
34	0xbe993a86	-0.29927462
35	0xbe56c925	-0.20975168
36	0xbe4be357	-0.19910942
37	0xbe560f61	-0.20904304
38	0xbe036e37	-0.12835012
39	0x3d27074c	0.040778443
40	0x3d8108cc	0.06300506
41	0xbd1094a2	-0.035297997
42	0xbe22da59	-0.15903606
43	0xbdc9563e	-0.098309025
44	0xbde15d25	-0.11004094
45	0xbca68f3b	-0.02033197
46	0xbea89143	-0.32923326
47	0xbdd3a6ed	-0.10334573
48	0xbd63d769	-0.055625353
49	0xbbaa86cf	-0.0052040587
50	0xbd75e11e	-0.06002914
51	0xbe6ee5bf	-0.23329829
52	0xbe9f7ddf	-0.3115072
53	0xbe3fceb3	-0.18731193
54	0xbb8f6ca8	-0.0043769665
55	0xbe402cc1	-0.18767072
56	0xbea6974a	-0.325373
57	0x3c561c2f	0.013068243
58	0x3d3323f7	0.04373547
59	0x3d3f62c7	0.04672506
60	0x3c993c05	0.018705377
61	0xbdc9344a	-0.098244265
62	0xbcbbe6c3	-0.022937184
63	0xbd8aff9c	-0.06787035
64	0xbba4621a	-0.0050165774
65	0x3d879208	0.0661965
66	0x3a704b9b	0.00091665395
67	0xbe0990f3	-0.134342
68	0xbdd16e09	-0.10226066
69	0xbe03bc73	-0.12864856
70	0xbe655e6d	-0.22399302
71	0xbe22409e	-0.15844962
72	0xbdf29151	-0.11844123
73	0x3e0420fb	0.12903206
74	0x3d138511	0.036015574
75	0xbe28466b	-0.16433112
76	0x3d9195ed	0.07108674
77	0xbe4d3015	-0.20037873
78	0xbe65d2f5	-0.22443755
79	0xbe0208e5	-0.12698705
80	0xbd84c487	-0.06482797
81	0x3e2fa3c5	0.17152317
82	0x3da7c432	0.08191718
83	0x3e377678	0.17916286
84	0xbe47a9da	-0.19498387
85	0xbcfb16ce	-0.030650523
86	0x3e3a1363	0.18171458
87	0x3d802b9e	0.06258319
88	0xbd742db9	-0.059613917
89	0x3d569ea7	0.052397396
90	0xbc96417c	-0.018341772
91	0xbd4327dc	-0.047645435
92	0x3e19009d	0.1494164
93	0xbde0f6d3	-0.10984578
94	0xbc23809e	-0.009979395
95	0xbe25d2b6	-0.16193661
96	0x3e1c6264	0.15271908
97	0xbdf39b67	-0.11894875
98	0x3c229fc0	0.009925783
99	0xbd9c4449	-0.07630212
100	0x3d9dfb86	0.0771399
101	0x3c95d2f8	0.018289074
102	0xbda8eb46	-0.08248
103	0xbbf7b09a	-0.0075588943
104	0x3d12ce24	0.035841122
105	0xbe0033b1	-0.12519719
106	0xbdff5122	-0.12466647
107	0xbdf61004	-0.120147735
108	0xbdc9bc73	-0.09850397
109	0xbde03713	-0.109480046
110	0x3d0175a1	0.03160632
111	0x3d97fef7	0.074216776
112	0xbe70ca41	-0.23514654
113	0xbe29e77f	-0.16592215
114	0x3dae3a2f	0.085071914
115	0x3de75840	0.11296129
116	0xbd5a06d1	-0.053229157
117	0xbe473816	-0.19454989
118	0xbda849d4	-0.082172066
119	0x3da4ae5a	0.080410674
120	0xbe403c7c	-0.18773073
121	0xbe776539	-0.24159707
122	0xbe1b101d	-0.15142865
123	0x3c4a6313	0.012352723
124	0x3be98a05	0.007127049
125	0xbdfad3c0	-0.12247419
126	0x3dc0719a	0.09396668
127	0x3d30144b	0.042988103

a2c_network.actor_mlp.2.weight f4 [64, 128]
0	0xbd118c6e	-0.035534315
1	0x3e31adb4	0.17351419
2	0xb983d291	-0.0002514315
3	0x3c1e060e	0.009644998
4	0x3e2034ac	0.15645093
5	0xbc9c2dfe	-0.0190649
6	0x3d0da0c0	0.03457713
7	0xbe0a6978	-0.13516796
8	0x3cca0cfe	0.024664398
9	0xbd9982dc	-0.074956626
10	0x3e019fad	0.12658568
11	0xbd8964c2	-0.06708671
12	0x3e27ecf0	0.16398978
13	0x3cba5c69	0.022749143
14	0x3dad0864	0.08448866
15	0x3e450640	0.19240665
16	0xbd091230	-0.03346461
17	0xbb1bdec0	-0.0023783892
18	0x3c4a288e	0.012338771
19	0xbde1a8e9	-0.11018545
20	0xbd83c8bd	-0.06434772
21	0x3d1d0793	0.0383373
22	0xbd03c0c0	-0.032166243
23	0x3cb2783a	0.021785844
24	0xbbecb397	-0.007223557
25	0xbd5f8145	-0.05456664
26	0x3ca4400b	0.02005007
27	0x3e1cb1a1	0.15302135
28	0x3da59750	0.08085501
29	0xbe780caa	-0.24223581
30	0xba10dfed	-0.00055265316
31	0x3c43cda3	0.011950883
32	0xbd421af5	-0.04738899
33	0x3d91d5ba	0.07120843
34	0xbe58e5d4	-0.21181422
35	0xbd848d6d	-0.06472287
36	0x3d68ca46	0.056833528
37	0xbdba03a3	-0.09082725
38	0xbe18420b	-0.14868943
39	0xbe58e42f	-0.21180795
40	0xbdc787be	-0.09742688
41	0xbcf208d0	-0.029545218
42	0x3d919dde	0.07110189
43	0x3bd2b18f	0.006429858
44	0xbe227266	-0.15863952
45	0x3e2b777a	0.16744795
46	0xbe0ae2d9	-0.13563098
47	0x3c674af3	0.01411699
48	0x39ff3329	0.00048675507
49	0xbd05956d	-0.032613207
50	0x3e409030	0.18805003
51	0x3dc4a614	0.096019894
52	0xbdfeb8b8	-0.12437576
53	0xbcb60017	-0.02221684
54	0xbdafff24	-0.08593586
55	0xbdd1e64e	-0.10249005
56	0xbe017908	-0.12643826
57	0xbd840011	-0.06445325
58	0x3e270c7f	0.1631336
59	0xbddf65ca	-0.109080866
60	0x3da5fa72	0.08104409
61	0xbd8edf7e	-0.069762215
62	0x3cc8c6e7	0.024508907
63	0x3d415a47	0.047205236
64	0x3cf6d4d1	0.030130776
65	0xbe1557e3	-0.14584307
66	0xbe3e6082	-0.18591502
67	0xbd9488e8	-0.07252675
68	0x3d8157c6	0.063155696
69	0x3d875bc6	0.06609301
70	0x3d612650	0.05496818
71	0xbe702403	-0.23451237
72	0x3d500157	0.050782528
73	0x3e2be9d2	0.16788414
74	0x3d14acaf	0.036297496
75	0x3c932220	0.017960608
76	0x3d926c06	0.0714951
77	0x3cb0801f	0.021545468
78	0xbdf359e5	-0.118823804
79	0x3ddf4c60	0.10903239
80	0xbc99bd21	-0.018766942
81	0xbe5621c0	-0.20911312
82	0xbd7fb885	-0.06243183
83	0xbe6ff1ec	-0.2343213
84	0xbd79c1ec	-0.060975954
85	0xbe0df7c7	-0.13864051
86	0x3ca85f76	0.020553332
87	0x3e48d785	0.19613464
88	0xbcb74d76	-0.022375803
89	0xbd8c06b5	-0.06837217
90	0x3e276480	0.16346931
91	0x3dd4f6d4	0.10398641
92	0xbd386f22	-0.04502786
93	0x3c4eefeb	0.012630443
94	0x3dae2bc6	0.08504443
95	0xbda49169	-0.08035547
96	0xbded5a9b	-0.11589547
97	0xbe3e90ee	-0.18609974
98	0xbe28d9e8	-0.16489375
99	0x3ca3a9fe	0.01997852
100	0x3d824dd7	0.06362503
101	0xbe0df5d1	-0.13863303
102	0xbd719d6a	-0.058988012
103	0xbdea7b52	-0.11449303
104	0x3ddbdd09	0.107355185
105	0xbd4e0c16	-0.050304495
106	0xbd275083	-0.040848266
107	0x3c6054ce	0.013692094
108	0x3e67d804	0.22640997
109	0x3d47f81e	0.048820607
110	0xbde91070	-0.11380088
111	0x3dcd8b60	0.10036349
112	0xbd1b813e	-0.03796505
113	0xbe23eb93	-0.16007833
114	0xbd81b96f	-0.06334197
115	0x3d26ae42	0.04069353
116	0xbdf9e5b2	-0.12202014
117	0x3ce3986f	0.027782647
118	0x3cb77f51	0.022399576
119	0xbe1640c0	-0.14673138
120	0x3dba7fef	0.09106433
121	0xbd9b6697	-0.07587927
122	0xbd43ce97	-0.04780444
123	0xbda112b9	-0.07864899
124	0xbdbd7153	-0.092501305
125	0x3c661be7	0.014044738
126	0xbc02c251	-0.007980899
127	0x3da8e2ed	0.08246408
128	0xbe82bd69	-0.25535133
129	0xbe6de86a	-0.2323319
130	0xbdc35a84	-0.09538749
131	0xbe0a6b29	-0.13517441
132	0x3df284f7	0.11841767
133	0xbe5814b4	-0.21101648
134	0xbd4faa03	-0.050699245
135	0xbdb00671	-0.085949786
136	0x3d60f888	0.054924518
137	0x3daadd26	0.08342962
138	0x3d30ee79	0.043196175
139	0xbda8bdf7	-0.08239358
140	0xbd6d034c	-0.057864472
141	0xbe1426b4	-0.14467889
142	0x3d8de76b	0.06928905
143	0x3d0a30ef	0.033738073
144	0xbc9b53c5	-0.018960843
145	0xbde78244	-0.11304143
146	0x3cd2e46d	0.025743688
147	0x3d08616d	0.033296037
148	0x3df50431	0.1196369
149	0xbd043141	-0.032273535
150	0x3cfd71c7	0.030938042
151	0x3cabbc56	0.020963829
152	0xbe9b2d4d	-0.30308
153	0x3d81fe96	0.063473865
154	0x3d698088	0.057007343
155	0xbd93734c	-0.071997255
156	0xbd7f513e	-0.062333338
157	0xbd7f9d70	-0.062406003
158	0x3cb984eb	0.022646388
159	0xbd6badca	-0.057538785
160	0x3d1a179e	0.03762018
161	0xbdd6f7c9	-0.1049648
162	0xbd072a5e	-0.03299939
163	0xbe20f79f	-0.1571946
164	0xbd909fcd	-0.070617296
165	0xbd15af91	-0.036544386
166	0x3cefdb4f	0.02927938
167	0xbdfe880f	-0.12428295
168	0x3db9b724	0.090681344
169	0xbdefe092	-0.11712755
170	0xbc9d6e89	-0.019217746
171	0x3df4e497	0.119576626
172	0xbdc9ac9d	-0.098473765
173	0xbdad6008	-0.08465582
174	0x3d834ced	0.06411157
175	0x3d39e840	0.045387506
176	0xbd836954	-0.06416574
177	0x3df6f06e	0.12057577
178	0x3df286ca	0.11842115
179	0xbd3b896a	-0.045785345
180	0xbd0c4df0	-0.034254014
181	0xbdbd4352	-0.09241356
182	0xbe109aaf	-0.14121507
183	0x3d22d311	0.03975207
184	0x3d7a242d	0.061069656
185	0xbe813450	-0.25235224
186	0x3ccbf0b3	0.024895048
187	0xbe9451a5	-0.2896854
188	0xbd721edd	-0.059111465
189	0xbdbd9ec8	-0.09258801
190	0xbdf0bde7	-0.11754971
191	0xbd50fb20	-0.05102074
192	0xbd84df31	-0.06487883
193	0x3d3941d2	0.045228787
194	0xbd538881	-0.051643852
195	0xbc4e6103	-0.012596372
196	0x3dd160cc	0.10223541
197	0xbe4cc241	-0.19995977
198	0xbd9c5f8c	-0.076354116
199	0xbe16bcb2	-0.14720419
200	0xbcc34d9c	-0.023840718
201	0xbe140dd8	-0.14458406
202	0x3c86bdc6	0.016447913
203	0xbe72f7cb	-0.23727338
204	0xbea803cc	-0.32815397
205	0xbd580dfb	-0.052747708
206	0xbe314dfa	-0.17314902
207	0xbe41a055	-0.18908818
208	0x3d2353b7	0.03987476
209	0xbe3975b9	-0.18111314
210	0xbe903d21	-0.28171638
211	0xbdc5f2f5	-0.09665481
212	0x3d885ba0	0.06658101
213	0xbcb17380	-0.02166152
214	0xbe2b4328	-0.16724837
215	0xbe949144	-0.2901708
216	0xbda67091	-0.08126939
217	0xbe392e41	-0.1808405
218	0xbd566a03	-0.052347194
219	0xbd948a15	-0.072528996
220	0xbe770d7d	-0.24126239
221	0x3d5819d0	0.05275899
222	0xbdb539f7	-0.088489465
223	0x3dbf192a	0.093309715
224	0xbe546c89	-0.20744528
225	0xbe2c6a0e	-0.16837332
226	0xbdd373ce	-0.10324822
227	0xbe1f1cbb	-0.15538304
228	0xbe143d57	-0.14476524
229	0xbe427431	-0.18989636
230	0xbdab78b0	-0.08372629
231	0xbe1a5f6c	-0.15075463
232	0xbdf146a3	-0.11781051
233	0xbe92c4c3	-0.28665742
234	0xbd0d7c6d	-0.03454249
235	0x3d72f9d7	0.059320297
236	0xbde81196	-0.11331479
237	0x3d3f3916	0.0466853
238	0xbe6d573e	-0.23177812
239	0x3e15d9e2	0.14633897
240	0x3c877a27	0.016537739
241	0x3df97d62	0.12182118
242	0xbc95fcb6	-0.018308979
243	0xbdb823f2	-0.08991231
244	0xbb3c70d3	-0.0028753772
245	0x3ccb9b26	0.024854254
246	0x3d97be6b	0.07409366
247	0xbdd069db	-0.1017644
248	0xbd4fe791	-0.05075795
249	0xbd8bd403	-0.068275474
250	0x3d560a64	0.052256003
251	0xbe69cc9e	-0.22831962
252	0xbe7d76ab	-0.247523
253	0xbcc95c4b	-0.024580142
254	0xbd1c9034	-0.03822346
255	0xbde2bdab	-0.110713325

a2c_network.actor_mlp.2.bias f4 [64]
0	0xbd918704	-0.0710583
1	0xbd97b941	-0.07408381
2	0x3d53091b	0.051522356
3	0x3d3f6b15	0.04673298
4	0xbec039b2	-0.37544018
5	0xbe8e6395	-0.2781035
6	0xbda930c8	-0.082612574
7	0xbdcaf854	-0.09910646
8	0x3d87b72f	0.066267364
9	0xbe6220d9	-0.22082843
10	0xbdfb0e42	-0.12258579
11	0xbd4eb06f	-0.05046123
12	0xbe7098dc	-0.23495811
13	0xbe40bc71	-0.18821885
14	0xbd37fbf9	-0.044918034
15	0xbe84e0a1	-0.25952628
16	0xbe826a8d	-0.25471917
17	0xbe8922d4	-0.26784384
18	0xbe1973e6	-0.14985618
19	0xbe0925f2	-0.13393381
20	0xbcdf7f40	-0.027282357
21	0xbdd8f5a0	-0.10593724
22	0xbe5eeb59	-0.21769466
23	0xbe355855	-0.17709477
24	0xbed4f89f	-0.41595933
25	0xbd42c8f4	-0.047554925
26	0xbe5cc3b4	-0.2155903
27	0xbe717224	-0.23578697
28	0xbe588246	-0.21143445
29	0xbd85e454	-0.06537691
30	0xbdda4b55	-0.106589
31	0xbd9d2027	-0.07672148
32	0xbe0b2355	-0.13587697
33	0xbe78f7d1	-0.24313284
34	0xbd8389c1	-0.06422759
35	0x3a086111	0.00052024523
36	0xbe3601d3	-0.17774133
37	0xbe9ca7ff	-0.3059692
38	0xbe0a4e44	-0.13506418
39	0xbdb4244d	-0.08795986
40	0x3c897c0b	0.016782781
41	0xbd1bc716	-0.03803166
42	0xbe8f7c2e	-0.2802443
43	0xbe982fe4	-0.29724038
44	0xbe262361	-0.16224433
45	0xbe35854c	-0.1772663
46	0xbe8eedc8	-0.27915788
47	0xbe268ae5	-0.16263922
48	0xbd91ee5a	-0.0712554
49	0xbd1f2c6f	-0.038860735
50	0xbd9f5b51	-0.07781089
51	0xbce3525a	-0.02774923
52	0x3da7e4f3	0.081979655
53	0x3b31df72	0.002714124
54	0x3d9466e3	0.072461866
55	0xbdd99637	-0.10624354
56	0xbd025eb8	-0.031828612
57	0xbd94b95b	-0.07261916
58	0xbd0dc171	-0.03460831
59	0xbe825716	-0.25457066
60	0x3b878232	0.0041353935
61	0xbe287c15	-0.16453584
62	0xbe12b8bf	-0.14328288
63	0xbda44331	-0.08020628

a2c_network.actor_mlp.4.weight f4 [32, 64]
0	0xbd92e99a	-0.07173462
1	0x3e0f7f05	0.14013298
2	0xbd74089e	-0.05957853
3	0x3dee6c9b	0.116418086
4	0xbd880689	-0.066418715
5	0xbd9c051d	-0.07618163
6	0xbd2ee4ed	-0.04269879
7	0xbe8480e5	-0.2587959
8	0xbdf7015c	-0.12060806
9	0xbe0d063d	-0.13771911
10	0x3d748273	0.05969472
11	0xbdb25238	-0.08707088
12	0x3d80c12f	0.06286847
13	0xbe2a2146	-0.16614255
14	0xbe323cdd	-0.1740603
15	0xbe5f61f6	-0.21814713
16	0xbe2f1668	-0.17098391
17	0xbe23306c	-0.1593644
18	0xbe385f83	-0.18005185
19	0xbe371cc5	-0.17882068
20	0x3c378515	0.011201163
21	0xbd7061e0	-0.05868709
22	0xbd93e109	-0.072206564
23	0xbe4cb337	-0.1999024
24	0xbeb2122f	-0.34779498
25	0xbb8de6c4	-0.004330488
26	0xbc9f4253	-0.019440806
27	0xbe16a9e6	-0.14713249
28	0x3d9b8911	0.07594503
29	0xbe0715f3	-0.13191967
30	0xbd63564e	-0.05550223
31	0xbda0a038	-0.07843059
32	0xbd671bb0	-0.05642289
33	0xbdabd36a	-0.083899334
34	0x3d93013f	0.07177972
35	0x3c137749	0.009000608
36	0x3d098f5b	0.03358398
37	0xbdd166a9	-0.10224659
38	0xbe4a4ed3	-0.19756632
39	0xbe40f97d	-0.18845172
40	0xbd1eacab	-0.038738888
41	0x3debc1bf	0.115115635
42	0xbd871f61	-0.06597782
43	0xbc9a5b34	-0.018842317
44	0xbda19cff	-0.07891273
45	0xbdc4cb72	-0.096091166
46	0xbd51d45d	-0.051227916
47	0x3c45c023	0.012069735
48	0x3e0232de	0.12714717
49	0xbdf25947	-0.118334346
50	0xbe79bb07	-0.24387752
51	0xbdd23c45	-0.10265402
52	0xbdaa5959	-0.08317823
53	0xbe6e3815	-0.23263581
54	0x3dcaae9f	0.098965876
55	0xbeb6444d	-0.35598984
56	0xbdbc3877	-0.09190457
57	0x3d8e81eb	0.06958374
58	0x3e3de3d4	0.18543941
59	0xbd0a07ce	-0.03369885
60	0xbe4cbfb4	-0.19995004
61	0xbcb4ff15	-0.022094289
62	0x3dc712a3	0.097203515
63	0x3da1b71d	0.07896254
64	0x3e5e72d5	0.21723492
65	0xbd8f95c7	-0.0701099
66	0xbd85a9e8	-0.06526548
67	0xbe5587ad	-0.20852537
68	0xbdefc564	-0.11707571
69	0xbdb4b782	-0.08824064
70	0xbdc3052b	-0.0952247
71	0x3e184d8c	0.14873332
72	0xbe2c9443	-0.16853432
73	0x3d536f9e	0.05162012
74	0x3d1fb4bd	0.038990725
75	0x3be17486	0.0068803458
76	0x3dacbf07	0.08434873
77	0xbccd71a2	-0.025078598
78	0xbd01476e	-0.03156226
79	0xbe8e140c	-0.2774967
80	0xbe1d265e	-0.15346667
81	0x3c3256aa	0.01088492
82	0x3b22cde4	0.0024841959
83	0x3e2c6dac	0.16838712
84	0xbe199818	-0.14999425
85	0x3cb2821f	0.021790562
86	0xbe48a101	-0.19592668
87	0x3d6c033c	0.057620272
88	0xbe145f91	-0.1448958
89	0xbccd0654	-0.025027432
90	0x3a2e6975	0.00066532876
91	0x3d9af785	0.07566742
92	0x3d2ea22b	0.042635124
93	0xbd102b80	-0.035197735
94	0xbe139ffd	-0.144165
95	0x3e0b355e	0.13594577
96	0x3dfeb8dd	0.124376036
97	0xbe19dcaf	-0.1502559
98	0xbdaaf00e	-0.08346568
99	0x3e1e0437	0.15431295
100	0xbdbf72a7	-0.0934804
101	0xbddf8c79	-0.10915465
102	0xbd93df37	-0.07220309
103	0x3e1b2c37	0.15153585
104	0xbd0c1bc9	-0.034206185
105	0xbd2cf788	-0.04222825
106	0x3d7d1626	0.0617887
107	0xbd9f988f	-0.0779277
108	0x3bc874b1	0.0061174263
109	0x3e2f2a33	0.17105941
110	0xbe6beef0	-0.23040366
111	0xbdddd780	-0.10832119
112	0xbda4e3b4	-0.080512434
113	0xbb4016e2	-0.0029310514
114	0xbd9a2307	-0.07526212
115	0xbc08227d	-0.008309004
116	0xbd68cf77	-0.05683848
117	0x3d9b3189	0.075778075
118	0x3d013b0b	0.03155045
119	0x3d649bd8	0.055812687
120	0xbd86687e	-0.06562899
121	0xbde465d7	-0.11152237
122	0xbd1ae112	-0.0378123
123	0xbd86ecc5	-0.06588129
124	0x3d0ee75c	0.03488861
125	0xbe1377fd	-0.1440124
126	0x3bc98a52	0.0061505223
127	0xbe1b0180	-0.15137291
128	0xbe8d56bb	-0.27605233
129	0xbe232184	-0.15930754
130	0xbdee0a75	-0.11623088
131	0x3d89cde7	0.06728726
132	0xbe53fd37	-0.20702063
133	0xbd651207	-0.055925395
134	0xbea39b50	-0.31954432
135	0x3d8255a6	0.063639924
136	0xbdf2464d	-0.11829815
137	0xbd0746d6	-0.03302654
138	0x3cfc59da	0.030804563
139	0xbdde1f89	-0.108458586
140	0x3d7e0425	0.06201567
141	0xbdaff600	-0.08591843
142	0x3d165964	0.036706343
143	0xbdb4395c	-0.08800003
144	0xbe35c673	-0.17751484
145	0xbc85f06d	-0.016349996
146	0xbd83fe17	-0.06444948
147	0xbdd415f4	-0.1035575
148	0xbd164a6c	-0.036692068
149	0xbd77dd78	-0.060513943
150	0xbcf521e7	-0.029923392
151	0x3d6bd2f2	0.05757422
152	0x3d8f1485	0.06986336
153	0x3d7c5005	0.06159975
154	0xbcdf8791	-0.027286323
155	0x3cec5ee0	0.028853834
156	0xbd3c9bee	-0.046047144
157	0x3dccc1bf	0.09997892
158	0x3d5e746f	0.05431026
159	0x3d6b86eb	0.057501715
160	0xbd31cba1	-0.043407086
161	0x3dc75944	0.09733823
162	0x3da81161	0.0820644
163	0xbc82cace	-0.015965845
164	0xbe43a918	-0.19107473
165	0xbcf0002c	-0.029296957
166	0xbe007405	-0.12544258
167	0xbe10fed8	-0.14159715
168	0xbd7fe288	-0.062471896
169	0x3d64bfd9	0.055847023
170	0x3dfcc993	0.12343135
171	0x39810674	0.00024609605
172	0xbe51591a	-0.20444146
173	0x3dbe4b92	0.09291758
174	0x3d8b2f0c	0.06796083
175	0xbdbd9654	-0.092571884
176	0x3cab347d	0.020899052
177	0xbddf5649	-0.109051295
178	0x3d06c5e3	0.032903563
179	0xbca6f932	-0.020382497
180	0xbe48d0c4	-0.19610888
181	0xbe390725	-0.18069132
182	0xbdbb0969	-0.09132654
183	0x3d8fed6c	0.070277065
184	0xbd8941e9	-0.067020245
185	0x3d50b8d7	0.050957527
186	0xbd25d281	-0.040483955
187	0xbdd8a8c1	-0.10579062
188	0xbdfb02fb	-0.12256428
189	0xbd42668a	-0.04746107
190	0xbd2ef213	-0.04271133
191	0x3e1ba343	0.15198998
192	0xbd4f178d	-0.05055957
193	0x3e1cfed6	0.15331587
194	0xbd37f8ef	-0.044915136
195	0xbd9f41f5	-0.07776252
196	0xbe451125	-0.19244821
197	0xbc9aa263	-0.01887626
198	0x3d7d3766	0.06182041
199	0x3e321ef7	0.17394625
200	0xbe882001	-0.26586917
201	0xbda2d5af	-0.07950913
202	0xbd27c465	-0.04095878
203	0xbda25770	-0.07926834
204	0xbdc67ce2	-0.09691788
205	0xbc627413	-0.01382162
206	0xbd83bf51	-0.06432975
207	0xbe38d407	-0.18049632
208	0xbe78c9be	-0.24295709
209	0x3d29270f	0.041297015
210	0x3b8480da	0.0040436806
211	0x3d8c9504	0.0686436
212	0xbd01c491	-0.0316816
213	0xbe263ec3	-0.16234879
214	0xbca0927b	-0.019601097
215	0x3dd98d5d	0.10622666
216	0xbd0ada38	-0.033899516
217	0x3cb3e9ce	0.021962073
218	0xbdc652de	-0.096837744
219	0xbd989c83	-0.07451727
220	0xbc10ea49	-0.00884492
221	0xbe132ace	-0.14371797
222	0xbe476590	-0.19472337
223	0xbd683ef4	-0.05670066
224	0xbba88213	-0.005142459
225	0xbe31d01a	-0.1736454
226	0x3cc0a4b2	0.023516033
227	0x3c0e1913	0.00867297
228	0xbc43bcba	-0.011946851
229	0xbe8dc9b8	-0.27692962
230	0xbcdb969d	-0.026805216
231	0x3d854565	0.065073766
232	0xbe6ce6b5	-0.23134883
233	0xbe10eca5	-0.14152773
234	0x3db9a6e0	0.09065032
235	0xbce83efd	-0.028350348
236	0x3c5602be	0.013062177
237	0x3da1801a	0.078857616
238	0xbdaf7225	-0.08566693
239	0xbd894b87	-0.06703859
240	0xbe385e8f	-0.18004821
241	0xbe4b3b8c	-0.19846934
242	0xbe21d8ff	-0.15805434
243	0xbdb0461c	-0.08607122
244	0xbdc3d324	-0.09561756
245	0xbd2bdfb3	-0.041961383
246	0x3b839f86	0.0040168194
247	0xbe21d272	-0.15802935
248	0x3d195e91	0.0374437
249	0xbe2ed7e9	-0.1707455
250	0xbd8e2ca2	-0.06942107
251	0xbd5ed148	-0.054398805
252	0x3dfadd59	0.1224925
253	0xbe0562cc	-0.1302597
254	0x3b4066e7	0.002935821
255	0xbd5c4883	-0.05378009

a2c_network.actor_mlp.4.bias f4 [32]
0	0xbe0fe507	-0.14052211
1	0x3c1d2fc9	0.009593912
2	0xbcbd9097	-0.023140235
3	0xbe5eb86a	-0.21750036
4	0xbe6fcedf	-0.23418759
5	0xbe10e75d	-0.14150758
6	0x3b9cded8	0.004787307
7	0xbd4605d3	-0.0483454
8	0x3c3e95f9	0.011632436
9	0xbdb1427e	-0.086552605
10	0x3dd25221	0.10269571
11	0xbda59ec9	-0.080869265
12	0xbe2b882b	-0.16751163
13	0xbe18c10a	-0.14917389
14	0xbe3b3921	-0.18283512
15	0x3bd09266	0.0063651083
16	0xbd99df4a	-0.07513292
17	0x3e4b4138	0.19849098
18	0xbd2d35dd	-0.042287696
19	0xbc1b7d0e	-0.009490265
20	0x3dfcec67	0.12349778
21	0xbc9fb29a	-0.019494344
22	0xbe1d7a23	-0.15378623
23	0xbd17f2fc	-0.037096962
24	0xbe457799	-0.19283904
25	0x3e04db94	0.12974387
26	0xbe096c36	-0.13420185
27	0xbdd97e7d	-0.10619829
28	0xbd887606	-0.06663136
29	0xbd8b4248	-0.067997515
30	0xbe4d701c	-0.20062298
31	0xbd6d9964	-0.058007613

a2c_network.value.weight f4 [1, 32]
0	0x3d9546ac	0.0728887
1	0x3d5d44b7	0.05402061
2	0x3cd2746e	0.025690284
3	0x3d1b81ab	0.037965458
4	0xbc0fc9cb	-0.008776139
5	0x3d39e5bb	0.045385104
6	0x3c91cd60	0.017798126
7	0xbdf3370f	-0.11875736
8	0xbcdae706	-0.026721489
9	0x3d4bcf8b	0.049758475
10	0xbd27cb3b	-0.0409653
11	0xbc485103	-0.012226346
12	0x3c1f9606	0.009740358
13	0x3cab7cd9	0.020933555
14	0xbc822046	-0.01588453
15	0x3dfc94a1	0.12333036
16	0x3dc61be1	0.09673286
17	0x3e356414	0.17713958
18	0xb9fe8ed3	-0.00048553068
19	0x3d4ffebd	0.050780047
20	0x3d5fa16a	0.054597296
21	0x3d35ec29	0.044414673
22	0x3d606ed7	0.054793205
23	0xbc923b53	-0.017850554
24	0x3d8203a3	0.0634835
25	0x3d5fa896	0.054604135
26	0xbc93d59f	-0.018046198
27	0xbcbcd57c	-0.023051016
28	0xbd98b77f	-0.07456874
29	0xbd0bc5a5	-0.034124035
30	0x3c2b9d7d	0.01047456
31	0xba823b32	-0.0009935854

a2c_network.mu.weight f4 [7, 32]
0	0x3d2c23b9	0.042026255
1	0xbe3cace6	-0.1842533
2	0xbd29d2e6	-0.041460894
3	0xbcd472ba	-0.025933612
4	0x3dee7671	0.11643685
5	0xbe2c37fb	-0.1681823
6	0x3e379c3b	0.17930691
7	0xbcbd4017	-0.02310185
8	0xbe574237	-0.21021353
9	0x3e42d0ea	0.19025007
10	0x3e1da1d8	0.1539377
11	0x3e9005a6	0.2812931
12	0xbe480fc1	-0.1953726
13	0x3e29954b	0.16560857
14	0x3e0bf4f6	0.13667664
15	0xbd832a86	-0.06404595
16	0xbed10136	-0.40821236
17	0xbde4eeb6	-0.11178343
18	0xbea89402	-0.3292542
19	0xbd8ccd55	-0.068751015
20	0x3e5e5cce	0.2171509
21	0xbec9dbdd	-0.39425555
22	0xbeb45015	-0.35217348
23	0xbe96e7a0	-0.2947359
24	0xbe64a9bf	-0.22330378
25	0x3dcded72	0.10055055
26	0xbe885422	-0.26626688
27	0x3d8c8b77	0.06862538
28	0xbd44f65a	-0.0480865
29	0xbd09ff51	-0.033690754
30	0xbd5694bb	-0.052387934
31	0xbe5224a2	-0.20521787
32	0x3eb7ea73	0.35921058
33	0x3d4c6791	0.049903456
34	0x394effc4	0.00019740971
35	0x3d497941	0.049187902
36	0x3eb25fe9	0.348388
37	0x3d2a96b5	0.04164763
38	0xbea3f22f	-0.3202071
39	0x3cf57749	0.029964106
40	0xbe2b0e70	-0.16704726
41	0xbd31fd1d	-0.04345428
42	0xbe46f549	-0.19429506
43	0xbc2d7383	-0.010586622
44	0x3e0f8701	0.14016344
45	0x3d397780	0.04527998
46	0x3caeae7d	0.021323437
47	0x3d6f0428	0.058353573
48	0xbe22f94f	-0.15915416
49	0xbda9541e	-0.08267997
50	0xbe6d0639	-0.23146905
51	0x3d31b6ca	0.04338721
52	0xbe8bc925	-0.273019
53	0x3b06c883	0.0020566292
54	0x3c5e5281	0.013569475
55	0xbd881e50	-0.06646407
56	0xbd9cd9e7	-0.07658749
57	0xbe2e15b5	-0.17000468
58	0xbdaf10ed	-0.0854815
59	0xbd4c7b84	-0.04992248
60	0xbe7b4145	-0.24536617
61	0x3e5a11eb	0.21295898
62	0x3eb8fe76	0.36131638
63	0x3d3e0bab	0.046397846
64	0xbd566a12	-0.05234725
65	0xbdaf234a	-0.08551653
66	0x3d19b5e0	0.037526965
67	0x3d447cc4	0.04797055
68	0xbd3e92a4	-0.046526566
69	0x3d83fa77	0.06444257
70	0x3b948a66	0.0045331
71	0xbe0012ba	-0.12507144
72	0x3d59cb33	0.0531723
73	0xbe6530ba	-0.22381869
74	0xbd309f7f	-0.043120857
75	0x3da2a8f2	0.0794238
76	0x3e16eccf	0.14738773
77	0xbd1bb450	-0.038013756
78	0xbd2bd534	-0.041951373
79	0x3e889f2d	0.2668394
80	0xbd7ffb2f	-0.062495407
81	0x3d2a65bf	0.04160094
82	0xbc7c588e	-0.015401972
83	0xbc371fab	-0.011176984
84	0xbe432b0e	-0.19059393
85	0x3e02e6e1	0.12783386
86	0xbd8657af	-0.06559693
87	0x3cc2a892	0.023762021
88	0x3e4ed7bd	0.20199485
89	0xbe9e1733	-0.30877075
90	0x3da50911	0.0805837
91	0x3ca48d0c	0.020086788
92	0x3df45dfe	0.1193199
93	0x3db25def	0.08709323
94	0x3e3651dc	0.17804664
95	0x3e997d83	0.2997857
96	0xbcf8ad54	-0.030356087
97	0x3df18bca	0.11794241
98	0xbe285c3d	-0.16441436
99	0x3e2bd279	0.16779508
100	0xbcdea546	-0.027178418
101	0x3e120c4f	0.14262508
102	0x3e40683c	0.18789762
103	0xbe3930fb	-0.18085091
104	0xbeb90a3a	-0.36140615
105	0x3ea7d121	0.3277674
106	0x3e8c7b62	0.27437884
107	0x3eaf5cd3	0.34250507
108	0xbe3cf05f	-0.1845107
109	0x3ea10523	0.31449232
110	0x3ece6210	0.4030919
111	0xbe98b073	-0.2982212
112	0x3d245f1a	0.04012976
113	0x3d7c5edd	0.061613906
114	0xbb346f2c	-0.0027532084
115	0xbe2ce152	-0.16882828
116	0x3e751519	0.2393383
117	0xbec50ecc	-0.38487852
118	0x3c1edb55	0.0096958475
119	0xbe920900	-0.2852249
120	0x3e577cb7	0.21043669
121	0x3e4560aa	0.19275156
122	0xba8ff83a	-0.0010984011
123	0x3eaf6de8	0.3426354
124	0x3de0df23	0.1098006
125	0xbd705988	-0.058679134
126	0x3e60f96e	0.2197015
127	0xbe173f15	-0.14770158
128	0xbe8c1863	-0.27362356
129	0x3e88a12b	0.2668546
130	0xbdf61551	-0.120157845
131	0x3e1dbb78	0.15403545
132	0x3dfa665c	0.12226555
133	0x3e7fc04f	0.24975704
134	0xbd60ac81	-0.054852013
135	0x3e04e0ac	0.1297633
136	0xbdbd3f89	-0.09240634
137	0x3b5b6559	0.0033477156
138	0x3e881e2d	0.26585522
139	0x3d993673	0.074810885
140	0x3e1a5493	0.15071325
141	0x3e60658f	0.21913742
142	0x3d49fa6c	0.049311087
143	0x3e2dcee0	0.16973448
144	0xbea52473	-0.3225437
145	0xbd677cb0	-0.056515396
146	0x3d9f981c	0.077926844
147	0x3c75365f	0.014966576
148	0xbd96419b	-0.07336732
149	0x3e4c817b	0.19971268
150	0x3de6bb07	0.112661414
151	0x3e07fdb9	0.13280381
152	0x3cda525a	0.026650596
153	0x3c61da7a	0.013784999
154	0xbe66f305	-0.22553642
155	0xbdb2ec63	-0.087364934
156	0xbdc271ed	-0.09494386
157	0x3d07aef5	0.033125836
158	0x3e37c5b6	0.17946514
159	0x3ec98b5e	0.3936414
160	0x3e559159	0.20856227
161	0xbceec109	-0.02914478
162	0xbcfadb1d	-0.03062206
163	0x3d2e26cc	0.04251747
164	0x3d6ae871	0.05735058
165	0xbdfa467a	-0.122204736
166	0x3da871e4	0.08224848
167	0x3e405851	0.1878369
168	0xbdb10219	-0.08642978
169	0xbc818d2c	-0.015814386
170	0x3e7ee639	0.2489251
171	0x3de60fc3	0.11233475
172	0xbe4349ea	-0.19071165
173	0xbd181ae1	-0.03713501
174	0xbd33b481	-0.043873314
175	0x3d4e1e72	0.050322004
176	0xbe1c515c	-0.15265411
177	0xbbf40638	-0.0074470304
178	0xbe3e2dac	-0.1857211
179	0xbccd4c8a	-0.02506091
180	0x3e49a423	0.1969152
181	0xbe1e7f23	-0.15478186
182	0xbd9ea950	-0.077471375
183	0x3b322050	0.0027179904
184	0x3ed37243	0.41298112
185	0x3e52926c	0.20563668
186	0xbd0e0b27	-0.034678604
187	0x3e92f67b	0.28703675
188	0xbdff14cb	-0.12455138
189	0x3dd8022c	0.10547289
190	0x3b3338be	0.0027347053
191	0x3e185b20	0.14878511
192	0x3d864f5f	0.065581076
193	0x3b561e8e	0.003267202
194	0x3b757b98	0.00374577
195	0xbce2672d	-0.027637089
196	0xbe1e3fc7	-0.15454017
197	0xbcea864f	-0.028628496
198	0xbe322d29	-0.1740004
199	0x3dfb9355	0.12283961
200	0x3ddc3de6	0.10753994
201	0xbe553f69	-0.2082497
202	0xbdecf9dc	-0.115710944
203	0xbe28640e	-0.16444418
204	0xba908fe7	-0.0011029214
205	0xbe51b994	-0.20480949
206	0xbdc157a1	-0.09440542
207	0x3d51aaa0	0.05118811
208	0x3c7f1481	0.015568853
209	0xbdc30f91	-0.095244534
210	0x3e6307d7	0.2217096
211	0x3e30db65	0.17271192
212	0xbeb84623	-0.3599101
213	0x3d9b9b29	0.07597954
214	0x3d92111f	0.07132172
215	0x3d4993ee	0.049213342
216	0xbc5283ce	-0.0128488075
217	0xbec6e431	-0.3884597
218	0x3ce6a2af	0.028153745
219	0x3d00fef1	0.03149313
220	0x3e23a025	0.15979059
221	0xbc541ddd	-0.012946573
222	0xbd49a698	-0.04923114
223	0xbd844227	-0.0645793

a2c_network.mu.bias f4 [7]
0	0xbd2cbf6c	-0.04217474
1	0xbe9a451b	-0.30130848
2	0xbe109dc2	-0.1412268
3	0xbdfc5934	-0.12321702
4	0xbab25c4c	-0.0013607829
5	0x3d2f8479	0.042850945
6	0x3cb0ed2d	0.02159747

exp_avg f4 [7]
0	0x3c024953	0.007952052
1	0x3afd41fb	0.0019322032
2	0xbc64f7cd	-0.013975096
3	0xbba401ba	-0.0050050886
4	0x3be06ca3	0.006848888
5	0xb742cd87	-1.1611154e-05
6	0x3acbf164	0.0015559611

exp_avg_sq f4 [7]
0	0x391ed6f1	0.00015148126
1	0x391dfe1d	0.00015067351
2	0x3957ff5e	0.0002059913
3	0x391ba2f4	0.00014842657
4	0x392dc7c3	0.00016572983
5	0x392bdc9b	0.00016390013
6	0x3975f5dd	0.00023456612

exp_avg f4 [128, 18]
0	0x3a6e5e27	0.0009093009
1	0x3a7c21c0	0.0009618066
2	0xbb0c097a	-0.0021367953
3	0x39152fe0	0.00014227582
4	0x39232cdc	0.00015561603
5	0xbb98f13d	-0.0046674297
6	0x3a069c20	0.0005134959
7	0xbacb65f6	-0.0015518058
8	0x3a3be447	0.00071675
9	0xba728d86	-0.0009252656
10	0xbb9260a1	-0.0044670855
11	0x3b3301c1	0.0027314278
12	0xba7e8f48	-0.00097106816
13	0x3b542bf1	0.0032374824
14	0xbac62322	-0.0015116672
15	0xb9a33a3f	-0.0003113318
16	0xbaaef3d8	-0.0013347818
17	0x3af18f80	0.0018429607
18	0xb91506ce	-0.00014212282
19	0x3b2b1b3e	0.0026108767
20	0x398a0af1	0.00026329563
21	0xbac5e298	-0.0015097437
22	0x38b083c8	8.41688e-05
23	0xbaa7e9ab	-0.0012810727
24	0x3958f62e	0.00020691074
25	0xb9ba158c	-0.00035492738
26	0x3a851eeb	0.0010156309
27	0x3b0ea2de	0.0021764557
28	0xba30ee04	-0.0006749334
29	0x3a41bd1f	0.0007390547
30	0x39fb5b93	0.0004794268
31	0x3a872c0e	0.0010312812
32	0xbab2daa6	-0.0013645485
33	0xba0d3f3b	-0.0005388145
34	0xba9f0aab	-0.0012133917
35	0xb9e6b908	-0.00044006878
36	0x3a123162	0.00055768166
37	0xb97a50b2	-0.00023871919
38	0xb9a4508a	-0.00031340524
39	0xb909563e	-0.00013097466
40	0xba6a1469	-0.0008929433
41	0xbb208752	-0.002449472
42	0x38785827	5.9209906e-05
43	0xba080af5	-0.0005189621
44	0xba896238	-0.0010481542
45	0x3982f13b	0.00024975263
46	0xbb0a923d	-0.0021144294
47	0x3b3bffe6	0.0028686463
48	0xb9b0f9eb	-0.0003375554
49	0xb9d8156a	-0.00041214685
50	0xba828084	-0.0009956514
51	0xb9c56faa	-0.00037657964
52	0x39aa8a33	0.00032527893
53	0x38513350	4.987727e-05
54	0x386e11f3	5.676034e-05
55	0xba8de60e	-0.0010826008
56	0x38d66668	0.0001022339
57	0x39d34d2c	0.00040302554
58	0xbabb7727	-0.0014302478
59	0xbaa6c418	-0.0012723235
60	0x3ab821dc	0.0014048177
61	0xba2308ed	-0.00062192866
62	0xbb11fc4b	-0.0022275622
63	0xb84831b0	-4.772999e-05
64	0xb9f62859	-0.00046950838
65	0x3aa4796c	0.0012548394
66	0xbb234f6c	-0.0024919165
67	0x39c3422e	0.00037242606
68	0x39c24115	0.00037051053
69	0xb7896a65	-1.6381216e-05
70	0x3a98805a	0.0011634931
71	0xb90d7d2f	-0.00013493442
72	0xb894c15a	-7.0932045e-05
73	0x380d33f1	3.3665394e-05
74	0xba0c7134	-0.0005357445
75	0xb99e02d2	-0.0003013821
76	0xba841162	-0.0010075981
77	0xba64a5cd	-0.0008722216
78	0x3b276203	0.0025540597
79	0xb9caccb3	-0.00038680955
80	0xba02e461	-0.00049931376
81	0xba2dc03e	-0.00066280726
82	0xbac09351	-0.0014692341
83	0xba34fa71	-0.0006903774
84	0x39caeafb	0.00038703516
85	0x3acce70d	0.0015632823
86	0xba63b6bc	-0.00086865923
87	0x383e4dc4	4.5371955e-05
88	0xbad4b35f	-0.0016227773
89	0x3a844689	0.0010091822
90	0xba873576	-0.0010315615
91	0xb9da2b62	-0.00041612523
92	0x3a81b586	0.0009896017
93	0xb9766e43	-0.00023501464
94	0xba9ca990	-0.0011952389
95	0x3a8c5be5	0.0010708539
96	0x3b17ac39	0.0023143424
97	0xba32f006	-0.00068259274
98	0xba8c5b53	-0.0010708369
99	0x3ae2974f	0.0017287525
100	0x3a9f7cc3	0.0012167919
101	0xbaaabf7b	-0.0013027036
102	0xb948ad77	-0.00019138107
103	0xb908f19b	-0.00013059976
104	0x39876edf	0.00025831812
105	0xb9a76214	-0.00031925796
106	0x3a03da91	0.00050298224
107	0xb9f72a33	-0.00047142952
108	0xb9911b22	-0.0002767677
109	0x399ac081	0.00029516596
110	0x3a2a746a	0.00065023324
111	0xb9c58451	-0.00037673351
112	0x39435418	0.00018627977
113	0x38e33589	0.00010834175
114	0xba21e1a5	-0.0006175286
115	0xba0c2e2b	-0.0005347456
116	0x39c68452	0.0003786409
117	0x3a67f521	0.0008848478
118	0xb8f605fc	-0.00011731309
119	0x3a33cf18	0.00068591675
120	0xba81e04f	-0.0009908768
121	0xb7d72ccf	-2.5650863e-05
122	0x3a4cc33b	0.0007811074
123	0x36f4d29d	7.2962853e-06
124	0x39dfc243	0.0004267861
125	0xba219dcf	-0.0006165178
126	0x37f9d9e9	2.9784585e-05
127	0xba5f0669	-0.000850773
128	0x38ed9dd7	0.000113304406
129	0x393d7419	0.00018067694
130	0xba024cb8	-0.00049705384
131	0xbaedd81d	-0.0018146072
132	0xba7781a8	-0.00094416225
133	0xbad2ead6	-0.0016091715
134	0xba913f00	-0.0011081398
135	0xb908b695	-0.00013037988
136	0xbb295314	-0.0025836872
137	0x3b0612c3	0.002045796
138	0xbb6e7399	-0.003638482
139	0x39fd5aca	0.00048323564
140	0x3aa65eba	0.0012693026
141	0xb9b9f420	-0.00035467837
142	0x3aa0e518	0.0012275307
143	0xb96489fc	-0.00021795178
144	0xbab461b8	-0.0013762033
145	0x3a7c6eac	0.00096295285
146	0xbb07d72f	-0.0020727625
147	0x36e0f3e0	6.704111e-06
148	0xba9abf37	-0.0011806254
149	0xbabeab6d	-0.0014546938
150	0x3bf7a634	0.0075576548
151	0xbb33725c	-0.0027381396
152	0xb9cfde2d	-0.0003964765
153	0xbacdf0b3	-0.0015711993
154	0xbb4d9f06	-0.0031375303
155	0xbb947d74	-0.0045315567
156	0xbae254b8	-0.001726768
157	0x3c23f8f7	0.010008088
158	0xb9da214c	-0.00041605008
159	0x39d03cd2	0.00039718166
160	0xbb8f36c6	-0.004370543
161	0x3b8310eb	0.0039998195
162	0xb9909218	-0.0002757467
163	0xb92121bb	-0.00015366722
164	0x3a48159e	0.0007632616
165	0xb91e5bcc	-0.00015102251
166	0x3a1d8454	0.0006008793
167	0x3ac2e652	0.0014869666
168	0xbadcecf0	-0.0016855281
169	0x376e27e3	1.4195192e-05
170	0x3a0894c8	0.00052101584
171	0x3a977469	0.0011555079
172	0x3a25078a	0.0006295374
173	0x39de5fa9	0.00042414412
174	0x3a25bf1d	0.00063227286
175	0xba179f43	-0.0005783925
176	0x3ac0808a	0.0014686745
177	0x399103d6	0.00027659413
178	0x3a683359	0.0008857749
179	0xba60cbc2	-0.0008575284
180	0xb9affb62	-0.00033565896
181	0x39c44422	0.00037434796
182	0x3a76dd15	0.0009417099
183	0xb9e85d27	-0.00044319892
184	0x3915aa09	0.0001427309
185	0x3a759aa2	0.00093690504
186	0xba9c49a7	-0.0011923806
187	0xb9163082	-0.00014323185
188	0x379fa174	1.902946e-05
189	0x3ac5a11e	0.0015077924
190	0x3a64c76c	0.0008727226
191	0xb9d7fd3c	-0.0004119667
192	0x3a3b8c5f	0.0007154401
193	0xbad89f59	-0.0016526981
194	0x3a3b0b59	0.0007135175
195	0xb947061f	-0.00018980399
196	0x3a468f53	0.00075744576
197	0xba90c4ca	-0.0011044976
198	0xba7f2aab	-0.0009733836
199	0x3a9238fb	0.0011155898
200	0xbb1bf734	-0.0023798468
201	0xb83c3b43	-4.4877885e-05
202	0x39b51f64	0.00034546398
203	0xbac80d98	-0.001526284
204	0x3b28f535	0.002578092
205	0xbb0d9668	-0.0021604542
206	0x3aace384	0.0013190364
207	0xbad41586	-0.0016180731
208	0xbb40fc93	-0.002944742
209	0xbb34c5ab	-0.002758364
210	0xb88018fc	-6.108169e-05
211	0x3bfabc87	0.0076518687
212	0x39da73a7	0.00041666368
213	0xb99acb5a	-0.00029524678
214	0xbb57981a	-0.0032897056
215	0x3b489dd9	0.0030611663
216	0x38a1c0f5	7.713019e-05
217	0x3aee1cb0	0.0018166509
218	0xba319142	-0.0006773659
219	0xb985f3f0	-0.00025549484
220	0xb9619ffe	-0.00021517274
221	0x3a8d3667	0.001077366
222	0x3b89f13d	0.004209666
223	0x3b3f4202	0.002918363
224	0x3a2932b7	0.00064543955
225	0xbacff837	-0.001586682
226	0x3b8306d0	0.003998615
227	0xbb80d77a	-0.003931937
228	0x3ab9bc23	0.0014170449
229	0x3a31be64	0.00067803846
230	0xbb58d92e	-0.0033088434
231	0x39f3d630	0.00046508154
232	0xbb418d18	-0.0029533561
233	0x3a9589dc	0.0011408883
234	0x3a2266e9	0.00061951444
235	0xba8f9414	-0.0010954165
236	0x3a528af1	0.0008031568
237	0x3a6a72be	0.00089434895
238	0xba54bde4	-0.0008115454
239	0x39b9c61c	0.00035433553
240	0xb9aa2d31	-0.00032458597
241	0x3acf612b	0.0015821805
242	0xbb289e15	-0.002572899
243	0xb9976346	-0.0002887493
244	0x3b4a041e	0.0030825208
245	0x3ab22ccf	0.0013593676
246	0xba01d53b	-0.0004952733
247	0xbb60fbfc	-0.0034329882
248	0xba701574	-0.000915847
249	0x3a0dca4a	0.00054088666
250	0x3b0b5a53	0.0021263554
251	0xba889e57	-0.0010423166
252	0x39d8a66f	0.00041322733
253	0x3a8a6d41	0.0010561125
254	0x3abcc16c	0.0014400906
255	0xb9c90135	-0.00038338607

exp_avg_sq f4 [128, 18]
0	0x38432451	4.6525445e-05
1	0x38186875	3.6336907e-05
2	0x384d6123	4.8966274e-05
3	0x3877eef6	5.911194e-05
4	0x3809e98c	3.2880853e-05
5	0x38868a83	6.415418e-05
6	0x3877960c	5.902913e-05
7	0x38850096	6.342043e-05
8	0x382cc993	4.1195726e-05
9	0x3885f2fb	6.387193e-05
10	0x3889eafa	6.576437e-05
11	0x38aedc3d	8.337989e-05
12	0x38bab7ee	8.903431e-05
13	0x38a674e0	7.9372665e-05
14	0x38d88062	0.00010323596
15	0x38314074	4.2260115e-05
16	0x387193c0	5.759648e-05
17	0x385335be	5.035637e-05
18	0x38419fa8	4.6163477e-05
19	0x3848ed84	4.790492e-05
20	0x38449295	4.6866557e-05
21	0x3864591c	5.4442426e-05
22	0x38123118	3.4854835e-05
23	0x3864bb58	5.4533913e-05
24	0x38404e85	4.5849494e-05
25	0x3889e1d8	6.574736e-05
26	0x388085ba	6.128424e-05
27	0x386a9ac4	5.5934084e-05
28	0x389541a4	7.1171e-05
29	0x389bd40a	7.430471e-05
30	0x38971556	7.204215e-05
31	0x38a67aea	7.938391e-05
32	0x38995507	7.311446e-05
33	0x386c02ea	5.62695e-05
34	0x38386521	4.3963202e-05
35	0x38681a23	5.5337452e-05
36	0x386208a2	5.389064e-05
37	0x38263f08	3.9636187e-05
38	0x3851ed87	5.0050698e-05
39	0x388a0a14	6.58223e-05
40	0x380a936e	3.303907e-05
41	0x3859358c	5.17867e-05
42	0x387723dc	5.8922786e-05
43	0x38828be5	6.2249404e-05
44	0x385faccf	5.3328284e-05
45	0x38826119	6.216969e-05
46	0x38886f4b	6.505715e-05
47	0x389eb529	7.567771e-05
48	0x38ab6739	8.173142e-05
49	0x389d08d0	7.487985e-05
50	0x38d4683c	0.00010128363
51	0x382ce919	4.1225085e-05
52	0x387af098	5.9828715e-05
53	0x3851104b	4.9844657e-05
54	0x37b1ba87	2.1186903e-05
55	0x37364b92	1.086564e-05
56	0x37be226c	2.2665794e-05
57	0x37c973ea	2.4015044e-05
58	0x3751858f	1.2488467e-05
59	0x37bf07b7	2.2772567e-05
60	0x37c70d3e	2.3728815e-05
61	0x37c20ac9	2.3131624e-05
62	0x37974608	1.8033214e-05
63	0x37b450d2	2.1495307e-05
64	0x37d3e3cd	2.5259238e-05
65	0x37fb4580	2.9953895e-05
66	0x380989c8	3.2791664e-05
67	0x3814f7ee	3.5516852e-05
68	0x3828d460	4.025211e-05
69	0x371e1ba2	9.423968e-06
70	0x37c2de6b	2.3230174e-05
71	0x378b1cc1	1.658348e-05
72	0x37ae04d4	2.0744665e-05
73	0x372b8689	1.0223718e-05
74	0x37b81ea1	2.1948772e-05
75	0x37c11a0d	2.3019524e-05
76	0x3740a3d1	1.1482233e-05
77	0x37d460e6	2.5317491e-05
78	0x37e8bb6d	2.7743832e-05
79	0x37f17e3d	2.8788223e-05
80	0x375e91a2	1.3266139e-05
81	0x37cd1bd4	2.4450863e-05
82	0x380b5eaf	3.3228363e-05
83	0x3819b8a6	3.665001e-05
84	0x3827f559	4.00444e-05
85	0x380f714a	3.4199365e-05
86	0x38204093	3.8207112e-05
87	0x3735f19c	1.0844695e-05
88	0x37b3b397	2.142209e-05
89	0x37730c02	1.44867245e-05
90	0x36e9a195	6.9627517e-06
91	0x36ed4803	7.0715337e-06
92	0x37058690	7.958748e-06
93	0x37059dd7	7.964168e-06
94	0x36aa9058	5.0831986e-06
95	0x370d2e50	8.415038e-06
96	0x3727394d	9.967317e-06
97	0x373c75f1	1.1233134e-05
98	0x3710b714	8.625695e-06
99	0x371971f6	9.146044e-06
100	0x37502fea	1.2408922e-05
101	0x3770d054	1.435362e-05
102	0x37561849	1.2761048e-05
103	0x37755ee7	1.4625234e-05
104	0x376388e2	1.3562125e-05
105	0x36be9f6e	5.6810013e-06
106	0x37139f30	8.7989465e-06
107	0x36c290d7	5.798512e-06
108	0x36c65274	5.9104586e-06
109	0x36c32934	5.8162495e-06
110	0x370d2662	8.413192e-06
111	0x36d7cdcc	6.431457e-06
112	0x36733fe9	3.6247022e-06
113	0x3713427f	8.777365e-06
114	0x370a7dcf	8.254733e-06
115	0x371aa956	9.218542e-06
116	0x370e95e4	8.498759e-06
117	0x36f09092	7.1693876e-06
118	0x36f3f87b	7.2708913e-06
119	0x3717aa5a	9.039964e-06
120	0x3711655b	8.666272e-06
121	0x374172b0	1.1530399e-05
122	0x3748a97c	1.196039e-05
123	0x3667444e	3.446144e-06
124	0x36f51981	7.304538e-06
125	0x36f64681	7.339579e-06
126	0x37fbc9d4	3.0015515e-05
127	0x375df623	1.3229935e-05
128	0x37d99567	2.5937987e-05
129	0x3811107b	3.4586043e-05
130	0x3759d1c9	1.2983052e-05
131	0x37cc7da3	2.43772e-05
132	0x37dd4039	2.6375159e-05
133	0x37f2ca42	2.8942832e-05
134	0x378abe84	1.6539598e-05
135	0x38010a1e	3.076542e-05
136	0x37e3542f	2.709971e-05
137	0x37eb8876	2.8077728e-05
138	0x3810c98d	3.4519984e-05
139	0x3800377d	3.0569256e-05
140	0x385d39d6	5.274437e-05
141	0x375ebb17	1.3275791e-05
142	0x38010936	3.0764575e-05
143	0x37a2d112	1.940926e-05
144	0x37709c52	1.4341511e-05
145	0x3789c600	1.6423874e-05
146	0x3798bbec	1.820732e-05
147	0x378b64cb	1.6617027e-05
148	0x371a3bd0	9.1930415e-06
149	0x37b0317c	2.1003878e-05
150	0x37b8f22f	2.2047285e-05
151	0x37899f1e	1.6405767e-05
152	0x373a17d5	1.1092013e-05
153	0x3798e626	1.8226983e-05
154	0x378796d9	1.6163498e-05
155	0x37b2c173	2.1309335e-05
156	0x37b6dfb8	2.1800268e-05
157	0x37b26ebc	2.1270818e-05
158	0x37fd08a1	3.0163968e-05
159	0x371f67e7	9.50133e-06
160	0x378d78c9	1.6864755e-05
161	0x37504a82	1.2415114e-05
162	0x3786df61	1.6078064e-05
163	0x3769120e	1.3892086e-05
164	0x378364d7	1.5663374e-05
165	0x37944744	1.767616e-05
166	0x370a52db	8.244732e-06
167	0x377dc407	1.5125616e-05
168	0x3759528d	1.2953428e-05
169	0x3786f788	1.608931e-05
170	0x37825288	1.553564e-05
171	0x3784aced	1.5816151e-05
172	0x374e4c7b	1.2296364e-05
173	0x3791bc66	1.7373077e-05
174	0x378b7955	1.662659e-05
175	0x37a16d20	1.924351e-05
176	0x3802a7b0	3.1150586e-05
177	0x372e8da5	1.0404187e-05
178	0x379caea0	1.8677965e-05
179	0x373f9d19	1.1421064e-05
180	0x36dd6352	6.5978757e-06
181	0x36becfb9	5.6866234e-06
182	0x36d3ded3	6.31423e-06
183	0x3703f91b	7.866208e-06
184	0x368921e2	4.0868626e-06
185	0x36bb9d4b	5.5913456e-06
186	0x36c4b340	5.8621226e-06
187	0x371381cf	8.792106e-06
188	0x36f09bee	7.17071e-06
189	0x36bfe07c	5.718377e-06
190	0x36fce3e9	7.5367175e-06
191	0x37038251	7.83855e-06
192	0x36faf8e6	7.479556e-06
193	0x3718262c	9.068794e-06
194	0x374ad124	1.2088833e-05
195	0x36b0b3b1	5.2661276e-06
196	0x371fb5b1	9.519442e-06
197	0x36c062a2	5.7335283e-06
198	0x378c2518	1.6706574e-05
199	0x37a13c40	1.9220752e-05
200	0x379acba9	1.8453067e-05
201	0x37b700c3	2.1815655e-05
202	0x375fdfdb	1.3343956e-05
203	0x37a75f7a	1.9952411e-05
204	0x37aa77a2	2.0321288e-05
205	0x37ba9dc9	2.2246402e-05
206	0x3794b0b4	1.7725259e-05
207	0x37a484bf	1.9612138e-05
208	0x37c09f29	2.2962298e-05
209	0x37f94059	2.9713077e-05
210	0x37f185c9	2.8791737e-05
211	0x3801b696	3.0926043e-05
212	0x380eb3e7	3.4022985e-05
213	0x3798a7bc	1.819792e-05
214	0x37c1460d	2.3040013e-05
215	0x379471ec	1.7696024e-05
216	0x38e86509	0.00011081441
217	0x38ace91a	8.245018e-05
218	0x38d1f937	0.000100123165
219	0x3901f254	0.00012392673
220	0x38873340	6.446848e-05
221	0x38c51bbd	9.398859e-05
222	0x38d9ccbd	0.00010385502
223	0x39005a9c	0.00012240786
224	0x38c2ba8e	9.2853894e-05
225	0x38f02c89	0.00011452387
226	0x38f075e2	0.00011466049
227	0x39133d70	0.000140419
228	0x391493c7	0.00014169431
229	0x390e3329	0.00013561234
230	0x3959ad69	0.00020759333
231	0x38ba8f44	8.8958564e-05
232	0x38e15564	0.00010744741
233	0x38b90802	8.822979e-05
234	0x3777b944	1.4765483e-05
235	0x379e2efb	1.8856945e-05
236	0x379be505	1.8584085e-05
237	0x37988779	1.8182896e-05
238	0x373438d2	1.0742066e-05
239	0x37b0c94d	2.1074573e-05
240	0x37a7dd7d	2.001109e-05
241	0x37a8f08b	2.0139172e-05
242	0x37977fbc	1.8060084e-05
243	0x37a373b6	1.9484996e-05
244	0x37d5105c	2.5399197e-05
245	0x37f14da3	2.8765591e-05
246	0x37eed1a7	2.8469438e-05
247	0x380cbd1f	3.3554734e-05
248	0x37ff73fe	3.0452382e-05
249	0x3770a2ca	1.4343017e-05
250	0x3795eecf	1.7873388e-05
251	0x37561fce	1.2762799e-05
252	0x3744c909	1.17293175e-05
253	0x375ee2c7	1.3285032e-05
254	0x373638a7	1.0861236e-05
255	0x375b77a4	1.3081273e-05
