runs/BallBalance_11-16-09-10/nn/last_BallBalance_ep_200_rew_2.2118797.pth (torch, 173671 bytes, 36 tensors)

value_mean_std.running_mean f8 [1]
000000 31 ca 41 13 62 f3 c1 3f
       0.1402399629619864

value_mean_std.running_var f8 [1]
000000 0c fd f7 b1 92 f1 75 3f
       0.005357335117422989

value_mean_std.count f8 []
000000 00 00 00 00 00 01 b9 40
       6401.0

running_mean_std.running_mean f8 [18]
000000 23 b7 0e 40 32 1c c1 bf 63 8f 7f 0d 92 8e bf 3f
       -0.13367298248106704 0.12326920346782581
000010 a8 32 07 8e 20 ba b7 bf 71 0d 58 b3 e0 0e c2 bf
       -0.09268382518275564 -0.14107903248814638
000020 d1 86 6a 4c b7 ef 9a 3f 0b d9 66 ca fc cc a4 bf
       0.02630506900698643 -0.040626430232281484
000030 6b 39 32 0c 32 de b3 bf 78 9f 36 05 d4 13 e2 bf
       -0.07760918424376022 -0.5649204351256989
000040 3b 00 7d 5b af 72 e0 3f df af e9 56 44 e4 d0 bf
       0.5139996325378954 -0.26393230903226866
000050 1b be 37 27 44 4d de bf 25 69 5d 70 1a 24 ad 3f
       -0.4734659560189997 0.0569160711445014
000060 99 be 31 92 b7 fd ae bf 61 46 90 f4 79 bf b9 bf
       -0.060529457660661375 -0.10057794781484965
000070 6c cc 04 c4 ce 08 c0 3f 90 95 b2 c7 bb a3 c3 3f
       0.12526878901698824 0.15343425036296
000080 1c 8e 8f f5 6d 9a cf bf 34 a4 7b 8e 40 14 c6 3f
       -0.24690031519195166 0.17249304730583648

running_mean_std.running_var f8 [18]
000000 b8 47 a5 e2 fa 04 c2 3f 28 78 5e 7a 5d b0 a3 3f
       0.14077697817498147 0.03845493429911101
000010 17 23 ad b3 1a 18 c1 3f 1e 7d 72 ca ad 09 ca 3f
       0.13354810498483324 0.20342037568205112
000020 59 7d e8 77 f1 4d a5 3f a3 15 a4 44 80 cb 85 3f
       0.04161028469774903 0.010642053694492065
000030 ad a1 c6 fa 44 70 7e 3f a5 8d 39 ae cf 86 05 40
       0.007431287242447499 2.6908258067430375
000040 2a 38 20 dd 4a 4a e9 3f 45 7b 47 ca c2 88 0d 40
       0.7903189009537119 3.6917777827324323
000050 9f bf 1a 8d f7 1b 13 40 1a c9 93 69 2a 13 e6 3f
       4.7773115203453065 0.6898395597511666
000060 c1 08 84 97 3d d4 ef 3f b7 cf c5 61 8b 13 f5 3f
       0.9946582755367431 1.317271596836674
000070 03 81 30 33 ec fc 73 3f 66 25 c1 2e ed 05 79 3f
       0.004879877716149619 0.006109167570749951
000080 7f 4b fa 12 04 0c c5 3f f8 03 fc af a3 81 cb 3f
       0.16442919661184516 0.21489378064146059

running_mean_std.count f8 []
000000 00 00 00 00 00 02 a9 40
       3201.0

a2c_network.sigma f4 [7]
000000 d3 e7 57 be b3 6d 34 be 5a e0 98 be e6 d0 cc bd
       -0.21084528 -0.17619972 -0.29858667 -0.10000782
000010 1f c9 73 be e1 be e3 bd ba 3c 06 be
       -0.2380719 -0.11120392 -0.13109103

a2c_network.actor_mlp.0.weight f4 [128, 18]
000000 d0 1f 53 bd e6 2b f4 3c f6 d9 80 be ae 7f b2 3d
       -0.05154401 0.029806089 -0.2516629 0.08715759
000010 84 38 85 3c a3 73 81 3e 29 74 14 bd 6e 29 09 be
       0.0162623 0.25283536 -0.03624359 -0.1339471
000020 9e e2 32 be 97 b6 e7 bd 6d 00 87 3d 85 17 63 be
       -0.1746926 -0.11314123 0.06591878 -0.2217694
000030 f9 c0 37 3e ed 95 1a be 30 ad 2f 3e a8 c0 61 be
       0.17944707 -0.15096255 0.1715591 -0.22046149
000040 4b cd 35 3d 30 da 40 3e 90 86 e6 3c aa 8d 8f 3e
       0.044385236 0.18833232 0.028140336 0.2803777
000050 23 78 35 3d 04 16 94 bd f7 92 d8 3d 08 bf e7 3c
       0.044304024 -0.07230762 0.10574906 0.028289333
000060 c4 12 c0 3d da b5 33 3e 4f 6d 46 3e ce ca 26 bd
       0.09378579 0.1754984 0.19377635 -0.040720753
000070 92 43 c9 3d 86 ec 9c bd c4 13 46 3e 99 c2 58 be
       0.09827341 -0.07662301 0.19343477 -0.21167983
000080 04 ff 31 be 9e 7f 86 be a7 f9 43 be 01 14 4c 3e
       -0.17382437 -0.2626924 -0.19138204 0.19929506
000090 16 ef 8b bd 67 5b 32 3e 64 a7 ed 3c 24 a7 c2 bc
       -0.068327114 0.1741768 0.029010482 -0.02376134
0000a0 d7 c3 0f 3e ad e9 9f bd d4 a7 50 3b 67 9f 4d be
       0.1403955 -0.07808242 0.0031838315 -0.20080338
0000b0 30 1a 10 3e 53 6a f6 bd 86 a8 37 3e b4 47 f1 bd
       0.1407249 -0.120319985 0.1793538 -0.117812544
0000c0 38 b8 44 3e 34 ca 77 be ee a6 81 bd f5 bf 90 be
       0.19210899 -0.24198228 -0.063306674 -0.28271452
0000d0 0c 2e 4f 3e 6e 88 1d 3e b8 48 55 3e 84 b6 83 be
       0.20232409 0.15384075 0.20828521 -0.25725186
0000e0 65 94 84 be 45 75 63 be be 8b ac 3b a7 17 93 3d
       -0.25894466 -0.22212704 0.005265682 0.07182246
0000f0 14 53 a3 3d 5d 4d da 3d b7 c7 b0 bd 16 f3 3d be
       0.0797483 0.10659287 -0.086318426 -0.18549761
000100 f6 28 91 bc b2 31 fb bc 94 d2 19 bd 4c fa dd bd
       -0.017719727 -0.030663345 -0.03755434 -0.10838756
000110 43 6b 3c 3e bc ee ed be 7c fc 19 be 59 7b f0 bd
       0.18400292 -0.46471202 -0.15037721 -0.11742277
000120 a8 ad 34 3e a1 4d 8c be c4 f3 70 3d ee 8d ab 3e
       0.1764437 -0.27402976 0.058826223 0.3350672
000130 b2 b6 4b be 50 74 ce bd 65 8e 47 3e 40 07 e2 bd
       -0.19893911 -0.100807786 0.19487913 -0.11036539
000140 65 a3 64 be a4 a3 84 be 84 a5 1a be f6 20 fc 3d
       -0.22327955 -0.25906098 -0.15102202 0.12310974
000150 e5 1f 8e 3d 49 e7 ee bd e4 31 e6 3d 36 64 c0 be
       0.06939677 -0.11665208 0.11239985 -0.37576455
000160 d9 31 ad bb 22 cc 2b be 3f 72 15 be f5 d2 aa bd
       -0.0052854833 -0.16777089 -0.14594363 -0.08341018
000170 f3 31 3f 3e d5 e8 56 3d e2 4e af 3d a8 a1 3c be
       0.18671398 0.05246814 0.085599676 -0.18421042
000180 56 3f e2 bd 32 3d 88 3d fe 84 14 3c da fa 01 bd
       -0.110472366 0.06652297 0.009064911 -0.03173337
000190 12 0b 37 bd 52 e6 e2 bd 76 12 cf 3d 1b 4b 74 be
       -0.04468829 -0.11079086 0.10110943 -0.23856775
0001a0 5d 5d 80 bd c2 0a 1f be 8e 96 89 be 05 33 51 be
       -0.06267808 -0.15531448 -0.26872677 -0.20429619
0001b0 6f 13 b9 bd 97 1b 99 bd 2c 4b 4b 3e fc 85 c3 bd
       -0.0903691 -0.074759655 0.19852895 -0.0954704
0001c0 68 39 75 3e 61 75 32 3e ad 69 0f be 59 5f 3e 3e
       0.2394768 0.17427589 -0.14005156 0.1859106
0001d0 7c 45 2d 3d 09 72 35 3a 63 2b 54 be 61 a6 98 be
       0.042302594 0.00069215946 -0.20719676 -0.29814437
0001e0 da 97 02 3e 84 4d 23 be 01 0b 39 bd 52 b3 2e be
       0.1275324 -0.15947539 -0.04517651 -0.17060593
0001f0 4f 34 e2 3c a9 34 28 be de 42 b9 bd 52 45 0a be
       0.027612833 -0.16426338 -0.09045957 -0.13503006
000200 9c d2 b8 3c 24 86 2b 3e 2d 5d 74 3e 42 e7 59 be
       0.022561364 0.1675039 0.23863669 -0.21279624
000210 4b 5c 11 3c 6b a8 00 be 58 15 9b bd c4 0e 74 be
       0.008872102 -0.12564246 -0.0757243 -0.23833758
000220 c5 25 3c 3e 26 4e 16 bd 7d 50 be 3d b5 fe 05 bc
       0.18373783 -0.036695622 0.09292696 -0.008178403
000230 49 53 03 3e 97 b0 b8 be 84 91 62 3e 80 20 39 bd
       0.1282474 -0.36072227 0.22125822 -0.04519701
000240 32 12 9c 3c ec f4 a8 be 90 a5 26 3e d4 fe 00 3a
       0.019051645 -0.3299936 0.16274095 0.0004920785
000250 df 06 c4 bd d0 d1 8f 3e 21 f6 0b 3e 92 2b dc bd
       -0.09571623 0.28089762 0.1366811 -0.10750498
000260 d6 e3 27 be da 8f 24 bd c7 6b 09 3e a8 2a d5 3c
       -0.16395506 -0.04017625 0.1342002 0.026021317
000270 80 ff 96 bd 56 1e 17 be c2 1f 6a be ad 72 e1 bc
       -0.073729515 -0.14757666 -0.22863677 -0.027520502
000280 ed 14 62 3e 9d 72 97 be c2 3a 72 3e 39 73 be 3d
       0.22078295 -0.2957963 0.23655227 0.09299321
000290 86 93 ca 3d 2c a1 ac bc 83 f2 4e 3e 47 4a 2a 3e
       0.09891419 -0.021072946 0.20209698 0.16629897
0002a0 a0 1d 83 3c 14 dc 46 bd 95 9d 66 3c 4f 6b e4 3d
       0.016005337 -0.048549727 0.014075656 0.1115328
0002b0 78 6a 19 be b3 90 93 bd 34 f6 ed 3c 2e 76 ee 3d
       -0.14982021 -0.072053336 0.029048063 0.11643635
0002c0 00 87 17 be e0 0d d9 bd db 38 93 bd bb 59 85 3d
       -0.14797592 -0.105983496 -0.07188579 0.06511255
0002d0 e1 cf 59 3e 0f eb f4 3d 70 b9 41 be 6d ec 95 bd
       0.21270706 0.11958896 -0.18918395 -0.07320485
0002e0 d9 e4 77 3e 9f 9e 03 3e ae 3c b1 bd e2 a2 c5 bd
       0.24208392 0.12853478 -0.08654152 -0.09650208
0002f0 f9 c4 0f bd 45 fb 0f be 7e 94 35 be 65 f7 20 3d
       -0.035099957 -0.14060695 -0.17732427 0.039298434
000300 b2 ad 74 bd f9 e4 87 3d 31 f7 85 be 95 fb cc bd
       -0.05973596 0.0663547 -0.26165155 -0.10008923
000310 31 16 8c bd f6 7c 7f 3e 42 1a 1e be eb 46 24 bd
       -0.0684017 0.24950013 -0.15439704 -0.040106695
000320 c1 b2 47 3d 9d c9 a9 bd d0 bb 96 be 5e bd e0 3c
       0.048754457 -0.08290408 -0.29440165 0.027434047
000330 f6 76 dc bd 14 58 4c bd 66 c2 ff bd ad f9 a1 bd
       -0.107648775 -0.049888685 -0.124882504 -0.0790895
000340 74 b4 9a 3e 4c 4a 9e 3d 91 fc 87 bd d6 f7 28 be
       0.302158 0.07729015 -0.0663997 -0.16500792
000350 ae ed cc bd f6 bd 30 3e c1 68 10 3e 68 ed ad 3e
       -0.10006271 0.17259964 0.1410246 0.3397019
000360 77 10 77 3e 59 d6 23 bd 09 65 b8 3d bd 0b f9 bd
       0.24127375 -0.03999934 0.09003646 -0.12160442
000370 1c 16 cd bd 42 6e 20 be 7c e9 6e 3d 62 ee f4 ba
       -0.10013983 -0.1566706 0.058328137 -0.0018686766
000380 e3 98 11 be 15 3f 71 3c 3e f4 d2 bd 3b fc de bd
       -0.14218478 0.014724513 -0.10300492 -0.10887953
000390 6c da 50 3d 5f 18 34 be e5 ae 18 bd a7 34 ad 3e
       0.050989553 -0.17587422 -0.037276167 0.33829233
0003a0 ba 60 0d be d9 6a 9b be 3a 57 8b bd 28 94 68 bd
       -0.1380643 -0.30354956 -0.068037465 -0.056781918
0003b0 8e 59 94 3c 92 6c 90 be 3c ba 64 3e b0 ef 56 bd
       0.01810911 -0.28207833 0.22336668 -0.052474678
0003c0 24 b0 27 3e 99 dc ff 3c bc 46 6d 3e 30 97 bc bd
       0.16375786 0.031233119 0.23171514 -0.09208524
0003d0 d9 75 8c 3d e6 e8 74 be a4 08 17 3e 8a e6 7d 3d
       0.06858415 -0.23916969 0.1474939 0.061987437
0003e0 2d bc c4 3c 27 75 df bc 9a 1d 00 be 96 b0 85 be
       0.02401551 -0.027277542 -0.12511292 -0.26111287
0003f0 39 2d 4b 3e c0 65 3a be cc 5d 3c 3e d4 88 18 3e
       0.1984147 -0.18202877 0.18395156 0.14895946

a2c_network.actor_mlp.0.bias f4 [128]
000000 e0 07 36 3e cc a2 d4 3d 22 66 eb 3d 32 95 24 bc
       0.17776442 0.103826135 0.1149409 -0.010045337
000010 75 e8 64 3d f9 f6 be bd 85 59 c3 bc ea 43 60 3c
       0.05588575 -0.0932445 -0.023846397 0.013688067
000020 d1 11 2d 3d 9c 49 da 3c 9c c0 ee bd 70 bf 8b 3d
       0.04225332 0.026646428 -0.11657831 0.06823623
000030 e8 92 d3 bc 43 cf 8d 3d 6a a7 40 bd 02 76 db bd
       -0.025826886 0.06924298 -0.04703466 -0.107158676
000040 48 cc 9d bd 1e 28 2f be 4d 2a 1c be 81 8a 0c be
       -0.07704979 -0.17105147 -0.15250511 -0.1372471
000050 5c ef 1d 3c 7a 8c c0 bd da a0 a0 bc d9 b2 ae bd
       0.009639587 -0.09401794 -0.01960795 -0.08530206
000060 49 ac 2c 3c 81 67 00 3e be 18 19 bd 2e 55 9c bc
       0.010539123 0.12539484 -0.03737711 -0.019083586
000070 24 32 8c bd 56 14 82 bd 76 f1 21 3d 08 5f 06 bd
       -0.06845501 -0.06351535 0.039536916 -0.032805473
000080 99 25 02 be 85 19 3c 3d 20 34 5e be b6 43 37 be
       -0.12709655 0.045922775 -0.21699572 -0.17896923
000090 d4 ec 55 bd 88 09 d4 bd 01 c6 28 bd 84 67 01 3d
       -0.05222781 -0.103533804 -0.041204456 0.03159286
0000a0 59 53 aa 3d 30 6c 26 bd f4 bf f9 bd aa 77 98 bc
       0.083166786 -0.04063052 -0.12194815 -0.018611748
0000b0 7e 9e 29 3d e6 f2 61 3d 50 d6 4f be 23 71 6d 3d
       0.041410916 0.055163287 -0.20296597 0.057969224
0000c0 0d b0 25 3d fd b6 02 bc 2c ea 81 bc 31 d1 6a be
       0.0404511 -0.007978198 -0.015858732 -0.22931363
0000d0 6e 78 8b be 31 74 f2 bd 8d 4f 10 bd 97 d4 9c bd
       -0.27240318 -0.11838568 -0.035232116 -0.07657736
0000e0 12 5f 42 be 0f 71 34 3b 24 29 0b 3e ce 8e d4 bd
       -0.18981579 0.0027533208 0.13589913 -0.103788
0000f0 b7 89 d4 3d c7 43 65 3c 82 c7 9b bd 3e f4 f0 3c
       0.103778295 0.01399321 -0.076064125 0.029413339
000100 09 33 74 3d 33 d5 b2 3d 55 3f ae 3c a2 84 f6 bd
       0.059618983 0.08732071 0.021270433 -0.120370165
000110 29 af 43 bd 55 32 8e bd 86 22 26 be 9e 2c 8e bd
       -0.047774468 -0.06943194 -0.16224107 -0.06942104
000120 da ae b6 bd 61 ac 3f 3d da 30 92 3c 84 06 a1 bd
       -0.08920069 0.046795253 0.01784556 -0.07862571
000130 98 ff e1 3d 57 65 53 be a3 1c 25 be 75 3f 0b be
       0.11035079 -0.20644127 -0.16124205 -0.13598426
000140 c4 7f 93 bd b3 91 b0 3d 68 0b 8f bd 91 a3 58 3e
       -0.07202104 0.0862154 -0.069845974 0.21156146
000150 3c b8 4e be 3b 35 64 bd 34 4c 08 3e f0 07 01 3e
       -0.20187467 -0.055714827 0.13310319 0.12600684
000160 59 3e 10 3e 57 53 b8 3d a2 81 5a 3d a3 85 28 be
       0.14086284 0.09000271 0.053346284 -0.16457228
000170 7c 25 10 3e cc 6f ed bd f3 72 35 bd 61 90 3d be
       0.14076799 -0.11593589 -0.044299077 -0.18512107
000180 b3 6c 0d 3e d9 3c 93 bd 93 d0 39 bc 50 94 79 bd
       0.13810997 -0.0718934 -0.011341232 -0.060932457
000190 70 6f c4 3c c0 27 34 3d bb 33 4f bd 4a de 02 3c
       0.023978919 0.04398322 -0.050586443 0.007987568
0001a0 bb 98 27 bd a4 c4 44 bd 42 86 c4 bc 86 ea c2 bd
       -0.04091714 -0.048039094 -0.0239898 -0.09517388
0001b0 89 0d 17 bd bb 75 0f bd 45 dd f4 3c ad 1a 0f bc
       -0.036878143 -0.035024386 0.029890666 -0.008734387
0001c0 22 af 8e be 51 f7 9d bd 4b 34 27 3e 75 a6 cc 3d
       -0.2786799 -0.077131875 0.16328542 0.09992687
0001d0 1b 50 50 3d 7c 46 fa bc 83 69 a8 bd 77 65 24 3e
       0.050857645 -0.030551188 -0.0822325 0.16054331
0001e0 56 6e dc bd ec 41 37 be f8 93 3e bd dd 65 00 3d
       -0.107632324 -0.17896241 -0.046527833 0.031347144
0001f0 dc 71 bb bc 28 e5 55 bd ae 01 17 3e 88 a8 54 3c
       -0.02288144 -0.052220494 0.14746734 0.012979634

a2c_network.actor_mlp.2.weight f4 [64, 128]
000000 dc bb ca 3d a9 c8 f7 3d 6d bb 9a 3c db df b7 3d
       0.098991126 0.1209882 0.0188882 0.08978244
000010 af 4a 45 3e 9a fe 79 bc da a0 30 3c ab 26 44 bc
       0.19266771 -0.015258456 0.0107805375 -0.01197211
000020 72 80 78 3d ea 6f fd bd e8 e6 8f 3d 19 31 8e bc
       0.06066937 -0.123748615 0.07026464 -0.017357396
000030 d5 21 72 3d 8c 50 3c 3b 9d 47 cc 3c f4 be 81 3d
       0.059114296 0.0028734533 0.024936492 0.063352495
000040 ff eb 4e 3d 8a 0b 7a bc 5f 18 0b 3e df 4f 36 bd
       0.050518032 -0.01526154 0.13583516 -0.044509765
000050 da 25 e5 3c d3 48 ee bc 6a d7 0a 3d 9f 5e 59 3d
       0.02797215 -0.02908746 0.03389684 0.053068753
000060 a8 aa 9a 3d de ea 84 bd d2 5e f8 3d c7 bb 08 3e
       0.07552081 -0.0649011 0.121274605 0.13352881
000070 40 7a 83 3c 78 2b d7 bd 35 38 8e bc 05 80 d5 bd
       0.016049504 -0.10506338 -0.017360786 -0.104248084
000080 d5 83 a4 3c 79 51 b1 ba 4c 96 37 be e9 bb e2 bd
       0.020082394 -0.0013528309 -0.17928427 -0.11070997
000090 83 67 0f 3c aa c5 d6 bd 55 56 36 bd 9b 31 44 bd
       0.008752706 -0.1048692 -0.044515926 -0.04789887
0000a0 5c 04 3b bd c2 e5 82 3c 66 c5 a1 bd f3 8c fd 3c
       -0.045658454 0.015978698 -0.07898979 0.030950999
0000b0 f4 28 3a bd ba 1c f0 3d 84 df 68 3b a8 94 17 3b
       -0.045449212 0.11724229 0.0035533616 0.0023129378
0000c0 ad 38 0e bd 70 f1 bf 3c 72 e6 47 3e cf f2 15 bd
       -0.03472202 0.023430556 0.19521502 -0.036608513
0000d0 7f 2b 0f bd 90 70 f8 bd 57 a7 c0 bd f4 c9 28 3d
       -0.03495359 -0.121308446 -0.094069175 0.041208223
0000e0 02 7b 04 be 78 47 a5 3d 75 41 0e 3d 20 b3 96 3b
       -0.12937549 0.08070272 0.034730393 0.00459899
0000f0 03 6e 38 3d 26 ce 69 bd 90 7e 75 3d 24 00 23 3d
       0.04502679 -0.057081364 0.059935153 0.039795056
000100 3c da b1 3d e7 0c 67 bd 9a 64 c7 bd dd 9b 24 be
       0.08684203 -0.05640879 -0.09735985 -0.16075082
000110 5f ba 87 3c f2 d9 4f 3c 09 e3 94 3d e7 60 3c be
       0.01656836 0.01268624 0.07269866 -0.1839634
000120 aa 37 c1 bd c4 a6 03 3e 99 58 bf 3d 2b 16 05 3e
       -0.09434445 0.12856585 0.093430705 0.12996738
000130 36 18 39 3d 1e b7 59 3b 56 cf 3f bd d3 72 21 3d
       0.045189105 0.0033220719 -0.04682859 0.039416146
000140 d0 43 8a 3c 47 3b 2f be 15 9d cb bc be 2d 04 be
       0.016878039 -0.17112456 -0.024855176 -0.12908074
000150 ba 94 86 3c 15 61 c0 ba 0e a9 61 bb 75 b2 a0 3d
       0.01642834 -0.001467737 -0.003443304 0.07846538
000160 38 43 8d 3d 23 f3 0d be 57 c2 26 3e ad c1 c0 bb
       0.068975866 -0.1386228 0.16285072 -0.005882463
000170 86 e3 26 be 08 5e 12 bc 62 8c ac bb 09 f2 8e bd
       -0.16297731 -0.008933552 -0.0052657584 -0.06979758
000180 1a 43 0d be 73 4b 21 3d 21 26 3f bd f8 2e 86 bd
       -0.13795128 0.039378595 -0.046667222 -0.06551927
000190 f6 5a 7a 3d b2 58 8c 3c b3 95 72 bc 32 7a f4 3c
       0.061121903 0.017132137 -0.014806199 0.029843424
0001a0 69 f3 1c 3d 18 05 4c bc 7d 9b 35 3d 77 fa 6a 3d
       0.03831807 -0.012452386 0.04433774 0.05736777
0001b0 d3 a0 db 3d 94 30 37 3d 53 e4 e3 3b 5d 13 81 3d
       0.10724034 0.044724062 0.0069547086 0.063025214
0001c0 37 ef 72 3c f2 b7 3b 3d d0 e1 a0 bb 82 29 82 bb
       0.014827541 0.04582972 -0.0049097314 -0.0039722333
0001d0 e4 e6 4f bd 37 48 da 3d dc cb 13 3b 53 44 5b bd
       -0.050757304 0.10658305 0.002255193 -0.053531956
0001e0 d3 f6 43 3d e8 e1 4e bb b5 59 f6 3c 3e 7e 51 3d
       0.04784281 -0.0031567756 0.030072073 0.051145785
0001f0 ad fc 24 3d c6 e4 27 bb d6 7d 24 bb 11 d7 c6 3d
       0.040280033 -0.0025618537 -0.0025099418 0.097089894
000200 ca 42 0e be 4f 8d 1f be 35 28 ef bd ce 37 67 bd
       -0.13892666 -0.15581249 -0.11677591 -0.056449704
000210 8b a1 37 3e ea 8d 29 be 22 75 49 bd c1 7f 11 bc
       0.17932718 -0.16558042 -0.049183972 -0.008880557
000220 90 38 05 3e 50 18 c4 3d 31 d8 69 3d f6 ee ba bd
       0.13009858 0.0957495 0.05709094 -0.091276094
000230 ff 21 bf bd 10 79 87 bd be c3 01 3e e7 c1 d2 3c
       -0.09332656 -0.06614888 0.12672326 0.025727225
000240 d1 37 92 bd ef 9d 25 bd af ae 1a bd 18 5a 8b 3c
       -0.071395524 -0.04043382 -0.037764248 0.017010733
000250 fe 19 57 3e c4 1b 37 3c 8c 88 0c 3c a5 de 0c bd
       0.21006009 0.011176053 0.008577477 -0.034392018
000260 fb 6c 2e be cb e8 00 3e 47 dd de 3d 80 29 47 3d
       -0.1703376 0.12588803 0.10882049 0.04862356
000270 13 89 af bd 6e 8a 6e bd 9e 58 f6 3c 9b 9c 0f be
       -0.08571067 -0.058237486 0.030071553 -0.14024584
000280 1c 9a 34 3d 33 7e 0c be ff 43 dd bc 5a ae a0 bd
       0.044092283 -0.13720016 -0.027009962 -0.07845755
000290 48 77 ef bc 2a 01 83 bd ce d0 ac 38 39 ee d7 3c
       -0.029231682 -0.063967064 8.240492e-05 0.02635871
0002a0 af b5 12 3e 40 3a 95 bd 4f 6b 49 bd 83 d4 45 3d
       0.1432712 -0.07286501 -0.049174603 0.04829837
0002b0 fd d3 de bd 2e d1 96 bd 0e f1 49 3c 9c 82 0f 3d
       -0.10880277 -0.073641166 0.012325538 0.03503667
0002c0 c0 66 89 bd d4 8d bf 3d a6 f0 e7 3d fb e7 01 be
       -0.06709051 0.093532234 0.11325197 -0.1268615
0002d0 5d 5c dd bc 34 40 b7 3c d8 2e 81 bd 2b ae ba 3c
       -0.027021581 0.022369482 -0.06307763 0.022788128
0002e0 c7 74 86 bd b5 c8 e1 bd af 8c ae 3d ca 01 ce bd
       -0.06565242 -0.1102461 0.08522927 -0.10058935
0002f0 0c 73 de bc fe 9d 91 bd 4b fd 84 bd ca 2a cd bb
       -0.027154468 -0.07110213 -0.06493624 -0.0062612044
000300 55 8b b2 3c 20 8c 83 3d a7 db 80 bc 80 36 32 3d
       0.021794954 0.06423211 -0.015729738 0.043509007
000310 5f d5 d9 3d 7a b7 2c be e5 25 cc bd a3 04 0f be
       0.106364004 -0.16866866 -0.09968165 -0.13966613
000320 fb a8 74 bd 7c 0c 23 3c 54 71 3a 3d d9 b2 42 be
       -0.059731465 0.009951707 0.045518234 -0.19013537
000330 b9 de 85 be 7d fc ca bd cb 36 ca bd 07 16 23 be
       -0.26146486 -0.099114396 -0.09873732 -0.15926372
000340 a8 36 80 bb 4f 9e c0 bd f5 56 04 be 7a 93 a5 3b
       -0.0039127655 -0.09405195 -0.12923796 0.005052981
000350 65 23 af 3c aa 79 ca 3d 75 ec b1 bd e2 a3 51 be
       0.021379182 0.09886487 -0.08687679 -0.20472673
000360 d2 76 8a bc 92 98 98 bd cc 10 8a 3c ab a6 37 bd
       -0.016902361 -0.074509755 0.016853712 -0.04483668
000370 8b d6 eb bd 7d a6 03 3b 40 14 1d be d6 f9 8a 3d
       -0.1151553 0.0020088248 -0.15339756 0.06785934
000380 a9 3c 11 be 50 96 f4 bd 94 ab 78 bd 74 5f e6 bd
       -0.14183296 -0.11942732 -0.060710505 -0.11248675
000390 b4 da d4 bd 28 47 20 be 00 aa 4b bd 29 59 f4 bd
       -0.10393277 -0.15652144 -0.04972267 -0.119310685
0003a0 c1 91 08 be 0f fa 8e be e8 67 b2 3b 52 f5 7e 3c
       -0.1333685 -0.27925155 0.0054445155 0.015561419
0003b0 17 6f e2 bd c1 3f 26 bd 0d bf 5f be f0 da 44 3e
       -0.11056345 -0.040588144 -0.21850224 0.19224143
0003c0 8b fc 34 3d 3a 65 47 3e 71 82 29 3d 09 ba 9a bd
       0.044186156 0.19472209 0.041384164 -0.07555015
0003d0 e7 e2 11 bd 27 f6 91 3d b7 fd 00 3e f6 8f 1a bd
       -0.03561678 0.07127028 0.12596785 -0.037734948
0003e0 98 3c 16 be e7 46 04 be 86 33 d1 bb a3 4e 1c be
       -0.14671552 -0.12917672 -0.006384316 -0.15264373
0003f0 94 7f 47 be 94 5d be 3d f2 2b 13 bd a2 ac 68 bd
       -0.19482261 0.09295192 -0.03593058 -0.05680526

a2c_network.actor_mlp.2.bias f4 [64]
000000 56 73 36 bd 6c b0 6a bd 12 62 19 3e c2 1c 29 bc
       -0.044543587 -0.057297155 0.14978817 -0.010321798
000010 b0 f0 59 be 83 ee 28 be 2c 24 92 bd e1 28 ec bd
       -0.21283221 -0.16497235 -0.071358055 -0.115312345
000020 c8 0e f3 3d ea 30 b2 bd 93 d4 54 bd a2 8e 2e 3d
       0.11868054 -0.08700736 -0.05196054 0.042616494
000030 0c 43 06 be ba 02 29 be 72 d1 e7 3d 9d ca aa bd
       -0.13111514 -0.16504946 0.113192454 -0.08339427
000040 92 8b 95 bd b4 c2 30 be fe 8a 28 3d 0f 5c 1b be
       -0.073020115 -0.17261773 0.04114818 -0.15171836
000050 6c 6d 07 3d 3f 14 8c 3d 04 10 a8 bd 59 82 01 be
       0.033063337 0.06839799 -0.0820618 -0.1264738
000060 dd fd 07 be 85 ce d9 bb c4 98 8d bd e2 5c 46 be
       -0.13280435 -0.0066469335 -0.06913903 -0.1937137
000070 71 e4 49 bd 11 d0 08 3e da 35 8e bc 1c 87 56 3c
       -0.049290124 0.13360621 -0.017359663 0.013093736
000080 77 3b 01 be 44 c4 11 be 19 ef 88 bd 91 3c de 3d
       -0.1262034 -0.14235026 -0.06686229 0.10851396
000090 98 28 e0 bd aa f8 02 be f4 ea c0 bd a3 b2 08 be
       -0.10945243 -0.1279017 -0.09419814 -0.13349395
0000a0 62 eb a0 3d 67 8d 7f bd 20 58 56 be 53 47 c6 bc
       0.07857396 -0.06239071 -0.20932055 -0.024203932
0000b0 4f 1c 1b be 8b db 06 be 38 1f a1 bd e5 f0 08 be
       -0.15147518 -0.13169686 -0.07867283 -0.13373144
0000c0 04 33 2e bd 22 ef a5 bc a9 00 c5 3d d1 50 17 3c
       -0.04252912 -0.020255629 0.096192665 0.009235577
0000d0 78 d7 bd bb 82 5d 00 3e 14 25 17 3d ee d5 b7 3c
       -0.005793508 0.1253567 0.036900595 0.022440877
0000e0 ea 4f 39 bb e2 a7 1e bd e1 4d 86 bd 10 53 1b be
       -0.0028276392 -0.038734324 -0.06557823 -0.15168405
0000f0 25 63 99 3c 7b 08 8e bc f7 b0 6b be 14 9d b0 bd
       0.018724034 -0.017338028 -0.23016725 -0.0862371

a2c_network.actor_mlp.4.weight f4 [32, 64]
000000 f5 00 37 3d e6 88 96 3d aa 94 06 be ae 5b d3 3c
       0.044678647 0.0735033 -0.13142648 0.025800552
000010 82 ef 51 3d 99 a4 9e bb 20 ba e5 bd 23 56 01 be
       0.051253803 -0.004841399 -0.11217141 -0.12630515
000020 b4 57 29 be 39 3d 36 3c 4c 01 26 3d 6d 9d 0a bd
       -0.16537362 0.011122995 0.04052858 -0.03384154
000030 b8 33 ab bc b3 70 ab 3b 90 44 ba bd 3d 03 f0 bd
       -0.020898685 0.0052319407 -0.090951085 -0.11719368
000040 e1 2a a8 bd 26 13 aa bd b2 87 e4 bd ba bb 63 3c
       -0.082113035 -0.083044335 -0.11158694 0.013899738
000050 d9 b0 31 bd 82 93 6b bb 46 4b 2d 3d 59 91 c4 bd
       -0.043381546 -0.0035946076 0.042308114 -0.09598035
000060 4e a9 1d be fd 46 16 be cc c3 0f 3c 21 b7 f9 bd
       -0.15396616 -0.14675517 0.008774709 -0.12193132
000070 4a 88 e0 3d c7 28 da bd 25 d0 09 bd f8 e7 45 bd
       0.10963495 -0.10652309 -0.033645768 -0.048316926
000080 18 9f 06 3d bf c7 d6 3b 99 a7 7e bc af 5e 61 bd
       0.032866567 0.0065545733 -0.015542888 -0.055021938
000090 d9 d7 49 3c 94 24 ad 3d 76 df 0a bc 1e 62 eb bd
       0.0123195285 0.08454242 -0.008476129 -0.11493324
0000a0 92 4d 10 be 33 dd 3e bd fc 3c ae 3d 51 4f fb 3d
       -0.1409209 -0.04659767 0.085077256 0.12270988
0000b0 b9 c2 9b bc be 15 72 3c 04 f2 b7 3c 81 0b 97 3a
       -0.01901375 0.014775692 0.02245427 0.0011523814
0000c0 aa 47 28 3d cd f7 5b bd 73 d6 be bc 1d 47 91 bc
       0.04108397 -0.053703118 -0.023295617 -0.017734105
0000d0 0b d4 17 be 00 01 47 be 8d a1 96 bc 8a 13 f6 bd
       -0.14826982 -0.19433975 -0.01838758 -0.120154455
0000e0 d9 fb 57 bd 62 2e 5d bd ac 08 38 3d 95 55 da 3c
       -0.052730415 -0.053999312 0.044930145 0.026652137
0000f0 c7 11 3b be 01 58 9c bc 8d cb cf 3d 26 c4 78 bd
       -0.182685 -0.019084932 0.10146246 -0.060733937
000100 94 eb 09 3e 78 4e 12 3d 90 c9 60 bd 1b 5c 64 bd
       0.13468772 0.035719365 -0.054879725 -0.0557519
000110 60 3b fa bc be 81 85 bd 33 50 26 bd a1 65 a1 3d
       -0.03054589 -0.06518887 -0.040603828 0.07880712
000120 3a f5 bb bd 5d ad ba 3c 4c 83 a6 3d 6b 5d 2a 3d
       -0.09177633 0.022787744 0.08130512 0.041592997
000130 5f 9c 15 3e 2c 83 39 bd 24 20 c7 bd 51 1f 04 be
       0.14610432 -0.04529111 -0.09722927 -0.12902571
000140 fb d1 2b be 00 6f dd bd 59 0c 9d 3d 82 d5 ac 3d
       -0.1677932 -0.10812187 0.07668371 0.08439161
000150 80 65 ce bc c7 b7 b1 3c b4 eb 8f bd f8 02 43 3d
       -0.025194883 0.021694077 -0.07027379 0.047610253
000160 cc d6 23 be d4 13 89 3c 68 8b 38 3d af 73 02 bc
       -0.15999907 0.016733088 0.045054823 -0.007962151
000170 e2 e4 e0 3d 97 5c 7d 3d 1a 3d d5 bd f1 35 23 3e
       0.10981156 0.06185588 -0.10412045 0.15938546
000180 ae c2 8c 3c e4 37 0c bd bb c2 75 bd e2 65 3f 3e
       0.017182674 -0.03423299 -0.060000163 0.18691209
000190 f0 95 0f bd 6b 97 92 bc 74 61 0a be 11 c4 3c 3c
       -0.0350551 -0.017894467 -0.13513738 0.011521355
0001a0 a0 64 ae 3b b3 18 55 bb f8 26 14 39 16 89 ea bc
       0.005322054 -0.0032515943 0.00014128897 -0.02862982
0001b0 15 c3 5e 3c 74 87 94 3c cd c3 3e be 74 a8 21 bd
       0.013596316 0.018130995 -0.1862938 -0.03946729
0001c0 99 d7 31 3c 14 9b 13 bc 79 df b8 bd 28 f4 c0 bd
       0.010854625 -0.0090091415 -0.09026999 -0.09421569
0001d0 ce 60 1c 3c d3 aa 9c 3c 77 5d 3b 3d 25 09 bb 3d
       0.009544564 0.019124424 0.045743432 0.091326036
0001e0 4b 87 89 bc e4 e9 b3 bd a6 04 55 3d a0 5c 4d 3c
       -0.016788146 -0.087848455 0.052006386 0.012534291
0001f0 a0 a2 ac 3d 16 41 72 bd 3a dd 1e bd b3 f8 cd 3b
       0.08429456 -0.059144102 -0.038785197 0.006285751
000200 ac 79 97 bc b2 de 13 3d c8 66 0c 3b 71 ec 7d 3d
       -0.018490635 0.03610105 0.0021423567 0.061993066
000210 1f 6d 46 be a6 db f3 bd 69 83 1a be ad 0f c4 3c
       -0.19377564 -0.11907129 -0.15089191 0.023933256
000220 77 d2 bc bd 29 29 b3 bc b7 fc 80 bd 07 3d 56 3d
       -0.092198305 -0.021870213 -0.062982015 0.052304294
000230 b7 ae 5a bc 1b 81 15 be 56 d5 9b bb be b9 b9 bc
       -0.013347319 -0.14600031 -0.0047556562 -0.022671577
000240 f7 6f 07 be d1 84 b5 bd 29 5d 15 3c 5f 0c 19 be
       -0.13226305 -0.08863223 0.009116449 -0.14946125
000250 98 fb a0 3d a8 e9 6d 3d bf ea 43 bd fc 9c 2b 3e
       0.07860488 0.05808416 -0.047831293 0.16759104
000260 1f ef 53 bd ec de 6c 3d 59 ef 83 bd 12 3b 98 bd
       -0.051741716 0.057829782 -0.06442136 -0.07433142
000270 4c e7 52 3d e1 69 db 3d 11 32 17 3d 88 ae 16 3d
       0.051490113 0.10713554 0.03691298 0.03678754
000280 ee a9 93 3c c1 88 c3 3d 33 ff 9b 3d 07 82 f1 3c
       0.018025365 0.09547568 0.07617035 0.029480947
000290 69 0d 16 be f3 5e 9c bd 62 fd e3 bd d5 fc 1e be
       -0.14653553 -0.076352976 -0.11132313 -0.15526135
0002a0 be 1e 80 3d 4c 38 1f 3e 66 2c 01 3d 30 56 a3 bd
       0.062558636 0.1554882 0.031536482 -0.07975423
0002b0 f5 90 3a be ba 30 cb 3d fa ee 22 3d 05 30 ef bd
       -0.18219359 0.09921403 0.039778687 -0.11679081
0002c0 8a 98 b1 3b d7 6f cf 3b 1e 5c 6b bd a5 5d 60 bb
       0.0054197954 0.006330471 -0.057460897 -0.0034235504
0002d0 2a 93 0a be d0 4a 4e bd 08 1b e9 3d ff ef b7 3d
       -0.13532701 -0.050364316 0.11382109 0.089813225
0002e0 ba 58 c5 3d 87 a0 df 3d 02 af d3 bd dd 0a ab bd
       0.09636064 0.1091929 -0.103361145 -0.083516814
0002f0 8d a5 bb bd d0 90 c4 bd 49 8e 93 bc 78 2c bf 3d
       -0.09162436 -0.09597933 -0.018012183 0.093346536
000300 3d a1 ec bd d4 83 1b 3e 62 f6 0b be 8d be 9c bd
       -0.11554191 0.15187007 -0.13668206 -0.07653532
000310 e1 a9 3c bd b1 7c 5b bc d9 b6 b3 3d 16 33 d2 3d
       -0.046060447 -0.013396428 0.0877511 0.1026365
000320 12 29 1b be d7 e6 8d 3d de 55 8f bd 39 3e 48 bd
       -0.15152386 0.06928795 -0.069988 -0.048887465
000330 99 82 06 3d fe ef 8d bb cf 86 fc 3b 4d 09 0e 3d
       0.03283939 -0.004331588 0.0077065 0.03467684
000340 14 d7 e4 bd 34 0b ae 3d 36 34 ca 3d 54 e7 c3 3c
       -0.111738354 0.084982306 0.0987324 0.023914017
000350 c7 98 7f 3c 14 c6 4d be 19 10 e6 3d ac 1d 86 3d
       0.01560039 -0.20095092 0.11233539 0.06548628
000360 93 3f 99 3d 95 92 a5 3c db fe 83 bc f3 da 86 bc
       0.07482829 0.020211497 -0.016112735 -0.016461825
000370 d1 18 b4 3b 1b 7f a4 bc ab 7e 0b be 2e c0 bb bc
       0.0054961224 -0.02008014 -0.13622539 -0.022918787
000380 22 0e 73 3c 66 47 4a bd 88 a2 68 bc 8f 49 96 bc
       0.0148349125 -0.049384497 -0.014198907 -0.018345622
000390 8c 3d 8f 3c 77 be 10 be db 84 26 bd a1 c9 4f bd
       0.017485403 -0.14135157 -0.040654045 -0.050729398
0003a0 4d 14 11 be e7 4e 5c bc 09 56 a8 3d 72 3a 57 3d
       -0.141679 -0.013446546 0.08219535 0.052545972
0003b0 3a c3 16 bb 28 32 34 3d 54 41 b2 3c 02 ae 84 ba
       -0.0023004548 0.043993145 0.021759667 -0.0010122659
0003c0 39 09 81 bd dd c6 0e be 47 0e 04 be 88 ef cf bd
       -0.06300587 -0.13943048 -0.12896071 -0.10153109
0003d0 71 48 0c 3d c1 2f d6 3c 94 a8 1f 3b 80 da 0d bd
       0.034248773 0.026145818 0.0024361955 -0.034632206
0003e0 08 7b 5b 3d 3e ca 06 bd 07 10 89 bc 66 b6 08 3e
       0.05358413 -0.032907717 -0.016731275 0.1335083
0003f0 53 6c 03 3e 9e 09 01 be 0e 1d a1 3d 5e b6 70 3c
       0.12834291 -0.12601325 0.0786687 0.014691917

a2c_network.actor_mlp.4.bias f4 [32]
000000 ba 2c 55 be b7 ef 12 3d 08 25 b2 3d ba cb 28 be
       -0.20817843 0.03587314 0.086984694 -0.16483966
000010 b4 ed f3 bd c7 f4 d3 bc e2 c5 1d 3d 58 4c f8 bd
       -0.11910573 -0.025873555 0.038518794 -0.121239364
000020 94 b4 5b 3d db 88 53 bc 45 08 e1 bb f7 4a c2 bd
       0.05363901 -0.012911047 -0.006867441 -0.09486955
000030 92 da b0 bb 5a d5 9f bd f4 4a 11 be 88 a2 ca bc
       -0.0053971494 -0.078043655 -0.14188749 -0.024735704
000040 89 65 42 3d bd 74 bb 3d c1 18 34 bd ba ad 36 bd
       0.047460113 0.091531254 -0.04396892 -0.044599272
000050 5c ec 70 3d b9 47 c1 3d a9 fd 8f bd b9 58 80 bd
       0.05881916 0.09437508 -0.07030804 -0.062669225
000060 bc 99 e5 bd aa 4e ba 3d 7c c4 96 bd d6 d3 e3 bd
       -0.11210963 0.09097035 -0.07361695 -0.11124389
000070 eb 4d ab bd 89 8d 4f bd d8 eb 23 be 86 9a 29 3d
       -0.08364471 -0.050672088 -0.16007936 0.04140713

a2c_network.value.weight f4 [1, 32]
000000 06 3c d5 bb 58 b0 60 3d 5c 53 35 3d 9c 96 79 3c
       -0.0065073995 0.054855675 0.04426895 0.015233662
000010 67 15 7b 3c 3b 90 a6 3c 57 e1 41 3c 30 42 25 3c
       0.015324927 0.020332446 0.01183351 0.010086581
000020 57 84 01 bd 95 de 78 3d 37 bf aa bc bf ca 75 3b
       -0.03162035 0.060759146 -0.020843131 0.003750488
000030 7b c6 11 3d 65 cc 95 3c 43 fb 23 bb 5e db a8 3d
       0.035589676 0.01828594 -0.002502159 0.08244966
000040 d7 59 80 3b 7d f8 04 3e 82 21 e8 bb 2e c4 20 3d
       0.0039169597 0.12985416 -0.0070840726 0.03924959
000050 ba a5 8c 3c 6f c0 2b 3d 1e 19 67 3b 10 c2 3a bd
       0.017168868 0.041931566 0.0035262774 -0.04559523
000060 ac f1 0d 3c 6d 4c f7 3c 02 75 cb bb 65 2a 6f bc
       0.008663576 0.03018781 -0.006209017 -0.01459751
000070 74 bb ec bc 57 f0 4b 3c e4 e2 92 bd b3 82 57 3d
       -0.028897978 0.012447438 -0.07172182 0.05261488

a2c_network.mu.weight f4 [7, 32]
000000 53 bf 0a 3d 8f 94 8a be dd 03 9f bd af d4 08 bd
       0.033873867 -0.27066466 -0.07764409 -0.033405956
000010 7a 5e ba 3d 26 24 55 be 3c 2d d2 3d e5 32 22 bd
       0.09100051 -0.20814571 0.10262534 -0.039599318
000020 fb 9e 2b be 19 8c ba 3d a3 37 70 3d 1f ad 45 3e
       -0.16759865 0.09108753 0.05864681 0.19304322
000030 cb 50 a2 bd 78 81 22 3d ff 14 0c 3d 18 d6 d8 bc
       -0.07925566 0.039674252 0.03419971 -0.026469275
000040 6b 32 88 be 6b 6d 46 be e7 9b 64 be 96 ed 84 bd
       -0.26600966 -0.19377677 -0.22325097 -0.064906284
000050 10 36 e9 3d 70 db 84 be a2 ea 97 be 50 98 83 be
       0.11387265 -0.25948668 -0.29671198 -0.25702143
000060 9f bd 02 3c f6 79 26 bc d0 ca 17 be 6b 0c c2 3c
       0.0079797795 -0.010160914 -0.1482346 0.023687562
000070 ab 7e 70 3d 7a 45 c5 3d f4 0b dc bc 56 1e b2 bd
       0.05871455 0.09632392 -0.026861168 -0.08697192
000080 87 71 8f 3e 93 28 e7 3d 5d 73 9a bd 3b 80 d7 3d
       0.28016302 0.11287036 -0.07541535 0.10522505
000090 91 78 89 3e 76 44 b8 3d c3 ca 80 be 91 82 01 3e
       0.26849797 0.08997433 -0.25154695 0.12647463
0000a0 ac 12 3e be 3c 22 c9 3d 6f 63 d6 bd 6e c6 ae 3d
       -0.1856181 0.09820983 -0.10468184 0.08533941
0000b0 33 8e 64 3c d2 5c 83 3e 9b 18 23 3e a7 de cd 3d
       0.013949919 0.25656754 0.15927355 0.10052233
0000c0 72 eb 66 bd 16 87 b3 3b 62 7c 42 be 56 9b f2 3d
       -0.056376882 0.00547875 -0.18992761 0.11846034
0000d0 6b f0 3f be b5 64 ae bd ee 14 cc 3d 65 96 a2 bd
       -0.18744056 -0.08515302 0.099649295 -0.07938842
0000e0 02 47 5d 3c 1d 0a ac bd 22 27 17 bd 0a d6 80 bd
       0.013505699 -0.084003665 -0.036902554 -0.06290825
0000f0 9d 86 88 be 41 99 0c 3e 23 ef 84 3e b2 81 28 3d
       -0.26665202 0.13730337 0.25963697 0.041139312
000100 61 e9 b9 bd 53 a0 e8 bd da 7e bf bc ae bb 7c bd
       -0.090777166 -0.113587044 -0.023375917 -0.061702423
000110 6b 27 3f bd b6 6d 13 bd 9a a3 ce 3d c2 97 21 be
       -0.04666845 -0.0359933 0.10089798 -0.15780547
000120 73 2e 77 3d 45 39 2e be af ef c6 3b fb b0 eb 3d
       0.06034703 -0.17014034 0.006071053 0.11508366
000130 f0 3d 21 3e a8 39 cd bc 79 2b 0a 3c fe ce f3 3d
       0.15746284 -0.025051907 0.008433216 0.11904715
000140 0b 8f b9 3c 9a e1 ae bc a2 f7 15 3d 74 da bf bc
       0.022651216 -0.02134781 0.036613114 -0.023419596
000150 cf 1b 2e bd 5e 02 b6 3d c2 9d d0 bd 93 cb 88 bc
       -0.04250699 0.0888717 -0.1018634 -0.016698634
000160 2e 08 b8 3d 04 e3 2e be 5b ef 0a 3e 24 c7 70 3d
       0.08985935 -0.17078787 0.1356787 0.058783665
000170 b6 f8 24 3e 07 ed 33 3d 6a ec 94 3c d4 74 82 3e
       0.161105 0.04392722 0.018179137 0.25479758
000180 e5 77 2b 3e 23 76 9c 3d 47 2e f5 bd 90 37 53 3e
       0.16744955 0.0763972 -0.11971717 0.20626664
000190 1a 0b 9e ba c5 ce 45 3e b0 25 43 3e 16 82 3e bd
       -0.0012057752 0.19317158 0.19057345 -0.04651078
0001a0 db 1b ae be 28 4c bb 3e 63 db 11 3e de 3a 47 3e
       -0.34005627 0.3658154 0.14243846 0.1945605
0001b0 fe b5 1e be 78 ef 6d 3e cd e7 96 3e d0 9a 82 be
       -0.15499112 0.23235881 0.29473725 -0.25508738
0001c0 a0 74 8b 3c 33 94 88 bd 69 13 c5 bd 09 02 2a be
       0.017023385 -0.06668892 -0.09622843 -0.16602339
0001d0 9c 08 1f 3e 69 f5 d2 be ea e9 99 bd 52 7e 5c be
       0.15530628 -0.41202858 -0.07515319 -0.21532562
0001e0 b5 4b 38 3e 5f bf d1 3d c5 3e bf bc 6d 51 89 3e
       0.1799763 0.10241579 -0.02334536 0.26819935
0001f0 f6 28 0a 3e 8e 2f 87 3d aa 0f 3c 3e 62 09 01 be
       0.13492188 0.06600867 0.1836535 -0.12601236
000200 80 b9 29 be dd 9a 6b 3e 90 e3 8f bd 18 ae ee 3d
       -0.16574669 0.23008294 -0.07025826 0.116542995
000210 9a 55 4b 3e 52 87 97 3d c1 f3 bf bd ce 72 7f 3e
       0.19856873 0.07398857 -0.09372664 0.24946138
000220 9e 7e d8 bd ce 3a 0a bd f8 59 00 3e 74 f7 36 bb
       -0.10571025 -0.033747487 0.1253432 -0.002791849
000230 8f 51 08 3e c7 89 d3 3d 46 b8 12 be c2 95 22 3d
       0.13312362 0.10329013 -0.14328107 0.0396936
000240 8b 67 55 be 54 61 9a bd 28 2b 31 3e 59 08 e8 3d
       -0.2084028 -0.07538095 0.17301619 0.11329717
000250 10 45 05 be af e5 5c 3e 4d 02 10 3e 5f 17 53 3e
       -0.13014627 0.21571992 0.14063378 0.20614384
000260 43 69 35 3e f6 8b 7e bd 0b 66 21 be fd 42 4b be
       0.17715935 -0.062145196 -0.15761583 -0.19849773
000270 07 66 5b be 8f b7 39 3d 48 8f 62 3e c0 1b 94 3e
       -0.21425639 0.04534107 0.2212497 0.28927422
000280 10 4f 18 3e 4c 6f a0 3c 00 33 0c bc 69 0d 9e 3d
       0.1487391 0.01958432 -0.008557081 0.077174015
000290 29 dd 3b 3e c8 db 89 bd 0b 90 34 3d ab 7c 55 3e
       0.18346085 -0.06731373 0.044082683 0.20848338
0002a0 e6 c5 55 be 1e 9c 8d bc 88 0a 0f 3e 80 2f 15 3d
       -0.20876274 -0.017286357 0.13968861 0.036422253
0002b0 a5 e1 5c be 94 78 0a bc df a0 6d bd 8f fb 0e bd
       -0.21570452 -0.0084516 -0.058014747 -0.034907874
0002c0 a3 12 8f be af 63 00 b9 68 ba 47 be 58 6e a5 bc
       -0.27943906 -0.00012244166 -0.19504702 -0.020194218
0002d0 71 e5 96 3d 8c 89 30 be d3 b2 26 bd 70 26 3e bd
       0.07367981 -0.1723997 -0.040697884 -0.046423376
0002e0 dc b6 8f 3e 81 c8 29 3c d8 6e 6e be 46 47 fb 3d
       0.28069198 0.010362745 -0.23284471 0.12269454
0002f0 2a a1 c1 bd 8e a5 dc 3d c2 63 ec 3d 2c bc 10 3e
       -0.09454568 0.107737646 0.11542465 0.14134282
000300 03 b6 d6 3d d4 b0 2e bc 9f be 2a 3c d0 17 1b bd
       0.10483935 -0.010662276 0.010421424 -0.037864506
000310 c9 78 e6 bc 7f a1 74 3b a6 ac 35 be a4 7b 1b 3e
       -0.028133767 0.0037327704 -0.17741641 0.15183884
000320 38 45 e9 bc 3f 40 8b be 2b 23 d2 bd 15 20 17 be
       -0.028475389 -0.27197453 -0.10260614 -0.14758332
000330 cc 11 8c 3d a4 db 0a be 3c b6 27 bd 5b e8 07 3e
       0.06839332 -0.13560349 -0.040945277 0.1327223
000340 96 c5 43 bd 49 25 d2 bd 9c 93 07 3e 2f 66 ea 3d
       -0.047795855 -0.10261018 0.13239902 0.11445271
000350 b3 6c ad be 9a 69 c5 3d 7e 15 16 bc 18 e2 b8 bc
       -0.33871993 0.096392825 -0.009160398 -0.022568747
000360 8e 1e 78 3d eb 65 d7 be 77 80 98 3a 4a 26 3b 3d
       0.060576014 -0.42069945 0.0011634965 0.045690812
000370 75 96 eb 3d 0b 35 12 3e 29 f8 a4 3b 2f b6 0a bc
       0.11503307 0.14278047 0.005034466 -0.0084662875

a2c_network.mu.bias f4 [7]
000000 20 ac 50 bd bc 58 3b be 54 22 b7 3c a8 34 12 be
       -0.0509454 -0.18295568 0.022355236 -0.142779
000010 1d 04 63 bc 63 e3 53 bd 34 6d ce bd
       -0.013855961 -0.051730525 -0.100794226

exp_avg f4 [7]
000000 5b cc 8e bc 88 6d b6 3c 70 87 be 3b a0 1b b7 3a
       -0.017431429 0.022269025 0.0058144853 0.0013970025
000010 75 a7 1b 3c 76 3f 9e ba 4d 72 5e bb
       0.009500374 -0.0012073356 -0.003394264

exp_avg_sq f4 [7]
000000 35 db 02 3a 00 6f f5 39 b3 f3 c4 39 7d 00 f4 39
       0.0004991771 0.00046812743 0.00037565603 0.0004653967
000010 e9 b5 bd 39 26 27 ef 39 e7 53 e4 39
       0.00036184423 0.000456148 0.0004355006

exp_avg f4 [128, 18]
000000 2d 3c 67 ba 5a a8 96 ba 05 48 cb 3a e3 31 84 ba
       -0.00088209176 -0.0011494264 0.0015509134 -0.0010085668
000010 1c bc 0d ba f8 b5 17 bb ca ad 66 3b f8 41 ad 3a
       -0.00054067536 -0.0023149233 0.0035198801 0.0013218513
000020 cc bf a5 3a 41 6f b9 ba 54 27 d0 3a 2e f9 03 bb
       0.0012645661 -0.0014147536 0.0015880861 -0.0020137536
000030 00 82 87 bb 3f 67 ea bb d1 f0 e7 3a 5f b9 1b 3b
       -0.0041353703 -0.007153421 0.001769567 0.0023761613
000040 72 72 01 3a c2 94 f2 ba d8 e1 12 ba 12 ec 27 ba
       0.0004938013 -0.0018507468 -0.00056031113 -0.00064057217
000050 42 3a f3 39 f2 5e 46 ba 6d 64 16 39 57 24 1c bb
       0.00046391977 -0.00075672485 0.00014342526 -0.0023825371
000060 bb 9d 6f 3b f7 5b 48 38 20 36 9e 3a 3e 2b 01 bb
       0.003656252 4.7769365e-05 0.0012070574 -0.0019709612
000070 f3 c4 2f 3a e3 96 cb ba 05 2d 26 bb 4b 8d 28 bb
       0.0006705068 -0.0015532639 -0.0025356424 -0.0025718983
000080 f1 b2 98 3a 24 fd c5 39 33 b2 49 37 65 a3 9a ba
       0.0011650008 0.00037763373 1.2022024e-05 -0.0011797963
000090 63 2f 8f ba 63 56 92 ba f1 3d ae 3a 75 42 a0 ba
       -0.0010924157 -0.0011164661 0.0013293606 -0.0012226837
0000a0 0e e8 c2 ba 84 0a 11 bb d5 9b 85 3b 33 b2 5e 3a
       -0.0014870183 -0.0022131512 0.0040774145 0.00084951817
0000b0 e6 3b 32 3a 32 aa 99 ba 0b 79 9b 3a e4 3d 58 bb
       0.00067990867 -0.0011723696 0.0011861635 -0.0032995874
0000c0 28 88 0a bb b8 a8 33 bb 16 47 ab 3a b9 67 c0 3a
       -0.0021138284 -0.0027413797 0.001306745 0.0014679349
0000d0 c5 87 0d 39 60 65 a8 ba 03 3a 14 b9 18 f2 49 b9
       0.00013497386 -0.0012847595 -0.00014135991 -0.0001925904
0000e0 a4 43 44 39 94 9f 1c 39 e3 e3 08 bb 80 04 47 3a
       0.00018717215 0.00014936767 -0.0020887784 0.0007591918
0000f0 3d 39 3a ba 7f 03 b8 3a 5b 79 95 ba b4 fb a9 39
       -0.0007103866 0.0014039128 -0.0011403965 0.00032421725
000100 f8 7a 32 3a 19 8f 42 ba d1 23 ea 3a a4 8c a9 ba
       0.0006808485 -0.0007421836 0.0017863457 -0.0012935591
000110 44 76 8a ba 62 fe f7 39 fa 37 42 37 38 f3 7d 3a
       -0.001056381 0.0004730104 1.1576334e-05 0.00096874265
000120 b7 89 ae b9 bd ff b9 b9 91 a1 68 3a 89 bc f8 39
       -0.00033290472 -0.0003547649 0.0008874173 0.00047442716
000130 9e 88 db bb a9 cf 1f 3b ef 5f 53 bb 10 62 a0 3b
       -0.0066996356 0.002438525 -0.0032253226 0.0048945025
000140 c0 3d 65 bb 28 2f 14 3b 24 dc 01 3b 65 2c ff ba
       -0.0034979433 0.0022611115 0.0019815052 -0.0019468187
000150 01 d7 03 3c 5a 84 43 bb c1 4e 95 bb 5f 10 22 3b
       0.008046866 -0.0029833526 -0.0045565073 0.0024728996
000160 1f bd 3e ba 89 37 49 3b 12 df 31 3a 1a 1b 9c b6
       -0.0007276106 0.0030703268 0.0006785254 -4.6523173e-06
000170 43 6e 2a 39 06 91 a9 39 2f 2e cd 3a d4 a4 a9 b9
       0.00016253539 0.00032342243 0.0015654023 -0.00032356998
000180 1b 20 1b 3a 13 e5 c2 ba 4b 91 5e 3a 6c 1d c3 b9
       0.0005917565 -0.0014869295 0.0008490278 -0.0003721522
000190 62 5c 33 ba a2 0b 7a 39 8c 63 2e bb ee c8 e1 3a
       -0.0006842074 0.00023846191 -0.0026609628 0.0017226019
0001a0 1f 11 ac 3a a8 40 22 b9 95 00 4c 3a b2 98 29 ba
       0.0013127661 -0.0001547361 0.0007782069 -0.0006469592
0001b0 1b 8f ec 37 5e 3b bc b9 eb 37 0e 3a 1a 85 a3 b7
       2.8200031e-05 -0.00035902386 0.00054252025 -1.9493094e-05
0001c0 9d ad 38 39 f9 d5 ae b8 0d 4d 06 37 d0 cb 3a ba
       0.00017612283 -8.336822e-05 8.004962e-06 -0.00071257073
0001d0 bf 85 cf 38 26 7c 9d b8 42 b9 81 b9 26 ec 0f ba
       9.895441e-05 -7.509468e-05 -0.00024742825 -0.0005490206
0001e0 47 be 22 ba fe d5 05 ba 71 ad 8b 3a 0f 7e 26 39
       -0.0006208163 -0.00051054347 0.0010656548 0.00015877954
0001f0 18 0e ab 39 11 9d 21 ba 20 6a c9 37 b6 ee 49 38
       0.00032626162 -0.00061650673 2.4010486e-05 4.814445e-05
000200 bd e5 13 b9 4c 30 27 39 94 63 e9 ba b9 ce f1 39
       -0.00014104597 0.00015944353 -0.0017806166 0.00046121122
000210 04 2c 69 38 ca ba e3 3a 38 0b 94 b9 8e 34 4b 39
       5.559252e-05 0.0017374393 -0.00028237118 0.00019379167
000220 63 c9 5a 3a ba c7 1d ba 10 a7 ef 3a 8a 26 9d ba
       0.0008346049 -0.0006018836 0.0018284041 -0.0011989635
000230 81 47 bc ba 13 93 41 3a 9d 5b 39 b9 93 37 8d 3a
       -0.0014364572 0.00073842815 -0.00017677103 0.0010774009
000240 42 4b 06 bb fc 71 d1 38 5b 1b 70 b9 33 bc 82 ba
       -0.0020491634 9.987128e-05 -0.00022898374 -0.0009974301
000250 15 93 32 bb 46 be fb 3a 79 27 f5 ba ea ee 9b 3a
       -0.0027248312 0.0019206486 -0.001870378 0.0011896763
000260 91 7e 09 bb 4f 24 09 3b 04 7e 82 b9 ef 9a e8 b9
       -0.002097998 0.0020926183 -0.0002488942 -0.00044365923
000270 db 85 de 3b 82 29 61 39 40 bf 0a ba a5 f4 bf b9
       0.006790859 0.00021473135 -0.00052927807 -0.00036612633
000280 bd 53 8a ba 47 0c ae 3a 38 7d e3 b9 7e 21 25 b9
       -0.001055352 0.0013278805 -0.0004339011 -0.00015748103
000290 74 06 bf 39 1e 8a a1 b9 89 4e c1 ba 96 70 f8 39
       0.00036435167 -0.00030811218 -0.0014748137 0.0004738613
0002a0 08 77 a9 ba 19 e9 9d 3a a7 4a 8f ba b3 7a 4c 3a
       -0.0012929151 0.0012047618 -0.0010932282 0.0007800266
0002b0 1f 07 e2 39 5b bd 1f 39 63 d1 f0 3a 6a b1 e4 ba
       0.00043111385 0.00015233962 0.0018372949 -0.0017447893
0002c0 71 dc b2 ba e0 12 19 3a 83 06 17 ba 83 9d bc 39
       -0.0013646019 0.00058392994 -0.0005761163 0.0003597551
0002d0 05 68 10 3a 62 0a 45 b9 52 4e 9d 39 40 09 99 39
       0.0005508664 -0.00018791252 0.00030003727 0.00029189326
0002e0 c7 72 00 38 10 15 ca 38 55 01 7b 39 9f 3b e6 38
       3.0624473e-05 9.636034e-05 0.00023937722 0.0001097836
0002f0 76 52 43 38 89 c6 99 38 4c 40 34 39 c2 81 f4 39
       4.656842e-05 7.3325886e-05 0.0001719009 0.00046635984
000300 4a 53 b8 ba dc fc c6 b8 a1 41 1f ba 36 30 f6 39
       -0.0014062908 -9.4884745e-05 -0.0006075148 0.00046956696
000310 71 cf 44 39 f1 22 40 b9 94 56 c2 39 9f a6 b7 39
       0.00018769295 -0.00018323564 0.0003706707 0.00035028622
000320 30 3b 21 ba d9 21 a8 38 38 25 31 3b 6b bb 9c ba
       -0.0006150482 8.017169e-05 0.002703024 -0.001195771
000330 00 7f af 3a 0f 7a 69 ba c6 2a 0a 3b ac 22 b0 ba
       0.0013389289 -0.0008906433 0.0021082624 -0.0013438067
000340 43 e3 8e b9 40 69 8b 3a 09 20 00 bb bd 72 5e ba
       -0.00027253674 0.0010636225 -0.0019550344 -0.0008485725
000350 61 ed eb 3a 4a 6c 59 ba 85 b5 02 3a 14 41 81 ba
       0.0017999822 -0.00082940294 0.0004986155 -0.0009861314
000360 65 b1 b5 3a 3c 4a a3 39 80 35 81 b6 8e 4f 97 3a
       0.0013862072 0.00031145092 -3.850728e-06 0.0011544095
000370 e6 5b 09 b7 99 5a 3d 3a 72 28 d4 ba de a9 80 ba
       -8.187233e-06 0.0007223278 -0.001618637 -0.0009816249
000380 1d 14 7d ba e1 94 d6 39 cd c0 30 ba 02 6a 3b b9
       -0.0009654181 0.00040928184 -0.0006742597 -0.000178732
000390 8c 88 c6 b4 23 e6 9e 3b d1 18 bb b9 7d 0d 4c ba
       -3.6979725e-07 0.004849212 -0.0003568591 -0.00077839923
0003a0 97 3b 0a 3a ed 9a 43 3a 74 fd 5c 38 48 39 ee b8
       0.0005273162 0.00074617454 5.2688134e-05 -0.00011359394
0003b0 b3 de 8a 38 b2 8c 57 b8 bc 89 18 3a d1 e7 aa b9
       6.621834e-05 -5.1391027e-05 0.0005818864 -0.00032597643
0003c0 36 c5 84 3a c2 01 65 ba 99 f4 5d 3a f2 d6 10 ba
       0.0010129574 -0.00087359187 0.0008466929 -0.00055251934
0003d0 43 aa 80 b9 b7 62 53 ba 32 1e 55 ba e1 29 6c 39
       -0.00024540917 -0.0008063721 -0.00081298046 0.00022522315
0003e0 9c 3d 9d 3a 4d 7b e3 38 0d da ad 39 45 9e cf b9
       0.001199651 0.0001084717 0.00033159592 -0.00039600037
0003f0 33 10 de 38 3a 9b d1 b9 69 5f 1b 3a cb 6e 16 39
       0.00010588802 -0.0003997924 0.0005926998 0.00014346388
