runs/BallBalance_11-16-09-10/nn/last_BallBalance_ep_100_rew_2.1486566.pth (torch, 173671 bytes, 36 tensors)

value_mean_std.running_mean f8 [1]
00000000: 45b6 99fe ac93 c23f
0.1451317065397452

value_mean_std.running_var f8 [1]
00000000: 1d21 5481 59b3 793f
0.006274556760452546

value_mean_std.count f8 []
00000000: 0000 0000 0002 a940
3201.0

running_mean_std.running_mean f8 [18]
00000000: 6b60 65f6 a826 babf 70b6 cb6e 6c84 c33f
00000010: 9715 3943 2aaf bebf dab0 2e5c 655a c9bf
00000020: 287e 2b30 b5e1 a23f bbf2 9249 ec99 9bbf
00000030: 9daa 95d8 587f b1bf 9619 60b7 193e e0bf
00000040: c2ba 7085 2709 e73f 74ae 7dae e41f d8bf
00000050: 5e26 103b defb e4bf 7e95 19e0 5469 bd3f
00000060: 02bd e2f6 5140 afbf 6b29 bd21 b27e b4bf
00000070: 2cbd 21ed f9cf bb3f 449b f500 53d1 c13f
00000080: 0ee3 7465 baf5 d4bf cfb5 cfcd 852a c23f
-0.10215240493323711 0.15247874650906423 -0.11986030713258909 -0.19807116509526318 0.036878263597597105 -0.026954357138253764 -0.06834941184721761 -0.5075806218672365
0.71986747801369 -0.3769466117871396 -0.6557456163001907 0.11488848181905628 -0.06103759897939122 -0.0800582249040979 0.10864221610403452 0.13920056864591335
-0.3274980536257751 0.1419226889551468

running_mean_std.running_var f8 [18]
00000000: 435e 71aa 4883 b63f 1a78 0ccf 7739 ad3f
00000010: a5b2 c91d 47e9 bf3f 5ff6 1a3a c77f c53f
00000020: 21cb 94e8 f837 a23f 7bb4 5548 31d0 823f
00000030: 92f0 081d b06c 7a3f 835f e798 d951 0040
00000040: ad04 9be7 dab4 ed3f 52c9 57e5 4fc4 0c40
00000050: ffa0 22b8 5229 1040 ce45 f96a 18dc e33f
00000060: 3091 0145 8384 ee3f edb4 7585 a7fd f43f
00000070: dd6f f27f cd14 753f 95ef c970 bbb1 7a3f
00000080: 8ee7 8743 69eb c43f cfa9 f0eb 5ef3 c13f
0.08794073258592854 0.057079071068287315 0.12465328671687333 0.16796198212789457 0.035583284751189 0.009186158199293573 0.006451309149778111 2.0399658151254143
0.9283270381494241 3.5958555142798696 4.040354611505108 0.6206171120958801 0.9536758754516423 1.311927338912308 0.00514679215771349 0.006517154874582949
0.16343417928129295 0.1402395870257593

running_mean_std.count f8 []
00000000: 0000 0000 0004 9940
1601.0

a2c_network.sigma f4 [7]
00000000: 73c0 1dbe a5ec 19be c3a8 82be 6c98 84bd
00000010: 5aee c7bd 30c1 21bd fe81 d0bd
-0.15405445 -0.15031679 -0.2551938 -0.06474385 -0.09762259 -0.03949088 -0.10181044

a2c_network.actor_mlp.0.weight f4 [128, 18]
00000000: 2e49 15bd 07f4 8fbc e3fd 4fbe 1ed2 4a3d
00000010: bf31 d53c b008 663e 52f6 4cbd 00ba febd
00000020: 3d83 32be 788e b4bd 21de 9a3c fbe5 3cbe
00000030: 7447 7c3e 9d0b 21be 7a5f 4e3e b498 06be
00000040: b8df 98bb 4705 ea3d 7d3b c33c 22ba 853e
00000050: fa4c 683d 9a63 b8bd 0313 083e 4a02 1fbd
00000060: a2e6 e73d 4b8e 3d3e e0fd 4d3e a39f 93bd
00000070: f036 b13d 1c24 2bbd ba53 5b3e 05bd 69be
00000080: 87e2 5ebe 21ed 6dbe 14cb 7ebe c55f 403e
00000090: 8ff4 88bd 2998 0e3e cfb7 7a3d 8a47 7ebd
000000a0: 9a49 353e 982c d2bd 590c ed3b 6dad 34be
000000b0: 3885 153e 7cae e3bd e21a 0f3e e5dd 9cbd
000000c0: 42e4 6f3e 09e6 8bbe a5f5 c0bd 9562 7bbe
000000d0: 6b1a 2f3e 1356 033e d192 543e 96d4 6bbe
000000e0: 3ba0 93be 097e 6abe 8869 ca3c 609a 863d
000000f0: b6e6 bd3d 38da ec3d 1c32 89bd b5e4 59be
00000100: d249 22bc 24f3 21bd 6ae7 dbbc 231a 93bd
00000110: aa29 0c3e 0183 d7be bee0 4cbe cc49 fbbc
00000120: 1124 d63d 2f24 63be 8ea0 ca3d 7101 983e
00000130: 230d 3fbe 6976 ffbd 871f 483e 2d54 f5bd
00000140: ca0c 5bbe f14f 77be eeb4 04be a399 893d
00000150: c6da 3f3d 7de7 19be 2349 043e e41c a0be
00000160: ab21 ebbc cf2e 20be 656c f1bd 4311 56bd
00000170: 9af3 213e c599 733d 5cfe d73d d672 62be
00000180: 08b7 cabd 93ae 563d b694 633c d8e8 c2bd
00000190: ef27 5ebd 7644 d5bd f41c 943d 68a0 61be
000001a0: 14f7 79bd dba9 febd 5998 9ebe d1d0 01be
000001b0: 6092 efbd 5eca 96bd 9793 5a3e 8ac2 01be
000001c0: 4d1d 893e 56ed 0d3e 3316 35be ba98 173e
000001d0: da7f 283d c7ec 45bb 136c 73be b453 a5be
000001e0: fb2c 163e 94a7 32be 5b74 7bbc 0ae3 e9bd
000001f0: 88cf d23b 701b 0cbe 52a0 11be 1046 d3bd
00000200: 4a97 b53d 967f f73d 8d9e 883e 44b4 4ebe
00000210: c848 523c d498 0fbe 0050 8bbd 406d 67be
00000220: 65de 3c3e c303 a5bd 57e6 7f3d ae05 2cbc
00000230: 839f b73d d3d5 9bbe 2b06 423e 9e5e 8fbb
00000240: bb99 3dbd b621 95be 8d12 263e 94dc a8bc
00000250: d3ff b7bd 4c39 973e a2b6 8f3d bff9 27be
00000260: 3f5a 5cbe affc b6bb bbab 063e 051e 81bd
00000270: 17de 02bd fda6 48be b29a 5cbe 260c f43c
00000280: 74d4 6f3e 7b8d 81be 311f 783e fcf5 c83d
00000290: 42c9 6f3d 5cb0 f53a 6d94 673e 2d24 ee3d
000002a0: d8e1 86bb 7bb4 43bd 77a0 163d ea8f ca3d
000002b0: 2b4d 0cbe cf21 88bd bf36 b53d 51fb 383d
000002c0: 62f7 febd 363e d5bd 8317 92bd e401 a43d
000002d0: b761 783e f03d fd3d b009 7abe 181a 24bd
000002e0: 2364 6b3e d216 a03d ce62 aabd c355 afbd
000002f0: 9ce4 f5bc b6d9 36be 66ae 2abe fbee b83d
00000300: 12eb 80bd a756 863d b2d1 74be bb7f ebbd
00000310: b2dd 8bbd 8992 893e 995b 32be d3e9 bebd
00000320: 4382 123e 5b13 0dbe a036 8bbe f9f6 b63d
00000330: 2515 f2bd 0d63 88bd cc16 19be 4ebd 863c
00000340: aff1 743e cdf2 113e 07c6 aebd d235 01be
00000350: 8d10 ecbd c8ed 613e a133 f93d a01e 883e
00000360: cd01 513e 4528 f93c 7978 8c3d 2d94 03be
00000370: 9197 afbd 2181 19be 641d b23d 6c85 55bd
00000380: e554 26be 6c13 0bbd 3a4f 91bd ef5c 3bbe
00000390: daee 093c e1c8 f2bd 19d0 bfbd 03c3 5b3e
000003a0: b523 19be 9d79 96be 7bd5 51bc 1086 8dbd
000003b0: ff23 18bd ef0b 87be 7738 4f3e 1a5b b3bd
000003c0: 6bf7 103e 9635 9a3d 02f7 6f3e 6fcb 04be
000003d0: 3809 893d 53b6 42be c227 333e 37e9 b43d
000003e0: ca97 acbc ee39 87bc 98df 27be 3b24 4abe
000003f0: 82d4 393e 3e9b 0fbe bdae 063e 281c 1a3e
-0.036446743 -0.017572416 -0.20311694 0.04951679 0.026024697 0.22464252 -0.050039597 -0.124378204
-0.17432876 -0.08816236 0.018904747 -0.18447106 0.24636632 -0.15727086 0.20153609 -0.13144189
-0.004665341 0.11426788 0.023832077 0.2611857 0.056714036 -0.090033725 0.13288502 -0.038820542
0.113232866 0.18511312 0.20116377 -0.07208183 0.086530566 -0.041782483 0.21418658 -0.22826011
-0.21766101 -0.23234989 -0.24882156 0.18786533 -0.06687271 0.13925232 0.06121045 -0.062079944
0.17703858 -0.10262412 0.007234138 -0.17644282 0.146016 -0.11117265 0.13975099 -0.076595105
0.23426917 -0.2732394 -0.09421853 -0.24549325 0.17099921 0.12825803 0.20759131 -0.23030314
-0.28833184 -0.22899641 0.024708524 0.065724134 0.0927252 0.115650594 -0.06699011 -0.21278651
-0.009905295 -0.039538518 -0.026843745 -0.071827196 0.13687769 -0.42092136 -0.20007607 -0.030674838
0.10456098 -0.22181772 0.098939046 0.296886 -0.18657355 -0.12473757 0.19543277 -0.11978946
-0.21391597 -0.24151589 -0.12959644 0.06718757 0.046839498 -0.15029712 0.12918524 -0.31272042
-0.028702578 -0.15642856 -0.11788253 -0.052262556 0.15815583 0.059472818 0.10546562 -0.22114119
-0.09898192 0.05241258 0.013890436 -0.09517068 -0.054237302 -0.104134485 0.07232085 -0.22033846
-0.061026648 -0.12434741 -0.30975607 -0.12677313 -0.11697841 -0.07362817 0.21345364 -0.12671867
0.26780167 0.13860068 -0.1768425 0.14804354 0.041137554 -0.0030200945 -0.23771696 -0.32290423
0.14665596 -0.17446738 -0.0153475655 -0.114202574 0.006433431 -0.13682342 -0.14221314 -0.10316098
0.08866747 0.12084882 0.26683465 -0.20185953 0.012834735 -0.14023143 -0.06802368 -0.2260027
0.18444212 -0.08057358 0.06247553 -0.010499401 0.08965971 -0.30436572 0.18947665 -0.004375293
-0.046289187 -0.29127282 0.16218014 -0.020612992 -0.089843415 0.29535902 0.07017256 -0.16403864
-0.21518801 -0.0055843215 0.13151447 -0.06304554 -0.031950083 -0.19594951 -0.21543387 0.02979095
0.23420888 -0.25303254 0.24230649 0.09812543 0.058541544 0.0018744576 0.22615214 0.11627994
-0.004116278 -0.04777954 0.036774125 0.09890731 -0.13701312 -0.066470735 0.088483326 0.04516155
-0.12449528 -0.104122564 -0.07133391 0.08008173 0.24256025 0.12365329 -0.24417758 -0.040063947
0.22987418 0.07816853 -0.08319627 -0.085612796 -0.030016236 -0.17856488 -0.1666809 0.09029957
-0.06294836 0.065594964 -0.23908117 -0.11498972 -0.068293944 0.2686961 -0.17417754 -0.09321942
0.14307503 -0.13776915 -0.27190113 0.08933825 -0.11820439 -0.066595174 -0.14950103 0.01644769
0.2392032 0.14252777 -0.085338645 -0.12618187 -0.11526594 0.22063363 0.121680506 0.26585865
0.20410843 0.03041471 0.06858916 -0.12849493 -0.08573831 -0.14990665 0.08697012 -0.052129194
-0.16243322 -0.03395407 -0.070951894 -0.1829717 0.008418763 -0.11854721 -0.09365863 0.2146111
-0.14955027 -0.2938966 -0.012807245 -0.06910336 -0.037143704 -0.26376292 0.20236383 -0.087576106
0.14156882 0.07529752 0.2343407 -0.12968229 0.066912115 -0.19014864 0.17495635 0.08833545
-0.021068472 -0.016507115 -0.16393888 -0.19740383 0.18147472 -0.14024064 0.13152595 0.15049803

a2c_network.actor_mlp.0.bias f4 [128]
00000000: 2417 173e 4fea bf3d 28ff 8e3d 959d 76bd
00000010: f682 a03b 24c3 d2bd 41f2 85bc 88c7 8bbd
00000020: 77b5 7c3d 3ec5 413d 50fe b4bd 6bf1 863d
00000030: ada2 f1bb 99c9 d13c 4558 c3bc 9c23 b9bd
00000040: 265a ecbd aa7a 47be c219 20be b707 12be
00000050: 5c60 243d 55a9 0fbe 3fab d0bc 490b d8bd
00000060: bd4f c5bc e485 183e 961d 2fbd 12b7 7dbd
00000070: 8cc4 a4bd c855 c0bd 9a2a bc3d f6b4 3abc
00000080: 58cb c3bd fffe fe3d ea4a 84be e14d 1bbe
00000090: 9e0b 613d fb7d cbbd 48ba 7abd ce12 833d
000000a0: ec83 223d 467f b6bc 4080 63bd b455 00bc
000000b0: 444b 643d 4e0e 5a3d fc67 6bbe 37c0 ab3d
000000c0: 2962 6c3c 4329 68bd 294c 133c e877 5fbe
000000d0: ccba 97be 6121 9bbd 83d5 0cbc a36d cbbd
000000e0: 8f41 33be 9e7e 09bc 0ebf 483e 27ba 04be
000000f0: ac54 0f3e dd62 163c ce33 b5bd 354c 633d
00000100: c9e8 a83d e756 e23d ec92 463d bf77 8bbd
00000110: 4f25 93bd e40d d7bc f0b8 45be 75f1 9dbd
00000120: c804 1abd fede b03d d87e 8f3a f816 b9bd
00000130: 416a dc3d 8985 4dbe cd41 2abe 77e7 21be
00000140: 9d83 67bd 118b 373d d292 c7bd 5734 423e
00000150: e4c8 48be a6fe f6bd 8fa0 003e a5c8 133e
00000160: 1d22 183e 41c4 dd3d 325d 353c 927a 2ebe
00000170: cc28 2b3e 7886 abbd c120 93bb 2143 34be
00000180: 08d9 ef3d 0a1f 03be 51ee 8abd e896 88bd
00000190: 197c 1dbd 04ef 103c 510d 41bd cd27 f0bc
000001a0: 3a21 e63c 66a6 bbbd 5887 b7bd 800c b8bd
000001b0: 7495 34bb d6e1 89bd b1cc 24ba 45a3 4b3c
000001c0: 98aa 85be 2bc2 2bbe 6ae1 433e f8ad d43d
000001d0: ffdc 773d f53c 3fbc e9bc 80bd 3489 0f3e
000001e0: f512 17bd b244 31be f742 b1bc 94c4 61bc
000001f0: 31b0 a6bd 5a96 1bbc 4973 2e3e cfb1 b43c
0.14754921 0.09370863 0.06982261 -0.060208876 0.0048984243 -0.10291126 -0.016350867 -0.06825167
0.061696496 0.047307245 -0.08837569 0.065890156 -0.007374129 0.025608825 -0.023845801 -0.09039995
-0.11540632 -0.19480386 -0.15634826 -0.14260755 0.040130958 -0.14029439 -0.025472282 -0.105490275
-0.024085874 0.14894825 -0.042752825 -0.061942168 -0.08045301 -0.093913615 0.09187813 -0.0113956835
-0.09560269 0.124509804 -0.25838405 -0.15166427 0.05494272 -0.09936138 -0.061212808 0.06400071
0.03967659 -0.022277486 -0.05554223 -0.007832933 0.05573584 0.0532363 -0.22988886 0.083862714
0.0144277 -0.056679975 0.008990326 -0.21823084 -0.29634702 -0.07574726 -0.008595827 -0.09933021
-0.17505477 -0.008392004 0.19604132 -0.12961636 0.13997144 0.009178844 -0.088477716 0.0554926
0.08247525 0.110517316 0.04847996 -0.06809949 -0.071848504 -0.02625174 -0.1930883 -0.0771207
-0.037602216 0.086362824 0.0010947837 -0.09037584 0.10762454 -0.20070471 -0.16626664 -0.15810953
-0.056522 0.04481036 -0.097448006 0.18965279 -0.19607884 -0.12060289 0.12561248 0.14432009
0.14856763 0.10828448 0.011069583 -0.17038944 0.16714782 -0.08375257 -0.0044899886 -0.17603733
0.11711317 -0.12804809 -0.067837365 -0.06669408 -0.038448427 0.008846048 -0.04713184 -0.029315853
0.028092016 -0.09162597 -0.08961362 -0.08986759 -0.0027554901 -0.06732528 -0.0006286605 0.012429063
-0.26106715 -0.16773288 0.19128957 0.103847444 0.060513493 -0.011672248 -0.06286032 0.14017183
-0.036883313 -0.17311361 -0.021638377 -0.013779778 -0.081390746 -0.009496296 0.17036165 0.022057442

a2c_network.actor_mlp.2.weight f4 [64, 128]
00000000: a963 7d3d 9510 e73d 510a d83c fdd8 d83c
00000010: 12b3 9b3d 5cb0 123d 5460 813d fdc5 55bc
00000020: fde3 523d 4b04 01be 24f4 1b3d ef1e e0bc
00000030: 9667 143e 5bb3 cb3d d3da cd3c 527b dbba
00000040: 6ad7 0dbb 7e99 73bc 5905 cb3d 20be ecbd
00000050: c8ea d6bc ea4c 23bd c5f6 76bd 9124 c3bc
00000060: 2af5 23bc 79b0 8abd 8b4b 543c f523 863d
00000070: e0f0 58ba ee45 a5bd 7a51 22bd d26f c6bc
00000080: f204 dd3d 84f4 2e3d c499 08be d7ba 95bd
00000090: a22f 12bb ec55 e8bb 8e1d 713b aac9 a4ba
000000a0: 60bf cfbd f201 1b3c 3451 89bc 46d2 d33a
000000b0: 82ee 34bd a00e 383d 0ec0 f0bc c026 373b
000000c0: bdb8 1abd be42 69bd d8d4 ee3d c2c7 85bd
000000d0: 612b babd 805b 75bd ee02 65bd ed21 84bc
000000e0: cf38 dbbd b94c 193d 3195 103c a752 a9bb
000000f0: f171 a8bb d35a 9d3d 5d28 d6bb 21eb f83b
00000100: 45e2 a93d 6d58 1dbd 2623 95bd 2a41 edbc
00000110: 9b99 6b3c 98bc 76bc 6091 363d 14cf 85bd
00000120: cab1 ddbd 0d18 d43d d18e b63d 1eb4 343d
00000130: 9b73 e03d 213d c2bc 072a ac3d 5e68 3a3d
00000140: f6d6 9bbc 41ea bbbd 4373 9fbc d89a fcbd
00000150: 80a4 47bd 48d0 3f3b fe70 063d 60d2 b73d
00000160: 265c 4c3d 241e 18bd 2226 b03d 5ba9 093d
00000170: efc0 3bbd 29eb 29bd 64e1 ef3c 2151 eabd
00000180: e046 b5bd b8be b4bc b427 22bd f964 933d
00000190: 602c 413d beec d8bc 80d2 e83c dcab bfbd
000001a0: 6c4d 153d 92fa cbbc 9973 35bd 3a6f 8b3c
000001b0: 9a36 783d 570b cbbc 9c00 353c 71cd c03d
000001c0: 242e e2ba 990e 33bd c588 84bc 8b3c 643c
000001d0: 0f53 8abd 3301 a43d a01f c0bb 8433 953c
000001e0: 96d1 7c3d f125 5bbd 6af3 873b 1ce5 bf3d
000001f0: f09e c63d 4bb8 4dbd 3fb9 4e3d 43f1 693d
00000200: eae9 edbd 1b66 39be 2c71 8fbd c099 fdbd
00000210: 3366 0f3e 1143 1fbe 5967 9abc c818 1e3d
00000220: b538 213e 44ed 3c3d 4490 fbbb 9def 88bd
00000230: c428 67bd a0ed 85bd b02d 823d 3f7e 923c
00000240: 7c33 6abd 24cd 0fbd 69b0 95bc 482a 343d
00000250: 0663 3c3e e301 223c 6dae d03c c687 49bd
00000260: 0af4 52be 65f2 933d 6a62 9e3d 3f89 843c
00000270: 507e 00be ed8b 6ebd 3eb0 b63d b7aa 06be
00000280: f25b af3d 94e0 d4bd ff70 143d 515f b5bd
00000290: e3a3 bfbc e0ae c1bc dfcf b03c 7f0d 993d
000002a0: bac4 b93d 3332 0abd 2949 02bd b4fd 0a3d
000002b0: 242b 82bd 8aef 9ebd 17d7 ae3c c64c 933d
000002c0: b440 d1bd a06b d63c c0e5 ca3d 36d0 95bd
000002d0: 5f09 17bd 6ca7 a23c db11 05bd 20c4 2a3d
000002e0: 6b96 8fbd 42fb f0bd 7cbb 833d ce99 f8bd
000002f0: df2d 97bd 8f34 f9bc d304 bebd 0747 a4bd
00000300: d234 803c 40b4 d33d 309c 25bc dcd8 593d
00000310: 06f7 ba3d 1185 4ebe 0746 e3bd 3fc3 86bd
00000320: 4ae4 d5bd 90b4 80bd d474 91bc bf31 29be
00000330: 452c 7bbe 8b33 b4bd 345c a6bd ab83 08be
00000340: 2580 80bd 8b02 bfbd 6a0f 07be 7271 05bd
00000350: 8bdd 89ba a6f0 a23c 7b72 e2bd f59e 4fbe
00000360: 61ca b43c c334 40bd 93cd 093d ace0 c1bd
00000370: 772d b4bd 9fd0 703c fd1f 0ebe 53b8 c83c
00000380: e6a7 16be 786f 52bd 7ab4 81bd c80c 5cbd
00000390: 7488 debd df29 19be 48ba dbbc 6537 0abe
000003a0: dfee e5bd 21aa 60be 8aaa 8b3c 9d88 363d
000003b0: c987 10be 25da b5bd ee5f 23be e727 f53d
000003c0: 3320 673d f6f8 2e3e 21c9 0e3d c317 b1bd
000003d0: 2974 2fbc 6966 8b3d 07de 8e3d 68e7 753c
000003e0: ee58 88bd 8ea3 08be 5fdf 453c fe4b bfbd
000003f0: 871d 53be a5fb da3d c145 b4bc 18c7 43bd
0.06186262 0.1128246 0.026372107 0.026470656 0.07602514 0.03581272 0.06317201 -0.013047692
0.051486958 -0.12599294 0.038074628 -0.0273585 0.1449264 0.09946319 0.025128758 -0.0016745126
-0.002164329 -0.014868138 0.09913129 -0.11559701 -0.026235 -0.039868273 -0.06029393 -0.023821147
-0.010007182 -0.06771941 0.012957464 0.06549827 -0.0008275639 -0.08069979 -0.039628483 -0.024223242
0.10791959 0.042713657 -0.13339907 -0.073110275 -0.0022306223 -0.007090321 0.0036791298 -0.0012572308
-0.10143924 0.009460913 -0.016762353 0.0016160689 -0.04417277 0.044935822 -0.029388454 0.002794668
-0.037773836 -0.056948416 0.116616905 -0.065322414 -0.09090305 -0.059901714 -0.055910997 -0.016129458
-0.10704195 0.037426684 0.0088246325 -0.0051673236 -0.005140536 0.07683339 -0.0065355734 0.007596389
0.082951106 -0.038414408 -0.07282095 -0.028961737 0.014379884 -0.015059613 0.044572234 -0.06533638
-0.10824926 0.1035615 0.08913959 0.044117086 0.1095955 -0.02371079 0.084064536 0.04550969
-0.0190234 -0.0917554 -0.01946414 -0.123342216 -0.048740864 0.0029268432 0.0328226 0.08975673
0.049892567 -0.03713812 0.08601023 0.033608776 -0.045838293 -0.04148403 0.02928228 -0.11441255
-0.08851409 -0.022063598 -0.039588645 0.071969934 0.04716146 -0.026480075 0.028420687 -0.093589514
0.03645079 -0.024899755 -0.044299696 0.01702081 0.060598947 -0.02478568 0.011047509 0.09414185
-0.0017256183 -0.043715093 -0.016178498 0.01393045 -0.067541234 0.08008041 -0.005863145 0.018213041
0.061723314 -0.05350298 0.0041488903 0.09369871 0.09698284 -0.050224584 0.050469633 0.05711485
-0.11616881 -0.18105356 -0.07004008 -0.12382841 0.1400383 -0.15552928 -0.018848108 0.038597852
0.15744288 0.04612471 -0.00767711 -0.066863276 -0.05643536 -0.06539464 0.063563704 0.017882464
-0.057178006 -0.035107747 -0.018272595 0.043985635 0.1839715 0.009888145 0.025473798 -0.04920175
-0.20600906 0.072239675 0.07733615 0.016178725 -0.12548184 -0.058238912 0.08920334 -0.1315106
0.08562459 -0.103943974 0.036240574 -0.08856071 -0.023393577 -0.023642957 0.021583496 0.07473277
0.09070726 -0.03373928 -0.031808052 0.033933356 -0.06355885 -0.07760532 0.021342797 0.07192378
-0.10217419 0.026174366 0.099071026 -0.07315104 -0.03687417 0.019855224 -0.03248773 0.041690946
-0.07011112 -0.117666736 0.06432244 -0.12138711 -0.07381796 -0.03042057 -0.09278264 -0.0802136
0.015650187 0.10337114 -0.010108039 0.05318533 0.09129147 -0.20167948 -0.11097341 -0.06580209
-0.10443933 -0.062844396 -0.017755903 -0.16522883 -0.24528606 -0.087988935 -0.08123055 -0.13331477
-0.06274442 -0.09326657 -0.13189474 -0.032578893 -0.0010518295 0.01989014 -0.11056992 -0.20275481
0.022069158 -0.046925317 0.033643316 -0.09466681 -0.08797734 0.014698177 -0.1387939 0.024501955
-0.14712486 -0.051375836 -0.06333251 -0.053723127 -0.1086587 -0.14957379 -0.026822224 -0.13497694
-0.11227202 -0.21939899 0.017049093 0.04456388 -0.14114298 -0.088794984 -0.15954563 0.119705014
0.056427192 0.17087159 0.03485978 -0.0864711 -0.010708847 0.068066426 0.06975942 0.015008785
-0.06657587 -0.13343641 0.012077182 -0.09340666 -0.20616733 0.10692529 -0.022005918 -0.047797292

a2c_network.actor_mlp.2.bias f4 [64]
00000000: e3ef 00bd 7916 41bd 38b2 0b3e f95b 09bd
00000010: 7366 2abe dc32 01be 17a0 81bd 442e d4bd
00000020: 465d 033e a709 0a3b dd84 603c 84b7 133d
00000030: acd1 b7bd a56b f5bd 270b 9c3d e20f 19bd
00000040: 3614 21bd 1d77 3cbe 46d2 b23d 3ec8 b1bd
00000050: 660a 073d cd5b 903d af4d 57bd b372 0ebe
00000060: a9f3 31be a512 8d3c 6636 9dbc 57ce 35be
00000070: 16ae a0bc 8c5e f33d 4f89 35bd 3193 473d
00000080: f246 e1bd c32c d5bd a4fe 67bd 8e54 123e
00000090: 015f c0bd 4e40 9bbd fbf4 61bd 6f53 fbbd
000000a0: 96dc 963d 7d95 45bd c554 47be 4029 a3bc
000000b0: 72c1 fabd fc68 e1bd 4a7b b1bd ea4a f3bd
000000c0: f63a 46bc fba6 b2bb 8a85 a13d 338e 063d
000000d0: ce56 373d 7afe 9b3d 810b 083d 8e90 393d
000000e0: 0b58 59bc 1ddf 1ab8 427e 80bc 88aa b2bd
000000f0: 0d40 2b3d 0bc8 5bbc 5985 4bbe fce8 09bd
-0.031478774 -0.047140572 0.13642204 -0.033534978 -0.16640644 -0.12617058 -0.06329363 -0.10360387
0.1282855 0.0021062882 0.013703552 0.036063686 -0.089755386 -0.11983422 0.07619315 -0.037368663
-0.039325915 -0.18404813 0.08731513 -0.08680771 0.0329689 0.070487596 -0.05256432 -0.13910942
-0.17378105 0.017220804 -0.019190978 -0.17754494 -0.01961426 0.11883268 -0.0443204 0.048724357
-0.1099986 -0.10408928 -0.05663933 0.14290068 -0.093931206 -0.075806245 -0.055165272 -0.12271773
0.07366292 -0.048238266 -0.19465931 -0.01991713 -0.12243928 -0.11006352 -0.08666094 -0.11879523
-0.012099018 -0.0054520345 0.07886799 0.032850455 0.044760518 0.07616897 0.033214096 0.045303874
-0.01326562 -3.692425e-05 -0.015685204 -0.087239325 0.04180913 -0.013414393 -0.19875087 -0.033669457

a2c_network.actor_mlp.4.weight f4 [32, 64]
00000000: 79c0 433d a447 853d 7d0f f9bd ab69 903d
00000010: 1046 803d f252 0d3c e42e 96bd 2618 ccbd
00000020: dd98 18be 602d e1bb 6085 753d 0fd6 a0bc
00000030: f4af a4bc f3b9 8b3d 9813 92bd 77ac 06bd
00000040: baea 00bd 7a5d dfbc 5a01 e7bd d636 d53c
00000050: 157b c1bc 3683 983a f7d9 8c3d f799 c5bd
00000060: 4c90 d3bd a2bf 03be 4cc0 fc3c e1b0 d1bd
00000070: 00ad 9c3d 571a 8ebd 04db 38bd e1c9 61bd
00000080: 39a4 493d f830 e8bb a10e 1cbc 4685 56bc
00000090: 6f43 843d 8e14 a93d ba82 c8bb 1bd1 aabd
000000a0: c96e 30be 59f0 34bd 70bd af3d 1cc2 3a3e
000000b0: cb3a e6bb 46e6 6e3c c296 973c efb2 063d
000000c0: d93f a03d 4370 9abd 38bc 69bc cd56 a5bd
000000d0: 540e 36be 0715 4cbe 0362 6cbd cb7f 19be
000000e0: 1a9d 97bd 98d0 0d3b 54a7 0b3d 9fbe 7b3d
000000f0: fce4 02be 7ea6 43bc 6d4d d33d 8c18 66bd
00000100: d68e 093e 8ba4 f23c 2f2b d1bc bde3 86bd
00000110: 4deb 92bc ca80 4dbd 77fc 37bd 541c 993d
00000120: fae7 72bd 0961 a63c 25e5 c83d c21c 7d3d
00000130: dee2 203e a3db 2bbb f08d c9bd c039 96bd
00000140: cd2f 11be 8d90 cbbd 558d bd3d 8be4 c53d
00000150: 8829 fcbc 8e24 8b3c d561 3dbd 4058 033d
00000160: 73aa 17be 8a1f 333d 076c 7e3d 66fa 1bbc
00000170: ba47 b83d 68e4 c73d cf29 ddbd 42da 283e
00000180: 087a 9d3c d74c 20bd 1dd2 abbd a070 7d3e
00000190: 5f13 33bd d2fa 9fbc 19fb 2dbe 0072 c63c
000001a0: 31c0 53bd d883 f23b ed45 a5bc 4353 abbc
000001b0: f1da 893c dd4e 7c3c 32b9 3cbe f1a2 63bd
000001c0: 1657 f13c 8ff2 9abd f820 a1bd 25a8 e7bd
000001d0: 20b0 9b36 a44e f03b d697 57bc 3526 a23d
000001e0: 4b4d 2cbd 5594 3dbd 5152 8b3d fb8e 273d
000001f0: 6c41 bd3d 2df2 5dbd 5e06 55bd f10f 1a3d
00000200: 6c23 a4bc 1de5 6c3d 39bf 203c e342 983d
00000210: a177 45be c709 1fbe 217d 33bd 7625 f73c
00000220: 53d9 dcbd 3604 93bd 69a2 f33c 5aa0 d43c
00000230: 9463 ddbc 5d63 293c 4713 9fbc 9b3e f53c
00000240: b2c9 97bd 38d9 9fbd d512 febc f8ee c9bd
00000250: b6ad ed3d 03d6 0f3d 5e12 79bd a321 283e
00000260: e314 9ebd c38f 903d 5ef5 e2bc 5878 13bd
00000270: 839a f43c 561a 953d 432a 6fbc 7cc1 203d
00000280: 6880 983c 7703 983d 147b ef3d 055d 663d
00000290: 13ce 99bd a1ea babd ec90 0ebe 979c 1bbe
000002a0: 6729 ea3c 7405 d43d 0e51 073d 2862 b3bd
000002b0: 19fc 1fbe f592 953d 6874 393d d2d3 71bd
000002c0: fbd0 d7bc d797 15bd 8284 11be dfab bbbd
000002d0: dc65 38be be19 c6bd 359f 023e e340 d93c
000002e0: ca9e 8a3d 41d6 e73d 6ca4 c3bd fc0c 94bd
000002f0: 1003 d73c 6d94 f0bd 6812 ba3c a5d7 ca3d
00000300: ca01 bfbd 01fc 153e 642b 02be 2a81 d9bd
00000310: ab91 59bd 5284 243d 689e a03d d935 103e
00000320: a44b 37be f6d3 8b3d 9f24 d4bd 9217 b0bc
00000330: 1063 ca3c 120e 7cba ea0b 1ebc fcbd 323c
00000340: aea6 1abe 456f 0b3e 363e c43d a3c0 123d
00000350: fe02 bb3c 4d92 37be c1b5 2b3e 08b1 d63d
00000360: db0a d93d d080 943a 3a1f a53c 7281 063c
00000370: 14bd 38bc 8c99 2d3b aa04 0ebe eebc efbc
00000380: f6ac 573d f5d5 09bd b124 363b 233f 89bc
00000390: a4ab b4bc ff12 03be 7f1f 06bd 8dca 543b
000003a0: 24a5 42be aa67 91bb 01f5 b93d 1d74 9c3d
000003b0: a2f4 723c 18bb a93d 3663 ebbb 83b5 40bc
000003c0: 5484 3dbd 87a3 15be 5b22 b1bd 3e30 bdbd
000003d0: 3c89 803c 4ee0 1b3d 625e e8bc b227 f23b
000003e0: b3ee b73d 6e2e e9bc ffbf 93bd 537e 003e
000003f0: e650 e03d b90c 9cbd 2be0 c73d e4da 48bc
0.047790978 0.06507805 -0.12161157 0.070514046 0.06263363 0.008625733 -0.073331624 -0.099655434
-0.14902063 -0.006871864 0.05994165 -0.019633321 -0.020103432 0.068225764 -0.071326435 -0.03287932
-0.031473853 -0.027266253 -0.11279555 0.026027124 -0.02361826 0.0011635784 0.06877511 -0.09648507
-0.10330257 -0.12866071 0.030853413 -0.10238815 0.07650185 -0.06938618 -0.045130745 -0.055124167
0.04922888 -0.0070859157 -0.009524972 -0.013093298 0.064581744 0.082558736 -0.0061190994 -0.08340665
-0.17229761 -0.044174526 0.08581054 0.1823811 -0.0070260516 0.014581269 0.018504504 0.032885488
0.07824678 -0.075409435 -0.014266066 -0.080731966 -0.17778903 -0.19929896 -0.05771066 -0.14990155
-0.074030116 0.0021639224 0.034095123 0.061461087 -0.12782663 -0.01194155 0.10317502 -0.056175753
0.13433394 0.029619476 -0.025533287 -0.065864064 -0.017934466 -0.05017165 -0.044918504 0.07476106
-0.05930326 0.020309942 0.09809331 0.061795004 0.15711543 -0.0026223443 -0.098415256 -0.07335234
-0.14178391 -0.0993968 0.092554726 0.09662732 -0.030781522 0.016985204 -0.046235878 0.032066584
-0.14811115 0.04373125 0.06211474 -0.009520149 0.08998056 0.09760362 -0.1079899 0.16489509
0.019223228 -0.03913578 -0.08389685 0.24749994 -0.043719646 -0.01952878 -0.16990317 0.024224281
-0.05169696 0.007400971 -0.020174945 -0.020913726 0.016828032 0.015399662 -0.18430021 -0.055575315
0.029460471 -0.07565796 -0.078676164 -0.11311368 4.6398636e-06 0.0073335934 -0.013158759 0.07917444
-0.0420659 -0.04628404 0.0680281 0.04090784 0.09240994 -0.054186035 -0.052008025 0.03761286
-0.020036422 0.057835687 0.009811216 0.07434633 -0.19283916 -0.15531074 -0.043820504 0.03016923
-0.10783639 -0.071785375 0.02974053 0.025955368 -0.027025022 0.010338631 -0.019418372 0.02993708
-0.07411517 -0.07805103 -0.03101484 -0.09860033 0.11605398 0.035116207 -0.060808532 0.16419081
-0.077188276 0.0705867 -0.02770489 -0.03600344 0.029858833 0.07280414 -0.014597478 0.03924702
0.018615916 0.07422536 0.11693397 0.056241054 -0.07510009 -0.09126783 -0.13922471 -0.15196453
0.028584195 0.103526026 0.033036284 -0.08758956 -0.15623511 0.073034205 0.04527703 -0.0590399
-0.026344767 -0.03652176 -0.14210704 -0.09163641 -0.18007606 -0.09672879 0.12756045 0.026520198
0.06768568 0.113201626 -0.09552845 -0.07229039 0.026246578 -0.1174706 0.022713855 0.09904412
-0.09326513 0.14646913 -0.12711865 -0.10620339 -0.053117435 0.040165253 0.078427136 0.14083041
-0.17899948 0.06827538 -0.103585474 -0.021495614 0.02470544 -0.0009615134 -0.009646395 0.010909554
-0.15102646 0.13616665 0.09582178 0.035828244 0.022828575 -0.17926903 0.16768552 0.10482985
0.10597774 0.0011329893 0.020156492 0.008209573 -0.0112755485 0.0026489226 -0.13868967 -0.029264893
0.052655183 -0.03365131 0.0027792866 -0.016753739 -0.0220545 -0.12800215 -0.03274488 0.0032469362
-0.19008309 -0.0044374065 0.09079934 0.07639334 0.014828833 0.082876384 -0.0071834577 -0.011762026
-0.046268776 -0.14613162 -0.08649131 -0.09237717 0.015690438 0.03805571 -0.028365318 0.007389986
0.08981075 -0.028464522 -0.07214355 0.12548189 0.1095293 -0.07619614 0.097595535 -0.012259219

a2c_network.actor_mlp.4.bias f4 [32]
00000000: e20f 36be b891 2e3d 1fdd 213d c434 03be
00000010: a888 9cbd 32ef c9bb ec83 bb3b 5dcd 89bd
00000020: 37e8 513d e123 ff3c 3699 ab3b 30d0 a5bd
00000030: 2305 f43b 5d93 ecbc 3f4e d3bd 06dd 4bbd
00000040: be1f 7f3d d01e 5a3d de4c 36bd ec4a 3bbd
00000050: d56e f33c 598f be3d 20ac efbc b320 2dbd
00000060: 9354 e8bd 23c8 b03d 77cf 25bd f771 ecbd
00000070: 9c40 abbd 8de6 0cbd e808 e6bd 4182 673d
-0.17779496 0.042619437 0.039517518 -0.12813097 -0.076432526 -0.0061625475 0.0057225134 -0.06728623
0.051246848 0.031145038 0.00523677 -0.08096349 0.0074469014 -0.028878862 -0.10317659 -0.04977133
0.06228613 0.05325204 -0.0445069 -0.045725748 0.029715935 0.09304685 -0.02925688 -0.042267513
-0.11344256 0.08631923 -0.040481057 -0.115451746 -0.08361933 -0.034399558 -0.112321675 0.056520704

a2c_network.value.weight f4 [1, 32]
00000000: 656d 4fbc f9a3 4a3d a91e 263b 6705 b1b9
00000010: cb34 f3bc 3280 7b3c a8ac 0a3d f3a2 66bb
00000020: db16 41bd 3ccb 7c3d 7b41 80bc 91b5 5ebc
00000030: 04f4 983c 03bc adb9 bc5f 3f3c 7527 c53c
00000040: eacf 1d3d 2d35 b23d 2c96 0ebd c98c c73c
00000050: 2c2d 243d 2b43 223d 70a0 c93c 4865 83bd
00000060: cb4d e6bc c34a 7c3d eb87 5dbb 9fe5 c9bc
00000070: 603a 5abd e169 2abc b75c 89bd df25 42bc
-0.012660359 0.049472783 0.0025347865 -0.00033764096 -0.02968826 0.015350388 0.033856064 -0.003519234
-0.047140937 0.061717257 -0.015656224 -0.0135930935 0.018671043 -0.0003313721 0.01168054 0.024066666
0.03852836 0.08701549 -0.034811184 0.024359124 0.04008214 0.039614838 0.024612635 -0.06415802
-0.028113266 0.061594736 -0.0033802937 -0.024645625 -0.053278327 -0.01040122 -0.06707137 -0.0118498495

a2c_network.mu.weight f4 [7, 32]
00000000: 97d4 76bc 0fb6 78be 532d e2bd 06db aebd
00000010: c862 963d f66f 51be e32c 093e e6ad 90bb
00000020: c4d1 c9bd 5abf dd3d 4a2a e33d d598 013e
00000030: 1412 bfbd 629a 833b 5d18 043d 2088 94bd
00000040: 402a 66be 2ac9 35be 4757 3fbe 2ce6 86bd
00000050: 65d7 273e ff21 6ebe 06a8 89be c916 30be
00000060: 4da0 77bd 23ed 133d 1319 f9bd 5379 863d
00000070: 702d b83d 4088 463d 4bb0 62bd c0f3 d8bd
00000080: 43dc 423e bb07 e93d 0fdf 00be 3fa0 ae3d
00000090: 4cd3 763e a7cd e93d feb7 8abe 0213 b43d
000000a0: b93c e7bd a3c7 d83d 43d6 b2bd 43c9 e33d
000000b0: a296 443c 3e4c 7b3e c2ba b13d 3890 ad3d
000000c0: c3bc 2e3d b784 36bd 0224 d5bd 3a87 7e3d
000000d0: 2e4d 11be 72ef 1bbd 98c9 e93d cccd b4bc
000000e0: 617f 393c e66c 95bd 1b91 163d d64f 94bd
000000f0: 9bed 37be 0af5 fd3d 2ae0 413e 796e aa3d
00000100: 54a0 b3bd 5749 12be d919 89bc c6e1 8cbd
00000110: ce71 40bd 995f 0fbd 2562 283d 0d39 1abe
00000120: f0d2 b53d e25a 5dbe 3028 74bc b600 883d
00000130: f35c 093e b493 77bd 1f3a 80bc f4f7 f63d
00000140: ecbc a93c b59b 4cbd 31fa 8e3d d929 caba
00000150: 6f95 c8bd e7cb ab3d 05ac efbd 501d cb3c
00000160: de82 9b3d 2c2f 6cbe 6a90 213e 7497 ff3c
00000170: c52d 713e ba3b a43d fed5 6a3a 308a 7d3e
00000180: 92de 373e 4d9f 8e3d f36f b9bd 71e8 403e
00000190: 6ad0 d33c aae4 443e 3816 d93d 52ca 873b
000001a0: 2e0e b0be a082 8e3e 0aee 233e cc7f 373e
000001b0: 4864 12be 9949 5e3e 79a9 8e3e a8e6 51be
000001c0: 4365 c4bd 42e2 86bd 344e fcbd 9df0 31be
000001d0: 60fe 143e a0af d2be cf94 9fbd bcb6 47be
000001e0: 6679 453e 7d14 c63d d25f a4bd 8aae 9f3e
000001f0: c079 f13d cfa7 bf3d d003 4c3e b7ca f5bd
00000200: e720 34be a822 883e 9fa1 95bd 3b03 e43d
00000210: 73ec 463e 8abc d53d 700d febd 3ff6 813e
00000220: 90a8 ccbd b10c cebd c852 3b3e 13e0 fa3c
00000230: ac9f f63d 02d5 ea3d cf7b 65be a809 d43c
00000240: dc1d 82be 90cf f4bc c5e4 403e 97d6 0b3e
00000250: 2ea7 d2bd 6f51 663e c146 273e 11a3 663e
00000260: 29a8 3b3e 2470 52bd 0566 43be 4a01 2bbe
00000270: badf 85be ec54 113d ed33 743e 4370 893e
00000280: 67ee 3f3e cb6c ea3c 5681 d43a 43cc 303e
00000290: 539c 3e3e 403a d3bc 4e93 b13d a804 4d3e
000002a0: e392 6fbe 2c6d b03b 8b09 ce3d 1b6a 653d
000002b0: 069c 44be be2c 5abb e95e 98bb 80f2 a6bc
000002c0: 7d93 83be 9c3c 223d 011e 31be 4fc6 153d
000002d0: 63f4 133d 3409 18be 9200 2fbd 22bc 7cbd
000002e0: 96ed 8d3e 6a82 a9bc 504b 80be 7ec4 ca3d
000002f0: 0d63 dbbd a390 e23d 4c1f ea3d b588 1c3e
00000300: ce8b 1c3d 810f 22bc 3973 f83c 6f5d 8ebd
00000310: 0e2e eabd 612e 0a3c febc a7bd 05c3 8f3d
00000320: 2e4d d13c 7863 51be 0960 2cbd 4647 21be
00000330: 1cf3 883d 9ba9 09be ea55 9abc 1e0f ce3d
00000340: 3031 153c d4be 97bd 48ac 173e 947f 813d
00000350: c4dd 50be 7bfc 003e 2241 d7bc ccde 3fbd
00000360: 4098 82bb 959a 93be ee8f f53c 4770 ed3d
00000370: 31fe 153e 1c13 913d b054 5ebd 0457 37bd
-0.015065334 -0.242882 -0.11043801 -0.08537869 0.0734306 -0.20452866 0.13396029 -0.0044152616
-0.09854463 0.10827513 0.110920504 0.12655957 -0.0932962 0.0040162066 0.032249797 -0.07252526
-0.22477055 -0.17752519 -0.18685637 -0.065868706 0.1639076 -0.23255156 -0.26886004 -0.17196192
-0.06045561 0.036114823 -0.12162986 0.065661095 0.089930415 0.048469782 -0.055343907 -0.105933666
0.19029336 0.113784276 -0.1258509 0.08526658 0.24104041 0.11416178 -0.270935 0.08792688
-0.11290879 0.10584953 -0.087322734 0.11122372 0.011998804 0.24540803 0.08678199 0.08474773
0.042660486 -0.04456016 -0.104072586 0.06214068 -0.14189598 -0.03807015 0.11415404 -0.022070788
0.011321873 -0.07296161 0.036759477 -0.0724179 -0.17961733 0.12400253 0.18933168 0.08321852
-0.087708145 -0.1428579 -0.016735958 -0.06879 -0.046983533 -0.03500328 0.041109223 -0.15060826
0.08878124 -0.216167 -0.01490216 0.066407606 0.13414364 -0.060443595 -0.015652714 0.12059012
0.020719968 -0.04995318 0.06981314 -0.0015423849 -0.09794127 0.08388501 -0.11702732 0.02479425
0.0759332 -0.2306487 0.15777746 0.031200148 0.23552616 0.080192044 0.0008958279 0.24759746
0.17955998 0.06963978 -0.09054556 0.1883867 0.025856216 0.19227853 0.10599941 0.0041439915
-0.34385818 0.27834034 0.16008773 0.17919844 -0.14296067 0.21707763 0.27863672 -0.20498145
-0.09589627 -0.06586124 -0.123196036 -0.17376943 0.14550161 -0.41149616 -0.07792055 -0.19503301
0.19284591 0.096718766 -0.08026089 0.3118785 0.117908 0.09358179 0.1992333 -0.120015554
-0.17590676 0.2658894 -0.073062174 0.11133429 0.19426136 0.104363516 -0.12404907 0.25383183
-0.09993088 -0.100610144 0.18293297 0.030624425 0.12042174 0.11466409 -0.2241051 0.02588351
-0.25413406 -0.02988413 0.18837269 0.13656078 -0.10285793 0.22492002 0.16335584 0.22523142
0.18325867 -0.051376477 -0.19081886 -0.1669971 -0.26147252 0.03548138 0.23847933 0.2684346
0.18743287 0.02861633 0.0016212862 0.1726542 0.1861432 -0.025784612 0.08670674 0.20021307
-0.23395877 0.005384108 0.10060414 0.056009393 -0.19200143 -0.0033290829 -0.004649986 -0.020379305
-0.25698462 0.039608583 -0.17296602 0.036566075 0.036121737 -0.1484726 -0.042725153 -0.061702855
0.27720326 -0.02069207 -0.2505746 0.09900759 -0.10712252 0.110627435 0.11431751 0.15286525
0.038219266 -0.009891392 0.03032838 -0.06951415 -0.114345655 0.008433909 -0.08190344 0.07019619
0.025549497 -0.204481 -0.042083774 -0.15749845 0.066869944 -0.13443606 -0.018839795 0.10061477
0.0091059655 -0.074094445 0.14811814 0.06323162 -0.20397097 0.12596314 -0.026276175 -0.046843335
-0.003985435 -0.28828874 0.029975858 0.11593681 0.14647748 0.07083723 -0.054279983 -0.04476072

a2c_network.mu.bias f4 [7]
00000000: a6e9 0abd 69fe 8ebd 9f6e 6e3c 302d 06be
00000010: bee3 bbbb 8dbb 8ebd fa1e 10bd
-0.03391423 -0.06982119 0.014552741 -0.13103175 -0.005733936 -0.06969366 -0.03518579

exp_avg f4 [7]
00000000: b5f2 a43c d6c1 91bb 2a18 e3bb f39e 1abb
00000010: 89de ac3a 403a a93c 9309 d53b
0.020135263 -0.004448156 -0.006930371 -0.0023593276 0.0013188879 0.020657659 0.0065013855

exp_avg_sq f4 [7]
00000000: 47a3 eb39 7277 1c3a 7b82 e639 fc49 023a
00000010: 9f4b e439 1214 023a 06ef 0d3a
0.00044944344 0.00059687265 0.00043966234 0.0004970131 0.0004354389 0.0004962097 0.00054143404

exp_avg f4 [128, 18]
00000000: c93e cf38 5c8a 6b38 2a47 4eba d901 1c3a
00000010: 56b1 bfba 169b b6b9 de94 e539 f503 71b9
00000020: 5445 e9ba 70ca e638 9e58 4e39 8b45 413b
00000030: 6814 3e3a fcf3 22bb 0d3a 07ba 67ed 85b8
00000040: 10fc e439 ac3d 3c3b 1596 c73a a32a e039
00000050: a728 39bb 8cbb 343b 6ec6 caba fd33 1bb9
00000060: 7493 87ba cfd6 4d3a 783c 57ba 07fb 91ba
00000070: 1738 6a3a f942 803b a577 3cba cfcd 74ba
00000080: 1267 4b3a 44fb 99ba 60f5 db3a 6d54 943b
00000090: 7f12 d939 1e29 6cb9 054d 12bb 3ca0 f23a
000000a0: fdc8 1abb 6e4e 00bb 748d a6ba c161 013a
000000b0: f44b 20bb 095b a7ba 5e1b b03a b360 853b
000000c0: 83fd 0bb9 cb7f 55bb 00e6 6d3a 9de6 a1ba
000000d0: 09a0 9a3a cd19 8e3b 42d7 2b3a 26d9 90ba
000000e0: 8f9c 04ba 59e3 c43a 4b63 0bba 84c7 02bb
000000f0: c335 2abb 4aa6 f0b9 35c8 7dba f3fc 9fba
00000100: 7d89 9cb9 708d 013b a99a 5dbb 4459 23ba
00000110: 1969 cd3a 0808 a6ba bb8b eb3a 1c5e 5bb9
00000120: 699d 51bb d325 98ba c28c 533b 905b 79bb
00000130: 1a8a 19ba b1ec 62bb 7a72 ea3a 6292 16bb
00000140: 85c0 56bb d1b3 fe39 09de b0b9 0696 2cba
00000150: 5967 acba 2e46 f4ba 32fc 5aba eb34 ed38
00000160: caf8 2bbb 486e beba e339 123a f96d ebb9
00000170: 8ba8 2aba 3bc0 ad3a dbf7 0f39 eb47 21ba
00000180: 6bb3 0dbb 2bb0 ebb9 d846 1f3a 323a dbb9
00000190: ad19 86ba 325f 1f3b 7027 51bb 793e 06b9
000001a0: 227f 893a 6837 09ba 5a44 a03a 2128 18b9
000001b0: 2130 11ba 09dd 8739 cc1b 9a39 c774 4cba
000001c0: 3015 8d39 4692 4bb9 3837 503a 68c9 91ba
000001d0: 9ade fdb9 c55e 5e3a e502 9dba 63b3 dd3a
000001e0: 3bf6 86b7 61c0 14ba 9e3e 2dba 92a7 8539
000001f0: ba27 77ba df3e cb39 293d bfba 2f73 48ba
00000200: eff9 913a 9925 b2ba 137b 22ba 51d7 0dbb
00000210: d083 003a e419 3bba 3009 bcba 9bb7 24b9
00000220: 91db f539 b1c0 84b9 bbc9 92b9 6b33 b1ba
00000230: a2ff c738 ebce 02ba 1cb1 77ba c5b6 1dba
00000240: 930b 1dbb 7b99 093a 307e 093a f355 27bb
00000250: 40f8 78b9 9e06 15bb 7c4f 363b ca4e 41ba
00000260: ed38 d4ba c651 943a 4895 4e3a 27dc 5839
00000270: 579e 5c3b 639e 17bb 8562 d9b9 5c95 b5b8
00000280: 864a 5abb 2457 233a cc30 adba 2114 ec39
00000290: 3005 6b3a b472 eaba 01f6 623a 9f96 12ba
000002a0: d453 1c3a 6493 d9ba 6674 1dba 8a24 723a
000002b0: 5e20 e7ba 5905 c33a b7ef c7b9 2fff ecb9
000002c0: b108 ebb9 bf53 7b3a 7754 e3ba 70f3 5239
000002d0: 7f49 7d3a 77d9 6536 c3a5 a6ba 4cd4 e53a
000002e0: 68ef d239 060e 75ba 7e40 48bb fa48 15ba
000002f0: 7b14 163a 883d 8fba 8717 a2ba 82c6 8d3a
00000300: 9636 54bb 78d4 7b3a 118b 033b f308 97b9
00000310: 54ae f03a ea0e e539 4f88 7c38 e8a1 edb9
00000320: 45b3 b039 54b6 b6b9 1c8f c8ba fba2 3339
00000330: eebc 113b 05b1 163b d20a 97ba 68c3 3cba
00000340: e702 5c3b 41c6 1ebb c26a 433b 679c f8ba
00000350: 3013 baba d6bf 3fba 7b47 18ba 0329 60b9
00000360: 00ba 86b9 b96d a339 2ab0 6039 f6ee 1eba
00000370: 55ae 103a 423c 2eb8 d3c1 483a fe5d d7b9
00000380: 9dd0 143a 3a85 ed38 66ac bbb9 d5ee 35ba
00000390: b224 d938 2ad1 9a3a dbb4 67b9 4084 14b8
000003a0: 5231 58ba e17e 45b9 1e52 9f3a 3788 8eb7
000003b0: 71f3 5bba 9728 b93a 0852 8bb9 023e 193a
000003c0: e754 a4b9 84c3 9d3a 16c9 da39 90c7 4bba
000003d0: 5af4 3b3a 5a8c 7c3a 4ff4 2bba 9586 02ba
000003e0: 962e 3bb9 e7c6 14ba db21 7a3a 763d 493a
000003f0: dfac 83ba bada a2b8 dec2 4a3a 91a0 94ba
9.882224e-05 5.6157223e-05 -0.00078688806 0.0005951203 -0.0014624994 -0.00034829293 0.00043789198 -0.00022985025
-0.0017797151 0.000110049616 0.00019678703 0.0029490914 0.00072509656 -0.0024864664 -0.00051584915 -6.386154e-05
0.0004367535 0.0028723283 0.0015227223 0.00042756376 -0.002825299 0.0027577607 -0.0015470514 -0.00014801319
-0.0010343627 0.00078521384 -0.00082106097 -0.0011137434 0.00089347496 0.0039142338 -0.0007189459 -0.0009338529
0.0007759194 -0.0011747857 0.0016781501 0.004526666 0.00041403246 -0.00022522031 -0.002232374 0.0018510888
-0.0023618334 -0.0019577998 -0.0012706951 0.0004935526 -0.0024459334 -0.001276822 0.001343589 0.0040703653
-0.00013350513 -0.0032577391 0.0009075105 -0.0012352053 0.0011796962 0.004336572 0.0006555208 -0.0011051043
-0.00050587294 0.0015021368 -0.0005317225 -0.0019955346 -0.0025971986 -0.00045900262 -0.0009681017 -0.0012206122
-0.00029857075 0.0019768141 -0.0033814108 -0.0006231258 0.001567158 -0.0012667188 0.001797072 -0.00020920526
-0.0031984693 -0.0011607952 0.0032279943 -0.003804896 -0.00058570656 -0.0034625942 0.00178869 -0.0022975435
-0.003276856 0.0004858063 -0.00033734765 -0.00065836345 -0.0013153359 -0.0018636638 -0.000835362 0.000113108974
-0.002624082 -0.0014528716 0.0005578084 -0.0004490463 -0.00065101 0.0013256142 0.00013729876 -0.0006152379
-0.0021621834 -0.00044953948 0.0006075925 -0.00041814294 -0.0010231041 0.0024318215 -0.0031914376 -0.00012802509
0.0010490159 -0.00052343914 0.0012227402 -0.00014510799 -0.0005538483 0.0002591389 0.0002939388 -0.00077993836
0.00026909402 -0.0001941408 0.00079427985 -0.0011122646 -0.00048421771 0.00084827497 -0.0011979012 0.0016914423
-1.6088705e-05 -0.00056744186 -0.0006608757 0.00025492586 -0.0009428222 0.0003876602 -0.0014590371 -0.0007646558
0.0011137108 -0.0013591527 -0.0006198149 -0.002164323 0.0004902454 -0.0007137342 -0.0014346 -0.00015708657
0.0004689363 -0.00025320568 -0.0002799759 -0.0013519352 9.536675e-05 -0.00049899396 -0.00094486936 -0.00060163095
-0.0023963198 0.00052490056 0.00052449387 -0.0025533407 -0.00023743603 -0.002273954 0.0027818372 -0.0007374106
-0.0016191282 0.0011315874 0.0007880521 0.00020681378 0.0033663714 -0.0023135177 -0.00041462868 -8.658573e-05
-0.003330858 0.00062309415 -0.0013213395 0.00045028425 0.00089653116 -0.0017886967 0.0008657873 -0.00055919023
0.0005963419 -0.0016599712 -0.00060064194 0.0009237012 -0.0017633548 0.0014878913 -0.0003813484 -0.00045203554
-0.00044829168 0.0009587369 -0.0017343898 0.00020117848 0.0009662136 3.425024e-06 -0.0012714196 0.0017534583
0.00040232693 -0.0009348098 -0.0030556018 -0.0005694773 0.0005725098 -0.0010928372 -0.0012366631 0.0010816606
-0.0032381169 0.00096065504 0.0020071904 -0.00028807632 0.0018362501 0.00043689396 6.020843e-05 -0.00045324792
0.00033702902 -0.0003484959 -0.0015301439 0.00017131485 0.0022237855 0.0022993695 -0.001152361 -0.00072007487
0.0033571066 -0.0024227055 0.0029818271 -0.001896751 -0.0014196392 -0.00073146576 -0.0005808991 -0.00021377583
-0.00025697052 0.00031171532 0.00021427931 -0.00060628296 0.00055191416 -4.1540952e-05 0.00076582766 -0.00041078025
0.0005676838 0.00011325856 -0.00035795866 -0.0006940191 0.000103542014 0.0011811603 -0.0002209725 -3.5409117e-05
-0.00082470954 -0.0001883465 0.001215521 -1.699115e-05 -0.00083904626 0.0014126477 -0.00026573264 0.00058457267
-0.00031343775 0.0012036418 0.0004173002 -0.00077735726 0.0007169895 0.0009633951 -0.0006559537 -0.0004979161
-0.00017851064 -0.0005675391 0.0009541788 0.00076767 -0.0010046026 -7.765503e-05 0.0007734726 -0.0011339356

exp_avg_sq f4 [128, 18]
00000000: 79ff a537 2b1c 6e37 1ea4 5537 9b8e 8437
00000010: f814 7f37 3fc9 2a37 c5cd 4037 01a7 8337
00000020: 309e 4037 f02f 7737 8984 8237 d455 5937
00000030: 28ec 8d37 d519 9037 0af2 0037 fa92 6037
00000040: f846 1b37 5fab 3b37 1c49 b737 b328 a037
00000050: 7138 a837 36c7 ad37 bb0b 9937 13c6 8337
00000060: 3f43 6737 6cd0 a437 ff00 8737 3d78 9d37
00000070: 4108 aa37 7adf 8537 c910 9337 d794 8c37
00000080: 4cd2 3e37 6074 8137 d974 5937 a1c3 8637
00000090: 458f ab37 5dc5 8837 a705 ae37 3172 9d37
000000a0: 46d5 8c37 d7c1 7437 7c6a 8e37 2f7c 9a37
000000b0: 92c3 9637 cc94 9b37 6a26 b437 102b 9e37
000000c0: fb9f af37 0f5e b237 6d3a 3e37 bff0 6737
000000d0: 767d 8137 5a41 9a37 29d7 bc36 4d3e c036
000000e0: 1775 8c36 528d d336 ed89 c036 f1aa c336
000000f0: e674 a836 bdb2 dc36 dfbd c536 87a1 9736
00000100: b3a4 f636 ced1 e936 3968 fa36 f294 d136
00000110: 2fbd 7936 aa37 8536 9cc2 b436 2f2b 9d36
00000120: d3ee 9137 c63a 1437 abf8 5137 89de 9237
00000130: 157f a037 8810 3f37 35ab 3037 0e18 b037
00000140: 5446 6237 3e1a 5837 4c90 ac37 05c7 9a37
00000150: cdd3 9637 3a7a 8037 d99f 0837 6bd8 5b37
00000160: c2f8 6237 7ec3 3737 2b25 4637 d941 1d37
00000170: 4777 ff36 ac8f 4237 cda3 4537 41f1 3137
00000180: 08b3 2737 caa7 5737 284a 2a37 d374 2e37
00000190: 8669 5d37 bdad 5a37 65bd 6637 371a 5437
000001a0: 7629 c536 cb3e 0a37 6d38 2137 58b2 e836
000001b0: 7683 c437 f100 7237 fda1 5237 10bc 9837
000001c0: 64e6 8637 31dd 1a37 b217 1d37 5fbd 8e37
000001d0: e1b0 6737 e7c7 9137 acd9 6f37 12e0 6837
000001e0: 2b6f 8437 da9c 9837 e853 1337 b9f7 6737
000001f0: 8b22 5a37 c888 ed36 d125 0b37 a9f8 0137
00000200: 4f8f b136 7ac7 1f37 3987 f836 774f bf36
00000210: 3e29 b936 0f90 2037 347b 0837 6dae e536
00000220: ed44 1437 8734 0437 7649 2b37 054b 4e37
00000230: 8955 7636 0b51 af36 9ed0 d636 5206 8536
00000240: 45ac 8037 dd7f 1037 e486 2337 bd0a 7a37
00000250: 7719 6837 6d62 1037 0c31 2a37 f486 9137
00000260: 6f08 3f37 e888 4337 f7aa 8737 78e8 7537
00000270: 24bc 8437 af1d 7f37 20b2 e436 c651 2c37
00000280: c07f 5437 b139 2537 5a80 2e37 759f 3937
00000290: 18e0 d736 25fe 2537 b5d0 ff36 f7b4 a136
000002a0: f0a9 ac36 53c0 3137 6fac 0437 1395 0437
000002b0: 4017 1a37 f36d fe36 7451 1937 9a47 2f37
000002c0: 3096 c136 1244 dc36 78b4 f836 4e72 ab36
000002d0: cf21 4137 f68e 9037 83bf 4837 b942 5137
000002e0: b3bb 4437 3e77 f936 3b3c 2c37 7624 8c37
000002f0: 2022 6037 0517 3037 c30f 8137 7405 3137
00000300: 784d 5f37 fb6c 6637 a8ea 1337 cc88 3b37
00000310: 230d 2b37 6c31 5237 9fe1 e036 0e9f 0c37
00000320: cf0e c536 e88d f936 2cec f536 d50f a436
00000330: 36a7 dc36 9d94 0e37 4bc9 c936 ec28 bd36
00000340: fe24 1237 6bcb c436 5977 1937 526c 1b37
00000350: 109d 6f36 fe3f bc36 416c b836 8d12 de36
00000360: 61f0 9536 4815 9936 9053 8136 8425 b336
00000370: 8af0 9836 1d85 4b36 5f12 7c36 3019 d136
00000380: be50 9936 00b2 a336 a27a d336 5897 ad36
00000390: cb57 ed36 3177 cb36 0d31 1236 be51 8536
000003a0: 8873 8836 a786 5336 4b12 0137 8638 9536
000003b0: 27f0 ce36 e461 d736 196d ef36 9006 ef36
000003c0: 5723 9636 d51b 1a37 781e cb36 7205 1437
000003d0: 85fe 0937 342a 0737 4d79 0237 a476 1137
000003e0: bed4 5d36 ce05 c836 ac8c a736 5a75 9d36
000003f0: d567 1237 09d7 4e37 cade 0637 00f1 0d37
1.9788497e-05 1.4192464e-05 1.2734001e-05 1.5802032e-05 1.5204067e-05 1.0179646e-05 1.1492001e-05 1.5694184e-05
1.1480923e-05 1.4733509e-05 1.5558924e-05 1.2954191e-05 1.6918479e-05 1.7178167e-05 7.685749e-06 1.3385661e-05
9.255244e-06 1.1185969e-05 2.1849344e-05 1.9092438e-05 2.0053443e-05 2.0715972e-05 1.8244484e-05 1.5708652e-05
1.378433e-05 1.9647377e-05 1.6093718e-05 1.8771849e-05 2.0269423e-05 1.59589e-05 1.7531582e-05 1.675861e-05
1.1373846e-05 1.543219e-05 1.2961414e-05 1.6065142e-05 2.0451504e-05 1.6304368e-05 2.0745048e-05 1.8769033e-05
1.6788614e-05 1.4588665e-05 1.6977305e-05 1.8416058e-05 1.7972463e-05 1.8546729e-05 2.147556e-05 1.885512e-05
2.0936122e-05 2.1263053e-05 1.1338486e-05 1.3824726e-05 1.543642e-05 1.8388662e-05 5.6278845e-06 5.7292987e-06
4.185956e-06 6.304742e-06 5.7381026e-06 5.831353e-06 5.020399e-06 6.577319e-06 5.8931614e-06 4.518955e-06
7.350545e-06 6.9683656e-06 7.4627137e-06 6.246025e-06 3.721401e-06 3.970189e-06 5.3870735e-06 4.683992e-06
1.7396558e-05 8.835172e-06 1.2515268e-05 1.7508182e-05 1.9132664e-05 1.1388336e-05 1.053028e-05 2.0992036e-05
1.3487024e-05 1.2880713e-05 2.0571191e-05 1.8450906e-05 1.798002e-05 1.5315705e-05 8.143449e-06 1.3103806e-05
1.3528568e-05 1.0953167e-05 1.18103735e-05 9.373261e-06 7.613478e-06 1.1596752e-05 1.1780253e-05 1.0606193e-05
9.99566e-06 1.2854065e-05 1.01500555e-05 1.0398408e-05 1.3197196e-05 1.3034264e-05 1.3753165e-05 1.2642288e-05
5.875884e-06 8.240061e-06 9.6094855e-06 6.9349007e-06 2.3426237e-05 1.4424543e-05 1.2554691e-05 1.8207385e-05
1.6081329e-05 9.230615e-06 9.363446e-06 1.7015902e-05 1.3809856e-05 1.7378434e-05 1.4296191e-05 1.3880448e-05
1.5787393e-05 1.8192852e-05 8.781419e-06 1.382635e-05 1.3001855e-05 7.079074e-06 8.29385e-06 7.746895e-06
5.2916944e-06 9.523583e-06 7.406718e-06 5.7014945e-06 5.518231e-06 9.570284e-06 8.134917e-06 6.8450377e-06
8.8375355e-06 7.880043e-06 1.0209498e-05 1.2296024e-05 3.6706645e-06 5.224841e-06 6.4019832e-06 3.9644447e-06
1.5339008e-05 8.612839e-06 9.746964e-06 1.4903661e-05 1.3834207e-05 8.605985e-06 1.0144209e-05 1.734819e-05
1.1386451e-05 1.1654782e-05 1.6172866e-05 1.4657264e-05 1.5823236e-05 1.5206096e-05 6.815666e-06 1.0271038e-05
1.2665929e-05 9.848199e-06 1.0401092e-05 1.1063986e-05 6.4335873e-06 9.893939e-06 7.623889e-06 4.819241e-06
5.145783e-06 1.0594801e-05 7.907961e-06 7.902522e-06 9.184529e-06 7.5825897e-06 9.138475e-06 1.0447484e-05
5.7693323e-06 6.5644354e-06 7.4119853e-06 5.109504e-06 1.1511568e-05 1.7232709e-05 1.1965519e-05 1.2472906e-05
1.17262125e-05 7.43466e-06 1.0266022e-05 1.6706279e-05 1.3359386e-05 1.0495777e-05 1.5385338e-05 1.0551292e-05
1.3309873e-05 1.3734442e-05 8.816518e-06 1.1177919e-05 1.0195453e-05 1.2528482e-05 6.701986e-06 8.381683e-06
5.8727815e-06 7.4372983e-06 7.329063e-06 4.889424e-06 6.575977e-06 8.498461e-06 6.0137004e-06 5.637403e-06
8.710891e-06 5.864936e-06 9.147298e-06 9.26394e-06 3.5705198e-06 5.6102863e-06 5.4962297e-06 6.618275e-06
4.46853e-06 4.562233e-06 3.8542275e-06 5.338983e-06 4.5579554e-06 3.032684e-06 3.756162e-06 6.2316176e-06
4.569155e-06 4.8785005e-06 6.3025664e-06 5.1734205e-06 7.073371e-06 6.063747e-06 2.1784247e-06 3.973225e-06
4.0665655e-06 3.1519828e-06 7.693258e-06 4.4471262e-06 6.167236e-06 6.4188953e-06 7.1354557e-06 7.123519e-06
4.4744625e-06 9.185595e-06 6.0534185e-06 8.822755e-06 8.225096e-06 8.056453e-06 7.776846e-06 8.670297e-06
3.3055398e-06 5.9611402e-06 4.993364e-06 4.692626e-06 8.726453e-06 1.2328624e-05 8.0388945e-06 8.460367e-06

exp_avg f4 [128]
00000000: 41a9 623a 970c 473b 28cb 263b 419e 133b
00000010: 5ca6 4bbb e517 f23a 7220 91ba 0eae 63ba
00000020: 0910 88bb efc5 1bbb 631c 033b d9de 2bb8
00000030: 63a5 97ba 7134 bf3a 7112 8aba 5732 8b3a
00000040: 786e 223b dff1 4f3b 56e3 b13a 9ac5 1c3a
00000050: 6e3e b5bb 4529 cb3a ad65 94bb c9c1 ac3a
00000060: f5aa 7d3b 1d34 86bb 04fe 2ebb 3352 883a
00000070: 4427 5a3b 3b07 123b 773d a2bb 75b4 bc3a
00000080: 830a c1ba ca6c 12b9 eb8a b13a 70ee 58b6
00000090: 1598 57bb ef39 453b a583 f13a 22c5 e6ba
000000a0: abd6 7bbb 3c1b 1abb 71f2 9e38 a84d 10bb
000000b0: 58a3 4db9 e410 173b 5ec9 1c3a b0f1 cf39
000000c0: 1ca1 b7b9 f687 eb3a f3a3 c53a f528 263a
000000d0: 1923 2f3b 3a2b ceba a094 433a e79b e03a
000000e0: 8308 f13a c1fa d43a 6821 ddba 9d1f 273b
000000f0: 3cdd 523a 3e81 e33a 6591 943a 2d0d e639
00000100: 98b0 58ba e642 c9bb 44c1 ddba 2852 c6ba
00000110: 53ff cbba 0d95 093b 9674 a43b a74e 0f3b
00000120: 2afe 413b 28a3 aeba 4531 17ba abe3 8a3b
00000130: 4fcf 8d3b 287c 223a 7ac6 813a adeb 8e3b
00000140: dd9b e83a a43c b63a b5a6 bc3a 6bd8 83ba
00000150: 6fcc 893a 2145 a7b9 d3fe 7f3a 7720 e13a
00000160: ccba 37bb 67a8 713a 8d58 86ba 86cb 1c3a
00000170: 01ef 143a 4962 f03a 55b4 d2b9 3048 b7ba
00000180: d2f9 a63a 9b59 e839 654a 163b be67 0ab7
00000190: 84f7 503b 16f5 593b 1cf6 1f3b c141 623a
000001a0: 724d 993a cb2d c43b 7095 94ba 0b6c 34ba
000001b0: a3ee d63a d01e 7a3b 6ed5 1a3b 4593 19bb
000001c0: 6663 113b c9dd 7eba 40f3 58bb b834 e33a
000001d0: 42ad d73a 8003 17bb 0fcf 34bb ee2e 14bb
000001e0: 2808 97ba a5b5 153b 10ad 243b 021f 0f3b
000001f0: 65bb 543b 4dfc 60bb 8f40 3fbb f141 e03a
0.00086464366 0.0030372494 0.002545068 0.0022524747 -0.00310745 0.0018470256 -0.0011072292 -0.0008685299
-0.004152302 -0.00237691 0.0020005933 -4.097712e-05 -0.0011569675 0.0014587772 -0.001053406 0.0010619861
0.0024785083 0.003172986 0.001357178 0.00059803727 -0.005531124 0.001549997 -0.0045287223 0.0013180311
0.0038706635 -0.004095568 -0.0026701698 0.0010400474 0.0033287564 0.0022282142 -0.004951175 0.0014397042
-0.0014727864 -0.00013964172 0.0013545429 -3.2325297e-06 -0.0032897044 0.0030094346 0.0018426074 -0.0017606358
-0.0038427513 -0.0023514768 7.579185e-05 -0.0022018943 -0.00019611174 0.002305084 0.0005980934 0.00039662188
-0.00035024516 0.0017969597 0.0015078768 0.00063385005 0.00267238 -0.0015729435 0.00074608065 0.0017136306
0.0018389378 0.0016249047 -0.0016870918 0.002550102 0.0008043831 0.0017357243 0.0011334835 0.00043878835
-0.00082660606 -0.006142008 -0.001691856 -0.0015130686 -0.0015563763 0.0020993382 0.005018781 0.0021866949
0.0029600956 -0.0013323771 -0.00057675346 0.004238566 0.0043276916 0.00061983103 0.000990107 0.004361591
0.0017746646 0.001390357 0.0014392944 -0.0010059004 0.0010513196 -0.00031904227 0.000976545 0.0017175813
-0.0028034924 0.00092185143 -0.0010249779 0.0005981255 0.00056813663 0.0018339838 -0.0004018868 -0.0013983306
0.0012739247 0.0004431725 0.0022932526 -8.249595e-06 0.0031885812 0.0033257655 0.0024408167 0.0008631014
0.0011696054 0.0059869043 -0.001133604 -0.0006882555 0.0016398024 0.0038165338 0.002362575 -0.0023433727
0.002218449 -0.00097223796 -0.0033103973 0.0017334437 0.0016454833 -0.0023042858 -0.0027589237 -0.002261098
-0.0011522816 0.0022843864 0.0025127567 0.002183855 0.0032460329 -0.003433007 -0.0029182767 0.0017109496
