runs/BallBalance_18-16-10-07/nn/BallBalance.pth (torch, 172255 bytes, 36 tensors)

value_mean_std.running_mean f8 [1]
0.25244829025653265
00000000: 9d4e a5df 1c28 d03f

value_mean_std.running_var f8 [1]
0.027267478767377014
00000000: 0277 3386 01ec 9b3f

value_mean_std.count f8 []
100353.0
00000000: 0000 0000 1080 f840

running_mean_std.running_mean f8 [18]
-0.021582650193704724 0.0992923784270219 -0.018984001888925957 0.026156881817639508 0.1616348329022616 -0.02317683083534287 -0.09524959898508209 -0.22338312050095657
0.3916040077401238 -0.08314578650531447 -0.01568441570855242 0.3622423902919864 -0.1066552351849951 -0.08035023853666552 0.11695205597161856 0.11884598511302898
-0.09259836613921983 -0.1435284291282296
00000000: 17cd f822 c319 96bf a20b 16ae 396b b93f
00000010: ef61 0acd 8a70 93bf d96d e39f dec8 9a3f
00000020: 6ed5 9a40 73b0 c43f cbd3 d9c9 aabb 97bf
00000030: 4e19 9918 4762 b8bf 35d8 836e d197 ccbf
00000040: ba7c 8e41 0a10 d93f 912c d7d1 0a49 b5bf
00000050: 28b4 1952 930f 90bf 4fda e1b4 fa2e d73f
00000060: 0916 11eb c14d bbbf 95a3 bd4e d591 b4bf
00000070: ac1a 99e7 91f0 bd3f cd44 52c3 b06c be3f
00000080: b321 3bca 86b4 b7bf bc74 93ba 235f c2bf

running_mean_std.running_var f8 [18]
0.1488367443082777 0.039704221060676385 0.059189050541456574 0.16758474591313774 0.06218011331960791 0.016248597948767773 0.01145043311596974 1.7944276144882256
0.6357310875166287 1.298138303736843 2.4026318653412497 0.5920272689987535 0.9315322443595472 1.263477775325542 0.006090193758014116 0.005926467516026469
0.16393123485244815 0.2794809387212232
00000000: 2aa3 9f1a 150d c33f 3f01 f095 1c54 a43f
00000010: a9b4 b6f8 064e ae3f d3b0 80bd 6a73 c53f
00000020: 2dad 5662 12d6 af3f e3e8 2ef3 78a3 903f
00000030: 0ea4 101e 5373 873f 7542 f4ba f9b5 fc3f
00000040: e2e6 bdb8 e857 e43f 26c1 83ab 2cc5 f43f
00000050: c2be 2f0e 9738 0340 2d13 d62b e3f1 e23f
00000060: 1533 96b5 1ccf ed3f c6ef c378 3437 f43f
00000070: 7e86 45f0 07f2 783f 2820 9802 5a46 783f
00000080: f6f8 3dde b2fb c43f 256f ea04 04e3 d13f

running_mean_std.count f8 []
50177.0
00000000: 0000 0000 2080 e840

a2c_network.sigma f4 [7]
-0.295048 -0.27195877 -0.26766273 -0.29675835 -0.10048669 -0.107707106 -0.26149374
00000000: 8810 97be 2e3e 8bbe 170b 89be b6f0 97be
00000010: f7cb cdbd 8b95 dcbd 82e2 85be

a2c_network.actor_mlp.0.weight f4 [128, 18]
-0.22900079 -0.03923102 -0.112752855 -0.09443763 -0.089796245 0.18004979 -0.21338904 -0.21760318
-0.17468372 -0.1179672 0.058839805 -0.20055069 0.21914837 -0.16584748 0.37207782 0.021513019
-0.062257446 0.03956932 0.09106566 0.1714501 0.025060408 -0.0835656 0.0049745166 -0.048904467
0.14877015 0.3449253 0.091919295 -0.022077402 0.054514047 0.05437313 0.06400894 -0.06604565
-0.5195443 -0.19111215 -0.28287485 0.25042036 0.05233569 0.05850087 0.15866357 -0.006512929
0.059160165 -0.19877575 0.0005759831 -0.11912053 0.13431078 -0.0654425 0.03091013 -0.0827645
0.1625368 -0.09638352 -0.23698628 -0.3052138 0.39548728 0.10753429 0.28108558 -0.081194535
-0.32713053 -0.20947544 -0.12912928 0.13487518 0.15119776 0.24842021 -0.03181145 -0.084852256
0.045163848 -0.031166917 0.08694876 -0.0031505043 0.16924839 -0.32653347 -0.20701264 0.02953183
0.08501144 -0.2863419 0.16870178 0.08171362 -0.29199612 -0.1905336 0.22719245 -0.044358406
-0.075273015 -0.2517877 -0.10788057 0.035239298 -0.0045162947 -0.09423669 0.009086371 -0.18298335
-0.08537664 -0.1983276 -0.21722338 -0.28401473 0.22731791 0.07664915 0.038255118 -0.16644059
-0.11706035 -0.071678676 0.066986844 -0.3217251 0.071422696 -0.085020356 0.043512713 -0.17805958
-0.0727186 -0.3465229 -0.09179674 -0.21898219 -0.05923868 -0.23770186 0.15959403 -0.004107706
0.12588888 0.11686459 -0.12516849 0.1712368 -0.034409788 -0.12760194 -0.141253 -0.20875677
0.04676697 -0.09236247 0.17398296 -0.34948677 0.34863803 -0.20374244 -0.04793744 0.011203021
0.14257917 0.31121415 0.048198022 -0.062036574 0.04867282 -0.15602736 0.056015916 -0.099234775
0.30430332 -0.09379571 0.031369373 0.019001707 0.15041901 -0.012655593 0.41841623 0.20225038
0.10745897 -0.2584009 0.1537448 0.06739182 -0.0666161 0.12916373 0.026072422 -0.10472889
-0.19088341 -0.07642105 0.24506135 -0.04666102 -0.14170231 -0.111809336 -0.23871277 0.0431827
0.34657535 -0.2828966 0.113090664 0.17771071 0.0047954787 -0.11807963 0.14378509 0.113860965
0.11947266 -0.08805708 -0.077795394 -0.10698671 -0.12948996 -0.028152077 0.11321691 0.16989209
0.02461566 -0.06830512 0.016099522 -0.06396685 0.028687183 0.075327 -0.28604072 -0.072989695
0.26689327 0.07661945 0.05053873 -0.16602509 -0.20883918 -0.35228917 -0.058268107 0.11906321
0.07932386 0.08107224 -0.21851641 -0.320266 0.022645164 0.18161184 0.07443336 -0.071494214
0.20040347 -0.18642733 -0.32181036 0.08832459 -0.08337117 -0.13847804 -0.21181178 0.17811094
0.22431119 0.069713905 -0.06929986 -0.24899773 -0.5181796 0.32803687 0.029098837 0.25802863
0.17684911 0.06302802 0.07576823 -0.14938635 -0.13271421 -0.26322716 0.11487387 -0.047464173
-0.04046316 -0.21463472 0.009977328 -0.2098432 -0.14252606 0.07656309 -0.18112248 0.15896517
0.031456243 -0.24691229 -0.010217012 -0.10905389 -0.03306917 -0.18715136 0.065026626 -0.23133193
0.09920149 0.14600793 0.14117883 -0.21902035 0.18522207 -0.24356396 0.10409709 0.16363047
-0.1400015 -0.08627203 0.08290412 -0.20706986 0.112603284 -0.35057157 0.14850433 0.14577019
00000000: 2f7f 6abe b5b0 20bd f8ea e6bd 8468 c1bd
00000010: 18e7 b7bd f95e 383e a882 5abe 5ed3 5ebe
00000020: 4ae0 32be ca98 f1bd 0202 713d 295d 4dbe
00000030: 6e68 603e ecd3 29be fc80 be3e 123c b03c
00000040: aa01 7fbd 7013 223d a280 ba3d 9d90 2f3e
00000050: 7c4b cd3c 7124 abbd 4501 a33b 0d50 48bd
00000060: 3457 183e 0d9a b03e 2f40 bc3d abdb b4bc
00000070: 1f4a 5f3d 5cb6 5e3d 1e17 833d f142 87bd
00000080: db00 05bf e7b2 43be f9d4 90be 1937 803e
00000090: f35d 563d 9c9e 6f3d b478 223e 696a d5bb
000000a0: ee51 723d df8b 4bbe 92fd 163a 77f5 f3bd
000000b0: c488 093e b806 86bd 3e37 fd3c 6f80 a9bd
000000c0: 0c70 263e b964 c5bd 88ac 72be fc44 9cbe
000000d0: 4f7d ca3e f03a dc3d 73ea 8f3e 5249 a6bd
000000e0: a77d a7be bb80 56be 773a 04be b81c 0a3e
000000f0: 96d3 1a3e de61 7e3e b94c 02bd 05c7 adbd
00000100: bafd 383d c351 ffbc 3112 b23d b178 4ebb
00000110: 734f 2d3e 652f a7be 1ffb 53be bdec f13c
00000120: 7a1a ae3d 689b 92be 29c0 2c3e 7859 a73d
00000130: 8480 95be 3d1b 43be 23a5 683e 29b1 35bd
00000140: bd28 9abd 51ea 80be 7df0 dcbd 1557 103d
00000150: 6dfd 93bb 2aff c0bd 01df 143c fd5f 3bbe
00000160: f3d9 aebd 6416 4bbe ce6f 5ebe 616a 91be
00000170: 07c6 683e 3bfa 9c3d 66b1 1c3d 676f 2abe
00000180: 56bd efbd 45cc 92bd 6630 893d 27b9 a4be
00000190: 1046 923d 271f aebd 633a 323d 4055 36be
000001a0: 7ded 94bd 736b b1be eeff bbbd de3c 60be
000001b0: 42a4 72bd 1e68 73be 9e6c 233e ef99 86bb
000001c0: 04e9 003e b456 ef3d 2b2c 00be b358 2f3e
000001d0: 47f1 0cbd 15aa 02be a0a4 10be 56c4 55be
000001e0: b98e 3f3d 8928 bdbd 9728 323e eeef b2be
000001f0: af80 b23e dca1 50be 0d5a 44bd e08c 373c
00000200: 4600 123e 7657 9f3e 4a6b 453d 101a 7ebd
00000210: 275d 473d a3c5 1fbe f270 653d 9a3b cbbd
00000220: a5cd 9b3e f717 c0bd 2c7d 003d 78a9 9b3c
00000230: 7107 1a3e 6859 4fbc a73a d63e b91a 4f3e
00000240: 7313 dc3d 1f4d 84be 476f 1d3e b904 8a3d
00000250: 066e 88bd 7f43 043e d595 d53c 1a7c d6bd
00000260: f176 43be a482 9cbd 5df1 7a3e a01f 3fbd
00000270: 691a 11be 4bfc e4bd 1f71 74be 58e0 303d
00000280: 5372 b13e d3d7 90be 149c e73d ccf9 353e
00000290: 6423 9d3b bcd3 f1bd 663c 133e f02f e93d
000002a0: 15ae f43d 4557 b4bd 3153 9fbd d91b dbbd
000002b0: 0499 04be 2f9f e6bc 44de e73d 31f8 2d3e
000002c0: c8a6 c93c 8ee3 8bbd 25e3 833c 0d01 83bd
000002d0: 6201 eb3c 0b45 9a3d ee73 92be 9f7b 95bd
000002e0: 3ca6 883e a8ea 9c3d b301 4f3d 7b02 2abe
000002f0: f0d9 55be 3f5f b4be 8aaa 6ebd 6ad7 f33d
00000300: 8c74 a23d 3409 a63d c4c2 5fbe e8f9 a3be
00000310: 5a82 b93c 74f8 393e 8470 983d 8f6b 92bd
00000320: 9136 4d3e cee6 3ebe 54c4 a4be 86e3 b43d
00000330: 81be aabd 30cd 0dbe 30e5 58be b762 363e
00000340: d5b1 653e 2ac6 8e3d 16ed 8dbd 43f9 7ebe
00000350: 6ba7 04bf 73f4 a73e af60 ee3c 541c 843e
00000360: ef17 353e d614 813d 602c 9b3d bcf8 18be
00000370: 3ce6 07be b6c5 86be fe42 eb3d cb69 42bd
00000380: b3bc 25bd 34c9 5bbe f277 233c 23e1 56be
00000390: 5af2 11be 1ccd 9c3d 2c78 39be c4c7 223e
000003a0: 43d8 003d 93d6 7cbe 4165 27bc a557 dfbd
000003b0: 8a73 07bd 9ba4 3fbe ae2c 853d 47e2 6cbe
000003c0: 272a cb3d 1a83 153e 2f91 103e df46 60be
000003d0: dbaa 3d3e d568 79be db30 d53d bf8e 273e
000003e0: 8e5c 0fbe 64af b0bd a3c9 a93d 1f0a 54be
000003f0: 8d9c e63d 1e7e b3be 8511 183e c844 153e

a2c_network.actor_mlp.0.bias f4 [128]
-0.17250882 -0.18599261 -0.051125947 -0.16774163 0.026258845 -0.09129628 -0.10505291 -0.12581952
0.19034293 -0.054452363 -0.14147261 -0.113786295 0.28087074 0.17230219 -0.19407015 -0.025674911
-0.13222313 0.21209465 -0.24948372 -0.09320399 0.08299162 0.075423904 0.059903584 0.010916579
-0.1572813 -0.22886379 0.014275876 -0.2492518 -0.1678924 -0.053142697 -0.03070774 -0.049617343
-0.02340347 -0.14005621 -0.0323148 -0.053388767 -0.13847035 -0.13919252 -0.11498931 -0.07330872
0.045066107 -0.07463157 -0.24968189 0.20608145 -0.06774525 -0.2945985 -0.40583265 -0.27135095
-0.1956194 -0.11100953 0.20412797 -0.1791324 -0.020982172 -0.20282002 -0.13144416 0.030208826
-0.011847226 -0.0402224 0.14819056 -0.21882842 -0.17521128 0.10151631 -0.2221238 -0.07648419
-0.18887764 -0.024243042 0.17044441 -0.27419883 0.24082623 -0.049542915 -0.332094 -0.29549378
-0.12786707 -0.15929306 -0.0067095407 -0.34301507 -0.2259035 -0.12319074 -0.06524869 -0.0635399
0.054493327 -0.06373137 -0.09590928 0.080142274 0.13420716 -0.012269398 0.014577067 -0.18920477
0.060811985 -0.11711391 -0.2603529 -0.11449436 0.047761984 -0.29285562 0.028201899 0.1698326
-0.025447056 0.03535541 0.03221267 0.27791435 -0.059990875 -0.19115786 -0.14407934 0.237094
-0.21103668 -0.22240278 -0.34535098 -0.14441036 0.10090995 -0.06720733 -0.10451745 0.22581518
-0.0412692 -0.09568639 0.046228446 0.04251772 -0.09112891 0.052810233 -0.18730523 -0.084001034
-0.1802695 -0.28924572 -0.18775965 -0.08340179 -0.055405587 0.02036279 -0.034525752 -0.048165835
00000000: 27a6 30be d974 3ebe 7169 51bd 76c4 2bbe
00000010: ca1c d73c 8bf9 babd fb25 d7bd d5d6 00be
00000020: 42e9 423e 7109 5fbd 32de 10be ca08 e9bd
00000030: 4ace 8f3e fc6f 303e 53ba 46be 3154 d2bc
00000040: 8065 07be 572f 593e a978 7fbe bce1 bebd
00000050: 83f7 a93d d977 9a3d 765d 753d 73db 323c
00000060: 590e 21be 455b 6abe 5de5 693c dd3b 7fbe
00000070: fceb 2bbe 28ac 59bd cc8e fbbc 8e3b 4bbd
00000080: a2b8 bfbc e56a 0fbe 865c 04bd 2eae 5abd
00000090: 2ccb 0dbe 7c88 0ebe 847f ebbd e222 96bd
000000a0: 3d97 383d 70d8 98bd 9cac 7fbe 0407 533e
000000b0: 06be 8abd 9dd5 96be 4cc9 cfbe 83ee 8abe
000000c0: 7450 48be f758 e3bd ec06 513e 7c6e 37be
000000d0: cee2 abbc 0db0 4fbe 4c99 06be 8078 f73c
000000e0: de1a 42bc 3ec0 24bd 44bf 173e 8f14 60be
000000f0: 966a 33be c8e7 cf3d 6c74 63be bea3 9cbd
00000100: 2469 41be 5899 c6bc fb88 2e3e ca63 8cbe
00000110: 279b 763e 83ed 4abd 3a08 aabe f64a 97be
00000120: 96ef 02be b81d 23be b5db dbbb ac9f afbe
00000130: 3f53 67be 6d4b fcbd 1ba1 85bd 3521 82bd
00000140: 6534 5f3d 9885 82bd 166c c4bd a221 a43d
00000150: 9a6d 093e 9605 49bc a7d4 6e3c e5be 41be
00000160: fd15 793d 6bd9 efbd fa4c 85be 057c eabd
00000170: 12a2 433d 2cf1 95be ab07 e73c 99e8 2d3e
00000180: 5876 d0bc d6d0 103d 6ff1 033d ca4a 8e3e
00000190: feb8 75bd e3be 43be 8989 13be c5c8 723e
000001a0: 001a 58be 8ebd 63be d8d1 b0be 4fe0 13be
000001b0: e0a9 ce3d ffa3 89bd 3f0d d6bd 183c 673e
000001c0: e509 29bd 3af7 c3bd 0a5a 3d3d 1027 2e3d
000001d0: cba1 babd 8b4f 583d f1cc 3fbe bc08 acbd
000001e0: 9198 38be 0418 94be 1144 40be 8fce aabd
000001f0: f8f0 62bd decf a63c e06a 0dbd 8a49 45bd

a2c_network.actor_mlp.2.weight f4 [64, 128]
-0.035995007 0.086457044 -0.04711102 -0.10102596 -0.037322342 -0.035315108 0.08023105 0.025843196
0.068573594 -0.05963554 -0.057908293 0.022432992 0.084823556 0.037778474 -0.08523908 -0.074130185
0.10041355 -0.0787454 0.15575579 -0.18061869 0.059280824 -0.24397938 0.024134014 0.21961144
0.007579095 0.0016428721 0.071723506 0.0014418979 0.057762213 -0.13215399 -0.024870718 0.25108323
0.19184153 0.1473171 -0.113863885 0.07904828 0.062378693 0.2620561 0.13627143 0.08148001
-0.09298605 0.19923398 0.04662292 0.08871727 0.21092993 0.047960293 0.17163989 0.07186241
0.14736542 0.046109453 0.1123695 -0.14358968 -0.009275537 0.009216707 -0.07566908 0.05482209
0.09813701 -0.045036253 0.048561934 -0.026447413 -0.04297821 0.0999391 -0.103275925 0.18405667
0.030994924 0.05695181 0.17768289 0.21108651 0.12153307 -0.03279027 0.015396267 0.13091415
-0.022828069 0.05842162 0.06884785 0.056281634 0.062393837 -0.12752238 0.22868788 -0.014757334
0.03109035 0.0010576735 -0.085732326 0.004831636 0.075706415 -0.03322017 -0.032744564 0.024293257
0.020361729 0.052055657 -0.03500448 0.18131244 0.11419494 0.13323537 0.047646593 -0.033634983
0.018115789 -0.07011563 -0.1879386 0.073808774 -0.064499326 -0.0055519687 0.16976818 -0.098753266
-0.0066779796 -0.108892284 -0.034922 0.10855282 -0.09175509 -0.00805996 0.116531484 0.12375756
0.057480287 -0.025599971 0.14207807 -0.077171266 0.069023706 0.23418145 0.06583487 0.064058624
0.056267805 0.116642244 0.030694818 0.10852115 0.09329055 -0.18422496 0.15164275 -0.12270026
-0.023644796 0.055321563 -0.014460794 0.15387759 0.15724714 -0.0129339155 0.021822188 -0.025809797
-0.1293047 0.0016662417 0.14421579 -0.028997958 -0.16783838 0.02343773 0.15624471 0.029961634
0.060570534 -0.031136476 0.13293715 0.08595025 0.046970077 0.056495216 -0.12576915 -0.23751073
0.2329459 0.06369794 -0.043291856 0.18633719 -0.025512753 0.15110877 -0.17124937 -0.076451056
0.088000625 -0.053554263 -0.04933373 -0.10219947 0.010380337 -0.021915218 0.1500063 0.030420067
0.055732403 -0.097359516 0.05131061 -0.11959291 -0.12737933 0.12546666 0.074044414 0.17151363
-0.04472602 0.12222723 0.036798507 -0.015084823 0.15614048 0.053228457 0.11944724 0.05999867
-0.2127565 0.0007285843 0.09689755 0.10127593 0.06911758 -0.18940581 0.045314465 0.050582614
0.18597437 -0.109338455 -0.22693264 0.053170387 -0.20054077 -0.13418324 0.2127324 0.045878693
0.029090619 0.07234175 0.16006891 0.06192161 0.020228678 -0.031598773 0.0118276235 0.036310982
0.002169922 0.0324828 -0.059243523 -0.1647824 -0.105428495 0.082040496 -0.0013865356 -0.04811099
-0.099635825 0.04551376 0.13191865 0.02671082 -0.11466429 0.17640598 -0.16725978 -0.16874982
-0.03873995 -0.10800475 0.06012675 -0.19932817 0.1020396 -0.0718611 0.13556485 -0.14426202
0.020614326 0.035391442 0.115584165 0.19466569 -0.050396953 -0.05413694 -0.049386803 0.00043300993
0.06700486 0.16634168 -0.02854794 -0.06555778 0.064784326 -0.048514 0.042594116 -0.007992135
-0.032849994 -0.11542465 0.30898505 -0.036169745 0.07707206 -0.059673663 -0.07870977 0.18328913
00000000: 806f 13bd 6410 b13d 7cf7 40bd b3e6 cebd
00000010: 50df 18bd 93a6 10bd 2d50 a43d 1cb5 d33c
00000020: 5070 8c3d 6544 74bd 3f31 6dbd 65c5 b73c
00000030: f9b7 ad3d 9abd 1a3d d491 aebd 91d1 97bd
00000040: 9fa5 cd3d 4545 a1bd 727e 1f3e 1bf4 38be
00000050: 73d0 723d bbd5 79be b2b4 c53c d2e1 603e
00000060: 0f5a f83b a455 d73a c6e3 923d 11fe bc3a
00000070: 1298 6c3d 6053 07be adbd cbbc fb8d 803e
00000080: 1b72 443e 4bda 163e 7831 e9bd 11e4 a13d
00000090: cd80 7f3d 382c 863e bd8a 0b3e fede a63d
000000a0: 786f bebd fe03 4c3e adf7 3e3d 66b1 b53d
000000b0: 04fe 573e 0372 443d 5ec2 2f3e 992c 933d
000000c0: f6e6 163e 44dd 3c3d fb21 e63d 2c09 13be
000000d0: 6cf8 17bc ac01 173c 64f8 9abd 218d 603d
000000e0: 0ffc c83d ef77 38bd e1e8 463d 3fa8 d8bc
000000f0: eb09 30bd dfac cc3d 5482 d3bd 5a79 3c3e
00000100: 11e9 fd3c 4d46 693d 81f2 353e 1027 583e
00000110: 55e6 f83d 174f 06bd a040 7c3c 5c0e 063e
00000120: ee01 bbbc 824b 6f3d 1a00 8d3d 9287 663d
00000130: ae90 7f3d 3a95 02be 282d 6a3e bfc8 71bc
00000140: 31b1 fe3c a2a1 8a3a 6e94 afbd b352 9e3b
00000150: f70b 9b3d df11 08bd 2a1f 06bd a702 c73c
00000160: a4cd a63c 5038 553d dc60 0fbd f8a9 393e
00000170: 09df e93d da6e 083e 1329 433d d6c4 09bd
00000180: 9067 943c c998 8fbd fa72 40be 0e29 973d
00000190: 3918 84bd 4aed b5bb b6d7 2d3e 273f cabd
000001a0: f4d2 dabb eb02 dfbd 5f0a 0fbd f150 de3d
000001b0: 18ea bbbd ec0d 04bc 0fa8 ee3d 9b74 fd3d
000001c0: 7370 6b3d 08b7 d1bc ea7c 113e f80b 9ebd
000001d0: 4d5c 8d3d 43cd 6f3e 6fd4 863d 2b31 833d
000001e0: 1279 663d 21e2 ee3d b373 fb3c 5640 de3d
000001f0: 1e0f bf3d 78a5 3cbe 3d48 1b3e 464a fbbd
00000200: bbb2 c1bc dd98 623d f7ec 6cbc 1692 1d3e
00000210: 6505 213e c6e8 53bc 72c4 b23c 116f d3bc
00000220: 7468 04be cb65 da3a 4ead 133e 208d edbc
00000230: d3dd 2bbe 7b00 c03c 9dfe 1f3e 1a72 f53c
00000240: cf18 783d ec11 ffbc ad20 083e af06 b03d
00000250: b263 403d 8767 673d a1c9 00be 0336 73be
00000260: 5f89 6e3e 1174 823d cd52 31bd 2dcf 3e3e
00000270: 1f00 d1bc 42bc 1a3e ff5b 2fbe 5f92 9cbd
00000280: ac39 b43d b75b 5bbd 2a12 4abd f54d d1bd
00000290: 4a12 2a3c 8b87 b3bc 409b 193e 8133 f93c
000002a0: a947 643d 6d64 c7bd 132b 523d 21ed f4bd
000002b0: ba6f 02be 557a 003e 99a4 973d 45a1 2f3e
000002c0: a232 37bd 4552 fa3d 08ba 163d 5526 77bc
000002d0: 4ae3 1f3e 1506 5a3d c1a0 f43d 2ac1 753d
000002e0: d7dc 59be 77fe 3e3a 3972 c63d c169 cf3d
000002f0: 858d 8d3d 99f3 41be a99b 393d b72f 4f3d
00000300: 1170 3e3e d7ec dfbd 0861 68be 31c9 593d
00000310: 8f5a 4dbe 5567 09be 86d6 593e 4ceb 3b3d
00000320: 734f ee3c e927 943d 1be9 233e 84a1 7d3d
00000330: 9db6 a53c b76d 01bd a6c8 413c d3ba 143d
00000340: 4035 0e3b af0c 053d 56a9 72bd b8bc 28be
00000350: e5ea d7bd d904 a83d 6abc b5ba 0810 45bd
00000360: de0d ccbd a36c 3a3d af15 073e a6d0 da3c
00000370: 1cd5 eabd c5a3 343e 2646 2bbe c1cc 2cbe
00000380: c8ad 1ebd 9831 ddbd 7847 763d af1c 4cbe
00000390: 23fa d03d ea2b 93bd 83d1 0a3e 6cb9 13be
000003a0: 60df a83c 9ef6 103d 64b7 ec3d 7156 473e
000003b0: 096d 4ebd b2be 5dbd d149 4abd 9c05 e339
000003c0: d839 893d 7955 2a3e 5fdd e9bc 2843 86bd
000003d0: a5ad 843d 9eb6 46bd 2b77 2e3d 72f1 02bc
000003e0: b78d 06bd c263 ecbd 4a33 9e3e ba26 14bd
000003f0: f5d7 9d3d 5f6c 74bd 9732 a1bd 25b0 3b3e

a2c_network.actor_mlp.2.bias f4 [64]
-0.03446171 -0.34839696 0.04805134 0.17405722 0.080326445 -0.0638096 -0.15688667 0.14490518
-0.17993888 0.1267772 0.126495 -0.014921912 -0.12107728 -0.3377227 0.082077436 -0.14443843
0.039038274 -0.15284167 0.14531992 -0.024341537 -0.07866596 0.043525577 0.20307872 0.00022713785
-0.27037558 -0.29368111 -0.03981301 -0.0787964 -0.061534733 0.034610394 0.038407717 -0.11481952
-0.31059003 -0.21578488 -0.12745105 -0.059974328 0.112264015 0.14740495 0.12066941 -0.28449684
-0.0843617 0.079678066 -0.20491183 0.029333718 -0.29560027 -0.01405627 0.13292031 0.085534714
0.049482785 -0.28254312 0.059258737 0.035573795 -0.17770201 0.116534755 -0.09340748 0.049472596
0.017533159 -0.082606144 0.12466475 0.21676748 0.027354918 0.12641053 0.086031966 -0.049395625
00000000: b927 0dbd 1661 b2be 7bd1 443d 0e3c 323e
00000010: 3182 a43d 9cae 82bd e6a6 20be 0662 143e
00000020: e641 38be e2d1 013e e887 013e 097b 74bc
00000030: 5df7 f7bd fde9 acbe 3718 a83d abe7 13be
00000040: 99e6 1f3d 8782 1cbe bfce 143e e767 c7bc
00000050: 9e1b a1bd e047 323d def3 4f3e da2b 6e39
00000060: ab6e 8abe 5f5d 96be f712 23bd 0260 a1bd
00000070: d80b 7cbd a1c3 0d3d 6951 1d3d 7f26 ebbd
00000080: a805 9fbe b6f6 5cbe 8782 02be a4a7 75bd
00000090: adea e53d 53f1 163e 8621 f73d 92a9 91be
000000a0: d4c5 acbd 412e a33d 68d4 51be 444d f03c
000000b0: eb58 97be 454c 66bc 431c 083e d32c af3d
000000c0: 76ae 4a3d 7ea9 90be 4ab9 723d d4b5 113d
000000d0: 84f7 35be c6a9 ee3d 6c4c bfbd c7a3 4a3d
000000e0: b3a1 8f3c 692d a9bd 3c50 ff3d 4bf8 5d3e
000000f0: 6c17 e03c c371 013e 8731 b03d 1153 4abd

a2c_network.actor_mlp.4.weight f4 [32, 64]
0.2218115 -0.09213418 -0.086056694 0.018989595 0.21123081 0.050612643 -0.06879179 0.035684552
-0.07551683 -0.083173536 -0.09392907 -0.015828552 0.03987082 -0.13029918 -0.030400576 -0.25515965
-0.07084242 -0.116513655 -0.09955578 -0.0074293017 -0.04435407 -0.055476736 0.14565746 -0.052229125
-0.060733814 -0.0968546 -0.03279863 0.07546423 0.18713318 -0.17790788 -0.07717129 0.007392305
0.007810471 0.04792508 -0.031070808 -0.093264766 0.051424593 -0.02161993 0.120776266 -0.14390045
-0.1401313 0.0710336 0.12705193 0.17444171 -0.20070253 -0.018293092 -0.056457818 0.15658821
0.013745038 -0.0474844 0.02274537 -0.03150331 -0.20374723 -0.18599992 -0.030728182 -0.18221878
-0.101820156 -0.13318384 0.091595635 0.12425785 -0.05151981 -0.048443433 0.33668515 -0.14678022
0.14476486 -0.07469696 -0.10782101 -0.08156472 0.046807867 -0.05207283 -0.052898113 0.17078394
-0.15065093 0.021618458 0.15829097 -0.04363579 -0.009367071 0.039397724 -0.10733362 -0.15547834
-0.0139026325 -0.2051677 0.09469562 0.08893018 -0.1775656 0.021119729 0.03629051 0.15323615
-0.18787715 -0.06469174 0.1419504 0.15176219 0.09352036 0.104222566 -0.04151716 0.08688112
-0.05723627 -0.10952367 -0.016957903 0.10446373 0.022450391 0.024951054 -0.10793662 0.024375277
-0.12218536 -0.0213108 0.012536525 0.04986446 0.11014032 0.08655575 -0.100719795 -0.05000595
0.08295896 0.0012771185 -0.089177065 -0.023906982 -0.21953519 -0.03745136 -0.096338496 0.13005175
-0.031054059 -0.06461962 0.034985095 -0.030791698 0.19552802 0.013615968 0.011971921 -0.05255904
0.1735463 -0.17866099 0.13432619 0.10166232 -0.12936309 -0.07303713 -0.010534808 -0.042386178
-0.04632342 0.019198518 -0.008523384 -0.066441484 -0.08242058 -0.06899969 0.115704924 0.080783695
0.08741811 -0.10998855 -0.0447483 -0.20343202 0.13369615 0.124212444 -0.01521475 0.1413413
0.03357884 0.052751537 -0.07310591 0.16887382 0.028290832 0.04301718 -0.0705822 0.19739781
-0.02202764 0.08834586 0.050865497 -0.03853535 0.13647504 -0.013599179 -0.11688479 -0.075102545
0.026892655 0.10927382 0.10227448 0.100851074 -0.13432284 0.12349543 0.16766305 0.02161053
0.12784676 -0.15584333 -0.050071765 0.011771831 -0.15548716 -0.14367801 -0.08595846 0.06741008
0.12498901 0.03613105 -0.13223092 -0.05732868 0.094086654 -0.089944966 0.04184528 0.04688142
-0.13940044 0.04416543 -0.11235655 -0.2532705 -0.08728424 -0.16110422 0.045662764 0.02937036
-0.12525871 0.08639552 -0.08537703 -0.030938918 -0.04749484 -0.075694226 0.21653782 0.05838049
0.042856537 0.06744561 0.077602476 -0.07903281 -0.10602409 0.008287621 0.07712347 0.046697047
0.04002526 0.025943909 0.0062695085 0.08776388 -0.02409376 0.23220766 -0.07181811 0.05414749
-0.03931203 0.07680852 -0.178039 -0.062047385 0.08684772 -0.17008355 -0.18243593 -0.13211465
-0.12127186 0.0700088 0.120736 0.27617687 -0.08600814 -0.0017854244 0.075390905 0.17705782
0.1186843 -0.14108045 -0.021516992 -0.13251036 -0.03406733 0.062664025 -0.21829715 -0.071389526
0.00352121 0.0723237 -0.08164682 0.0014701763 0.29686576 -0.10260788 0.12358985 0.090347916
00000000: 8e22 633e d8b0 bcbd 7e3e b0bd 1190 9b3c
00000010: e44c 583e 344f 4f3d b6e2 8cbd f729 123d
00000020: 91a8 9abd e356 aabd e25d c0bd e1aa 81bc
00000030: 964f 233d 266d 05be a10a f9bc 49a4 82be
00000040: d515 91bd b69e eebd e7e3 cbbd 8071 f3bb
00000050: 9dac 35bd 933b 63bd 3b27 153e 35ee 55bd
00000060: 05c4 78bd b45b c6bd db57 06bd fd8c 9a3d
00000070: d79f 3f3e 7c2d 36be fb0b 9ebd 263b f23b
00000080: fbee ff3b 174d 443d 3588 febc 9901 bfbd
00000090: 98a2 523d 481c b1bc 8c59 f73d a45a 13be
000000a0: 947e 0fbe 107a 913d e719 023e d9a0 323e
000000b0: f784 4dbe 65db 95bc 5040 67bd a958 203e
000000c0: de32 613c 017f 42bd 8054 ba3c 9d09 01bd
000000d0: 1da3 50be c376 3ebe abb9 fbbc 8f97 3abe
000000e0: 1687 d0bd 5861 08be 7e96 bb3d e67a fe3d
000000f0: 7006 53bd 9f6c 46bd ff61 ac3e 8e4d 16be
00000100: 3d3d 143e b8fa 98bd 43d1 dcbd 670b a7bd
00000110: 9bb9 3f3d 524a 55bd b1ab 58bd fce1 2e3e
00000120: 3d44 1abe 3119 b13c 0717 223e 71bb 32bd
00000130: 5878 19bc 825f 213d bbd1 dbbd b735 1fbe
00000140: dec7 63bc 7b17 52be c7ef c13d 0721 b63d
00000150: c2d3 35be 4803 ad3c 5ca5 143d f0e9 1c3e
00000160: de62 40be 1a7d 84bd 725b 113e 8c67 1b3e
00000170: 9a87 bf3d a472 d53d e60d 2abd bbee b13d
00000180: 9470 6abd f24d e0bd 4deb 8abc 14f1 d53d
00000190: e2e9 b73c 2766 cc3c e00d ddbd a9ae c73c
000001a0: 513c fabd fd93 aebc ff65 4d3c ad3e 4c3d
000001b0: 4091 e13d 2444 b13d 2e46 cebd 0ad3 4cbd
000001c0: 63e6 a93d fc64 a73a 77a2 b6bd 93d8 c3bc
000001d0: d5cd 60be 9966 19bd 1e4d c5bd 492c 053e
000001e0: 1565 febc 4b57 84bd 884c 0f3d df3e fcbc
000001f0: 7f38 483e 8215 5f3c e025 443c 2648 57bd
00000200: 1fb6 313e e8f2 36be ce8c 093e 5634 d03d
00000210: c277 04be 7e94 95bd 309a 2cbc 219d 2dbd
00000220: a0bd 3dbd 3646 9d3c aaa5 0bbc 7912 88bd
00000230: 1fcc a8bd b64f 8dbd b4f6 ec3d ec71 a53d
00000240: 4408 b33d ad41 e1bd fe49 37bd 7c50 50be
00000250: a5e7 083e 1863 fe3d 4947 79bc c6bb 103e
00000260: f789 093d ff11 583d 8db8 95bd 42ed 2c3e
00000270: 2dc2 e73c c832 303d 678d 90bd a722 4a3e
00000280: 4f73 b4bc adee b43d 5758 503d 3ed7 1dbd
00000290: 1dc0 0b3e 17cf 5ebc 4b61 efbd 5dcf 99bd
000002a0: fc4d dc3c f4ca df3d 4875 d13d 028b ce3d
000002b0: ed8b 09be 2ceb fc3d ddaf 2b3e 9108 b13c
000002c0: 43ea 023e 6595 1fbe 0d18 4dbd a3de 403c
000002d0: 0738 1fbe 5420 13be fd0a b0bd 4c0e 8a3d
000002e0: 3dfa ff3d 27fe 133d 8b67 07be 7ad1 6abd
000002f0: 81b0 c03d 1135 b8bd f565 2b3d bb06 403d
00000300: fdbe 0ebe cfe6 343d 311b e6bd acac 81be
00000310: 14c2 b2bd 81f8 24be e108 3b3d 1c9a f03c
00000320: d243 00be 22f0 b03d 27da aebd 9d73 fdbc
00000330: f389 42bd 9305 9bbd 17bc 5d3e 6120 6f3d
00000340: 568a 2f3d ed20 8a3d 0cee 9e3d f4db a1bd
00000350: 2823 d9bd cdc8 073c e9f2 9d3d 6745 3f3d
00000360: 87f1 233d 5288 d43c 7370 cd3b 8dbd b33d
00000370: 4760 c5bc d8c7 6d3e 6015 93bd c2c9 5d3d
00000380: a705 21bd c94d 9d3d db4f 36be 6625 7ebd
00000390: 38dd b13d 622a 2ebe 7cd0 3abe 1049 07be
000003a0: 625d f8bd c660 8f3d 7044 f73d 0e67 8d3e
000003b0: 0925 b0bd e704 eaba 8c66 9a3d a54e 353e
000003c0: c110 f33d 6577 10be 6744 b0bc ccb0 07be
000003d0: 2f8a 0bbd ff55 803d 4a89 5fbe ac34 92bd
000003e0: 1ac4 663b 731e 943d 7336 a7bd eeb2 c03a
000003f0: cafe 973e 1524 d2bd ad1c fd3d 5408 b93d

a2c_network.actor_mlp.4.bias f4 [32]
-0.10200337 0.05481783 0.074428454 -0.030859016 -0.07999981 -0.30940497 -0.077783495 0.07014145
0.003802919 -0.011662694 0.013428679 -0.089338094 -0.07103688 0.027481744 -0.042032104 -0.016132312
0.032001715 -0.08447543 -0.025125222 -0.022766182 -0.06695197 0.0671575 -0.065120496 -0.019981125
-0.029563678 0.052715637 -0.07603672 -0.008177845 -0.041256603 0.06817635 -0.037807014 0.023736272
00000000: 25e7 d0bd a988 603d f26d 983d 0ccc fcbc
00000010: f1d6 a3bd 546a 9ebe f44c 9fbd 52a6 8f3d
00000020: 653a 793b e214 3fbc f603 5c3c e4f6 b6bd
00000030: c97b 91bd 6521 e13c db29 2cbd e927 84bc
00000040: 3b14 033d 7401 adbd 69d3 cdbc 2580 babc
00000050: 1d1e 89bd df89 893d e55d 85bd 75af a3bc
00000060: 872f f2bc 5aec 573d 24b9 9bbd 5efc 05bc
00000070: affc 28bd 0ba0 8b3d 87db 1abd 9272 c23c

a2c_network.value.weight f4 [1, 32]
0.07049832 0.14931735 -0.025641406 -0.042770498 -0.11656751 0.32717675 0.021438986 0.016880304
-0.043532394 0.041249167 0.08498657 0.029019281 0.093339086 0.028410954 -0.19661905 0.053725578
0.09712978 0.18461777 -0.12748279 -0.14446226 -0.0026644873 0.17252284 -0.09751358 -0.14309563
-0.033279974 0.2302786 0.037832133 -0.06724591 0.084403954 0.28444773 -0.22500163 0.01016774
00000000: 6c61 903d a6e6 183e ed0d d2bc 1e30 2fbd
00000010: f2ba eebd b683 a73e d0a0 af3c 9048 8a3c
00000020: 064f 32bd e3f4 283d 700d ae3d d8b9 ed3c
00000030: 9028 bf3d 17be e83c 8156 49be 5a0f 5c3d
00000040: faeb c63d 710c 3d3e d98a 02be eaed 13be
00000050: ae9e 2ebb d4a9 303e 33b5 c7bd a987 12be
00000060: 9550 08bd 27ce 6b3e def5 1a3d 39b8 89bd
00000070: fbdb ac3d 22a3 913e d466 66be 9896 263c

a2c_network.mu.weight f4 [7, 32]
0.03298802 -0.11393982 -0.08490714 -0.11809296 0.06567125 -0.17521645 -0.06431787 0.110451885
0.06886493 0.16775708 -0.12529509 0.10596395 0.19851138 -0.014310254 -0.05800705 -0.1302715
-0.08818994 -0.26953998 -0.16479652 -0.116966434 0.2924885 -0.22920962 -0.05809738 0.08030859
-0.16188876 0.24403334 -0.23712115 -0.057464175 -0.17182572 0.06690597 -0.048378583 -0.120897144
0.113446966 -0.043556463 -0.10935089 -0.019304061 0.10863022 0.17546888 -0.101131566 -0.10190964
-0.07687376 0.11586764 -0.089418136 0.16929662 0.036444824 0.17857131 0.1317678 0.163164
-0.123698935 0.06886659 -0.10681455 0.19611926 -0.088443086 -0.0361445 0.23001957 -0.08745768
-0.026230408 -0.12532674 0.09877034 0.0005667208 -0.0946194 0.066483766 0.065029226 -0.048534915
0.07747526 -0.14699908 -0.26069877 -0.11792187 0.058663137 -0.0664897 0.040160213 -0.14235839
0.13964322 -0.21760753 -0.16085392 0.43754604 0.018831048 0.021807846 0.1518527 -0.11904899
0.04034795 -0.030374551 -0.122210614 -0.16283257 0.0859256 -0.088216595 -0.10936721 0.2097176
0.16328382 -0.10507734 0.049861185 0.2404731 0.27421382 0.13695942 0.077228904 0.10186257
0.16595536 0.07313837 0.022395557 0.28048792 -0.10141987 0.16151263 0.23985992 0.07283111
-0.20314889 0.22145937 0.051968355 0.08612113 0.037659176 0.27306387 0.1722791 -0.13486357
-0.15879323 0.075003855 0.009027477 -0.12784481 -0.034261636 -0.13174272 -0.04079549 -0.13947394
0.25330433 -0.16560559 0.0358884 0.0854024 0.28679845 0.0961375 0.20138153 -0.13277736
-0.40497443 0.07492739 -0.07828435 0.13554905 0.12941161 0.10827664 -0.13310754 0.09125956
-0.11212579 -0.19206844 0.05155026 0.0107534975 -0.15531662 0.085209735 -0.22197856 -0.029191164
-0.15197569 0.04127393 0.18272191 -0.03671389 0.019070942 0.1089079 0.017358406 0.19731867
0.11317047 -0.10876689 -0.16084132 -0.2902296 -0.113853335 0.049125586 0.1468534 0.23934476
0.19230996 0.041084617 0.13491486 0.023013502 0.14781551 -0.093845725 0.22251615 0.13116227
0.05187519 -0.077500165 0.10472098 -0.03971767 -0.2179541 -0.13031906 -0.019660192 0.07069454
-0.09656109 0.18252149 -0.07037302 0.18334313 -0.017944518 -0.01510093 0.09334803 0.006382751
0.05686669 -0.05041554 0.020058716 0.15975098 -0.051894978 0.057193402 0.15951464 0.056091767
-0.043899924 -0.10468607 0.03657655 -0.08178336 0.061908577 0.009302073 -0.1141027 0.18254529
0.010745091 0.060015123 0.13555793 -0.09405784 0.13918325 -0.105235025 0.11740502 0.026424633
-0.19641528 -0.15187888 0.15506914 0.11246566 -0.003684376 -0.06198032 -0.10018592 -0.050816763
-0.078533046 -0.13304086 0.05522693 0.2362813 0.017768823 0.10857497 0.1052126 -0.10899488
00000000: 721e 073d 4859 e9bd cbe3 adbd b9da f1bd
00000010: a67e 863d f16b 33be 16b9 83bd 9934 e23d
00000020: 0e09 8d3d 83c8 2b3e 5b4d 00be a103 d93d
00000030: 9146 4b3e 8e75 6abc cd98 6dbd e465 05be
00000040: ed9c b4bd 2501 8abe 6bc0 28be 198c efbd
00000050: 0dc1 953e edb5 6abe 85f7 6dbd d478 a43d
00000060: 2bc6 25be e0e3 793e e3cf 72be 8e5f 6bbd
00000070: 15f3 2fbe ff05 893d 9f28 46bd ec98 f7bd
00000080: e256 e83d 4368 32bd 5cf3 dfbd 8d23 9ebc
00000090: 8579 de3d 1dae 333e 111e cfbd 00b6 d0bd
000000a0: fd6f 9dbd 034c ed3d db20 b7bd 185c 2d3e
000000b0: 2b47 153d 66db 363e 23ee 063e 7714 273e
000000c0: de55 fdbd ed09 8d3d 96c1 dabd 7dd3 483e
000000d0: a621 b5bd 410c 14bd 408a 6b3e 031d b3bd
000000e0: 27e1 d6bc a755 00be 1b48 ca3d fd8f 143a
000000f0: d1c7 c1bd a428 883d 0b2e 853d 8ccc 46bd
00000100: 59ab 9e3d ed86 16be 4f7a 85be 0581 f1bd
00000110: c248 703d c02b 88bd 097f 243d 66c6 11be
00000120: a2fe 0e3e 82d4 5ebe e4b6 24be 0906 e03e
00000130: 9243 9a3c 5ea6 b23c 467f 1b3e f5cf f3bd
00000140: e443 253d 0dd4 f8bc 8f49 fabd 95bd 26be
00000150: c3f9 af3d e7aa b4bd eafb dfbd 36c0 563e
00000160: e033 273e ca32 d7bd 3e3b 4c3d 953e 763e
00000170: c165 8c3e 173f 0c3e 302a 9e3d 539d d03d
00000180: 34f0 293e 92c9 953d e376 b73c 1d9c 8f3e
00000190: 39b5 cfbd 9163 253e d79d 753e 7a28 953d
000001a0: 4306 50be 3fc6 623e c5dc 543d 4660 b03d
000001b0: 8240 1a3d 07cf 8b3e ef69 303e ad19 0abe
000001c0: b19a 22be 9f9b 993d fce7 133c c0e9 02be
000001d0: ee55 0cbd 90e7 06be 2c19 27bd 42d2 0ebe
000001e0: 1bb1 813e 8394 29be b7ff 123d 74e7 ae3d
000001f0: 3fd7 923e bde3 c43d f636 4e3e caf6 07be
00000200: cf58 cfbe 8873 993d 8c53 a0bd 5fcd 0a3e
00000210: 7a84 043e 25c0 dd3d 584d 08be 4be6 ba3d
00000220: 35a2 e5bd 97ad 44be 5e26 533d 702f 303c
00000230: 520b 1fbe 7182 ae3d 594e 63be 4f22 efbc
00000240: 849f 1bbe da0e 293d 741b 3b3e 4e61 16bd
00000250: aa3a 9c3c 1b0b df3d 3733 8e3c e80d 4a3e
00000260: ebc5 e73d 2dc1 debd 96b3 24be f998 94be
00000270: f02b e9bd e937 493d bd60 163e cb16 753e
00000280: e7ec 443e 5848 283d 1f27 0a3e d086 bc3c
00000290: f35c 173e 3032 c0bd 46db 633e 674f 063e
000002a0: 147b 543d 68b8 9ebd f477 d63d ffae 22bd
000002b0: 5c2f 5fbe 5c72 05be 690e a1bc 4dc8 903d
000002c0: d2c1 c5bd eae6 3a3e bb1f 90bd 4dbe 3b3e
000002d0: 6200 93bc e469 77bc 402d bf3d 6526 d13b
000002e0: 0ced 683d 8680 4ebd 2d52 a43c c395 233e
000002f0: d48f 54bd a143 6a3d ce57 233e 7bc0 653d
00000300: 68d0 33bd a665 d6bd 4bd1 153d 097e a7bd
00000310: d993 7d3d b967 183c adae e9bd 27ed 3a3e
00000320: 2e0c 303c 6bd2 753d b3cf 0a3e 66a1 c0bd
00000330: 0e86 0e3e 7685 d7bd 0b72 f03d 7978 d83c
00000340: 1621 49be 2386 1bbe 72ca 1e3e 6554 e63d
00000350: 9275 71bb 13df 7dbd 472e cdbd 3d25 50bd
00000360: efd5 a0bd dd3b 08be a235 623d baf3 713e
00000370: ec8f 913c 8e5c de3d b479 d73d b538 dfbd

a2c_network.mu.bias f4 [7]
-0.035302892 -0.091384694 -0.09156284 -0.0658122 0.08331807 0.02001713 0.066720076
00000000: c499 10bd e627 bbbd 4c85 bbbd 8cc8 86bd
00000010: aaa2 aa3d f7fa a33c 89a4 883d

exp_avg f4 [7]
0.0032228492 -0.0021405946 0.0008490454 0.0022934692 0.005875633 0.0052996636 0.0021717816
00000000: 7036 533b 3849 0cbb 7992 5e3a 074e 163b
00000010: 6288 c03b cda8 ad3b 7354 0e3b

exp_avg_sq f4 [7]
0.0003132144 0.00027987378 0.00031979964 0.0003139386 0.0002874813 0.0004036977 0.00023659677
00000000: ed36 a439 06bc 9239 c8aa a739 2098 a439
00000010: 16b9 9639 63a7 d339 f616 7839

exp_avg f4 [128, 18]
7.833022e-05 0.0010468597 0.0062887734 0.0015052622 -9.8170975e-05 -0.00082576537 0.0017911879 -0.001634396
-0.0014274889 0.0018656179 -0.002327905 -0.0009772746 0.001021788 0.001025296 -0.0014972886 -0.0012601591
-0.0014942874 0.0010153921 2.6829384e-05 0.0001886681 0.0009261323 0.0010932025 -0.0026389363 -0.0007247097
0.0027288739 -0.0029658633 0.00029597245 0.0017472758 -0.0038051028 -0.0014310058 0.0031756181 0.0025840104
-0.004047472 -1.080656e-05 -0.0036263103 0.0013208548 -0.0007284221 0.0014138651 -0.0023029696 -0.0007883929
0.0037089135 0.0004502003 0.00018483124 -0.00028057166 0.0013721087 -0.00055626634 7.25632e-05 0.004037299
0.0009308657 -0.0007916781 0.0017235094 -0.00021529345 0.0005680287 0.00035322507 0.0010931524 -0.0006796184
0.005328531 0.0020303696 -0.0033928996 -0.00068309525 0.0026862924 -0.0025940102 8.7030676e-05 0.00115934
-0.002580435 -0.003110239 0.0021541258 0.0033840004 -0.003503935 -0.0007197556 -0.0041589085 0.0014013328
-0.0005052795 0.00073146546 -0.00043225844 -0.0005687143 0.00049888546 0.0005838401 0.00066631945 -0.00058961404
0.00028845036 -0.00018279266 -0.00021593523 -0.00022913971 0.00061694806 0.00082619354 -0.0004414714 0.0001246409
-0.00086213043 0.0002798463 -0.0013556416 0.0027040867 -0.0017725821 -0.0012393566 0.0028542087 0.0009660744
0.0009539545 -0.0016266466 0.00083318324 -0.00049204176 -0.00050315424 0.0016236592 0.0005083392 0.00044536093
0.00012040649 9.062952e-05 -0.0015311841 0.0010274107 -0.00038464568 0.0022547585 0.00079030794 -0.00016775934
0.0017695155 0.0007538265 0.00093892164 -0.0013147235 -0.00044395888 0.00054175133 -0.0006195822 0.0009279163
3.625273e-05 6.680083e-05 -0.00031196434 -0.0006711966 -0.0013456229 0.0011698958 -0.00095335016 0.0021403965
-0.0014185992 -0.0005572174 0.0043846723 4.6936973e-05 -0.00034638878 -0.00034452986 5.402033e-05 0.00086972007
-0.0008055884 0.0044769235 0.00052373495 -0.0025001138 0.0020263894 -0.00056131644 0.00086791086 0.0008864878
-0.0019200242 -6.986672e-05 -0.0076835984 -0.003429295 0.003242041 0.00063240895 -0.0023567986 0.0031836093
0.0021437423 -0.0028833572 0.002911939 0.0045527914 -0.0021347033 -0.0034889337 0.0044236155 0.00073172216
0.004976451 -0.0011373294 0.00016648861 0.0006540917 0.0019952036 0.00042562938 -0.0005256817 -0.00012784376
0.0010613719 -0.0006065033 -0.0008069385 0.0008309161 -0.0003213311 -0.0008499503 1.4886368e-05 0.0010776061
-0.0014083568 -0.00035545573 -0.0010752092 0.00013524896 -0.0002894514 0.00095311285 0.00026705943 1.6337106e-05
-0.00029889654 -4.965632e-05 0.00096094835 -0.0012963542 0.00046677887 3.5284527e-05 -0.000911764 -0.0001425432
0.0009735675 0.000631237 -0.00137201 8.9455774e-05 -0.0022963572 0.0014672229 -0.00080447824 0.0003690068
0.0015891849 0.00069942087 0.00032439144 -0.0001187222 0.003026771 -0.0025132208 -4.5181594e-05 0.001862297
-0.0039238064 0.0012729331 0.0030648664 0.00059253327 -0.002188555 1.959974e-05 -0.0022635944 0.0014063908
0.00017962292 -0.0016136948 -0.003623661 -0.0013389575 -0.00045525603 0.0005331067 -0.0016320203 0.0029406368
8.787096e-05 -0.0013870223 0.0025829107 -0.00082453736 -0.001387571 -0.0007863111 0.0012074048 0.0015624467
0.002177715 -0.0005317912 -0.0010838617 0.0001911794 -0.0025295648 -0.0016694291 0.00038466832 0.000107223255
-0.00047265255 0.00041038246 0.0002054323 -0.00079153583 0.00064556143 0.00044837836 -0.00016615646 -9.769324e-06
0.00034366714 0.0007520057 0.0005354844 0.00018020056 -0.0009472107 0.00064808293 -0.0005770743 -0.0006823082
00000000: 3745 a438 c836 893a 0e12 ce3b 384c c53a
00000010: 24e1 cdb8 2d78 58ba 4bc6 ea3a 3b39 d6ba
00000020: 941a bbba c087 f43a c48f 18bb e517 80ba
00000030: 84ed 853a 3a63 863a ab40 c4ba ec2b a5ba
00000040: f7db c3ba e816 853a aa0f e137 35d5 4539
00000050: b0c7 723a ca49 8f3a 01f2 2cbb 72fa 3dba
00000060: e8d6 323b ee5e 42bb c02c 9b39 d904 e53a
00000070: 085f 79bb 9690 bbba 081e 503b 8058 293b
00000080: a8a0 84bb d24d 35b7 64a7 6dbb 8820 ad3a
00000090: 94f3 3eba 7151 b93a 6bed 16bb 27ac 4eba
000000a0: 3e11 733b dd08 ec39 42cf 4139 b119 93b9
000000b0: 54d8 b33a 67d2 11ba 122d 9838 524b 843b
000000c0: 5705 743a 9e88 4fba 61e7 e13a 65c0 61b9
000000d0: c3e7 143a 1131 b939 1c48 8f3a 6b28 32ba
000000e0: f59a ae3b f30f 053b 695b 5ebb bf11 33ba
000000f0: 820c 303b 4500 2abb 3d84 b638 fff4 973a
00000100: 841c 29bb 27d5 4bbb 3c2c 0d3b 1bc6 5d3b
00000110: 46a2 65bb fbad 3cba 7447 88bb edac b73a
00000120: bc74 04ba d1bf 3f3a bfa0 e2b9 c515 15ba
00000130: a3c7 023a d90c 193a f1ab 2e3a 5490 1aba
00000140: 273b 9739 08ac 3fb9 ac6c 62b9 3945 70b9
00000150: afba 213a e994 583a 4a75 e7b9 09b2 0239
00000160: 9800 62ba 56b8 9239 c9af b1ba 0c37 313b
00000170: fc55 e8ba e871 a2ba ad0d 3b3b 2840 7d3a
00000180: ce12 7a3a 3435 d5ba fb69 5a3a 5dfc 00ba
00000190: 1ce6 03ba f6d0 d43a 1142 053a 557f e939
000001a0: be82 fc38 5a10 be38 03b2 c8ba 2faa 863a
000001b0: 45aa c9b9 92c4 133b ab2c 4f3a 8ee8 2fb9
000001c0: 16ef e73a 719c 453a f721 763a cd52 acba
000001d0: 27c3 e8b9 5104 0e3a 756b 22ba 693f 733a
000001e0: 130e 1838 6c17 8c38 258f a3b9 3ef3 2fba
000001f0: 9d5f b0ba 3057 993a 3fea 79ba e545 0c3b
00000200: 4af0 b9ba 3a12 12ba 4cad 8f3b 31de 4438
00000210: 849b b5b9 04a2 b4b9 e393 6238 edfd 633a
00000220: 1f2e 53ba 28b3 923b 424b 093a f3d8 23bb
00000230: 2ccd 043b 4f25 13ba 8384 633a 3063 683a
00000240: 52a9 fbba 6985 92b8 b2c6 fbbb 06be 60bb
00000250: 6c78 543b 3fc8 253a 8574 1abb 1aa4 503b
00000260: 077e 0c3b b5f6 3cbb 3bd6 3e3b 952f 953b
00000270: 61e6 0bbb 98a6 64bb faf3 903b 0bd1 3f3a
00000280: 7f11 a33b 7112 95ba 7293 2e39 5a77 2b3a
00000290: f6c1 023b 0227 df39 e7cd 09ba cc0d 06b9
000002a0: bb1d 8b3a bffd 1eba ba88 53ba d6d1 593a
000002b0: 5578 a8b9 33cf 5eba 77c0 7937 763e 8d3a
000002c0: 9d98 b8ba 765c bab9 09ee 8cba 9ed1 0d39
000002d0: 82c1 97b9 52da 793a 1c04 8c39 ab0b 8937
000002e0: 37b5 9cb9 1146 50b8 27e8 7b3a 6eea a9ba
000002f0: 00ba f439 79fe 1338 7203 6fba a677 15b9
00000300: 0237 7f3a 9979 253a 04d5 b3ba 349a bb38
00000310: 7b7e 16bb d54f c03a 9fe3 52ba 4177 c139
00000320: 324c d03a 5759 373a 1513 aa39 7ffa f8b8
00000330: ca5c 463b d9b4 24bb 5e81 3db8 5118 f43a
00000340: 4693 80bb 8cd8 a63a eddb 483b 3c54 1b3a
00000350: dc6d 0fbb 1f6a a437 d058 14bb a556 b83a
00000360: 2959 3c39 9d82 d3ba f17a 6dbb f57f afba
00000370: 6eaf eeb9 2fc0 0b3a 84e9 d5ba b3b7 403b
00000380: 5d47 b838 bfcc b5ba 0d46 293b c425 58ba
00000390: 28df b5ba 7220 4eba c841 9e3a 03cb cc3a
000003a0: ffb7 0e3b e767 0bba 5d10 8eba 5477 4839
000003b0: 0ec7 25bb bfd0 daba 4fad c939 0cdd e038
000003c0: 5ace f7b9 9a28 d739 5069 5739 127f 4fba
000003d0: e53a 293a 5314 eb39 493a 2eb9 ede6 23b7
000003e0: 392e b439 4022 453a c05f 0c3a 38f4 3c39
000003f0: 3c4e 78ba 1ce4 293a cd46 17ba eedc 32ba

exp_avg_sq f4 [128, 18]
0.00016568016 7.2111936e-05 0.00021275682 0.00011326705 9.382332e-05 8.7783286e-05 8.919313e-05 6.755274e-05
5.1526837e-05 5.7213354e-05 4.7228004e-05 9.056497e-05 4.8335576e-05 4.5798195e-05 9.5414e-05 5.6851728e-05
0.0001114037 7.710255e-05 0.00022764104 0.00011093482 0.0002239066 0.00013811664 0.00022131413 0.00017753623
0.0001247349 0.0001427391 9.7713e-05 0.00010403528 0.00010989925 0.0002134145 0.00010557745 8.7904664e-05
0.00015478024 9.7213946e-05 9.481488e-05 0.000105876316 7.5524375e-05 2.99497e-05 8.451333e-05 4.2928223e-05
7.47023e-05 6.6068045e-05 6.4071515e-05 4.972224e-05 2.6648657e-05 3.2192664e-05 2.4214001e-05 6.9683774e-05
3.438225e-05 3.085594e-05 4.8640264e-05 2.6055073e-05 5.60383e-05 2.6483718e-05 8.559875e-05 4.8990514e-05
0.00014119114 5.472117e-05 6.2013816e-05 6.357425e-05 5.9572267e-05 4.9011498e-05 3.514292e-05 3.8637474e-05
3.33796e-05 6.624672e-05 3.7951577e-05 3.9302806e-05 6.8398105e-05 4.9857965e-05 6.7532426e-05 4.2389955e-05
1.6727865e-05 4.0972104e-06 2.021147e-05 1.0066827e-05 1.7291526e-05 1.3860457e-05 1.2586159e-05 1.3358191e-05
6.037483e-06 7.77566e-06 8.513013e-06 2.2520351e-05 1.1712576e-05 1.0762361e-05 1.2413532e-05 6.540239e-06
8.84473e-06 7.0010624e-06 0.00013689778 3.6784735e-05 0.00015436726 7.955005e-05 0.00013034772 0.000113537426
9.423529e-05 8.439501e-05 4.41876e-05 5.1279312e-05 4.7416812e-05 0.00012863624 5.8953807e-05 4.7864476e-05
6.307002e-05 4.4791672e-05 6.230988e-05 4.394816e-05 0.00010067244 2.0714384e-05 0.00011542501 5.9843118e-05
7.4372285e-05 6.716652e-05 6.025843e-05 5.921892e-05 2.9009874e-05 3.6310674e-05 2.5949279e-05 8.3170715e-05
2.9075392e-05 2.5908786e-05 3.5945133e-05 3.1906406e-05 6.070388e-05 2.931714e-05 0.00016036541 3.890809e-05
0.0001809871 9.166032e-05 0.00015392147 0.00016595746 0.00014575901 0.000119453485 5.9202066e-05 8.18677e-05
6.1596096e-05 0.00018430705 7.8392695e-05 7.7090765e-05 7.814569e-05 7.718774e-05 0.000118615 7.7395e-05
0.0002403214 6.2669074e-05 0.0003291494 0.00016218303 0.00016765879 0.00015285605 0.00015883958 0.00011502508
8.027956e-05 9.520216e-05 7.313976e-05 0.00019385245 9.44288e-05 9.3440045e-05 0.00022211293 0.00012528387
0.00019167867 0.000104889725 3.3817163e-05 1.2957136e-05 4.139468e-05 2.3418814e-05 1.6036422e-05 1.8858702e-05
1.3197114e-05 1.5904041e-05 1.3715802e-05 1.2574206e-05 9.936122e-06 2.0248375e-05 1.0675931e-05 1.0005331e-05
2.006001e-05 1.1433565e-05 1.8639335e-05 1.0849741e-05 6.3892614e-05 3.0159528e-05 5.9425798e-05 3.7217807e-05
5.2951094e-05 4.5312932e-05 3.4763914e-05 2.9492037e-05 2.5088779e-05 2.342411e-05 2.3965227e-05 3.0618972e-05
2.6169351e-05 1.8597075e-05 3.8474573e-05 2.344139e-05 3.3187385e-05 3.1470845e-05 0.00021937648 6.501612e-05
0.00021125824 0.00013406758 0.0002811148 0.00021211409 0.00016022289 0.00016760979 8.855096e-05 0.00011268223
0.000119313365 0.0002735009 0.000121425444 9.927491e-05 0.00015715722 9.143329e-05 0.00010524566 0.00012580691
0.00015008928 7.374173e-05 0.00022496776 9.453413e-05 8.590764e-05 9.3044495e-05 8.8378954e-05 6.951725e-05
5.6111836e-05 5.871094e-05 4.180621e-05 7.82753e-05 5.0550047e-05 4.8055073e-05 0.00011197023 7.570715e-05
0.0001283398 7.383039e-05 1.8059503e-05 9.551002e-06 2.8317032e-05 1.3330941e-05 9.432555e-06 1.39043295e-05
1.0513946e-05 9.915468e-06 6.704477e-06 8.1387425e-06 5.5965443e-06 1.1850878e-05 7.785117e-06 7.5610233e-06
1.414631e-05 8.388714e-06 1.5207701e-05 9.335664e-06 5.5211614e-05 1.6999973e-05 6.4643784e-05 3.0979827e-05
00000000: 6eba 2d39 cd3a 9738 7917 5f39 c989 ed38
00000010: 03c3 c438 4b18 b838 320d bb38 1aab 8d38
00000020: 851e 5838 5ff8 6f38 af16 4638 b3ed bd38
00000030: eebb 4a38 7017 4038 0019 c838 1474 6e38
00000040: 68a1 e938 1eb2 a138 edb2 6e39 aea5 e838
00000050: 78c8 6a39 67d3 1039 8f10 6839 0529 3a39
00000060: 45cb 0239 3cac 1539 44eb cc38 842d da38
00000070: b679 e638 05c8 5f39 7669 dd38 7559 b838
00000080: 814c 2239 57df cb38 5ad7 c638 ea09 de38
00000090: d762 9e38 7e3c fb37 c03c b138 d40d 3438
000000a0: 7ea9 9c38 038e 8a38 225e 8638 d98c 5038
000000b0: 8e8b df37 9c06 0738 2c1f cb37 3123 9238
000000c0: a935 1038 506b 0138 1603 4c38 d890 da37
000000d0: ab0a 6b38 5a29 de37 7b83 b338 2a7b 4d38
000000e0: b50c 1439 6984 6538 6a0d 8238 2a53 8538
000000f0: 3cdd 7938 b291 4d38 6c66 1338 ac0e 2238
00000100: 1301 0c38 f0ed 8a38 322e 1f38 11d9 2438
00000110: f470 8f38 951e 5138 32a0 8d38 decb 3138
00000120: d152 8c37 c57a 8936 cd8b a937 b1e4 2837
00000130: 450d 9137 368a 6837 2429 5337 fe1c 6037
00000140: 9695 ca36 3574 0237 1dd3 0e37 16ea bc37
00000150: 2281 4437 fd8f 3437 b743 5037 3a74 db36
00000160: d363 1437 abea ea36 388c 0f39 4f49 1a38
00000170: a5dd 2139 1cd4 a638 f3ad 0839 f11a ee38
00000180: 30a0 c538 3afd b038 1356 3938 be14 5738
00000190: 6ae1 4638 87e2 0639 2b45 7738 17c2 4838
000001a0: 7644 8438 b1de 3b38 5dac 8238 fa54 3838
000001b0: 1b20 d338 cdc3 ad37 5510 f238 0f00 7b38
000001c0: 51f8 9b38 c0db 8c38 ffbd 7c38 d561 7838
000001d0: 3b5a f337 4a4c 1838 a7ad d937 f06b ae38
000001e0: eee6 f337 b256 d937 cbc3 1638 3ed3 0538
000001f0: 4b9c 7e38 14ee f537 c327 2839 3e31 2338
00000200: 5bc7 3d39 c239 c038 fb65 2139 de04 2e39
00000210: e3d6 1839 1a83 fa38 bc4f 7838 63b0 ab38
00000220: 272d 8138 8c42 4139 c266 a438 caab a138
00000230: 26e2 a338 dadf a138 f1c0 f838 204f a238
00000240: c9fe 7b39 346d 8338 af91 ac39 ad0f 2a39
00000250: 90cd 2f39 fc47 2039 2d8e 2639 9f39 f138
00000260: c35b a838 45a7 c738 9c62 9938 df44 4b39
00000270: 1308 c638 3ef5 c338 fce6 6839 a25e 0339
00000280: 5afd 4839 3ef8 db38 e7d6 0d38 7a62 5937
00000290: 339f 2d38 8573 c437 f485 8637 c132 9e37
000002a0: 2c69 5d37 ab69 8537 ec1c 6637 cef5 5237
000002b0: 52b3 2637 0edb a937 c61c 3337 92dc 2737
000002c0: 8b46 a837 cad2 3f37 ab5b 9c37 4807 3637
000002d0: 16fe 8538 18ff fc37 f73f 7938 511a 1c38
000002e0: ce17 5e38 640e 3e38 78cf 1138 ab65 f737
000002f0: be75 d237 e57e c437 ef08 c937 df6c 0038
00000300: 4186 db37 ea00 9c37 c25f 2138 00a4 c437
00000310: af32 0b38 90ff 0338 6d08 6639 4359 8838
00000320: 3485 5d39 7e94 0c39 9762 9339 f16a 5e39
00000330: 8101 2839 69c0 2f39 6fb4 b938 d04f ec38
00000340: e037 fa38 ab64 8f39 caa5 fe38 d031 d038
00000350: 92ca 2439 e0bf bf38 55b7 dc38 09eb 0339
00000360: 4961 1d39 caa5 9a38 53e5 6b39 a040 c638
00000370: 5029 b438 e220 c338 1758 b938 cac9 9138
00000380: a059 6b38 6440 7638 1459 2f38 bb27 a438
00000390: b305 5438 be8e 4938 8fd1 ea38 f7c4 9e38
000003a0: f492 0639 64d5 9a38 7d7e 9737 3e3d 2037
000003b0: 5d8a ed37 f5a7 5f37 8440 1e37 a446 6937
000003c0: 0e65 3037 9c5a 2637 05f7 e036 a28b 0837
000003d0: f3c9 bb36 22d3 4637 d39c 0237 b2b4 fd36
000003e0: f055 6d37 41bd 0c37 9424 7f37 5fa0 1c37
000003f0: 0593 6738 2a9b 8e37 5e91 8738 56f0 0138

exp_avg f4 [128]
0.0015650088 0.005861326 -0.0022139354 0.0032305706 0.0003824943 -4.6028385e-05 8.427357e-05 -0.0015388911
-0.0049356064 0.001796928 0.001844652 0.0037531273 -0.0007085322 0.00028924926 0.0023185331 0.0015804064
0.00068967964 -0.0011784071 0.0008875423 -0.0017093172 -0.0013118073 -0.0030736015 -0.0011170552 0.0005632884
0.004006871 0.003487155 -0.00021233539 0.0025199095 0.004502765 -0.0009862629 -0.001257023 0.0037236984
0.001464137 0.0034380932 -0.0011014879 0.0027319249 0.0036718973 0.0030220896 0.0013831638 0.00067095686
-0.00019659734 0.0015696555 0.0027472796 -0.0013274257 0.0015045317 0.007127482 0.002137752 0.002883474
0.003414218 0.0020536082 -0.001839456 0.001374319 -0.0007711902 0.0048682466 0.003076726 0.00061833905
0.0011562495 -0.0019301575 0.0015464198 0.0028415301 0.0044706403 -0.0020435276 0.00361318 0.0021915145
0.00076311093 0.001851944 -0.001589366 0.005552886 -0.0012710778 0.00037314236 0.0014972775 0.0019562396
0.0053213597 0.004469179 0.0018137159 0.0016780493 0.0015885743 -2.767622e-05 0.0020470605 0.0005415285
0.0011202049 0.0024737425 0.00163904 -0.00083987217 -0.0014196314 -0.0015585725 0.0015218446 0.0043100948
-0.0027066276 0.0038477879 0.00063767243 0.00669992 0.0033599848 0.0022591143 -0.00055321737 -0.004517612
0.0044645024 -0.0054265 -0.002883712 -0.0019367677 -0.0008368644 -0.0005199457 0.0021539095 -0.0028346563
0.0014998589 0.00055484363 0.0035201113 0.0013950983 -0.0010565784 0.00046093913 0.0037542342 -0.00012441426
0.0018699077 -0.0010255891 -0.00018157094 0.0013570696 0.0011043274 0.00082194305 0.0027701068 8.229621e-06
-0.00017815486 0.0032617915 0.0015491019 0.0029751528 0.0026756742 -0.002121022 0.0018939375 0.0008837692
00000000: fb20 cd3a 5e10 c03b ac17 11bb fbb7 533b
00000010: 8489 c839 9a0e 41b8 07bc b038 9eb4 c9ba
00000020: deba a1bb e686 eb3a 40c8 f13a 07f7 753b
00000030: cbbc 39ba 61a6 9739 88f2 173b a425 cf3a
00000040: 9ecb 343a c874 9aba f5a9 683a 2b0b e0ba
00000050: f3f0 abba 7a6e 49bb 276a 92ba a5a9 133a
00000060: 124c 833b c188 643b 59a6 5eb9 1125 253b
00000070: ee8b 933b 7e45 81ba b1c2 a4ba 4b09 743b
00000080: 49e8 bf3a a251 613b cd5f 90ba 180a 333b
00000090: 37a4 703b 400e 463b 474b b53a 27e3 2f3a
000000a0: b225 4eb9 e6bc cd3a b40b 343b 04fd adba
000000b0: b533 c53a a78d e93b 8719 0c3b abf8 3c3b
000000c0: 13c1 5f3b d495 063b e719 f1ba 7e22 b43a
000000d0: b329 4aba d085 9f3b e6a2 493b 0818 223a
000000e0: 4c8d 973a 57fd fcba 3db1 ca3a f738 3a3b
000000f0: 737e 923b b4ec 05bb 1acb 6c3b 839f 0f3b
00000100: 820b 483a eebc f23a 4652 d0ba fcf4 b53b
00000110: 4b9a a6ba 52a2 c339 4c40 c43a 4134 003b
00000120: cd5e ae3b 3172 923b 35ba ed3a fef1 db3a
00000130: b537 d03a 3b2a e8b7 fa27 063b 5df5 0d3a
00000140: d7d3 923a 831e 223b 0ed5 d63a de2a 5cba
00000150: ed12 baba 0449 ccba a278 c73a b23b 8d3b
00000160: ad61 31bb 2b2b 7c3b 7929 273a 018b db3b
00000170: 3133 5c3b a60d 143b ca05 11ba 7a08 94bb
00000180: f64a 923b c8d0 b1bb a9fc 3cbb 24db fdba
00000190: 0561 5bba f74c 08ba 9b28 0d3b a4c5 39bb
000001a0: ea96 c43a ed72 113a abb1 663b bbdb b63a
000001b0: e37c 8aba 34aa f139 9909 763b 3375 02b9
000001c0: b117 f53a 0f6d 86ba 1464 3eb9 b3df b13a
000001d0: 14bf 903a aa77 573a ae8a 353b f411 0a37
000001e0: 15cf 3ab9 c8c3 553b 3c0b cb3a c8fa 423b
000001f0: 5d5a 2f3b d800 0bbb ff3d f83a bfac 673a
