runs/BallBalance_18-16-10-07/nn/last_BallBalance_ep_100_rew_3.4278514.pth (torch, 173671 bytes, 36 tensors)

value_mean_std.running_mean f8 [1]
00000000: 908c 314a ed0f c73f
0.18017355082256303

value_mean_std.running_var f8 [1]
00000000: 1a4e be6e 32ab 823f
0.009115594868297317

value_mean_std.count f8 []
00000000: 0000 0000 2000 e940
51201.0

running_mean_std.running_mean f8 [18]
00000000: 5825 6a89 302f 94bf 12f4 a842 50bd b93f
00000010: 0282 384d f242 91bf a8f1 997d 4fab a83f
00000020: 4d1e 2d4c 652a cf3f 5954 0b13 f700 97bf
00000030: 1318 9a7e 48e5 b5bf 988b 7d95 e099 cabf
00000040: 5f29 d63d 79f1 dd3f 180a 109c b88b a4bf
00000050: 3c75 359e bc28 bc3f 4275 3052 0621 e13f
00000060: 4b97 e398 7847 bbbf 28f9 ac6e a999 b8bf
00000070: fd2c 6c7e b959 be3f caa7 74ce f456 bb3f
00000080: 898c 1bc5 6df3 c0bf 494e 6891 5628 cfbf
-0.019711264025806002 0.10054494502487923 -0.016856943095378447 0.04818199547023322 0.2434813138918223 -0.022464619195336464 -0.08552983370654514 -0.20782096194588173
0.4678633788941137 -0.04012848763524718 0.10999659407157919 0.5352813344249301 -0.10655931217806118 -0.09609469368021861 0.1185565885208923 0.10679559746191028
-0.1324288570823209 -0.24341852283451917

running_mean_std.running_var f8 [18]
00000000: 0d41 f60d 9091 be3f 7ca5 b86c 5a59 a43f
00000010: 9a27 e531 3cc2 ad3f 86a3 0a9e 3cb3 c53f
00000020: 32ed bd1a 9ded af3f e994 d26c 5a17 893f
00000030: 1a08 b8d2 4a3e 823f c6c4 d6e3 0539 fd3f
00000040: 06ad e5b6 b59a e53f 9b91 ff21 3b4e f63f
00000050: e029 ef63 8d9d 0340 d64f b777 67c6 dc3f
00000060: 6865 b639 5285 ed3f c97f 0403 e185 f43f
00000070: 7d89 6ab1 792f 7a3f cdc8 55f3 5d8a 7c3f
00000080: 206b 18d6 119e c53f 8ff7 02ae f226 d33f
0.11940861073367533 0.03974421097911837 0.05812252148696402 0.16953237263558324 0.06235972358168808 0.012251573987962465 0.00890787559092492 1.826421632762775
0.6751354763231638 1.394099362188263 2.4519298369752818 0.4496096295454185 0.9225245597073526 1.2826852910875337 0.006392932284742134 0.006967894548653497
0.16888640359760476 0.29925219529456454

running_mean_std.count f8 []
00000000: 0000 0000 4000 d940
25601.0

a2c_network.sigma f4 [7]
00000000: 079d 51be f17e 59be e46e 61be c652 bfbd
00000010: 69cb 6dbc 1d80 56bd 5e94 5dbe
-0.20470057 -0.2123983 -0.22014958 -0.0934196 -0.014513829 -0.052368272 -0.21638629

a2c_network.actor_mlp.0.weight f4 [128, 18]
00000000: 6f9c 80be c5cc febc 56f7 9cbd 9d66 a4bd
00000010: 1f3f 63bd a834 313e efce 64be 33c3 31be
00000020: 2094 3cbe 67fe 03be e81d 353d edd2 63be
00000030: d329 4d3e b5fd 25be c780 ac3e be4a fabc
00000040: 41ac 9abd ccd0 ce3d 0649 913d 7602 443e
00000050: 1172 9fbb cfa7 41bd 3707 fc3c 210b 7ebd
00000060: 0ae4 2b3e 82fc ac3e c34b e53d 01cd 24bc
00000070: d4e5 a33c c526 7d3d 3afb bb3d ed02 ecbd
00000080: 18e5 f4be de76 4dbe 9e90 89be c6c0 9a3e
00000090: c7e8 583d 9dbb 573d 3eed c73d c5c6 3fbd
000000a0: d11f c93d c374 43be 953d 6f3d a413 0ebe
000000b0: 4f67 f53d e3a3 e3bd 753a 873c ed0c 52bd
000000c0: 8fd4 6e3e 0be5 ddbd b896 7bbe 9799 99be
000000d0: 4766 b13e 1591 cd3d 8e2d 903e 71f0 72bd
000000e0: 8231 a2be 95a5 22be 21be 1cbe 3b88 f73d
000000f0: d652 fa3d 15bc a33e 754c 46bd 283d c1bd
00000100: 2510 663d 3e7f 79bd aab9 963d 0fc9 37bd
00000110: 78e4 223e d088 adbe ebf0 28be 7ab5 d13d
00000120: db14 133d 2212 5cbe 3930 093e 29c0 a43d
00000130: 3fc1 94be b24c 38be c670 343e d0a2 b7bd
00000140: 31d8 88bd 5895 93be d259 0cbe 0658 613c
00000150: 0472 bc3c e14b 15be fd0b 443c f3b5 3dbe
00000160: c634 abbd 5d7f 10be 8498 7dbe 0b18 8fbe
00000170: ed38 4b3e edd4 5a3d 5192 153d b8cf 20be
00000180: b316 eebd e6f6 acbd 4566 403d 81fd b1be
00000190: cda4 503d 234e f6bd ece7 613d 46d7 49be
000001a0: 0dcc 85bd 2024 9ebe f56c f5bd 48c4 0dbe
000001b0: 8980 90bd bd7d 77be b5ab 153e 1baf 3ebc
000001c0: cbba 093e bd1b e33d 7ab6 babd 398d 1b3e
000001d0: 52fe 53bd 0c6a 1bbe 93ab 23be 50f7 59be
000001e0: 3941 a63d a3e7 8abd 99ce 0a3e 3062 b0be
000001f0: cedd 973e 0129 c7bd df2d 30bd 092c 383d
00000200: f039 e53d 2d0d 773e c17a e93d b046 babd
00000210: 924b 533d 91f8 1cbe 7651 903c 8ac6 01be
00000220: a2fb 923e 52a5 bebd 278f 463d f5e0 1b3d
00000230: ecc7 e93d 1c18 20bd e2de a23e baaf 543e
00000240: efa8 a43d 8f31 8dbe 76cf 1f3e 6451 1dbc
00000250: 8835 d1bd 53e1 113e 43b2 183d c4ba 16be
00000260: f4b1 4ebe 4473 06be 7914 833e f35a e2bc
00000270: ac86 e1bd 72e5 dcbd f855 86be f61e c03d
00000280: ea0d 943e f476 9bbe 215e 943d 2fda 0d3e
00000290: 8298 88bc 4735 d7bd 48b5 1f3e 4524 e73d
000002a0: 9c39 153e 519a a9bd 4ed2 8cbd 30fe 57bd
000002b0: 67d2 1dbe 1af4 96bc 4a90 2b3e 9c76 533e
000002c0: a408 c13c 49b5 b9bd f875 1a3d 223d c4bc
000002d0: 719b 8e3c 9bb5 a03d fda4 9ebe f70a 65bd
000002e0: 2067 833e 1a6c 5c3d 5a04 553d afe2 20be
000002f0: 61c9 62be 7357 aabe 4d9b f6bd 017e cd3d
00000300: 8178 7b3d 077d 283d 37c5 71be bc4a a2be
00000310: 89f6 b53c cc43 693e b623 763d 8be2 27bd
00000320: 93b0 0b3e 5f93 30be b0fa 74be 79ee 8a3d
00000330: bd24 5fbd d05a f8bd 317b 69be fc5c 073e
00000340: 15b2 3a3e f06a bb3d e7da 3bbd cbc9 75be
00000350: 0982 01bf 3e77 963e 895c a53b 03aa 913e
00000360: 218a 3d3e e2cf 113d 764a 633d a752 1fbe
00000370: 9631 22be 55ec 8abe 76ad df3d 1b00 97bd
00000380: e77e 6cbc edef 53be 0faf dd3c f8ef 40be
00000390: 2221 eabd 6e35 e63d 314d 34be d6db 463e
000003a0: b945 553d 5308 97be 20d1 41bd 87fb 01be
000003b0: 9b02 d7bd 2fca 4bbe 8262 b73d 1f1b 5abe
000003c0: d3d2 023e 451a 023e 38d0 2f3e d166 72be
000003d0: 9ed1 4b3e 712a 36be 5ef1 123e d155 fa3d
000003e0: a559 15be 0592 40bd 56eb bf3d d802 50be
000003f0: 3e77 ac3d 0809 9fbe 774a 1a3e 2a93 383e
-0.2511935 -0.031103501 -0.07664363 -0.080273844 -0.05548012 0.17305243 -0.22344564 -0.17359619
-0.1841588 -0.12890016 0.044217974 -0.2224843 0.20035486 -0.16210063 0.33692 -0.030553218
-0.07552386 0.100984186 0.07094006 0.19141564 -0.0048658927 -0.047279175 0.030765159 -0.062022332
0.16786209 0.33786398 0.11196091 -0.010058642 0.020007052 0.06180455 0.09178777 -0.115239955
-0.47831035 -0.20064875 -0.26868147 0.302252 0.05295637 0.052669156 0.09762047 -0.04682042
0.098205216 -0.1908751 0.05840834 -0.1387468 0.11982595 -0.11115243 0.016507367 -0.05128186
0.23323272 -0.10834702 -0.24569213 -0.29999992 0.34648344 0.10037438 0.28159755 -0.059311334
-0.31678396 -0.15883477 -0.15306903 0.12086531 0.12222831 0.31979433 -0.04841276 -0.09435493
0.05616774 -0.060912363 0.07359631 -0.04486948 0.15907466 -0.33893442 -0.16498153 0.10239692
0.03590856 -0.21491292 0.13397302 0.08044464 -0.29053685 -0.17998007 0.17621145 -0.08966601
-0.0668186 -0.28824878 -0.13706139 0.013753897 0.023003586 -0.14579727 0.011965749 -0.1852644
-0.08359675 -0.14111085 -0.24765211 -0.2794803 0.19845934 0.053425718 0.03651649 -0.15704238
-0.11625423 -0.0844553 0.04697253 -0.3476372 0.050938416 -0.12026622 0.05515282 -0.19711027
-0.0653306 -0.30886936 -0.119836725 -0.13844407 -0.07055766 -0.24169059 0.14616282 -0.011638428
0.13450162 0.11089275 -0.09116836 0.15190591 -0.05175621 -0.15177172 -0.15983419 -0.21285748
0.08117909 -0.067824624 0.13555373 -0.3444991 0.2966141 -0.09724618 -0.043012496 0.04496387
0.11192691 0.2412612 0.114003666 -0.09095514 0.05158574 -0.15329196 0.017616969 -0.12673393
0.28707606 -0.09308876 0.048476364 0.038056333 0.11415085 -0.039085492 0.3181067 0.2077016
0.08040034 -0.27576873 0.15606484 -0.009601925 -0.102152884 0.1424611 0.03727938 -0.14719683
-0.20185071 -0.13129908 0.25601557 -0.027631259 -0.11012015 -0.10785951 -0.26237464 0.09380905
0.28916866 -0.30364192 0.07244516 0.13852762 -0.016674284 -0.10508209 0.15596497 0.11286215
0.14572757 -0.08281387 -0.0687605 -0.052732646 -0.15412293 -0.018426944 0.1675426 0.20650715
0.02356369 -0.090677805 0.03771016 -0.023954932 0.017408105 0.078471385 -0.3098525 -0.05591866
0.25664616 0.05381403 0.052006103 -0.15711473 -0.22147132 -0.33269843 -0.1204134 0.10033799
0.06139422 0.04113486 -0.23610388 -0.31697643 0.022212284 0.22779769 0.06009265 -0.040987533
0.13641576 -0.17243718 -0.23923755 0.06783766 -0.054478396 -0.12126696 -0.228009 0.13219064
0.18231995 0.09151256 -0.04586306 -0.24002759 -0.5058904 0.2938785 0.0050464314 0.2845002
0.18509723 0.035598643 0.055490933 -0.15558873 -0.15839228 -0.27133432 0.10921757 -0.07373067
-0.014434553 -0.20696993 0.027061014 -0.18841541 -0.11432101 0.1124066 -0.17607571 0.19419798
0.052068446 -0.29498538 -0.047318578 -0.12693606 -0.10498544 -0.19901346 0.08954336 -0.21299408
0.12775736 0.12705334 0.17169273 -0.23672034 0.19904181 -0.17789628 0.14349887 0.122233994
-0.14584978 -0.047014255 0.09371059 -0.20313585 0.08421181 -0.31061578 0.15067469 0.18024889

a2c_network.actor_mlp.0.bias f4 [128]
00000000: ab48 7dbd cb15 11be 0113 eebd df08 f9bd
00000010: b9fc 043d 08a5 83bd a825 c2bd 3852 e5bd
00000020: 8da9 043e eee5 cbbc d08f edbd 0f17 85bd
00000030: 8b3c 3d3e 8574 163d 5c84 13be e8f6 74bb
00000040: 5d47 07be 3801 0f3e c3ec f9bd d78d c5bd
00000050: 6536 693d b494 043c 1e89 f93c 7d1b 30bd
00000060: 5766 04be c96c 4dbe 3e71 9e3c 4737 2bbe
00000070: 865c 0fbe 84a2 61bd c498 f1bc 163d c0bc
00000080: a9a3 bb3c 38fd 91bd 6ef8 92bd c731 aebd
00000090: 99a2 7dbd 5284 cfbd d45e 73bd 3848 533b
000000a0: 40d0 da3c e043 88bb 07d8 39be 0120 123e
000000b0: fae2 25bd e1dd 77be 9575 abbe 4b4b 30be
000000c0: f677 22be 77df 55bd b94d d53d 5d6b 18be
000000d0: a3eb 36bc 08c1 1bbe 4e01 eabd 1190 163c
000000e0: 2e91 a8bc dc9d 23bd 81d2 d73d 35e8 2fbe
000000f0: c59e febd e934 693d 4d5b 28be a5b0 22bd
00000100: 3270 12be 7706 39bc ba14 383d 1f58 4dbe
00000110: 46f5 1e3e 502d 7cbd 44bc 78be 6cfe 4bbe
00000120: d837 9dbd 2449 09be 326f 623c 74cd 8abe
00000130: 4135 24be 5806 91bd 2424 c33c db5a 82bd
00000140: 2475 983d e73a e7bc 971d 91bd fbff 483d
00000150: ffda 8f3d b994 103d 5393 873c 4b85 05be
00000160: afb4 66bc 8dab b0bd 34f2 5abe 9218 79bd
00000170: 18ee 463d ff05 54be 1d1a 2dbc 99df c13d
00000180: 8d1e 90bc 01f2 363a 4f38 ba38 ecfe 563e
00000190: e45c 5cbd a4f6 d3bd 57c6 81bd e862 1a3e
000001a0: 0622 f8bd 3b7d 3bbe ee34 84be 074e 79bd
000001b0: 69a4 f13c f6a2 b8bd 0a61 c5bd b5b4 423e
000001c0: 4849 b13c d394 43bd d08c 903d d452 183c
000001d0: 5eeb 69bd bdad ca3c 1ee9 bebd 540c aabc
000001e0: 4200 0bbe b32c 51be 1911 c9bd ac76 78bd
000001f0: 5fb7 81bc dec5 06bd 3673 a33a e8ae 15bc
-0.06183688 -0.1416847 -0.116247185 -0.12159895 0.032467578 -0.064279616 -0.094798386 -0.111973226
0.12955303 -0.024889912 -0.11599696 -0.06498539 0.18480127 0.036732215 -0.1440596 -0.0037378613
-0.13210817 0.13965309 -0.12203362 -0.096461944 0.05693664 0.008092094 0.03046089 -0.042994965
-0.12929665 -0.2006103 0.019341107 -0.16720305 -0.14000139 -0.055086628 -0.02949179 -0.023466628
0.022905188 -0.07128376 -0.071762905 -0.08505588 -0.061922643 -0.1013266 -0.059416607 0.003223909
0.02671063 -0.004158482 -0.18148814 0.14270021 -0.040499665 -0.24205734 -0.33488145 -0.17216222
-0.15866074 -0.052215066 0.10415215 -0.14884706 -0.011164579 -0.15210354 -0.1142603 0.009189622
-0.02057704 -0.03994547 0.10538197 -0.17178424 -0.12432627 0.056935225 -0.16441078 -0.039719243
-0.14300612 -0.011293045 0.04494164 -0.20053147 0.15523252 -0.06156665 -0.24290568 -0.19921273
-0.07676667 -0.13406807 0.013820456 -0.27109873 -0.1603594 -0.07081288 0.023820944 -0.063649856
0.07444218 -0.028226329 -0.07085722 0.049072247 0.07024192 0.035298083 0.016549742 -0.13039128
-0.014081164 -0.08626471 -0.21381456 -0.060814448 0.048566908 -0.20705412 -0.010565308 0.09466476
-0.017592693 0.00069788104 8.8796594e-05 0.20995682 -0.053799525 -0.10349777 -0.063366584 0.15076792
-0.121158645 -0.1830949 -0.25821632 -0.06086543 0.029497342 -0.09015457 -0.09637649 0.19014247
0.021641389 -0.04774935 0.07058108 0.0092970915 -0.05710923 0.024741048 -0.09321807 -0.020757832
-0.13574317 -0.20427208 -0.09817714 -0.06066005 -0.015834508 -0.032903545 0.0012470249 -0.009135939

a2c_network.actor_mlp.2.weight f4 [64, 128]
00000000: 3988 55bd 5559 aa3d 2b09 e1bd 1c90 b5bd
00000010: a73c 62bd 2eac 86bd 5ddd 253c 3c21 353b
00000020: 34fc 463d 1a51 38bd 2864 fdbc 91d8 1d3d
00000030: e8aa 9d3d 03b5 483c 075f 9bbc 6e6e c8bc
00000040: a270 8d3d 4cb8 d4bd d1b1 393e 2a3b 10be
00000050: 765d 123d 7855 7cbe 349a 11bc 50c2 e83d
00000060: 5d2e 50bc 48b4 98bc 4be3 bb3d 4949 3bbc
00000070: 9fd9 713d 5f63 23be bef4 50bd 6af8 293e
00000080: d2bc d73d 96de 013e d670 e1bd c5c4 0b3d
00000090: 86a8 a33d 4171 403e 99d4 f03d 97b3 933d
000000a0: 0e04 f6bd 390d 343e a44a a83d d149 043d
000000b0: 7b3a ce3d 06de 8dbc b4f3 d83d eb97 eb3c
000000c0: 8272 e03d de42 9c3c 5e49 633d e277 f3bd
000000d0: ed3c 52bd 0769 9bbc f289 b6bd 40be 67bb
000000e0: e098 313d bf42 89bc 1ddf 5d3d b6d9 75bc
000000f0: 9058 f5bb ba28 683d a407 b9bc 1fb7 2d3e
00000100: 557d 223c e1ce a43c 1b39 fb3d 04a3 713e
00000110: e89b bf3d e360 51bd 31c5 a6bc ca1a 563d
00000120: 87ea 6e3c 19cf a03d 5616 3d3d 784e 993c
00000130: d53d 173d 737b e8bd ed29 603e c5d0 05bd
00000140: 46df 293d 4a46 463b 1652 82bd 27b9 1bbc
00000150: 57b9 753d a3de 9dbd 7e81 7d3c 9db3 a63d
00000160: b75c 81bd 40b5 d53c 7bb2 97bd 8817 583e
00000170: e60f 8d3d 3d02 d63d f191 3539 20d4 1abd
00000180: 20df a8bb fefc a7bd 1ed1 5cbe 822e 6a3d
00000190: 571c bdbd e5d3 1fbd 4771 043e c6f8 0bbe
000001a0: 9d08 ebbb 6ffc 0fbe 5db1 f4bc ee19 3e3d
000001b0: fb1b 9ebd be09 d5bb c11c 9c3b f2da 073e
000001c0: 7dee 883d aadb 5fbd 2d7f 943d 38ba 26bd
000001d0: 6974 5d3c c13f 203e 62ca 383d 5942 843c
000001e0: 4d8d 2abd ff43 fe3d 9ed1 e5bc 2082 b93d
000001f0: 3d48 473c 0a83 18be d828 fa3d 9466 10be
00000200: 3798 1dbd 8fcf 4b3d 864f 43bc ebac 023e
00000210: 62e3 193e bed8 29bd 1902 b43c f3e8 b9bc
00000220: cac2 17be 1ddf fabb 399a 163e 628a 20bd
00000230: ea56 00be 9a81 37bb 8cac 213e 8884 a73d
00000240: 25c1 633d fca4 923b 6311 fb3d 6f95 b13d
00000250: c2b4 b43c 7264 e13d 8b2c 07be eeb0 6ebe
00000260: d0d1 243e 31df 813d 0bbd 5fbd 2736 1f3e
00000270: 7544 87bc 93be f63d ae3d aabd af8d b2bd
00000280: decc f03c c020 893d 9aef a13a 1ca2 f5bd
00000290: 5184 463d 1fdb 0fbd 538e da3d 4b3c b33c
000002a0: ba1b 1a3d fb08 b6bd ffa5 0b3d c47d a5bd
000002b0: c34f 0abe 9269 dd3d aade 383d 8623 4d3e
000002c0: a8c1 36bd c3ee ee3d bb2b 7d3d d0e2 4a3d
000002d0: 1807 ea3d 0609 8c3c efd7 c23d 5044 de3d
000002e0: 5b57 68be ceec 28b9 80d0 c93d b72f f63d
000002f0: 32bf 5d3d 542c 4abe 63b2 703d bf2b c43c
00000300: a15f f13d 509c 02be d11d 4abe 7be2 86bb
00000310: 7cdd 2dbe f68f ebbd b04f 453e 6e5c b63c
00000320: 91cb d83c b400 0d3d 6ef2 153e 7568 ac3c
00000330: 4d0b 48bb d332 213c 6c08 82bc 1d52 233d
00000340: 9b82 1abd 3686 8dbb b55a 88bd 55d8 2dbe
00000350: 96b6 92bd 0e7c 4e3d 811c f7bb a6f6 47bd
00000360: 7907 56bd d74a 953c 2bb9 ab3d 9351 6bbc
00000370: a0cf f1bd 91f3 173e 5f3f 36be 54a7 ffbd
00000380: 1ff4 6dbd 2a96 afbd 438f 403d e276 44be
00000390: 6039 d43d cbf1 a6bd 6dc2 fb3d 5d7c 2cbe
000003a0: b53a 223b 2774 d83c a9a8 053e 0354 403e
000003b0: 548c d03c 2696 4bbc 2667 c6bd 348a 00bd
000003c0: 07df 783d cf7e ca3d a6ed 4cbd 521c b4bd
000003d0: be27 713d a97c 3cbd 5222 373c 07d5 8bbc
000003e0: 4620 c6ba 0a30 d8bd bd75 893e 7319 8cbd
000003f0: 15a9 13bc 6140 62bd 7ce2 e0bd 435f ed3d
-0.052131865 0.0831782 -0.10988077 -0.08865377 -0.055233624 -0.065758094 0.010123578 0.0027638217
0.048580363 -0.04499922 -0.030931547 0.038536612 0.076986134 0.012250188 -0.018966211 -0.02446672
0.06906249 -0.10386714 0.18134238 -0.1408507 0.035733663 -0.24641979 -0.008886863 0.11365187
-0.012706366 -0.018640652 0.09174212 -0.011431047 0.05904543 -0.15955876 -0.051014654 0.16598669
0.105340615 0.12682566 -0.1100785 0.0341232 0.07991128 0.18793203 0.117593 0.072119884
-0.12012492 0.17583169 0.082173616 0.03229696 0.10069748 -0.017317783 0.10593358 0.028758964
0.10959341 0.019074854 0.05548989 -0.118881 -0.051327635 -0.01897098 -0.0891303 -0.00353612
0.043358684 -0.01675546 0.054167856 -0.01500552 -0.007487364 0.056679465 -0.022586651 0.16964386
0.009917577 0.020118179 0.122667514 0.23597342 0.09355909 -0.05111779 -0.0203577 0.05227164
0.014582283 0.07852001 0.04616388 0.018714175 0.036924202 -0.11351671 0.21890993 -0.0326698
0.041472696 0.0030254298 -0.06363313 -0.009504593 0.059991207 -0.0770848 0.015472768 0.08139727
-0.06316512 0.026087403 -0.07407089 0.21102726 0.06887798 0.10449646 0.00017315873 -0.037799954
-0.0051535517 -0.08202551 -0.21564147 0.05717326 -0.09233921 -0.039020438 0.12933837 -0.13669118
-0.0071726576 -0.1406114 -0.02986973 0.046411447 -0.077201806 -0.0065014055 0.00476417 0.13267115
0.06686113 -0.054652847 0.07250819 -0.040704936 0.013516524 0.1564932 0.045114882 0.016144918
-0.04163866 0.12415313 -0.028054055 0.090580225 0.012163219 -0.14893737 0.122148216 -0.1410163
-0.03847524 0.04975849 -0.011920815 0.12761275 0.15028146 -0.041466467 0.021973656 -0.022694087
-0.148204 -0.0076559917 0.14707269 -0.039194472 -0.12533155 -0.0028000833 0.15788478 0.08179575
0.05560412 0.004475234 0.12259176 0.0867108 0.022058848 0.110054865 -0.13200586 -0.23309681
0.16095662 0.063413985 -0.054623645 0.15548001 -0.016512135 0.12048068 -0.08312546 -0.0871843
0.029394563 0.066957 0.0012354732 -0.119938105 0.04846603 -0.03512108 0.106716774 0.021879336
0.0376241 -0.08888432 0.034093853 -0.080806285 -0.13506989 0.108111516 0.045134224 0.20033082
-0.04461828 0.11666634 0.061809283 0.04953271 0.11427134 0.017094146 0.09513842 0.10852873
-0.22689573 -0.00016109945 0.09854221 0.1202082 0.054137416 -0.19743472 0.058763873 0.023946641
0.11785818 -0.12754941 -0.19737937 -0.004116354 -0.16979021 -0.11502068 0.1926868 0.02226087
0.026464256 0.0344245 0.14643261 0.021045903 -0.0030524314 0.009838778 -0.015873156 0.03987323
-0.03772221 -0.0043189777 -0.06657926 -0.16977055 -0.07163732 0.050411277 -0.0075412397 -0.048819207
-0.05225322 0.018224163 0.08384927 -0.0143627105 -0.118071795 0.14839007 -0.17797612 -0.12483087
-0.05809414 -0.085735634 0.047011625 -0.19185975 0.10362506 -0.08151587 0.12292943 -0.16844316
0.002475423 0.026422573 0.1305262 0.18782048 0.025457539 -0.012425935 -0.09687643 -0.0313818
0.06075957 0.09887468 -0.050031327 -0.08794464 0.05887579 -0.046017323 0.011177616 -0.017069353
-0.0015115819 -0.10556038 0.2684764 -0.068407916 -0.00901248 -0.055237178 -0.109806985 0.11590435

a2c_network.actor_mlp.2.bias f4 [64]
00000000: 21d3 ccbc 2dd0 5cbe f404 5a3d 189e cd3d
00000010: 4054 013d 8f12 14bd 5fbb d8bd e960 8b3d
00000020: 11d4 fabd 9100 be3d 684d ca3d a4fe d4bc
00000030: 69ec c8bd 72d7 6ebe 67c8 2e3d c988 d7bd
00000040: 0836 c7bb 7135 19be d568 fd3d 249e c6bc
00000050: aaf5 32bd fd4a e33c fe84 e03d c958 abba
00000060: 1692 70be a22c 47be 9dc4 e23c 01ce b5bd
00000070: 229a 11bd ab47 7b3d 136c b9bc 5bf4 85bd
00000080: debf 7dbe 9331 4abe ca99 c0bd 72e6 04bc
00000090: 6660 0c3d e672 e23d 13a4 a33d c2b6 52be
000000a0: 4c62 92bd 21a5 c53c 0c40 07be 9878 f23c
000000b0: b1c3 4cbe 57e1 71bc 28e3 593d 45e8 0b3d
000000c0: 5fb8 083d 4c53 29be b9fc 733d 9bdd 053d
000000d0: ceb3 23be 54d0 803d 6cb7 83bd b102 183d
000000e0: fd2b dd3c e3ec 0dbd 973d 9b3d f239 143e
000000f0: 733b 543d 22c5 463d a80d d63c a053 5cbd
-0.025003018 -0.21563788 0.05322738 0.100399196 0.031574488 -0.03615051 -0.10582613 0.068055935
-0.1224748 0.09277452 0.09878045 -0.026000328 -0.09810717 -0.23324373 0.042671587 -0.105241366
-0.006079439 -0.14961793 0.12373511 -0.02424533 -0.043691315 0.027745718 0.10962866 -0.0013072725
-0.23493227 -0.1945062 0.027681643 -0.08877183 -0.035547383 0.061347645 -0.022634542 -0.06540748
-0.24780223 -0.19745474 -0.09404333 -0.008111583 0.03427162 0.110570714 0.07990279 -0.20577529
-0.07147655 0.024126591 -0.13208026 0.02959852 -0.19996525 -0.014763198 0.05319515 0.034157056
0.033378955 -0.16535681 0.059567187 0.032682043 -0.15986559 0.062897354 -0.06431469 0.03711194
0.026998514 -0.03464974 0.07580107 0.1447523 0.051814508 0.048527844 0.026129559 -0.05379069

a2c_network.actor_mlp.4.weight f4 [32, 64]
00000000: 938a de3d 14bc 33bd 0e26 81bd 04b3 c13c
00000010: 0d5c 353e b58b c23b 46a6 c2bd 2a6f 3dbd
00000020: 2ba2 cfbd f479 d4bd 0117 c4bd b6c1 4b3c
00000030: baff 2a3d 3ff9 96bd da66 8b3a 2605 65be
00000040: efd0 afbd e1a0 8abd 35b5 03be e57f 0fbc
00000050: 7933 70bc 0861 4abc 32f0 d73d 37a6 4cbd
00000060: 6fd6 53bc 9c90 aabd 9a56 27bd 1924 b13c
00000070: 3df8 083e f4d5 03be 464f e9bc 64fe eaba
00000080: 40dc c13a c117 793d 0cd1 f1bc 56a8 31bd
00000090: 7e46 4c3d 8121 1cbd b201 d63c 3639 ecbd
000000a0: ea90 f8bd 9d12 dcbc 445d 1b3e 2d5b 3f3e
000000b0: 5d36 0ebe 2120 9e3c 05a9 22bd 0341 4c3e
000000c0: 6782 bb3b 78e5 91bc 0246 7abc 5189 7fbd
000000d0: d285 4bbe 9e22 23be 3b79 04bb beac 0abe
000000e0: ad3e aabd f47e 85bd 0367 993d 8244 a93d
000000f0: 28b0 6a3c ff8f f33b f136 853e a0c3 95bd
00000100: 231b 0e3e a877 7abd 527a d6bd 1dab bdbd
00000110: 0f34 463d df48 a7bd 3f5f b4bd 94bc 403e
00000120: 4d0b 1fbe 079c b93c ae7c 2a3e 6717 c0bc
00000130: a479 eabc b04b 853d 9512 f6bd 941b 20be
00000140: fcbc 3cbd 3423 6ebe 0e98 b13d 5a50 ff3d
00000150: beaa 3ebe 3f67 163d ab15 443d 806b 013e
00000160: c000 38be 7c4e 41bd 4ece 093e 72b7 ed3d
00000170: d0d6 e23d f276 de3d 8ac7 33bd 40d3 783d
00000180: 1ac6 4cbd e3b2 7cbd fe1d 6ebd 05a3 c23d
00000190: de58 79bb 60c4 153d 54a9 f3bd e3d2 9d3c
000001a0: 5600 20be 4dc9 4e3c aef4 de3b 9ee2 703d
000001b0: 107a 033e f512 743d cbfe e0bd 7ac6 4fbd
000001c0: 631c b13d 778f 0ebb 84fa cbbd 3694 95bd
000001d0: 0610 6dbe 14a1 15bd 8178 b6bd 0281 083e
000001e0: 4b15 92bd 28a6 8abd f55e 113d 7582 b1bc
000001f0: 0e32 613e 6172 8e3b 2334 0a3d 42c0 3fbd
00000200: bc35 0c3e 2907 febd 3dfe 413d 8494 363d
00000210: 64ff cdbd 9c7a cebd adb9 473c 11b1 26bc
00000220: 0ebb 86bd 5a4b 99bb 2ef2 2fbd 4f9c 91bd
00000230: 0d16 2abd 1a7f 34bd 7aee cf3d 6c33 ba3d
00000240: 5dab b43d 0461 dcbd 2668 89bd ba01 1dbe
00000250: 87a8 d43d aefa d53d 969e 82bd f6a6 f73d
00000260: f1c0 55bc 21ce 673d f96d 36bd 6dd7 293e
00000270: b2d6 883d 253f 763d 1b21 58bd 7f6f 573e
00000280: 4238 77bc abf8 993d 013a ad3c 3f0f f5bc
00000290: 5a2d c23d d3c3 6fbd b297 10be f446 45bd
000002a0: a879 7e3c 8381 9f3d 3493 143e 9057 c33d
000002b0: 2fcf cfbd 8884 d23d 54c5 203e 7a5c 943c
000002c0: 04fd c63d 344f f4bd 7185 89bd b655 7cbc
000002d0: fe2a 09be 2024 fabd 4d98 8cbd a3f6 563d
000002e0: d16f e03d 2773 cd3b c63a 0bbe 3d1d 42bd
000002f0: e840 043e e3fc b3bd ee08 043d c755 8c3c
00000300: 531d edbd 0a48 893c 9590 02be 1963 47be
00000310: 72d3 a7bd 1a6f 3dbe f8aa c73d b64f 863c
00000320: 2f06 94bd 5c40 983d 5bed 01be b326 3f3b
00000330: 82a1 14bd ba37 f7bd 53d0 6b3e 3b33 0b3d
00000340: e133 673d 8d7e 8e3d 23b1 a33c 3b62 e8bd
00000350: b0e0 f3bd 4a0e 0fbd 51a2 ac3d 34bc 303d
00000360: 8459 593d 4f1e cbbc 827f f93a 9e6d d53d
00000370: f3e0 41bd 82fe 523e ecc0 36bd dc4a 813d
00000380: eb93 7ebd 1a92 1c3d dd44 09be ee2f 86bd
00000390: e233 103e f234 fdbd a0eb 3abe 247d e6bd
000003a0: 5013 93bd af22 0a3d 45b8 b93d b7cf 823e
000003b0: 8bcd 13be 80a8 b4bc 1346 9e3d 1c3e 183e
000003c0: 7ea5 f03d 8420 41be 6d47 183d e528 1ebe
000003d0: c662 adbc d6a1 c63d 862b 29be c328 b7bd
000003e0: 1bcf 073d 584b 0d3d cd2a 12bd 1e78 833d
000003f0: 6222 5b3e 2fe2 d1bd 1dc6 e33d 68f6 733c
0.10866275 -0.043880537 -0.063060865 0.023644932 0.17710896 0.0059370645 -0.095043704 -0.046248592
-0.10138353 -0.10374823 -0.095747 0.012436321 0.041747786 -0.07371759 0.001063551 -0.22365245
-0.08584773 -0.067689665 -0.12862094 -0.00875852 -0.01466071 -0.012352236 0.105438605 -0.049963202
-0.012929543 -0.08328363 -0.040854074 0.021623658 0.13375945 -0.12874585 -0.028480183 -0.0017928598
0.0014790371 0.06081367 -0.029518627 -0.04337343 0.049871914 -0.03811789 0.026123855 -0.115343496
-0.12137015 -0.026864344 0.15172297 0.18687125 -0.13887925 0.01930243 -0.03971197 0.19946675
0.0057223323 -0.017809615 -0.01527548 -0.062386815 -0.19875267 -0.15931174 -0.002021386 -0.13542458
-0.08312736 -0.06518355 0.07490351 0.0826502 0.0143242255 0.007432937 0.2601848 -0.07312703
0.1387754 -0.06114927 -0.104725495 -0.09261153 0.04838949 -0.08168196 -0.08807229 0.18821937
-0.15531655 0.022657407 0.16649124 -0.02344866 -0.028622456 0.06508577 -0.12015263 -0.1563552
-0.046078667 -0.23255616 0.0867158 0.12466498 -0.1861982 0.036719557 0.047872227 0.12638664
-0.17969036 -0.04719399 0.13457605 0.11607255 0.110761285 0.10862531 -0.043891467 0.06074834
-0.049993612 -0.061694037 -0.05813407 0.0950375 -0.0038047354 0.03656423 -0.11897531 0.019265598
-0.15625128 0.012621236 0.0068040704 0.05880987 0.12839532 0.05958839 -0.10986098 -0.05072639
0.086479925 -0.0021752992 -0.099598914 -0.073036596 -0.23150644 -0.03653057 -0.08909703 0.13330463
-0.071329676 -0.06769973 0.03549095 -0.021668652 0.2199175 0.004347131 0.033741128 -0.04681421
0.13692373 -0.124037094 0.0473616 0.04457523 -0.100584775 -0.1008198 0.012190265 -0.010174052
-0.065786466 -0.004678172 -0.04295557 -0.071098916 -0.041524936 -0.044066526 0.10152908 0.09091839
0.088217475 -0.10760692 -0.06709318 -0.1533269 0.103837065 0.10448204 -0.06377904 0.12092392
-0.013046489 0.056593064 -0.04453847 0.16586085 0.06681575 0.060118813 -0.052765947 0.21038626
-0.0150890965 0.07518133 0.021145822 -0.029914496 0.094813064 -0.058536362 -0.14120367 -0.04816337
0.015531935 0.07788374 0.14509279 0.095381856 -0.10146939 0.102791846 0.15700275 0.018110503
0.09716228 -0.11929169 -0.06714905 -0.015401294 -0.13395306 -0.122139215 -0.068649866 0.052481305
0.10958827 0.0062698307 -0.13596639 -0.047391165 0.12915385 -0.08788469 0.03223508 0.017130746
-0.11577859 0.016757984 -0.12750466 -0.19471397 -0.08194627 -0.18499413 0.097494066 0.016395431
-0.07227742 0.074341506 -0.126882 0.0029167354 -0.03628684 -0.12071176 0.23028688 0.033984404
0.05644596 0.069577314 0.019981926 -0.11346861 -0.1190809 -0.034925736 0.08429397 0.043148234
0.053063884 -0.024794726 0.0019035193 0.104212984 -0.04733367 0.206049 -0.04461758 0.063131064
-0.062152784 0.03822527 -0.13405176 -0.065521106 0.14082292 -0.12363614 -0.18253946 -0.112543374
-0.07181418 0.033724483 0.0906835 0.255491 -0.14433877 -0.022053003 0.07728209 0.14867443
0.11750315 -0.1886006 0.037177492 -0.15445288 -0.021165263 0.096988365 -0.16520509 -0.089433216
0.033156496 0.03449568 -0.03568535 0.06419395 0.21399835 -0.10248219 0.111217715 0.014890291

a2c_network.actor_mlp.4.bias f4 [32]
00000000: 65d1 dabd 084c 663d d845 5b3d bb08 ecbc
00000010: e4d8 51bd 7ad5 3dbe e7e0 afbd fded c83c
00000020: aed2 843b 7cb4 12bc 178d 883b 4c97 b2bd
00000030: 541c 84bd 5278 b83c 2ad0 75bd 6a79 94bc
00000040: 78a1 553d e5ce 83bd 4c5a 26bd f75e d2bc
00000050: d673 89bd 28fc 453d 4d9b 56bc 6ee5 d6bc
00000060: 6ff6 21bd 97cc 513d 783e 99bd 5191 4dbd
00000070: f4a1 63bd cb46 173d 1abb 01bd a80e 673b
-0.1068447 0.056224853 0.053533405 -0.028812757 -0.051232234 -0.18538466 -0.085878186 0.024527544
0.0040534353 -0.008954164 0.00416721 -0.08720264 -0.06450716 0.02251831 -0.060012974 -0.018124301
0.05215594 -0.064359464 -0.040613458 -0.025680048 -0.06711547 0.048336178 -0.01309855 -0.026232447
-0.039541658 0.051220503 -0.07482618 -0.050187413 -0.055574372 0.036932748 -0.031672575 0.0035256539

a2c_network.value.weight f4 [1, 32]
00000000: 1f8d 4c3d 2809 363e 8ed5 8ebc fe09 0abd
00000010: 8fd7 e8bd ed4f 823e 60f4 663d 0964 d6bc
00000020: 047d 8ebd 31cd 793c 4daf d53d 9675 52b9
00000030: ea7d 373d 3ce4 b93c 6dc7 04be e014 6a3d
00000040: ddb1 e23d 6d45 1b3e 130e e6bd 489e fabd
00000050: 11a4 2a3c a172 0a3e 0283 a9bd cd2e 1cbe
00000060: 1e23 dcbc 3072 3f3e 5669 963b fd6d 25bd
00000070: 491d ed3c d986 763e 14ef 5cbe 5ae5 a9bc
0.04993927 0.1777693 -0.017435815 -0.033700936 -0.113692395 0.25451604 0.056385398 -0.026170747
-0.069574386 0.015246675 0.104338266 -0.00020070965 0.044797815 0.022691838 -0.129667 0.057148814
0.11069081 0.15163203 -0.11233153 -0.12237221 0.010415093 0.1352029 -0.08276941 -0.15252228
-0.026872214 0.18695903 0.0045901937 -0.040388096 0.028944628 0.24074878 -0.21575576 -0.020739246

a2c_network.mu.weight f4 [7, 32]
00000000: 4996 893c 25b7 debd bf46 c4bd 5bb6 13be
00000010: 8f68 cf3d 4fdc 07be e469 8cbd bc6e d93c
00000020: e7c9 0a3d be6e 453e 2231 d1bd 2e51 1a3e
00000030: b72a 353e b3c1 28bc 5e04 663c 37dd f6bd
00000040: a9d5 87bd 60cd 79be 2eb5 2dbe 7e3e 6fbd
00000050: 2264 9a3e 77ee 40be 4c40 62bd cc8b 9c3c
00000060: 4bb8 24be 8a2a 903e 26f0 19be 1484 3bbd
00000070: d4d0 08be 9b27 bf3d 21f9 9bbd 5365 eabd
00000080: a307 d73d eebb 99bd 1deb 08be 0fff b5bd
00000090: c18d 063e 9854 143e e6be 27be 204e edbd
000000a0: 9458 b4bb 17ef 0d3e ab02 eebd 39c2 633e
000000b0: 3d12 9b3d aa5c f83d 11a8 073e ae22 3a3e
000000c0: 67d9 e3bd 87cc 823d b196 0dbe 32eb 383e
000000d0: d32b 3abd 968c e73b eb38 7e3e 7c6d c7bd
000000e0: cc46 90bd ad3b 9cbd dd31 ca3d 666b e53c
000000f0: d6f3 0abe 950e cd3d 8256 eb3d 7a80 12bd
00000100: 852b 6f3d e63e 12be 27cd 3abe 7441 99bd
00000110: bb2e 783d 3446 c3bc 4316 473d 7453 01be
00000120: 2861 c73d 839b 65be 3a84 e2bd a5dc b13e
00000130: 730b b0bc 6567 98bc c7c8 f03d 7f96 a4bd
00000140: a67d 333d 76b7 f9bc 1a25 57bd 3f0c 24be
00000150: d00d 943d 4eec a5bd 37ad e7bd d712 5b3e
00000160: 17c8 0f3e f9d6 d6bd 942e a03c 080b 563e
00000170: 6798 7c3e 173e 0d3e a93c c73c e5d2 e23d
00000180: db87 2f3e 9a30 993d 2d50 033d 5c37 753e
00000190: 6218 fcbd 59b7 e63d 682e 643e 18ee 813d
000001a0: 60bb 34be a2e7 233e 038d b83d 4fc0 ac3d
000001b0: 3c2e 083d cd87 453e 6276 9e3d b77c e8bd
000001c0: fcb1 04be 809d a03d c693 bebc 21ae 4cbe
000001d0: 788e 00bd 0137 e5bd 5950 b7bd b48e 07be
000001e0: 3911 653e 79d6 03be fb40 49bd c3c1 a63d
000001f0: 0ca2 803e 9d14 e43d e618 1b3e 4540 21be
00000200: 1873 8fbe b8c4 9a3d 6379 c7bd 60b0 483d
00000210: fcc9 293e e41a 103d 4398 e2bd c4a8 133e
00000220: c79e e9bd fb21 f4bd a9d8 133e 72bc 243d
00000230: 2d61 e1bd cf19 a13d 2c04 e3bd 1879 253d
00000240: 8997 d2bd 6fcc 543c 926e d43d 1d05 1d3c
00000250: 90ae 503c 13a6 153e 15a4 863c c32d f23d
00000260: 049f cf3d e158 92bd 0c45 1ebe 47b5 18be
00000270: 1d99 a0bd 4fb9 e43c 0ba6 2b3e f3e2 2c3e
00000280: 0c81 233e 6963 183d 66c8 133e fa47 b93c
00000290: ed10 1e3e d52e dbbd c7f9 593e a5c1 ca3d
000002a0: 2da6 1c3d 6b84 56bd 8d23 dc3d 3fbc 8bbc
000002b0: 29ac 2bbe 9245 0cbe f75b b93c 65a2 483d
000002c0: 60e4 bebd 77e0 d03d 940c 3fbd 9610 4a3e
000002d0: 253d 843c 566e 2dbd 7a28 4b3d ee01 4dbc
000002e0: b5a8 ab3d 64ae 0abd 6891 21bc eac9 343e
000002f0: 1595 84bd 6cf6 4e3d c546 bd3d b00b 013d
00000300: 70e6 27bd 3d37 a6bd 6a24 a93c 8388 10be
00000310: 6dad 643d 3e25 633d 21d2 c9bd 8558 073e
00000320: 8717 603b dd6e 0f3d ee79 493e 6bdc 4dbd
00000330: 438b 1b3e a263 90bd 9f2f 123e 7634 553c
00000340: bd69 37be cb1d 1fbe cb7a d83d 0867 fb3d
00000350: 9709 fe3c 2acb ccbd 90c5 ddbd b22a b1bd
00000360: e67f b2bd c93c f9bd f312 1d3d f021 813e
00000370: 1e15 c9bc cad8 a63d baf1 893d 1506 05be
0.016795294 -0.10874776 -0.09583806 -0.14425032 0.10127365 -0.13267635 -0.068561345 0.02654206
0.033883955 0.19280526 -0.102144495 0.1507003 0.17692076 -0.010300088 0.014039127 -0.12053912
-0.06632549 -0.2439475 -0.16963646 -0.058409207 0.3015452 -0.18840967 -0.0552371 0.01910963
-0.16085927 0.28157455 -0.15033016 -0.045780256 -0.13360912 0.09333726 -0.07615877 -0.11445107
0.104995035 -0.07506548 -0.13370939 -0.08886539 0.13140012 0.14485395 -0.16381416 -0.11587167
-0.0055037234 0.13860737 -0.116216026 0.22242059 0.07571838 0.12127049 0.13247706 0.18177292
-0.111254506 0.06386667 -0.13827015 0.1805847 -0.04545195 0.0070663197 0.248264 -0.09737679
-0.070447534 -0.0762857 0.09872792 0.028005313 -0.13569579 0.10012547 0.114911094 -0.035767056
0.058391113 -0.14281806 -0.18242322 -0.07483187 0.06059144 -0.023837186 0.048605215 -0.12629491
0.09735328 -0.22422604 -0.110603765 0.3473865 -0.021489834 -0.01860399 0.11757045 -0.08036517
0.043821 -0.030482989 -0.052525617 -0.16020297 0.07229197 -0.08101712 -0.11312335 0.21393906
0.14041172 -0.104902215 0.01955346 0.20902646 0.24667512 0.13793217 0.024320917 0.11075381
0.17141668 0.07479973 0.032058883 0.23946899 -0.12309338 0.112654395 0.22283328 0.06344241
-0.17649603 0.1600633 0.09011271 0.084351175 0.033247218 0.19290085 0.077374235 -0.113519125
-0.1295852 0.07842541 -0.023263823 -0.199883 -0.03138587 -0.11192132 -0.08950872 -0.1323803
0.22369851 -0.12874784 -0.049134236 0.08142426 0.25123632 0.11136744 0.15146217 -0.15747173
-0.28017497 0.075570524 -0.097399496 0.04899633 0.16580957 0.035181895 -0.11064198 0.14419848
-0.114072375 -0.11920544 0.14438118 0.040218778 -0.11004863 0.07866251 -0.1108478 0.040398687
-0.10282809 0.012988194 0.10372652 0.009583739 0.012736931 0.14614134 0.016435662 0.118251346
0.10137752 -0.071458586 -0.15456027 -0.14912902 -0.07841704 0.027920393 0.16762559 0.1688345
0.15967196 0.03720418 0.14431915 0.022617329 0.15436144 -0.10702292 0.21286689 0.09900216
0.038244415 -0.052372377 0.10748968 -0.017057536 -0.16764893 -0.13698414 0.02262686 0.048982996
-0.09320903 0.10199063 -0.046642855 0.1973289 0.016142437 -0.042341553 0.04959915 -0.012512667
0.08381788 -0.033857718 -0.009861328 0.17655149 -0.06473748 0.050527975 0.09242014 0.031505287
-0.040991247 -0.081160046 0.020647246 -0.14114575 0.055829454 0.05545544 -0.09854532 0.13217361
0.003419371 0.035017837 0.19675419 -0.050259035 0.15189843 -0.070502535 0.14275979 0.013012996
-0.1791143 -0.15538709 0.10570296 0.12275511 0.031010432 -0.09999688 -0.10828698 -0.086507216
-0.08715801 -0.12169797 0.03834815 0.25221205 -0.024546202 0.08146818 0.06735559 -0.12990601

a2c_network.mu.bias f4 [7]
00000000: c838 edbc ab31 8dbd e2f6 bcbd 62cf 9dbd
00000010: cbb3 353d f038 94bc 2c7d 1a3d
-0.02895774 -0.06894239 -0.09226777 -0.07705571 0.044360917 -0.018093556 0.03771703

exp_avg f4 [7]
00000000: 4029 d33b fbc3 5dba b0cf 4c3b 0f12 be36
00000010: a7eb fd39 17a2 e5bb 428c 923b
0.0064441264 -0.00084596843 0.003125172 5.6645436e-06 0.00048431495 -0.007007848 0.0044722864

exp_avg_sq f4 [7]
00000000: 1d8b 113a e67c 143a 3f54 213a 8da0 233a
00000010: 393d 323a 53f5 1f3a 63e1 263a
0.00055520405 0.0005664363 0.0006154216 0.00062418805 0.0006799284 0.0006101925 0.00063659827

exp_avg f4 [128, 18]
00000000: ebdd f03a f80e 913a f4cb 5e3a 65b8 6b37
00000010: ceb5 093a 0b83 7b3a c59b e7ba 37b8 223b
00000020: 1505 b639 5aef 0dba b7a1 0c39 5810 42ba
00000030: 3246 003b 3889 ac39 7c80 c3ba 923a 2fbb
00000040: 8388 733a 9508 7eba 7f3d 48ba 643b 9f3b
00000050: fad9 193a f043 64ba 82e1 b53b 5471 b039
00000060: 4bd1 9238 6bfa 12bb a54e 3d3b ee83 0cba
00000070: 749c 67ba 65cb 123b f9c5 213a b4db 313b
00000080: 73e5 4b3b 1c1f 2dbb ebd5 3c3a fb09 14bb
00000090: d5ad a538 4364 e93a a1a6 08b9 0559 02ba
000000a0: 567d 72ba 1e01 8739 5f0a 9eba 10ee 9f39
000000b0: a864 983a ce69 a7ba 3fb7 b0ba f5c5 eeba
000000c0: 88bc 7cba 47d6 b239 a3bd 9f39 7ee7 9f3a
000000d0: 0feb 79b8 6c47 9a3a f2cc 6fba b113 7e3b
000000e0: 6ab8 fc3a 1ad9 f0ba 0055 a53b 6ed8 423b
000000f0: 46a1 7239 3a33 87ba 0182 2e3b 343f e83a
00000100: 595d a8ba ca13 e43a 169f 0d3b 3255 dc36
00000110: 618b 2f3a 85f4 78bb 9744 58b7 e0f5 6dbb
00000120: b14a 243a 6e38 4eb9 117f 85ba 6045 1a3a
00000130: 81db 0dbb e416 0c39 fdea 9dba d401 8339
00000140: 77e9 9eb9 d3e0 82ba 5324 9cba 9fe2 d9ba
00000150: cd54 d6b9 a1ac f539 ec63 25b9 5ce8 013b
00000160: b063 5bb8 84a6 053b 8f97 e33a 3e62 58b9
00000170: fd72 55ba 7a08 2439 44a5 60bb 87c3 69ba
00000180: b418 29bb 8695 1e3b 1f90 39ba ae26 15bb
00000190: 1f11 6aba b459 70bb 7c05 e3b9 01b4 3f3a
000001a0: b340 8bba 6e26 0e3b c147 d339 e9d9 5e3b
000001b0: 7a56 d33a dcf3 a83a 2ad0 36ba 8070 9c3a
000001c0: 4a32 f2b9 d03f 013b 05c5 8fba fee0 713a
000001d0: 540e bd38 3262 90ba 6e82 94b9 c756 96ba
000001e0: e2e5 4d3a 3840 303a 2717 13b9 c98c c839
000001f0: ba1b 603a bebe 783a fd0d 4c3b 2f82 7eb9
00000200: eeda eaba a2a8 553b 36a5 12bb 8e9b 0ab7
00000210: 46c2 a5ba 22df 093b d0d6 ceba 9307 12bb
00000220: 6887 ff3a 8d2a 21bb 80e4 3f3a 669d 083b
00000230: e271 9d37 84c0 093b 62a6 033b 6046 293b
00000240: 19f4 2ab9 8a6a 23bb 5c9d ecba d72b f43a
00000250: 59bf bebb 4c9a e539 7acd 2fba 7f5a b4ba
00000260: 725a 05bb 18b6 77ba 4326 63ba 56f1 4dbb
00000270: c357 32bb 3f96 29ba 56f4 b339 2167 cc3b
00000280: 11cf c3ba d524 663b e894 2b39 058f 1db9
00000290: 8ee2 5c37 ce90 09ba 2929 b439 f340 4fba
000002a0: 4ab6 deb7 91e5 04b9 4cb3 9739 2302 8f39
000002b0: 3ba3 30b9 c241 3e3a 3d8b 063a c25a e938
000002c0: 520c e8b9 0e6f 81ba 0a80 0eb7 cc18 1e38
000002d0: e3cd b83a 12e0 473b 4b8e e5ba 456c ca39
000002e0: 0b29 be39 9533 2f39 2153 ebba 4ed6 2939
000002f0: 5ffa 843a fe61 32bb e791 2bba 8f40 bfba
00000300: 8f2a d939 7aba 213b eeb3 1a3a 84a6 d838
00000310: 6089 483a 9076 093b 9331 f6b9 df21 153a
00000320: 1c68 a93a a255 3cba da1c c73a fef3 bcba
00000330: ec19 75b9 6608 6d39 424b 753a 4bb2 18b9
00000340: 758e 46ba 46f2 d339 477b 5eba 6cc9 f53a
00000350: 7785 b63a a961 c4b9 8525 243a 76ed 1eba
00000360: 05e8 94ba ecaa b2ba 9580 d2ba a659 a53a
00000370: e9d6 fdba fb3c d9b8 f90a 9a3a dffb 34bb
00000380: 2c72 b4ba d026 8838 5844 e339 50be ebb9
00000390: 9eaf 18bb fcdf 31ba cd84 b33a bf2d 4a3b
000003a0: 4ee6 95ba a346 663a a259 40ba c9e8 f4b9
000003b0: ae92 96b9 5476 87b7 23b0 80ba d952 11ba
000003c0: 6b4a 2c39 fe04 94ba 70d4 95b9 71e2 abb8
000003d0: 191b 03ba 7afd e4b9 8ef2 8eba c10b b939
000003e0: d7e8 273a 6c96 cc3a 3b18 e3b9 a254 3c3a
000003f0: 178a cd3a 2a3c 7f3a d8e6 0aba 9976 543a
0.0018376684 0.0011067083 0.00084990193 1.4050024e-05 0.0005253226 0.0009594417 -0.0017670324 0.002482904
0.00034717532 -0.00054143893 0.00013411684 -0.0007402948 0.001957309 0.00032908632 -0.0014915611 -0.0026737791
0.0009290056 -0.000969061 -0.0007638558 0.004859375 0.0005868968 -0.0008707633 0.0055505643 0.00033653772
7.000806e-05 -0.0022427093 0.0028885987 -0.0005360235 -0.0008835264 0.0022399065 0.0006171163 0.002713901
0.0031112104 -0.0026416248 0.0007203507 -0.0022588957 7.900192e-05 0.001780637 -0.00013032045 -0.00049723714
-0.0009250244 0.0002575004 -0.0012057534 0.00030504214 0.0011626678 -0.0012772621 -0.0013482346 -0.0018216955
-0.00096411305 0.00034110455 0.00030468134 0.0012199727 -5.958514e-05 0.0011770553 -0.00091476657 0.0038769061
0.0019281034 -0.0018375248 0.005045533 0.0029731053 0.00023138997 -0.0010314949 0.0026627781 0.0017719031
-0.0012845203 0.0017400917 0.0021609715 6.566429e-06 0.0006696489 -0.0037987542 -1.2890573e-05 -0.0036309883
0.00062672334 -0.00019666713 -0.0010184963 0.00058849715 -0.0021645727 0.00013359968 -0.0012048181 0.0002498763
-0.00030310053 -0.0009985216 -0.0011912681 -0.0016623324 -0.00040880442 0.0004685866 -0.0001577285 0.0019822335
-5.230651e-05 0.002039344 0.0017363894 -0.00020635963 -0.000814244 0.00015643417 -0.0034278193 -0.00089173805
-0.0025802078 0.002419801 -0.00070786657 -0.002275865 -0.0008928943 -0.003667456 -0.000433009 0.00073128944
-0.001062414 0.0021690386 0.00040298517 0.0034004396 0.0016123794 0.0012890059 -0.0006973768 0.0011935383
-0.00046195305 0.0019721873 -0.001096875 0.0009226947 9.014891e-05 -0.0011015593 -0.00028325937 -0.0011469953
0.00078543846 0.00067234365 -0.00014027637 0.00038251866 0.00085490535 0.0009488872 0.0031136267 -0.00024271825
-0.0017918029 0.0032601734 -0.0022376305 -8.261659e-06 -0.0012646399 0.0021037539 -0.0015780572 -0.0022282347
0.001949531 -0.0024592013 0.0007320121 0.002084577 1.876889e-05 0.002101929 0.0020088186 0.00258293
-0.00016303397 -0.0024935328 -0.0018052268 0.0018628788 -0.0058211503 0.00043793244 -0.00067063386 -0.001375988
-0.00203481 -0.00094494363 -0.0008665064 -0.0031424365 -0.0027212955 -0.0006469227 0.00034323585 0.00623788
-0.001493903 0.0035117168 0.00016363303 -0.00015025966 1.3165771e-05 -0.0005247713 0.00034362942 -0.00079061015
-2.6549347e-05 -0.00012674021 0.0002893455 0.00027276677 -0.00016845476 0.00072577235 0.00051324425 0.00011127211
-0.00044259668 -0.0009875016 -8.493671e-06 3.769323e-05 0.0014099445 0.0030498547 -0.001751372 0.0003860911
0.00036270203 0.00016708516 -0.0017953851 0.0001619693 0.0010145417 -0.0027219052 -0.00065448735 -0.0014591384
0.00041421174 0.00246778 0.00059014454 0.000103306986 0.0007649865 0.002097521 -0.00046957712 0.0005688946
0.0012924704 -0.0007184391 0.0015191094 -0.0014415977 -0.00023374677 0.0002260521 0.00093572226 -0.00014562269
-0.00075743283 0.00040425564 -0.00084869977 0.0018752045 0.0013925274 -0.00037456796 0.00062616944 -0.0006062606
-0.0011360651 -0.0013631261 -0.0016060049 0.0012615218 -0.0019366416 -0.00010358725 0.0011752538 -0.0027615947
-0.0013766936 6.492215e-05 0.00043347734 -0.00044964487 -0.0023298035 -0.00067853904 0.0013696194 0.003085002
-0.0011436434 0.00087843294 -0.0007337575 -0.00046712745 -0.00028719514 -1.6148355e-05 -0.0009818118 -0.00055436563
0.00016430921 -0.0011292992 -0.00028577773 -8.1960934e-05 -0.0005001291 -0.00043676404 -0.0010906027 0.00035294707
0.000640524 0.0015608794 -0.00043314867 0.0007184242 0.0015681413 0.0009736443 -0.00052986806 0.00081048306

exp_avg_sq f4 [128, 18]
00000000: 0b0c 2138 18fc 3938 1efe 2038 73b4 3f38
00000010: b1cc 2d38 173f 8538 7010 7b38 f34d 2238
00000020: 6fc9 e237 bab9 fc37 24a1 ae37 50b6 1838
00000030: 2c76 1038 c58d e437 e72c 9b38 70bb 6038
00000040: 54e0 9c38 d3ae 2638 c36d 0f39 002e 0739
00000050: 4bfe a538 4525 f738 b892 5039 2d36 3539
00000060: 5253 0239 b4c9 1639 010d 1939 4e09 d338
00000070: 807e cd38 2bfc 0e39 4cdc ae38 320c 8f38
00000080: 4b59 cf38 bca4 2939 835e b638 ef4a 2039
00000090: 0f76 9438 4f68 7038 863e 3538 7e42 9b38
000000a0: 4061 6538 2b49 bf38 2afc ae38 00e2 3938
000000b0: 6dde 6038 45aa 0338 f63c 1438 cbac 2638
000000c0: b2ff 3a38 ebb6 0138 d7b0 9e38 c6a1 7338
000000d0: 4171 d538 561d 6538 8214 3539 8318 df38
000000e0: 81fb eb38 0bef 2a39 d132 0439 1b0f 3f39
000000f0: 0fbd 2d39 2b79 f738 4bcc dd38 b27a b438
00000100: 4eb4 8938 9edb a638 5662 9838 ba35 6438
00000110: c9ae 0239 84ae 1939 910c 5339 e475 0c39
00000120: 8447 7037 2e52 0537 c34e 3d37 6b37 8537
00000130: b19e a837 b75c a937 38cb 6437 691e 7137
00000140: 82e7 2137 2beb 2b37 b260 4937 bd6e a437
00000150: 87a5 4937 6e9b 4537 79b5 4937 00a1 9137
00000160: 0f62 7137 da50 8d37 ad43 7138 f6b0 4c38
00000170: bc4d 0338 67fa 6d38 917e a538 ab73 c538
00000180: 4dae 9938 cf9d 9938 fa67 6f38 339d 4138
00000190: 9548 7138 7a0e 9438 225a 6938 ceeb 4638
000001a0: 1976 2838 5564 4c38 30ec 5c38 4e34 6b38
000001b0: 09d8 0538 bf7d 0d38 b9d1 5f37 9856 0b38
000001c0: 119f f137 c95d 1038 eb17 0638 664b d237
000001d0: 36c7 f237 20b3 8f37 0448 8637 df72 9137
000001e0: 5f7e 8337 e9aa 7637 96db af37 e05a 0438
000001f0: a789 1438 94e8 e237 a962 8c38 6810 2238
00000200: 9be0 2138 8daf a138 4a7b a738 582c b238
00000210: 7b78 4538 b49a a138 8345 3538 a610 2538
00000220: d863 9038 8c14 8538 64c7 0a38 c14d e437
00000230: c8be dc37 0448 4e38 fe25 8238 8e09 6338
00000240: 5279 6839 2b58 e238 33e0 0a39 e9e2 7439
00000250: eaf6 7a39 405a 8339 87ce 7139 637c 4d39
00000260: 3b0e 0b39 b45c 0e39 2995 fd38 1df1 2b39
00000270: 9c9b 0139 46d7 dc38 5364 9f39 de2f 8e39
00000280: 0294 c339 a548 6739 c856 6537 c1a1 3237
00000290: 9362 2a37 8eb0 7237 fdc7 6637 1445 8037
000002a0: d84a 6c37 1737 8537 f8f4 8237 1a19 1837
000002b0: 9b38 6837 342d 4d37 78ca 1737 746d 0b37
000002c0: beac 7137 a350 1c37 d385 6b37 ee5e 3a37
000002d0: b258 af38 5b5c bc38 ad36 4238 f27c a238
000002e0: 2e96 0039 c763 0339 8802 ae38 7b0c af38
000002f0: 14c1 b738 879f 8438 dcd2 7438 eab3 8f38
00000300: f05f 4b38 98ed 1838 f905 8138 9b31 dd38
00000310: 638a 8838 b725 da38 8b78 e437 bfc0 7a37
00000320: 2fb6 cf37 d1af cc37 48e9 1938 7767 1138
00000330: 4a2a e237 89bc 2f38 6b17 8137 53bc c437
00000340: 3e67 fd37 f303 2138 ece5 c137 df35 b637
00000350: eff6 e637 f61f b637 4f39 bd37 f145 d837
00000360: 3944 2a39 9d4d 1339 407b f938 ed4d 2739
00000370: 4e50 2139 7b33 5639 c76b 4839 8c8e fc38
00000380: 454a 0f39 f35d bc38 64c0 8f38 7a72 bd38
00000390: aace b338 9d2a 9138 7b17 4239 e202 5939
000003a0: 7f9d 7b39 a01f 2c39 3759 e837 0471 d937
000003b0: d682 d337 d07a d637 2f80 d137 332c 3138
000003c0: bfb6 0e38 22c3 9637 0aa1 9f37 4c85 7c37
000003d0: 0618 3537 561f a137 b406 7137 95b9 5b37
000003e0: 43b8 1d38 2f70 d237 8d29 3b38 95f0 d037
000003f0: af1b ca38 3dad a838 e2ec 5a38 9b98 b438
3.8396607e-05 4.4342218e-05 3.8383638e-05 4.5706005e-05 4.1437048e-05 6.3536856e-05 5.9858372e-05 3.8696406e-05
2.70351e-05 3.0127227e-05 2.0817453e-05 3.6409416e-05 3.444233e-05 2.7245735e-05 7.39934e-05 5.3580326e-05
7.480444e-05 3.9740302e-05 0.00013678432 0.0001289174 7.915179e-05 0.0001178482 0.00019891083 0.00017281687
0.00012428805 0.00014380255 0.00014596061 0.00010062997 9.798724e-05 0.00013636115 8.338e-05 6.821043e-05
9.887161e-05 0.00016178464 8.6960405e-05 0.00015286704 7.07918e-05 5.7317604e-05 4.3211992e-05 7.403361e-05
5.4688426e-05 9.121218e-05 8.343936e-05 4.4317916e-05 5.3612912e-05 3.139141e-05 3.5342724e-05 3.973841e-05
4.458399e-05 3.0926352e-05 7.566966e-05 5.8086378e-05 0.00010177727 5.4625176e-05 0.00017269145 0.00010638034
0.000112525195 0.00016301514 0.00012607432 0.00018220807 0.00016568995 0.00011800447 0.00010576154 8.6059226e-05
6.5662534e-05 7.956404e-05 7.266241e-05 5.4409473e-05 0.00012462879 0.00014656229 0.0002012721 0.00013395358
1.4321766e-05 7.946552e-06 1.1283616e-05 1.5880642e-05 2.0101057e-05 2.0189544e-05 1.3637175e-05 1.43718e-05
9.65025e-06 1.0247149e-05 1.2003047e-05 1.960189e-05 1.2019073e-05 1.1778304e-05 1.2022786e-05 1.7360318e-05
1.438755e-05 1.684616e-05 5.7521906e-05 4.8802198e-05 3.130523e-05 5.673841e-05 7.891388e-05 9.415237e-05
7.3280746e-05 7.325003e-05 5.7078876e-05 4.616119e-05 5.7526475e-05 7.0598864e-05 5.563547e-05 4.742649e-05
4.016431e-05 4.873083e-05 5.2672054e-05 5.607708e-05 3.191087e-05 3.373413e-05 1.3340666e-05 3.322083e-05
2.880351e-05 3.441962e-05 3.1970365e-05 2.5069061e-05 2.8941413e-05 1.713034e-05 1.600758e-05 1.7338838e-05
1.5675263e-05 1.4702536e-05 2.0963878e-05 3.1555886e-05 3.541415e-05 2.7049602e-05 6.694097e-05 3.863909e-05
3.859457e-05 7.709777e-05 7.986145e-05 8.495961e-05 4.7080666e-05 7.705894e-05 4.32185e-05 3.935457e-05
6.8850524e-05 6.345761e-05 3.308746e-05 2.7215925e-05 2.6314883e-05 4.9181297e-05 6.20596e-05 5.4129916e-05
0.0002217044 0.00010792942 0.00013244226 0.00023354184 0.0002393384 0.0002505351 0.00023060488 0.00019596661
0.00013261374 0.0001357671 0.00012091763 0.00016397653 0.00012360368 0.00010530515 0.0003040159 0.00027120014
0.00037303573 0.00022056939 1.3669669e-05 1.0647288e-05 1.0155741e-05 1.4465431e-05 1.3755632e-05 1.5290956e-05
1.4084122e-05 1.5880489e-05 1.561128e-05 9.06575e-06 1.3841457e-05 1.2229477e-05 9.047442e-06 8.31053e-06
1.4404939e-05 9.317099e-06 1.403825e-05 1.11085665e-05 8.361171e-05 8.981741e-05 4.6304125e-05 7.748035e-05
0.00012262978 0.00012530304 8.297438e-05 8.346975e-05 8.7620836e-05 6.323965e-05 5.837051e-05 6.852283e-05
4.848832e-05 3.64609e-05 6.152312e-05 0.00010547341 6.510762e-05 0.00010402075 2.723585e-05 1.4946038e-05
2.4761159e-05 2.4400566e-05 3.6695303e-05 3.4667053e-05 2.6960992e-05 4.189884e-05 1.5388903e-05 2.3452716e-05
3.0208026e-05 3.838907e-05 2.3114459e-05 2.1721176e-05 2.7533124e-05 2.1710974e-05 2.2557242e-05 2.5781776e-05
0.00016237878 0.00014047926 0.00011896202 0.0001595539 0.00015384072 0.00020427808 0.00019113637 0.00012042848
0.0001366521 8.982038e-05 6.854607e-05 9.033545e-05 8.573879e-05 6.922076e-05 0.00018510029 0.00020695807
0.00023995897 0.0001641498 2.7698099e-05 2.5921043e-05 2.5214085e-05 2.5567977e-05 2.4974432e-05 4.2241252e-05
3.4025634e-05 1.797226e-05 1.9029267e-05 1.5051406e-05 1.0794034e-05 1.9207288e-05 1.436628e-05 1.3096626e-05
3.7603324e-05 2.508619e-05 4.462297e-05 2.4907562e-05 9.637267e-05 8.0431324e-05 5.2195865e-05 8.611494e-05

exp_avg f4 [128]
00000000: 8906 3f3a d5e2 2fbb f97e 173b 37c8 55bb
00000010: 0682 f73a 23ba 783b 5d5c eb3a 04fd 723b
00000020: f58b 6e3b 6112 7438 ef4f 093b 9c35 83ba
00000030: 553d cbb9 74d9 b638 8497 ab3a 5cef 8bba
00000040: f324 eb38 ccce 253b 6774 08bb f0b0 903b
00000050: 8ee9 3d3a b3d9 133b f632 203b b5b4 d9b9
00000060: ff12 52ba 2aba 70b9 c386 87b9 ed88 37ba
00000070: 8391 9dba ef4c 963a 85fb 943a 0c6b 8bbb
00000080: 3266 603b becd c1bb c8df 0d3b aaf6 dfba
00000090: 6442 5ebb 8f5b 4bbb 9c96 3a3a d752 fb3a
000000a0: 4b4f f93a 5f30 80ba 8f6a 9bba f7dc 60ba
000000b0: 5d50 37b9 c225 dfba 075f 213a 5899 22ba
000000c0: 1e02 b639 edd1 0db9 64a1 ce3a 63c0 22bb
000000d0: 523f 033b c2dc 6bbb a644 7f3a 7111 ecba
000000e0: f12e 9b3a 0fee 233b 0d6e 1abb 1130 c4ba
000000f0: 7773 72bb fe6b 273b 3f52 2fba 47e5 96b9
00000100: e064 573a d171 293b 4e77 ecba 501d d3ba
00000110: 635f 303a bb7b fb38 1d36 34ba 02e1 c7b8
00000120: 0ecd abbb 35c9 20ba 7b7d 523a aeae ac3a
00000130: 34e9 9538 2036 2abb db11 94ba 8ccb 92ba
00000140: 6640 6b3a 87c3 3b3a 2f54 ca3a 5b9f ac3a
00000150: 3468 ffb8 dd04 293b 8b83 003a 2708 b2ba
00000160: 4349 f13a 7e4f 5b3a 3a67 173b 0007 a6bb
00000170: 17ba 0aba ebdc ff3a ed5f 083b 7885 bc3a
00000180: 7da7 74ba d409 a33b 0935 853b fe9a 863a
00000190: d642 c13a 8c7a 043b 6cd0 b1ba 75ba 723b
000001a0: 4630 8db9 5dd0 0b3b 7ff9 a3ba 5552 91ba
000001b0: a007 23ba b328 33ba be01 223a b770 7b39
000001c0: b987 083a 96c7 bc3b f863 05ba a242 da39
000001d0: 8aad 5b3b 3474 ae3a 5ca1 a9ba 1760 1c3b
000001e0: 9092 0fb8 a696 b339 a449 0a3a 3b0b 043a
000001f0: 6327 be3a febf 463b 2ceb e039 c467 893a
0.00072870456 -0.0026838083 0.0023116453 -0.0032620558 0.0018883354 0.0037952743 0.0017956604 0.0037077079
0.003639934 5.819125e-05 0.0020952185 -0.0010010484 -0.00038764873 8.71894e-05 0.001309142 -0.0010676193
0.000112125555 0.0025300262 -0.0020821334 0.004415624 0.000724458 0.0022560179 0.0024444438 -0.00041524103
-0.0008013695 -0.00022957535 -0.00025849612 -0.00070012995 -0.0012021515 0.001146702 0.0011366463 -0.0042547043
0.00342406 -0.005914419 0.0021648277 -0.0017087061 -0.0033914084 -0.0031029915 0.00071177795 0.0019174468
0.0019020824 -0.0009780041 -0.0011857318 -0.0008577848 -0.00017482178 -0.0017024803 0.0006155823 -0.00062026596
0.00034715323 -0.00013525011 0.0015764651 -0.002483391 0.0020026756 -0.0035989736 0.00097377074 -0.0018010569
0.0011839551 0.002501372 -0.002356413 -0.0014967938 -0.0036995092 0.0025546546 -0.0006687976 -0.00028781054
0.00082166307 0.0025855193 -0.0018040927 -0.0016106758 0.0006728081 0.00011991659 -0.00068745186 -9.5309704e-05
-0.0052429503 -0.0006133498 0.00080295623 0.0013174617 7.148311e-05 -0.0025972202 -0.0011296825 -0.0011199578
0.00089741347 0.000716262 0.0015436466 0.001317005 -0.00012178757 0.0025790252 0.0004902414 -0.0013582752
0.0018408675 0.0008366032 0.00231023 -0.0050667524 -0.0005292012 0.0019520795 0.002080913 0.0014383039
-0.0009332819 0.004975537 0.00406516 0.001026958 0.001474465 0.0020214645 -0.0013566143 0.0037037407
-0.00026929582 0.002133391 -0.0012510269 -0.0011087159 -0.0006219093 -0.0006834373 0.0006180069 0.00023979215
0.00052082125 0.005761097 -0.0005088444 0.00041629846 0.0033520185 0.0013309778 -0.0012941766 0.0023860985
-3.4230354e-05 0.00034253782 0.00052752555 0.0005037074 0.0014507588 0.0030326839 0.00042899826 0.0010483195
