runs/BallBalance_19-15-10-14/nn/BallBalance.pth (torch, 172255 bytes, 36 tensors)

value_mean_std.running_mean f8 [1]
0.23790021312278042
00000000: 5c71 89a1 8373 ce3f

value_mean_std.running_var f8 [1]
0.015281268160053938
00000000: c523 e917 c94b 8f3f

value_mean_std.count f8 []
65025.0
00000000: 0000 0000 20c0 ef40

running_mean_std.running_mean f8 [18]
-0.07429350535418681 0.07263322704443084 -0.04945883286413766 -0.04660618382472296 0.09873520140870555 -0.07715062432526643 -0.093362444794093 -0.2901108761675827
0.27813944458370304 -0.07668936189209169 -0.20886454834782003 0.190797568150354 -0.08538012286255223 -0.15709915920247355 0.10511859614960388 0.102412494047099
-0.059129016495802475 0.01667774425423448
00000000: bb2a cd2f e604 b3bf f63e c256 1798 b23f
00000010: c0b2 4c0b ab52 a9bf e518 a306 c4dc a7bf
00000020: 53ad 03cd b546 b93f f0ce 57b0 24c0 b3bf
00000030: 3cb3 10e7 99e6 b7bf 96a2 5635 2d91 d2bf
00000040: 27bc 8d62 09cd d13f 9413 47fd e9a1 b3bf
00000050: 2a4e 39d2 12bc cabf 5959 ae01 0e6c c83f
00000060: d651 6cc3 78db b5bf f179 8043 d31b c4bf
00000070: 9bfa a964 0de9 ba3f 6353 a288 b437 ba3f
00000080: fe2f 3090 2846 aebf b56b 9278 f813 913f

running_mean_std.running_var f8 [18]
0.11809834477567316 0.029014701474122058 0.07596314548764925 0.14091287408062778 0.04935565833202978 0.0184445786723248 0.009468260736728396 1.50459969033629
0.3783979620963797 1.41804600239736 2.1767669388970723 0.6489165468987271 1.0036796919608117 1.273773210259608 0.007501752554543083 0.005001079669336376
0.02391628158329283 0.021486081807713053
00000000: a0f3 8570 b13b be3f 92fc bca7 07b6 9d3f
00000010: 3f1c 9219 5272 b33f 277e e1dc 6e09 c23f
00000020: 5b36 d114 2545 a93f f199 beb8 22e3 923f
00000030: 5ac8 b671 1864 833f b70e f91f d712 f83f
00000040: 8bed 0416 ac37 d83f bc52 4801 51b0 f63f
00000050: 9b9d ecc8 046a 0140 d16c 58a2 ecc3 e43f
00000060: be18 ca6f 120f f03f 0b60 8904 6061 f43f
00000070: e5b1 265e 28ba 7e3f 77e9 fd19 037c 743f
00000080: 5cfb f77c 827d 983f 20b5 bb8a 7200 963f

running_mean_std.count f8 []
32513.0
00000000: 0000 0000 40c0 df40

a2c_network.sigma f4 [7]
-0.102905355 -0.12968515 -0.16430868 -0.22338818 -0.1244786 0.029324772 0.05154192
00000000: 0bc0 d2bd 2fcc 04be 8940 28be dfbf 64be
00000010: a3ee febd 813a f03c 9f1d 533d

a2c_network.actor_mlp.0.weight f4 [128, 18]
-0.16955735 0.12006035 -0.054318808 0.03844753 -0.09805395 0.19853 -0.1638523 -0.27361548
-0.06691466 -0.11143212 0.06352945 -0.1986522 0.19678171 -0.21793658 0.29983467 0.12545459
-0.09417352 0.10222038 0.044967555 0.29727295 0.08055721 -0.19511405 0.008160504 -0.10430916
0.15781559 0.35401773 0.16996007 -0.026524663 -0.006340281 -0.033657808 0.07601294 -0.08899008
-0.59644693 -0.11407159 -0.12267273 0.1381921 0.04070057 0.14906639 0.058465064 -0.03227076
0.24267946 -0.17662397 0.07632121 -0.1461621 0.057454187 -0.07767548 0.03949728 -0.076676965
0.24938627 -0.12074442 -0.2259352 -0.22074606 0.30156988 0.00071615854 0.26921308 0.049743246
-0.36431944 -0.23784533 -0.37158227 0.13028714 -0.022820998 0.30056626 0.037449434 -0.259004
0.076545544 -0.16167347 0.16147165 -0.04081354 -0.07486199 -0.109967366 -0.06870466 0.05630745
0.15753292 -0.18619831 0.08849286 0.19437282 -0.1473785 -0.16519327 0.14282018 -0.05338674
-0.100429386 -0.23984133 -0.12026982 0.084251285 -0.008407303 -0.09207252 0.041981217 -0.3175593
-0.2179587 -0.14642666 -0.18098551 -0.252474 0.30741018 0.06562413 0.104604244 -0.26174954
-0.1448136 -0.19045925 0.019506542 -0.2154153 0.024538022 -0.10278069 0.044587202 -0.12783308
0.018254397 -0.35308206 -0.19975148 -0.116093695 -0.06522006 -0.24674511 0.30518094 -0.062211316
0.24857908 0.098837174 -0.13088445 0.16888893 -0.087245665 -0.07145171 -0.2390045 -0.30108085
0.0744597 -0.029423667 0.3421857 -0.40060884 0.117702834 -0.14591536 -0.0976644 0.04595611
0.21897432 0.27375126 0.2033854 -0.21055354 -0.037413027 -0.2580445 -0.10114687 -0.09942592
0.31392542 -0.14204876 0.07286018 0.01594235 0.20789647 -0.20953554 0.15683492 0.039399017
-0.012492969 -0.27253342 0.23722911 -0.16557851 -0.021093212 0.19687955 0.12629586 -0.22833207
-0.09624404 0.017821742 0.32114986 -0.05896372 -0.06741097 -0.05424929 -0.2573526 0.19100882
0.1480487 -0.2078743 0.0048753726 0.101083845 0.02742005 -0.07112399 0.24917032 0.15846317
0.1929365 -0.032786753 -0.06946639 0.003386534 -0.04720934 -0.08472775 0.07557562 0.19439685
-0.11706364 0.10001743 0.074488774 -0.028460657 -0.0036508527 0.06523136 -0.1679215 -0.13771705
0.36234292 0.11863265 0.05389949 -0.15576872 -0.2419082 -0.23228475 -0.06612856 0.0718657
0.07704143 0.044510722 -0.34210116 -0.1908337 -0.0380259 0.13829346 0.016526513 -0.01354373
0.0953173 -0.10742623 -0.07961527 0.11286096 -0.13781615 -0.14150774 -0.21665588 0.29100323
0.23617047 0.052679777 -0.15014265 -0.20342702 -0.38352504 0.29915133 0.13225804 0.20769891
0.122170225 -0.009607317 0.08888489 -0.26909044 -0.27896455 -0.14547355 0.084815465 -0.05762248
-0.018494384 -0.122511126 -0.07228146 -0.066878155 -0.10844061 0.09239665 -0.33501077 0.28171587
-0.15240836 -0.122717336 -0.12999259 -0.02867794 -0.10357866 -0.36197057 0.121866085 -0.20338507
0.113407016 0.21745946 0.1873796 -0.2406915 0.012697941 -0.14208129 0.16284133 0.2231977
-0.26518762 -0.20960534 -0.017336696 -0.19772813 0.14317398 -0.3797854 0.11844439 0.17205301
00000000: 71a0 2dbe 33e2 f53d 667d 5ebd 287b 1d3d
00000010: 82d0 c8bd 734b 4b3e e6c8 27be 5417 8cbe
00000020: 8e0a 89bd 8636 e4bd ba1b 823d 7b6b 4bbe
00000030: 2581 493e c42a 5fbe ee83 993e 2b77 003e
00000040: 0cde c0bd eb58 d13d e62f 383d 2934 983e
00000050: 2efb a43d facb 47be a2b3 053c 0aa0 d5bd
00000060: 699a 213e d041 b53e 030a 2e3e 404a d9bc
00000070: 22c2 cfbb c5dc 09bd acac 9b3d 6e40 b6bd
00000080: bfb0 18bf 5e9e e9bd d73b fbbd 3b82 0d3e
00000090: a4b5 263d dca4 183e 1079 6f3d 582e 04bd
000000a0: f780 783e eadc 34be 4b4e 9c3d 84ab 15be
000000b0: 1555 6b3d 5214 9fbd e6c7 213d d008 9dbd
000000c0: 1d5f 7f3e da48 f7bd 8f5b 67be 410b 62be
000000d0: 5e67 9a3e 96bc 3b3a 4cd6 893e 93bf 4b3d
000000e0: 1488 babe ba8d 73be 0840 bebe fe69 053e
000000f0: 1af3 babc d2e3 993e 9464 193d 2c9c 84be
00000100: e9c3 9c3d bb8d 25be d358 253e 192c 27bd
00000110: 3e51 99bd 9236 e1bd 07b5 8cbd a4a2 663d
00000120: 4f50 213e c5aa 3ebe bf3b b53d ab09 473e
00000130: 64ea 16be 6d28 29be 743f 123e 0eac 5abd
00000140: ecad cdbd f798 75be 0650 f6bd f08b ac3d
00000150: c9be 09bc 8490 bcbd 7ff4 2b3d 2297 a2be
00000160: 9130 5fbe dff0 15be 4454 39be 4644 81be
00000170: de64 9d3e f265 863d c03a d63d 0904 86be
00000180: 044a 14be c007 43be 2fcc 9f3c d495 5cbe
00000190: f603 c93c af7e d2bd 12a1 363d ade6 02be
000001a0: 3f8a 953c 2cc7 b4be a78b 4cbe 88c2 edbd
000001b0: 1892 85bd c0aa 7cbe ad40 9c3e 4bd1 7ebd
000001c0: 848b 7e3e 256b ca3d 9306 06be 38f1 2c3e
000001d0: dbad b2bd 4655 92bd 98bd 74be 4527 9abe
000001e0: 547e 983d e709 f1bc f732 af3e 9a1c cdbe
000001f0: 2f0e f13d d66a 15be 4604 c8bd 793c 3c3d
00000200: ce3a 603e 2029 8c3e 4344 503e 599b 57be
00000210: 673e 19bd 691e 84be 1726 cfbd d19f cbbd
00000220: d5ba a03e 3b75 11be b837 953d 8899 823c
00000230: d0e2 543e 7c90 56be 5599 203e dd60 213d
00000240: 4faf 4cbc 8089 8bbe 30ec 723e 6a8d 29be
00000250: accb acbc cb9a 493e b453 013e e2cf 69be
00000260: 981b c5bd e7fe 913c c16d a43e f183 71bd
00000270: c30e 8abd 8134 5ebd b8c3 83be d197 433e
00000280: 149a 173e 00dd 54be 97c1 9f3b 0c05 cf3d
00000290: 03a0 e03c 74a9 91bd 8126 7f3e 2b44 223e
000002a0: 2591 453e 674b 06bd 6544 8ebd 9df0 5d3b
000002b0: 955e 41bd be85 adbd 64c7 9a3d f80f 473e
000002c0: 10bf efbd f0d5 cc3d 928d 983d 5326 e9bc
000002d0: 2543 6fbb 0598 853d 9df3 2bbe b305 0dbe
000002e0: 0385 b93e adf5 f23d b6c5 5c3d d681 1fbe
000002f0: c8b6 77be 0edc 6dbe 696e 87bd 532e 933d
00000300: e6c7 9d3d e050 363d e227 afbe e969 43be
00000310: 0cc1 1bbd cd9c 0d3e 9c62 873c 85e6 5dbc
00000320: b735 c33d 4902 dcbd 550d a3bd a623 e73d
00000330: ad1f 0dbe 68e7 10be 0adb 5dbe 60fe 943e
00000340: acd6 713e c0c6 573d ffbe 19be 2c4f 50be
00000350: 655d c4be 5d2a 993e a76e 073e 06af 543e
00000360: 6234 fa3d 0268 1dbc 4809 b63d 39c6 89be
00000370: 71d4 8ebe 05f7 14be bbb3 ad3d 8d05 6cbd
00000380: 8981 97bc 1de7 fabd 4d08 94bd 6af7 88bd
00000390: 1c16 debd 743a bd3d 8886 abbe 103d 903e
000003a0: f010 1cbe 3a53 fbbd c71c 05be 00ee eabc
000003b0: 0c21 d4bd 3554 b9be ed94 f93d 2d44 50be
000003c0: f041 e83d b1ad 5e3e 70e0 3f3e d577 76be
000003d0: 060b 503c c27d 11be e1bf 263e f08d 643e
000003e0: acc6 87be c8a2 56be b005 8ebc 3e79 4abe
000003f0: 339c 123e 3b73 c2be f992 f23d aa2e 303e

a2c_network.actor_mlp.0.bias f4 [128]
-0.1748198 -0.144218 0.08320399 -0.1665229 0.052960902 0.005763006 -0.016078549 -0.14863409
0.11568782 0.051533636 -0.09419707 0.102979556 -0.15718842 0.09081197 0.03280879 0.05774491
-0.059907887 -0.1944872 -0.18608347 0.10987689 0.037671287 0.021816079 0.014382712 -0.11096462
-0.0437507 -0.116000876 0.13963826 -0.16650791 -0.07231479 0.03919118 -0.11514921 -0.08927181
-0.26990148 -0.0351177 0.031750403 -0.1514373 0.029994946 -0.078113176 0.038181532 -0.18584469
-0.01783296 -0.12430611 -0.038177546 0.06940896 -0.012777996 -0.062737204 -0.1492647 -0.041486185
-0.1686409 -0.11047377 0.05415249 -0.14931908 0.065326825 0.0142027205 -0.17433241 0.05044531
0.10178001 0.005956054 0.10792876 -0.17181903 -0.032135546 -0.12267604 -0.052242715 0.025032427
-0.064447865 -0.10654405 0.06709287 -0.17071128 -0.09979301 -0.12545516 -0.105268896 -0.20986113
-0.0007309337 -0.15683064 0.054546736 -0.1880626 -0.010973213 -0.11191401 -0.07220346 -0.038046952
-0.029987652 -0.03885177 0.04051628 0.07370184 -0.14376085 0.005528987 0.07385711 0.04605646
0.09321138 -0.058979966 -0.1565187 0.12012661 -0.004169674 -0.22970544 -0.14010498 0.11196956
-0.063580275 -0.024651362 0.055606887 -0.0066048573 0.061151966 -0.14319286 -0.09796454 -0.09997972
-0.11234134 -0.120387375 -0.13840756 -0.18031229 -0.045207765 0.13294537 0.12690917 0.027890896
-0.16845632 0.035378236 -0.02252279 0.17915055 -0.044230636 -0.07033318 -0.3004655 0.021423677
-0.12588105 -0.042889256 -0.21664399 0.15617673 -0.055369694 -0.03785205 0.08220524 0.035803106
00000000: f603 33be e2ad 13be da66 aa3d fb84 2abe
00000010: 88ed 583d 99d7 bc3b 29b7 83bc 8933 18be
00000020: bced ec3d ef14 533d 65ea c0bd f2e6 d23d
00000030: 00f6 20be a0fb b93d 8362 063d ed85 6c3d
00000040: f961 75bd a727 47be aa8c 3ebe 2307 e13d
00000050: 354d 1a3d a2b7 b23c 77a5 6b3c 6b41 e3bd
00000060: ef33 33bd de91 edbd 55fd 0e3e 0d81 2abe
00000070: c719 94bd ee86 203d 59d3 ebbd 24d4 b6bd
00000080: 8730 8abe 94d7 0fbd b60c 023d 6112 1bbe
00000090: f6b7 f53c cdf9 9fbd 3d64 1c3d 124e 3ebe
000000a0: 6d16 92bc 3494 febd 0f60 1cbd 4926 8e3d
000000b0: cd5a 51bc 5d7c 80bd d8d8 18be 6bed 29bd
000000c0: 33b0 2cbe 1240 e2bd 00cf 5d3d 1ae7 18be
000000d0: 12ca 853d 87b2 683c 3284 32be be9f 4e3d
000000e0: 0a72 d03d 012b c33b c109 dd3d 54f1 2fbe
000000f0: 90a0 03bd 933d fbbd 75fc 55bd ce10 cd3c
00000100: 3efd 83bd c433 dabd fd67 893d f0ce 2ebe
00000110: 4760 ccbd 5177 00be 3897 d7bd d6e5 56be
00000120: 219c 3fba 3698 20be 666c 5f3d 7b93 40be
00000130: fec8 33bc 2c33 e5bd 68df 93bd 1fd7 1bbd
00000140: aaa8 f5bc 0923 1fbd 66f4 253d fef0 963d
00000150: 0b36 13be 812c b53b 6642 973d b3a5 3c3d
00000160: 9ce5 be3d fa94 71bd 7046 20be f104 f63d
00000170: c3a1 88bb e737 6bbe ae77 0fbe 4c50 e53d
00000180: 6036 82bd a7f1 c9bc 0cc4 633d 8f6d d8bb
00000190: 7c7a 7a3d 26a1 12be a2a1 c8bd 2bc2 ccbd
000001a0: 3713 e6bd a88d f6bd b6ba 0dbe c9a3 38be
000001b0: c72b 39bd d522 083e 7af4 013e 737b e43c
000001c0: d07f 2cbe c5e8 103d b781 b8bc 3e73 373e
000001d0: 2f2b 35bd d80a 90bd 9dd6 99be b580 af3c
000001e0: f6e6 00be a5ac 2fbd ecd7 5dbe cbec 1f3e
000001f0: 55cb 62bd c00a 1bbd 395b a83d 47a6 123d

a2c_network.actor_mlp.2.weight f4 [64, 128]
0.19635446 0.14816429 -0.12258724 -0.022096917 -0.18304542 -0.08186054 0.027936654 0.057189573
0.106865205 -0.053054612 0.0009002129 0.0013544384 0.2149259 0.014658706 -0.08098265 -0.09156692
-0.0024227898 0.0006047343 0.20017771 -0.2516339 -0.030322976 -0.23155238 -0.031234557 0.1044079
-0.12685977 -0.03815936 -0.019974379 0.08036177 0.091670126 -0.10175355 0.01575272 0.06612163
0.2608341 0.0957393 -0.05522411 0.1554124 0.02321118 0.15045168 0.08539726 0.22075753
-0.09739054 0.20924316 0.15832514 -0.07363811 -0.039670598 -0.03421258 0.0144095365 0.15227897
0.09717471 0.052486174 -0.0005512142 -0.03637853 -0.15597333 0.028924854 -0.027784923 -0.025255239
0.02887453 -0.03363985 -0.048372094 0.040011827 -0.009884441 0.26051196 -0.009068724 0.036384754
0.075663924 0.061006967 -0.02567551 0.20865373 0.13440377 0.041574012 -0.06632168 0.19085695
-0.013728578 0.07882325 -0.10563256 0.03237551 0.014212698 -0.004870494 0.21903095 0.03644987
0.06754435 0.0039244364 0.0057038977 -0.025938706 -0.002888329 -0.004652063 0.020752618 0.15938005
-0.079199135 0.029096313 0.04932413 0.11025054 0.04608687 0.21483754 0.020231733 -0.22273992
-0.044091433 -0.010545976 -0.17170231 0.20641835 -0.13101952 0.08224433 0.26207063 -0.057437066
0.07132477 -0.13432917 0.021931605 0.11344326 0.059258826 -0.07567193 -0.15941606 0.12972109
0.2672432 -0.05444536 0.08426911 -0.06815822 0.02412763 0.07621626 0.19982806 0.085180275
-0.015175494 0.029190464 0.06373254 0.07759494 0.020417193 -0.14317659 0.011827918 -0.18334031
-0.029180672 0.025451336 -0.076600686 0.056358084 0.09771608 -0.04550436 0.0017986149 -0.0657558
0.061985917 -0.03567619 0.093081385 -0.061280183 0.031215236 -0.013640594 0.06886858 -0.060369015
0.00055788417 0.063326746 0.061799053 -0.031242372 0.19978099 -0.0692095 -0.033777207 -0.03652491
0.110886514 0.17819472 -0.09443403 0.10519492 -0.06354917 -0.06021021 0.05621143 -0.0345212
0.24954043 0.0017487544 -0.029914781 0.021981258 0.0048915967 -0.0034630764 0.04983111 0.15247345
0.05630457 -0.084624656 -0.05879259 -0.017620062 -0.091857955 0.057112686 -0.071937956 0.0035188845
-0.0007455198 0.09270233 -0.08779219 -0.093270056 0.07965923 0.032773126 0.122915536 0.1707565
-0.13718317 -0.053444844 0.015591029 0.077169225 0.05127677 0.073595524 0.007506043 -0.027514642
0.13447231 0.11461427 -0.10141712 0.04107734 0.055477325 0.023887211 0.016311167 0.023864677
-0.052663647 0.062638134 0.06773195 -0.066087425 -0.15228327 -0.12732616 0.015298232 -0.15287301
0.0037483787 0.05374359 -0.11268111 -0.07682282 -0.11639361 -0.061078314 -0.06603084 -0.09416056
-0.15214269 -0.029176136 0.06351103 0.048606213 -0.067119576 0.11376647 -0.023790088 -0.17630342
-0.040446956 -0.070896536 -0.027226547 -0.03932739 0.021138426 -0.11427295 0.069201805 -0.0035106363
0.033213247 -0.021604722 0.00083621155 0.14955801 -0.028756915 -0.06352692 -0.16496274 0.015331266
0.13413057 0.052914944 0.00095585006 -0.10161281 0.01577654 0.062636584 0.1559828 -0.0885518
-0.035842236 -0.1168395 0.08766823 0.010513853 -0.03989355 0.10217918 -0.024310274 -0.010469054
00000000: 2511 493e 61b8 173e 050f fbbd 9804 b5bc
00000010: 4270 3bbe 80a6 a7bd 69db e43c 9d3f 6a3d
00000020: 25dc da3d cb4f 59bd 44fc 6b3a 6987 b13a
00000030: 8915 5c3e 122b 703c 3bda a5bd 7087 bbbd
00000040: abc7 1ebb 0887 1e3a 63fb 4c3e 29d6 80be
00000050: e467 f8bc 111c 6dbe 9ddf ffbc cfd3 d53d
00000060: 87e7 01be fd4c 1cbd 4fa1 a3bc b694 a43d
00000070: 8cbd bb3d 2a64 d0bd d90b 813c c76a 873d
00000080: 0c8c 853e f712 c43d ad32 62bd 6e24 1f3e
00000090: 5f25 be3c 0110 1a3e c2e4 ae3d 430e 623e
000000a0: b174 c7bd d743 563e fc1f 223e 94cf 96bd
000000b0: a37d 22bd 7e22 0cbd fa15 6c3c 05ef 1b3e
000000c0: 8903 c73d befb 563d 5c7f 10ba a701 15bd
000000d0: 79b7 1fbe d1f3 ec3c 359d e3bc 13e4 cebc
000000e0: 478a ec3c f0c9 09bd d121 46bd 71e3 233d
000000f0: 5af2 21bc d361 853e fc94 14bc 2e08 153d
00000100: b0f5 9a3d 71e2 793d 7255 d2bc 53a9 553e
00000110: 24a1 093e 8349 2a3d a9d3 87bd 0170 433e
00000120: d4ed 60bc 166e a13d e255 d8bd 2f9c 043d
00000130: 60dc 683c aa98 9fbb a649 603e 754c 153d
00000140: b154 8a3d 8f98 803b c3e7 ba3b 697d d4bc
00000150: 1f4a 3dbb 5570 98bb 6501 aa3c 8634 233e
00000160: 2833 a2bd 645b ee3c 1908 4a3d 09cb e13d
00000170: 96c5 3c3d 5ffe 5b3e 05bd a53c ef15 64be
00000180: 3899 34bd 08c9 2cbc bbd2 2fbe 555f 533e
00000190: fb29 06be b76f a83d 1f2e 863e 2143 6bbd
000001a0: b912 923d 968d 09be e9a9 b33c f154 e83d
000001b0: 62b9 723d e3f9 9abd f73d 23be 9bd5 043e
000001c0: 1ad4 883e 1902 5fbd 4895 ac3d 8996 8bbd
000001d0: 4fa7 c53c 4517 9c3d ba9f 4c3e ff72 ae3d
000001e0: a3a2 78bc d720 ef3c 3586 823d 19ea 9e3d
000001f0: f541 a73c e29c 12be e2c9 413c 90bd 3bbe
00000200: 4e0c efbc 527f d03c d2e0 9cbd bcd7 663d
00000210: 5e1f c83d c862 3abd 80bf eb3a faaa 86bd
00000220: f2e4 7d3d 3221 12bd 74a1 be3d ee00 7bbd
00000230: 18b7 ff3c cc7c 5fbc f80a 8d3d 8045 77bd
00000240: f93e 123a 74b1 813d 0121 7d3d 01f0 ffbc
00000250: 6393 4c3e b6bd 8dbd f859 0abd 259b 15bd
00000260: 7818 e33d ad78 363e a166 c1bd 6f70 d73d
00000270: 1126 82bd fb9e 76bd f53d 663d 1a66 0dbd
00000280: 8787 7f3e 7636 e53a d80f f5bc 0a12 b43c
00000290: b049 a03b c8f4 62bb b51b 4c3d 0022 1c3e
000002a0: 9f9f 663d b14f adbd 80d0 70bd f357 90bc
000002b0: 0620 bcbd feee 693d 3554 93bd 169d 663b
000002c0: fd6e 43ba b8da bd3d 64cc b3bd 5f04 bfbd
000002d0: 6124 a33d 1d3d 063d 24bb fb3d cbda 2e3e
000002e0: bf79 0cbe fbe8 5abd 8471 7f3c e60a 9e3d
000002f0: 9707 523d 40b9 963d 41f5 f53b 6366 e1bc
00000300: 1cb3 093e e3ba ea3d c7b3 cfbd b640 283d
00000310: 313c 633d 1daf c33c ff9e 853c db7f c33c
00000320: d6b5 57bd 6c48 803d 0cb7 8a3d d858 87bd
00000330: 25f0 1bbe ca61 02be 70a5 7a3c be8a 1cbe
00000340: 5ca7 753b 3d22 5c3d 5bc5 e6bd 4855 9dbd
00000350: c65f eebd 412d 7abd 2d3b 87bd 40d7 c0bd
00000360: 4bcb 1bbe cb02 efbc 1212 823d 4f17 473d
00000370: fd75 89bd 65fe e83d 6ee3 c2bc e288 34be
00000380: b5ab 25bd 3432 91bd 350a dfbc c215 21bd
00000390: 7e2a ad3c f007 eabd adb9 8d3d b412 66bb
000003a0: 9d0a 083d 63fc b0bc 3535 5b3a bc25 193e
000003b0: 9f93 ebbc 671a 82bd feeb 28be fe2f 7b3c
000003c0: 8659 093e 57bd 583d 0392 7a3a 601a d0bd
000003d0: cd3d 813c 9c47 803d f5b9 1f3e a55a b5bd
000003e0: 4fcf 12bd 8c49 efbd 678b b33d 4c42 2c3c
000003f0: 6b67 23bd 5143 d13d 5726 c7bc 6586 2bbc

a2c_network.actor_mlp.2.bias f4 [64]
-0.2747892 -0.20631614 -0.046678346 -0.054711796 -0.17614818 -0.102069974 -0.14274287 0.06309641
0.012702708 0.16421688 -0.07398573 -0.12941937 -0.19384864 -0.28182977 -0.10208269 0.1468071
0.0135775 -0.12437995 0.17855877 0.041816846 -0.080278985 0.0011477304 -0.034270376 0.09108653
-0.088363156 -0.027416576 -0.13006552 0.086237796 0.016740557 -0.04151237 -0.08001129 -0.021694854
-0.20139915 -0.13186817 -0.10607192 0.072557844 -0.036008418 0.019369762 0.0527373 -0.23209718
0.042839 0.09945408 -0.033419672 0.03271156 -0.101119556 0.051668625 -0.07593647 0.054856505
0.06788428 -0.070107155 0.0024090754 0.028064854 -0.090638354 0.099160805 0.15233508 0.04273156
-0.0044707167 0.052947957 0.079529814 -0.21170919 -0.0056097945 0.030261785 -0.104683556 -0.02893574
00000000: 2cb1 8cbe 8a44 53be cb31 3fbd 7a19 60bd
00000010: 3060 34be 100a d1bd 302b 12be b138 813d
00000020: 051f 503c 7828 283e d585 97bd 8386 04be
00000030: 4280 46be fe4b 90be bb10 d1bd 9a54 163e
00000040: 2a74 5e3c eaba febd 1cd8 363e 2448 2b3d
00000050: 4f69 a4bd 716f 963a 185f 0cbd 938b ba3d
00000060: bef7 b4bd ba98 e0bc e52f 05be 719d b03d
00000070: 7e23 893c e008 2abd f6dc a3bd 68b9 b1bc
00000080: 943b 4ebe 7308 07be 3c3c d9bd 3599 943d
00000090: 907d 13bd 56ad 9e3c 1103 583d e2aa 6dbe
000000a0: f277 2f3d 95ae cb3d 11e3 08bd 8ffc 053d
000000b0: c517 cfbd 7ba2 533d 9484 9bbd 37b1 603d
000000c0: ea06 8b3d 5794 8fbd 94e1 1d3b 44e8 e53c
000000d0: 9aa0 b9bd d214 cb3d bafd 1b3e 4a07 2f3d
000000e0: 177f 92bb f5df 583d 87e0 a23d 4bca 58be
000000f0: 5ed2 b7bb 90e7 f73c 5564 d6bd a50a edbc

a2c_network.actor_mlp.4.weight f4 [32, 64]
0.16935973 0.18119226 -0.055556715 0.08588911 0.25646257 0.040289447 -0.050996553 -0.007853432
-0.057979953 -0.255385 0.09338874 0.06651808 0.092908636 0.11925397 0.021574115 -0.23809649
-0.2073844 0.08376681 -0.1539154 -0.07919822 -0.0061881756 -0.05658221 0.11217189 -0.24060842
-0.0047967904 -0.17791684 0.067563765 -0.18611209 0.012960856 0.035647478 -0.08554525 -0.040805075
0.045334805 0.06054622 -0.11113524 0.0015260212 0.20449439 -0.08141323 -0.038233183 -0.018481806
-0.10774625 -0.047256295 0.038569134 0.23484802 0.022708686 -0.09844367 0.08918982 0.1576952
0.07401962 0.04607305 -0.0048974743 -0.05292155 -0.11001854 -0.24008165 -0.12793462 -0.2286561
-0.08241444 0.019092053 0.034425914 0.22651766 -0.023956137 -0.034238182 0.22006863 -0.050492447
0.06732987 -0.017604223 -0.3276438 -0.10026913 0.08621652 -0.2086846 -0.25441483 0.1336306
-0.18627116 0.007943517 0.03073403 -0.10477938 0.08386579 0.07612779 -0.10467901 -0.09453431
-0.04550008 -0.18390532 -0.0012242231 0.14228354 -0.1629889 0.037167188 0.10133617 0.17670271
-0.14560318 -0.10572268 0.11447448 0.11165007 0.2645811 0.093495004 0.0046663377 0.053328883
0.004284329 -0.04779045 -0.064510375 0.059989717 0.027716946 0.02909839 -0.15289715 0.06652901
-0.17038104 -0.0652109 -0.06369741 0.092583 0.046827372 -0.013569361 -0.17917642 -0.0033403311
0.053669974 -0.16102459 -0.09546522 -0.05904687 -0.16729535 -0.009844973 -0.12716483 0.15043633
-0.083630696 -0.19230816 -0.0025797982 0.030226836 0.15254205 0.15620922 -0.033349853 -0.13845013
0.2233082 -0.08165754 0.038164057 0.13198869 -0.043707207 -0.093924254 -0.06519596 0.01829047
-0.009755336 0.09466431 0.20284957 -0.03253627 -0.13473831 0.023819262 0.06049419 -0.0006624022
0.07190573 -0.05230649 0.026628463 -0.075707786 0.067565404 0.070548214 -0.0031754363 -0.004679099
-0.15680179 0.0711489 0.0825597 0.07407643 0.04284974 0.24071407 -0.0736669 0.30174613
-0.12411137 0.02224434 -0.036828764 0.053930096 -0.008033269 -0.020408459 -0.11682208 -0.09515507
0.06863967 0.11363595 0.110103555 0.073358625 -0.057705518 0.022057554 0.16882406 -0.070959814
0.084136695 -0.018563012 -0.011623786 0.047075965 -0.036424294 -0.0012252867 0.12914117 0.019487543
0.21503125 0.14908333 -0.054329358 -0.010478075 0.12411438 -0.111703195 -0.038931426 0.13359979
-0.14798807 -0.04008766 -0.11171636 -0.099923484 -0.1275512 -0.04470465 0.037329257 0.088994265
-0.07299579 0.27826038 0.018782923 -0.0041224896 -0.12643172 -0.024709791 0.16683967 0.07819307
0.018242683 0.020829823 0.1960986 -0.104662515 -0.21545266 -0.08701616 0.14353009 -0.008803787
0.056485392 -0.033063043 0.043774366 0.14206228 -0.06870941 0.14772145 -0.084350914 0.082209416
-0.10062591 0.0265415 -0.31766686 0.008872422 0.057262678 -0.1325503 -0.2562671 -0.1756646
-0.09055894 0.26831844 0.045126535 0.22677149 -0.055962585 -0.160996 -0.011493244 0.09253191
0.044827096 -0.13300224 0.054757085 -0.11601703 -0.09529257 0.084940724 0.07536234 -0.06769972
-0.029494813 -0.03367171 0.031978667 -0.065607846 0.18626031 -0.14820854 0.10616381 0.03474324
00000000: a36c 2d3e 778a 393e 708f 63bd a1e6 af3d
00000010: 104f 833e 8c06 253d c3e1 50bd aeab 00bc
00000020: 637c 6dbd d3c1 82be 9942 bf3d a23a 883d
00000030: e246 be3d 6d3b f43d 33bc b03c 91cf 73be
00000040: 935c 54be ef8d ab3d 009c 1dbe ad32 a2bd
00000050: 2ec6 cabb bfc2 67bd 60ba e53d 0e62 76be
00000060: 652e 9dbb d52f 36be df5e 8a3d 2b94 3ebe
00000070: c559 543c 1703 123d 5932 afbd 3923 27bd
00000080: fdb0 393d 50ff 773d df9a e3bd c604 c83a
00000090: fa66 513e fbbb a6bd 669a 1cbd 2867 97bc
000000a0: 11aa dcbd d18f 41bd abfa 1d3d 007c 703e
000000b0: 9107 ba3c d69c c9bd 27a9 b63d da7a 213e
000000c0: 9997 973d 18b7 3c3d fe7a a0bb 44c4 58bd
000000d0: 6651 e1bd f7d7 75be 4b01 03be d324 6abe
000000e0: e7c8 a8bd f066 9c3c 3002 0d3d 3ff4 673e
000000f0: a93f c4bc 563d 0cbd ac59 613e 2bd1 4ebd
00000100: 3ee4 893d bb36 90bc eec0 a7be e759 cdbd
00000110: 4992 b03d 6ab1 55be a942 82be 76d6 083e
00000120: debd 3ebe 8625 023c efc5 fb3c 9296 d6bd
00000130: d4c1 ab3d e3e8 9b3d f361 d6bd 349b c1bd
00000140: 4b5e 3abd ad51 3cbe 1c76 a0ba c7b2 113e
00000150: 90e6 26be 9f3c 183d 5789 cf3d 8ef1 343e
00000160: 0019 15be 2285 d8bd 9971 ea3d cba8 e43d
00000170: 2d77 873e 4f7a bf3d 14e8 983b 636f 5a3d
00000180: 8e63 8c3b ebbf 43bd 041e 84bd c7b7 753d
00000190: a60e e33c bf5f ee3c 1291 1cbe 5d40 883d
000001a0: 5e78 2ebe 4b8d 85bd ca73 82bd 289c bd3d
000001b0: 0fce 3f3d 0652 5ebc 067a 37be 75e9 5abb
000001c0: 0cd5 5b3d a1e3 24be 4583 c3bd 21db 71bd
000001d0: 794f 2bbe cf4c 21bc 7f37 02be fb0b 1a3e
000001e0: 9246 abbd 6eec 44be d511 29bb 459e f73c
000001f0: fc33 1c3e 4ff5 1f3e db99 08bd dfc5 0dbe
00000200: e8aa 643e 113c a7bd ea51 1c3d 0b28 073e
00000210: 5406 33bd 5c5b c0bd 7685 85bd e5d5 953c
00000220: d8d4 1fbc 5ddf c13d ccb7 4f3e c044 05bd
00000230: d7f8 09be 9d20 c33c c1c8 773d 0fa5 2dba
00000240: 5043 933d 543f 56bd ef23 da3c af0c 9bbd
00000250: bb5f 8a3d 957b 903d fb1a 50bb 2153 99bb
00000260: a690 20be 84b6 913d 0f15 a93d 62b5 973d
00000270: 3583 2f3d c07d 763e acde 96bd 787e 9a3e
00000280: 1a2e febd c339 b63c c2d9 16bd cee5 5c3d
00000290: f99d 03bc a42f a7bc 6a40 efbd a9e0 c2bd
000002a0: f592 8c3d f7b9 e83d f97d e13d 0c3d 963d
000002b0: 9f5c 6cbd 0bb2 b43c 37e0 2c3e 6153 91bd
000002c0: dc4f ac3d 7511 98bc b171 3ebc bad2 403d
000002d0: a431 15bd cd99 a0ba 953d 043e 57a4 9f3c
000002e0: 2731 5c3e 4da9 183e 7688 5ebd 3bac 2bbc
000002f0: ae2f fe3d a5c4 e4bd 8f76 1fbd 62ce 083e
00000300: 2f8a 17be f532 24bd 8ccb e4bd afa4 ccbd
00000310: c89c 02be 391c 37bd 90e6 183d a042 b63d
00000320: d17e 95bd 2578 8e3e a5de 993c f315 87bb
00000330: 5177 01be 306c cabc 05d8 2a3e b023 a03d
00000340: ae71 953c 4ea3 aa3c 12ce 483e 4d59 d6bd
00000350: 9f9f 5cbe 8735 b2bd 8df9 123e c23d 10bc
00000360: 3a5d 673d 1d6d 07bd c04c 333d c678 113e
00000370: 85b7 8cbd 4b44 173e 2cc0 acbd 695d a83d
00000380: f514 cebd 8f6d d93c 3ba5 a2be a35d 113c
00000390: 458c 6a3d 44bb 07be 7135 83be 6ce1 33be
000003a0: f776 b9bd 0961 893e 9ad6 383d c936 683e
000003b0: 0639 65bd 23dc 24be 294e 3cbc 5f81 bd3d
000003c0: 9e9c 373d bd31 08be f748 603d 569a edbd
000003d0: c028 c3bd 67f5 ad3d 9257 9a3d 27a6 8abd
000003e0: 1b9f f1bc 59eb 09bd 10fc 023d 685d 86bd
000003f0: 06bb 3e3e fbc3 17be 696c d93d ed4e 0e3d

a2c_network.actor_mlp.4.bias f4 [32]
-0.25071296 0.013797166 0.09065489 0.053361364 -0.058440868 0.0012569876 -0.10058113 -0.012080364
0.18567738 -0.08114403 0.030364024 -0.11466726 0.05361934 -0.030806571 0.06620597 -0.18208347
0.052193794 -0.020715 0.0739881 -0.055542357 -0.06759628 -0.04101655 -0.14686842 0.03147473
-0.093938105 0.05484006 0.0037802984 -0.002430301 0.0831085 0.025965774 -0.03826659 -0.07150628
00000000: 735d 80be 820d 623c 45a9 b93d 7291 5a3d
00000010: b15f 6fbd 81c1 a43a 7bfd cdbd b8ec 45bc
00000020: 3622 3e3e d72e a6bd f9bd f83c abd6 eabd
00000030: f49f 5b3d 105e fcbc ff96 873d 1774 3abe
00000040: 29c9 553d 81b2 a9bc 1387 973d 6280 63bd
00000050: eb6f 8abd f800 28bd ad64 16be a6eb 003d
00000060: 9f62 c0bd f99f 603d e2be 773b af45 1fbb
00000070: ca34 aa3d 2db6 d43c 6ebd 1cbd e271 92bd

a2c_network.value.weight f4 [1, 32]
0.13339892 0.25770152 0.016552707 -0.10011874 -0.11179198 0.07293883 0.040861413 -0.11123208
-0.022858385 0.04742743 0.06445498 -0.060948428 0.025757883 0.24208535 -0.09471974 0.052459862
0.1874446 0.08481375 -0.12671247 -0.014012247 -0.0031556955 0.1658359 -0.0009792463 -0.07152569
0.047360875 0.34551337 -0.06020458 -0.105855875 0.011695093 0.22536497 -0.17576176 0.07454854
00000000: ba99 083e 74f1 833e 8b99 873c 0e0b cdbd
00000010: 32f3 e4bd f460 953d 4c5e 273d a5cd e3bd
00000020: 8241 bbbc 4443 423d f900 843d 0fa5 79bd
00000030: 3202 d33c 39e5 773e 6cfc c1bd 27e0 563d
00000040: 7af1 3f3e d5b2 ad3d eac0 01be a093 65bc
00000050: c9cf 4ebb e3d0 293e 0e5a 80ba 107c 92bd
00000060: 7afd 413d 21e7 b03e 1499 76bd f7ca d8bd
00000070: c69c 3f3c 13c6 663e e4fa 33be e8ac 983d

a2c_network.mu.weight f4 [7, 32]
-0.009210293 -0.09265279 -0.11282132 -0.1435692 0.06809062 -0.08209596 -0.054691236 -0.029252194
-0.12979461 0.30363908 -0.058463365 0.12724638 0.21805337 0.13180678 0.01924077 0.06536475
-0.13687447 -0.13731432 -0.21825011 0.067971855 0.20460853 -0.24654034 0.014698908 -0.07998945
-0.23539382 0.22177735 -0.14534393 -0.055038527 -0.25377917 0.0062792883 -0.13490832 -0.15734965
0.36136606 -0.12799637 -0.21258181 -0.08797381 0.0052083842 0.024764918 -0.012101911 -0.08521274
-0.3059439 0.15583871 -0.2518918 0.2700309 -0.043724764 0.07960338 -0.09734018 0.23160163
-0.21170245 -0.08195432 -0.09942538 0.13888319 -0.06217723 -0.01912882 0.26343155 -0.12212814
0.106400326 -0.122740336 0.13087274 -0.055247054 -0.09637498 0.0005388256 0.12437822 -0.041914634
0.06615362 -0.14090559 -0.18181702 -0.072275236 -0.013998511 -0.0037650585 0.1726119 -0.19018565
0.12339369 -0.16949613 0.02062138 0.2515884 -0.08235382 -0.042637408 0.075225644 -0.013326374
0.109868675 -0.07152168 -0.019981692 -0.1592838 0.0025429095 -0.07651663 -0.06954333 0.03977838
0.11357355 -0.1534294 0.025040628 0.2877773 0.1531151 0.12948814 0.07670537 0.18637912
0.22242403 0.0020175662 -0.026380543 0.27280173 -0.11224419 0.17938022 0.22834201 0.07650336
-0.17753309 0.16675043 0.048812233 0.083422184 -0.06137816 0.093539685 0.034366943 -0.11372136
-0.19316721 0.05409646 0.047893163 -0.15262045 0.09244764 -0.19186029 -0.030639827 -0.112735376
0.29639658 -0.17544156 -0.036808018 0.12545219 0.2860123 0.06751353 0.27431533 -0.16683567
-0.16276677 0.12568425 -0.102497734 -0.015913727 0.29814786 -0.0041516954 -0.1258722 0.15020424
-0.11675199 -0.050054103 0.22261445 -0.07670992 -0.10674127 0.026489498 -0.05883637 -0.0051515866
-0.07216393 -0.18105072 0.17222883 0.06623696 0.036583167 0.025870346 0.086525746 0.12065306
0.08419947 -0.11747423 -0.117754206 -0.20963131 -0.12172327 0.034802068 0.061268188 0.14529712
0.27411985 -0.032723974 0.15100129 -0.037262995 0.071350224 -0.1659291 0.29531124 0.107837565
-0.081074014 -0.0955981 0.033606205 -0.03321519 -0.18347213 -0.11225874 -0.21519788 0.06640158
-0.17617977 0.2533727 -0.15691474 0.10056894 -0.020511504 0.028849836 0.10238996 -0.062656716
0.12188888 -0.089160725 -0.05406483 -0.06517533 -0.18012296 -0.04773371 0.016931029 0.18180904
0.05439893 -0.036057774 -0.13772799 -0.23699059 -0.029831128 0.1777485 -0.15279695 0.12206609
-0.029550692 -0.10208111 0.19636273 -0.06864859 0.20476867 -0.08465963 0.17441173 0.13177398
-0.11848491 -0.20919116 0.03718076 0.075449556 0.08052697 -0.0034293921 -0.19633134 -0.22416973
0.1108504 -0.14974393 0.18352582 0.21828781 0.09611187 0.25669485 -0.1338065 -0.040685356
00000000: c5e6 16bc bfc0 bdbd dd0e e7bd ce03 13be
00000010: 1873 8b3d ed21 a8bd eb03 60bd 4ca2 efbc
00000020: e1e8 04be 9576 9b3e 4877 6fbd e04c 023e
00000030: 6249 5f3e 5bf8 063e d29e 9d3c f4dd 853d
00000040: d228 0cbe 209c 0cbe f57c 5fbe d434 8b3d
00000050: e684 513e 1275 7cbe b0d3 703c 82d1 a3bd
00000060: 140b 71be 9a19 633e 0ad5 14be 1470 61bd
00000070: 58ef 81be 7dc2 cd3b 6825 0abe 4420 21be
00000080: f904 b93e 7b11 03be 0caf 59be 9d2b b4bd
00000090: 18ab aa3b ccdf ca3c 1847 46bc 0484 aebd
000000a0: aea4 9cbe 2f94 1f3e f6f7 80be 7d41 8a3e
000000b0: bd18 33bd 1907 a33d 4a5a c7bd fa28 6d3e
000000c0: 87c8 58be abd7 a7bd 899f cbbd 6537 0e3e
000000d0: 8dad 7ebd 0bb4 9cbc 80e0 863e 511e fabd
000000e0: 6ae8 d93d 495f fbbd 8103 063e bc4a 62bd
000000f0: 3f60 c5bd f93f 0d3a 02ba fe3d aeae 2bbd
00000100: 8d7b 873d 8e49 10be 3e2e 3abe 0a05 94bd
00000110: 035a 65bc 33bf 76bb 2dc1 303e 07c0 42be
00000120: d5b5 fc3d 6590 2dbe 2bee a83c 32d0 803e
00000130: 1fa9 a8bd 90a4 2ebd e70f 9a3d dd56 5abc
00000140: d402 e13d f579 92bd a5b0 a3bc 4b1b 23be
00000150: f1a6 263b c0b4 9cbd bc6c 8ebd a8ee 223d
00000160: 4099 e83d 991c 1dbe 0122 cd3c 8c57 933e
00000170: 34ca 1c3e 8a98 043e b417 9d3d 2bda 3e3e
00000180: 20c3 633e 2539 043b 021c d8bc abac 8b3e
00000190: 48e0 e5bd 73af 373e 7dd2 693e cbad 9c3d
000001a0: 3ccb 35be a0c0 2a3e 56ef 473d 40d9 aa3d
000001b0: aa67 7bbd bc91 bf3d 5ac4 0c3d bfe6 e8bd
000001c0: a0cd 45be 4094 5d3d 9f2b 443d 8948 1cbe
000001d0: 3055 bd3d 0677 44be 6000 fbbc cee1 e6bd
000001e0: 4bc1 973e f4a6 33be 01c4 16bd 8a76 003e
000001f0: 3470 923e 8944 8a3d 0f73 8c3e f8d6 2abe
00000200: 55ac 26be 5fb3 003e 55ea d1bd 815d 82bc
00000210: d6a6 983e f20a 88bb a4e4 00be 24cf 193e
00000220: ab1b efbd 8805 4dbd 0bf5 633e 171a 9dbd
00000230: 2b9b dabd 8100 d93c 68fe 70bd a4ce a8bb
00000240: afca 93bd 5c65 39be c15c 303e 3ea7 873d
00000250: 3bd8 153d 0cee d33c 6934 b13d f418 f73d
00000260: c670 ac3d 5496 f0bd 1e29 f1bd 97a9 56be
00000270: 0d4a f9bd 9d8c 0e3d 5af4 7a3d c5c8 143e
00000280: 7059 8c3e 9309 06bd 15a0 1a3e 15a1 18bd
00000290: 1120 923d 51e9 29be 0933 973e f1d9 dc3d
000002a0: 220a a6bd f0c8 c3bd a9a6 093d a70c 08bd
000002b0: 1ee0 3bbe e9e7 e5bd d55c 5cbe 8dfd 873d
000002c0: 7868 34be 11ba 813e 42ae 20be 17f7 cd3d
000002d0: be07 a8bc 7e56 ec3c d4b1 d13d 2a52 80bd
000002e0: e1a0 f93d e699 b6bd 1573 5dbd a57a 85bd
000002f0: 2772 38be 6c84 43bd f1b2 8a3c 262c 3a3e
00000300: 6ad1 5e3d 51b1 13bd 9108 0dbe a9ad 72be
00000310: 6960 f4bc b403 363e ce76 1cbe c9fd f93d
00000320: 4b14 f2bc e70f d1bd 5013 493e a297 8cbd
00000330: e1ae 513e 0762 adbd fd98 323e c2ef 063e
00000340: 37a8 f2bd 3536 56be da4a 183d 4c85 9a3d
00000350: 53eb a43d a7bf 60bb 150b 49be c08c 65be
00000360: 8905 e33d 7956 19be 31ee 3b3e d786 5f3e
00000370: 4dd6 c43d 826d 833e 9204 09be b0a5 26bd

a2c_network.mu.bias f4 [7]
-0.07795889 -0.2712468 -0.015558191 -0.11435572 -0.05810039 -0.10987173 0.12768766
00000000: e9a8 9fbd dce0 8abe c8e7 7ebc 5533 eabd
00000010: adfa 6dbd 6e04 e1bd 8ec0 023e

exp_avg f4 [7]
0.007727202 0.0042599384 -0.00029976605 0.009464896 0.0056817634 0.0010478273 0.002737131
00000000: 7834 fd3b f496 8b3b eb29 9db9 a712 1b3c
00000010: 162e ba3b 4057 893a 7061 333b

exp_avg_sq f4 [7]
0.00051550445 0.0004955582 0.0005136529 0.000491738 0.0004907139 0.00044392835 0.0004686892
00000000: eb22 073a 59e8 013a aaa6 063a fbe7 003a
00000010: 41a3 003a 0ebf e839 66ba f539

exp_avg f4 [128, 18]
0.0016491552 0.00020571171 0.0018325334 0.0015453169 0.0011875293 -0.0005936777 0.0008580359 0.0008952316
0.00048687958 -1.1217797e-05 0.00042380334 -5.312696e-05 -0.0027678488 0.000646885 -0.0015516933 -0.00011998007
-0.0047009178 0.0009844244 0.0012860205 0.0013068502 -0.0007479191 0.002405295 0.0014508021 0.0005262033
0.0035092041 0.00087297574 0.0015659183 -0.0010495496 0.0017317572 0.0005881906 -0.0026809291 0.0005693838
-0.0007360522 0.0014118872 -0.00020025442 0.002175232 -4.9858904e-06 -0.0007052432 -0.0011147365 0.00048404414
-0.0019125987 -0.0018030445 0.0011609453 -0.0006561987 -0.0016016314 -0.0002480776 -3.208196e-05 -8.481923e-06
-0.0008224393 0.00022534758 -2.2850549e-05 -0.00032204215 0.0011783248 0.00026337523 -0.0016133438 0.0008822964
0.0009595723 -0.0013476289 0.00047560318 0.00096030755 0.0004961632 -0.0012177357 0.000722442 0.001668631
-0.0014351568 -0.0008495808 0.00065981486 -0.001545673 0.0013264301 -0.00053998554 0.0028336132 -0.0020121469
-0.0017361334 0.0004544556 0.0010550788 -0.0019122642 0.0011831706 0.0010774531 -0.00073863234 -0.00064391433
0.0007736721 0.0004988191 -0.0011571713 0.00036412076 0.0007716785 -0.0010940179 0.0021157858 0.0010316182
0.0023472044 -0.0011459847 0.00014344435 -0.00020762807 -0.00088080554 0.00031161748 0.00042625534 -0.001452125
0.00046501463 0.0031512391 -0.0002683316 -0.003209713 0.0025991155 0.0008079868 -0.0035322285 0.0015337996
-0.0013904241 0.0025153523 -0.0035431855 0.0031151292 0.000567534 0.0003470239 -0.0011232828 0.0008653186
0.00029339228 0.0007552621 0.00059830083 0.0010250639 0.000136446 0.00022623265 0.0015328431 0.0006717802
0.0004994773 -0.00039595645 -0.00050066697 -0.00079939293 -0.0009181218 0.0011817096 0.0022274035 0.0009376299
-0.00086301856 0.0027448253 0.0025861699 0.0002010345 0.002928371 0.002619476 0.0010612317 -0.0021941683
0.0029322873 0.0011435308 -0.0018564239 0.0019515257 -0.001752273 0.0021109714 -0.006479673 0.0037086522
0.0016212814 -0.0012215246 -0.0002893912 0.0012325129 -0.0026905856 -0.001059334 0.00012598737 -0.0005470661
-0.001888196 -0.00032871752 -0.0009784295 -0.0019464996 -0.0027500875 3.616249e-05 -0.0027071002 -0.0025158676
-0.00026442308 -0.00020856975 0.0010019747 -0.0009091568 -0.0014719586 0.00115845 -0.0022279457 -0.0011566713
0.0006568542 -0.0004538581 -0.0016207765 7.030031e-05 7.1224254e-05 -0.00067825586 -1.0664421e-05 5.348068e-05
-0.0013108607 -0.0017089327 0.0002649005 -0.0004076708 0.001851959 -5.376586e-05 -0.002134018 0.002586098
-0.0009539801 -0.0013128839 0.0031256352 0.0014149757 -0.000441442 -0.0022673698 0.0021309552 -3.3747496e-05
-0.002227287 0.0013038802 -0.0023246033 0.00042988532 -0.0015258273 0.0018778852 -0.00058594637 -0.00035444
0.0006299892 -0.0005795629 -0.0003073754 -0.0010191627 -0.0007313943 -2.2348577e-05 -0.00040969488 -0.0010336917
-0.00034044805 -0.0009308018 -0.0014187767 0.000686206 0.00021116085 0.00027145236 -0.00070657657 9.3837916e-05
0.0009407163 0.0007995079 0.00018035214 0.0011720755 0.0006601789 0.0008676882 0.0008874143 0.0006992654
0.0011092529 0.00042926733 0.00038399722 -0.00052876264 -0.0021577918 -0.0010669726 -0.0011928447 -0.0003996709
0.000103052225 0.0015451965 -0.00091673346 6.9150294e-05 -0.00073745276 -0.00089506624 -0.00084828417 7.230888e-05
-0.000893218 -0.0003041536 0.00011213893 0.0003011091 -0.0005823676 -0.0002224462 -0.0005082453 -0.0008772214
0.00032782598 -0.00051370723 0.0031492007 0.0001990617 -0.0009673276 -3.7838712e-05 -0.0010495492 -0.0008669375
00000000: 7728 d83a 51b4 5739 9e31 f03a 3b8c ca3a
00000010: dfa6 9b3a 09a1 1bba d1ed 603a faad 6a3a
00000020: df43 ff39 1234 3cb7 ec31 de39 a4d4 5eb8
00000030: cc64 35bb b893 293a 3062 cbba cf9d fbb8
00000040: 280a 9abb cd07 813a b08f a83a 9e4a ab3a
00000050: 0010 44ba 27a2 1d3b d728 be3a e8f0 093a
00000060: adfa 653b 69d8 643a 803f cd3a 0a91 89ba
00000070: 21fc e23a ce30 1a3a 87b2 2fbb b342 153a
00000080: a1f3 40ba 130f b93a 63fb 51b9 568e 0e3b
00000090: 794c a7b6 12e0 38ba 5a1c 92ba 4ec7 fd39
000000a0: 2ab0 faba 2254 ecba dc2a 983a c004 2cba
000000b0: d5ed d1ba 6910 82b9 be8f 06b8 954d 0eb7
000000c0: f898 57ba 484b 6c39 2eaf bfb7 c4d7 a8b9
000000d0: 0572 9a3a a015 8a39 d676 d3ba e949 673a
000000e0: cf8b 7b3a eca2 b0ba 615a f939 26bd 7b3a
000000f0: f310 023a 6e9c 9fba 4362 3d3a f7b5 da3a
00000100: df1b bcba 67b6 5eba 6df7 2c3a 2e98 caba
00000110: 9cdb ad3a d18d 0dba 24b4 393b 39de 03bb
00000120: f88e e3ba 0044 ee39 924a 8a3a f0a4 faba
00000130: 9e14 9b3a 5439 8d3a c7a0 41ba 5ccc 28ba
00000140: 41d0 4a3a 2fc3 023a 3aac 97ba 76e7 be39
00000150: 784a 4a3a 2665 8fba ffa8 0a3b 5d37 873a
00000160: 8ed3 193b de34 96ba 8d69 1639 bcb6 59b9
00000170: dce5 66ba 9760 a339 067b df39 3b55 beba
00000180: 35cd f339 0585 4e3b dcae 8cb9 0c5a 52bb
00000190: ec55 2a3b 14cf 533a f67c 67bb c609 c93a
000001a0: e43e b6ba 9cd8 243b ca34 68bb 3227 4c3b
000001b0: 90c6 143a c2f0 b539 1e3b 93ba 8cd6 623a
000001c0: 72d2 9939 c8fc 453a 4ad7 1c3a 705b 863a
000001d0: f212 0f39 dd38 6d39 aee9 c83a 681a 303a
000001e0: 5bef 023a 6098 cfb9 313f 03ba 5a8e 51ba
000001f0: 1cae 70ba 98e3 9a3a a1f9 113b 47cb 753a
00000200: 323c 62ba 87e2 333b bb7c 293b cacc 5239
00000210: eae9 3f3b 84ab 2b3b 0719 8b3a 09cc 0fbb
00000220: 9e2b 403b 87e2 953a 4053 f3ba 56ca ff3a
00000230: 86ac e5ba 3958 0a3b 7053 d4bb dc0c 733b
00000240: 2d81 d43a 901b a0ba 6eb9 97b9 458c a13a
00000250: 8954 30bb 5ad9 8aba 7a1b 0439 fc68 0fba
00000260: 587d f7ba b857 acb9 a53e 80ba b021 ffba
00000270: d03a 34bb 2ead 1738 9b69 31bb 41e1 24bb
00000280: 44a2 8ab9 84b3 5ab9 b154 833a 7b54 6eba
00000290: bcee c0ba 22d7 973a ba02 12bb 739b 97ba
000002a0: bd30 2c3a cef3 edb9 3c70 d4ba 316e 9338
000002b0: 3b5e 9538 fbcc 31ba 57eb 32b7 7150 6038
000002c0: 30d1 abba 44fe dfba 58e2 8a39 a6bc d5b9
000002d0: 6fbd f23a a782 61b8 e2da 0bbb 867b 293b
000002e0: 8514 7aba 1315 acba 75d7 4c3b b576 b93a
000002f0: 5871 e7b9 2798 14bb 7fa7 0b3b 198c 0db8
00000300: adf7 11bb f6e6 aa3a 5f58 18bb 3b62 e139
00000310: 45fe c7ba 5f23 f63a 329a 19ba 22d4 b9b9
00000320: dc25 253a cfed 17ba 3a27 a1b9 6d95 85ba
00000330: 0abb 3fba 3479 bbb7 51cc d6b9 f07c 87ba
00000340: 2a7e b2b9 0d01 74ba 3ff6 b9ba 81e2 333a
00000350: 0f6b 5d39 b851 8e39 8d39 39ba d9ca c438
00000360: 679a 763a 1196 513a e91c 3d39 54a0 993a
00000370: db0f 2d3a 9275 633a 5ea1 683a e84e 373a
00000380: 5a64 913a 490f e139 3c53 c939 a99c 0aba
00000390: bd69 0dbb a9d9 8bba 3a59 9cba ec8a d1b9
000003a0: be1d d838 3188 ca3a f150 70ba c804 9138
000003b0: 9e51 41ba e1a2 6aba 635f 5eba 89a4 9738
000003c0: d826 6aba ce76 9fb9 212c eb38 2ede 9d39
000003d0: 07aa 18ba 7240 69b9 c43b 05ba 55f5 65ba
000003e0: 0fe0 ab39 4faa 06ba d262 4e3b 38bb 5039
000003f0: 4294 7dba 02b5 1eb8 0791 89ba 3143 63ba

exp_avg_sq f4 [128, 18]
3.855039e-05 1.3225175e-05 4.586576e-05 3.00111e-05 2.4724364e-05 4.970924e-05 4.403762e-05 4.1305695e-05
1.9941232e-05 4.3966073e-05 3.102469e-05 3.318353e-05 3.2891374e-05 3.1000123e-05 4.8074093e-05 2.9970204e-05
9.268471e-05 8.4136875e-05 6.111061e-05 4.0161343e-05 8.072112e-05 5.4562377e-05 7.075565e-05 9.796147e-05
7.699249e-05 7.179655e-05 5.486845e-05 6.940235e-05 6.322416e-05 8.2007486e-05 8.10704e-05 6.659818e-05
4.8878574e-05 4.9448365e-05 0.00027025794 0.00023738762 2.6958147e-05 1.2512591e-05 3.5866327e-05 2.484129e-05
2.1716354e-05 4.5708817e-05 2.8076305e-05 2.7168328e-05 1.9764671e-05 2.8995619e-05 2.2089986e-05 2.7944336e-05
2.4856568e-05 2.5342522e-05 2.8783355e-05 1.8551787e-05 5.133228e-05 5.7680976e-05 1.3577342e-05 5.916022e-06
1.2352861e-05 1.1895876e-05 1.455875e-05 1.931596e-05 1.7672286e-05 1.28584725e-05 8.915452e-06 1.1379459e-05
1.1388996e-05 1.7124685e-05 1.5455622e-05 1.3286495e-05 1.2503431e-05 9.549431e-06 4.3863856e-05 4.3802956e-05
3.012889e-05 5.21477e-06 3.3651904e-05 2.479218e-05 1.8644601e-05 3.7500886e-05 2.7040727e-05 3.1168187e-05
8.7691915e-06 3.2571075e-05 2.2199834e-05 3.0425304e-05 2.6178284e-05 2.3874476e-05 3.84865e-05 2.268249e-05
5.7841313e-05 5.0142706e-05 5.1356434e-05 1.47157925e-05 6.672071e-05 4.3638953e-05 3.5200042e-05 7.696647e-05
8.856109e-05 5.325485e-05 2.1182497e-05 6.623189e-05 4.158562e-05 5.190669e-05 5.4561544e-05 4.7491452e-05
6.534416e-05 3.9596154e-05 0.00012981036 0.00011306562 5.148821e-05 8.147087e-06 7.4971955e-05 4.096343e-05
3.494673e-05 6.372253e-05 6.206793e-05 6.461871e-05 1.1302745e-05 6.636609e-05 4.7300062e-05 3.6670113e-05
3.956841e-05 3.374752e-05 8.2250255e-05 4.7118283e-05 8.198794e-05 7.879599e-05 5.9120808e-05 2.3254745e-05
6.7917994e-05 5.008186e-05 3.9999224e-05 0.00010541603 7.5691045e-05 7.224712e-05 3.1456333e-05 7.9298894e-05
5.3188338e-05 7.275121e-05 6.4853826e-05 6.422571e-05 6.002638e-05 5.561349e-05 0.00018635661 0.00016835118
7.192652e-05 2.1408072e-05 6.818265e-05 6.4338e-05 5.729241e-05 9.7167824e-05 9.593595e-05 6.652932e-05
3.1917363e-05 8.078524e-05 5.51405e-05 8.034832e-05 7.096563e-05 7.732583e-05 6.165307e-05 5.0190178e-05
0.00024296397 0.00019328356 1.7339758e-05 7.587558e-06 2.355528e-05 1.5610576e-05 1.4561443e-05 2.3785104e-05
1.7963994e-05 1.8328177e-05 1.1841859e-05 2.1989643e-05 1.3698928e-05 2.4689261e-05 1.7950737e-05 1.9606976e-05
1.6461454e-05 1.6926047e-05 5.5591987e-05 4.6357185e-05 3.0223704e-05 1.2545878e-05 3.2824886e-05 2.6823276e-05
2.2693206e-05 3.4389708e-05 3.1350475e-05 2.9200706e-05 2.0601423e-05 3.3339842e-05 2.550596e-05 3.601584e-05
3.2288783e-05 3.1857966e-05 2.9672708e-05 2.3791372e-05 7.218328e-05 5.8447153e-05 2.5171552e-05 6.2134964e-06
2.5284442e-05 2.1690652e-05 1.496237e-05 2.6478247e-05 2.7913244e-05 2.3566803e-05 1.0049523e-05 2.8455917e-05
1.7561375e-05 1.91268e-05 2.0810521e-05 1.9632414e-05 2.6266158e-05 1.4096797e-05 4.7109923e-05 3.570292e-05
3.4305333e-05 1.681502e-05 4.191731e-05 2.8607048e-05 3.081861e-05 4.9123995e-05 3.1585507e-05 2.8333418e-05
2.8379594e-05 3.078631e-05 2.2372296e-05 3.062102e-05 2.9942184e-05 2.0825648e-05 3.3517124e-05 2.2464657e-05
8.4949614e-05 7.9475336e-05 1.2934887e-05 6.261168e-06 1.7190236e-05 1.0913173e-05 9.429792e-06 2.2103111e-05
1.3297483e-05 1.1660035e-05 9.620797e-06 1.3842337e-05 9.354811e-06 1.3967669e-05 1.2794472e-05 1.4307151e-05
1.1991846e-05 9.893394e-06 3.460774e-05 2.5535408e-05 1.8700935e-05 5.6640633e-06 2.9384108e-05 1.6654389e-05
00000000: 2bb1 2138 b2e1 5d37 fc5f 4038 59c0 fb37
00000010: 2b67 cf37 e47e 5038 09b5 3838 a73f 2d38
00000020: 7847 a737 3668 3838 8220 0238 8b2e 0b38
00000030: d8f4 0938 2106 0238 2aa3 4938 8668 fb37
00000040: ba5f c238 a472 b038 8228 8038 ea72 2838
00000050: d248 a938 e8d9 6438 a662 9438 aa70 cd38
00000060: 0777 a138 7b91 9638 8d22 6638 1a8c 9138
00000070: 3697 8438 6ffb ab38 5704 aa38 a0aa 8b38
00000080: f802 4d38 c766 4f38 68b1 8d39 41eb 7839
00000090: 2e24 e237 2bed 5137 2d6f 1638 4462 d037
000000a0: 842b b637 78b7 3f38 6885 eb37 8ae7 e337
000000b0: 4fcc a537 9e3b f337 e24d b937 016a ea37
000000c0: 1383 d037 a796 d437 c973 f137 a99f 9b37
000000d0: 9e4d 5738 7aee 7138 3dca 6337 3e82 c636
000000e0: 223f 4f37 6694 4737 5b41 7437 b508 a237
000000f0: f23e 9437 b8ba 5737 9393 1537 67ea 3e37
00000100: 5e13 3f37 fba6 8f37 b2a6 8137 10e9 5e37
00000110: d4c5 5137 7e36 2037 75fa 3738 11b9 3738
00000120: 4cbd fc37 89fa ae36 7525 0d38 cdf8 cf37
00000130: fa66 9c37 454a 1d38 85d5 e237 96ba 0238
00000140: 641f 1337 ed9c 0838 c839 ba37 d839 ff37
00000150: 7099 db37 0c46 c837 916c 2138 4746 be37
00000160: a39a 7238 5250 5238 8d67 5738 d9e3 7637
00000170: 69ec 8b38 f808 3738 c2a3 1338 0f69 a138
00000180: e0b9 b938 f65d 5f38 11b1 b137 fae5 8a38
00000190: 386c 2e38 62b6 5938 03d9 6438 8f31 4738
000001a0: 6109 8938 0c14 2638 b41d 0839 a41d ed38
000001b0: 0bf5 5738 79af 0837 433a 9d38 26d0 2b38
000001c0: c493 1238 c6a2 8538 772a 8238 e883 8738
000001d0: eca0 3d37 062e 8b38 0e64 4638 3cce 1938
000001e0: 42f6 2538 208c 0d38 c57d ac38 dfa0 4538
000001f0: f1f0 ab38 463f a538 7cf8 7738 2f13 c337
00000200: 326f 8e38 fd0e 5238 d7c4 2738 cd12 dd38
00000210: 52bc 9e38 6183 9738 fbef 0338 454d a638
00000220: 8b16 5f38 0292 9838 2202 8838 eab0 8638
00000230: d6c4 7b38 8842 6938 b968 4339 6d87 3039
00000240: 42d7 9638 7c95 b337 48fd 8e38 33ed 8638
00000250: 424d 7038 94c6 cb38 3931 c938 a885 8b38
00000260: 02df 0538 3f6b a938 a946 6738 ad80 a838
00000270: 62d3 9438 fd29 a238 bd4b 8138 4b83 5238
00000280: 25c4 7e39 29ac 4a39 d974 9137 a098 fe36
00000290: 9498 c537 75f3 8237 ec4c 7437 1f86 c737
000002a0: 62b1 9637 76bf 9937 66ac 4637 6676 b837
000002b0: 73d4 6537 c91b cf37 ea94 9637 a979 a437
000002c0: b416 8a37 69fc 8d37 712b 6938 a66f 4238
000002d0: e988 fd37 237c 5237 74ad 0938 8c02 e137
000002e0: 4a5d be37 ab3d 1038 517e 0338 0af4 f437
000002f0: 38d1 ac37 62d6 0b38 a2f5 d537 b70f 1738
00000300: d16d 0738 3b9f 0538 a8e9 f837 9593 c737
00000310: 1a61 9738 2725 7538 7f27 d337 877d d036
00000320: ed19 d437 52f4 b537 e406 7b37 9a1d de37
00000330: 3c27 ea37 53b1 c537 5f9a 2837 9eb4 ee37
00000340: c450 9337 7e72 a037 4192 ae37 4ab0 a437
00000350: 2556 dc37 4881 6c37 e597 4538 b8bf 1538
00000360: 12e3 0f38 fb0d 8d37 5ed0 2f38 2bf9 ef37
00000370: 3b43 0138 7d0a 4e38 ae7a 0438 8dad ed37
00000380: b710 ee37 8c20 0138 24ac bb37 126f 0038
00000390: 5a2c fb37 bdb2 ae37 bd94 0c38 7c72 bc37
000003a0: fa26 b238 ffab a638 eb02 5937 0617 d236
000003b0: c033 9037 b917 3737 a634 1e37 126a b937
000003c0: 4118 5f37 789f 4337 0269 2137 623c 6837
000003d0: 9bf2 1c37 ae56 6a37 d7a7 5637 bf08 7037
000003e0: 9630 4937 cefb 2537 c727 1138 df34 d637
000003f0: f4df 9c37 ef0d be36 e47d f637 07b5 8b37

exp_avg f4 [128]
-0.001099807 -0.0022718203 0.0023924757 -0.003151736 -0.0017983265 0.0012049791 -0.00041728825 -0.0017560213
0.0039306283 0.0029971122 0.0017872688 0.0004538225 -0.001524629 0.00070365 0.0008269679 -0.0018448461
-0.00074567006 -0.0012473705 0.00019551601 0.0030196467 0.0057742908 -0.00039453496 -0.00045693273 -0.003919204
0.00037910682 -0.0016516 0.0009450266 -0.0018455635 -0.00095220713 -0.0012801602 -0.002085858 -0.00060014275
-0.00029668855 -0.0025489228 0.0012258051 -0.0022361272 0.00035633764 -0.0069254735 0.00083368423 -0.0010068357
0.0007080909 -0.0012783416 0.0006777579 0.0016061411 -3.650338e-05 -0.0026255087 -0.0037495939 -0.004557325
-0.003993339 -0.0024191728 -0.0016589562 -0.00403289 0.0031320914 -9.977599e-05 -0.00068042753 -5.6210458e-05
0.0031223483 0.0024011182 -0.0013095055 0.001358113 -0.0029751924 -0.001762995 -0.0012279145 0.0016485208
0.0015268729 0.00076692214 0.00022143319 -0.0010487536 -0.0034648567 -0.0022764027 -0.0023653593 -0.0041774893
-0.003378205 -9.256044e-06 0.00011654588 -0.0048228675 -0.0019649332 -7.431332e-05 -0.0014344911 -0.0009531558
0.0013475175 0.001446679 0.0029908917 0.0016843337 -0.0026062431 0.0020052905 0.00073881703 0.0018310888
-0.0013786851 0.0009896731 -0.00423434 0.0011920979 -7.516905e-05 -0.0022184663 -0.0012686232 -0.00031325454
-0.0005545687 0.0005919357 3.5085934e-06 0.00023453067 -0.0011181816 -0.0023714665 -0.004758328 -0.0032601045
-0.0012251377 -0.0016714364 -0.00357896 -0.0027402744 -0.0037059486 -0.0012965662 0.00013444075 0.0021829049
0.0015328047 0.0013009554 -0.0017367881 0.0011053666 -0.001434025 0.0021910507 -0.0011432873 -0.0008995288
-0.004678533 -0.00047287197 -0.0034262948 0.003181459 5.9675513e-05 0.0010491821 0.0016898419 -0.0018087411
00000000: 6627 90ba d2e2 14bb 15cb 1c3b 5b8d 4ebb
00000010: d3b5 ebba 64f0 9d3a 7bc7 dab9 4c2a e6ba
00000020: 80cc 803b 336b 443b ca42 ea3a 06ef ed39
00000030: 0fd6 c7ba 2775 383a e0c8 583a c3ce f1ba
00000040: 1279 43ba cf7e a3ba 6e03 4d39 44e5 453b
00000050: 4336 bd3b 96d9 ceb9 7990 efb9 ab6c 80bb
00000060: dbc2 c639 807a d8ba a9bb 773a d6e6 f1ba
00000070: 8a9d 79ba 0ccb a7ba e4b2 08bb e652 1dba
00000080: dd8c 9bb9 d40b 27bb 32ab a03a fd8b 12bb
00000090: d4d2 ba39 15ef e2bb 9a8b 5a3a cdf7 83ba
000000a0: 2d9f 393a 078e a7ba 90ab 313a 2785 d23a
000000b0: 351b 19b8 ba10 2cbb bfbb 75bb 9d55 95bb
000000c0: 8eda 82bb fc8a 1ebb 5571 d9ba 5526 84bb
000000d0: c643 4d3b d43e d1b8 b85e 32ba 85c3 6bb8
000000e0: 50a0 4c3b 145c 1d3b b7a3 abba b602 b23a
000000f0: 72fb 42bb 4c14 e7ba f9f1 a0ba 2e13 d83a
00000100: 5a21 c83a 460b 493a 8530 6839 5576 89ba
00000110: a612 63bb b32f 15bb 2504 1bbb 52e3 88bb
00000120: e064 5dbb 684a 1bb7 186a f438 2509 9ebb
00000130: 1cc6 00bb a9d8 9bb8 8905 bcba 34dd 79ba
00000140: 2f9f b03a 7e9e bd3a d602 443b dcc4 dc3a
00000150: 81cd 2abb 316b 033b 2cad 413a 2501 f03a
00000160: ffb4 b4ba ebb7 813a 38c0 8abb 2b40 9c3a
00000170: 14a4 9db8 b063 11bb ee47 a6ba 503c a4b9
00000180: 7a60 11ba 222c 1b3a 2d75 6b36 59ec 7539
00000190: f38f 92ba 9b6a 1bbb c0eb 9bbb 7aa7 55bb
000001a0: cd94 a0ba 1914 dbba fc8c 6abb 2d96 33bb
000001b0: 80df 72bb 8bf1 a9ba aaf8 0c39 110f 0f3b
000001c0: 64e8 c83a d284 aa3a f0a4 e3ba f3e1 903a
000001d0: e5f5 bbba bb97 0f3b 5bda 95ba 5bce 6bba
000001e0: 614e 99bb cdeb f7b9 b08b 60bb 0680 503b
000001f0: 184c 7a38 b684 893a af7d dd3a 4813 edba
