runs/BallBalance_19-15-10-14/nn/last_BallBalance_ep_100_rew_4.1104875.pth (torch, 173671 bytes, 36 tensors)

value_mean_std.running_mean f8 [1]
000000 13 21 2b 4e 18 8c cc 3f
       0.22302535836048118

value_mean_std.running_var f8 [1]
000000 0a 3d be b9 3c 19 8b 3f
       0.013231729906492368

value_mean_std.count f8 []
000000 00 00 00 00 20 00 e9 40
       51201.0

running_mean_std.running_mean f8 [18]
000000 93 c5 d4 fa 4b cc b0 bf b7 d9 f3 e9 cb 5a b5 3f
       -0.06561732171828387 0.08341669522983507
000010 3a 77 6c dd 89 34 b1 bf b9 66 e1 23 dd dc a0 bf
       -0.06720792442180548 -0.03293505728715957
000020 b5 85 c1 87 e8 0c bd 3f e1 89 25 b6 49 d6 b0 bf
       0.11347821535448228 -0.0657697744077619
000030 b8 f8 d3 82 14 34 b6 bf 2b 6f 92 8c 37 bc cf bf
       -0.08673217958491619 -0.24793142665736786
000040 2c 8d de f0 c2 5f d4 3f e3 6c 77 99 36 d8 c0 bf
       0.3183448173751511 -0.13159830564004613
000050 1c 8e 7c 98 a6 1d c3 bf f4 da 76 d2 c0 54 cd 3f
       -0.14934236951477053 0.2291489627511606
000060 f1 44 13 f9 20 e3 b6 bf ee 9f 87 05 96 e4 c3 bf
       -0.08940321045817591 -0.155413391780939
000070 de 28 0a 18 e6 aa ba 3f d7 2d 19 5a 55 6e bb 3f
       0.10417020880609892 0.10715230416933906
000080 6c b4 84 09 25 03 ab bf d6 64 a0 f0 22 f3 8f 3f
       -0.052758366977607135 0.015600464790667717

running_mean_std.running_var f8 [18]
000000 c6 4a 95 f5 a7 e1 bd 3f ea 67 2d 09 19 c6 a0 3f
       0.11672448869402804 0.03276136624363331
000010 83 ed 8f d3 2e 10 b1 3f fa 92 fb 41 f1 34 c2 3f
       0.06665318169682703 0.14224067422687608
000020 86 43 ce 1a b4 55 ab 3f c0 27 12 6a a0 d1 91 3f
       0.0533882410737823 0.01740122458844673
000030 13 13 38 72 e7 52 81 3f 75 e8 ff 61 75 b2 f7 3f
       0.00845890824622012 1.4810689762221305
000040 89 75 8d 27 df 7a da 3f ba cd 99 6c 8f e2 f5 3f
       0.41374949324184535 1.3678125612467356
000050 c1 ca 7e 22 20 d7 01 40 59 ed a9 47 0d 03 e4 3f
       2.2300417609161234 0.6253725433047449
000060 96 df 56 dc a1 d1 ef 3f 16 06 5d 08 bd 91 f4 3f
       0.9943398765089906 1.2855806662267972
000070 2d e6 be eb 12 c2 7e 3f 46 a1 6d 4f 37 e8 74 3f
       0.007509302053159622 0.005104270988205711
000080 ee e2 5c 80 3f 8e 92 3f e6 17 10 41 b3 a1 91 3f
       0.01812075825657449 0.017218399854776488

running_mean_std.count f8 []
000000 00 00 00 00 40 00 d9 40
       25601.0

a2c_network.sigma f4 [7]
000000 e7 a7 2c bd 57 de 00 be 93 5b 1e be 04 ac 3f be
       -0.04215231 -0.12584816 -0.1546462 -0.18717963
000010 bb bf 6b bd cb c9 d6 3b 6c ff 86 3c
       -0.057555895 0.0065548173 0.016479217

a2c_network.actor_mlp.0.weight f4 [128, 18]
000000 30 89 1e be 3e 14 0b 3e 80 08 9c bd b5 71 23 3d
       -0.1548202 0.1358194 -0.07618809 0.03990336
000010 50 eb c6 bd d7 7f 63 3e 41 81 32 be 28 ff 7f be
       -0.09712851 0.22216736 -0.17432119 -0.24999678
000020 6b 18 44 bd 20 ca d0 bd b0 b7 86 3d 18 70 5d be
       -0.04787485 -0.10194802 0.06578004 -0.21624792
000030 07 ad 51 3e 97 e7 57 be 08 66 7e 3e 87 1c e8 3d
       0.20476161 -0.21084438 0.2484361 0.11333566
000040 e6 15 d9 bd e2 91 e4 3d 31 b0 05 3d 77 b8 a9 3e
       -0.1059988 0.111606374 0.032638732 0.33148548
000050 5d ca e8 3c 8b a2 4c be 39 aa 17 bc 05 fc f0 bd
       0.028416807 -0.1998388 -0.009256893 -0.11766819
000060 1b 76 27 3e 41 91 b5 3e 4c 58 3e 3e 4e ac 2e bc
       0.16353647 0.35462382 0.1858837 -0.010661198
000070 a3 31 57 bb c4 72 70 bd 04 ca c0 3d 12 fb c9 bd
       -0.0032835982 -0.0587032 0.094135314 -0.09862341
000080 03 cd 03 bf 1c cd cb bd e9 90 f4 bd 8f 96 29 3e
       -0.514847 -0.09951231 -0.11941702 0.1656134
000090 47 da 53 3d b2 60 16 3e 43 65 81 3d 37 05 0c bd
       0.051721837 0.14685324 0.06318142 -0.03418466
0000a0 65 ad 84 3e 76 00 36 be c1 3b a9 3d ff a5 2d be
       0.2591354 -0.17773613 0.0826335 -0.16957854
0000b0 ab e5 3b 3d 7b 30 78 bd b9 1b 87 3c 2c af e3 bd
       0.045873325 -0.06059311 0.016492711 -0.11117396
0000c0 ea 6f 5a 3e d3 35 b5 bd 71 da 53 be 80 fb 6c be
       0.21331754 -0.08848157 -0.20688798 -0.23142815
0000d0 1d 97 97 3e 16 91 42 bc 62 d8 8f 3e 75 92 32 3c
       0.29607478 -0.0118754115 0.28094774 0.010899176
0000e0 3f 7f b4 be 70 7d 6e be 85 91 c9 be c9 7f 9d 3d
       -0.3525333 -0.23290038 -0.39368835 0.07690389
0000f0 c6 5a 9c bc cf b8 90 3e e3 02 a6 3c 15 80 8c be
       -0.019086253 0.28265998 0.020265048 -0.2744147
000100 cd a8 46 3d dc f9 44 be b0 eb 0d 3e 55 c6 49 bd
       0.048500825 -0.19235939 0.13859439 -0.04926141
000110 77 eb 18 bd 33 40 00 be 54 74 b1 bd 53 6a 1b 3d
       -0.03733393 -0.1252449 -0.08664766 0.037943196
000120 f6 d8 34 3e 99 6b 43 be 32 bd e5 3d 27 d1 57 3e
       0.17660889 -0.19084014 0.11217727 0.21075879
000130 7b 12 1e be cf 6c 27 be b0 6c 31 3e 34 4a 73 bd
       -0.15436737 -0.16350101 0.17326617 -0.059396937
000140 5e d0 ca bd de 94 85 be 89 66 f1 bd 2a 89 9b 3d
       -0.09903024 -0.2609014 -0.11787135 0.07594521
000150 04 fb 0c bd cc 07 9c bd ed 09 90 3c 07 da a2 be
       -0.034419075 -0.07618675 0.017582858 -0.31806967
000160 ab d8 61 be 4e 65 0b be 14 86 2d be 22 6d 54 be
       -0.22055309 -0.13612863 -0.16945678 -0.20744756
000170 df ec 87 3e 54 81 94 3d 2a e8 bf 3d 57 da 7f be
       0.26547906 0.0725123 0.09370454 -0.24985634
000180 5e 58 05 be 8b 83 44 be 47 05 31 3d a1 fd 84 be
       -0.1302199 -0.19190805 0.043217923 -0.25974753
000190 79 8c af 3c 9e 15 ea bd 8f e4 77 3d 5c 9d e0 bd
       0.021429287 -0.114299044 0.060520705 -0.10967514
0001a0 07 4c 17 3b 28 de af be b9 80 4e be d5 64 e0 bd
       0.0023086087 -0.3434918 -0.20166291 -0.10956732
0001b0 f1 3c 8c bd 06 33 7b be a3 a0 87 3e fc c5 2f bd
       -0.06847561 -0.24531183 0.26489744 -0.042913422
0001c0 fa 67 70 3e 43 7e bc 3d 39 27 fc bd 0a be 27 3e
       0.23477164 0.0920377 -0.12312169 0.16381088
0001d0 7f 4f c6 bd 98 f5 c6 bd 95 f7 84 be 94 79 8c be
       -0.096831314 -0.09714812 -0.2597014 -0.27436507
0001e0 5d 60 d3 3d 3b 05 4f bc 6a 10 9d 3e d9 05 c7 be
       0.10321114 -0.012635524 0.30676585 -0.3887165
0001f0 73 88 03 3e 68 d1 06 be ef 68 ba bd 2d ee 98 3d
       0.1284502 -0.1316582 -0.09102046 0.074673034
000200 9a a0 36 3e ec bd 89 3e 5c 40 4f 3e 1d b2 41 be
       0.17834702 0.2690271 0.20239395 -0.18915601
000210 82 91 2c bd 49 a8 88 be 20 da 9f bd 6e 5f 02 be
       -0.042130955 -0.2669089 -0.07805276 -0.12731716
000220 58 dd 91 3e c6 5c 18 be b8 74 6d 3d 57 13 3b 3d
       0.28489184 -0.1487914 0.05797264 0.04567274
000230 fa 36 26 3e cd 43 55 be a0 67 2d 3e c7 ed 56 3d
       0.1623191 -0.20826645 0.16934061 0.052472856
000240 1f 0f 88 3b 09 84 8c be 13 57 72 3e 0b 2d 25 be
       0.004152193 -0.27444485 0.23666029 -0.16130464
000250 aa 12 cc bc aa be 4c 3e 1b 66 d4 3d 6a 6a 7c be
       -0.024911243 0.19994608 0.103710376 -0.24649969
000260 c0 ea b3 bd d7 33 40 3d ab bc 9c 3e 2a 24 93 bd
       -0.087850094 0.04692444 0.30612692 -0.07184632
000270 5e d0 b3 bd 12 3f 3b bd f0 c2 73 be 33 35 2d 3e
       -0.08779977 -0.045714445 -0.23804832 0.16914825
000280 0d c3 1b 3e 16 78 54 be 31 7f 5d bc 0c 91 d9 3d
       0.15211125 -0.20748934 -0.013519094 0.106233686
000290 da ac df 3c c6 8a b8 bd bb 16 82 3e aa 56 09 3e
       0.027304102 -0.09010844 0.25407967 0.13411966
0002a0 c7 d0 20 3e 51 99 2c bd 1c c5 a2 bd ac b7 2c 3d
       0.15704642 -0.0421384 -0.07947752 0.04216735
0002b0 39 27 64 bd c4 fe 9a bd 18 15 a9 3d da 2d 43 3e
       -0.05570147 -0.07568124 0.082559764 0.1906046
0002c0 94 62 bd bd 2f 47 c9 3d ba b6 c9 3d 1d d9 2b bd
       -0.09247318 0.0982803 0.098493055 -0.041955102
0002d0 06 11 86 bc 81 73 e6 3d 4c 6a 4d be 21 77 1a be
       -0.01636554 0.11252499 -0.2006008 -0.15084507
0002e0 30 8e c3 3e 20 05 ce 3d c3 ee 05 3d e4 74 1b be
       0.38194418 0.10059571 0.032698404 -0.15181309
0002f0 26 09 67 be 7c 7e 62 be 36 b5 8d bd 21 d8 8d 3d
       -0.22562084 -0.22118562 -0.06919329 0.06925989
000300 96 44 9b 3d a1 f3 54 3d f2 68 9a be 60 bc 42 be
       0.07581441 0.051990155 -0.30158192 -0.19017172
000310 db a1 57 bc 3a c6 0d 3e b0 ef 37 3d ae 01 4e 3c
       -0.013161148 0.13845149 0.04490632 0.012573643
000320 dd 02 aa 3d 9c 44 c7 bd d0 0d 8a bd d5 51 f0 3d
       0.083013274 -0.09729883 -0.06740916 0.11734358
000330 b8 b0 1f be e2 1e d1 bd ea 75 4e be 36 c2 a0 3e
       -0.15594757 -0.102109686 -0.20162168 0.3139817
000340 48 d4 86 3e a2 9b 13 3d 59 aa 2c be af 72 54 be
       0.26333833 0.036037095 -0.16861857 -0.20746873
000350 bd 1b af be 79 f2 99 3e 85 e7 14 3e 88 24 5f 3e
       -0.3420085 0.30067804 0.14541443 0.2179128
000360 c3 90 ed 3d 1c 4e 8d 3c 6d ed eb 3c 3d 4c 86 be
       0.11599877 0.01724916 0.028799737 -0.2623004
000370 b8 bc 9a be 0b 4c 35 be d2 c3 89 3d e6 4a 91 bd
       -0.30222106 -0.1770479 0.06726803 -0.07094364
000380 31 4c 31 bc 4e ab cd bd 2f 85 a8 bd 01 a4 a2 bd
       -0.010821388 -0.100424394 -0.08228528 -0.079414375
000390 83 3d da bd 2b 0d 7a 3d e5 57 72 be 86 47 86 3e
       -0.10656264 0.061047714 -0.23666342 0.26226443
0003a0 ee f1 26 be 9a 9e e1 bd e3 a1 15 be 0d dd 09 bd
       -0.16303226 -0.11016579 -0.14612536 -0.033658076
0003b0 f0 5d 0c be 45 a3 b6 be 8c dd d4 3d d8 22 80 be
       -0.1370771 -0.3567144 0.10393819 -0.25026584
0003c0 5f 74 e2 3d e9 17 5a 3e 30 49 3a 3e 2d 4f 60 be
       0.11057352 0.21298184 0.18191981 -0.21905203
0003d0 d3 20 b0 3c 1f 6d 40 be 00 94 3f 3e 5b a2 67 3e
       0.021500027 -0.18791626 0.18708801 0.22620527
0003e0 97 88 41 be f6 86 5e be 1b 0d f5 bc 59 c7 65 be
       -0.18899761 -0.21731171 -0.029913476 -0.22439326
0003f0 09 62 19 3e 6b 72 b8 be e3 d5 e8 3d 7e ff 3a 3e
       0.14978804 -0.36024794 0.11368921 0.18261525

a2c_network.actor_mlp.0.bias f4 [128]
000000 f3 99 24 be 5a b1 f1 bd 9e 78 94 3d 99 23 00 be
       -0.16074352 -0.11801405 0.072495684 -0.1251358
000010 fc 88 3f 3d 2f f4 9c bc 7c 5d 69 3b f6 52 1c be
       0.046761498 -0.019159405 0.00356087 -0.15266022
000020 60 7d f6 3d 4e 50 80 3d c2 28 b1 bd f9 01 bf 3d
       0.12035632 0.06265317 -0.08650352 0.09326548
000030 a5 e5 d0 bd 87 4f d2 3d df c4 3f 3c a8 49 6f 3d
       -0.10200051 0.10269075 0.011704653 0.058419853
000040 3b bb 58 bd ff b0 18 be 80 60 28 be 83 17 21 3d
       -0.052912932 -0.14911269 -0.16443062 0.039329063
000050 d9 b4 1b 3d bb 98 1c 3d b2 9f 0a 3d 0c 9e ba bd
       0.038014267 0.038231593 0.033843704 -0.09112176
000060 64 a9 46 bd 4d b0 bb bd 93 4a e0 3d 8b 97 fd bd
       -0.048501387 -0.09164486 0.10951724 -0.1238242
000070 fb 42 81 bd 6b 99 2d 3d dd b1 bb bd e0 e8 6e bd
       -0.06311604 0.04238264 -0.09164784 -0.058327556
000080 58 9f 6a be 1d c3 47 bc a2 7c 01 ba 98 2f 03 be
       -0.22912347 -0.012192515 -0.0004939531 -0.12811124
000090 e0 81 30 3d 28 13 49 bd f5 05 2b 3d dd 46 2c be
       0.04309261 -0.049090534 0.041753728 -0.16823907
0000a0 2b d6 18 3d 8f f7 d4 bd e6 99 96 bc f4 5b b3 3d
       0.03731362 -0.103987806 -0.018383931 0.08757773
0000b0 7f c4 b6 bc b2 b9 3f bd c2 9c 14 be 7b 92 24 bd
       -0.022310494 -0.046807952 -0.14512923 -0.040178757
0000c0 7b 45 1f be e6 35 9e bd 7a db 16 3d 04 16 eb bd
       -0.15553848 -0.07725124 0.036830403 -0.114788085
0000d0 ed 4d 58 3d 2c e7 21 3d 97 ca 1a be d6 6b c4 3d
       0.05280869 0.039527103 -0.15116344 0.095908806
0000e0 eb fe b9 3d cb d7 00 bd bc 8d d7 3d 89 e7 0c be
       0.09081825 -0.031455796 0.105250806 -0.13760199
0000f0 f0 12 cd 3a 20 a5 d7 bd 58 0e 64 bd 94 a7 04 3d
       0.0015645903 -0.10529542 -0.05567774 0.032386377
000100 af a7 60 bd df 16 be bd 7a 15 98 3d 57 bb 27 be
       -0.054847416 -0.09281706 0.07425971 -0.16380058
000110 e4 35 0e bd ba 36 d4 bd 7c 48 f7 bd 29 ae 43 be
       -0.034719363 -0.10362001 -0.12074372 -0.19109406
000120 de 98 13 3d c2 a3 11 be 54 41 59 3d 57 38 3b be
       0.036034457 -0.14222625 0.053040817 -0.1828321
000130 30 5e 38 bc 34 01 7d bd 89 61 3c bd d6 d8 ad bc
       -0.011252925 -0.061768726 -0.045991454 -0.02122156
000140 3f d6 2d bd 1c 8f 2a bd 29 91 90 bc b5 b5 8e 3d
       -0.04244065 -0.041640386 -0.017647343 0.069682516
000150 fa c7 d1 bd 3b e1 6b 3c 92 99 4c 3d 9d 1a 2b 3d
       -0.102432206 0.014396961 0.049951144 0.041773427
000160 a9 54 9e 3d 85 cb 8d bd c4 27 05 be d2 5c 17 3e
       0.077309914 -0.06923584 -0.1300345 0.14781502
000170 da 5b 7c 3c e3 b0 44 be 1a d9 f8 bd 71 28 bf 3d
       0.0154027585 -0.19208102 -0.12150784 0.093338855
000180 d4 52 5a bd 73 97 41 bd 33 c2 fc 3c 0d cb de 3a
       -0.053301647 -0.047263574 0.03085432 0.001699777
000190 a2 9e 6c 3d 11 37 05 be c9 55 2e bd 54 5f a1 bd
       0.05776847 -0.13009287 -0.04256228 -0.078795105
0001a0 05 e0 df bd bb 2a fa bd 18 02 01 be 9a 6c 13 be
       -0.109314 -0.122151814 -0.12598455 -0.14396897
0001b0 79 7d 93 bc 09 e7 f3 3d 74 a0 d7 3d 56 42 00 3d
       -0.018004166 0.11909301 0.10528651 0.031313263
0001c0 70 35 08 be d6 7b 94 3b 4d 3c 49 3b a0 b0 13 3e
       -0.13301635 0.004531364 0.0030706108 0.14422846
0001d0 dd d1 3e bd ce b8 fc bc f6 86 8c be 54 a7 d6 3c
       -0.04658686 -0.03084984 -0.27446717 0.026202835
0001e0 d2 44 db bd 0e 6a 7c bd 26 db 2e be 8d 4a 00 3e
       -0.10706486 -0.06162458 -0.17075786 0.12528439
0001f0 6c ac 81 bc 25 65 33 bd c5 2a 0f 3d 34 d7 f5 3c
       -0.015829287 -0.04379763 0.034952898 0.030009843

a2c_network.actor_mlp.2.weight f4 [64, 128]
000000 5b bc 3a 3e 5b 33 06 3e c3 b5 cf bd 80 00 af bc
       0.18235914 0.13105528 -0.1014209 -0.021362543
000010 b0 4e 52 be 4d eb b2 bd 7e 39 1e 3b 9f 6d c7 3c
       -0.2053783 -0.08736286 0.0024143155 0.024344264
000020 33 ff 3f 3d b5 36 8d bd ac ff 06 bc de 27 f1 3c
       0.046874236 -0.068952 -0.008239668 0.029437955
000030 d8 56 38 3e 34 07 79 3c 42 9a d5 bd 0e 7e ba bd
       0.18001878 0.015199471 -0.10429813 -0.09106074
000040 de 27 f9 3c 82 3b 18 bd 70 41 49 3e 00 0d 6c be
       0.030414518 -0.037166126 0.19653869 -0.23051834
000050 bb ec db bd 40 8b 64 be fb 2d 59 bd ad 3e fa 3d
       -0.10738512 -0.22318745 -0.053022366 0.12218986
000060 c6 42 15 be 27 29 cb bd dc 96 d8 bc 79 46 9a 3d
       -0.14576253 -0.099199586 -0.026439123 0.07532973
000070 cc 8f 83 3d d3 e8 e3 bd a6 3d 85 3c e1 d0 a1 3d
       0.064239115 -0.11128392 0.016264748 0.079011686
000080 fd 63 58 3e 38 a6 ca 3d 0b c6 66 bd 8c 78 9d 3d
       0.21131893 0.09894985 -0.056341212 0.07689008
000090 38 cf aa ba b8 fe 2a 3e a3 56 9b 3d 0d c5 27 3e
       -0.0013031727 0.1669873 0.07584884 0.16383763
0000a0 c8 f3 b9 bd ed a0 58 3e 5b af 2b 3e da a7 98 bd
       -0.09079701 0.21155138 0.16766112 -0.0745389
0000b0 4a 21 25 bd e9 cb 39 bd 01 83 64 3c 95 4f 13 3e
       -0.04031495 -0.04536048 0.013947249 0.14385827
0000c0 1f 2f 96 3d 67 c7 26 3d 15 97 ad 3c 73 9c 06 bd
       0.073332064 0.04071751 0.021190206 -0.032864045
0000d0 5b 5e 0e be 56 43 d0 bb cf b9 93 bd f4 9d 7e bd
       -0.13903181 -0.0063556833 -0.072131746 -0.062162355
0000e0 34 57 18 3d 21 be 81 bd 19 cc 04 bd 83 aa 8c 3c
       0.03719254 -0.06335092 -0.032421205 0.01717115
0000f0 06 28 94 3c 06 79 70 3e af a6 10 bd 7a 17 28 3d
       0.01808549 0.23483667 -0.03531521 0.041038014
000100 f1 a8 37 3d bb 1f 51 3d 21 90 70 bd 81 15 22 3e
       0.04483885 0.05105565 -0.058731202 0.15828516
000110 46 9f ae 3d 78 59 1c 3d f6 6e f8 bc 01 5c 21 3e
       0.08526473 0.03817126 -0.030326348 0.15757753
000120 b1 7f b7 bc 44 8b 36 3d 93 43 e1 bd e5 2a d2 3c
       -0.022399755 0.044566408 -0.10999217 0.02565522
000130 66 44 0b 3d b2 6c 41 3c 8e 0b 63 3e 3e d9 26 3d
       0.034000777 0.0118057 0.22172377 0.040734522
000140 e1 f9 90 3d e6 ec 2f bc a5 89 f4 3b c3 3f ce bc
       0.070789106 -0.010737633 0.0074626976 -0.025176888
000150 4a 02 eb 3c d3 e3 14 bd 40 f6 60 3d 87 15 20 3e
       0.028687615 -0.036350083 0.054922342 0.15633212
000160 2b 35 30 bd 05 56 d8 3c 3a 13 0f 3d 10 46 81 3d
       -0.043019455 0.026408205 0.034930445 0.063121915
000170 25 52 94 3d b5 4d 4c 3e 9e a7 61 3c 56 3f 2e be
       0.0724223 0.19951518 0.013772873 -0.17016348
000180 55 65 4c bd 72 81 04 bd 80 f4 1b be 7d 16 38 3e
       -0.049901325 -0.03235001 -0.15229988 0.17977329
000190 ed 2a b6 bd df 54 80 3d e1 f4 93 3e a9 00 5b bd
       -0.08894906 0.06266188 0.28897765 -0.053467426
0001a0 e5 14 77 3d 8f 52 ee bd 7b a8 69 bc f8 82 01 3e
       0.06032266 -0.116368406 -0.01426136 0.12647617
0001b0 66 e0 7f 3d 16 5f 4e bd 66 30 0c be 31 bb f4 3d
       0.062469862 -0.05038365 -0.13690338 0.119497664
0001c0 7f 48 62 3e d2 81 10 bd eb 8a d0 3d 08 a8 3e bd
       0.22097968 -0.035280056 0.101827465 -0.046546966
0001d0 65 01 1f 3d ff e2 3f 3d 45 05 11 3e 8a b4 b2 3d
       0.03881969 0.04684734 0.14162166 0.08725841
0001e0 20 4c 86 3b 92 99 88 3d e6 5d 23 3d e1 0c 9b 3d
       0.0040984303 0.06669916 0.03988447 0.07570816
0001f0 f1 b0 c9 3c bc ba 3d be 2e 71 f9 3c 49 e5 2a be
       0.024620505 -0.18528265 0.030449476 -0.16689028
000200 1f 5b 38 bd 02 83 62 bc d7 ec 8d bd e7 5a 73 3c
       -0.045008775 -0.01382518 -0.06929939 0.014853216
000210 9f 2a d5 3d 3b 18 ef bc 96 56 01 3a 1f 08 a3 bd
       0.1040852 -0.029186359 0.0004933862 -0.07960533
000220 8d 08 86 3d 7d 90 88 bd 1e 9f 81 3d 2a 3b dc bc
       0.065446 -0.06668184 0.06329177 -0.02688368
000230 e9 31 b0 3a 3f e4 44 bd ca 77 ab 3d 66 19 1c bd
       0.0013442609 -0.048069235 0.08372457 -0.03811016
000240 7d 14 90 bc 54 b0 76 3c 74 f2 2b 3d d6 78 2b bc
       -0.017587895 0.015056688 0.04197927 -0.010465821
000250 d3 6c 37 3e 77 7d 69 bd dd ff 34 bd a4 00 58 bd
       0.17912607 -0.05700442 -0.044189323 -0.052734986
000260 a8 f8 db 3d 62 3c 17 3e 91 8b 8c bd b5 44 9e 3d
       0.10740787 0.14769128 -0.06862558 0.077279486
000270 29 33 ac bd 14 af 83 bd 37 0b 8d 3d 29 56 7d bd
       -0.084081955 -0.06429878 0.06886905 -0.061849747
000280 f1 fd 64 3e 64 ae 9e 38 1a 39 ef bb e6 4c 20 bd
       0.22362496 7.56651e-05 -0.007300508 -0.039135836
000290 ed b6 09 3c 83 ab 4d bd 6e 48 43 3d f6 f9 e1 3d
       0.008405429 -0.050212394 0.047676496 0.110340044
0002a0 6a cc 44 3d 8b 0f d4 bd 2b 95 a4 bd a0 d0 32 3b
       0.048046507 -0.10354527 -0.08036264 0.0027284995
0002b0 83 90 d9 bd 3f ca 9b 3d 82 72 8f bd 51 19 24 ba
       -0.106232665 0.07606935 -0.070042625 -0.0006259876
0002c0 67 8c cf bb a5 70 bd 3d dd f1 ac bd 71 95 ca bd
       -0.006333876 0.09250001 -0.08444569 -0.09891785
0002d0 45 8a c0 3d 43 70 89 ba 0a e8 96 3d 6b ba 1e 3e
       0.09401373 -0.0010485727 0.07368477 0.155008
0002e0 12 e3 da bd 02 a2 55 bd 3a 8f 47 3b 1e 67 33 3d
       -0.106878415 -0.052156456 0.003045036 0.043799512
0002f0 35 cd 2f 3d 9a 59 0d 3d 71 fa bd 39 f3 b1 d6 bc
       0.04292031 0.03450928 0.00036235483 -0.0262079
000300 c1 10 e0 3d 1c c4 bb 3d bf e5 dd bd f5 4a 8c 3b
       0.109406956 0.09168264 -0.10834836 0.0042813965
000310 0e 75 01 3c 3e cd f1 bc 4f c6 98 39 f3 a4 5b bc
       0.007901443 -0.029516812 0.0002913945 -0.013406026
000320 ed 63 7c bd 05 e8 1f 3c bc da 9d 3d ee e4 b8 bd
       -0.061618734 0.009759908 0.07707736 -0.0902804
000330 07 24 10 be df 9c 0a be cf 3d e0 3c 2f 63 26 be
       -0.14076243 -0.13536404 0.027373223 -0.16248773
000340 6b 39 f7 bb d7 99 17 3d 14 2f 10 be d5 18 c7 bd
       -0.0075446866 0.037011947 -0.14080459 -0.09721533
000350 3b 72 02 be 5c 0d a1 bd 25 60 eb bc 6b 19 d0 bd
       -0.12738888 -0.07863876 -0.028732369 -0.10161098
000360 d3 79 0e be 49 d7 af bc 84 67 12 3d 29 d3 6e 3c
       -0.1391366 -0.02146496 0.03574325 0.014576712
000370 82 14 46 bd 18 2e 9e 3d f4 3b 92 bd e5 4d 2c be
       -0.0483594 0.077236354 -0.071403414 -0.1682659
000380 5c 4b 7d bd 52 97 7d bd fd 39 80 bb cb af 4c bd
       -0.061839446 -0.06191189 -0.0039131627 -0.049972337
000390 4a 60 81 bb 8d 27 e2 bd 3a 51 a7 3d 19 31 2e bd
       -0.003948246 -0.110427 0.081697896 -0.042527292
0003a0 48 35 38 bc ee ef e9 bc 93 fd bc bb 66 7a 17 3e
       -0.011243172 -0.02855679 -0.005767533 0.14792785
0003b0 51 e5 69 bd 89 50 f2 bc 1f 1e 19 be 1c 70 c4 ba
       -0.05710346 -0.029579418 -0.14952897 -0.0014987024
0003c0 e0 14 bb 3d 4c 4d 8a 3d 6a 2d 8f bc e1 68 98 bd
       0.09134841 0.067530245 -0.01747771 -0.07441879
0003d0 e1 e8 d5 ba 80 25 5f 3d 39 1b d7 3d 59 fd a0 bd
       -0.0016320014 0.054479122 0.10503239 -0.07860822
0003e0 87 d4 1e bd 29 df c4 bd ed 97 86 3d ae 7f d9 3c
       -0.0387769 -0.09612877 0.06571946 0.02655014
0003f0 8e 99 36 bd cb 63 8a 3d 4f e4 6c 3b c1 95 55 bb
       -0.044580035 0.06757315 0.0036146825 -0.003259048

a2c_network.actor_mlp.2.bias f4 [64]
000000 71 62 4b be 7d 3e 1f be 88 c4 ef bc f7 b5 a3 bc
       -0.19861771 -0.15551181 -0.029268518 -0.019984229
000010 4c 65 09 be b2 0c 05 be 8e 5f 02 be d5 d2 0d 3d
       -0.13417548 -0.12993124 -0.12731764 0.034624893
000020 82 73 4b 3c 8c f9 d9 3d 6d 65 5d bd 7c 32 9a bd
       0.012417676 0.106433004 -0.054051805 -0.075291604
000030 68 50 16 be af ce 5e be da f5 71 bd 11 0c 01 3e
       -0.1467911 -0.21758531 -0.059072353 0.12602259
000040 08 a3 50 3c 2d bc bb bd 05 34 10 3e f1 d8 db 3c
       0.012734182 -0.09166751 0.14082344 0.026836844
000050 30 7f 41 bd bb 89 c6 3c 32 15 4a bc 3a 54 c3 3d
       -0.047240436 0.024235597 -0.012334155 0.09537549
000060 4f ed 93 bd c6 7b 0c bd e6 3f 09 be 76 47 4b 3d
       -0.072229974 -0.034297727 -0.13403282 0.049628697
000070 92 2b f4 3c b0 0d a8 3b 14 f1 79 bd 3e 4e d7 bb
       0.029805932 0.005128585 -0.061020926 -0.0065706065
000080 d9 a0 fd bd 7c 48 03 be 44 52 c8 bd b4 1c a9 3c
       -0.12384195 -0.1282062 -0.09781316 0.02064357
000090 ec 8e c7 3b 04 a1 35 3d f4 3a 64 3c 04 a5 53 be
       0.0060900357 0.04434301 0.013930071 -0.20668417
0000a0 8c 82 0b 3d 2c ab 54 3d b8 11 27 bd d5 10 43 3d
       0.034060046 0.051921055 -0.040788382 0.047623474
0000b0 9b bc cb bd fa 1c fd 3b 04 1f 95 bd 92 f2 77 3d
       -0.09948083 0.0077244015 -0.072813064 0.060534067
0000c0 3e f8 f6 3c 09 7a ab bd a3 1d 01 3d a0 1f f4 3c
       0.030147668 -0.08372886 0.031522404 0.029800236
0000d0 ff ac 9a bd 8c b8 bf 3d 5a 66 aa 3d b4 77 42 3d
       -0.07552528 0.093613714 0.08320303 0.04747744
0000e0 e6 18 1c 3b bd ff 01 3d 22 ec 77 3d 9a dd 0a be
       0.0023818552 0.03173803 0.06052793 -0.13561097
0000f0 57 79 b5 3c a1 3b 12 3d 1d 4c ee bd 2d 48 59 bd
       0.022152586 0.035701398 -0.11635611 -0.053047348

a2c_network.actor_mlp.4.weight f4 [32, 64]
000000 db bc 1c 3e 62 90 fd 3d 30 e7 47 bd 43 99 9f 3d
       0.15306418 0.123810545 -0.048804462 0.07792904
000010 f4 14 79 3e 6c fc 31 3d cb a7 d5 bc 41 f8 db 3a
       0.24324399 0.04345362 -0.026080986 0.001678236
000020 9d 88 80 bd 5d 0b 83 be 79 17 81 3d 2b ad 5d 3d
       -0.06276057 -0.25594607 0.06303305 0.054120224
000030 82 c2 85 3d 72 26 03 3e 01 c8 1f 3b be c5 74 be
       0.0653124 0.12807634 0.0024380686 -0.23903558
000040 1b a8 7d be f7 9a b7 3d 4f e5 1b be fa b1 a3 bd
       -0.24771158 0.08965104 -0.15224193 -0.07992931
000050 cd 50 8d 3c 45 c6 56 bd 53 95 bc 3d 8f 65 79 be
       0.017250443 -0.05243518 0.09208169 -0.24355148
000060 6d 61 30 bd d1 56 32 be 74 21 70 3d 8c 95 23 be
       -0.043061662 -0.1741593 0.058625653 -0.15975016
000070 64 e7 db bc 55 9b 24 3d 6c d7 c3 bd a2 af 5d bd
       -0.026843734 0.0401872 -0.09562573 -0.054122575
000080 24 6c e8 3c 42 46 96 3d 3e d5 eb bd b4 6c 5d bb
       0.028371878 0.07337619 -0.11515282 -0.0033786716
000090 15 a6 35 3e a7 2e dd bd e0 ce 61 bd 59 42 03 bd
       0.17739137 -0.10799914 -0.055128932 -0.032045696
0000a0 37 37 c7 bd f1 ae cc bc a7 c2 22 3d 79 68 55 3e
       -0.09727328 -0.024985762 0.039736416 0.20840634
0000b0 c1 a9 90 bc 19 14 32 bd c8 3d db 3d de 3e 38 3e
       -0.01765907 -0.043476198 0.10705143 0.17992732
0000c0 86 04 bc 3d b2 88 61 3d d5 52 68 bc a1 43 e1 bc
       0.0918055 0.055062003 -0.014179905 -0.027498068
0000d0 91 41 de bd 8a 57 83 be 7f b3 d2 bd 0b a1 78 be
       -0.108523495 -0.25652725 -0.102881424 -0.24280183
0000e0 09 29 b4 bd 07 74 2c bc 68 03 a7 3c 97 79 57 3e
       -0.08796889 -0.01052571 0.020387366 0.21042477
0000f0 3d 89 31 bd 93 4b 8b bd 70 a8 6c 3e 32 14 5b bd
       -0.04334377 -0.06801524 0.23111129 -0.053486057
000100 e6 07 48 3d 2d 21 49 bd 49 ef aa be 14 79 c3 bd
       0.048835658 -0.049103905 -0.33385685 -0.09544578
000110 fd 81 86 3d 6d 00 4e be 81 e2 8d be c1 8d 1b 3e
       0.06567762 -0.2011735 -0.2771187 0.15190794
000120 65 aa 54 be de db e9 3c 77 25 ec 3c a2 67 ef bd
       -0.20768125 0.028547224 0.028826458 -0.11689688
000130 3e d3 a4 3d 4a f3 50 3d 74 22 f0 bd 88 3e dc bd
       0.08048104 0.05101327 -0.117253214 -0.107541144
000140 a5 ae 08 bd 45 3f 55 be 32 79 8a 3c f7 6e 22 3e
       -0.03336968 -0.20824917 0.016903494 0.15862642
000150 cc df 39 be be 33 79 3d 67 ba 9f 3d a6 91 25 3e
       -0.18151778 0.06084036 0.07799225 0.16168842
000160 4a 83 0f be b8 fa f7 bd c1 23 e2 3d 1a 95 fd 3d
       -0.14014927 -0.12108368 0.11041976 0.123819545
000170 b3 cb 80 3e 29 5d 9a 3d 24 de 84 3c 6a bf 35 3d
       0.2515541 0.075373 0.016219206 0.044372
000180 c4 fb a0 bc b8 c9 8a bd 06 92 86 bd f6 77 ba 3d
       -0.019651301 -0.06776756 -0.065708205 0.09104912
000190 e3 4b 0a 3c ee 18 1c 3d 04 2f 07 be 74 38 2d 3d
       0.008440944 0.038109712 -0.13201529 0.042290166
0001a0 0d a7 3e be 1f e4 eb bc 48 58 26 bd d1 b9 9c 3d
       -0.18618412 -0.0287953 -0.040611535 0.07652629
0001b0 fc eb 22 3d ca 02 bb bb ea e2 2e be 9e 3e 0a bd
       0.039775833 -0.0057071196 -0.17078748 -0.033751123
0001c0 5d aa 58 3d 3e 04 13 be 79 f7 da bd 3f 41 b6 bd
       0.052896846 -0.14357087 -0.10691733 -0.088991635
0001d0 8f 26 44 be 5a 5e db bb 40 4a 92 bd ca 9d 2a 3e
       -0.19155334 -0.006694597 -0.07143068 0.16661754
0001e0 cb e0 e4 bd 93 18 2f be 13 86 fb 3c e4 2d a8 3b
       -0.11175688 -0.17099218 0.03070358 0.0051324237
0001f0 62 bd 0b 3e bc cd 14 3e c6 0d 85 bc 30 c1 eb bd
       0.13646463 0.14531606 -0.01624192 -0.11511457
000200 e8 56 5c 3e 0a 6b 6a bd 12 24 e6 3c 14 8d ee 3d
       0.21517527 -0.057230987 0.028093372 0.11648002
000210 d9 36 56 bd d4 a5 c4 bd fa 72 a2 bd d9 57 9e 3c
       -0.0522984 -0.09601942 -0.07932086 0.019328998
000220 3e ad 90 bc 02 e5 da 3d 9d fd 4e 3e 61 93 12 bd
       -0.017660733 0.10688211 0.20213933 -0.035785083
000230 da 7b 06 be f2 6b c8 3c 9a 85 79 3d 77 8e 7e ba
       -0.13133183 0.024465535 0.060918428 -0.000971056
000240 cd 4b 9a 3d 3e fc 94 bd 0e 9a 09 3d 09 bd 3e bd
       0.07533989 -0.07274674 0.033594184 -0.046566997
000250 4b c8 6b 3d 55 ff ad 3d 83 b7 97 bb 0a a3 fc bb
       0.05756406 0.08495966 -0.0046300306 -0.0077098655
000260 f1 55 0f be b8 3e a5 3d 93 05 90 3d f3 f9 b9 3d
       -0.13997628 0.08068603 0.07032313 0.09080877
000270 70 20 04 3d ef ad 78 3e 17 38 74 bd f3 d1 9a 3e
       0.032257497 0.242851 -0.059623804 0.30238304
000280 6c 0e bf bd da 75 f7 3c 5f b0 d9 bc 77 99 46 3d
       -0.09328923 0.030207563 -0.026573358 0.0484862
000290 99 13 fd bc e8 92 28 bc a4 b1 e3 bd e9 72 d5 bd
       -0.030893134 -0.010288931 -0.11117867 -0.10422308
0002a0 5b 07 20 3d 30 76 e9 3d ec 72 f7 3d d1 2f 7c 3d
       0.039069515 0.113994956 0.120824665 0.06156904
0002b0 e5 c8 5b bd 8b 3e 69 3c 11 ce 25 3e 7d 58 88 bd
       -0.053658385 0.014236103 0.1619189 -0.06657503
0002c0 de 1f 8d 3d f0 e6 f5 bc 53 39 c1 bc 8a 99 29 3d
       0.06890844 -0.030017346 -0.023586905 0.041406192
0002d0 c8 ff 88 bd 43 4c 68 3c 67 b7 04 3e 97 fe 11 3d
       -0.066894114 0.014178338 0.12960587 0.035643186
0002e0 50 4e 47 3e c3 2c 13 3e fa 38 89 bd c2 e3 bb bc
       0.19463468 0.14372544 -0.067003205 -0.022935752
0002f0 6b f4 01 3e 71 d5 eb bd 6f 31 5f bd 05 35 26 3e
       0.12690894 -0.1151532 -0.054490503 0.16231163
000300 d2 55 fc bd 54 9f 7d bc 15 47 ee bd 3f 24 cc bd
       -0.123210564 -0.015479881 -0.116346516 -0.09967851
000310 40 60 fb bd b3 70 39 bd 58 11 41 3d 96 d8 84 3d
       -0.122742176 -0.045273494 0.04713568 0.06486623
000320 05 52 8e bd 65 0d 79 3e 32 83 02 3c c8 01 1a 3c
       -0.06949238 0.24321516 0.00796585 0.009399839
000330 42 61 ef bd 86 e5 72 bc c9 25 25 3e 6a 4b ab 3d
       -0.11688472 -0.01482523 0.16127695 0.083639935
000340 75 1e a1 bb 5b f6 e4 3a 80 83 43 3e 8a fd 00 be
       -0.004916961 0.0017468439 0.19093132 -0.12596717
000350 b9 09 57 be 52 74 d5 bd ef da 14 3e 49 e8 24 bc
       -0.20999803 -0.10422577 0.14536642 -0.010065147
000360 45 68 45 3d c3 d7 17 bc a3 90 12 3d 1e b6 f9 3d
       0.048195142 -0.00926775 0.035782468 0.12192939
000370 23 75 a3 bd 44 46 0b 3e 42 68 ab bd df b1 ae 3d
       -0.079813264 0.13601023 -0.08369495 0.0853002
000380 83 01 9f bd b6 42 f0 3c 92 b7 95 be c7 31 ab bc
       -0.0776396 0.029328685 -0.29241616 -0.02089776
000390 56 9c 61 3d 44 3c fa bd 82 d6 81 be e3 dc 26 be
       0.055080734 -0.12218526 -0.2535897 -0.16295199
0003a0 aa ab b5 bd 71 fd 68 3e b7 54 40 3d 4c ee 54 3e
       -0.08870633 0.2275293 0.04695579 0.20794028
0003b0 0c f5 8a bd a8 87 01 be f4 6a f2 bc f5 b6 a2 3d
       -0.0678502 -0.12649405 -0.029592015 0.079450525
0003c0 c3 b9 81 3d 7e 7d 14 be b6 a8 58 3d 13 b2 b6 bd
       0.06334259 -0.14500996 0.05289527 -0.08920684
0003d0 05 f9 91 bd 48 23 a0 3d c1 0e 1a 3d 54 93 a0 bd
       -0.07127575 0.07819229 0.037611727 -0.078406006
0003e0 80 64 d7 bc d6 0a 52 bd b9 a0 ab ba 11 cc 08 bd
       -0.02629304 -0.051279865 -0.0013094164 -0.033397738
0003f0 d8 99 3e 3e ed c4 22 be f1 43 b2 3d 7a 49 a4 3c
       0.18613374 -0.15895434 0.08704365 0.020054568

a2c_network.actor_mlp.4.bias f4 [32]
000000 ce bc 5c be 8f 56 29 3d f1 c1 ae 3d 51 23 8c 3c
       -0.21556398 0.041342314 0.08533085 0.017106684
000010 e0 e8 97 bd d6 ba 84 3c 9e d1 99 bd 07 96 0b bd
       -0.07417464 0.016202372 -0.075106844 -0.034078624
000020 ff fc 0e 3e 32 29 33 bd 34 65 82 3d d9 3c ff bd
       0.13963698 -0.04374046 0.06366959 -0.12462778
000030 91 03 60 3d 46 e7 3b bc cb 27 ae 3c 5f 79 05 be
       0.0546909 -0.011468714 0.02125921 -0.1303458
000040 1d 93 86 3d 97 7a 64 bb 42 95 dd 3c 13 f5 85 bd
       0.065710284 -0.0034863108 0.02704871 -0.06540885
000050 cb 42 ca bb b7 df 8f bb 3f f4 f8 bd b1 fe bf ba
       -0.006172513 -0.0043906826 -0.12155961 -0.0014648048
000060 e3 d1 a8 bd e4 73 15 3d b1 58 36 bd 8c 16 12 bd
       -0.08243158 0.036487475 -0.044518176 -0.035666034
000070 e1 93 6a 3d 82 94 1e 3d f4 d2 85 bd 70 71 22 bd
       0.057269935 0.038715847 -0.06534377 -0.039658964

a2c_network.value.weight f4 [1, 32]
000000 a3 4c e3 3d ca 8b 82 3e 0d 80 b7 3c f9 40 94 bd
       0.11098602 0.25497276 0.022399927 -0.07238955
000010 96 04 e3 bd 91 06 93 3d da 31 1d 3d 96 36 99 bd
       -0.11084859 0.07178987 0.03837762 -0.074811146
000020 b6 49 db bc aa 9d d8 3c cf 82 66 3d e9 eb 68 bd
       -0.026768547 0.026442368 0.056277093 -0.056865606
000030 0a 9c be 3c 5c 5c 4b 3e 55 88 93 bd 5d 92 3e 3d
       0.023267765 0.19859451 -0.07203738 0.0465263
000040 43 72 3b 3e a8 dc a0 3d 36 1e f2 bd 5a a7 8d bc
       0.18305306 0.07854587 -0.118221685 -0.017291714
000050 46 26 c9 bb 38 d2 05 3e e8 87 83 bc 63 7f 8e bd
       -0.0061385958 0.13068473 -0.016056016 -0.06957891
000060 f1 2f 09 3d b0 8b 9c 3e fc 95 06 bd aa d3 d7 bd
       0.033492986 0.30575323 -0.03285788 -0.105384186
000070 b2 30 4e 3c e5 6a 68 3e 76 77 36 be f1 0b 86 3d
       0.012584852 0.22697027 -0.17819008 0.065452464

a2c_network.mu.weight f4 [7, 32]
000000 4b 2c 94 bc 55 4d bb bd ea 53 95 bd 16 97 b5 bd
       -0.018087527 -0.09145609 -0.07291396 -0.08866708
000010 1e e2 82 3d e3 85 af bd b3 34 30 bd 62 25 3a bd
       0.06390785 -0.08570459 -0.043019008 -0.045445807
000020 1e 5f db bd 3c 4d 94 3e cd 2e 65 bd 18 bc ea 3d
       -0.107115015 0.28965175 -0.055952836 0.11461657
000030 2a 7e 66 3e c0 3d df 3d 22 2f f7 3c 97 38 84 3d
       0.22509065 0.1090045 0.030173842 0.06456106
000040 43 75 0d be a4 c7 fe bd 9d b8 4e be 44 15 94 3d
       -0.13814263 -0.12440422 -0.20187612 0.072306186
000050 9d cd 68 3e eb 5e 77 be 99 37 ab bc 0d 5e 51 bd
       0.22734685 -0.24157302 -0.020900534 -0.051115084
000060 e7 e0 75 be bf 56 69 3e 01 38 0b be dc da 70 bd
       -0.24011575 0.22786997 -0.13595583 -0.05880247
000070 02 16 73 be 76 9f 94 3c f4 4b ed bd c5 0e 21 be
       -0.23738864 0.018142443 -0.115867525 -0.1572829
000080 b0 5e b8 3e 14 85 08 be ac 59 55 be bc 7b 71 bd
       0.3600974 -0.13332015 -0.20834988 -0.058955893
000090 16 44 e1 bc e3 5d 65 3b 9f dd 7a bc ec da c2 bd
       -0.027498286 0.0034998588 -0.015311628 -0.09514412
0000a0 75 92 98 be bd e0 2a 3e 06 c5 8c be d6 df 8c 3e
       -0.29799238 0.16687293 -0.27494067 0.27514523
0000b0 38 79 31 bd 1e 39 93 3d d1 9d ca bd 4e 5b 5b 3e
       -0.043328494 0.071886286 -0.09893382 0.21421549
0000c0 14 76 55 be 01 99 9e bd b2 48 e5 bd 91 28 d4 3d
       -0.20845824 -0.07744027 -0.11195506 0.103593
0000d0 54 e6 a7 bd 6a 18 8f b9 e1 cf 80 3e 05 89 01 be
       -0.081982285 -0.00027293275 0.251586 -0.12649925
0000e0 0e f8 c1 3d 92 f8 08 be 13 75 1b 3e 39 9a 7b bd
       0.09471141 -0.13376072 0.15181379 -0.061426375
0000f0 34 61 a3 bd 99 9d bf bc 35 f4 03 3e 0a 7e 19 bd
       -0.079775244 -0.023390578 0.12886126 -0.037473716
000100 f5 2c 66 3d 0e e7 0d be f1 2d 3a be 1e d3 90 bd
       0.056195218 -0.13857672 -0.18181588 -0.070715174
000110 95 69 8a bb 28 35 43 bc 83 f9 31 3e 8d 27 36 be
       -0.004224012 -0.011914529 0.17380337 -0.17788525
000120 29 b1 c5 3d 58 70 0c be b4 37 d3 bb aa b8 73 3e
       0.09652931 -0.1371473 -0.0064458493 0.23800912
000130 fe b4 b0 bd b8 1e ba bc 52 7d 98 3d 5e 23 61 bc
       -0.086282715 -0.022719726 0.07445778 -0.013741342
000140 09 25 c7 3d 0a 9b 5e bd db e4 a5 bc e7 52 24 be
       0.09723861 -0.054347076 -0.020250728 -0.1604725
000150 8d 2d f5 3b 3e 9c cf bd cc 5c 94 bd d3 c0 ec 3c
       0.0074822367 -0.10137223 -0.07244262 0.02890054
000160 4e 89 e9 3d 60 e2 f3 bd d6 fd f3 3c ed ce 85 3e
       0.11403142 -0.11908412 0.029784124 0.26134434
000170 81 43 0c 3e c9 a7 f9 3d fd c5 8f 3d 67 83 32 3e
       0.13697626 0.121902056 0.07020185 0.17432939
000180 f8 3e 5e 3e 94 dd 83 3c d6 b2 84 b7 ac 7e 90 3e
       0.21703708 0.016096868 -1.5818903e-05 0.28221643
000190 61 ab a5 bd 1d f2 2c 3e 53 37 82 3e 77 9f b9 3d
       -0.080893286 0.16889234 0.25432834 0.09063619
0001a0 21 f2 39 be ea 7d 1e 3e 95 f2 8d 3d 1f 0e 9e 3d
       -0.18158771 0.1547772 0.069310345 0.07717537
0001b0 3b 2b 61 bd 65 ab c9 3d 16 4c 36 3d 7c 8c c3 bd
       -0.05497287 0.09847144 0.044506155 -0.0954828
0001c0 14 ed 3f be 4e c2 8c 3d 60 c1 92 3d 32 8e ea bd
       -0.18742782 0.06872998 0.071657896 -0.11452903
0001d0 5e ce db 3d a9 57 40 be 1f 46 25 bd f4 4b e1 bd
       0.10732721 -0.1878344 -0.040350076 -0.11000815
0001e0 20 08 8b 3e a9 51 18 be 57 12 c7 bc b2 70 d4 3d
       0.27154636 -0.14874901 -0.024300737 0.103730574
0001f0 29 b2 88 3e 9c c0 9c 3d e0 c5 90 3e 46 39 1d be
       0.26698425 0.07653925 0.28275967 -0.1535388
000200 76 4c 26 be b1 25 0c 3e 11 e3 d6 bd fb 72 e9 bc
       -0.16240105 0.13686253 -0.10492528 -0.02849721
000210 9b f0 8c 3e 57 b7 0c bd ba 0a 0c be 56 cd 30 3e
       0.27527317 -0.034354534 -0.13675967 0.1726583
000220 02 e6 d4 bd a0 5a a5 bd 81 3c 4b 3e 08 cb 3f bd
       -0.10395433 -0.08073926 0.19847299 -0.046824485
000230 f9 85 d0 bd a1 fc 43 3d 7b a9 2f bd 8a 7d 01 3c
       -0.10181803 0.047848348 -0.04288624 0.007903466
000240 15 a2 95 bd e1 b5 3a be 2f 0f 12 3e fb ad 44 3d
       -0.07306305 -0.18233444 0.14263605 0.048017483
000250 00 d7 db 3a 24 1c ca 3c cc c9 a7 3d b9 41 ec 3d
       0.0016772449 0.024671622 0.081927866 0.11535973
000260 c9 e9 86 3d 0f b0 7e bd bd c9 c1 bd 16 db 33 be
       0.0658756 -0.06217962 -0.09462307 -0.17564043
000270 dc 05 05 be 42 71 20 3d 92 b8 bd 3d 45 85 2a 3e
       -0.12990516 0.03917051 0.092637196 0.16652401
000280 5c a4 85 3e 26 fa ff bc c5 1c 20 3e 46 86 95 3a
       0.2610196 -0.03124721 0.15635975 0.0011407814
000290 0a e3 a1 3d 5a a5 2f be 8b 40 8d 3e 06 eb f8 3d
       0.079046324 -0.1715292 0.27588305 0.12154202
0002a0 37 b0 45 bd 17 4e d6 bd 8c b4 9d 3c 02 0e 9a bc
       -0.048263755 -0.10464113 0.01925113 -0.018805508
0002b0 1c 13 37 be 3c 28 cb bd 0e 2f 53 be 85 3f 4a 3d
       -0.17878383 -0.099197835 -0.20623419 0.049376983
0002c0 08 2a 30 be 30 60 80 3e 3e b9 2e be e3 4b b6 3d
       -0.17203534 0.25073385 -0.17062852 0.08901193
0002d0 f0 59 3d bc b8 04 13 3d a9 2a bc 3d bd 6f c8 bc
       -0.011557087 0.035893172 0.09187824 -0.024467343
0002e0 e2 de e8 3d d6 04 50 bd 6e 5c 92 bd de 3b 66 bd
       0.113706365 -0.050785862 -0.07146536 -0.056209438
0002f0 aa ee 2c be 86 a0 1e bd 11 91 b4 3c ba 66 2e 3e
       -0.16887918 -0.038727306 0.02204183 0.17031375
000300 2c 18 2a 3d bf 65 09 bd 22 5d 0d be 94 13 6b be
       0.04152696 -0.0335443 -0.13805059 -0.22956687
000310 2d e3 0c bd 20 44 22 3e ae f2 2c be 96 ed 13 3e
       -0.03439634 0.158463 -0.1688945 0.144461
000320 97 e2 7e bc a8 40 f9 bd 59 8c 4d 3e 2d 8c 3b bd
       -0.015556953 -0.12170535 0.2007307 -0.04578798
000330 92 8f 30 3e 64 0b d8 bd d9 fa 22 3e da c9 fc 3d
       0.17242268 -0.105490476 0.15916003 0.12343188
000340 b2 07 e9 bd 0c ce 4f be 8f 0f 4c 3c 90 97 5c 3d
       -0.11378421 -0.20293444 0.012454881 0.05385548
000350 23 85 96 3d 36 71 60 3b e9 0f 47 be 12 30 50 be
       0.073496126 0.0034247166 -0.19439663 -0.20330837
000360 44 4f de 3d cb 21 2c be b1 55 11 3e 17 a9 6b 3e
       0.108549625 -0.16809766 0.14192845 0.23013721
000370 27 f1 c7 3d cc 94 63 3e 4f dd d8 bd eb 0b e5 bc
       0.09762793 0.2222473 -0.10589086 -0.027959784

a2c_network.mu.bias f4 [7]
000000 43 1f fb bc a5 73 7f be 63 8d 2f bc e7 0e c0 bd
       -0.030654555 -0.24946459 -0.010714862 -0.093778424
000010 ec bf e9 bc ef b2 c2 bd ce 14 ec 3d
       -0.028533898 -0.09506785 0.11527406

exp_avg f4 [7]
000000 67 33 c1 3b 44 23 93 3b f0 24 7d 3a 39 2f f5 3b
       0.00589602 0.004490288 0.0009656688 0.007482436
000010 2c 33 da 3b 0c 47 94 3b 3f 18 48 bc
       0.006658932 0.004525071 -0.012212812

exp_avg_sq f4 [7]
000000 f6 e6 01 3a af 62 06 3a 5a dc 24 3a 88 6d 0e 3a
       0.00049553753 0.00051263993 0.00062889385 0.00054331915
000010 66 32 00 3a 15 ff 1d 3a 85 64 0f 3a
       0.00048903225 0.0006027085 0.00054699957

exp_avg f4 [128, 18]
000000 0c e6 1d ba 11 08 44 3a 19 63 e2 ba 58 0e d7 ba
       -0.00060233544 0.00074780086 -0.0017271965 -0.0016407473
000010 e6 ef a8 b9 80 11 ac 39 fc 85 c2 ba 8f 06 a9 ba
       -0.00032222195 0.00032819435 -0.0014840956 -0.0012895631
000020 e8 7f 0c 3a 31 fb d8 ba b1 3b ea ba f5 9d c1 3a
       0.00053596357 -0.0016554353 -0.0017870573 0.0014771806
000030 f6 73 0b 3a 43 4e 1f ba 71 87 ca 39 24 ad 04 3b
       0.0005319709 -0.00060770306 0.00038629354 0.0020244801
000040 38 f9 38 3b 98 5c 42 3a 78 80 26 bb a3 5b ce 3a
       0.0028224718 0.000741431 -0.0025406163 0.0015743863
000050 67 99 d7 ba d5 f9 1d bb df be a1 3a 9c a9 9a 3b
       -0.0016448916 -0.002410521 0.0012340209 0.004719926
000060 1f 39 4b 3a 3f 01 3d ba 63 88 c6 3a 58 bc 56 ba
       0.0007752347 -0.00072099635 0.0015146848 -0.00081915176
000070 05 72 f2 ba 86 97 83 3b 7a ba ab 3a bd 6c 2f bb
       -0.0018497115 0.0040158657 0.0013101839 -0.0026767694
000080 56 72 fa 3a 90 4d b3 3a 4c 8b 7c 3b 2c aa 2b 3b
       0.0019107561 0.0013679732 0.0038535176 0.002619396
000090 98 5e 8a 3a 37 02 ba b9 5f 47 a8 3a 3b 5f b1 3a
       0.0010556756 -0.00035478335 0.0012838653 0.0013532409
0000a0 9c e6 63 39 1e 2d 83 3a 3e 5a a0 39 52 c4 e0 38
       0.00021734316 0.0010007953 0.00030584814 0.0001071772
0000b0 c0 28 e1 38 0c 66 80 38 62 e8 d4 39 d7 16 48 ba
       0.00010736426 6.122523e-05 0.0004060893 -0.0007632798
0000c0 89 f8 f0 39 2a b3 3f ba 67 e3 06 ba a5 ae c5 b9
       0.0004596154 -0.00073127693 -0.000514558 -0.00037704888
0000d0 08 ce 90 ba 53 dd db 39 de 31 ca ba b4 8c 10 3a
       -0.001104773 0.00041935834 -0.0015426239 0.00055141305
0000e0 81 9b 02 3a 4c 01 1b ba 14 2d 2a 3b d2 75 f4 3a
       0.00049822783 -0.0005912974 0.002596681 0.0018650836
0000f0 46 67 69 3a f5 2b 0b 3b 26 89 13 3a 74 a9 8d 3a
       0.00089036336 0.0021235917 0.00056280417 0.0010807947
000100 ea dc a3 3a 3d 6d 0f 3b 3c 40 91 3a 3c a4 92 ba
       0.0012501751 0.002188518 0.0011081765 -0.0011187862
000110 0b 57 b0 3a 40 cc ff ba 42 f9 d2 ba 7f 84 fe 3a
       0.0013453675 -0.0019515827 -0.0016096013 0.0019418149
000120 9c dd 2e ba 18 f6 da b9 ff d5 2d 3b f1 e1 f3 b9
       -0.00066705956 -0.00041763554 0.0026525257 -0.0004651691
000130 3c 27 c1 37 78 e4 3b ba 17 ba 07 ba 70 49 63 b8
       2.3025663e-05 -0.00071675284 -0.0005177571 -5.418941e-05
000140 de 7e 0a ba f4 dd cf 3a 3c bd e4 b8 99 45 34 bb
       -0.0005283187 0.0015858994 -0.00010907135 -0.0027507304
000150 f3 e2 a0 ba c9 a1 4d 3a 7d 49 e6 b7 41 68 4a bb
       -0.0012274667 0.0007844237 -2.7452357e-05 -0.0030884894
000160 d4 6d 3f bb 88 33 ce b9 9f 43 f2 ba ea 41 04 3a
       -0.002920975 -0.00039329776 -0.0018483287 0.00050452224
000170 f9 9b 8a ba 55 fb 21 bb 48 4f ce ba 5c a4 35 3a
       -0.0010575048 -0.0024716456 -0.001574018 0.00069290935
000180 aa 62 38 bb fe 98 2a bb 8c 50 15 3a 47 ce 62 ba
       -0.002813498 -0.0026031132 0.00056959013 -0.00086519535
000190 73 7f 22 bb 79 94 d5 ba f1 85 cc 39 49 9e 97 ba
       -0.0024795204 -0.0016294859 0.00039009706 -0.0011567558
0001a0 ce 6b 0d 3b 16 59 f0 39 c2 0c 23 3b 2f 7c 56 3b
       0.002157915 0.0004584274 0.002487943 0.0032727828
0001b0 26 4a 23 39 bc 7b af b9 fc 24 6a ba 0a 43 c3 b8
       0.00015572514 -0.0003347079 -0.00089319027 -9.3108116e-05
0001c0 b8 01 cd ba 8b 94 7b ba 21 5d 0d ba fc 55 c6 39
       -0.0015640771 -0.0009597025 -0.00053926004 0.00037829566
0001d0 03 6b 2d ba 18 f3 30 ba 2c f9 fb 38 bb 6f 08 bb
       -0.0006615372 -0.0006750091 0.000120150245 -0.002081855
0001e0 29 46 54 b9 ec e9 be 39 42 26 3f ba 75 d7 b9 38
       -0.00020244032 0.0003641391 -0.00072917726 8.8616194e-05
0001f0 0c b1 dc 3a 5e 32 4f 3a 83 00 ca ba 4e 12 9f 3a
       0.0016837432 0.00079039286 -0.001541153 0.0012136193
000200 b3 7c e1 ba c5 7e 3d bb 1b c2 c2 ba 60 8b 17 3a
       -0.0017203301 -0.0028914672 -0.0014858873 0.00057809614
000210 a2 b6 26 bb d9 c3 57 bb 0b 46 89 3a b8 7f f3 ba
       -0.0025438447 -0.003292313 0.0010473145 -0.0018577492
000220 b3 06 68 bb a0 ad 00 3a 38 cd bc 39 33 92 a5 ba
       -0.0035404384 0.00049086846 0.00036011054 -0.0012632072
000230 2e 56 7a 3a d0 38 2d 3b a2 5e a4 3b 65 32 09 3b
       0.0009549585 0.0026431568 0.005016164 0.0020934578
000240 7c 38 52 3a db 59 8c ba ba 57 25 b9 b8 ff 82 3a
       0.0008019281 -0.0010707931 -0.00015768307 0.0009994423
000250 7a f8 ab ba 75 46 fd ba 97 bb a8 ba fc 06 92 3a
       -0.0013120316 -0.0019323366 -0.0012873289 0.0011140998
000260 a7 e9 80 b9 08 94 3a ba 55 e5 bf 3a b9 2a 1b bb
       -0.00024588147 -0.0007117395 0.001464049 -0.0023676588
000270 52 5f d6 b9 74 f9 59 39 1a ad f1 b9 1d 34 59 ba
       -0.0004088828 0.00020787661 -0.00046096073 -0.00082856586
000280 ee 36 e5 39 7d b9 ab b9 40 cd 00 3b 02 e0 22 ba
       0.0004371921 -0.0003275386 0.0019653589 -0.00062131893
000290 9c 51 67 39 07 6d 0e 3b 8d cf 15 ba 08 bb c0 b9
       0.00022060279 0.0021732466 -0.00057148264 -0.00036760443
0002a0 65 fe a1 3a c0 7a 97 3a 4c 0b b1 b9 3c 36 10 ba
       0.0012359141 0.0011556968 -0.00033768488 -0.00055012456
0002b0 39 5a ca 3a 8a 25 7e ba 0e 59 49 b9 8c 48 cc 39
       0.0015438265 -0.0009694925 -0.00019202029 0.00038963964
0002c0 18 af 8c ba 15 9c 0d 3a 30 9c 88 ba 4c f5 d8 ba
       -0.0010733334 0.0005401981 -0.0010422524 -0.0016552596
0002d0 9b 68 3d 3a 53 28 75 3a 65 53 18 3a d2 d6 84 3a
       0.0007225365 0.0009352017 0.00058107666 0.0010134822
0002e0 df 3a 72 3a cf 34 31 3b 07 23 1d 3b 74 91 de b9
       0.000924034 0.0027039533 0.0023977177 -0.0004245151
0002f0 f4 27 bf 3a 1d 71 df 38 ab ed 2f ba 78 c7 dd 3a
       0.001458405 0.000106545376 -0.00067111355 0.0016920408
000300 67 f1 e1 39 65 ce f2 ba aa 33 ae 39 f7 f6 86 3a
       0.00043095203 -0.0018524645 0.0003322636 0.001029699
000310 ea b3 5b 3a f4 25 1b 3a ea 97 11 39 6c 7e 81 b7
       0.00083809963 0.0005918436 0.0001388487 -1.5436868e-05
000320 82 69 83 38 64 0f 94 39 c9 45 a8 39 7d 6e 43 39
       6.266219e-05 0.00028240227 0.0003209545 0.00018637809
000330 7a ba 0e 3a 76 68 0b 3a dd 60 59 39 70 54 ed b9
       0.0005444657 0.0005317995 0.00020730817 -0.00045267073
000340 fb 73 0c 3a 20 70 40 3a 10 26 01 b9 2d ed 37 b8
       0.00053578586 0.00073409267 -0.00012316578 -4.3851487e-05
000350 7e 43 53 b8 4b 9c 24 ba bb 41 3e 3a 98 fd 3c 3a
       -5.0369177e-05 -0.0006279393 0.00072577194 0.0007209419
000360 c4 c2 93 ba 7d 35 0e 3a 7d c6 3f b9 56 e0 33 ba
       -0.0011273255 0.00054248405 -0.00018289122 -0.0006861737
000370 1c 27 a5 3a a2 8c 1d 3b 0b 00 8f 3a a2 82 ce 3a
       0.0012600156 0.0024040123 0.0010910047 0.0015755484
000380 38 a8 f1 39 f6 3f 63 3a 5b 2a fb 39 74 6c dc 3a
       0.00046092435 0.0008668894 0.00047906008 0.001681699
000390 a5 84 39 3a f0 8b 1d ba 8d 0f c5 39 1a 81 a9 ba
       0.00070769555 -0.0006009927 0.00037586354 -0.0012932152
0003a0 42 15 a2 39 c4 bc 0f 3b e7 8b b2 b7 26 d6 17 b8
       0.00030914886 0.0021932581 -2.12844e-05 -3.6200647e-05
0003b0 9f 98 55 3a 54 85 6b 3a f0 a9 65 3a a0 9e ad 3a
       0.00081480475 0.0008984406 0.00087609794 0.0013246126
0003c0 87 b5 e7 3a ba 7c d8 3a e8 0e c6 39 61 47 67 3a
       0.0017678001 0.0016516664 0.0003777661 0.0008822587
0003d0 79 81 b5 3a 59 ba ba 38 c7 80 0e 3a a1 a6 32 ba
       0.001384779 8.903881e-05 0.00054360594 -0.0006814991
0003e0 f8 24 4e b8 c3 75 03 bb d9 9b 8f ba cf 8a 10 3b
       -4.9148657e-05 -0.0020059205 -0.001095648 0.0022055393
0003f0 21 0a f2 b7 40 0a 2b ba 5a 48 08 3b 69 59 7b 39
       -2.8853365e-05 -0.00065246597 0.0020795078 0.00023970533
