runs/BallBalance_18-15-30-20/nn/last_BallBalance_ep_200_rew_2.1752777.pth (torch, 173671 bytes, 36 tensors)

value_mean_std.running_mean f8 [1]
000000 42 73 be 66 4c 65 bf 3f
       0.12263944157025455

value_mean_std.running_var f8 [1]
000000 c9 ed ef d8 da a3 70 3f
       0.004062514183711349

value_mean_std.count f8 []
000000 00 00 00 00 00 01 b9 40
       6401.0

running_mean_std.running_mean f8 [18]
000000 18 3b 9d d2 5d 7d a4 3f 82 57 ba 56 dc 18 b4 3f
       0.040018970451106195 0.07850434415226284
000010 4f a5 6d 19 3b 34 c3 bf f3 99 fb f6 e6 50 b1 3f
       -0.1500314592515601 0.06764071969846679
000020 f8 81 27 72 57 cf aa bf f1 b5 9d 8c 67 33 a8 bf
       -0.052363140759329185 -0.047267185130163265
000030 01 c6 54 1c 50 44 b8 bf 62 46 90 54 b3 3d d1 bf
       -0.09479237262419106 -0.2693909002128746
000040 4f 3c 0e 84 c7 f2 dc 3f 2c 43 b8 00 ee ff ba bf
       0.4523180760961098 -0.10546767728397971
000050 9e cf dc b7 ed d1 c4 3f 60 88 d7 f9 0e c4 c3 bf
       0.162656512047417 -0.15442073058426597
000060 25 5c 80 3b c0 23 b3 bf 93 35 62 34 60 bb c3 bf
       -0.07476426556273504 -0.15415575559420044
000070 58 9a 76 75 f0 2d be 3f be 69 d6 87 f3 02 c3 3f
       0.11788847797161262 0.1485275662678997
000080 61 ab 21 5b 43 d8 c0 bf b8 26 1c 80 5c bb cd 3f
       -0.13159982633382142 0.23228031401986526

running_mean_std.running_var f8 [18]
000000 46 0a 15 c6 62 1f ac 3f 49 9a f9 c9 61 9d 94 3f
       0.05492695491786441 0.02013161463983185
000010 45 e0 a3 38 0c 85 ad 3f 3c 74 1c 55 18 26 be 3f
       0.057655698694305126 0.11776878431233312
000020 ca 94 4a 07 91 1f 95 3f b5 2f 72 94 29 0c 90 3f
       0.020628229208018913 0.015671395955493234
000030 bb d7 b6 a0 78 72 84 3f 11 e0 8d 9e 26 3c 05 40
       0.009983961491211937 2.6543705355688947
000040 5b d3 46 60 17 c8 e5 3f f1 91 51 39 93 eb 11 40
       0.6806752090838971 4.480053802112239
000050 14 9b 2c 5b e6 c9 0c 40 8d 11 64 93 22 d0 e4 3f
       3.59858390073658 0.6504071120003104
000060 d3 08 3e 19 88 b1 f0 3f 38 72 dd b9 a6 38 f4 3f
       1.043342684367009 1.2638308773376945
000070 43 ee e5 46 84 ba 6e 3f 6a 44 6a af 5e bf 7e 3f
       0.0037510474714375366 0.0075067232743474075
000080 ec 46 de 90 ed 2c b7 3f bb 6d e5 2c 39 cb c6 3f
       0.09052929674933424 0.1780768841953043

running_mean_std.count f8 []
000000 00 00 00 00 00 02 a9 40
       3201.0

a2c_network.sigma f4 [7]
000000 a1 7c fd bd 3d 65 07 be cd 4b a3 be a3 cd 1f 3d
       -0.12377287 -0.13222213 -0.3189377 0.03901447
000010 af 20 44 be 23 9a fb bd e5 66 88 be
       -0.19153093 -0.122852586 -0.26641002

a2c_network.actor_mlp.0.weight f4 [128, 18]
000000 73 3f aa bd 7f bf 37 3d 60 80 59 bd d8 ce 1b bd
       -0.08312883 0.04486036 -0.053100944 -0.03803906
000010 cf 5e 23 be 02 74 83 3e ae 5b 06 3d 9a 2c 18 bd
       -0.15954135 0.25674444 0.032802276 -0.03715191
000020 d4 31 61 bd e5 0c 66 be 5a ad 00 3e 9d a5 e2 bd
       -0.05497916 -0.22465856 0.12566128 -0.110667445
000030 1a 0d c3 3d 1b 73 78 be 25 c5 28 3e cc 20 9d 3d
       0.09523983 -0.24262659 0.16481455 0.07672271
000040 ed ad 9f bd 2c 56 bb 3d 8d 5d 48 bd a5 32 6d 3e
       -0.077968456 0.09147295 -0.048917342 0.2316385
000050 45 e3 11 3d 76 ea aa bd 6e c1 58 3e 93 f8 46 bd
       0.03561713 -0.08345501 0.21167538 -0.048576903
000060 b4 f6 2f 3e 6e 17 1f 3e e4 a1 47 3e d0 4b 8a bd
       0.17183954 0.15536281 0.1949535 -0.06752741
000070 0d 1e 37 3e ef d1 b3 3d 20 a2 e1 3d 9e dc 92 be
       0.17882557 0.08780276 0.11017251 -0.28683943
000080 7f ed 44 be 11 89 b0 be 0d eb 11 be 34 f3 01 3d
       -0.19231223 -0.34479573 -0.14249821 0.031726077
000090 2c e1 5e bc dd c9 7a 3e 56 d0 67 3d 31 b0 ff bd
       -0.01360349 0.24491067 0.05659517 -0.12484778
0000a0 d4 7f 90 3e 4d c6 6d bd 20 10 95 bd 81 db 86 be
       0.28222525 -0.058050442 -0.07278466 -0.26339343
0000b0 4f 93 f6 3d 24 1a 9e bd 0a a5 eb 3c 58 93 e6 bd
       0.12039816 -0.0771983 0.02876522 -0.11258572
0000c0 24 bf 46 3e b4 00 4a be 70 9a 07 be 9a a2 83 be
       0.19408852 -0.1972683 -0.13242507 -0.25709993
0000d0 69 e8 30 3e 31 cb 3d bd df a5 0a 3e 7d e8 72 be
       0.17276157 -0.046336357 0.13539837 -0.237215
0000e0 ef 29 33 be c9 bd a4 be 7d c4 b0 bd df d3 61 3d
       -0.17496465 -0.32176045 -0.08631227 0.055133697
0000f0 cb cc 04 3d 83 ba 7a 3e c7 32 3b bd e0 08 a3 be
       0.03242187 0.24485211 -0.045702722 -0.3184271
000100 34 18 9a bd 70 96 07 bd 89 29 b6 3b 2e c1 e8 3c
       -0.07524148 -0.033102453 0.0055591506 0.028412428
000110 fc 66 80 3e 64 6f 8f be 1a 40 1e bd fd 46 02 be
       0.2507857 -0.28014672 -0.03863535 -0.12722392
000120 0d ff 57 3d a1 4f 38 be 54 4d 0f 3e 49 a8 06 3e
       0.05273347 -0.17999126 0.13994342 0.13150133
000130 ff 73 bd be 81 3c cd bd 6d 1d 2d 3e 6a d1 07 be
       -0.3700256 -0.10021306 0.16905756 -0.13263479
000140 96 6a 88 bd 6f 84 b4 bd 76 a4 79 be 45 d5 9e 3d
       -0.06660955 -0.08814322 -0.24379143 0.07755522
000150 c7 b0 61 3d fe 81 82 be 6b bf c4 bc a6 97 7e bd
       0.05510023 -0.254898 -0.024017056 -0.062156342
000160 de 11 46 be 4a 15 36 be 9d 65 63 be 37 e7 ab bd
       -0.19342753 -0.17781559 -0.22206731 -0.0839371
000170 fe 0f bb 3e 6b 3d 74 bc a6 6d 3c bc bc a6 0b bd
       0.3653564 -0.014907221 -0.011500752 -0.034094557
000180 18 14 96 be e5 31 5f bd b4 cf ca 3c 28 fb f8 bd
       -0.29312205 -0.054490943 0.024757244 -0.12157279
000190 76 ac 24 be 2c c2 13 be 00 3c a4 bc 2e 8f 12 be
       -0.16081414 -0.1442954 -0.020048141 -0.14312431
0001a0 1f f4 83 bc 56 9f 03 3e 98 74 4b be 00 63 04 be
       -0.016107617 0.1285375 -0.19868696 -0.1292839
0001b0 d8 4b 3e be fc 53 0c be 3b d3 6f 3e c3 10 06 be
       -0.1858362 -0.13703912 0.23420422 -0.13092332
0001c0 e9 99 86 3e e3 71 68 3e 09 a5 51 be 99 aa 68 3e
       0.262893 0.22699694 -0.20473112 0.22721328
0001d0 6d 3e ac bc 43 e1 40 be b2 02 bb be 36 d9 80 be
       -0.02102586 -0.1883593 -0.36525494 -0.2516572
0001e0 f6 4e f5 3c 43 b6 c9 bd f4 8b 2f 3e 95 ab 16 be
       0.029944878 -0.09849217 0.17143232 -0.14713891
0001f0 62 6a 2b 3e c0 6c 14 be a7 26 59 be d0 97 06 3e
       0.167398 -0.1449461 -0.21206151 0.1314385
000200 5f 33 0b 3e 41 f0 87 3c 99 1a b1 3e cb 12 b2 bd
       0.13593815 0.016594054 0.34590605 -0.08694991
000210 5d 56 2c bd bc 7d 1c bd f0 fe 83 3d c0 23 8a be
       -0.04207455 -0.038205847 0.0644511 -0.269804
000220 da 66 7e 3d e6 ba bf bd 14 bf e3 3d d3 a4 37 3d
       0.062109806 -0.0936182 0.1112043 0.044834923
000230 4b e0 18 3e 88 04 97 be c5 cd 55 3e cb ca be bd
       0.14929311 -0.29495645 0.20879276 -0.093160234
000240 1f 48 90 bc 13 1c b0 bd d2 1f d4 3c e7 bb 2b be
       -0.017612515 -0.08599105 0.02589408 -0.16770898
000250 0a 8a a9 bd cf c1 a1 3e 56 7f 23 bd da 2f 72 be
       -0.08278282 0.31593177 -0.03991636 -0.23651066
000260 5a 06 ac bd 9e 45 82 3d 4b 5b e7 3d 6f 17 2a be
       -0.08399649 0.06360935 0.112967096 -0.16610502
000270 63 55 ae bd f8 a3 4e be d2 1f 91 be 8e 56 d3 3c
       -0.0851238 -0.20179737 -0.2834459 0.025798108
000280 40 22 43 3d 09 11 81 be 71 62 16 3d 61 2d 25 3e
       0.047640085 -0.2520831 0.036714975 0.16130592
000290 91 b9 87 3d 2d 09 41 bc 97 20 68 3e 50 43 1f 3d
       0.06627191 -0.011781973 0.22668682 0.038882554
0002a0 23 d4 8a 3d 56 5a a3 3c 60 18 3a bd a0 1c 0f be
       0.06778743 0.019940536 -0.045433402 -0.13975763
0002b0 d2 99 53 3c df 44 e1 bc 27 2d b8 bd fa 67 7c 3e
       0.012915092 -0.02749866 -0.08992987 0.24649039
0002c0 fd af 1e 3e 83 40 80 bd aa c1 ca 3d d9 81 8e bb
       0.15496822 -0.06262305 0.0990022 -0.004348975
0002d0 1a a6 6b 3e 84 5c f2 bd b1 31 8d be b5 8e 10 bd
       0.23012581 -0.11834052 -0.27576974 -0.035292346
0002e0 ce 6b 01 3e 85 29 90 bd ae 1c 32 3d f8 5f 64 be
       0.1263878 -0.07039169 0.043484382 -0.22302234
0002f0 2d a9 68 be a5 ee 52 be e1 85 64 be b3 89 14 3e
       -0.22720785 -0.20598848 -0.22316696 0.14505653
000300 19 a4 23 3e 04 8e 1e 3e d1 b7 8b be 6e 52 95 bd
       0.15980567 0.15483862 -0.27288678 -0.07291113
000310 ed 64 78 3c 01 aa 7f 3e f5 7f 0c 3d b0 70 fe 3c
       0.015160781 0.24967195 0.034301717 0.031059593
000320 99 bb fd 3d 6f 64 19 be b5 a1 ad bc f1 40 81 3e
       0.12389297 -0.14979719 -0.021195272 0.2524486
000330 ec a9 3b be 5c d3 f1 bd 44 e6 8d be 32 07 a0 3d
       -0.18326539 -0.11807892 -0.2771474 0.078138724
000340 0d f1 b7 3d eb 38 82 3d cf 3c 07 be 03 bc 76 be
       0.08981524 0.063585125 -0.1320679 -0.24095158
000350 31 a7 8d be 44 4c 7e 3e a1 66 9a 3d 42 6b bc 3e
       -0.2766662 0.2483378 0.07539106 0.3680058
000360 b4 41 1c 3d 9a b1 b9 3b a9 bf 6f 3e 23 cc 0d be
       0.038148597 0.0056669237 0.23412956 -0.13847403
000370 57 8d 14 be 45 b4 71 bd b9 82 9a bd d6 0c 92 3d
       -0.14507042 -0.05900981 -0.075444646 0.071313545
000380 9c 77 a5 bd dd ce c3 bd ae 60 d9 bd 6e 68 37 bd
       -0.08079454 -0.095609404 -0.10614143 -0.044777326
000390 93 8d f5 bd 9a 24 d4 bd 99 2b 0a 3e 20 98 e1 3e
       -0.11989894 -0.10358544 0.13493194 0.44061375
0003a0 96 4e d7 3c a3 8f 88 be 68 7d 44 be bb 36 d7 bd
       0.02628259 -0.26672086 -0.19188464 -0.10508486
0003b0 3a 97 a8 bc e3 4d 9d be 7a 24 21 3e e8 fa 31 be
       -0.020579923 -0.30723485 0.15736571 -0.1738087
0003c0 39 f9 70 bd bc 1a 04 3e 79 74 5a 3e 64 92 49 be
       -0.058831427 0.12900823 0.21333493 -0.1968475
0003d0 1a d1 a6 3d 29 21 31 be ab 07 82 3d fd 76 31 3e
       0.08145352 -0.17297806 0.06349119 0.17330547
0003e0 1b 06 05 3e 4a b1 01 be 18 bc 09 3c 7d 79 a7 be
       0.1299061 -0.12665287 0.008406661 -0.32709876
0003f0 c0 2b 9a 3e 61 57 4e be 86 58 a1 3d 6c 7b 46 3e
       0.30111504 -0.2015052 0.07878213 0.19383019

a2c_network.actor_mlp.0.bias f4 [128]
000000 c0 61 42 3c 45 14 0a 3d 1b 09 eb 3c 68 94 99 bb
       0.011864126 0.033710737 0.028690865 -0.004686881
000010 94 6a 65 3d a1 e2 b7 bd 58 0f 67 bd 84 5d 34 bd
       0.056009844 -0.08978773 -0.056411117 -0.044034496
000020 23 d0 ae bd 05 1f 0d be fe 4c 37 3d 52 b6 80 bd
       -0.08535793 -0.13781364 0.04475116 -0.06284775
000030 08 20 07 bd 26 7e 8a 3d b7 34 8e 3d a7 77 85 3d
       -0.03298953 0.06762342 0.06943648 0.065169625
000040 7f 3d 2f bc 6b 34 8a bc 03 c1 a6 bd e0 7f 54 bd
       -0.010695814 -0.016870698 -0.08142283 -0.051879764
000050 46 0e b2 bd 45 30 dc 3c 9f 4c 98 bd e3 fc a0 3c
       -0.08694129 0.026878485 -0.07436489 0.019651836
000060 14 44 2f 3d 94 de 2d bd f7 40 70 3d ec ad 9e 3d
       0.042789534 -0.042448595 0.058655705 0.07748017
000070 08 43 16 3d 0c 0d 7a 3d 54 cb 37 bd 2f 95 32 3c
       0.03668502 0.0610476 -0.044871643 0.010899826
000080 9d 4f fc bd 2d 55 81 bc e7 1f 64 bd ff 1b b0 bd
       -0.123198725 -0.015787685 -0.055694487 -0.0859909
000090 53 05 15 bd ad af 05 be a4 30 f4 bc b1 07 3c bd
       -0.03638203 -0.13055296 -0.02980835 -0.045905773
0000a0 d2 ff e7 bb 48 83 c7 bc a8 b9 e6 3c 8a 84 2d 3b
       -0.0070800567 -0.024354592 0.0281647 0.0026476705
0000b0 d3 50 ad bd b9 80 09 bc f8 9d 8d bd 5d 82 d0 bc
       -0.084626816 -0.008392506 -0.06914896 -0.025452787
0000c0 97 26 3f 3b aa 47 b0 3d 6d b3 14 bc ff 59 dc bd
       0.0029167288 0.08607419 -0.009075982 -0.10759353
0000d0 e3 63 56 bd b4 eb 7b bd 2d 69 c9 bd a7 bd d0 bd
       -0.052341353 -0.06150408 -0.09834514 -0.10192423
0000e0 c3 f6 aa bd 94 d0 0a bd 47 37 16 bd 6a f6 bb 3c
       -0.08347847 -0.03389032 -0.03667381 0.022944648
0000f0 f1 88 bb 3c 66 cd 65 bc 00 86 79 3d 54 0a 65 bd
       0.022892447 -0.014026022 0.060918808 -0.055918053
000100 29 05 a3 bd 9a 0b 94 bc 44 9a 0b be 17 53 03 be
       -0.079599686 -0.018071938 -0.13633066 -0.12824665
000110 4b b0 0f bd 6a 0e 1e bd e6 70 7c 3b 65 ab 0f be
       -0.035080235 -0.038587965 0.003851944 -0.14030226
000120 07 87 89 3d 96 76 a7 3b 5d 6c 40 bc 2a 1d ba 3c
       0.067152075 0.005110572 -0.011744586 0.022718985
000130 77 06 26 3d 89 b4 54 3c a9 da c7 bd 0a 1c c9 ba
       0.04053351 0.012982496 -0.09758503 -0.0015343439
000140 3f ad 58 3d ad 89 41 3b 80 30 8d 3c 89 b5 14 bd
       0.052899595 0.0029531524 0.01723504 -0.036305938
000150 dd 0e 00 3d be e1 62 3c cd 1e 8b 3d 1e 72 8d ba
       0.031264175 0.013847766 0.06792984 -0.0010791456
000160 ee 11 ee bc d5 71 60 3c 57 a4 d5 bc d8 07 88 bc
       -0.029061284 0.013699015 -0.02607934 -0.016605303
000170 97 6d b8 bc 6b 5d d2 bd 06 78 87 bd 05 ee 31 3d
       -0.022513194 -0.10271724 -0.066146895 0.043439884
000180 c6 b9 8b bb 9b b7 f5 bd 20 fa 36 3d a9 31 d5 bc
       -0.0042640893 -0.119979106 0.04467213 -0.026024656
000190 01 a0 02 3d 56 93 3f bd 93 fe 32 bd 85 e3 64 3d
       0.031890873 -0.04677137 -0.043699812 0.055881042
0001a0 34 3f 9c bc 1c df 2b bd 62 00 bb b8 26 7b d4 bc
       -0.019073106 -0.04196082 -8.916926e-05 -0.025937628
0001b0 b2 9f 25 3d d0 f3 8e 3d f3 af 88 bd 9a de a9 3d
       0.0404355 0.06980097 -0.06674185 0.08294411
0001c0 e6 47 1e bd d6 ae 21 bc 2a 17 94 3b 7c a0 61 3d
       -0.038642786 -0.009868344 0.004519363 0.05508469
0001d0 55 c5 6c bc 48 74 1a be b1 10 13 3b 5d 95 0c bd
       -0.0144513445 -0.1508342 0.0022440369 -0.03432213
0001e0 e7 f1 03 be df 8c 94 bc e4 90 43 bd c0 12 19 bd
       -0.12885247 -0.018133579 -0.0477456 -0.037371397
0001f0 cf 7d 38 3d 22 59 20 be 74 97 c1 bd 0a a8 c9 bd
       0.045041855 -0.15659001 -0.094527155 -0.09846504

a2c_network.actor_mlp.2.weight f4 [64, 128]
000000 b1 2f d7 3d e6 26 91 3c 49 89 02 be ba b9 dd 3c
       0.10507143 0.017718744 -0.12747683 0.0270661
000010 44 cc 51 3e cb d7 ac 3d 74 c9 13 3d 52 f3 11 be
       0.20488077 0.08439597 0.036080793 -0.14252976
000020 8b 43 22 3e 1d 43 7a be 14 10 a2 bc fe 23 77 3d
       0.15846078 -0.24439664 -0.019783057 0.06033706
000030 a9 f0 06 3e 2e eb 7c bd c0 68 d0 3c 38 d3 4d bc
       0.13177742 -0.061747722 0.025440574 -0.0125625655
000040 b5 9c 8a bd e3 95 d7 3c 16 7f 15 3d 67 25 45 be
       -0.06768171 0.026316589 0.03649815 -0.19252549
000050 e2 34 44 3b 7b d8 3c 3d 45 56 6b bd cb 22 ab 3c
       0.0029938747 0.04610489 -0.05745532 0.020890614
000060 bf 5e 0a bd ce 19 e1 bd dc 89 fa 3b 13 6b 05 3e
       -0.033781763 -0.1099125 0.0076458286 0.13029127
000070 bf a9 44 bd 88 34 39 be 9b 1b db bc a2 de fa bd
       -0.048013445 -0.18086445 -0.026746562 -0.12249495
000080 1f d8 eb 3d 08 07 5c bd fa e3 15 be fc 91 9d bd
       0.11515831 -0.053717643 -0.14637747 -0.0769386
000090 6c 51 09 3b 2b d6 22 bd dc b6 35 bd 31 e8 31 3d
       0.0020953072 -0.039755028 -0.04436384 0.043434326
0000a0 09 ba e2 bd ff 1d 27 3d e4 d9 01 3c f9 83 dc 3b
       -0.1107064 0.04080009 0.007925484 0.0067295996
0000b0 dd 1d 8e bd 4b 68 ba 3d 5a 5f dc bd 71 02 d6 bd
       -0.0693929 0.091019236 -0.10760374 -0.104496844
0000c0 f9 f6 26 be 45 b7 c9 bd 4e 15 24 3e 1a 5f 44 bd
       -0.1630515 -0.09849409 0.16023752 -0.04794226
0000d0 ef 72 10 be c3 24 85 bc 71 88 41 be 68 4a bb 3c
       -0.14106344 -0.01625288 -0.18899705 0.022862628
0000e0 61 84 1f be fa a0 a9 bc 8a 13 e4 bc ee 97 12 bb
       -0.15577842 -0.020706642 -0.027841348 -0.002236839
0000f0 f7 e8 a5 bc c7 53 76 3d 1f c0 26 3d 12 ec b1 bd
       -0.020252688 0.06013849 0.040710565 -0.08687605
000100 b6 f0 91 3d f8 5a d2 bc fa 42 1b be 1b ec 74 bd
       0.0712599 -0.025678143 -0.15162268 -0.05979548
000110 90 fe 13 3d a1 a2 c2 bd 4e f0 73 bc d7 f2 e4 bc
       0.03613144 -0.09503675 -0.014888836 -0.027947826
000120 d9 ed 26 be d3 90 11 3d 68 56 03 3c 59 f0 a7 3b
       -0.16301669 0.035538506 0.008016206 0.005125087
000130 8a 9a fb 3d 01 ef 80 3b f3 9e ce 3d 70 c2 92 3c
       0.12285335 0.0039347415 0.10088911 0.01791498
000140 b6 ad 3a bc 7a 9f 14 be 69 46 00 3d 62 1b 32 be
       -0.011393955 -0.1451396 0.03131715 -0.17393258
000150 94 0f b4 bd da a6 36 bc d7 b8 88 3c de fd 63 3d
       -0.08792034 -0.011148179 0.016689701 0.05566203
000160 1e 28 02 3e a1 da 3b bd 7b 4a fb 3d 01 06 6b bc
       0.12710616 -0.045862798 0.122700654 -0.014344693
000170 47 aa cf bd 01 69 06 be 69 3c 4a 3b 0e 9b 14 be
       -0.101399 -0.13125993 0.0030858761 -0.14512274
000180 5a 31 7a be 83 ac ad 3c 72 64 aa bd e4 50 4b bc
       -0.24432889 0.021200424 -0.0831994 -0.012409423
000190 c8 9c 02 ba 2f 75 16 3a b4 95 b6 3c 0a f3 fd bd
       -0.00049824687 0.00057395076 0.02228818 -0.12399872
0001a0 49 8f 16 bc d7 f3 0e be 94 8b e8 bc 87 63 94 bd
       -0.009189435 -0.13960205 -0.028386869 -0.07245546
0001b0 e9 e5 d9 3d 95 ff aa bd b8 7c 69 bc e9 28 f7 3d
       0.10639555 -0.0834953 -0.014250927 0.1206835
0001c0 fe 5d da ba 51 41 86 bd 95 ac b0 3c be 55 a6 3b
       -0.0016660092 -0.06555427 0.021566669 0.0050761392
0001d0 f2 b4 40 be be ed ab 3d cb c9 95 bd ed 5d 49 bb
       -0.18819025 0.08394955 -0.073138796 -0.003072615
0001e0 55 79 74 3d e8 b7 b6 bd f0 01 fa bb 0c ac a0 3d
       0.059686024 -0.08921796 -0.0076296255 0.07845315
0001f0 bf 8a 02 3e 3c 60 cf bd 3f df f5 3c e6 2d 03 3e
       0.1274824 -0.10125777 0.030013679 0.12810478
000200 65 6d 07 be f5 36 65 3d 01 b5 e3 3c bf bb 9d bd
       -0.13225324 0.055960614 0.02779627 -0.07701825
000210 3b 9d 0b 3e 4e 39 e9 bd d3 79 02 be 9d e1 49 bc
       0.13634197 -0.11387883 -0.12741785 -0.012321857
000220 c9 b1 99 3d 54 d5 e6 bd 6d 12 11 bd b0 ef e1 bc
       0.07504613 -0.11271158 -0.035417963 -0.027580112
000230 a2 cd 4e bd 0b 40 9b bb 2b 0d b6 bc 9e 55 9b bc
       -0.050489075 -0.004737859 -0.022223076 -0.018961724
000240 77 3b 54 3c 80 bb 22 3b f5 b5 8b bc b0 4f 3f 3d
       0.012953631 0.0024830997 -0.017054537 0.046706855
000250 c8 ef 82 3d e1 cd 71 bd b9 8a d6 bc 3c 1e fa 3c
       0.06393391 -0.059034232 -0.026189195 0.030531995
000260 df fc ee 3b fd 98 ae 3c 95 d2 b6 bd 2a 42 15 bc
       0.007293328 0.021313185 -0.08926884 -0.009110013
000270 e9 c7 eb 39 e9 76 93 3a ba 68 b1 bd 05 76 a0 bd
       0.00044971638 0.0011250648 -0.08662553 -0.078350104
000280 ca 2b c3 bc b8 14 26 bd e0 2b fa 3c 6f fc a6 bd
       -0.023824591 -0.040547103 0.0305385 -0.08153617
000290 49 4b 26 bd 60 e6 50 3d db c5 0a 3d 82 96 30 bc
       -0.04059914 0.051000953 0.033880096 -0.010778071
0002a0 dd 30 03 bd 01 07 03 be 98 e7 c8 bd 50 1b 33 bd
       -0.03202902 -0.1279564 -0.09809798 -0.04372722
0002b0 70 35 23 bc f8 07 9d 3b bd 1f 6b bd 52 2f 14 3d
       -0.009961471 0.0047922097 -0.057403315 0.03617794
0002c0 92 70 aa bd 55 e0 35 bd 48 54 fe 3d 11 2f af bd
       -0.08322252 -0.044403393 0.12418419 -0.08553899
0002d0 37 97 66 bc 86 50 fb 3c 13 04 a8 bb e1 cf 5e 3e
       -0.014074138 0.030678045 -0.005127439 0.21758987
0002e0 83 d5 2e bd 52 a1 e0 bb cb 7d cb 3d 5e e9 9e bd
       -0.04268409 -0.0068551684 0.099361025 -0.07759355
0002f0 3c ce 19 3d c6 e4 90 3d dd 74 c0 bd 38 15 0a bd
       0.037550196 0.07074885 -0.0939729 -0.033711642
000300 da 88 b1 3d b7 e1 11 be 6a 1a b9 b8 50 3a 10 bd
       0.086686805 -0.1424626 -8.8264074e-05 -0.03521186
000310 68 10 1e bd 63 5a d1 bd b5 a2 bd bc d5 51 51 bd
       -0.038589865 -0.10222318 -0.023148874 -0.05110343
000320 d4 3d 1a be ee ac 67 bb c2 60 5c bd 1d bc 4d bc
       -0.15062648 -0.0035350877 -0.053803213 -0.012557057
000330 95 64 ae bc 4f 18 08 be 6a 00 fc bb 8c c4 bd bd
       -0.021288196 -0.13290523 -0.007690479 -0.09266004
000340 03 d6 c2 bd 73 1f 70 bd ce ae 19 be b6 74 f6 b9
       -0.09513476 -0.058623742 -0.15008089 -0.00047007733
000350 5e 25 11 be df f1 0e be 04 be 13 bd c5 88 c8 bd
       -0.1417441 -0.13959454 -0.036069885 -0.09791712
000360 1e 9a b3 bd 6e 7b 1e 3d df 87 25 bb 2a 2f 3c bd
       -0.0876963 0.03869193 -0.0025257987 -0.045943417
000370 60 71 f1 3c fa 00 6e 3b e1 42 19 be 68 eb ed bd
       0.029473007 0.00363165 -0.14966919 -0.11617166
000380 5f df b7 bd 35 b6 80 bc e4 3d be bd 37 43 01 be
       -0.089781515 -0.015711883 -0.092891484 -0.12623297
000390 3a 69 cc 3b f3 a4 9c bd 01 f3 37 3d 4b 64 56 bd
       0.00623813 -0.07648649 0.04490948 -0.05234174
0003a0 60 23 ab bd 22 59 a8 bb 4c a2 d7 bd e9 fb 06 bd
       -0.083563566 -0.0051375786 -0.105290025 -0.032955084
0003b0 84 e8 ea bd 9f cd f1 bc 1f 7b fa bc 02 48 9d bd
       -0.1147013 -0.029516993 -0.030576287 -0.0767975
0003c0 61 e3 85 bd 63 1e b7 3c be d1 1e bc f0 d1 d9 bd
       -0.0653751 0.022353357 -0.009693561 -0.106357455
0003d0 d9 ea 08 3d 9a 85 94 bc 36 b9 bc bc 0a 6d c1 bd
       0.033427093 -0.018130112 -0.023037534 -0.09444626
0003e0 61 a0 88 bd 92 73 0e be 03 83 5d 3d eb 1f 3b bd
       -0.06671215 -0.13911274 0.05408002 -0.045684736
0003f0 ea f2 3b be fb a7 7d 3c 95 cf a9 bd 7f d9 39 3d
       -0.18354383 0.015481944 -0.08291546 0.045373436

a2c_network.actor_mlp.2.bias f4 [64]
000000 70 45 33 bd 05 7d 05 be ab c6 4a ba 08 e2 48 bd
       -0.043767393 -0.13035972 -0.00077352923 -0.049043685
000010 20 e8 89 bd 06 3f 94 bd ba f9 2d bd 25 b4 14 3c
       -0.067337275 -0.07238583 -0.042474486 0.009076153
000020 e1 e4 81 3c bb 1d a9 bc 07 75 e0 bd 04 41 d0 bd
       0.015856208 -0.02064406 -0.10959821 -0.10168651
000030 85 04 ed bc 66 36 91 bd 3d 56 0f 3d 1d 01 d4 bc
       -0.02893282 -0.07090454 0.034994353 -0.025879437
000040 9a 9b 08 3d ae a8 eb bd 63 69 7e 3b 39 36 c3 3b
       0.03335152 -0.115067825 0.003882014 0.0059573916
000050 f9 d8 19 bd a0 a4 93 bc db 47 70 3d a9 19 18 be
       -0.037560437 -0.018022835 0.058662277 -0.14853539
000060 82 cd fa bc d5 99 24 be 51 06 92 3d 06 e5 f8 bc
       -0.030615572 -0.16074307 0.07130111 -0.030382644
000070 94 7a f5 3c 2f 69 4d bb 40 9f 14 3d 5f 78 9e 3d
       0.029965676 -0.0031343212 0.036284685 0.07737803
000080 2a 45 b0 bd 2b 4e 7d bd e8 f3 9f bd 7c 57 f5 bd
       -0.08606942 -0.061842125 -0.07810193 -0.11979577
000090 82 e8 a6 3c f5 60 08 bc 15 03 b8 bd d7 57 32 3c
       0.02037454 -0.008323898 -0.08984963 0.0108852
0000a0 65 2d 8a bb de da 92 3c b1 90 22 be dc 19 07 bd
       -0.004216837 0.01792663 -0.15875508 -0.032983646
0000b0 21 25 25 3c 9c 21 fb bb 23 d0 8b 3c 04 df f8 bc
       0.010079653 -0.0076639187 0.01706702 -0.03037978
0000c0 d9 b5 33 3d 34 3e 31 bd aa 13 06 3c e9 95 53 3c
       0.043874595 -0.043272212 0.008183399 0.012914159
0000d0 e3 5b 51 bd 93 8a 9d 3c a3 c9 3f bb 45 3c 58 3d
       -0.05111302 0.019231116 -0.0029264472 0.052791853
0000e0 31 d3 ca bd 27 e5 d7 bd 11 af 1d ba 84 a5 2d 3d
       -0.09903563 -0.10541754 -0.00060151616 0.042394176
0000f0 04 b8 55 3c af 26 f2 3d 5b 92 fa bd 0d 6f 6b bd
       0.013044361 0.118237846 -0.12234946 -0.057478953

a2c_network.actor_mlp.4.weight f4 [32, 64]
000000 05 68 21 3e db 5a 70 3d fa 77 ee 3d 4d 81 73 3e
       0.15762337 0.058680397 0.116439775 0.23779793
000010 94 44 93 bc ff 9e 0b 3e 90 6e fb 3c 6c fc 4d 3c
       -0.017977037 0.13634871 0.030692369 0.012572389
000020 f1 4b d2 bd 7b 84 4e be 99 f3 02 bd 7e fb 44 3e
       -0.10268391 -0.20167725 -0.031970594 0.19236562
000030 4e 5e 9c 3c 7b 63 4f be 4a 80 ce 3b 52 09 95 bd
       0.019087937 -0.20252793 0.0063019143 -0.07277168
000040 ba c6 f4 bd 83 e1 7d 3d a3 74 c1 b9 2a df 14 3b
       -0.119519666 0.061982643 -0.0003689873 0.0022716024
000050 a1 eb e9 3d 8c bb a8 3d 17 08 33 3c f5 a7 e9 3c
       0.11421896 0.08238897 0.010927222 0.028522471
000060 f9 8f 35 bb fa 64 2a be 02 bb 03 3d 88 1e 1c be
       -0.0027704223 -0.16640082 0.032160766 -0.15246022
000070 9e 80 02 3d 73 6b e9 bd 54 3d 59 3d a9 04 88 be
       0.03186094 -0.113974474 0.053037003 -0.26566055
000080 49 4e 12 bc 7d f7 6f bd 5c 49 b6 3d ea c8 ce bd
       -0.008929797 -0.058585633 0.08900711 -0.10096915
000090 53 94 bd 3d d3 fc c4 bd 65 17 2c 3d fe 3b ca bd
       0.09256806 -0.09618535 0.0420145 -0.09874724
0000a0 04 d2 2d bd 9f f0 e6 bc c8 0a cb 3d 19 bb 1d 3e
       -0.042436615 -0.028190909 0.09914166 0.15403403
0000b0 79 3a b0 bd 0b 2c c8 3c 54 49 03 3d 8c 5f b8 3d
       -0.08604903 0.024435064 0.032052353 0.09002599
0000c0 b5 f4 59 bd b8 71 04 bd f4 66 0a bc 34 09 53 3e
       -0.053211886 -0.032335013 -0.0084473975 0.2060898
0000d0 a3 24 37 be 33 12 69 bd 6f cd 9d 3d 0e ef 5c bc
       -0.1788507 -0.05690212 0.07705199 -0.013484729
0000e0 fd 69 e6 bb 19 bd 8c bd 6d d4 93 3c 71 aa b7 bc
       -0.0070316778 -0.06872005 0.018045628 -0.02242014
0000f0 4f 4c 28 be 4e 6d 05 bd 70 1e 86 3e 8d 8f 3f bd
       -0.1643536 -0.032574944 0.26195097 -0.04676776
000100 2a 1f ce 3d 2f ca 6f bd 38 6c 31 be b4 f5 f0 bd
       0.10064538 -0.058542427 -0.17326438 -0.11765614
000110 8c c6 af bd cc 8c 3f bd 0b 00 bf bd a3 4c f3 3d
       -0.08582792 -0.046765134 -0.0932618 0.11879852
000120 4f 6e 35 be d1 1d 05 3d f0 34 41 3d 6c fc e8 bd
       -0.1771786 0.03249914 0.047169626 -0.11376271
000130 93 e6 86 3d c1 4d 39 bd c1 f2 0f be f1 d2 ea bd
       0.06586947 -0.045240168 -0.14057447 -0.11466015
000140 e7 9c 78 bd c6 e8 1b be c6 d2 1d bd 6b 4e c8 3d
       -0.06069651 -0.15225515 -0.038531087 0.09780582
000150 f6 0c e8 bd 2b ef db bd e5 07 cc 3c 9e 9c e9 bb
       -0.11330597 -0.10738977 0.024906108 -0.007129266
000160 33 f3 89 bc 3f 6d d0 bd 3b a8 74 3d 24 f3 6e 3d
       -0.0168396 -0.10177087 0.05973075 0.058337346
000170 1b 9a 7d 3d 19 ee 17 3d b4 09 3f bd 47 45 04 3e
       0.061914545 0.037092302 -0.046640113 0.12917052
000180 5c e5 88 bd 2e 55 9a bd 92 8c 42 be d8 20 3a 3d
       -0.06684372 -0.07535778 -0.18998936 0.04544148
000190 b0 2e 8a 3c f5 55 28 bc 68 6e 19 be d8 41 a4 3d
       0.016867965 -0.0102744 -0.14983523 0.08020371
0001a0 70 89 21 3c ed ee 69 bd fc d5 cb 3d 6d 33 90 bb
       0.009859428 -0.057112623 0.09952924 -0.0044006617
0001b0 ae a1 ff 3d 83 69 43 bd ac 53 23 be 65 d4 10 be
       0.1248201 -0.047708046 -0.15949887 -0.14143522
0001c0 e6 ca 1f bc e9 c9 f5 bd 5b 7a 09 be 3a 61 28 be
       -0.009752965 -0.12001402 -0.13425581 -0.16443339
0001d0 fd 39 e9 bd ec 6e 90 bc e6 e0 a8 bd 10 5e 84 3d
       -0.113880135 -0.017631017 -0.08246021 0.064632535
0001e0 fa 15 38 be 46 8c 05 be 30 dd 60 3c 9e 6a 03 bd
       -0.17977133 -0.13041791 0.01372461 -0.0320841
0001f0 10 39 ba 3d 03 39 46 bd c7 fc 2a bc 56 3d 9f bd
       0.09092915 -0.048394214 -0.010436243 -0.07775371
000200 c8 1b 94 3d e9 d2 6d 3d b4 c7 de 3b 12 15 dc 3c
       0.07231861 0.058062468 0.006798709 0.026865516
000210 a1 13 73 be 01 be 13 be 33 75 d0 bd af f8 f4 bc
       -0.23737957 -0.1442795 -0.10178604 -0.029903738
000220 71 15 57 bd 03 c9 01 be a8 02 84 bd f4 aa 9e 3d
       -0.052510682 -0.12674336 -0.06445819 0.077474505
000230 46 3e f5 3c b7 58 3c 3e a9 bc 0b bd af f7 24 bd
       0.02993692 0.18393217 -0.034115467 -0.040275272
000240 58 99 e0 bd 32 13 4c be 44 29 23 bc 3b 15 db bd
       -0.10966748 -0.19929197 -0.009958569 -0.10697409
000250 a5 cd 32 3e 9f e8 93 3c ea fc bf bd b6 29 11 3e
       0.1746126 0.018055258 -0.093744114 0.14176068
000260 b9 e8 6a be d9 73 1e 3d de f5 9d 3b 8f 71 90 3d
       -0.22940339 0.0386847 0.0048205694 0.070529096
000270 ce fc 5a bd 48 12 ea 3d 06 ad aa bd 9c d3 aa 3d
       -0.05346375 0.11429268 -0.08333783 0.083411425
000280 e5 3e 22 3e 88 a5 39 3e 15 30 9c 3d 0f 80 3b 3d
       0.15844305 0.18129551 0.076263584 0.045776423
000290 9d 51 3e be c1 5c 4c be bf 0f 02 be a5 3f dd bd
       -0.1858582 -0.19957258 -0.12701319 -0.10803155
0002a0 f5 95 6a 3d 8f 23 0e 3e 08 fe 34 3d ca c1 66 bd
       0.057271916 0.13880752 0.044187576 -0.056337155
0002b0 75 16 39 be af 09 fc bd 6f 6b 33 be f4 1d 78 be
       -0.18074973 -0.123065345 -0.17521451 -0.24230176
0002c0 be 6a eb bd db 18 e5 bd c2 b7 e3 bd 4b 38 0a be
       -0.11494969 -0.111863814 -0.111190334 -0.13498037
0002d0 5a 5a 79 bd 73 b6 58 bd dc 76 e0 3c 7d b0 71 bc
       -0.06087718 -0.052908372 0.027400427 -0.014751551
0002e0 f2 ab 14 3e 1b 1f 11 3d 92 4d 09 be 4b e3 a3 bd
       0.14518717 0.035430055 -0.13408497 -0.08002337
0002f0 06 65 93 bd 10 0b bb be a6 ee 92 3d 50 4d e1 3c
       -0.07197003 -0.36531878 0.07174425 0.027502686
000300 96 38 fb bd f4 27 c9 3d b6 b9 49 be 1a 47 84 be
       -0.12266652 0.098220736 -0.1969975 -0.25835496
000310 16 94 bd bd 82 1d df 3d 4c 96 3f 3d 0f c3 58 3c
       -0.09256761 0.108943 0.046774194 0.013230099
000320 3e 4b 05 be f5 ef a1 3c 82 a5 64 bd a5 af d5 3c
       -0.13016984 0.01976774 -0.055821903 0.02608473
000330 71 1c 86 3d fc 49 7e 3d 3e 20 9f 3d 64 f4 bd 3d
       0.065483935 0.062082276 0.077698216 0.092751294
000340 d4 12 d4 bd c3 32 14 3d 26 bf 07 3e a5 0c 8e bd
       -0.10355154 0.036181223 0.13256511 -0.069360055
000350 d7 39 1b bc 31 89 b4 bd 79 46 e6 3c 82 c7 f2 3c
       -0.009474239 -0.0881523 0.028109776 0.029636148
000360 1a a3 37 3d 49 b2 1c 3e 8c a2 51 bb 5b 32 7c bc
       0.04483328 0.15302385 -0.0031987755 -0.015392865
000370 9e 94 7c bd 64 32 d9 3d 83 1b cc bd e3 4e a4 bd
       -0.06166517 0.106053144 -0.09966185 -0.08022859
000380 af 25 54 3d 16 25 4d bc 80 65 83 bc 77 0b 7a 3d
       0.05179375 -0.012521049 -0.01603961 0.06104609
000390 ab 2f 58 3d 71 90 00 be 69 b7 b0 bd b1 e5 c7 bd
       0.052779835 -0.125551 -0.08628733 -0.09760607
0003a0 98 15 a7 bd 3f 79 98 3d 4b 5e 3e 3d f1 6d df 3d
       -0.081584156 0.07445001 0.046476644 0.109096415
0003b0 db 37 cd bd 44 a6 6a bc 58 dd 6e 3c 64 49 fa 3d
       -0.10020419 -0.014321867 0.01457914 0.122210294
0003c0 6a bd 5e bd 7c 19 8e bd 87 b3 fd bb 43 01 3f be
       -0.054379858 -0.069384545 -0.0077423486 -0.18652825
0003d0 84 44 22 3d fe e0 a9 3d 32 98 a4 3c ee 83 83 3b
       0.039616123 0.08294867 0.020092104 0.00401353
0003e0 e7 1d 9c 3d c6 f6 b1 3d 8b d9 97 bd b9 3e 36 3e
       0.07622891 0.086896464 -0.0741454 0.17797364
0003f0 e2 7a 13 3e 33 ca 1d be 97 ba a2 3d 26 61 4d 3d
       0.14402345 -0.15409164 0.079457454 0.050141476

a2c_network.actor_mlp.4.bias f4 [32]
000000 05 17 2a bd 87 77 87 3d 37 14 39 bd b7 d9 34 be
       -0.04152586 0.06614595 -0.045185294 -0.17661177
000010 9e 69 7f 39 2f fc 00 bd d8 af 8b 3b 94 93 0f bd
       0.0002435804 -0.0314905 0.0042629056 -0.03505285
000020 17 a7 af bc 66 ae 8e bc 9b df 75 bb 97 67 24 3c
       -0.02144198 -0.017417144 -0.0037517312 0.010034463
000030 79 5f 10 be ad 16 6a 3c b0 a7 d8 bd 6f 12 07 bd
       -0.1409892 0.014287633 -0.10578859 -0.032976564
000040 99 c2 47 3c fa c4 16 3d cd a0 a6 bd 05 d9 91 bd
       0.012192392 0.036808945 -0.08136139 -0.07121471
000050 e6 3c 4a bd f0 e2 02 3c cb 57 a8 bd 39 68 95 bd
       -0.049374484 0.007988676 -0.0821987 -0.072952695
000060 3b 87 92 bd 31 27 12 3c 4e 6b 2f be 6e d6 f5 bd
       -0.071546994 0.008920477 -0.17130777 -0.1200379
000070 4e 3f 90 3b 9e c7 71 3c a4 09 35 bd 8f 9c 8b 3d
       0.0044020778 0.014757065 -0.044198647 0.068169706

a2c_network.value.weight f4 [1, 32]
000000 23 b5 29 bd c2 44 d5 3d b7 45 14 3d ad 8c 86 bc
       -0.04143251 0.10413505 0.036199298 -0.016424501
000010 94 96 32 3d a0 ff 09 3d eb fc 6e 3d 12 44 95 3a
       0.043600634 0.03369105 0.05834667 0.0011388084
000020 7a 6a e9 3b 02 57 3a 3d d7 f7 c6 3c 63 c8 45 3d
       0.0071232887 0.045493133 0.024288101 0.048286807
000030 87 be 37 bd f9 5b 45 3d 87 80 71 3c f9 82 fa bc
       -0.044859435 0.048183415 0.014740116 -0.03058003
000040 90 16 20 3c 99 c3 b2 3d 0f 6b 9d 3c 6c 88 01 bc
       0.009771004 0.087287135 0.019216089 -0.007906061
000050 b7 dd 95 bd 06 72 02 3d d6 7f 99 bb 03 f3 55 bd
       -0.073176794 0.031847022 -0.0046844287 -0.052233707
000060 74 eb 1d bc db 30 2c bd c1 bf cb bd 3e 3c 72 bd
       -0.009638656 -0.04203878 -0.099486835 -0.059139483
000070 a9 d5 15 3c 67 36 d6 3b 18 32 c6 3c 4c 50 47 bc
       0.009145179 0.006537247 0.024193808 -0.01216514

a2c_network.mu.weight f4 [7, 32]
000000 df b9 89 bd dc 04 e4 bd ea 83 91 3c 7f 11 34 be
       -0.06724905 -0.11133739 0.017763097 -0.17584799
000010 ca b5 b3 bd 62 8c 18 be c8 f3 03 bd 53 c6 3f 3e
       -0.08774908 -0.14897302 -0.03221491 0.18727998
000020 d7 f3 1a 3e df b5 11 3e 4a 7e d4 3d ee 76 3f bd
       0.1513208 0.14229535 0.1037565 -0.04674428
000030 cb 6e 2c 3e be 89 27 bd e2 91 ec bd 2d d7 90 bd
       0.16839139 -0.040902846 -0.115512624 -0.070722915
000040 28 66 d6 bd 4b 35 89 bd 98 93 1c be 60 d4 71 3c
       -0.104687035 -0.06699618 -0.15290678 0.014760107
000050 ca 41 c2 3d d6 67 4e bd 9e 5e 8f bd 71 65 d7 3d
       0.094852045 -0.050391994 -0.07000469 0.10517395
000060 48 49 77 be 57 e2 21 3e b7 2e f0 bd 00 5f a2 bd
       -0.24149048 0.15808998 -0.1172766 -0.07928276
000070 dc fb 9e be 4f fe ac bc be fa 27 bd 77 4c 83 be
       -0.31051528 -0.021117358 -0.04101061 -0.25644276
000080 37 06 24 3e 73 84 c8 3d 6f 59 32 be eb 7d 39 be
       0.16017996 0.09790888 -0.17416929 -0.1811444
000090 34 23 4d 3d a5 17 10 3c 94 b8 4e be 83 9e 0b bd
       0.0500824 0.0087947 -0.20187598 -0.034086715
0000a0 ab e3 84 bd 46 fc 72 bd 00 7d 6f 3c 91 d7 15 3e
       -0.06488737 -0.059322618 0.014617205 0.14633013
0000b0 86 cb a0 3b 34 13 21 3e 97 6a 16 3d 45 79 5c 3e
       0.0049070744 0.15729982 0.036722746 0.21530636
0000c0 dd b5 07 be aa d6 41 be 34 ea 8f be 30 ed d7 3d
       -0.13252969 -0.18929544 -0.2810837 0.10543287
0000d0 04 f7 8e 3b 01 90 3e bd a9 df f8 3b ca 30 a8 bd
       0.0043629427 -0.04652405 0.0075950217 -0.08212431
0000e0 24 ba 81 be 8b b3 53 3b ef 01 8c bd 17 b0 92 3d
       -0.25337327 0.003230306 -0.06836306 0.07162493
0000f0 6e e4 5d be 0e fe 98 3e 08 aa b9 3d 4b 13 ae bd
       -0.2166917 0.29881328 0.09065634 -0.084997736
000100 d0 45 85 3d 34 64 df bd f6 45 3c be 94 9b 08 be
       0.06507456 -0.10907784 -0.18386063 -0.13340598
000110 14 09 07 3e 59 7c 8a bd c7 1d d5 3a ef cc 3c be
       0.13187057 -0.06761999 0.0016259485 -0.18437551
000120 25 2d ca bb ae 06 ac be 06 4e 32 bc 08 a3 5d 3e
       -0.0061699324 -0.33598846 -0.01088286 0.21644223
000130 4b c6 51 be b7 b8 ca 3a 83 47 9a bb 8b 72 ce 3d
       -0.20485799 0.0015466426 -0.004708232 0.10080441
000140 e0 01 4d bd 8e 94 32 be b7 88 c7 bc 5f b5 b8 bd
       -0.050050616 -0.17439482 -0.024357183 -0.09018969
000150 24 05 10 be 97 5a b7 3d d5 f2 00 be 7a 12 08 bd
       -0.14064461 0.089528255 -0.12592633 -0.033220746
000160 d6 27 8f 3c fd b5 66 be d4 86 9e bd 4d bf bf 3c
       0.01747505 -0.2253036 -0.0774056 0.023406649
000170 7d 1a 9b 3e 67 33 82 3e f0 02 c2 3d 1a 6b 71 3e
       0.30293646 0.25429842 0.094732165 0.23576012
000180 9c 36 05 3e 93 0a 56 3d ab 4b f4 bc b9 80 14 3e
       0.13009113 0.052256178 -0.029821238 0.14502229
000190 9d df ec bd ca e9 75 3e b7 c0 25 3e 4f 4a 59 bd
       -0.11566088 0.24014965 0.16186796 -0.05304938
0001a0 14 07 3b be 26 52 2e 3e 05 1c cb 3d 43 cd 0c bd
       -0.18264419 0.17023525 0.09917454 -0.03437544
0001b0 6f 80 24 3d b8 df 41 3e e1 89 04 3e 1c d8 13 be
       0.040161546 0.18932998 0.12943222 -0.14437908
0001c0 d4 77 39 3d c5 a7 3f 3d 3c f9 e2 bd 94 44 24 be
       0.045280293 0.046790857 -0.11082694 -0.16041785
0001d0 49 4b eb 3d 9f d4 73 be 87 8f 91 3c c7 3b 5e be
       0.11488969 -0.23811577 0.017768634 -0.21702491
0001e0 38 ca 71 3e d2 c5 1c 3d a6 b9 4d bd 3c 2c 59 3e
       0.23612297 0.038274594 -0.050225876 0.2120828
0001f0 36 4d c8 3d 96 ee 10 3e a3 04 6d 3c f5 9e 90 be
       0.09780352 0.14153513 0.0144664375 -0.28246275
000200 20 7a 9d be 1e 42 b3 3e ed 21 62 be e6 f8 05 3e
       -0.30757236 0.3501138 -0.22083254 0.13083228
000210 7e 16 aa 3e 3a 38 ad 3d 06 55 c0 bd 89 2a d2 3e
       0.33220285 0.0845799 -0.09391217 0.41048077
000220 a0 b2 c0 bd 65 8a 25 be cb c3 9e 3e f0 36 4c 3e
       -0.0940907 -0.16166075 0.31008753 0.19942832
000230 33 5a 3b be d6 8e 37 3e 82 de 20 3d 8a 13 3b be
       -0.18296127 0.17925581 0.0392747 -0.18269172
000240 36 b2 5e be 5c 68 84 be f6 41 2e 3e c5 4a 42 3e
       -0.2174767 -0.2586087 0.1701735 0.18973835
000250 7f 26 46 be 4c 12 9a bc bc 59 eb 3d ea 1b 8a 3e
       -0.19350623 -0.018807553 0.11491725 0.26974422
000260 90 dc 62 3e 0b db 14 be eb b2 5e be 20 60 6a bd
       0.2215445 -0.14536683 -0.2174794 -0.05722058
000270 7b 21 1b bd 20 3e 2b 3e 4c e3 c3 3e b2 f8 99 3e
       -0.037873726 0.16722918 0.3825935 0.30072552
000280 34 ad 98 3e 0a 6f 4c 3d e8 de 16 3e 9e 27 ab 3c
       0.29819643 0.049910583 0.1473347 0.020892914
000290 42 ee b5 3c 77 5e 86 bd 51 15 a2 3c 4b d9 2d 3e
       0.022208337 -0.065609865 0.019785555 0.16977422
0002a0 7f be 9c bd 1f 6b 82 bd e3 f2 c3 3c 20 5d 80 3d
       -0.07653522 -0.06368088 0.023919528 0.06267762
0002b0 ad 49 3c 3d 41 ce 33 bc f4 95 0c 3c ad 2b 7f 3e
       0.0459687 -0.010974468 0.0085806735 0.24919005
0002c0 f2 ce 49 be 81 d9 27 3e 1a f7 09 be 0e 6e 13 3e
       -0.1970785 0.16391565 -0.13473168 0.14397451
0002d0 f2 51 34 3d bb 00 a1 3d 2c e2 2e bc 97 bc 23 bd
       0.04402346 0.078614675 -0.010674041 -0.039974775
0002e0 c6 30 fe 3c d5 ae 89 bd 66 b9 5f bd 93 4f c2 3d
       0.031029116 -0.067228 -0.05462017 0.09487834
0002f0 cd 0e 25 be d2 0b 1f 3e fc f2 1f 3e 08 2e de 3c
       -0.16118927 0.15531853 0.15620035 0.027121559
000300 ff ed 0b be 1b 90 ab bc e8 46 61 be ed c3 6f bd
       -0.13665007 -0.020942738 -0.21999705 -0.05853646
000310 15 b1 81 3d 3e de cd 3c 81 3e 86 be 73 34 a0 3e
       0.06332604 0.025130387 -0.26219562 0.31290016
000320 0a 92 99 bd f5 47 89 bd e9 5a a5 3e 42 42 76 3d
       -0.07498558 -0.06703178 0.3229592 0.060121782
000330 b3 50 3b bd 8a e5 a8 3d c6 58 4c 3e 1e 6a a5 bd
       -0.045731258 0.08246906 0.1995574 -0.08076881
000340 e0 f4 63 bd 4c 26 9d be cf 5c 0a 3e 79 66 8c 3e
       -0.055653453 -0.3069328 0.13511966 0.2742193
000350 7b 28 41 bd e0 89 af 3c 97 e4 12 be 37 34 ac 3d
       -0.047157746 0.021428049 -0.14345013 0.08408397
000360 3e ae 17 be 76 2e 19 be b8 27 b5 bd f2 8c ad 3e
       -0.14812562 -0.1495913 -0.088454664 0.33896595
000370 7d 82 f4 3d e9 4a 84 3e b2 70 04 3e b3 73 41 3d
       0.11938951 0.25838402 0.12933615 0.04722948

a2c_network.mu.bias f4 [7]
000000 fd 76 77 3d 8e fb cb 3b 69 6b 2a 3d d6 2f d9 bd
       0.06041621 0.006225056 0.04160634 -0.10604827
000010 51 9f 8e bd 97 3e 56 3d ef e2 6b bd
       -0.06963981 0.052305784 -0.057589468

exp_avg f4 [7]
000000 df 8d 04 3b 41 50 81 3b 9a 93 8c 3b 5c 96 37 bc
       0.0020226163 0.0039463346 0.0042900564 -0.011205282
000010 92 58 5b 3b 0a 8a ee bb 16 04 bb 3b
       0.003346954 -0.007279639 0.005707274

exp_avg_sq f4 [7]
000000 d3 9d bb 39 ef c9 bb 39 a7 47 aa 39 ff 63 b8 39
       0.00035785008 0.00035817872 0.00032478312 0.00035169718
000010 7f 79 c5 39 1f 69 ae 39 c0 97 d0 39
       0.0003766529 0.00033266188 0.00039785914

exp_avg f4 [128, 18]
000000 0a 6c e4 3a 48 de 1f 39 0b b4 9b ba 3a 9b 22 3a
       0.0017427218 0.00015246228 -0.0011879219 0.000620294
000010 9b eb 51 37 90 e6 c8 39 70 cd 21 ba 5a 80 a0 3a
       1.2512227e-05 0.00038318755 -0.0006172275 0.0012245283
000020 c3 63 8c bb 89 0e de ba 94 67 62 3a 6e 29 1f 3a
       -0.0042843535 -0.0016941588 0.000863665 0.0006071542
000030 be 9a 15 b8 c9 3d c4 ba 22 67 5b ba 40 8d f6 b9
       -3.5668483e-05 -0.0014972027 -0.0008369555 -0.00047026016
000040 cc 68 0d 3a f3 f8 a3 b9 02 f4 bd 3a d8 49 d7 ba
       0.0005394339 -0.00031275264 0.0014492276 -0.0016425205
000050 8e 86 a1 ba 77 82 3b 3a 9d 9f ab ba c8 e4 2d b9
       -0.0012323426 0.00071529247 -0.0013093833 -0.00016583793
000060 13 12 8d 38 44 d9 d0 39 f5 dc ea ba fa 8e 8b ba
       6.7267705e-05 0.00039834727 -0.0017918634 -0.0010647469
000070 49 85 a1 39 21 1e 3b ba 66 7d 37 b8 0a 36 f6 b9
       0.00030807618 -0.00071379734 -4.3747386e-05 -0.0004696104
000080 4f 4c 08 ba 83 c0 a4 39 e9 ac f5 38 ac 88 2e 3a
       -0.0005199359 0.0003142395 0.000117147174 0.0006657939
000090 f6 c3 8d 3a 61 dc 0c b8 b4 92 2e 3a 80 c8 81 ba
       0.0010815847 -3.3583845e-05 0.0006659434 -0.0009901673
0000a0 87 40 24 3b 87 f1 d9 3a b4 f0 21 b9 03 9b 41 3b
       0.0025062875 0.0016627767 -0.00015443825 0.0029541857
0000b0 f0 a4 93 bb 7c 7b 25 bb 6a 6a 53 3a 80 27 17 3b
       -0.004505746 -0.0025250604 0.0008064868 0.0023064315
0000c0 ee 6e 78 ba 6d 60 02 bb f1 48 58 bb 53 98 16 ba
       -0.0009476979 -0.00198939 -0.003300246 -0.0005744744
0000d0 40 88 d5 b9 6e f7 d8 ba 72 6b 98 ba 05 22 a8 3a
       -0.0004072804 -0.0016553232 -0.0011628701 0.0012827521
0000e0 d7 6d 93 39 96 ba f9 b9 3e bd 1b ba c4 bb cc b9
       0.00028119862 -0.00047631998 -0.000594098 -0.00039049808
0000f0 f4 2a d9 39 7f 09 85 ba 88 e1 4e 3b 60 3c 89 3a
       0.00041421468 -0.0010149925 0.0031567533 0.0010470264
000100 72 d7 58 ba f2 ce a3 ba b6 bb c6 3a 9d 1d 82 3a
       -0.000827185 -0.0012497588 0.0015162143 0.0009927038
000110 7b d9 02 39 72 59 65 3a 16 48 a1 ba ae bd 93 3a
       0.00012478784 0.0008748985 -0.0012304808 0.0011271739
000120 d4 d2 35 ba 08 e0 d7 3a 34 ae aa ba 62 12 17 39
       -0.0006936018 0.0016469965 -0.0013021887 0.0001440733
000130 c9 2d b7 ba d7 84 41 ba 91 d8 21 ba 2b 09 0c bb
       -0.0013975437 -0.00073821604 -0.00061739335 -0.002136777
000140 03 1d 71 3b ea fe bc 3a fe 5b 9f ba 97 9a dd ba
       0.0036790974 0.0014419232 -0.0012158153 -0.0016907033
000150 10 55 27 3b ec b7 9a 39 bd ca 33 3a bf 7f 86 3a
       0.002553288 0.000295102 0.00068585185 0.001026146
000160 e0 3a c8 ba 94 9e 00 3b 03 6e e3 ba ca e1 86 ba
       -0.0015276335 0.001962577 -0.0017351512 -0.0010290679
000170 9d f7 cf 39 c7 bc 82 38 d0 4a 01 ba f7 2b 2c 39
       0.00039666603 6.2340456e-05 -0.00049321074 0.00016419576
000180 26 26 e8 38 b0 c6 ed ba e1 ab 9f 3b 22 14 de 3a
       0.00011069728 -0.0018140879 0.0048727845 0.0016943256
000190 04 a8 46 ba d0 8e 5c 3a e6 b6 37 ba 88 75 97 3a
       -0.0007578137 0.00084136147 -0.000700815 0.0011555413
0001a0 88 f9 12 3b b4 3e e1 38 04 1d 1f b9 30 b9 0c b9
       0.0022426564 0.000107405154 -0.00015174231 -0.00013420428
0001b0 ce 02 a6 bb d5 b3 8b 38 a5 1d 03 3b 24 16 8d ba
       -0.0050662523 6.661533e-05 0.0020006683 -0.0010764045
0001c0 0d db 5c ba 0a ed 28 ba 7b e6 86 3a e0 fd 86 bb
       -0.0008424975 -0.0006444013 0.0010292077 -0.0041196197
0001d0 85 03 52 3c ff f7 92 3b a4 a2 46 bb 9e 01 0a 3a
       0.012818222 0.00448513 -0.0030309344 0.0005264523
0001e0 d1 61 33 ba d0 64 78 3b aa 84 75 3b f8 27 a0 3a
       -0.0006842884 0.0037901886 0.0037463107 0.0012218943
0001f0 f1 4e fc ba 61 19 cb 3a 42 fe 7f 3a f8 ce 13 3b
       -0.0019249601 0.0015495234 0.00097653654 0.0022553783
000200 00 a5 1f 3a 3a c6 98 ba bb a0 21 3b 7a 72 6e 3a
       0.00060899556 -0.0011655756 0.0024662453 0.0009096038
000210 33 04 57 b8 d6 20 68 3b d4 fc ab bb dd 40 44 bb
       -5.1263905e-05 0.0035419962 -0.0052486453 -0.0029945888
000220 3c bf b4 3a 5e bb 9a 3a 97 ae b6 b9 35 cf 4c ba
       0.0013789902 0.0011805107 -0.00034843825 -0.00078128587
000230 9a 46 73 bb 80 d6 f0 b8 c2 69 86 ba 52 47 14 ba
       -0.003712094 -0.000114840455 -0.0010254907 -0.00056563795
000240 8c 69 b9 b8 f4 d5 d3 bb b7 79 04 bb d7 8e 07 3b
       -8.841147e-05 -0.006464714 -0.002021415 0.0020684504
000250 e7 7f 89 bb d7 92 5f 39 18 0b 20 ba 64 00 9b bb
       -0.0041961554 0.0002132164 -0.0006105169 -0.004730271
000260 4a 3c cc 3b 3e 51 57 3b 1e 73 c6 ba e0 9d 0a 3b
       0.006232773 0.003285482 -0.0015140509 0.002115123
000270 e7 61 fc ba f9 ca 88 39 9b 78 94 3b 8e 81 10 b9
       -0.0019255251 0.00026091168 0.004530979 -0.00013781173
000280 9e 00 e0 3a ff cf 74 b9 da 8b b1 3a 93 96 c8 b9
       0.0017090028 -0.00023347138 0.0013545707 -0.0003825916
000290 49 41 ae b8 40 7c 9a 39 0c 56 5b 3a f4 40 e8 39
       -8.309127e-05 0.00029465742 0.0008367009 0.00044298882
0002a0 a0 fe 93 b9 26 74 f6 3a 34 ae 82 bb b3 c1 f1 ba
       -0.00028227735 0.0018802925 -0.003988052 -0.0018444568
0002b0 00 9a 70 3a c9 67 12 3a a7 03 48 ba 34 30 c3 39
       0.0009178221 0.0005584923 -0.0007629939 0.00037229212
0002c0 eb 36 6d ba 08 b5 8e ba b4 c9 60 3a 87 1f 95 ba
       -0.0009049016 -0.0010887692 0.0008574978 -0.0011377194
0002d0 35 96 1b b9 94 ef 36 3a d7 60 94 3a f8 c3 18 ba
       -0.00014837908 0.0006978449 0.0011320364 -0.00058275415
0002e0 54 84 09 3b 54 ec b2 39 56 71 b0 38 9a 5d a2 3a
       0.0020983415 0.00034126884 8.4134444e-05 0.0012387515
0002f0 dd 37 f8 ba 15 85 5b ba a8 bc a5 39 7d ea 01 b8
       -0.0018937547 -0.0008374018 0.00031611812 -3.097438e-05
000300 39 87 9e 39 92 b0 33 b9 e6 3f 36 ba 6c 0b 56 ba
       0.00030236857 -0.00017136548 -0.00069522706 -0.0008165154
000310 ed 34 33 3a e0 ea 9b ba 6f 60 50 b8 72 48 5b bb
       0.00068361947 -0.001189556 -4.9680875e-05 -0.0033459929
000320 53 f4 b0 ba b1 83 a0 3a 61 60 44 bb e5 cc 19 39
       -0.0013500549 0.0012246278 -0.0029964673 0.00014667546
000330 74 50 e1 39 d0 67 7c bb 28 f3 6d 3b 99 5e 41 3b
       0.00042975286 -0.0038514026 0.0036308262 0.0029505847
000340 3c 3d b9 ba 83 b5 91 b8 4e ea 95 38 f1 78 8d b8
       -0.0014132629 -6.947948e-05 7.148516e-05 -6.745931e-05
000350 67 66 5b 3b 31 a8 22 36 83 d7 b4 3a 98 44 0c ba
       0.0033477785 2.4237781e-06 0.0013797138 -0.00053507974
000360 46 bd 01 bb 57 a6 07 b9 df 42 aa 39 a2 79 32 39
       -0.0019796654 -0.0001293657 0.0003247475 0.00017020715
000370 21 60 e8 ba 8d 65 64 ba 3e eb 50 39 3b 3a 31 bb
       -0.0017728844 -0.0008712642 0.0001992406 -0.0027042765
000380 b7 41 da 3b ac d6 33 3b e2 30 a3 ba 88 c9 f6 b9
       0.006660666 0.0027441187 -0.0012450481 -0.0004707093
000390 50 35 85 39 28 28 d4 3a 37 60 12 3b 23 ab 78 3a
       0.00025407458 0.0016186284 0.002233518 0.00094859506
0003a0 7f dd 44 ba fb 96 bd 3a 7d e7 53 bb a3 19 84 3b
       -0.0007509812 0.0014464551 -0.0032334023 0.0040313764
0003b0 6b 4e 55 3b 28 65 34 bb 1a b5 6f 3b ce 0d d9 39
       0.0032547961 -0.0027526114 0.003657645 0.0004139975
0003c0 2f 65 9b 3a 2f cb ec 3a da 77 41 3b bf 64 a7 b9
       0.0011855717 0.0018065925 0.00295209 -0.00031927784
0003d0 53 a5 1d ba f3 57 6c 3a 4b 28 17 ba 53 06 05 3b
       -0.000601371 0.0009015791 -0.0005766197 0.002029796
0003e0 89 38 0d bb ff 53 31 3a 1f 9a 3c bb 2d 5d 00 3a
       -0.002154859 0.00067645306 -0.0028778387 0.0004896697
0003f0 0c 73 a3 ba 93 78 46 3b f8 7d d5 3a 32 ee a5 ba
       -0.00124702 0.003028427 0.0016288152 -0.0012659489
