runs/BallBalance_18-15-30-20/nn/last_BallBalance_ep_100_rew_1.9105052.pth (torch, 173671 bytes, 36 tensors)

value_mean_std.running_mean f8 [1]
0.11852486259823329
00000000: 6b4f 9f38 a557 be3f

value_mean_std.running_var f8 [1]
0.004149404253195784
00000000: 16b6 0b39 f7fe 703f

value_mean_std.count f8 []
3201.0
00000000: 0000 0000 0002 a940

running_mean_std.running_mean f8 [18]
0.016862049010081412 0.09728490794862829 -0.136442955340178 0.011551934413653766 -0.09715071911786889 -0.03997244668669584 -0.08579251548969913 -0.19248777607468645
0.5932393155196248 -0.3326363222141848 0.23562706052921922 -0.28343454589700795 -0.10443044114604288 -0.1390108437853854 0.11599836794939879 0.1575900934250336
-0.21245991420477803 0.2538516306080423
00000000: 6cda 2af4 4844 913f 76a2 08ea a9e7 b83f
00000010: d752 7a77 f676 c1bf c1f1 1864 8aa8 873f
00000020: a1e5 6499 dede b8bf 4d5b 85be 4477 a4bf
00000030: a813 4590 7ff6 b5bf 2b6e 8f7f 70a3 c8bf
00000040: 7d76 5b04 d1fb e23f fcc8 57db e949 d5bf
00000050: 2847 830b 0729 ce3f ebca 4ba6 ca23 d2bf
00000060: f4d9 6d11 f4bb babf ff7d ec79 1bcb c1bf
00000070: 2167 bbac 11b2 bd3f b890 b784 e92b c43f
00000080: ef38 9cef e231 cbbf 30dc dfe8 1a3f d03f

running_mean_std.running_var f8 [18]
0.04182506469514485 0.023737786829467433 0.05639340434612905 0.09797097673052653 0.01595974381351745 0.013381080953529037 0.01148936446425997 1.5637732539881424
0.7738227159456625 2.923233455606819 2.7262333729875285 0.6056246575382112 0.9978297638744078 1.2593520887116605 0.003821043069603878 0.006499374229109046
0.08571124382116879 0.10551885059707741
00000000: 2797 094a 186a a53f 73ab 72e8 b74e 983f
00000010: 90e2 c0a6 98df ac3f 2dc9 033d a014 b93f
00000020: 7127 ed46 c057 903f e8ef a448 8a67 8b3f
00000030: 82ae 0165 bc87 873f 32d1 831a 3705 f93f
00000040: be6e 3cdb 27c3 e83f 1f3c d338 c862 0740
00000050: 2ef6 5171 53cf 0540 e0e3 38f6 4661 e33f
00000060: 8a1c 5aaf 38ee ef3f 6aa7 3260 4e26 f43f
00000070: 4865 a8e0 4e4d 6f3f e7c4 227c 169f 7a3f
00000080: d884 1c0d 2cf1 b53f 8e0b 6d8c 4803 bb3f

running_mean_std.count f8 []
1601.0
00000000: 0000 0000 0004 9940

a2c_network.sigma f4 [7]
-0.11127505 -0.07325782 -0.24783492 0.08358592 -0.18300992 -0.05760689 -0.20155028
00000000: 2ce4 e3bd 3208 96bd 70c8 7dbe 182f ab3d
00000010: f466 3bbe 34f5 6bbd 3263 4ebe

a2c_network.actor_mlp.0.weight f4 [128, 18]
-0.108454846 0.09062032 -0.054671433 -0.059827853 -0.10169313 0.2626282 0.008588623 -0.11980936
-0.06847217 -0.14430237 0.024422081 -0.09862234 0.18448047 -0.20383066 0.20519286 0.08387221
-0.06997325 0.09177183 0.005364322 0.25697926 0.00041545962 -0.053704813 0.104422696 -0.09434196
0.15012711 0.21836643 0.15179951 -0.11371498 0.22569247 0.057839517 0.07226863 -0.21637389
-0.19907069 -0.29135954 -0.18199447 0.12953904 0.020705923 0.19542976 0.05892215 -0.09394599
0.22403595 -0.04607226 -0.03722137 -0.22245331 0.113147676 -0.10962943 0.01915231 -0.06926531
0.13280714 -0.23333691 -0.13904357 -0.21929097 0.19743197 0.0069958237 0.20261125 -0.18420535
-0.2721108 -0.23101763 -0.1436663 0.033369895 0.035833895 0.23683466 -0.08699391 -0.3332456
-0.011005422 0.014164793 0.055697657 -0.002265945 0.25562912 -0.253932 -0.03286568 0.0012676559
0.039802093 -0.14793912 0.14606278 0.15283746 -0.37820995 -0.122726835 0.24538293 -0.19830032
-0.041342106 -0.060534094 -0.27566564 0.0745035 0.08990006 -0.18930526 0.0013707874 -0.023999052
-0.20285112 -0.1510309 -0.20287807 -0.09149686 0.35945994 0.021333145 0.021239258 -0.039292663
-0.23453845 -0.07182324 -0.024810366 -0.087084346 -0.15486862 -0.14704947 0.019058429 -0.16685711
0.02532931 0.1391589 -0.14766537 -0.13438907 -0.1823236 -0.11375568 0.15067752 -0.06164195
0.27427423 0.18701167 -0.19890039 0.15509957 -0.058748923 -0.13224919 -0.31311506 -0.25597686
0.10606055 -0.14442405 0.2809035 -0.113267705 0.19313969 -0.093455076 -0.16188198 0.10030805
0.07856301 0.08399694 0.2959819 -0.10121198 -0.06690837 -0.046524283 0.04446208 -0.25369832
0.09047783 -0.06040893 0.12100016 0.077223375 0.16547255 -0.26941663 0.26346406 -0.020804401
-0.026055967 -0.09571048 0.0491704 -0.1842478 -0.054427776 0.2972123 -0.00046677532 -0.24245685
-0.113085836 0.06472764 0.0849887 -0.19082874 -0.11063219 -0.22337054 -0.2526602 0.055028513
0.05785834 -0.23608595 0.033502687 0.11510648 0.0050181807 -0.0233159 0.24019988 0.023964865
-0.012647414 0.045955654 -0.044090267 -0.15512095 0.050351847 0.013143949 -0.09513573 0.17634818
0.1479691 -0.14718427 0.06987199 -0.0034907628 0.18024535 -0.083053306 -0.21457207 -0.05164629
0.07317527 0.014817888 -0.011225782 -0.16496412 -0.13912843 -0.27370048 -0.18931907 0.16696665
0.09399459 0.12442899 -0.27167615 -0.07279781 -0.02030635 0.2085925 0.004244897 0.05306672
0.1527022 -0.19777527 0.032486323 0.23189826 -0.22023265 -0.12297471 -0.28897178 0.07735758
0.07541865 0.0461283 -0.17281023 -0.30234918 -0.26822135 0.2447386 0.043021698 0.30592182
0.08696242 0.050691143 0.168832 -0.08583224 -0.093787484 -0.08108067 -0.078576244 0.019261846
-0.1300456 -0.031533506 -0.094761275 -0.09323163 -0.02069976 -0.055856183 0.18312496 0.40888578
0.105457254 -0.2715813 -0.103205815 -0.1390159 -0.091820255 -0.22613096 0.11830815 -0.17610045
0.00025582762 0.17708124 0.18349788 -0.2253985 0.15230855 -0.13286364 0.05020394 0.15518384
0.1039394 -0.11740052 0.058405157 -0.2501003 0.2324911 -0.2193914 0.1223021 0.15480733
00000000: 931d debd 2597 b93d 27ef 5fbd 0d0e 75bd
00000010: 7d44 d0bd 3477 863e 4cb7 0c3c 9c5e f5bd
00000020: 233b 8cbd 00c4 13be d110 c83c 82fa c9bd
00000030: 73e8 3c3e fcb8 50be 141e 523e 31c5 ab3d
00000040: 234e 8fbd dff2 bb3d 32c7 af3b c992 833e
00000050: 0cd2 d939 94f9 5bbd 91db d53d 5c36 c1bd
00000060: ecba 193e 739b 5f3e 5571 1b3e 66e3 e8bd
00000070: ed1b 673e 21e9 6c3d 9301 943d 1e91 5dbe
00000080: 30d9 4bbe 142d 95be c25c 3abe e2a5 043e
00000090: 789f a93c bd1e 483e 5a58 713d c166 c0bd
000000a0: ae69 653e 44b6 3cbd 6f75 18bd cdca 63be
000000b0: f8b9 e73d 6585 e0bd 4ee5 9c3c f9da 8dbd
000000c0: 98fe 073e dfef 6ebe 7061 0ebe d08d 60be
000000d0: 9b2b 4a3e 393d e53b 5379 4f3e 54a0 3cbe
000000e0: 1b52 8bbe e38f 6cbe 421d 13be dfae 083d
000000f0: 90c6 123d c984 723e dd29 b2bd 2b9f aabe
00000100: 1650 34bc 7313 683c 3a23 643d 4080 14bb
00000110: d2e1 823e 6003 82be 2a9e 06bd 7927 a63a
00000120: 8507 233d 5a7d 17be 7b91 153e 6c81 1c3e
00000130: bca4 c1be 3558 fbbd aa45 7b3e 3d0f 4bbe
00000140: 5756 29bd 99f2 77bd 0c24 8dbe 4a95 983d
00000150: 861d b83d 3dd9 41be feab b33a a999 c4bc
00000160: 34b8 4fbe d8a7 1abe 45bf 4fbe b562 bbbd
00000170: 220b b83e d9c2 ae3c f4fd ad3c 58f1 20bd
00000180: d92a 70be 1018 93bd 1c3f cbbc 4759 b2bd
00000190: e195 1ebe 2394 16be 6c20 9c3c 97dc 2abe
000001a0: 6a7f cf3c ac7f 0e3e 9735 17be 4a9d 09be
000001b0: 0ab3 3abe bdf8 e8bd 354b 1a3e 457c 7cbd
000001c0: ac6d 8c3e fd7f 3f3e 8bac 4bbe 6cd2 1e3e
000001d0: b6a2 70bd 556c 07be 9e50 a0be 660f 83be
000001e0: 4636 d93d e6e3 13be 95d2 8f3e e6f8 e7bd
000001f0: 69c6 453e 6065 bfbd 64c4 25be 4f6e cd3d
00000200: a5e5 a03d 9606 ac3d f18a 973e 3a48 cfbd
00000210: 4107 89bd 3f90 3ebd df1d 363d bfe4 81be
00000220: 714c b93d 5b6f 77bd efce f73d 4a27 9e3d
00000230: a371 293e faf0 89be c3e4 863e fe6d aabc
00000240: 5373 d5bc db03 c4bd e766 493d 75ab 3cbe
00000250: a9ef 5ebd 362c 983e 86b9 f4b9 9c46 78be
00000260: 8c99 e7bd ed8f 843d 8e0e ae3d 9c68 43be
00000270: 2193 e2bd 3fbb 64be ae5c 81be 9465 613d
00000280: defc 6c3d 84c0 71be 1d3a 093d f2bc eb3d
00000290: 8d6f a43b fc00 bfbc f5f6 753e f751 c43c
000002a0: 1937 4fbc ff3b 3c3d ff97 34bd 07d8 1ebe
000002b0: bd3d 4e3d b859 573c 86d6 c2bd 9e94 343e
000002c0: 3685 173e 79b7 16be 0c19 8f3d 48c5 64bb
000002d0: 3d92 383e da17 aabd c8b8 5bbe 0f8b 53bd
000002e0: eadc 953d bac6 723c 58ec 37bc 5bec 28be
000002f0: af77 0ebe 7822 8cbe dcdc 41be 4ef9 2a3e
00000300: 3c80 c03d a0d4 fe3d 2319 8bbe 0517 95bd
00000310: 8159 a6bc 4699 553e c718 8b3b 7d5c 593d
00000320: f75d 1c3e 9a85 4abe 6110 053d bd76 6d3e
00000330: ab84 61be 2ada fbbd 1cf4 93be a76d 9e3d
00000340: 1875 9a3d 07f1 3c3d 2af5 30be 83cd 9abe
00000350: 4f54 89be c19c 7a3e 8537 303d c9a1 9c3e
00000360: 5a19 b23d 84a1 4f3d 4ce2 2c3e d0c8 afbd
00000370: a713 c0bd 9f0d a6bd 95ec a0bd 05cb 9d3c
00000380: ac2a 05be 4729 01bd 3312 c2bd 3af0 bebd
00000390: 8b92 a9bc 74c9 64bd 1c85 3b3e 7a59 d13e
000003a0: f9f9 d73d b40c 8bbe 925d d3bd 2f5a 0ebe
000003b0: 420c bcbd e08e 67be 8b4b f23d ad53 34be
000003c0: 9a20 8639 c954 353e dee6 3b3e ddce 66be
000003d0: c6f6 1b3e 680d 08be a6a2 4d3d 83e8 1e3e
000003e0: 2ede d43d af6f f0bd 3f3a 6f3d 260d 80be
000003f0: 2612 6e3e 24a8 60be 8679 fa3d d085 1e3e

a2c_network.actor_mlp.0.bias f4 [128]
-0.0060043344 -0.026162073 0.019170424 -0.045294564 0.039796244 -0.09995388 -0.11406272 -0.043671325
-0.10495007 -0.112560466 0.0410033 -0.05471345 -0.038687002 0.038044132 0.08288238 0.08415473
0.016499622 -0.057983086 -0.031706855 -0.044371806 -0.10897496 -0.010571068 -0.042219408 -0.010476978
-0.03614135 -0.04832847 0.09643571 0.07178719 0.04318889 0.054823782 -0.04790658 0.015328558
-0.13271835 -0.015748618 -0.07359179 -0.09294652 -0.035229847 -0.14278239 -0.05726821 -0.053491022
-0.0454357 0.021088917 0.04964826 -0.022883676 -0.07252395 -0.026830882 -0.040288873 -0.027238486
0.023164215 0.08942037 -0.022828437 -0.08195321 -0.090880446 -0.09837084 -0.095245644 -0.15389973
-0.047045074 -0.044727735 0.00036468558 -0.02616094 0.008370483 -0.016290102 0.06676895 0.0004960021
-0.09052958 -0.0019787806 -0.10105581 -0.10820825 -0.06320951 -0.031651415 -0.012140257 -0.15185644
0.08189346 0.017238688 -0.02031281 0.007152866 0.03062825 0.006578038 -0.08200777 -0.02590407
0.08660444 0.021772966 0.02120428 -0.025630914 0.04662492 -0.030770956 0.07781405 -0.0023161294
-0.056550365 0.03332471 -0.062078837 -0.0107374685 0.03060636 -0.06865507 -0.04025307 0.05674514
-0.0033893676 -0.11854909 0.031515732 -0.038575977 0.020810302 -0.0704891 -0.00620033 0.031689502
-0.0026383346 -0.050946932 0.0023066911 -0.005867598 0.057153575 0.09159191 -0.075476505 0.08535579
-0.043381315 -0.0049220924 -0.00058526325 0.05600331 0.022137517 -0.17110348 -0.0052890214 -0.0029341495
-0.1237199 0.020504173 -0.090113856 -0.053082883 0.0077724718 -0.10984167 -0.050001875 -0.10180313
00000000: 02c0 c4bb d851 d6bc 4b0b 9d3c cb86 39bd
00000010: 6301 233d 9fb4 ccbd b799 e9bd b4e0 32bd
00000020: 10f0 d6bd 1a86 e6bd 14f3 273d 361b 60bd
00000030: 4376 1ebd 2ad4 1b3d 3dbe a93d 5159 ac3d
00000040: 372a 873c ac7f 6dbd 0cdf 01bd 36bf 35bd
00000050: 442e dfbd 4632 2dbc 42ee 2cbd a1a7 2bbc
00000060: f408 14bd 13f4 45bd 1680 c53d 2a05 933d
00000070: d5e6 303d e78e 603d b139 44bd a224 7b3c
00000080: 52e7 07be 3f03 81bc 4bb7 96bd bf5a bebd
00000090: 2c4d 10bd 8c35 12be 1292 6abd 6719 5bbd
000000a0: c91a 3abd aac2 ac3c f95b 4b3d 8c76 bbbc
000000b0: 7087 94bd 70cc dbbc f205 25bd 3f23 dfbc
000000c0: e1c2 bd3c 0722 b73d b402 bbbc 16d7 a7bd
000000d0: 871f babd a776 c9bd 2610 c3bd e497 1dbe
000000e0: 56b2 40bd 6e34 37bd 4533 bf39 784f d6bc
000000f0: 5a24 093c d272 85bc 29be 883d 2306 023a
00000100: 9367 b9bd 6eae 01bb 59f6 cebd 499c ddbd
00000110: fd73 81bd eaa4 01bd eee7 46bc 4180 1bbe
00000120: c2b7 a73d 2638 8d3c 0d67 a6bc 9762 ea3b
00000130: 19e8 fa3c 958c d73b b1f3 a7bd c634 d4bc
00000140: ab5d b13d 385d b23c 99b4 ad3c ecf7 d1bc
00000150: c6f9 3e3d 5f13 fcbc f95c 9f3d 34ca 17bb
00000160: 5ba1 67bd 7e7f 083d 6146 7ebd 35ec 2fbc
00000170: 30ba fa3c 089b 8cbd 67e0 24bd 986d 683d
00000180: 2720 5ebb dec9 f2bd a416 013d d801 1ebd
00000190: 5e7a aa3c 975c 90bd 232c cbbb dacc 013d
000001a0: e9e7 2cbb bbad 50bd db2b 173b fb44 c0bb
000001b0: de19 6a3d 8a94 bb3d 6d93 9abd 04cf ae3d
000001c0: 9bb0 31bd 8149 a1bb 5a6c 19ba ba63 653d
000001d0: bd59 b53c c035 2fbe 874f adbb dc4a 40bb
000001e0: dc60 fdbd 5ef8 a73c 9d8d b8bd 706d 59bd
000001f0: 38b0 fe3b abf4 e0bd c4ce 4cbd 297e d0bd

a2c_network.actor_mlp.2.weight f4 [64, 128]
0.06760684 0.018442912 -0.058534574 -0.0125613175 0.15593046 0.09805302 0.058529835 -0.094453834
0.13084704 -0.19197227 0.027091315 0.049594373 0.13974753 -0.060526155 0.038083106 0.0038671454
-0.07018829 -0.033103023 0.08797398 -0.15396957 -0.0075056413 -0.014500088 -0.033511218 -0.0070928214
-0.049577903 -0.06806892 0.0051518143 0.1170131 -0.048082355 -0.19393727 0.019890772 -0.057076663
0.1419365 -0.00622527 -0.1529974 -0.06693258 0.021356622 -0.037769496 -0.018045144 0.041875314
-0.11249608 0.036723595 0.017563824 0.007683041 -0.03180985 0.036437508 -0.079202995 -0.05194693
-0.12965235 -0.076983176 0.12824947 -0.02781838 -0.08921958 -0.038932387 -0.15290052 0.008140028
-0.09380908 -0.015419497 -0.0080276225 -0.035624597 -0.028337143 0.049794056 0.015903557 -0.050008822
0.106832355 0.02718784 -0.08613233 -0.017435297 0.03287331 -0.078439675 -0.01997784 -0.044568606
-0.1749556 0.063467704 0.044252034 -0.002909124 0.09630153 -0.013088835 0.123206824 -0.034948383
-0.0044457023 -0.14828223 -0.010091059 -0.13091218 -0.046495803 -0.03290306 0.018240204 0.05196187
0.079729736 -0.042889703 0.090416566 0.039457764 -0.06609679 -0.0993155 0.05999367 -0.11022245
-0.19957443 0.025052411 -0.05293899 0.023982203 -0.008463621 -0.020355701 0.02116506 -0.15425315
0.0031942758 -0.11290964 -0.072938025 -0.0018826302 0.02321021 -0.058248866 0.002923836 0.11816058
0.0129517075 -0.044669792 0.02625572 -0.0077651534 -0.13855602 0.12629181 -0.045360267 0.037227266
0.093462095 -0.040124338 -0.0213147 0.103300944 0.11389628 -0.06998516 0.08258371 0.13001195
-0.13758065 0.05713223 -0.019107236 -0.03312894 0.07268958 -0.13449536 -0.12951095 0.02564541
0.037919093 -0.05432768 -0.014539839 -0.07242139 -0.025788276 0.04462566 0.02359671 0.010722289
0.023869965 0.026174318 -0.002402415 0.056819126 0.08186885 -0.07445497 -0.021101965 0.004499173
0.0034963973 0.023293702 -0.070320845 -0.033979304 -0.022678595 0.011516623 -0.07873504 -0.053699777
-0.003984946 0.006679851 0.054499913 -0.06728851 -0.015353783 0.055187736 0.075911336 0.028030902
-0.05942119 -0.0753369 -0.061630987 -0.08361285 -0.029203692 0.0116911875 -0.025382288 0.10274689
-0.052671492 -0.0517462 0.094532564 -0.11364914 -0.03908271 0.048675533 0.048813775 0.15823004
-0.030590447 0.009407698 0.11914609 -0.055307545 0.008719139 0.06507103 -0.06661712 0.02044853
0.0634719 -0.12169242 0.03998293 0.03861542 0.014477273 -0.0766264 0.0026392885 -0.019564992
-0.08002295 0.010257584 -0.06344146 -0.044015855 -0.077209055 -0.12192917 -0.008904329 -0.049310043
-0.035231836 -0.03237057 -0.114521876 -0.016117176 -0.11859317 -0.12292406 -0.079487205 -0.07367519
-0.10326661 0.061002962 -0.0054046535 -0.068200976 0.016160602 0.06914024 -0.19094731 -0.13753732
-0.036880963 -0.04849894 -0.1698669 -0.057416376 -0.03523654 -0.09356333 0.006809058 -0.058784794
-0.020174203 0.027313802 -0.047316406 -0.036746137 -0.066059366 -0.031065702 -0.0811721 -0.06425467
-0.040637188 -0.013096521 -0.032602314 -0.10556345 0.08265076 -0.063503355 0.04037972 -0.0905459
-0.060457688 -0.12724927 0.061425105 -0.075253665 -0.22787765 0.049352042 -0.09094329 -0.015898947
00000000: 7475 8a3d 9715 973c f3c1 6fbd fccd 4dbc
00000010: 3cac 1f3e 06d0 c83d fbbc 6f3d 0371 c1bd
00000020: c4fc 053e 6194 44be 9bee dd3c 7823 4b3d
00000030: fa19 0f3e 46ea 77bd 08fd 1b3d ef6f 7d3b
00000040: e1be 8fbd 0997 07bd b42b b43d 33aa 1dbe
00000050: e2f1 f5bb c791 6dbc 0f43 09bd e66a e8bb
00000060: 3312 4bbd b867 8bbd 8dd0 a83b 90a4 ef3d
00000070: 01f2 44bd 7e97 46be f9f1 a23c 38c9 69bd
00000080: cd57 113e 5afd cbbb 5aab 1cbe f313 89bd
00000090: 15f4 ae3c 30b4 1abd 69d3 93bc 7385 2b3d
000000a0: 5864 e6bd 7b6b 163d 02e2 8f3c 05c2 fb3b
000000b0: 0c4b 02bd 7f3f 153d 2e35 a2bd 4ec6 54bd
000000c0: 96c3 04be 5ba9 9dbd d453 033e 5fe3 e3bc
000000d0: c1b8 b6bd 9177 1fbd f491 1cbe c15d 053c
000000e0: fa1e c0bd 0fa2 7cbc 4a86 03bc 19eb 11bd
000000f0: 4c23 e8bc daf4 4b3d 2d48 823c 0dd6 4cbd
00000100: ecca da3d 08b9 de3c 2666 b0bd 78d4 8ebc
00000110: 2aa6 063d fba4 a0bd 91a8 a3bc 928d 36bd
00000120: 9027 33be 5bfb 813d 9f41 353d 00a7 3ebb
00000130: bd39 c53d 8e72 56bc dc53 fc3d 0926 0fbd
00000140: 41ad 91bb 4cd7 17be f854 25bc d80d 06be
00000150: 6272 3ebd 5cc5 06bd 7b6c 953c f8d5 543d
00000160: 5849 a33d 1dad 2fbd 522c b93d 779e 213d
00000170: c15d 87bd ed65 cbbd ecbb 753d 4fbc e1bd
00000180: 3d5d 4cbe b73a cd3c 8ed6 58bd 5376 c43c
00000190: 00ab 0abc 00c1 a6bc 5962 ad3c 8af4 1dbe
000001a0: 0e57 513b 2b3d e7bd 8860 95bd 96c2 f6ba
000001b0: 5723 be3c 5d96 6ebd d49d 3f3b 2dfe f13d
000001c0: 6633 543c acf7 36bd 3c16 d73c d472 febb
000001d0: a1e1 0dbe a452 013e b0cb 39bd 9e7b 183d
000001e0: 0e69 bf3d 6b59 24bd 2a9c aebc 728f d33d
000001f0: 7442 e93d 6154 8fbd a621 a93d da21 053e
00000200: f1e1 0cbe 7c03 6a3d c786 9cbc 36b2 07bd
00000210: 46de 943d 27b9 09be 859e 04be 5316 d23c
00000220: 0d51 1b3d b486 5ebd 8138 6ebc aa51 94bd
00000230: ef41 d3bc 65c9 363d e34d c13c 8aac 2f3c
00000240: f28a c33c 866b d63c d671 1dbb 2cbb 683d
00000250: dbaa a73d d97b 98bd 07de acbc cc6d 933b
00000260: d023 653b 6fd2 be3c 6004 90bd e22d 0bbd
00000270: 76c8 b9bc 38b0 3c3c d63f a1bd 4cf4 5bbd
00000280: 2694 82bb a7e2 da3b 4d3b 5f3d 8fce 89bd
00000290: 6f8e 7bbc 890c 623d 6777 9b3d 10a1 e53c
000002a0: a263 73bd 3c4a 9abd c670 7cbd 373d abbd
000002b0: 953c efbc 658c 3f3c 84ee cfbc f66c d23d
000002c0: 10be 57bd d3f3 53bd 4a9a c13d e1c0 e8bd
000002d0: 3115 20bd ff5f 473d f4f0 473d 0e07 223e
000002e0: d198 fabc bf22 1a3c dd02 f43d 2a8a 62bd
000002f0: b8da 0e3c f643 853d 8e6e 88bd ad83 a73c
00000300: 8efd 813d e039 f9bd 24c5 233d 342b 1e3d
00000310: 1632 6d3c 4dee 9cbd eaf7 2c3b c346 a0bc
00000320: 13e3 a3bd 6d0f 283c 99ed 81bd f849 34bd
00000330: c81f 9ebd 00b6 f9bd 76e3 11bc 54f9 49bd
00000340: 424f 10bd 0197 04bd 728a eabd 2b08 84bc
00000350: fae0 f2bd 9cbf fbbd 30ca a2bd 05e3 96bd
00000360: 727d d3bd 3ede 793d 8519 b1bb f4ac 8bbd
00000370: 3d63 843c 6699 8d3d b187 43be 95d6 0cbe
00000380: 7e10 17bd d3a6 46bd 97f1 2dbe 6f2d 6bbd
00000390: 3154 10bd 229e bfbd 851e df3b 53c8 70bd
000003a0: 5f44 a5bc 32c1 df3c d9ce 41bd 1e83 16bd
000003b0: 224a 87bd 807d febc 8f3d a6bd f497 83bd
000003c0: 2e73 26bd ca92 56bc 018a 05bd a631 d8bd
000003d0: cd44 a93d 0c0e 82bd 3565 253d 2170 b9bd
000003e0: 7ba2 77bd a24d 02be e498 7b3d 981e 9abd
000003f0: c258 69be 5e25 4a3d 7a40 babd 823e 82bc

a2c_network.actor_mlp.2.bias f4 [64]
-0.08035818 -0.11956364 0.003924115 -0.024336295 -0.076201394 -0.026087552 -0.051910635 0.023143439
-0.0074620526 -0.00044205965 -0.061805442 -0.08462776 -0.033717778 -0.0728957 0.04208405 0.0021276001
0.042151507 -0.10057483 -9.164383e-05 0.012696571 -0.035237886 -0.038106944 0.03493034 -0.15083136
-0.03889064 -0.12542163 0.084067784 -0.059310805 0.03905466 -0.04194844 0.028863665 -0.010068595
-0.12296158 -0.072956234 -0.061423272 -0.075684 0.046750262 -0.044774257 -0.05580308 -0.02621671
-0.00026140045 0.00452991 -0.11955907 -0.008636695 -0.035079047 -0.0056391703 0.050114762 0.012190265
0.011292018 -0.015990455 0.027949082 0.04769766 -0.07135767 -0.014988684 0.024623571 0.046175275
-0.088675216 -0.06349486 0.008315154 0.04305711 0.06408341 0.1113999 -0.15167545 -0.016425114
00000000: d492 a4bd c8dd f4bd dd95 803b e95c c7bc
00000010: 7a0f 9cbd 90b5 d5bc 3fa0 54bd 4f97 bd3c
00000020: 3c84 f4bb 3ec4 e7b9 b427 7dbd 5251 adbd
00000030: a71b 0abd 574a 95bd 5360 2c3d 356f 0b3b
00000040: 0fa7 2c3d 2dfa cdbd e830 c0b8 4705 503c
00000050: 9a55 10bd 0716 1cbd 1e13 0f3d 8973 1abe
00000060: cb4b 1fbd 876e 00be bb2b ac3d e3ef 72bd
00000070: c7f7 1f3d 21d2 2bbd 7e73 ec3c c0f6 24bc
00000080: 48d3 fbbd 146a 95bd f896 7bbd 3700 9bbd
00000090: 347d 3f3d 3665 37bd c591 64bd 6dc4 d6bc
000000a0: 930c 89b9 a46f 943b 63db f4bd ed80 0dbc
000000b0: 0caf 0fbd cac8 b8bb 2345 4d3d adb9 473c
000000c0: 2802 393c 6afe 82bc 79f5 e43c 9f5e 433d
000000d0: f823 92bd 1993 75bc 5fb7 c93c 4922 3d3d
000000e0: 5a9b b5bd 9809 82bd 493c 083c a75c 303d
000000f0: 2a3e 833d a125 e43d cf50 1bbe f68d 86bc

a2c_network.actor_mlp.4.weight f4 [32, 64]
0.19261742 0.03322379 0.15979141 0.30244723 0.0037653404 0.08894273 0.03233803 0.028043034
-0.07967351 -0.13924207 -0.062081125 0.21962625 -0.022057444 -0.11320545 0.020898607 -0.07201824
-0.12245272 0.12027691 -0.024324283 -0.005869296 0.14717199 0.12908281 0.058296103 -0.010024746
0.03195848 -0.138895 0.017432313 -0.16408035 0.02536808 -0.090004854 0.062160805 -0.17006917
0.07145751 -0.09956423 0.06717967 -0.06741865 0.09311663 -0.08492359 0.009166661 -0.0875945
-0.08064345 -0.033822104 0.11748616 0.18350148 -0.045512866 0.02291457 0.009436601 0.07209123
-0.03608674 -0.08625436 0.01030964 0.22825319 -0.14628339 -0.017629916 0.045061562 -0.015217982
0.028841091 -0.06833012 0.0485429 -0.009082296 -0.15024462 -0.056174308 0.26454955 -0.031572297
0.12582192 -0.02761434 -0.14865305 -0.12823325 -0.017424162 -0.034417346 -0.029517578 0.1358375
-0.22715452 -0.021251118 0.017657561 -0.09657261 0.10195304 0.010085678 -0.12434248 -0.09814347
-0.057371154 -0.1455196 -0.0060449103 0.10620469 -0.061946265 -0.08559035 0.015466224 0.060482178
-0.008398952 -0.07673447 0.090581745 0.09272449 0.094743185 0.06963668 -0.01640074 0.07152911
0.003354351 -0.003913741 -0.12497161 0.018253423 0.03924041 -0.033074632 -0.100310825 0.08550389
-0.067874864 0.021371795 0.075579666 -0.002375861 0.05876347 0.007783465 -0.10649134 -0.09458387
0.0021624584 -0.06753947 -0.17464769 -0.1260952 -0.11544581 -0.014687002 -0.034854937 -0.015074825
-0.13357067 -0.18786396 -0.0013852473 -0.037887156 0.03944003 0.0007228456 0.012345787 -0.09394633
0.07788079 0.03418131 0.045926 0.050924473 -0.22822201 -0.10774115 -0.041094925 -0.025839297
-0.057184447 -0.08596826 -0.014752921 0.13153137 -0.04730029 0.17750591 -0.0459007 0.023229074
-0.064642005 -0.1412009 0.037310828 -0.13098168 0.21510983 0.07654399 -0.12062396 0.09934538
-0.20679316 0.07568493 0.021515543 -0.044507496 -0.035520867 0.1280965 -0.12800634 0.031142056
0.1365825 0.14385432 0.1081906 0.08547684 -0.14877157 -0.12607722 -0.07256596 -0.17665124
0.04454027 0.13629378 0.039183922 -0.03535103 -0.20657232 -0.06377504 -0.066923425 -0.1504217
-0.06680338 -0.059313856 -0.0709365 -0.10203991 -0.064190514 -0.08852652 0.06044199 0.019708185
0.17066395 0.085414596 -0.12847224 -0.039309528 -0.086457394 -0.27690053 0.07048098 0.042934567
-0.13415407 0.08799649 -0.229953 -0.24855192 -0.06610581 0.10361276 0.05713272 0.055032235
-0.1546537 0.062425032 -0.08749542 -0.03808989 0.12279433 0.028405206 0.08298011 0.111460574
-0.079033725 0.048640717 0.1027081 -0.010562395 -0.07585675 -0.12748149 0.12624924 0.103291
0.11732646 0.10050589 0.009626482 0.04501905 -0.0003396149 0.07654343 -0.062711604 -0.025499353
0.040164366 0.023853388 -0.044782534 0.028063938 0.06986675 -0.09441166 -0.06240035 -0.03561606
-0.1400482 0.069707304 0.0667063 0.13814642 -0.043613136 0.033500068 0.046913832 0.11611356
-0.04374505 -0.0711102 0.00013284344 -0.17565525 0.026527595 0.15152207 -0.032977287 0.0015703251
0.00953091 0.047183517 -0.09008356 0.2012456 0.18332301 -0.111725375 0.072450034 0.031618934
00000000: 803d 453e ab15 083d 5ca0 233e 5dda 9a3e
00000010: eec3 763b 9b27 b63d e274 043d 81ba e53c
00000020: dd2b a3bd 7995 0ebe c748 7ebd b4e5 603e
00000030: d0b1 b4bc 42d8 e7bd 8e33 ab3c 4d7e 93bd
00000040: 7ec8 fabd be53 f63d b843 c7bc 3953 c0bb
00000050: 41b4 163e 492e 043e e5c7 6e3d d53e 24bc
00000060: e5e6 023d 7e3a 0ebe 36ce 8e3c ae04 28be
00000070: b8d0 cf3c 7754 b8bd 549c 7e3d 9d26 2ebe
00000080: 5158 923d 55e8 cbbd 7f95 893d ca12 8abd
00000090: efb3 be3d 6bec adbd c32f 163c bf64 b3bd
000000a0: 6528 a5bd 0c89 0abd 959c f03d d0e7 3b3e
000000b0: b36b 3abd 56b7 bb3c f99b 1a3c 91a4 933d
000000c0: b1cf 13bd 20a6 b0bd c4e9 283c 34bb 693e
000000d0: 50cb 15be 9d6c 90bc 7992 383d d854 79bc
000000e0: 2744 ec3c a9f0 8bbd ebd4 463d e9cd 14bc
000000f0: bad9 19be 0817 66bd 0a73 873e f451 01bd
00000100: 76d7 003e 7837 e2bc 8138 18be 944f 03be
00000110: 1ebd 8ebc 34f9 0cbd d9ce f1bc fc18 0b3e
00000120: 329b 68be d316 aebc 97a6 903c dcc7 c5bd
00000130: c1cc d03d 663e 253c 45a7 febd 72ff c8bd
00000140: 04fe 6abd 1703 15be 6214 c6bb d881 d93d
00000150: 5ebb 7dbd fe49 afbd 0c66 7d3c 29bc 773d
00000160: c29b 09bc f626 9dbd ec82 b93d 56e6 bd3d
00000170: b708 c23d ad9d 8e3d d85a 86bc db7d 923d
00000180: acd4 5b3b d73e 80bb 1ef1 ffbd 3488 953c
00000190: 8dba 203d 4479 07bd c36f cdbd aa1c af3d
000001a0: fa01 8bbd e713 af3c 83c9 9a3d 55b4 1bbb
000001b0: f7b1 703d 700c ff3b 2218 dabd 30b5 c1bd
000001c0: 08b8 0d3b 2252 8abd d8d6 32be 1a1f 01be
000001d0: da6e ecbd c0a1 70bc 0dc4 0ebd 66fc 76bc
000001e0: c0c6 08be 695f 40be 3091 b5ba 902f 1bbd
000001f0: de8b 213d 597d 3d3a fc45 4a3c ef66 c0bd
00000200: f77f 9f3d b401 0c3d e71c 3c3d 2e96 503d
00000210: 08b3 69be 64a7 dcbd 2753 28bd efac d3bc
00000220: 3d3a 6abd 2110 b0bd 3cb6 71bc 29b0 063e
00000230: f3bd 41bd 1cc4 353e 5f02 3cbd e64a be3c
00000240: 0763 84bd f896 10be 3dd3 183d 1020 06be
00000250: c045 5c3e 18c3 9c3d b209 f7bd 9775 cb3d
00000260: 96c1 53be b300 9b3d 5d41 b03c 7e4d 36bd
00000270: 547e 11bd bb2b 033e 1814 03be a01d ff3c
00000280: 48dc 0b3e 8c4e 133e 0993 dd3d 7b0e af3d
00000290: 9357 18be 631a 01be 769d 94bd 10e4 34be
000002a0: dc6f 363d 9990 0b3e 527f 203d 3ecc 10bd
000002b0: b287 53be 7d9c 82bd 260f 89bd 2508 1abe
000002c0: 36d0 88bd 16f3 72bd 2847 91bd 4dfa d0bd
000002d0: 5176 83bd 644d b5bd 0592 773d 0f73 a13c
000002e0: 88c2 2e3e d9ed ae3d 3a8e 03be 0703 21bd
000002f0: 9310 b1bd e8c5 8dbe 5558 903d 28dc 2f3d
00000300: af5f 09be 8137 b43d cd78 6bbe 6584 7ebe
00000310: 7c62 87bd ed32 d43d 0004 6a3d 7b69 613d
00000320: 8a5d 1ebe 64b1 7f3d cc30 b3bd 2504 1cbd
00000330: 987b fb3d 09b2 e83c 7af1 a93d 7145 e43d
00000340: 6fdc a1bd 7d3b 473d a058 d23d e50d 2dbc
00000350: c95a 9bbd 828a 02be 7b47 013e 3b8a d33d
00000360: db48 f03d 08d6 cd3d 64b8 1d3c e565 383d
00000370: 570e b2b9 cdc2 9c3d f16e 80bd 05e4 d0bc
00000380: 6483 243d 2e68 c33c e46d 37bd 58e6 e53c
00000390: 4c16 8f3d e75a c1bd 8297 7fbd 25e2 11bd
000003a0: cc68 0fbe b4c2 8e3d 509d 883d 4176 0d3e
000003b0: b0a3 32bd 5e37 093d b828 403d f2cc ed3d
000003c0: 022e 33bd 39a2 91bd e44b 0b39 f8de 33be
000003d0: 6650 d93c 9a28 1b3e 3113 07bd 5ed3 cd3a
000003e0: 8927 1c3c 8143 413d bb7d b8bd 5413 4e3e
000003f0: 07b9 3b3e 46d0 e4bd af60 943d db82 013d

a2c_network.actor_mlp.4.bias f4 [32]
-0.0010952554 0.03248979 -0.0498753 -0.12311089 -0.027136289 -0.006766665 -0.05640663 -0.0672115
-0.032866485 -0.015802931 -0.008414316 -0.028520696 -0.09921515 0.020505035 -0.06680349 -0.03888986
0.020605894 0.0026151927 -0.07235477 -0.062184624 -0.014730039 -0.016532443 -0.08504489 -0.07048494
-0.07808326 0.031517662 -0.07123195 -0.071818955 0.049889266 0.022514418 -0.06102533 0.053384118
00000000: ac8e 8fba 0414 053d 0b4a 4cbd 9021 fcbd
00000010: ec4c debc e6ba ddbb a30a 67bd 2fa6 89bd
00000020: 029f 06bd 2675 81bc 33dc 09bc 3ca4 e9bc
00000030: 5031 cbbd 2dfa a73c 45d0 88bd f94a 1fbd
00000040: b1cd a83c a763 2b3b bd2e 94bd 4eb5 7ebd
00000050: 4356 71bc 0c6f 87bc 042c aebd 695a 90bd
00000060: 1eea 9fbd aa18 013d 0ee2 91bd d115 93bd
00000070: b058 4c3d 2870 b83c b2f5 79bd 4ea9 5a3d

a2c_network.value.weight f4 [1, 32]
-0.050638814 0.03730862 0.049637273 -0.0044296924 -0.002175943 0.007543841 0.017447999 0.0022083127
0.0068614283 0.07190197 -0.0036417323 -0.0036434412 0.030891556 0.008541888 0.004220496 -0.017447008
0.021526968 0.062497728 0.010627797 0.014823461 -0.0037284037 0.02703585 0.015152858 -0.0014321705
-0.024506321 0.031463556 -0.042531107 -0.042246398 -0.0353643 -0.019979766 -0.014625082 -0.020857023
00000000: a56a 4fbd ecd0 183d 7450 4b3d f426 91bb
00000010: 449a 0ebb 5332 f73b 1bef 8e3c 57b9 103b
00000020: d5d5 e03b 5741 933d 21aa 6ebb cdc6 6ebb
00000030: 4a10 fd3c 46f3 0b3c 164c 8a3b 07ed 8ebc
00000040: 5359 b03c 9efd 7f3d 3620 2e3c 1ade 723c
00000050: 3c58 74bb 497a dd3c b143 783c abb7 bbba
00000060: 7bc1 c8bc eedf 003d 1935 2ebd 8f0a 2dbd
00000070: 28da 10bd 9bac a3bc 0a9e 6fbc 59dc aabc

a2c_network.mu.weight f4 [7, 32]
-0.045202278 -0.1915455 0.012183086 -0.1521032 -0.10301134 -0.18835 -0.010999298 0.07756011
0.11275933 0.11130124 0.05282029 -0.06427846 0.17972162 -0.10494018 -0.13401845 -0.068798326
-0.11295339 -0.059532173 -0.11731003 -0.032279447 0.09855536 -0.04349844 -0.04796843 0.08045789
-0.20041029 0.1628972 -0.08278497 -0.0934807 -0.31637374 -0.09271317 -0.10135298 -0.25823796
0.22150676 0.08476476 -0.1130754 -0.18149632 0.06263107 -0.019056657 -0.19699684 -0.01569701
-0.113463275 0.019590503 -0.016702445 0.11085105 0.07010638 0.1487817 0.026003204 0.25844553
-0.14882456 -0.14545693 -0.26368433 0.09602841 0.08941699 0.04237758 -0.018343493 -0.087428145
-0.20212401 0.020194158 0.014033601 0.029310757 -0.16276965 0.2975042 0.092139885 -0.02620242
0.058984343 -0.14145093 -0.09919052 -0.18557595 0.07142484 -0.11062839 0.06537384 -0.1710026
0.015495503 -0.27113247 -0.021797966 0.15001282 -0.16093402 -0.009325102 -0.02460728 0.08903116
-0.06955206 -0.1021593 -0.11171485 -0.089968994 -0.06085065 -0.06113414 -0.15488386 -0.019015905
0.008205943 -0.17266303 0.0059685386 0.058500405 0.23117581 0.2034746 0.061186466 0.19003639
0.14109959 0.10327912 -0.09634675 0.14085545 -0.03897581 0.25752845 0.10390209 -0.008494548
-0.21280149 0.09068801 0.1546346 0.0287362 -0.0012572135 0.21385297 0.15416811 -0.12264947
-0.03664272 -0.033843488 -0.10267956 -0.11487265 0.06350555 -0.22226903 -0.032545544 -0.1501757
0.20849805 -0.012438282 -0.08126215 0.2246895 0.13639884 0.15852496 0.071371056 -0.15324959
-0.31046087 0.3159519 -0.2600983 0.13012359 0.3492536 0.07020714 -0.08297242 0.37097198
-0.18435891 -0.20084855 0.30266184 0.18244545 -0.21677172 0.18404523 0.03936384 -0.15484509
-0.18568107 -0.2667321 0.17171435 0.18350665 -0.20755087 0.0010712701 0.13633697 0.21281712
0.25944948 -0.16723578 -0.2205019 -0.048729047 -0.050343473 0.18019553 0.38252592 0.35850275
0.25339392 -0.013451722 0.1551062 0.027542697 -0.027425595 -0.08182352 0.056535147 0.11973263
-0.032806586 -0.0803577 -0.015163326 0.022172699 0.06894493 -0.06391121 -0.01910317 0.21223034
-0.18244164 0.18381968 -0.09656607 0.10393039 0.04303248 0.08131873 -0.0059190905 0.0050868215
0.07534168 -0.06938417 -0.077715464 0.07597803 -0.14727114 0.12035583 0.11965652 -0.018588642
-0.10352476 0.02128207 -0.18915556 0.039964158 0.04678729 0.106596604 -0.21599598 0.2702337
-0.052829076 -0.05053313 0.26904914 0.01869662 -0.011566345 0.07526197 0.17231116 -0.058781613
-0.06506334 -0.29640567 0.1794364 0.2091837 -0.049358785 0.008765649 -0.067786686 0.06707042
-0.05214721 -0.10355458 -0.05214125 0.28286707 0.19230683 0.19423994 0.061765887 0.081929974
00000000: 0626 39bd 8124 44be 919b 473c f1c0 1bbe
00000010: 9cf7 d2bd d3de 40be 6636 34bc d6d7 9e3d
00000020: 5dee e63d e8f1 e33d 175a 583d 6da4 83bd
00000030: f208 383e e1ea d6bd 223c 09be 23e6 8cbd
00000040: 1b54 e7bd 02d8 73bd 3e40 f0bd 7437 04bd
00000050: 65d7 c93d 6c2b 32bd 8b7a 44bd 1bc7 a43d
00000060: 5b38 4dbe 86ce 263e 2b8b a9bd cf72 bfbd
00000070: bdfb a1be 67e0 bdbd 2792 cfbd c437 84be
00000080: abd2 623e 2699 ad3d 1394 e7bd 2cda 39be
00000090: b844 803d b51c 9cbc 8ab9 49be 0497 80bc
000000a0: 6f5f e8bd 437c a03c 91d3 88bc e005 e33d
000000b0: ef93 8f3d 3b5a 183e ac04 d53c f952 843e
000000c0: 7765 18be a9f2 14be a201 87be 8baa c43d
000000d0: 4120 b73d 1d94 2d3d 1845 96bc 870d b3bd
000000e0: 99f9 4ebe 386e a53c 30ed 653c 1d1d f03c
000000f0: 16ad 26be 7852 983e d6b3 bc3d 75a6 d6bc
00000100: 9199 713d 83d8 10be 6624 cbbd 9f07 3ebe
00000110: 3047 923d 2391 e2bd b8e2 853d 4e1b 2fbe
00000120: dae0 7d3c e0d1 8abe a691 b2bc f69c 193e
00000130: e3cb 24be 50c8 18bc 3595 c9bc f855 b63d
00000140: 4f71 8ebd e538 d1bd c1ca e4bd aa41 b8bd
00000150: 883e 79bd cb67 7abd e099 1ebe 3ec7 9bbc
00000160: 3872 063c 94ce 30be bb93 c33b 1f9e 6f3d
00000170: 5ab9 6c3e a55b 503e a99e 7a3d e698 423e
00000180: 697c 103e 0184 d33d 7251 c5bd 693c 103e
00000190: 19a5 1fbd c5da 833e 9eca d43d b72c 0bbc
000001a0: a2e8 59be a3ba b93d 8858 1e3e 2e68 eb3c
000001b0: 16c9 a4ba 46fc 5a3e 3fde 1d3e a52f fbbd
000001c0: ad16 16bd 789f 0abd a949 d2bd 5a42 ebbd
000001d0: 330f 823d 7e9a 63be 7a4e 05bd a9c7 19be
000001e0: 8380 553e f0c9 4bbc c56c a6bd 0115 663e
000001f0: 23ac 0b3e 5e54 223e fd2a 923d 76ed 1cbe
00000200: baf4 9ebe 73c4 a13e 9b2b 85be 1e3f 053e
00000210: 5ed1 b23e c3c8 8f3d 72ed a9bd 0af0 bd3e
00000220: 95c8 3cbe 3eab 4dbe 7ef6 9a3e fbd2 3a3e
00000230: 68f9 5dbe 5a76 3c3e fa3b 213d b68f 1ebe
00000240: 2e23 3ebe 1c91 88be e3d5 2f3e 2be9 3b3e
00000250: 3788 54be dc69 8c3a eb9b 0b3e bbec 593e
00000260: 90d6 843e db3f 2bbe 40cb 61be 1c98 47bd
00000270: f534 4ebd 2d85 383e 70da c33e ac8d b73e
00000280: d9bc 813e 9d64 5cbc 29d4 1e3e 39a1 e13c
00000290: a4ab e0bc 1793 a7bd 6691 673d 6236 f53d
000002a0: 3360 06bd 9492 a4bd 996f 78bc 85a3 b53c
000002b0: 0033 8d3d e1e3 82bd 407e 9cbc e952 593e
000002c0: fbd1 3abe 3a3b 3c3e 6fc4 c5bd 75d9 d43d
000002d0: d342 303d 6f8a a63d eef4 c1bb 5aaf a63b
000002e0: bd4c 9a3d 4a19 8ebd 4929 9fbd 5f9a 9b3d
000002f0: 3fce 16be 1e7d f63d 7a0e f53d 3547 98bc
00000300: ca04 d4bd bc57 ae3c ffb1 41be 75b1 233d
00000310: 08a4 3f3d 524f da3d 0d2e 5dbe 125c 8a3e
00000320: 4d63 58bd d4fb 4ebd cfc0 893e a729 993c
00000330: c480 3dbc f322 9a3d 5672 303e fdc4 70bd
00000340: ee3f 85bd 7cc2 97be 2dbe 373e 4034 563e
00000350: 702c 4abd cc9d 0f3c bfd3 8abd 375c 893d
00000360: 5098 55bd 6c14 d4bd 1092 55bd f4d3 903e
00000370: 15ec 443e d6e6 463e 3afe 7c3d e7ca a73d

a2c_network.mu.bias f4 [7]
0.0074085696 0.034245674 -0.012332565 -0.09307802 -0.12031734 0.036523093 0.007778665
00000000: 96c3 f23b 3145 0c3d 870e 4abc b09f bebd
00000010: f068 f6bd 3d99 153d 2ce4 fe3b

exp_avg f4 [7]
-0.0045717396 0.004519029 0.00084695814 0.0076015773 0.002343192 -0.0002564262 0.012005502
00000000: 88ce 95bb 5d14 943b 6606 5e3a a716 f93b
00000010: 3d90 193b f170 86b9 bab2 443c

exp_avg_sq f4 [7]
0.0004970367 0.00047897117 0.00041500988 0.0005353936 0.00053584686 0.00049507373 0.0005046191
00000000: 914b 023a 6c1e fb39 af95 d939 a859 0c3a
00000010: 1378 0c3a d6c7 013a 6a48 043a

exp_avg f4 [128, 18]
0.00015066087 -8.625705e-05 -0.0007156648 -0.0013750779 0.00068722793 -0.0009409908 -0.001379142 0.00049993134
-0.00070687506 -0.0010133837 -0.0013891712 0.00026786554 0.00084006914 0.0006966914 -0.00018332023 -0.0013592325
-0.00089913455 0.0009819701 0.00036101282 -0.00014017515 -0.0003451485 1.222539e-05 -6.861607e-05 -0.00022708607
-0.00042875137 6.653883e-05 -0.00016108049 2.092918e-05 -0.0004762407 2.2469783e-05 0.00047216605 0.0003128224
-0.00037219495 -0.00047524672 -0.000177071 0.00021815301 -2.3968605e-05 0.00053366495 -0.00023780648 0.0005412812
-0.000955039 0.0006612583 0.0002482968 -0.0012858652 0.00090022513 0.0010359194 0.00015844306 -0.00076753617
0.0012283444 0.00048552884 -0.00029917795 0.00078105484 -0.00036873613 0.00053070806 0.00022892954 -0.0006621834
0.0002535145 0.00015302877 0.00036290474 -4.014125e-05 0.000106956504 1.7402104e-05 -0.00060090283 0.00052222697
-0.0007750184 0.00091531314 -0.0004100282 -0.00045483068 -0.00019000394 -0.00033997872 0.0004599 -0.00084136863
-0.0023986287 0.00045190897 0.0018909909 0.0019584782 -0.00020108468 0.001075382 0.0020675333 -0.00078352593
0.0017807789 0.0008110978 0.0014728267 0.0007652017 -0.0015375089 -0.00030344047 0.002027848 0.0019421959
0.0024172673 -0.002308892 -0.0003233719 0.0007070792 0.00043796192 -0.00016059965 -0.0006272895 0.00069826806
0.0005838313 -0.00058114604 0.0008545224 0.00074483163 0.00086840114 -0.00051354436 0.00020762834 0.0003483632
0.00038907136 0.0015972189 -0.0005876372 0.00056930527 0.0003849924 0.0003748521 -0.00035118742 -0.001125618
-0.00079800555 0.00018747165 -0.0011499698 -0.0010821999 0.0002087562 0.0012687392 -0.0010899487 -0.00082683755
0.0015616334 0.00046212488 -0.00056560454 0.00051008695 -0.0016082971 0.0010279675 0.00015966097 0.00013377678
7.077792e-05 -0.00066840026 5.5830846e-05 0.00043042062 -0.0011852235 -0.00045846196 0.00026040172 0.0008536422
-0.0010753089 -0.00031785626 0.0016920092 -0.0002925642 -0.00044707497 0.0001112159 -0.00066467194 0.00027084787
-0.0013525963 0.0022866267 0.0009420358 0.0003986452 -0.0024703392 0.0016860132 0.00025996022 -0.0022290898
0.0031039189 0.0022891609 0.0020679855 -0.001589707 0.0004008502 0.00041002038 0.0010163679 0.004158972
-0.0012280724 0.0011278053 0.0006241339 0.00019297155 -0.0007140606 -0.0004756903 -0.0008057106 -0.00052699354
-0.001147428 1.0072135e-05 -2.096218e-05 -0.00010918767 -0.00015537193 -0.00067820854 0.0001593709 0.00010477857
-0.0005872803 -0.00034245072 -0.0009861089 0.0010048528 1.1662179e-05 -0.0006362865 -0.0003602641 0.0017622088
0.00040311745 -0.0004839963 0.0018479165 0.0007898817 -0.0007939274 -0.001566833 0.0012302257 0.0007173197
-0.0022946051 -0.00023315304 0.00038797624 -0.0010496333 0.0017471056 -0.00089954183 -6.4706066e-05 0.0013571754
-0.00090183807 0.000621882 -0.0024791323 -0.00017655345 0.00032489904 -0.0012944961 0.0011273985 0.0001968813
0.0018227757 -0.0017832026 -0.0008328414 0.00046227634 0.00035792193 0.0018319401 -0.0012634263 0.0018921343
0.0006256972 -0.00051927107 -0.00011912176 -0.0020728116 0.001048657 -0.0005523589 -0.0008798504 0.0007748882
-0.0011384777 -0.00019770605 -0.0014855881 0.00030065226 0.0010492406 0.0005669158 -0.0004402395 -0.00088474696
-0.0011701165 0.0006883403 0.00011503353 -0.00055384607 0.0008234795 -0.00019389924 0.0005802294 0.0007243586
0.00034376828 -0.00019093926 -0.00022690244 0.0011858657 -0.0006464278 0.00029952248 0.0009114339 4.6295572e-05
-0.00027900515 0.00028166553 0.0003714714 -0.0008807563 -0.00017644593 -0.00055204454 -2.3902821e-05 0.0014749059
00000000: b8fa 1d39 e7e4 b4b8 749b 3bba f53b b4ba
00000010: 1627 343a d3ac 76ba 54c4 b4ba d30d 033a
00000020: 954d 39ba 84d3 84ba da14 b6ba 4e70 8c39
00000030: 1638 5c3a 2ba2 363a a639 40b9 4628 b2ba
00000040: e6b3 6bba 73b5 803a 5246 bd39 fbfb 12b9
00000050: 0cf5 b4b9 a61b 4d37 f9e5 8fb8 f41d 6eb9
00000060: 09ca e0b9 c38a 8b38 b7e7 28b9 1291 af37
00000070: f2af f9b9 7e7d bc37 0e8d f739 5002 a439
00000080: 2923 c3b9 892a f9b9 22ac 39b9 01c0 6439
00000090: 3010 c9b7 a6e5 0b3a b15b 79b9 c4e4 0d3a
000000a0: 955b 7aba 4b58 2d3a d52d 8239 7a8a a8ba
000000b0: 16fd 6b3a b0c7 873a bc23 2639 7b34 49ba
000000c0: 6600 a13a 948e fe39 fcda 9cb9 b4bf 4c3a
000000d0: ed52 c1b9 371f 0b3a ce0c 7039 6096 2dba
000000e0: 24ea 8439 5976 2039 4044 be39 575d 28b8
000000f0: d64d e038 bcfa 9137 e885 1dba 0fe6 083a
00000100: 9b2a 4bba a0f1 6f3a 0ef9 d6b9 5776 eeb9
00000110: cb3b 47b9 2c3f b2b9 bc1e f139 4b8f 5cba
00000120: 5032 1dbb 32ee ec39 20db f73a d059 003b
00000130: 42da 52b9 d5f3 8c3a 747f 073b 8965 4dba
00000140: 0669 e93a da9f 543a dd0b c13a d197 483a
00000150: 3d86 c9ba 1717 9fb9 a5e5 043b 4891 fe3a
00000160: 046b 1e3b c850 17bb 3e8a a9b9 485b 393a
00000170: 419e e539 a466 28b9 b070 24ba fa0b 373a
00000180: 410c 193a 0d58 18ba 0702 603a ce40 433a
00000190: 6aa5 633a 619f 06ba cfb6 5939 84a4 b639
000001a0: 46fc cb39 c659 d13a aa0b 1aba 6e3d 153a
000001b0: ced8 c939 cc87 c439 941f b8b9 7989 93ba
000001c0: 3f31 51ba 0a94 4439 95ba 96ba 9ad8 8dba
000001d0: 91e5 5a39 d34b a63a 9cdc 8eba 21c0 58ba
000001e0: b9af cc3a 5a49 f239 1445 14ba 5bb7 053a
000001f0: 7fcd d2ba debc 863a aa6a 2739 6e46 0c39
00000200: 9b6e 9438 9537 2fba ea2b 6a38 14aa e139
00000210: 8059 9bba b95d f0b9 8786 8839 f5c6 5f3a
00000220: 61f1 8cba f2a5 a6b9 68c6 dd3a 4d63 99b9
00000230: 6365 eab9 953c e938 613d 2eba 9600 8e39
00000240: 9a49 b1ba 3bdb 153b f4f2 763a 4101 d139
00000250: 6ae5 21bb 37fd dc3a 454b 8839 ec15 12bb
00000260: 1e6b 4b3b bf05 163b 0a87 073b b75d d0ba
00000270: 3429 d239 01f8 d639 a637 853a fc47 883b
00000280: 46f7 a0ba ded2 933a eb9c 233a 6858 4a39
00000290: cc2f 3bba 1266 f9b9 5336 53ba f025 0aba
000002a0: 4b65 96ba 7efb 2837 f0d7 afb7 affb e4b8
000002b0: 56eb 22b9 cec9 31ba cd1c 2739 91bc db38
000002c0: b7f3 19ba f58a b3b9 5340 81ba 44b5 833a
000002d0: ada8 4337 77cc 26ba d4e1 bcb9 eaf9 e63a
000002e0: 8259 d339 e2c0 fdb9 ca35 f23a 1010 4f3a
000002f0: 911f 50ba 315e cdba 863f a13a 830a 3c3a
00000300: 1661 16bb 8b7a 74b9 4a69 cb39 d993 89ba
00000310: 23ff e43a 3bcf 6bba ceb2 87b8 40e3 b13a
00000320: 5469 6cba cb05 233a f078 22bb 3521 39b9
00000330: 3657 aa39 15ac a9ba 37c5 933a ec71 4e39
00000340: 34ea ee3a 5aba e9ba 0a53 5aba ae5d f239
00000350: 78a7 bb39 b61d f03a 8d99 a5ba 7e01 f83a
00000360: d405 243a b11f 08ba 02d1 f9b8 02d8 07bb
00000370: 1773 893a 2ecc 10ba c3a5 66ba de21 4b3a
00000380: f938 95ba 504f 4fb9 11b8 c2ba dda0 9d39
00000390: ac86 893a 139d 143a f2cf e6b9 5dee 67ba
000003a0: 985e 99ba bc71 343a 283e f138 fb2f 11ba
000003b0: c6de 573a 6e51 4bb9 891a 183a e2e2 3d3a
000003c0: cc3b b439 de36 48b9 a9ec 6db9 0d6f 9b3a
000003d0: 0975 29ba 3a09 9d39 4bed 6e3a 7e2d 4238
000003e0: 7047 92b9 82ac 9339 0cc2 c239 8ee2 66ba
000003f0: 5804 39b9 15b7 10ba eb82 c8b7 a151 c13a

exp_avg_sq f4 [128, 18]
4.3483265e-06 3.2457936e-06 3.1273928e-06 5.3201475e-06 5.926691e-06 4.570364e-06 3.856476e-06 7.0714673e-06
7.02527e-06 5.650406e-06 4.852777e-06 5.2552746e-06 5.5591427e-06 4.9431137e-06 3.8289704e-06 5.3184326e-06
3.1086252e-06 3.6210836e-06 7.821868e-06 8.362855e-06 7.390465e-06 8.387533e-06 6.419552e-06 6.996445e-06
5.2405207e-06 8.644692e-06 9.209437e-06 9.226575e-06 8.913737e-06 7.7074055e-06 9.796174e-06 7.904631e-06
4.518712e-06 6.641141e-06 4.2950937e-06 7.2663465e-06 8.271428e-06 7.921687e-06 8.187984e-06 8.8123315e-06
7.2038115e-06 7.517177e-06 5.624484e-06 1.19330225e-05 1.2549129e-05 8.801032e-06 9.15296e-06 9.114892e-06
1.2688657e-05 8.401425e-06 5.300218e-06 6.9937364e-06 7.0723413e-06 8.052173e-06 4.452607e-06 3.5506628e-06
3.9268025e-06 4.2757842e-06 4.4836816e-06 4.5981947e-06 5.2180017e-06 6.2187805e-06 4.2580396e-06 4.4254843e-06
4.7572103e-06 4.829929e-06 6.724186e-06 5.8594737e-06 2.7861104e-06 3.2276876e-06 4.0235727e-06 4.7587496e-06
1.1078963e-05 8.623916e-06 1.1484411e-05 1.5458694e-05 2.1503642e-05 1.2038208e-05 9.194035e-06 1.962691e-05
1.6262973e-05 2.488993e-05 1.319025e-05 1.5758797e-05 1.684928e-05 1.4334902e-05 9.463536e-06 2.5872603e-05
9.381846e-06 1.4385927e-05 6.8544177e-06 6.0987477e-06 4.3248365e-06 7.341581e-06 8.629003e-06 7.9622505e-06
5.6570675e-06 1.1096413e-05 1.0387785e-05 8.105341e-06 7.0502983e-06 7.1751283e-06 9.031138e-06 7.227393e-06
4.4921467e-06 8.944982e-06 5.8728097e-06 6.1124783e-06 6.2905997e-06 7.41939e-06 5.4307293e-06 8.665869e-06
8.899877e-06 8.793018e-06 6.873315e-06 1.2775872e-05 1.2939281e-05 1.0197333e-05 9.469816e-06 9.33468e-06
1.1497572e-05 1.1178048e-05 5.0390095e-06 9.910594e-06 7.2198295e-06 8.3767845e-06 5.581477e-06 5.2391915e-06
7.42837e-06 8.080324e-06 6.8294466e-06 9.162777e-06 4.0428304e-06 1.02638505e-05 8.8011275e-06 7.505929e-06
7.0139486e-06 9.098356e-06 1.1027659e-05 8.059316e-06 5.711444e-06 5.5861965e-06 4.7264543e-06 5.5989417e-06
1.230174e-05 8.745899e-06 8.029247e-06 1.0561812e-05 1.2617299e-05 1.14111e-05 1.1792092e-05 1.7833565e-05
1.5734997e-05 1.3536493e-05 1.0789711e-05 1.0662205e-05 1.475353e-05 1.2232849e-05 7.2532807e-06 1.3800565e-05
9.410404e-06 1.0458975e-05 2.9915793e-06 2.2735273e-06 3.83729e-06 4.3273003e-06 4.3610767e-06 4.815583e-06
3.029909e-06 5.6873137e-06 4.0751183e-06 5.334271e-06 5.1021375e-06 5.6249432e-06 5.886633e-06 5.76146e-06
3.525093e-06 4.948602e-06 2.380402e-06 3.2296173e-06 5.272253e-06 4.804679e-06 7.72064e-06 8.870395e-06
7.720051e-06 9.280239e-06 5.867964e-06 1.136747e-05 6.629636e-06 1.05643485e-05 8.633814e-06 8.7186845e-06
9.120375e-06 7.5592375e-06 4.856533e-06 8.871419e-06 5.476234e-06 8.582029e-06 1.5072316e-05 1.0329911e-05
9.783444e-06 1.82334e-05 1.9765548e-05 1.3867402e-05 1.3465812e-05 2.3781247e-05 1.8217735e-05 2.21283e-05
1.686699e-05 1.418303e-05 1.83126e-05 1.4628502e-05 9.172689e-06 2.5041865e-05 1.3391023e-05 1.7176973e-05
6.759585e-06 6.129193e-06 5.8196e-06 1.0096155e-05 1.3444075e-05 9.204055e-06 5.719379e-06 1.2905045e-05
1.30846e-05 1.3380851e-05 9.5313235e-06 9.3899225e-06 1.0460132e-05 8.235114e-06 5.4428556e-06 1.3769295e-05
4.5684756e-06 7.1043382e-06 6.652289e-06 5.759165e-06 6.1691276e-06 7.043918e-06 7.5337166e-06 6.6561315e-06
5.4186153e-06 8.47923e-06 8.7380895e-06 7.2602893e-06 6.934588e-06 8.255365e-06 9.728327e-06 8.048048e-06
5.3081735e-06 5.803801e-06 5.6302174e-06 6.1071337e-06 2.4324468e-06 3.484305e-06 4.143532e-06 4.5496404e-06
00000000: d7e7 9136 4fd2 5936 33e0 5136 b883 b236
00000010: e3dd c636 215b 9936 e066 8136 7147 ed36
00000020: 9cba eb36 9e98 bd36 09d5 a236 7756 b036
00000030: ac88 ba36 06dd a536 9b7a 8036 fd74 b236
00000040: c69d 5036 be01 7336 ab3a 0337 304e 0c37
00000050: 9cfb f736 2eb8 0c37 8867 d736 01c3 ea36
00000060: bbd7 af36 ab08 1137 3b82 1a37 d6cb 1a37
00000070: 358c 1537 0e4f 0137 3f5a 2437 229e 0437
00000080: 719f 9736 f8d6 de36 931e 9036 71d1 f336
00000090: 83c5 0a37 63e7 0437 205f 0937 add8 1337
000000a0: 45b8 f136 0f3c fc36 f3b9 bc36 f133 4837
000000b0: 198a 5237 25a8 1337 aa8f 1937 2aec 1837
000000c0: 5ee1 5437 d8f3 0c37 87d8 b136 bdab ea36
000000d0: f34e ed36 d217 0737 9a67 9536 ec47 6e36
000000e0: fac2 8336 b578 8f36 8872 9636 314a 9a36
000000f0: 4b16 af36 ebaa d036 48e0 8e36 9f7e 9436
00000100: 20a0 9f36 c610 a236 51a0 e136 7f9c c436
00000110: 03f9 3a36 409b 5836 3a02 8736 59ad 9f36
00000120: c9df 3937 70af 1037 2bad 4037 4bad 8137
00000130: b862 b437 b6f7 4937 1440 1a37 78a4 a437
00000140: 786c 8837 b8ca d037 b14b 5d37 c231 8437
00000150: 8e57 8d37 ef7f 7037 94c5 1e37 fe08 d937
00000160: b966 1d37 165b 7137 00ff e536 d8a3 cc36
00000170: 101e 9136 b357 f636 49c5 1037 9b95 0537
00000180: d7d1 bd36 bb2a 3a37 3247 2e37 2dfc 0737
00000190: 9a91 ec36 e2c1 f036 7184 1737 d582 f236
000001a0: 3fbb 9636 6812 1637 0d0f c536 ca19 cd36
000001b0: d713 d336 13f4 f836 9c39 b636 a063 1137
000001c0: ae50 1537 ba85 1337 54a1 e636 f457 5637
000001d0: ca15 5937 3615 2b37 8de0 1e37 259c 1c37
000001e0: b2e5 4037 5a89 3b37 c314 a936 ad45 2637
000001f0: dd41 f236 048a 0c37 8648 bb36 50cc af36
00000200: 3641 f936 ba90 0737 8028 e536 d4b9 1937
00000210: a6a7 8736 e732 2c37 8ea8 1337 70db fb36
00000220: 5c59 eb36 24a5 1837 6f03 3937 8036 0737
00000230: eea4 bf36 1071 bb36 ef97 9e36 8bde bb36
00000240: 9263 4e37 5abb 1237 5ab5 0637 a332 3137
00000250: e3ae 5337 4d72 3f37 a6d6 4537 4a99 9537
00000260: a6fe 8337 cb1a 6337 7505 3537 d2e1 3237
00000270: ee85 7737 b03b 4d37 3561 f336 fa88 6737
00000280: 61e1 1d37 f578 2f37 f1c2 4836 e792 1836
00000290: 12c2 8036 3a33 9136 5d55 9236 8b95 a136
000002a0: 7155 4b36 a7d5 be36 00bd 8836 0afd b236
000002b0: 0733 ab36 e5bd bc36 cb85 c536 9152 c136
000002c0: a390 6c36 2b0c a636 ffbe 1f36 67bc 5836
000002d0: 4fe8 b036 e137 a136 e587 0137 0ed2 1437
000002e0: 5e85 0137 53b2 1b37 6de5 c436 e9b6 3e37
000002f0: 2474 de36 883d 3137 f3d9 1037 7746 1237
00000300: b603 1937 5ba5 fd36 4df5 a236 74d6 1437
00000310: 7ec0 b736 89fb 0f37 1bdf 7c37 a14e 2d37
00000320: 9223 2437 eef3 9837 31ce a537 0aa8 6837
00000330: 39eb 6137 d77d c737 4ad2 9837 2aa0 b937
00000340: 967d 8d37 a6f3 6d37 029e 9937 f06c 7537
00000350: 66e4 1937 ff10 d237 01aa 6037 4517 9037
00000360: 65d0 e236 5ea9 cd36 fc45 c336 a862 2937
00000370: dd8d 6137 1d6b 1a37 17e9 bf36 bf82 5837
00000380: ee85 5b37 517e 6037 b9e8 1f37 6989 1d37
00000390: ed7d 2f37 8c29 0a37 c6a1 b636 ac02 6737
000003a0: e84a 9936 cd61 ee36 ba36 df36 da3e c136
000003b0: 6700 cf36 cb5a ec36 22ca fc36 bc57 df36
000003c0: 8dd1 b536 0442 0e37 cf99 1237 699d f336
000003d0: a8af e836 8680 0a37 d936 2337 1a06 0737
000003e0: dd1c b236 45be c236 33eb bc36 e1eb cc36
000003f0: 1e3d 2336 e7d3 6936 ab08 8b36 1da9 9836

exp_avg f4 [128]
-0.0009971417 0.00011214559 -0.000486076 0.0011838458 0.0011571498 -0.0006890812 -0.00067495473 -0.00029049974
-0.0014747977 -0.00037928164 0.00074828864 -0.0014272542 -0.00037453233 0.001093336 0.0008589947 0.0012543062
0.0014688786 0.00057212554 0.0006545348 0.00034125493 -2.7997323e-05 0.0008578245 -0.00012964086 0.0002272621
0.001283738 -0.0014550176 0.0013384633 1.5752255e-05 0.0007308791 0.0021426305 -0.0023915865 -0.0003448338
-0.0028693757 -0.00059411087 0.00075010455 0.0010261374 -0.001925955 5.4307757e-06 0.00041207185 -0.0025857263
-9.541058e-05 -0.0003520523 0.00056424626 0.0005561445 -0.0014528834 0.00055544305 0.001976284 -0.0014811755
0.0017290938 0.0014847975 0.0009941375 -6.958198e-05 0.0009314333 0.00067654677 -0.00092912 -0.0011899598
-0.00018810226 -0.00023798169 -0.00019005242 0.00052385277 -0.00064136635 0.0006249446 0.0007348722 0.00020689868
-0.0018816913 -0.0025484562 0.00018184785 -0.0020364905 0.0009743404 -0.00026392698 0.0018066829 -0.0015295803
0.0023066488 -0.00014785399 -5.9999777e-05 0.0016237274 -0.0008326756 0.0018611848 -1.1585305e-05 0.0012785423
0.002058006 0.0011506513 0.0005644078 -0.0013919414 0.0020085087 0.0005938941 0.00024659885 -0.00079332
-0.0014626695 0.00017555457 -0.00021906843 0.0008821333 -0.000569997 -0.00016175692 -0.0016430008 0.002481815
-0.00023830355 -0.0011086417 7.97424e-05 9.55641e-05 0.001483433 -0.00092281576 -0.00071508123 0.0014629371
-0.00064791506 0.0005186983 0.0014336574 -0.0004106832 0.0012069737 0.0010849249 -0.00045205714 0.00044434794
0.0010168905 0.00029865507 -0.001949646 0.0011621274 -7.3895e-05 -0.002088644 -0.00084296067 -0.0021633434
-0.0019471106 0.001204869 -0.00055544305 -0.0011788196 0.00097353605 -0.0010600964 -0.002422594 -0.0015565383
00000000: 86b2 82ba b52f eb38 04d8 feb9 462b 9b3a
00000010: 81ab 973a 75a3 34ba 72ef 30ba 374e 98b9
00000020: 004e c1ba 52da c6b9 cd28 443a b412 bbba
00000030: e15c c4b9 454e 8f3a 292e 613a 8867 a43a
00000040: 6387 c03a b2fa 153a 1695 2b3a 76ea b239
00000050: cbdb eab7 a1df 603a 34f0 07b9 354d 6e39
00000060: 1943 a83a 4ab6 beba 606f af3a b623 8437
00000070: 7798 3f3a 606b 0c3b 2abc 1cbb cfca b4b9
00000080: 230c 3cbb 1bbe 1bba aaa2 443a 757f 863a
00000090: 5370 fcba 023a b636 590b d839 4a75 29bb
000000a0: 2a17 c8b8 a993 b8b9 ede9 133a 3aca 113a
000000b0: ad6e beba 279b 113a 8b84 013b 0124 c2ba
000000c0: c3a2 e23a 899d c23a b84d 823a 8bec 91b8
000000d0: 6e2b 743a 495a 313a 3090 73ba 6df8 9bba
000000e0: 513d 45b9 b98a 79b9 cf48 47b9 2a53 093a
000000f0: 5e21 28ba 52d3 233a 70a4 403a f1f2 5839
00000100: 15a3 f6ba 0004 27bb 69ae 3e39 a476 05bb
00000110: e16a 7f3a ae5f 8ab9 38ce ec3a 337c c8ba
00000120: 252b 173b 4109 1bb9 45a8 7bb8 40d3 d43a
00000130: ea47 5aba 00f3 f33a 825e 42b7 c394 a73a
00000140: 9cdf 063b 73d1 963a c4f4 133a ce71 b6ba
00000150: 2fa1 033b 8faf 1b3a f049 8139 cef6 4fba
00000160: 0bb7 bfba 1215 3839 bcb5 65b9 f73e 673a
00000170: da6b 15ba 4b9d 29b9 f559 d7ba f2a5 223b
00000180: 1fe1 79b9 d84f 91ba 603b a738 9669 c838
00000190: c06f c23a 1ee9 71ba 4a74 3bba 06c0 bf3a
000001a0: d8d8 29ba 41f9 073a 8fe9 bb3a f750 d7b9
000001b0: 5133 9e3a 0a34 8e3a 1502 edb9 5ff7 e839
000001c0: 2f49 853a ce94 9c39 448b ffba 8652 983a
000001d0: 13f8 9ab8 a2e1 08bb 22fa 5cba e1c6 0dbb
000001e0: 3136 ffba b2ec 9d3a 279b 11ba 9f82 9aba
000001f0: e634 7f3a eff2 8aba 62c4 1ebb c204 ccba
