runs/BallBalance_11-15-53-45/nn/last_BallBalance_ep_100_rew_2.0403166.pth (torch, 173671 bytes, 36 tensors)

value_mean_std.running_mean f8 [1]
0.12680893309672747
00000000: 40dc 3e6e 463b c03f

value_mean_std.running_var f8 [1]
0.004422595629716677
00000000: 6932 7d79 6d1d 723f

value_mean_std.count f8 []
3201.0
00000000: 0000 0000 0002 a940

running_mean_std.running_mean f8 [18]
0.1948057349438521 0.0917259693648352 -0.18023767352899972 0.17385310952846592 -0.014449474920078345 -0.07198668143326306 -0.11618235202821472 0.571799327700232
0.6315900683868384 -0.09780954210777566 0.4121946515253677 0.09851414640943085 -0.02779555622299785 -0.25808631874932714 0.10034748891381307 0.15247847447910587
-0.036869987398665226 0.24400954304971523
00000000: 7f1b 54f2 64ef c83f 55a9 9d66 5a7b b73f
00000010: 0237 a830 0712 c7bf 09c8 dd95 d140 c63f
00000020: 1512 cfb1 af97 8dbf 22e1 801a b86d b2bf
00000030: fa62 556a 20be bdbf f21c 8b1a 2e4c e23f
00000040: 5f65 0660 fc35 e43f 15f2 96d0 0b0a b9bf
00000050: f6cd f8ac 6561 da3f b498 051d 3938 b93f
00000060: 32c0 ce33 7076 9cbf 73b2 a47a 7c84 d0bf
00000070: 58dc 1e7f 5fb0 b93f 57a9 9d26 6a84 c33f
00000080: f392 297c 9fe0 a2bf 34bc a767 b43b cf3f

running_mean_std.running_var f8 [18]
0.03683154209832008 0.01935558197141158 0.06047536448022083 0.09495512367329098 0.020886775796030734 0.01870983133365952 0.010682275101066696 1.5787549894232198
0.734901820892201 4.154540919103667 3.8582315049321347 0.6732066924202396 1.1106013019850054 1.1917477539460688 0.003821649746601687 0.00856028488712829
0.11928801477210003 0.21150435103269027
00000000: 620c 8c79 95db a23f 12c1 3f1e f3d1 933f
00000010: 2ffd 4f81 a0f6 ae3f 0ab1 c39e fa4e b83f
00000020: c7f1 d9cb 5763 953f 7658 c486 ab28 933f
00000030: 8dcc a5b1 96e0 853f 4c83 7f97 9442 f93f
00000040: 5f17 d0d2 5084 e73f b0c6 85f9 3f9e 1040
00000050: 9fa4 b07a a8dd 0e40 9695 ecc2 e88a e53f
00000060: daba eede 05c5 f13f 257a c417 6611 f33f
00000070: d19f b595 944e 6f3f 21c8 13fd 0d88 813f
00000080: 3f3d 40ca a889 be3f 74d4 5217 9312 cb3f

running_mean_std.count f8 []
1601.0
00000000: 0000 0000 0004 9940

a2c_network.sigma f4 [7]
-0.250936 0.009618877 -0.27127838 0.071449704 -0.11742702 -0.05860783 -0.10855806
00000000: af7a 80be 7f98 1d3c 00e5 8abe 3954 923d
00000010: 947d f0bd c40e 70bd b053 debd

a2c_network.actor_mlp.0.weight f4 [128, 18]
-0.15424944 0.1553075 -0.03097537 -0.12831226 0.049925003 0.09064421 -0.14587274 -0.11302752
-0.19612588 -0.21848439 0.052903775 -0.26716617 0.08964664 -0.15550719 0.25870937 0.13211657
-0.10991814 0.10655714 0.07394065 0.23740767 -0.0053516715 0.034816425 0.124719866 -0.009080829
0.20493624 0.20977597 0.15422954 -0.16280866 0.21350335 0.014758672 0.1610433 -0.2320907
-0.23139283 -0.21489798 -0.17122288 0.0907235 0.05618794 0.09294785 -0.050017748 0.023960054
0.22388287 -0.15726279 0.16144016 -0.20049497 0.19646974 -0.09218769 0.11395395 -0.13613996
0.20080884 -0.16348882 -0.25938305 -0.30830887 0.18813448 -0.027694229 0.07384329 -0.10890297
-0.25326094 -0.26145473 -0.0590578 0.11402402 0.087986924 0.11342039 -0.14896667 -0.30900246
0.12774163 -0.10570922 0.15538853 -0.10348201 0.18522662 -0.2710301 -0.21134874 -0.024818383
0.07954551 -0.006427438 0.23349442 0.18068297 -0.05774582 -0.18462707 0.20280048 -0.1223231
-0.14419772 -0.1320274 -0.18795942 0.086649165 -0.020370077 -0.03829072 0.16467787 -0.0064342213
-0.16289802 -0.19951898 -0.30055743 -0.20353177 0.25182074 0.021222489 0.039996304 -0.2256521
-0.067786396 -0.08854885 -0.091142684 -0.238136 -0.15927838 -0.11004394 0.0006236443 0.01922402
0.09278094 -0.16914164 -0.13203168 -0.1035187 -0.14860949 -0.12726197 0.23847732 -0.10510253
0.24298884 0.03832693 -0.037986014 0.112982996 -0.077150986 -0.21155739 -0.23636904 -0.22769122
0.057973273 0.063224696 0.1278132 -0.08925356 0.067817174 -0.08077242 -0.14218318 0.13629653
0.1465276 0.080248125 0.30452228 -0.11311578 0.15144248 -0.22585405 0.08364792 -0.16524686
0.12342966 -0.21530016 0.15894067 0.080347575 -0.0054670153 -0.1303297 0.118260585 0.034273684
0.06215062 -0.2096672 0.1303095 -0.121332414 -0.09505667 0.23648769 0.06967592 -0.126426
-0.077632576 0.024371278 0.12867558 -0.06842148 -0.10446909 -0.13448018 -0.17490378 0.17261082
0.14964741 -0.22861865 0.106838666 0.07167331 0.12712327 -0.06931627 0.069096126 0.11334576
0.050238103 -0.028820228 -0.12190317 -0.07571583 -0.09628719 -0.045489747 0.005210273 0.06862079
0.011266231 0.06356998 0.001811245 0.1331503 0.094386846 0.0893675 -0.21693726 -0.037978787
0.26854402 -0.025834935 -0.0777001 -0.12671147 -0.1122137 -0.23444849 -0.14133504 0.104681596
0.06919663 0.12945546 -0.2035537 -0.28068078 -0.10639642 0.12884673 -0.0053721936 -0.009018968
0.21319897 -0.10969705 -0.06474681 0.15452026 -0.057073113 -0.06420062 -0.18892485 0.07482913
0.20681965 0.23121622 -0.21405101 -0.19128922 -0.16276705 0.22681223 0.08371773 0.23492607
0.19654886 0.12410257 0.23459557 -0.1161672 -0.15018217 -0.17252524 0.111146845 -0.13167223
-0.13687825 -0.07018349 -0.035356473 -0.0845521 -0.23437852 0.08481862 0.04180522 0.441219
-0.038281545 -0.16064942 -0.06881608 -0.08337852 -0.0710126 -0.1769321 0.18240526 -0.14371352
0.1644807 0.04876488 0.23362924 -0.18708636 0.13858512 -0.17660937 0.18726665 0.18707648
-0.0015995702 -0.017692264 -0.048763648 -0.22822714 0.17035669 -0.2835038 0.04146422 0.23840946
00000000: 91f3 1dbe ee08 1f3e 0fc0 fdbc 4a64 03be
00000010: 297e 4c3d aca3 b93d aa5f 15be f97a e7bd
00000020: 39d5 48be 5fba 5fbe a1b1 583d 01ca 88be
00000030: a898 b73d 473d 1fbe 8e75 843e 9149 073e
00000040: c31c e1bd a13a da3d 326e 973d ff1a 733e
00000050: 135d afbb ab9b 0e3d 216d ff3d c2c7 14bc
00000060: ceda 513e 83cf 563e 59ee 1d3e 50b7 26be
00000070: 9fa0 5a3e 5bce 713c 89e8 243e 2fa9 6dbe
00000080: 3ef2 6cbe 370e 5cbe 0d55 2fbe 3ecd b93d
00000090: 5325 663d 715b be3d 69df 4cbd e047 c43c
000000a0: 8d41 653e 7f09 21be 9250 253e 8e4e 4dbe
000000b0: 5d2f 493e e6cc bcbd b060 e93d 4668 0bbe
000000c0: d5a0 4d3e 9d69 27be dbcd 84be a9da 9dbe
000000d0: 53a6 403e 02df e2bc 273b 973d 8508 dfbd
000000e0: 6bab 81be 65dd 85be 97e6 71bd 6d85 e93d
000000f0: 7d32 b43d f348 e83d b88a 18be 9235 9ebe
00000100: b4ce 023e 137e d8bd 2c1e 1f3e 60ee d3bd
00000110: 0cac 3d3e 75c4 8abe ce6b 58be ec4f cbbc
00000120: c2e8 a23d 429d d2bb 2919 6f3e f504 393e
00000130: e286 6cbd e10e 3dbe eeaa 4f3e 8984 fabd
00000140: 91a8 13be 3132 07be 6f78 40be 1e75 b13d
00000150: 26df a6bc bbd6 1cbd 51a1 283e 29d6 d2bb
00000160: bdce 26be b44e 4cbe aae2 99be a26a 50be
00000170: a6ee 803e c9da ad3c 2ad3 233d 5811 67be
00000180: 98d3 8abd 1959 b5bd 04a9 babd ecd9 73be
00000190: df19 23be b85e e1bd 0f7c 233a b17b 9d3c
000001a0: ef03 be3d 7733 2dbe 5033 07be 9d01 d4bd
000001b0: 162d 18be f650 02be 6633 743e ff3f d7bd
000001c0: 11d2 783e b3fc 1c3d 3997 1bbd a163 e73d
000001d0: 5601 9ebd 80a2 58be ba0a 72be e327 69be
000001e0: 6275 6d3d f37b 813d 77e1 023e 92ca b6bd
000001f0: bbe3 8a3d 036c a5bd 7898 11be 5191 0b3e
00000200: 550b 163e 2159 a43d 58ea 9b3e 3fa9 e7bd
00000210: bd13 1b3e 4946 67be 9a4f ab3d 7936 29be
00000220: b1c8 fc3d a577 5cbe 58c1 223e 458d a43d
00000230: a624 b3bb 2675 05be 9b32 f23d 9062 0c3d
00000240: a691 7e3d 00b3 56be db6f 053e 217d f8bd
00000250: 12ad c2bd d429 723e 40b2 8e3d d175 01be
00000260: d4fd 9ebd 46a6 c73c 88c3 033e 9020 8cbd
00000270: e4f3 d5bd 2cb5 09be fa19 33be e4c0 303e
00000280: 2c3d 193e 021b 6abe 3bce da3d 75c9 923d
00000290: 9a2c 023e b0f5 8dbd 4582 8d3d d221 e83d
000002a0: 78c6 4d3d 6618 ecbc 5fa8 f9bd e710 9bbd
000002b0: 3832 c5bd 7553 3abd f0ba aa3b 0f89 8c3d
000002c0: ff95 383c fa30 823d 4c67 ed3a 8d58 083e
000002d0: e44d c13d 4f06 b73d cd24 5ebe a58f 1bbd
000002e0: 9a7e 893e c9a3 d3bc 3b21 9fbd a7c0 01be
000002f0: 4cd0 e5bd 4413 70be 22ba 10be 4e63 d63d
00000300: f6b6 8d3d f98f 043e 6270 50be 64b5 8fbe
00000310: 5ee6 d9bd 66f0 033e 3a09 b0bb 4bc4 13bc
00000320: d550 5a3e d9a8 e0bd fa99 84bd 8f3a 1e3e
00000330: 7fc5 69bd 9d7b 83bd 8475 41be 0440 993d
00000340: 88c8 533e f2c3 6c3e 3030 5bbe 52e1 43be
00000350: 68ac 26be 7741 683e 3474 ab3d 7690 703e
00000360: 1b44 493e 7d29 fe3d d239 703e 12e9 edbd
00000370: 5bc9 19be 75aa 30be f5a0 e33d 16d5 06be
00000380: d029 0cbe 5dbc 8fbd f3d1 10bd a729 adbd
00000390: ec00 70be 62b5 ad3d f33b 2b3d 75e7 e13e
000003a0: 1ccd 1cbd 4881 24be 72ef 8cbd 5cc2 aabd
000003b0: 0e6f 91bd b02d 35be 72c8 3a3e a329 13be
000003c0: a16d 283e afbd 473d 813c 6f3e 9193 3fbe
000003d0: 42e9 0d3e 16d9 34be d4c2 3f3e fa90 3f3e
000003e0: aba8 d1ba 5eef 90bc 64bc 47bd 60b4 69be
000003f0: fc71 2e3e 6927 91be 63d6 293d 9c21 743e

a2c_network.actor_mlp.0.bias f4 [128]
-0.097594485 -0.02648187 0.06862871 -0.084622 -0.01392805 -0.06173168 -0.1710375 -0.009037699
-0.13166739 -0.08508884 0.05965404 -0.07685232 -0.079490796 0.1285848 0.028457256 0.06898416
0.061458733 -0.07803074 -0.0067595677 -0.106042124 -0.147929 0.042175923 -0.016178448 -0.049744047
-0.02002686 -0.19478859 0.029566245 -0.030378489 -0.041153878 0.090370156 -0.13861486 -0.019388631
-0.14651193 -0.0589969 -0.04776198 -0.11429949 -0.077344514 -0.06629243 0.013467123 -0.023855958
-0.08290053 0.053003002 0.04440901 0.029265389 -0.068218715 -0.039793354 -0.018827079 -0.09252944
-0.034509018 0.030631445 0.023517076 -0.07331696 -0.09834788 -0.17641194 -0.05167655 -0.16811912
-0.010552257 -0.04111691 0.10610008 -0.09180403 -0.018384155 -0.19435829 0.031107528 -0.030725563
-0.06795219 -0.085765205 -0.0658292 -0.17172347 -0.0735058 -0.1745474 -0.031897027 -0.09117531
0.14937706 -0.02056973 0.032110948 -0.006821151 -0.031576104 0.021951517 -0.14802803 0.017429257
0.14667833 0.035391144 0.018500715 0.0058981366 -0.031447757 -0.0050414796 0.07534429 -0.10464787
0.0068446277 0.076795496 -0.07551458 0.0075283973 0.0022452604 -0.15478507 -0.16395873 0.1349271
-0.06994495 -0.17850293 -0.012416947 -0.061504688 0.023698187 -0.19530842 -0.019431153 0.01987714
-0.017282138 -0.033793584 0.017162021 -0.09645515 0.056646764 0.074761726 -0.050630335 0.00815672
-0.13057822 0.06577793 0.09923548 0.07952525 -0.018637963 -0.16454244 -0.17805098 -0.0025977932
-0.084996745 0.07376201 -0.021251215 -0.07328494 0.041063596 -0.09275889 -0.043139383 0.03139221
00000000: 9edf c7bd 82f0 d8bc 368d 8c3d 4d4e adbd
00000010: 7a32 64bc 5cda 7cbd 7424 2fbe db12 14bc
00000020: d1d3 06be 0f43 aebd cb57 743d c064 9dbd
00000030: 12cc a2bd bcab 033e 311f e93c 9147 8d3d
00000040: 27bc 7b3d 95ce 9fbd 5d7f ddbb 9d2c d9bd
00000050: b37a 17be a9c0 2c3d aa88 84bc 6ac0 4bbd
00000060: 5f0f a4bc a976 47be e934 f23c 4fdc f8bc
00000070: f890 28bd fd13 b93d 0ef1 0dbe e8d4 9ebc
00000080: 3907 16be bca6 71bd 11a2 43bd da15 eabd
00000090: cd66 9ebd 53c4 87bd 35a5 5c3c 926d c3bc
000000a0: c1c7 a9bd ad19 593d 39e6 353d f8bd ef3c
000000b0: 41b6 8bbd 5bfe 22bd 3f3b 9abc 1380 bdbd
000000c0: 5459 0dbd ccee fa3c e2a6 c03c 3427 96bd
000000d0: 9d6a c9bd 55a5 34be caaa 53bd 6b27 2cbe
000000e0: 60e3 2cbc 346a 28bd 004b d93d c003 bcbd
000000f0: 5e9a 96bc dc05 47be 37d5 fe3c 2db4 fbbc
00000100: 852a 8bbd aba5 afbd 76d1 86bd 47d8 2fbe
00000110: 358a 96bd 8ebc 32be 75a6 02bd 1fba babd
00000120: 4df6 183e da81 a8bc c586 033d f683 dfbb
00000130: f255 01bd abd3 b33c a994 17be cdc7 8e3c
00000140: d832 163e 4ef6 103d d08e 973c 2845 c13b
00000150: 5dcf 00bd ff32 a5bb 1b4e 9a3d 9f51 d6bd
00000160: e648 e03b f546 9d3d 63a7 9abd c6b0 f63b
00000170: 3825 133b fa7f 1ebe cce4 27be 542a 0a3e
00000180: 4c3f 8fbd 79c9 36be 7370 4bbc 57ec 7bbd
00000190: b322 c23c eefe 47be 152e 9fbc 62d5 a23c
000001a0: 4593 8dbc 246b 0abd 5e97 8c3c 478a c5bd
000001b0: 7006 683d ad1c 993d c161 4fbd c3a3 053c
000001c0: 4cb6 05be 94b6 863d f93b cb3d 22de a23d
000001d0: a4ae 98bc d07d 28be ff52 36be bd3f 2abb
000001e0: c612 aebd 8910 973d 0717 aebc 6a16 96bd
000001f0: 4d32 283d 5ff8 bdbd ecb2 30bd 1e95 003d

a2c_network.actor_mlp.2.weight f4 [64, 128]
0.0022305476 0.11974477 0.0981685 0.09776002 0.053979144 0.11186903 0.114399016 0.073135205
0.05963948 -0.08330118 0.123584144 -0.058273982 0.07093778 0.09133239 0.058209337 -0.04310082
0.04734867 0.031343088 0.06892193 -0.05910429 0.0047517237 0.030896638 -0.11282553 -0.05493048
0.06322681 -0.0012912073 0.10705673 0.0633714 -0.0021061965 0.037787165 -0.023638729 -0.085032456
0.0952929 -0.035371147 -0.025545308 -0.024510747 -0.061848905 -0.112268 0.019560378 0.021087175
-0.009407257 0.002289536 -0.12575506 -0.07791132 -0.007074537 0.015798537 0.020633819 -0.09129739
0.04304798 -0.02159243 0.02702503 -0.10627435 -0.01460592 0.05301856 0.0072083795 -0.02986688
-0.14640252 0.1357453 -0.04230727 0.073459886 -0.04541898 0.083390474 -0.017539084 0.03326797
0.2140054 -0.0068365554 -0.011166246 0.011435996 0.054838262 0.019253913 0.027354209 -0.14834824
-0.19253187 0.12816347 0.0824616 0.046919115 0.08037678 -0.047279596 0.059136007 0.10137977
-0.015031122 0.026843257 0.01700609 -0.030924648 0.0047784196 0.11465056 0.07532565 0.09764908
-0.021037104 0.02622173 0.07838843 0.013714806 -0.06399386 -0.073654726 0.06701536 -0.053195357
-0.06976109 0.06632736 0.04130575 0.046342306 0.116356716 -0.021545235 6.347213e-05 -0.036173593
-0.008017599 -0.013973424 -0.032653745 0.056720816 -0.016258745 -0.01356628 0.030353371 0.10473288
0.06716951 -0.0077589746 -0.035483874 -0.024486067 -0.07354726 0.07186122 -0.006495925 0.0255759
-0.021502541 -0.008028703 0.04521576 0.19750895 0.14008121 0.042522684 0.07682244 -0.02128142
-0.06841455 0.031800777 0.044465084 0.031167444 0.15213262 -0.02576149 -0.051293135 -0.041874375
-0.01783594 -0.0832595 0.08113313 -0.033859294 -0.09704714 0.0052427533 0.08650085 0.08622189
0.0062151174 0.0498623 0.06900328 0.0111942915 0.02975855 -0.061966695 -0.048429884 -0.050789922
0.082642846 0.08829256 0.029517435 0.07134626 -0.008816166 -0.0412798 -0.008943291 -0.0823579
0.030366244 0.0001353107 0.12933668 -0.14754066 -0.071588434 -0.04703874 0.053592745 -0.06874063
0.033798438 -0.15388277 -0.08291774 -0.015024065 -0.07843591 0.14954364 -0.032432966 0.036216535
0.001426266 0.052075565 0.048297174 -0.08922218 0.07576285 -0.08499353 0.00949648 0.119770676
-0.1007896 0.013394537 0.077557236 -0.05049444 0.006223778 0.052380413 -0.005845365 -0.012572605
0.011324384 0.0033283809 -0.04853528 -0.07096527 -0.118452 -0.138868 0.038857274 -0.10221137
-0.045546856 0.010746399 0.04952499 -0.063133 -0.09216619 -0.107553035 -0.012356383 -0.018000817
-0.014188742 -0.026430434 -0.11866691 -0.054852527 -0.09248191 -0.110741556 0.034459382 -0.11494602
-0.07759819 0.085224636 -0.008039881 -0.031237692 -0.026331708 -0.040712733 -0.15371136 -0.05249757
-0.07797351 0.0034401214 -0.018801445 -0.20741667 0.016016517 -0.0750824 -0.01904399 -0.017042624
-0.06825428 -0.00956388 -0.004685477 0.019691056 -0.109192714 0.12432455 -0.0740055 -0.08087799
0.006117919 0.06944918 -0.015812194 -0.085569985 0.011744823 -0.049811948 0.025880368 -0.109138556
-0.055372715 -0.019100826 0.009513014 -0.021996582 -0.10072493 -0.00716329 -0.056121103 -0.048745196
00000000: 612e 123b bf3c f53d 910c c93d 6836 c83d
00000010: 3c19 5d3d 971b e53d 084a ea3d e9c7 953d
00000020: 8748 743d cf99 aabd af19 fd3d b3b0 6ebd
00000030: d447 913d 7a0c bb3d ea6c 6e3d 7c8a 30bd
00000040: aef0 413d 9c61 003d f126 8d3d 5717 72bd
00000050: 59b4 9b3b f21a fd3c 1211 e7bd c8fe 60bd
00000060: 0f7d 813d ba3d a9ba 8f40 db3d ddc8 813d
00000070: 1d08 0abb b7c6 1a3d 02a6 c1bc 7f25 aebd
00000080: ed28 c33d 56e1 10bd 6544 d1bc c3ca c8bc
00000090: 4755 7dbd c4ec e5bd 163d a03c 03bf ac3c
000000a0: e520 1abc 0a0c 163b efc5 00be f88f 9fbd
000000b0: 85d1 e7bb ef6b 813c 4108 a93c 20fa babd
000000c0: 1453 303d 9ce2 b0bc 9963 dd3c 5ea6 d9bd
000000d0: ab4d 6fbc fd29 593d 4534 ec3b 63ab f4bc
000000e0: 8bea 15be d100 0b3e 634a 2dbd 2372 963d
000000f0: 4109 3abd a0c8 aa3d 20ae 8fbc ff43 083d
00000100: 3b24 5b3e 2f05 e0bb a1f2 36bc 0b5e 3b3c
00000110: 169e 603d 62ba 9d3c ef15 e03c 9ae8 17be
00000120: 1327 45be 493d 033e a1e1 a83d 422e 403d
00000130: 959c a43d 40a8 41bd 9938 723d 32a0 cf3d
00000140: 1845 76bc 64e6 db3c 5b50 8b3c b055 fdbc
00000150: 4a94 9c3b eacd ea3d 5644 9a3d 3efc c73d
00000160: 0156 acbc f4ce d63c 1d8a a03d 11b4 603c
00000170: 360f 83bd 4ad8 96bd 593f 893d 60e3 59bd
00000180: e7de 8ebd a4d6 873d 3830 293d 6ed1 3d3d
00000190: 6e4c ee3d a27f b0bc 571c 8538 c32a 14bd
000001a0: 3f5c 03bc caf0 64bc efbf 05bd 1654 683d
000001b0: 0f31 85bc 1a45 5ebc a2a7 f83c 317e d63d
000001c0: 2b90 893d ff3e febb 8a57 11bd 0197 c8bc
000001d0: f29f 96bd fa2b 933d c5db d4bb 8d84 d13c
000001e0: 1926 b0bc d28a 03bc 2934 393d c93f 4a3e
000001f0: 7371 0f3e 442c 2e3d 1555 9d3d 5f56 aebc
00000200: ed1c 8cbd 8841 023d 0521 363d de52 ff3c
00000210: a7c8 1b3e c309 d3bc c018 52bd 7784 2bbd
00000220: ad1c 92bc f583 aabd 2029 a63d 0bb0 0abd
00000230: a7c0 c6bd 67cb ab3b 5c27 b13d 1a95 b03d
00000240: 2fa8 cb3b 693c 4c3d 9751 8d3d 4368 373c
00000250: 34c8 f33c cad0 7dbd 6a5e 46bd 1809 50bd
00000260: a740 a93d bbd2 b43d 8cce f13c fd1d 923d
00000270: ae71 10bc 0215 29bd e286 12bc 42ab a8bd
00000280: a1c2 f83c 31e2 0d39 d670 043e e614 17be
00000290: f59c 92bd b2ab 40bd 1184 5b3d e3c7 8cbd
000002a0: 3b70 0a3d 7293 1dbe c7d0 a9bd 7f27 76bc
000002b0: 02a3 a0bd f821 193e 6ed8 04bd ca57 143d
000002c0: 8cf1 ba3a 304d 553d 42d3 453d 1eba b6bd
000002d0: 8e29 9b3d 1611 aebd 2097 1b3c 544a f53d
000002e0: c76a cebd c374 5b3c 54d6 9e3d 42d3 4ebd
000002f0: d5f0 cb3b d88c 563d 7a8a bfbb 54fd 4dbc
00000300: e989 393c f720 5a3b eecc 46bd 3d56 91bd
00000310: f696 f2bd 6a33 0ebe ce28 1f3d 3254 d1bd
00000320: 578f 3abd aa11 303c b7da 4a3d e04b 81bd
00000330: a1c1 bcbd c444 dcbd 6d72 4abc 7376 93bc
00000340: e677 68bc a384 d8bc a307 f3bd 0bad 60bd
00000350: 2867 bdbd 78cc e2bd 4825 0d3d d268 ebbd
00000360: cdeb 9ebd 418a ae3d b4b9 03bc 30e6 ffbc
00000370: 98b5 d7bc 65c2 26bd 8366 1dbe b107 57bd
00000380: 93b0 9fbd a973 613b 7d05 9abc 0965 54be
00000390: 1235 833c cdc4 99bd 2402 9cbc f99c 8bbc
000003a0: e6c8 8bbd d2b1 1cbc a188 99bb 234f a13c
000003b0: 6ea0 dfbd df9d fe3d 3290 97bd 5ca3 a5bd
000003c0: d378 c83b 5f3b 8e3d 9388 81bc 513f afbd
000003d0: 5c6d 403c 9d07 4cbd 1103 d43c 0984 dfbd
000003e0: 80ce 62bd 5679 9cbc 79dc 1b3c 2d32 b4bc
000003f0: df48 cebd 08ba eabb 3edf 65bd 0ba9 47bd

a2c_network.actor_mlp.2.bias f4 [64]
-0.06991725 -0.12043379 -0.012482502 0.052441668 -0.081880584 -0.045448706 -0.1439934 0.020642528
0.015831538 -0.06744084 -0.12454934 -0.1512033 -0.08029519 -0.17100166 0.039814476 0.06990091
0.08343321 -0.06155668 -0.11372743 -0.0027988898 -0.03314582 -0.12023284 0.050674025 -0.1046392
0.03621955 -0.13552521 0.03797075 -0.024904838 0.037760366 -0.005282578 -0.020357847 -0.08242334
-0.13177435 -0.08901664 -0.07192472 -0.14438933 0.08308797 -0.04883432 -0.0324289 -0.14123099
0.06845672 -0.023335602 -0.012735379 0.01971059 -0.06308934 -0.0030333907 0.047846604 0.016759843
-0.008928747 0.030153194 0.05887711 0.042004675 -0.09025264 0.03480916 0.041599087 0.011557533
-0.062049232 -0.08411447 0.072319075 0.0073772413 0.07415058 0.113365844 -0.17805497 -0.049453963
00000000: c630 8fbd fea5 f6bd 6883 4cbc 13cd 563d
00000010: 02b1 a7bd 6c28 3abd 0173 13be 851a a93c
00000020: 24b1 813c 6c1e 8abd b913 ffbd 0ad5 1abe
00000030: ce71 a4bd 0f1b 2fbe 8114 233d 3528 8f3d
00000040: 08df aa3d db22 7cbd ede9 e8bd 946d 37bb
00000050: e9c3 07bd a33c f6bd 918f 4f3d 144d d6bd
00000060: f35a 143d 1fc7 0abe 3887 1b3d 3b05 ccbc
00000070: 9daa 1a3d 7a19 adbb 80c5 a6bc 91cd a8bd
00000080: dbef 06be 5b4e b6bd 454d 93bd ccda 13be
00000090: 072a aa3d 7f06 48bd 2bd4 04bd db9e 10be
000000a0: 0933 8c3d 4e2a bfbc 0da8 50bc 1a78 a13c
000000b0: fc34 81bd dacb 46bb cdfa 433d f04b 893c
000000c0: e149 12bc d503 f73c 2029 713d 180d 2c3d
000000d0: 60d6 b8bd 0d94 0e3d ce63 2a3d cf5b 3d3c
000000e0: 5627 7ebd 3544 acbd 061c 943d c9bc f13b
000000f0: 42dc 973d 5a2c e83d 0b54 36be 3d90 4abd

a2c_network.actor_mlp.4.weight f4 [32, 64]
0.07748368 0.08992445 0.057270676 0.017980706 0.052479204 0.011662227 0.11073225 -4.721148e-05
-0.14334945 -0.007934259 0.00943046 0.08477922 0.009416341 0.062332187 -0.073949054 0.04845789
-0.021199599 0.09631154 -0.079491176 -0.01680261 0.1338836 0.08250078 0.067846075 0.06275691
-0.056621693 -0.09405512 0.02085968 -0.110611424 0.024368197 -0.08312635 -0.034938768 -0.057087887
0.08613891 0.065552145 0.00024422203 -0.032774225 0.07199556 -0.13340637 0.034969777 -0.012848338
-0.0491627 -0.019485742 0.19760415 0.13538818 -0.06911316 -0.06942778 0.03653643 0.16117866
0.03571396 -0.088314466 -0.059463304 0.00016429747 -0.08887924 -0.14431384 -0.05325854 -0.1277602
-0.036610853 -0.073751785 0.05971218 0.14679167 0.0485178 -0.097483896 0.17278057 -0.029123617
0.11217941 -0.050994474 -0.12529413 -0.0904871 0.008301259 0.041882828 -0.0027798312 0.19196203
-0.17871806 0.017233025 0.024466116 -0.064694576 0.10390713 0.043844264 -0.13485013 -0.1197613
-0.14969411 -0.0993728 0.09395816 0.08485099 -0.05737648 -0.039773453 0.02852335 0.005178151
-0.024315704 -0.06271942 0.09084328 0.0698422 0.07598301 -0.00053537195 -0.059416153 0.083182685
-0.015255152 0.03028317 -0.04080683 0.033580363 -0.032323144 -0.01884091 -0.07389637 0.06960216
-0.1359163 0.03330535 0.017562745 -0.029098853 0.034624234 0.025103157 -0.090323254 -0.0034359922
0.04187822 -0.041792057 -0.16804771 -0.03096593 -0.096897796 -0.032999303 0.0085634515 0.11876537
-0.07527472 -0.09522562 -0.00825736 0.004900206 0.016748635 -0.0074061886 0.058693726 -0.0917224
-0.0007345562 -0.0025556434 -0.020521611 0.08095418 -0.10170334 -0.29308805 -0.038984317 -0.075531125
-0.07976661 -0.11348368 0.09118006 0.08717366 0.017754873 -0.006632542 0.103474565 0.008065637
0.088819034 -0.1418253 0.0068152566 -0.17679244 0.10730254 0.08188416 -0.16403705 0.076096594
-0.07892838 0.09435782 -0.10995485 -0.031800322 -0.010509641 0.1779382 0.022213422 0.13552572
-0.078101955 0.17118053 0.09114397 0.14346652 -0.08365681 -0.05533179 -0.16050668 -0.12535428
0.11195577 0.0396507 0.026223855 0.03250324 -0.120539956 -0.084924944 0.09197411 -0.17155325
-0.00984377 -0.13891877 -0.004923513 -0.15761766 -0.1826891 0.088413425 -0.039438147 0.014964664
0.17866383 0.096179694 -0.15528154 -0.05811753 0.05962239 -0.2014377 0.036960725 -0.09097855
-0.17825997 0.06537879 -0.1730135 -0.04408639 -0.19398881 0.014320212 -0.103746206 -0.06963681
-0.042181447 0.064662635 -0.12555519 0.08876666 -0.012058596 -0.10654358 0.05953635 -0.06592042
-0.21216853 -0.013369435 0.09339423 -0.057231296 -0.07903837 -0.15045649 0.1002624 0.08282301
0.10001373 0.06708709 -0.1337455 0.08716766 -0.10054798 0.06710069 -0.06290808 0.051421132
0.0026961218 0.028938102 0.0035801798 0.022119425 -0.049661037 -0.035654213 -0.045744818 -0.10339536
-0.21618494 0.13660677 -0.018382352 0.0070036016 -0.14319582 0.117103525 -0.052681547 0.09668529
0.04355366 -0.003941962 -0.0710934 -0.03592736 0.030083945 0.1557748 0.011473203 -0.057228696
0.15914139 0.046359077 -0.1959771 -0.016438326 -0.041592773 -0.029114103 -0.04081906 -0.060242325
00000000: c3af 9e3d 4f2a b83d a894 6a3d 464c 933c
00000010: 6ff4 563d ed12 3f3c 97c7 e23d f104 46b8
00000020: 33ca 12be b2fe 01bc 3782 1a3c baa0 ad3d
00000030: ff46 1a3c 0950 7f3d 9a72 97bd c87b 463d
00000040: c8aa adbc fc3e c53d 45cc a2bd a1a5 89bc
00000050: c818 093e 2bf6 a83d e2f2 8a3d b286 803d
00000060: 26ec 67bd f99f c0bd ebe1 aa3c 3e88 e2bd
00000070: d09f c73c 263e aabd f41b 0fbd fdd4 69bd
00000080: 9969 b03d 3440 863d ed0a 8039 443e 06bd
00000090: 6872 933d ae9b 08be 783c 0f3d d681 52bc
000000a0: d45e 49bd 90a0 9fbc be58 4a3e 33a3 0a3e
000000b0: 338b 8dbd 2730 8ebd 39a7 153d 050c 253e
000000c0: cd48 123d 37de b4bd cb8f 73bd 4447 2c39
000000d0: 5206 b6bd 02c7 13be a025 5abd 92d3 02be
000000e0: 43f5 15bd 2d0b 97bd c294 743d 8e50 163e
000000f0: 9aba 463d a3a5 c7bd 64ed 303e a794 eebc
00000100: 52be e53d 95df 50bd 1b4d 00be 4d51 b9bd
00000110: 0102 083c 548d 2b3d d42d 36bb b291 443e
00000120: de01 37be 462c 8d3c 2a6d c83c 977e 84bd
00000130: 43cd d43d 0b96 333d 2716 0abe 6a45 f5bd
00000140: 6a49 19be f783 cbbd 236d c03d 5bc6 ad3d
00000150: 9a03 6bbd 7de9 22bd cda9 e93c 7bad a93b
00000160: ba31 c7bc 0a73 80bd 0b0c ba3d 6d09 8f3d
00000170: fb9c 9b3d 3458 0cba 5a5e 73bd af5b aa3d
00000180: bff0 79bc 6914 f83c 1025 27bd 908b 093d
00000190: 4665 04bd 4158 9abc fb56 97bd 948b 8e3d
000001a0: a42d 0bbe 316b 083d bfdf 8f3c b860 eebc
000001b0: 24d2 0d3d 23a5 cd3c 66fb b8bd 622e 61bb
000001c0: 7f88 2b3d 262e 2bbd b314 2cbe 43ac fdbc
000001d0: 5a72 c6bd 472a 07bd b84d 0c3c 423b f33d
000001e0: a229 9abd a605 c3bd e149 07bc e891 a03b
000001f0: 6f34 893c 9daf f2bb d568 703d f4d8 bbbd
00000200: 3b8f 40ba 957c 27bb f01c a8bc 4ecb a53d
00000210: d749 d0bd a30f 96be 05ae 1fbd 10b0 9abd
00000220: ad5c a3bd 226a e8bd 9cbc ba3d 1b88 b23d
00000230: ab72 913c cb55 d9bb 79ea d33d bc25 043c
00000240: c1e6 b53d a73a 11be 8452 df3b 1409 35be
00000250: 6fc1 db3d e2b2 a73d 54f9 27be 88d8 9b3d
00000260: 34a5 a1bd ac3e c13d 0230 e1bd 0e41 02bd
00000270: a130 2cbc 6e35 363e ecf8 b53c 41c7 0a3e
00000280: ebf3 9fbd f349 2f3e b1a9 ba3d e3e8 123e
00000290: 4354 abbd 96a3 62bd dd5b 24be df5c 00be
000002a0: 1149 e53d c668 223d 69d3 d63c 1e22 053d
000002b0: a7dd f6bd 21ed adbd ec5c bc3d a8ab 2fbe
000002c0: c447 21bc b940 0ebe 6c55 a1bb 8666 21be
000002d0: da12 3bbe 1912 b53d e589 21bd 5a2e 753c
000002e0: a7f3 363e dcf9 c43d 2002 1fbe a60c 6ebd
000002f0: 9b36 743d af45 4ebe 2164 173d f652 babd
00000300: c889 36be 51e5 853d 732a 31be ee93 34bd
00000310: 01a5 46be 539f 6a3c e478 d4bd be9d 8ebd
00000320: 74c6 2cbd d86d 843d 8a91 00be 4bcb b53d
00000330: 6b91 45bc 8533 dabd 63dc 733d 4901 87bd
00000340: b542 59be 7a0b 5bbc 7945 bf3d 5d6b 6abd
00000350: dede a1bd 4411 1abe 6056 cd3d 1c9f a93d
00000360: 00d4 cc3d f564 893d 95f4 08be f584 b23d
00000370: 19ec cdbd 166c 893d f4d5 80bd f79e 523d
00000380: 6bb1 303b 990f ed3c 73a1 6a3b cc33 b53c
00000390: 5f69 4bbd 270a 12bd eb5e 3bbd f2c0 d3bd
000003a0: 965f 5dbe a5e2 0b3e 9696 96bc 787e e53b
000003b0: eda1 12be f9d3 ef3d 9bc8 57bd f002 c63d
000003c0: 5365 323d 932b 81bb 6b99 91bd 9128 13bd
000003d0: 9b72 f63c 6e83 1f3e 1afa 3b3c a368 6abd
000003e0: f6f5 223e 04e3 3d3d 39ae 48be aba9 86bc
000003f0: 2f5d 2abd b380 eebc e331 27bd a8c0 76bd

a2c_network.actor_mlp.4.bias f4 [32]
0.025415368 -0.021715753 -0.032597516 -0.06651217 -0.044662073 0.010209558 0.03369736 -0.05314453
-0.1181399 -0.060963474 -0.009932069 -0.021745639 -0.046727717 0.034605484 -0.009624205 -0.05058179
-0.008096626 -0.008035577 -0.056084592 -0.04099674 -0.0067066615 -0.061233427 -0.078260615 -0.057382163
-0.015697775 -0.05520224 -0.022796428 -0.021343617 0.097597994 0.06404346 -0.017713264 -0.026826113
00000000: e433 d03c 3ce5 b1bc f984 05bd 8837 88bd
00000010: 94ef 36bd fd45 273c 3e06 0a3d 14ae 59bd
00000020: 55f3 f1bd d6b4 79bd 1eba 22bc e923 b2bc
00000030: 9065 3fbd 7bbe 0d3d d7ae 1dbc da2e 4fbd
00000040: b6a7 04bc a7a7 03bc f5b8 65bd 33ec 27bd
00000050: 8ec3 dbbb e7cf 7abd 1a47 a0bd 8f09 6bbd
00000060: 9f98 80bc be1b 62bd 93bf babc cfd8 aebc
00000070: 75e1 c73d 3829 833d 681b 91bc 70c2 dbbc

a2c_network.value.weight f4 [1, 32]
0.023166338 0.059953738 0.0064048124 -0.0068464717 -0.031943172 -0.020788487 -0.022106279 0.05074282
0.03569862 0.038950697 0.029892348 -0.060981825 0.033389717 -0.0053642215 -0.043498524 -0.010060599
0.006457681 0.048541613 -0.056670833 -0.043945998 0.043122765 0.07635275 -0.004617192 -0.026663192
-0.028864292 0.051530026 -0.06608191 -0.090705 -0.03777997 -0.0027910026 -0.0591447 0.0010924035
00000000: 55c7 bd3c 0d92 753d 76df d13b 5e58 e0bb
00000010: d8d6 02bd 9e4c aabc 3a18 b5bc b4d7 4f3d
00000020: b738 123d c48a 1f3d cce0 f43c 14c8 79bd
00000030: a8c3 083d 5ac6 afbb 822b 32bd 36d5 24bc
00000040: f49a d33b 92d3 463d ad1f 68bd b800 34bd
00000050: 7fa1 303d d55e 9c3d d04b 97bb c46c dabc
00000060: cf74 ecbc 2611 533d f455 87bd 8bc3 b9bd
00000070: 2bbf 1abd 41e9 36bb b741 72bd fb2e 8f3a

a2c_network.mu.weight f4 [7, 32]
0.11822334 -0.066806555 -0.04845897 -0.12092911 -0.11290038 -0.042027723 -0.06905753 0.022475762
-0.10745595 0.18287106 0.006347177 0.10890197 0.12191755 0.08083437 0.081407964 0.004779234
-0.024008213 -0.1629378 -0.30287933 -0.0047764783 0.16869931 -0.16091076 -0.12593177 -0.1383654
-0.18185109 0.12549062 0.009889096 -0.03157234 0.045701433 0.12123622 -0.0644123 -0.0895325
0.19140561 0.04390052 -0.29017687 -0.06870011 0.21059345 0.05622637 -0.24776347 -0.14167663
-0.1866157 -0.022498371 -0.09263078 0.3124035 0.034180906 0.2545149 0.19317394 0.13020104
0.07072448 -0.2539279 -0.21218845 0.2141824 -0.034742452 -0.13624185 0.07636083 -0.24228193
0.03465687 -0.06870642 0.15071824 0.1799025 0.095600985 0.3262549 0.26700938 -0.016563764
-0.05628338 -0.12976605 -0.16168663 -0.08133286 0.053767905 -0.10514697 0.14275403 -0.14317024
0.11954232 -0.24850228 0.011053054 0.20213525 -0.13022834 -0.054134525 0.014209135 -0.21720129
0.042752802 -0.027459597 0.07077649 -0.12250877 -0.043650135 -0.049467754 -0.26326957 0.07138341
0.015624839 -0.2087502 0.017580206 0.19371158 0.29983982 0.05998506 0.036890056 0.12030333
0.067937426 0.046609793 0.032078505 0.18572645 0.08684386 0.12936978 0.0660234 -0.008870188
-0.16252418 0.14987695 0.09780596 0.079247616 0.0493132 0.0688474 0.110720344 -0.0271294
-0.23827681 0.057655353 -0.0083011715 -0.13253604 0.101657666 -0.11458448 -0.058044225 -0.13807727
0.114353515 -0.010299686 -0.032938875 0.16646929 -0.014945778 0.104221806 0.19437958 -0.07382436
-0.17286497 0.22041254 -0.15740816 0.16058344 0.25319725 0.0018962474 -0.13783138 0.2876983
-0.1127315 -0.06150303 0.22997682 0.05266738 -0.045548428 0.07440297 -0.115503974 -0.099539146
-0.2615911 -0.14721769 0.21065399 -0.006825025 -0.039457083 -0.017663645 -0.016925104 -0.019382
0.043191545 0.012554021 -0.2627111 -0.093736276 -0.10601974 0.077496916 0.31002182 0.053146735
-0.04866123 -0.063388616 0.2267491 0.19809273 0.18886851 -0.19018005 0.29750744 0.10439019
-0.029643157 -0.16293919 0.008610554 0.007974745 -0.14391643 -0.10541964 -0.26760677 -0.07713167
-0.114014864 0.20807318 0.038721595 0.11851179 -0.030936973 0.1748759 -0.0498645 0.10475153
0.1607269 -0.17592312 -0.25140488 0.055679716 -0.14182083 0.041903697 0.15225168 0.15462966
0.10609014 -0.06419215 -0.041170623 -0.14741221 -0.1837524 0.12983045 0.004915989 0.12987728
-0.15812469 0.1294412 0.12674037 -0.15066788 0.106024906 -0.11518203 0.12753728 0.051552024
-0.18610315 -0.16566111 -0.033325125 -0.18071733 0.21507171 -0.08938394 -0.29205856 -0.23280609
-0.1342527 0.049454115 -0.017681988 0.018222397 0.19960707 0.04377619 -0.1918161 -0.22488578
00000000: 141f f23d e0d1 88bd ea7c 46bd aea9 f7bd
00000010: 5038 e7bd 4325 2cbd 096e 8dbd 171f b83c
00000020: dd11 dcbd 8d42 3b3e fbfb cf3b ff07 df3d
00000030: e9af f93d 7d8c a53d 38b9 a63d 1f9b 9c3b
00000040: dfac c4bc 2bd9 26be 0013 9bbe 0184 9cbb
00000050: 83bf 2c3e cac5 24be 42f4 00be a9af 0dbe
00000060: 2c37 3abe 9d80 003e e005 223c ff51 01bd
00000070: 6d31 3b3d b24a f83d 99ea 83bd d15c b7bd
00000080: d5ff 433e 08d1 333d 1092 94be a5b2 8cbd
00000090: cfa5 573e 9f4d 663d b5b5 7dbe ae13 11be
000000a0: 3018 3fbe 814e b8bc 35b5 bdbd 5af3 9f3e
000000b0: 4701 0c3d c74f 823e 64cf 453e 6c53 053e
000000c0: ffd7 903d d602 82be ee47 59be a252 5b3e
000000d0: 1a4e 0ebd fc82 0bbe 1163 9c3d c118 78be
000000e0: 5df4 0d3d f4b5 8cbd e255 1a3e 5c38 383e
000000f0: 73ca c33d e20a a73e 74b5 883e bbb0 87bc
00000100: 6789 66bd 64e1 04be 2e91 25be d891 a6bd
00000110: bc3b 5c3d 4b57 d7bd 1d2e 123e 389b 12be
00000120: 9bd2 f43d 6277 7ebe de17 353c 8bfc 4e3e
00000130: 945a 05be 2abc 5dbd 6fcd 683c 046a 5ebe
00000140: 901d 2f3d f3f2 e0bc 44f3 903d e1e5 fabd
00000150: 7cca 32bd b39e 4abd 45cb 86be 7731 923d
00000160: 53ff 7f3c 9dc2 55be 5d04 903c 545c 463e
00000170: 9b84 993e e5b2 753d 071a 173d 9861 f63d
00000180: c722 8b3d e9e9 3e3d c064 033d 132f 3e3e
00000190: 32db b13d 8379 043e 4737 873d 4454 11bc
000001a0: bd6c 26be 5879 193e 7e4e c83d 934c a23d
000001b0: a3fc 493d deff 8c3d 59c1 e23d 7a3e debc
000001c0: d6fe 73be 0528 6c3d a301 08bc 87b7 07be
000001d0: e531 d03d 45ab eabd c8bf 6dbd 2164 0dbe
000001e0: 2d32 ea3d 04c0 28bc eaea 06bd ed76 2a3e
000001f0: 23df 74bc 3e72 d53d 710b 473e 3a31 97bd
00000200: 8403 31be d3b3 613e 9b2f 21be fc6f 243e
00000210: 12a3 813e 818b f83a ab23 0dbe 314d 933e
00000220: c6df e6bd 9aea 7bbd 0b7f 6b3e c0b9 573d
00000230: fd90 3abd 9660 983d 598d ecbd 2edb cbbd
00000240: 45ef 85be 3cc0 16be aeb5 573e 76a4 dfbb
00000250: c09d 21bd 59b3 90bc 84a6 8abc 00c7 9ebc
00000260: 9ee9 303d 61af 4d3c 1282 86be cef8 bfbd
00000270: e120 d9bd b4b6 9e3d 2ebb 9e3e 64b0 593d
00000280: ff50 47bd e4d1 81bd eb30 683e d2d8 4a3e
00000290: bf66 413e 8fbe 42be e552 983e 86ca d53d
000002a0: 35d6 f2bc 88d9 26be 4813 0d3c 81a8 023c
000002b0: d45e 13be 41e6 d7bd c103 89be 36f7 9dbd
000002c0: a080 e9bd 2311 553e 899a 1e3d 4fb6 f23d
000002d0: 896f fdbc ab12 333e b83e 4cbd f887 d63d
000002e0: 9895 243e 3125 34be 24b8 80be 6a10 643d
000002f0: 7b39 11be 36a3 2b3d dde7 1b3e 3d57 1e3e
00000300: ca45 d93d 2d77 83bd 87a2 28bd 3af3 16be
00000310: 9729 3cbe 46f2 043e 4e16 a13b 8dfe 043e
00000320: 70eb 21be 3c8c 043e 3ac8 013e ae48 1abe
00000330: 9623 d93d 8ee4 ebbd 2299 023e 3728 533d
00000340: d391 3ebe 11a3 29be ed7f 08bd f70d 39be
00000350: c23b 5c3e ed0e b7bd b388 95be b864 6ebe
00000360: 8a79 09be 6690 4a3d d1d9 90bc 2347 953c
00000370: cc65 4c3e aa4e 333d 716b 44be 7548 66be

a2c_network.mu.bias f4 [7]
0.057079308 -0.047913704 0.12549962 0.057939593 0.025437677 0.03835177 0.10385054
00000000: fecb 693d 2941 44bd f982 003e 1152 6d3d
00000010: ad62 d03c bf16 1d3d 98af d43d

exp_avg f4 [7]
0.02079677 -0.015047689 -0.0020472598 0.010787663 0.010551756 0.0010705559 0.012710368
00000000: fd5d aa3c 958a 76bc 522b 06bb bdbe 303c
00000010: 46e1 2c3c e551 8c3a 263f 503c

exp_avg_sq f4 [7]
0.000591223 0.0006615031 0.00041841794 0.0007400599 0.00067981554 0.0004529424 0.0006196439
00000000: 4efc 1a3a b968 2d3a 1b5f db39 9400 423a
00000010: a635 323a e678 ed39 996f 223a

exp_avg f4 [128, 18]
0.0010046652 0.0027222028 0.0010756177 -0.00040932657 0.0008565302 0.00026140318 0.00027919814 -0.0024582744
0.00016647244 0.0028574378 -0.0001218033 0.00034106095 -0.00014795567 -0.0024288264 -0.00039832309 0.0014989487
-0.0019883576 0.00056793314 0.00089406985 -0.0012695607 -0.0007599972 -0.001440152 7.399971e-05 -0.0010729566
-0.00015305565 0.0019853858 -0.0015404103 2.8541095e-05 0.00061724737 -0.0016818542 3.747958e-05 -0.00015344779
-0.0014416452 -0.0015422484 -0.00028882918 0.000641333 0.0035379205 -0.0013966527 -0.0018852304 -0.0027954453
-0.00061346876 -0.001629036 -0.0018285882 0.004138702 -0.0035295181 0.00024687656 0.0006776353 -0.0035489579
0.0010017997 0.00094139995 -0.004540884 -0.0026271243 -0.0013625352 0.0016085706 0.0011154809 0.0015205394
-0.00019980647 0.0006078549 0.0015605142 -0.00039205188 0.0003238052 -0.0022506784 0.000806649 0.001663556
-0.000247425 0.00096033193 8.709636e-05 -0.0019349696 0.00062116585 0.0012499302 -0.0008850447 0.0012906736
-0.00015223572 0.0006333132 0.0009827194 0.0008482583 -3.3048822e-05 0.0010736021 0.0006837502 -0.0024584788
-0.0010111186 0.0016433973 0.00015607834 0.00032932963 0.00031182313 -0.0014903861 0.00034730605 0.0010992873
-0.0002210293 -0.00020512636 0.0011206439 0.0015744693 0.00020731984 0.000977491 0.0021002884 0.0007338645
0.0007197271 -0.004257462 -0.00078575354 0.0026579306 -0.0008914547 0.0027802174 0.0004908978 -0.0029287767
0.00063342246 0.0017488431 -0.0008448733 0.0014922103 0.00040932084 0.00025673647 0.00017231461 -6.232864e-05
0.0011649751 0.00045568627 0.00047175246 -0.0023359037 -0.0011112664 0.0014214902 -0.00078562996 0.0011691732
-0.00042694606 -0.0017008125 0.00012620892 0.0006581394 -0.00066675333 0.00078986486 0.0007017277 -0.00059794745
-0.0007782819 -0.00021772408 0.00055384816 -0.00041406433 -0.0006224055 0.00013709495 -0.0004123956 -2.7183185e-05
-0.00053526665 0.0004760108 -0.00016878544 9.692048e-05 -0.00045034738 -0.000354229 4.4572753e-06 0.0005944773
-3.404363e-06 0.00030311948 0.00044904233 -0.00024385736 -2.3194229e-05 4.6572135e-05 0.0003241532 -0.0004921145
0.00038006296 0.00036028653 -0.0003803457 -0.0003734445 -0.00034010987 0.0010513285 -7.816e-05 0.00031897685
-0.00029556453 -0.00017946112 5.8122378e-06 0.00072996994 0.00033874036 -0.00048839254 0.0004172132 0.00010565913
-0.00051557634 -0.0013093504 -0.00053472497 0.0011258258 -0.00077855936 0.00056309626 -9.663965e-05 -0.0013097677
-6.80602e-05 0.0002602727 -0.00066116103 0.00013193104 0.00083059334 0.00015924186 -0.00025758112 6.0914535e-05
0.00053019065 0.0003273164 -0.0002759023 -0.0007806355 -0.0012365144 0.0011087594 -0.00010078585 -0.00031997
0.0005660586 -0.0011083247 -0.000111792986 0.00013840539 -0.0004218082 0.00088524685 -0.0017013875 0.00063740584
0.0008452082 0.0010831452 3.7155372e-05 0.00052352383 0.0011994076 -0.0021055185 0.0010355704 -9.2869814e-05
2.2475095e-05 0.0011040323 -0.00019172012 -0.0013712881 0.0016171028 0.0011681649 0.00031756118 -0.00093924993
-0.0012800862 0.001992103 0.0022902614 0.0007243496 -0.00017117886 0.0011174999 0.0012025972 -0.0036814988
0.0011091525 0.0019305493 -0.00074159063 0.0010775394 -0.00080441916 -0.001663142 0.0009895012 0.0021051306
-0.0005910089 -0.0012733407 0.00051376136 -0.001517548 -0.00086382264 0.00047459052 -0.00018458908 -8.441111e-06
-0.00046817545 0.0013430729 -0.0005381705 -0.00096943375 0.00066085067 -0.000110299814 8.067772e-05 0.00068333535
-0.00034147815 -0.00065553444 0.00089559186 0.00026391886 0.0009899954 -0.00029228348 -8.1844475e-05 0.00064213254
00000000: f8ae 833a fc66 323b befb 8c3a e29a d6b9
00000010: c588 603a f10c 8939 5761 9239 001b 21bb
00000020: 1b8f 2e39 da43 3b3b a670 ffb8 6dd0 b239
00000030: 8c24 1bb9 f22c 1fbb 05d6 d0b9 5f78 c43a
00000040: 1b4f 02bb 59e1 143a 0360 6a3a 6367 a6ba
00000050: 8c3a 47ba 7bc3 bcba 4b30 9b38 73a2 8cba
00000060: 907d 20b9 3f1d 023b 98e7 c9ba 896b ef37
00000070: c5ce 213a aa71 dcba 6533 1d38 d4e6 20b9
00000080: 96f5 bcba 4525 caba ff6d 97b9 211f 283a
00000090: 75dc 673b e30f b7ba d619 f7ba ca33 37bb
000000a0: 31d1 20ba 6185 d5ba 3dad efba f39d 873b
000000b0: 7d4f 67bb 366f 8139 56a3 313a a295 68bb
000000c0: d24e 833a 48c8 763a b2cb 94bb d52b 2cbb
000000d0: 1897 b2ba acd6 d23a 5435 923a d64c c73a
000000e0: 2483 51b9 7458 1f3a 2b8a cc3a 508c cdb9
000000f0: 66c4 a939 1e80 13bb 4c75 533a ad0b da3a
00000100: d2b8 81b9 c9be 7b3a 81a7 b638 ce9e fdba
00000110: bcd5 223a b3d4 a33a 5802 68ba d22b a93a
00000120: 77a1 1fb9 ee04 263a 97ce 803a a75d 5e3a
00000130: e79d 0ab8 1cb8 8c3a b33d 333a 6e1e 21bb
00000140: 8387 84ba 4367 d73a f6a8 2339 e0a9 ac39
00000150: 317c a339 0f59 c3ba a116 b639 f615 903a
00000160: 1ac4 67b9 3017 57b9 92e2 923a 6c5e ce3a
00000170: ff63 5939 281f 803a fea4 093b d060 403a
00000180: 11ac 3c3a 2e82 8bbb 07fb 4dba ad30 2e3b
00000190: 83b0 69ba 4f34 363b 98af 003a b8f0 3fbb
000001a0: 430c 263a 7039 e53a 7d7a 5dba 4596 c33a
000001b0: 1d9a d639 969a 8639 5aaf 3439 6fb6 82b8
000001c0: 14b2 983a 2de9 ee39 8b55 f739 f615 19bb
000001d0: eaa7 91ba 4c51 ba3a bcf2 4dba f13e 993a
000001e0: bbd7 dfb9 cced deba f356 0439 fd86 2c3a
000001f0: 0fc9 2eba ef0e 4f3a 26f4 373a 93bf 1cba
00000200: 9d05 4cba dd4c 64b9 1f30 113a c616 d9b9
00000210: ed28 23ba 25c1 0f39 cd36 d8b9 7207 e4b7
00000220: 2351 0cba 1791 f939 fffb 30b9 c941 cb38
00000230: 9a1c ecb9 d0b7 b9b9 b48f 9536 b2d6 1b3a
00000240: 8376 64b6 02ec 9e39 716d eb39 f6b3 7fb9
00000250: 3a91 c2b7 7356 4338 1bf3 a939 3f01 01ba
00000260: 3043 c739 d7e4 bc39 2369 c7b9 dfca c3b9
00000270: c650 b2b9 bbcc 893a d5e9 a3b8 593c a739
00000280: 00f6 9ab9 ba2d 3cb9 be06 c336 745b 3f3a
00000290: f698 b139 7807 00ba 68bd da39 5095 dd38
000002a0: be27 07ba 829e abba c92c 0cba 7290 933a
000002b0: 3c18 4cba c09c 133a 04ab cab8 83ac abba
000002c0: 8bbb 8eb8 3675 8839 c451 2dba f856 0a39
000002d0: 2dbc 593a 29fa 2639 f40b 87b9 7c7e 7f38
000002e0: 7efc 0a3a aa9b ab39 fba6 90b9 90a3 4cba
000002f0: 8a12 a2ba cb53 913a fe5c d3b8 a5c1 a7b9
00000300: 8d63 143a 3545 91ba 6772 eab8 ea20 1139
00000310: 2326 ddb9 e90f 683a 1701 dfba 9517 273a
00000320: f690 5d3a 52f8 8d3a 47d7 1b38 173d 093a
00000330: 7135 9d3a bdfc 09bb fabb 873a 1ac3 c2b8
00000340: e688 bc37 2db5 903a 7a08 49b9 cbbc b3ba
00000350: f7f4 d33a 1c1d 993a 577e a639 ff37 76ba
00000360: 91c8 a7ba f18d 023b 3618 163b 47e2 3d3a
00000370: 7a7e 33b9 1379 923a 77a0 9d3a 4d45 71bb
00000380: fb60 913a 7c0a fd3a 4e67 42ba 393c 8d3a
00000390: a8df 52ba c9fd d9ba 27b2 813a 3bf6 093b
000003a0: f0ed 1aba 39e6 a6ba f1ad 063a 76e8 c6ba
000003b0: 2872 62ba 76d2 f839 418e 41b9 4c9e 0db7
000003c0: 7275 f5b9 0c0a b03a 0314 0dba 9921 7eba
000003d0: f03c 2d3a c350 e7b8 8531 a938 dc21 333a
000003e0: 6c08 b3b9 2cd8 2bba 27c6 6a3a 975e 8a39
000003f0: bcc2 813a a03d 99b9 eba3 abb8 c954 283a

exp_avg_sq f4 [128, 18]
1.29011805e-05 2.3599547e-05 1.4184482e-05 1.9151994e-05 1.6218819e-05 1.679833e-05 1.5010629e-05 1.7006405e-05
2.815696e-05 2.342422e-05 1.4400671e-05 1.6354934e-05 1.4822938e-05 1.4986374e-05 1.2349564e-05 2.0944617e-05
1.03148905e-05 8.486821e-06 2.4515366e-05 3.078914e-05 1.597737e-05 2.8550343e-05 1.9722676e-05 2.4560592e-05
2.1134903e-05 2.6033293e-05 4.962598e-05 3.7106398e-05 2.3514489e-05 2.9773983e-05 3.168986e-05 2.6707497e-05
1.7205735e-05 2.8728784e-05 2.393957e-05 1.377276e-05 4.1430285e-05 5.310099e-05 2.6494368e-05 4.878639e-05
3.4058936e-05 4.325726e-05 4.149949e-05 4.2752345e-05 6.991109e-05 5.140188e-05 3.7897218e-05 4.8307087e-05
4.4734636e-05 4.33874e-05 3.6929716e-05 3.845724e-05 4.483383e-05 2.2126855e-05 6.8900486e-06 4.8260767e-06
6.0351604e-06 7.451809e-06 6.8464515e-06 5.8785663e-06 6.0499274e-06 9.308541e-06 8.367805e-06 8.037228e-06
8.873537e-06 8.860527e-06 8.754095e-06 9.275465e-06 4.067378e-06 6.534136e-06 5.1853617e-06 5.3386134e-06
6.5773884e-06 5.593437e-06 6.273589e-06 7.479838e-06 5.8868945e-06 6.3002035e-06 4.773554e-06 7.301448e-06
9.097106e-06 9.040475e-06 5.326872e-06 6.242844e-06 5.437777e-06 6.6204625e-06 4.8720945e-06 6.4467986e-06
6.0903058e-06 4.3317523e-06 1.2160794e-05 1.1507147e-05 1.2965589e-05 1.771775e-05 1.7215378e-05 1.676645e-05
1.4940976e-05 2.0112251e-05 1.7376493e-05 2.0043411e-05 1.6737858e-05 1.7422462e-05 1.5686774e-05 1.8460034e-05
1.3688895e-05 1.0578391e-05 1.5305326e-05 1.0528861e-05 5.5109363e-06 5.2816813e-06 5.023122e-06 6.715625e-06
6.168499e-06 7.564781e-06 6.6030043e-06 7.3308033e-06 8.316717e-06 8.869544e-06 6.5805766e-06 6.8593e-06
6.524041e-06 6.445964e-06 5.0323883e-06 5.1087645e-06 6.6350844e-06 4.1805242e-06 1.361522e-05 1.7535882e-05
1.025715e-05 1.3514237e-05 1.0530532e-05 1.468205e-05 1.2081276e-05 1.838557e-05 2.8779132e-05 1.8720302e-05
1.2719588e-05 1.44155765e-05 1.5337135e-05 1.1791653e-05 8.770984e-06 1.4028266e-05 1.6975124e-05 8.7285425e-06
4.828254e-06 3.9126e-06 4.4577823e-06 5.8274395e-06 3.9858683e-06 4.519525e-06 3.7464615e-06 6.725417e-06
6.404227e-06 7.2061625e-06 4.8948923e-06 5.3811755e-06 6.233806e-06 6.300303e-06 2.5425875e-06 4.3441123e-06
3.5781998e-06 3.6872477e-06 4.6567566e-06 5.5508804e-06 4.2675997e-06 4.642897e-06 3.4526342e-06 4.5801457e-06
3.4611448e-06 4.545263e-06 8.105692e-06 6.8066893e-06 3.4043867e-06 4.737745e-06 4.2517067e-06 4.6727296e-06
4.001798e-06 6.133864e-06 3.0411752e-06 2.9079802e-06 4.671255e-06 7.0565047e-06 4.014552e-06 8.713135e-06
5.610038e-06 5.411959e-06 5.1848683e-06 6.6302605e-06 7.617651e-06 6.3497005e-06 6.090174e-06 5.9618046e-06
5.413623e-06 4.643056e-06 3.3098815e-06 3.9271276e-06 5.1534266e-06 3.483069e-06 8.501866e-06 8.926244e-06
7.63811e-06 1.011448e-05 7.415395e-06 9.621303e-06 8.9588975e-06 8.9009145e-06 1.3510093e-05 1.229084e-05
8.131888e-06 1.0143354e-05 9.964991e-06 1.0402133e-05 7.0490496e-06 1.2231941e-05 7.3413526e-06 4.1062167e-06
4.838998e-05 5.2710315e-05 3.831952e-05 4.9124177e-05 3.6075395e-05 5.1143586e-05 4.0754127e-05 3.478043e-05
7.6829965e-05 6.453398e-05 3.062974e-05 4.63428e-05 3.848028e-05 4.7014382e-05 4.171248e-05 5.8539084e-05
4.3644228e-05 2.2020371e-05 1.3313157e-05 1.8754963e-05 1.1317627e-05 1.6442447e-05 1.15499415e-05 1.511e-05
1.4027221e-05 1.4303153e-05 2.6330259e-05 1.69998e-05 1.3813465e-05 1.599478e-05 1.5406224e-05 1.5720643e-05
1.1838602e-05 1.3204206e-05 1.5351265e-05 7.6417355e-06 4.0074874e-06 3.7108691e-06 3.6349338e-06 6.8430936e-06
00000000: 2672 5837 a4f7 c537 e3f9 6d37 98a8 a037
00000010: a60d 8837 24ea 8c37 29d6 7b37 faa8 8e37
00000020: 9c32 ec37 217f c437 699a 7137 f431 8937
00000030: 09b0 7837 fc6d 7b37 f930 4f37 39b2 af37
00000040: 1e0e 2d37 9e62 0e37 59a6 cd37 9623 0138
00000050: 2407 8637 657f ef37 2072 a537 7807 ce37
00000060: dc4a b137 1262 da37 7e25 5038 b1a2 1b38
00000070: fb40 c537 24c3 f937 baea 0438 ea09 e037
00000080: 0955 9037 98fe f037 d6d1 c837 8e11 6737
00000090: 6ec5 2d38 c1b8 5e38 3940 de37 fd9f 4c38
000000a0: 81da 0e38 216f 3538 bd0f 2e38 fb50 3338
000000b0: 3b9d 9238 5998 5738 d4f3 1e38 579d 4a38
000000c0: 73a1 3b38 defa 3538 fbe4 1a38 264d 2138
000000d0: f50b 3c38 0f9d b937 1131 e736 afef a136
000000e0: a281 ca36 8d0a fa36 92ba e536 8040 c536
000000f0: 7b00 cb36 e12b 1c37 7363 0c37 a2d7 0637
00000100: 8ddf 1437 aca7 1437 8dde 1237 d29d 1b37
00000110: 837a 8836 cd3f db36 ebfd ad36 5722 b336
00000120: 56b3 dc36 42af bb36 b881 d236 52fb fa36
00000130: 0a88 c536 5666 d336 842c a036 f6fe f436
00000140: c69f 1837 8bac 1737 7bbd b236 9f79 d136
00000150: 2676 b636 5725 de36 f97a a336 9451 d836
00000160: 545b cc36 7859 9136 3606 4c37 d20e 4137
00000170: c886 5937 94a0 9437 be69 9037 ada5 8c37
00000180: 01ab 7a37 bbb6 a837 bcc3 9137 e622 a837
00000190: 4768 8c37 7426 9237 1797 8337 9fda 9a37
000001a0: 5ba9 6537 d879 3137 f063 8037 1da5 3037
000001b0: 95ea b836 4c39 b136 4a8c a836 c856 e136
000001c0: 01fb ce36 f9d4 fd36 608f dd36 1ffb f536
000001d0: 0788 0b37 67ce 1437 b9ce dc36 f028 e636
000001e0: 16e9 da36 694a d836 e3db a836 f46b ab36
000001f0: f1a2 de36 6e46 8c36 ed6c 6437 051a 9337
00000200: 2016 2c37 35bb 6237 4aac 3037 ed52 7637
00000210: afb0 4a37 b63a 9a37 b76a f137 8b09 9d37
00000220: 3766 5537 6eda 7137 3fa8 8037 c4d4 4537
00000230: 1727 1337 f25a 6b37 cd65 8e37 ce70 1237
00000240: 6302 a236 fa48 8336 0f94 9536 5389 c336
00000250: 59be 8536 6da6 9736 b86b 7b36 e4aa e136
00000260: e4e3 d636 77cc f136 ce3e a436 f28f b436
00000270: fc2b d136 3167 d336 52a1 2a36 a4c3 9136
00000280: 0121 7036 6f72 7736 3c41 9c36 b341 ba36
00000290: 6732 8f36 2eca 9b36 ceb3 6736 27af 9936
000002a0: 0446 6836 8383 9836 affd 0737 0465 e436
000002b0: eb76 6436 ebf8 9e36 e2a9 8e36 71ca 9c36
000002c0: 2f47 8636 7ed1 cd36 fe16 4c36 b826 4336
000002d0: c6bd 9c36 eac6 ec36 bdb4 8636 a12e 1237
000002e0: dc3d bc36 6098 b536 aef9 ad36 8179 de36
000002f0: 209b ff36 830f d536 325a cc36 830b c836
00000300: aba6 b536 8ccb 9b36 551f 5e36 c5c5 8336
00000310: 99eb ac36 abbe 6936 3da3 0e37 edc1 1537
00000320: 6f25 0037 5cb1 2937 c2d1 f836 2f6b 2137
00000330: 2c4e 1637 2355 1537 68a9 6237 c134 4e37
00000340: 316e 0837 602d 2a37 4f2f 2737 d284 2e37
00000350: e086 ec36 c937 4d37 bd55 f636 22c8 8936
00000360: 58f6 4a38 4515 5d38 45b9 2038 af0a 4e38
00000370: a94f 1738 0283 5638 69ef 2a38 34e1 1138
00000380: c61f a138 6b56 8738 6f78 0038 3460 4238
00000390: e365 2138 4f31 4538 6ff4 2e38 dd87 7538
000003a0: a20e 3738 63b8 b837 935b 5f37 fa53 9d37
000003b0: d6e0 3d37 e3ed 8937 9fc6 4137 f580 7d37
000003c0: 7556 6b37 93f7 6f37 cddf dc37 cb9a 8e37
000003d0: 61c0 6737 872c 8637 9d3c 8137 d3df 8337
000003e0: 699e 4637 a287 5d37 97c6 8037 0135 0037
000003f0: 0e78 8636 3f08 7936 b0ef 7336 ba9d e536

exp_avg f4 [128]
-0.00058757653 -0.001372291 -0.003166914 -0.0023432446 0.00034576218 -0.0022318473 -0.0011980348 -0.0012616427
0.00032722394 -0.0001468318 -0.0014785082 0.0016018037 0.0025128918 -0.00077588507 -0.0010172831 0.00072369486
-0.000692705 -0.002061181 0.00038979438 0.00037766376 -0.00041107755 -0.0021263526 0.00214247 0.00097328087
-0.0028087585 0.0005242447 -0.00013303901 0.00021067126 -0.00011988411 -0.002913894 0.0013503999 0.0011732103
0.0019534957 0.0014843928 -0.0012795731 0.0011060685 0.002815094 0.0018269145 -0.00028044402 0.0018019156
-0.0013386152 0.0023491483 0.0020987052 0.0006199178 0.0010384667 -0.0012712467 0.000124132 0.0012276788
-0.0013899653 -0.0015907346 -0.0007959823 0.0011623933 -0.0010296815 0.0009252707 -0.001651454 8.2526e-05
0.0016700883 -0.0023468998 -0.00010948412 -0.0005934133 0.00032674213 0.0010041218 0.001037846 0.000750733
-0.00220163 0.002456089 0.00012861879 0.0012011945 0.0016762865 6.4720385e-05 0.0002565981 0.0017956443
0.0012402291 -0.00036779992 -0.00025325103 -0.00028138576 -0.00036863543 0.0018926308 0.0013558648 -0.0028819889
-5.3527834e-05 -0.0021925704 -0.0011062903 -0.00028287922 0.0014110097 -0.0024628423 -0.002242798 8.1681756e-05
6.851775e-05 -0.001652662 -0.00080200436 0.00027076472 -0.0007357928 0.0013156453 0.00074152125 -9.45204e-05
-0.00066350435 -0.0009414656 -0.0009378708 0.0019988546 -0.002512219 -0.00014586897 0.0015325841 -0.0018424832
0.001120212 -0.00082414557 -0.0007231175 0.00039793737 -0.00063413644 -0.0005945708 -0.00052604405 0.001993064
0.0010247403 0.00094076496 0.000259164 -0.00023867913 0.00013394872 0.0013727662 0.001397662 -0.00055279105
0.00067461986 8.460498e-05 -0.0017054622 -0.0014842665 -0.0007226159 0.00088029954 0.0011598537 0.00056427874
00000000: 9807 1aba 72de b3ba 008c 4fbb 1f91 19bb
00000010: 6a47 b539 2f44 12bb 6107 9dba b45d a5ba
00000020: 418f ab39 dcf6 19b9 81ca c1ba 9df3 d13a
00000030: 54af 243b c464 4bba 5b56 85ba 57b6 3d3a
00000040: a596 35ba e114 07bb 515d cc39 2c01 c639
00000050: e585 d7b9 475a 0bbb af68 0c3b c623 7f3a
00000060: 2613 38bb 776d 093a 6380 0bb9 a3e7 5c39
00000070: 4b6a fbb8 07f7 3ebb e7ff b03a 68c6 993a
00000080: 3806 003b f58f c23a 59b7 a7ba 80f9 903a
00000090: 717d 383b 1475 ef3a 8f08 93b9 412e ec3a
000000a0: 7974 afba 2bf4 193b 6e8a 093b fb81 223a
000000b0: 291d 883a f69f a6ba 6e29 0239 11ea a03a
000000c0: 7f2f b6ba 3280 d0ba 78a9 50ba 725b 983a
000000d0: 61f6 86ba de8d 723a 9a75 d8ba cf11 ad38
000000e0: dde6 da3a 72ce 19bb d79a e5b8 4b8f 1bba
000000f0: 964e ab39 bd9c 833a 5508 883a d7cc 443a
00000100: 3949 10bb 56f6 203b d8dd 0639 6671 9d3a
00000110: d7b6 db3a 7eba 8738 0488 8639 d35b eb3a
00000120: 2f8f a23a 45d5 c0b9 c7c6 84b9 f586 93b9
00000130: 6945 c1b9 2712 f83a 46b7 b13a c0df 3cbb
00000140: 1383 60b8 3ab1 0fbb f100 91ba 684f 94b9
00000150: a1f1 b83a a367 21bb e8fb 12bb 8f4c ab38
00000160: 30b1 8f38 229e d8ba 9a3d 52ba 6df5 8d39
00000170: 38e2 40ba bb71 ac3a a662 423a 4139 c6b8
00000180: 06ef 2dba b0cc 76ba 72db 75ba 37ff 023b
00000190: 0aa4 24bb 67f4 18b9 fde0 c83a 7a7f f1ba
000001a0: 14d4 923a 790b 58ba 988f 3dba 40a2 d039
000001b0: 2d3c 26ba f9dc 1bba 38e6 09ba 119e 023b
000001c0: 9450 863a ab9d 763a 67e0 8739 f145 7ab9
000001d0: 9674 0c39 64ee b33a c131 b73a 2ee9 10ba
000001e0: f9d8 303a f46d b138 d189 dfba b88b c2ba
000001f0: ef6d 3dba e7c3 663a 3b06 983a 1bec 133a
