runs/BallBalance_11-15-53-45/nn/last_BallBalance_ep_300_rew_1.9809791.pth (torch, 173671 bytes, 36 tensors)

value_mean_std.running_mean f8 [1]
0	0x3fbd2d5c925bab9f	0.11397341321177955

value_mean_std.running_var f8 [1]
0	0x3f6dcbc4dbdc6967	0.0036372036837636792

value_mean_std.count f8 []
0	0x40c2c08000000000	9601.0

running_mean_std.running_mean f8 [18]
0	0x3fc7d21bf830340c	0.18609952562874843
1	0x3fc09277d1f5a7cd	0.1294698500817603
2	0xbfc997954653eddd	-0.19993844922997442
3	0x3fa33ca8e08a3607	0.03757217160191933
4	0xbf82b4328ab7bf97	-0.009132761820154474
5	0xbfb7dd0dfa5ac127	-0.09321677553339623
6	0xbfc235805e889c8a	-0.14225773445034334
7	0x3fe5a11cd79d75e7	0.6759170733673131
8	0x3fed02b9bcea678d	0.9065827073820728
9	0xbfc1dd9f1be69e61	-0.13957585203501124
10	0xbfa95e3612a9abe0	-0.04954689958397984
11	0x3fd0d8f1a6867a87	0.26324120771634124
12	0xbfaaf949c14b063f	-0.05268316731008981
13	0xbfd67f72018bdd39	-0.35152864600191297
14	0x3fb865f4c8f1de9c	0.09530572801474552
15	0x3fc2c6c2b93dcceb	0.1466906933306754
16	0xbfc151fa932d0ea9	-0.13531429468468062
17	0x3fd113ebd5b2e563	0.26684089535736727

running_mean_std.running_var f8 [18]
0	0x3faa962de3bfc08a	0.05192702679767176
1	0x3fa4024631f15505	0.039079850765725545
2	0x3fac0a479370ab38	0.054765927074490184
3	0x3fc03d0997f75adf	0.1268627159140214
4	0x3f9379edd3736ccb	0.01901980975240462
5	0x3f92146f0c41be42	0.01765607368764522
6	0x3f8d8350983c6c55	0.01441061939799774
7	0x3ffbf60ae02e842c	1.7475689656350921
8	0x3ff31b9b1bc6be13	1.1942397198689647
9	0x4011b15d4a9ecf94	4.42320744127564
10	0x400eee5615b5e0a2	3.8663751312379455
11	0x3fe96d25a6209a1c	0.794573616473659
12	0x3ff24309ee892d07	1.1413668935591106
13	0x3ff2589b784a471a	1.1466326426347622
14	0x3f7256aba77f5791	0.0044771867032603755
15	0x3f80782e685d66f4	0.008041727600061922
16	0x3fc45c2183bf30f9	0.15906161244345876
17	0x3fc88fba8a8e9095	0.1918862511203129

running_mean_std.count f8 []
0	0x40b2c10000000000	4801.0

a2c_network.sigma f4 [7]
0	0xbea2bd1a	-0.31784898
1	0xbd25aaa4	-0.04044594
2	0xbedf39b5	-0.43598714
3	0xbd077906	-0.0330744
4	0xbe57239e	-0.2100968
5	0xbddaf4ad	-0.106911995
6	0xbe481e8f	-0.19542907

a2c_network.actor_mlp.0.weight f4 [128, 18]
0	0xbe2130ab	-0.15741222
1	0x3dd031a5	0.10165719
2	0x3d18122e	0.037126713
3	0xbdac2684	-0.08405784
4	0x3dd63941	0.10460139
5	0x3df792da	0.120885566
6	0xbe31e948	-0.17374146
7	0xbd9a468e	-0.075329885
8	0xbe63472e	-0.22195122
9	0xbe37a4eb	-0.17934005
10	0x3dc1965a	0.094525054
11	0xbe8cb2c6	-0.27480143
12	0x3db4783c	0.088119954
13	0xbe4f1e0f	-0.2022631
14	0x3e6e331f	0.23261689
15	0x3e5ed012	0.2175906
16	0xbceaf23c	-0.02867996
17	0x3d232168	0.03982678
18	0x3d1f15b2	0.03883905
19	0x3e7244a0	0.23658991
20	0x3d4b204b	0.049591344
21	0xbc4ff542	-0.012692751
22	0x3dbd83a3	0.09253623
23	0xbc418f92	-0.011814015
24	0x3e5d63c8	0.21620095
25	0x3e5678c3	0.20944504
26	0x3e06a534	0.13148957
27	0xbe276d3b	-0.16350262
28	0x3e970d00	0.29502106
29	0xbd6ecffc	-0.058303818
30	0x3ddfa490	0.1092006
31	0xbe2fd823	-0.17172293
32	0xbe44c019	-0.19213904
33	0xbe7cd387	-0.24690066
34	0xbe4a6cbd	-0.19768043
35	0x3d143744	0.036185518
36	0x3d87065f	0.06593012
37	0x3ddd9cbd	0.10820911
38	0xbd7729b8	-0.06034252
39	0xbc15b496	-0.009137293
40	0x3e4171c3	0.18891053
41	0xbe297785	-0.165495
42	0x3e290562	0.1650596
43	0xbe5799cc	-0.21054763
44	0x3e5e99db	0.21738379
45	0xbda53a85	-0.08067802
46	0x3df713b1	0.12064303
47	0xbe07b34a	-0.13251987
48	0x3e112ca8	0.14177191
49	0xbdf4ba8e	-0.11949645
50	0xbe41f1d6	-0.1893991
51	0xbeb7901a	-0.35852128
52	0x3e32c52b	0.17458026
53	0xbd1a4f43	-0.037673246
54	0x3d01e6e3	0.03171433
55	0xbe57fb38	-0.21091926
56	0xbe69dc7a	-0.22838011
57	0xbe988c84	-0.29794705
58	0xbd22eec0	-0.03977847
59	0x3e261b41	0.16221334
60	0x3e11cdaf	0.14238618
61	0x3def9fdd	0.117004134
62	0xbe36543a	-0.17805567
63	0xbeb1237a	-0.3459738
64	0x3e089389	0.1333753
65	0xbe0fc632	-0.1404045
66	0x3e2a9a65	0.1666046
67	0xbe16a5b2	-0.14711645
68	0x3e5f4772	0.21804598
69	0xbea1b83d	-0.31585875
70	0xbe444aeb	-0.19169204
71	0xbda1bd9a	-0.07897492
72	0x3dc2fd21	0.09520937
73	0x3ce87b80	0.028379202
74	0x3e1a94ce	0.15095827
75	0x3e0844c7	0.13307486
76	0xbd4ef73a	-0.050528742
77	0xbe4f5481	-0.2024708
78	0x3e16db33	0.14732055
79	0xbdda1b57	-0.10649746
80	0xbda55a73	-0.080738924
81	0xbde3c515	-0.11121575
82	0xbe5f9b87	-0.21836673
83	0x3dd07144	0.10177854
84	0x3d83bbaa	0.064322785
85	0xbcf29170	-0.029610366
86	0x3e51ada9	0.20476402
87	0xbac50768	-0.0015032114
88	0xbe0e056f	-0.1386926
89	0xbdd62302	-0.10455896
90	0xbe92f636	-0.2870347
91	0xbe621ed0	-0.22082067
92	0x3e5c3273	0.2150362
93	0xbd239da7	-0.03994527
94	0x3d8e355e	0.06943773
95	0xbe3d202a	-0.18469301
96	0xbd6ab8e5	-0.057305235
97	0xbdceba8c	-0.10094175
98	0xbd59ae41	-0.053144697
99	0xbe7a816b	-0.24463432
100	0xbe67285e	-0.22573993
101	0xbdc5734e	-0.09641133
102	0x3dcd0132	0.100099936
103	0xbc88dc02	-0.01670647
104	0x3d7cbb85	0.06170227
105	0xbe4f8eee	-0.20269367
106	0xbe2a62b1	-0.1663921
107	0xbdcbe6e1	-0.09956146
108	0xbdceedbf	-0.1010394
109	0xbdfc7a26	-0.123279855
110	0x3e5e0e72	0.21685198
111	0xbde6f48c	-0.11277112
112	0x3ea4e5d4	0.32206595
113	0x3ddfd9d0	0.10930216
114	0xbd8a3dda	-0.067500785
115	0x3db580d3	0.08862462
116	0xbd2e97e6	-0.04262533
117	0xbe4d786c	-0.20065469
118	0xbe92cd2b	-0.28672156
119	0xbe449dca	-0.19200817
120	0x3e0e0c07	0.13871776
121	0x3cef4ad6	0.02921049
122	0x3dfc4b1e	0.12319015
123	0xbd96f7e3	-0.073714994
124	0x3d9abeff	0.07555961
125	0xbdbd926a	-0.09256442
126	0xbdc9dcfa	-0.09856601
127	0x3e165dd0	0.14684224
128	0x3ded6f0a	0.11593445
129	0x3d35e420	0.04440701
130	0x3ea5aeb4	0.3235985
131	0xbd87f9c6	-0.066394374
132	0x3dbd4a40	0.09242678
133	0xbe75bbc5	-0.2399741
134	0x3dd22180	0.10260296
135	0xbe0b022c	-0.13575047
136	0x3d9da8c6	0.076982066
137	0xbe0f88b3	-0.1401699
138	0x3e63456b	0.2219445
139	0x3d7b8c31	0.061412994
140	0xbc831287	-0.016000045
141	0xbe243848	-0.16037095
142	0x3dc33ae0	0.09532714
143	0x3c99d235	0.018776992
144	0x3d18b7c8	0.037284642
145	0xbe91d055	-0.28479257
146	0x3e08955d	0.13338228
147	0xbd96a45d	-0.073555686
148	0xbd281bea	-0.041042246
149	0x3e9b5493	0.30337963
150	0x3d682bce	0.0566824
151	0xbe40f07a	-0.18841735
152	0xbe255b6c	-0.16148156
153	0x3d0d86ef	0.03455251
154	0x3d893134	0.06698838
155	0xbc0f62d6	-0.008751592
156	0xbdeb3dd6	-0.11486404
157	0xbe15df79	-0.1463603
158	0xbe43edb4	-0.19133645
159	0x3e4afb9b	0.19822542
160	0x3e44469d	0.19167562
161	0xbe55588c	-0.20834559
162	0x3daf7aff	0.085683815
163	0x3da8e827	0.082474045
164	0x3df33de8	0.11877042
165	0xbd443f84	-0.047912136
166	0x3d971b4f	0.073782556
167	0x3d98f1ba	0.07467981
168	0xbc28c40f	-0.01030065
169	0xbd7be4a3	-0.06149734
170	0xbdb66211	-0.089054234
171	0xbd9720e5	-0.07379321
172	0xbe2a437a	-0.16627303
173	0xbc14f1e0	-0.009090871
174	0x3d493212	0.049120016
175	0xbc4905cb	-0.012269448
176	0x3d4fa987	0.050698783
177	0x3ddab1d1	0.10678447
178	0x3d87f275	0.06638042
179	0x3de57e32	0.112057105
180	0x3e110a39	0.14164056
181	0x3df4e90c	0.11958513
182	0xbe291d5f	-0.1651511
183	0xbe02e0f6	-0.12781128
184	0x3e836a7e	0.25667185
185	0xbbba8cd2	-0.0056930566
186	0xbddec4c1	-0.108773716
187	0xbdf165c0	-0.117869854
188	0xbd8f31b8	-0.06991905
189	0xbe6f149f	-0.2334771
190	0xbde2315b	-0.1104457
191	0x3d569bef	0.052394804
192	0x3d0e240b	0.034702342
193	0x3e4a6c61	0.19767906
194	0xbe59238f	-0.21204971
195	0xbeaa409d	-0.3325242
196	0xbde4f790	-0.11180031
197	0x3d9727e7	0.07380658
198	0xbd02f561	-0.031972293
199	0xbd1634c9	-0.036671434
200	0x3e56af3b	0.20965283
201	0xbd8f7c83	-0.070061706
202	0xbd416cb8	-0.047222823
203	0x3dde12cf	0.10843431
204	0xbd826ae4	-0.06368044
205	0xbd23f381	-0.040027145
206	0xbe5f7dfc	-0.21825403
207	0x3d50fe13	0.051023554
208	0x3e80bd63	0.2514449
209	0x3e55cbf7	0.20878588
210	0xbe54ef58	-0.20794427
211	0xbe413a3b	-0.1886987
212	0xbe637625	-0.22213037
213	0x3e97392e	0.29535812
214	0x3dd466f7	0.103712015
215	0x3e862ced	0.2620615
216	0x3e4e9c20	0.20176744
217	0x3dd3cd58	0.103419006
218	0x3e69b957	0.22824608
219	0xbd52c19d	-0.051454175
220	0xbe06c52f	-0.13161157
221	0xbe45d63d	-0.19320007
222	0x3cca448f	0.024690894
223	0xbdd1a831	-0.10237158
224	0xbe0d2077	-0.13781916
225	0xbd44825b	-0.04797588
226	0x3c5e5fc6	0.013572639
227	0xbd709b1a	-0.058741666
228	0xbe3a1f24	-0.18175942
229	0x3c74b25c	0.014935102
230	0x3b96a86a	0.0045977132
231	0x3f0b0ab4	0.54313207
232	0x3d0ea04d	0.034820843
233	0xbe1a3fd7	-0.15063415
234	0xbd4bd197	-0.049760427
235	0xbcfa0e18	-0.030524299
236	0xbdc3ac26	-0.09554319
237	0xbe8989b2	-0.26862866
238	0x3e2334e6	0.15938148
239	0xbdbaf1dd	-0.09128163
240	0x3e40bab8	0.18821228
241	0x3a6c5f39	0.0009016875
242	0x3e8a2f72	0.26989323
243	0xbe3532ef	-0.17695211
244	0x3de02219	0.109440036
245	0xbe39d979	-0.18149365
246	0x3e5510ef	0.20807241
247	0x3e7d164c	0.24715537
248	0x3d1e3a04	0.038629547
249	0xbde0dd8d	-0.109797575
250	0xbe029b6b	-0.127546
251	0xbe6039e0	-0.21897078
252	0x3e1bf6d4	0.15230876
253	0xbe970dc2	-0.29502684
254	0x3d5f196c	0.054467604
255	0x3e657b27	0.2241026

a2c_network.actor_mlp.0.bias f4 [128]
0	0xbe30d80f	-0.1726992
1	0x3cb7235e	0.022355732
2	0x3e11bd1c	0.14232296
3	0xbe2a4a95	-0.16630013
4	0xbda1673d	-0.07881019
5	0xbe2811c9	-0.16413034
6	0xbe947bc7	-0.29000685
7	0xbb75d377	-0.0037510076
8	0xbe3522a2	-0.17688993
9	0xbdea14a5	-0.11429719
10	0x3d974898	0.07386893
11	0xbdf61a4c	-0.120167345
12	0xbe1bf0b7	-0.15228544
13	0x3e37cac7	0.17948447
14	0x3d914dae	0.07094894
15	0x3dc42afd	0.09578512
16	0x3dcb9a9b	0.09941598
17	0xbe46164a	-0.1934444
18	0xbb12c766	-0.0022396683
19	0xbe0fc44e	-0.14039728
20	0xbe5b589a	-0.21420518
21	0xbd987507	-0.07444196
22	0x3d5bb8a8	0.0536429
23	0x3ba8ebab	0.005155047
24	0xbd42715a	-0.04747138
25	0xbe5f0f38	-0.21783149
26	0x3c998c87	0.018743766
27	0xbd3fe22c	-0.046846554
28	0xbc9a6ac0	-0.01884973
29	0x3e02ebd6	0.12785277
30	0xbe2889ae	-0.1645877
31	0xbcf32f46	-0.029685628
32	0xbe6f370a	-0.2336084
33	0xbcd7a826	-0.026325297
34	0xbdc6f6fe	-0.09715079
35	0xbe3bdb5e	-0.183454
36	0xbe118ce6	-0.14213905
37	0xbcb3ab02	-0.021932129
38	0x3cab585a	0.020916153
39	0xbdb6c28f	-0.08923828
40	0xbd1fcec5	-0.03901555
41	0x3c4d79ae	0.012541218
42	0x3d71a308	0.05899337
43	0x3c24bfb2	0.010055469
44	0xbd640ff4	-0.055679277
45	0x3c1f09e4	0.009706948
46	0xbb0459bd	-0.002019509
47	0xbdddcb18	-0.10829753
48	0x3cd00612	0.02539352
49	0x39dd18f2	0.0004217099
50	0x3d8a4726	0.06751852
51	0xbdce184a	-0.100632265
52	0xbdccde0e	-0.10003291
53	0xbe7f47fd	-0.24929805
54	0xbe0fcce5	-0.14043005
55	0xbe676419	-0.22596778
56	0x3cb80328	0.022462443
57	0xbdb6b170	-0.08920562
58	0x3e65ad1f	0.22429322
59	0xbe507d9b	-0.20360415
60	0x3d48f3f6	0.049060784
61	0xbe716fab	-0.23577754
62	0x3df7a81a	0.1209261
63	0x3c501dc5	0.01270241
64	0xbd2a0846	-0.041511796
65	0xbe0df843	-0.13864236
66	0xbcef7ede	-0.0292353
67	0xbe638d43	-0.22221856
68	0xbe0ee44e	-0.13954279
69	0xbe6f8bad	-0.23393126
70	0x3cf32a1d	0.029683167
71	0xbe190e4a	-0.14946857
72	0x3e5b2bcb	0.21403424
73	0x3cdd15e4	0.026987977
74	0xbcefdeda	-0.029281069
75	0x3d8b0a67	0.067890935
76	0xbcb9e48b	-0.022691986
77	0xbce2be10	-0.02767852
78	0xbe507e7d	-0.20360751
79	0xbdbaed0d	-0.09127245
80	0x3e5b222d	0.21399756
81	0xbcb2cd63	-0.021826452
82	0xbc176cec	-0.009242278
83	0x3d9c40d7	0.07629555
84	0xbd0ddf8c	-0.03463702
85	0xbe025a71	-0.12729813
86	0x3dd8c46a	0.10584338
87	0xbe0ad441	-0.13557531
88	0x3d431131	0.047623817
89	0x3dcdc9b9	0.10048241
90	0xbcffed19	-0.031240987
91	0xbce32c58	-0.027731106
92	0x3c8f6afa	0.017507065
93	0xbe40df3f	-0.18835162
94	0xbe328ad8	-0.17435777
95	0x3de4c316	0.11170022
96	0xbd4860e2	-0.04892052
97	0xbe7ca51d	-0.2467236
98	0xbdf4b151	-0.11947883
99	0xbdfdc39c	-0.12390825
100	0x3d86ec52	0.06588043
101	0xbe7e878f	-0.24856399
102	0x3c5f5bbe	0.013632713
103	0x3d41b650	0.047293007
104	0x3d48951e	0.048970334
105	0xbc82857d	-0.015932793
106	0xbd3ce138	-0.046113223
107	0xbe05f16f	-0.13080381
108	0x3d9465a1	0.07245947
109	0x3e0b3469	0.13594212
110	0xbb5feba4	-0.0034167552
111	0x3c2de995	0.010614772
112	0xbe7a2b8b	-0.24430673
113	0x3dea1557	0.114298515
114	0x3e2043fc	0.15650934
115	0x3e00b8f0	0.12570548
116	0x3d460a4a	0.048349656
117	0xbe4975ea	-0.19673887
118	0xbe6ff969	-0.23434986
119	0x3bff2504	0.007786395
120	0xbd8ce382	-0.06879331
121	0x3df61dab	0.120173775
122	0xbe15f727	-0.14645062
123	0xbe26f4fc	-0.16304392
124	0xbdab79fc	-0.08372876
125	0xbdc327a3	-0.095290445
126	0x3d54939c	0.051898584
127	0x3dd6ae06	0.10482411

a2c_network.actor_mlp.2.weight f4 [64, 128]
0	0xbd6836d0	-0.0566929
1	0x3e1d4e67	0.1536194
2	0x3de45067	0.11148148
3	0x3d8986f6	0.06715195
4	0xbc938abd	-0.018010492
5	0x3d8a39ee	0.067493305
6	0x3dd1b510	0.10239613
7	0x3bd48bb7	0.006486382
8	0x3d8d28e8	0.06892568
9	0xbd9be62a	-0.0761226
10	0x3e1555a3	0.14583449
11	0x3d46e44b	0.04855756
12	0x3d657ac9	0.0560253
13	0x3d367192	0.044541903
14	0x3db6c9a5	0.089251794
15	0xbd065313	-0.03279407
16	0x3def65a8	0.11689311
17	0x3b2cbebc	0.0026358804
18	0x3da70b50	0.081564546
19	0xbd144c96	-0.03620585
20	0x3d22dad6	0.03975948
21	0x3b0ed194	0.0021792399
22	0xbe1dd731	-0.1541412
23	0xbd21455c	-0.039372787
24	0x3dafda5b	0.0858657
25	0x3d414722	0.04718698
26	0x3dbc4288	0.09192377
27	0x3c4d7c66	0.012541866
28	0x3dad207a	0.0845346
29	0x3cadddbe	0.021223899
30	0x3b0f28eb	0.0021844457
31	0xbd9bcf70	-0.07607925
32	0x3de4d220	0.11172891
33	0xbbb263ec	-0.0054440405
34	0xbc39e792	-0.011346715
35	0x3dd7048a	0.10498913
36	0xbd9a300d	-0.07528696
37	0xbdaa7db4	-0.08324757
38	0x3cfd791b	0.030941537
39	0xbd89c2c7	-0.06726604
40	0x3c4dd80d	0.012563718
41	0xbdefc88b	-0.117081724
42	0xbe10578c	-0.14095896
43	0x3c4e2988	0.012583144
44	0x3c8f691e	0.017506178
45	0x3db08e63	0.08620908
46	0x3d57651a	0.052586652
47	0xbde803fd	-0.11328886
48	0x3dad1996	0.08452146
49	0x3cbb9835	0.022899726
50	0x3c283b43	0.010268035
51	0xbdb026cf	-0.08601152
52	0x3d8dcd7b	0.06923958
53	0x3e10f417	0.14155613
54	0xbc5a066e	-0.013307197
55	0x3d4068fe	0.04697513
56	0xbd6ad0d1	-0.05732805
57	0x3db8c3c5	0.09021715
58	0xbdd1c028	-0.10241729
59	0x3d3b0cb0	0.045666397
60	0xbc59e7bb	-0.013299878
61	0x3e191064	0.14947659
62	0xbda32c30	-0.079674125
63	0x3d4d865f	0.050176974
64	0x3e4e3229	0.20136322
65	0x3d0f289a	0.03495083
66	0x3caa384d	0.0207788
67	0x3d4022e7	0.046908285
68	0x3d8e1298	0.0693714
69	0x3dc7015f	0.097170584
70	0x3d702d30	0.058636844
71	0xbe19280c	-0.14956683
72	0xbe2c7dac	-0.16844815
73	0x3e03add4	0.12859279
74	0x3d2bb93c	0.0419247
75	0x3d09e164	0.033662215
76	0x3d51b8d8	0.05120167
77	0xbd7bfc2a	-0.06151978
78	0x3e16925b	0.14704268
79	0x3d611645	0.05495288
80	0x3c28dd68	0.010306694
81	0xbc66078e	-0.014039887
82	0xbd2b16d2	-0.04176981
83	0xbd964cb8	-0.07338852
84	0x3cc3759e	0.023859795
85	0x3dd4dff7	0.103942804
86	0x3dfcfb03	0.12352564
87	0x3e096bd9	0.13420047
88	0xbcd7bf78	-0.026336417
89	0xbd053dbd	-0.03252958
90	0x3bf0f36b	0.0073532364
91	0x3d7ab8d5	0.061211426
92	0xbc10f332	-0.008847045
93	0xbde9349a	-0.11386986
94	0x3da42c00	0.08016205
95	0xbd92fa60	-0.071766615
96	0xbdae0961	-0.08497883
97	0x3d818095	0.06323353
98	0x3d2dc4f4	0.042424157
99	0x3da8f6d8	0.08250207
100	0x3dccacf4	0.09993926
101	0xbc678afe	-0.014132259
102	0xbaa87c67	-0.0012854458
103	0xbd957d28	-0.07299262
104	0xbdd97778	-0.1061849
105	0xbd719ec7	-0.058989312
106	0xbdd469e1	-0.10371757
107	0x3d76abd0	0.060222447
108	0xbc927a9e	-0.017880734
109	0x3daeeac3	0.08540871
110	0x3d58734a	0.052844323
111	0x3d8a378b	0.06748875
112	0x3da2193b	0.079149686
113	0xbcad5851	-0.021160277
114	0xbdb871c8	-0.09006077
115	0x3c83fa47	0.016110552
116	0xbd8a1b75	-0.06743518
117	0x3dde0570	0.10840881
118	0xbd63da8d	-0.05562835
119	0xbcf99765	-0.030467698
120	0xbdad4ee2	-0.08462311
121	0x3d0e772f	0.03478163
122	0x3c29c47e	0.010361789
123	0x3e504a5e	0.20340869
124	0x3e047dbd	0.1293859
125	0x3cbb462f	0.022860615
126	0x3d8d1cbb	0.068902455
127	0xbd904ba6	-0.07045679
128	0xbd4f7140	-0.050645113
129	0x3d9fd305	0.07803921
130	0x3dd24864	0.10267714
131	0x3def5f25	0.11688069
132	0x3e35423a	0.17701045
133	0x3d36fd89	0.044675384
134	0xbd9f18ad	-0.077683784
135	0x3ca121b9	0.0196694
136	0xbd4a218d	-0.049348403
137	0xbe0500e2	-0.12988618
138	0x3d93959e	0.072062716
139	0xbc69e0b3	-0.014274764
140	0xbccaaa0e	-0.024739292
141	0x3d403dfb	0.04693411
142	0x3e152f37	0.14568792
143	0x3e1af59d	0.15132757
144	0xbc7d7942	-0.015470805
145	0x3dd53c2a	0.10411866
146	0x3e30dc15	0.17271455
147	0x3d44468e	0.04791885
148	0x3cc73641	0.024317862
149	0xbddbfd99	-0.10741729
150	0xbba7f288	-0.0051253475
151	0xbe231d43	-0.15929131
152	0x3d1bce9d	0.03803884
153	0x3dccbd2e	0.09997021
154	0x3d3b4b06	0.045725845
155	0x3d4f7e21	0.050657395
156	0x3bddcb2b	0.0067686043
157	0xbdac9c2e	-0.084282264
158	0x3d4f496c	0.05060713
159	0xbdd21af5	-0.10259048
160	0x3bb6fe5c	0.005584521
161	0x3ca27180	0.019829512
162	0x3e351c54	0.17686588
163	0xbe04557b	-0.12923233
164	0xbdda00eb	-0.10644706
165	0xbdbd08a6	-0.09230165
166	0xbced84f8	-0.028994069
167	0xbd498443	-0.0491984
168	0xbd40c95c	-0.04706703
169	0xbe110c02	-0.14164737
170	0xbe224da0	-0.15849924
171	0xbd9ad93f	-0.07560968
172	0xbde78101	-0.113039024
173	0x3e475f96	0.19470057
174	0xbd89b92b	-0.06724771
175	0x3d02ba49	0.031915937
176	0x3c01d086	0.007923251
177	0xbb542601	-0.0032371285
178	0xbd62a332	-0.055331416
179	0xbd58f687	-0.05296948
180	0x3d55fd70	0.05224365
181	0xbd63e736	-0.05564042
182	0x3daf1767	0.085493855
183	0x3e118429	0.14210571
184	0xbdc6b1c7	-0.09701877
185	0x3d9659d3	0.07341351
186	0x3d9efcfc	0.07763097
187	0xbcdc4937	-0.02689038
188	0xbd909e23	-0.07061412
189	0x3e1ece49	0.15508379
190	0x3d9fd041	0.07803393
191	0xbc406aec	-0.011744242
192	0x3d9276df	0.07151579
193	0x3d4a0c81	0.04932833
194	0xbd0795d0	-0.033101857
195	0x3cc718b2	0.024303768
196	0xbdded584	-0.108805686
197	0xbdda0b34	-0.10646668
198	0x3d92ad8b	0.07162007
199	0xbdfb7049	-0.12277276
200	0xbda026e0	-0.07819915
201	0x3cefc186	0.029267084
202	0x3d3c7bd6	0.046016537
203	0x3d3841ac	0.044984505
204	0xbc128d1a	-0.008944774
205	0xbdb98f43	-0.09060528
206	0x3d20e61e	0.039281957
207	0x3d271376	0.040790044
208	0xbb40742b	-0.0029366117
209	0x3d832ba6	0.0640481
210	0xbde5fbd6	-0.112296745
211	0xbd8edf99	-0.069762416
212	0xbdf59d81	-0.11992932
213	0xbe12f2c3	-0.14350419
214	0x3d131066	0.03590431
215	0xbd8832c8	-0.06650311
216	0xbe41ee63	-0.18938594
217	0x3e1fac2f	0.15593027
218	0x3d0292ac	0.03187816
219	0xbc52489f	-0.012834697
220	0x3d093e7c	0.033506855
221	0xbc61dbab	-0.013785283
222	0xbda0c96f	-0.078509204
223	0xbd60aaad	-0.05485027
224	0xbdbd3191	-0.0923797
225	0xbb5ccdd7	-0.0033692026
226	0xbd9ab4ce	-0.07554017
227	0xbe2e2cd3	-0.17009287
228	0x3baacc7d	0.005212365
229	0xbd932c2b	-0.07186159
230	0xbdaa2478	-0.08307737
231	0x3d4a9f48	0.04946831
232	0x3d4ce14e	0.050019555
233	0x3e22afab	0.15887325
234	0x3d844a5b	0.06459495
235	0x3cbbeaed	0.02293917
236	0xbdcae21c	-0.09906408
237	0x3dfdd463	0.12394025
238	0xbdb6c9b2	-0.08925189
239	0xbe4ad568	-0.1980797
240	0xbc39d983	-0.011343363
241	0xbd29a21e	-0.041414373
242	0xbe0c1a38	-0.13681877
243	0xbe31e464	-0.1737228
244	0x3d8e2870	0.069413066
245	0xbdf5e6de	-0.12006925
246	0x3d9f25bc	0.07770869
247	0xbcd2df8b	-0.02574136
248	0xbc82e3d8	-0.015977785
249	0x3c8502c7	0.016236676
250	0x3c4f97aa	0.012670437
251	0xbd40a004	-0.047027603
252	0xbe02b4a4	-0.12764221
253	0x3d08f00d	0.033432055
254	0xbd0b1c3a	-0.033962466
255	0xbe2dc926	-0.16971263

a2c_network.actor_mlp.2.bias f4 [64]
0	0xbe18c3ef	-0.14918493
1	0xbe3c82c6	-0.18409261
2	0xbd6cfe12	-0.057859488
3	0x3d9033c8	0.070411265
4	0xbd447126	-0.04795947
5	0xbd614c81	-0.0550046
6	0xbe470079	-0.19433774
7	0xbd5a95ee	-0.05336564
8	0x3d35e2c0	0.0444057
9	0xbe08255c	-0.13295501
10	0xbe0dba8d	-0.13840695
11	0xbe285043	-0.16436867
12	0xbe0d3ed9	-0.13793506
13	0xbe72cce6	-0.23710975
14	0x3d8bb413	0.06821456
15	0x3d179d61	0.037015323
16	0x3e0071b6	0.12543377
17	0xbe07e8fc	-0.1327247
18	0xbe28bb13	-0.16477613
19	0xbd1b8d75	-0.0379767
20	0xbd5ee724	-0.05441965
21	0xbdf3b884	-0.11900428
22	0xbbc56d28	-0.0060249753
23	0xbe0143bf	-0.126235
24	0x3da450ae	0.08023201
25	0xbe2af196	-0.1669372
26	0xbca7910e	-0.02045491
27	0x3d05097c	0.032479748
28	0x3d4b16ab	0.049582165
29	0x3c8fb9c5	0.017544637
30	0xbcc3a77e	-0.023883577
31	0xbd63068a	-0.055426158
32	0xbe4db37f	-0.20088004
33	0xbda6ed5c	-0.081507415
34	0xbd17fbbe	-0.037105314
35	0xbe039ab6	-0.12851986
36	0x3e150af0	0.14554954
37	0xbca13a17	-0.01968102
38	0xbd77b754	-0.06047757
39	0xbe475b56	-0.19468436
40	0x3e11849d	0.14210744
41	0x3c58f318	0.013241552
42	0xbbaf453a	-0.0053488286
43	0xbca3fd4e	-0.020018246
44	0xbdd6e3d5	-0.10492674
45	0xbc7b862c	-0.015351813
46	0xbc563974	-0.013075221
47	0x3d304fc7	0.04304483
48	0x3c9d44e3	0.019197887
49	0x3daaa3c6	0.083320186
50	0x3dee23a6	0.11627893
51	0x3cced7af	0.02524933
52	0xbdbe956a	-0.09305842
53	0x3d3f469f	0.04669821
54	0x3d0ace15	0.03388794
55	0x3cec53cd	0.028848553
56	0xbd1ed4f1	-0.038777296
57	0xbddce25d	-0.10785363
58	0xbd3c3d37	-0.045956817
59	0xbdc8c21c	-0.098026484
60	0x3d9c05a3	0.076182626
61	0x3e23dd1d	0.16002317
62	0xbe8335fe	-0.2562713
63	0xbde00479	-0.10938353

a2c_network.actor_mlp.4.weight f4 [32, 64]
0	0x3d26ed0f	0.04075342
1	0x3d0ff051	0.035141293
2	0x3ceff53d	0.029291743
3	0x3c47b87e	0.012189982
4	0x3cf504a6	0.029909443
5	0xbc5b4673	-0.013383496
6	0x3d4aa40c	0.049472854
7	0xbc82435d	-0.015901262
8	0xbe3f3186	-0.18671235
9	0xbded32ed	-0.11581979
10	0x3d1c27f5	0.038124043
11	0x3ce8b7f2	0.028408024
12	0xbd482af4	-0.04886909
13	0xbd03f904	-0.0322199
14	0xbdf9c04b	-0.1219488
15	0x3d600075	0.054687936
16	0xbd8e47c0	-0.06947279
17	0x3d8e7cb3	0.06957378
18	0xbe3a6626	-0.18203029
19	0xbd8c1570	-0.068400264
20	0x3dbd9209	0.092563696
21	0x3bbdb986	0.0057899384
22	0x3c3471bf	0.011013447
23	0x3d2b53ab	0.04182784
24	0xbda34835	-0.07972757
25	0x3cc2854f	0.023745207
26	0xbb01a8da	-0.0019784481
27	0xbdd13d51	-0.10216773
28	0xbbc4fb6f	-0.0060114185
29	0xbde96586	-0.11396317
30	0xbd08bdac	-0.03338401
31	0xbdbc0a4c	-0.091816515
32	0x3d82bc08	0.0638352
33	0x3d92aaeb	0.07161506
34	0x3d43d9ad	0.047815014
35	0x3cb8a874	0.022541262
36	0x3be1c9bb	0.006890503
37	0xbdd5780c	-0.10423288
38	0x3d371bbd	0.044704188
39	0xbdd34143	-0.10315182
40	0xbddaecba	-0.10689683
41	0xbd9ca693	-0.07648959
42	0x3e0fde2d	0.14049597
43	0x3e22d95f	0.15903233
44	0xbd6da8a6	-0.058022164
45	0xbdb8a2fd	-0.090154625
46	0x3b057347	0.00203629
47	0x3da61327	0.08109122
48	0xbb806340	-0.0039180815
49	0xbde3097d	-0.11085794
50	0xbdf8a107	-0.121400885
51	0xbb18c597	-0.0023311132
52	0xbe0d99e3	-0.13828234
53	0xbe4d8736	-0.2007111
54	0xbcdbda03	-0.026837355
55	0xbe0e0d27	-0.13872205
56	0x3ce0bea5	0.027434656
57	0xbd3e6db6	-0.046491347
58	0x3bd92d70	0.006627731
59	0x3dc28bb8	0.094993055
60	0x3ba116f4	0.0049160663
61	0xbdf75d03	-0.120782875
62	0x3df0a1ad	0.11749587
63	0xbd251925	-0.040307183
64	0x3e05e877	0.1307696
65	0xbdae4e48	-0.08511025
66	0xbda220b9	-0.079163976
67	0xbdcfa82e	-0.101394996
68	0xbd30f218	-0.04319963
69	0x3d998451	0.074959405
70	0x3d8afa20	0.06785989
71	0x3e76c63c	0.24099058
72	0xbe6e5d4e	-0.2327778
73	0x3dcceda0	0.10006261
74	0x3c7217ab	0.014776151
75	0xbc7d8147	-0.015472717
76	0x3da280d5	0.07934729
77	0x3e1ee1d4	0.15515834
78	0xbe30637c	-0.1722545
79	0xbd2af395	-0.041736204
80	0xbe1ea5c3	-0.1549292
81	0xbd4eee3f	-0.050520178
82	0x3e3b4299	0.18287124
83	0x3e18235c	0.14857239
84	0x3bcfdf22	0.006343738
85	0x3d178819	0.036995027
86	0x3d5d6e0a	0.05406002
87	0x3d931db6	0.07183401
88	0xbd560d5a	-0.052258827
89	0xbd2cf40b	-0.042224925
90	0x3db4f944	0.08836606
91	0x3d86bbd5	0.06578795
92	0x3d2b11e9	0.041765127
93	0xbd525e5f	-0.05135953
94	0xbdda78c6	-0.10667567
95	0x3dfa653f	0.122263424
96	0x3cfcac2f	0.030843822
97	0x3d7c0258	0.061525673
98	0x3d18ccbf	0.037304636
99	0x3df3aeef	0.118986
100	0xbdb86785	-0.0900412
101	0xbd049116	-0.032364927
102	0xbda80fdc	-0.0820615
103	0x3e370ec5	0.17876728
104	0xbe6cb49f	-0.23115776
105	0x3c1452fc	0.009052988
106	0xbce625b3	-0.028094148
107	0xbc67a566	-0.014138555
108	0x3e11de2d	0.1424491
109	0x3da367ba	0.07978769
110	0xbd8de2ee	-0.06928049
111	0xbbd1a864	-0.0063982476
112	0x3cce00c6	0.025146853
113	0xbd84c690	-0.06483185
114	0xbe73ea7a	-0.23819914
115	0x3d45c065	0.048279185
116	0xbdd56e4d	-0.10421429
117	0xbdd820e9	-0.10553152
118	0x3b5c624d	0.0033627928
119	0x3e1ff8e4	0.15622288
120	0x3cdd1f3b	0.02699243
121	0xbe0b93a3	-0.13630538
122	0xbd027bac	-0.031856224
123	0x3c0ddb29	0.008658209
124	0xbca0fdde	-0.019652303
125	0x3baa0b94	0.0051893685
126	0x3e0d76fa	0.13814917
127	0xbdb50711	-0.088392384
128	0xbd2cdae4	-0.042200938
129	0xbe02e3ae	-0.12782165
130	0x3c4da25d	0.012550917
131	0x3de83060	0.11337352
132	0xbe6889d3	-0.22708826
133	0xbe8d8624	-0.27641404
134	0xbcd20d25	-0.025641033
135	0xbe0164a4	-0.12636048
136	0xbd9a261f	-0.07526802
137	0xbe12ac5e	-0.14323565
138	0x3dcb04cc	0.09913024
139	0x3da939d4	0.08262983
140	0xbd9c27d3	-0.07624783
141	0xbc9bb3fa	-0.019006718
142	0x3d09a974	0.03360887
143	0x3d9a17f9	0.07524104
144	0x3c882753	0.016620314
145	0xbdf9820f	-0.1218301
146	0xbd45d8cc	-0.048302457
147	0xbe14f556	-0.14546713
148	0x3e057fcc	0.13037032
149	0x3d533aa9	0.051569615
150	0xbe16e13e	-0.1473436
151	0x3e094858	0.13406503
152	0xbdf519da	-0.119678214
153	0x3dbd53f5	0.09244529
154	0xbe08a61c	-0.13344616
155	0xbd1332e1	-0.035937194
156	0xbd37c0f9	-0.044861767
157	0x3ded01ff	0.11572646
158	0xbd2a1e9d	-0.0415331
159	0x3dfb5b0f	0.122732274
160	0xbdc29616	-0.09501283
161	0x3dd9c5fb	0.10633465
162	0x3e591a03	0.21201329
163	0x3e6b9a53	0.23008089
164	0xbe38b307	-0.18037044
165	0xbd87b505	-0.066263236
166	0xbe360ce2	-0.17778352
167	0xbdf78781	-0.12086392
168	0x3c461521	0.012089998
169	0xbcc38ef4	-0.023871876
170	0xbda0ab21	-0.0784514
171	0x3d9ec484	0.07752326
172	0xbc8a50a6	-0.01688416
173	0xbc04b2b9	-0.008099251
174	0x3db55a20	0.088550806
175	0xbe35d2d7	-0.1775621
176	0x3c2c8400	0.010529518
177	0xbdc0d54d	-0.09415684
178	0xbd8565eb	-0.0651358
179	0xbd5e15a6	-0.054219864
180	0xbe83d56e	-0.2574877
181	0x3d805f30	0.062681556
182	0x3cad59b1	0.021160932
183	0x3c7ee24a	0.015556881
184	0x3eae824b	0.3408378
185	0x3d67fcd2	0.056637593
186	0xbe3b9348	-0.18317902
187	0xbddd9912	-0.108202115
188	0xbc52b45b	-0.012860383
189	0xbe420949	-0.18948855
190	0x3c47eced	0.012202484
191	0xbd1e20dc	-0.038605556
192	0xbe60a842	-0.21939185
193	0x3b14807b	0.0022659588
194	0xbe47b056	-0.1950086
195	0x3c23f737	0.010007671
196	0xbe8b97aa	-0.27264148
197	0x3d00811b	0.031373125
198	0xbe050157	-0.12988792
199	0xbde2904f	-0.11062681
200	0xbd33b9a6	-0.04387822
201	0xbcc93ef4	-0.024566151
202	0xbd9c8a3a	-0.07643552
203	0x3d05f870	0.03270763
204	0xbd6346c1	-0.055487398
205	0xbe19bfc9	-0.15014566
206	0x3d466c07	0.048442867
207	0xbd557018	-0.052108854
208	0xbe666755	-0.22500356
209	0xbd99b41c	-0.07505056
210	0xbbfc76be	-0.007704585
211	0xbdbd6f9a	-0.09249802
212	0xbdc4c596	-0.09607999
213	0xbe6c6959	-0.23087062
214	0x3d25384a	0.040336885
215	0x3ce8c6d5	0.028415123
216	0x3dec0b26	0.11525564
217	0x3d3c9dcb	0.04604892
218	0xbe18a160	-0.1490531
219	0x3da85ee8	0.08221227
220	0xbdc0e050	-0.09417784
221	0x3cd07239	0.02544509
222	0xbd01db85	-0.03170349
223	0xbc99709c	-0.018730454
224	0xbd8f55a9	-0.0699876
225	0xbd817447	-0.06321006
226	0x3c5e3df7	0.013564578
227	0x3d752e08	0.059858352
228	0xbcfdfbee	-0.031003918
229	0xbd192ebc	-0.037398085
230	0xbd5b7cce	-0.05358582
231	0xbe2daa4a	-0.16959491
232	0xbe54c1a3	-0.20776992
233	0x3dee0211	0.11621488
234	0xbd3af944	-0.045647874
235	0x3c29174e	0.010320498
236	0xbdf056fc	-0.11735341
237	0x3e123da0	0.1428132
238	0x3cff8948	0.03119339
239	0x3e21463a	0.15749446
240	0x3bb173d8	0.005415421
241	0x3d9f7480	0.077858925
242	0xbdbca391	-0.09210885
243	0xbcb8726b	-0.022515496
244	0xbd8dbd7e	-0.069209084
245	0x3e1922a3	0.14954619
246	0x3d9e5f55	0.07733027
247	0xbdcdccaf	-0.10048806
248	0x3e6b113b	0.22955792
249	0x3de93b10	0.113882184
250	0xbe3594f7	-0.17732607
251	0xbd0e8857	-0.034797993
252	0xbd468d42	-0.048474558
253	0x3b41ea5f	0.002958916
254	0xbe04f9b4	-0.12985879
255	0xbc11883a	-0.008882577

a2c_network.actor_mlp.4.bias f4 [32]
0	0xbd9a500b	-0.07534798
1	0xbda2ebcd	-0.07955132
2	0xbd32866c	-0.043585226
3	0xbdefb0b7	-0.117036276
4	0xbcc74d52	-0.024328861
5	0x3ccd070b	0.025027772
6	0x3cbf7e34	0.023375608
7	0xbd44154f	-0.047871884
8	0xbe3186a1	-0.17336513
9	0xbdea6fd1	-0.114471085
10	0xbd4858c8	-0.048912793
11	0xbc868b0e	-0.016423728
12	0xbdf58dd7	-0.119899444
13	0xbd4ae023	-0.04953016
14	0xbd0c8e98	-0.034315675
15	0xbd2d673e	-0.042334788
16	0xbd1be40c	-0.03805928
17	0xbd6691f0	-0.05629152
18	0xbccc8138	-0.02496396
19	0x3c53ace7	0.012919641
20	0xbd765c6c	-0.060146734
21	0xbda53818	-0.0806734
22	0xbdc1e4d7	-0.09467476
23	0xbc9fbb54	-0.019498505
24	0x3c45e06e	0.012077434
25	0xbda9768d	-0.08274565
26	0xbd7af86f	-0.06127208
27	0xbce3c5be	-0.027804252
28	0x3db29d9f	0.0872147
29	0x3cdc4e80	0.0268929
30	0xbbe19b6a	-0.006884982
31	0x3caa0887	0.02075602

a2c_network.value.weight f4 [1, 32]
0	0x3bd676a7	0.006544906
1	0x3dc7ae75	0.09750072
2	0x3d78caff	0.060740467
3	0xbcaf01b6	-0.02136312
4	0x3ce0775b	0.027400663
5	0x3d22d0d6	0.039749943
6	0x3bac0cbf	0.005250543
7	0x3d03404d	0.032043744
8	0xbc4be635	-0.012445022
9	0x3c9814b7	0.018564565
10	0x3d7ad6f5	0.061240155
11	0xbceeeacc	-0.029164694
12	0x3c977f94	0.018493451
13	0x3d43688e	0.047707133
14	0x3cb383fa	0.021913517
15	0x3bf11d6d	0.007358244
16	0xbc6807aa	-0.0141619835
17	0x3d3e9983	0.04653312
18	0xbc9f00cd	-0.019409562
19	0xbd37dc2e	-0.044887714
20	0xbc203de9	-0.0097803855
21	0x3c5b3dc3	0.013381424
22	0x3bf39cbb	0.007434455
23	0x3cb3a27c	0.021928065
24	0x3d125125	0.035721917
25	0x3d8c5822	0.068527475
26	0x3ca4f183	0.020134693
27	0xbdb11695	-0.08646885
28	0xbcdbfbcf	-0.02685347
29	0x3ce3a5e1	0.027789058
30	0x3cc0f857	0.023555918
31	0x3cda8b94	0.026677884

a2c_network.mu.weight f4 [7, 32]
0	0x3ddacb4a	0.106833056
1	0xbe0c871a	-0.13723412
2	0xbd38ef01	-0.045149807
3	0xbe34dfaa	-0.17663446
4	0xbe4043dd	-0.18775888
5	0xbe0755db	-0.13216345
6	0xbd89fa13	-0.06737151
7	0xbdd27920	-0.10277009
8	0x3d437b0d	0.047724772
9	0x3e0617d6	0.1309503
10	0xbd3d3323	-0.046191346
11	0x3dfcf95c	0.12352249
12	0x3d7cd437	0.06172582
13	0x3d2cad76	0.042157613
14	0xbad15c09	-0.0015972863
15	0xbcff79a4	-0.031185932
16	0x3dc69e47	0.09698158
17	0xbd8d77c0	-0.06907606
18	0xbeca2454	-0.3948084
19	0x3bcb3444	0.006201299
20	0x3df67a1a	0.12035008
21	0xbd9fad34	-0.07796708
22	0xbe3aac88	-0.18229878
23	0xbdfa1131	-0.1221031
24	0xbe817d29	-0.25290802
25	0x3d0508d6	0.03247913
26	0x3d1a3cd2	0.03765566
27	0xbd6ee339	-0.058322165
28	0x3b9fc22e	0.004875443
29	0x3df61fcb	0.12017783
30	0xbe069e82	-0.13146403
31	0xbd87a429	-0.06623108
32	0x3e4cf77e	0.20016286
33	0x3befdf6f	0.0073203365
34	0xbe4f63a8	-0.2025286
35	0xbddf4c9e	-0.109032854
36	0x3e532ee5	0.20623358
37	0x3c1d836e	0.009613855
38	0xbe116e16	-0.1420215
39	0xbe0b7c2f	-0.13621591
40	0xbe09e0d1	-0.13464667
41	0xbc9eba8c	-0.019376062
42	0xbdf39c79	-0.11895079
43	0x3e8da99f	0.27668473
44	0x3bb04912	0.0053798044
45	0x3e84fc64	0.2597381
46	0x3e1a49e1	0.15067245
47	0x3dd2a673	0.10285654
48	0x3dd44fbd	0.10366771
49	0xbe5143ee	-0.2043607
50	0xbe8645ef	-0.2622523
51	0x3e72427c	0.23658174
52	0xba061bbb	-0.00051158265
53	0xbde3b9ad	-0.11119399
54	0x3df6c047	0.12048393
55	0xbe22b34f	-0.15888713
56	0x3ce45425	0.027872154
57	0xbde7ca55	-0.11317889
58	0x3de45967	0.11149865
59	0x3e44b206	0.19208536
60	0x3d90c867	0.07069474
61	0x3e88c4f6	0.2671277
62	0x3e950c09	0.29110745
63	0x3c46a4f8	0.012124293
64	0xbdc7c90a	-0.09755142
65	0xbd9dcff4	-0.077056795
66	0xbe7b94b4	-0.24568444
67	0xbdd3547a	-0.10318847
68	0x3e1921ca	0.14954296
69	0xbde3dfff	-0.11126708
70	0x3dff20b5	0.1245741
71	0xbe7bab71	-0.24577118
72	0x3e2050da	0.15655842
73	0xbe91032b	-0.2832273
74	0x3d2b3d38	0.04180643
75	0x3e9b5843	0.30340776
76	0xbe5da260	-0.21643972
77	0x3dbe0439	0.09278149
78	0xbd6848a2	-0.056709893
79	0xbe83df3a	-0.25756246
80	0x3d8172ce	0.063207254
81	0xbdbb8354	-0.09155908
82	0x3bdb05a2	0.006684021
83	0xbd1af43d	-0.03783058
84	0xbd44b2f1	-0.048022214
85	0xbd9372a5	-0.07199601
86	0xbe55facb	-0.20896451
87	0x3e35daad	0.177592
88	0x3db35530	0.087564826
89	0xbe6cc845	-0.23123272
90	0xbd1876ac	-0.03722255
91	0x3e3c7e61	0.18407585
92	0x3e842050	0.25805902
93	0x3e53bfe2	0.20678666
94	0x3e15c493	0.14625768
95	0x3e5a5e41	0.21325018
96	0x3c81e0c7	0.015854253
97	0x3ca60456	0.02026574
98	0xbcc5a8fe	-0.024128433
99	0x3e71adc2	0.2360144
100	0x3dd8763e	0.10569428
101	0x3d5d387e	0.054008953
102	0xbd4113bf	-0.047137972
103	0xbdda4794	-0.10658184
104	0xbe3090bb	-0.1724271
105	0x3df81b11	0.121145375
106	0xbbffd431	-0.0078072776
107	0x3c0ce6d3	0.008599955
108	0x3d352dba	0.04423306
109	0x3dbc6bfc	0.09200284
110	0x3de4dcfd	0.11174963
111	0xbd84aa31	-0.06477774
112	0xbe90be69	-0.2827027
113	0x3c80c090	0.015716821
114	0xbb046953	-0.002020438
115	0xbe808e0f	-0.25108382
116	0x3cf14961	0.029453935
117	0xbe169737	-0.14706121
118	0x3d287ae1	0.04113281
119	0xbe697771	-0.2279947
120	0x3e1cffbd	0.15331931
121	0xbd52f871	-0.051506463
122	0x3c92c306	0.01791526
123	0x3e13fc1d	0.14451642
124	0xbd188106	-0.03723242
125	0x3d73da66	0.059534453
126	0x3e4b905d	0.19879289
127	0xbe0bcd40	-0.13652515
128	0xbe66298b	-0.22476785
129	0x3e4dbec1	0.20092298
130	0xbe2a4870	-0.16629195
131	0x3de15f92	0.11004557
132	0x3e8567e1	0.26055816
133	0xbca633ae	-0.020288315
134	0xbe111984	-0.1416989
135	0x3e6c0616	0.23049197
136	0xbcfd52a9	-0.030923204
137	0xbde78156	-0.11303966
138	0x3e69daf9	0.22837438
139	0x3e42957b	0.19002335
140	0xbdb6157f	-0.08890819
141	0x3de3d1db	0.11124011
142	0xbe2abe03	-0.16674046
143	0xbde86dcc	-0.11349067
144	0xbe1be79f	-0.15225075
145	0xbdf66387	-0.12030702
146	0x3e36a67a	0.17836943
147	0x3db1458a	0.08655842
148	0xbd17a2a0	-0.037020326
149	0xbb36892a	-0.0027852752
150	0xbd105afb	-0.035243016
151	0x3d01d7f2	0.031700082
152	0x3d36bb39	0.044612143
153	0xbbefcb73	-0.007317954
154	0xbe849f3d	-0.2590274
155	0xbc8b27ee	-0.016986813
156	0xbd963c6d	-0.07335744
157	0x3e226336	0.15858158
158	0x3ea3e19e	0.3200807
159	0x3e143ab1	0.14475514
160	0xbdaa4e99	-0.083157726
161	0xbe09ece8	-0.13469279
162	0x3e412cc3	0.18864731
163	0x3e55048e	0.20802519
164	0x3e855fa2	0.26049525
165	0xbe8f5f2a	-0.28002292
166	0x3e4617e7	0.19345056
167	0xbc49b30f	-0.012310757
168	0x3c569cdd	0.013098923
169	0xbe750528	-0.23927748
170	0xbdd4334f	-0.10361349
171	0x3ddc229b	0.10748788
172	0xbe37b8a9	-0.17941536
173	0xbc1e580b	-0.009664546
174	0xbe91e7af	-0.28497073
175	0xbe1c3209	-0.15253462
176	0xbd5b7971	-0.053582612
177	0x3e34988b	0.17636316
178	0xbc36aa1c	-0.011148956
179	0x3e647627	0.22310697
180	0xbd815e4e	-0.06316815
181	0x3de1d61f	0.110271685
182	0x3cbf08c3	0.023319608
183	0x3e2848cf	0.16434024
184	0x3e4e1193	0.20123892
185	0xbe84dd13	-0.25949916
186	0xbe73ad3f	-0.23796557
187	0x3e0bf703	0.13668446
188	0xbe11dc54	-0.14244205
189	0x3df31c33	0.11870613
190	0x3e60958d	0.21932049
191	0x3e653f7a	0.22387496
192	0x3e148173	0.14502506
193	0xbdf694c7	-0.12040096
194	0xbd45e32a	-0.048312344
195	0xbe645000	-0.22296143
196	0xbe5e84db	-0.21730368
197	0x3d745dec	0.059659883
198	0x3c9b4290	0.018952638
199	0x3e9769ce	0.2957291
200	0xbd9e6258	-0.07733601
201	0x3dc3b211	0.09555448
202	0x3d7632cc	0.060107037
203	0xbe357b4e	-0.17722818
204	0x3e235528	0.15950453
205	0xbe337985	-0.17526825
206	0x3dfab5f2	0.122417346
207	0xbb2f8856	-0.0026784143
208	0xbdf75f07	-0.12078672
209	0xbdec02ca	-0.115239695
210	0xbd6821c9	-0.056672845
211	0xbe617a88	-0.22019398
212	0x3eae98e0	0.3410101
213	0x3d9ad96d	0.07561002
214	0xbedc055b	-0.42972836
215	0xbe56ce13	-0.20977049
216	0xbe678e54	-0.22612888
217	0x3cccb979	0.024990784
218	0xbd9b9e84	-0.07598594
219	0xbd7a70f7	-0.061142888
220	0x3e6fe35e	0.23426577
221	0x3c41cf91	0.011829273
222	0xbe765873	-0.24057178
223	0xbe4b35ed	-0.1984479

a2c_network.mu.bias f4 [7]
0	0xbc012ccd	-0.0078842165
1	0xbd7fd5b9	-0.06245968
2	0x3e226866	0.15860137
3	0xbdb7280a	-0.08943184
4	0x3d88e5ee	0.066844806
5	0x3d747899	0.059685323
6	0x3e275fc8	0.16345131

exp_avg f4 [7]
0	0x3c57f640	0.013181269
1	0xbc000d8b	-0.007815729
2	0x3c8b8ed9	0.017035889
3	0x3c383fad	0.01124565
4	0x3c7a6a9c	0.015284207
5	0xbc057744	-0.008146111
6	0xbbebff8c	-0.0072020944

exp_avg_sq f4 [7]
0	0x39d5dfef	0.0004079337
1	0x39da1ccb	0.00041601653
2	0x399e7a2e	0.0003022714
3	0x39e10bff	0.00042924282
4	0x39b66e23	0.00034795803
5	0x39c9b5ce	0.00038473163
6	0x39cfb963	0.0003962024

exp_avg f4 [128, 18]
0	0x382bc95f	4.095712e-05
1	0xb93ceeab	-0.00018017988
2	0xba16dfab	-0.0005755375
3	0x3b3cbae0	0.002879791
4	0xbb0ae470	-0.0021193288
5	0x3aca7e83	0.001544908
6	0x3ac17edc	0.0014762538
7	0xb980cfda	-0.00024568924
8	0x3a3d97ba	0.0007232387
9	0xb9174498	-0.00014426035
10	0xba231805	-0.0006221536
11	0xba834859	-0.0010016068
12	0xb9dd9494	-0.00042263104
13	0x39d576a5	0.00040714923
14	0x3b2f6df0	0.0026768409
15	0xba80d8bd	-0.0009830218
16	0x3b7177ba	0.0036845044
17	0x3a057675	0.0005091199
18	0xba6c79c9	-0.0009020833
19	0xba0a0092	-0.0005264367
20	0x3a99c6ec	0.0011732257
21	0xbacd8d12	-0.0015682301
22	0x3a9be65f	0.0011894217
23	0xb9a02034	-0.0003054157
24	0x39e5f6d3	0.00043862182
25	0xbaa9b87d	-0.0012948659
26	0xbaab7389	-0.0013080697
27	0xb93328a9	-0.00017085917
28	0x3a2c95da	0.0006583609
29	0xba66d6dc	-0.000880582
30	0xb89f9740	-7.609883e-05
31	0xb97edb01	-0.00024304913
32	0xb8d735f5	-0.00010262049
33	0x3a0b9ddd	0.00053259527
34	0xbaa6eed2	-0.0012735969
35	0xb9f992e1	-0.00047602414
36	0xbae9032f	-0.0017777438
37	0xbacf3990	-0.0015810002
38	0x3b3931ab	0.0028258364
39	0xbb7a5965	-0.0038200256
40	0x3b14f1e9	0.0022727198
41	0xb8562a30	-5.1060866e-05
42	0x38e44cec	0.00010886215
43	0xba0279a5	-0.0004977233
44	0xbb4e775b	-0.0031504247
45	0x3884d914	6.3346844e-05
46	0x3b5dd3f3	0.0033848255
47	0x3946e6eb	0.00018968775
48	0x39c6c3fb	0.0003791152
49	0xbb0ffd04	-0.0021970877
50	0xbb0f2fb4	-0.0021848502
51	0x3aa99052	0.0012936688
52	0xbb8740b5	-0.0041275867
53	0xbb2c11b2	-0.0026255664
54	0xbaf6ec4c	-0.0018838733
55	0xbaa66fd5	-0.0012698123
56	0x3ad14391	0.0015965571
57	0x3b33480f	0.0027356183
58	0xba6511ce	-0.000873831
59	0x3b1f85ac	0.002434115
60	0x3ae45193	0.001741933
61	0xbb35cb7d	-0.0027739697
62	0xbab02bde	-0.0013440808
63	0xba2c489d	-0.00065720995
64	0x3a18b0c7	0.0005824682
65	0xbb2fa668	-0.0026802067
66	0xbae696b3	-0.0017592519
67	0x3a3b14a4	0.00071365596
68	0x3b6365e7	0.003469819
69	0xba15adec	-0.00057098153
70	0x3b668fb6	0.0035180873
71	0xba88722a	-0.001041
72	0xba257f46	-0.00063132157
73	0xb9a6da3b	-0.00031824582
74	0x3a76fe40	0.00094220415
75	0xba3cfb11	-0.00072090427
76	0x3a94821d	0.0011330281
77	0x377c553b	1.5040215e-05
78	0xba36f404	-0.000697911
79	0xbadc459d	-0.0016805414
80	0xba892de3	-0.0010465946
81	0xb801066d	-3.076198e-05
82	0x381b4e7b	3.702797e-05
83	0xb9c06298	-0.00036694552
84	0xb9b008d3	-0.0003357591
85	0x39e4033c	0.0004348996
86	0xba290cfc	-0.0006448773
87	0x39ab4d22	0.0003267313
88	0xba6827b6	-0.0008856015
89	0xba5468d1	-0.0008102777
90	0xbac7b22f	-0.0015235598
91	0xbabf83e1	-0.0014611447
92	0x3b34414d	0.0027504743
93	0x3bac611a	0.005260599
94	0xb8c8d285	-9.5759555e-05
95	0x3b825fc1	0.0039787
96	0xba5111eb	-0.0007975387
97	0xbb92efee	-0.0044841683
98	0xbaed3736	-0.0018098119
99	0x39fed04b	0.00048601846
100	0xba99295d	-0.0011685301
101	0xbb2a1642	-0.0025953208
102	0xbbc90430	-0.0061345324
103	0xb7bca61a	-2.2488694e-05
104	0x3b0bc835	0.002132905
105	0xba644de3	-0.0008709116
106	0x3bba7790	0.0056905225
107	0xbb3e467d	-0.0029033714
108	0x3b118d88	0.0022209603
109	0x3a2ec239	0.00066665147
110	0xba0db1a1	-0.0005405192
111	0x3b34e378	0.0027601402
112	0xb9f01ca5	-0.0004579771
113	0x3b080ae3	0.0020758442
114	0xbb185349	-0.0023243001
115	0x3ae53d4c	0.0017489581
116	0x3ac43807	0.0014970311
117	0x3a8db953	0.0010812677
118	0xbaff63c0	-0.0019484684
119	0x3abb31e5	0.0014281838
120	0xbaae22c4	-0.0013285507
121	0xbb0fbc48	-0.0021932293
122	0xba5affda	-0.0008354165
123	0xb95fdd11	-0.00021349291
124	0x3b15fc78	0.0022886079
125	0xba0197e6	-0.0004943594
126	0xb9528d5f	-0.00020079825
127	0xb8a9e57a	-8.101291e-05
128	0x3a7d6c02	0.00096672785
129	0xba87d152	-0.0010362065
130	0x3acc4247	0.0015583717
131	0xb8bbe101	-8.958765e-05
132	0xba8bdb34	-0.0010670186
133	0xba64af92	-0.0008723672
134	0xba6fc750	-0.00091468263
135	0x39a97a29	0.00032325208
136	0x37c4b1c9	2.3447808e-05
137	0x3905a1c9	0.00012744138
138	0xba8ea3b9	-0.0010882533
139	0xb9a54fef	-0.00031530808
140	0xbac412cb	-0.0014959214
141	0x3a1e651c	0.0006042288
142	0xba9b03aa	-0.0011826653
143	0xba25b7ec	-0.0006321657
144	0x3b402bbc	0.0029322943
145	0x3abeacc2	0.0014547335
146	0xbacdaa4d	-0.0015691012
147	0x3a954f61	0.0011391455
148	0xba0b2755	-0.000530829
149	0x3a4c48b3	0.00077928154
150	0xbb441c24	-0.0029924
151	0x3b31418c	0.0027047126
152	0x3b23c7d9	0.0024990945
153	0x3aad9e77	0.0013246079
154	0xbb49785b	-0.0030741903
155	0x3b58fcb1	0.00331096
156	0x3a91b7d9	0.0011117413
157	0xbb8281eb	-0.0039827726
158	0xbad57de5	-0.001628813
159	0x37ada0b7	2.0698046e-05
160	0x3a90a517	0.0011035529
161	0x394bf767	0.00019451753
162	0x3aed21a1	0.0018091687
163	0x3a996d1c	0.0011705491
164	0xba701c86	-0.0009159524
165	0x398c0cc0	0.0002671238
166	0x3a1dcca0	0.0006019566
167	0x383eac30	4.5459892e-05
168	0xbae45ad3	-0.0017422087
169	0x3ac71101	0.0015187563
170	0x3aa7af7c	0.0012793387
171	0x3a0fa8b9	0.0005480159
172	0xba47f1a1	-0.0007627253
173	0x3a8c5b2f	0.0010708327
174	0x3a138e4e	0.000562881
175	0xb9268fa9	-0.00015884511
176	0xbada31b9	-0.0016646899
177	0x39b7b1cc	0.0003503695
178	0xba204ce6	-0.00061149744
179	0x3a2531aa	0.0006301651
180	0xba8a7315	-0.0010562862
181	0xb9f11f39	-0.00045990365
182	0x3aae8ec3	0.0013317693
183	0xbb274a33	-0.0025526404
184	0x3b2b1bbb	0.0026109058
185	0xba838b3a	-0.0010036
186	0xbab4be07	-0.0013789543
187	0x3623dce9	2.441748e-06
188	0xbab36af3	-0.001368849
189	0xb9600739	-0.00021364995
190	0x3ad26a87	0.0016053476
191	0xb9fc9666	-0.0004817724
192	0xba85d673	-0.0010211006
193	0x39413aa7	0.00018427764
194	0xbb162e5b	-0.0022915814
195	0x3a58ff1c	0.00082777604
196	0xbb879259	-0.004137319
197	0xbab7e84b	-0.0014031021
198	0x3acac870	0.0015471112
199	0x3a33633d	0.0006843096
200	0xbb1275b6	-0.0022347993
201	0x3bb32440	0.005466968
202	0xbb520de3	-0.0032051734
203	0x3aba689b	0.0014221849
204	0x39e88e49	0.000443565
205	0x3a8d63fb	0.0010787243
206	0x3b2f3f6d	0.0026740686
207	0x37c12b5a	2.302758e-05
208	0xbb23a124	-0.0024967873
209	0xba4e5141	-0.0007870384
210	0xbb0fc1d9	-0.002193561
211	0x3ad891d5	0.0016522954
212	0x3b541325	0.0032360044
213	0xbaff4774	-0.0019476251
214	0x3bcaafdd	0.0061855153
215	0x3a9f57e2	0.0012156928
216	0x3a1abf09	0.00059031
217	0x39f7a881	0.00047237056
218	0xbb20007d	-0.0024414354
219	0x3b9be9a4	0.0047580767
220	0xbb7c9415	-0.0038540412
221	0x3ab61fd4	0.0013894984
222	0x3b1e5ade	0.0024163048
223	0x3b2108cd	0.0024571896
224	0x3b485477	0.0030567923
225	0xba7302d0	-0.00092701335
226	0xba9fcaf9	-0.0012191228
227	0xbaa03716	-0.0012223448
228	0xb9ef6236	-0.00045658805
229	0x3ad794bd	0.0016447526
230	0x3ba0cafd	0.0049070106
231	0xbaf1fccb	-0.0018462179
232	0x3baba27a	0.0052378746
233	0x3b184e0d	0.0023239881
234	0xbab27622	-0.0013615529
235	0xba404458	-0.0007334403
236	0x3b4a409f	0.003086127
237	0xbba627bf	-0.005070656
238	0x3b9c49c8	0.0047695376
239	0xbac3f869	-0.0014951351
240	0xbb24f0e8	-0.0025168005
241	0xbb661dbe	-0.0035112943
242	0xbb6c9c60	-0.003610395
243	0x3a31283b	0.0006758009
244	0x3a4cc9f0	0.00078120735
245	0x39c0585d	0.0003668693
246	0xbabb4e6b	-0.0014290338
247	0xba3dceb3	-0.00072405784
248	0xbb97e161	-0.0046350216
249	0x3af9a317	0.0019045797
250	0xbbb5a40e	-0.0055432385
251	0xbb0823b4	-0.0020773234
252	0xbb882ad5	-0.0041554966
253	0xbb0c973f	-0.0021452454
254	0x3b16d3a2	0.0023014327
255	0xbb31c1ec	-0.0027123643

exp_avg_sq f4 [128, 18]
0	0x37a44572	1.9582661e-05
1	0x37d0a912	2.4874262e-05
2	0x3754ab42	1.2676059e-05
3	0x379f2736	1.8972536e-05
4	0x3795b314	1.7845574e-05
5	0x37897215	1.6384796e-05
6	0x379ac2d0	1.8448947e-05
7	0x37ad3ee6	2.0652496e-05
8	0x379406eb	1.7646196e-05
9	0x37ad9d06	2.0696327e-05
10	0x3742cead	1.16114215e-05
11	0x37781127	1.47859455e-05
12	0x37582975	1.2884256e-05
13	0x3767f208	1.3825025e-05
14	0x37c92d33	2.3982115e-05
15	0x37b21224	2.1227701e-05
16	0x377d99b8	1.5115766e-05
17	0x37681c4f	1.3834869e-05
18	0x37841071	1.5743282e-05
19	0x378d46ad	1.684142e-05
20	0x3727edb0	1.0009317e-05
21	0x378503f2	1.5856673e-05
22	0x3734459e	1.0745045e-05
23	0x374c6298	1.2182303e-05
24	0x376f5f27	1.42676645e-05
25	0x3763029d	1.3530863e-05
26	0x379e1ca8	1.8848412e-05
27	0x3777fc24	1.4781053e-05
28	0x373d869a	1.1296617e-05
29	0x3772776b	1.4452128e-05
30	0x37600c59	1.3354315e-05
31	0x3758740f	1.2901625e-05
32	0x376ccaf1	1.4113947e-05
33	0x374332e8	1.1634758e-05
34	0x377c7f6c	1.5050038e-05
35	0x370a8d60	8.258357e-06
36	0x38357eb0	4.327175e-05
37	0x3840d2d2	4.597271e-05
38	0x37df2fc2	2.660591e-05
39	0x3827d6ec	4.0016064e-05
40	0x37f6d095	2.9422614e-05
41	0x380ccc5e	3.3568933e-05
42	0x3814ad4f	3.5447356e-05
43	0x383b796c	4.4697357e-05
44	0x3831177f	4.222197e-05
45	0x380f6cce	3.419519e-05
46	0x37eeb49c	2.8455914e-05
47	0x381d0850	3.743946e-05
48	0x3804477e	3.1537835e-05
49	0x380b988d	3.3282256e-05
50	0x383828d1	4.390703e-05
51	0x37f7736d	2.9498444e-05
52	0x382f9976	4.1866173e-05
53	0x37a00f7e	1.90807e-05
54	0x37906706	1.7214112e-05
55	0x37069470	8.021583e-06
56	0x3758545b	1.2894244e-05
57	0x3784537e	1.5774505e-05
58	0x37757b66	1.4631869e-05
59	0x37604eeb	1.3369815e-05
60	0x3741fedc	1.15630355e-05
61	0x379a87de	1.8421499e-05
62	0x37422af3	1.1573301e-05
63	0x3721f689	9.653749e-06
64	0x37655412	1.3669038e-05
65	0x3791b675	1.737031e-05
66	0x3768f4e3	1.3885295e-05
67	0x375b0bca	1.3056162e-05
68	0x3803d396	3.142989e-05
69	0x371d8f43	9.391285e-06
70	0x37b91c94	2.2067026e-05
71	0x3788ff1a	1.6331254e-05
72	0x367c3cc6	3.75863e-06
73	0x36351003	2.6980422e-06
74	0x363c58c5	2.8065854e-06
75	0x3657878a	3.211639e-06
76	0x363a9ccc	2.7807428e-06
77	0x364bcd24	3.0368765e-06
78	0x3633a6ad	2.6770097e-06
79	0x367e47ad	3.789067e-06
80	0x36591693	3.234866e-06
81	0x3655fa17	3.1885045e-06
82	0x3628263d	2.5056208e-06
83	0x36529c77	3.1383513e-06
84	0x3642978e	2.899647e-06
85	0x364f5d06	3.089955e-06
86	0x36aa9faa	5.084982e-06
87	0x362792c0	2.497036e-06
88	0x3660fba3	3.3525073e-06
89	0x3651108c	3.1153058e-06
90	0x383c3c67	4.4878947e-05
91	0x37a733cc	1.9932071e-05
92	0x37f91c3c	2.969626e-05
93	0x38883e6b	6.4966116e-05
94	0x3846b185	4.7372207e-05
95	0x3883842a	6.271184e-05
96	0x38640695	5.4365566e-05
97	0x3854a2b0	5.0696253e-05
98	0x37cb588b	2.4240717e-05
99	0x37e3d366	2.7158949e-05
100	0x3816cfae	3.5956204e-05
101	0x3873efba	5.8158977e-05
102	0x3822aa0b	3.8782175e-05
103	0x381c3210	3.7239923e-05
104	0x38dcaacd	0.000105222316
105	0x37c494e7	2.3434359e-05
106	0x38a3be21	7.80786e-05
107	0x380f4e7d	3.4166955e-05
108	0x37d7a16a	2.5705162e-05
109	0x3784dbd9	1.5838e-05
110	0x379af6b1	1.8473105e-05
111	0x37d682b2	2.5571648e-05
112	0x37caa3ff	2.4156643e-05
113	0x37e4fd0f	2.7297558e-05
114	0x37f1e14d	2.8834353e-05
115	0x37ec4b28	2.816839e-05
116	0x37790573	1.4842825e-05
117	0x379b9c5d	1.8550252e-05
118	0x379cd362	1.8695082e-05
119	0x37dad77b	2.6087966e-05
120	0x37b75eca	2.185944e-05
121	0x37aa9157	2.0333258e-05
122	0x3850ac1a	4.9751347e-05
123	0x377261f2	1.4447129e-05
124	0x3816953e	3.590178e-05
125	0x37c114e3	2.3017119e-05
126	0x3704d265	7.916799e-06
127	0x3702b960	7.791765e-06
128	0x36a657f7	4.957426e-06
129	0x36fe9fec	7.5884072e-06
130	0x36d3476f	6.296606e-06
131	0x36e712b1	6.8865124e-06
132	0x36c878e2	5.974537e-06
133	0x37130b9f	8.7645885e-06
134	0x371651b7	8.959722e-06
135	0x36ee8795	7.1087366e-06
136	0x36b673ca	5.4375023e-06
137	0x36dfed93	6.673575e-06
138	0x36de8f85	6.6328234e-06
139	0x36c51661	5.8736628e-06
140	0x37319a4b	1.0585946e-05
141	0x36c06f8b	5.735031e-06
142	0x371a1b41	9.185461e-06
143	0x36c3b583	5.8325836e-06
144	0x37e27f65	2.7000622e-05
145	0x376207f9	1.3472506e-05
146	0x3734c3a3	1.0774386e-05
147	0x3757c796	1.2861468e-05
148	0x3751b0e0	1.2498553e-05
149	0x37381a91	1.097344e-05
150	0x37848613	1.579806e-05
151	0x38042ace	3.1511117e-05
152	0x37694e24	1.3906076e-05
153	0x375b3e3f	1.306791e-05
154	0x37782535	1.4790615e-05
155	0x37825eb5	1.5541309e-05
156	0x376110f7	1.3414995e-05
157	0x3786bd30	1.6062142e-05
158	0x37bedd59	2.2752838e-05
159	0x372dcdec	1.03595485e-05
160	0x375cc914	1.3159839e-05
161	0x372711b3	9.958097e-06
162	0x36eeb257	7.113714e-06
163	0x36d6cf31	6.4018172e-06
164	0x3681b28b	3.8652847e-06
165	0x36c9a780	6.0097664e-06
166	0x3690dd8e	4.317327e-06
167	0x36a55eac	4.9284045e-06
168	0x36cb974f	6.067486e-06
169	0x369f2760	4.743153e-06
170	0x36c67993	5.915013e-06
171	0x369fdd29	4.7643157e-06
172	0x365ff5c9	3.3372655e-06
173	0x36a80676	5.0075423e-06
174	0x3695078f	4.441426e-06
175	0x368b92fb	4.1596336e-06
176	0x3701b4f3	7.73113e-06
177	0x36943bba	4.417697e-06
178	0x36b3a486	5.3537688e-06
179	0x36588ecb	3.2269625e-06
180	0x3782917a	1.556495e-05
181	0x374eb5a4	1.2320848e-05
182	0x36fed8e3	7.595039e-06
183	0x37565051	1.2774094e-05
184	0x37233115	9.726985e-06
185	0x3725093a	9.836915e-06
186	0x3754f5f8	1.2693454e-05
187	0x37901a8c	1.71785e-05
188	0x372ef901	1.0429184e-05
189	0x37286e62	1.0039281e-05
190	0x372d938a	1.0345955e-05
191	0x374a2517	1.2048774e-05
192	0x3723bd00	9.759562e-06
193	0x37262716	9.903471e-06
194	0x377bcf04	1.5008965e-05
195	0x37044317	7.883434e-06
196	0x3755af14	1.2736553e-05
197	0x37004bd5	7.647051e-06
198	0x37bd70ff	2.2583174e-05
199	0x380968a2	3.2760792e-05
200	0x3793d36b	1.7622215e-05
201	0x38051f3b	3.1738757e-05
202	0x37ac70ae	2.0556468e-05
203	0x37e98cab	2.7841268e-05
204	0x37d0b8e2	2.4881625e-05
205	0x37d22e17	2.5055413e-05
206	0x37bf4674	2.2801782e-05
207	0x37d8e971	2.5857911e-05
208	0x376a0ea1	1.3950893e-05
209	0x379d04ed	1.8718152e-05
210	0x3792ed49	1.751505e-05
211	0x3794ea71	1.7752145e-05
212	0x380e2b34	3.3895674e-05
213	0x37e96940	2.7824775e-05
214	0x380334ba	3.128194e-05
215	0x37312998	1.0559706e-05
216	0x3833ea11	4.2894917e-05
217	0x388a4e64	6.594954e-05
218	0x37e83b73	2.7684238e-05
219	0x383e4a08	4.5368477e-05
220	0x3813896e	3.5175522e-05
221	0x38209dfe	3.8294114e-05
222	0x3836500f	4.346674e-05
223	0x380fdde5	3.4300512e-05
224	0x384f6918	4.9450522e-05
225	0x38514b28	4.9899478e-05
226	0x37add9e5	2.0724672e-05
227	0x37f5727f	2.9259592e-05
228	0x37f09948	2.8681607e-05
229	0x38043e4b	3.1529267e-05
230	0x3842576e	4.633463e-05
231	0x384df157	4.9100574e-05
232	0x382c467c	4.107364e-05
233	0x37b341d0	2.136911e-05
234	0x380eb41c	3.4023178e-05
235	0x37ff9470	3.046749e-05
236	0x379eb5da	1.8919749e-05
237	0x37e0c4d6	2.679454e-05
238	0x37a3c74d	1.952392e-05
239	0x37a7e179	2.0012945e-05
240	0x37abf91d	2.0500791e-05
241	0x3812a965	3.4966873e-05
242	0x37d52697	2.5409548e-05
243	0x37c0f2c5	2.3001232e-05
244	0x37923f64	1.7434075e-05
245	0x37b47f1b	2.151686e-05
246	0x379c0e10	1.8603198e-05
247	0x37b92db2	2.2074997e-05
248	0x380f71eb	3.419995e-05
249	0x37a43a96	1.9577605e-05
250	0x37d9ccb0	2.596373e-05
251	0x3773cce1	1.4531631e-05
252	0x37902489	1.718315e-05
253	0x3723e090	9.767842e-06
254	0x36f426f0	7.2762996e-06
255	0x37650e84	1.3652843e-05
