runs/BallBalance_18-16-07-25/nn/BallBalance.pth (torch, 172255 bytes, 36 tensors)

value_mean_std.running_mean f8 [1]
0	0x3fc212faffc29932	0.14120423782623842

value_mean_std.running_var f8 [1]
0	0x3f7925e11cbc84ab	0.0061396401831938325

value_mean_std.count f8 []
0	0x4099040000000000	1601.0

running_mean_std.running_mean f8 [18]
0	0x3fcf623aab4e4d57	0.24518521656555478
1	0x3fb60713d891bce2	0.08604549443565504
2	0xbfcad414752379c4	-0.20959716529519146
3	0x3fd2b759af57403d	0.29244081614615763
4	0x3fbb3fa4465a209b	0.10643984525279608
5	0xbfb62cf610eb39d8	-0.0866235534005918
6	0xbfc1ab099ad8b06b	-0.13803215084897444
7	0x3fe2543420147456	0.572778761535697
8	0x3fde2692e65a2097	0.4711043595821222
9	0xbfc768b071c71c71	-0.18288236194186738
10	0x3fe5cf3987aba01e	0.6815459871113523
11	0x3fd44861a53bc3eb	0.3169178117378226
12	0xbfc01b98f056ee6c	-0.12584220633822285
13	0xbfd2fb569de1f521	-0.29659047525622567
14	0x3fbdcadb20eb39d7	0.11637658647234815
15	0x3fc12457f6bb4931	0.13392161891403867
16	0x3fbab8bdecdd29dc	0.1043814376145415
17	0x3fc18aece1517f85	0.13705216409561785

running_mean_std.running_var f8 [18]
0	0x3faaebad80ec258c	0.05257932852516509
1	0x3f944f491174dd58	0.0198336998848537
2	0x3fb8bb3654ac9cde	0.09660663192026983
3	0x3fbcfcccf136ff9e	0.11323243035349015
4	0x3f9f946f4fd83126	0.030839671371766596
5	0x3f970cb726500d41	0.022509443009778755
6	0x3f8ca3e602793991	0.013984486532675063
7	0x400007582113a297	2.0035860618703043
8	0x3fe2e448e62bb1fc	0.5903667922516997
9	0x4013ec47065153dc	4.9807396876467145
10	0x400ee7364e79bd21	3.8628965502645234
11	0x3fe6ba185640dbbf	0.7102166828761866
12	0x3ff12755c02eb100	1.0721032626270812
13	0x3ff26561984eccdd	1.1497512769245113
14	0x3f79e81a6e551f85	0.0063248665295033745
15	0x3f8161bfb36df920	0.008487222350364976
16	0x3fc48deaafed8ec7	0.16058095541222014
17	0x3fd47321c42b2601	0.31952709347805813

running_mean_std.count f8 []
0	0x4089080000000000	801.0

a2c_network.sigma f4 [7]
0	0xbd946d03	-0.07247355
1	0xbb7e1ae7	-0.003877336
2	0xbd7579f9	-0.059930775
3	0x3d8b6552	0.06806435
4	0xbd805aed	-0.06267343
5	0xbddb7b4f	-0.107168786
6	0xbdb3a535	-0.08771745

a2c_network.actor_mlp.0.weight f4 [128, 18]
0	0xbe291c6e	-0.16514751
1	0x3dc007c6	0.09376483
2	0xbd71048a	-0.05884222
3	0xbd007947	-0.03136566
4	0xbd469b7a	-0.048488118
5	0x3e0c34ac	0.13691968
6	0xbe09d1cc	-0.13458937
7	0xbd98517d	-0.07437418
8	0xbda4c3eb	-0.08045181
9	0xbe221bd4	-0.15830928
10	0x3da2678f	0.079299085
11	0xbe3aa6a1	-0.18227626
12	0x3db8cfb0	0.09023988
13	0xbe775f82	-0.24157527
14	0x3ee0be97	0.4389541
15	0x3e1d793d	0.1537828
16	0xbc206852	-0.009790497
17	0x3d777b14	0.06042011
18	0x3e033461	0.1281295
19	0x3e4cc5c4	0.19997317
20	0xbd291586	-0.041280292
21	0x3d2d025e	0.042238586
22	0x3d9647a4	0.07337883
23	0xbdd56dae	-0.1042131
24	0x3c82dc78	0.015974268
25	0x3e65211b	0.2237591
26	0x3c8b24af	0.016985266
27	0xbdba951b	-0.09110471
28	0x3e5def4d	0.21673317
29	0xbdb4fcca	-0.08837278
30	0x3e253701	0.16134264
31	0xbea03413	-0.3128973
32	0xbe8032e5	-0.2503883
33	0xbe33f112	-0.1757243
34	0xbd02ba17	-0.03191575
35	0x3e26df99	0.16296233
36	0x3dfc03d2	0.12305416
37	0x3ddc0740	0.1074357
38	0xbc3a5a7f	-0.011374115
39	0x3cba2f04	0.022727497
40	0x3e3e8ab8	0.18607605
41	0xbe64d0c1	-0.22345258
42	0x3d3feb30	0.04685515
43	0xbe3fc6aa	-0.18728128
44	0x3da5eb00	0.08101463
45	0xbdbd0f2c	-0.092314094
46	0x3e050372	0.12989596
47	0xbe1045b6	-0.14089093
48	0x3e1dbd92	0.15404347
49	0xbe74c443	-0.23902993
50	0xbe888c6e	-0.2666964
51	0xbe4ee629	-0.20204987
52	0x3e6f86da	0.23391286
53	0x3da60758	0.081068695
54	0x3e4af456	0.1981977
55	0xbe630af8	-0.22172153
56	0xbe7c9b24	-0.24668556
57	0xbe36286c	-0.17788857
58	0xbdd1bd3d	-0.102411725
59	0x3dd1c271	0.10242165
60	0x3dae8380	0.085211754
61	0x3e496d0e	0.19670507
62	0xbe5dd19c	-0.21661991
63	0xbe33a49a	-0.1754326
64	0x3e195032	0.14971998
65	0xbdd19a4e	-0.102345094
66	0x3dba3d03	0.09093668
67	0xbe3db140	-0.18524647
68	0x3df2e19f	0.1185944
69	0xbe8752de	-0.2643041
70	0xbd9702de	-0.07373594
71	0x3ac0c5e4	0.0014707414
72	0x3d923bce	0.07140313
73	0xbc60d9e9	-0.013723829
74	0x3e2a0351	0.16602828
75	0x3e2b91e4	0.16754872
76	0xbe02beda	-0.12768117
77	0xbe31cf5d	-0.17364259
78	0xbccf2da2	-0.025290314
79	0xbe06bad7	-0.13157211
80	0xbdbea57d	-0.09308908
81	0xbdc5eb9e	-0.09664081
82	0xbe502815	-0.2032779
83	0x3d915d9d	0.070979334
84	0xbdd3e66b	-0.10346683
85	0xbe4bcff2	-0.19903544
86	0x3e34bdd2	0.17650536
87	0x3c5962d2	0.0132681895
88	0xbdb65b75	-0.08904163
89	0xbe57ece6	-0.21086463
90	0xbe8efc84	-0.2792703
91	0xbe1f1da6	-0.15538654
92	0x3e882551	0.2659097
93	0x3d0f8f55	0.0350488
94	0x3d9d0ebe	0.076688275
95	0xbe7525c0	-0.23940182
96	0xbe213d94	-0.15746146
97	0xbda59d73	-0.08086672
98	0xbcf7318a	-0.03017499
99	0xbe4e6d67	-0.20158921
100	0xbde19216	-0.11014192
101	0xbd25d69d	-0.040487874
102	0xbd9c0357	-0.076178245
103	0xbd210ee8	-0.039320856
104	0x3e35d9ab	0.17758815
105	0xbdc8f3cf	-0.09812128
106	0xbe2357d5	-0.15951474
107	0xbe3574d4	-0.17720348
108	0xbe63d035	-0.22247393
109	0xbe44eff9	-0.19232167
110	0x3e4d4592	0.2004607
111	0xbe324be1	-0.17411758
112	0x3e8448a6	0.25836676
113	0x3c89f125	0.01683862
114	0xbe111496	-0.14168009
115	0x3e0f742d	0.14009161
116	0xbdc6b60f	-0.09702694
117	0xbe666ae7	-0.22501718
118	0xbe805d81	-0.25071338
119	0xbe06860e	-0.13137075
120	0x3d14b1f5	0.036302526
121	0xbe08875f	-0.1333289
122	0x3e40d54e	0.1883137
123	0xbe220bf1	-0.15824868
124	0x3b523879	0.0032077117
125	0xbe1f2ca2	-0.1554437
126	0xbd2a0c4d	-0.041515637
127	0x3de8b4f1	0.11362637
128	0x3e03ee56	0.12883887
129	0x3e59a91f	0.21255921
130	0x3e6b3cb0	0.22972369
131	0xbe487b1b	-0.19578211
132	0x3e16438f	0.14674209
133	0xbe314d08	-0.17314541
134	0x3d59740c	0.053089187
135	0xbe31d2d7	-0.17365585
136	0x3e351d8e	0.17687055
137	0xbe54bfcb	-0.20776288
138	0x3d8fa081	0.070130356
139	0x3dd15ec4	0.10223153
140	0x3e293dbf	0.1652746
141	0xbd7fa20e	-0.062410407
142	0x3e8607e7	0.26177904
143	0x3dde9268	0.108677685
144	0x3c8ae0af	0.01695284
145	0xbe12d112	-0.14337566
146	0x3dee3402	0.116310135
147	0xbd82f613	-0.06394591
148	0xbdc8ce69	-0.098049946
149	0x3e58570c	0.21126956
150	0x3e3cc556	0.18434653
151	0xbe361c17	-0.17784153
152	0xbd970fe2	-0.07376076
153	0xbc8138ad	-0.015774095
154	0x3d422bcb	0.047405045
155	0xbd71200a	-0.058868445
156	0xbe3b6aea	-0.18302503
157	0xbd77925f	-0.060442325
158	0xbd184d40	-0.037183046
159	0x3e7be472	0.24598864
160	0x3e36f8fc	0.17868418
161	0xbe34b64d	-0.17647667
162	0x3cf70401	0.030153276
163	0x3d3ab944	0.04558684
164	0x3dfe012e	0.12402569
165	0xbe3ce93b	-0.18448345
166	0x3e005608	0.12532818
167	0x3e31dae0	0.1736865
168	0x3cf87d04	0.03033305
169	0x3d894426	0.067024514
170	0xbd0ea496	-0.03482493
171	0xbd8bcccb	-0.068261705
172	0xbdc8ccb4	-0.09804669
173	0x3d15f3ae	0.036609344
174	0x3d86bb80	0.065787315
175	0x3e1cf1bf	0.15326594
176	0x3cf001e7	0.029297782
177	0xbd36046f	-0.044437822
178	0xbdca7d3f	-0.0988717
179	0xbbf74390	-0.007545896
180	0x3e675ea0	0.2259469
181	0x3db75098	0.08950919
182	0xbe7c8d00	-0.24663162
183	0xbd1f600c	-0.038909957
184	0x3e6ad679	0.22933377
185	0x3da91c0b	0.08257302
186	0xbe710824	-0.23538262
187	0xbe0413de	-0.12898204
188	0xbd7a029f	-0.061037656
189	0xbe1493df	-0.14509533
190	0xbdb4e8f9	-0.088334985
191	0xbb8860a5	-0.0041619116
192	0x3daae525	0.08344487
193	0x3dfe4af9	0.12416644
194	0xbe8b4f52	-0.27208954
195	0xbe662817	-0.2247623
196	0x3bb864e0	0.0056272596
197	0x3e4f3800	0.20236206
198	0x3c0f2f07	0.00873924
199	0x3c27a0f7	0.010231248
200	0x3d4a13a1	0.049335126
201	0xbda3bf27	-0.07995444
202	0xbe694b04	-0.22782522
203	0x3e0b77be	0.13619897
204	0xbdeab6fc	-0.11460683
205	0xbddb8a8a	-0.107197836
206	0xbe076f89	-0.13226141
207	0x3dd753d3	0.10514035
208	0x3df99f77	0.12188619
209	0x3ccca717	0.024982018
210	0xbe2cc598	-0.16872251
211	0xbe86fe10	-0.2636571
212	0xbe98f0d0	-0.29871225
213	0x3db89a03	0.090137504
214	0x3d82d03a	0.06387372
215	0x3e931cd6	0.28732938
216	0x3dbf195f	0.09331011
217	0x3dafe46a	0.085884884
218	0x3df41e68	0.11919862
219	0xbe0b7f2c	-0.13622731
220	0xbe3ed294	-0.18635017
221	0xbe6390f2	-0.22223261
222	0x3d163992	0.036675997
223	0xbe02cf01	-0.12774278
224	0xbd2fff54	-0.04296811
225	0xbdb883a0	-0.090094805
226	0xbdb80e97	-0.08987158
227	0xbdf522e1	-0.11969543
228	0xbe68221c	-0.22669262
229	0x3ce6eaa3	0.028188055
230	0x3e4c94fd	0.1997871
231	0x3ea04fda	0.31310922
232	0x3c52391b	0.012830998
233	0xbe729c0b	-0.23692338
234	0x3c9eec23	0.019399708
235	0xbe306e71	-0.1722963
236	0xbda53850	-0.080673814
237	0xbe0b4b62	-0.13602975
238	0x3e03ba42	0.1286402
239	0xbe207434	-0.15669328
240	0x3e403bbc	0.18772787
241	0x3e058974	0.13040715
242	0x3e053fdd	0.13012643
243	0xbe549186	-0.20758638
244	0x3e49601d	0.1966557
245	0xbe1f46e5	-0.15554388
246	0x3e0de388	0.13856328
247	0x3e591b2a	0.21201769
248	0xbcc5c3f5	-0.024141291
249	0x3c82e44f	0.015978007
250	0x3a87472e	0.0010320896
251	0xbe25b590	-0.16182542
252	0x3e477a85	0.19480331
253	0xbe9664f6	-0.29373902
254	0x3dfb0f3e	0.122587666
255	0x3e64ff53	0.22363023

a2c_network.actor_mlp.0.bias f4 [128]
0	0xbcda7c11	-0.026670488
1	0xbd0b81fc	-0.03405951
2	0xbb6dae97	-0.0036267394
3	0xbda6474d	-0.08119068
4	0x3cbd0f15	0.02307848
5	0xbd6658b8	-0.056236953
6	0xbdf8767a	-0.121319726
7	0x3c1d2689	0.009591707
8	0xbd2786c6	-0.040900014
9	0xba02ae60	-0.00049850903
10	0x3cc75e84	0.02433706
11	0x3d6be204	0.057588592
12	0x3d8f5126	0.069979
13	0x3d0689f7	0.032846417
14	0xbd258c28	-0.040416867
15	0x3dd1b95e	0.10240434
16	0xbd8ce72e	-0.068800315
17	0xbcd42ad0	-0.02589932
18	0xbdcf9999	-0.10136718
19	0x3c8dd2b5	0.017312387
20	0xbd411672	-0.047140546
21	0x3d4b57e1	0.049644355
22	0x3d8db0d0	0.0691849
23	0x3c92e29b	0.01793032
24	0xbde03983	-0.109484695
25	0xbdd46b01	-0.10371972
26	0xbc6c2f89	-0.01441563
27	0x3a7bb836	0.00096023397
28	0xbbc249ab	-0.005929192
29	0xbd4d9ca5	-0.050198216
30	0xbc770aa6	-0.015078222
31	0x3cbc9b6c	0.02302333
32	0xbd89edb5	-0.06734792
33	0xbcacf006	-0.021110546
34	0xbce446b7	-0.02786575
35	0xbddb70aa	-0.10714848
36	0x3cf70d04	0.030157574
37	0xbc75c4e5	-0.015000557
38	0xbd263ce9	-0.040585432
39	0x3d8484cc	0.064706415
40	0xbe045199	-0.12921752
41	0x3dd962bb	0.106145345
42	0x3d632c99	0.055462454
43	0xbc8a73a5	-0.016900847
44	0xbc883d7e	-0.016630884
45	0xbd8efae5	-0.06981448
46	0xbb8f2617	-0.0043685543
47	0xbcdf8141	-0.027283313
48	0xbd3a58b1	-0.04549474
49	0xbc1f29c9	-0.009714552
50	0x3d52c42e	0.051456623
51	0xbc2ce496	-0.010552546
52	0xbe1fad7c	-0.15593523
53	0xbe010896	-0.12600932
54	0xbd9b67a3	-0.075881265
55	0xbe075182	-0.13214687
56	0x3d705b7e	0.058681004
57	0xbbb9a0c5	-0.005664917
58	0x3cdaf71f	0.026729165
59	0xbd8440d8	-0.064576805
60	0xb9476fa4	-0.00019019708
61	0xbd82c49e	-0.06385158
62	0x3d032a1c	0.03202258
63	0xbcac515f	-0.021034895
64	0xbe0cad6e	-0.13738033
65	0x3d483906	0.048882507
66	0x3cda2dab	0.026633104
67	0xbc60545b	-0.013691987
68	0x3ca6a9f5	0.020344714
69	0xbdfca432	-0.12336005
70	0xbde7d204	-0.11319354
71	0xbc88b73d	-0.016688937
72	0x3dd496c7	0.10380321
73	0x3c691c93	0.014228004
74	0xbd322a02	-0.043497093
75	0xbd348e2f	-0.04408091
76	0xbd993905	-0.07481579
77	0xbb9bc97a	-0.0047542425
78	0xbd8eb1b6	-0.069674894
79	0x3c61de1e	0.013785867
80	0x3da2dad1	0.07951892
81	0x3afa4d52	0.001909653
82	0x3c321edf	0.010871618
83	0xbb7857ad	-0.0037894056
84	0x3d947cdb	0.07250377
85	0x3bf08cb4	0.007340992
86	0xbd1dd28b	-0.038530868
87	0xbd09adf2	-0.033613153
88	0x3b578c8b	0.0032890167
89	0x3bfaaae8	0.007649768
90	0xbd479a8d	-0.048731375
91	0xbb7a1ced	-0.0038164214
92	0x3c5c685d	0.0134526165
93	0xbd043d5d	-0.032285083
94	0xbd8191d3	-0.06326642
95	0x3c996a64	0.018727489
96	0xbccf73f2	-0.025323842
97	0xbdd9f2c1	-0.10642005
98	0xbd972858	-0.07380742
99	0x3ce72063	0.028213685
100	0xbd86d71c	-0.065839976
101	0xbe085e61	-0.13317253
102	0x3c1254cd	0.008931351
103	0xbc30ed7e	-0.01079881
104	0xbcd37daa	-0.025816757
105	0xbd660ed6	-0.056166492
106	0x3c95d2a4	0.018288918
107	0xbd0f0bdf	-0.03492343
108	0x3b8f0fb2	0.0043658847
109	0x3d447072	0.0479588
110	0x3d55a116	0.052155577
111	0x3d4f3d7f	0.050595757
112	0xbda23779	-0.07920737
113	0x3bb47469	0.0055070412
114	0x3d4d25b3	0.05008478
115	0x3d9485fb	0.07252117
116	0xbce02181	-0.027359726
117	0xbddc62ed	-0.10761056
118	0xbd67ea02	-0.05661965
119	0xbd7e80bc	-0.06213449
120	0xbce8e058	-0.028427288
121	0x3c50797f	0.012724279
122	0x3b4c9296	0.0031215302
123	0xbde2caad	-0.110738136
124	0x3d184f21	0.03718484
125	0x3c6f1ad8	0.014593802
126	0xbccb43c4	-0.024812587
127	0xbad650c4	-0.0016350974

a2c_network.actor_mlp.2.weight f4 [64, 128]
0	0x3dd5a241	0.10431338
1	0x3d903431	0.07041205
2	0x3adf6b34	0.0017045499
3	0x3cd9193d	0.026501292
4	0x3d5725f4	0.05252643
5	0x3c246f0e	0.010036243
6	0x3d0d537e	0.034503452
7	0xbc60dd90	-0.0137247
8	0x3dbe41bf	0.09289884
9	0xbe0860e4	-0.13318211
10	0x3cade3b5	0.021226743
11	0x3d84df3a	0.064878896
12	0x3e272d5d	0.16325898
13	0x3bf5683f	0.0074892337
14	0x3cc62a8e	0.024190214
15	0xbc56c841	-0.013109268
16	0x3d4ab603	0.049489986
17	0xbcefe728	-0.029285029
18	0x3e03233a	0.12806407
19	0xbd990f9b	-0.0747368
20	0x3cdc9b1f	0.026929436
21	0xbd35cb95	-0.044383604
22	0xbd08697a	-0.033303715
23	0x3cdf2b78	0.027242407
24	0xbd2a0495	-0.041508276
25	0xbdb7c18b	-0.08972462
26	0x3d849674	0.06474009
27	0x3de81cc0	0.113336086
28	0xbb9c12be	-0.0047629764
29	0xbdbf55bd	-0.09342525
30	0x3b6ff5f8	0.0036615115
31	0x38ab51a4	8.169122e-05
32	0x3e2a2bbc	0.16618246
33	0x3bfa5b89	0.0076403064
34	0xbe32b385	-0.17451294
35	0xbcc1b6ff	-0.02364683
36	0x3d0d4738	0.034491748
37	0xbb9bfb6b	-0.004760196
38	0xbdb34a4d	-0.08754406
39	0x3db71a66	0.08940582
40	0xbd800d6f	-0.06252562
41	0x3d6e47a9	0.05817381
42	0x3b966739	0.004589942
43	0x3bc0b67c	0.005881129
44	0x3a8d0172	0.0010757877
45	0xbd6747ed	-0.05646508
46	0xbd8ceda4	-0.06881264
47	0xbc991c5e	-0.018690284
48	0xbd7941b8	-0.06085369
49	0xbd6df97f	-0.058099266
50	0x3b9a42c3	0.0047076656
51	0xbd8c946f	-0.06864249
52	0xbd309d5d	-0.043118823
53	0x3cea5255	0.028603712
54	0xbde40912	-0.111345425
55	0xbd405b1c	-0.04696189
56	0xbd9a79fa	-0.075427964
57	0x3c5f6830	0.01363568
58	0xbb9064d2	-0.00440655
59	0x3d489d38	0.04897806
60	0x3cfe143f	0.031015513
61	0x3e058cb2	0.13041952
62	0x3d0aac94	0.03385599
63	0xbcc55658	-0.024089023
64	0x3e22e4e1	0.15907623
65	0x3d32ea99	0.04368076
66	0xbdb6531d	-0.08902571
67	0x3d557e16	0.052122198
68	0x3d552af2	0.05204291
69	0x3c9e9abd	0.019360894
70	0x3d0e0db3	0.034681033
71	0xbd1ee80b	-0.038795512
72	0xbe39354b	-0.18086736
73	0x3e0c401b	0.1369633
74	0x3b0197a1	0.0019774216
75	0x3da47203	0.080295585
76	0x3d8f4864	0.06996229
77	0x3cbcd5da	0.023051191
78	0x3e253a7b	0.1613559
79	0x3bf9f797	0.007628392
80	0x3d4b505e	0.04963719
81	0xbdfa041e	-0.122078165
82	0x3d377192	0.044786043
83	0xbd1da5a2	-0.038488038
84	0x3bf423b8	0.007450547
85	0xbc2d2d74	-0.010569919
86	0x3cc40a3f	0.023930667
87	0x3df2f1bb	0.11862513
88	0x3d27e2e8	0.04098788
89	0xbd9dfe03	-0.077144645
90	0x3dc0d5f2	0.09415807
91	0x3d474f4a	0.0486596
92	0xbd4322da	-0.04764066
93	0x3d3d3e62	0.04620207
94	0x3e0172d8	0.12641466
95	0xbd9132bb	-0.07089754
96	0xbe0f7a4e	-0.140115
97	0xbc4c42be	-0.012467084
98	0xbdada4f2	-0.084787264
99	0x3db5e52e	0.08881603
100	0x3d8bcd21	0.068262346
101	0xbc9ed1a1	-0.019387068
102	0x3dd17cda	0.10228892
103	0xbdad362b	-0.08457597
104	0x3da3fe33	0.08007469
105	0xbd09c109	-0.03363136
106	0xbd9d6d20	-0.076868296
107	0x3da964ee	0.08271204
108	0x3d18c534	0.037297443
109	0xbd8d494e	-0.068987474
110	0xbd4da97f	-0.050210472
111	0x3e4cbcb6	0.19993863
112	0x3d405875	0.04695936
113	0xbd552152	-0.05203373
114	0x3ca3530f	0.019937066
115	0xbd87ac38	-0.06624645
116	0xbce98ed6	-0.028510492
117	0x3db35405	0.0875626
118	0x3ca0d810	0.019634277
119	0x3d0d7e17	0.034544077
120	0x3cc081b6	0.023499351
121	0x3bd6db99	0.00655694
122	0xbd1adee4	-0.03781022
123	0x3d8409e5	0.064472
124	0x3d928bdb	0.071555816
125	0x3bf19d8f	0.007373519
126	0x3d587c4e	0.05285292
127	0xbcffb3c9	-0.031213658
128	0xbd34c4eb	-0.044133108
129	0x3c6e4642	0.014543118
130	0x3cee1505	0.029062757
131	0x3ca97104	0.020683773
132	0x3e117898	0.14206159
133	0xbd0e2fcb	-0.034713548
134	0x3b0c060b	0.0021365907
135	0xbd90c9f0	-0.070697665
136	0x3c6a1197	0.01428642
137	0xbdb35af3	-0.087575816
138	0x3d41a68d	0.047277976
139	0x3c86d4de	0.016458925
140	0xbd9e4c02	-0.07729341
141	0xbce86641	-0.028369071
142	0x3df30026	0.11865263
143	0x3d8929d6	0.06697433
144	0x3c89cf4a	0.016822476
145	0x3c6a5189	0.014301666
146	0x3dde618b	0.108584486
147	0x3d971988	0.073779166
148	0x3da6336d	0.081152774
149	0xbd8953b6	-0.0670542
150	0xbbb4f9cc	-0.005522942
151	0xbc96ef2a	-0.01842459
152	0x3da09ea7	0.078427605
153	0x3dc9f58b	0.09861287
154	0xbd234eb3	-0.039869975
155	0x3db11e61	0.086483724
156	0xbca43423	-0.020044392
157	0xbd81b91a	-0.063341334
158	0x3d0b75dc	0.034047946
159	0xbd31ddf8	-0.043424577
160	0x3d923b4f	0.071402185
161	0x3cdd2bfd	0.026998514
162	0x3dd61457	0.10453098
163	0xbe094e90	-0.13408875
164	0xbd2848dd	-0.041085113
165	0xbd52092d	-0.051278282
166	0x3d38e275	0.04513784
167	0xbd3cc27a	-0.046083905
168	0x3a813d45	0.0009860179
169	0xbe05b7a6	-0.13058338
170	0xbd41122a	-0.047136463
171	0x3a5be7f6	0.0008388752
172	0xbd9223cb	-0.07135733
173	0x3e0448c3	0.12918381
174	0xbd8c335d	-0.06845734
175	0xbb79aca7	-0.0038097294
176	0xbd33ba20	-0.043878675
177	0x3ccf8316	0.025331061
178	0x3d7460ff	0.059662815
179	0xbd7d612b	-0.061860245
180	0x3dc108f4	0.09425536
181	0xbdb4a095	-0.08819691
182	0x3b92d792	0.0044812644
183	0x3dfb9453	0.1228415
184	0xbd2d977a	-0.042380787
185	0xbc91f54c	-0.017817162
186	0x3d1f268e	0.038855128
187	0xbd4d2eff	-0.050093647
188	0x3c89ad99	0.01680641
189	0x3b78e30c	0.0037977127
190	0xbc01a398	-0.007912539
191	0xbc86a94a	-0.016438145
192	0x3d6af83d	0.057365645
193	0x3d45e47d	0.048313607
194	0xbd2ab0c6	-0.04167249
195	0xbd19b0d9	-0.03752217
196	0xbe1a7158	-0.150823
197	0xbdd1b4de	-0.10239576
198	0x3b263086	0.0025358512
199	0xbd82f9e8	-0.06395322
200	0xbd7f81f3	-0.06237979
201	0xbc803bbc	-0.015653484
202	0x3d725196	0.059159838
203	0xbdb1d781	-0.08683682
204	0xbd842290	-0.06451905
205	0xbd96bd4a	-0.07360323
206	0xbd258627	-0.04041114
207	0xbdafdc69	-0.08586962
208	0xbd1ae738	-0.037818164
209	0xbd7cea60	-0.061746955
210	0xbdca55d7	-0.09879654
211	0xbd97db2b	-0.0741485
212	0xbdf14dd2	-0.11782421
213	0xbde52b90	-0.111899495
214	0xb993d4b9	-0.00028196516
215	0xbd8f2425	-0.06989316
216	0xbd59404a	-0.053039826
217	0x3d11b6c5	0.035574693
218	0xbba3ef03	-0.0050028577
219	0xbd2cd023	-0.042190682
220	0xbceb2314	-0.02870325
221	0x3b91cbcf	0.0044493447
222	0xbe0ed501	-0.13948442
223	0xbdcffbd8	-0.10155457
224	0xbde64829	-0.11244232
225	0x3c9d8074	0.01922629
226	0x3c649e49	0.013953754
227	0xbe485e74	-0.19567281
228	0xba20fefa	-0.000614151
229	0xbd76d267	-0.06025925
230	0x3c80d689	0.015727298
231	0xbd394a75	-0.045237023
232	0xbd5073fa	-0.050891854
233	0x3d53d2e7	0.051714804
234	0xbc919d6e	-0.017775264
235	0x3d54946f	0.05189937
236	0xbddf1c5e	-0.108940825
237	0x3d969004	0.073516876
238	0x3a8159e8	0.0009868713
239	0xbd384288	-0.044985324
240	0x3d2e0075	0.042480905
241	0x3e00d4b6	0.12581143
242	0xbc079205	-0.00827456
243	0xbd79dad7	-0.060999718
244	0x3c322c0d	0.01087476
245	0x3d06d40c	0.032917067
246	0xbcd34c16	-0.025793117
247	0xbd6d14dd	-0.057881225
248	0xbcf905e8	-0.030398324
249	0xbd3b0cb6	-0.04566642
250	0x3c9b613e	0.018967267
251	0x3d01da9b	0.03170262
252	0xbd1d351b	-0.038380723
253	0x3c500a19	0.01269772
254	0x3a38b642	0.00070462015
255	0x3d641817	0.055687036

a2c_network.actor_mlp.2.bias f4 [64]
0	0xbd89e593	-0.06733241
1	0xbdd1f79d	-0.102523066
2	0x3d02fe40	0.031980753
3	0x3d756a2a	0.0599157
4	0xbe153721	-0.14571811
5	0xbc813ba4	-0.01577551
6	0xbd789318	-0.060687155
7	0x3cf7caf4	0.030248143
8	0xbc928fca	-0.01789083
9	0x3d312acb	0.0432537
10	0xbe1f6c62	-0.15568689
11	0xbd86843b	-0.0656819
12	0xbd6009f9	-0.05469701
13	0xbd466b31	-0.04844207
14	0x3d4e4779	0.05036113
15	0xbc0d505b	-0.008625115
16	0x3d2d3deb	0.042295378
17	0xbb6ee562	-0.003645264
18	0x3c3e9c70	0.011633977
19	0x3d4e6983	0.050393593
20	0x3b8bca56	0.0042660637
21	0xbc9eb518	-0.019373462
22	0x3d8dc821	0.06922937
23	0xbdc02a5b	-0.09383079
24	0x3d29decb	0.041472238
25	0xbdc267de	-0.09492467
26	0x3c152919	0.009104037
27	0xbc4ee4ce	-0.0126277935
28	0xbb259ed8	-0.002527168
29	0xbcd40a11	-0.025883706
30	0x3c109e04	0.008826736
31	0xbc25c895	-0.010118623
32	0xbd2b5094	-0.041824892
33	0xbd0605a1	-0.032720212
34	0xbd647ae5	-0.055781264
35	0xbd358f58	-0.044326156
36	0x3d02f5e6	0.03197279
37	0xbd369065	-0.0445713
38	0xbd0388ad	-0.032112766
39	0xbcc1c66d	-0.023654187
40	0x3d01783a	0.031608798
41	0xbd9a46f3	-0.07533064
42	0xbd2e8f12	-0.04261691
43	0x3c1e4534	0.009660054
44	0xbd33b966	-0.04387798
45	0xbc9ea02d	-0.019363487
46	0x3c45a0a9	0.01206223
47	0x3c534085	0.012893801
48	0xbcf955dd	-0.03043645
49	0xbca7a7e6	-0.020465802
50	0x3c8991d6	0.016793173
51	0x3d9881a3	0.07446601
52	0xbc4491f9	-0.011997693
53	0x3d3328a4	0.04373993
54	0x3d07040e	0.03296285
55	0x3d175d83	0.036954414
56	0xbbbcfd94	-0.0057675336
57	0xbdbcfe87	-0.09228235
58	0x3cffdb1d	0.031232411
59	0xbc5a5df4	-0.013328064
60	0xbbfde56d	-0.007748297
61	0x3dbdc230	0.09265554
62	0xbd774d86	-0.060376666
63	0xbc1debb2	-0.009638714

a2c_network.actor_mlp.4.weight f4 [32, 64]
0	0x3dbd81bf	0.09253263
1	0x3d9d8a05	0.07692341
2	0xbd1fa032	-0.038971134
3	0x3e0c6521	0.13710453
4	0x3d4180a4	0.047241822
5	0x3c09520b	0.008381377
6	0xbc08e445	-0.008355205
7	0x3d3beaea	0.04587833
8	0xbe017fbd	-0.12646385
9	0xbdde2892	-0.10847582
10	0x3d102d15	0.035199244
11	0x3dbfce7e	0.09365557
12	0x3d959e1e	0.07305549
13	0xbc1c5051	-0.009540633
14	0xbc317074	-0.010830034
15	0xbdbfbffa	-0.093627885
16	0xbce8193b	-0.028332343
17	0x3d99a352	0.07501854
18	0xbdfb2817	-0.12263506
19	0xbdb43b83	-0.088004135
20	0x3dc8ba11	0.09801114
21	0x3d896e78	0.06710523
22	0x3bfd3677	0.00772744
23	0x3bc56718	0.0060242526
24	0x3d8febf3	0.070274256
25	0xbe3c2656	-0.18373999
26	0xbd0e08f8	-0.034676522
27	0xbe150cb4	-0.14555627
28	0x3cf2ba4f	0.029629854
29	0xbdf85ae6	-0.121267125
30	0x3dc3e52d	0.09565196
31	0xbe317d1b	-0.1733288
32	0x3d9f7ff6	0.077880785
33	0x3c0b98c7	0.008520312
34	0x3d6c8bd3	0.057750534
35	0xbdec6fde	-0.115447745
36	0x3e358592	0.17726734
37	0xbddf0a37	-0.1089062
38	0x3dce8575	0.10084049
39	0xbdee6021	-0.11639429
40	0x3c5a5388	0.013325579
41	0x3bf690ac	0.0075245705
42	0x3e151c51	0.14561583
43	0x3d04c33c	0.032412753
44	0xbd7bcbcb	-0.06147365
45	0xbda66f3b	-0.08126684
46	0x3dceb8c2	0.100938335
47	0x3e44e895	0.19229348
48	0x3c6c8634	0.014436293
49	0x3d86c624	0.06580761
50	0xbd907af0	-0.070546985
51	0x3d4e575f	0.050376292
52	0xbddcb76f	-0.10777175
53	0xbdbb1b20	-0.09136033
54	0x3d6eb51a	0.05827818
55	0xbdf6aabd	-0.120442845
56	0xbd76c7d5	-0.06024917
57	0xbbe85adb	-0.007090909
58	0x3c408952	0.01175149
59	0x3d340e0c	0.04395871
60	0xbc88ddb5	-0.01670728
61	0xbd0d4766	-0.03449192
62	0x3e206dfa	0.15666953
63	0xbdf8f46b	-0.12155994
64	0x3da133ab	0.07871183
65	0xbd747a6d	-0.059687067
66	0xbded4868	-0.11586076
67	0xbdd70af3	-0.10500135
68	0x3cc442b7	0.023957593
69	0xbafc95e6	-0.0019270747
70	0xbb50917e	-0.0031825001
71	0x3dc680a7	0.09692507
72	0xbe02fad7	-0.12791
73	0x3b01b096	0.0019789091
74	0x3d5723d7	0.052524414
75	0xbd90c080	-0.070679665
76	0x3dde66ea	0.10859473
77	0xbcfd7ae1	-0.030942382
78	0xbdeb3e9f	-0.114865534
79	0xbd157520	-0.036488652
80	0xbda56d42	-0.0807748
81	0xbd8b1dea	-0.06792815
82	0x3d4467f0	0.047950685
83	0x3dc716f6	0.09721176
84	0xbd6f09bb	-0.05835889
85	0xbd6843ac	-0.056705162
86	0x3be37204	0.006941082
87	0xbc1af523	-0.009457859
88	0xbd9515fe	-0.07279585
89	0xbd74a6ea	-0.059729494
90	0x3da38688	0.07984644
91	0x3d871537	0.06595843
92	0x3dc34062	0.095337644
93	0x3b6d7e0c	0.003623846
94	0xbd9b53ef	-0.075843684
95	0x3dde7d8c	0.1086379
96	0xbd4c970d	-0.04994874
97	0x3b140125	0.002258369
98	0xbd52d5fe	-0.05147361
99	0x3d21c59d	0.0394951
100	0xbd469b9c	-0.048488244
101	0x3c121be9	0.008917787
102	0xbdbd818b	-0.09253224
103	0x3d8cb988	0.06871325
104	0xbd92efba	-0.071746305
105	0xbcf4f973	-0.029904103
106	0x3ca20f78	0.019782767
107	0x3c613019	0.0137443775
108	0x3d8810f6	0.0664386
109	0x3c9070a7	0.017631842
110	0xbe05c07a	-0.13061705
111	0xbd88d758	-0.066816986
112	0x3d2048c9	0.039131913
113	0xbd8a653b	-0.067575894
114	0xbdf11afa	-0.117727235
115	0xbdbe6c42	-0.09297992
116	0xbdc468d5	-0.095903076
117	0xbcf08761	-0.029361429
118	0xbd04227c	-0.03225945
119	0x3dbf4dde	0.09341024
120	0xbe09885e	-0.13430926
121	0xbda565c3	-0.0807605
122	0x3ccda533	0.025103187
123	0x3c3a6706	0.011377102
124	0x3dd36fe1	0.103240736
125	0xbb957099	-0.004560542
126	0xbd6fb074	-0.05851789
127	0xbdb56e0f	-0.08858883
128	0x3e0f7ce3	0.14012484
129	0xbce53d58	-0.027983353
130	0x3c86d023	0.01645667
131	0x3e0a780d	0.13522358
132	0xbe5356f8	-0.20638645
133	0xbe07cc06	-0.13261423
134	0xbdca52ab	-0.09879049
135	0x3ddd27b1	0.10798586
136	0x3d228439	0.03967688
137	0xbd808970	-0.06276214
138	0xbd8cf58f	-0.06882774
139	0x3e307138	0.1723069
140	0xbd1de825	-0.03855147
141	0xbca63e36	-0.020293336
142	0x3d717d8a	0.058957614
143	0xbb9c9b70	-0.004779272
144	0xbd572e2f	-0.05253428
145	0x3c44a9ba	0.012003357
146	0x3ca497b8	0.020091876
147	0xbe01fd0d	-0.12694187
148	0x3e4f63ac	0.20252866
149	0x3d8e236a	0.069403484
150	0xbe049ef4	-0.12951261
151	0x3dbfe75d	0.09370301
152	0xbd93ff85	-0.07226471
153	0x3da096bf	0.078412525
154	0xbcbc171b	-0.022960236
155	0x3cdbe67d	0.026843304
156	0xbd18c1df	-0.037294265
157	0x3e406eac	0.18792218
158	0xbd12b743	-0.035819303
159	0x3e15bc95	0.1462272
160	0x3db5abea	0.08870681
161	0x3e693b23	0.22776465
162	0x3d964652	0.07337631
163	0x3d9aa158	0.07550305
164	0xbdb19f3a	-0.08672948
165	0xbe050f3b	-0.12994091
166	0xbd9f1126	-0.07766943
167	0xbe1aaf7a	-0.15106001
168	0x3d791694	0.060812548
169	0x3df9db19	0.12199993
170	0x3d3455be	0.044027083
171	0xbcae3c8d	-0.021269107
172	0xbe67bdbd	-0.22630973
173	0x3d1df420	0.038562894
174	0x3d927225	0.071506776
175	0x3ce1c6aa	0.02756055
176	0xbd0d47de	-0.034492366
177	0xbc59e6fa	-0.013299698
178	0xbdb79a94	-0.0896503
179	0xbd9b79ac	-0.075915664
180	0xbc44245a	-0.0119715575
181	0x3d8fac3c	0.07015273
182	0x3cb2e8cb	0.02183952
183	0xbc574794	-0.013139624
184	0x3e39c17b	0.18140213
185	0x3e121f77	0.14269815
186	0xbe6838f4	-0.22677976
187	0xbe042d39	-0.12907876
188	0xbd846f63	-0.06466558
189	0xbdc7786c	-0.097397655
190	0x3e07966b	0.13240974
191	0xbbf7cf26	-0.007562536
192	0xbdcbe8cf	-0.09956514
193	0x3d83410c	0.06408891
194	0xbdf7d0a9	-0.12100346
195	0xbcd73530	-0.026270479
196	0xbe34a661	-0.17641594
197	0x3d07d7c0	0.03316474
198	0x3b92bfa5	0.004478412
199	0x3dcd11ca	0.100131586
200	0xbc067859	-0.008207404
201	0x3e094c36	0.13407978
202	0xbe482d3c	-0.19548506
203	0x3db55ace	0.0885521
204	0x3ceeba98	0.02914171
205	0xbd3350c9	-0.043778215
206	0x3d8d9946	0.06914
207	0x3c1288e3	0.008943769
208	0xbe0a506a	-0.13507238
209	0x3e58ba0e	0.21164724
210	0x3dd299d7	0.10283249
211	0xbb7670b3	-0.0037603795
212	0x3c974265	0.018464277
213	0xbe05380b	-0.1300966
214	0x3e156575	0.14589484
215	0x3be3f9f3	0.0069572865
216	0x3e2e798e	0.17038557
217	0xbb9a6a28	-0.004712362
218	0xbcb808ee	-0.022465196
219	0x3d8ad10e	0.06778155
220	0xbdcb1b15	-0.09917275
221	0x3d911096	0.07083242
222	0xbd0cf6a7	-0.034414914
223	0x3d6d5156	0.057938896
224	0x3d98ba6c	0.07457432
225	0x3e0ec138	0.13940895
226	0xbda1b477	-0.07895749
227	0x3bbe45d0	0.005806662
228	0x3d367b2f	0.04455107
229	0xbdfe21d9	-0.124088
230	0xbd897cdf	-0.067132704
231	0xbb94141b	-0.0045189983
232	0xbdbf029d	-0.0932667
233	0x3da50552	0.080576554
234	0x3e0d5bd7	0.13804565
235	0x3d3544e6	0.04425516
236	0xbe442da7	-0.1915804
237	0x3dda3942	0.10655452
238	0x3d49746c	0.049183294
239	0x3e4b069b	0.19826739
240	0xbcef249b	-0.02919226
241	0xba4d4a04	-0.00078311586
242	0xbc971129	-0.0184408
243	0xbd9be430	-0.07611883
244	0x3df69cc9	0.12041623
245	0x3e363883	0.17794995
246	0x3c79d49c	0.015248444
247	0xbd8b0ed3	-0.06789937
248	0x3d9c94b3	0.076455496
249	0x3d3fb19e	0.04680025
250	0xbe0129b7	-0.12613569
251	0x3d1eead6	0.038798176
252	0x3b84cead	0.004052958
253	0x3c1ca357	0.009560428
254	0x3df70080	0.12060642
255	0x3d5cdeaa	0.053923286

a2c_network.actor_mlp.4.bias f4 [32]
0	0xbcbb833c	-0.022889726
1	0x3d1666bb	0.036719065
2	0x3c2b4569	0.01045356
3	0x3b5c9044	0.0033655325
4	0xbd9c618c	-0.07635793
5	0x3d57e167	0.052705195
6	0x3d04850f	0.032353457
7	0x3c151900	0.009100199
8	0xbd2e743e	-0.042591326
9	0x3d5949eb	0.05304901
10	0x3d92479b	0.07142564
11	0xbd8d3f3f	-0.06896829
12	0xbcd02a30	-0.025410742
13	0x3d3c22b2	0.045931526
14	0xbd63585c	-0.055504188
15	0xbd85f49d	-0.06540797
16	0x3c94275b	0.018085172
17	0x3d0cb12b	0.034348648
18	0xbd1fcd95	-0.039014418
19	0xbddff91e	-0.10936187
20	0x3cf70bdc	0.030157022
21	0xbcaf9fc5	-0.021438489
22	0xbde28012	-0.11059584
23	0xbd6b101b	-0.057388406
24	0x3d1dfe70	0.03857273
25	0x3d1c8011	0.03820807
26	0xbda9f35f	-0.082983725
27	0xbd2f7b07	-0.042841937
28	0x3d6bac49	0.05753735
29	0x3cf3dc5d	0.029768163
30	0xbd87f018	-0.06637591
31	0xbc0925b7	-0.008370808

a2c_network.value.weight f4 [1, 32]
0	0xbc10cdec	-0.008838158
1	0x3d946649	0.07246072
2	0xbd0190c2	-0.031632192
3	0xbcc50e2e	-0.024054613
4	0xbd0404ec	-0.032231256
5	0x3cd6966b	0.026194772
6	0xbc771b69	-0.015082219
7	0xbc7488e0	-0.014925212
8	0xbc30343d	-0.010754642
9	0x3d1c1b34	0.03811188
10	0x3d555b62	0.052089103
11	0xbd23bc6d	-0.03997462
12	0x3be15282	0.006876291
13	0x3d1fed89	0.03904489
14	0xbc04672a	-0.008081237
15	0x3ada5e9d	0.0016660277
16	0x3dbae8c6	0.09126429
17	0xbb979ee5	-0.004627096
18	0xbc8f56f5	-0.017497519
19	0xbd1ba3f0	-0.03799814
20	0x3c982cd5	0.018576065
21	0x3c40f632	0.011777448
22	0x3c857f6a	0.016296107
23	0xbd47b968	-0.0487608
24	0xbcafef45	-0.021476397
25	0x3db839b5	0.08995382
26	0x3c6055dd	0.013692346
27	0xbdd8b2c0	-0.10580969
28	0x3d0aea26	0.033914708
29	0x3d25cb1e	0.04047691
30	0xbcdaa681	-0.026690723
31	0x3bcf8cea	0.006333937

a2c_network.mu.weight f4 [7, 32]
0	0xbd115e32	-0.035490222
1	0x3d3a1408	0.04542926
2	0xbd0dd54d	-0.034627248
3	0xbe11aab5	-0.14225276
4	0x3ca557ce	0.02018347
5	0xbd18bb6b	-0.03728811
6	0x3d506b63	0.050883662
7	0xbd8d887b	-0.06910797
8	0xbe0a9737	-0.13534246
9	0x3e4ac2a5	0.19800813
10	0x3db29942	0.08720638
11	0xbcac167b	-0.021006813
12	0x3d9d524e	0.07681714
13	0x3d20c203	0.039247524
14	0xbd871cd3	-0.06597295
15	0xbd145e8c	-0.03622298
16	0xbd973634	-0.07383385
17	0xbd98fa83	-0.07469656
18	0xbde9443f	-0.1138997
19	0xbe4d3940	-0.2004137
20	0x3e3dc1ff	0.18531035
21	0xbd2d25ad	-0.04227226
22	0xbc595b34	-0.013266373
23	0xbdd5828e	-0.10425292
24	0xbde1c67f	-0.11024188
25	0x3e2f17d4	0.17098933
26	0xbe46ed4a	-0.19426456
27	0xbe859e0f	-0.26097152
28	0xbe4376df	-0.19088314
29	0x3c103a60	0.00880298
30	0x3d166c1e	0.036724202
31	0x3d07a64f	0.03311759
32	0x3d5d9898	0.054100603
33	0x3d66eb87	0.05637696
34	0xbe2ce40c	-0.16883868
35	0xbd964db2	-0.07339038
36	0x3da42c74	0.08016291
37	0xbbbb1c98	-0.0057101957
38	0xbe53b1f8	-0.20673358
39	0xbe10fa26	-0.14157924
40	0xbdeeea74	-0.11665812
41	0xbdbe0682	-0.09278585
42	0xbe2184b8	-0.15773284
43	0x3e33181c	0.17489666
44	0xbd81522b	-0.063145004
45	0x3d6afebe	0.057371847
46	0x3d1991fa	0.03749273
47	0x3e0ace95	0.13555367
48	0x3d413f24	0.047179356
49	0xbe06be24	-0.1315847
50	0xbe2e71c5	-0.17035587
51	0x3e303390	0.1720717
52	0xbe1440fe	-0.14477918
53	0x3c62931f	0.013829022
54	0x3e5e79d3	0.2172616
55	0xbca652f5	-0.020303229
56	0xbd5c905d	-0.053848613
57	0xbdd73e64	-0.10509947
58	0x3d42b35d	0.047534335
59	0x3d3f67dc	0.046729907
60	0xbdd576d4	-0.10423055
61	0x3d848bca	0.06471975
62	0x3dd69f77	0.10479634
63	0xbcc8c1d2	-0.024506483
64	0xbc19400f	-0.009353652
65	0xbe00c361	-0.12574531
66	0xbdecfb83	-0.115714096
67	0xbe0f2899	-0.1398033
68	0xbc68e978	-0.01421582
69	0xbdb18bd0	-0.08669245
70	0x3e4e64fd	0.20155711
71	0xbe5f8c1d	-0.21830793
72	0x3d44d0cc	0.048050687
73	0xbec440a0	-0.38330555
74	0x3d0cd60d	0.034383822
75	0x3e33c50f	0.1755564
76	0xbe3e0d4c	-0.1855976
77	0xbd17597a	-0.036950566
78	0xbc1fcd08	-0.009753473
79	0xbd8b61e8	-0.068057835
80	0x3de99d02	0.114069
81	0xbda45a36	-0.08025019
82	0x3d9a55d7	0.07535904
83	0xbd8b80dd	-0.06811688
84	0xbe3c8092	-0.1840842
85	0xbd17dcd3	-0.03707583
86	0xbdf598e4	-0.11992052
87	0x3d199dd4	0.037504032
88	0x3d6103b8	0.054935187
89	0xbe9414fb	-0.28922257
90	0x3dbc7202	0.09201433
91	0x3dde9527	0.10868292
92	0x3e82e920	0.25568485
93	0x3d98bad4	0.0745751
94	0xbcdee4c5	-0.027208695
95	0x3dffa462	0.124825254
96	0x3e85de4c	0.26146162
97	0x3d4be4d5	0.049778778
98	0xbde565a5	-0.11201028
99	0x3d845cc0	0.06463003
100	0xbdac5ae1	-0.08415771
101	0x3e2f08da	0.1709322
102	0x3d84c3c1	0.064826496
103	0xbcaae2f3	-0.020860171
104	0xbe34e85e	-0.17666766
105	0x3e1659cd	0.14682694
106	0x3de41580	0.11136913
107	0x3dda03d4	0.106452614
108	0x3d66bd01	0.056332592
109	0x3e33d48e	0.17561552
110	0x3e45d924	0.19321114
111	0xbced6258	-0.028977558
112	0xbe33ed31	-0.1757095
113	0xbd4e6c95	-0.05039652
114	0xbe203ee9	-0.15648998
115	0xbde99de4	-0.11407068
116	0x3e1fbb72	0.15598848
117	0xbe5de919	-0.21670951
118	0xbdf0aae6	-0.11751346
119	0xbe6157f5	-0.22006209
120	0x3ddf0d85	0.108912505
121	0xbd0a232e	-0.033724956
122	0x3cf3dbb1	0.029767843
123	0x3e4aa8c0	0.19790936
124	0x3e3fa15e	0.187139
125	0x3e594a56	0.21219763
126	0x3deef688	0.11668116
127	0xbdddf47c	-0.10837647
128	0xbe6913b4	-0.22761422
129	0x3e80abed	0.2513117
130	0xbe0f6659	-0.14003886
131	0x3da7ed76	0.08199589
132	0x3e866507	0.26248953
133	0x3d975918	0.0739004
134	0xbd083559	-0.033254
135	0x3e4edff9	0.20202626
136	0xbe16cc2f	-0.14726327
137	0xbd7d89e4	-0.06189908
138	0x3e6ef95b	0.23337309
139	0xbcd8df02	-0.026473526
140	0xbd194259	-0.03741679
141	0x3e1edf8f	0.15514968
142	0xbd98eac4	-0.07466653
143	0xbd73eb1b	-0.059550386
144	0xbdae276e	-0.08503614
145	0xbe02ad6f	-0.12761472
146	0x3e6a8524	0.22902352
147	0xbdbffe67	-0.09374695
148	0xbdb1e699	-0.08686561
149	0x3da504bf	0.08057546
150	0x3e1eb7b0	0.15499759
151	0x3de59c95	0.11211506
152	0x3dff15a7	0.12455302
153	0xbd4841f5	-0.048891027
154	0xbe372158	-0.17883813
155	0xbe3faeda	-0.18719044
156	0xbe0a0110	-0.13476968
157	0x3d724cd3	0.059155297
158	0x3e801cd4	0.25021994
159	0x3e69038c	0.2275526
160	0x3e0349a4	0.1282106
161	0xbdcde04c	-0.10052547
162	0x3e3fe2f3	0.18738918
163	0x3dda0a8d	0.10646544
164	0xbc4b120a	-0.012394438
165	0xbe34451b	-0.17604487
166	0x3e3981d2	0.18115929
167	0x3dc2c94b	0.0951105
168	0xbd9a54ee	-0.0753573
169	0xbe402946	-0.18765745
170	0xbd699ba3	-0.057033192
171	0xbcbc548d	-0.022989536
172	0xbe3abc9c	-0.18236011
173	0xbe501bec	-0.20323151
174	0xbdd65082	-0.104645744
175	0x3bcb44b1	0.006203257
176	0xbe807e25	-0.2509624
177	0x3e1e04fa	0.15431586
178	0xbdbc00b5	-0.09179822
179	0x3e3c0c1d	0.18363996
180	0x3c81bea8	0.015837982
181	0xbcd97ea9	-0.026549654
182	0xbc7cf18d	-0.01543845
183	0x3e0d0538	0.13771522
184	0x3e28f38d	0.16499157
185	0xbe175197	-0.14777218
186	0xbbd6e117	-0.0065575945
187	0x3dd365c5	0.103221454
188	0xbd897b4d	-0.06712971
189	0xbcb5b934	-0.022183038
190	0xbde99d03	-0.11406901
191	0x3d36b684	0.044607654
192	0xbccbfa87	-0.024899734
193	0x3d41fb83	0.047359
194	0xbe14ae19	-0.14519538
195	0xbe238eb9	-0.15972413
196	0xbdba4333	-0.090948485
197	0x3d8c8e20	0.06863046
198	0xbe785b7e	-0.24253651
199	0x3d568285	0.052370567
200	0xbd97d30f	-0.07413303
201	0xbc72f4b8	-0.014828853
202	0x3c643951	0.013929681
203	0xbbccbe45	-0.006248268
204	0x3dde9ea7	0.10870104
205	0x3d46d9e5	0.048547644
206	0x3e50f6ad	0.204066
207	0x3d49e3c9	0.0492895
208	0x3b62375a	0.0034517855
209	0xbe5b3e20	-0.21410418
210	0xbc880b40	-0.016606927
211	0x3d634b6a	0.055491842
212	0xbcd0401d	-0.025421197
213	0x3d067699	0.032827947
214	0xbd545765	-0.05184116
215	0xbe817de9	-0.25291374
216	0xbe18d393	-0.14924459
217	0xbde0eb57	-0.109823875
218	0x3d803f8f	0.06262123
219	0x3e7d2d13	0.24724226
220	0x3e1c6cc1	0.15275861
221	0x3dc09705	0.09403805
222	0x3dae45f3	0.085094355
223	0xbe27f697	-0.1640266

a2c_network.mu.bias f4 [7]
0	0xbc25c5f7	-0.010117999
1	0xbe1c3634	-0.15255052
2	0xbabad5a5	-0.0014254345
3	0x3d47268e	0.048620753
4	0x3b8bb89b	0.00426395
5	0xbd5a7828	-0.053337246
6	0x3b1922e0	0.0023366734

exp_avg f4 [7]
0	0xbb50a287	-0.0031835155
1	0xbbc081e9	-0.0058748615
2	0x3a329612	0.00068125234
3	0xbac8ab88	-0.0015309909
4	0x3be87e6d	0.0070951493
5	0x3b34cb55	0.0027587016
6	0x3b958892	0.0045633996

exp_avg_sq f4 [7]
0	0x39c4aa75	0.00037511034
1	0x39f5029a	0.0004673198
2	0x39a18e41	0.000308143
3	0x39e1eeb4	0.00043093192
4	0x3a057bd2	0.0005091998
5	0x39e04dab	0.00042782477
6	0x3a4286ef	0.00074206194

exp_avg f4 [128, 18]
0	0x3a64cfbf	0.00087284663
1	0xb81883a2	-3.6362217e-05
2	0xba58f3e3	-0.0008276088
3	0x39801e9f	0.00024436877
4	0x38e029d3	0.00010688943
5	0xb9dfbbf9	-0.00042673925
6	0x3a801a8d	0.0009773538
7	0x3af5e547	0.0018760347
8	0x394a5223	0.0001929482
9	0xbaa918a5	-0.0012901021
10	0x3a10e988	0.0005527963
11	0x397b91ce	0.00023991542
12	0xba9bf9c6	-0.00119
13	0x397bfde3	0.00024031806
14	0xba9a205a	-0.0011758909
15	0xba8819a1	-0.0010383615
16	0x39843762	0.00025218265
17	0x3903f233	0.0001258336
18	0xbacce098	-0.0015630899
19	0xba35870f	-0.00069247273
20	0x3ad227c3	0.0016033578
21	0xb9d3f845	-0.0004043003
22	0xbac403a3	-0.0014954697
23	0x3a8ced39	0.001075185
24	0x398a0392	0.0002632407
25	0x3a3a45d2	0.0007105741
26	0x37ed8ff2	2.8319631e-05
27	0xb9c5e48b	-0.00037745046
28	0x3adf29e2	0.0017026032
29	0xba31693f	-0.0006767697
30	0xb9db5399	-0.0004183322
31	0x3af2d611	0.0018526932
32	0x395ff679	0.00021358755
33	0x3a4a4fbd	0.00077175704
34	0xb9b758fc	-0.00034970779
35	0xb9e0df64	-0.00042891048
36	0xbb12805a	-0.0022354336
37	0xbab7df0b	-0.0014028264
38	0x3a6f4e16	0.0009128762
39	0xba8e998f	-0.0010879504
40	0x3845edb2	4.718983e-05
41	0xba9f678b	-0.0012161596
42	0xbab852f6	-0.001406281
43	0xb9e6f8b1	-0.00044054308
44	0xbb049dcb	-0.0020235654
45	0xb9d0da27	-0.00039835388
46	0x3a953649	0.0011383976
47	0xb9dd81b0	-0.0004224903
48	0xba5469e9	-0.000810294
49	0x3b3d9c79	0.0028932376
50	0x39babb7a	0.00035616365
51	0xb957192a	-0.00020513372
52	0xb9e9ad23	-0.0004457022
53	0xba32ce63	-0.0006820915
54	0xba83cfb1	-0.0010056404
55	0xb95a5690	-0.00020822347
56	0x3b0ed137	0.0021792182
57	0x39b3d274	0.0003429834
58	0xbae735a2	-0.0017639885
59	0x3b3a670b	0.0028442766
60	0xb92ad3dd	-0.00016291389
61	0xba36509e	-0.0006954762
62	0x3a51b1f3	0.0007999234
63	0x3ac5c553	0.0015088714
64	0x3aa9cc98	0.001295465
65	0xbaf56538	-0.0018722182
66	0x3b132d6d	0.0022457496
67	0x3ac0b132	0.0014701246
68	0x3ab90ef7	0.001411884
69	0x3ae68e30	0.0017589983
70	0x399c1b73	0.0002977509
71	0xb9e46fb3	-0.0004357077
72	0x3a23dda7	0.00062509853
73	0xb8d99d80	-0.00010376703
74	0xba4380f2	-0.0007457874
75	0x39d0efb7	0.00039851453
76	0x3a155cbd	0.0005697718
77	0xba49df46	-0.0007700812
78	0x394d96fe	0.00019606572
79	0x3aa95f52	0.0012922084
80	0x39022a10	0.00012413436
81	0xba8f473c	-0.0010931264
82	0x3a09478e	0.0005236798
83	0x39ecc992	0.0004516361
84	0xba26d2cb	-0.0006363808
85	0xb9116549	-0.00013866009
86	0xba057cda	-0.00050921517
87	0xba726076	-0.0009245941
88	0x3a06a867	0.0005136788
89	0xb7baea97	-2.2282167e-05
90	0x3ab3b705	0.001371116
91	0x3a81e9cc	0.0009911596
92	0xb994a3b6	-0.00028350734
93	0x3a350057	0.00069046527
94	0xbaa6011a	-0.0012665123
95	0x3ac36b56	0.0014909308
96	0x3abbfb6c	0.0014341897
97	0x3a820518	0.0009919731
98	0x3ae382a4	0.001735766
99	0x39ab4f48	0.0003267473
100	0x399695bb	0.00028721787
101	0xbac95f82	-0.0015363547
102	0x3a27a38d	0.00063949154
103	0xb97473a0	-0.00023312727
104	0xba6e5242	-0.0009091237
105	0x3a235521	0.0006230642
106	0x39cff149	0.00039661888
107	0x39ef8626	0.0004568558
108	0x39e51d56	0.0004370014
109	0x3a51982e	0.0007995394
110	0x3a82c2f6	0.0009976316
111	0x3a14f7f6	0.0005682701
112	0xbb08d969	-0.002088154
113	0x3b32118e	0.0027171108
114	0x3a910ff6	0.0011067379
115	0x382b644a	4.086298e-05
116	0x3ae0dae2	0.0017155076
117	0x3abbbe17	0.0014323619
118	0x3a3eda83	0.00072804856
119	0xbb21ba13	-0.002467756
120	0x3ad743f8	0.0016423455
121	0x3a094696	0.00052366534
122	0x37a9ad29	2.0227004e-05
123	0x3adc145e	0.0016790738
124	0x3995df5d	0.00028585913
125	0x38fd8203	0.00012088197
126	0x39f7c945	0.0004726147
127	0xba42e485	-0.0007434565
128	0xbab58a24	-0.0013850373
129	0xb85c4113	-5.2512692e-05
130	0xb9a13b6b	-0.00030752583
131	0xbaee120c	-0.0018163337
132	0x3b202ede	0.0024441998
133	0x3b8ee48f	0.0043607424
134	0xb9536572	-0.0002016032
135	0xbb79b5f7	-0.0038102844
136	0x3b0ebf36	0.002178145
137	0x3a9cd52a	0.0011965383
138	0xbac527e0	-0.0015041791
139	0x3b2b3a38	0.002612723
140	0xbb4507aa	-0.0030064383
141	0xbb03e158	-0.002012333
142	0xb941bb51	-0.00018475695
143	0x39f8f5c9	0.0004748537
144	0x3a071a0e	0.0005153724
145	0xb904ef37	-0.00012677615
146	0xb8caa073	-9.6619966e-05
147	0x39979db4	0.00028918462
148	0x3a0fa82f	0.00054800784
149	0xb7de4827	-2.649806e-05
150	0x3a48462e	0.0007639852
151	0x3a57413f	0.00082113215
152	0x39a3af62	0.00031220453
153	0xba05ab0e	-0.00050990365
154	0x39d71378	0.000410225
155	0x399f70f5	0.00030411003
156	0xba3f4792	-0.00072967366
157	0xb98e464d	-0.0002713673
158	0x3947db5b	0.00019059835
159	0xba22814f	-0.0006199078
160	0x3a07e17d	0.00051834417
161	0xb959fb4b	-0.00020788347
162	0x3a412e83	0.00073692965
163	0x3a36dae9	0.0006975369
164	0x387073ba	5.7328238e-05
165	0x39be0bb5	0.00036248346
166	0xba3671a1	-0.0006959681
167	0x3a9b84ff	0.0011865197
168	0x3a1075fc	0.0005510745
169	0xb9dffe00	-0.0004272312
170	0x3a7edc58	0.0009722165
171	0x3a81f352	0.0009914434
172	0xba0c3082	-0.00053478044
173	0xba3c0b47	-0.00071733113
174	0x3a89e0ce	0.0010519268
175	0xba944cc1	-0.0011314378
176	0x38acf6d7	8.2475766e-05
177	0x3a4aad64	0.00077315257
178	0x38bea630	9.090861e-05
179	0x398be753	0.00026684496
180	0xba8202b7	-0.0009919022
181	0xb9f8dd3e	-0.00047467084
182	0xb9a35311	-0.00031151672
183	0xba61d2f2	-0.0008614502
184	0x39d7ed5d	0.00041184845
185	0xbb024688	-0.0019878466
186	0xba4ff6e0	-0.00079332106
187	0xb918733d	-0.00014538779
188	0xbaa7c103	-0.0012798611
189	0xba54e637	-0.0008121463
190	0x39232263	0.00015557701
191	0x39804296	0.00024463673
192	0xba82c1ae	-0.0009975934
193	0x3acc045d	0.0015565265
194	0xba02b210	-0.000498564
195	0xb98fc197	-0.0002741932
196	0xba0a2520	-0.0005269814
197	0xb998cad9	-0.00029142832
198	0xb990c5d3	-0.0002761321
199	0xb9e9dc90	-0.00044605555
200	0x391d0c99	0.0001497738
201	0x38648c81	5.449029e-05
202	0x3a17fcd8	0.00057978695
203	0xb9bf2e12	-0.00036464684
204	0xb9e40854	-0.00043493754
205	0x39d18652	0.00039963663
206	0xb9b01d03	-0.0003359095
207	0xba0b5425	-0.0005314968
208	0x39da95e3	0.00041691875
209	0x3a1a59e9	0.00058880314
210	0xba04bf1c	-0.0005063878
211	0xb7fc1835	-3.0052013e-05
212	0x39e9d8b7	0.00044602688
213	0xba206000	-0.0006117821
214	0x39943ea9	0.00028275445
215	0xb9abc76f	-0.0003276425
216	0x3abfb59e	0.001462627
217	0x39a0859c	0.00030617125
218	0xbae47f77	-0.0017433007
219	0x38f03452	0.00011453837
220	0x38c932dc	9.5939e-05
221	0xbaabc3f1	-0.001310466
222	0x3afb5b1d	0.0019176934
223	0x3b3cf0ae	0.002882998
224	0x39a0ccb9	0.00030670108
225	0xbb14887c	-0.002266436
226	0x39facecd	0.00047837794
227	0x3a06743f	0.00051290164
228	0xbae848c8	-0.0017721886
229	0x39bd3c03	0.000360936
230	0xbb239729	-0.0024961925
231	0xbab22615	-0.0013591672
232	0x386465b9	5.4454173e-05
233	0x3a00b0a9	0.0004909137
234	0xb97050ca	-0.0002291828
235	0xb89145e1	-6.927155e-05
236	0x3a5c5f5d	0.0008406544
237	0x38f9874d	0.00011898447
238	0xba3847dd	-0.00070297514
239	0x3a97491b	0.0011542173
240	0x39bdcef3	0.00036203078
241	0xb890486e	-6.879946e-05
242	0x3995efe2	0.0002859822
243	0x3a1c1aff	0.00059549505
244	0x3a15173f	0.0005687363
245	0xba1df6ab	-0.0006025831
246	0x3a88bfa1	0.0010433086
247	0x39a693dc	0.0003177215
248	0x3a040ac4	0.00050370046
249	0x39fc62d0	0.00048138807
250	0x3736737a	1.0874932e-05
251	0xb8eddcf3	-0.00011342196
252	0xba56a70a	-0.0008188343
253	0xba2fd968	-0.0006708116
254	0x39b5438f	0.00034573345
255	0xb883e74c	-6.289649e-05

exp_avg_sq f4 [128, 18]
0	0x36c6b2b5	5.921664e-06
1	0x372ce2fe	1.030485e-05
2	0x3701ef69	7.744741e-06
3	0x36f07d36	7.167134e-06
4	0x36b0c9f7	5.2687205e-06
5	0x37182d98	9.070522e-06
6	0x36c65fd2	5.912015e-06
7	0x378876f2	1.6267852e-05
8	0x37182479	9.068398e-06
9	0x376b1d32	1.4013889e-05
10	0x36d197c0	6.2463514e-06
11	0x3749ad12	1.202083e-05
12	0x3700d580	7.679104e-06
13	0x36ff972b	7.6171905e-06
14	0x371bc6d6	9.285015e-06
15	0x370d27e7	8.413545e-06
16	0x36c7fb8c	5.959946e-06
17	0x36e0609d	6.6869675e-06
18	0x36d389c6	6.304329e-06
19	0x36b83ce9	5.490718e-06
20	0x369f10e8	4.7405374e-06
21	0x36c35302	5.8211162e-06
22	0x36a55d53	4.9282476e-06
23	0x3698eb3c	4.557338e-06
24	0x3684c67e	3.957014e-06
25	0x37251912	9.8406035e-06
26	0x36b6dda3	5.4498246e-06
27	0x3712f897	8.7601575e-06
28	0x3726f9bd	9.952518e-06
29	0x3700a206	7.667119e-06
30	0x36f5b216	7.322301e-06
31	0x36ff2f65	7.6051097e-06
32	0x36385314	2.7466494e-06
33	0x36914ac8	4.3300424e-06
34	0x368b8f64	4.1592157e-06
35	0x368a36f8	4.1191197e-06
36	0x37150914	8.883206e-06
37	0x36d5f765	6.376695e-06
38	0x3743c4ff	1.16687725e-05
39	0x371ae235	9.231783e-06
40	0x3725738d	9.86167e-06
41	0x375faef4	1.333257e-05
42	0x373456ed	1.0749075e-05
43	0x3797e77c	1.8108396e-05
44	0x371228cf	8.71178e-06
45	0x375bea82	1.3108018e-05
46	0x370ec3a2	8.509409e-06
47	0x374d1899	1.2224679e-05
48	0x37261a2a	9.900463e-06
49	0x372cb3b2	1.02938375e-05
50	0x37920bb1	1.741e-05
51	0x36f972d3	7.4341456e-06
52	0x3727662b	9.9777635e-06
53	0x37305113	1.0509294e-05
54	0x36b9f950	5.5424534e-06
55	0x35fcb813	1.8829036e-06
56	0x368b6a4f	4.1548988e-06
57	0x36932db6	4.386263e-06
58	0x36909164	4.30846e-06
59	0x36882920	4.0579034e-06
60	0x368528d2	3.968461e-06
61	0x36b0e392	5.2717014e-06
62	0x36337c85	2.6745558e-06
63	0x36c57fc8	5.885933e-06
64	0x36a293bc	4.8451748e-06
65	0x36e877f6	6.928104e-06
66	0x36cc8253	6.0948455e-06
67	0x36b4998b	5.382293e-06
68	0x3650b10a	3.1097466e-06
69	0x3685a8f5	3.983378e-06
70	0x369ecd4d	4.732667e-06
71	0x368184ac	3.8599446e-06
72	0x36ae4d18	5.194579e-06
73	0x363425e2	2.684414e-06
74	0x36641013	3.3984004e-06
75	0x36977cb5	4.5146685e-06
76	0x364cd6ff	3.0523513e-06
77	0x365c5810	3.2833814e-06
78	0x365252cd	3.1340635e-06
79	0x3714f8cd	8.879416e-06
80	0x365f5e32	3.3284418e-06
81	0x36d86fe1	6.450326e-06
82	0x368d2c21	4.2072647e-06
83	0x36d0c9ef	6.222391e-06
84	0x3685f60a	3.9923516e-06
85	0x368d2e42	4.2075126e-06
86	0x368be7a4	4.1694893e-06
87	0x3672a768	3.6158253e-06
88	0x365176e1	3.1212624e-06
89	0x367d4cf3	3.7744728e-06
90	0x3731b360	1.0591786e-05
91	0x3713ee4c	8.817366e-06
92	0x376c5733	1.4086999e-05
93	0x375f8bf8	1.3324425e-05
94	0x37621cbd	1.3477341e-05
95	0x377198cc	1.4400295e-05
96	0x377f22be	1.52072735e-05
97	0x37e45150	2.7217582e-05
98	0x373880b8	1.0997224e-05
99	0x37b418c7	2.146921e-05
100	0x374b84cd	1.2130663e-05
101	0x37a79cb4	1.9980922e-05
102	0x375a6040	1.30162225e-05
103	0x374a8d01	1.2072968e-05
104	0x37b2c3ef	2.1310492e-05
105	0x37299963	1.0108898e-05
106	0x37452307	1.17502705e-05
107	0x3762f6b8	1.3528093e-05
108	0x36fd0d8f	7.541566e-06
109	0x371e6469	9.440912e-06
110	0x3719ddd8	9.171163e-06
111	0x36e94535	6.951998e-06
112	0x3712e76e	8.756162e-06
113	0x372b7733	1.02201475e-05
114	0x37202e8c	9.547581e-06
115	0x3796fd0b	1.7999226e-05
116	0x372dc2ff	1.0357005e-05
117	0x377ae4a7	1.49543985e-05
118	0x3711a6ec	8.681538e-06
119	0x3780edf6	1.5369598e-05
120	0x372a0fb6	1.0136448e-05
121	0x37124d03	8.720209e-06
122	0x37219c61	9.632758e-06
123	0x37021bfb	7.7551185e-06
124	0x3704614c	7.890467e-06
125	0x372c4f72	1.0270496e-05
126	0x3731fd19	1.0608951e-05
127	0x371b652e	9.262278e-06
128	0x3744264f	1.169143e-05
129	0x374b81c1	1.2129954e-05
130	0x3713e658	8.815514e-06
131	0x37379bdd	1.094394e-05
132	0x37073e8d	8.061191e-06
133	0x37938590	1.758596e-05
134	0x373e5846	1.1345435e-05
135	0x37a0cc7e	1.916871e-05
136	0x36fc06ff	7.5109997e-06
137	0x3779c46d	1.48872905e-05
138	0x372f640e	1.0454109e-05
139	0x372cce0f	1.0299976e-05
140	0x371938fc	9.132778e-06
141	0x370054d9	7.64915e-06
142	0x37291305	1.0077613e-05
143	0x372ac633	1.01789365e-05
144	0x360a8b4a	2.064468e-06
145	0x3669dbca	3.484764e-06
146	0x361d2d54	2.3421208e-06
147	0x3623337e	2.4318865e-06
148	0x3620574f	2.3892678e-06
149	0x361b00c5	2.3097248e-06
150	0x35ba656d	1.3887599e-06
151	0x369fa44d	4.7576964e-06
152	0x365ab34c	3.2588896e-06
153	0x3694e710	4.437643e-06
154	0x35f39bc6	1.8150247e-06
155	0x36568d73	3.197082e-06
156	0x361fba04	2.3801122e-06
157	0x36277926	2.4955457e-06
158	0x360f598e	2.1360788e-06
159	0x361a15aa	2.2960398e-06
160	0x361a9e69	2.3039995e-06
161	0x362d5ec8	2.5834179e-06
162	0x362c6fae	2.5695003e-06
163	0x3613d471	2.2028364e-06
164	0x36137c6b	2.1977128e-06
165	0x362a7bf9	2.5404136e-06
166	0x360b04a9	2.0715327e-06
167	0x361fda72	2.3819998e-06
168	0x35d6ec74	1.6013059e-06
169	0x369e2baf	4.7138524e-06
170	0x362dd3a8	2.590221e-06
171	0x3683782b	3.9180936e-06
172	0x360d2a88	2.1035394e-06
173	0x364bb282	3.0353262e-06
174	0x363deae9	2.829993e-06
175	0x362d82d2	2.5855156e-06
176	0x36507048	3.1059772e-06
177	0x3602512e	1.9418762e-06
178	0x3627fed1	2.5033262e-06
179	0x3604a50b	1.97656e-06
180	0x36a5eda4	4.945048e-06
181	0x37103ab2	8.596735e-06
182	0x36999cc8	4.578007e-06
183	0x36c9f989	6.0193165e-06
184	0x36ad6fd8	5.168822e-06
185	0x36cea9cd	6.159046e-06
186	0x3682d095	3.898584e-06
187	0x3757566b	1.2835119e-05
188	0x369a392b	4.596213e-06
189	0x37228f31	9.689292e-06
190	0x36abebb2	5.1236357e-06
191	0x3700b116	7.670626e-06
192	0x36c54ef7	5.8802502e-06
193	0x36ddadf8	6.606566e-06
194	0x36d9e650	6.493916e-06
195	0x36ce0426	6.1397614e-06
196	0x36b394f3	5.3519557e-06
197	0x36a87931	5.0208987e-06
198	0x35f754a0	1.8427563e-06
199	0x361cfb8b	2.3392229e-06
200	0x35e2f4cc	1.6909557e-06
201	0x360e9aee	2.124983e-06
202	0x359b1ebc	1.1557345e-06
203	0x35da8658	1.6281365e-06
204	0x360a852f	2.0641126e-06
205	0x36673f99	3.44587e-06
206	0x363e88ff	2.8391948e-06
207	0x365f5de4	3.328424e-06
208	0x36131b8e	2.1920746e-06
209	0x3636f8eb	2.7265003e-06
210	0x364268e2	2.8969303e-06
211	0x36008245	1.9149313e-06
212	0x35af64fd	1.3067908e-06
213	0x35d6f0a4	1.6014278e-06
214	0x35d8ac53	1.6143407e-06
215	0x35cbc269	1.5181259e-06
216	0x371ee7c1	9.471493e-06
217	0x3794875f	1.7706012e-05
218	0x374145ca	1.15199455e-05
219	0x3733648f	1.06926445e-05
220	0x3719cedc	9.167674e-06
221	0x375a062b	1.2995249e-05
222	0x373c0647	1.1207135e-05
223	0x37c0d7ad	2.2988615e-05
224	0x376d1307	1.4130731e-05
225	0x379b9bb2	1.8549941e-05
226	0x372bf7f8	1.0250129e-05
227	0x3789cf4d	1.6428205e-05
228	0x373454e9	1.0748606e-05
229	0x3747c6e2	1.190763e-05
230	0x378681b3	1.603444e-05
231	0x3769a085	1.3925256e-05
232	0x371195ea	8.677578e-06
233	0x371ce92f	9.352617e-06
234	0x36458650	2.9433468e-06
235	0x3647f84d	2.979784e-06
236	0x3663de1c	3.395492e-06
237	0x3648455d	2.9842697e-06
238	0x3618580b	2.2701013e-06
239	0x363af3c6	2.7858055e-06
240	0x36030979	1.9526035e-06
241	0x3699bdd5	4.5818547e-06
242	0x36871442	4.025672e-06
243	0x369dea0b	4.706211e-06
244	0x365e8ddd	3.3163153e-06
245	0x3683be46	3.926255e-06
246	0x36976aff	4.5126067e-06
247	0x366f6335	3.5671521e-06
248	0x360755ec	2.016658e-06
249	0x361aa02a	2.3041016e-06
250	0x3653bf3e	3.1552768e-06
251	0x36818cb3	3.860879e-06
252	0x35c9036b	1.4976662e-06
253	0x35657f6c	8.549457e-07
254	0x35e68f4a	1.7178038e-06
255	0x35dbc3be	1.637374e-06
