runs/BallBalance_11-15-44-18/nn/last_BallBalance_ep_100_rew_4.399007.pth (torch, 173619 bytes, 36 tensors)

value_mean_std.running_mean f8 [1]
00000000: 4f4f 074a 6e80 cc3f
0.2226693974940823

value_mean_std.running_var f8 [1]
00000000: 762c 990b 9591 8d3f
0.01443783227582272

value_mean_std.count f8 []
00000000: 0000 0000 2000 e940
51201.0

running_mean_std.running_mean f8 [18]
00000000: cbab e204 e2e9 c4bf c216 1caf dfc5 c63f
00000010: 56dc ea31 be6e bbbf 341d 98b4 4748 b9bf
00000020: 13b2 6c9a 2349 c23f fd55 6fc2 89e7 7f3f
00000030: a3ca d714 9f5d b1bf 80c0 cedc cf14 cdbf
00000040: 8ef6 b313 a5a4 e23f c93a 09f5 8615 d2bf
00000050: 3f1d 9424 aa22 a33f e168 0a2f 87f4 cd3f
00000060: f052 9b53 c768 bcbf fe4d 8dcd 6433 b9bf
00000070: f002 e05e 2cfa bb3f a5d9 ff2e ae1a bf3f
00000080: f15c b48b a976 cebf e2af 493f 13fd b2bf
-0.1633875392775209 0.1779136281040135 -0.10715855330168841 -0.09875915679014186 0.14285702743781367 0.007789171336261 -0.06783479937420593 -0.22719763070699983
0.5825982460807653 -0.2825639145784576 0.03737384506717455 0.23402490422160496 -0.11097379485302006 -0.09844045656546282 0.10928609195981287 0.1215008606667199
-0.2379962856436815 -0.07417412085641176

running_mean_std.running_var f8 [18]
00000000: 96cd 74bd ee1e c43f d5f8 d22d 41d8 b03f
00000010: b563 79fc 41f5 bc3f 7acf 6963 0dc0 c33f
00000020: 1839 948d 3397 ba3f a5ee 9c50 f577 823f
00000030: 824f 02fd be1a 7a3f 83ed 0102 c954 0140
00000040: e3fd 00c0 f52a e73f a3ae 89c9 6493 fd3f
00000050: c842 d385 b10a 0640 8aa1 5563 296d e63f
00000060: d54d 0a53 8b7e ed3f b1d3 7f19 ff94 f53f
00000070: 67de 08bd 9acc 783f 3dfc 064c f550 7a3f
00000080: b874 56a2 30b8 cc3f 0727 865c 3a2f d63f
0.15719398737710993 0.06579978340866728 0.11311733640594819 0.1542984710136997 0.10386964994924985 0.009017864725698497 0.006373163269149164 2.1663990170324623
0.7239941358638443 1.84848479009353 2.7552214102837276 0.7008253994109037 0.9216972944145093 1.3488760944430676 0.006054501006068947 0.006424863997778249
0.2243710320152894 0.3466325667910585

running_mean_std.count f8 []
00000000: 0000 0000 4000 d940
25601.0

a2c_network.sigma f4 [7]
00000000: 0244 7bbd 2cf3 abbc 6f2a 89be 314c 4fbe
00000010: e6c6 bbbd a277 cebd b888 10be
-0.061344154 -0.020989977 -0.26790187 -0.20243908 -0.09168796 -0.10081412 -0.14114654

a2c_network.actor_mlp.0.weight f4 [128, 18]
00000000: c3f8 19be e8a0 9a3d b93d e0bd 4b86 b03d
00000010: ebd1 d1bd 42c1 3e3e df28 febd 2783 eebd
00000020: dc09 f8bd d6a1 c5bd 0832 813d 8fdd fbbd
00000030: 1034 2f3e 88e2 46be 0e7f cf3e 848e 343d
00000040: 5a64 acbd bb8d ef3d 93b2 763d f8f1 463e
00000050: aeff beba 4d36 05be 50a3 6ebd cea9 85bc
00000060: 708f 9d3d e9ff 8f3e 4788 db3d 9426 cdbd
00000070: 0fb3 833b 45ca 62bd 4b48 a63c 39be a3bd
00000080: ca8d f8be 2457 33be 9eba 95be cb80 8d3e
00000090: 136a 6b3d ad92 213e 7abb d83d e03d 4dbd
000000a0: b958 263e 7815 40be 3431 b63d 16a8 1fbe
000000b0: ffac e23d f1ba 01be 7c4b 123d a955 09be
000000c0: ea39 513e 0fb3 cebd 5a79 70be 5a14 7bbe
000000d0: 054a b83e 8e23 963d 1839 933e c80e 48bd
000000e0: 7ab3 85be 78ee 83be 1049 e5bd f504 233e
000000f0: c8ba 863d fe91 863e f799 80bd 31c4 bfbd
00000100: 0e0a 883d 019b e5bd 7337 533d 62e9 17bd
00000110: eb5e 6abd c84b b7be f131 87be f6f3 b23d
00000120: 0dc4 003e 25e1 48be 83c3 423e fa06 313e
00000130: c079 1cbe b345 fcbd e1de 3b3e 719b 9cbd
00000140: 25a1 b1bd 8ef9 63be 7e85 03be 0861 3c3d
00000150: 32e9 5bbd 48f4 a2bd 0010 f83c 3159 8cbe
00000160: 3955 02be a4de 5cbe dadc fdbd 906d 76be
00000170: a920 8e3e 0b0b 613d a326 3f3e 7656 3ebe
00000180: efcf 28be 634f 9abd faea 203d 57ae 1abe
00000190: a51f e6bd da19 e6bd 6f8d 753c 3516 bcbd
000001a0: e78d fdbc a0df a5be acee 39be 1670 a0be
000001b0: fe08 0bbc 2448 89be 2b97 263e 55fe 25bd
000001c0: 0249 6b3e c363 833d 9fcd 25be 7f14 0d3e
000001d0: b0f5 70bd a149 0ebe d1a7 81be 2190 4fbe
000001e0: 2df8 3f3d f429 0cbd 5524 c63d 86fd c4be
000001f0: 9a02 923e 843d 33be 688c d9bd 5e70 923d
00000200: 1243 493e fc1a 653e 5004 683e 52b6 c7bd
00000210: b889 8f3d 2202 75be 629b c4bc a017 a6bd
00000220: a124 743e 4332 07be 3cfa 9c3d d9a1 593d
00000230: 87df ff3d 28b2 47be d072 a03e 9abe 133e
00000240: acb9 a33d 631a adbe e924 893d 4f5e b4bd
00000250: 59f7 20be a31d 3f3e d9e4 0739 9610 3cbe
00000260: b385 00be 3813 d1bd aebc 283e 993e 6abd
00000270: 2bfb e8bd 86d9 8abd 191a 8cbe 542a e83d
00000280: 5598 823e 4056 4dbe 2798 853d f804 033e
00000290: b4c1 f13d 7b33 abbc e70e 223e d281 aa3d
000002a0: c122 5c3e 6fb7 1dbd 5c03 efbd 9627 a43c
000002b0: e1db 7ebd 7825 b9bc a45b 733d 8d9e 2c3e
000002c0: d996 cd3d 165a 273d 574c 263e 5049 61bd
000002d0: 354e 8d3c 5cdb 143e d332 8dbe 4c99 c3bc
000002e0: 44c7 823e f388 453a b0a1 843d 665c 60be
000002f0: 958e 69be 7d77 b8be 4c98 bdbd 4920 303d
00000300: eada 9abb ea8c 4d3d 8315 81be 84a2 8fbe
00000310: 332a 273d 80a1 7a3e 293c 6abb fb4a c1bd
00000320: b2c9 dc3d dd37 66be ad9d 9abe 1329 573d
00000330: 05fd a7bd 3edf 22be d5fb 45be db85 133e
00000340: 5488 8d3d 3ff1 713b 3582 f2bd 1f08 2ebe
00000350: 1c9c cabe 177a 9d3e 2c18 1a3d d35e b23e
00000360: 8438 503e cb06 ba3c 6fb1 883c 5b31 09be
00000370: 479c 8cbe 2041 85be 2227 913c 22e2 82bd
00000380: ceeb 97bd c379 f6bd ca41 b5bd 095b 36be
00000390: 3c55 0abe bec3 ab3d c0ac 89bd 13c9 7c3e
000003a0: 41ff fdbc f72b 77be 1540 5fbc f33c 37be
000003b0: 4088 56bd 1dea 7cbe 2130 083e 4c3d 4ebe
000003c0: 028f fb3b d2ef 133e d81e 613e 76e2 3dbe
000003d0: 9fd9 fc3d 3bc1 2abe 447a 103e 8682 6d3e
000003e0: 9a42 0ebe 49aa 12be 33c1 803c 149b 8fbe
000003f0: 7465 e43d 07f7 8ebe d403 9f3d 24a8 f43d
-0.15036301 0.07550222 -0.10949273 0.08619364 -0.10245117 0.1862841 -0.12410139 -0.11646109
-0.121112555 -0.096500084 0.06308371 -0.12298118 0.17109704 -0.19422352 0.40526623 0.044081226
-0.08417578 0.11696955 0.060228895 0.19428241 -0.0014572048 -0.13008995 -0.058261216 -0.01631632
0.07693374 0.2812493 0.10719352 -0.10017124 0.004019148 -0.05536868 0.020298144 -0.079952665
-0.48545676 -0.1751371 -0.2924394 0.27637324 0.057474207 0.15778609 0.10582633 -0.050107837
0.16244783 -0.1875819 0.088961035 -0.15591463 0.11068153 -0.12668969 0.03571652 -0.13411583
0.20432249 -0.100927465 -0.23483792 -0.24519482 0.35993972 0.07331 0.28754497 -0.04884222
-0.26113492 -0.25767875 -0.11195576 0.1591986 0.065785944 0.26283258 -0.062793665 -0.093635924
0.06642543 -0.11211205 0.051566552 -0.037087806 -0.057219427 -0.35800004 -0.2640529 0.08737938
0.12574787 -0.19617136 0.19019894 0.17287818 -0.15280819 -0.123179816 0.1834674 -0.076468356
-0.08673314 -0.22263166 -0.12843892 0.045990974 -0.05368919 -0.07956749 0.030281067 -0.27411798
-0.12727822 -0.21569306 -0.1239564 -0.24065232 0.27759293 0.054942172 0.18667082 -0.1858767
-0.1648557 -0.07534673 0.03928659 -0.15105568 -0.112365045 -0.112353995 0.014987334 -0.09183923
-0.030951453 -0.32397175 -0.18157452 -0.31335515 -0.008486031 -0.2681285 0.16268604 -0.040525753
0.22977069 0.064155124 -0.1619172 0.1377735 -0.058828056 -0.13895275 -0.25323346 -0.20269825
0.04686754 -0.034219697 0.096748985 -0.38474673 0.2851761 -0.17503935 -0.106224835 0.071503386
0.19654492 0.22373575 0.22657895 -0.09751572 0.0700869 -0.23926595 -0.023999874 -0.08109975
0.23842098 -0.13202767 0.07664916 0.053132866 0.12493806 -0.19501555 0.31337595 0.14428177
0.079943985 -0.33809194 0.06696493 -0.088070504 -0.15719356 0.1866365 0.00012959856 -0.18365702
-0.12551002 -0.10208744 0.16478226 -0.057188604 -0.113760315 -0.067797706 -0.2736366 0.113361984
0.25506845 -0.20052433 0.065231614 0.12794864 0.11804524 -0.020898571 0.15825997 0.083255425
0.21497633 -0.038505014 -0.116705626 0.020038407 -0.06222141 -0.022600874 0.059413567 0.16857357
0.100385375 0.040857397 0.16240059 -0.055001557 0.017249206 0.14536804 -0.27577838 -0.023876809
0.25542653 0.00075353606 0.06476152 -0.21910247 -0.22808297 -0.36028662 -0.09257564 0.04299954
-0.0047258036 0.050183214 -0.25211725 -0.28053677 0.04081173 0.2447567 -0.0035741425 -0.094381295
0.10780658 -0.22482248 -0.30198422 0.052529406 -0.082025565 -0.15905473 -0.19334348 0.1440653
0.06910768 0.0036917476 -0.11841241 -0.16995285 -0.39572227 0.3075721 0.03762071 0.3483797
0.20334059 0.022708317 0.01668617 -0.13397734 -0.2746298 -0.2602625 0.017718855 -0.06390788
-0.07418023 -0.12034943 -0.08850439 -0.17808165 -0.13509077 0.08386944 -0.067224026 0.24686079
-0.031005504 -0.24137865 -0.013626118 -0.17894344 -0.052376032 -0.24698682 0.1329961 -0.2014057
0.00767696 0.14446953 0.21984422 -0.18543419 0.123461954 -0.16675274 0.1410914 0.23194322
-0.13892594 -0.14322771 0.015717125 -0.28048003 0.11152163 -0.27922842 0.07764402 0.11946133

a2c_network.actor_mlp.0.bias f4 [128]
00000000: ffdb 5ebe c07f 8dbd f73e 523d d04d 69bc
00000010: ebd8 3a3d b0aa 31bd b719 03bd f0ab cbbd
00000020: 942a cd3d a4a5 7bbd 3cfc d7bd 90d5 843c
00000030: ae2c 3c3c 30e9 8e3d ed56 523d e8dc 683d
00000040: 726d ddbd 6a4b 6f3b 4b2f 0c3b 1547 3abd
00000050: ef87 283d 0190 843a 05a8 2e3d b246 59be
00000060: a39e 7bbd 41ed a4bd a46d cf3d 4aa7 1b3d
00000070: a3ce 89bd a66d c33c ac75 22be 340e 4b3d
00000080: ef82 10be b997 663b 24fd e7bd adbd 7fbd
00000090: 7912 13bd 3461 edbd d43f 473d 46ae f7bd
000000a0: ceed e2bc 8ce2 13be 5b16 2ebe 1583 0b3e
000000b0: 0d30 6e3d d19e bbbd f392 0cbe 568f 01be
000000c0: fb5d 04be 9f7c ec3c f441 2d3d 6979 e7bd
000000d0: e79e a83d 19f4 93bd fee3 c2bd 00d9 983d
000000e0: 7c59 5abe aea6 983d 8796 b3bc f59d fabd
000000f0: 4dbe cdbd 4c85 e3bd 25a3 10be 0b79 05be
00000100: 34d4 cfbd b0ef d9bd 92a3 6bbd a5ed 57be
00000110: 4465 5bbd 0730 0ebe b342 58be d92e 60be
00000120: 8bdc babd d639 adbd 5d7b 2e3e f8af 64be
00000130: 1db2 79bd 2654 9ebd c8ff 81bd df4c b63c
00000140: 1144 a83c 27a6 9dbd 5522 c4bd 481b aebc
00000150: 80ea f83d 49a9 6e3a 7d7e 043d d2f1 06be
00000160: 33a2 e4bc a825 20be bc93 3fbe a8d9 ba3c
00000170: c994 eb3c be55 2dbe 5325 ddbd dee7 1f3d
00000180: 7fb3 8abd 249e bf3c 2f10 ea3c 3f36 e3bc
00000190: 17aa 6abd 2f0f b7bd 6946 75bd 9dd7 a53d
000001a0: cde8 26be a83b 04be 7782 1ebe 458a 83bd
000001b0: 9ad1 05bd 4d26 243e 9097 8abc b09a 153e
000001c0: 0bd7 2fbe 506a 46bd b247 8bbc ede5 c13c
000001d0: 2adf bbbd 9f6f 823b 8f14 33be 49b9 6ebc
000001e0: a521 5dbe 09ff 3fbe e2a3 21bc 5656 b0bd
000001f0: 22cc 813c 0eb8 d7bd 330f d2bd 4359 1a3e
-0.2176361 -0.06909132 0.05132958 -0.014239743 0.045617025 -0.04337567 -0.032006945 -0.09944904
0.10017887 -0.061437264 -0.10546157 0.016215116 0.011485262 0.06978071 0.05135243 0.056851298
-0.10811891 0.0036513456 0.0021390493 -0.045477945 0.04114526 0.0010113717 0.042640705 -0.21218374
-0.061430585 -0.08053065 0.10128334 0.038001336 -0.06728866 0.023855995 -0.15865201 0.049574092
-0.14112447 0.0035185649 -0.113275796 -0.06243675 -0.03590629 -0.11590806 0.048644856 -0.12093787
-0.027701285 -0.1444189 -0.17000715 0.13624223 0.058151294 -0.09161151 -0.13727932 -0.12652335
-0.12926476 0.028868018 0.042299226 -0.11302454 0.08233433 -0.07224292 -0.09516142 0.074632645
-0.21323198 0.074536666 -0.021922363 -0.12237159 -0.100460626 -0.11109409 -0.14124735 -0.13034455
-0.101478964 -0.1064142 -0.05752904 -0.21086748 -0.05356337 -0.13885508 -0.21119194 -0.21892871
-0.091240965 -0.08458297 0.17039247 -0.22332752 -0.060960878 -0.07730894 -0.063476145 0.022253452
0.02054027 -0.07697707 -0.09576861 -0.021253243 0.12154102 0.0009104205 0.03234719 -0.13178185
-0.027909374 -0.15639365 -0.187087 0.022808865 0.02875747 -0.1692724 -0.10798135 0.039039485
-0.067725174 0.023390837 0.02857217 -0.027735827 -0.057291117 -0.08938443 -0.0598816 0.080977656
-0.16299744 -0.12913382 -0.15479456 -0.06422857 -0.032670595 0.16030236 -0.016917974 0.1460979
-0.17171876 -0.04844123 -0.01700196 0.023669207 -0.091734245 0.0039805914 -0.17488311 -0.014570543
-0.21594866 -0.18749632 -0.009865733 -0.08610217 0.015844408 -0.105331525 -0.10256805 0.15073113

a2c_network.actor_mlp.2.weight f4 [64, 128]
00000000: 366f 863d 6d91 213e ac3a 89be 013e 853d
00000010: 3894 8bbd c23b 1cbd 062c 7dbd 216d e0bd
00000020: 16e0 8e3b dc67 19be c6b5 a4bc 47f2 c73d
00000030: cb5f 4a3e c640 b1bc e0e7 5d3d f432 36bc
00000040: 623a 59bd 8abf 8ebd 8b76 143e 41de 6bbe
00000050: 9cfb cc3c a958 70be 0fbf 5fbd 8fae 1c3e
00000060: 1e40 c73d 6b47 f6bb d6fd 2fbc acc8 2d3d
00000070: cee6 a93d cafc 64be df97 133d 6c06 2b3e
00000080: 7968 233e d8dd 563e 517a 2dbe a753 b83c
00000090: 78e9 323e 7685 473e 636e a83c ede2 fb3d
000000a0: 3782 36be bc2e 873e 151c 1f3e 6bef 873b
000000b0: 04b2 68bc 4f08 c23d 4d16 ba3a 2047 343d
000000c0: c79f f2ba 0852 3fbd db39 e23d 185c 54bd
000000d0: 83ac 2cbe 5ce7 3f3d 69dc 9dbd 5fe5 a0bd
000000e0: 69ed 983d 6b8f 2dbd 0874 e43d f71f c43d
000000f0: c264 123e f279 9c3d 5087 ee3d ae62 b13d
00000100: 7fa2 803d be22 703a d8c6 bf3c f957 973e
00000110: 08b4 303e bbf6 91bd ba9a dd3c 4f78 ed3d
00000120: a3d1 e33d 5f90 1c3e 5d40 e83c 0894 4e3d
00000130: 4a8d 943d 83c0 d5bc 2d5d 8d3e a4a7 adbc
00000140: 63d5 313d 92b6 babd c76b 28bc b528 07bd
00000150: 65e0 20bd 179f e3bd 68b1 033d fe9d 613e
00000160: d514 bebd c818 99bc 5cd6 a0ba abcd 913e
00000170: 31ed a13d 43f6 7e3d 4a71 3b3c aab7 05be
00000180: cae7 65bd 47ff 53be a81d 9cbe f84f 143e
00000190: 578b cdbd 8c60 7cbd 36ba 4b3e 1d8b 5ebe
000001a0: 72c1 cf3d 7c06 29be 1f08 06bc fd26 cbbb
000001b0: 56ea 233c 330e 9cbd 851e 2cbc e5a6 f53d
000001c0: 0b03 ad3d 78de 16be 8917 c03d a614 4f3b
000001d0: de15 d6bd 8de8 7b3d f218 0b3e 48e5 babd
000001e0: 2429 f23d 4cc9 033e a46e abbd d7fd 1fbc
000001f0: 7332 2cbd 4a15 02be b23d 5e3d 60e3 8bbd
00000200: a7de 4f3c 680b cebb 8394 2d3d 625c a3bd
00000210: a9fb f33d cc9e 9bbd e9fc a2bd 2c78 b93d
00000220: 3b63 98bd 0f7a 6d3c e335 f33d 594b 55bd
00000230: 853e 71bd 2a43 86bd e9a5 1d3d 2313 b93c
00000240: 7c17 163d 7e36 413c 4be1 923d c0f6 f43d
00000250: 7c91 34bc cfed 983c 13cb d2bd 22b9 1cbd
00000260: 6075 66bd 9e50 2d3d 37d2 74bd 70e6 7d3d
00000270: 3289 36bd 579f 81bc 829a d43d 2aac b6bd
00000280: deea d73d e154 223a 5c7e a33d 2eea 07be
00000290: ad4d 99bd 1d6a 12bb 51b6 2abd b752 503e
000002a0: 0086 733a d094 80bc 7949 543d 2d44 36be
000002b0: acb9 00be 3d26 6cbd 8dd2 bcbd 8dc3 8d3d
000002c0: 07e7 99bd fd00 bfbc ed90 18bd c0d2 de3c
000002d0: ea34 0b3c ebc0 03bd 0ce2 773d 501f 5d3b
000002e0: b5ca 33bd 883e f43b c681 8d3d 463a 723d
000002f0: 484d 113c df30 bc3d 8393 b03c 1801 2cbd
00000300: ecf2 263d 2ea3 023e 3771 ecbd 2cc7 873d
00000310: ef02 b0bd b2d8 003d f404 963d a9e5 033d
00000320: 2bf1 e4bd ee9e de3c 33f2 96bd 2866 5abd
00000330: 8882 a7bd b7c6 313c e9be 233d a823 bfbd
00000340: b068 4bbc a905 07bd 9a97 6dbc a65c 6bbc
00000350: 323a cdbd f672 a8bc 3f4a fcbc cd29 59bc
00000360: 3bfc b8bd a483 ef3d 029c 543d 5e77 18be
00000370: 78a2 a4bd 2214 243e 1155 4abd 84b6 a5bc
00000380: 7d56 92bd dc2a 223d 7874 373c 9220 5fbd
00000390: 1d16 0a3e 8938 ecba 9caf c13d 1cf1 9abd
000003a0: b384 5d3d 684b 423d 5e1c 2cbd ac96 d63d
000003b0: 2da7 dfbd ce31 a7bd f3de 03be 789f 07bd
000003c0: 295c e33d 313a d03d c1b6 2a3c 460d 20be
000003d0: bba1 183e 762d 35bd bae5 bb3d b37f b1bc
000003e0: c3b6 05bd 2d1f 623d 735f 8c3d 7e85 d0bc
000003f0: 82e0 d0bd 87d7 113e 5419 27bd 67b4 02be
0.065641806 0.15778132 -0.26802576 0.06505967 -0.0681538 -0.038142927 -0.061809562 -0.10958315
0.004360209 -0.14981025 -0.020106208 0.097630076 0.19763105 -0.021637332 0.05417621 -0.011120547
-0.053034194 -0.06970127 0.14498346 -0.23034002 0.02502232 -0.23471321 -0.054625567 0.15300964
0.09729026 -0.007515838 -0.010741672 0.042427704 0.082959756 -0.22362056 0.036033507 0.16701669
0.15957822 0.20983064 -0.16941191 0.022500826 0.17471874 0.19484505 0.020560449 0.12299142
-0.1782311 0.26402843 0.15538056 0.004148414 -0.0142025985 0.09474241 0.001419732 0.044013143
-0.0018510752 -0.04670909 0.11046191 -0.05184564 -0.16862683 0.0468515 -0.077080555 -0.07856249
0.074671574 -0.042373102 0.11154944 0.09576409 0.14296249 0.07640447 0.116469026 0.086614
0.06280994 0.00091604504 0.023410246 0.29559305 0.17256176 -0.07127138 0.027051318 0.11595213
0.111239694 0.15289448 0.028351003 0.050434142 0.07253511 -0.026092773 0.2761015 -0.021198101
0.043416392 -0.09116854 -0.010279602 -0.032997806 -0.0392765 -0.11114328 0.03215161 0.22032925
-0.09281317 -0.018688574 -0.0012270915 0.28477225 0.07906569 0.062246572 0.011440584 -0.13058344
-0.056129254 -0.2070285 -0.30491376 0.1448363 -0.100363426 -0.06161551 0.19895253 -0.21732755
0.10144319 -0.1650638 -0.008180647 -0.006199716 0.0100046005 -0.07619896 -0.010505323 0.11994723
0.08447846 -0.14733303 0.09379489 0.0031598 -0.104533896 0.061501075 0.13583735 -0.09125763
0.11824253 0.12869757 -0.083707124 -0.00976511 -0.0420403 -0.12703434 0.054258056 -0.06830478
0.012687362 -0.006287981 0.04237796 -0.07976605 0.11913235 -0.075986475 -0.07958395 0.09056124
-0.07440802 0.014494433 0.118755125 -0.05207381 -0.058897514 -0.06555779 0.038488302 0.022592133
0.03664349 0.011792777 0.071718775 0.11961126 -0.011021014 0.018668083 -0.102926396 -0.038262494
-0.05626428 0.04231321 -0.05977079 0.06198734 -0.044564433 -0.01582305 0.103810325 -0.089195564
0.10542844 0.00061924575 0.079830855 -0.13272926 -0.074855186 -0.002234108 -0.041677777 0.20344053
0.0009289682 -0.01569596 0.05182788 -0.17799444 -0.12570828 -0.057653654 -0.09219847 0.06922064
-0.07514768 -0.023315901 -0.037247587 0.027200103 0.008496502 -0.032166403 0.06051831 0.0033740588
-0.04389449 0.0074537434 0.06909518 0.059137605 0.008868523 0.09189009 0.021554714 -0.04199323
0.040759012 0.1275756 -0.115450315 0.06629786 -0.085943095 0.031456657 0.073251635 0.032201443
-0.11178812 0.027175393 -0.073704146 -0.05332008 -0.08179194 0.0108506 0.039976988 -0.09332973
-0.012415096 -0.032964382 -0.014501477 -0.014365351 -0.100208655 -0.02056263 -0.030797122 -0.013254595
-0.09032484 0.1169503 0.051906593 -0.14889285 -0.08038801 0.16023305 -0.049397532 -0.020228632
-0.071454026 0.039591655 0.011197202 -0.05447442 0.13484998 -0.001802222 0.09457323 -0.07565519
0.05408163 0.047435194 -0.04201924 0.10477957 -0.10920558 -0.08163796 -0.12878017 -0.033111066
0.111015625 0.10167349 0.0104195485 -0.15630063 0.14905445 -0.044232808 0.09174676 -0.021667337
-0.032645 0.055205513 0.06854143 -0.025454279 -0.101990715 0.14242373 -0.04079564 -0.1276413

a2c_network.actor_mlp.2.bias f4 [64]
00000000: 068a 05be 0dd5 3dbe 2b73 093e 1d02 00bd
00000010: dd4b fc3c cfb2 adbd df16 02be 8a56 e2ba
00000020: 2191 d2bd 1444 e53b 3d3d 4e3d 93cd cfbd
00000030: c555 d2bd 4cde 26be bed6 f13d 598c a53d
00000040: 2d12 873d e6a0 f9bd 021b 433e 5b64 043c
00000050: dd16 26bd e775 813d 0288 40bd 9f31 543c
00000060: b48a 11be 8afc 14be 3f4f b4bd dd82 c7bc
00000070: c974 e63d c899 e0bc dff4 6c3d fe5f dbbd
00000080: 57cc 21be 705e 02be 3d23 213d befc c3bc
00000090: 1124 c03c b38f 003d 4c5c 1abd 86c1 3ebe
000000a0: fb5c b9bd b3d8 8bbd 6f66 0fbe c679 a83d
000000b0: 0b5a 0dbe 2d7d 7f3c 4447 d03d 7920 573d
000000c0: 7a3d 273d 9808 33be 1575 fdbd 930c c93d
000000d0: e00c 15be 6e79 2cbd 7d6f 5a3c 5968 863d
000000e0: 1743 e43c a5dd abbd 67d4 543c d7f6 49bd
000000f0: b21d 833d 4938 643c 6c85 53bd 991d dabd
-0.13040933 -0.18538304 0.1342284 -0.031252015 0.030797893 -0.08481371 -0.12704037 -0.0017268222
-0.102815874 0.006996641 0.05035137 -0.10146632 -0.102702655 -0.16295737 0.11808537 0.0808341
0.06595264 -0.12188892 0.19053271 0.008080567 -0.040549148 0.06321316 -0.047004707 0.012951284
-0.14213067 -0.14549461 -0.088041775 -0.024354393 0.11252744 -0.027417079 0.057850715 -0.107116684
-0.15800606 -0.12731338 0.039340246 -0.023924228 0.023454698 0.031387042 -0.037685677 -0.18628511
-0.09050938 -0.068284415 -0.14003919 0.082263514 -0.1380388 0.015593809 0.10169843 0.052521203
0.040830113 -0.17483747 -0.12375847 0.098168515 -0.14555693 -0.042107992 0.013332245 0.065628715
0.027864022 -0.08391885 0.012990094 -0.04930767 0.06402148 0.013929435 -0.051640913 -0.106501766

a2c_network.actor_mlp.4.weight f4 [32, 64]
00000000: 6145 253e 5917 703d 903f d63d 5c09 083d
00000010: b3a3 ab3d 986e b73d 4baf ac3c 4575 2dbd
00000020: 7faa 46be 29c8 a1bd e7bc b8bc 1e83 003e
00000030: 6d63 5138 9928 803d 060f 0abd 33c0 70be
00000040: d539 63bd 4569 f93c 0459 88bd c197 78bd
00000050: a1ab 5fbd d566 6b3d ee9c d13d c7e1 08be
00000060: 0b5d bdbd 9984 56be 0dfc e63c ebd5 77bc
00000070: fb5e 073e 0fde 00be ac6c fe3c 3bab 16bd
00000080: da9b 073b 1b04 823d b48e 0b3d 7618 04bc
00000090: 04bc e73d 867d 21bd cf70 65ba ca74 9d3b
000000a0: a85d 283d 9a98 3c3b baaf 213e 847f 3d3e
000000b0: e3fd e73c 3ef2 a0bd 2cda 993c 4ada 98bd
000000c0: 03db 1cbd 2bf9 093e 2b4c 2c3d ff82 023c
000000d0: d3e5 43be 9d5b 84be d6d8 8c3d 3e4e 76bd
000000e0: 1274 24be a2af 643d 9221 163e 1c45 533c
000000f0: 2992 a3bc e98c fdbc cdb9 2b3e b979 91bc
00000100: 2974 8fbd 3d50 a2bd 41ce 15be e5a3 fcbd
00000110: cc49 1e3d 26ff acbd 5c5a 8cbe 7893 0f3e
00000120: 8183 44be 7e64 183d 1802 293e a7a7 cabd
00000130: 8fe6 a33c 92e9 22be 7ef0 bebd 3c05 dcbd
00000140: 974d f0bc e999 9ebe 7c43 f73d 6a33 1c3e
00000150: 8d1b 2fbe 4abf fe3c c8e6 ce3c 161f dd3d
00000160: 75ab 5ebe e230 c9bd 2844 343d 25d6 b83d
00000170: 6746 203e e635 a03d a302 10bd 9b89 99bd
00000180: 1761 a4bd 9f1d a1bd ad56 eabc 8537 9b3d
00000190: dca6 c1bc d0d7 3d3d 5790 00be 535e 84bd
000001a0: c66f 6ebe 372e a23c b3a5 28be a254 973d
000001b0: 5672 583d 1deb 2b3d bdb5 6ebd 56b0 8bbd
000001c0: d527 753d ebc9 cabd 72b5 18be b56d a6bd
000001d0: ba97 95be f2a2 1dbe ff6b 48bd fc20 1a3e
000001e0: 161d d4bd 6059 22be 7410 523d 31b8 aabd
000001f0: 9ceb 813d da0e 123d c7ba 893d aaea b3bd
00000200: 3f54 4c3d 5367 11be fc0d 7d3d 749c c33c
00000210: 3ffc 9cbd 4f1b 38be a093 6cbd bad3 2a3d
00000220: b697 29bd b373 5e3d 3c7a c63d 564b 12bd
00000230: 3c68 5abe c0ad 003c b19c 463e df25 973d
00000240: 0e98 f03d 5a48 33be 62ec c63c 7d88 cdbd
00000250: fadb 2b3d c1a2 263e 4776 823b 93bf 093e
00000260: 2e61 5cbd 4a22 edb9 03f7 b6bd 80fd d53d
00000270: 58ab e13d 6dfb 4a3e 53c2 d4bd d091 113e
00000280: 3fd9 e0bd afb1 8abb d74a cb3c 1ef7 c6bd
00000290: 2906 71bd b632 d2bd 7980 65be 4b4a 1bbd
000002a0: d92a efbd 98d6 9d3d 1b78 bd3d 4598 163e
000002b0: 73a7 43be 71d4 e63d a6f7 923d d9e0 413c
000002c0: 5b12 cb3d f664 37be 3b30 18be 46f4 f3bc
000002d0: e5ed 57be ebb9 12bd c880 f33c 574b 6eba
000002e0: 5cdc 1a3e e31f 1e3d 8f92 06be d867 68be
000002f0: 662f 0a3e 4281 cbbd 0572 c5bc 9bb5 1c3d
00000300: 34fa 32be 25ce 9b3d 4521 fbbd f468 acbd
00000310: 9fa5 febc 7e9d 08be 94aa a4bc 00c5 633a
00000320: 2257 dfbc 7abd c33d bb5e 0cbd 6f24 7f3d
00000330: 15bd 253c cf6d 0b3c f815 3f3e 588f 273d
00000340: cee3 3ebd f7a7 a63d 3682 2d3e 009f 27be
00000350: 03e4 3fbd 4a94 c2bd 177c b13d aa50 6cbd
00000360: 53ed 443d 282e 313d 6bc7 04bd fc9e a2bb
00000370: 1784 97bd 1731 303e c7c2 64bd e0a6 1c3d
00000380: 85f3 47bb a799 d13c d483 43be b045 503d
00000390: cb99 f63b 6673 a1bd 57ae 2dbe 1249 50bd
000003a0: 3c4f d4bd 6e23 db3d 163d 713c 5bfe 1c3e
000003b0: 3740 a2bd fe0b 82bd dd50 9abc 6936 4c3d
000003c0: b9e1 e73d 97cd 50be d90a 5b3d 6174 28be
000003d0: 15a7 6a3d 5994 133e 5e94 90bd 29a0 cfbd
000003e0: 8dd6 1bbd c234 0c3d 21f6 a2bd 8b41 923d
000003f0: c69f 223e 3352 56be df04 ec3d fdd9 54bd
0.16139747 0.058616016 0.10461342 0.03321205 0.083808325 0.08956641 0.02107968 -0.042348165
-0.19400977 -0.07899506 -0.022551013 0.12550017 4.992208e-05 0.062577434 -0.033705734 -0.23510818
-0.055475075 0.030445704 -0.066576034 -0.0606916 -0.054607037 0.057471115 0.1023501 -0.13367377
-0.09246262 -0.2094902 0.028196359 -0.015126686 0.13219826 -0.12584709 0.031057678 -0.03678439
0.002069226 0.06348439 0.03407164 -0.008062473 0.11315158 -0.03942635 -0.00087524665 0.004805182
0.041104943 0.002877748 0.1578969 0.18505675 0.028319305 -0.07858704 0.01878079 -0.0746351
-0.038294803 0.13473956 0.042064827 0.007965802 -0.1913064 -0.25851145 0.06877296 -0.06013321
-0.16059902 0.05583156 0.14661244 0.012894895 -0.019967156 -0.03095098 0.16770096 -0.017758237
-0.07004578 -0.079254605 -0.14629461 -0.12335948 0.038644597 -0.08447103 -0.2741269 0.14021099
-0.1919079 0.03720521 0.16504705 -0.098952584 0.0200074 -0.15909413 -0.09323214 -0.10743186
-0.029333873 -0.309768 0.120734185 0.15253988 -0.17100354 0.031097073 0.02525653 0.10796945
-0.21745093 -0.09823777 0.04401031 0.0902522 0.15651856 0.0782278 -0.035158765 -0.07496949
-0.08026331 -0.07866978 -0.028605783 0.07578949 -0.023639135 0.046348393 -0.12555061 -0.064633034
-0.23284826 0.019797428 -0.16469459 0.07389189 0.052843414 0.04197227 -0.058278788 -0.06820743
0.05985244 -0.09901794 -0.14912966 -0.08126394 -0.2921732 -0.1539419 -0.048931118 0.15051645
-0.1035711 -0.15854406 0.051285222 -0.08335913 0.06343767 0.035658695 0.06725078 -0.08784993
0.04988503 -0.14199571 0.061780915 0.023878314 -0.076652996 -0.17979167 -0.057757974 0.041705824
-0.04140445 0.054309558 0.09691283 -0.035716377 -0.21328825 0.007853925 0.1939571 0.0738027
0.11747752 -0.17508069 0.024282638 -0.10035799 0.041957833 0.16273023 0.003981385 0.13451986
-0.053803615 -0.0004522971 -0.089338325 0.10448742 0.11019009 0.19822474 -0.10388627 0.1421578
-0.109789364 -0.0042326073 0.02481596 -0.097151026 -0.058843765 -0.102635786 -0.2241229 -0.03791265
-0.116780944 0.07706946 0.09251424 0.14706524 -0.19106846 0.11270989 0.071761414 0.011833393
0.099156104 -0.17909607 -0.14862148 -0.029779565 -0.21086843 -0.035821836 0.029724494 -0.0009090206
0.15123123 0.03860463 -0.13141845 -0.22695863 0.13494644 -0.09936763 -0.02410222 0.03825913
-0.17478257 0.07607678 -0.12262205 -0.08418456 -0.031084834 -0.13341329 -0.02010087 0.0008688718
-0.027263228 0.09557624 -0.03427003 0.062290605 0.010115881 0.008510067 0.18660724 0.040908188
-0.04660397 0.081375055 0.16944203 -0.16369247 -0.04684831 -0.0950094 0.086662464 -0.057694115
0.048077893 0.04325691 -0.032416742 -0.0049628 -0.07398241 0.17206226 -0.055849817 0.038245082
-0.003051014 0.025585962 -0.19093257 0.05084771 0.007525658 -0.07883339 -0.16961037 -0.050850935
-0.10366675 0.10700117 0.014724037 0.15331404 -0.07922404 -0.063499436 -0.018837387 0.049856577
0.1132235 -0.20390926 0.053477142 -0.16450645 0.057288248 0.14412059 -0.07059549 -0.1013797
-0.03804641 0.03423 -0.079571016 0.071414076 0.15881261 -0.20929794 0.115243666 -0.051965702

a2c_network.actor_mlp.4.bias f4 [32]
00000000: f4d9 0e3c 4988 6d3d 9aff f23d c9ad 92bd
00000010: b9e3 b7bd 7c11 73bd 798c 5e3d d10e 19bd
00000020: 3716 a23d e59b 143d d920 423a 25b7 adbd
00000030: 5b67 c3bc d645 adbd 3b9e 13bd 9c1c 783d
00000040: 10af 8c3d 3e48 3dbc dd99 8fbd edb6 853a
00000050: 6047 2ebd e292 3e3d 397e 59bd 2ff6 92bd
00000060: 8607 8bbd b6c2 923d c2ad ce3c 94ca 11bd
00000070: 14e5 513d 4ed4 6b3d 7e39 9bbd 2952 32bd
0.008718956 0.0579913 0.118651584 -0.07162053 -0.089789815 -0.059342846 0.054333184 -0.037367646
0.079143934 0.036281485 0.00074054074 -0.08482198 -0.023852995 -0.08460586 -0.036039572 0.06057416
0.06869328 -0.011552868 -0.07011769 0.0010201611 -0.042548537 0.046526797 -0.05309889 -0.07175862
-0.06788544 0.071660444 0.025229339 -0.035593584 0.051243857 0.057575516 -0.07579325 -0.043535385

a2c_network.value.weight f4 [1, 32]
00000000: bcaa bbb9 a6f4 853e b6ed 04bc cd76 45bc
00000010: 5d54 f0bd 1d84 8c3d 1543 96bb d63a 31bd
00000020: 3797 55bb e338 10bc f776 8d3d b1c1 e4bd
00000030: 1848 6dbc fbf0 7b3d 418f 3dbd a472 2e3c
00000040: 8e52 c53d 0adc 2a3e 49cb 5dbe 9ebd a7bd
00000050: 10d7 61bc 12ca 1d3e d47a 7ebd ce6a cabd
00000060: 0b3f c13c 4954 973e 80b2 5738 2697 e4bd
00000070: 3c5d adbc f28e 793e 0c26 45be cab2 a43d
-0.00035794626 0.26163214 -0.008113315 -0.01205225 -0.11734841 0.06861136 -0.0045856335 -0.043269
-0.0032591352 -0.008802625 0.06907456 -0.11169756 -0.0144825205 0.061509114 -0.046279196 0.01064745
0.09634887 0.166855 -0.21659578 -0.081904635 -0.013784185 0.15409115 -0.062128857 -0.098836526
0.023589632 0.29556492 5.1426236e-05 -0.11161642 -0.021162622 0.24370936 -0.19252795 0.08041914

a2c_network.mu.weight f4 [7, 32]
00000000: 7296 96bd 1720 28be a3da 30be 857a efbd
00000010: a396 343e 363c b8bd 698e f8bd 2efc eabd
00000020: 0bfc e6bd b1ee 4d3e 51e3 f13c ed6b 063e
00000030: e367 573e 384b 943d 9330 f43b 1bcf 53be
00000040: 8a91 b4bd d7b1 42be 2778 c0bd cb90 12be
00000050: b87d b83e 291f 7cbe fdc6 99bd 2e9b 133c
00000060: ab72 82be 6114 1a3e 21cf 16be 9de0 e8bd
00000070: 1624 3dbe 4e89 2a3d 36ea 60be e63c 9ebc
00000080: 4226 733e 9c85 d83b 5959 8abe ac0b f9bd
00000090: 3d69 e03c a0aa e93d bb65 30be 6a01 2abd
000000a0: 6943 a7bc 172c c03c eacd 17be 9b0b 4e3e
000000b0: b29c 98bd c0d0 043e da92 173d bce1 0d3e
000000c0: ddc7 063d 8303 4c3d 415a 4fbe 343e a43d
000000d0: 4e4f 62bd fe97 28bd 7662 483e be2e 3bbb
000000e0: 228e 34bd ac40 9abd 9efa 083e c0ef ad3d
000000f0: 771d 04be 7bef 8a3d 978f 693e c28a 2cbc
00000100: d578 7b3d 5805 c9bd 6ec3 1dbe 3798 98bd
00000110: 552a 8f3d 33ad 3abd 0140 29bc 192d 62be
00000120: 8fce d63d 0086 3ebe 6dd4 03be b6e0 433e
00000130: 172a 93bd 72b6 0bbd be3d c63d 9a7e f6bd
00000140: ca20 8a3c 4c95 c6bd b2a6 cfbc fb60 52be
00000150: 8e28 15bc ca36 1bbd d8f0 a1bd 2ebd 683e
00000160: 2468 e03d 06cc 84bd 39f7 cc3d b81b 223e
00000170: f6e8 313e 9647 013e ee04 5b3d e8c8 293e
00000180: 6387 2e3e 4892 b83d e36a d0bc da7b 4e3e
00000190: e036 10be db6c 463e 1229 383e 0d1f 7d3d
000001a0: 6e51 55be 0b0f d43d 0769 993d c3aa dd3d
000001b0: 6bc3 c6bb 3229 213e 166d cabc 3800 c3bd
000001c0: ea58 adbd 87b3 cf3d c450 93bd 8a41 56be
000001d0: cde2 e4bb 026b 5cbd f6ea 81bd 2e8e bebd
000001e0: be30 763e 15fd dfbd ed5a e5bd 85a1 293d
000001f0: 36aa 573e e17e c73d 2eef 3b3e 9d84 cebd
00000200: a65e 87be 7fab 0f3d 3fba b2bd 306c c53d
00000210: dd17 203e f5a7 fcbd 9fb6 17be bc00 443e
00000220: cea6 83bd 2ef9 0cbe 15e7 073e 852b 61ba
00000230: 22fe 2bbb f95e 963b e38f b2bd 4df4 06bd
00000240: 258f 42be 7cdf e1bd 077a 9c3d 2e09 4bbd
00000250: 99d8 6b3c 79a9 533e a039 eebb fe10 e23d
00000260: 884a f83d 9e5a 2cbe 3969 70be 8c9e edbd
00000270: d736 d5bd 6b1e e33d c3fc 3f3e 1370 423e
00000280: 84f4 c83c 96b7 95ba f25f c33d d1de e23c
00000290: 364a ec3d f1c2 abbd b659 183e 524f 0c3e
000002a0: 9bc4 fdbd 726f 05bd f44d 923d 4341 36bd
000002b0: 3b84 c8bd 007d 99bd fee7 fdbd 59d0 ddbb
000002c0: 9925 40be d549 c03d 760a 7abd 4463 973d
000002d0: 8221 ec3d bcf4 b5bc b904 793d 41ff 023d
000002e0: ffcd ad3d f412 1dbd 994d 02be 29a4 b1bd
000002f0: e7ca 2dbe 56db 1e3d 0720 1ebd 81b3 2a3e
00000300: 8e27 05bc b6f1 a6bc 48fb a3bd 23d6 12be
00000310: 4e86 96bd d18a 2cbd 0e2d 29be a01d 543e
00000320: d875 0bbd fed0 cebd 5eae ec3d b7f8 11bb
00000330: 6baa 273e 32c3 85bd 0408 523e d98b af3c
00000340: 0c4f dcbd a355 84be a84d b839 b2c4 7e3d
00000350: 606c c53c 36c3 25bc ee36 2bbe 354b febd
00000360: 12b8 913d 084a eabd fc78 cc3c cda2 443e
00000370: fd51 443d 32c6 0e3e 9709 843d fe45 4dbd
-0.07352914 -0.16418491 -0.17270903 -0.116932906 0.17635588 -0.08995859 -0.121365376 -0.11473881
-0.11278542 0.20110585 0.029527338 0.13127108 0.21035723 0.07240909 0.0074520796 -0.20684473
-0.08816822 -0.19013153 -0.09397917 -0.14313047 0.36033416 -0.24621262 -0.07508657 0.009009166
-0.2547811 0.15046836 -0.14727451 -0.113709666 -0.18470797 0.04163485 -0.21964344 -0.019316148
0.23745063 0.0066077244 -0.27021292 -0.12160429 0.027393932 0.11409497 -0.17226307 -0.041505255
-0.020417886 0.023458524 -0.14824644 0.20121615 -0.07451762 0.12970257 0.037005283 0.13855642
0.03290545 0.049808037 -0.20249273 0.08019677 -0.055251412 -0.041160576 0.1956881 -0.0028561796
-0.04408086 -0.075318664 0.13376853 0.08492994 -0.12901865 0.067839585 0.22808681 -0.010531129
0.06139453 -0.09815472 -0.15406582 -0.07450908 0.06990496 -0.045575332 -0.010330201 -0.22087516
0.10488617 -0.18605804 -0.12874003 0.19128689 -0.071857624 -0.03410954 0.09679745 -0.12035866
0.016861338 -0.09696445 -0.025348041 -0.20544808 -0.009103907 -0.037894048 -0.079072654 0.22728416
0.10957363 -0.06484227 0.100080915 0.15830886 0.17374024 0.12624964 0.0534715 0.16580546
0.17043833 0.09012276 -0.025441593 0.20164433 -0.14083433 0.19377463 0.17984417 0.06179719
-0.20831844 0.10354432 0.074907355 0.10823586 -0.006065776 0.15738371 -0.02471022 -0.09521526
-0.08464225 0.10141664 -0.07193139 -0.20923439 -0.0069850446 -0.053812988 -0.06343643 -0.093044624
0.24042031 -0.109369434 -0.11198983 0.041413803 0.21061024 0.09740997 0.18352959 -0.10083888
-0.264394 0.03507566 -0.0872693 0.09639776 0.15634103 -0.12336723 -0.14815758 0.19140905
-0.064283 -0.1376693 0.13271745 -0.0008589554 -0.0026244004 0.0045889583 -0.087188505 -0.032947827
-0.18999918 -0.110289544 0.07640462 -0.0495693 0.014394903 0.20670117 -0.007270053 0.11038397
0.12123591 -0.16831443 -0.2347764 -0.11602506 -0.104108505 0.11089786 0.18748765 0.18988065
0.024530657 -0.0011422511 0.095397845 0.027694138 0.11537592 -0.083867915 0.14877972 0.13702133
-0.12391015 -0.032576986 0.07143775 -0.044495832 -0.09790846 -0.07494545 -0.123977646 -0.0067692217
-0.18764342 0.09389082 -0.061045133 0.0739198 0.115298286 -0.022211425 0.06079552 0.03198171
0.08486556 -0.038348153 -0.12724914 -0.08673889 -0.16971932 0.038783394 -0.038604762 0.16670038
-0.008127106 -0.020378929 -0.080069125 -0.14339499 -0.07349835 -0.042124573 -0.16521093 0.20714426
-0.03404793 -0.10098456 0.115566954 -0.002227349 0.16373603 -0.06531371 0.2051087 0.02142899
-0.107572645 -0.25846586 0.00035153073 0.062199302 0.024099529 -0.010117343 -0.16720173 -0.12416688
0.07115187 -0.114399016 0.024960034 0.19202729 0.047929753 0.13942793 0.064471416 -0.050115578

a2c_network.mu.bias f4 [7]
00000000: d429 38bd 74f2 a7bd 7705 91bd fb47 a7bd
00000010: 92ac e4bd d56e 683b 6cb2 883c
-0.044961765 -0.08200541 -0.070811205 -0.08168026 -0.11165728 0.0035466452 0.01668664

exp_avg f4 [7]
00000000: b8a4 9a39 9cb8 993b d85d 41bb 00b1 573b
00000010: 6b8e 79ba 727d 253b 982b 06bc
0.00029495894 0.0046911966 -0.0029505398 0.0032911897 -0.0009519818 0.0025251773 -0.0081891045

exp_avg_sq f4 [7]
00000000: 2ad3 453a 0a5f 473a 6b7b 563a bae7 203a
00000010: e1a7 613a 1907 323a 5328 453a
0.00075464195 0.00076054095 0.0008181843 0.00061380456 0.0008608085 0.0006791219 0.00075209624

exp_avg f4 [128, 18]
00000000: 52ad 0ab9 14fc 283a e939 c1b8 fc0a 58ba
00000010: 2ca8 9237 166f 6439 9737 11ba 3dde 2e3a
00000020: 695e b9ba 0c88 823a 90ef c639 34a2 c63a
00000030: 202c 9d39 b025 523a 0aa0 82bb d477 bd39
00000040: e21e 8b39 824b 003b 76bf 9f39 c363 163b
00000050: 9fbc ddba f688 a73a fcc5 653a f0c0 3439
00000060: e66e e0b9 6f7c 743a 6ec2 263b 0fa8 ceba
00000070: d8a5 293a db5f 8fba 5a41 c139 1f74 c6ba
00000080: f1d1 fe39 7ab7 813a 60fa c039 8a12 473a
00000090: 3871 1aba e366 9aba 908d 0638 8fe7 72ba
000000a0: 7e2b 1c39 f593 483b 785f 0f3b 4562 2bbb
000000b0: ddd5 5c3b 3f79 9bba 6c82 22bb 99c6 53bb
000000c0: 393d 02ba edf1 0e3b e7d8 6d3b db59 b438
000000d0: ef92 1cbb dd9d 5d39 4140 a73a 1258 f13a
000000e0: 968c 3eb6 01e8 fb3a 4244 523a 4782 d3ba
000000f0: 7a22 7eb9 cc48 993a 4fb6 483a 058d 6cba
00000100: 30b7 5d3a 88f0 66ba 20c2 cf39 86b5 c1ba
00000110: 30d4 2eb8 8ef1 6d3a 8f29 d23a 134a 97ba
00000120: c988 7d3a 35ae e1ba 8968 ca3a a1d9 ab39
00000130: 43b1 6c39 410d f039 94d0 2b3a 6b47 2abb
00000140: 8f86 2039 ddfe 2c3b 823f ceba ec9a 9c3a
00000150: da2e 8037 140f a53a b34f 47ba e210 953a
00000160: af15 503a e484 81ba f522 72ba fbfe 223a
00000170: 75d9 aa39 0066 9cb9 643a fa38 3507 2c36
00000180: 7b5b 56b9 8206 69ba 8985 b3b9 4be8 0fba
00000190: 273f c6b9 8432 a7ba 89bf e1b8 189d 833a
000001a0: ec81 5539 a083 3738 ba46 443a 4ce8 1db8
000001b0: 122b 28ba 1aee bcba 8758 293b 36cd ceba
000001c0: d90c 3fba d2a1 19b9 48c6 9e3a c1bc 82bb
000001d0: 12e9 a13a 64dd 2f3a f2ab 2bbb 1422 8eba
000001e0: c3e4 6bbb 8922 923a eafe 37bb 8d34 9a3a
000001f0: 69d8 01bb 1411 7038 3ceb 8bbb 8ac6 09bb
00000200: 2ed3 89ba 1ecd 81bb 8621 91ba c25f 7f3b
00000210: f81f 033b 13db 5cbb c486 023b 85aa 9fba
00000220: fcef e2ba 2c28 17ba 133a eb3a 1620 313b
00000230: 2c8e 3c3b 6372 e7ba 70c7 54bb dc5b 6c3b
00000240: cf60 c3ba 629f d4ba d58e eb3a 4c42 b7ba
00000250: 2e4d 84b8 5a6b f3b9 deea 9139 e439 f5ba
00000260: ba23 2537 2766 b43a 8963 07b9 1e7e 1bba
00000270: bf53 693a 711a ec3a d03c 323b 8fc5 31ba
00000280: 2a54 86ba 3241 b2ba f444 8db9 e298 aab9
00000290: 1560 42ba e203 6ab9 2abd 16ba b804 533a
000002a0: 897e ba3a 5fa0 0239 7501 4439 8d4b 02b9
000002b0: 7f43 ccb8 06c8 9c39 896b 54b9 05af 4b3a
000002c0: e875 8538 d894 41b9 d04d 57b9 7561 2d3a
000002d0: eb77 8937 352c 983a 0d77 e6b9 effd 29b8
000002e0: ba5d de3a c057 5f3b be9d cf39 1df2 48ba
000002f0: d6ba 303b 5abf 8a3a 0e8d 55ba 2b1d 04b8
00000300: 0d61 3539 0f01 403a 376b f1b8 c734 00ba
00000310: 1d90 b9ba 875b 4b37 0619 3eb8 a291 fa39
00000320: 9560 15ba 7190 4e39 3171 b6b9 66f4 afba
00000330: 9bb8 8439 0bce 843a 2fb0 203a 2404 97ba
00000340: b37f 803a 9873 00b9 89d6 ef3a ab19 ddba
00000350: 8454 3739 b227 f8b9 74f8 b337 d946 1839
00000360: 5efc 023a fc5e 68b9 917f 57b8 88e8 7639
00000370: be3d f9b9 17f3 62ba ee31 81ba 0478 0438
00000380: 9913 35ba bf9b f639 cebb 0538 ba96 563a
00000390: 22f6 7639 05e5 36ba 9c81 73ba 7147 e439
000003a0: d76b 3c3a f5da d437 ab13 75ba cd17 9b3a
000003b0: bc83 8c39 7828 593a c273 3c3a d781 18ba
000003c0: e20b 29b9 035a 8838 39fe ee39 e112 d3b7
000003d0: e7fb 683a 7d6a f0ba 90e9 9aba 4b9b 21ba
000003e0: 29ed df3a 0e4f 0639 115a 97b8 9a3a 67ba
000003f0: c540 873a 99ab bfba e591 1d3b d92e 1d3a
-0.00013225272 0.0006446254 -9.213744e-05 -0.0008241383 1.7482867e-05 0.00021785157 -0.00055395946 0.00066706893
-0.0014142516 0.0009958758 0.0003794399 0.0015154541 0.0002997825 0.000801648 -0.0039863633 0.00036138168
0.00026535155 0.0019576256 0.00030469493 0.0022947646 -0.0016917175 0.0012781906 0.0008765159 0.00017238013
-0.00042807235 0.00093264034 0.002544548 -0.0015766638 0.0006471551 -0.0010938601 0.0003686052 -0.0015140808
0.00048603074 0.0009896599 0.00036807638 0.000759401 -0.00058915047 -0.001177993 3.207993e-05 -0.00092660723
0.00014893521 0.0030605767 0.0021876972 -0.0026151103 0.0033696808 -0.0011861696 -0.0024796976 -0.0032314418
-0.00049682293 0.002181168 0.0036292614 8.599806e-05 -0.002389129 0.00021135011 0.0012760238 0.0018413088
-2.8394038e-06 0.0019218923 0.00080210355 -0.0016136848 -0.00024236171 0.0011694669 0.00076565606 -0.0009023699
0.0008457778 -0.00088096457 0.0003962675 -0.001477883 -4.1682448e-05 0.0009076827 0.0016034114 -0.0011542462
0.00096715667 -0.0017218055 0.0015442531 0.00032777808 0.00022572749 0.00045786242 0.0006554213 -0.002598251
0.00015308916 0.0026397028 -0.001573548 0.0011948026 1.5280606e-05 0.0012592995 -0.00076031237 0.0011372829
0.00079378014 -0.0009881523 -0.00092367764 0.00062178046 0.00032586945 -0.00029830635 0.00011931805 2.5634192e-06
-0.0002044271 -0.00088892144 -0.00034241032 -0.00054896314 -0.00037812555 -0.0012756144 -0.00010764512 0.0010041324
0.00020361663 4.3753185e-05 0.0007487346 -3.764806e-05 -0.00064151094 -0.0014414222 0.002584012 -0.001577771
-0.0007287986 -0.000146515 0.0012113536 -0.0039897864 0.0012352786 0.000670871 -0.0026195017 -0.0010843896
-0.0035994507 0.0011149208 -0.0028075525 0.0011764929 -0.0019812828 5.7236364e-05 -0.0042699855 -0.002102288
-0.0010515207 -0.0039612195 -0.0011072613 0.0038966988 0.0020008069 -0.0033699914 0.0019916752 -0.0012181556
-0.0017313953 -0.0005766179 0.0017946385 0.0027027181 0.0028771264 -0.0017657991 -0.0032467507 0.0036065495
-0.001490617 -0.0016221816 0.0017971644 -0.001398155 -6.308626e-05 -0.00046428555 0.00027831545 -0.0018709269
9.843085e-06 0.0013763354 -0.00012911683 -0.00059315737 0.0008900724 0.0018013251 0.0027196892 -0.00067814527
-0.0010248472 -0.0013599752 -0.0002694499 -0.00032538833 -0.000741483 -0.00022317425 -0.00057502335 0.00080497144
0.0014228384 0.00012457509 0.0001869256 -0.00012425911 -9.74005e-05 0.00029903668 -0.00020257955 0.00077699154
6.363896e-05 -0.00018461363 -0.00020532985 0.00066139485 1.6387514e-05 0.0011609854 -0.00043957718 -4.0529234e-05
0.0016965189 0.0034079403 0.00039599644 -0.0007665472 0.0026966832 0.0010585592 -0.0008146324 -3.1498417e-05
0.0001729766 0.00073243765 -0.00011511746 -0.0004890677 -0.0014157329 1.2121053e-05 -4.5322835e-05 0.0004779222
-0.0005698291 0.000196995 -0.0003479808 -0.0013424277 0.00025314544 0.0010132206 0.0006129769 -0.001152162
0.0009803682 -0.00012250093 0.0018298189 -0.0016868612 0.00017483725 -0.0004733182 2.1454158e-05 0.00014522242
0.0004996712 -0.00022160629 -5.13788e-05 0.00023547013 -0.00047538982 -0.0008657439 -0.0009856799 3.1583026e-05
-0.00069075223 0.00047036816 3.1884578e-05 0.0008185912 0.0002355208 -0.00069768756 -0.00092890277 0.00043540777
0.00071877 2.537433e-05 -0.0009348939 0.0011832655 0.0002680103 0.00082839234 0.000718888 -0.00058176875
-0.00016121523 6.501751e-05 0.00045584308 -2.5161951e-05 0.0008887634 -0.0018342283 -0.0011818875 -0.0006164803
0.0017084229 0.00012808686 -7.217017e-05 -0.0008820683 0.0010318985 -0.0014623284 0.0024043259 0.00059960556

exp_avg_sq f4 [128, 18]
00000000: 165d 9a38 2b6f a338 c5e3 5638 a8d2 8338
00000010: 5c24 5238 bf1d a038 63dd 3138 e063 a238
00000020: 5845 4838 3128 4a38 cf6c 8b38 23de 3738
00000030: d682 3838 e147 1f38 ed25 5538 6ddb 4538
00000040: 93f3 5438 923d 1838 7412 9938 479f 7038
00000050: 821b 2c38 5a9b 7638 3df4 5b38 5f2b c038
00000060: 5e14 1538 53c9 9b38 4d51 6038 f5ff 3238
00000070: d14c 8338 8e2b 7038 709f 3c38 30c9 0b38
00000080: c1f7 f237 10a1 2938 960f 2838 f018 3b38
00000090: 1bac fb38 92de 0239 5658 8838 65ba ea38
000000a0: d496 9538 401d c938 b444 8638 6887 0339
000000b0: 35eb a238 ccee b038 ff5c db38 94ca 9b38
000000c0: e19f 9c38 3d51 7838 132d a238 ca87 9438
000000d0: 8cbd c938 165b 6838 3582 0e38 cd57 f737
000000e0: 8ee2 a137 b72a ff37 6664 de37 42a7 0c38
000000f0: a7bb 9937 b1f0 1d38 f575 bd37 97cd b937
00000100: 9e1c f937 b14e d437 dec3 ac37 02cc 9e37
00000110: 431e b337 578f 0438 3399 d337 e64c e937
00000120: 6514 2d38 3ffc 0c38 be06 f437 f58b 1e38
00000130: 9dad 1638 1da7 6838 3d44 be37 f831 3638
00000140: 126a 0838 17ea 0338 875f 0f38 4302 2d38
00000150: 419b d337 39aa e937 a575 cb37 a3de a537
00000160: 240e 0038 5c2a f737 2eca ab38 5352 8838
00000170: ba14 2438 3bd3 8038 4f2b 4738 eed4 ad38
00000180: b2bb 4e38 0551 8f38 b87e 5838 9103 6138
00000190: 52d6 4e38 676c 8938 c191 5538 1cb7 5738
000001a0: a4f0 1b38 290a 0238 5899 2e38 0c5c 2138
000001b0: 9d39 a438 1130 aa38 658b 1138 66c2 8538
000001c0: bcdf 4538 85d6 8c38 9d8e 6438 2d11 b038
000001d0: 324d 7c38 3735 7238 d305 8738 1ede 7738
000001e0: 5498 7c38 6274 8338 1bd8 4738 bcaa 3938
000001f0: f32e 6438 36f3 3338 79b9 df38 a18b de38
00000200: 2314 4238 2716 bc38 364e 9838 3e48 b838
00000210: 32d0 9838 4881 cd38 0b84 bf38 ac6a 9638
00000220: 19bc af38 72a2 a638 26eb 9e38 eec5 aa38
00000230: 527c ad38 b9f0 8838 747e af38 519e 9b38
00000240: ca59 3738 e198 d837 6e04 d837 60f2 2738
00000250: 32af f937 3f3b 3138 4516 ea37 dbf9 6838
00000260: 7bbf 0b38 98d4 eb37 8e4c 3a38 fe37 fb37
00000270: e31c e037 eb3b 0e38 45cc 1d38 bc96 c037
00000280: d618 6238 bf5b ea37 a364 6e37 ea9f 5937
00000290: 8f64 cb36 0c3e 6e37 c6c4 2037 41c8 2737
000002a0: 7d91 0c37 4e10 9d37 2d91 4837 34d8 1f37
000002b0: 488a 6b37 6b9f 2837 8573 0937 1453 1237
000002c0: 3e92 3237 b34c 0637 e5e5 5d37 7db5 4037
000002d0: 99f8 7f38 7fc4 6938 27a0 0838 4f77 5838
000002e0: 6014 2a38 8843 a038 940d 5238 233d 9c38
000002f0: deb4 5238 72a8 3738 9322 7138 76da 5a38
00000300: 3d41 3438 ec2f 1938 ed7d 1338 566f dd37
00000310: 2a4e 2138 db6f fd37 5c75 1e38 e66d 8e37
00000320: eb3a cf37 eb13 d037 0384 ca37 09a1 4838
00000330: 01ae b137 fc04 1938 b5ee c537 899e a137
00000340: 7ae9 0938 578f 1c38 8560 d337 458c a437
00000350: adc7 ab37 a8d8 4d37 a495 af37 9cbe 6d37
00000360: 6585 fa37 9f4e ae37 1ed7 bc37 0a4f ab37
00000370: a466 9d37 2cb5 d437 0da9 8737 226b b037
00000380: 9017 9b37 d565 b337 d3bf 9e37 8914 be37
00000390: 04e0 7a37 9235 8a37 6260 9137 6415 5337
000003a0: 5804 8e37 21bc 3937 b673 6438 372d 1738
000003b0: 17b2 f237 1fa7 4738 3c5f 0e38 b779 1038
000003c0: fe85 f337 350f 5e38 6f63 1538 85d7 0f38
000003d0: d664 2538 c8ed 0b38 7fdc e937 b786 fc37
000003e0: 54a0 3738 bf4e bb37 c614 1d38 fce3 f337
000003f0: 726a 1f38 8bda f637 593c df37 2f43 0338
7.360631e-05 7.793152e-05 5.1233703e-05 6.2858046e-05 5.0101764e-05 7.634935e-05 4.240627e-05 7.743365e-05
4.7748297e-05 4.8197984e-05 6.648304e-05 4.383748e-05 4.399087e-05 3.7975497e-05 5.081848e-05 4.7172816e-05
5.0771585e-05 3.6296966e-05 7.299046e-05 5.7368798e-05 4.1033614e-05 5.8795653e-05 5.2441133e-05 9.163352e-05
3.5543337e-05 7.4284755e-05 5.348148e-05 4.2676886e-05 6.260875e-05 5.7261022e-05 4.497118e-05 3.3327553e-05
2.8964017e-05 4.044274e-05 4.0068837e-05 4.46075e-05 0.0001200067 0.0001248068 6.501439e-05 0.00011192708
7.1329676e-05 9.589875e-05 6.402415e-05 0.00012543576 7.768573e-05 8.4368134e-05 0.00010460056 7.428709e-05
7.4684394e-05 5.9203467e-05 7.733158e-05 7.0824826e-05 9.619733e-05 5.539794e-05 3.3976703e-05 2.948558e-05
1.9298193e-05 3.041826e-05 2.6511214e-05 3.3534372e-05 1.8326404e-05 3.765588e-05 2.2585484e-05 2.2149454e-05
2.9696439e-05 2.5309013e-05 2.0595206e-05 1.8930066e-05 2.1352555e-05 3.1604748e-05 2.5224499e-05 2.7811573e-05
4.1265408e-05 3.3613524e-05 2.9090206e-05 3.780048e-05 3.5924477e-05 5.5468747e-05 2.2681541e-05 4.343872e-05
3.2523712e-05 3.1450847e-05 3.4182824e-05 4.124852e-05 2.5225456e-05 2.785503e-05 2.4254268e-05 1.9773206e-05
3.0530748e-05 2.946442e-05 8.191574e-05 6.5003194e-05 3.911995e-05 6.1428604e-05 4.748563e-05 8.288944e-05
4.9289032e-05 6.8338624e-05 5.161643e-05 5.36475e-05 4.931383e-05 6.5528606e-05 5.09189e-05 5.143053e-05
3.7178994e-05 3.1003878e-05 4.1627645e-05 3.8471117e-05 7.830861e-05 8.115185e-05 3.4700515e-05 6.378144e-05
4.717683e-05 6.7156776e-05 5.4492255e-05 8.395533e-05 6.0153376e-05 5.7746856e-05 6.4383865e-05 5.909625e-05
6.022335e-05 6.268245e-05 4.764656e-05 4.4266446e-05 5.440316e-05 4.2903433e-05 0.000106680156 0.00010611793
4.6271958e-05 8.968665e-05 7.262493e-05 8.78726e-05 7.286704e-05 9.799242e-05 9.132185e-05 7.1724266e-05
8.379686e-05 7.9457546e-05 7.577827e-05 8.143099e-05 8.272439e-05 6.5298234e-05 8.368204e-05 7.420465e-05
4.3714223e-05 2.5820396e-05 2.575127e-05 4.0041632e-05 2.9764695e-05 4.2255266e-05 2.7905344e-05 5.5545806e-05
3.3318513e-05 2.811318e-05 4.4417153e-05 2.9947605e-05 2.6716332e-05 3.391124e-05 3.7621958e-05 2.2958375e-05
5.390573e-05 2.7937696e-05 1.4209337e-05 1.2971441e-05 6.061578e-06 1.4200352e-05 9.582558e-06 1.0000601e-05
8.378524e-06 1.8723451e-05 1.195473e-05 9.527477e-06 1.4039288e-05 1.0050698e-05 8.192733e-06 8.721621e-06
1.0643676e-05 8.00488e-06 1.3226153e-05 1.1486348e-05 6.1028262e-05 5.573453e-05 3.257408e-05 5.1609528e-05
4.0550134e-05 7.641973e-05 5.0080547e-05 7.450047e-05 5.0236347e-05 4.3787477e-05 5.7491077e-05 5.2178708e-05
4.2976102e-05 3.6522673e-05 3.516481e-05 2.6397098e-05 3.8458187e-05 3.0212037e-05 3.7779435e-05 1.6978895e-05
2.4703759e-05 2.4804807e-05 2.414175e-05 4.783369e-05 2.1181071e-05 3.6482685e-05 2.3595387e-05 1.926652e-05
3.2880787e-05 3.7326794e-05 2.5198106e-05 1.9615642e-05 2.047777e-05 1.2269396e-05 2.0931308e-05 1.41706805e-05
2.9864439e-05 2.0779027e-05 2.2511518e-05 2.0421594e-05 1.8763654e-05 2.5356734e-05 1.6171974e-05 2.1030723e-05
1.8488412e-05 2.1385882e-05 1.8924393e-05 2.2659327e-05 1.4953319e-05 1.6475828e-05 1.7330229e-05 1.258156e-05
1.6929742e-05 1.10706615e-05 5.44672e-05 3.6043315e-05 2.8931578e-05 4.760094e-05 3.3944132e-05 3.444563e-05
2.9030252e-05 5.2943087e-05 3.5616973e-05 3.4294575e-05 3.9432976e-05 3.3361634e-05 2.7878441e-05 3.0103472e-05
4.3779917e-05 2.2328806e-05 3.7451064e-05 2.907402e-05 3.800769e-05 2.9427252e-05 2.6611773e-05 3.1295403e-05

exp_avg f4 [128]
00000000: 93bc 80ba d126 cdb9 6f6f dc38 626b 2cba
00000010: a6c0 103a fb28 e2b9 24b9 04bb 3f0a ce3a
00000020: 5902 213b c940 efb9 c7bf d1ba dc27 383a
00000030: 904c b739 6978 bdb9 c60d 083b 0bb1 263b
00000040: 44fd 31ba 36cd 8eba f044 6439 750a 243a
00000050: 8746 553a 9c24 94ba a555 213b bf90 6abb
00000060: 73de c5bb e942 16bb 616e 7c3b 7a44 d4ba
00000070: 799a 10bb 6ccd 67bb c8cc a4ba f584 a3bb
00000080: 9c16 6ebb f8b3 21bb c95c 6d3a 2009 2bbb
00000090: e04e 2aba e64e 6bbb 72c1 013b 52a0 e0b9
000000a0: dbda 39bb 6b57 21bb 389b 9dba 2838 463a
000000b0: 22b4 f0b9 2b8f dcb9 ce4f d2b8 377c c7ba
000000c0: 358f f1ba adeb 24bb 7943 f9ba d440 ad39
000000d0: 4793 5fba 6d00 1dba 71a9 3abb 68ac 1f3a
000000e0: 5e73 8b3a 8aab 993a 5ff1 ecb9 b74b 21bb
000000f0: d10f 94ba dbca 0dba 2748 0aba be33 e6ba
00000100: e84b 92b9 e42b 54bb ff8a 88ba 39b2 59bb
00000110: 00da 90b9 9c8d 6cba 33eb 8fba 781b 01bb
00000120: 0a9b 38ba de52 08bb 882f 69bb 9a26 c739
00000130: 816c 3bbb 6b07 b839 6a10 3eba fe7e e5b9
00000140: c729 263a 727c 18bb bd73 7539 64f9 adba
00000150: 8911 1c39 5eae 2dbb 9bd7 b0ba 97e6 22ba
00000160: c620 6cba 61d1 4db9 a5ed b4b9 a145 27bb
00000170: 01aa 65bb e513 24b9 a3dd ebba 6105 263a
00000180: 8bba c2ba 0df5 503b 1729 e2ba 0620 cb39
00000190: 8f93 14bb c99f fe39 2e21 6abb d6c4 5fba
000001a0: 65bc a3b9 cd0c 18ba b946 a03a ae6e 7bbb
000001b0: debd 65ba 7df7 5c3b 74df 3fbb f893 2cba
000001c0: 2fab d439 77a3 483b 3b26 b0bb 2e30 de3a
000001d0: f157 00bb c440 2fba 228c 78bb 836b 2d3b
000001e0: af54 3bbb eeef 02ba babb 99bb 546e 0d3a
000001f0: 7a88 8cbb 3174 0139 1a7f 0eb9 2102 80b9
-0.0009821824 -0.00039129567 0.000105111736 -0.00065772806 0.0005521871 -0.00043136612 -0.0020251954 0.0015719606
0.002456805 -0.000456339 -0.0016002589 0.00070249825 0.00034961523 -0.00036138602 0.0020760163 0.0025435116
-0.00067897537 -0.0010894898 0.00021769456 0.0006257662 0.00081358146 -0.0011302414 0.0024617699 -0.0035791842
-0.006038481 -0.0022928065 0.003851794 -0.0016194724 -0.002206473 -0.0035370244 -0.0012573237 -0.004990215
-0.0036329394 -0.002467392 0.00090546586 -0.0026097968 -0.00064967386 -0.0035905181 0.001979914 -0.00042844057
-0.0028359208 -0.0024618756 -0.0012024408 0.00075614685 -0.00045910577 -0.00042068338 -0.00010028445 -0.0015219514
-0.001842952 -0.0025164888 -0.0019017301 0.00033045432 -0.0008528721 -0.0005989138 -0.0028482343 0.0006091059
0.001063924 0.0011724096 -0.00045193263 -0.002461178 -0.0011296218 -0.0005408951 -0.0005275034 -0.0017563028
-0.00027903845 -0.0032374794 -0.0010417401 -0.0033217801 -0.00027628243 -0.0009023787 -0.0010980129 -0.001970021
-0.00070421456 -0.0020801346 -0.003558131 0.00037984998 -0.002859861 0.00035100742 -0.00072503707 -0.000437729
0.0006338623 -0.0023267535 0.00023408137 -0.0013273177 0.00014883852 -0.0026501636 -0.001349199 -0.000621417
-0.0009007569 -0.00019628323 -0.00034509334 -0.002552368 -0.0035043957 -0.0001564767 -0.001799513 0.0006333199
-0.001485662 0.0031884343 -0.0017254677 0.00038743037 -0.002267096 0.00048565704 -0.0035725343 -0.0008536106
-0.00031230148 -0.00058002473 0.0012228108 -0.003836553 -0.0008763949 0.003371685 -0.0029277476 -0.00065833284
0.00040563333 0.003061501 -0.005375651 0.0016951615 -0.0019583667 -0.0006685371 -0.0037925323 0.0026461787
-0.002858441 -0.0004994859 -0.004691568 0.00053951633 -0.00428873 0.00012345683 -0.00013589524 -0.0002441565
