runs/BallBalance_19-16-10-47/nn/BallBalance.pth (torch, 172255 bytes, 36 tensors)

value_mean_std.running_mean f8 [1]
0	0x3fc4a985eacb57ca	0.1614234348732551

value_mean_std.running_var f8 [1]
0	0x3f7e03e321ab7dfc	0.007327925903808371

value_mean_std.count f8 []
0	0x40df804000000000	32257.0

running_mean_std.running_mean f8 [18]
0	0xbfd049d100779c90	-0.2545053963244266
1	0x3fbc9599e2ab93a2	0.11165773185673669
2	0x3fa051fef31403c4	0.031875579044942565
3	0xbfcdcc740fcb6e89	-0.23280192157004745
4	0x3fc6c0d44f006599	0.17775968415734836
5	0xbf908b167699cccc	-0.016155577648942196
6	0xbfb1fa02646b1abc	-0.07022108985538983
7	0xbfe8e4392c75e5b8	-0.7778592937822202
8	0x3fe072cb1f490f13	0.5140128718416882
9	0x3fc7470877c1259b	0.18185525748621675
10	0xbfe383053b9eccba	-0.6097437061747748
11	0x3fdf7c5ef1507cb2	0.49196599546298636
12	0xbf955b1208102040	-0.020855218641401274
13	0xbfb5bc5c355a94ea	-0.08490539839347702
14	0x3fbc7ecd7a6bc56a	0.11130985487740977
15	0x3fbc92890c645fe9	0.11161095192471716
16	0x3f942b41e74ead7c	0.019696264021758378
17	0x3fb0fb7004d97260	0.06633663290399161

running_mean_std.running_var f8 [18]
0	0x3fbbd0d036e122ce	0.108654988668728
1	0x3fa3552bac590bda	0.03775917509894784
2	0x3faee055cd4d52b0	0.06030529147270636
3	0x3fb9fbebcaa543a8	0.10150026032830672
4	0x3fade263da391e55	0.05836784399849352
5	0x3f7ff83c152595af	0.0078050944306133204
6	0x3f786017a95803f7	0.0059510158803286394
7	0x3ff96cfacc96d0e3	1.5891063682329836
8	0x3fe6ccae148c64b9	0.7124853516899271
9	0x3ff82fb1417cc57f	1.5116436536885371
10	0x4003f7f9d4ed2c95	2.496081984985333
11	0x3fde5541a5a30632	0.473953639750195
12	0x3fed62cab8fd7de1	0.9183095563020595
13	0x3ff57afdf482f2b1	1.342527346728428
14	0x3f65f7d0d617ffd0	0.0026816443285042416
15	0x3f658178ba373dca	0.002625213428224281
16	0x3f81ad9de6bb531b	0.00863192901980763
17	0x3f8cf51bbcbb0a87	0.014139382073499419

running_mean_std.count f8 []
0	0x40cf808000000000	16129.0

a2c_network.sigma f4 [7]
0	0xbd436857	-0.047706928
1	0xbd806951	-0.062700875
2	0xbe5866b2	-0.21132925
3	0xbe127e93	-0.14306097
4	0xbde929b9	-0.11384911
5	0xbd8a42c1	-0.067510135
6	0xbe145845	-0.14486797

a2c_network.actor_mlp.0.weight f4 [128, 18]
0	0xbe442cde	-0.1915774
1	0x3e325330	0.17414546
2	0xbde3dfe3	-0.111266874
3	0xbd0c869f	-0.034308072
4	0xbdfdac47	-0.12386375
5	0x3e5fbe8a	0.21850029
6	0xbe3d98fe	-0.18515393
7	0xbdaec63f	-0.08533906
8	0xbcd31f0b	-0.025771638
9	0xbe063018	-0.13104284
10	0x3de8051e	0.11329101
11	0xbe85cdbc	-0.26133525
12	0x3e320790	0.17385697
13	0xbe8f35c8	-0.2797072
14	0x3e9bebd6	0.30453366
15	0xbccc9dda	-0.024977613
16	0xbd76927e	-0.0601983
17	0x3e28fd61	0.16502906
18	0xbc39a64a	-0.01133115
19	0x3e402e7b	0.18767731
20	0x3cb38bd5	0.021917263
21	0xbd8a357b	-0.06748482
22	0x3dde3a1d	0.10850928
23	0xbddfcdaf	-0.10927903
24	0x3da9307f	0.08261203
25	0x3ea2cc8d	0.31796685
26	0x3df34371	0.11878098
27	0x3d543bd3	0.051814865
28	0x3e0a5ae9	0.13511242
29	0x3d36c726	0.044623516
30	0x3e2b2858	0.16714609
31	0xbe244400	-0.16041565
32	0xbf07e2c9	-0.5308042
33	0xbde95546	-0.11393218
34	0xbe19ea61	-0.15030815
35	0x3e40814c	0.18799323
36	0x3d091690	0.033468783
37	0x3d005689	0.031332526
38	0x3db5a68f	0.08869659
39	0x3d4e7fee	0.050414972
40	0x3e3660bd	0.1781034
41	0xbe6d76b0	-0.23189807
42	0xbd24040a	-0.040042914
43	0xbe4fba37	-0.20285879
44	0xbbba8fd2	-0.0056934142
45	0x3b8f5c01	0.0043749814
46	0x3cd7fa19	0.026364373
47	0x3c76ca06	0.015062815
48	0x3e7b348f	0.24531768
49	0xbe2a7596	-0.16646418
50	0xbe84ac65	-0.25912777
51	0xbe24bb22	-0.1608701
52	0x3e16c3ca	0.14723125
53	0x3da19d9f	0.07891392
54	0x3e66104a	0.22467151
55	0xbcab7ea4	-0.02093441
56	0xbe6846e5	-0.22683294
57	0xbe25d6d1	-0.16195227
58	0xbdab7e43	-0.08373692
59	0x3e1922ee	0.14954731
60	0xbbedad68	-0.0072533377
61	0x3e91f99c	0.2851075
62	0x3c4f510b	0.0126535995
63	0x3c881116	0.01660971
64	0x3e25bc70	0.16185164
65	0xbdc93ec9	-0.098264284
66	0x3e1f635b	0.15565245
67	0xbd55e4fd	-0.052220333
68	0x3df9c914	0.12196556
69	0xbea6c700	-0.325737
70	0xbdde7783	-0.10862639
71	0x3dd5ef1d	0.10445998
72	0x3e2704b1	0.16310383
73	0xbe62b01d	-0.22137494
74	0x3e2f4cd5	0.17119153
75	0x3e4bf03b	0.1991586
76	0xbe4fd61a	-0.20296517
77	0xbdec019b	-0.11523744
78	0x3e399e68	0.18126833
79	0xbdba09ae	-0.090838775
80	0xbe11bcb4	-0.14232141
81	0xbe9b6c24	-0.30355942
82	0xbdc9fed0	-0.09863055
83	0x3de34ea6	0.110989854
84	0xbbcce291	-0.0062525948
85	0xbe130127	-0.14355908
86	0x3d20c267	0.039247897
87	0xbe943507	-0.28946707
88	0xbe44b546	-0.19209775
89	0xbe0dbf28	-0.13842452
90	0xbe745e20	-0.23864031
91	0xbe03dea4	-0.128779
92	0x3e7d89b7	0.24759565
93	0x3d953c95	0.07286946
94	0x3dc9e8db	0.09858867
95	0xbe0d1f56	-0.13781485
96	0xbe60386e	-0.21896526
97	0xbd246faa	-0.040145554
98	0x3ca36bc9	0.019948857
99	0xbeb3fec2	-0.35155302
100	0xbd2fbadc	-0.042902812
101	0xbdc62e78	-0.09676832
102	0x3d008595	0.031377394
103	0xbdc9ecb4	-0.09859601
104	0x3db19284	0.08670524
105	0xbe2afa65	-0.1669708
106	0xbe2180f2	-0.15771845
107	0xbe12454d	-0.14284249
108	0xbcbb106a	-0.022834975
109	0xbd6fb9da	-0.05852685
110	0x3e341232	0.17585066
111	0xbd6f074d	-0.058356572
112	0x3e8be3ef	0.27322337
113	0x3d55260b	0.052038234
114	0xbe73e0d3	-0.23816232
115	0x3e8ac586	0.27103823
116	0xbdeda49f	-0.116036646
117	0xbd8bb2f1	-0.0682124
118	0xbe97a4d0	-0.2961793
119	0xbe87f003	-0.26550302
120	0x3d1af862	0.037834533
121	0xba511da6	-0.0007977135
122	0x3e325188	0.17413914
123	0xbe869b85	-0.26290527
124	0x3e0ac251	0.13550688
125	0xbe64a5b3	-0.22328834
126	0xbdbf4193	-0.09338679
127	0x3d828852	0.06373657
128	0x3d7d9cb2	0.061917014
129	0x3ea07d94	0.31345809
130	0x3e8119b9	0.25214937
131	0xbe41b01a	-0.18914834
132	0x3d0c9762	0.034324057
133	0xbe34d00e	-0.17657492
134	0x3d7ba07e	0.061432354
135	0xbe122e5e	-0.142755
136	0x3ea65f10	0.32494402
137	0xbdad8e47	-0.08474403
138	0x3e170368	0.14747393
139	0x3cec9512	0.028879676
140	0x3e44b63b	0.1921014
141	0xbe338f7e	-0.17535207
142	0x3e15443b	0.14576809
143	0x3cceffd4	0.025268473
144	0x3d5ad85a	0.053428985
145	0xbe962121	-0.2932215
146	0x3e3a7022	0.18206838
147	0x3b93abaf	0.0045065503
148	0xbde47bfd	-0.111564614
149	0x3e24c8c2	0.16092208
150	0x3d787dec	0.060666963
151	0xbdf6a226	-0.12042646
152	0xbe0dafae	-0.13836548
153	0xbd86ee9a	-0.065884784
154	0x3e47eb86	0.19523439
155	0xbcb692b0	-0.022286743
156	0xbe349702	-0.1763573
157	0xbd2d1356	-0.04225477
158	0xbe7efcc3	-0.24901108
159	0x3df1248e	0.117745504
160	0x3e2715d1	0.16316916
161	0xbe51020c	-0.20410937
162	0x3db1b768	0.0867756
163	0x3e7beb31	0.24601437
164	0xbc8079ff	-0.015683172
165	0xbd2697fd	-0.04067229
166	0x3e16e35e	0.14735171
167	0x3d95e9ce	0.07319985
168	0x3df51aa1	0.1196797
169	0xbceb6fa7	-0.028739763
170	0xbd336055	-0.04379304
171	0x3ca32a6e	0.019917693
172	0xbbaff92d	-0.0053702802
173	0xbdfdbf51	-0.12390006
174	0x3de15e81	0.11004353
175	0x3e61cb35	0.22050174
176	0x3dbb300d	0.09140024
177	0xbdcc4ff6	-0.09976189
178	0xbc6b1a2b	-0.014349501
179	0xbd531617	-0.05153474
180	0xbcdd9954	-0.027050652
181	0x3e0eed85	0.13957794
182	0xbe43d1aa	-0.19122949
183	0xbd975a49	-0.073902674
184	0x3e710f47	0.23540984
185	0x3d98a376	0.07453053
186	0x3a3d5ba6	0.00072234345
187	0xbe0d2dc3	-0.13786988
188	0xbe5004fc	-0.20314401
189	0xbe4f4e97	-0.20244823
190	0xbdb62068	-0.088929
191	0x3d4706ef	0.048590597
192	0x3e559818	0.208588
193	0x3ca21f3d	0.019790286
194	0xbe86d6b8	-0.26335692
195	0xbe82b3f3	-0.25527915
196	0xbd6bd1a4	-0.057572976
197	0x3e37b45c	0.17939895
198	0x3e026ae2	0.12736085
199	0xbd9e6c94	-0.077355534
200	0x3e4b17ea	0.19833341
201	0xbcf8288a	-0.030292768
202	0xbe12e05d	-0.143434
203	0x3de6b662	0.112652555
204	0xbdbb1f28	-0.09136802
205	0xbd0c7eac	-0.03430049
206	0xbe87ab98	-0.26498103
207	0x3e24a450	0.16078305
208	0x3e68bd56	0.22728476
209	0x3dad1efb	0.08453175
210	0xbe4b41ba	-0.19849291
211	0xbe21f3f7	-0.15815721
212	0xbec5ea3b	-0.38655266
213	0x3ea37256	0.3192317
214	0x3d87407b	0.066040955
215	0x3e175740	0.14779377
216	0x3dc345af	0.095347755
217	0x3dc31404	0.09525302
218	0xbd8144a9	-0.06311924
219	0xbe8090c8	-0.2511046
220	0xbe37db35	-0.17954715
221	0xbe9ba819	-0.30401686
222	0x3daf5409	0.0856095
223	0xbda6fa83	-0.0815325
224	0xbd2074ea	-0.039173998
225	0xbe638466	-0.22218475
226	0xbe3c96ad	-0.18416853
227	0xbddd14a3	-0.10794952
228	0xbe369855	-0.17831548
229	0x3da860f8	0.0822162
230	0xbd628a26	-0.05530753
231	0x3e98b5b3	0.29826126
232	0xbd8175df	-0.0632131
233	0xbe1a3b44	-0.1506167
234	0xbdc4012c	-0.09570536
235	0xbd608966	-0.054818533
236	0xbdbe8127	-0.093019776
237	0xbe91a0bd	-0.28442946
238	0x3e839b74	0.2570454
239	0xbe3482de	-0.17628047
240	0x3d9b1d2d	0.07573924
241	0x3e481833	0.19540481
242	0x3e39dc64	0.18150479
243	0xbe082399	-0.1329483
244	0x3e0008f7	0.1250342
245	0xbe0298a4	-0.1275354
246	0x3d8b2264	0.06793669
247	0x3e55360e	0.20821401
248	0xbdceb3d0	-0.1009289
249	0xbe0d1e0c	-0.13780993
250	0xbd7bc402	-0.061466224
251	0xbe96f898	-0.29486537
252	0x3e295f79	0.16540326
253	0xbea8c02d	-0.32959118
254	0x3e8b43af	0.27200076
255	0x3e285ab0	0.16440845

a2c_network.actor_mlp.0.bias f4 [128]
0	0xbd81a940	-0.0633111
1	0xbdcbe27f	-0.0995531
2	0x3dbc9932	0.09208907
3	0xbdcf9528	-0.10135871
4	0x3da2f6ba	0.079572156
5	0xbdabdce8	-0.08391744
6	0xbd02a79a	-0.03189812
7	0xbe1a7011	-0.15081812
8	0x3dc8482b	0.0977939
9	0x3d8a7ad8	0.06761712
10	0xbdbab9e9	-0.09117491
11	0x3c940a38	0.018071279
12	0x3c9c870c	0.019107364
13	0xbd72101f	-0.059097406
14	0xbdb5bc58	-0.08873814
15	0x3d4ae03e	0.04953026
16	0xbe17a9c4	-0.14810854
17	0xbce05ade	-0.027387079
18	0xbde734ab	-0.112893425
19	0x3d89d344	0.06729749
20	0x3dcc45e7	0.0997427
21	0x3d21e6d3	0.03952677
22	0xbd715574	-0.058919385
23	0xbddcc4d0	-0.107797265
24	0xbc35479a	-0.011064434
25	0xbcaa45c5	-0.020785222
26	0x3d92963b	0.071575604
27	0xbd8ba0db	-0.0681779
28	0xbd66fdd6	-0.05639442
29	0x3d72723d	0.059190977
30	0x3db3497b	0.0875425
31	0x3cbb9491	0.02289799
32	0xbdc5c8d1	-0.09657443
33	0x3d48803f	0.04895043
34	0xbcb82a40	-0.022481084
35	0xbdea4daa	-0.114405945
36	0x3d8bb50b	0.068216406
37	0xbd2515ae	-0.04030388
38	0xbc6de24f	-0.014519288
39	0x3c1557e0	0.009115189
40	0x3df1c8b7	0.118058614
41	0xbcbd0489	-0.023073452
42	0xbdec87c0	-0.1154933
43	0x3e0c3f59	0.1369604
44	0xbc5d39d9	-0.0135025615
45	0xbda10f1a	-0.078642085
46	0x3d1581da	0.03650079
47	0xbd524ede	-0.051344745
48	0xbd8b207e	-0.06793307
49	0x3e215ef3	0.15758877
50	0xbd897c6a	-0.06713183
51	0xbe1cf004	-0.15325934
52	0x3e11d1d1	0.14240195
53	0xbdd100f7	-0.10205262
54	0xbe0f4cc1	-0.13994123
55	0xbcc3bca6	-0.023893666
56	0x3bf2801e	0.0074005267
57	0x3d560834	0.052253917
58	0x3dd8f11d	0.10592864
59	0xbd451b87	-0.048121955
60	0xbc9b2c48	-0.018942013
61	0xbe209340	-0.15681171
62	0xbe1f321d	-0.1554646
63	0xbd70743b	-0.058704596
64	0xbdbad123	-0.09121921
65	0xbc85a9d9	-0.016316341
66	0x3cc79cae	0.024366703
67	0xbdb5d4eb	-0.088785015
68	0x3d218c22	0.03944028
69	0xbdce3687	-0.10068994
70	0xbdf69930	-0.12040937
71	0xbe1d7940	-0.15378284
72	0x3e04283f	0.12905978
73	0xbe089906	-0.13339624
74	0x3e0f4db8	0.13994491
75	0xbe44105b	-0.19146864
76	0xbd8bf7b6	-0.068343565
77	0xbdf65065	-0.12027053
78	0x3d6253fe	0.055255882
79	0x3d80f09a	0.06295891
80	0xbd432a0c	-0.04764752
81	0xbc3f0617	-0.011659167
82	0xbddafb6d	-0.10692487
83	0x3d2c95e7	0.042135146
84	0x3df6c395	0.12049023
85	0x3db8c328	0.09021598
86	0xbd69be02	-0.05706597
87	0xbdd10619	-0.10206241
88	0xbd8f4db3	-0.06997242
89	0xbe2c628f	-0.16834472
90	0xbe20b198	-0.15692747
91	0x3e0c261c	0.13686413
92	0x3c991a69	0.018689351
93	0xbdc0f80a	-0.0942231
94	0xbde7d609	-0.11320121
95	0x3dc0b76f	0.09409987
96	0xbdc53f5c	-0.096312255
97	0xbe17ad2b	-0.14812152
98	0xbb78cdde	-0.0037964503
99	0xbd119e91	-0.03555161
100	0xbd0861b8	-0.033296317
101	0x3c14d575	0.009084095
102	0x3da71bbc	0.08159587
103	0x3c2306de	0.009950368
104	0xbe2574f5	-0.16157897
105	0xbde6ecad	-0.11275611
106	0xbd63fba0	-0.05565989
107	0x3df63d37	0.120233946
108	0xbdd5be27	-0.10436659
109	0x3d5b500e	0.053543143
110	0x3bdf06af	0.0068062167
111	0x3e0f8ae0	0.1401782
112	0xbcff1b96	-0.031141084
113	0xbd5f797e	-0.054559223
114	0x3d9e0c9b	0.07717248
115	0xba826635	-0.0009948673
116	0xbdabfb06	-0.08397488
117	0xbd34c965	-0.044137377
118	0xbd5d3489	-0.05400518
119	0xbc5a7d51	-0.013335542
120	0xbdc1984d	-0.09452877
121	0x3a0b2143	0.00053073856
122	0x3d26f874	0.040764287
123	0xbdffde41	-0.124935634
124	0xbc962790	-0.018329412
125	0xbd83a254	-0.06427446
126	0xbe0fee65	-0.14055784
127	0xbe2145de	-0.15749308

a2c_network.actor_mlp.2.weight f4 [64, 128]
0	0x3ba2c693	0.0049675195
1	0x3dbc6e09	0.09200675
2	0xbde077ff	-0.109603874
3	0xbce12bd2	-0.027486715
4	0xbe8bc215	-0.2729651
5	0xbe30fa1f	-0.17282914
6	0x3c2f0b47	0.010683841
7	0xbd453d29	-0.04815403
8	0x3cf9c336	0.030488592
9	0xbe02646f	-0.12733625
10	0xbd9bae53	-0.07601609
11	0x3d7672fe	0.06016826
12	0x3e0f17ab	0.13973872
13	0x3d0f2d55	0.03495534
14	0xbddc6770	-0.10761917
15	0xbe0d708e	-0.13812467
16	0x3e085cc5	0.13316639
17	0xbdeb4199	-0.11487121
18	0x3dbeab3b	0.09310003
19	0xbe8e43cb	-0.27786097
20	0xbad6248b	-0.0016337795
21	0xbe742d36	-0.23845372
22	0xbd7210de	-0.059098117
23	0x3e532d9b	0.20622866
24	0xbd91a79b	-0.07112046
25	0xbdf41d23	-0.1191962
26	0xbc766cd5	-0.015040596
27	0x3cb64594	0.022249974
28	0xbc7afec1	-0.015319527
29	0xbe105aea	-0.14097181
30	0xbd20cdb7	-0.039258685
31	0x3e1e31fc	0.15448755
32	0x3e267d7c	0.16258806
33	0x3ddd7f50	0.108152986
34	0xbdff0d85	-0.124537505
35	0xbc464eb3	-0.012103724
36	0x3d21bea6	0.039488457
37	0x3ea6ec85	0.32602325
38	0x3ca1ac5f	0.019735513
39	0x3d6d2622	0.057897694
40	0xbd8e8ca0	-0.06960416
41	0x3e1f548b	0.15559594
42	0x3df6a75f	0.12043642
43	0x3d777e6f	0.06042331
44	0x3dbce1f5	0.092227854
45	0xbda42854	-0.080155045
46	0x3c64d3e2	0.013966532
47	0x3d9c320a	0.07626732
48	0x3d1edb76	0.038783513
49	0xbdd5a4ff	-0.10431861
50	0x3d3b7115	0.04576214
51	0xbdd95f02	-0.106138244
52	0xbe1818a1	-0.14853145
53	0xba863a67	-0.0010240794
54	0xbe26800e	-0.16259786
55	0xbdbbb4a0	-0.09165311
56	0xbd8fe3fd	-0.07025907
57	0xbe38fa2f	-0.18064187
58	0x3de7e875	0.113236345
59	0xbd1bd082	-0.038040645
60	0x3dcbac61	0.09944988
61	0x3dcb5438	0.09928173
62	0xbd1324af	-0.035923656
63	0x3e0429a6	0.12906513
64	0x3df3c5e3	0.11902978
65	0x3bab5a49	0.0052292687
66	0x3ccb1b13	0.024793183
67	0x3d9786ab	0.07398733
68	0x3df54fad	0.119780876
69	0x3d9d8fe0	0.076934576
70	0x3dad6468	0.084664166
71	0x3d842d6c	0.06453976
72	0xbcbca95b	-0.023029974
73	0x3d9f1c84	0.07769111
74	0xbe0a759f	-0.13521431
75	0x3e09d5b6	0.1346043
76	0xbd3bc490	-0.045841753
77	0x3d02fd65	0.031979937
78	0x3e067097	0.13128887
79	0x3c475e62	0.012168499
80	0x3ccfd36d	0.02536937
81	0xbe2b4564	-0.16725689
82	0xbd02d0d7	-0.031937446
83	0x3d1af72a	0.03783337
84	0x3d3f7e5b	0.04675136
85	0xbe12bcb4	-0.14329797
86	0xbcc8c938	-0.024510011
87	0x3e262c3c	0.16227812
88	0x3df0bc53	0.1175467
89	0xbe24d9f9	-0.16098775
90	0x3d0c29f7	0.03421971
91	0x3d56f650	0.052480996
92	0x3d15448d	0.03644233
93	0x3d9b2b2e	0.07576595
94	0x3d220bc1	0.03956199
95	0xbd08da68	-0.033411413
96	0xbcf4c5b3	-0.029879427
97	0xbda5562b	-0.08073076
98	0xbe8098f3	-0.2511669
99	0x3e1b74b0	0.15181231
100	0xbba7792e	-0.0051108813
101	0xbd992e71	-0.07479561
102	0x3e6423cc	0.2227928
103	0xbd8ab7b1	-0.067733176
104	0x3dd12bc3	0.10213425
105	0xbda1bb35	-0.07897035
106	0xbd83a1cd	-0.064273454
107	0x3d406f23	0.04698099
108	0x3e124b6e	0.14286587
109	0xbdd8fc98	-0.105950534
110	0xbe1e8b92	-0.1548293
111	0x3d5c7e25	0.05383124
112	0xbb851101	-0.004060865
113	0xbe260ab0	-0.16215014
114	0x3e2047c7	0.15652381
115	0xbd98d3e9	-0.07462294
116	0x3dd3b2af	0.103368156
117	0x3e368e87	0.17827807
118	0xbb20b0ad	-0.002451937
119	0xbb873a81	-0.0041268473
120	0x3dfb853c	0.12281272
121	0x3da6a4f8	0.08136934
122	0xbd5596b9	-0.052145693
123	0x3cbb83c7	0.022889985
124	0xbc4359c1	-0.0119232545
125	0xbe612741	-0.2198763
126	0x3d353eb1	0.04424924
127	0xbd2fe9db	-0.04294763
128	0xbab857ac	-0.0014064214
129	0xbd239609	-0.039938007
130	0x3bf73e7b	0.00754529
131	0x3c26151b	0.010136868
132	0x3e15ed5e	0.1464133
133	0xbc32cc32	-0.010912942
134	0xbda2e191	-0.0795318
135	0x3d440e10	0.047864974
136	0xbbd8b933	-0.0066138743
137	0xbdc57141	-0.09640742
138	0x3d8dce71	0.06924141
139	0xbe060d3a	-0.13090983
140	0xbde331f8	-0.11093515
141	0xbd04f9ce	-0.032464795
142	0x3ddcd8ec	0.10783562
143	0xbc2c6dfd	-0.01052427
144	0xbc531ef2	-0.012885796
145	0x3c2aea69	0.010431864
146	0x3da6c037	0.08142131
147	0x3dd6e0a9	0.10492069
148	0x3ce86982	0.028370623
149	0xbd856fc5	-0.06515459
150	0xbd033201	-0.03203011
151	0xbd9d35ab	-0.07676252
152	0x3da587b9	0.08082528
153	0x3d3b6131	0.045746986
154	0xbd399913	-0.045312
155	0x3db11732	0.08647002
156	0xbd62b8a2	-0.05535186
157	0xbd7875de	-0.060659282
158	0xbd6d7fba	-0.057983138
159	0xbe0b8bdd	-0.13627572
160	0x3d31a813	0.04337318
161	0xbdd70fa7	-0.10501032
162	0x3d827db1	0.0637163
163	0xbe35587d	-0.17709537
164	0xbe0ff457	-0.14058052
165	0xbe14cf47	-0.14532195
166	0x3d1ba038	0.037994593
167	0x3d76232e	0.060092144
168	0x3bafe308	0.0053676404
169	0xbd6d6cdf	-0.057965156
170	0xbdb28bdd	-0.08718083
171	0xbe0d7a06	-0.1381608
172	0xbe10861c	-0.14113659
173	0x3ca1827c	0.01971554
174	0xbd7c106a	-0.06153909
175	0x3c36707e	0.011135219
176	0xbd50d455	-0.050983746
177	0x3d8c1477	0.06839841
178	0x3d743b68	0.059626967
179	0xbe4793ca	-0.19489971
180	0x3d9ff842	0.07811023
181	0xbddeb44d	-0.108742334
182	0x3bca6d11	0.0061775525
183	0xbb3cabd3	-0.0028788939
184	0xbe1b7bca	-0.1518394
185	0x3d0ad268	0.033892065
186	0xbae9057a	-0.0017778121
187	0x3d15a102	0.036530502
188	0xbd7ad34e	-0.061236672
189	0x3d81947d	0.0632715
190	0x3d68e3db	0.056857925
191	0xbd9226a5	-0.07136277
192	0x3d0ec9c3	0.034860384
193	0x3d6e5f4d	0.058196355
194	0xbe0ce03e	-0.13757417
195	0x3d4a8571	0.049443666
196	0xbdb400aa	-0.08789189
197	0xbdef119a	-0.11673279
198	0x3d9a3d26	0.075311944
199	0xbd883626	-0.06650953
200	0xbe203b86	-0.15647706
201	0x3d7b29ba	0.06131909
202	0x3c9207a8	0.017825916
203	0xbcbadd49	-0.022810595
204	0xbdc44e27	-0.09585219
205	0xbd850aa6	-0.06496172
206	0x3d46b18e	0.048509173
207	0xbde1a890	-0.11018479
208	0x3dec24ab	0.11530431
209	0x3c2d3f7b	0.010574217
210	0xbc26cb72	-0.010180341
211	0xbdbd4b5e	-0.09242891
212	0xbdb515f6	-0.08842079
213	0xbb8ecff7	-0.0043582874
214	0xbd64ab9a	-0.055827715
215	0xbe17da10	-0.14829278
216	0xbe06719c	-0.13129276
217	0x3bb9501a	0.005655301
218	0x3e035fda	0.12829533
219	0xbdcfeaa7	-0.10152178
220	0xbe2f94d2	-0.17146614
221	0x3d941fc0	0.07232618
222	0xbdbbbeef	-0.09167277
223	0xbda10df2	-0.07863988
224	0xbe0a371c	-0.13497585
225	0x3cb71267	0.022347642
226	0x3d10d0e2	0.035355456
227	0xbdf8a367	-0.121405415
228	0x3dad7ee7	0.0847147
229	0xbcfaf712	-0.03063539
230	0x3d59ac02	0.053142555
231	0xbcc84e0e	-0.024451282
232	0x3d0a5989	0.033776794
233	0xbc9662fc	-0.018357746
234	0xbd100352	-0.035159416
235	0x3d9117c7	0.07084613
236	0xbe2e7af3	-0.17039089
237	0xbd08e5f3	-0.03342242
238	0xbd9d9bd3	-0.07695737
239	0x3d8bd4b4	0.06827679
240	0x3dff8313	0.12476172
241	0x3e7ba628	0.24575102
242	0xbc213260	-0.0098386705
243	0xbddb4238	-0.107059896
244	0xbc247126	-0.010036742
245	0x3ccd2cf0	0.025045842
246	0x3e030018	0.12793005
247	0xbcef538e	-0.029214647
248	0xbe1f9a63	-0.15586238
249	0xbc59864e	-0.01327665
250	0x3d7a9edc	0.061186656
251	0x3b88979e	0.004168465
252	0x3c566445	0.01308543
253	0x3d154cf0	0.036450326
254	0x3d01244b	0.031528752
255	0x3c92e6bf	0.017932294

a2c_network.actor_mlp.2.bias f4 [64]
0	0xbdcf328b	-0.10117062
1	0xbe01a597	-0.12660824
2	0xbd4246b8	-0.047430724
3	0xbcca1b3b	-0.024671188
4	0xbcdf1247	-0.027230395
5	0xbe03d3d3	-0.12873773
6	0xbe692e3e	-0.22771546
7	0xbd271b90	-0.04079777
8	0xbd67dc02	-0.0566063
9	0x3d335b89	0.043788467
10	0x3caedc36	0.02134524
11	0xbdca9192	-0.098910466
12	0xbd276c90	-0.040875018
13	0xbdb932b1	-0.09042872
14	0x3d4a7d5b	0.049435955
15	0xbd4e56e4	-0.050375834
16	0x3d24cb14	0.040232733
17	0xbdc76e6c	-0.09737858
18	0x3d5702c6	0.05249288
19	0xbd4b0ef0	-0.049574792
20	0xbddc79b8	-0.107654035
21	0x3d8f9575	0.070109285
22	0x3d5c320f	0.053758677
23	0x3cc471c2	0.023980025
24	0xbdbd76fe	-0.092512116
25	0xbe050f88	-0.12994206
26	0x3d08a53b	0.0333607
27	0x3dbab76e	0.09117018
28	0x3d26cd7a	0.0407233
29	0x3c5e12d1	0.013554291
30	0xbcc3dbc5	-0.023908505
31	0x3ce2c45d	0.027681524
32	0xbdc6732d	-0.09689937
33	0xbca8af31	-0.02059135
34	0xbd0b1efc	-0.033965096
35	0x3b2e1057	0.0026560032
36	0xbccc33e3	-0.024927085
37	0x3d20fb7c	0.039302334
38	0xbd8553fa	-0.06510158
39	0xbdd346aa	-0.103162125
40	0x3d5682df	0.052370902
41	0xbd20d367	-0.03926411
42	0xbd9dd208	-0.07706076
43	0x3dd5846c	0.10425648
44	0xbc53d90f	-0.012930169
45	0xbe1104c5	-0.14161976
46	0x3d3805b7	0.044927325
47	0xbdddb690	-0.10825837
48	0x3dc33fb8	0.09533638
49	0xbd81fcd9	-0.06347055
50	0x3c89bd39	0.016813861
51	0x3b493508	0.0030701775
52	0xbe2372da	-0.15961781
53	0xbd48c185	-0.04901268
54	0xbddea591	-0.10871423
55	0x3ddec5c7	0.10877567
56	0xbda32969	-0.07966883
57	0xbc89ebaa	-0.016836006
58	0x3d2d5028	0.04231277
59	0x3c512c04	0.012766842
60	0x3d8bc201	0.06824113
61	0xbd8a49fc	-0.06752393
62	0xbd6eb62b	-0.058279198
63	0xbe2c57fd	-0.1683044

a2c_network.actor_mlp.4.weight f4 [32, 64]
0	0x3c3f4d35	0.011676122
1	0xbcb2e491	-0.021837505
2	0xbda5c202	-0.08093645
3	0x3d553510	0.052052557
4	0x3e08a11b	0.13342707
5	0x3d5a0054	0.05322297
6	0x3c27b611	0.010236279
7	0xbdfc947b	-0.12333008
8	0xbcc82c86	-0.024435293
9	0xbe4b0735	-0.19826968
10	0xbca87a74	-0.020566203
11	0x3d729088	0.059219867
12	0xbd1470f4	-0.036240533
13	0xbdd2e2e5	-0.10297183
14	0x3c193fce	0.009353591
15	0xbdcc503e	-0.099762425
16	0xbd766491	-0.0601545
17	0xb9f3b5a6	-0.0004648391
18	0xbdb89d2c	-0.09014353
19	0xbc76a377	-0.0150536215
20	0x3e166145	0.14685543
21	0xbc40130a	-0.011723289
22	0x3c122cd2	0.008921819
23	0xbce4b0fb	-0.027916422
24	0x3ca8855c	0.020571403
25	0xbd554672	-0.052069135
26	0xbde06b64	-0.10957983
27	0xbcdcf1c0	-0.026970744
28	0x3cb6289c	0.022236161
29	0xbd9935be	-0.07480954
30	0x3cfcd254	0.030862011
31	0xbdaf6cf9	-0.08565707
32	0xbc851e91	-0.016249927
33	0x3c91f528	0.017817095
34	0x3cb3d0c4	0.021950133
35	0x3ce00a5a	0.027348686
36	0x3d94257a	0.072337106
37	0xbde2ca7e	-0.110737786
38	0x3bf79cfe	0.0075565567
39	0xbd2e9356	-0.04262098
40	0xbe393d19	-0.18089713
41	0xbcff77cf	-0.031185059
42	0x3e133517	0.14375721
43	0x3e13fd69	0.14452137
44	0xbe066803	-0.13125615
45	0x3c47ca84	0.01219428
46	0x3d115f28	0.03549114
47	0x3e02452b	0.12721698
48	0xbc9d3a9e	-0.01919299
49	0xbd940abe	-0.072286114
50	0xbcb56f9f	-0.022147952
51	0x3c510f26	0.012759959
52	0xbda35970	-0.07976043
53	0xbe51b01a	-0.20477334
54	0xbd09497f	-0.033517357
55	0xbe304942	-0.17215446
56	0xbdbfe35b	-0.093695365
57	0x3d869927	0.0657218
58	0x3cf41518	0.029795215
59	0x3d78089a	0.060555078
60	0xbd463724	-0.04839243
61	0xbd8a58f4	-0.06755248
62	0x3e269c34	0.16270524
63	0x3daf70de	0.085664496
64	0x3e0911b1	0.13385655
65	0xbe049fee	-0.12951633
66	0xbdfe8cfb	-0.12429234
67	0xbdac5984	-0.08415511
68	0xba8df963	-0.0010831769
69	0xbdabc907	-0.08387952
70	0xbe59eaea	-0.21281019
71	0x3e2a53db	0.16633551
72	0xbe5e0419	-0.2168125
73	0x3d22f5b2	0.039785095
74	0x3dcf55db	0.101237975
75	0xbd6c4ffb	-0.057693463
76	0x3d1332ba	0.03593705
77	0xbc31674a	-0.010827849
78	0xbddcf253	-0.10788407
79	0xbddc09dc	-0.10744068
80	0xbd8f8f7f	-0.070097916
81	0xbea02e1d	-0.31285182
82	0x3df6534c	0.12027606
83	0x3d9c6e88	0.0763827
84	0xbdfe2b32	-0.124105826
85	0x3d7830f0	0.060593545
86	0x3db885bf	0.09009885
87	0x3da07cd7	0.07836311
88	0xbe55dead	-0.20885725
89	0xbde84e59	-0.11343069
90	0x3e5a6e57	0.21331154
91	0x3e02dabb	0.12778752
92	0x3e345e75	0.17614157
93	0x3dc2e482	0.09516241
94	0xbce07580	-0.027399778
95	0x3de2a31d	0.11066268
96	0x3be30aa9	0.006928761
97	0xbdb054f4	-0.086099535
98	0x3b3256a7	0.0027212293
99	0x3dcaa4d8	0.09894723
100	0xbcdb155f	-0.026743589
101	0x3cb9b6fc	0.022670262
102	0xbe26c7df	-0.16287182
103	0x3d657c24	0.056026593
104	0xbc9c84e1	-0.01910633
105	0x3c10ca4f	0.008837297
106	0xbbd5585b	-0.006510777
107	0x3d204921	0.03913224
108	0x3c8b20fa	0.016983498
109	0xbd98e0e8	-0.074647725
110	0xbe0cb503	-0.13740925
111	0xbe55a2be	-0.20862862
112	0x3d9ed787	0.07755952
113	0x3d592364	0.053012267
114	0xbe025ecc	-0.12731475
115	0xbda4d3f5	-0.0804824
116	0xbea7dcb2	-0.32785565
117	0xbbf0e4f4	-0.007351512
118	0xb9a0da4c	-0.00030680222
119	0x3e07d835	0.1326607
120	0xbd9fb882	-0.07798864
121	0xbda11f26	-0.07867269
122	0x3d94db02	0.07268335
123	0x3d619878	0.055077046
124	0x3e38cfa3	0.18047957
125	0xbd9de5be	-0.077098355
126	0xbd09f9ec	-0.03368561
127	0xbd9294bf	-0.07157277
128	0x3c83e36b	0.016099652
129	0xbdb677e2	-0.089095846
130	0xbbae0bf0	-0.0053114817
131	0x3bb64db6	0.005563463
132	0xbda1ee60	-0.079067945
133	0xbdd45191	-0.1036712
134	0xbdc01254	-0.09378496
135	0xbcfb9b5e	-0.030713733
136	0xbdd50c53	-0.10402741
137	0xbc0d0f09	-0.008609542
138	0x3c65c8c8	0.014024921
139	0xbc3a39a0	-0.011366278
140	0xbe531c09	-0.20616163
141	0xbe155763	-0.14584117
142	0x3dc7749b	0.097390376
143	0x3be69d1f	0.0070377733
144	0x3cbaf2d6	0.022820871
145	0xbe1a6da5	-0.15080889
146	0x3df46500	0.11933327
147	0xbdcd577c	-0.10026452
148	0x3da90914	0.08253685
149	0x3cebab93	0.028768336
150	0xbdf56674	-0.11982432
151	0x3d193759	0.0374063
152	0xbd6fda91	-0.05855805
153	0x3c42b804	0.011884693
154	0xbe005ca1	-0.12535335
155	0xbc9d09b2	-0.019169662
156	0x3d3fcb9e	0.046825044
157	0x3dc68745	0.09693769
158	0xbde7b8d6	-0.113145515
159	0x3d9f7d4a	0.07787569
160	0xbcc53e8f	-0.024077682
161	0x3d8222e4	0.06354311
162	0x3df87f4c	0.12133655
163	0x3d2c7f7a	0.04211376
164	0xbc0ff6c7	-0.008786864
165	0xbd9a40f5	-0.07531921
166	0xbe0507fc	-0.12991327
167	0xbdbb50a2	-0.09146239
168	0xbdcae78a	-0.09907444
169	0x3e21bf15	0.15795548
170	0x3df78b5c	0.120871276
171	0xbc94e8e2	-0.018177453
172	0xbe65d0df	-0.22442959
173	0x3d8be5c5	0.068309344
174	0x3d489e71	0.048979226
175	0xbd6b863e	-0.05750107
176	0xbcf2e696	-0.029650968
177	0xbda3ad44	-0.07992032
178	0xbd8bfcda	-0.06835337
179	0xbd5c12f4	-0.053729013
180	0xbdfab7c5	-0.122420825
181	0xbdcc528a	-0.099766806
182	0x3d5191d4	0.051164463
183	0xbd7fe583	-0.06247474
184	0x3d8437a7	0.06455927
185	0x3d50760f	0.05089384
186	0xbe33f677	-0.17574488
187	0xbde18dcc	-0.11013374
188	0xbcf45e3c	-0.02983009
189	0xbe11c203	-0.14234166
190	0xbd9a9436	-0.075478
191	0x3dc1ca77	0.09462445
192	0xbd96cbbc	-0.07363078
193	0xbd6e53ce	-0.05818539
194	0xbe241944	-0.16025263
195	0xbe4f4965	-0.20242842
196	0xbdabe274	-0.08392802
197	0xbd5b56ff	-0.053549763
198	0xbd514da7	-0.051099446
199	0xbc7ed6c4	-0.015554134
200	0xbd402bae	-0.046916656
201	0x3dfc8347	0.12329727
202	0xbd6279e8	-0.05529204
203	0x3d832494	0.06403461
204	0xbdb241ef	-0.08703982
205	0xbe860973	-0.26179084
206	0x3e50919b	0.20368044
207	0x3d46d385	0.048541564
208	0xbca3aa37	-0.019978626
209	0xbce28213	-0.027649915
210	0x3e5a3772	0.21310213
211	0xbde0ff4f	-0.10986196
212	0xbd51110f	-0.05104166
213	0xbdb308b4	-0.08741894
214	0x3dec308c	0.11532697
215	0x3c5fa764	0.013650749
216	0x3dab2c3b	0.08358046
217	0x3c5cab85	0.013468628
218	0xbdf04027	-0.11730986
219	0x3df8b961	0.12144733
220	0xbdc44e68	-0.09585267
221	0x3dce51ea	0.100742176
222	0xbe2a1fe3	-0.16613726
223	0x3ca4ddd7	0.020125313
224	0x3d00fe16	0.031492315
225	0x3cb79889	0.022411602
226	0xbe4ddd25	-0.20103891
227	0x3dffeea1	0.12496687
228	0x3dcfb290	0.1014148
229	0xbe0d4581	-0.13796045
230	0xbe3b115e	-0.18268344
231	0xbe305aed	-0.17222185
232	0xbe6cc182	-0.23120692
233	0x3e9d56fb	0.30730423
234	0x3e2441ae	0.1604068
235	0x3e23b344	0.15986353
236	0xbe41ab8d	-0.18913098
237	0xbd9b81c4	-0.0759311
238	0xbd16afa7	-0.03678861
239	0xbc64b4db	-0.013959135
240	0x3d69eb62	0.057109244
241	0xbe407b10	-0.18796945
242	0x3c8253d5	0.015909115
243	0xbe1b2ff7	-0.15155016
244	0x3c4ab2e2	0.012371751
245	0x3ced3e23	0.028960293
246	0xbd046613	-0.032323908
247	0xbdc2c3c8	-0.095099986
248	0x3d756df8	0.059919327
249	0xbd372b64	-0.044719115
250	0xbd9f7571	-0.07786072
251	0x3d916677	0.07099622
252	0x3dda5228	0.10660201
253	0xbe2c758d	-0.16841717
254	0x3d98c5b1	0.07459582
255	0x3df71c6f	0.1206597

a2c_network.actor_mlp.4.bias f4 [32]
0	0xbd92f8c8	-0.071763575
1	0x3db2b53b	0.08725973
2	0xbc4cdcc5	-0.012503807
3	0xbd292195	-0.041291792
4	0xbd5da80f	-0.05411535
5	0x3c9befa5	0.01903517
6	0xbccd07f5	-0.025028208
7	0xbb82021c	-0.0039675366
8	0xbccf30c7	-0.025291814
9	0xbd9447fd	-0.07240293
10	0x3d548ff2	0.05189509
11	0xbd3f0170	-0.04663223
12	0xbdc72336	-0.09723513
13	0xbcdd2c25	-0.026998589
14	0xbdbc0ba9	-0.091819115
15	0xbba980cd	-0.005172825
16	0x3d79f224	0.06102194
17	0x3c24321c	0.010021713
18	0xbc9f893b	-0.019474616
19	0xbd1df0a4	-0.03855957
20	0xbdbfea11	-0.093708165
21	0x3d9c3c76	0.076287195
22	0xbcf41f16	-0.02979998
23	0xbd7f015c	-0.062257156
24	0x3d88d505	0.06681255
25	0x3d3388d2	0.043831654
26	0xbd710e48	-0.05885151
27	0xbd9578bb	-0.07298418
28	0x3c4b5758	0.012410961
29	0x3d77b793	0.060477804
30	0xbd744d26	-0.059643887
31	0x3db7b1de	0.08969472

a2c_network.value.weight f4 [1, 32]
0	0x3d8287af	0.06373536
1	0x3e89aa88	0.26887918
2	0x3cc8b8e1	0.02450222
3	0x3c0c318f	0.008556738
4	0xbdf07808	-0.11741644
5	0x3e277806	0.16354379
6	0xbc828e5d	-0.015937025
7	0x3d1d8dad	0.03846519
8	0x3cbec7c6	0.023288619
9	0x3d42b41a	0.04753504
10	0x3d3c0f00	0.045912743
11	0xbd8a9730	-0.06767118
12	0x3b93b1cf	0.0045072804
13	0x3de73885	0.11290077
14	0xbdd1f165	-0.102511205
15	0x3c8e53d1	0.017373951
16	0x3e78de9a	0.24303666
17	0x3e3d4828	0.18484557
18	0xbde62178	-0.112368524
19	0xbd538761	-0.05164278
20	0x3d64d000	0.055862427
21	0x3e545fbb	0.20739643
22	0xbd9c903f	-0.076447
23	0xbd952e59	-0.07284231
24	0x3c86123a	0.016366113
25	0x3e3f9c46	0.18711957
26	0xbd08263b	-0.033239584
27	0xbe1f0b48	-0.15531647
28	0x3bd1242c	0.006382486
29	0x3e388bf8	0.18022144
30	0xbdc414ec	-0.09574303
31	0x3d3a2c5e	0.045452468

a2c_network.mu.weight f4 [7, 32]
0	0xbd801664	-0.06254271
1	0xbde6d5a9	-0.11271221
2	0xbdbe8915	-0.0930349
3	0xbe57a50e	-0.21059057
4	0x3d52ce33	0.05146618
5	0xbdfb3c10	-0.122673154
6	0x3bfeab87	0.0077719125
7	0x3da659e4	0.08122614
8	0xbe21d5a9	-0.15804161
9	0x3e3f2a8c	0.18668574
10	0x3de6658d	0.11249838
11	0x3d1ac1b9	0.037782405
12	0x3e5b12e4	0.21393925
13	0x3b722b79	0.0036952181
14	0x3cd23423	0.025659626
15	0xbda81044	-0.082062274
16	0xbd8448ff	-0.064592354
17	0xbe1ed69c	-0.15511554
18	0xbe27ef7b	-0.16399948
19	0xbdcb60d0	-0.09930575
20	0x3e59ad86	0.212576
21	0xbdefa955	-0.117022194
22	0xbe04d156	-0.1297048
23	0xbe1f9c22	-0.15586904
24	0xbe144ba6	-0.14481983
25	0x3e1b60e2	0.15173677
26	0xbe0625c4	-0.13100344
27	0xbdb9b233	-0.09067192
28	0xbe13aa49	-0.14420427
29	0x3c8c3245	0.017113814
30	0xbe1c4f66	-0.15264663
31	0xbe1f1b67	-0.15537797
32	0x3e3f7882	0.18698314
33	0xbacacd7b	-0.0015472615
34	0xbd456d63	-0.048200022
35	0x3c7dab36	0.015482714
36	0x3e1c6297	0.15271984
37	0x3d982c87	0.07430368
38	0xbd619a6e	-0.055078916
39	0xbe07c9b2	-0.13260534
40	0xbd7cae0d	-0.061689425
41	0x3ddf1325	0.108923234
42	0xbe4a2d4b	-0.1974384
43	0x3e284c94	0.16435462
44	0xbda5eb58	-0.08101529
45	0x3e030ff1	0.1279905
46	0x3dc40c69	0.095726795
47	0x3e2fd2b7	0.17170225
48	0xbdf790a0	-0.12088132
49	0xbc69b33c	-0.014263924
50	0xbd9e1ad9	-0.077199645
51	0x3e821f6b	0.25414595
52	0x3c4ca630	0.012490794
53	0xbd1587d4	-0.03650649
54	0x3e88262e	0.2659163
55	0xbc7defe7	-0.015499092
56	0xbcd7dc7d	-0.026350254
57	0xbe073dc8	-0.13207161
58	0x3e2f0ce2	0.17094758
59	0x3b88fa3f	0.0041802223
60	0xbe2f3966	-0.1711174
61	0x3d6a01d7	0.05713066
62	0x3c687597	0.014188192
63	0x3d8d8d5e	0.06911729
64	0x3d6aab7f	0.057292458
65	0xbde62f62	-0.11239506
66	0xbe5cc15a	-0.21558133
67	0xbe53361e	-0.20626113
68	0x3c7a1ca4	0.0152656175
69	0xbce1e7cc	-0.02757635
70	0x3e658e52	0.22417572
71	0xbe20cb6c	-0.157026
72	0x3d6e4c95	0.058178503
73	0xbe79f14b	-0.24408452
74	0x3c7ec360	0.015549511
75	0x3e8950b8	0.26819396
76	0xbdc92f5e	-0.09823488
77	0xbccf5808	-0.025310531
78	0xbb8a0446	-0.004211935
79	0xbd8cafa4	-0.06869438
80	0x3db439e7	0.088001065
81	0xbd061144	-0.03273131
82	0x3c92cd09	0.017920034
83	0xbe60224e	-0.21888086
84	0xbdaecbbc	-0.08534953
85	0xbd92b5da	-0.07163592
86	0xbe0e2196	-0.1388
87	0x3de5e1d6	0.112247154
88	0x3e51016d	0.204107
89	0xbda3da67	-0.08000641
90	0xbc93792b	-0.018002113
91	0x3df64739	0.120253034
92	0x3e67589f	0.225924
93	0x3dc0e9ca	0.09419592
94	0x3d4b96b4	0.04970427
95	0x3e477ae3	0.19480471
96	0x3e25ee34	0.16204149
97	0x3af3fdc3	0.0018615056
98	0x3cdbb03c	0.026817434
99	0x3e8c81de	0.2744283
100	0xbdd6d508	-0.10489851
101	0x3e11577f	0.14193533
102	0x3e484986	0.19559297
103	0x3c9bac91	0.019003185
104	0xbdc5be70	-0.09655464
105	0x3e2c4b32	0.1682556
106	0x3d926293	0.07147708
107	0x3da515f4	0.08060828
108	0x3d42e5df	0.047582503
109	0x3db22187	0.08697801
110	0x3dfa5449	0.12223107
111	0xbd920a02	-0.07130815
112	0xbe06a305	-0.13148125
113	0x3a8c9d37	0.0010728006
114	0x3d3bde67	0.045866396
115	0xbda1b633	-0.0789608
116	0x3dee4cb2	0.11635722
117	0xbe35d4f1	-0.17757012
118	0x3d1eb3c5	0.03874566
119	0xbe001dfe	-0.12511441
120	0x3e7454b5	0.23860438
121	0xbd948d35	-0.072534956
122	0x3cdc7d24	0.02691514
123	0x3e03f331	0.12885739
124	0x3e5a9c5b	0.21348707
125	0x3df14120	0.1178
126	0x3e8c3c8c	0.27389944
127	0xbe1e617d	-0.15466876
128	0xbe39d282	-0.18146709
129	0x3d786a6e	0.060648374
130	0xbcb03259	-0.021508383
131	0x3d9d3c46	0.07677512
132	0x3e0c1fc7	0.13683997
133	0xbd9318da	-0.071824744
134	0xbd9fe266	-0.07806854
135	0x3e6f51da	0.23371068
136	0xbdc9fa92	-0.098622456
137	0xbe25c5ca	-0.16188732
138	0x3e876b1a	0.264489
139	0xbd18f360	-0.037341475
140	0xbd7e437b	-0.062076073
141	0x3e1ef2db	0.1552233
142	0xbdf60746	-0.12013106
143	0xbd48eddb	-0.04905496
144	0xbe2c43a7	-0.16822682
145	0xbdd658d1	-0.10466159
146	0x3da8b110	0.08236897
147	0xbdb821d7	-0.089908294
148	0x3d4588da	0.048226215
149	0x3e2479fb	0.16062157
150	0x3b798ab9	0.003807707
151	0x3db21f07	0.08697324
152	0x3da62147	0.08111816
153	0xbd275b32	-0.040858455
154	0xbe5d321f	-0.21601151
155	0xbe2f7c88	-0.17137349
156	0xbe145127	-0.14484082
157	0x3dbe0111	0.09277547
158	0x3e22b7bc	0.15890402
159	0x3e6099d8	0.21933687
160	0x3df05b82	0.11736204
161	0xbd5a3d53	-0.05328114
162	0x3e2151ca	0.15753856
163	0xbd4be53a	-0.049779154
164	0x3dc5c9f6	0.096576616
165	0xbe26eec9	-0.16302027
166	0x3e60d78a	0.21957222
167	0x3e0f2899	0.1398033
168	0x3d3e1600	0.0464077
169	0xbca401ab	-0.020020327
170	0x3d8d2bde	0.068931326
171	0xbdc9246a	-0.098213986
172	0xbdd26182	-0.102725044
173	0xbe1f26ed	-0.15542193
174	0xbd4fcaab	-0.05073039
175	0x3d1c4b8a	0.038157977
176	0xbe18e1d4	-0.14929897
177	0x3d2317d4	0.039817646
178	0xbd983203	-0.07431414
179	0x3e27136d	0.16316004
180	0xbcef0d20	-0.029181063
181	0xbdb00702	-0.08595087
182	0x3d948a07	0.07252889
183	0xbd517a81	-0.05114222
184	0x3d1aae50	0.037763894
185	0x3b7b1f0b	0.0038318064
186	0xbdb4af0a	-0.088224486
187	0x3d85e459	0.065376945
188	0xbe1e80b6	-0.15478787
189	0x3da8ce27	0.082424454
190	0xbd4c8a97	-0.049936857
191	0x3c572ad9	0.013132774
192	0xbd0e9121	-0.034806374
193	0x3d53b95f	0.051690456
194	0xbdc91fdb	-0.09820529
195	0xbdbdab7a	-0.09261222
196	0xbcf9b8bc	-0.030483596
197	0x3de70a54	0.11281267
198	0xbd18f0c6	-0.037338994
199	0x3e3d6a09	0.1849748
200	0xbe1460e3	-0.14490084
201	0xbcc7395c	-0.024319343
202	0x3e2b50de	0.16730067
203	0xbc327862	-0.010892959
204	0x3e0ed801	0.13949586
205	0x3af451a3	0.0018640052
206	0x3da34485	0.079720534
207	0x3cdc020e	0.026856449
208	0xbd904343	-0.07044079
209	0xbdd7e8d3	-0.105424546
210	0x3ddb7b8b	0.10716923
211	0x3ccd656a	0.025072772
212	0xbcb46d9d	-0.022024924
213	0xbd16756c	-0.036733076
214	0xbdd0e3ec	-0.10199723
215	0xbe510054	-0.20410281
216	0x3cd4106a	0.025886733
217	0xbe6400cb	-0.22265927
218	0xbc63a3ab	-0.013894002
219	0x3cbc9e9e	0.023024853
220	0x3e119236	0.14215931
221	0x3dfd6a03	0.12373736
222	0x3d65fc34	0.056148723
223	0xbdec9346	-0.11551528

a2c_network.mu.bias f4 [7]
0	0xbd44af15	-0.048018534
1	0xbc5966b4	-0.013269115
2	0x3d73e7dd	0.059547294
3	0xbd466dee	-0.04844468
4	0x3de200cc	0.11035308
5	0xbcf99c02	-0.030469898
6	0x3d4935da	0.049123622

exp_avg f4 [7]
0	0xbbf9ab87	-0.0076193246
1	0x3b19e1e2	0.0023480584
2	0x3aefc1a4	0.0018291962
3	0xbbc712cc	-0.006075239
4	0xbb88dcd2	-0.0041767145
5	0xbb3cf48c	-0.0028832285
6	0xbb200cac	-0.0024421616

exp_avg_sq f4 [7]
0	0x3a48e899	0.0007664054
1	0x3a4d6462	0.00078350876
2	0x3a118ccd	0.0005552292
3	0x3a517f91	0.0007991726
4	0x3a263ae0	0.00063411705
5	0x3a37b77b	0.0007008237
6	0x3a337e39	0.0006847117

exp_avg f4 [128, 18]
0	0x3a188728	0.00058184797
1	0xba401214	-0.00073269126
2	0xba5e290d	-0.0008474745
3	0xb89f7515	-7.603519e-05
4	0xba24d4bd	-0.0006287804
5	0x3a95d9fa	0.001143276
6	0xba148cc3	-0.0005666727
7	0xbad20b3d	-0.0016025078
8	0x3a419c15	0.0007385624
9	0x3a5da709	0.0008455371
10	0xbb40ed72	-0.0029438403
11	0x3971f572	0.00023074987
12	0xba9b5916	-0.0011852111
13	0x3a87b266	0.001035285
14	0x3ab5d57d	0.0013872829
15	0xb9a50066	-0.0003147155
16	0xbabe6bdf	-0.0014527998
17	0x3b0f9796	0.002191042
18	0x3a046102	0.00050498557
19	0x3adcd140	0.0016847029
20	0x395e1037	0.0002117761
21	0x39c81465	0.00038162168
22	0x3a774530	0.0009432612
23	0xb8eaa807	-0.00011189287
24	0xba964d78	-0.0011467179
25	0x3816aff8	3.592667e-05
26	0x3ad04142	0.0015888589
27	0xbaae8e4a	-0.0013317552
28	0x3a3e5175	0.0007260063
29	0xbaad7e92	-0.0013236573
30	0xb9e9e020	-0.0004460821
31	0xb9f7907a	-0.00047219155
32	0xbaaded37	-0.0013269548
33	0xba532c93	-0.00080556533
34	0xb9b2134f	-0.00033965192
35	0xbb1b0a11	-0.0023657123
36	0xb8abe0bd	-8.195776e-05
37	0x3aa1e443	0.0012351352
38	0xb98cbdc8	-0.0002684428
39	0xba2df87a	-0.0006636452
40	0x39bd0d0f	0.0003605862
41	0xba077a4a	-0.0005168064
42	0xba87d44c	-0.0010362952
43	0x3a29d6c5	0.00064788415
44	0x38f0787f	0.00011466536
45	0xbabb1972	-0.0014274551
46	0x3a070220	0.0005150158
47	0xb958db55	-0.00020681073
48	0xba39a50b	-0.0007081783
49	0x3a02418c	0.00049688737
50	0xba235dc4	-0.0006231929
51	0x3a135d53	0.00056215114
52	0xba39329c	-0.00070647313
53	0xb9f52a7b	-0.00046761692
54	0x398c74a7	0.00026789794
55	0x3ad72fb9	0.0016417421
56	0x3a600582	0.00085457426
57	0x3a8223da	0.0009928897
58	0x3aa6b3b2	0.0012718348
59	0xba1ece88	-0.0006057997
60	0xb9e7f004	-0.0004423858
61	0xb997f2fb	-0.00028982
62	0x3aeba9d1	0.0017979686
63	0xb97bfd1b	-0.00024031514
64	0xba6ce0b7	-0.00090361707
65	0xb9d21f1b	-0.00040077497
66	0xb8e3da21	-0.00010864833
67	0xb9b6fd83	-0.00034902626
68	0xb97ae4d6	-0.00023927106
69	0xbae7a8de	-0.0017674228
70	0xbade85b2	-0.00169771
71	0x3a3fa00d	0.0007309921
72	0xbb2aefca	-0.0026082867
73	0x3b0c69b9	0.002142532
74	0x3a1c891c	0.00059713586
75	0xba493447	-0.00076753314
76	0x3a3c473f	0.00071822474
77	0xba92bb64	-0.0011194763
78	0x3add51dd	0.0016885359
79	0xba5592aa	-0.000814716
80	0x3a84ad26	0.0010122403
81	0xba2af7df	-0.0006521921
82	0x3a12d8a3	0.00056017394
83	0xb97f9681	-0.00024374762
84	0xb9633c07	-0.00021670769
85	0x3a0d4592	0.000538909
86	0x3a9a7d3e	0.0011786593
87	0xb9ccfed8	-0.00039099785
88	0xbacacc1d	-0.0015472207
89	0x3ba18eb6	0.0049303425
90	0xbad4fa9f	-0.0016249007
91	0x3aa955ea	0.0012919281
92	0x3acc2e6b	0.0015577798
93	0xbac1ceed	-0.00147864
94	0xb743687d	-1.1647234e-05
95	0xb8d7ce26	-0.00010290397
96	0x3a59ac57	0.00083035737
97	0xb9a8c7ef	-0.0003219242
98	0x3979d5dc	0.0002382616
99	0x3932f746	0.0001706752
100	0xba5dbbfe	-0.0008458494
101	0xb9c23666	-0.00037043093
102	0xb9fb5f03	-0.0004794524
103	0x393dd090	0.0001810214
104	0x3a933318	0.0011230437
105	0x36695441	3.4768748e-06
106	0xbb7120b8	-0.0036793184
107	0x3b11b88c	0.0022235243
108	0x3ab6f77b	0.0013959253
109	0xbafd7a89	-0.0019338886
110	0x3aac4991	0.0013144483
111	0x3a471bc2	0.0007595384
112	0xba6581f1	-0.00087550195
113	0xb88ff35a	-6.864099e-05
114	0x398ff47d	0.00027457243
115	0xba63c254	-0.000868832
116	0x38ed26e2	0.00011308283
117	0x3aa86d27	0.0012849913
118	0xb91264bb	-0.0001396117
119	0xb8565540	-5.110097e-05
120	0x385b2010	5.224353e-05
121	0xba24aaa0	-0.00062815286
122	0xbab57ca2	-0.0013846348
123	0xba815440	-0.0009867027
124	0xb9920d46	-0.0002785718
125	0xbb46bc9e	-0.0030324827
126	0x3ac6b09c	0.0015158835
127	0x3945b319	0.00018854103
128	0xba84becb	-0.0010127662
129	0xba63b380	-0.00086861104
130	0xba7fe73a	-0.00097619335
131	0x3b15f931	0.0022884125
132	0xb9f3931b	-0.00046458174
133	0x3a46810b	0.00075723295
134	0x3952afc4	0.00020092638
135	0xba27ca6d	-0.0006400708
136	0xbac6ee03	-0.0015177134
137	0xbaa6ea6d	-0.0012734659
138	0x3a2ddca1	0.00066323025
139	0x38773b55	5.8944646e-05
140	0xba10c499	-0.00055224594
141	0x3aa7a847	0.001279124
142	0xbb430c70	-0.0029762052
143	0x3a8396a7	0.0010039405
144	0xba41078f	-0.0007363492
145	0x3a5895d0	0.000826207
146	0xb9f3f6bf	-0.00046532412
147	0x39f00c4d	0.00045785532
148	0x3998b3af	0.00029125574
149	0xba51a711	-0.0007997612
150	0x3acc1962	0.001557153
151	0xb850ffb2	-4.98292e-05
152	0x3927f216	0.00016016545
153	0xba0f408f	-0.0005464637
154	0x3a3712be	0.0006983689
155	0xb922718c	-0.00015491823
156	0x3a1a7130	0.00058915
157	0x39089ec9	0.00013029123
158	0x398cd96e	0.0002686488
159	0xb8bf5e9e	-9.1252135e-05
160	0x3a8de598	0.001082587
161	0x3b15f663	0.0022882454
162	0x3a5985cf	0.0008297832
163	0xbaf8c992	-0.0018980971
164	0xb98d042f	-0.00026896733
165	0xb97a6471	-0.00023879275
166	0xba1e09df	-0.00060286926
167	0x3a76c483	0.0009413438
168	0xba012059	-0.00049257796
169	0xba419068	-0.0007383884
170	0xba2781d9	-0.0006389893
171	0x3a80fd7e	0.0009841172
172	0xba9780f7	-0.001155882
173	0x39d2691f	0.00040132643
174	0x39b02a85	0.00033601015
175	0xb9282ce9	-0.00016038459
176	0xb9485abb	-0.00019107286
177	0x38be8d25	9.086196e-05
178	0xba9d8d16	-0.0012020196
179	0xbaa3e914	-0.0012505376
180	0xb8934681	-7.0226386e-05
181	0x3a9dafe0	0.0012030564
182	0x3940ed00	0.00018398836
183	0xba9647ba	-0.0011465468
184	0x384cbcce	4.881323e-05
185	0x35f2e9af	1.8098416e-06
186	0xba11838a	-0.0005550912
187	0xb9ff3603	-0.00048677632
188	0x3a3fca1c	0.00073161884
189	0xba8cc8e6	-0.0010741025
190	0xba9bcbf9	-0.001188635
191	0xb9f90377	-0.00047495562
192	0xba6179bb	-0.0008601208
193	0x39f1f64c	0.00046150608
194	0xb931ebc0	-0.00016967859
195	0x373f04f9	1.1385645e-05
196	0xbb439084	-0.0029840777
197	0x3a3e3d40	0.0007257052
198	0x3abe604e	0.0014524551
199	0xbaa19934	-0.0012328983
200	0xba86ff33	-0.0010299444
201	0x3ac7ad54	0.0015234151
202	0xba92abf5	-0.0011190163
203	0x39841c49	0.00025198076
204	0xb87e3958	-6.0611725e-05
205	0xbb0001a7	-0.0019532235
206	0x3a8ae7d8	0.0010597659
207	0xba39ad7e	-0.00070830423
208	0xb986e848	-0.00025731535
209	0xbae420ef	-0.0017404835
210	0x39e92e03	0.00044475505
211	0xba8871f0	-0.0010409933
212	0xbb082d03	-0.0020778782
213	0xba3a23be	-0.0007100663
214	0x38eae448	0.0001120051
215	0xbab66275	-0.001391484
216	0x3a15970e	0.0005706408
217	0xba53a03e	-0.0008072889
218	0x3a197e83	0.00058553385
219	0x399f1be4	0.00030347623
220	0xb96a9817	-0.00022372637
221	0xba595693	-0.00082907936
222	0x3a94580f	0.0011317747
223	0x3a86c656	0.0010282497
224	0xbac8fca5	-0.0015334083
225	0x3a82c584	0.0009977077
226	0x3a824c61	0.0009940976
227	0xba000ac8	-0.0004884419
228	0x3a105eb0	0.00055072736
229	0xb945bb2b	-0.0001885711
230	0x37611d32	1.3417843e-05
231	0xb90a4cc8	-0.00013189309
232	0x3b0e3cd9	0.0021703748
233	0xb9cff95e	-0.0003966791
234	0x3a0af132	0.0005300223
235	0x39cce547	0.00039080737
236	0x3a6247de	0.0008631925
237	0xb93f8368	-0.00018264132
238	0xb937c0e3	-0.00017524096
239	0xb8c22dc7	-9.2591676e-05
240	0x3952eb66	0.00020114853
241	0x3a420de8	0.0007402585
242	0x38298c13	4.0423194e-05
243	0xba02dc7a	-0.000499196
244	0x384f1dda	4.9380447e-05
245	0xb9f7688d	-0.00047189408
246	0xb780e793	-1.5366624e-05
247	0xba13f600	-0.0005644262
248	0xba51ae90	-0.0007998729
249	0xb81f66b4	-3.8004204e-05
250	0xbaee9d55	-0.0018204848
251	0xbb06781f	-0.0020518375
252	0xbad7d28a	-0.0016465944
253	0x3b0f99f0	0.0021911822
254	0x3a922a0c	0.0011151447
255	0xba0f5e0d	-0.0005469032

exp_avg_sq f4 [128, 18]
0	0x388e7a60	6.793882e-05
1	0x389fdb44	7.622552e-05
2	0x385bbef9	5.2391526e-05
3	0x38368be6	4.3522472e-05
4	0x387c4d6c	6.0153587e-05
5	0x38812d63	6.159653e-05
6	0x38735b61	5.8020818e-05
7	0x3882e2cf	6.2411294e-05
8	0x38863235	6.39897e-05
9	0x385c0ea8	5.2465737e-05
10	0x38291172	4.0308987e-05
11	0x3889ab41	6.5645676e-05
12	0x3870cd4d	5.741166e-05
13	0x382df17a	4.1471307e-05
14	0x386b3e9b	5.6086672e-05
15	0x382e5264	4.1561565e-05
16	0x3953332e	0.00020141594
17	0x395a3702	0.00020810592
18	0x3884fa5f	6.340886e-05
19	0x3893f441	7.055002e-05
20	0x388083e4	6.128082e-05
21	0x381f78f5	3.8021204e-05
22	0x386fdf27	5.7189867e-05
23	0x3821b357	3.8552414e-05
24	0x381500f8	3.552527e-05
25	0x3836c9f1	4.3580254e-05
26	0x3848617a	4.7774498e-05
27	0x38289fbd	4.020309e-05
28	0x37f34d1c	2.9003764e-05
29	0x3801668c	3.08515e-05
30	0x382b339a	4.0817635e-05
31	0x37f727f2	2.9463296e-05
32	0x381cbce4	3.7369216e-05
33	0x383ed781	4.5500234e-05
34	0x38f0fa4e	0.00011490715
35	0x38e17ac1	0.00010751701
36	0x3811d475	3.476856e-05
37	0x38085c02	3.2510616e-05
38	0x380e0dd3	3.3868313e-05
39	0x37aaf76f	2.03808e-05
40	0x37f10ae0	2.8734503e-05
41	0x37f3a026	2.9042432e-05
42	0x37a51cfe	1.9683033e-05
43	0x37c58e3d	2.3550465e-05
44	0x37bf4535	2.2801201e-05
45	0x37f1bdef	2.8817884e-05
46	0x3792512c	1.7442355e-05
47	0x3774415d	1.4558752e-05
48	0x37df7bcb	2.6641317e-05
49	0x37b43c3f	2.1485726e-05
50	0x38259433	3.9477087e-05
51	0x37ffd526	3.0497624e-05
52	0x3870af38	5.7383644e-05
53	0x3828d8df	4.02563e-05
54	0x379de2eb	1.8821525e-05
55	0x379a41c3	1.8388853e-05
56	0x3803b54d	3.1401683e-05
57	0x375b1563	1.3058397e-05
58	0x37e54612	2.7331556e-05
59	0x3770eee3	1.4360735e-05
60	0x3757b66c	1.2857472e-05
61	0x37988dcb	1.818584e-05
62	0x37833c35	1.5644453e-05
63	0x378b2c19	1.6590626e-05
64	0x376678c3	1.3737185e-05
65	0x37138b85	8.794367e-06
66	0x37489b51	1.1957091e-05
67	0x371b4969	9.255812e-06
68	0x37a2dac6	1.941378e-05
69	0x382e469b	4.155059e-05
70	0x37e4db71	2.7281903e-05
71	0x37ae3383	2.0766403e-05
72	0x38120707	3.4815657e-05
73	0x37cec971	2.4650917e-05
74	0x37d8c2e3	2.5839958e-05
75	0x37f90da3	2.9689463e-05
76	0x3829025e	4.0294944e-05
77	0x38385835	4.3951168e-05
78	0x3842c470	4.643615e-05
79	0x383a86ea	4.4471504e-05
80	0x38104710	3.4398458e-05
81	0x380bd13e	3.3335054e-05
82	0x37f6eee0	2.943672e-05
83	0x3835472c	4.3220047e-05
84	0x381b3542	3.700448e-05
85	0x3802807a	3.111407e-05
86	0x380beb83	3.335952e-05
87	0x37d84c6b	2.5784791e-05
88	0x3942805f	0.00018549104
89	0x39191ed2	0.00014602699
90	0x383a22be	4.4378212e-05
91	0x380b674e	3.3236392e-05
92	0x382c0812	4.101551e-05
93	0x37ca1467	2.4089777e-05
94	0x38278098	3.9935665e-05
95	0x3806d965	3.2150554e-05
96	0x37ccc5d8	2.4410823e-05
97	0x37ee92e8	2.844022e-05
98	0x37f1a55a	2.8806437e-05
99	0x38126080	3.4898985e-05
100	0x37b393c7	2.1407277e-05
101	0x37d5f4af	2.5505518e-05
102	0x37c704b5	2.372484e-05
103	0x37b4a945	2.1536494e-05
104	0x3813b9fc	3.5220743e-05
105	0x37f1886e	2.8792969e-05
106	0x3899b68c	7.3296105e-05
107	0x388dda1e	6.7640314e-05
108	0x3830a3cf	4.211423e-05
109	0x381703e8	3.6004843e-05
110	0x38609e37	5.355311e-05
111	0x37edef11	2.8363926e-05
112	0x38591673	5.175774e-05
113	0x3814caea	3.5474928e-05
114	0x3808e121	3.2634594e-05
115	0x381a0c18	3.6727724e-05
116	0x3800b007	3.0681516e-05
117	0x381df4f1	3.7659836e-05
118	0x37e2e828	2.7049406e-05
119	0x37f557ac	2.9247101e-05
120	0x37fcc5b6	3.0132807e-05
121	0x37dd1a06	2.6357371e-05
122	0x383e1cef	4.5326477e-05
123	0x3852737b	5.017545e-05
124	0x3900dd19	0.00012289397
125	0x388a14b6	6.5842105e-05
126	0x3883983f	6.274925e-05
127	0x384a0406	4.81643e-05
128	0x383d049e	4.506541e-05
129	0x3862781f	5.399447e-05
130	0x388fbb10	6.8536145e-05
131	0x38d45eac	0.00010126582
132	0x3898bd56	7.2831914e-05
133	0x38b88e01	8.800254e-05
134	0x38825336	6.214382e-05
135	0x386a94ca	5.5928518e-05
136	0x383b438a	4.4647175e-05
137	0x38a6d166	7.9545e-05
138	0x386bce8c	5.6220728e-05
139	0x383f4abb	4.5607547e-05
140	0x38519105	4.9964543e-05
141	0x38391129	4.412342e-05
142	0x39cb410c	0.0003876764
143	0x39883a20	0.00025983248
144	0x383148b3	4.2267795e-05
145	0x3804b397	3.163851e-05
146	0x382ae827	4.0747367e-05
147	0x38047f20	3.1589647e-05
148	0x384bbf93	4.857739e-05
149	0x38411a95	4.6039542e-05
150	0x3845fe8e	4.7205533e-05
151	0x3847c696	4.7630245e-05
152	0x381c2bd9	3.7234135e-05
153	0x38354d56	4.3225788e-05
154	0x3805ffbc	3.1947842e-05
155	0x383dcc79	4.525154e-05
156	0x3825acfc	3.950017e-05
157	0x380948ee	3.2731266e-05
158	0x380d13eb	3.363557e-05
159	0x38198bcc	3.660824e-05
160	0x396b15ec	0.00022419513
161	0x39009d90	0.00012265728
162	0x379b4cd1	1.851321e-05
163	0x37cc3365	2.4342628e-05
164	0x3795334f	1.7786077e-05
165	0x373a8062	1.1116355e-05
166	0x37946b01	1.7692802e-05
167	0x375d848b	1.3203487e-05
168	0x3766aa3d	1.3748705e-05
169	0x378a603c	1.6495695e-05
170	0x378951ad	1.6369706e-05
171	0x377dc8f8	1.5126767e-05
172	0x37294de4	1.009132e-05
173	0x3738ebfa	1.1022197e-05
174	0x376347dd	1.3546986e-05
175	0x3730afe1	1.05313675e-05
176	0x379b4ccc	1.8513201e-05
177	0x3774364b	1.4556174e-05
178	0x3846a190	4.7357345e-05
179	0x37e9de05	2.787915e-05
180	0x38359a68	4.3297565e-05
181	0x382ea330	4.1636813e-05
182	0x3813929d	3.5184075e-05
183	0x37ec31af	2.8156528e-05
184	0x382ed2d6	4.168119e-05
185	0x383c13af	4.4841025e-05
186	0x380dfbb6	3.3851444e-05
187	0x38431430	4.6510424e-05
188	0x381ea0ec	3.7820006e-05
189	0x381f4e6d	3.7981594e-05
190	0x37d141f5	2.4945455e-05
191	0x381617ee	3.5785073e-05
192	0x380ae50d	3.3115084e-05
193	0x37c858cd	2.3883209e-05
194	0x37e02c14	2.6723406e-05
195	0x3800d7a1	3.07184e-05
196	0x39160a50	0.00014308956
197	0x38e939e1	0.000111210866
198	0x383e0c37	4.5310906e-05
199	0x386ee052	5.6952536e-05
200	0x383ec82c	4.5485955e-05
201	0x37fa0085	2.9802564e-05
202	0x38011113	3.07719e-05
203	0x37eae394	2.8000948e-05
204	0x37debe49	2.655307e-05
205	0x38042b50	3.151159e-05
206	0x380cd513	3.3577042e-05
207	0x3810095a	3.4340985e-05
208	0x37af1dec	2.087556e-05
209	0x379d8e09	1.8781999e-05
210	0x37d1e7b3	2.5022635e-05
211	0x37c26f9e	2.3178578e-05
212	0x3801a67a	3.091104e-05
213	0x37f124e2	2.8746614e-05
214	0x3883feb3	6.294008e-05
215	0x3854544c	5.0623246e-05
216	0x37b28ea2	2.1285672e-05
217	0x37fe6a42	3.032864e-05
218	0x3755e0eb	1.2748157e-05
219	0x3780a7eb	1.5336982e-05
220	0x37305c9e	1.0511982e-05
221	0x37bf69a8	2.2818174e-05
222	0x3786abaf	1.6053991e-05
223	0x37a39c4b	1.9503894e-05
224	0x37ac4fb0	2.0541105e-05
225	0x3796ded4	1.7985156e-05
226	0x3739e0fe	1.1079244e-05
227	0x375f58c5	1.3312504e-05
228	0x37635a82	1.3551327e-05
229	0x375e6c30	1.32574205e-05
230	0x3782eaa4	1.560647e-05
231	0x37669e23	1.3745887e-05
232	0x3806de5d	3.215518e-05
233	0x383e5309	4.5376863e-05
234	0x37f1f553	2.8843677e-05
235	0x37d67a9c	2.5567882e-05
236	0x37c1355f	2.3032246e-05
237	0x37b592f9	2.164532e-05
238	0x37eb7bf6	2.8071907e-05
239	0x37ffc10a	3.048826e-05
240	0x37ced8e2	2.4658108e-05
241	0x37fe05e5	3.0281904e-05
242	0x37cd3743	2.4463638e-05
243	0x37d2a5e1	2.5111194e-05
244	0x3789151f	1.6341508e-05
245	0x37cea370	2.463322e-05
246	0x37a9c253	2.023686e-05
247	0x37893492	1.6356153e-05
248	0x37abeec9	2.0495982e-05
249	0x379920c4	1.8254279e-05
250	0x38bd209a	9.018295e-05
251	0x3896a037	7.1824e-05
252	0x37e3d529	2.715977e-05
253	0x37e17563	2.6876753e-05
254	0x37e6df15	2.7522017e-05
255	0x378e6f59	1.697957e-05
