runs/BallBalance_19-15-40-40/nn/BallBalance.pth (torch, 172255 bytes, 36 tensors)

value_mean_std.running_mean f8 [1]
0	0x3fd0481cee4e71b8	0.254401428910366

value_mean_std.running_var f8 [1]
0	0x3f93b587ec2df51b	0.019247173109296783

value_mean_std.count f8 []
0	0x40f9001000000000	102401.0

running_mean_std.running_mean f8 [18]
0	0xbfd7cd70644b2895	-0.37191400331779195
1	0x3fa7c212e6a54e78	0.0464025408315622
2	0x3f79e873a0e1c16d	0.006325198815929728
3	0xbfd441f31de37869	-0.31652524870685866
4	0x3fc12ba572368245	0.13414447857668868
5	0x3f83bc40d5fdcf52	0.009636408358097679
6	0xbfb649b60591a6e9	-0.08706224094353456
7	0xbfe7945ffd8eda2f	-0.7368621780686392
8	0x3fc3239d5de6a687	0.149524374818885
9	0x3fb2702366925e02	0.072023594419413
10	0xbfe3abe44a4e44b8	-0.6147328807147892
11	0x3fd52997083cf56e	0.3306634502840414
12	0xbf9dfdf7ff6f5cea	-0.02928912636329254
13	0xbfb4016c9a397800	-0.07814673199888489
14	0x3fbc8f9713f1dc47	0.11156601178105162
15	0x3fbdc2c0eeabd8c7	0.1162529547399088
16	0x3fa34c0dbc0275c9	0.03768961830176527
17	0xbf8ca8e3ac1e9e8b	-0.013994005861447853

running_mean_std.running_var f8 [18]
0	0x3fd1d09227160a23	0.2783551580143088
1	0x3f883a7bfcab339b	0.011830299995745188
2	0x3fc3e7e01bf850d5	0.15551377645227285
3	0x3fcd68ac2c2c5c6b	0.22975685269259158
4	0x3fb55009873533fb	0.08325252104732776
5	0x3f90b0091b415209	0.01629652241565974
6	0x3f83b7628738b8df	0.00962712264216886
7	0x3ff9e4b7b4d8c162	1.6183392586063623
8	0x3fcf812ac9319539	0.24612936805639565
9	0x400181dc962ae95c	2.188409016785199
10	0x40025ac63ca048c0	2.2943234192290163
11	0x3fe46936d03e58f9	0.6378435199028721
12	0x3feeddcdc2ec28f6	0.9645756537513808
13	0x3ff4c2796ca30b40	1.297479080546239
14	0x3f77d872d46bbb17	0.005821655801567591
15	0x3f735b20ffaa039f	0.004725579167485088
16	0x3fa706101b113040	0.04496813135537581
17	0x3fac7399349095d4	0.05556944624576557

running_mean_std.count f8 []
0	0x40e9002000000000	51201.0

a2c_network.sigma f4 [7]
0	0xbd5083b2	-0.050906844
1	0xbdda30d9	-0.10653848
2	0xbe8ec64a	-0.27885658
3	0xbdf69958	-0.12040967
4	0xbd1dbd69	-0.038510714
5	0xbe48ea6c	-0.19620675
6	0x3cdfac96	0.027303975

a2c_network.actor_mlp.0.weight f4 [128, 18]
0	0xbe5b05a1	-0.21388866
1	0x3dbf78ca	0.093492106
2	0xbe35fac9	-0.17771448
3	0x3daeedda	0.0854146
4	0xbe4e0e51	-0.20122649
5	0x3e66577e	0.22494313
6	0xbe412b56	-0.18864188
7	0xbe20b894	-0.15695411
8	0xbdcd0b71	-0.10011948
9	0xbdbbbf06	-0.09167294
10	0x3bfb3547	0.0076662633
11	0xbe162675	-0.14663108
12	0x3e11b756	0.14230093
13	0xbe2645b1	-0.16237523
14	0x3f04122b	0.5159022
15	0x3d8c362f	0.06846272
16	0xbd448770	-0.047980726
17	0x3dbc1941	0.09184504
18	0x3e31470d	0.1731226
19	0x3e56a8d5	0.20962842
20	0xbd1f799e	-0.038934343
21	0xbd8f416e	-0.069949016
22	0xbc973ae3	-0.018460697
23	0xbe26a6d8	-0.16274583
24	0x3e0dacfa	0.13835517
25	0x3eaa6c45	0.33285728
26	0x3dcb9feb	0.09942611
27	0xbd4dedbe	-0.050275557
28	0xbdc3c25b	-0.09558555
29	0x3cbca9c4	0.02303017
30	0x3d578186	0.052613758
31	0xbc15145f	-0.009099095
32	0xbf1e060e	-0.6172799
33	0xbe50601a	-0.2034916
34	0xbdec5a4e	-0.11540662
35	0x3d9ba8a9	0.07600529
36	0x3e2d3cb9	0.16917695
37	0x3e18d57c	0.14925188
38	0x3db192a9	0.08670551
39	0x3ccb9c69	0.024854856
40	0x3ea75fe0	0.32690334
41	0xbe2336db	-0.15938894
42	0x3d1ed27e	0.03877496
43	0xbe58bc30	-0.21165538
44	0x3e451096	0.19244608
45	0x3c15f251	0.009152011
46	0xbc982806	-0.018573772
47	0xbdfbe2d2	-0.12299122
48	0x3e756b73	0.2396677
49	0xbca80fd7	-0.020515366
50	0xbd8e30cf	-0.06942903
51	0xbee7b212	-0.45253044
52	0x3e0aef3b	0.13567822
53	0x3cdecdf8	0.027197823
54	0x3e8d86e9	0.2764199
55	0x3c5240ac	0.012832802
56	0xbe78584a	-0.2425243
57	0xbea08b2e	-0.31356186
58	0xbe8b39a4	-0.27192414
59	0x3de98fc3	0.114043735
60	0x3d3c454c	0.045964524
61	0x3ee20c5a	0.44150048
62	0xbcb50d1e	-0.022100981
63	0xbe73d1aa	-0.23810449
64	0x3c34b082	0.011028411
65	0xbdb2337f	-0.08701228
66	0x3dc18286	0.094487235
67	0xbd72f952	-0.0593198
68	0x3e4af85c	0.19821304
69	0xbe3aff71	-0.18261506
70	0x3ce4fc61	0.027952375
71	0x3c284730	0.010270879
72	0x3e0527cd	0.13003464
73	0xbe2e8b1a	-0.1704525
74	0x3e67cfdb	0.22637884
75	0x3e59a244	0.21253306
76	0xbdcfb818	-0.10142535
77	0xbdb90292	-0.090336934
78	0x3e3a4194	0.18189079
79	0xbe16698a	-0.14688697
80	0xbe220c51	-0.15825011
81	0xbe3d5ae3	-0.18491702
82	0xbe1e6a49	-0.15470232
83	0x3da0cddb	0.07851764
84	0xbd133914	-0.035943106
85	0xbddb71f9	-0.10715098
86	0x3daa83ce	0.08325921
87	0xbe563b15	-0.20920976
88	0xbe70cad9	-0.2351488
89	0xbdd7ad37	-0.10531085
90	0xbe497ade	-0.19675776
91	0xbe6473ea	-0.22309843
92	0x3eabac5a	0.3352993
93	0x3e44432c	0.19166249
94	0x3ddecda2	0.10879065
95	0xbe4f959c	-0.20271915
96	0xbe12f0b8	-0.1434964
97	0xbe0e1799	-0.1387619
98	0x3d5399f3	0.05166049
99	0xbe20636f	-0.15662931
100	0xbcad055d	-0.021120721
101	0xbdc3cae1	-0.095601805
102	0x3dc62ecf	0.09676897
103	0xbdfff72e	-0.12498318
104	0x3dc22c3b	0.094810925
105	0xbeaf8a05	-0.34284988
106	0xbe1b05e2	-0.15138963
107	0xbdb448ce	-0.08802949
108	0x3d29dde5	0.04147138
109	0xbe5ad402	-0.21369937
110	0x3e9f0b67	0.31063387
111	0xbce21096	-0.0275958
112	0x3ea2baac	0.31783044
113	0x3d2044b7	0.03912803
114	0xbe0554de	-0.13020656
115	0x3e54b0ab	0.20770518
116	0xbd51bf29	-0.051207695
117	0xbde141bc	-0.10998866
118	0xbe4a0274	-0.19727498
119	0xbe8d9952	-0.27656037
120	0x3c0c03b3	0.008545804
121	0xbc6db7f5	-0.014509191
122	0x3e286553	0.16444902
123	0xbeaac2ba	-0.3335169
124	0x3e1373c6	0.14399633
125	0xbdf340e8	-0.11877614
126	0xbd18de1a	-0.037321188
127	0x3d4fa54c	0.05069475
128	0x3e1d773e	0.15377519
129	0x3e935640	0.2877674
130	0x3e3670fa	0.17816535
131	0xbdf57ca7	-0.11986666
132	0xbca3928b	-0.019967338
133	0xbe47965f	-0.19490956
134	0xbc2284d9	-0.009919369
135	0xbbbcd7af	-0.005763016
136	0x3e95931b	0.29213795
137	0xbe309975	-0.17246039
138	0x3dce4b7f	0.100729935
139	0x3dbccb02	0.09218408
140	0x3e5fe9e4	0.21866566
141	0xbea0413d	-0.31299773
142	0x3e0eba0c	0.13938159
143	0x3d47d60e	0.048788123
144	0xbd08ac75	-0.033367593
145	0xbe2e8c8e	-0.17045805
146	0x3e3b0528	0.18263686
147	0xbcdc5ef9	-0.026900755
148	0xbdb281f4	-0.08716193
149	0x3e38d31d	0.18049283
150	0x3d38134b	0.044940274
151	0xbe5e6e26	-0.21721706
152	0xbc979346	-0.018502843
153	0x3de42231	0.11139334
154	0x3e8cc41f	0.2749338
155	0x3b3af289	0.002852591
156	0xbde2d0c3	-0.110749744
157	0xbdbeafc3	-0.09310868
158	0xbe98245a	-0.29715234
159	0x3e97ca4f	0.29646537
160	0x3dec0b83	0.11525633
161	0xbe5ff83e	-0.2187204
162	0x3d9bff47	0.0761705
163	0x3dfe1f86	0.12408356
164	0x3cbd3b23	0.023099488
165	0xbda2bb61	-0.07945896
166	0x3e8f2e47	0.27964994
167	0x3dbea238	0.093082845
168	0x3e15ff3e	0.14648148
169	0xbdcacec3	-0.09902718
170	0xbd9e92bb	-0.0774283
171	0x3cdce393	0.026963985
172	0x395bc39e	0.0002095834
173	0xbe2c8c8a	-0.16850486
174	0x3defe3aa	0.11713345
175	0x3e2be4e0	0.16786528
176	0x3e11d78c	0.14242381
177	0x3ba57ec2	0.005050511
178	0xbcf60c64	-0.030035205
179	0xbdbb8a7f	-0.091572754
180	0x3dbf728c	0.0934802
181	0x3d880bf4	0.06642905
182	0xbec27dfd	-0.37986746
183	0xbe157b04	-0.14597708
184	0x3e930efb	0.28722367
185	0x3d885f70	0.06658828
186	0xbbb653b5	-0.005564178
187	0xbdba34ca	-0.090921
188	0xbe32cee0	-0.17461729
189	0xbea58f15	-0.32335725
190	0xbe21008d	-0.15722866
191	0x3d87cffe	0.06631468
192	0x3e0f49d9	0.13993014
193	0x3d8f11bf	0.06985807
194	0xbeeb7562	-0.45987993
195	0xbe925145	-0.2857763
196	0xbc98ff1f	-0.018676339
197	0x3dc18b7d	0.094504334
198	0x3d8993bd	0.06717632
199	0xbd940a6d	-0.07228551
200	0x3e20de6d	0.15709849
201	0xbcb3482a	-0.021884996
202	0xbea69b43	-0.3254033
203	0x3e15f286	0.14643297
204	0xbdb5677b	-0.08857628
205	0x3d3b2f9d	0.045699704
206	0xbe892257	-0.26784012
207	0x3e492748	0.19643891
208	0x3e2063c2	0.15663055
209	0x3af87797	0.0018956539
210	0xbdf8db04	-0.12151149
211	0xbe118778	-0.14211833
212	0xbf021dd0	-0.5082674
213	0x3efc1002	0.49230963
214	0x3d2a2a3c	0.041544184
215	0x3e70a098	0.23498762
216	0x3de92953	0.11384835
217	0x3d48b179	0.048997376
218	0x3d0b63e8	0.034030825
219	0xbe92ac69	-0.28647164
220	0xbe8384b8	-0.25687194
221	0xbe992ba5	-0.2991611
222	0x3c14d455	0.009083827
223	0xbe4cfbf4	-0.20017987
224	0xbd2fdea1	-0.042936925
225	0xbe0f44e7	-0.13991128
226	0xbdef4aa8	-0.116841614
227	0xbe1b128b	-0.15143792
228	0xbd4bb29d	-0.049730886
229	0x3daee4b2	0.08539714
230	0xbdc8a115	-0.09796349
231	0x3e1dc4ce	0.15407106
232	0xbd446efe	-0.047957413
233	0xbe280c44	-0.16410929
234	0x3d2c56ce	0.04207497
235	0xbd7ba6f3	-0.061438512
236	0xbd7af248	-0.061266214
237	0xbe817608	-0.25285363
238	0x3d6a407b	0.0571904
239	0xbe9a8986	-0.30183047
240	0x3e0a865a	0.13527814
241	0x3e6d8259	0.23194255
242	0x3e58279d	0.21108861
243	0xbea604fb	-0.32425675
244	0x3df2c0d2	0.11853184
245	0xbe441bdf	-0.19151257
246	0x3e097ec5	0.13427265
247	0x3e5780d9	0.21045245
248	0xbe2fabf5	-0.1715544
249	0xbd30b555	-0.04314168
250	0xbd2da332	-0.042391963
251	0xbe1d31c8	-0.15351021
252	0x3e1724a3	0.1476007
253	0xbed75c67	-0.42062685
254	0x3e7418ec	0.23837632
255	0x3e5c6503	0.21522908

a2c_network.actor_mlp.0.bias f4 [128]
0	0xbe6743d3	-0.22584467
1	0xbe7f2b3c	-0.24918836
2	0x3cc71729	0.024303036
3	0xbe84fd2a	-0.259744
4	0x3da67cd9	0.081292816
5	0xbe1bbee8	-0.15209544
6	0xba711b5a	-0.0009197496
7	0xbe8369a4	-0.25666535
8	0xbc30abe6	-0.010783171
9	0x3e0cd00e	0.13751242
10	0xbe6415ba	-0.22273913
11	0xbe36f1be	-0.17865655
12	0x3e1771dd	0.14789529
13	0x3db1335b	0.086523734
14	0x3d59d780	0.053184032
15	0x3d8b141b	0.06790944
16	0xbe0bc70f	-0.13650154
17	0x3cac8054	0.021057285
18	0xbe1130ed	-0.1417882
19	0x3dbe051e	0.0927832
20	0x3d660b7c	0.056163296
21	0x3d18b279	0.03727958
22	0x3d333ff7	0.043762174
23	0xbd92c740	-0.0716691
24	0xbcf88e17	-0.030341191
25	0xbe268581	-0.16261865
26	0x3d8433a0	0.06455159
27	0xbe9af3e5	-0.30264202
28	0xbdc7bfe7	-0.09753399
29	0x3e03867e	0.12844273
30	0xbd866d5a	-0.06563826
31	0xbcf0f00a	-0.029411335
32	0xbe829e39	-0.2551134
33	0xbd9578b0	-0.0729841
34	0xbd29531a	-0.041339017
35	0xbe0a7129	-0.1351973
36	0x3e382501	0.17982866
37	0xbe002f5a	-0.12518063
38	0xbca5aead	-0.020224893
39	0xbe5b1b26	-0.21397075
40	0x3ddfc82b	0.10926851
41	0xbdee24b6	-0.11628096
42	0xbe4a5478	-0.19758785
43	0x3e702aa4	0.23453766
44	0xbe33cb06	-0.17557916
45	0xbe3affc8	-0.18261635
46	0xbe17b7cb	-0.14816205
47	0xbe2041e9	-0.15650143
48	0xbe3aa062	-0.18225244
49	0xbc809ba4	-0.015699215
50	0xbe0e673a	-0.13906565
51	0x3d27bc4f	0.04095107
52	0x3e47f300	0.19526291
53	0xbe38fd95	-0.18065484
54	0xbe603075	-0.21893485
55	0xbe297f3f	-0.16552447
56	0xbd5cbebc	-0.053892836
57	0xbddeb28e	-0.108739
58	0xbe1e0713	-0.15432386
59	0xbe21c86a	-0.15799108
60	0xbe2485dc	-0.16066688
61	0xbe5776e9	-0.21041454
62	0xbdcdbf86	-0.10046296
63	0xbd253081	-0.04032946
64	0xbe03b9e1	-0.12863876
65	0xbdf9e6d0	-0.12202227
66	0xbd39d426	-0.045368336
67	0xbea7b848	-0.32757783
68	0x3d8980f2	0.067140475
69	0xbe3ef0af	-0.18646501
70	0xbe8d628f	-0.27614257
71	0xbeacbb5a	-0.33736688
72	0xbd6f0339	-0.058352683
73	0xbe9a110e	-0.30091137
74	0x3e255553	0.1614583
75	0xbe844ad2	-0.25838333
76	0xbe3e0f5b	-0.18560545
77	0xbdbcf206	-0.0922585
78	0xbe437e75	-0.19091208
79	0x3df1300f	0.117767446
80	0xbdc0fb1c	-0.09422895
81	0x3e38bb1a	0.18040124
82	0xbe3c4a92	-0.18387821
83	0x3e55c5e1	0.20876266
84	0x3dcb3f30	0.099241614
85	0x3ae3a31f	0.001736734
86	0x3df4fdf5	0.11962501
87	0xbe101b1f	-0.14072846
88	0x3d50dc46	0.05099132
89	0xbdce67ec	-0.10078415
90	0xbe79c767	-0.24392472
91	0x3e365d80	0.17809105
92	0x3c9a3cf7	0.018827898
93	0xbe8e989f	-0.27850816
94	0xbe14291d	-0.14468808
95	0x3e60416a	0.21899953
96	0xbe350496	-0.1767753
97	0xbe2d9640	-0.16951847
98	0xbc921e13	-0.017836606
99	0x3dc3d8dc	0.09562847
100	0xbc83fcbe	-0.016111728
101	0xbe7b8ae9	-0.24564709
102	0xbbc32394	-0.005955169
103	0xbe502f84	-0.20330626
104	0xbe5e4e82	-0.21709636
105	0xbe1deba7	-0.15421925
106	0xbe50f284	-0.20405012
107	0xbda3a668	-0.07990724
108	0xbdc60440	-0.096687794
109	0xbc81b82e	-0.015834894
110	0x3dbdfa6b	0.09276279
111	0xbd0f2f68	-0.03495732
112	0xbde33a8b	-0.110951506
113	0xbdc5d185	-0.09659103
114	0xbcec3eae	-0.028838482
115	0x3d61b4d5	0.055104095
116	0x3e1afb41	0.15134908
117	0xbe031be5	-0.1280361
118	0xbea8a281	-0.3293648
119	0x3cd96e01	0.026541712
120	0xbe3e4316	-0.18580279
121	0xbdcb4d85	-0.09926895
122	0x3c472626	0.012155091
123	0xbddcda1e	-0.1078379
124	0xbda11629	-0.07865555
125	0xbe59ae6a	-0.2125794
126	0xbde9a868	-0.11409074
127	0xbdb522ba	-0.08844514

a2c_network.actor_mlp.2.weight f4 [64, 128]
0	0x3e8138b5	0.25238577
1	0x3d812e3c	0.06307647
2	0xbe177c56	-0.14793524
3	0x3e07c4f0	0.1325872
4	0xbdca80c6	-0.09887843
5	0xbd3f6872	-0.046730466
6	0xbba75e7d	-0.0051076994
7	0x3deabcfe	0.11461829
8	0xbdb436e8	-0.08799535
9	0xbe6ce53b	-0.2313432
10	0xbd5cc0e9	-0.05389491
11	0x3c5a590d	0.013326895
12	0xbd3834be	-0.044972174
13	0xbd5d9beb	-0.054103773
14	0xbdaf62c3	-0.08563759
15	0xbe1b70bd	-0.15179725
16	0x3e1cbee6	0.15307197
17	0xbe16a959	-0.14713039
18	0x3e39687f	0.18106268
19	0xbea50197	-0.32227775
20	0xbe28570e	-0.16439459
21	0xbe3670c2	-0.17816451
22	0xbdec2014	-0.11529556
23	0x3dfe49ca	0.12416418
24	0xbb3a0f42	-0.0028390442
25	0xbe038bbb	-0.12846272
26	0xbcec7ae5	-0.028867194
27	0x3cf7c563	0.030245489
28	0xbdf8628f	-0.121281736
29	0xbdd9968d	-0.106244184
30	0xbdfa1760	-0.1221149
31	0x3cdc66eb	0.026904544
32	0x3daf3e48	0.08556801
33	0x3de049d1	0.10951579
34	0xbe33e062	-0.17566064
35	0xbe288f64	-0.16460949
36	0xbe05838e	-0.13038465
37	0x3e75ec85	0.24016006
38	0xbc04ce83	-0.008105877
39	0x3e67801b	0.22607462
40	0xbe07e763	-0.13271861
41	0x3e941e22	0.2892924
42	0x3d473316	0.048632704
43	0xbd92a302	-0.071599975
44	0x3dc67383	0.09690001
45	0xbd22efae	-0.039779358
46	0x3e14c6c3	0.14528947
47	0x3eb77096	0.35828084
48	0x3e2ffea3	0.1718698
49	0x3d343b38	0.044001788
50	0x3d91986b	0.071091495
51	0xbdfa7a4e	-0.12230359
52	0xbe46d3c2	-0.19416717
53	0xbd922fe2	-0.07138039
54	0xbe371162	-0.17877725
55	0xbe380807	-0.17971812
56	0xbe77de4a	-0.2420589
57	0xbdb720e8	-0.08941823
58	0x3e646a89	0.22306265
59	0xbb06da1e	-0.0020576785
60	0x3e5aa367	0.21351396
61	0x3e0d8412	0.13819912
62	0x3da2a542	0.07941677
63	0x3db087e5	0.0861967
64	0x3e1bfc1f	0.15232895
65	0xbd4cd985	-0.05001213
66	0xbdbb1e7e	-0.09136675
67	0x3e3da198	0.18518674
68	0x3d6952be	0.056963675
69	0xbc968179	-0.018372284
70	0x3ea4a859	0.3215969
71	0x3eaa2b1a	0.3323601
72	0xbddb3e50	-0.107052445
73	0x3e165bb0	0.14683414
74	0xbd8377c7	-0.0641933
75	0x3ebc3374	0.36758006
76	0x3c5bf614	0.013425369
77	0xbd0d5fb0	-0.034515083
78	0x3e4a0553	0.19728594
79	0xbcf8f702	-0.03039122
80	0x3e05df1c	0.1307339
81	0xbe4cce7a	-0.2000064
82	0x3d9c55f3	0.07633581
83	0xbd8c1721	-0.06840349
84	0x3c0e8da4	0.008700762
85	0x3d257bce	0.040401272
86	0x3b61b6e8	0.0034441296
87	0x3dc65a3e	0.09685181
88	0x3deeb8ea	0.11656363
89	0xbdcebfb4	-0.10095158
90	0x3ea66a55	0.32503
91	0xbe779e03	-0.2418137
92	0xbe3304c0	-0.1748228
93	0x3e9a906e	0.30188316
94	0x3bc6ca85	0.0060666227
95	0xbddd5705	-0.10807613
96	0xbd36f9c9	-0.044671807
97	0xbcd81664	-0.026377864
98	0xbdfaf01b	-0.12252828
99	0xbd325fb0	-0.043548286
100	0x3e313879	0.17306699
101	0x3d123c5c	0.035702094
102	0x3e13cef8	0.14434421
103	0x3df4a242	0.11945011
104	0x3e4d5fda	0.20056096
105	0x3d527c5f	0.05138814
106	0x3e129b95	0.14317162
107	0x3d29087d	0.04126786
108	0x3c0a2395	0.008431335
109	0xbe0e237a	-0.1388072
110	0xbe973bcf	-0.29537818
111	0x3ae2ea51	0.0017312263
112	0xbc2f9ef5	-0.010719051
113	0x3d379a6a	0.044824995
114	0x3e43e29f	0.19129418
115	0xbd9dfb1b	-0.0771391
116	0x3dd320da	0.10309
117	0xbb0373d7	-0.002005806
118	0x3e4719f3	0.19443493
119	0x3e15d409	0.14631666
120	0x3dea1e7c	0.11431596
121	0x3de5c9c2	0.11220123
122	0x3cf31729	0.02967413
123	0xbdbed5d4	-0.09318128
124	0x3de3e97a	0.111285165
125	0xbe423dd8	-0.18968904
126	0x3e33ea4c	0.17569846
127	0xbdcd88d4	-0.100358635
128	0x3dfcf6d4	0.12351766
129	0x3d7c1e43	0.061552297
130	0x3d8e8314	0.06958595
131	0x3d8109a6	0.063006684
132	0x3e390328	0.1806761
133	0x3d638612	0.05554778
134	0xbce94fa2	-0.028480355
135	0x3da571f4	0.080783755
136	0xbda9778d	-0.082747556
137	0xbd060d9b	-0.03272782
138	0x3de504b1	0.111825354
139	0xbe0468ff	-0.12930678
140	0xbd40046e	-0.046879224
141	0xbdbc5dbb	-0.09197565
142	0x3ceac711	0.028659375
143	0x3c30d2f1	0.01079248
144	0x3c5d35c6	0.01350159
145	0xbbe679d6	-0.007033567
146	0xbc466867	-0.012109852
147	0xbcbb5a30	-0.022870153
148	0x3d1006a6	0.03516259
149	0xbc9ae335	-0.018907169
150	0xbe38eb77	-0.18058573
151	0xbe0b2e08	-0.13591778
152	0x3defdf72	0.11712541
153	0x3df8c77d	0.12147424
154	0xbd798174	-0.06091447
155	0x3e7cd7b6	0.24691662
156	0xbcb0c4ba	-0.021578182
157	0xbd3fda26	-0.046838902
158	0xbcdd5064	-0.027015872
159	0xbdfd42c2	-0.12366249
160	0x3dec96a3	0.11552169
161	0xbd467d5a	-0.04845939
162	0xbcd4f3e9	-0.025995212
163	0xbe1a32b5	-0.15058406
164	0xbd91af80	-0.07113552
165	0xbd107330	-0.0352661
166	0x3d8e2d47	0.0694223
167	0x3e7058d2	0.23471382
168	0xbc529642	-0.012853207
169	0xbc80f8c0	-0.015743613
170	0xbc551b0c	-0.013006937
171	0xbe075654	-0.13216525
172	0xbdf3aeb5	-0.11898557
173	0x3de7ee2c	0.113247246
174	0x3cb5b88a	0.022182722
175	0x3dff8f54	0.124785095
176	0x3d31b13b	0.04338191
177	0x3e2cc62e	0.16872475
178	0x3e13ed7d	0.14446063
179	0xbe504eb9	-0.2034253
180	0x3c865a08	0.016400352
181	0xbbedae36	-0.0072534336
182	0x3de6c8d5	0.112687744
183	0x3e193776	0.14962563
184	0xbea8b21a	-0.3294838
185	0x3cdb3816	0.026760142
186	0x3db76eeb	0.08956703
187	0x3db51808	0.08842474
188	0xbcb91632	-0.022593591
189	0x3e34503c	0.17608732
190	0xbcfcf441	-0.030878188
191	0xbda7e8e2	-0.08198716
192	0x3e014b8f	0.1262648
193	0x3d47ffa3	0.04882778
194	0xbe5b84ad	-0.2143733
195	0x3d9564c3	0.072946094
196	0xbda7b210	-0.081882596
197	0xbdf2d33d	-0.11856697
198	0x3e3cbd29	0.18431534
199	0x3d93879c	0.072036
200	0xbd726c3d	-0.059185255
201	0x3db22cb2	0.08699931
202	0x3d660da8	0.056165367
203	0x3decc1b2	0.11560382
204	0x3b9f75fa	0.004866359
205	0xbe38897e	-0.18021199
206	0x3d8ed957	0.06975048
207	0xbdc87ca3	-0.097893976
208	0x3d10ae3b	0.03532241
209	0xbd04e687	-0.03244641
210	0xbdb46e07	-0.088100486
211	0xbe37fed6	-0.17968306
212	0xbd89ede4	-0.06734827
213	0xbcb43489	-0.021997707
214	0xbd9ca219	-0.07648105
215	0xbe43f5b4	-0.19136697
216	0xbe3dc3c1	-0.18531705
217	0x3cdf1c23	0.027235096
218	0x3e687d5a	0.22704068
219	0xbe524755	-0.20535024
220	0xbe1a1349	-0.15046419
221	0x3e991ab9	0.299032
222	0xbdb7614f	-0.08954107
223	0xbe9bfad6	-0.3046481
224	0xbd3b5738	-0.045737475
225	0x3d393dc9	0.04522494
226	0x3d51cd4e	0.051221184
227	0xbe4add34	-0.19810945
228	0x3ded7614	0.11594787
229	0x3e1a6695	0.15078194
230	0x3d92201f	0.07135033
231	0x3d53c2af	0.051699337
232	0x3ca1e3ed	0.019762004
233	0xbd4ae228	-0.049532086
234	0x3cb18e34	0.021674253
235	0x3ded0897	0.11573904
236	0xbe08640a	-0.13319412
237	0xbcce3727	-0.025172783
238	0xbd2ff27f	-0.04295587
239	0x3d73248b	0.059361022
240	0x3e1456f2	0.14486292
241	0x3e510f4b	0.2041599
242	0xbd34e2bb	-0.04416154
243	0xbdb2fa6d	-0.08739171
244	0x3d0f2fa2	0.034957536
245	0x3dd3d908	0.1034413
246	0x3e61200e	0.21984884
247	0xbd27e00b	-0.04098515
248	0xbc2f4ac7	-0.010698981
249	0xbe13df07	-0.14440547
250	0x3e18be40	0.14916325
251	0x3d00217b	0.03128193
252	0x3d8a8df0	0.06765354
253	0x3dd40928	0.10353309
254	0xbd180fd9	-0.03712449
255	0x3db9625c	0.09051964

a2c_network.actor_mlp.2.bias f4 [64]
0	0xbe0e6d0b	-0.13908784
1	0xbe941cc7	-0.28928205
2	0xbd9d9522	-0.076944605
3	0x3d88e8a2	0.06684996
4	0x3ded9cab	0.11602148
5	0xbe196b96	-0.14982447
6	0xbe4fc996	-0.20291743
7	0x3e54e62b	0.20790927
8	0xbe050212	-0.12989071
9	0x3e123f0f	0.14281867
10	0x3e4ca825	0.19986017
11	0xbe404d71	-0.18779542
12	0x3c969196	0.018379968
13	0x3c8f641b	0.017503789
14	0xbda77c1f	-0.08177971
15	0xbc89feb3	-0.016845083
16	0x3d95bf69	0.07311899
17	0xbe260d29	-0.16215958
18	0x3e81548b	0.25259814
19	0x3cb16955	0.021656672
20	0xbd404318	-0.046938986
21	0x3d7aacdf	0.06120002
22	0x3e850c93	0.25986156
23	0x3d431f67	0.04763737
24	0xbe05e5c7	-0.13075934
25	0xbe772f39	-0.24139108
26	0x3e3a6423	0.18202262
27	0x3d9dd1b6	0.07706015
28	0x3e6f3e8e	0.23363706
29	0x3dd156b4	0.102216154
30	0x3cf0c05a	0.029388595
31	0xbe2455b3	-0.16048317
32	0xbe2e3fec	-0.17016572
33	0xbd61ca69	-0.055124674
34	0xbe80d457	-0.25162002
35	0x3ccc8542	0.024965886
36	0xbcc8e40a	-0.0245228
37	0x3e7092fe	0.23493573
38	0x3dbb3b51	0.09142173
39	0xbe1ea257	-0.15491615
40	0x3d3d82de	0.046267383
41	0xbc1d3689	-0.009595522
42	0x3e04d04c	0.12970084
43	0x3d8ce86f	0.06880271
44	0xbe0ccae4	-0.13749272
45	0x3d386982	0.045022495
46	0x3e38dc07	0.18052684
47	0x3cd2bb54	0.02572409
48	0x3ddce326	0.107855126
49	0xbe5c9eb1	-0.21544911
50	0xbdb2e0be	-0.087342724
51	0x3c8400af	0.016113607
52	0xbe698557	-0.22804771
53	0x3d43d6df	0.04781234
54	0xbdf894d6	-0.12137763
55	0x3e155f6f	0.14587186
56	0xbe1363dd	-0.14393564
57	0xbe415871	-0.18881394
58	0x3e76e948	0.24112427
59	0x3d9f1c1a	0.07769032
60	0x3d1d006f	0.03833049
61	0x3ca76ee7	0.020438625
62	0xbd61a885	-0.055092353
63	0xbe0e1665	-0.1387573

a2c_network.actor_mlp.4.weight f4 [32, 64]
0	0xbcf5c5c9	-0.030001538
1	0x3ce08317	0.027406259
2	0xbe0078be	-0.1254606
3	0xbdba5a92	-0.09099306
4	0xbccd7b31	-0.025083156
5	0x3d8d68c5	0.06904749
6	0xbe07f757	-0.13277946
7	0xbd587cbb	-0.052853327
8	0xbde1ec25	-0.11031369
9	0xbdf685ea	-0.12037261
10	0xbda49416	-0.08036058
11	0x3c0cbbbe	0.008589683
12	0x3d49611c	0.049164876
13	0xbb21cde6	-0.0024689375
14	0xbcd2f1e9	-0.025750117
15	0xbd54218d	-0.05178981
16	0xbe679bba	-0.22617999
17	0xbc7cba19	-0.0154252285
18	0xbde8f6e4	-0.11375216
19	0xbde9559c	-0.11393282
20	0xbd098d62	-0.0335821
21	0xbe0d19a6	-0.13779315
22	0x3d032ffa	0.032028176
23	0xbe50e3fd	-0.2039947
24	0x3d5d2679	0.05399177
25	0xbe1195bb	-0.14217274
26	0xbe23b7db	-0.15988104
27	0xbd83dc70	-0.064385295
28	0x3d49b4dc	0.049244747
29	0xbe7c41ca	-0.24634472
30	0xbcedd5bc	-0.02903258
31	0xbdbd92ee	-0.0925654
32	0x3ddbf80c	0.107406706
33	0x3dae5bed	0.08513627
34	0xbe2bffcc	-0.16796798
35	0xbdfa41b8	-0.12219566
36	0xbd241304	-0.040057197
37	0xbe6ebe91	-0.23314883
38	0xbde6d7a5	-0.112716
39	0xbdc30b68	-0.0952366
40	0xbe21a25a	-0.15784588
41	0xbce67acb	-0.028134724
42	0x3d78b4f7	0.060719457
43	0x3e20aae5	0.15690191
44	0xbc9cca14	-0.019139327
45	0xbdc7ad56	-0.09749858
46	0xbde7e881	-0.113236435
47	0x3e300438	0.1718911
48	0xbcca82f4	-0.024720646
49	0x3b8da44d	0.0043225647
50	0xbdc4dfc3	-0.09612992
51	0xbd97d88c	-0.0741435
52	0xbe3629f6	-0.17789444
53	0xbe6d5f16	-0.23180804
54	0xbd40920b	-0.047014277
55	0xbe35ad79	-0.17741956
56	0xbe2742d2	-0.16334084
57	0xbe148e91	-0.1450751
58	0xbcd34060	-0.025787532
59	0x3d16baa5	0.03679909
60	0xbd41ba35	-0.04729672
61	0xbcf7e65c	-0.030261211
62	0x3e81db6f	0.25362727
63	0xbdb1c22f	-0.08679616
64	0xbe161393	-0.14655904
65	0xbe82efc7	-0.2557356
66	0xbe5ad5df	-0.21370648
67	0xbe0796b7	-0.13241087
68	0x3dea7462	0.114479795
69	0xbe17de13	-0.14830808
70	0xbe76f27c	-0.24115938
71	0x3e2dff96	0.1699203
72	0xbec43d5f	-0.38328072
73	0x3d137526	0.036000393
74	0x3e331f7b	0.17492478
75	0xbd914678	-0.07093519
76	0x3cb51c3e	0.022108193
77	0x3c7e8ed9	0.015536987
78	0xbe1d0e48	-0.15337479
79	0xbd208695	-0.039190847
80	0xbc4f833a	-0.012665564
81	0xbe767e5e	-0.24071643
82	0x3e0f3ce0	0.13988066
83	0x3e12bfbc	0.14330953
84	0xbe5a3830	-0.21310496
85	0x3ca17b5d	0.019712145
86	0x3dc7e747	0.097609095
87	0x3db2a1b7	0.08722251
88	0xbdc96d4c	-0.098353
89	0xbe9535e8	-0.2914269
90	0x3dc2c9fa	0.0951118
91	0x3e14b3c5	0.14521702
92	0x3e580c35	0.21098407
93	0x3df0e235	0.117618956
94	0x3ac0d0d5	0.0014710674
95	0xbc0da878	-0.008646123
96	0xbe0037c0	-0.12521267
97	0xbdcb042e	-0.099129066
98	0xbe204e48	-0.15654862
99	0x3e1b592c	0.15170735
100	0x3d941f90	0.072325826
101	0x3c846f1e	0.016166266
102	0xbe454e2e	-0.19268104
103	0x3d74e032	0.05978412
104	0xbe1154ca	-0.141925
105	0xbc20b09c	-0.009807732
106	0x3d996d3f	0.0749154
107	0x3da7e4d7	0.081979446
108	0x3c97eccf	0.018545536
109	0x3c0741c2	0.008255424
110	0xbd857679	-0.065167375
111	0xbd1e60d1	-0.03866655
112	0x3d169185	0.036759872
113	0xbe9194a5	-0.2843372
114	0xbe390515	-0.18068345
115	0xbd2e5fd9	-0.042571876
116	0xbea0fd96	-0.3144347
117	0xbd230c39	-0.03980658
118	0xbd75bdf0	-0.05999559
119	0x3e0fc0bb	0.14038365
120	0xbe9e9452	-0.30972534
121	0xbe8d8592	-0.2764097
122	0x3e00b6df	0.1256976
123	0xbdabd6c2	-0.08390571
124	0x3d97e1f8	0.07416147
125	0x3d394de4	0.045240298
126	0xbb800747	-0.0039071175
127	0xbdf8df1a	-0.12151928
128	0x3e3aa319	0.1822628
129	0xbe024606	-0.12722024
130	0x3da11488	0.07865244
131	0x3cff4606	0.03116132
132	0xbe2ff441	-0.17183019
133	0xbdf1d148	-0.11807495
134	0xbd8a4764	-0.06751898
135	0x3e54f90b	0.20798127
136	0xbd72a141	-0.059235815
137	0x3e088bcc	0.13334578
138	0x3da41bad	0.08013091
139	0x3d535a8a	0.051600017
140	0xbe0c0c7b	-0.13676636
141	0x3c5c3614	0.013440628
142	0x3da9044d	0.082527734
143	0x3dad3cf4	0.084588915
144	0x3d07aed3	0.03312571
145	0xbd27cee6	-0.040968798
146	0x3e3830be	0.17987344
147	0x3d39cdc3	0.045362245
148	0xbc38e568	-0.011285163
149	0x3decf1b5	0.115695395
150	0x3de91f5c	0.113829345
151	0x3dc74a6c	0.09730992
152	0xbacb0693	-0.001548963
153	0x3bac02b5	0.005249346
154	0xbdd3d2a0	-0.10342908
155	0x3dc13157	0.09433239
156	0x3dbf8f8e	0.09353553
157	0x3d5ee6e1	0.054419402
158	0xbe42c439	-0.19020166
159	0x3e0fbaa1	0.14036037
160	0x3d9e447c	0.07727906
161	0x3d8e0cc6	0.0693603
162	0xbe0981e0	-0.1342845
163	0xb99e61ca	-0.00030208967
164	0xbd767ad0	-0.060175717
165	0xbd15f4f2	-0.03661055
166	0xbe7cf9a6	-0.24704608
167	0xbe0eff30	-0.13964534
168	0xbcd3210c	-0.025772594
169	0x3e6bc219	0.23023261
170	0x3e01fcb6	0.12694058
171	0x3df05454	0.11734834
172	0xbdf123b3	-0.11774387
173	0x3dc5c904	0.09657481
174	0x3d273c53	0.040829014
175	0x3d41bbfe	0.047298424
176	0x3de3d862	0.11125256
177	0xbe077263	-0.13227229
178	0xbde29f54	-0.11065546
179	0x3ca1bc12	0.019743
180	0xbdb09b97	-0.086234264
181	0x3ab87806	0.0014073856
182	0x3dc2ed10	0.09517872
183	0x3cef09ec	0.029179536
184	0x3e103f59	0.14086665
185	0xbc02b87f	-0.007978558
186	0xbd70b59b	-0.058766942
187	0xbe34b7bd	-0.17648216
188	0x3dc66a54	0.09688249
189	0xbd618ffc	-0.055068955
190	0xbb9233c1	-0.004461736
191	0x3cec4552	0.028841648
192	0xbd62e857	-0.055397358
193	0x3d746a4c	0.059671685
194	0xbdf08108	-0.11743361
195	0xbe6b08ea	-0.22952619
196	0xbe4a7ea4	-0.19774872
197	0xbd9f1763	-0.077681325
198	0x3d83e3f1	0.06439961
199	0x3cc8c6e2	0.024508897
200	0xbda5d92e	-0.08098064
201	0x3e2b7de5	0.16747244
202	0xbc987253	-0.018609202
203	0x3d532fa1	0.051559094
204	0xbc9a6d7f	-0.01885104
205	0x3d8ab2a5	0.06772355
206	0x3e10cd8e	0.14140913
207	0x3e0f4d23	0.13994269
208	0xbdd614bd	-0.10453174
209	0x3d41ed21	0.047345284
210	0x3e03f6c0	0.12887096
211	0xbe3b404e	-0.18286249
212	0xbe5e200e	-0.21691915
213	0xbde83b7c	-0.11339471
214	0x3dec877d	0.1154928
215	0xbcc1a941	-0.023640277
216	0x3e214c48	0.15751755
217	0x3d373ded	0.04473679
218	0xbd377415	-0.04478844
219	0x3dd45443	0.10367634
220	0xbd4778a5	-0.04869904
221	0x3d9d9b2f	0.076956145
222	0xbe457bdb	-0.19285528
223	0x3d302b3c	0.04300998
224	0x3d4abe5d	0.04949795
225	0x3e69acd5	0.22819836
226	0xbe6bd6e3	-0.23031192
227	0xbc025a38	-0.00795608
228	0x3d786778	0.06064555
229	0xbe4841da	-0.1955637
230	0xbe7f49f2	-0.24930552
231	0xbe19b5f4	-0.15010816
232	0xbe2755ee	-0.16341373
233	0x3e4791e8	0.19489253
234	0x3d1f59ca	0.03890399
235	0x3e822599	0.2541931
236	0xbe49da2b	-0.1971213
237	0xbe0dad53	-0.13835649
238	0x3b8eea7b	0.0043614483
239	0x3e6c8e3f	0.23101138
240	0x3e2098f1	0.15683343
241	0xbe17409a	-0.14770737
242	0xbc085132	-0.00832014
243	0xbdca25c8	-0.098704875
244	0xbca1b0ed	-0.019737685
245	0x3d6e25bb	0.05814145
246	0xbe162ad5	-0.14664777
247	0xbe051fc8	-0.13000405
248	0xbd110f75	-0.03541513
249	0x3d1c0017	0.038086023
250	0xbe0534cc	-0.13008422
251	0x3d8189fb	0.06325146
252	0x3e5bbac3	0.21457963
253	0xbe4ac3b0	-0.19801211
254	0x3e22ee77	0.1591128
255	0xbdb72b7a	-0.08943839

a2c_network.actor_mlp.4.bias f4 [32]
0	0xbe5c2542	-0.21498588
1	0x3dd6ffc8	0.10498005
2	0x3e2ebf4d	0.17065163
3	0xbdc4cc20	-0.09609246
4	0xbda0af30	-0.07845914
5	0xbe052786	-0.13003358
6	0x3da15370	0.078772426
7	0x3da49d86	0.08037858
8	0x3e054802	0.1301575
9	0xbe31f9f1	-0.17380501
10	0x3d5061ec	0.050874636
11	0xbd95e8b3	-0.073197745
12	0xbd6d02ae	-0.057863884
13	0x3c1378cd	0.009000969
14	0xbda17a3f	-0.07884645
15	0xbda755f3	-0.081706904
16	0x3ccfd46a	0.025369842
17	0xbe6df92b	-0.23239581
18	0xbd5132d9	-0.051073883
19	0xbd1ad639	-0.037801955
20	0xbdd06df7	-0.10177224
21	0xbc9ef874	-0.019405581
22	0xbde7aac0	-0.11311865
23	0xbcabd333	-0.020974731
24	0x3c43d702	0.011953117
25	0x3a702d06	0.00091619825
26	0xbd83d595	-0.06437222
27	0xbca6d8b2	-0.020367
28	0xbd35c36a	-0.044375814
29	0x3d573591	0.05254132
30	0xbc2af68f	-0.010434761
31	0x3e075ca2	0.1321893

a2c_network.value.weight f4 [1, 32]
0	0x3dec0529	0.11524422
1	0x3eb6879e	0.35650343
2	0xbd1cbab8	-0.038264006
3	0xbc770fc1	-0.01507944
4	0xbe11f212	-0.14252499
5	0x3dc6e8b8	0.09712356
6	0xbc4a49e0	-0.012346715
7	0xbafb5f6c	-0.0019178218
8	0xbd5e25a6	-0.054235123
9	0x3db60c9c	0.08889124
10	0x3dbf23a0	0.09332967
11	0x3d064708	0.032782584
12	0x3d8f8bd5	0.07009093
13	0x3e74cf22	0.2390714
14	0xbd822429	-0.06354553
15	0xbca736b2	-0.020411823
16	0x3e08deb2	0.13366202
17	0x3eab83fa	0.33499128
18	0xbd2df16d	-0.04246657
19	0xbd7bd02e	-0.061477832
20	0x3e2c20f2	0.16809443
21	0x3e025489	0.1272756
22	0xbcd765f0	-0.026293725
23	0xbe14d3c8	-0.14533913
24	0x3c6cd54b	0.01445515
25	0x3e794824	0.24343926
26	0xbc97c3a2	-0.018525902
27	0xbdfa3492	-0.12217058
28	0x3d7b711b	0.061387163
29	0x3e97af75	0.2962605
30	0xbe131f85	-0.14367492
31	0xbb244010	-0.0025062598

a2c_network.mu.weight f4 [7, 32]
0	0x3cf8bb76	0.030362826
1	0xbd1acc7e	-0.037792675
2	0xbb97d563	-0.004633592
3	0xbe26268b	-0.1622564
4	0x3e05d772	0.13070467
5	0xbe2c9b25	-0.16856058
6	0xbd1457dc	-0.0362166
7	0x3cdf963b	0.027293315
8	0x3e0148a3	0.12625365
9	0x3e4c8728	0.19973433
10	0xbc1fff73	-0.009765494
11	0x3e240838	0.1601876
12	0x3e3fd3ef	0.1873319
13	0x3df0c105	0.117555656
14	0x3d8c2bad	0.06844268
15	0xbe48c0f2	-0.19604853
16	0xbe0ad7b7	-0.13558851
17	0xbe26ac75	-0.16276725
18	0xbec441df	-0.38331506
19	0xbe001e08	-0.12511456
20	0x3e86d977	0.26337788
21	0xbe6913fa	-0.22761527
22	0xbe0f01b1	-0.13965489
23	0xbc0bb5f9	-0.008527272
24	0xbe513cae	-0.20433304
25	0x3e0d14dc	0.13777488
26	0xbe3172d7	-0.17328964
27	0x3d6d0636	0.05786725
28	0xbe6c0513	-0.2304881
29	0x3d94d8cc	0.07267913
30	0xbccba4db	-0.024858883
31	0xbda97966	-0.08275108
32	0x3e691084	0.22760206
33	0xbe01cf26	-0.12676677
34	0xbe576f17	-0.21038471
35	0xbd87b580	-0.06626415
36	0x3dab1ac2	0.08354713
37	0x3d830084	0.06396583
38	0xbe512fd4	-0.20428401
39	0xbdba038c	-0.09082708
40	0xbe6c6795	-0.23086388
41	0x3df56fee	0.119842395
42	0xbe926f09	-0.28600338
43	0x3e655d01	0.2239876
44	0xbdc15572	-0.094401255
45	0xbd9dba17	-0.077015094
46	0x3dad360d	0.08457575
47	0x3e534d90	0.20635056
48	0xbdc30e13	-0.09524169
49	0xbdc86dc0	-0.09786558
50	0xbda2ac2a	-0.07942994
51	0x3e390bed	0.18070956
52	0xbe01fe84	-0.12694746
53	0xbbdbf5d5	-0.006712655
54	0x3e98c591	0.2983823
55	0xbd070893	-0.03296716
56	0xbd36547b	-0.04451416
57	0xbe40aeae	-0.18816635
58	0x3dc7a467	0.09748154
59	0xbd9a9637	-0.075481825
60	0xbe183719	-0.14864768
61	0xbc9d4fa8	-0.019203022
62	0x3d2aab89	0.041667495
63	0xbc9ae5cc	-0.018908404
64	0x3cba5ed8	0.022750303
65	0xbe0e756d	-0.13911982
66	0xbe8b7e22	-0.2724467
67	0xbdaffe0e	-0.08593379
68	0x3dc480c6	0.09594874
69	0xbda9d73f	-0.08293008
70	0x3e033c06	0.12815866
71	0xbe7b0d6e	-0.24516842
72	0x3dd87c24	0.10570553
73	0xbe895a93	-0.26826915
74	0xbd911371	-0.07083786
75	0x3ed0ef19	0.40807417
76	0xbd8c1cc8	-0.06841427
77	0xbceb464a	-0.02872004
78	0x3d203d12	0.03912074
79	0xbe2003b6	-0.15626416
80	0x3e2bc7ef	0.16775487
81	0xbdf3b169	-0.11899073
82	0x3cd1ccf3	0.025610423
83	0xbe7d13bc	-0.2471456
84	0xbd14a204	-0.036287323
85	0xbdf11cae	-0.11773048
86	0xbdf44eb5	-0.11929075
87	0x3e0f87a0	0.1401658
88	0x3e4b6f91	0.19866778
89	0xbd09458d	-0.033513594
90	0x3e08a011	0.1334231
91	0x3de8cf0d	0.11367617
92	0x3e774a84	0.24149519
93	0x3dac7aa6	0.08421831
94	0x3e09095b	0.13382475
95	0x3e20939d	0.1568131
96	0x3e89798a	0.2685054
97	0x3c38d0d2	0.011280255
98	0x3d4404da	0.04785619
99	0x3ec1d36b	0.37856612
100	0xbe0309b6	-0.12796673
101	0x3db1d273	0.08682718
102	0x3e65bb1a	0.22434655
103	0x3e1b10da	0.15143147
104	0xbe888cce	-0.26669925
105	0x3df2f849	0.11863763
106	0x3d357a9d	0.044306386
107	0x3e27bea7	0.16381322
108	0xbbad121c	-0.0052817
109	0x3cfee341	0.031114222
110	0x3caf36e7	0.021388484
111	0xbe03c2da	-0.12867299
112	0xbe7544bd	-0.23952003
113	0x3dc1ad08	0.09456831
114	0x3d62c6b1	0.05536527
115	0xbe7a9aaf	-0.2447307
116	0x3cf7b5a5	0.030237982
117	0xbe3dc092	-0.18530491
118	0x3b4f27b7	0.0031609365
119	0xbdedb507	-0.11606794
120	0x3e8eb1f9	0.27870157
121	0xbe697e75	-0.22802146
122	0xbd0e1405	-0.03468706
123	0x3d944542	0.072397724
124	0x3e8f7ae0	0.28023434
125	0x3ca13f0e	0.019683387
126	0x3e7d88c5	0.24759205
127	0xbe6fecf3	-0.23430233
128	0xbe4aef70	-0.198179
129	0x3cda8a38	0.026677236
130	0x3d3ae65f	0.045629855
131	0x3d3b3820	0.04570782
132	0x3e8a1eac	0.26976526
133	0xbe5a4048	-0.21313584
134	0xbdaba481	-0.08380986
135	0x3e8cc037	0.27490398
136	0x3c02ba22	0.007978948
137	0xbe83f5e4	-0.25773537
138	0x3e766715	0.2406276
139	0x3c911600	0.017710686
140	0xbeb0aa3a	-0.34504873
141	0xbc315aca	-0.010824868
142	0xbdfc636e	-0.12323652
143	0xbd31c6fd	-0.04340266
144	0xba3dbf14	-0.00072382507
145	0xbd843ad1	-0.06456531
146	0x3e059fc1	0.13049223
147	0xbdcf9f53	-0.101378106
148	0xbc535c09	-0.012900361
149	0x3e3b389f	0.18283318
150	0x3dd6104f	0.10452329
151	0x3e25b829	0.16183533
152	0x3d5941f2	0.053041406
153	0xbdd9d13b	-0.10635611
154	0xbe97b515	-0.29630342
155	0xbe517299	-0.20453872
156	0xbe65fd7f	-0.22459982
157	0xbcac35dd	-0.021021778
158	0xbd684c2a	-0.05671326
159	0x3ebe64c2	0.37186247
160	0x3e011ae0	0.12607908
161	0x39807cc1	0.0002450701
162	0x3e08b0af	0.1334865
163	0x3dc70e8f	0.09719574
164	0x3b0cbc07	0.0021474378
165	0xbdee7227	-0.116428666
166	0x3e8badfd	0.2728118
167	0x3e12f310	0.14350533
168	0xbd0b236a	-0.03396932
169	0xbe266ba0	-0.16251993
170	0x3c8586d8	0.01629965
171	0xbbe7fb2a	-0.0070795016
172	0xbbcf7652	-0.0063312436
173	0xbde7a109	-0.11310012
174	0xbe70aab3	-0.23502617
175	0xbd1b6ab5	-0.03794356
176	0xbd9483aa	-0.072516754
177	0x3e0c11ca	0.13678661
178	0xbe00fff8	-0.12597644
179	0x3c98833d	0.018617267
180	0x3dbcd34e	0.09219991
181	0xbc8f6e98	-0.01750879
182	0xbcc28dc9	-0.023749249
183	0xbcda53b3	-0.026651239
184	0x3e38d1de	0.18048808
185	0xbda06683	-0.078320526
186	0xbe38386b	-0.17990272
187	0x3d18e94e	0.03733187
188	0xbcca19a6	-0.024670433
189	0x3d15e2be	0.03659319
190	0xbd942fc1	-0.07235671
191	0x3d2d65c4	0.04233338
192	0xbe0ed4a1	-0.13948299
193	0x3bf8d4c0	0.007593721
194	0xbd266650	-0.040624917
195	0xbe5b8f39	-0.21441354
196	0xbdac539e	-0.08414386
197	0x3e2a65d1	0.16640402
198	0xbe024fd9	-0.12725772
199	0x3d8d8103	0.06909373
200	0x3cc2212c	0.023697458
201	0xbe2760ab	-0.1634547
202	0x3e5c1892	0.21493748
203	0xbda30713	-0.07960334
204	0x3e3302d3	0.17481546
205	0xbd01aece	-0.031660847
206	0x3e543406	0.2072297
207	0x3e11e2d5	0.14246686
208	0xbd9be907	-0.07612806
209	0xbddfba9a	-0.10924263
210	0x3d38d168	0.04512158
211	0x3e09d30e	0.13459417
212	0x3d3c4a02	0.045969017
213	0x3d87fa61	0.06639553
214	0xbdc9d809	-0.098556586
215	0xbdf4ad62	-0.11947133
216	0x3d3fba98	0.04680881
217	0xbe61bea8	-0.22045386
218	0xbc7b360b	-0.015332709
219	0x3e71a036	0.23596272
220	0x3d8375e3	0.064189695
221	0x3e34df5b	0.17663328
222	0xbda4d326	-0.08048086
223	0xbd09b5aa	-0.033620514

a2c_network.mu.bias f4 [7]
0	0x3d236444	0.039890543
1	0xbe86dfe1	-0.2634268
2	0xbc8544b5	-0.016268114
3	0xbe20a5b0	-0.15688205
4	0x3d88c9c3	0.06679108
5	0x3dee619b	0.116397105
6	0x3d9773db	0.073951446

exp_avg f4 [7]
0	0x3b7e9704	0.0038847337
1	0x3bd8123d	0.006593971
2	0x3982c4af	0.00024942073
3	0x3bd9fdda	0.006652576
4	0xba5b236e	-0.00083594664
5	0xbac9afdf	-0.0015387497
6	0x3bf1ca29	0.0073788357

exp_avg_sq f4 [7]
0	0x39ce8a0d	0.00039394238
1	0x39b68f71	0.00034820617
2	0x39b76388	0.00034978637
3	0x399e2af9	0.00030168126
4	0x39b33ad4	0.0003418537
5	0x39e2d4c4	0.00043264602
6	0x39cb88e7	0.00038821177

exp_avg f4 [128, 18]
0	0x3b3e4222	0.0029031117
1	0xbbc57b54	-0.0060266647
2	0x3b483fd7	0.003055563
3	0x3b4a33e9	0.0030853695
4	0xbba943f2	-0.0051655704
5	0x3b75059d	0.003738738
6	0x391dfaeb	0.00015066161
7	0x3a9bb1ae	0.0011878514
8	0xbb8b3aff	-0.0042489762
9	0x3a2cc85c	0.0006591135
10	0x3bcc7052	0.0062389756
11	0xbbdaf45f	-0.0066819633
12	0x3acf9817	0.0015838173
13	0x3b41ef22	0.0029591997
14	0xb9e73f1a	-0.00044106768
15	0xbad3040c	-0.0016099229
16	0xbc0bc213	-0.008530158
17	0x3ad26435	0.0016051593
18	0x38e1aa7b	0.000107605905
19	0x3b5297bc	0.0032133898
20	0x3a215de3	0.0006155653
21	0xb9d8c308	-0.0004134404
22	0x3bdea4c9	0.0067945463
23	0xb99bfb89	-0.00029751312
24	0xbaa161ca	-0.0012312469
25	0xb998802c	-0.00029087195
26	0x39e6777f	0.0004395805
27	0x3b171b7b	0.002305715
28	0xbab82de9	-0.0014051768
29	0x3b0ca800	0.002146244
30	0xba381515	-0.00070221844
31	0xbad11971	-0.0015953017
32	0x3b9e08ff	0.0048228498
33	0xba4e0e43	-0.00078604015
34	0xbb81cedb	-0.0039614267
35	0x3b95c0aa	0.0045700865
36	0xbad63ee1	-0.0016345644
37	0x3a68f53e	0.00088866416
38	0x3acbb0e5	0.001554039
39	0xbabe4df6	-0.0014519084
40	0x39fe55f0	0.00048510684
41	0xba755c2e	-0.0009359744
42	0xb9fa6b35	-0.0004776359
43	0xba851909	-0.0010154556
44	0xb865bc96	-5.477349e-05
45	0xb9a04e94	-0.00030576123
46	0xb9a2827f	-0.00030996275
47	0x3a4e0df3	0.0007860355
48	0x3a1cb573	0.0005977966
49	0x3a3e3680	0.0007256046
50	0xb8e9e327	-0.00011152616
51	0xbaaa9c67	-0.0013016582
52	0x3b1e00d4	0.002410938
53	0xba298093	-0.00064659974
54	0xbaf6ef26	-0.0018839582
55	0x3ac8ec3e	0.0015329195
56	0x3ae3a126	0.0017366752
57	0xbaf4b01c	-0.0018668207
58	0x3b5f3431	0.0034058208
59	0x3aaffce7	0.0013426811
60	0xbab93127	-0.0014129028
61	0xbb0f6faf	-0.0021886637
62	0x38c40dae	9.348556e-05
63	0x3b3fa646	0.0029243394
64	0xb9b9d90c	-0.00035447662
65	0x3a4ee76f	0.00078927627
66	0x3b5bbc8b	0.0033529128
67	0xba2fe695	-0.00067100796
68	0x3b3ec156	0.0029106936
69	0x3a36f3d9	0.0006979085
70	0x3a6f613c	0.00091316155
71	0x3b931ddf	0.004489645
72	0x3991e6ee	0.0002782861
73	0xb93af3a7	-0.0001782911
74	0xba178e53	-0.0005781401
75	0x3a43b54b	0.00074656744
76	0xba5ca62b	-0.0008417095
77	0xba9a03a6	-0.0011750355
78	0x396e441d	0.00022722823
79	0x3aaa757d	0.0013004985
80	0xb82b1afa	-4.07947e-05
81	0xbac64f71	-0.0015129877
82	0x3a93f5d5	0.0011288474
83	0xba34a92a	-0.00068916625
84	0xbac2a46a	-0.0014850025
85	0x39c5aae1	0.00037702083
86	0xbb2e9d76	-0.0026644147
87	0xba5f346c	-0.00085145864
88	0x39b8e382	0.0003526472
89	0xba7111e5	-0.0009196087
90	0x3ad7c893	0.0016462974
91	0xbafd349d	-0.0019318048
92	0x392f8ab1	0.00016740967
93	0x3ad58eb7	0.0016293143
94	0x3a7ee11d	0.00097228755
95	0xba9d69a1	-0.0012009629
96	0xba6efd78	-0.0009116749
97	0x3ad3051c	0.0016099545
98	0xb98c30a1	-0.00026739112
99	0xb9f92abe	-0.00047524826
100	0xb905c297	-0.00012756359
101	0x398fb01d	0.000274063
102	0xbb16c2d6	-0.0023004315
103	0x3a2919ca	0.0006450681
104	0x3b121c70	0.0022294782
105	0xba99a50a	-0.0011722159
106	0xbbd0e65c	-0.006375117
107	0xb9c7201a	-0.00037980155
108	0xbb8e7d4f	-0.004348434
109	0x3b152c63	0.0022762052
110	0x3b2e08ad	0.0026555464
111	0xbb81a889	-0.0039568585
112	0x3b83bb51	0.0040201326
113	0xba8ec509	-0.0010892461
114	0xbaa2de41	-0.0012425856
115	0xbb52bd76	-0.0032156385
116	0x3a714fb3	0.00092052965
117	0x3ab477f3	0.0013768658
118	0xbb010cc8	-0.0019691456
119	0x3b884372	0.0041584307
120	0x3a81c3e9	0.0009900305
121	0x3a0a2514	0.00052698073
122	0x3b119ad4	0.002221753
123	0xb8cb10e1	-9.682938e-05
124	0x3b65f89e	0.0035090814
125	0x3b412f7b	0.0029477763
126	0x3aefb6a2	0.0018288682
127	0xbae861eb	-0.0017729377
128	0x3a4bcf46	0.00077747216
129	0x3ac753f7	0.0015207519
130	0xbb509918	-0.0031829532
131	0xbb17c084	-0.002315552
132	0x3b2faab3	0.0026804626
133	0x3aa6969c	0.001270968
134	0xbb0e364d	-0.0021699846
135	0x39920eb7	0.00027858253
136	0x3a42769a	0.00074181857
137	0xbb6c3829	-0.0036044216
138	0x3afee4a8	0.0019446807
139	0x3b243aec	0.0025059534
140	0x3a3462f4	0.00068812
141	0xbb3ee28e	-0.0029126736
142	0xba13cdf5	-0.0005638295
143	0xbb548609	-0.0032428524
144	0x3b94c17f	0.004539668
145	0xbae754ea	-0.0017649208
146	0xbb52ba5a	-0.0032154531
147	0x3b95c86a	0.0045710104
148	0xbb2e862f	-0.0026630273
149	0x3ac20d1d	0.0014804933
150	0x3b00cc6e	0.00196531
151	0x3b8d29dc	0.0043079685
152	0xba1c5a28	-0.0005964362
153	0xbb068ec4	-0.0020531872
154	0x3b3ce5be	0.002882346
155	0xba8e4ae7	-0.0010856063
156	0xbb33e89c	-0.0027451878
157	0x3893b16b	7.042553e-05
158	0xbafe7e52	-0.0019416308
159	0x3aa6c2fd	0.0012722906
160	0xbbc9929d	-0.006151511
161	0xbb891877	-0.0041838246
162	0xba94b5fb	-0.0011345738
163	0xb7d2b2d9	-2.5117233e-05
164	0x3a196bac	0.0005852531
165	0xba2f1c1f	-0.00066799106
166	0xb971e1fd	-0.00023067738
167	0x3975c803	0.00023439531
168	0xb9d917b5	-0.00041407128
169	0xb993d9a5	-0.00028200183
170	0x39b32173	0.00034166462
171	0xb995143f	-0.0002843458
172	0x398478dd	0.00025267052
173	0x3a03e3ec	0.00050312164
174	0xba3dd660	-0.0007241722
175	0xb9e9b21c	-0.00044573925
176	0xba8ad138	-0.0010590916
177	0xb986eb95	-0.00025733994
178	0x3a9799d8	0.0011566235
179	0x3670be3e	3.5873522e-06
180	0xbad6e259	-0.0016394361
181	0x3ac5968a	0.0015074771
182	0x3b3a6573	0.0028441816
183	0xbae7763a	-0.0017659136
184	0x3baa083c	0.00518897
185	0xb88073d3	-6.1250896e-05
186	0xbab22e2a	-0.001359408
187	0xba94771d	-0.0011327002
188	0xb8378968	-4.375857e-05
189	0x3b1a010c	0.002349916
190	0xb9c455ed	-0.00037448053
191	0x3ab5ad4f	0.0013860854
192	0xba3cd13b	-0.00072028086
193	0xba599a81	-0.0008300916
194	0x3b57686e	0.0032868641
195	0xbb0a728d	-0.0021125406
196	0xbb05cca5	-0.0020416167
197	0x3b6834b7	0.003543181
198	0x3b30f502	0.0027001505
199	0x3aee4884	0.001817957
200	0xbacb0643	-0.0015489537
201	0x3af36fb9	0.0018572725
202	0x3b14704c	0.0022649942
203	0x3b054351	0.0020334313
204	0x3889589e	6.549175e-05
205	0x3adb060d	0.0016710177
206	0xba7db64f	-0.000967835
207	0xb9bb5002	-0.0003572703
208	0x39ae2a4b	0.00033219377
209	0x3a6f77e3	0.0009134991
210	0xbabcae52	-0.0014395213
211	0xba97d4e5	-0.0011583833
212	0x3b15c181	0.0022850933
213	0x3aace4da	0.0013190762
214	0xbbee69dc	-0.007275803
215	0x3b475d04	0.0030420432
216	0xb8da0744	-0.000103964034
217	0x3a7fa15b	0.0009751522
218	0xba07f15f	-0.00051858084
219	0x39affff5	0.00033569304
220	0x3af72a7f	0.0018857269
221	0x3a324acc	0.0006801307
222	0xba7eb6be	-0.0009716562
223	0x3a16695f	0.00057377474
224	0x3a4e8ca4	0.00078792335
225	0xb89dd048	-7.525139e-05
226	0x39d505be	0.00040630804
227	0x39e37bfc	0.0004338919
228	0xba9c1536	-0.0011908177
229	0xb994fb59	-0.00028416028
230	0xba3edd2f	-0.0007280884
231	0x3aa2ceb1	0.0012421218
232	0xbaa02f7d	-0.0012221184
233	0x3aa46c6b	0.0012544518
234	0xba78ac55	-0.00094861287
235	0x3ac88221	0.001529757
236	0xb985645e	-0.00025442516
237	0xbab39869	-0.0013702038
238	0x3af4d63e	0.0018679572
239	0x37ef0258	2.8492112e-05
240	0xba6ba0c1	-0.0008988493
241	0xba868015	-0.001026156
242	0x3a3c62a9	0.00071863324
243	0x3a018168	0.00049402425
244	0xbafa5dd3	-0.0019101448
245	0x3acfaa06	0.0015843518
246	0x39dc3c76	0.00042006717
247	0xba9b94d3	-0.0011869915
248	0x3a7050c0	0.0009167306
249	0x39aa4d5a	0.00032482558
250	0x3acdd755	0.0015704433
251	0x3a99ad10	0.001172455
252	0xbb13a495	-0.0022528518
253	0x3a9a806e	0.0011787543
254	0x39fb684e	0.00047952164
255	0xbaf4ad2a	-0.001866733

exp_avg_sq f4 [128, 18]
0	0x394c4111	0.00019479195
1	0x391200dd	0.00013923967
2	0x39382d1c	0.00017564412
3	0x393c7953	0.00017974274
4	0x3980de7d	0.0002457983
5	0x3980e3ea	0.00024583872
6	0x398bed4d	0.0002668895
7	0x390f5779	0.00013670129
8	0x3903a7ef	0.00012555694
9	0x391c0f11	0.00014882932
10	0x391b2d18	0.0001479875
11	0x39a7b153	0.0003198484
12	0x392fe420	0.00016774284
13	0x3917720b	0.00014442966
14	0x397cc187	0.00024104687
15	0x3949d24c	0.00019247195
16	0x3a4cbbf2	0.00078099885
17	0x3a7035de	0.00091633
18	0x38f5ad9c	0.00011714848
19	0x38c59558	9.4215095e-05
20	0x38e814d6	0.00011066503
21	0x390a897a	0.0001321192
22	0x393bca36	0.00017909039
23	0x38ec8073	0.000112772825
24	0x38d61c00	0.000102095306
25	0x38cd1186	9.778426e-05
26	0x3878668d	5.9223315e-05
27	0x3890a509	6.897195e-05
28	0x38d1904a	9.9927725e-05
29	0x3924efa2	0.00015729529
30	0x38b5af0b	8.663357e-05
31	0x38afb81e	8.378945e-05
32	0x38f1c81d	0.000115290495
33	0x39266875	0.00015869907
34	0x39df66e0	0.00042610522
35	0x39f826d4	0.00047331175
36	0x376ce89b	1.4120854e-05
37	0x3732f9b9	1.066777e-05
38	0x378d4e45	1.6844957e-05
39	0x377727f9	1.4731654e-05
40	0x37c8025a	2.3842953e-05
41	0x37cc8df0	2.438479e-05
42	0x37876995	1.614242e-05
43	0x3728d331	1.0062752e-05
44	0x3741421d	1.151909e-05
45	0x375d7361	1.319949e-05
46	0x37675f91	1.3790924e-05
47	0x37e2170d	2.6952033e-05
48	0x37903d94	1.7194812e-05
49	0x376db5a1	1.416859e-05
50	0x378f6e32	1.7098242e-05
51	0x37c9f01e	2.407288e-05
52	0x386b7111	5.6133667e-05
53	0x38a442c0	7.8325626e-05
54	0x38046aab	3.1570595e-05
55	0x377d6c36	1.510517e-05
56	0x3808cf94	3.261825e-05
57	0x3812ef66	3.503207e-05
58	0x384f2acb	4.93925e-05
59	0x38566b54	5.1121533e-05
60	0x38319d5a	4.2346634e-05
61	0x381a6551	3.681082e-05
62	0x378a4e66	1.6487389e-05
63	0x3822e620	3.883813e-05
64	0x3828665a	4.0149644e-05
65	0x3880195a	6.108238e-05
66	0x383a307d	4.4391014e-05
67	0x38461f9b	4.7236314e-05
68	0x383c2811	4.4860008e-05
69	0x381345fe	3.5112716e-05
70	0x38f92486	0.00011880048
71	0x3919299d	0.00014606719
72	0x373d4fde	1.1283873e-05
73	0x3665ed05	3.4261623e-06
74	0x3780d227	1.5356649e-05
75	0x37509c8f	1.2434218e-05
76	0x376861a9	1.3851016e-05
77	0x379ef1a9	1.89476e-05
78	0x37844046	1.5765556e-05
79	0x3743ceb1	1.167103e-05
80	0x368435c0	3.940164e-06
81	0x3753e081	1.2628851e-05
82	0x3776e428	1.4715864e-05
83	0x37984472	1.8151684e-05
84	0x378c0df1	1.6695793e-05
85	0x37991032	1.8246563e-05
86	0x378edfe4	1.7031976e-05
87	0x378bfbc2	1.6687325e-05
88	0x382835c8	4.010441e-05
89	0x3833d5c6	4.2876018e-05
90	0x38b26d48	8.5080566e-05
91	0x3844bf19	4.6908015e-05
92	0x38842ccb	6.302594e-05
93	0x38a9a6d6	8.0896236e-05
94	0x38e0cb1b	0.00010718984
95	0x3903b37c	0.00012559997
96	0x38ef42bf	0.000114088405
97	0x386a78a9	5.590232e-05
98	0x382bac35	4.0929957e-05
99	0x3857866e	5.1385192e-05
100	0x3873a353	5.8087822e-05
101	0x3919b8c6	0.0001466005
102	0x389d0c21	7.4886026e-05
103	0x3886cfb4	6.428306e-05
104	0x38ae3917	8.3076004e-05
105	0x38c0c05b	9.1911024e-05
106	0x39b949b9	0.00035340877
107	0x39d2f307	0.0004023539
108	0x37dd8b3a	2.6410085e-05
109	0x37644d94	1.3607922e-05
110	0x3796c5a3	1.7973425e-05
111	0x37c007ed	2.2891874e-05
112	0x381b4620	3.702019e-05
113	0x382b180d	4.0791976e-05
114	0x37f48812	2.915043e-05
115	0x37c034df	2.2912804e-05
116	0x3781f304	1.5491161e-05
117	0x37c09d88	2.296154e-05
118	0x37c51476	2.3493758e-05
119	0x385c184f	5.2474727e-05
120	0x380bdbdc	3.3344942e-05
121	0x3805bcc6	3.188548e-05
122	0x37f1847b	2.879113e-05
123	0x37a5150b	1.9679332e-05
124	0x389bef61	7.435564e-05
125	0x38e691c3	0.00010994405
126	0x3864e185	5.4569467e-05
127	0x38a0322e	7.638741e-05
128	0x38c4a329	9.376399e-05
129	0x384a07d1	4.8167833e-05
130	0x38a37237	7.79372e-05
131	0x38b1f6d3	8.485992e-05
132	0x38958d54	7.131198e-05
133	0x38042ebf	3.1514788e-05
134	0x389c982e	7.467005e-05
135	0x3874ad9f	5.833583e-05
136	0x38262bcb	3.961827e-05
137	0x38956311	7.123326e-05
138	0x385f5310	5.32447e-05
139	0x385835ab	5.1548395e-05
140	0x39007217	0.00012249533
141	0x38f12536	0.000114987066
142	0x3900f8ad	0.0001229967
143	0x392fd51d	0.00016768691
144	0x37c9206e	2.3976168e-05
145	0x378992df	1.6400065e-05
146	0x37e81331	2.7665492e-05
147	0x37d16735	2.4962801e-05
148	0x37f5a887	2.9284753e-05
149	0x37ed7e99	2.8311553e-05
150	0x37d847ca	2.5782636e-05
151	0x37b1ab9e	2.117996e-05
152	0x3780d4d0	1.5357888e-05
153	0x37b326c1	2.1356509e-05
154	0x37f3472b	2.9000998e-05
155	0x3824e41f	3.93131e-05
156	0x380bf2fd	3.3366483e-05
157	0x38129d0f	3.4955385e-05
158	0x3806e904	3.2165102e-05
159	0x37d04a60	2.4830166e-05
160	0x3896aa27	7.184251e-05
161	0x38ce0ea1	9.82557e-05
162	0x3762340c	1.3482768e-05
163	0x36d1afc1	6.249146e-06
164	0x37318543	1.05810495e-05
165	0x37634afd	1.3547714e-05
166	0x37ac7d67	2.0562393e-05
167	0x379602d6	1.7882714e-05
168	0x376481b6	1.362006e-05
169	0x374d156d	1.2223941e-05
170	0x36d4cebf	6.3421608e-06
171	0x3731cd21	1.0597782e-05
172	0x3755784e	1.27238e-05
173	0x37c261de	2.3172175e-05
174	0x374f32d8	1.2349999e-05
175	0x373165e3	1.05737445e-05
176	0x371ef112	9.473662e-06
177	0x373ec48f	1.1370647e-05
178	0x385777a1	5.1371408e-05
179	0x388835f3	6.495034e-05
180	0x38cbff77	9.727378e-05
181	0x389c314f	7.447844e-05
182	0x38ffcc7a	0.00012197434
183	0x38e2bf2a	0.00010812127
184	0x3913e015	0.0001410249
185	0x38d00184	9.918495e-05
186	0x38c61592	9.4453935e-05
187	0x3895734b	7.126349e-05
188	0x3839a2c5	4.4259028e-05
189	0x3891270c	6.921412e-05
190	0x38a9ad77	8.090858e-05
191	0x391393d7	0.00014074087
192	0x38b855be	8.7897744e-05
193	0x38be0eae	9.06264e-05
194	0x38e56fc8	0.00010940392
195	0x392e9bfa	0.00016652039
196	0x39bbd0aa	0.00035822886
197	0x39d8cc6d	0.0004135104
198	0x38e9094d	0.00011112038
199	0x3889c95d	6.570176e-05
200	0x38bece78	9.098364e-05
201	0x38fefcc8	0.00012158748
202	0x39167444	0.00014348427
203	0x38d711ca	0.000102553124
204	0x38eab3c9	0.00011191477
205	0x38ca4a5e	9.6459626e-05
206	0x3807e007	3.239515e-05
207	0x388fd90f	6.859202e-05
208	0x38e58f34	0.000109462446
209	0x39315b4a	0.00016914043
210	0x38c2ecf7	9.294779e-05
211	0x38babd25	8.904402e-05
212	0x38e73238	0.00011024292
213	0x38cc6aa4	9.7473414e-05
214	0x39f5d5db	0.00046889376
215	0x39ff058b	0.0004864152
216	0x379ece9f	1.8931283e-05
217	0x374c68ed	1.21837775e-05
218	0x378ddf60	1.6912527e-05
219	0x3793ff10	1.7642538e-05
220	0x37cf2790	2.4694746e-05
221	0x37e59506	2.7368322e-05
222	0x37edabfb	2.8332686e-05
223	0x378ab30f	1.6534263e-05
224	0x372808a8	1.0015596e-05
225	0x37986549	1.8166977e-05
226	0x37baf1ad	2.2285467e-05
227	0x382e79cc	4.1598265e-05
228	0x3800de49	3.0724597e-05
229	0x3804e021	3.167999e-05
230	0x37db1082	2.6114521e-05
231	0x3798b6af	1.820488e-05
232	0x38912a51	6.922021e-05
233	0x38d37ad6	0.00010084144
234	0x37812c3d	1.5398598e-05
235	0x37545a19	1.2657162e-05
236	0x37a7ff9e	2.0026982e-05
237	0x376ddbca	1.4177474e-05
238	0x37853d22	1.5883303e-05
239	0x37bd5507	2.257015e-05
240	0x37c363ee	2.3292345e-05
241	0x375f1204	1.329603e-05
242	0x376a3232	1.3959174e-05
243	0x375f5b32	1.3313069e-05
244	0x376b3e00	1.4021527e-05
245	0x37c280d6	2.3186596e-05
246	0x37967d64	1.7939783e-05
247	0x37873aae	1.6120579e-05
248	0x37a1e41b	1.9298916e-05
249	0x37a813b6	2.003634e-05
250	0x38411fd3	4.6044424e-05
251	0x38829919	6.2274e-05
252	0x378210a0	1.550495e-05
253	0x36936a6c	4.3933305e-06
254	0x37a9bcd5	2.0234302e-05
255	0x37855358	1.5893645e-05
