runs/BallBalance_19-15-40-40/nn/last_BallBalance_ep_100_rew_4.4089017.pth (torch, 173671 bytes, 36 tensors)

value_mean_std.running_mean f8 [1]
0.21951266635509872
00000000: b5c5 86b5 fd18 cc3f

value_mean_std.running_var f8 [1]
0.013652302028697362
00000000: 74b3 d3f5 bcf5 8b3f

value_mean_std.count f8 []
51201.0
00000000: 0000 0000 2000 e940

running_mean_std.running_mean f8 [18]
-0.34956262624008017 0.06419966869066727 -0.008192579982577696 -0.3069301616554867 0.15530360419233205 0.008577222431723975 -0.08122658712324424 -0.7968178721609203
0.21560691926549214 0.0415712752751665 -0.6588842480365459 0.369516399650712 -0.03624247009749707 -0.07053028002674108 0.10865570367759725 0.11593030399846357
0.039031070363682946 -0.01952040553074442
00000000: 94b8 e6eb 3b5f d6bf 67c1 70b5 636f b03f
00000010: f3a1 c278 45c7 80bf 00d8 9d67 bea4 d3bf
00000020: cd7e 7a0e fde0 c33f fa9c ad4e ef90 813f
00000030: 3e91 42ff 43cb b4bf 3095 b931 887f e9bf
00000040: 58af 84ed 0199 cb3f 850b 8587 d448 a53f
00000050: 1b54 256b 9415 e5bf 6778 f51c 28a6 d73f
00000060: 450b 977f 5f8e a2bf feb2 17be 450e b2bf
00000070: a0b3 d135 dcd0 bb3f ceea 49c0 9bad bd3f
00000080: 44d3 7a65 e1fb a33f 63d3 6f3d 28fd 93bf

running_mean_std.running_var f8 [18]
0.26743866079561057 0.015264441308426165 0.12750273125773998 0.22955584546787822 0.07403196917056609 0.013718767020950566 0.008161729189746513 1.8452506211906612
0.33880566333683104 2.069982391159041 2.5585630717026384 0.5822106768688237 0.9386424291302209 1.3134146780164502 0.005732589796937697 0.005172474507142077
0.01955909650008475 0.01926760103240031
00000000: 6167 730b b71d d13f 71f3 b0a1 f642 8f3f
00000010: b28a 736e 0252 c03f fcf0 7100 1662 cd3f
00000020: 1831 7256 c2f3 b23f cf47 92bd 9518 8c3f
00000030: a614 97bf 18b7 803f 4e00 ef83 2586 fd3f
00000040: 38cd eef2 fdae d53f 7997 8aed 528f 0040
00000050: a5ba 6dea ef77 0440 6d13 1149 78a1 e23f
00000060: d012 f8d8 5b09 ee3f 21ac 021c bf03 f53f
00000070: 850c 305b 0e7b 773f 73a4 8f8d bb2f 753f
00000080: 508b 3abf 4c07 943f 5be4 39d1 e2ba 933f

running_mean_std.count f8 []
25601.0
00000000: 0000 0000 4000 d940

a2c_network.sigma f4 [7]
-0.017815389 0.037580725 -0.10287089 -0.057586305 0.047056712 -0.10794804 -0.014130824
00000000: 94f1 91bc 3fee 193d f9ad d2bd 9edf 6bbd
00000010: 8abe 403d dd13 ddbd f984 67bc

a2c_network.actor_mlp.0.weight f4 [128, 18]
-0.18027264 0.0771853 -0.1498566 0.09814731 -0.21491596 0.21395408 -0.16517007 -0.17471164
-0.08857308 -0.09966912 0.04933539 -0.17202951 0.14248711 -0.18028319 0.45263803 0.038204264
-0.07330105 0.10055008 0.14196382 0.24803491 -0.07511271 -0.103683285 0.07267329 -0.11369814
0.13945931 0.34229422 0.10999487 -0.08432629 -0.07559578 0.026485361 0.060710527 -0.0030850132
-0.559594 -0.15951143 -0.11535773 0.107003525 0.12795265 0.14691694 0.060870837 0.023275778
0.30172473 -0.19136114 0.04441268 -0.15073746 0.13150182 -0.01322931 -0.0026182167 -0.094322294
0.23160574 0.00380593 -0.080785826 -0.47310144 0.11727237 0.058711838 0.25858974 -0.041794002
-0.2926956 -0.28529182 -0.21060842 0.1578879 0.041643646 0.38541353 -0.0197231 -0.2573285
0.009966768 -0.11650512 0.13729592 -0.04446916 0.19026382 -0.12540577 -0.054072227 0.038155124
0.11555281 -0.17868091 0.23767722 0.21323393 -0.13954623 -0.122417815 0.21491188 -0.09112294
-0.13569805 -0.21053892 -0.08115904 0.0835191 -0.06680298 -0.129096 0.05306579 -0.2613116
-0.21688005 -0.10901193 -0.18376581 -0.22260915 0.3460912 0.1596106 0.120996 -0.21018003
-0.16128682 -0.108543955 0.020745944 -0.1518144 -0.021314299 -0.06054996 0.08345931 -0.12159903
0.11830984 -0.34340033 -0.14150433 -0.076483816 0.02087042 -0.24947508 0.27094385 -0.003641497
0.24075028 0.034315635 -0.15768757 0.20526735 -0.06999356 -0.11175899 -0.19768193 -0.26063278
0.011661257 -0.0048357323 0.15633716 -0.34310317 0.11547152 -0.12125349 -0.043265134 0.075080246
0.15188786 0.28284267 0.16597922 -0.14458603 -0.010991686 -0.1367147 -0.015245456 -0.030719504
0.30762094 -0.14695647 0.111925066 0.108644545 0.18854408 -0.30269143 0.12473805 0.05777899
-0.032925718 -0.1244822 0.1603418 -0.022109723 -0.0704271 0.14481814 0.097524375 -0.21050645
-0.017935127 0.025651937 0.23522393 -0.047174446 -0.106051005 -0.10094648 -0.29738888 0.32638624
0.18955825 -0.20651938 0.039763264 0.1247415 0.034197673 -0.064943954 0.21698913 0.12638433
0.15834945 -0.08642772 -0.06376356 0.040103782 -0.04450463 -0.13296202 0.1074084 0.20885976
0.08121181 -0.05825502 -0.04035559 -0.104674004 0.09794054 0.10337584 -0.37784365 -0.14361261
0.30296642 0.08972758 0.03676424 -0.061843943 -0.18800159 -0.34652784 -0.13091807 0.043997556
0.1160955 0.08848959 -0.4546823 -0.2786202 -0.02061612 0.11134827 0.05722626 0.0015855429
0.12028847 -0.051364485 -0.2652896 0.18478157 -0.10530208 0.0326327 -0.2251701 0.18669362
0.1594674 0.0061703804 -0.10949986 -0.18126838 -0.46990293 0.50574183 0.058733247 0.26578277
0.12352173 0.020401886 0.009206975 -0.24212356 -0.16660678 -0.2576896 0.040330928 -0.1693472
-0.024848627 -0.12361539 -0.117518835 -0.19273925 -0.08504783 0.112659365 -0.083799675 0.21654652
-0.038987786 -0.19128697 0.04514569 -0.07595998 -0.1379313 -0.24660286 0.09420257 -0.21011141
0.12744497 0.1872725 0.20206605 -0.24100412 0.038293235 -0.15777701 0.17774387 0.25287455
-0.15404165 -0.00030826693 -0.053243253 -0.15792704 0.11846872 -0.36385936 0.26612014 0.19318356
00000000: 6499 38be 5413 9e3d 0274 19be 7501 c93d
00000010: ee12 5cbe c716 5b3e 5822 29be 9ce7 32be
00000020: ce65 b5bd 531f ccbd e813 4a3d 8128 30be
00000030: 24e8 113e 289c 38be 2cc0 e73e 137c 1c3d
00000040: dc1e 96bd 33ed cd3d f75e 113e ddfc 7d3e
00000050: b1d4 99bd e757 d4bd bcd5 943d 92da e8bd
00000060: 6cce 0e3e 3041 af3e fe44 e13d 43b3 acbd
00000070: f6d1 9abd d4f7 d83c 9aab 783d ef2d 4abb
00000080: 8d41 0fbf f756 23be ac40 ecbd aa24 db3d
00000090: 0506 033e 6571 163e b353 793d d8ac be3c
000000a0: aa7b 9a3e 2df4 43be 12ea 353d ec5a 1abe
000000b0: 6aa8 063e bfbf 58bc 6396 2bbb 0c2c c1bd
000000c0: 0e2a 6d3e e96c 793b 0a73 a5bd 5a3a f2be
000000d0: 7f2c f03d d37b 703d e065 843e 3030 2bbd
000000e0: 33dc 95be c511 92be bca9 57be 5ead 213e
000000f0: 8792 2a3d ec54 c53e 5792 a1bc 90c0 83be
00000100: a84b 233c 3d9a eebd 4d97 0c3e 4b25 36bd
00000110: 85d4 423e 5f6a 00be d77a 5dbd 8c48 1c3d
00000120: f4a6 ec3d 21f8 36be a861 733e ff59 5a3e
00000130: 35e5 0ebe 31b6 fabd dc11 5c3e aa9e babd
00000140: 6ef4 0abe 8497 57be b636 a6bd 100c ab3d
00000150: 00d0 88bd be31 04be 845b 593d a2ca 85be
00000160: ce15 5ebe a641 dfbd 1b2d 3cbe a7f3 63be
00000170: de32 b13e f670 233e c0cc f73d 6f39 57be
00000180: 5f28 25be 4b4c debd 66f3 a93c 3c75 1bbe
00000190: 539b aebc 3c03 78bd b7ec aa3d ea08 f9bd
000001a0: 6e4c f23d 2bd2 afbe 83e6 10be 8ca3 9cbd
000001b0: 71f8 aa3c 6576 7fbe 27b9 8a3e 2fa6 6ebb
000001c0: 3e87 763e 8d8e 0c3d da78 21be 9b31 523e
000001d0: c958 8fbd e6e1 e4bd 226d 4abe a971 85be
000001e0: db0e 3f3c 1075 9ebb d916 203e 38ab afbe
000001f0: 557c ec3d c053 f8bd c836 31bd acc3 993d
00000200: 7e88 1b3e c1d0 903e 75f6 293e 5c0e 14be
00000210: 7916 34bc f0fe 0bbe 14c8 79bc 78a7 fbbc
00000220: 7e80 9d3e c27b 16be f838 e53d 0881 de3d
00000230: b311 413e 5ffa 9abe aa76 ff3d aaa9 6c3d
00000240: 1edd 06bd 86f0 febd a430 243e 731f b5bc
00000250: 153c 90bd 354b 143e dcba c73d 018f 57be
00000260: b0ec 92bc 0324 d23c 8bde 703e fe39 41bd
00000270: 4531 d9bd 07bd cebd 5b43 98be 191c a73e
00000280: 8f1b 423e d179 53be cede 223d 7978 ff3d
00000290: dc12 0c3d 5601 85bd 6632 5e3e e56a 013e
000002a0: 5c26 223e 0401 b1bd 7896 82bd dd43 243d
000002b0: 7d4a 36bd 3227 08be eff8 db3d 55df 553e
000002c0: 6152 a63d d19c 6ebd e74b 25bd 535f d6bd
000002d0: 0d95 c83d b6b6 d33d b974 c1be 2f0f 13be
000002e0: 6a1e 9b3e 18c3 b73d 1a96 163d 1350 7dbd
000002f0: 7d83 40be 196c b1be 630f 06be c836 343d
00000300: 7ac3 ed3d 083a b53d 1ecc e8be 4fa7 8ebe
00000310: 23e3 a8bc 900a e43d 1566 6a3d fed1 cf3a
00000320: cd59 f63d 9163 52bd 0ad4 87be 6137 3d3e
00000330: 9ea8 d7bd dea9 053d fe92 66be 9d2c 3f3e
00000340: 6c4b 233e e730 ca3b 7641 e0bd 6b9e 39be
00000350: 1e97 f0be 4c78 013f 4692 703d ae14 883e
00000360: f6f8 fc3d db21 a73c dad8 163c 3def 77be
00000370: f89a 2abe e4ef 83be 0b32 253d 5a69 2dbe
00000380: 598f cbbc 112a fdbd b7ad f0bd 705d 45be
00000390: 8f2d aebd f4b9 e63d 2a9f abbd 5fbe 5d3e
000003a0: a8b1 1fbd bbe0 43be b0ea 383d e890 9bbd
000003b0: dd3d 0dbe 7685 7cbe 47ed c03d 7227 57be
000003c0: ef80 023e 5dc4 3f3e 67ea 4e3e c9c9 76be
000003d0: 5ed9 1c3d 4c90 21be 7d02 363e c678 813e
000003e0: 18bd 1dbe e39e a1b9 9915 5abd a0b7 21be
000003f0: ba9f f23d c64b babe e640 883e e9d1 453e

a2c_network.actor_mlp.0.bias f4 [128]
-0.17571627 -0.18916796 0.012654987 -0.16638993 0.065531515 -0.13740277 0.035383098 -0.19580837
-0.0015084142 0.103108875 -0.19324447 -0.15734105 0.15210976 0.057183556 -0.0022207287 0.032427225
-0.12429706 0.023200894 -0.13565479 0.02691145 0.051474452 0.08957403 -0.021031002 -0.07716481
-0.029184861 -0.15774137 0.06583427 -0.16932477 -0.12404788 0.10880238 -0.055574074 -0.047488738
-0.18556924 -0.046244398 -0.072841525 -0.1411514 0.1530785 -0.09051359 0.049999215 -0.14999697
0.09101004 -0.07592956 -0.13924581 0.19668588 -0.16770266 -0.14214149 -0.092451714 -0.10113962
-0.14042418 0.067514755 -0.11666208 0.021076456 0.14311206 -0.13625723 -0.20084575 -0.1263626
-0.10368634 -0.124782644 -0.065110154 -0.071266204 -0.121872306 -0.19047734 -0.09584834 -0.030816931
-0.107275255 -0.112609155 -0.05391547 -0.23437954 0.08158838 -0.1505096 -0.17567043 -0.27274755
-0.0060447445 -0.23833425 0.15417111 -0.19928718 -0.17617476 -0.06660911 -0.11599357 0.11714639
-0.09657943 0.12868153 -0.17478788 0.10632789 0.10847705 0.045891657 0.009896206 -0.10797465
-0.006135328 -0.12759694 -0.17371897 0.13055749 -0.023744201 -0.18338688 -0.1413722 0.14212945
-0.11057163 -0.16596939 -0.028948564 0.088050224 -0.005467507 -0.1485937 0.026569864 -0.13931903
-0.14434853 -0.15231535 -0.15499738 -0.040403478 -0.046442408 -0.044031847 0.016648863 0.0434694
-0.042758435 -0.046723872 -0.017310424 0.033348016 0.12860277 -0.10480857 -0.21800523 0.033391513
-0.123581484 -0.111839004 0.042433284 -0.15117541 -0.07430928 -0.19802727 -0.11861041 -0.04234703
00000000: f7ee 33be 3fb5 41be dd56 4f3c 1f62 2abe
00000010: 6335 863d 50b3 0cbe deed 103d fd81 48be
00000020: fbb5 c5ba bf2a d33d e1e1 45be 031e 21be
00000030: a9c2 1b3e 4e39 6a3d a589 11bb 69d2 043d
00000040: 758f febd cd0f be3c 17e9 0abe 6775 dc3c
00000050: e0d6 523d 9772 b73d 3549 acbc 9508 9ebd
00000060: 1715 efbc f486 21be 1ed4 863d 7963 2dbe
00000070: d10c febd c8d3 de3d a4a1 63bd 8d83 42bd
00000080: dd05 3ebe c46a 3dbd f02d 95bd fe89 10be
00000090: 9cc0 1c3e 305f b9bd facb 4c3d ce98 19be
000000a0: 7963 ba3d f580 9bbd 7496 0ebe 0668 493e
000000b0: 3fba 2bbe 8a8d 11be 5357 bdbd 4a22 cfbd
000000c0: 5bcb 0fbe 2d45 8a3d 87ec eebd 88a8 ac3c
000000d0: f88b 123e 0487 0bbe 82aa 4dbe 3365 01be
000000e0: 8159 d4bd 0b8e ffbd 7958 85bd 04f4 91bd
000000f0: 3098 f9bd 7e0c 43be 224c c4bd ca73 fcbc
00000100: 21b3 dbbd a19f e6bd 78d6 5cbd 3101 70be
00000110: cf17 a73d 301f 1abe f3e2 33be 91a5 8bbe
00000120: fe12 c6bb e50d 74be 08df 1d3e f011 4cbe
00000130: 2867 34be 5b6a 88bd 098e edbd 72ea ef3d
00000140: 70cb c5bd 17c5 033e 98fb 32be 70c2 d93d
00000150: 3729 de3d e4f8 3b3d b223 223c d021 ddbd
00000160: dd0a c9bb c6a8 02be 63e3 31be ddb0 053e
00000170: 3383 c2bc c5c9 3bbe e0c3 10be 628a 113e
00000180: 6173 e2bd e1f3 29be 8a25 edbc ad53 b43d
00000190: c628 b3bb f228 18be 0ba9 d93c a6a9 0ebe
000001a0: 1ad0 13be 8ef8 1bbe a2b7 1ebe 1e7e 25bd
000001b0: 653a 3ebd bd5a 34bd 3263 883c f80c 323d
000001c0: 7823 2fbd 8861 3fbd 97ce 8dbc ee97 083d
000001d0: 72b0 033e e0a5 d6bd c33c 5fbe 8ac5 083d
000001e0: 4a18 fdbd d90b e5bd 86ce 2d3d bacd 1abe
000001f0: 772f 98bd a9c7 4abe 04ea f2bd 1474 2dbd

a2c_network.actor_mlp.2.weight f4 [64, 128]
0.14925312 0.071684904 -0.10469644 0.08679467 -0.09769661 -0.0677377 -0.0021074307 0.12942858
-0.03057853 -0.18052723 -0.07810016 0.02220526 -0.025098493 -0.00720101 -0.08136467 -0.1380211
0.12754567 -0.16493341 0.115508795 -0.31373355 -0.0963447 -0.24550156 -0.06531687 0.13119167
-0.024530798 -0.085064165 0.024534667 -0.0025214802 -0.10442598 -0.13091612 -0.10263655 -0.044561457
0.014200885 0.0061230124 -0.124771655 -0.1703542 -0.1295446 0.21755713 0.009811238 0.16578442
-0.06574696 0.20779468 0.042559087 -0.06164444 0.063087255 -0.038463682 0.15553862 0.25665653
0.15103927 0.019928863 0.017051449 -0.18070412 -0.18857515 -0.033822536 -0.18250246 -0.21935204
-0.19408502 -0.11261877 0.16998237 -0.06715531 0.13877966 0.17069416 0.059213072 0.07583347
0.10504405 -0.03139478 -0.015081354 0.2114722 0.071791716 -0.017028717 0.2026145 0.24553885
-0.108614184 0.11433189 -0.08554475 0.3296299 -0.05181246 -0.09346926 0.175254 -0.05094962
0.1382634 -0.14085922 0.05119574 0.034730244 0.01366497 -0.02096372 0.013958231 0.108208
0.1101742 -0.11813806 0.24145748 -0.17313994 -0.12309962 0.23318017 0.03323166 -0.07852444
-0.03887135 -0.05275609 -0.17564464 0.007135824 0.09656132 -0.024244275 0.13553824 0.08794295
0.14707327 -0.018558666 0.1421634 -0.04395825 -0.03289444 -0.121842846 -0.26761648 0.053572204
0.0035660926 0.059291195 0.1452748 0.0007287411 0.0993886 0.014858146 0.18926863 0.102872044
0.010453887 0.11495494 -0.04399717 -0.049381685 0.045457326 -0.18168868 0.12592182 -0.15666847
0.10994477 0.008519074 0.03937433 0.06992303 0.16748568 0.03907228 -0.020805035 0.037465073
-0.055238437 -0.040846083 0.08578252 -0.13659798 -0.06319627 -0.08002428 0.04263533 0.008068001
-0.022052882 -0.00015313296 -0.0008858112 -0.016029142 0.056873832 0.012288717 -0.17249408 -0.12766278
0.12310805 0.08696758 -0.07640013 0.19395988 -0.064668454 -0.04092826 -0.03432982 -0.14781143
0.09118582 -0.07044701 -0.04395042 -0.18158822 -0.08400874 -0.08229496 0.07256462 0.20041047
-0.0018216921 -0.026512671 -0.055290125 -0.11481255 -0.14908603 0.060203634 0.016353467 0.10092582
0.018284878 0.14467786 0.080744125 -0.1750667 0.04151695 -0.040290885 0.07542867 0.06755766
-0.32081395 -0.016378198 0.070044585 0.06778609 -0.037002984 0.100889675 -0.023939947 -0.059653353
0.09387823 0.03482163 -0.23946767 -0.0011006165 -0.04609954 -0.116513364 0.15715031 0.03354827
-0.07817454 0.043146376 0.06167848 0.06148215 -0.04093947 -0.15651396 0.06230698 -0.06611755
0.039324313 -0.01096104 -0.071685895 -0.15788889 -0.061776325 -0.0141643 -0.052750636 -0.1708694
-0.1688356 -0.0022783827 0.198755 -0.19312172 -0.16380632 0.24307401 -0.11566766 -0.23700178
-0.07006754 -0.005040467 0.043330748 -0.15746948 0.09781191 0.094407625 0.06962907 0.040640127
-0.016626451 -0.034294467 0.053140376 0.081445865 -0.12988904 -0.093126476 -0.06033944 0.014504428
0.15484567 0.20426637 -0.035947934 -0.08411163 0.03089509 0.07212835 0.1453103 -0.05068884
-0.04429498 -0.1278808 0.14079335 -0.0044868956 0.051799826 0.08073079 -0.042602055 0.07812822
00000000: cfd5 183e 89cf 923d 166b d6bd 67c1 b13d
00000010: 2915 c8bd 10ba 8abd d21c 0abb ed88 043e
00000020: d37f fabc 21dc 38be faf2 9fbd cee7 b53c
00000030: 5b9b cdbc 73f6 ebbb 85a2 a6bd 6755 0dbe
00000040: 559b 023e 4ee4 28be e08f ec3d afa1 a0be
00000050: 5f50 c5bd c364 7bbe dac4 85bd 1c57 063e
00000060: d0f4 c8bc 1f36 aebd edfc c83c 6b3f 25bb
00000070: 4add d5bd e00e 06be 1d33 d2bd 1386 36bd
00000080: d4aa 683c 8da3 c83b 4888 ffbd 5571 2ebe
00000090: 57a7 04be 4cc7 5e3e 51bf 203c 64c3 293e
000000a0: 58a6 86bd 21c8 543e 7052 2e3d e17e 7cbd
000000b0: e433 813d 188c 1dbd 8445 1f3e 7c68 833e
000000c0: 0aaa 1a3e db41 a33c 7baf 8b3c 800a 39be
000000d0: d819 41be 8089 0abd ede1 3abe d29d 60be
000000e0: 39be 46be aba4 e6bd dc0f 2e3e b988 89bd
000000f0: 411c 0e3e 73ca 2e3e 6889 723d 944e 9b3d
00000100: 5621 d73d d097 00bd c917 77bc 2b8c 583e
00000110: 8907 933d cf7f 8bbc 2d7a 4f3e 896e 7b3e
00000120: 1d71 debd d726 ea3d 1632 afbd 40c5 a83e
00000130: 4d39 54bd d06c bfbd c975 333e 8cb0 50bd
00000140: ec94 0d3e 663d 10be a0b2 513d 4d41 0e3d
00000150: 0ae3 5f3c 1bbc abbc 10b1 643c 289c dd3d
00000160: 03a3 e13d 5ef2 f1bd a140 773e 994b 31be
00000170: a71b fcbd c8c6 6e3e ec1d 083d 6cd1 a0bd
00000180: 9137 1fbd c516 58bd 30dc 33be a1d3 e93b
00000190: f1c1 c53d ee9b c6bc 89ca 0a3e 6f1b b43d
000001a0: 609a 163e 5808 98bc 4893 113e 910d 34bd
000001b0: 52bc 06bd be88 f9bd 0705 89be 876e 5b3d
000001c0: 1bb5 693b 53db 723d ebc2 143e fd08 3f3a
000001d0: 408c cb3d 956f 733c a3cf 413e 94ae d23d
000001e0: c846 2b3c 7f6d eb3d 6036 34bd 7344 4abd
000001f0: 7631 3a3d 990c 3abe a6f1 003e b36d 20be
00000200: b92a e13d 9693 0b3c fa46 213d ce33 8f3d
00000210: 5e81 2b3e 410a 203d 526f aabc fa74 193d
00000220: b341 62bd 394e 27bd bfae af3d 57e0 0bbe
00000230: 0c6d 81bd c5e3 a3bd 62a2 2e3d a62f 043c
00000240: 3fa8 b4bc 5192 20b9 c935 68ba 8c4f 83bc
00000250: 89f4 683d 9d56 493c 4aa2 30be 08ba 02be
00000260: 1320 fc3d 0f1c b23d ac77 9cbd 6b9d 463e
00000270: e570 84bd 64a4 27bd 6d9d 0cbd e15b 17be
00000280: a2bf ba3d 8646 90bd 5b05 34bd 43f2 39be
00000290: c60c acbd 438a a8bd c29c 943d 6738 4d3e
000002a0: d8c5 eeba 1a31 d9bc e677 62bd d822 ebbd
000002b0: 02aa 18be 1698 763d b5f7 853c 32b2 ce3d
000002c0: 2bca 953c 6f26 143e 2d5d a53d af44 33be
000002d0: ad0d 2a3d 0e08 25bd 597a 9a3d ac5b 8a3d
000002e0: ba41 a4be 922b 86bc 8973 8f3d 6fd3 8a3d
000002f0: 7190 17bd 3f9f ce3d b51d c4bc 1357 74bd
00000300: 3b43 c03d 20a1 0e3d 0337 75be 9042 90ba
00000310: dfd2 3cbd 8f9e eebd 03ec 203e e969 093d
00000320: f919 a0bd 41ba 303d 93a2 7c3d b5d4 7b3d
00000330: 25b0 27bd 3245 20be 9b35 7f3d a368 87bd
00000340: 8812 213d ef95 33bc 0ed0 92bd a0ad 21be
00000350: 2c09 7dbd 6111 68bc 0d11 58bd 63f8 2ebe
00000360: 3de3 2cbe eb50 15bb 6e86 4b3e b3c1 45be
00000370: d8bc 27be 65e8 783e 2be3 ecbd 98b0 72be
00000380: 927f 8fbd 802a a5bb 957b 313d ae3f 21be
00000390: 9c51 c83d c958 c13d b099 8e3d 4376 263d
000003a0: 3234 88bc 5b78 0cbd b9a9 593d 17cd a63d
000003b0: a201 05be 18b9 bebd 7d26 77bd fba3 6d3c
000003c0: dd8f 1e3e 342b 513e 243e 13bd b842 acbd
000003d0: b317 fd3c 07b8 933d 39cc 143e 1a9f 4fbd
000003e0: a76e 35bd 2ff3 02be 222c 103e cf06 93bb
000003f0: 0e2c 543d 2f56 a53d 7e7f 2ebd b001 a03d

a2c_network.actor_mlp.2.bias f4 [64]
-0.100310974 -0.193479 -0.08848993 0.070467785 0.063981645 -0.156337 -0.17646767 0.09954654
-0.12490398 0.14967951 0.15204294 -0.2025687 -0.040901776 0.005596949 -0.02866631 -0.037799127
0.037889857 -0.1459142 0.14122261 0.02678558 -0.03859987 0.10694299 0.16093118 0.030003775
-0.14553471 -0.15693283 0.17004077 0.074979685 0.15248913 0.123494424 0.030621003 -0.05470591
-0.13019076 -0.08393896 -0.16874468 0.015774807 -0.0022587022 0.16391712 0.0149439005 -0.1401466
0.019870264 -0.018222012 0.107593305 0.06766709 -0.10109767 0.007239332 0.12356142 0.035969865
0.1118425 -0.18102363 -0.011511201 0.015698427 -0.16990711 0.044711713 -0.1189817 0.10032303
-0.14213338 -0.10438415 0.16786113 0.063883014 0.07794679 0.0089888275 -0.06936223 -0.14836925
00000000: d76f cdbd 5c1f 46be 353a b5bd 6a51 903d
00000010: cf08 833d ce16 20be f1b3 34be 0edf cb3d
00000020: a8cd ffbd 9645 193e 25b1 1b3e 2b6e 4fbe
00000030: 9f88 27bd 9c66 b73b 9cd5 eabc 42d3 1abd
00000040: 6532 1b3d 886a 15be a99c 103e 6f6d db3c
00000050: e61a 1ebd ed04 db3d 25cb 243e 7aca f53c
00000060: 0d07 15be 00b3 20be 2b1f 2e3e f38e 993d
00000070: 1c26 1c3e a5ea fc3d e6d8 fa3c 4e13 60bd
00000080: ba50 05be 31e8 abbd 68cb 2cbe 2b3a 813c
00000090: bc06 14bb e4d9 273e 43d7 743c 9782 0fbe
000000a0: f7c6 a23c 5446 95bc e159 dc3d 0b95 8a3d
000000b0: 4c0c cfbd eb37 ed3b c50d fd3d 2355 133d
000000c0: ae0d e53d 425e 39be 7a99 3cbc fd99 803c
000000d0: 21fc 2dbe a123 373d adac f3bd 2976 cd3d
000000e0: 6a8b 11be 5bc7 d5bd cae3 2b3e 19d5 823d
000000f0: 91a2 9f3d e045 133c c90d 8ebd 1cee 17be

a2c_network.actor_mlp.4.weight f4 [32, 64]
-0.018578636 0.00078973616 -0.098145746 -0.07536355 -0.0009841549 0.023069387 -0.11227215 -0.037381366
-0.058262113 -0.1021397 -0.034923688 0.05312994 0.07910501 -0.023191525 -0.007206741 -0.019151658
-0.17293078 0.012570411 -0.027803069 -0.09717887 -0.07113043 -0.0944173 0.07197187 -0.19914807
0.055397138 -0.15273699 -0.12272203 -0.09121114 0.07855505 -0.22449255 -0.07451144 -0.104173295
0.043817382 0.04781502 -0.18628618 -0.07052919 0.01397785 -0.21329421 -0.13832854 -0.108518906
-0.13502729 -0.014809053 0.1280581 0.18234576 -0.026896589 -0.07388903 -0.1027172 0.17485432
0.0154319815 -0.025275866 -0.11255249 -0.042982712 -0.20222008 -0.17782998 -0.01104791 -0.15381563
-0.089693785 -0.16964467 0.0112689575 0.0135697555 -0.06344889 -0.04684297 0.2765028 -0.0858006
-0.07728306 -0.24647287 -0.22939587 -0.12054782 0.113136224 -0.16595314 -0.22472611 0.1519274
-0.31098875 0.042680863 0.17309803 -0.07709305 0.00079603045 0.030408295 -0.13734561 -0.073537715
-0.012088452 -0.1899205 0.10900645 0.14840603 -0.20887667 0.040605128 0.07044888 0.09607827
-0.10440854 -0.22032046 0.08087018 0.15525843 0.16712652 0.10643997 -0.046422914 0.008943567
-0.13657321 -0.11132117 -0.1741206 0.1369764 0.07730395 0.0155967735 -0.19779794 0.093835466
-0.13896336 -0.0091613615 0.0659656 0.081183895 0.021965839 0.025127651 -0.06472627 -0.033166375
0.048539095 -0.2281396 -0.1612088 -0.050275344 -0.3047887 0.002387668 -0.08664837 0.12490763
-0.22778693 -0.24864979 0.091959074 -0.1268407 0.08127345 0.043919433 0.023189602 -0.1221668
0.17400543 -0.13083297 0.077832 0.06265227 -0.14943933 -0.10435356 -0.07008873 0.20458817
-0.061086975 0.13555655 0.048703898 0.047301676 -0.1432513 0.027178556 0.09042942 0.08587146
0.051696166 -0.043018248 0.18347171 0.06107905 0.048188046 0.10098208 0.08657268 0.089789495
-0.07786464 -0.0012150352 -0.02777501 0.09528096 0.13857019 0.07878966 -0.123581 0.16431187
0.033090055 0.106381424 -0.1336155 0.04700964 -0.066417575 -0.044259842 -0.22140485 -0.12084616
0.01756523 0.18437247 0.09930989 0.10241761 -0.16914232 0.09559471 0.06881602 0.027999222
0.077247426 -0.11809725 -0.06374926 -0.008670784 -0.12717329 -0.022880938 0.0729093 0.055676498
0.13945976 -0.012276446 -0.06566146 -0.09076108 0.10112297 -0.05978684 -0.024749152 0.037174497
-0.055828337 0.07639978 -0.14954886 -0.20659623 -0.19277781 -0.039307054 0.026828118 0.0751363
-0.1151937 0.1775714 -0.048121106 0.016753294 -0.015923476 0.017559227 0.1066769 0.09701962
-0.12750126 -0.0092704715 0.13199396 -0.14933491 -0.18359186 -0.13177636 0.15010874 0.01353334
0.12259175 0.028244581 -0.035667893 0.1343785 -0.061003298 0.07291884 -0.12401689 0.01596021
0.034300342 0.23384137 -0.25027195 -0.03430956 0.04651135 -0.1736025 -0.14778207 -0.17116944
-0.1782368 0.19948615 0.03254923 0.24447103 -0.18930882 -0.09677974 -0.00086867495 0.25299504
0.08426743 -0.13482325 0.016491426 -0.11099007 -0.02327671 0.017672857 -0.13067883 -0.10645216
-0.09346919 0.024887063 -0.10875704 0.094104536 0.22585434 -0.12845515 0.16413854 -0.036870874
00000000: 3932 98bc 4c06 4f3a a300 c9bd 3458 9abd
00000010: c2fe 80ba 03fc bc3c f1ee e5bd 341d 19bd
00000020: 41a4 6ebd 9e2e d1bd 240c 0fbd c89e 593d
00000030: cf01 a23d 27fc bdbc 8626 ecbb f0e3 9cbc
00000040: c414 31be 20f4 4d3c 43c3 e3bc b705 c7bd
00000050: d5ac 91bd db5d c1bd fd65 933d 79ed 4bbe
00000060: 1ce8 623d 1667 1cbe b055 fbbd e8cc babd
00000070: 78e1 a03d 60e1 65be 7499 98bd cf58 d5bd
00000080: db79 333d afd9 433d cec1 3ebe 9c71 90bd
00000090: 5a03 653c cc69 5abe ffa5 0dbe 293f debd
000000a0: 9844 0abe aca1 72bc aa21 033e d9b8 3a3e
000000b0: 3c56 dcbc 2253 97bd 655d d2bd 030d 333e
000000c0: 6cd6 7c3c 550f cfbc eb81 e6bd a40e 30bd
000000d0: c812 4fbe 1019 36be 4b02 35bc d881 1dbe
000000e0: 60b1 b7bd 55b7 2dbe 6fa1 383c ae53 5e3c
000000f0: 7ef1 81bd 6ade 3fbd c691 8d3e 3ab8 afbd
00000100: 9546 9ebd 6263 7cbe c0e6 6abe c7e1 f6bd
00000110: f7b3 e73d 9fef 29be 9a1e 66be db92 1b3e
00000120: eb39 9fbe 21d2 2e3d 9c40 313e f6e2 9dbd
00000130: b3ac 503a d11a f93c 54a4 0cbe f19a 96bd
00000140: a40e 46bc 857a 42be c63e df3d c0f7 173e
00000150: c4e3 55be 9051 263d 8147 903d afc4 c43d
00000160: 25d4 d5bd b09b 61be 449f a53d 11fc 1e3e
00000170: 3723 2b3e 33fd d93d f425 3ebd 0a88 123c
00000180: d9d9 0bbe 5bfc e3bd ac4c 32be 8b43 0c3e
00000190: 8951 9e3d 9c89 7f3c 8b8b 4abe cf2c c03d
000001a0: 694c 0ebe 8919 16bc f918 873d be43 a63d
000001b0: b4f1 b33c 81d8 cd3c 358f 84bd 77d9 07bd
000001c0: eed0 463d 6d9d 69be eb13 25be 85ed 4dbd
000001d0: 440d 9cbe 6c7a 1c3b b374 b1bd 92cf ff3d
000001e0: fa40 69be 0d9e 7ebe 0a55 bc3d 87e2 01be
000001f0: b272 a63d dde4 333d 1ff8 bd3c 9632 fabd
00000200: 7b2e 323e 14f9 05be 6266 9f3d d54f 803d
00000210: a006 19be 52b7 d5bd ae8a 8fbd 907f 513e
00000220: 5636 7abd 56cf 0a3e bd7d 473d 67bf 413d
00000230: 78b0 12be 90a5 de3c 0f33 b93d 60dd af3d
00000240: 5cbf 533d e733 30bd 02e0 3b3e 072e 7a3d
00000250: d460 453d b1cf ce3d 044d b13d 8ee3 b73d
00000260: 7f77 9fbd d141 9fba 6b88 e3bc aa22 c33d
00000270: 58e5 0d3e 795c a13d 0918 fdbd 5f41 283e
00000280: 7089 073d 81de d93d 80d2 08be 2e8d 403d
00000290: f005 88bd cf49 35bd f4b7 62be 317e f7bd
000002a0: f5e4 8f3c 23cc 3c3e fc62 cb3d 53c0 d13d
000002b0: a533 2dbe 29c7 c33d 6aef 8c3d a05e e53c
000002c0: e633 9e3d f9dc f1bd f98e 82bd e70f 0ebc
000002d0: b739 02be ce70 bbbc 7951 953d 0a0d 643d
000002e0: 8ace 0e3e 2623 49bc 8479 86bd f2e0 b9bd
000002f0: 8f19 cf3d 0ce3 74bd bcbe cabc 4944 183d
00000300: 41ac 64bd 7d77 9c3d 5623 19be f68d 53be
00000310: 8c67 45be 6f00 21bd a4c6 db3c 0fe1 993d
00000320: adea ebbd 47d5 353e a31a 45bd 343e 893c
00000330: f371 82bc 5ed8 8f3c 6b79 da3d 39b2 c63d
00000340: b18f 02be 2de3 17bc 6d29 073e 40eb 18be
00000350: 81ff 3bbe 62f0 06be 1bb6 193e f1ba 5d3c
00000360: 6211 fb3d 2e61 e73c 7f18 12bd 849a 093e
00000370: 98de 79bd 7956 953d 91fc fdbd fcbe 823c
00000380: 847e 0c3d 1d74 6f3e a523 80be 2e88 0cbd
00000390: af82 3e3d dbc4 31be 2f54 17be 0b47 2fbe
000003a0: b583 36be 1946 4c3e 5752 053d 9d56 7a3e
000003b0: 2cda 41be 7534 c6bd cab7 63ba 9188 813e
000003c0: 6794 ac3d 1b0f 0abe 0719 873c c34e e3bd
000003d0: cdae bebc abc6 903c acd0 05be 9703 dabd
000003e0: c66c bfbd f4df cb3c 03bc debd e1b9 c03d
000003f0: 5c46 673e bf89 03be ef13 283e ea05 17bd

a2c_network.actor_mlp.4.bias f4 [32]
-0.17094356 0.09962917 0.18018302 -0.07315786 -0.08789627 -0.093811326 0.0551318 0.077574044
0.09062548 -0.15822425 0.08581673 -0.1133025 -0.05043405 0.019272765 -0.09492484 -0.080671035
0.086196095 -0.09521189 -0.054016422 -0.057796698 -0.03974343 0.046700552 -0.10936157 0.003204437
-0.0037539373 0.030870434 -0.08297398 -0.065010816 -0.015202791 0.052125968 -0.04388267 0.1295084
00000000: d40b 2fbe 610a cc3d e681 383e cad3 95bd
00000010: f602 b4bd 2720 c0bd e2d1 613d 24df 9e3d
00000020: da99 b93d 8a05 22be afc0 af3d 240b e8bd
00000030: ef93 4ebd ebe1 9d3c f467 c2bd db36 a5bd
00000040: 9487 b03d 74fe c2bd 5340 5dbd 3bbc 6cbd
00000050: 02ca 22bd 1449 3f3d f5f8 dfbd 8801 523b
00000060: 9e04 76bb fee3 fc3c 43ee a9bd 6424 85bd
00000070: 2115 79bc 0a82 553d 51be 33bd da9d 043e

a2c_network.value.weight f4 [1, 32]
0.072213836 0.31473538 -0.03481186 -0.008370387 -0.12226621 0.07538622 0.0037156288 -0.00121585
-0.042119585 0.049290933 0.09835571 -0.009347453 0.05874702 0.20605463 -0.05656974 -0.03031353
0.16572835 0.22543503 -0.05733766 -0.05385211 0.11920039 0.070665866 -0.03168628 -0.1504149
-0.015402137 0.19302951 -0.07449031 -0.15423433 0.038845878 0.28258377 -0.14127332 -0.009065791
00000000: d9e4 933d ff24 a13e e296 0ebd f323 09bc
00000010: b566 fabd 1764 9a3d e881 733b 285d 9fba
00000020: 9685 2cbd 4ae5 493d b86e c93d 0f26 19bc
00000030: b7a0 703d fcff 523e acb5 67bd 1454 f8bc
00000040: b1b4 293e 71d8 663e e5da 6abd 0894 5cbd
00000050: 561f f43d 44b9 903d 79c9 01bd 5d06 1abe
00000060: 3f59 7cbc 87a9 453e 608e 98bd 9bef 1dbe
00000070: db1c 1f3d d2ae 903e f4a9 10be af88 14bc

a2c_network.mu.weight f4 [7, 32]
0.06922254 -0.10979632 -0.06639344 -0.1348786 0.107071094 -0.10467182 -0.045878574 -0.02806051
0.038693268 0.20519157 0.011022132 0.10727978 0.21638705 0.08132123 0.0041425936 -0.12040807
-0.11336501 -0.119984165 -0.27426338 -0.088025495 0.26074445 -0.16498218 -0.08246349 -0.06259384
-0.1950104 0.15812491 -0.1781307 -0.010703402 -0.17438707 -0.0104004145 -0.056224417 -0.087062754
0.27807912 -0.1050531 -0.23560593 -0.009708122 0.11883742 0.05681779 -0.14252767 -0.13319436
-0.17969142 0.16968195 -0.34970957 0.2588734 -0.088728406 -0.032225236 0.067476265 0.2271802
-0.092470475 -0.12246842 -0.054049294 0.17878918 -0.13659203 -0.0917931 0.28148407 -0.06464867
-0.01722962 -0.14715643 0.10664978 0.003723814 -0.103832625 0.01583028 0.10281261 -0.068358324
0.025598682 -0.14829299 -0.2570481 -0.08951532 0.05582369 -0.039986093 0.14325956 -0.21094611
0.07084565 -0.26455826 -0.05210985 0.36375836 -0.04162806 -0.019677395 0.04049327 -0.17807342
0.15152748 -0.07552577 0.004372019 -0.22919409 -0.009513991 -0.08043313 -0.11906226 0.13791339
0.18875617 -0.059492946 0.061220244 0.1412596 0.24985513 0.09275725 0.055924114 0.16576019
0.2648952 -0.0018121055 0.009247866 0.34736362 -0.12838973 0.11261743 0.19236012 0.10513034
-0.24459925 0.14037192 0.058374483 0.11302163 -0.017002853 0.07910321 0.026046054 -0.09168856
-0.1882793 0.107568905 0.089662336 -0.21981888 0.019645443 -0.176326 0.017907562 -0.120504335
0.22688453 -0.14654456 -0.029448198 0.08900294 0.2775687 0.037195984 0.2492458 -0.22992998
-0.14789836 0.026875712 0.036096968 0.05448662 0.17705934 -0.19963422 -0.08679734 0.23698798
-0.060871657 -0.18729705 0.18621908 -0.02628309 -0.29046935 -0.006963602 -0.14811519 -0.011661405
-0.059919626 -0.04508778 0.08328914 -0.099957496 -0.066667825 0.17423704 0.10884927 0.16213278
0.062436987 -0.120972075 -0.24889572 -0.17196916 -0.24852236 -0.028181713 0.016283551 0.32440513
0.15181953 -0.0032520746 0.09355201 0.075111784 0.0067183846 -0.1370127 0.22483653 0.13412121
-0.0316969 -0.1330568 -0.014382566 0.07839201 -0.0481991 -0.12067391 -0.20339605 -0.04243898
-0.09308861 0.12547414 -0.11798077 -0.020885885 0.06635302 -0.026158348 -0.032699827 -0.011296836
0.18115887 -0.04829821 -0.12962501 0.012635262 -0.053669766 0.025027914 -0.016657827 0.059401505
-0.122692406 -0.0057319934 -0.054165382 -0.23380177 -0.052754004 0.19161 -0.14477487 0.04511147
-0.06027102 -0.13879472 0.20233373 -0.11225046 0.20790446 -0.054780096 0.1727214 0.15389901
-0.14013544 -0.060533416 0.035856307 0.15199047 0.05109283 0.067288555 -0.07686807 -0.14447595
0.014065726 -0.21961743 -0.019564616 0.13997518 0.020836374 0.14824836 -0.109050944 -0.07704015
00000000: 8cc4 8d3d e5dc e0bd 49f9 87bd 9e1d 0abe
00000010: 1748 db3d 2e5e d6bd 2ceb 3bbd 28df e5bc
00000020: d57c 1e3d bd1d 523e 2c96 343c 80b5 db3d
00000030: 9194 5d3e bf8b a63d 98be 873b 8298 f6bd
00000040: ea2b e8bd 42ba f5bd 406c 8cbe b646 b4bd
00000050: 4c80 853e 17f1 28be 9ee2 a8bd 3331 80bd
00000060: ceb0 47be 7feb 213e e567 36be 525d 2fbc
00000070: 8692 32be 8066 2abc 934b 66bd f54d b2bd
00000080: 6360 8e3e 1426 d7bd ae42 71be d10e 1fbc
00000090: 0961 f33d c5b9 683d c6f2 11be 1a64 08be
000000a0: 0701 38be 1bc1 2d3e 220d b3be 0e8b 843e
000000b0: 3db7 b5bd 9cfe 03bd ff30 8a3d eda1 683e
000000c0: 2961 bdbd b9d0 fabd cb62 5dbd 8314 373e
000000d0: c8de 0bbe 05fe bbbd ae1e 903e 8666 84bd
000000e0: 2225 8dbc 2db0 16be 336b da3d 3b0b 743b
000000f0: 33a6 d4bd 81ae 813c 6b8f d23d 73ff 8bbd
00000100: 54b4 d13c 1eda 17be cf9b 83be cf53 b7bd
00000110: 62a7 643d 75c8 23bd a2b2 123e 4202 58be
00000120: 8617 913d 2e74 87be 2371 55bd 893e ba3e
00000130: 2f82 2abd 7d32 a1bc 45dc 253d e158 36be
00000140: 052a 1b3e 41ad 9abd 2743 8f3b dbb1 6abe
00000150: 92e0 1bbc 20ba a4bd ead6 f3bd 2b39 0d3e
00000160: 4c49 413e e0ae 73bd 14c2 7a3d 5ba6 103e
00000170: 06da 7f3e 83f7 bd3d af10 653d 0abd 293e
00000180: 58a0 873e 2c84 edba 5d84 173c a5d9 b13e
00000190: 9978 03be f8a3 e63d 0dfa 443e 934e d73d
000001a0: 3a78 7abe a8bd 0f3e 151a 6f3d e277 e73d
000001b0: 9149 8bbc dd00 a23d 895e d53c 36c7 bbbd
000001c0: 4acc 40be 164d dc3d e3a0 b73d 3318 61be
000001d0: 7bef a03c ce8e 34be e1b2 923c faca f6bd
000001e0: 6b54 683e c70f 16be 593d f1bc 2c47 b63d
000001f0: 7c1d 8e3e d15a 183d 4a3a 7f3e c472 6bbe
00000200: ab72 17be 742a dc3c 6ada 133d 5d2d 5f3d
00000210: 0b4f 353e ea6c 4cbe cec2 b1bd faac 723e
00000220: 8f54 79bd ccca 3fbe 37b0 3e3e a24f d7bc
00000230: 66b8 94be ed2e e4bb 82ab 17be 7a0f 3fbc
00000240: 486e 75bd f7ad 38bd 7f93 aa3d 84b6 ccbd
00000250: 2489 88bd 326b 323e 5eec de3d 2306 263e
00000260: edbd 7f3d 35c0 f7bd 85de 7ebe af18 30be
00000270: a57c 7ebe 56dd e6bc 1565 853c 6e18 a63e
00000280: 9476 1b3e c220 55bb 3298 bf3d 35d4 993d
00000290: e525 dc3b 0f4d 0cbe 8c3b 663e 1257 093e
000002a0: 9cd4 01bd 0b40 08be dba4 6bbc fd8b a03d
000002b0: 6b6c 45bd e223 f7bd 0e47 50be 7fd4 2dbd
000002c0: 3ea5 bebd 4b7c 003e e79f f1bd e018 abbc
000002d0: 18e4 873d 084a d6bc 41f0 05bd 5d16 39bc
000002e0: b681 393e 58d4 45bd 6bbc 04be 2104 4f3c
000002f0: d4d4 5bbd 5707 cd3c ff75 88bc fe4e 733d
00000300: 2846 fbbd 72d3 bbbb 85dc 5dbd bb69 6fbe
00000310: 9514 58bd 6935 443e dd3f 14be cec6 383d
00000320: bfde 76bd 3420 0ebe 9330 4f3e 92e3 e5bd
00000330: e8e4 543e 1861 60bd e1dd 303e b497 1d3e
00000340: aa7f 0fbe e3f1 77bd 10de 123d 64a3 1b3e
00000350: b746 513d 95ce 893d 026d 9dbd 81f1 13be
00000360: ee73 663c 64e3 60be f945 a0bc a755 0f3e
00000370: 0bb1 aa3c 6bce 173e 1a56 dfbd 3ac7 9dbd

a2c_network.mu.bias f4 [7]
0.0075018397 -0.28283986 -0.02405548 -0.14832442 0.04853752 0.08232482 0.03961955
00000000: fed1 f53b 63d0 90be ff0f c5bc 5be2 17be
00000010: 47cf 463d ea99 a83d 1c48 223d

exp_avg f4 [7]
0.013551175 0.0024477188 -0.005115797 0.0015794709 -0.00499401 0.0026562023 0.0041243588
00000000: bf05 5e3c e869 203b 6aa2 a7bb 4006 cf3a
00000010: cba4 a3bb ae13 2e3b a125 873b

exp_avg_sq f4 [7]
0.00050712586 0.00053123076 0.00062255573 0.0006732617 0.00057516946 0.0006182901 0.0005610766
00000000: a4f0 043a 4b42 0b3a 0233 233a d47d 303a
00000010: f8c6 163a bf14 223a 3715 133a

exp_avg f4 [128, 18]
-0.005299115 0.00039039995 4.463849e-05 -0.0052822675 0.00391588 0.0036800883 -0.0030751033 -0.0017973902
-0.00013507484 0.0019653016 -0.00155796 0.0041762977 0.00069079484 0.00088613125 0.0043406053 0.00080999004
-0.0003480268 -0.00031678076 0.0019126756 0.0020725976 -0.0021937764 0.0014898885 -0.0015885562 7.570285e-05
-0.0011435472 0.0001819395 0.0009114092 0.0008039348 0.0012327369 -0.0005066874 0.0024686595 0.0003004481
0.002429096 0.0035522522 0.0012718079 -0.0019207558 0.00060624245 3.0713876e-05 -0.00038174915 0.00016647144
-0.0007160247 -0.00071338395 -0.00027952768 7.747074e-05 -0.0002570831 0.0006612077 6.6664215e-05 -0.00045233278
-0.00074088457 -0.00013116603 0.0013030887 0.0011844841 0.002308685 0.0007535831 -0.0015455247 0.00034778408
-0.0013854525 -0.001448708 0.0007908392 -0.00030028296 -0.00089803175 -0.0010637358 0.00015742537 -6.8719426e-05
-0.00063597865 0.0010912848 0.0007491714 -0.00060093735 0.001289474 0.0017102225 0.0002505367 0.0003204226
0.0020565463 -0.00073020195 0.0013783438 0.0019553073 -0.0015916991 -0.00075444486 0.00039282636 0.00011644074
-0.0007698759 1.205801e-05 0.00014825445 -0.0011537784 -0.00028817868 -1.814896e-05 -0.0007196771 0.00042087608
0.0004089268 -0.0004910844 -2.1325039e-05 0.00086197973 0.00012362665 -0.0007199746 -0.00016663135 0.0016594469
-0.002107779 0.00037026027 -0.00024807858 0.001830844 0.00014625069 0.00043021765 -0.00066198246 0.0004458421
0.0022794916 0.0016281323 0.0020347475 -0.0006834282 0.0013293742 4.8216276e-05 0.00020272892 0.00083261076
-0.0016126294 -0.0004069202 -0.000997687 -0.00020348639 -0.00024128563 0.00014261014 -0.00016230094 -0.00068587274
0.00022841395 -0.0004128511 0.000607074 0.0016484762 0.002498914 0.0003534134 0.0008644229 0.00043883175
-0.00030116315 0.00045906223 -0.00036402416 0.00029644615 -0.0016122201 0.0001283164 -0.00058034685 0.0015788998
-5.750182e-05 -0.0003687645 -0.00021344986 -0.0004478443 0.0019879828 0.0017374075 0.0015484078 0.00044669711
-0.000143147 0.001006068 -0.0010494896 -0.00018048473 0.0011770915 0.0011446888 -0.0008737487 0.0013774352
0.00060763065 0.00015278958 0.0010826719 -0.00013232001 0.00020145193 0.00050209934 -9.698503e-05 -0.00020476703
-0.0021584728 0.0006719777 -0.0021976577 -0.00016719734 -0.0021562125 -0.002171331 0.0017023928 -0.00014270343
0.000140184 3.7884824e-05 0.000462925 -0.00056160736 0.00039455638 0.00065317284 -0.00027344105 0.0006505253
0.0006340558 0.00040685403 9.873194e-05 0.0020945708 -0.00047366446 0.0022788313 -0.0017121668 -0.0013985548
-7.800932e-05 0.0012359881 -0.0025916027 0.00029971355 0.0011293008 0.0008091793 0.0006402926 0.0019755093
-5.9839553e-05 -0.0012568363 0.004210841 0.003481007 0.0026412974 -0.0003427428 -0.0013568973 0.001564375
-0.0009452471 -0.0012764336 0.0014244331 0.0022625609 -0.0019854784 -0.00045912067 0.0010641434 0.0004339943
-0.0005285492 0.0019798775 0.0017736792 0.0010508472 0.0021476713 8.576421e-05 -0.0013544776 -0.0018382685
-0.0009181461 9.416211e-05 -0.002616864 -0.00044871517 0.0013112397 -0.000979298 0.000109908586 0.00048308203
0.00059766235 -0.0014991561 0.00095212756 3.6621666e-05 0.00079759164 0.00019289982 -0.00028935564 0.00061146973
-0.0014337905 0.0014349818 0.000327504 -3.8360078e-05 -0.0009482449 0.0004273006 -0.00037434182 -0.0008832611
0.00049005885 -1.5465577e-05 0.000406265 -0.00068911695 0.00037571983 -0.00047274842 0.00028046835 8.742284e-05
-0.0003784985 0.00018696766 0.00014039724 0.00021423401 0.0034983286 -0.000352329 0.0013021723 0.0033617811
00000000: 33a4 adbb 98ae cc39 373a 3b38 df16 adbb
00000010: c850 803b a32d 713b ac87 49bb 6896 ebba
00000020: e0a2 0db9 4acc 003b 7634 ccba 53d9 883b
00000030: 7516 353a 434b 683a a33b 8e3b 8355 543a
00000040: 5e77 b6b9 9815 a6b9 beb2 fa3a 6bd4 073b
00000050: 76c5 0fbb 5d48 c33a 1a37 d0ba a8c2 9e38
00000060: 14e3 95ba 03c7 3e39 a3eb 6e3a 27bf 523a
00000070: c993 a13a 37d3 04ba 3cc9 213b 7685 9d39
00000080: 7831 1f3b e7cc 683b cbb2 a63a dfc1 fbba
00000090: 3eec 1e3a c6d2 0038 8125 c8b9 d68e 2e39
000000a0: 9bb3 3bba 6302 3bba 928d 92b9 c977 a238
000000b0: 1cc9 86b9 e654 2d3a 14ce 8b38 1427 edb9
000000c0: ec37 42ba 9d89 09b9 67cc aa3a b140 9b3a
000000d0: 4f4d 173b 1b8c 453a 3493 caba ca56 b639
000000e0: 1298 b5ba 93e2 bdba 5250 4f3a 4c6f 9db9
000000f0: e469 6bba 0d6d 8bba 8d12 2539 761d 90b8
00000100: ceb7 26ba 7109 8f3a 0b64 443a 3988 1dba
00000110: 9103 a93a 8b29 e03a 775a 8339 65fe a739
00000120: 1fc7 063b 066b 3fba 8ba9 b43a 9d24 003b
00000130: 8fa0 d0ba f0c5 45ba 43f4 cd39 a531 f438
00000140: 7fd1 49ba c24c 4a37 c074 1b39 613a 97ba
00000150: b016 97b9 983e 98b7 b6a8 3cba 08a9 dc39
00000160: 3a65 d639 1ebc 00ba 2ce3 b2b7 7bf6 613a
00000170: c7a1 0139 adbc 3cba c3b9 2eb9 cc81 d93a
00000180: aa22 0abb 7e1f c239 8b10 82b9 eef8 ef3a
00000190: df5a 1939 d68e e139 e488 2dba eabf e939
000001a0: 8663 153b 0e67 d53a 6659 053b 1728 33ba
000001b0: 653e ae3a d53b 4a38 a193 5439 9043 5a3a
000001c0: dd5e d3ba e857 d5b9 d2c4 82ba f65e 55b9
000001d0: 9e01 7db9 9e89 1539 542f 2ab9 24cc 33ba
000001e0: 6782 6f39 f073 d8b9 0c24 1f3a af11 d83a
000001f0: d2c4 233b 584a b939 709a 623a 0013 e639
00000200: 6fe5 9db9 4aae f039 7fda beb9 546c 9b39
00000210: 2151 d3ba ac8c 0639 6b22 18ba 16f3 ce3a
00000220: 1c2e 71b8 bc56 c1b9 83d1 5fb9 a5cc eab9
00000230: d148 023b b9b9 e33a f2f3 ca3a ac32 ea39
00000240: bb19 16b9 0ade 833a 078f 89ba 8040 3db9
00000250: a348 9a3a 6209 963a 480c 65ba 0e8b b43a
00000260: 6749 1f3a 2436 2039 71e8 8d3a 62bf 0ab9
00000270: d73c 5339 519f 033a 7164 cbb8 bbb6 56b9
00000280: 2a75 0dbb a927 303a 9406 10bb b251 2fb9
00000290: 3e4f 0dbb e44c 0ebb d322 df3a a9a2 15b9
000002a0: 5bfe 1239 85e6 1e38 beb4 f239 d538 13ba
000002b0: 76dc ce39 b039 2b3a a35c 8fb9 0488 2a3a
000002c0: c436 263a 064f d539 4f0e cf38 1145 093b
000002d0: 2b56 f8b9 7258 153b c96a e0ba b64f b7ba
000002e0: ef98 a3b8 e100 a23a e1d7 29bb df22 9d39
000002f0: 0c05 943a 1b1f 543a 4fd9 273a 8c77 013b
00000300: 3bfc 7ab8 6ebc a4ba 18fb 893b 9b21 643b
00000310: 9e19 2d3b 29b2 b3b9 ebd9 b1ba b70b cd3a
00000320: 76ca 77ba 014e a7ba 0bb4 ba3a 7947 143b
00000330: cd1e 02bb 22b6 f0b9 ba7a 8b3a bb89 e339
00000340: 568e 0aba d5c0 013b cc7a e83a 95bc 893a
00000350: f2bf 0c3b 4fdc b338 ba88 b1ba 0ef2 f0ba
00000360: beaf 70ba e678 c538 b17f 2bbb 8841 ebb9
00000370: e7dd ab3a ca5b 80ba b97e e638 2c46 fd39
00000380: 71ac 1c3a 557f c4ba 3398 793a 379a 1938
00000390: 7815 513a 2745 4a39 a8b4 97b9 0a4b 203a
000003a0: 07ee bbba 0016 bc3a d8b4 ab39 d2e4 20b8
000003b0: a393 78ba 5107 e039 4f43 c4b9 a68a 67ba
000003c0: 4b77 003a 13bc 81b7 f7ff d439 dba5 34ba
000003d0: 43fc c439 38db f7b9 d30b 9339 c856 b738
000003e0: 3571 c6b9 c00c 4439 9937 1339 01a4 6039
000003f0: 3744 653b ccb8 b8b9 a7ad aa3a 5451 5c3b

exp_avg_sq f4 [128, 18]
0.00012214656 8.188858e-05 8.1803664e-05 8.3179155e-05 0.000116366275 0.00021245546 0.00013287149 8.9153014e-05
4.8314876e-05 7.348167e-05 7.0349335e-05 9.2086826e-05 8.1911385e-05 6.564189e-05 0.0001119129 9.626676e-05
0.00036723533 0.0003258739 0.00016795869 8.280124e-05 0.000116960146 0.00012072976 0.0001997956 0.00016685907
7.3484494e-05 9.968451e-05 5.3624568e-05 6.937457e-05 8.995522e-05 0.00010901907 8.072606e-05 6.624403e-05
0.0001214131 0.00018520065 0.00037918935 0.00033412655 2.6147476e-05 1.6893633e-05 2.391396e-05 1.8681178e-05
3.112004e-05 2.7192496e-05 1.5915895e-05 1.4417391e-05 1.2790061e-05 1.5071075e-05 1.1518912e-05 1.7046736e-05
1.3771115e-05 1.2122922e-05 1.5741467e-05 3.511475e-05 4.758685e-05 4.526484e-05 2.94773e-05 1.5066691e-05
2.603793e-05 2.2317357e-05 3.349136e-05 5.862037e-05 4.1526207e-05 1.9696754e-05 1.0879113e-05 1.9163144e-05
1.6435992e-05 2.4947869e-05 2.376123e-05 2.1570728e-05 3.417261e-05 3.4956047e-05 6.1155595e-05 6.7076515e-05
2.2945904e-05 1.1203829e-05 1.9504738e-05 1.9647881e-05 3.1693817e-05 4.0253457e-05 2.2058903e-05 2.490881e-05
8.000451e-06 1.7045793e-05 1.8879055e-05 2.6565363e-05 2.2174736e-05 1.9148401e-05 1.6137099e-05 2.1188544e-05
0.00011187586 0.00011076277 0.00013745378 4.5989058e-05 9.887949e-05 9.9244266e-05 0.00014016157 0.00018297984
0.0001000299 8.518723e-05 3.393333e-05 7.4697775e-05 6.669505e-05 9.657679e-05 6.959181e-05 5.459518e-05
8.8634995e-05 0.000121432706 0.0003115723 0.00029331702 3.5623292e-05 1.7254051e-05 2.8455519e-05 2.6841413e-05
3.9306702e-05 4.819098e-05 4.050954e-05 2.1517004e-05 1.27653e-05 2.0667016e-05 1.769769e-05 2.823479e-05
2.419633e-05 2.0649348e-05 3.2719163e-05 4.03551e-05 6.271701e-05 5.278405e-05 8.8645196e-05 4.4101394e-05
7.203684e-05 6.086608e-05 9.9732126e-05 9.369239e-05 5.924581e-05 4.0935924e-05 2.8786564e-05 4.5643526e-05
3.204427e-05 4.8597016e-05 4.243459e-05 3.81006e-05 6.633416e-05 0.00010476542 0.00012901325 0.00012736837
2.883448e-05 1.6289163e-05 2.293186e-05 2.4262825e-05 2.7306261e-05 3.100057e-05 2.2858108e-05 2.725882e-05
1.1280358e-05 2.1218686e-05 2.4162082e-05 2.5127827e-05 2.4177565e-05 2.4972815e-05 3.3337525e-05 1.6242306e-05
6.7877634e-05 6.21614e-05 2.4454688e-05 1.430058e-05 1.6948883e-05 1.8300105e-05 2.3243301e-05 2.2386663e-05
1.8233743e-05 1.5125534e-05 1.3572054e-05 1.3487666e-05 1.3430692e-05 2.0764868e-05 1.5891148e-05 1.4078431e-05
1.8513047e-05 1.7842318e-05 5.5244527e-05 3.956245e-05 0.00020985978 0.000101685735 0.00015212396 0.00015970762
0.00025068107 0.00029412244 0.000119110795 0.00016499909 6.6622626e-05 0.000113184615 0.00013097622 0.00015535495
0.000121666824 8.964056e-05 0.00014068277 0.00021857364 0.00067786424 0.00070241187 0.000118234006 7.1858e-05
6.826607e-05 8.7331726e-05 0.00010899145 0.000120427336 7.728684e-05 9.572826e-05 3.7170335e-05 6.1179446e-05
9.335572e-05 9.378436e-05 7.6314944e-05 6.441615e-05 0.00011245227 6.211445e-05 0.00035251677 0.00028979324
2.714126e-05 1.536438e-05 2.2247827e-05 2.2799053e-05 2.2890486e-05 3.3418182e-05 2.4833013e-05 2.3793944e-05
1.3358797e-05 1.811975e-05 1.9098718e-05 2.65847e-05 1.9800642e-05 1.8162014e-05 2.2255866e-05 1.6161652e-05
9.831811e-05 6.957713e-05 1.8896853e-05 1.3654075e-05 1.3283965e-05 1.3291174e-05 1.6177924e-05 2.3038387e-05
1.4882547e-05 1.0907149e-05 9.099461e-06 1.05453955e-05 9.690346e-06 1.2940964e-05 1.3307181e-05 1.13270025e-05
1.6305135e-05 1.4551644e-05 3.8366677e-05 4.0075705e-05 3.0618972e-05 1.0700975e-05 2.3472605e-05 2.4549616e-05
00000000: 7814 0039 99bb ab38 028e ab38 7870 ae38
00000010: ab09 f438 94c6 5e39 6b53 0b39 a9f7 ba38
00000020: b4a5 4a38 2c1a 9a38 8388 9338 bd1e c138
00000030: d7c7 ab38 39a9 8938 c8b2 ea38 d3e2 c938
00000040: 7e89 c039 0eda aa39 111e 3039 94a5 ad38
00000050: 8048 f538 4c30 fd38 3980 5139 e4f6 2e39
00000060: b01b 9a38 b70d d138 f1ea 6038 307d 9138
00000070: 57a6 bc38 2ba1 e438 794b a938 7eec 8a38
00000080: 299f fe38 6c32 4239 efcd c639 b52d af39
00000090: 4757 db37 cdb6 8d37 d79a c837 86b5 9c37
000000a0: e386 0238 711b e437 2083 8537 39e2 7137
000000b0: e594 5637 c6d9 7c37 5a41 4137 96ff 8e37
000000c0: 7d0a 6737 8e63 4b37 8b0c 8437 2d48 1338
000000d0: fe97 4738 c0da 3d38 0546 f737 f2c6 7c37
000000e0: 076c da37 2936 bb37 1379 0c38 25df 7538
000000f0: 6d2c 2e38 753a a537 6f85 3637 8ac0 a037
00000100: 06e0 8937 2447 d137 da52 c737 c9f2 b437
00000110: 9054 0f38 c59d 1238 a940 8038 6eab 8c38
00000120: f47b c037 14f8 3b37 1b9e a337 81d1 a437
00000130: faee 0438 d2d5 2838 220b b937 43f3 d037
00000140: ad39 0637 90fd 8e37 765e 9e37 afd8 de37
00000150: e203 ba37 e1a0 a037 285e 8737 0dbe b137
00000160: e59e ea38 4f49 e838 7821 1039 60e4 4038
00000170: 865d cf38 5c21 d038 56f8 1239 47de 3f39
00000180: 25c7 d138 8ca6 b238 a353 0e38 10a7 9c38
00000190: a2de 8b38 4589 ca38 d2f1 9138 21fd 6438
000001a0: 8de1 b938 b0a9 fe38 875a a339 58c8 9939
000001b0: 386a 1538 cbbc 9037 c3b3 ee37 7f29 e137
000001c0: 40dd 2438 ac20 4a38 cae8 2938 6a7f b437
000001d0: 8c2a 5637 145e ad37 8075 9437 c0d9 ec37
000001e0: 39f9 ca37 2338 ad37 ef3b 0938 f542 2938
000001f0: f086 8338 7164 5d38 07e7 b938 83f9 3838
00000200: 7c12 9738 754a 7f38 4727 d138 b87c c438
00000210: b47e 7838 9db2 2b38 ad7a f137 5d71 3f38
00000220: 4667 0638 a6d4 4b38 cbfb 3138 35ce 1f38
00000230: e21c 8b38 82b5 db38 bb47 0739 308e 0539
00000240: 93e1 f137 b6a4 8837 cb5d c037 0588 cb37
00000250: c00f e537 9c06 0238 6abf bf37 dfa9 e437
00000260: c540 3d37 c8fe b137 adaf ca37 99c9 d237
00000270: edd0 ca37 b67c d137 e5d3 0b38 1640 8837
00000280: 8759 8e38 a65c 8238 0b24 cd37 86ec 6f37
00000290: 732d 8e37 2d83 9937 9cfa c237 feca bb37
000002a0: aaf4 9837 adc3 7d37 87b3 6337 1649 6237
000002b0: 6254 6137 3730 ae37 fb4d 8537 6732 6c37
000002c0: 774c 9b37 16ac 9537 5cb6 6738 dbef 2538
000002d0: ce0d 5c39 1d40 d538 7783 1f39 3077 2739
000002e0: d86d 8339 7234 9a39 1fcb f938 9b03 2d39
000002f0: c0b7 8b38 875d ed38 a956 0939 c7e6 2239
00000300: 6127 ff38 69fd bb38 3e84 1339 ea30 6539
00000310: b3b2 313a 1022 383a 66f4 f738 78b2 9638
00000320: 112a 8f38 dd25 b738 5792 e438 ef8d fc38
00000330: 0e15 a238 b8c1 c838 58e7 1b38 774d 8038
00000340: f8c7 c338 18ae c438 460b a038 2817 8738
00000350: 5ad4 eb38 7143 8238 00d2 b839 64ef 9739
00000360: 69ad e337 c1e2 8037 d8a0 ba37 9840 bf37
00000370: f204 c037 802a 0c38 7d50 d037 1b99 c737
00000380: 991f 6037 deff 9737 2f36 a037 3502 df37
00000390: 8e19 a637 a15a 9837 1cb2 ba37 e292 8737
000003a0: 2230 ce38 f0e9 9138 af84 9e37 ce13 6537
000003b0: 32de 5e37 28fd 5e37 d4b5 8737 8f42 c137
000003c0: 0db0 7937 d9fd 3637 e3a9 1837 21ec 3037
000003d0: b893 2237 041d 5937 e841 5f37 1b09 3e37
000003e0: 03c7 8837 d622 7437 e8eb 2038 f616 2838
000003f0: df6c 0038 5688 3337 09e7 c437 e6ef cd37

exp_avg f4 [128]
0.00011970377 -0.0027178964 0.00016895207 -0.00013725365 0.0018326363 -0.00083091384 0.00040881606 9.371659e-05
-0.0017824403 -0.00041680355 -0.0029649716 -0.0024166098 -0.00068023615 -0.0002654795 0.0009106189 5.3868072e-05
-0.0009956338 -0.000349888 -0.00041811744 -0.0003889785 0.0022320033 -1.3304077e-06 -0.0010616032 -0.001449499
0.0006516393 -0.0011612113 0.001252846 0.00021913784 -0.001400507 -0.00091288605 -0.0014837836 -0.0014289147
-0.000628265 -0.0013527526 -0.0020480223 -0.002502864 0.00020035169 -0.0029020805 -9.443062e-06 -0.001502844
-0.00030376695 -0.0010860484 -0.003252344 0.00071398506 -0.0019040554 -0.0007182945 0.0004747866 -0.0007803593
-0.0012640042 0.0008656531 -0.001348603 -0.0018805643 0.0011877278 -0.0011967279 -0.0014894562 -0.0016216803
-0.0031716248 0.00014146582 -7.4710144e-05 0.00085910654 -0.002116903 -0.0030501576 0.0003678226 -0.0007174684
0.00027996523 -0.0016393459 -0.0025749723 -0.0012061938 -0.0009539359 -0.0021439022 0.00028811395 -0.0025864642
-0.0012803203 -0.00027533766 0.0009150948 -0.00074851944 -0.00083836773 -0.0013277917 -0.00085949746 0.0005508799
-6.116438e-05 -0.00029680002 -3.3327997e-05 -0.00058438815 0.000524417 0.00022104646 -0.0008602729 -0.0012296267
-0.0004260331 -0.001675762 -0.0003047333 -0.00078750623 -0.002198192 0.0016647289 -0.0011307201 -0.0008070269
-0.0015129946 -0.00012864024 -0.0009818483 -0.002406778 1.8565303e-05 0.0009815353 -0.0019565357 -6.18742e-06
-0.00063376076 -0.0009050915 0.00035438768 -4.09724e-05 -0.0028436645 -0.0012773157 -0.0008155344 -0.0005363912
0.00023302734 0.0005780058 -0.0012799471 -0.00017058245 0.00030598356 0.00040971488 -0.00053372514 -0.00034037107
-0.00097303314 -0.00062529155 0.00035895174 -0.0012889025 -0.0002886464 -0.00026548753 2.094123e-05 -0.00026943855
00000000: 7909 fb38 bc1e 32bb ba28 3139 bfeb 0fb9
00000010: 1235 f03a afd1 59ba 5d56 d639 b689 c438
00000020: c6a0 e9ba 6d86 dab9 f84f 42bb fc5f 1ebb
00000030: e051 32ba 0e30 8bb9 9ab6 6e3a 67f0 6138
00000040: ed7f 82ba 2c71 b7b9 c636 dbb9 cfef cbb9
00000050: cd46 123b 7690 b2b5 7e25 8bba 1efd bdba
00000060: c6d2 2a3a c933 98ba 8936 a43a 5ec8 6539
00000070: 3891 b7ba bf4e 6fba 847b c2ba 6c4a bbba
00000080: 27b2 24ba d84e b1ba 1d38 06bb 1707 24bb
00000090: 7f15 5239 d530 3ebb a46d 1eb7 14fb c4ba
000000a0: e942 9fb9 bd59 8eba 4725 55bb ba2a 3b3a
000000b0: 7f91 f9ba ee4b 3cba c7ec f839 0791 4cba
000000c0: f1ac a5ba ffec 623a 9cc3 b0ba 447d f6ba
000000d0: 88ad 9b3a 86db 9cba db39 c3ba 908e d4ba
000000e0: 09db 4fbb 7156 1439 b4ad 9cb8 aa35 613a
000000f0: bdbb 0abb 27e5 47bb 50d8 c039 7d14 3cba
00000100: 4cc8 9239 52df d6ba dec0 28bb 2619 9eba
00000110: 8e11 7aba b680 0cbb 000e 9739 ab81 29bb
00000120: 6cd0 a7ba 325b 90b9 f9e2 6f3a 4a38 44ba
00000130: e8c5 5bba 4c09 aeba e64f 61ba ed68 103a
00000140: 6045 80b8 d39b 9bb9 aac9 0bb8 a031 19ba
00000150: 0779 093a b5c8 6739 f083 61ba 6d2b a1ba
00000160: 325d dfb9 3ea5 dbba 9cc4 9fb9 a670 4eba
00000170: 8b0f 10bb 0833 da3a ac34 94ba a98e 53ba
00000180: ad4f c6ba 9ae3 06b9 5db1 80ba 09bb 1dbb
00000190: afbc 9b37 dca6 803a 3939 00bb 889d cfb6
000001a0: f722 26ba aa43 6dba 1ccd b939 c8d9 2bb8
000001b0: c65c 3abb 9a6b a7ba 96c9 55ba 9b9c 0cba
000001c0: cd58 7439 5085 173a e6c3 a7ba 61de 32b9
000001d0: 6b6c a039 00cf d639 b0e9 0bba d573 b2b9
000001e0: 2613 7fba 9bea 23ba b031 bc39 64f0 a8ba
000001f0: 7755 97b9 2231 8bb9 f3aa af37 6e43 8db9
