runs/BallBalance_19-15-34-02/nn/BallBalance.pth (torch, 172255 bytes, 36 tensors)

value_mean_std.running_mean f8 [1]
0	0x3fca99d2505d46c9	0.20781926082650262

value_mean_std.running_var f8 [1]
0	0x3f87b3042d9b4ae7	0.011571915284922919

value_mean_std.count f8 []
0	0x40e8402000000000	49665.0

running_mean_std.running_mean f8 [18]
0	0xbfd19975d2da918f	-0.27499147025289344
1	0x3fafda790f0fe2d4	0.062213690842275376
2	0x3f9d9959a967d21f	0.028905297245687685
3	0xbfc666fe2175c21d	-0.1750180877093194
4	0x3fc8bc2b74b125c5	0.1932424850258895
5	0x3f6b57a7715dd75a	0.0033376951568539317
6	0xbfb405e9d4adceaa	-0.07821523134571842
7	0xbfe55f9a64e56490	-0.6679203005434307
8	0x3fccf9c977a1062a	0.226372893726919
9	0x3fc3a740781fc04d	0.15354162087851578
10	0xbfd04b9e5df02fa7	-0.2546153943410396
11	0x3fda9a842a423420	0.4156809246713369
12	0xbfa8c4b988619029	-0.048375890634617065
13	0xbfb295c05cda1822	-0.07259752528088417
14	0x3fbde9b67848a833	0.11684742390267004
15	0x3fb9782bc79587ab	0.09948991415652013
16	0x3f8de3ee8a6a9d49	0.014594901656279762
17	0x3fb7b84b78e7e097	0.09265586568642657

running_mean_std.running_var f8 [18]
0	0x3fc9dab074e7d850	0.2019863673046438
1	0x3f8bf23c8f02c8e6	0.013645623316140786
2	0x3fbf6dde5198afc0	0.12277020923710236
3	0x3fc2ede36bdc4e76	0.14788477675084594
4	0x3fb8c79c7c7708f3	0.09679582632728394
5	0x3f8ad4c6be397c8b	0.013101151161377686
6	0x3f7bed6680045f1b	0.006818199530492365
7	0x3ffe3a3a37affd7b	1.8892156768123118
8	0x3fcf26c86f24de53	0.24337106158212637
9	0x3ffdf438638b06c7	1.8721240890885598
10	0x4003be523310bc01	2.467930220554536
11	0x3fe1c29646edbe10	0.5550032983136948
12	0x3fedf0b42fed5162	0.9356327949595136
13	0x3ff538372cfd5a99	1.32622449468696
14	0x3f7ce355cdfcee4e	0.007052741217019666
15	0x3f7c0cd1280591f3	0.006848160759862487
16	0x3f96133109496994	0.021557584945506372
17	0x3f8f0cbf41b5cfc1	0.015161031906906321

running_mean_std.count f8 []
0	0x40d8404000000000	24833.0

a2c_network.sigma f4 [7]
0	0xbd7db6c6	-0.061941884
1	0xbd9c203e	-0.07623337
2	0xbdc23e8d	-0.09484587
3	0xbe5ba713	-0.21450453
4	0xbd8814f8	-0.066446245
5	0xbdfbaea8	-0.122891724
6	0xbdc99c17	-0.09844225

a2c_network.actor_mlp.0.weight f4 [128, 18]
0	0xbe335f34	-0.17516786
1	0x3e2c5cf4	0.16832334
2	0xbca0861e	-0.019595202
3	0x3d3a4c7d	0.0454831
4	0xbe0bfe69	-0.13671269
5	0x3e496ef3	0.1967123
6	0xbe4a0aee	-0.19730732
7	0xbe37233d	-0.17884536
8	0xbdee82b2	-0.11646022
9	0xbe0c2d91	-0.13689257
10	0x3e08a268	0.13343203
11	0xbe8966ab	-0.26836142
12	0x3e305c61	0.1722274
13	0xbe1c06bb	-0.15236942
14	0x3eb6e751	0.35723355
15	0x3dc9f50e	0.098611936
16	0xbc07fdec	-0.008300286
17	0x3cd30b58	0.025762245
18	0x3cbd7740	0.023128152
19	0x3e74affe	0.2389526
20	0x3e13eb90	0.14445329
21	0xbd857551	-0.06516517
22	0x3e53ea0c	0.2069475
23	0xbdb52188	-0.08844286
24	0xbd036b3b	-0.032084685
25	0x3e8ab8a8	0.27094007
26	0x3e30b797	0.17257534
27	0xbdccf116	-0.10006921
28	0x3dd35867	0.10319596
29	0x3da105f0	0.078624606
30	0x3e1664a2	0.14686826
31	0xbe07da32	-0.13266829
32	0xbea90801	-0.3301392
33	0xbe1fd602	-0.15608981
34	0xbe30c4d5	-0.17262585
35	0x3e15ccd3	0.14628915
36	0x3d15af0e	0.0365439
37	0x3e4a3a98	0.19748914
38	0x3e033a1e	0.12815139
39	0x3d13512b	0.03596608
40	0x3e9efcb2	0.31052166
41	0xbe10839d	-0.14112706
42	0x3d019467	0.031635668
43	0xbe4c5902	-0.19955829
44	0x3cd2b134	0.025719263
45	0xbb324010	-0.0027198829
46	0x3ca895a2	0.020579163
47	0x3c84bd07	0.016203417
48	0x3e6a9165	0.22907026
49	0xbd7492fb	-0.059710484
50	0xbdd7606b	-0.10516437
51	0xbe0314d9	-0.12800921
52	0x3e45a5f8	0.19301593
53	0xbd4dd8f0	-0.050255716
54	0x3e68236d	0.22669764
55	0xbd8b47e9	-0.06800825
56	0xbe44fc3d	-0.19236846
57	0xbe6f5f38	-0.23376167
58	0xbe037692	-0.128382
59	0x3e1c3e51	0.15258147
60	0x3d52d0ba	0.05146859
61	0x3e8ae20d	0.27125588
62	0xbd93bb10	-0.07213414
63	0xbd2b72cf	-0.041857537
64	0x3e0bb021	0.13641407
65	0xbe02cc3a	-0.12773219
66	0x3e0630ff	0.13104628
67	0xbcdab016	-0.026695292
68	0x3eb1e8e2	0.34747988
69	0xbe5b3ac1	-0.21409132
70	0xbdbbe80d	-0.091751195
71	0x3d0856de	0.033285968
72	0x3e015a6c	0.1263215
73	0xbe2223e8	-0.1583401
74	0x3e825e73	0.25462684
75	0x3e5f5608	0.21810162
76	0xbe723b3a	-0.23655406
77	0xbdeeaa42	-0.11653568
78	0x3e386112	0.1800578
79	0xbb4dc18e	-0.0031395885
80	0xbc36cf33	-0.011157799
81	0xbe4d761d	-0.20064588
82	0xbe36d2e6	-0.17853889
83	0x3d352a91	0.044230048
84	0xbd902411	-0.07038129
85	0xbe016eb1	-0.12639882
86	0x3dc58e10	0.09646237
87	0xbeb92a75	-0.36165205
88	0xbe29982c	-0.16561955
89	0xbdecd167	-0.11563378
90	0xbe22bf09	-0.15893187
91	0xbd76927f	-0.060198303
92	0x3e540442	0.20704749
93	0x3e7efde0	0.24901533
94	0x3d29df73	0.041472863
95	0xbe68e937	-0.22745214
96	0xbe14af8c	-0.14520091
97	0xbd011331	-0.031512443
98	0x3d8220a6	0.063538834
99	0xbe8083f2	-0.25100666
100	0xbd390a86	-0.04517605
101	0xbe1bd2a2	-0.15217069
102	0x3d1f713d	0.03892635
103	0xbda86ae1	-0.082235105
104	0x3e779454	0.24177676
105	0xbea006e9	-0.31255272
106	0xbda4267e	-0.08015154
107	0xbe0fc016	-0.14038119
108	0xbdda4d29	-0.106592484
109	0xbdfc6551	-0.12324012
110	0x3e6999bf	0.22812556
111	0x3d830c71	0.063988574
112	0x3e68dc28	0.22740233
113	0x3dd4eb7c	0.103964776
114	0xbe6dc87b	-0.23221008
115	0x3e7efd0d	0.24901219
116	0xbc929bde	-0.017896589
117	0xbd862c7f	-0.06551456
118	0xbe59c5af	-0.21266817
119	0xbe5df1f4	-0.21674329
120	0x3d696a79	0.056986306
121	0xbcca2c6f	-0.02467939
122	0x3e96a42a	0.29422122
123	0xbea434a5	-0.32071415
124	0x3e17a2b9	0.14808168
125	0xbe4d845c	-0.20070022
126	0xbdd6a2f9	-0.10480303
127	0x3d9ad938	0.075609624
128	0x3de9fcd8	0.11425179
129	0x3e8f749c	0.28018653
130	0x3e941083	0.28918847
131	0xbe1f1527	-0.15535413
132	0x3c973cbb	0.018461576
133	0xbe56a1ab	-0.20960109
134	0xbd8d84e6	-0.06910114
135	0xbdf44690	-0.11927521
136	0x3ea14fb6	0.31506127
137	0xbdab3730	-0.083601356
138	0x3e00d186	0.12579927
139	0x3dae5dd2	0.085139886
140	0x3e801aed	0.25020543
141	0xbe14ba58	-0.1452421
142	0x3e42e485	0.19032486
143	0xbc15bf35	-0.009139826
144	0x3d558e4d	0.05213766
145	0xbe3bbdbd	-0.18334098
146	0x3e0b5e41	0.13610174
147	0xbd161ebd	-0.036650408
148	0xbe681284	-0.22663313
149	0x3e39d7b1	0.18148686
150	0x3ddbea52	0.107380524
151	0xbe1b13a7	-0.15144216
152	0xbcfb199c	-0.03065186
153	0x3d192912	0.037392683
154	0x3e613481	0.21992685
155	0xbd9fbdcc	-0.07799873
156	0xbdf545bf	-0.11976194
157	0xbdc8ec28	-0.09810668
158	0xbecdc74a	-0.40191108
159	0x3e5d521e	0.21613356
160	0x3da64da6	0.08120279
161	0xbe4ef10b	-0.20209138
162	0x3d10ddb3	0.03536768
163	0x3e348255	0.17627843
164	0x39ce9290	0.0003940058
165	0xbd5d69d3	-0.054056
166	0x3e3bd83f	0.1834421
167	0x3dd4992b	0.10380777
168	0x3e362108	0.17786038
169	0xbd0b37c2	-0.03398872
170	0xbe1372f1	-0.14399315
171	0x3d604504	0.05475332
172	0xbdd1fd01	-0.10253335
173	0xbde5a4a7	-0.112130456
174	0x3df44370	0.11926925
175	0x3e6f8c0a	0.23393264
176	0xbe25058a	-0.16115394
177	0x3d04fb53	0.032466244
178	0xbdc59228	-0.09647018
179	0xbd3bfef6	-0.045897447
180	0xbd4744df	-0.048649665
181	0x3e1bf040	0.15228367
182	0xbe282af4	-0.16422635
183	0xbdfa2f4d	-0.12216053
184	0x3ec8341a	0.3910225
185	0x3da9b05a	0.082855895
186	0x3cdbfa50	0.026852757
187	0xbe53e556	-0.20692953
188	0xbe800796	-0.25005788
189	0xbe9047a0	-0.28179646
190	0xbd9227db	-0.07136508
191	0x3dea4026	0.114380166
192	0x3ddb280a	0.10700996
193	0x3d6351e9	0.055498037
194	0xbe8d5615	-0.27604738
195	0xbe382d48	-0.17986023
196	0xbd898684	-0.0671511
197	0x3e30de8c	0.17272395
198	0x3d09cc03	0.033641826
199	0x3d9ae96b	0.07564052
200	0x3e0f14c0	0.13972759
201	0xbd8852fe	-0.066564545
202	0xbe23f3d3	-0.1601098
203	0x3e5846ee	0.21120808
204	0xbdde9e16	-0.10869996
205	0x3d36215f	0.04446542
206	0xbdd5c324	-0.10437611
207	0x3e6b3ad3	0.22971658
208	0x3e80a78c	0.25127828
209	0x3d24e2c1	0.040255312
210	0xbe0af946	-0.13571653
211	0xbe5136fb	-0.2043113
212	0xbf0d4b4b	-0.5519301
213	0x3ea828fc	0.3284377
214	0x3da7665d	0.08173821
215	0x3e8c62b8	0.27419066
216	0x3e01f672	0.12691668
217	0x3e09ec67	0.13469087
218	0xbcd3c94c	-0.025852822
219	0xbe7b611e	-0.24548766
220	0xbeb83ff7	-0.359863
221	0xbe6b0389	-0.22950567
222	0x3dc2211d	0.09478972
223	0xbde185e1	-0.110118635
224	0xbc6687be	-0.014070449
225	0xbda8861f	-0.082287066
226	0xbe114e2b	-0.14189975
227	0xbe20adb7	-0.15691267
228	0xbe1430bd	-0.14471717
229	0x3e09038e	0.13380262
230	0xbde477c6	-0.111556575
231	0x3e6a5ac7	0.22886191
232	0xbc19b55a	-0.0093816165
233	0xbe4758a8	-0.19467413
234	0xbe4082d4	-0.18799907
235	0xbd7c4aae	-0.061594658
236	0xbd778051	-0.060425106
237	0xbe94e0c4	-0.29077733
238	0x3e09f87d	0.13473697
239	0xbe33fc25	-0.17576654
240	0x3da48ad3	0.08034291
241	0x3d9b9ccc	0.07598266
242	0x3e4a253a	0.19740763
243	0xbe60f62f	-0.21968912
244	0x3d9c1d89	0.07622821
245	0xbdd547ab	-0.1041406
246	0x3dd44fc9	0.1036678
247	0x3e3f956c	0.18709344
248	0xbddc10a4	-0.107453614
249	0xba994c2a	-0.0011695672
250	0xbd7aa7b8	-0.061195105
251	0xbe6ed885	-0.23324783
252	0x3dd5e8c8	0.1044479
253	0xbe8e20be	-0.27759355
254	0x3e251669	0.1612183
255	0x3e55751d	0.20845456

a2c_network.actor_mlp.0.bias f4 [128]
0	0xbe125948	-0.1429187
1	0xbd53e40f	-0.051731165
2	0xbd263764	-0.04058017
3	0xbe175811	-0.14779688
4	0x3c32c4ac	0.010911148
5	0xbdeb8872	-0.11500634
6	0xbda2601c	-0.07928488
7	0xbe0d788f	-0.1381552
8	0x3c0b68eb	0.008508901
9	0x3d713253	0.058885884
10	0xbd8a5c77	-0.067559175
11	0xbc8eb386	-0.017419588
12	0xbda9e4f3	-0.08295622
13	0x3dcff6e3	0.10154512
14	0x3c1bec6d	0.0095168175
15	0x3cc2ead9	0.023793625
16	0xbd6232de	-0.055224292
17	0xbcb39a86	-0.021924268
18	0xbd78f82d	-0.060783554
19	0x3c2bb378	0.0104798
20	0x3c08b939	0.008344942
21	0xbd132564	-0.03592433
22	0x3c5d909a	0.013523245
23	0xbcbf5e84	-0.023360498
24	0xbde09d40	-0.10967493
25	0xbd9f8527	-0.07789069
26	0x3d93be80	0.07214069
27	0xbe1402fc	-0.14454263
28	0xbd47c264	-0.04876937
29	0x3cc2fa77	0.023801072
30	0xbcf910bd	-0.03040349
31	0x3c22025d	0.009888259
32	0xbe2298d4	-0.15878612
33	0xbc07f35b	-0.008297767
34	0xbca44c5a	-0.020055939
35	0xbd8ba337	-0.0681824
36	0x3c857aad	0.016293848
37	0x3d2803b7	0.041019168
38	0xbdaee189	-0.08539111
39	0xbd83a887	-0.064286284
40	0x3d1ded6c	0.0385565
41	0x3be6dc40	0.007045299
42	0x3ddc4f7a	0.107573465
43	0x3ce149ef	0.027501075
44	0x3d023b9b	0.031795125
45	0xbda10dc4	-0.07863954
46	0xbd84d034	-0.06485024
47	0xbcda0b99	-0.026616858
48	0xbd97e0ac	-0.074159
49	0xbddcf097	-0.10788076
50	0xbd65463c	-0.055975184
51	0xbe2c4176	-0.16821846
52	0x3cbd678d	0.023120666
53	0x3c5d337e	0.013501046
54	0xbdd02fed	-0.10165391
55	0x3c1a77a0	0.009427935
56	0xb9a373a4	-0.00031175942
57	0xbd9cb3ad	-0.07651458
58	0x3df662ba	0.12030549
59	0xbe0c4905	-0.1369973
60	0xbd5d6d78	-0.054059476
61	0xbdad9d04	-0.08477214
62	0xbd6e7640	-0.05821824
63	0x3d41cc8f	0.047314223
64	0xbd05b99b	-0.03264771
65	0xbd8baf3f	-0.06820535
66	0x3de228ec	0.110429615
67	0x3dc54492	0.096322194
68	0x3c114de3	0.008868667
69	0xbcd13b05	-0.025540838
70	0xbe1d09bf	-0.15335749
71	0xbdb0eb5a	-0.0863864
72	0x3d84deb6	0.06487791
73	0xbd716e4e	-0.058943085
74	0xbcf395ed	-0.029734576
75	0xbdd4440a	-0.1036454
76	0xbdc5a612	-0.09650816
77	0x3d45e8c8	0.0483177
78	0xbcefddb7	-0.029280527
79	0xbd4782e2	-0.048708804
80	0xbc2524fb	-0.010079618
81	0xbc939f6c	-0.018020354
82	0x3b22d650	0.0024846978
83	0x3db28e16	0.08718507
84	0xbcd396ab	-0.02582868
85	0xbd478e13	-0.048719477
86	0x3d3fe40d	0.046848346
87	0x3d9c6eac	0.076382965
88	0xbc04435c	-0.0080727
89	0xbc639fa5	-0.013893043
90	0xbdfef196	-0.124484226
91	0x3e08d998	0.13364255
92	0x3d0c66e2	0.034277804
93	0xbdcc9f5d	-0.09991334
94	0xbd7e2275	-0.06204458
95	0x3e140472	0.14454821
96	0xbd27b7a0	-0.040946603
97	0xbdb20771	-0.086928256
98	0xbd91212d	-0.07086406
99	0x3d2d9ff0	0.042388856
100	0x3d5f810c	0.054566428
101	0xbe33a708	-0.17544186
102	0xbcb7bdda	-0.022429395
103	0xbc884f21	-0.016639294
104	0x3b9c5ada	0.0047715725
105	0xbdc964a2	-0.09833647
106	0xbdf245b5	-0.11829702
107	0xbdb6ec73	-0.08931818
108	0x3d7b511f	0.06135666
109	0xbc9a194f	-0.018810896
110	0xbc3cab4c	-0.01151545
111	0x3d2d9b12	0.042384215
112	0xbdad9358	-0.08475369
113	0xbd5304fc	-0.051518425
114	0x3d5899a7	0.05288091
115	0x3d454f6e	0.048171453
116	0x3c3f0f7a	0.011661405
117	0xbe16de6e	-0.14733288
118	0xbcd3d8d1	-0.025860222
119	0xbbc99a8b	-0.006152456
120	0xbda17321	-0.07883287
121	0x3d8cf732	0.06883086
122	0xbe0b01be	-0.13574883
123	0xbd7c2790	-0.061561167
124	0xbda96655	-0.082714714
125	0xbd05690d	-0.032570887
126	0x3c6f1a65	0.014593695
127	0xbe03527b	-0.12824433

a2c_network.actor_mlp.2.weight f4 [64, 128]
0	0x3dd19427	0.10233336
1	0x3dc79c76	0.097466394
2	0x3cef18e7	0.029186679
3	0x3db9cb4f	0.09071981
4	0xbdfafc0b	-0.12255105
5	0xbdbb6dee	-0.09151827
6	0x3cb55985	0.022137413
7	0x3de046dc	0.10951015
8	0x3e33e071	0.17566086
9	0xbd06a55c	-0.032872543
10	0x3c7a748c	0.015286576
11	0x3debeb92	0.11519541
12	0x3e121cdd	0.14268823
13	0x3dee94e9	0.11649496
14	0xbdd9cab9	-0.106343694
15	0xbe08896d	-0.13333674
16	0x3d870895	0.06593434
17	0xbd32cd8b	-0.043653052
18	0xbd5b597e	-0.053552143
19	0xbe8d1d1f	-0.2756128
20	0x3b314292	0.0027047736
21	0xbdc93876	-0.09825222
22	0x3b1f3e8b	0.0024298753
23	0x3e3a13c8	0.18171608
24	0xbd8fb07a	-0.07016082
25	0x3d0cd056	0.034378372
26	0xbca574ce	-0.020197298
27	0x3e0327a7	0.12808095
28	0x3d719512	0.058980055
29	0xbe2e9bdb	-0.17051642
30	0x3d659923	0.056054246
31	0x3d6fb371	0.058520738
32	0x3e40df0a	0.18835083
33	0x3cc41551	0.023935946
34	0x3d1d9197	0.038468923
35	0x3d104553	0.035222363
36	0xbc13fd4c	-0.009032559
37	0x3e7a4af0	0.24442649
38	0x3d9063f8	0.070503175
39	0x3e169452	0.14705017
40	0xbd94493e	-0.07240532
41	0x3e08c56a	0.13356557
42	0x3d689af1	0.05678839
43	0xbc253ea3	-0.010085735
44	0xbc22abc5	-0.009928648
45	0x3d06474b	0.032782834
46	0x3cc1b895	0.023647586
47	0x3dae63b5	0.08515111
48	0x3d9ab68f	0.075543515
49	0xbd246547	-0.040135648
50	0x3de60432	0.11231269
51	0xbc95c1b4	-0.018280841
52	0xbe789d90	-0.24278855
53	0x3d014804	0.03156282
54	0xbcb5c2ae	-0.022187557
55	0xbd31bf98	-0.04339561
56	0xbbcdcd23	-0.0062805577
57	0xbd7450bd	-0.05964731
58	0x3cf3573e	0.029704686
59	0xbca338dc	-0.019924574
60	0xbb99f88b	-0.004698818
61	0x3e506218	0.2034992
62	0xbb1814f2	-0.0023205844
63	0x3cbb8e1a	0.022894908
64	0xbb744d12	-0.0037277383
65	0x3ce90ee2	0.02844948
66	0x3dc5d6d7	0.09660118
67	0x3db6dc08	0.089286864
68	0x3e281ab8	0.16416442
69	0x3d984103	0.07434275
70	0x3db40b44	0.08791211
71	0x3e10bbb0	0.14134097
72	0xbd0b5495	-0.03401621
73	0x3dc9d293	0.09854617
74	0xbe3bdab3	-0.18345146
75	0x3e05c3c7	0.13062964
76	0xbb07107f	-0.0020609198
77	0xbe007669	-0.1254517
78	0x3d8dd9cf	0.06926309
79	0x3dc66051	0.0968634
80	0xbd2acf01	-0.04170132
81	0xbd719484	-0.058979526
82	0x3b7cc6aa	0.0038570561
83	0x3c003d7e	0.007827161
84	0x3c1957e8	0.009359337
85	0x3c6da3e4	0.014504407
86	0xbd5c9136	-0.05384942
87	0x3e23675b	0.15957396
88	0x3ddb00c7	0.10693508
89	0xbda596a9	-0.08085377
90	0x3e34c0ca	0.17651668
91	0x3d919d1c	0.07110044
92	0x3cacca6f	0.021092622
93	0x3dedbfce	0.116088495
94	0x3d89e680	0.067334175
95	0xbdfe08ea	-0.12404044
96	0xbc81baaa	-0.015836079
97	0xbc8019a7	-0.015637232
98	0xbe36e320	-0.17860079
99	0x3e1f6d86	0.15569124
100	0x3c7f2e69	0.01557503
101	0x3d9e3b19	0.07726116
102	0x3e1f710f	0.15570472
103	0x3d826289	0.0636645
104	0x3dbb48da	0.09144755
105	0xbd6cb30d	-0.057787944
106	0x3dc5b1b3	0.09653034
107	0x3cb69050	0.02228561
108	0x3d5696f5	0.052390058
109	0xbda5f909	-0.0810414
110	0xbd7eba06	-0.062189125
111	0x3e0dc33b	0.13844006
112	0x3db0b012	0.08627333
113	0xbc3e08f9	-0.011598819
114	0xbb9dbaae	-0.0048135137
115	0xbd593751	-0.05303127
116	0xbc145472	-0.009053336
117	0x3dfcbfa5	0.12341241
118	0x3e1be8c3	0.1522551
119	0xbd16e1eb	-0.036836546
120	0x3deaa24b	0.11456736
121	0xbd441aba	-0.04787705
122	0x3d3f1505	0.046650905
123	0x3dde14d5	0.10843817
124	0x3dd456d0	0.10368121
125	0xbc6fdfab	-0.014640729
126	0xbd5103d9	-0.05102906
127	0xbd5932f3	-0.053027105
128	0xbe1f9a27	-0.15586148
129	0xbc687269	-0.014187434
130	0x3d6ed583	0.05830909
131	0xbc7c1a14	-0.015387077
132	0x3deb080a	0.11476143
133	0xbdaa9642	-0.08329441
134	0xbe23e02a	-0.1600348
135	0xbc92da00	-0.017926216
136	0xbb2b0fba	-0.0026101903
137	0xbd8132b7	-0.06308501
138	0x3e0bff40	0.13671589
139	0xbd87145e	-0.065956816
140	0xbde6d0b1	-0.112702735
141	0x3ced47a4	0.028964825
142	0x3dcdeab3	0.10054531
143	0x3d60468e	0.054754786
144	0x3cadea57	0.021229906
145	0x3d69296c	0.05692427
146	0x3d45eae8	0.048319727
147	0x3e45450f	0.19264625
148	0x3c0dea96	0.008661887
149	0xbc660fb7	-0.014041833
150	0xbcd75846	-0.02628721
151	0xbd4cb705	-0.04997923
152	0xbd291bd0	-0.04128629
153	0x3b8e7d2b	0.0043484173
154	0xbc99d68d	-0.018779064
155	0x3d64c06d	0.055847574
156	0x3ca30553	0.0199
157	0x3c1d769d	0.009610799
158	0xbd10af72	-0.035323568
159	0xbe0ab836	-0.13546833
160	0xbd27bccb	-0.04095153
161	0xbe1b7568	-0.15181506
162	0x3dfa6170	0.12225616
163	0xbdabed73	-0.08394899
164	0xbe312ce5	-0.17302282
165	0xbd43fadb	-0.047846656
166	0xbc5bf55c	-0.013425197
167	0xbd66e881	-0.056374077
168	0x3d4598c5	0.048241396
169	0xbe29d423	-0.1658483
170	0xbcdad432	-0.02671251
171	0xbe0bf270	-0.13666701
172	0xbdaca401	-0.08429719
173	0xbcb75a35	-0.022381881
174	0xbd9eb0f9	-0.077485986
175	0xbd9ed729	-0.07755882
176	0xbdd51ea4	-0.10406235
177	0xbd8b8c11	-0.06813825
178	0x3da1e256	0.07904498
179	0xbddbc54d	-0.107309915
180	0x3dcf69fa	0.10127635
181	0xbcb33fe7	-0.021881057
182	0x3d42e62c	0.04758279
183	0x3ddfec38	0.10933727
184	0xbd18003b	-0.037109595
185	0x3c19d829	0.0093899155
186	0x3ceb6794	0.028735913
187	0xbc3bac7e	-0.0114547
188	0xbd5ed468	-0.054401785
189	0x3c08f2c1	0.008358658
190	0xbc68e548	-0.014214821
191	0xbd3d3a57	-0.046198215
192	0x3d394a0b	0.04523663
193	0xbcd38144	-0.025818475
194	0xbdabfcff	-0.083978646
195	0xbc6f073a	-0.014589125
196	0xbda6e54e	-0.08149205
197	0xbd8aec4a	-0.0678335
198	0x3d03347e	0.032032482
199	0xbdad99ad	-0.08476577
200	0xbdae8c25	-0.08522824
201	0x3c8cf123	0.017204827
202	0xbdb7187c	-0.08940217
203	0xbd53772c	-0.051627323
204	0xbd89fe50	-0.067379594
205	0xbd5d9796	-0.05409964
206	0xbdc27b6d	-0.09496198
207	0xbd8522ba	-0.06500764
208	0x3d82f3ed	0.063941814
209	0xbc98e0a0	-0.018661797
210	0xbd2bf367	-0.041980173
211	0xbc96a7c5	-0.018390546
212	0xbd42859e	-0.04749071
213	0xbe01bb65	-0.12669142
214	0xbc049ba9	-0.008093753
215	0xbe09fb9e	-0.1347489
216	0xbe0ba444	-0.13636881
217	0x3d5c6730	0.053809345
218	0x3bbc517a	0.0057470175
219	0xbcd23a4a	-0.02566256
220	0xbd9f9e22	-0.07793833
221	0xb9c2b829	-0.00037139773
222	0xbd85bd9d	-0.065303065
223	0x3cc40dea	0.023932416
224	0xbdf62c5b	-0.12020179
225	0x3d14594a	0.036217965
226	0x3d546e8a	0.05186323
227	0xbe1cc36c	-0.15308923
228	0x3dd7e48f	0.10541641
229	0xbdddad2b	-0.10824045
230	0xbd3ab6ed	-0.045584608
231	0x3ab45a00	0.0013759732
232	0xbd7c89fa	-0.061655022
233	0x3c7f46ad	0.015580815
234	0xbd8cd0a0	-0.068757296
235	0x3ab62a4e	0.0013898106
236	0xbd8e318e	-0.069430456
237	0x3c97f703	0.018550402
238	0xbd89f209	-0.06735618
239	0xbd557419	-0.052112672
240	0x3d7ad00c	0.061233565
241	0x3e145649	0.1448604
242	0xbda4b2c6	-0.08041911
243	0xbd1bc755	-0.038031895
244	0x3d6f122e	0.058366947
245	0xbd9563af	-0.07294404
246	0x3ba12bb9	0.004918542
247	0xbe08fea1	-0.13378383
248	0xbe199ed7	-0.15001999
249	0xbda2c92e	-0.07948528
250	0xbd48407f	-0.048889633
251	0x3b99fdc5	0.004699441
252	0xbdf709c1	-0.12062407
253	0x3d790eba	0.06080506
254	0xbd4cf70a	-0.050040282
255	0xbd13d34d	-0.036090184

a2c_network.actor_mlp.2.bias f4 [64]
0	0xbdc5d219	-0.096592136
1	0xbd37dae3	-0.04488648
2	0xbd68053c	-0.056645617
3	0x3d440968	0.047860533
4	0xbda0a6ea	-0.07844336
5	0xbdd65083	-0.10464575
6	0xbd011ad1	-0.031519715
7	0x3baa6206	0.0051996736
8	0x3b6309a4	0.0034643197
9	0x3e037ae0	0.12839842
10	0xbc9a1832	-0.018810365
11	0xbd9593ec	-0.073036045
12	0xbd13d7ed	-0.036094595
13	0xbcda855b	-0.026674917
14	0xba8d8c9a	-0.0010799349
15	0x3d1703ac	0.036868736
16	0xbc443add	-0.011976925
17	0xbdcb0352	-0.09912743
18	0xbd068d9d	-0.032849897
19	0x3d142c97	0.036175337
20	0xbdcc38ca	-0.09971769
21	0x3cc451f9	0.023964869
22	0x3d0f4dd9	0.03498635
23	0x3c92c7ea	0.017917592
24	0xbdd2ad11	-0.10286916
25	0xbd00422d	-0.03131311
26	0xbcfc8ae1	-0.030827941
27	0xb9629459	-0.00021608303
28	0x3bdbc749	0.0067071063
29	0x3d06ef6f	0.032943185
30	0xbd9823be	-0.07428692
31	0x3db04c8f	0.086083524
32	0xbc6ceaa0	-0.014460236
33	0xbd9ee3b0	-0.07758272
34	0xbdece9c6	-0.11568026
35	0xbcb67d55	-0.02227656
36	0xbd18b387	-0.037280586
37	0x3ca328c6	0.019916903
38	0x3d4830a9	0.04887453
39	0xbd30a454	-0.043125466
40	0xbc267bc8	-0.010161348
41	0xbd6400b1	-0.055664722
42	0xbc81202e	-0.015762415
43	0x3c011cfb	0.007880445
44	0x3c6a5e18	0.01430466
45	0xbba3f081	-0.0050030355
46	0xbdf309e7	-0.11867123
47	0xbd481321	-0.048846368
48	0x3e0bb772	0.13644198
49	0x3d4d38b7	0.050102916
50	0x3daa7f79	0.08325095
51	0xbd9da38a	-0.07697208
52	0xbd35e306	-0.04440596
53	0xbd3989b5	-0.045297343
54	0xbd36c812	-0.044624396
55	0x3c9259cc	0.017865084
56	0x3d225c22	0.039638646
57	0xbd01c459	-0.031681392
58	0x3c9c8ba6	0.019109558
59	0xbce551c6	-0.027993094
60	0x3d228683	0.03967906
61	0x3cc141ed	0.023591006
62	0xbdd425a9	-0.103587456
63	0xbb8a4366	-0.0042194603

a2c_network.actor_mlp.4.weight f4 [32, 64]
0	0xbc85d66d	-0.016337598
1	0x3dd8cf4e	0.10586415
2	0x3d81b4ac	0.063332886
3	0x3d04b490	0.03239876
4	0x3e34a72f	0.176419
5	0xbbeb8fb2	-0.0071887607
6	0x3d7d35ea	0.061818995
7	0xbdd53dfb	-0.104122125
8	0xbd8ba229	-0.06818039
9	0xbe364d88	-0.17803013
10	0xbd8a0dc1	-0.067409046
11	0x3dd544b2	0.10413493
12	0xbb24dba6	-0.0025155335
13	0xbdb0a174	-0.08624545
14	0xbca5e3ad	-0.020250166
15	0xbde08798	-0.109633625
16	0xbdb76148	-0.08954102
17	0x3d5ea4d8	0.054356426
18	0xbcceb32a	-0.025231916
19	0xbcf5c07b	-0.029999008
20	0x3df2805a	0.11840887
21	0xbd85d2c8	-0.06534344
22	0xbca31a9f	-0.019910155
23	0xbdc6684e	-0.09687863
24	0x3cc465d7	0.023974342
25	0xbe8bf5fc	-0.2733611
26	0xbdc5ac17	-0.09651964
27	0xbe056188	-0.13025486
28	0x3d93ba07	0.07213216
29	0xbd8b9e85	-0.068173446
30	0xbccd60f5	-0.025070647
31	0xbdfb577f	-0.12272548
32	0x3d58c90b	0.052926105
33	0x3df5bbb1	0.1199869
34	0x3c495900	0.012289286
35	0xbdf4bd86	-0.11950211
36	0x3d2e4a40	0.04255128
37	0xbdc350ab	-0.095368706
38	0x3bbcdb1e	0.0057634255
39	0x3d959806	0.07304387
40	0xbddf6294	-0.10907474
41	0xbd9aa82c	-0.075516075
42	0x3e001e1e	0.12511489
43	0x3df1022a	0.11767991
44	0xbd7ee361	-0.062228564
45	0x3c78f609	0.015195378
46	0x3d7260f6	0.0591745
47	0x3e47edfa	0.19524375
48	0xbde7d9b3	-0.1132082
49	0xbdb70564	-0.08936575
50	0xbe335c44	-0.17515665
51	0xbd15c63b	-0.036566
52	0xbdf0c9a3	-0.11757209
53	0xbe8a974a	-0.2706855
54	0xbddff185	-0.10934738
55	0xbe2f1e23	-0.1710134
56	0xbe06dcf5	-0.13170226
57	0xbd9df3e3	-0.07712533
58	0x3df96267	0.12176972
59	0x3d9d8a4d	0.076923944
60	0xbe164978	-0.14676464
61	0xbd39a379	-0.045321915
62	0x3e4bd820	0.19906664
63	0xbcd3eda5	-0.025870154
64	0x3d38b58f	0.045095023
65	0xbd906d39	-0.070520826
66	0xbe974e5c	-0.2955197
67	0xbd9b8214	-0.0759317
68	0xbc245019	-0.010028862
69	0xbdc47a00	-0.09593582
70	0xbd0355b6	-0.032064162
71	0x3da41edd	0.08013699
72	0xbe4fcae5	-0.20292242
73	0x3ce01565	0.027353952
74	0x3d9ff7b0	0.078109145
75	0xbdd1a6cf	-0.10236894
76	0x3d7e5e1a	0.06210146
77	0x3c0f81af	0.008758946
78	0xbe310380	-0.17286491
79	0xbde832e4	-0.113378316
80	0xbd0abfaa	-0.03387419
81	0xbe7a1a89	-0.24424185
82	0x3d3c5fe1	0.045989875
83	0x3e081671	0.1328981
84	0xbe526a69	-0.20548405
85	0x3d03ae76	0.0321488
86	0xbb1b12a6	-0.0023662238
87	0x3def457f	0.11683177
88	0xbe3274b3	-0.1742733
89	0xbdf6823f	-0.12036561
90	0x3e0757d8	0.13217103
91	0x3e127927	0.14304028
92	0x3e2c939e	0.16853186
93	0x3cac260d	0.021014238
94	0xbd58dacd	-0.05294304
95	0x3d9fb1f7	0.07797616
96	0x3c9bac0b	0.019002935
97	0x3ced7a10	0.028988868
98	0xbdea1d76	-0.114314005
99	0x3dc8154f	0.09769689
100	0x3d7eaac2	0.062174566
101	0x3d4535a5	0.048146863
102	0xbe0e8345	-0.13917263
103	0x3d81b969	0.06334192
104	0xbded3d15	-0.11583916
105	0xbd83aff7	-0.06430047
106	0xbcff0436	-0.031129938
107	0x3cfcf863	0.030880159
108	0x3c9c7f6a	0.019103725
109	0x3ce55738	0.02799569
110	0xbe3ad52d	-0.18245383
111	0xbda08a03	-0.07838824
112	0x3c27df55	0.010246118
113	0xbd977de4	-0.073970586
114	0xbdee3e17	-0.116329364
115	0xbe1ac090	-0.1511252
116	0xbe650a93	-0.22367315
117	0xbdea82b4	-0.11450711
118	0xbd47cc50	-0.048778832
119	0x3e282118	0.16418874
120	0xbe3fd8e0	-0.18735075
121	0xbe37f49c	-0.17964405
122	0x3c8fb8a8	0.017544106
123	0xbc895c7f	-0.016767738
124	0x3dc52b29	0.09627373
125	0x3d939f31	0.07208098
126	0x3d216177	0.03939959
127	0xbdabcfc0	-0.083892345
128	0x3e2b9f00	0.16759872
129	0xbdf15636	-0.117840216
130	0x3e1ceaa5	0.15323885
131	0x3ca3f058	0.020012066
132	0xbd88fbb4	-0.066886336
133	0xbd8a382f	-0.067489974
134	0xbd610657	-0.054937687
135	0x3dbefb34	0.09325257
136	0xbde2d76d	-0.110762455
137	0x3db67754	0.08909479
138	0x3e2e3a92	0.1701453
139	0x3c9cac2c	0.019125067
140	0xbd9bc5b3	-0.076060675
141	0x3db4887d	0.088150956
142	0x3df8e545	0.12153105
143	0x3d609d15	0.054837305
144	0xbc5648d3	-0.013078886
145	0xbe1c3925	-0.15256174
146	0x3e25b672	0.16182879
147	0xbd2afae3	-0.04174317
148	0x3d897ba0	0.06713033
149	0x3dd3a41f	0.10334038
150	0xb98b1687	-0.0002652893
151	0x3dc15b7c	0.094412774
152	0xbdaacd3b	-0.08339926
153	0x3d9eb0ff	0.07748603
154	0x3d614315	0.054995615
155	0x3db5cdcb	0.088771425
156	0x3e16855e	0.14699313
157	0x3e2bb510	0.16768289
158	0xbd9dc902	-0.07704355
159	0x3e2a7092	0.16644505
160	0xbe20333e	-0.15644547
161	0x3d54b474	0.051929906
162	0x3dd99d25	0.10625676
163	0x3c824517	0.015902085
164	0x3dc41c03	0.09575655
165	0x3d2ba7a5	0.041907925
166	0xbda3d2ab	-0.07999166
167	0xbdc881dd	-0.097903945
168	0xbd19ee4e	-0.03758078
169	0x3e0878f8	0.13327396
170	0x3e06c958	0.13162744
171	0x3e0e7a8c	0.13913935
172	0xbe0e55ce	-0.1389992
173	0x3e1742f4	0.14771634
174	0x3d67bf22	0.056578763
175	0xbd2b4f99	-0.041823957
176	0x3d14f8cd	0.036370087
177	0xbd86924f	-0.06570875
178	0xbe0801d0	-0.13281941
179	0x3c95d9ff	0.018292425
180	0xbe47de40	-0.19518375
181	0xbd24ad1f	-0.040204164
182	0x3d47afb5	0.04875155
183	0x3d3c6183	0.045991432
184	0x3e3e0acb	0.18558805
185	0x3e1c1e7b	0.15246002
186	0xbe100799	-0.14065398
187	0xbd3da39a	-0.0462986
188	0x3e4382e8	0.19092906
189	0xbde44d48	-0.11147553
190	0xbd13b633	-0.03606243
191	0x3dec69fc	0.115436524
192	0xbd09b2ba	-0.033617713
193	0x3c2e88d9	0.010652744
194	0xbd4c6598	-0.049901575
195	0xbdaa6ccb	-0.08321532
196	0xbd71c42f	-0.059024986
197	0x3bc8cfca	0.006128286
198	0x3d8e4a0e	0.069477186
199	0x3dc543df	0.09632086
200	0xbde4183e	-0.11137436
201	0x3e4f284f	0.2023022
202	0x3ce48c24	0.027898856
203	0x3d86f673	0.06589975
204	0xbd34f792	-0.044181414
205	0xbcd6c74f	-0.026218085
206	0x3e1ae357	0.15125786
207	0x3d0feb15	0.0351363
208	0xbdbfde69	-0.09368593
209	0xbbccf8d9	-0.006255251
210	0x3e3e60c5	0.18591602
211	0xbdd0324b	-0.101658426
212	0xbe21cf94	-0.15801841
213	0xbdc8a96b	-0.09797939
214	0x3e3d4623	0.18483786
215	0xbc9b9fff	-0.01899719
216	0x3dc43037	0.09579509
217	0xbbacf80c	-0.005278593
218	0x3d22cbcc	0.039745137
219	0x3db5f740	0.0888505
220	0xbce4dc98	-0.027937219
221	0x3e29847a	0.16554442
222	0xbde04213	-0.10950103
223	0x3963c487	0.00021721619
224	0xbd5c5fc3	-0.053802263
225	0x3d100770	0.035163343
226	0xbe15b9ff	-0.14621733
227	0xbcd61bef	-0.026136367
228	0x3d9e35b7	0.07725089
229	0xbd93a1c0	-0.07208586
230	0xbdffbc03	-0.12487032
231	0xbe1a8be6	-0.1509243
232	0xbe3008df	-0.17190884
233	0x3e3e7ba4	0.18601853
234	0x3dd1c006	0.10241704
235	0x3e7c81a2	0.24658826
236	0xbe0a331e	-0.13496062
237	0xbdb38e78	-0.08767408
238	0xbd08d436	-0.033405505
239	0x3d059d35	0.032620627
240	0x3d5b207b	0.053497773
241	0xbe10d974	-0.14145452
242	0x3c751daf	0.01496069
243	0xbd0df9a5	-0.034661908
244	0xbdca3389	-0.09873111
245	0x3e2ca7b0	0.16860843
246	0x3ce50fca	0.02796163
247	0xbe181e45	-0.14855297
248	0x3d822218	0.06354159
249	0x3c13346b	0.008984665
250	0xbc475a94	-0.012167592
251	0x3d189054	0.037247017
252	0x3e3891a5	0.18024309
253	0xbe512e37	-0.20427786
254	0x3d32d7c3	0.043662798
255	0x3d0306d7	0.031988945

a2c_network.actor_mlp.4.bias f4 [32]
0	0xbdb99e1d	-0.09063361
1	0x3d5bb76e	0.05364173
2	0x3d528bde	0.05140292
3	0xbd4c68ca	-0.049904622
4	0xbc0f44ef	-0.008744462
5	0x3c273d98	0.010207556
6	0x3bb9f3e8	0.005674828
7	0xbc31277f	-0.010812639
8	0x3d09c762	0.033637412
9	0xbd162a5d	-0.036661495
10	0x3d866d49	0.06563813
11	0xbd97269b	-0.0738041
12	0x37505653	1.2417865e-05
13	0x3cf653e6	0.030069303
14	0xbd4592f0	-0.048235834
15	0xbd788c61	-0.06068075
16	0x3d8fe281	0.07025624
17	0xbd016dd2	-0.031598873
18	0x3c677fe7	0.014129615
19	0xbd8c3943	-0.06846859
20	0x3b29757c	0.002585738
21	0x3c997737	0.018733604
22	0xbe06f3be	-0.13178918
23	0xbd0877c9	-0.03331736
24	0x3d05ab84	0.032634273
25	0x3d281bc6	0.04104211
26	0xbd69c2b7	-0.05707046
27	0xbd595f9b	-0.053069692
28	0x3d7e23cb	0.062045854
29	0xbcc211c0	-0.023690104
30	0xbd835f0e	-0.064146146
31	0x3d5c7330	0.05382079

a2c_network.value.weight f4 [1, 32]
0	0xbba9d386	-0.0051826863
1	0x3e771457	0.24128853
2	0xbc853e77	-0.016265137
3	0xbd431c57	-0.04763445
4	0xbe0c8e70	-0.1372621
5	0x3d445bca	0.0479391
6	0xbd16c6c2	-0.036810644
7	0xbb93f29e	-0.004515006
8	0xbce2f485	-0.027704487
9	0x3d143961	0.036187533
10	0x3daa22be	0.08307408
11	0xbd60fce9	-0.054928694
12	0xbd3d31ef	-0.0461902
13	0x3e391393	0.18073873
14	0xbdca40e0	-0.09875655
15	0x3a9ecc77	0.0012115379
16	0x3e15e89c	0.14639515
17	0x3e13978e	0.14413282
18	0xbdc1fa40	-0.094715595
19	0xbcad8676	-0.02118228
20	0xbb009e1d	-0.0019625493
21	0x3d49ddca	0.04928378
22	0xbca64f7b	-0.020301571
23	0xbe23abc3	-0.1598349
24	0xbd7a76c6	-0.061148427
25	0x3e1d5694	0.15365058
26	0xbcada06a	-0.021194655
27	0xbe052418	-0.1300205
28	0x3ca0bdac	0.019621693
29	0x3e65f758	0.22457635
30	0xbddc5e00	-0.107601166
31	0x3c6c012f	0.014404579

a2c_network.mu.weight f4 [7, 32]
0	0x3c818645	0.015811095
1	0xbe25d47b	-0.16194336
2	0xbdd37b34	-0.103262335
3	0xbd5465ca	-0.051854886
4	0x3dbc31df	0.091892
5	0xbd8dd8ef	-0.069261424
6	0x3cb27c2a	0.021787722
7	0x3d2bd24c	0.0419486
8	0x3a348547	0.0006886315
9	0x3e3cf115	0.1845134
10	0x3da6db19	0.08147258
11	0x3debe8ed	0.115190364
12	0x3dc76d5f	0.09737658
13	0x3d28140d	0.041034747
14	0xbd29ffa7	-0.041503575
15	0xbddaa23c	-0.10675475
16	0xbe03a5ce	-0.12856218
17	0xbe26f475	-0.1630419
18	0xbcb049ce	-0.021519568
19	0x3d2afea8	0.041746765
20	0x3e6c8a31	0.23099591
21	0xbe7a554a	-0.24446598
22	0xbdd60ddb	-0.104518615
23	0xbc99e443	-0.018785601
24	0xbd08b4e4	-0.033375636
25	0x3e2e491f	0.17020081
26	0xbe6ce737	-0.23135076
27	0xbde88132	-0.11352767
28	0xbda50941	-0.08058406
29	0x3da0d079	0.07852263
30	0xbdf10106	-0.11767773
31	0xbd5377eb	-0.051628035
32	0x3ea3cf20	0.3199396
33	0xbc2efeef	-0.010680898
34	0xbe8480e8	-0.25879598
35	0xbe0af523	-0.13570075
36	0x3e05f11e	0.1308026
37	0x3bdd0c60	0.00674586
38	0xbdcc1ee5	-0.0996683
39	0xbe2604fe	-0.16212842
40	0xbda75169	-0.08169825
41	0x3e0fa25d	0.1402678
42	0xbe85bcd6	-0.26120633
43	0x3e9f142c	0.31070077
44	0xbdb2e393	-0.087348126
45	0x3d845a6c	0.06462559
46	0x3e1de8fc	0.15420908
47	0x3e75815d	0.2397513
48	0xbde1b0e0	-0.11020064
49	0xbdb6ab88	-0.08919436
50	0xbe72f812	-0.23727444
51	0x3e02c646	0.12770948
52	0xbd09ca2b	-0.033640068
53	0xbdba20a7	-0.09088259
54	0x3e957521	0.29190925
55	0xbb7c6493	-0.0038512095
56	0xbd973158	-0.073824584
57	0xbd50676f	-0.050879892
58	0x3d17b2eb	0.037035864
59	0x3d9580b4	0.07299939
60	0xbe20952c	-0.15681905
61	0x3d2c01cf	0.041993912
62	0x3dbbf604	0.09177783
63	0xbd860ffe	-0.06546019
64	0xbdb3224e	-0.087467775
65	0xbe3aa66b	-0.18227546
66	0xbe2dd116	-0.16974291
67	0xbdee62d8	-0.11639947
68	0x3dd0513c	0.10171744
69	0x3d9d0dde	0.076686606
70	0x3dc9b436	0.09848826
71	0xbe28ac94	-0.16472083
72	0x3d153faf	0.036437687
73	0xbe8d2ef0	-0.27574873
74	0x3cd47413	0.025934255
75	0x3e4e6e53	0.20159273
76	0xbd4a8c56	-0.04945024
77	0xbd591efa	-0.053008057
78	0x3d46c4ca	0.048527516
79	0xbe24e920	-0.16104555
80	0xbb00780e	-0.0019602808
81	0xbe01cac6	-0.12675008
82	0xbbb492f1	-0.005510681
83	0xbe5f9e87	-0.21837817
84	0xbd045fb9	-0.03231785
85	0xbd73c985	-0.059518356
86	0xbe17bad9	-0.1481737
87	0x3df5b75f	0.11997866
88	0x3e2b125c	0.16706222
89	0xbe2b3c40	-0.16722202
90	0xbc83800f	-0.016052274
91	0x3dc4c837	0.096085005
92	0x3e4ba84a	0.19888416
93	0x3d9c80b5	0.076417364
94	0xbcdcadc5	-0.026938329
95	0x3e6b51d0	0.22980428
96	0x3e692fbc	0.22772115
97	0x3d234a56	0.039865814
98	0xbd544e54	-0.051832512
99	0x3e7813ff	0.24226378
100	0xbe182cef	-0.14860891
101	0x3e1ca569	0.15297474
102	0x3e858eb8	0.26085448
103	0x3dcc117e	0.09964274
104	0xbe7b7b76	-0.24558815
105	0x3e13869d	0.1440682
106	0x3da40d25	0.080103196
107	0x3d674abe	0.056467764
108	0xbc6d05fc	-0.014466759
109	0x3e02e2e9	0.12781872
110	0x3d9d6a48	0.07686287
111	0xb999879b	-0.00029283468
112	0xbe4297bf	-0.19003199
113	0x3d44e360	0.048068404
114	0xbcb8c6d4	-0.022555746
115	0xbe0eee60	-0.1395812
116	0x3dd94352	0.106085435
117	0xbe17e995	-0.14835198
118	0xbd71eede	-0.059065692
119	0xbdbf8ca4	-0.09352997
120	0x3e580108	0.21094143
121	0xbde2f908	-0.11082655
122	0xbdbfc5ea	-0.09363921
123	0x3d72b03c	0.0592501
124	0x3e85b82e	0.2611708
125	0x3d95b286	0.07309441
126	0x3e57a80d	0.210602
127	0xbe1f11d2	-0.15534142
128	0xbe7b7c2c	-0.24559087
129	0x3da50ba4	0.08058861
130	0xbd978b85	-0.07399658
131	0x3d96893d	0.07350395
132	0x3ddeac52	0.10872711
133	0xbd75447b	-0.05987976
134	0xbe0b8918	-0.13626516
135	0x3e38f3b4	0.18061715
136	0xbe206a76	-0.15665612
137	0xbe44da24	-0.19223839
138	0x3e7ba97f	0.24576376
139	0x3c9aca86	0.018895399
140	0xbe099b7b	-0.13438217
141	0xbce81c24	-0.028333731
142	0xbe3c60d9	-0.1839632
143	0xbdc66046	-0.096863315
144	0xbe16ebcd	-0.14738388
145	0xbdb0b4af	-0.08628213
146	0x3e452540	0.19252491
147	0xbdcb5501	-0.099283226
148	0xbd369b0e	-0.044581465
149	0x3e0a272c	0.13491505
150	0x3d0f2394	0.03494604
151	0x3dfe424e	0.1241499
152	0x3e0c5d90	0.13707566
153	0xbe330955	-0.17484029
154	0xbe5e591d	-0.21713682
155	0xbe5c8cc5	-0.21538074
156	0xbd11578f	-0.035483893
157	0x3d63dc52	0.055630036
158	0x3e5a3b7c	0.21311754
159	0x3e52ca88	0.20585072
160	0x3e405062	0.18780664
161	0xbd5be240	-0.053682566
162	0x3e32a27f	0.174448
163	0x383cc939	4.5010096e-05
164	0x3e2e2af2	0.1700857
165	0xbdd62f0a	-0.10458191
166	0x3e5fa70f	0.21841072
167	0x3d16f3c0	0.036853552
168	0x3d8253df	0.063636534
169	0xbdb31e78	-0.08746046
170	0x3c963e8e	0.018340375
171	0x3c3ae039	0.011405998
172	0xbe414621	-0.18874408
173	0xbe182922	-0.14859441
174	0xbcd6c5a5	-0.026217291
175	0x3dde0f23	0.10842731
176	0xbdff6763	-0.12470891
177	0x3d3c2e04	0.04594232
178	0xbd8dc9b5	-0.06923238
179	0x3e356d99	0.1771759
180	0x3d030065	0.031982798
181	0x3c9cd6cc	0.019145392
182	0x3d0b620d	0.034029055
183	0x3d222cb0	0.0395934
184	0x3d942353	0.072333
185	0xbbf07482	-0.0073381076
186	0xbcef9c74	-0.029249407
187	0xbd053766	-0.032523535
188	0xbddcaabe	-0.10774754
189	0x3dab7a4d	0.083729364
190	0xbde33fcc	-0.11096153
191	0x3e2b5e11	0.16735102
192	0xbc892719	-0.016742276
193	0xbd8210df	-0.06350874
194	0xbdef315f	-0.11679339
195	0xbde147ef	-0.11000048
196	0xbc00804f	-0.007843091
197	0x3e48fbdf	0.19627331
198	0xbd78ae9f	-0.060713407
199	0x3e14e78d	0.14541455
200	0xbe41fc6a	-0.18943945
201	0x3cefb583	0.029261356
202	0x3e0d7200	0.13813019
203	0xbcb8f1d8	-0.022576258
204	0x3e3d823d	0.18506713
205	0xbd978c59	-0.07399816
206	0x3dddd46f	0.10831534
207	0x3e035d2c	0.12828511
208	0xbe6e0c0c	-0.23246783
209	0xbd7e3931	-0.06206626
210	0x3ddd8659	0.108166404
211	0x3e192de4	0.14958912
212	0x3d2c9780	0.04213667
213	0xbccbbf08	-0.024871364
214	0xbe0762f5	-0.13221343
215	0xbe163614	-0.14669067
216	0x3d9e123c	0.07718322
217	0xbe5bec80	-0.21476936
218	0x3d62729f	0.055285092
219	0x3d930a77	0.071797304
220	0x3dcfc47b	0.101448976
221	0x3df629bc	0.12019679
222	0xbd571e39	-0.052519057
223	0xbe14c657	-0.14528786

a2c_network.mu.bias f4 [7]
0	0x3c743d5b	0.014907206
1	0xbe4c0057	-0.19922005
2	0x3d90e351	0.07074607
3	0xbd9b464d	-0.07581768
4	0x3ce5d72a	0.0280567
5	0xbc4f1dfc	-0.012641426
6	0x3d47c8cd	0.048775483

exp_avg f4 [7]
0	0xbc1b43aa	-0.009476582
1	0x3b50eb13	0.0031878396
2	0xbac57d6f	-0.0015067289
3	0x3c196160	0.009361595
4	0x3bcefe66	0.0063169478
5	0x3b9fb359	0.004873675
6	0x3a2d735b	0.00066166156

exp_avg_sq f4 [7]
0	0x3a1f37dc	0.00060736923
1	0x3a310ba2	0.00067537476
2	0x3a2396d0	0.00062404294
3	0x3a416d49	0.00073786505
4	0x3a4dc0cf	0.000784886
5	0x3a337791	0.0006846125
6	0x3a16bffc	0.0005750654

exp_avg f4 [128, 18]
0	0x3a96a009	0.0011491786
1	0x38d57224	0.00010177892
2	0x3aac5333	0.0013147354
3	0x3ac63a44	0.0015123566
4	0xb9255d04	-0.00015770277
5	0x3c09e4ee	0.0084163975
6	0x3b817d31	0.0039516916
7	0x39c069f1	0.00036700026
8	0x39af5fcf	0.00033449984
9	0xb9362340	-0.00017370004
10	0x3a3a4295	0.00071052584
11	0xb9854f44	-0.00025426794
12	0x385d7c3c	5.280621e-05
13	0x37ee6927	2.8420776e-05
14	0x3a1bf7cd	0.0005949706
15	0xba14a52e	-0.00056703656
16	0x3ad5d55c	0.0016314196
17	0xbb9f29c6	-0.0048572747
18	0xb9d86456	-0.00041273487
19	0x3a2123d4	0.00061470014
20	0x3a88e2cf	0.0010443571
21	0x3a3e2fe2	0.000725506
22	0x391f9513	0.00015218956
23	0x3b99044a	0.0046697007
24	0x3b051ce8	0.002031142
25	0xb872bae0	-5.7871337e-05
26	0xb72d2293	-1.03196535e-05
27	0x3a404747	0.000733484
28	0x3a2db7fe	0.0006626843
29	0x399b4065	0.00029611881
30	0x3a89acda	0.0010503784
31	0xb9808668	-0.00024514203
32	0xba1746fb	-0.000577077
33	0xb936a112	-0.00017416876
34	0x38a4d414	7.859632e-05
35	0xbb18de37	-0.002332581
36	0x398b7456	0.00026598823
37	0x394675a5	0.00018926577
38	0x39f56cf2	0.00046811212
39	0x3a3186d3	0.00067721045
40	0xb8f9470f	-0.00011886481
41	0x3b1e6a0c	0.0024172096
42	0x3a8a1025	0.0010533376
43	0x39ca04f1	0.00038532124
44	0x37691693	1.3893138e-05
45	0xb95a9225	-0.00020844543
46	0x39c1460d	0.0003686402
47	0xb9e031e9	-0.00042761795
48	0xb95b1e01	-0.00020896645
49	0x39a325fe	0.0003111809
50	0xb910f40e	-0.00013823828
51	0xb9e1b371	-0.00043049039
52	0x3a07dc20	0.00051826425
53	0xbac2d5fa	-0.0014864795
54	0xbaad8d64	-0.001324099
55	0xb937ce23	-0.00017529032
56	0xb928c621	-0.00016095537
57	0xbaab4e3a	-0.0013069578
58	0x395e46a7	0.0002119789
59	0xbaca9bcb	-0.0015457807
60	0xbb0e556a	-0.0021718391
61	0xba852413	-0.0010157846
62	0xb9169182	-0.0001435932
63	0xb9f98063	-0.00047588637
64	0xba087d06	-0.0005206618
65	0x37f8f1dd	2.967653e-05
66	0x3a97545b	0.0011545526
67	0x39c5d528	0.00037733582
68	0x39ef7049	0.0004566929
69	0x3a1f52f8	0.0006077732
70	0x39b9d397	0.00035443596
71	0x39ece73d	0.00045185714
72	0xba7527e6	-0.00093519536
73	0x3a139f3c	0.0005631333
74	0x3937dbfd	0.00017534192
75	0xba492aea	-0.0007673936
76	0x3a94848d	0.0011331007
77	0xb84fb6ea	-4.9522998e-05
78	0xba66b790	-0.00088011567
79	0xba7d655d	-0.00096662884
80	0x3a6b2e05	0.0008971396
81	0xb9c26078	-0.00037074438
82	0xb9c96c30	-0.00038418313
83	0x3a59494a	0.0008288814
84	0x3acb214d	0.0015497595
85	0x3aa640d1	0.0012684112
86	0x3927e2a5	0.00016010793
87	0xba51cf63	-0.00080036203
88	0xbab30a3b	-0.0013659665
89	0x3a9afac2	0.0011823999
90	0x39f66023	0.00046992404
91	0x39967bc5	0.00028702445
92	0x3a639513	0.00086815766
93	0x3a4986b6	0.0007687615
94	0x3a09710e	0.0005242982
95	0x3ba21e1c	0.004947437
96	0x3aab1f8f	0.001305567
97	0x39d3517e	0.00040305773
98	0x3a42fdb5	0.0007438318
99	0xb9cdcd72	-0.00039253716
100	0x3a980923	0.0011599403
101	0xb9cc9040	-0.00039017387
102	0x3aa82dfd	0.0012831088
103	0x3acb4607	0.0015508541
104	0x3910f4f1	0.00013824158
105	0xbabe79b0	-0.0014532115
106	0x3ae8d252	0.0017762876
107	0xbafd0f21	-0.0019306877
108	0x3a0fa0e3	0.0005478991
109	0x39fe137e	0.00048461178
110	0xb896292f	-7.1602284e-05
111	0x3a5bea22	0.00083890755
112	0x39878fbb	0.00025856294
113	0x3b35050a	0.0027621412
114	0x3a99000d	0.0011672989
115	0x38936b52	7.029496e-05
116	0x3a3afd35	0.00071330677
117	0xba1dc89b	-0.0006018967
118	0x398696cd	0.00025670827
119	0xb964b7e9	-0.00021812286
120	0x3a56fd3f	0.0008201189
121	0x384d6529	4.897002e-05
122	0xb98de3f9	-0.0002706347
123	0xba1a3ba8	-0.0005883523
124	0x39c7f842	0.00038141204
125	0xba545f0b	-0.0008101321
126	0x39f22986	0.00046188774
127	0x365ed34e	3.3203573e-06
128	0xb7fa52db	-2.9840905e-05
129	0x3a46effa	0.000758886
130	0xba51e713	-0.000800715
131	0x3b8cbcef	0.0042949836
132	0x3aef1a8e	0.0018242167
133	0x38ce8ca3	9.849041e-05
134	0x3977af71	0.00023621113
135	0xb9156adc	-0.00014249556
136	0x39d4b0a7	0.00040567407
137	0xba9145a0	-0.0011083372
138	0xba7fb906	-0.00097550487
139	0x3a83909d	0.0010037605
140	0xb9fb3232	-0.0004791185
141	0xb9a92cd3	-0.00032267589
142	0x3abbd101	0.0014329256
143	0xbac971ca	-0.0015368995
144	0xbae1eca9	-0.0017236668
145	0xb7250f3f	-9.838316e-06
146	0xb9fe2a5e	-0.0004847822
147	0xba9f713a	-0.0012164481
148	0xba4dd072	-0.000785119
149	0x3a5d0514	0.00084312377
150	0x39a53793	0.00031512658
151	0xba4a9861	-0.00077283947
152	0xb98785e1	-0.00025848954
153	0xb9839c40	-0.00025102682
154	0xb9bdffdc	-0.0003623952
155	0x3a6a848c	0.00089461426
156	0x3a14d60c	0.00056776474
157	0x3a2ef378	0.0006673853
158	0xba00146b	-0.0004885855
159	0x3af3716b	0.001857323
160	0xb95ba19f	-0.00020945676
161	0xb90c3841	-0.00013372397
162	0xb99bc0ab	-0.00029707453
163	0x3742718d	1.1589739e-05
164	0xb9f06ab3	-0.00045855864
165	0xb8d90b6d	-0.000103494946
166	0xba2c1dcf	-0.0006565721
167	0xb9fa6c04	-0.00047764194
168	0x38a8db69	8.0517326e-05
169	0x378cbdf0	1.6777747e-05
170	0xb9f2925e	-0.0004626689
171	0xb7e9df37	-2.7879707e-05
172	0x38e0211c	0.000106873194
173	0xb8e0c75a	-0.000107182845
174	0xb9d8d7b0	-0.0004135943
175	0x3987cd5d	0.00025902214
176	0xb8b71a32	-8.730999e-05
177	0x38f92def	0.00011881801
178	0xb89d89d7	-7.512018e-05
179	0xba720e58	-0.0009233705
180	0x39e6eb8c	0.00044044515
181	0x39f40805	0.00046545282
182	0x3a997d29	0.0011710274
183	0x3ab01b41	0.0013435857
184	0x3955592b	0.0002034648
185	0x3b9f9ffe	0.0048713675
186	0x3b0d628b	0.0021573629
187	0x395caf0f	0.0002104605
188	0x39bbb434	0.0003580168
189	0x3a0cdb3d	0.0005373245
190	0x3a4312fe	0.000744149
191	0x39a17b5f	0.00030800232
192	0x391c8dbc	0.0001493012
193	0x3a6d8635	0.0009060831
194	0x39990904	0.0002918915
195	0xbaceb5fe	-0.0015770791
196	0xb9ac36f7	-0.00032847348
197	0xbb44ff63	-0.003005945
198	0xba3d428b	-0.00072196935
199	0x3901779f	0.00012346961
200	0x3abc966a	0.0014388089
201	0xb9a0bbbe	-0.00030657457
202	0xb98ddc28	-0.00027057645
203	0x3b19b2e3	0.0023452572
204	0x3a973f19	0.001153919
205	0xba1163c0	-0.0005546175
206	0xb98d4ed8	-0.0002695236
207	0x3ad47329	0.0016208637
208	0xb9f52790	-0.00046759518
209	0x3a9b62a8	0.0011854963
210	0x3a2b0033	0.0006523162
211	0xb9ea7e9b	-0.00044726286
212	0xb9a76c5a	-0.0003193345
213	0x3982f6e1	0.0002497947
214	0xba1d0efc	-0.00059913076
215	0xbb0fba80	-0.002193123
216	0xb9c3ceb7	-0.00037347313
217	0xb9a173fd	-0.0003079473
218	0x3a404cd4	0.0007335667
219	0x3967d39f	0.00022108712
220	0xb9b6ba6a	-0.00034852634
221	0x3b58162e	0.0032972204
222	0x3a9ad368	0.0011812272
223	0xb99a0e95	-0.00029384033
224	0xba7d1188	-0.00096537964
225	0x3a805bfe	0.0009793041
226	0x3a696668	0.00089035043
227	0xb9e23e7a	-0.00043152628
228	0x39a0a6a8	0.00030641747
229	0xb9b5afe6	-0.00034654065
230	0x3a1a8915	0.00058950606
231	0x39ad74f4	0.00033084268
232	0x3af3ad66	0.0018591105
233	0xbb73498b	-0.0037122692
234	0x39657221	0.00021881658
235	0xb89faa17	-7.6133925e-05
236	0xb900f60c	-0.00012298691
237	0x39e2b8ad	0.00043243673
238	0xb8309254	-4.209795e-05
239	0x3a5e8b7a	0.00084894116
240	0x390759b5	0.00012908022
241	0x3a16b985	0.00057496905
242	0xba023434	-0.00049668853
243	0x39e9ae80	0.00044571236
244	0x3a683385	0.00088577747
245	0xba224ee3	-0.00061915646
246	0x383561bd	4.324479e-05
247	0xb950758f	-0.0001988022
248	0x39460333	0.00018883943
249	0x38622155	5.391364e-05
250	0x3a85bd0a	0.0010203433
251	0xbaba6d2b	-0.0014223208
252	0xb9d109ba	-0.00039870833
253	0x3a5d5446	0.00084430387
254	0x3a102b8f	0.0005499655
255	0xba03bc3b	-0.0005025302

exp_avg_sq f4 [128, 18]
0	0x388702c0	6.437814e-05
1	0x380a970c	3.3042437e-05
2	0x38afefbb	8.3893035e-05
3	0x3881e6a7	6.194162e-05
4	0x392adb34	0.00016294123
5	0x396d9354	0.00022656965
6	0x390f8a8a	0.00013689153
7	0x38afe502	8.387306e-05
8	0x37fd2fcb	3.0182206e-05
9	0x38cbca94	9.7175274e-05
10	0x3885ed3f	6.386125e-05
11	0x3943b25f	0.00018663098
12	0x3889ef65	6.57726e-05
13	0x386aa660	5.5944896e-05
14	0x389851dd	7.263173e-05
15	0x3804a54c	3.1625197e-05
16	0x39bf7dfc	0.00036524225
17	0x3996110d	0.00028622933
18	0x37a7f4d2	2.0021955e-05
19	0x371c7be4	9.32717e-06
20	0x379fdba3	1.9056553e-05
21	0x377c3b04	1.5034111e-05
22	0x37ad579d	2.0664005e-05
23	0x385cd655	5.26517e-05
24	0x37ff0cb2	3.040428e-05
25	0x377627d4	1.4672016e-05
26	0x370abdc4	8.269624e-06
27	0x37ad651e	2.0670293e-05
28	0x376ba5b6	1.4045674e-05
29	0x37a39234	1.9499195e-05
30	0x379836e7	1.8145378e-05
31	0x376d3c00	1.4140271e-05
32	0x37a630e3	1.9811507e-05
33	0x37458e6b	1.1775274e-05
34	0x386820d6	5.534369e-05
35	0x384972df	4.8029116e-05
36	0x36f42d98	7.2770745e-06
37	0x365cc250	3.289566e-06
38	0x370905f2	8.167221e-06
39	0x36cc338e	6.0856755e-06
40	0x371784ae	9.031193e-06
41	0x37cd4de1	2.447417e-05
42	0x3761bbd5	1.3454778e-05
43	0x36eeeb07	7.1203135e-06
44	0x365f6f6e	3.329445e-06
45	0x36f869ca	7.4032914e-06
46	0x369ed399	4.7334e-06
47	0x372c1fd2	1.0259408e-05
48	0x36ecf33d	7.0616647e-06
49	0x36d024ce	6.2031677e-06
50	0x371fdc95	9.528497e-06
51	0x36af4141	5.223003e-06
52	0x37db88cd	2.6170537e-05
53	0x37cffbd4	2.479359e-05
54	0x37ecc81f	2.8226581e-05
55	0x3687164e	4.02591e-06
56	0x38234842	3.8929524e-05
57	0x37a2fc97	1.9429526e-05
58	0x38034141	3.1293606e-05
59	0x387ac92c	5.9792e-05
60	0x380c5318	3.3455988e-05
61	0x37ffa81e	3.0476655e-05
62	0x3700c4db	7.6752285e-06
63	0x37e81543	2.7666456e-05
64	0x37a81dc1	2.0041016e-05
65	0x37a8546f	2.0066478e-05
66	0x3814612a	3.537644e-05
67	0x37988367	1.8181001e-05
68	0x383664cb	4.3486052e-05
69	0x3829513d	4.03684e-05
70	0x383518a1	4.31767e-05
71	0x382b31ba	4.081589e-05
72	0x37e4f769	2.7294927e-05
73	0x372ee7d5	1.0425186e-05
74	0x382cb4bf	4.117633e-05
75	0x3797e984	1.8109342e-05
76	0x3872d938	5.7899597e-05
77	0x38a56af1	7.8877325e-05
78	0x3817b236	3.6167177e-05
79	0x382cea51	4.122622e-05
80	0x375570f1	1.2722086e-05
81	0x380309b5	3.1241874e-05
82	0x37ebbf78	2.8103343e-05
83	0x3855c39a	5.0965325e-05
84	0x3811cde9	3.4762463e-05
85	0x37c8a1b6	2.391716e-05
86	0x382fb78a	4.1894185e-05
87	0x3864b89e	5.4531374e-05
88	0x38e6293f	0.00010974937
89	0x38b140b4	8.4520696e-05
90	0x37f525c8	2.922387e-05
91	0x36df36c4	6.6522935e-06
92	0x3820b36e	3.831408e-05
93	0x37a69f63	1.9862962e-05
94	0x383656ed	4.3473137e-05
95	0x38b24c71	8.50194e-05
96	0x3843b8bf	4.666368e-05
97	0x380946d0	3.2729295e-05
98	0x37113132	8.654128e-06
99	0x3805bacd	3.1883643e-05
100	0x37ce9418	2.4626075e-05
101	0x382384c9	3.8985894e-05
102	0x37fd1e47	3.017405e-05
103	0x37d4abc6	2.5352358e-05
104	0x38240f48	3.911488e-05
105	0x382e214f	4.1515854e-05
106	0x3881a9ca	6.182825e-05
107	0x38603ac9	5.346051e-05
108	0x37c1fda6	2.3125507e-05
109	0x369a5fdb	4.6007167e-06
110	0x37e50027	2.7298998e-05
111	0x376e8b55	1.4218346e-05
112	0x37f5d287	2.930431e-05
113	0x3846a5c1	4.736125e-05
114	0x37f424bf	2.9104178e-05
115	0x37bbf14f	2.2404505e-05
116	0x36cff2e9	6.197359e-06
117	0x37be9116	2.2717326e-05
118	0x3781505c	1.5415419e-05
119	0x37e05af6	2.6745238e-05
120	0x37a72308	1.9924264e-05
121	0x37982778	1.8138191e-05
122	0x37fd4945	3.0194069e-05
123	0x37e29778	2.7011833e-05
124	0x385b89c0	5.234196e-05
125	0x38481eed	4.7712518e-05
126	0x3823fd6d	3.909825e-05
127	0x37366cfe	1.0873422e-05
128	0x3823ab43	3.902173e-05
129	0x37f9a61a	2.976046e-05
130	0x38546da6	5.0646857e-05
131	0x39072287	0.00012887466
132	0x388ff399	6.864145e-05
133	0x38146795	3.5382418e-05
134	0x375b428c	1.3068911e-05
135	0x38384428	4.3932494e-05
136	0x37a48871	1.9613859e-05
137	0x386241ae	5.3943768e-05
138	0x38214edf	3.8458846e-05
139	0x38049fd2	3.1620097e-05
140	0x38496116	4.8012553e-05
141	0x37e6b2e4	2.7501439e-05
142	0x390852b3	0.00013000779
143	0x38edbdc6	0.00011336389
144	0x37abf5cd	2.0499248e-05
145	0x36f0a68f	7.1719473e-06
146	0x37c4266c	2.3382912e-05
147	0x374cd42c	1.2208748e-05
148	0x381846ee	3.6305682e-05
149	0x37f4e060	2.919155e-05
150	0x37a17fa9	1.9252142e-05
151	0x3786c377	1.6065065e-05
152	0x36f529e4	7.3064457e-06
153	0x37b92047	2.2068749e-05
154	0x374869cc	1.1945562e-05
155	0x3837b064	4.3794877e-05
156	0x379f7489	1.9008543e-05
157	0x37aacc3d	2.0360685e-05
158	0x37a046ce	1.9106457e-05
159	0x377ec2ca	1.5184933e-05
160	0x3885e1a3	6.383962e-05
161	0x384312f2	4.6509267e-05
162	0x3717fd64	9.0592985e-06
163	0x364fe022	3.0975866e-06
164	0x3738bcd9	1.1011224e-05
165	0x36cea505	6.158489e-06
166	0x372790e7	9.987713e-06
167	0x375a0332	1.29945565e-05
168	0x36dc0016	6.556521e-06
169	0x36efb697	7.1440113e-06
170	0x36670b97	3.4428429e-06
171	0x370a68bd	8.249827e-06
172	0x36bcdbe0	5.6284334e-06
173	0x37267c28	9.923278e-06
174	0x36d6e1f4	6.4040014e-06
175	0x36d97736	6.480982e-06
176	0x375b86ba	1.3084786e-05
177	0x371b2f36	9.249712e-06
178	0x37c2610a	2.317179e-05
179	0x37a039cc	1.91004e-05
180	0x383818de	4.3892178e-05
181	0x37902f25	1.7188091e-05
182	0x385921ef	5.1768435e-05
183	0x38213aad	3.8440037e-05
184	0x3860f87f	5.363719e-05
185	0x391737a6	0.00014421213
186	0x38ad41f6	8.261569e-05
187	0x3825c97a	3.9526705e-05
188	0x3793e1b0	1.762886e-05
189	0x3842baa9	4.6427045e-05
190	0x37fb7454	2.9975701e-05
191	0x384d82ec	4.899774e-05
192	0x38246e43	3.9203336e-05
193	0x38031c83	3.1259387e-05
194	0x38689edb	5.5461056e-05
195	0x37e7562a	2.757747e-05
196	0x391698e9	0.00014362078
197	0x3914e0c8	0.00014198117
198	0x38333d9c	4.2734304e-05
199	0x3784688f	1.5784315e-05
200	0x383d6cc3	4.5162404e-05
201	0x37dce091	2.6330616e-05
202	0x3885da0b	6.382548e-05
203	0x3891b0bf	6.94706e-05
204	0x384605d7	4.7212317e-05
205	0x3804311c	3.151699e-05
206	0x376b020a	1.4007566e-05
207	0x38369df7	4.3539298e-05
208	0x37dd080e	2.6349004e-05
209	0x388ac16b	6.61638e-05
210	0x3819bba4	3.6652797e-05
211	0x380d95c0	3.3756485e-05
212	0x381ab635	3.6886155e-05
213	0x37f99e27	2.9756759e-05
214	0x3901ff8b	0.00012397596
215	0x38cbeebe	9.7242635e-05
216	0x37e5c6a5	2.7391428e-05
217	0x3789bead	1.6420463e-05
218	0x3815276f	3.5561094e-05
219	0x37b136e4	2.1125605e-05
220	0x38cf3eab	9.882202e-05
221	0x38ab7fa5	8.177691e-05
222	0x382ecfac	4.1678242e-05
223	0x38166d01	3.5864305e-05
224	0x3762650d	1.3494177e-05
225	0x3838322d	4.391575e-05
226	0x37d03c8f	2.4823732e-05
227	0x3903b041	0.00012558793
228	0x37e73e92	2.7566482e-05
229	0x37e05cdf	2.6746127e-05
230	0x37f7d14e	2.954216e-05
231	0x379a28ed	1.8377288e-05
232	0x392b4c00	0.00016336143
233	0x38c6f360	9.486708e-05
234	0x3721416d	9.611581e-06
235	0x363b0d1f	2.787281e-06
236	0x37350a74	1.07908745e-05
237	0x36e56428	6.8363915e-06
238	0x379e6e7a	1.8886512e-05
239	0x377acbb6	1.4948591e-05
240	0x37296fe1	1.0099234e-05
241	0x37123b5b	8.716098e-06
242	0x3691277d	4.325934e-06
243	0x37392e1c	1.1037595e-05
244	0x36b29993	5.322692e-06
245	0x37a31857	1.9442448e-05
246	0x37243619	9.787757e-06
247	0x3709393d	8.179163e-06
248	0x3742d123	1.16119945e-05
249	0x371d4cf6	9.375848e-06
250	0x37d94aa3	2.5903171e-05
251	0x379cd412	1.8695402e-05
252	0x3804d245	3.166708e-05
253	0x37982a60	1.8139544e-05
254	0x382ad220	4.0726853e-05
255	0x3800494c	3.058584e-05
