runs/BallBalance_11-16-01-15/nn/BallBalance.pth (torch, 172255 bytes, 36 tensors)

value_mean_std.running_mean f8 [1]
00000000: 06b0 15b3 3c3a c13f
0.13458975548144297

value_mean_std.running_var f8 [1]
00000000: dca7 9c96 f7b5 723f
0.004568068639665381

value_mean_std.count f8 []
00000000: 0000 0000 00c2 ab40
3553.0

running_mean_std.running_mean f8 [18]
00000000: 775b d5a7 ae50 a6bf 67da 5483 c83f c73f
00000010: 7426 4524 2128 c9bf e79e c160 400c c3bf
00000020: c8f5 b6ca a630 9abf e88d 97dc dd44 b1bf
00000030: 6ebd ad6a 990c bfbf 6896 ac72 2648 cabf
00000040: e79e c140 b9c2 e63f e0e0 57be 3671 e5bf
00000050: 18c7 3a88 7876 e1bf 6d55 9f8e 2845 b1bf
00000060: ed4c 8a80 ce2f d0bf 0345 314a a437 cabf
00000070: 4c9c f3b5 1bd3 bc3f bdbe 14f0 19fd c13f
00000080: ae83 4edf 5e77 d1bf e013 d6d2 da4b cf3f
-0.043584306704977864 0.18163401043576075 -0.196537153921145 -0.14881138538770886 -0.02557621586105599 -0.06745707164332482 -0.12128599981746443 -0.20532684897732456
0.7112699761173332 -0.670070049061021 -0.5457117710813888 -0.06746152383796807 -0.25291788628346873 -0.20482305166891743 0.11259625618150543 0.1405365392943078
-0.2729108029107533 0.24450240416277236

running_mean_std.running_var f8 [18]
00000000: c16b 7a1d 8316 c73f 3704 963f b086 ab3f
00000010: 443c 5afd 2c27 c13f 3ffb 1d94 38c8 cc3f
00000020: a360 6d36 0271 a23f c761 a2e0 63d4 953f
00000030: 593d 1448 a3ea 903f 6eb2 16b5 a2e6 0640
00000040: aa51 5eb5 3d7c f73f 2f71 8a74 3be0 0b40
00000050: 21e4 9357 fe0a 1340 ed22 8984 3b03 e73f
00000060: 0d7c b6d2 989f ef3f 37ba 242a 2bbd f33f
00000070: 96ea f418 6ef2 723f 224a f281 c765 7a3f
00000080: 03ce 68f3 ecde d03f 387a 1afa 02e4 c63f
0.18037451686254083 0.0537619664783126 0.13400804873205818 0.22486026031762127 0.03601843752284253 0.021318016610708115 0.016520072244984394 2.862615027194173
1.467832287283367 3.4844884018658813 4.760735863114889 0.7191445911967925 0.9882320514187782 1.233683743117252 0.0046257305796709915 0.006444720579696058
0.263606298164831 0.17883336269456307

running_mean_std.count f8 []
00000000: 0000 0000 00c4 9b40
1777.0

a2c_network.sigma f4 [7]
00000000: 287e 2f3d c516 11bd 3c77 17be 05c1 b9bd
00000010: 9a03 cbbd 38d4 0dbc 8022 6dbd
0.04284492 -0.035422105 -0.14791578 -0.09070019 -0.09912796 -0.008656554 -0.05789423

a2c_network.actor_mlp.0.weight f4 [128, 18]
00000000: 5a62 dbbd 4e26 f53d d043 16be 3a7a 13be
00000010: a07a 603d 0a19 603e ad87 1b3d fc09 63be
00000020: c1f7 c23c 3dfb d0bd 897e 1dbe 9fdd 39be
00000030: 7ebc 7e3e 8e2a 88bd f249 413e 4185 ccbd
00000040: 035c 78be a21d d1bc ca50 553c 7902 bd3e
00000050: 23d0 8a3d 3331 07be 857a 0b3e 7142 e73c
00000060: 11ff 363e bad4 203e 32b8 963d e9c1 23bd
00000070: a5de 5e3e c771 b9bd 978b 543e 13e4 86be
00000080: 62f9 82be 5933 b3bd 4bcd 9ebe 168c 383d
00000090: 0984 d03d 35ee 963e 79e2 2f3d 007a 64bd
000000a0: 2efd 5e3e 7769 cabd ee7d 0e3e b7c7 60be
000000b0: 527b 063e 3710 583d 2fbc 9f3d 738b 07be
000000c0: 3025 9a3e a012 04be c4bb cdbd 072c 9cbd
000000d0: 24f7 323e 74d3 65bd 593d 813e 0444 a3be
000000e0: 9d28 66be dd1e 08be 58de 43bd 04cf da3d
000000f0: 0015 263d f3b3 2c3e deff 27be 1ce1 bfbd
00000100: a01b 1a3e 70a2 14bd 89eb d13d 0a8f 18be
00000110: 0b3d 6a3e 6d4c 77be 7916 abbc 21ab b9bc
00000120: 76cf e43d 769a 24be 3c61 2b3e 24b8 5e3e
00000130: a187 32be b6db 1abe e15a 0f3e c8e7 80bd
00000140: 056c 85be 5da1 07bd 4cc5 d9bd fef4 ce3d
00000150: a6b6 11bd 5509 26be fcb9 273e 59a4 08be
00000160: a084 58bd 72d6 86be 1a99 08be d355 7dbe
00000170: 713a 713e fe47 c53d 79dc 423d d02a 0bbe
00000180: 68cf 06be 1271 a2bd 2971 6d3c 87c0 1ebe
00000190: 7913 80be 792b bebc b112 c9bd bb52 bcbd
000001a0: ca52 813d 1372 47bd 742c 04be 8c22 14be
000001b0: 3652 a5bd 2ba5 9cbe b641 403e b20c 933c
000001c0: 1dd3 713e 5545 473e d518 30be d61f 823e
000001d0: 7a87 453c caab cabd 52c8 73be e4e5 2fbe
000001e0: de59 f73d 35d4 26be 244e f73d 462b 18be
000001f0: 7a36 0b3e d61b d2bd 1800 b63a d900 23bd
00000200: c5cc 0f3e 4014 9b3d 0637 a23e 9a07 04be
00000210: 36ee d23d ef54 59be 5521 28bd 8941 f7bc
00000220: 9a18 383e c2d6 1ebe 1894 2c3e a5d3 453d
00000230: 1d08 85bd eef6 d0bd 2112 193e 8095 9cbd
00000240: 55b0 dc3d ddb1 98be e8e6 e73d b89d b8bc
00000250: 250b 3dbd 8bcc 803e 15e3 bd3c a05a 20bc
00000260: 47db e2bd 6948 c43d 9d9e d43d bf60 ad3d
00000270: bbc5 17bd 9575 e1bd cc69 65be 5607 783e
00000280: fcd5 603e 7f0f 4abe 0486 e23d 59e6 923d
00000290: 2e63 45bd 1007 093d 65ea eb3d e1f1 5b3e
000002a0: cfbc 5f3e f240 0eba d062 aa3d 5d5b db3c
000002b0: b638 12be 1a53 0bbb 811b 253e d6c2 393e
000002c0: dc2d 543d 5a93 19bd 673d 633d 1c97 3f3d
000002d0: d8d2 343e 3f2a f1bc 9f6f 6fbe 4acd bf3d
000002e0: bb89 2f3e c014 173e d24f 083d 4c88 e2bd
000002f0: 1aa6 68bd 64cb 86be b92e 72bd ea52 e73d
00000300: f3c3 d93d d025 6b3d e01f 49be 4208 efbd
00000310: 37ae fa3c 8d7e 5d3e 2f9b 08be 2698 a33d
00000320: 544f 5b3e a8a4 9dbe f9f3 60be 8b53 0a3c
00000330: e0e5 80be 3ce1 edbd 2f0b 5cbe 4dbc 1f3e
00000340: 0fe3 4f3e c804 b33d e1b4 4ebe c280 94be
00000350: 3176 24be 2c60 853e f2e1 a1bd 29e3 743e
00000360: 055d 6b3e 3d28 96bd b187 9e3d 129b e9bd
00000370: d2bd 39be 6521 2cbe 7de7 f03c be02 5dbc
00000380: a62e 29be e0a9 b0bc bc6e b8bd 669c 9cbb
00000390: 5389 56be 4f2f 4abd a007 973c 69a4 8a3e
000003a0: 1ee0 153c d13a a1be 7463 c93d abe9 26be
000003b0: dfb5 c9bd 0d8f f7bd 8707 5b3e a1fa a6bd
000003c0: 6c11 2e3e b7df 1e3e 797b 353e 8ac5 36be
000003d0: 85db ad3d db57 ddbd d95f 5b3e a38b f83d
000003e0: 829d 10bd c22e e33d e903 9f3c 3579 13be
000003f0: a478 6e3e 443f aebe e9c3 dc3d 8602 b73e
-0.107121184 0.11970197 -0.14674306 -0.14402094 0.054804444 0.21884552 0.037971187 -0.22171777
0.023799779 -0.1020417 -0.153803 -0.18150948 0.24876592 -0.06648742 0.18875864 -0.09986354
-0.2425385 -0.025526825 0.01301975 0.3691595 0.0677798 -0.13202362 0.13620956 0.028229924
0.17870738 0.15706149 0.07359351 -0.03997985 0.2176462 -0.090549044 0.20756374 -0.26345882
-0.2558089 -0.08750028 -0.31016 0.04505547 0.10181434 0.29478613 0.04294059 -0.05578041
0.21776268 -0.09883397 0.13915226 -0.21951185 0.1313298 0.05274984 0.07799565 -0.1323679
0.30106497 -0.1289773 -0.10045579 -0.07625585 0.17477089 -0.05610986 0.25242117 -0.3188783
-0.2247643 -0.13293023 -0.047819465 0.10684016 0.04054737 0.1686552 -0.164062 -0.09369108
0.150496 -0.036287725 0.10250003 -0.14898315 0.22874849 -0.24150248 -0.02088474 -0.022664608
0.111723825 -0.16074547 0.1673631 0.21749932 -0.17434551 -0.15122876 0.13999511 -0.06294209
-0.26058975 -0.033112872 -0.106333345 0.10105322 -0.035574578 -0.16214497 0.16379541 -0.13343944
-0.052860856 -0.26335484 -0.13339654 -0.2473977 0.2355745 0.09632872 0.04757354 -0.1359055
-0.13165057 -0.07931723 0.0144923115 -0.15503131 -0.25014856 -0.023214089 -0.09818018 -0.09195467
0.06314619 -0.048692774 -0.12907583 -0.14466304 -0.08072321 -0.30594763 0.18775067 0.01795039
0.2361569 0.19460042 -0.17196973 0.25414914 0.012056226 -0.098960474 -0.23806885 -0.1717754
0.12077688 -0.16291888 0.12075451 -0.14860258 0.13595 -0.102592155 0.0013885526 -0.03979573
0.14042957 0.07572222 0.31682605 -0.12893525 0.102993414 -0.21223806 -0.041047413 -0.030182617
0.17978135 -0.15511611 0.16853368 0.048297543 -0.06495688 -0.10203348 0.14948322 -0.07645702
0.1077582 -0.298232 0.11323339 -0.022536144 -0.046153206 0.25156054 0.02317957 -0.009787232
-0.1107698 0.09584124 0.103818156 0.084657185 -0.037053805 -0.11008755 -0.2240364 0.24221548
0.21956629 -0.19732474 0.11060718 0.071728416 -0.04819029 0.033454 0.115193166 0.21478988
0.21849369 -0.0005426548 0.08319628 0.026776964 -0.14279446 -0.002125925 0.16123773 0.1814073
0.051801547 -0.03749404 0.05547848 0.04677497 0.17658556 -0.02943909 -0.23382424 0.09365328
0.17142384 0.14754009 0.033279248 -0.11061153 -0.05679903 -0.2632705 -0.05912659 0.112951115
0.106330775 0.057409108 -0.19641066 -0.11671497 0.03060065 0.21630307 -0.13340448 0.079880044
0.2141698 -0.30789685 -0.21968068 0.00844277 -0.2517538 -0.11615226 -0.21488641 0.15599175
0.2030146 0.08741146 -0.20186187 -0.29004484 -0.16060711 0.26049936 -0.07904424 0.2391478
0.22984703 -0.073318936 0.07740725 -0.114065304 -0.18138817 -0.16809614 0.029407257 -0.013489423
-0.16521701 -0.021565378 -0.09005496 -0.0047793863 -0.20950823 -0.049361523 0.018436253 0.2707856
0.009147672 -0.31490186 0.09833422 -0.16300075 -0.09849142 -0.12087832 0.2138959 -0.081532724
0.16998833 0.15515028 0.17722882 -0.17848793 0.08489136 -0.10807773 0.21423282 0.121360086
-0.03530646 0.11092903 0.019411044 -0.14401706 0.23288208 -0.34032643 0.107795544 0.35744113

a2c_network.actor_mlp.0.bias f4 [128]
00000000: 4fa8 db3c b2f2 b23d a9f8 423d 9c60 babc
00000010: 7fbe 24bd abc6 05bd 73d2 41bd d244 cebc
00000020: 228e 0bbd d32a c1bc e8da cabd 0431 aa3c
00000030: fc55 423d 772e 053e b1d5 8b3d 81f2 1abd
00000040: 86c3 b8bc 67e3 d6bd 2fa2 d3bd cfea 34be
00000050: b67d 953c 3569 8b3b d8bd 60bd e4ae 3abe
00000060: 0ffa 8a3c fedc a63d 1dd0 26bd 66c2 39bc
00000070: fd26 ebbc 6ba6 073d 7e86 0e3d 2aa0 5e3c
00000080: 1948 20be 027d 043e 2811 f5bd afeb 91bd
00000090: b470 0dbd d340 11be 91be 45bd 7d6e 8b3c
000000a0: 7f43 0539 2be3 cebc 713c 89bd ed74 cebc
000000b0: 7eaa 653c fe2b f23c f43a 2ebe bc9c 383d
000000c0: 0813 dc3b b350 52bc 8092 fdbd 418c 03be
000000d0: 9520 9ebe be94 c33b 0b9b 463d 9232 b3bd
000000e0: 7cce 1bbe a208 d7bc f8b8 253e 5415 22bd
000000f0: 691e ad3d 777b 803c a4f8 67bd 5edc 053d
00000100: 0a59 303d 600f cc3c f207 50bc a891 dfbc
00000110: 0b06 b13d ab40 363c 329f 07be 3c96 5cbd
00000120: aa16 8fbd 1e86 c83c 1fe7 773d e250 9abd
00000130: 4bcd ae3d 927c 8abd c7b5 67bc f0e0 84bc
00000140: 8924 2ebd d38a af3d 1a3f 7dbd 626d 853d
00000150: 4514 38be a47e d0bc 9bdb 553d 60b7 0e3e
00000160: 9dea 1cbd 5b9b 07bd 4c1b 793c f2c4 95bd
00000170: 937c 523e 7d38 15be 78d2 90bb 065c 15be
00000180: 7743 ac3d b463 6dbe 48f5 c7bd 567b e73d
00000190: b1ea 0d3b 7f0a 91bd 0a81 3dbd 916f 94bd
000001a0: c604 c23d 90a8 3bbb 5cf6 e9bc ed12 6fbd
000001b0: 900d a53d 7e17 79bc 5638 60bd b22a e1bc
000001c0: 719b 5abe 3b1b 1bbe 8417 f33c 8df3 733d
000001d0: 50b3 4a3d 24a5 46be 372d afbc 70cd a63d
000001e0: da93 83bd 9718 f8bd 133e 54bc cb7c 5dbd
000001f0: ef58 1dbd 60a8 a9bd d29b 2b3d 82f0 61bd
0.026813654 0.08737697 0.047600422 -0.022751145 -0.040220734 -0.032660168 -0.04731984 -0.0251793
-0.034071095 -0.02357999 -0.09905034 0.020775326 0.047445282 0.13006006 0.06827868 -0.037828926
-0.02255417 -0.10492592 -0.103336684 -0.17667697 0.01824842 0.004254485 -0.05486855 -0.18230778
0.01696494 0.0814762 -0.040725816 -0.011337852 -0.028705114 0.033117693 0.03479623 0.013587991
-0.15652503 0.12938312 -0.11966163 -0.07125031 -0.03453131 -0.14184885 -0.04827744 0.017020458
0.00012709013 -0.025254807 -0.067009814 -0.025202239 0.014017699 0.029561993 -0.17014676 0.04507135
0.006716136 -0.012836623 -0.12381458 -0.12846471 -0.30884233 0.005968659 0.048487704 -0.0874988
-0.15215486 -0.026249234 0.16183841 -0.03957112 0.08453066 0.015683873 -0.056633607 0.03268086
0.043053664 0.024909675 -0.012697207 -0.027291134 0.08643731 0.0111238165 -0.13244322 -0.053854212
-0.06986745 0.024478015 0.06052315 -0.075349584 0.0853525 -0.06762041 -0.01414246 -0.01622054
-0.04251531 0.085714005 -0.061827756 0.06515004 -0.17976482 -0.025451012 0.052211385 0.1393714
-0.038309682 -0.033107143 0.015204262 -0.07312955 0.20555334 -0.1457233 -0.004419621 -0.14585885
0.084113054 -0.23182565 -0.097635806 0.11302821 0.002165478 -0.0708208 -0.04626564 -0.07247842
0.09473567 -0.0028634407 -0.028559856 -0.05836766 0.080592275 -0.015203355 -0.054741226 -0.027486179
-0.21348359 -0.15147106 0.029674299 0.05955844 0.049487412 -0.19398934 -0.021383865 0.08144653
-0.06424685 -0.12114065 -0.012954253 -0.05407409 -0.03841489 -0.08284068 0.04189665 -0.055161007

a2c_network.actor_mlp.2.weight f4 [64, 128]
00000000: 89e6 f53c c2cc 683e 2f41 6d3e 9784 d73c
00000010: 9c95 da3a f1ee f8bd dd2f 3cbd 0ed0 ca39
00000020: b476 ddbb c6eb 1abc 8594 8c3d 3793 e5bc
00000030: ddfb ce3d d058 e83d 50da 9abc 1f70 d4bc
00000040: b087 f73d 4bff a0bd 630a cc3d a20a 2fbd
00000050: 347b d8bc f489 ffbd ef2a 59bd 6d1a 003d
00000060: c2e6 b1bc 4daf 853d 0e1b 933d 3b34 663d
00000070: 1d48 573d 5d1c 1abb 3acc 623d 8da7 813d
00000080: 7736 513d 5478 063e abf4 24be 2694 debc
00000090: 1a86 193d 82c3 b83c adbf 46bc 8c38 463c
000000a0: 8ba1 29bb ad66 c33d 48a6 73bd 5e5f 97bd
000000b0: 4599 863d 801f 893c 4d52 463d 36db e23d
000000c0: faaa dc3d 3e16 c7bd 5fcf cb3d 4c18 cfbd
000000d0: 94f6 d9bd 1019 24bc 424a 90bd ee7a 3dbd
000000e0: a7eb 3abd 0eba ef3d 5d63 1c3e b763 76bd
000000f0: 324d 9b3d 0519 0d3e 5af0 00bd 279e 1e3e
00000100: 328c 393e 58e4 4c3d 315b e83d cffc af3c
00000110: 2dad 3dbd f7a8 c73d 390a 0b3d 0b27 15be
00000120: 069e 2bbe a97f 553e adb1 a83c 5d27 f63d
00000130: c41d 3c3e 4485 f2bc 6e4b 523d 02c0 3c3d
00000140: 08ce 483d 513e 2abc e7e3 22bd ddda d13d
00000150: 2728 153d d621 d53b 00b9 c13d 8028 313e
00000160: d624 a1bc c7fd 3d3d 64a5 293d 0b53 433c
00000170: 656c cb3d 21ae d03d 15c5 643e 9def 33bd
00000180: d559 0a3e eca8 69bd 580b 0fbe b374 86bd
00000190: 900b e93d 6f3f 293e f9f8 c63d 0656 05bd
000001a0: 6aa9 bc3d 1d7d e53a f1f7 dfbc cd7f f63d
000001b0: d3f0 abbc 7f9f 4abd 0c7b 5abd 5782 593e
000001c0: cecc 33bd b541 d5bd ed51 fa3d 2022 f1bc
000001d0: b16d 033e 5204 b23d 142a 113d 6233 c9bc
000001e0: 5de7 c03d b040 c33b 46f1 07bd b422 853d
000001f0: edab e2bc 983b 0c3e a307 b73d 3194 eebc
00000200: 6bb9 cbbd 2531 ac3c 4e19 253e 1c88 93bd
00000210: 4854 b13c afbe 1fbe 4561 1cbe cbf9 9f3d
00000220: 92ad 35bc c17b 693d 728f 4e3d a4c5 9ebd
00000230: 0022 32bd 3fe7 893d cbbb 983d 8d53 483c
00000240: a25f ca3d 148d 923c 3891 613d d11d bf3d
00000250: 6e94 003d 9905 4fbd 49d0 7fbd c845 f7bc
00000260: f215 a4bd f0da f73d 4462 a4bc 95d2 873d
00000270: 4691 f7bc 7620 203d 596e 743d 32c2 a63c
00000280: 469b c13c 4a72 f2bc 3e33 083d 74e9 79bc
00000290: d656 52bc cc51 34bc 9e8b 8e3d 7360 893d
000002a0: 7886 1b3d 863e 93bc e7f4 be3b 1c4d 0fbe
000002b0: aad6 7cbd 3a15 bfbd a462 383b 6d90 d43d
000002c0: e1c1 b13c 1a95 39bd b421 873c aa09 bcbd
000002d0: 4352 f6bb b2a1 033c 0ea8 603d 1679 41bc
000002e0: 6ae7 153d 279f 2d3d 5ee7 f83d f49a 15bd
000002f0: 095f dc3b 435b 973d 4bbd 2fbd 5b98 b63d
00000300: dbcf a53d a04c 6e3d e40e 373d bb28 fa3d
00000310: c529 3dbd 018a ee3c 6c47 14bc d9e5 c8bd
00000320: 510b debd 2f72 9d3d 6d34 1cbd 3fd4 f3bc
00000330: 331d 8dbd d227 9abd 7d55 d6bc 7b2e 5bbd
00000340: 9b92 063d e3be d63b 595f 93bd 1986 133e
00000350: cc67 51ba ba05 da3c 832b 95bc 9e3b 82bd
00000360: 7a45 35be 463c e63d 6b59 343b 9638 3dbd
00000370: 3cd4 7f3d e2db 2e3e 5a16 423d b478 55bc
00000380: a150 583d 4257 15bd 96d0 07be 67ec c5bd
00000390: 286d 9b3c a63e 103d fc0f bf3d 7e13 7ebd
000003a0: fc58 103d 7a7f 62bc 4958 05bd 6e85 083e
000003b0: 3857 15be e6de f6bd 1997 28be edca 0c3e
000003c0: f20f c73d ad87 123d b937 3e3d 37ca e2bd
000003d0: cca4 583e f83f 1abc 4df2 243e 1b62 4fbd
000003e0: adfe 10bd 45aa 7ebd 1818 fb3d 4c1d 3bbd
000003f0: b142 58be c83f 4d3e 282a 86bd 2f4d 2fbd
0.030017154 0.22734359 0.23169397 0.026308341 0.0016676667 -0.121549495 -0.045944083 0.00038683455
-0.0067585353 -0.009455627 0.06864265 -0.0280243 0.10106633 0.11345065 -0.018902928 -0.02593237
0.12086427 -0.07861193 0.099629186 -0.04273475 -0.026425935 -0.12477484 -0.05301946 0.0312752
-0.02171648 0.065275766 0.07182895 0.056202155 0.052559007 -0.002351544 0.055370547 0.06330786
0.051077332 0.13131839 -0.16108958 -0.027170252 0.037481405 0.022554163 -0.01213066 0.012098443
-0.002588364 0.09541068 -0.05948475 -0.07391237 0.065722026 0.016738653 0.048418332 0.110769674
0.10774799 -0.09721039 0.09951662 -0.10112056 -0.10642734 -0.010015741 -0.070454136 -0.046259813
-0.04563489 0.11705409 0.15272279 -0.06015369 0.07583083 0.13779075 -0.031479217 0.15490018
0.18119887 0.050022453 0.113455184 0.021482853 -0.04630773 0.09749024 0.033945296 -0.14565675
-0.167595 0.2084948 0.020592535 0.12019227 0.1837073 -0.029604562 0.051341467 0.04608155
0.04902461 -0.010390834 -0.039768126 0.10246823 0.036415245 0.0065042777 0.09459114 0.17300606
-0.019670885 0.0463846 0.041417494 0.011921654 0.09932784 0.101894625 0.22340806 -0.043929685
0.1351083 -0.057045862 -0.13969171 -0.06565227 0.113791585 0.16528104 0.097154565 -0.03255274
0.09212001 0.00175086 -0.027339907 0.12036095 -0.020988857 -0.049468514 -0.053340003 0.21241127
-0.04389649 -0.10412923 0.12222657 -0.029435217 0.12834813 0.0869223 0.03544052 -0.024560634
0.09419129 0.005958639 -0.03318908 0.0650076 -0.027669871 0.13694608 0.089370035 -0.029123398
-0.09947475 0.021019528 0.16122934 -0.07203695 0.021646634 -0.15600084 -0.1527148 0.07811316
-0.011088746 0.057002787 0.05042977 -0.07752541 -0.043489456 0.0673356 0.07457694 0.012226951
0.09881522 0.017889537 0.055070132 0.09331859 0.031391554 -0.050542448 -0.062454496 -0.030184641
-0.08011998 0.12102306 -0.020066388 0.06631962 -0.030220639 0.039093457 0.05967555 0.020356271
0.02363361 -0.029595513 0.033251993 -0.0152534135 -0.012838086 -0.01100583 0.069602236 0.06707849
0.037970036 -0.01797415 0.0058275345 -0.13994259 -0.061728157 -0.093302205 0.0028134966 0.103791095
0.021698894 -0.04530821 0.016495563 -0.09181531 -0.0075171306 0.008034157 0.05484777 -0.011808654
0.036597647 0.042388108 0.12153505 -0.036524728 0.0067251963 0.07390454 -0.042905133 0.08915778
0.08096286 0.058178544 0.044691935 0.122148 -0.046182413 0.02911854 -0.009050231 -0.09809465
-0.10842002 0.076877944 -0.038135935 -0.029764293 -0.06890335 -0.07527126 -0.02616381 -0.053511124
0.032854658 0.006553517 -0.071959205 0.14406623 -0.0007988184 0.026614059 -0.018209225 -0.06359027
-0.17702284 0.11241965 0.0027519118 -0.046196543 0.06245826 0.17076066 0.047384597 -0.013029266
0.05281127 -0.03646017 -0.13263163 -0.09664231 0.018972948 0.035215996 0.09329221 -0.062030308
0.035241112 -0.013824338 -0.0325549 0.1333215 -0.14584053 -0.12054233 -0.16463889 0.13749285
0.09719838 0.03577392 0.04643986 -0.11073726 0.21156615 -0.009414665 0.16108055 -0.05063067
-0.035399128 -0.0621741 0.12260455 -0.045682237 -0.21119191 0.20043862 -0.065510094 -0.042798217

a2c_network.actor_mlp.2.bias f4 [64]
00000000: 3eaf 013d a08f b1bd 9ea0 763d 4477 efbc
00000010: 0d09 01be 0d4b 09be 4bad 99bd 30a8 cabd
00000020: ab9b 263c a012 babd bff5 05be bdcf 8ebd
00000030: 474d 95bd 2eae cebd 2da6 873d b136 0c3c
00000040: 4267 b63b 1b28 9dbd ff7f a93b 4308 8bbd
00000050: 64d5 6bbd 8d34 24bd a6dc a6bb 4175 1cbe
00000060: 3da5 a3bd c66f 60bc 9493 a8bc 87d9 cdbd
00000070: 56ca 23bd cfef 583d f00e b9bc f4d1 213d
00000080: 1e56 17be fa57 06be 7e94 00be e91e 783d
00000090: 263a 7fbd baf3 7dbd a9db 19be 516a 78bd
000000a0: 8f8d 903d 1f15 16bd 8f8d 16be 3e98 993c
000000b0: fd21 c8bd 839e 0dbe 6095 c2bd 596d 32be
000000c0: bb2f 8b3c bdfa 4abd cc8c f53c b249 abbb
000000d0: dd33 4ebd 041b 84bc e8f7 64bc f1f1 17bb
000000e0: a9fd d2bc d867 9bbc 74db 003d e52f 8bbd
000000f0: 469d c33c 79e2 92bc 8e4a 23be d73a 87bd
0.031661265 -0.086699724 0.06021177 -0.029231675 -0.12601109 -0.13407536 -0.07503756 -0.098953605
0.01016895 -0.09085584 -0.13082026 -0.06973217 -0.0729013 -0.10091816 0.066234924 0.008557961
0.0055665085 -0.07673665 0.005172729 -0.06788685 -0.057576552 -0.04008918 -0.0050922213 -0.15279104
-0.07990501 -0.013698524 -0.020578183 -0.10051256 -0.039987884 0.052963074 -0.02259013 0.039506868
-0.14778945 -0.13119498 -0.12556645 0.060576353 -0.062311314 -0.062000014 -0.150252 -0.060648266
0.0705825 -0.036641236 -0.14702438 0.018749353 -0.09772108 -0.13829999 -0.09501147 -0.17424525
0.016990533 -0.04955553 0.029974364 -0.005227291 -0.05034243 -0.016126163 -0.013975121 -0.002318498
-0.02575572 -0.018970415 0.031459287 -0.067962445 0.023878705 -0.017930256 -0.15946409 -0.0660302

a2c_network.actor_mlp.4.weight f4 [32, 64]
00000000: edd3 a23d 4552 a93d 96bc 83bd 4760 323d
00000010: 049e 043c 2eed 863d f0a7 153d 3d41 e7bd
00000020: 4e61 c8bd ac3e a4bd 592d ed3d 1477 683d
00000030: 99fb a5bd 8a34 a83d 1265 19be 9f16 21be
00000040: 5a9f 86bd 4e44 a73d 28a7 49be c0e7 5bbd
00000050: 2e06 173d adfa 253b 9ab2 613d edc2 62bd
00000060: 56af bdbd aca9 90be 6dfb bf3d c526 e5bb
00000070: 2d00 b63c 3e1e c7bd 79b0 933d c82d d7bc
00000080: ae4e 803d 877c 223d a81e ba3c e099 103c
00000090: 784d c93d 5bd3 0c3d b381 aebb fbd9 213d
000000a0: 7353 a7bd 9a07 6a3b d2ea 863d 225b f73d
000000b0: 0d61 333d 9c42 1a3d b0f6 903d 7bf7 d33d
000000c0: 704a e83d 8e53 6bbc 2e76 a2bc 7837 abbc
000000d0: fe87 b5bd 1899 99be b3b1 dbbb 9817 f3bd
000000e0: 6ddf 73bd f2de 9e3c 083e 4dbc 6391 c93c
000000f0: 7653 acbd e7d0 613d 3722 003e a795 37be
00000100: 46dc f03d da64 94bc 29de 2ebd bb46 0ebe
00000110: 8c0d 563c ceaf 06bd 4a1f c2bd ee8f b33d
00000120: d4fc 05be 6df9 f3bd c289 e83d 2414 45bc
00000130: 329c a53d c319 abbc 6cec f9bd 37b7 84bd
00000140: 0431 c1bd 43eb 0dbe 18f1 0a3c c455 8a3d
00000150: c735 a7bc 03d8 89bd baa9 aebc f6e4 f6b8
00000160: 4ce0 4bbc 8202 d7bc 5145 833d 6b7d 2c3d
00000170: 0346 8a3d f8e3 383d 9336 e3bd 4eb7 c33d
00000180: 4238 1fbc 0406 f63b a30c 5dbd e5aa 083e
00000190: 982a 67bd 4b10 71bd 4938 05be 6c77 063d
000001a0: eed1 eabd 48c5 91bc 6348 0f3d dc78 66bc
000001b0: 5b6a 69bb e7ac ae3d cf89 8ebd fa60 abbd
000001c0: 214a 62bb 108c adbd b87d 20be f84a 5ebd
000001d0: affa d6bd 85b7 1fbd a1f6 933d f128 4a3d
000001e0: 8447 74bd c92d 89bd 5212 96bb b9c9 7c3b
000001f0: fa2d 803c 4c4a 3b3c 5b10 99bd 4a69 dfbd
00000200: cef1 cd3d 733a e03c d7b9 023e 09f4 313e
00000210: 88ad 5ebe cd26 0abe 6373 4b3e 0f94 5f3d
00000220: aea1 a6bd bc40 0ebe 4cb0 a33d 284f 0f3e
00000230: 3d48 1ebd 5b97 2b3e e67f 0cbd 8679 e83d
00000240: bc99 823d ee92 283d e069 ffbd 587d 2bbe
00000250: 23d6 8d3e 9f8d dd3d 7536 05be a0c7 e93d
00000260: 28be 55bd 5397 2f3d c4a0 51bc e3bf 9fbd
00000270: 4df4 24bd 8926 873d e542 59bc f881 e83d
00000280: 54d7 3e3d 52c0 823d 9bda 5c3e ce71 023e
00000290: 9094 973d b954 26be a5f3 d1bd 7c8b 0dbd
000002a0: 4b23 233e e096 123d db66 bc3d 86f4 68bd
000002b0: 923a d8bd 7ac1 103d 4d47 313e 1753 34bc
000002c0: 1f9c 123d 3684 ba3c fec2 95bd 5ae9 9abd
000002d0: 34f3 99bd d645 49be be43 b43d 2042 8e3c
000002e0: 7425 0e3e daff 1f3e 73a8 d7bd 62b8 0dbc
000002f0: fed8 0c3e 421c 33be 844d bdbc cf33 48bd
00000300: 085f e2bd b828 9cbd e177 d43d 805c 89be
00000310: 0e19 9dbd 75ee bb3c 5357 2e3d 510c 973e
00000320: 2513 e5bd 8a8d 0c3d 8ec6 34be cbc4 423e
00000330: 2641 f53b 9506 18be c0a8 573d b1c7 ce3d
00000340: a984 51be 4f0b e73d 10d1 7b3d cddc 45bd
00000350: d8ef 0d3e 7a43 cd3d e045 2b3c 74b4 333e
00000360: 04b4 853e 2dac d23d 9a54 25bd 19eb f03c
00000370: 983c 4cbc aa9e 453d b640 79be a165 b3bc
00000380: a44b 7a3d 8c16 b33c 3440 403d d17c bbbd
00000390: 6e42 04be a1b9 5fbe 9745 1ebd 0bfa ecbd
000003a0: e164 0cbe 75c1 c3bb cfde 873d 97a3 1d3e
000003b0: 683d 5fbe 7518 483e 177f 293e 0f1e 7c3d
000003c0: 837e b4bc f8d2 16be 29f5 16be 0015 d63c
000003d0: a034 dfbb 5e6d 343e 4d86 b43c 7516 843d
000003e0: 613a 093e c2d1 a4bd 612e 3ebe 6332 8b3e
000003f0: d72d b73d de2b 22be b98a eebd dd6d 66bd
0.07950578 0.08267645 -0.06432454 0.04354885 0.0080943145 0.06588207 0.03653711 -0.1129174
-0.097841844 -0.08019766 0.11580915 0.056754187 -0.08104629 0.08213146 -0.14979962 -0.15731286
-0.06573363 0.08167325 -0.19692671 -0.05368781 0.036871128 0.0025326416 0.05510197 -0.055361677
-0.09261958 -0.2825445 0.093741275 -0.006993147 0.02221688 -0.09722565 0.07211394 -0.026266947
0.06265007 0.03966954 0.022719696 0.008825749 0.09829229 0.03438125 -0.00532552 0.039514523
-0.081702136 0.0035710097 0.06587757 0.12077929 0.043793727 0.03766118 0.07078302 0.103499375
0.11342323 -0.014363183 -0.019831743 -0.020900473 -0.08863829 -0.29999614 -0.006704533 -0.118697345
-0.059539247 0.019393418 -0.012526996 0.024605459 -0.084143564 0.055130865 0.12513052 -0.17928182
0.11760764 -0.018114496 -0.042692337 -0.13894169 0.013064753 -0.032882504 -0.09478624 0.08767687
-0.13084728 -0.119128086 0.113544 -0.012028728 0.080864325 -0.020886308 -0.12203297 -0.06480258
-0.09433177 -0.13859276 0.008480333 0.0675464 -0.020411385 -0.06730654 -0.021321166 -0.000117728414
-0.012443613 -0.026246313 0.064097054 0.042111795 0.06751635 0.045139283 -0.110943936 0.09556447
-0.009718003 0.0075080413 -0.05396713 0.13346441 -0.056437105 -0.05885343 -0.13009752 0.032828733
-0.11465822 -0.017794266 0.034981143 -0.014066901 -0.0035616371 0.08529072 -0.06959879 -0.08368106
-0.0034529048 -0.084739804 -0.15672958 -0.054270715 -0.10497033 -0.038993377 0.07224775 0.04935545
-0.059638515 -0.06698186 -0.0045798207 0.0038572385 0.015646923 0.011431288 -0.07473823 -0.10908754
0.10055886 0.02737162 0.12766205 0.17378248 -0.21745884 -0.13491364 0.19868235 0.05458456
-0.08136307 -0.13891882 0.0799261 0.1399504 -0.03864311 0.16756956 -0.03430166 0.11351304
0.06376979 0.041155748 -0.12471366 -0.16747034 0.27702436 0.10818028 -0.13009055 0.114150286
-0.0521833 0.042868923 -0.012794677 -0.07800271 -0.040272046 0.06599147 -0.013260578 0.113529146
0.04659207 0.063843384 0.21567766 0.12738726 0.07401383 -0.16243257 -0.1025155 -0.03455685
0.15931432 0.035788417 0.091993056 -0.05687382 -0.105580464 0.035340764 0.17312355 -0.011006138
0.03579342 0.022768121 -0.073125824 -0.075640395 -0.075170904 -0.19655547 0.08801983 0.017365515
0.13881475 0.15624943 -0.10530176 -0.008649917 0.13754651 -0.17491248 -0.023108251 -0.048877534
-0.11053282 -0.07624954 0.103744276 -0.26828384 -0.076707944 0.022940854 0.042563748 0.29501584
-0.11185292 0.03431467 -0.17653868 0.19020383 0.007484573 -0.14846261 0.052651167 0.10096682
-0.20460762 0.11281454 0.061478674 -0.048306275 0.13861024 0.10022636 0.010453671 0.17549306
0.26113904 0.10286746 -0.040363885 0.029408978 -0.012465619 0.048247017 -0.24341092 -0.021899046
0.061107293 0.021861337 0.04693623 -0.09154666 -0.12915966 -0.21848156 -0.038640585 -0.115711294
-0.13710357 -0.0059739896 0.06634294 0.15394436 -0.21800768 0.1954058 0.16552387 0.061552104
-0.022032982 -0.14728916 -0.14741959 0.02613306 -0.0068116933 0.17619845 0.022036696 0.06449596
0.13401176 -0.08047821 -0.1857238 0.2718688 0.0894429 -0.15837047 -0.11647553 -0.056257118

a2c_network.actor_mlp.4.bias f4 [32]
00000000: a68a e6bd 74d6 293c bd9b 393d 3681 83bd
00000010: 776b b1bd a33a bd38 f48e 8e3c 8868 f3bd
00000020: 1a88 ea3c f5cd 33bd 1511 de3c bcd1 7abd
00000030: be8a fabd 6f0f 5cbd 54aa 95bd 407d 1ebd
00000040: 4276 a73c c562 4e3d 0d3d 47bd b1d1 c3bd
00000050: ec9b babd 5b9d 8a3c 4850 9ebd bffc 49bd
00000060: 4d83 9cbc 344b 7cbb ddc1 b9bd b6b6 68bd
00000070: b1ba 9d3a d9c2 f3bb ca22 b7bd 4c46 71bc
-0.11256914 0.010366071 0.04531454 -0.064211294 -0.086630754 9.023144e-05 0.01740215 -0.11885172
0.028629351 -0.043897588 0.027107755 -0.061235175 -0.12233494 -0.053725656 -0.07307878 -0.038693666
0.020442132 0.050387163 -0.048642207 -0.0956148 -0.09111771 0.016920736 -0.07730156 -0.049313303
-0.019105578 -0.0038496973 -0.090701796 -0.05681487 0.0012033788 -0.007438999 -0.08942182 -0.014726233

a2c_network.value.weight f4 [1, 32]
00000000: 2262 36bc aefb b53d 39ca 9ebc 96e5 d33d
00000010: c78c 2a3c ab77 863d 4212 343d b833 7ebc
00000020: db06 5f3d 4c11 ea3d 1276 dc3b 0a2b 04bd
00000030: 62c2 ecbc efb6 45bc 8718 23bc e5a8 873d
00000040: d707 34bd 3a0f a83d e842 103c 4b4c 403c
00000050: 97bd 293d c450 123d cc0e 933d 8609 093d
00000060: 8ab3 833d 6726 49bb ee8b 62bd 9dc5 b43b
00000070: d0a4 82bc 565c 9c3c 8654 1bbd c760 823c
-0.011131795 0.08885895 -0.019383537 0.103465244 0.0104095405 0.065657936 0.043962725 -0.01551526
0.054449897 0.1142908 0.0067279423 -0.032267608 -0.028901283 -0.012067541 -0.009954578 0.06624011
-0.04395279 0.08206029 0.008805014 0.01173694 0.041440573 0.035721555 0.07180557 0.033456348
0.06430729 -0.0030693056 -0.05530923 0.0055167214 -0.01594773 0.019086998 -0.037922405 0.015915288

a2c_network.mu.weight f4 [7, 32]
00000000: d5ac 45bd 6841 893b d1dd 88be d86a d9bd
00000010: 9b50 873e 22fe 0abe 7bb4 6dbe 2859 80bd
00000020: 2b25 c3bc 0756 4d3e c405 ff3c 6547 303e
00000030: b437 2cbd 4d21 5a3e a40d 963d 66ea 43bd
00000040: 82e3 c3bd c2c5 b8bd 6294 57bd 8b3b 30be
00000050: 49e2 563e af4d fcbd 4c54 9b3d 3b20 b93c
00000060: 3ba1 eebd fd34 243e e01e 49be 2a4c 04be
00000070: 7423 22bd cfd7 2fb9 ab76 9c3c 2f89 13be
00000080: 1c26 303d 5b1a c03d c43b c3be a5ac ddbd
00000090: 17e5 2d3e 9119 1ebc 22fc 7cbe 94ff 82bc
000000a0: 643f 92bd 4355 42bd 1883 f43a 7dd4 493e
000000b0: 619d c63d 8b3b 633e a55b f53d 0283 c73d
000000c0: f5e8 4d3d a36d 8abe f031 d9bd 66b9 0d3e
000000d0: a1e1 4cbd d9fa 72bd 30db c83d 522c 15bd
000000e0: 9e58 f3bc fa1a 82bd 01c8 debc f3f9 0c3d
000000f0: 9151 8abd ba0c 4b3e 6cab 643e 7129 f3bd
00000100: a1ff 1fbe bf6e 01be a36b 52bb 329d d8bd
00000110: fa5e c23d 6912 51bd e6c4 ff3d 6b48 18be
00000120: c98a f23c e14f dcbe f37d 193d ec77 4a3e
00000130: fa2a bd3d 974f 0fbd e8af 6e3c fe4f d93d
00000140: 91c8 a53d 951b c3bd 7ec6 073d c50c 18be
00000150: b626 a2bd db85 513d 20a4 9cbc 020f 2cbd
00000160: ec67 ec3d 89c4 48be da0f bc3d 82ff 8d3d
00000170: 83c5 603e aad2 213e a88b 913d ad52 de3c
00000180: f181 c23c 4e04 8a3d 4404 debd e59a 773e
00000190: 840a a5bb 1916 0a3e 372b 41bd c9b5 8b3c
000001a0: 0d7f 50be 268a d43d f525 153e d0e0 003e
000001b0: ccb0 ffbd e02b 5f3d 9a0f 443e b5be 5bbe
000001c0: 883b 98be 79b4 2cbd 72d8 71bc e6ab 46be
000001d0: b9a9 11bd e56d 2fbe 936f 06bd 6ba1 31bd
000001e0: 7816 403e cb72 113e 4d08 703d b06f e83c
000001f0: 67b2 7b3c 922b 7e3d ebda f83d f31b 243e
00000200: 2a97 23be a944 973d fafc adbd 8b15 143d
00000210: 3b6c 193e 50da 16bc bf7e 0ebd 3de5 393d
00000220: 200b 11be dc70 7fbd afdb e03d f586 0a3d
00000230: f17e 08bd 3462 9a3d 6f81 b8bd f83c e0bd
00000240: abef 57be 3add 10be 4382 683d 6f91 45bd
00000250: 6c02 3cbe d892 123d f623 70bb 7d24 383d
00000260: 2e4a e33c ad8f 95bc 3db0 59bd de63 5fbe
00000270: eee4 f9bd 147c 0f3d f92e 503e 6d94 2e3e
00000280: 91e8 223e 60fb 643c e5cb d03d 3346 69bd
00000290: 4831 a53d 8fd2 c6bd ef09 3b3e bf29 5e3e
000002a0: e96d 113d 3931 f8bd 6075 89bd fccc 90bd
000002b0: 881e f9bd de2a bdbd 4898 d6bc 59e4 b1bb
000002c0: 3280 bbbc c92f 383e ebc2 a93c b6a1 723d
000002d0: 3cd4 52bd 9c32 7ebb b67e 74bd 241b 843d
000002e0: 7425 7e3d ec48 55bd d9af ecbc 1dcf 783e
000002f0: ae82 0fbd c4a3 15bd 9faf 7e3d 0bc4 653d
00000300: b885 a6bd 9fa8 fbbc f5d8 1ebe bf52 b7bd
00000310: ace2 55bd 9180 f53c 784f f1bd 44bf 723e
00000320: 2c3a ad3e 95dd 35bd b7a0 e23c 7890 5cbd
00000330: 10b0 623e f0fc a6bd 1b29 1c3e e706 503e
00000340: fd7d 1b3d c025 9ebd b4e0 3e3e 45d7 833e
00000350: 2b9e bbbd 77d7 5b3d c5b3 e53c 4c38 1b3e
00000360: b7c3 b53a 3cf7 60be f3ad a9bd 3110 b43e
00000370: 44f2 b93e 6f4a 113e ab8f 443b 3762 92be
-0.04826053 0.0041887052 -0.26731732 -0.10616082 0.26428685 -0.13573506 -0.23213379 -0.06267005
-0.023821434 0.20052348 0.031130679 0.17214735 -0.04204531 0.21301766 0.073268205 -0.04783096
-0.09564878 -0.09022094 -0.052631743 -0.17210214 0.20984758 -0.123195045 0.07584438 0.022598376
-0.11651846 0.16035838 -0.19640684 -0.1291968 -0.039584592 -0.00016769696 0.019099554 -0.144078
0.043005094 0.09380027 -0.38131535 -0.10823945 0.16981922 -0.00964965 -0.24705556 -0.01599101
-0.07140997 -0.047444593 0.0018654792 0.19709964 0.096979864 0.22190683 0.119803704 0.09741785
0.050270993 -0.2703677 -0.10605228 0.13840255 -0.050019864 -0.05932126 0.09807432 -0.03641922
-0.029705342 -0.063528016 -0.027194979 0.034418058 -0.06753839 0.19829074 0.22331017 -0.11873139
-0.15624858 -0.12639903 -0.0032107614 -0.105768576 0.094907716 -0.051042948 0.12488727 -0.14871375
0.029607194 -0.43029693 0.03747363 0.19772309 0.09236713 -0.034988012 0.0145683065 0.106109604
0.08094896 -0.09526745 0.03314828 -0.14848621 -0.0791754 0.051153045 -0.01912123 -0.0420065
0.11543259 -0.19606222 0.09182711 0.069335 0.21950345 0.15803018 0.071067154 0.027139032
0.023743602 0.06739102 -0.10840657 0.24180181 -0.005036654 0.13484992 -0.047160354 0.017054455
-0.20360966 0.10377912 0.1456526 0.12585759 -0.12484893 0.0544852 0.19146577 -0.21459468
-0.2973292 -0.0421643 -0.014761077 -0.19401512 -0.03556225 -0.17131765 -0.03282125 -0.04336683
0.18758571 0.14203946 0.058601666 0.02837357 0.015362359 0.06205327 0.1215113 0.16026287
-0.15975633 0.07386143 -0.08495517 0.036153357 0.14982693 -0.009207323 -0.034788843 0.045384634
-0.141644 -0.06236349 0.10979401 0.03382011 -0.033324186 0.07538262 -0.090090625 -0.10949129
-0.2108752 -0.14146891 0.056764852 -0.0482344 -0.18360299 0.035784572 -0.0036642528 0.044956673
0.027745333 -0.018256987 -0.05314659 -0.2181544 -0.12201868 0.03503044 0.20330419 0.17048807
0.1590903 0.013975948 0.1019514 -0.056951713 0.0806604 -0.097081296 0.18265508 0.21695612
0.03550521 -0.121187635 -0.06711841 -0.07070348 -0.121640265 -0.09236692 -0.02619566 -0.0054288325
-0.022888277 0.17986979 0.020722827 0.05923625 -0.051471934 -0.003878749 -0.059691153 0.06450489
0.062047437 -0.052071497 -0.028892444 0.24297757 -0.035036735 -0.036533132 0.062179204 0.056095164
-0.081309736 -0.030720053 -0.1551245 -0.089513294 -0.052218124 0.029968532 -0.117827356 0.23705775
0.33833444 -0.04440077 0.027664525 -0.053848714 0.22137475 -0.08153713 0.15250055 0.20315133
0.03796195 -0.07722044 0.18640405 0.25750175 -0.091610275 0.05367228 0.028039822 0.15158194
0.0013867532 -0.21969312 -0.08285131 0.35168603 0.36317647 0.1418855 0.002999286 -0.28590557

a2c_network.mu.bias f4 [7]
00000000: d1d3 5cbd b274 0bbe d468 6e3d 2b5c 00bd
00000010: 3ce5 6dbd e454 00bd 9a70 e93c
-0.05391294 -0.13618734 0.05820544 -0.0313379 -0.058079943 -0.031330958 0.028496075

exp_avg f4 [7]
00000000: fd21 9aba 86e5 cf39 ca2f 023c 8536 8bbb
00000010: 73fd 40bc 33b9 f5bb 678d e2ba
-0.0011759397 0.00039653125 0.007945964 -0.0042484426 -0.011779177 -0.007498884 -0.0017284573

exp_avg_sq f4 [7]
00000000: e802 0b3a 373c 233a 6a02 0d3a 5727 063a
00000010: 4892 2d3a 3f4d 0c3a 1760 123a
0.0005302862 0.0006226929 0.0005379083 0.00051175564 0.0006621224 0.0005352087 0.00055837765

exp_avg f4 [128, 18]
00000000: aa3d 8cba 711f 33ba a2b7 c639 5e4d 093a
00000010: 4a60 49ba 3fc2 113a 0c72 aeba 6754 173a
00000020: 19cc 7c3a 13c8 b2b7 9cc5 c23a 5f06 c839
00000030: d58e 46bb a318 bfba 60c8 a73a 2757 263b
00000040: 3b85 863a 6bbf 113a de30 b2b9 8c0e 5738
00000050: c084 b439 dbe7 1e3a 47da b5b8 d62d 9e3a
00000060: 254d b5b9 0ea5 9c3a f5cf 153b 8e41 543a
00000070: 2d53 153a 9795 ba3a f5dc 7dba 876d 4cb9
00000080: 7147 00b9 d026 dc3a 2f78 23b3 66f0 8db8
00000090: 62e8 a2ba 8c2c e0ba 1130 df39 60a1 3c3a
000000a0: 14d5 4bba 15a8 233a 5532 04ba b366 863a
000000b0: 9dd7 843a 68ee 8eb9 e17e c23a 4cb9 c13a
000000c0: dda0 eaba 1a6d 82ba 13e8 3fb8 79ab a03a
000000d0: 3b8d 873a c262 cbb9 1a35 073a ea58 613a
000000e0: f1a2 3c39 1f5f 17ba 52e1 0a3a a27b 223a
000000f0: fcaf bc39 2e10 82b9 8bd9 173a fe78 ab3a
00000100: b2c3 7cba 3efd dbb8 f9ab fc3a 028e a9b8
00000110: a50e 9aba d361 48b9 e376 40ba 13f0 0dba
00000120: e9e1 593a e285 9a3a 3b99 c239 d244 59ba
00000130: 595f b439 835b cb39 7361 7a3a bb8e a2ba
00000140: e7b3 cdba ecb3 983a c9e2 b9ba 179e 4eba
00000150: 75ad 093b 4021 39b8 1cd4 a7ba 1f84 93ba
00000160: 971e a6ba 2078 c7b8 ea4c 513a 4ad4 3e3a
00000170: aa6c ebb9 142c 4bb9 24f6 353a 6fee 0dba
00000180: 09d5 0238 8fc1 86b9 3383 36ba 883c cab9
00000190: aeef 26ba 03f3 9bb9 da8b 473a f8f3 0e39
000001a0: c4b4 b7b9 be0a afba 909c e4b9 79ee e7b7
000001b0: ae55 9039 25b8 a739 f262 5737 dafe acb9
000001c0: 9473 3939 001f 8e39 8492 3939 1625 a6b9
000001d0: bc9b b0b8 dc8c 533a 53cd 19ba 4bf2 04ba
000001e0: 41e0 c63a df19 7ab9 a9d9 3aba 5ed4 d3b9
000001f0: e059 98b9 3ca5 c5b9 f551 9139 7448 3d39
00000200: 8f1e 20b8 b7f1 1539 335a ed39 b2b1 293a
00000210: 55f3 07b6 406d bc39 6ed3 943a 8feb da39
00000220: 1995 02ba 91e5 0d3a fb4c c539 fade 8eba
00000230: 5e8e 64ba 1d9c 2239 cf77 8739 b634 19ba
00000240: 246b 9b3a df20 b73a 577c a3b8 59e9 02ba
00000250: 0106 323a 3396 173a 6518 a43a 1952 7eba
00000260: b2b2 1eba aec4 833a 362f 0cbb 960c 3dba
00000270: 2186 203b 40c7 b1b9 4da9 7eba aa36 b9ba
00000280: 6b2a 60ba d551 8fb9 0c44 bdba 2f0c 1dbb
00000290: a441 9bb9 7d74 5a3a dca2 83ba 283a 43ba
000002a0: 26dd 02ba 4f78 633a 7682 30b9 6772 fcba
000002b0: 45df e73a d15f 233a d697 17bb 2ebd f5b8
000002c0: ca90 d13a 82ed e639 8cef f83a 085c aa37
000002d0: 516d a0b9 a65a 42ba 1b99 e7b9 1cf7 2039
000002e0: 89e4 8e38 1f66 d6b9 c9a9 c3b9 83ff 9539
000002f0: 44fd b139 e081 fcb9 907c 053a 343c f439
00000300: 71f9 7a3a 89cc f7b8 7cc3 f239 5026 8f38
00000310: 6ca4 993a 0c18 deb8 8b0c ec3a 63a6 2a3b
00000320: a6b2 c4b9 66ab 5639 2abf a73a 1171 223a
00000330: 2e4d 8639 b320 7439 61f6 a53a d591 c53a
00000340: b9a3 bdba a828 71ba 744d b93a 9484 843a
00000350: 96a0 20ba 5a91 88ba d05b 02bb 25dd c439
00000360: bc98 6c3a 6e46 a63a e39b cfb8 3aa6 1cba
00000370: d2c8 bc39 54a4 cc37 d6ac 893a f588 6aba
00000380: 90d2 87ba 4f9c 293a b336 bfba 3619 53ba
00000390: c544 033b d71c 3e3a db33 57ba 5fb3 c8ba
000003a0: 05b2 c5ba c0fb 2738 4a14 40b9 1706 49b9
000003b0: b570 8eb9 85cf 0c39 47ba 4539 9c38 00b4
000003c0: 975e a4b9 c60b ed39 7433 683a ada2 e7b9
000003d0: c164 adb7 7b6b 773a 9f30 09b9 3422 0aba
000003e0: 6c44 29b9 23af 2139 77b4 f039 ff4b 88b9
000003f0: a26d e3b9 1a44 36ba 9c89 01ba 9243 1738
-0.001069953 -0.0006832993 0.0003790232 0.0005237664 -0.00076818897 0.0005560256 -0.0013309135 0.000577277
0.000964345 -2.131242e-05 0.0014859918 0.0003815172 -0.0030297537 -0.0014579486 0.0012800805 0.0025381537
0.0010263094 0.00055598345 -0.00033987215 5.1273542e-05 0.00034431182 0.0006061771 -8.67141e-05 0.0012068104
-0.00034580487 0.0011951046 0.0022859548 0.00080969266 0.0005696293 0.0014235255 -0.0009684109 -0.00019495758
-0.00012233645 0.0016796235 -3.80607e-08 -6.7681816e-05 -0.0012428875 -0.001710312 0.00042569687 0.00071956776
-0.00077755866 0.0006243003 -0.00050429004 0.0010253995 0.0010135059 -0.00027261977 0.0014838838 0.0014779954
-0.0017900724 -0.0009950728 -4.5754085e-05 0.0012258134 0.0010341773 -0.00038792758 0.0005157754 0.0008596318
0.00017989778 -0.0005774367 0.00052978576 0.00061982323 0.00035989273 -0.00024807587 0.00057926093 0.0013082323
-0.0009642198 -0.00010489904 0.0019277326 -8.084999e-05 -0.0011753632 -0.00019109929 -0.0007341934 -0.0005414497
0.00083115563 0.0011789168 0.0003711673 -0.0008288148 0.00034403315 0.0003878736 0.0009551264 -0.0012402156
-0.0015693874 0.0011650301 -0.0014181967 -0.00078818336 0.002100793 -4.4138404e-05 -0.0012804302 -0.0011254585
-0.0012673911 -9.5114345e-05 0.00079841784 0.00072795583 -0.00044903654 -0.00019376009 0.000694128 -0.00054142525
3.119282e-05 -0.00025702684 -0.0006962299 -0.00038573542 -0.00063681125 -0.00029744962 0.0007612087 0.00013633061
-0.0003503916 -0.0013354642 -0.00043604197 -2.7648393e-05 0.00027529657 0.0003198992 1.2838036e-05 -0.00032996276
0.00017686031 0.00027107447 0.00017697556 -0.00031689618 -8.421342e-05 0.0008070001 -0.00058670825 -0.0005071505
0.0015173034 -0.00023851496 -0.0007127771 -0.00040403282 -0.0002905866 -0.00037697877 0.00027717618 0.00018051435
-3.8175433e-05 0.00014299793 0.00045271366 0.0006473317 -2.0258205e-06 0.00035939552 0.0011354515 0.00041755705
-0.0004981324 0.0005412931 0.00037632123 -0.0010900192 -0.0008718724 0.0001550768 0.0002583847 -0.00058443414
0.0011857492 0.0013971588 -7.795606e-05 -0.0004993878 0.0006791056 0.00057825743 0.0012519477 -0.00097015646
-0.00060538494 0.0010053122 -0.0021390445 -0.0007211653 0.002449401 -0.00033908524 -0.0009714559 -0.0014130671
-0.00085512426 -0.00027336055 -0.0014439835 -0.002396356 -0.0002961281 0.0008333398 -0.0010043043 -0.00074473256
-0.000499206 0.000867729 -0.00016833268 -0.0019260169 0.0017690441 0.00062322343 -0.0023131273 -0.00011717748
0.0015988585 0.00044045976 0.0018992289 2.0308435e-05 -0.00030599025 -0.00074140204 -0.00044173826 0.00015350844
6.813656e-05 -0.00040893347 -0.00037319798 0.00028609866 0.00033948768 -0.0004816195 0.00050921086 0.00046584161
0.0009573913 -0.000118159754 0.00046303484 6.8259076e-05 0.0011721975 -0.00010590264 0.0018009109 0.0026039116
-0.00037517137 0.00020472481 0.001279806 0.0006196658 0.00025615975 0.00023281835 0.0012661928 0.0015073369
-0.0014468349 -0.00091994787 0.0014137463 0.0010110312 -0.0006127445 -0.0010419295 -0.001989115 0.000375488
0.0009025445 0.0012685785 -9.899565e-05 -0.00059756974 0.00036007777 2.4395216e-05 0.001050378 -0.00089468
-0.0010362435 0.000647013 -0.0014588445 -0.0008052768 0.0020030004 0.0007252222 -0.0008209326 -0.0015312246
-0.0015082961 4.0050363e-05 -0.00018318105 -0.00019171122 -0.00027168324 0.00013428747 0.00018856778 -1.1941523e-07
-0.00031350993 0.00045212934 0.0008857765 -0.00044180956 -2.0670124e-05 0.0009438318 -0.00013083451 -0.0005269379
-0.00016142585 0.000154194 0.00045910824 -0.00025996563 -0.00043378497 -0.0006952897 -0.0004941465 3.6064135e-05

exp_avg_sq f4 [128, 18]
00000000: 8e95 aa36 a374 9136 cdf1 ac36 08d1 8d36
00000010: d71b 9e36 5f77 4f36 af84 8036 e9b6 b336
00000020: 4b20 bd36 4f12 c836 c6ee 9e36 c048 8136
00000030: 9e19 a536 bec9 9f36 2ac9 7c36 68b2 9236
00000040: 4c05 6a36 8626 2d36 25e7 8237 afbe 5d37
00000050: 83b6 4637 cbae 3e37 8ee6 4437 c2ed 1d37
00000060: b705 1437 6772 7637 f53d 6237 8d47 7037
00000070: 07cb 4637 49eb 5537 b287 5f37 70ea 2f37
00000080: 45b5 dc36 4d25 2b37 aec5 2337 8e59 1d37
00000090: dbda 9637 5a84 7f37 300a 5e37 92ec 3e37
000000a0: 117b 3f37 5357 1437 f6bc 0c37 6903 9037
000000b0: 0a37 9637 e393 6237 a49a 4537 89d5 4d37
000000c0: ffa9 7a37 863a 4737 d6e8 0b37 04ec 5737
000000d0: 614f 3d37 180d 6b37 74bf 1a37 921a d836
000000e0: 694b bb36 ddb9 bf36 d804 0037 fb4f 8736
000000f0: 609a af36 3ef5 d936 aa14 2737 6398 b936
00000100: 8a4a 0c37 8d37 cc36 46d9 df36 c275 b236
00000110: d86b 8536 4d53 b936 1da7 c136 93f5 b436
00000120: 2fef e636 0af0 a636 02bd 1037 ca93 da36
00000130: 5b1d 0f37 721a cc36 95f4 d436 c4c9 2737
00000140: 5956 dc36 844a 2d37 ec29 1737 cdc4 2337
00000150: 3b6b 2637 c05f 1a37 eda5 7136 50a1 0137
00000160: 30f1 d736 1059 dc36 57a6 cf36 5d9e a236
00000170: 8c47 d336 a790 d436 af37 fc36 623d b536
00000180: 082f 9d36 7b3f 1337 5e97 1e37 a487 0637
00000190: 8a1a f036 7a32 0037 1c74 f736 91b7 0b37
000001a0: d450 8136 d27f d436 6fb7 c436 4c3f c336
000001b0: 0e8a f436 86db c536 f4b9 e736 c713 d236
000001c0: 93f8 0b37 a894 b336 f263 bb36 0b5f 2537
000001d0: 008b 3e37 096f 0537 a9d1 0937 fe86 fd36
000001e0: 296e 0a37 84d5 1e37 6ce7 9c36 d6bd a436
000001f0: 9d3d e936 909b f036 570c 8c36 7e37 4a36
00000200: ef48 6f36 2282 8036 aa9b 7436 5ad6 2936
00000210: 9516 4036 089b ad36 0b01 9036 57ec ab36
00000220: bf3d 8236 721a 8b36 f203 9436 d52d 8536
00000230: 675c 2136 b8c8 8d36 038d 6d36 3655 7b36
00000240: 998a ee36 8dd0 9936 4dc2 c436 c448 d036
00000250: da0d b736 d286 8636 39d6 a236 0a59 2837
00000260: 8626 db36 67ec 0637 628b 0037 106d e136
00000270: b3b9 d736 fea1 fb36 851f 7d36 948b bf36
00000280: b62d bd36 3e10 7e36 7a7d 9237 c767 3e37
00000290: e34b 2337 286d 3937 c455 3437 c3e1 de36
000002a0: 0b06 e036 b30a 3c37 1f75 5137 4ac9 3f37
000002b0: e81d 2137 4b48 1637 8cf0 2037 474b 1e37
000002c0: fe39 0437 e616 2337 338a 3037 96b8 0137
000002d0: 4514 7736 131d 6a36 a2bf 3e36 9d34 6136
000002e0: fec8 6336 b34a 5736 1566 7e36 3fd7 c236
000002f0: c1a6 7936 dd33 8636 1c53 8936 4c8c 9636
00000300: 2125 5e36 8a28 6b36 25c5 2436 2373 8a36
00000310: 4f29 6c36 5486 6c36 5ece a037 e2c1 8a37
00000320: 4947 6237 5973 7137 9dae 6137 9216 0e37
00000330: de8a 0a37 e90c 6737 2d6b 8637 d72c 8b37
00000340: 6149 6137 2b14 4737 9712 4f37 8686 8937
00000350: 72f0 3f37 f29a 4d37 7d82 5637 175f 2e37
00000360: 0008 dd36 8b1a ba36 abbe 0037 3936 bb36
00000370: 1eef d236 86c7 c636 5360 ba36 3454 0637
00000380: 795a b136 6125 2037 fbd3 c036 3282 fd36
00000390: c2af eb36 7f49 ee36 983b 6436 ca18 0537
000003a0: 5ccf ab36 b708 9a36 0896 a336 3480 6e36
000003b0: f288 8f36 4935 8136 7483 a836 26c2 6936
000003c0: 359d 4636 e340 b936 cb74 8a36 b51e ac36
000003d0: fe2e 9636 57b3 ab36 9d78 9636 b843 9b36
000003e0: 8ba1 4436 adf2 5036 2949 8236 9f37 9436
000003f0: 9980 f936 4371 d136 fac3 dd36 e7fa d636
5.0838053e-06 4.334915e-06 5.1541488e-06 4.226462e-06 4.712008e-06 3.0914887e-06 3.8301437e-06 5.3559093e-06
5.6363983e-06 5.962596e-06 4.736564e-06 3.852969e-06 4.9203654e-06 4.762055e-06 3.766802e-06 4.3719083e-06
3.48718e-06 2.5801432e-06 1.5604843e-05 1.32170235e-05 1.1844214e-05 1.136558e-05 1.1736191e-05 9.4132865e-06
8.822818e-06 1.4689379e-05 1.3485075e-05 1.4321774e-05 1.1848991e-05 1.2750571e-05 1.332343e-05 1.0485397e-05
6.5776135e-06 1.0201079e-05 9.761583e-06 9.37878e-06 1.7983306e-05 1.523e-05 1.3234603e-05 1.1379963e-05
1.1413141e-05 8.841819e-06 8.388646e-06 1.7167726e-05 1.7907023e-05 1.3505082e-05 1.177812e-05 1.226867e-05
1.49407415e-05 1.187495e-05 8.339257e-06 1.286995e-05 1.128376e-05 1.401014e-05 9.223691e-06 6.440395e-06
5.581813e-06 5.713881e-06 7.630522e-06 4.0326245e-06 5.233378e-06 6.495654e-06 9.958787e-06 5.53117e-06
8.362005e-06 6.0861407e-06 6.671212e-06 5.318522e-06 3.9762635e-06 5.523127e-06 5.7713028e-06 5.3930066e-06
6.882379e-06 4.9751297e-06 8.627076e-06 6.514111e-06 8.530299e-06 6.0827524e-06 6.3465654e-06 1.0000953e-05
6.566563e-06 1.0328953e-05 9.010062e-06 9.761378e-06 9.919338e-06 9.201409e-06 3.600838e-06 7.726558e-06
6.4355772e-06 6.566879e-06 6.1884452e-06 4.846412e-06 6.296619e-06 6.334932e-06 7.5166677e-06 5.4013663e-06
4.68444e-06 8.776663e-06 9.452777e-06 8.018604e-06 7.155647e-06 7.641147e-06 7.3746905e-06 8.3277855e-06
3.853909e-06 6.3329726e-06 5.8626097e-06 5.8188216e-06 7.2878383e-06 5.8966134e-06 6.9059843e-06 6.26079e-06
8.342921e-06 5.3519216e-06 5.5846695e-06 9.856895e-06 1.1357246e-05 7.95327e-06 8.214652e-06 7.5557027e-06
8.25109e-06 9.467247e-06 4.6761033e-06 4.9096807e-06 6.951114e-06 7.1706672e-06 4.1737617e-06 3.0132646e-06
3.5656228e-06 3.8298467e-06 3.6449442e-06 2.5307731e-06 2.8623374e-06 5.17385e-06 4.291656e-06 5.1237107e-06
3.88149e-06 4.1456015e-06 4.411203e-06 3.9690444e-06 2.4044655e-06 4.225494e-06 3.5397832e-06 3.7451514e-06
7.1090876e-06 4.584034e-06 5.863875e-06 6.207354e-06 5.4554375e-06 4.0092064e-06 4.852915e-06 1.0034311e-05
6.5311933e-06 8.042064e-06 7.661847e-06 6.718219e-06 6.4291175e-06 7.4992413e-06 3.7718285e-06 5.7084926e-06
5.6379604e-06 3.7858404e-06 1.7462986e-05 1.1349045e-05 9.733226e-06 1.1052274e-05 1.0748805e-05 6.6423977e-06
6.6764237e-06 1.1208164e-05 1.248464e-05 1.1431353e-05 9.603311e-06 8.957529e-06 9.59275e-06 9.435061e-06
7.8813155e-06 9.720889e-06 1.05225945e-05 7.731976e-06 3.6817667e-06 3.488564e-06 2.8423751e-06 3.3558238e-06
3.3942629e-06 3.2080977e-06 3.790837e-06 5.8067085e-06 3.7200955e-06 3.999549e-06 4.0925934e-06 4.486681e-06
3.310219e-06 3.5041326e-06 2.4552658e-06 4.126124e-06 3.5190785e-06 3.524493e-06 1.9169584e-05 1.6541166e-05
1.3487247e-05 1.4391576e-05 1.34517e-05 8.469115e-06 8.2577735e-06 1.3771679e-05 1.6023952e-05 1.6590971e-05
1.342813e-05 1.186602e-05 1.234249e-05 1.6394315e-05 1.144047e-05 1.2255028e-05 1.2785776e-05 1.0393348e-05
6.5872446e-06 5.546322e-06 7.673788e-06 5.5793466e-06 6.2863246e-06 5.9240874e-06 5.5544456e-06 8.0066275e-06
5.2855435e-06 9.545446e-06 5.7467237e-06 7.5551443e-06 7.0240067e-06 7.101509e-06 3.4009336e-06 7.933189e-06
5.120337e-06 4.590572e-06 4.8752445e-06 3.5539388e-06 4.2776746e-06 3.850703e-06 5.0220933e-06 3.4832715e-06
2.9595806e-06 5.5209834e-06 4.126317e-06 5.129574e-06 4.475819e-06 5.117075e-06 4.4843896e-06 4.6272435e-06
2.9300306e-06 3.1135671e-06 3.882819e-06 4.417219e-06 7.435749e-06 6.241871e-06 6.609128e-06 6.406906e-06

exp_avg f4 [128]
00000000: c823 7fba 7ed0 c9b9 1772 5fba 7e6f 163a
00000010: 2ea8 a73a 1b1f 2338 c1df be39 7fcd 81b8
00000020: c2be 993a cca4 b5ba 5a88 95b9 0c55 823a
00000030: 999e 4f3a 60c1 57ba 5422 27ba 795a 043a
00000040: 983f 3f39 f53d 7435 22a8 2ab8 915f 6d3a
00000050: 450d a13a b43a 5b39 0db5 833a 2f34 ef39
00000060: f931 043a b679 8b39 e3e9 cf39 41f4 3bba
00000070: a298 b2ba cf99 5eba 0eb8 533a 418a 4939
00000080: 96b4 433a 0f1e 9c39 fae2 8bba 1483 9e39
00000090: 5fc1 1d3a e1bc e039 332f 9cb9 723b a738
000000a0: 4bf2 abb9 1e19 9039 18ad 05b9 1799 5e39
000000b0: 22ae 193a 02e0 7739 2cc4 8238 87b8 85b9
000000c0: 574b 79ba 7549 a9b9 1d85 01b9 dfd0 3f39
000000d0: c55a 673a 763d 1e39 761b 92b9 df99 9c3a
000000e0: 69a0 ef39 7d21 183a 3047 0e39 2c46 a637
000000f0: 483a 2937 b39f 74ba 2796 1d39 df88 aa39
00000100: 7012 3d39 b1a9 cb3a 6a5e 2b3a 2563 3239
00000110: f5ff edb6 1a4f 2b39 a22c d239 3dd4 e038
00000120: 78c4 5739 073e 1939 dcb1 b539 1c0f 10b9
00000130: ad1f 81ba d32b b439 09e2 3b39 9ccb 06b9
00000140: 8ca4 2d39 1979 e8ba a663 c3b8 24f5 e6b9
00000150: 8d7b 073a 1566 8eb9 531c 94ba 80b8 4eba
00000160: 6cc8 423a cc49 83ba 0c0b 8ab9 0b5a b339
00000170: 19cc abb9 8649 0cba 2c00 de38 2ce1 5f3a
00000180: e4cd adba c196 7936 bada ee38 7ec4 03ba
00000190: a981 4bba d734 68ba 8580 d9b9 f4c9 183a
000001a0: 6208 42b9 b43e 193a 0657 b639 63f2 753a
000001b0: f8e8 a1b9 cdd9 fcb9 c5d8 a739 99fa 4139
000001c0: b5a7 2439 70af 6c39 62a9 09b9 5412 c6ba
000001d0: b5bf a2ba 773f c03a d8f9 03ba fec5 a639
000001e0: d673 9e3a 74be 9238 97a2 d9b9 ea94 fa38
000001f0: 9ad8 3fba 2dad b139 62eb 503a 5821 333a
-0.000973281 -0.00038493046 -0.00085237756 0.00057386595 0.001279121 3.8891198e-05 0.00036406334 -6.189476e-05
0.0011729824 -0.0013858317 -0.00028521084 0.0009943559 0.0007920056 -0.0008230414 -0.000637566 0.0005048882
0.0001823887 9.098724e-07 -4.0687744e-05 0.0009055073 0.001228728 0.00020907336 0.0010048464 0.00045624512
0.0005042847 0.00026602828 0.00039656376 -0.00071698806 -0.001362581 -0.0008491547 0.00080764375 0.00019220357
0.0007465569 0.00029777034 -0.0010672503 0.0003023377 0.0006017889 0.00042865335 -0.00029789805 7.974253e-05
-0.00032796184 0.00027484534 -0.00012748351 0.000212286 0.00058624346 0.00023639205 6.235423e-05 -0.0002550522
-0.00095098227 -0.00032288922 -0.00012351987 0.0001829299 0.00088254764 0.0001509095 -0.0002786775 0.0011947713
0.00045705147 0.000580333 0.00013568695 1.9821418e-05 1.0086755e-05 -0.00093316584 0.00015028623 0.00032526904
0.00018031313 0.0015538243 0.0006537201 0.00017012337 -7.0929477e-06 0.00016337298 0.00040087575 0.00010720685
0.00020577188 0.00014614324 0.00034655526 -0.00013738539 -0.0009851359 0.00034364927 0.00017917914 -0.00012855086
0.00016559864 -0.0017736285 -9.3168856e-05 -0.00044051663 0.0005168252 -0.00027160408 -0.0011299945 -0.0007885769
0.0007430378 -0.00100165 -0.00026329642 0.00034208628 -0.00032767726 -0.0005351532 0.00010585817 0.0008540328
-0.0013260213 3.7191642e-06 0.00011389465 -0.0005026533 -0.00077631563 -0.00088579714 -0.0004148522 0.0005828433
-0.00018504405 0.00058458303 0.00034778583 0.0009382127 -0.00030881888 -0.0004822746 0.00032014228 0.00018499269
0.00015702735 0.0002257207 -0.00013128438 -0.0015111663 -0.0012416752 0.0014667351 -0.0005034483 0.00031809503
0.0012088965 6.997297e-05 -0.00041510604 0.00011948666 -0.0007318348 0.00033889097 0.0007969645 0.0006833277
