runs/BallBalance_11-16-01-15/nn/last_BallBalance_ep_100_rew_2.0420456.pth (torch, 173671 bytes, 36 tensors)

value_mean_std.running_mean f8 [1]
0	0x3fc105406ece2cf0	0.13297276888292897

value_mean_std.running_var f8 [1]
0	0x3f7296dab7f16c56	0.004538397187469808

value_mean_std.count f8 []
0	0x40a9020000000000	3201.0

running_mean_std.running_mean f8 [18]
0	0xbfb361526fd99fbc	-0.07570376616206337
1	0x3fc6e6d0bb2ed9c8	0.17891892566485823
2	0xbfc7962f8813d3db	-0.18427080292136008
3	0xbfc6761d5e1f0547	-0.17547957511673415
4	0xbfa085fb5e19e762	-0.032272200810395515
5	0xbfb0623e642d695f	-0.06399908014046705
6	0xbfbdb8b786656067	-0.1160998061290016
7	0xbfd3a6b8357c8fe9	-0.3070507547693056
8	0x3fe59a8c4d82f549	0.6751157297036708
9	0xbfe422a6dcdca97d	-0.6292299569807224
10	0xbfe2e84d6365db39	-0.5908572141041538
11	0xbfb7da45e52304a2	-0.09317433208618067
12	0xbfd002fc2f5ed21b	-0.2501821959115504
13	0xbfc7975cde19e761	-0.18430672497543824
14	0x3fbd0ea3827a7bc2	0.1135046189833551
15	0x3fc20ccce0bd5258	0.1410156342850708
16	0xbfd339da6b7b9a4e	-0.3004060792576738
17	0x3fcf33c901330212	0.24376785811001916

running_mean_std.running_var f8 [18]
0	0x3fc6833ae63dd828	0.17587982408775926
1	0x3faa87f96005a270	0.051818650218426465
2	0x3fc0a489aeb1d647	0.1300212958337161
3	0x3fcce21ec630550b	0.22565064122378717
4	0x3fa2c82dc85e9deb	0.03668349333684858
5	0x3f95f4275b3581a2	0.021439185087162145
6	0x3f909de376a1cdf0	0.016227296939588187
7	0x400598bf85ab6223	2.6995840495039984
8	0x3ff5e46181d04d30	1.3682570525023259
9	0x400b41a9f6367fcf	3.407062457597909
10	0x401269478160774c	4.602811833870714
11	0x3fe6bdada5307dc3	0.7106540895801391
12	0x3fef9a46929beca7	0.9875824798067655
13	0x3ff4063744f05522	1.2515175526544415
14	0x3f733c5da78e00d1	0.004696241224223922
15	0x3f7a7d5ada8d4f3b	0.006467203996027677
16	0x3fd06d2dbd97716d	0.25666373743822285
17	0x3fc6d87b383f159b	0.17848148580939668

running_mean_std.count f8 []
0	0x4099040000000000	1601.0

a2c_network.sigma f4 [7]
0	0x3d176ee0	0.036970973
1	0xbd3da1a3	-0.046296727
2	0xbe017b04	-0.12644583
3	0xbd9bd4a1	-0.07608915
4	0xbdf543ba	-0.119758084
5	0xbcacbe3c	-0.021086805
6	0xbd407a0f	-0.046991404

a2c_network.actor_mlp.0.weight f4 [128, 18]
0	0xbe01a30b	-0.12659852
1	0x3dc7ebff	0.097618096
2	0xbdebb6dd	-0.11509488
3	0xbe121c41	-0.1426859
4	0x3d7cfbe7	0.06176367
5	0x3e7f875a	0.24953976
6	0x3d2152b5	0.039385516
7	0xbe6b79e5	-0.22995718
8	0x3d1d5ca9	0.038418446
9	0xbda45456	-0.08023898
10	0xbe35279e	-0.17690894
11	0xbe30d232	-0.17267683
12	0x3e1fc3c4	0.15602022
13	0xbdf3d5fc	-0.11906049
14	0x3e828d9e	0.2549867
15	0xbd38da86	-0.045130275
16	0xbe541085	-0.20709427
17	0xbd453d61	-0.04815424
18	0xbbaadfea	-0.005214681
19	0x3eb5bca8	0.35495496
20	0x3db8f6f7	0.0903148
21	0xbe0e58e6	-0.139011
22	0x3e01d2f4	0.12678128
23	0x3d63335c	0.055468902
24	0x3e4e0dfc	0.20122522
25	0x3e165ba9	0.14683403
26	0x3d9c39a5	0.07628182
27	0xbcd64b54	-0.026158966
28	0x3e4e2a82	0.20133403
29	0xbd996d90	-0.074916005
30	0x3e3d1231	0.1846397
31	0xbe91277c	-0.28350437
32	0xbe751fbf	-0.23937891
33	0xbd83564e	-0.06412946
34	0xbe9f0345	-0.31057182
35	0x3d3af697	0.045645323
36	0x3da45899	0.08024711
37	0x3e89cd1d	0.26914302
38	0x3d91de72	0.07122506
39	0xbd6e0a72	-0.05811543
40	0x3e561ce9	0.20909466
41	0xbd92715b	-0.07150527
42	0x3e21c59d	0.1579804
43	0xbe5e1aea	-0.21689954
44	0x3e0a9d73	0.13536625
45	0x3d4494ae	0.047993354
46	0x3d938d9d	0.07204745
47	0xbde57305	-0.11203579
48	0x3e8d0002	0.27539068
49	0xbe22d5b3	-0.15901832
50	0xbdc9c94b	-0.09852847
51	0xbdac7310	-0.08420384
52	0x3e37db4a	0.17954746
53	0xbd8f87e0	-0.07008338
54	0x3e855597	0.26041862
55	0xbea2cfbf	-0.31799123
56	0xbe69efaf	-0.22845338
57	0xbe0584e5	-0.13038976
58	0xbd3dea30	-0.046365917
59	0x3dd08746	0.10182051
60	0x3c5c66ad	0.013452214
61	0x3e3cf8cd	0.18454285
62	0xbe34c070	-0.17651534
63	0xbdc71391	-0.09720529
64	0x3e34d9f3	0.17661266
65	0xbd267666	-0.040640257
66	0x3de457f1	0.11149586
67	0xbe0a57fb	-0.13510124
68	0x3e70290a	0.23453155
69	0xbe62f0ee	-0.2216222
70	0xbc85844e	-0.01629844
71	0xbc8585b5	-0.016299108
72	0x3e010c97	0.12602459
73	0xbe149830	-0.1451118
74	0x3e13d395	0.14436181
75	0x3e6a5d2e	0.22887108
76	0xbe35a517	-0.17738758
77	0xbe338179	-0.17529859
78	0x3df20f2d	0.11819301
79	0xbd1e4aaa	-0.038645424
80	0xbe76e48e	-0.24110624
81	0xbd5af69d	-0.053457845
82	0xbdc9a189	-0.098452635
83	0x3db0b0c9	0.08627469
84	0xbce2a45e	-0.027666267
85	0xbe120d72	-0.14262941
86	0x3e1158b2	0.14193991
87	0xbe2d062f	-0.1689689
88	0xbd43bb34	-0.047785953
89	0xbe855f20	-0.26049137
90	0xbdfc612f	-0.12323224
91	0xbe719daa	-0.235953
92	0x3e5d96ae	0.21639511
93	0x3dcbb450	0.09946501
94	0x3d55da0f	0.05220991
95	0xbe2c65ec	-0.16835755
96	0xbe2ea8f8	-0.17056644
97	0xbd67e357	-0.056613293
98	0x3cd2224a	0.025651116
99	0xbe379c8b	-0.1793081
100	0xbe6d98ad	-0.23202772
101	0xbd483bce	-0.04888516
102	0xbdc8eefa	-0.09811206
103	0xbd9ea18a	-0.07745655
104	0x3d4e530e	0.050372176
105	0xbdb3a5bc	-0.08771846
106	0xbe054a28	-0.1301657
107	0xbe1cf86b	-0.15329139
108	0xbd9a8d60	-0.075464964
109	0xbe9a01b1	-0.30079415
110	0x3e385f43	0.1800509
111	0x3caaa590	0.0208309
112	0x3e748003	0.23876958
113	0x3e34a20e	0.17639944
114	0xbe59a6db	-0.21255057
115	0x3e8edb37	0.27901623
116	0x3caf9f95	0.0214384
117	0xbdeb90c9	-0.11502225
118	0xbe571327	-0.210034
119	0xbe437256	-0.19086584
120	0x3df27e4b	0.11840495
121	0xbe23e603	-0.16005711
122	0x3de8ad95	0.11361233
123	0xbe32bac6	-0.17454061
124	0x3e1031ea	0.1408154
125	0xbdeadf77	-0.11468404
126	0x3a44b3a4	0.0007503575
127	0xbcfbf461	-0.030756177
128	0x3e14daaf	0.14536546
129	0x3d984bca	0.074363306
130	0x3ea5240a	0.32254058
131	0xbdd31b43	-0.10307934
132	0x3d7de45d	0.061985362
133	0xbe549b44	-0.20762354
134	0xbd234412	-0.03985984
135	0xbd122570	-0.035680234
136	0x3e3a62ad	0.18201704
137	0xbe281ae9	-0.16416515
138	0x3e2fd028	0.17169249
139	0x3d212ad6	0.039347492
140	0xbd72232c	-0.059115574
141	0xbda6bd38	-0.08141559
142	0x3e26b5c7	0.1628028
143	0xbd6576a6	-0.056021355
144	0x3e060b4f	0.13090251
145	0xbe83f185	-0.25770202
146	0x3d9236f2	0.07139386
147	0xbb094f15	-0.0020951678
148	0xbd4ebdbc	-0.050473914
149	0x3e7c2376	0.24622902
150	0xbd1c20cf	-0.038117226
151	0x3c167e97	0.009185455
152	0xbda43048	-0.080170214
153	0x3d9a7b1e	0.07543014
154	0x3dd4dc6f	0.10393607
155	0x3d8e1b91	0.069388516
156	0x3ae9080a	0.0017778885
157	0xbdbe18e0	-0.09282088
158	0xbe77e658	-0.24208963
159	0x3e60f6ae	0.21969101
160	0x3e70ec6a	0.23527685
161	0xbe226003	-0.15856938
162	0x3db0c569	0.08631403
163	0x3d3d2911	0.046181742
164	0xbc43ce5b	-0.011951054
165	0x3cb2e4ce	0.021837618
166	0x3de17462	0.110085264
167	0x3e72b0b2	0.23700216
168	0x3e889949	0.26679447
169	0xbc67d6e0	-0.014150351
170	0x3da4ea20	0.08052468
171	0x3d0fc208	0.035097152
172	0xbe205eac	-0.15661114
173	0x3bc6a70a	0.006062393
174	0x3e1492f0	0.14509177
175	0x3e1ed292	0.15510014
176	0x3d737e37	0.05944654
177	0xbd20c5d7	-0.039251175
178	0x3d5c47ed	0.05377953
179	0x3c2dd474	0.010609735
180	0x3e2c3beb	0.16819732
181	0xbc8b7bd8	-0.017026827
182	0xbe61ba15	-0.22043641
183	0x3d752f76	0.059859715
184	0x3e65241b	0.22377054
185	0x3e1b2ec7	0.15154563
186	0x3d84c526	0.064829156
187	0xbe26c43d	-0.16285796
188	0xbdbc3766	-0.09190254
189	0xbe54cf27	-0.20782147
190	0xbdf04706	-0.11732297
191	0x3e09025d	0.13379808
192	0x3dbaae10	0.09115231
193	0x3d0acd06	0.03388693
194	0xbe01739e	-0.1264176
195	0xbd3d99bc	-0.04628919
196	0x3d302f30	0.04301375
197	0x3e3d5c29	0.18492188
198	0xbded95e4	-0.11600855
199	0x3dba658f	0.09101402
200	0x3e42492a	0.18973222
201	0xbe957b0f	-0.2919545
202	0xbe66a124	-0.22522408
203	0xbbdd3a20	-0.006751314
204	0xbe947ae1	-0.29
205	0xbdc55d65	-0.09636954
206	0xbe4c4f4f	-0.19952129
207	0x3e147a1e	0.14499709
208	0x3e54352d	0.2072341
209	0x3d9d0eb7	0.07668822
210	0xbe49b3b7	-0.19697462
211	0xbe8c6edb	-0.27428326
212	0xbe2e753d	-0.1703691
213	0x3e734b87	0.2375928
214	0xbd9ec881	-0.07753087
215	0x3e848e02	0.25889593
216	0x3e7e3e83	0.24828534
217	0xbd572955	-0.05252965
218	0x3d412377	0.047152963
219	0xbddf0251	-0.10889114
220	0xbe44bd17	-0.19212757
221	0xbe4babae	-0.1988971
222	0xbc7be5a4	-0.015374575
223	0x3c8f4f80	0.017493963
224	0xbe22c1ab	-0.15894191
225	0xbd61fcd2	-0.05517275
226	0xbd6886e3	-0.056769263
227	0xbd0383d3	-0.03210814
228	0xbe34c89a	-0.17654648
229	0xbbc9cf9f	-0.0061587836
230	0xbd1f0f4d	-0.03883295
231	0x3e5bf6fa	0.21480933
232	0xbc3b1acc	-0.011419963
233	0xbe9597ff	-0.29217526
234	0x3da720b9	0.08160538
235	0xbe264d10	-0.16240335
236	0xbda350da	-0.079744056
237	0xbe1283b4	-0.14308053
238	0x3e6955ba	0.22786608
239	0xbd4a6e78	-0.049421757
240	0x3e3e8566	0.18605575
241	0x3e046971	0.12930848
242	0x3e2f95d5	0.17147
243	0xbe21df73	-0.15807895
244	0x3d7a7b77	0.0611529
245	0xbdc50400	-0.096199036
246	0x3e5a494b	0.21317022
247	0x3dc3635d	0.095404364
248	0xbce4d7b4	-0.027934887
249	0x3e02409f	0.12719963
250	0x3c5f0fc8	0.013614602
251	0xbe262373	-0.1622446
252	0x3e730856	0.23733649
253	0xbea5db0a	-0.32393676
254	0x3de32d2b	0.110925995
255	0x3eade2dc	0.33962142

a2c_network.actor_mlp.0.bias f4 [128]
0	0x3ccff527	0.025385452
1	0x3d975644	0.07389501
2	0x3d12b7cf	0.035819825
3	0xbbee8f18	-0.0072802417
4	0xbd0f380f	-0.03496557
5	0xbd161f20	-0.036650777
6	0xbd2d17df	-0.042259093
7	0xbcdfb1d4	-0.027306475
8	0xbcf20450	-0.029543072
9	0xbd0da55c	-0.034581527
10	0xbdb2d8ac	-0.08732733
11	0x3cb29a55	0.021802107
12	0x3d3ed504	0.046589866
13	0x3df0e01c	0.117614955
14	0x3d9bce14	0.07607666
15	0xbcf2ce33	-0.02963934
16	0xbd124cef	-0.0357179
17	0xbdde4d14	-0.10854545
18	0xbdc0e5b8	-0.094188154
19	0xbe27a2ba	-0.16370669
20	0x3d1f0026	0.0388185
21	0x3c408348	0.01175005
22	0xbd240b04	-0.040049568
23	0xbe2c0731	-0.16799618
24	0x3cc9762b	0.02459248
25	0x3d9c0903	0.07618906
26	0xbcf87083	-0.030327087
27	0xbc4193a9	-0.01181499
28	0xbd19746f	-0.037464555
29	0x3cc92fef	0.02455899
30	0x3cd1e402	0.025621418
31	0x3c108942	0.008821787
32	0xbe12bb9b	-0.14329378
33	0x3df78ea8	0.120877564
34	0xbe03de10	-0.12877679
35	0xbd8bd678	-0.06828016
36	0xbcdc7a29	-0.02691372
37	0xbe090f20	-0.13384676
38	0xbd41b2fa	-0.047289826
39	0x399e59ab	0.00030202916
40	0xbb823e2d	-0.003974697
41	0xbd00475b	-0.03131805
42	0xbd788e55	-0.060682613
43	0xbc8ff0b9	-0.01757084
44	0x3be135c8	0.0068728663
45	0x3cd88057	0.026428385
46	0xbe24d2bd	-0.16096015
47	0x3d05cbbd	0.032665003
48	0xbc30b2c9	-0.010784813
49	0xbbfb2312	-0.007664093
50	0xbde7b0d4	-0.11313024
51	0xbe049b4a	-0.12949863
52	0xbe8e97fb	-0.27850327
53	0xba439681	-0.00074610865
54	0x3d1cbbed	0.038265157
55	0xbda3dc0a	-0.080009535
56	0xbe07fe4a	-0.13280597
57	0xbca0a876	-0.019611578
58	0x3e1586c4	0.1460219
59	0xbd13b20e	-0.036058478
60	0x3db5b884	0.08873084
61	0x3ad283e8	0.001606104
62	0xbd31dcbe	-0.043423407
63	0x3d377212	0.04478652
64	0x3cfe96f9	0.031077849
65	0x3cc6f72a	0.024287779
66	0xbc32247e	-0.010872958
67	0xbcdf63e4	-0.027269311
68	0x3dab74dd	0.08371899
69	0x3c978ccc	0.018499754
70	0xbdfef78e	-0.12449561
71	0xbd3f95cb	-0.046773713
72	0xbd83ae3b	-0.06429716
73	0x3cfba80c	0.03071978
74	0x3d4f408b	0.050598662
75	0xbda0a295	-0.0784351
76	0x3d95151f	0.07279419
77	0xbd5e93d4	-0.0543402
78	0xbc8e5a67	-0.017377092
79	0xbc81e76b	-0.015857419
80	0xbcfc5dc8	-0.030806437
81	0x3d8def69	0.069304295
82	0xbd5e9873	-0.054344606
83	0x3d467f5c	0.048461303
84	0xbe24d944	-0.16098505
85	0xbce1151d	-0.027475888
86	0x3d19d139	0.037553046
87	0x3e012c84	0.12614638
88	0xbcc89361	-0.024484338
89	0xbd17d2ee	-0.037066393
90	0x3c22986a	0.009924034
91	0xbd948b39	-0.07253117
92	0x3e3c5958	0.18393457
93	0xbe06634c	-0.13123816
94	0xbc6023c0	-0.013680398
95	0xbe05a48a	-0.13051048
96	0x3d8956a0	0.067059755
97	0xbe7517ce	-0.23934862
98	0xbdd50df0	-0.10403049
99	0x3dce74eb	0.10080894
100	0xbc0950ea	-0.008381108
101	0xbd946d2a	-0.07247384
102	0xbd54858a	-0.051885165
103	0xbd4ff79c	-0.050773248
104	0x3da7ac0b	0.081871115
105	0x3c79e300	0.015251875
106	0xbc1871ac	-0.009304445
107	0xbd6aa64c	-0.0572875
108	0x3da32a2c	0.07967028
109	0xbc918353	-0.017762816
110	0xbd75c2d6	-0.060000263
111	0xbd03a826	-0.03214278
112	0xbe481777	-0.19540201
113	0xbe0f8853	-0.14016847
114	0x3c9ab2d6	0.018884104
115	0x3d50bda6	0.050962113
116	0x3d288449	0.041141782
117	0xbe37787b	-0.17917053
118	0xbd00e8f2	-0.031472154
119	0x3d8c9fcd	0.06866417
120	0xbd84991f	-0.06474518
121	0xbddbdda1	-0.10735632
122	0xbc828ade	-0.015935358
123	0xbd4ec2a0	-0.050478578
124	0xbd310f46	-0.043227457
125	0xbda41679	-0.08012099
126	0x3d2b5ff0	0.04183954
127	0xbd5e803a	-0.054321505

a2c_network.actor_mlp.2.weight f4 [64, 128]
0	0x3ccccf92	0.025001321
1	0x3e6d57c0	0.23178005
2	0x3e625345	0.22102077
3	0x3d253665	0.040335078
4	0x3c8cff33	0.017211532
5	0xbdde9810	-0.10868847
6	0xbcec7f84	-0.028869398
7	0x3bdb2dfb	0.006688831
8	0x3c8e8fca	0.017402548
9	0x3c18998d	0.009313953
10	0x3d8969e7	0.067096524
11	0xbcf9a9d7	-0.030476494
12	0x3db0c018	0.08630389
13	0x3de6c204	0.11267474
14	0xbcbf3cf8	-0.023344502
15	0xbd1111ed	-0.035417486
16	0x3dcbd75e	0.099531874
17	0xbd82c675	-0.06385509
18	0x3d5a1a12	0.05324752
19	0xbd689c55	-0.056789715
20	0xbce4dd19	-0.027937459
21	0xbda34016	-0.07971208
22	0xbda20739	-0.07911534
23	0x3ca27e2a	0.01983555
24	0x3bdefa98	0.0068047754
25	0x3d50ce87	0.05097821
26	0x3d83acc5	0.064294375
27	0x3d3564b6	0.0442855
28	0x3d8053be	0.062659726
29	0x3d0e112a	0.034684338
30	0x3be2b2bb	0.006918279
31	0x3bc1427b	0.0058978177
32	0x3ca771c3	0.020439988
33	0x3dc47557	0.09592693
34	0xbe122120	-0.14270449
35	0xbcdfdb94	-0.027326383
36	0x3c671b81	0.014105679
37	0x3c99d999	0.018780516
38	0xbb2d7dc1	-0.002647266
39	0x3bbf6c8f	0.0058417986
40	0x3c71a9eb	0.014749984
41	0x3d7c438a	0.061587848
42	0xbda18772	-0.07887162
43	0xbdade666	-0.08491211
44	0x3d310947	0.04322174
45	0x3c8ee092	0.017441068
46	0x3d512698	0.051062196
47	0x3dc4de7d	0.09612749
48	0x3ddb5f88	0.107115805
49	0xbdb1136b	-0.08646282
50	0x3e107927	0.14108716
51	0xbdc76c93	-0.09737506
52	0xbdd18822	-0.102310434
53	0x3c49f02d	0.012325329
54	0xbda14923	-0.07875278
55	0xbd14d6ac	-0.03633754
56	0xbd837c42	-0.06420185
57	0x3e02bd02	0.12767413
58	0x3e11607d	0.14196964
59	0xbd5dba25	-0.0541326
60	0x3d76ac55	0.060222942
61	0x3e15095b	0.1455435
62	0xbd3f6bb4	-0.046733573
63	0x3df23d22	0.118280664
64	0x3e4d0ecb	0.20025174
65	0xbc7c58c3	-0.015402022
66	0x3dc19737	0.0945267
67	0xbbb77fd2	-0.005599954
68	0xbd22e79c	-0.03977166
69	0x3d76572c	0.060141727
70	0x3cc77315	0.024346868
71	0xbe08fbb7	-0.13377272
72	0xbe3a5e31	-0.18199994
73	0x3e41c59d	0.1892304
74	0x3c4e9e02	0.012610914
75	0x3e07adbf	0.13249873
76	0x3e4fc7a6	0.20291004
77	0xbd743196	-0.0596176
78	0x3d563637	0.052297797
79	0x3d59136f	0.05299705
80	0x3c2f54cd	0.01070137
81	0x3c15dbe8	0.009146668
82	0xbcf0f9ed	-0.029416049
83	0x3dc0f46e	0.09421621
84	0x3c87ea6b	0.016591271
85	0x3d4254e6	0.047444247
86	0x3df3ae6c	0.11898503
87	0x3e1f9388	0.15583622
88	0x3c9ca632	0.019122217
89	0x3d71a3bd	0.058994044
90	0x3d81705a	0.063202575
91	0x3c4f2116	0.012642166
92	0x3da2db7d	0.0795202
93	0x3d63aae6	0.055582903
94	0x3e3a6adc	0.18204826
95	0xbd6eead3	-0.058329415
96	0x3e0927d2	0.13394096
97	0xbd29bc7c	-0.04143952
98	0xbdf15386	-0.11783509
99	0xbd84e531	-0.06489027
100	0x3e16293a	0.14664164
101	0x3e28d658	0.16488016
102	0x3d8d5fbb	0.06903025
103	0xbd0afff2	-0.033935495
104	0x3d43674b	0.04770593
105	0xbce962d1	-0.028489502
106	0xbd1a3021	-0.037643556
107	0x3d3290bc	0.04359506
108	0xbc6121d0	-0.013740972
109	0xbd44dbce	-0.048061185
110	0xbd11b58f	-0.03557354
111	0x3e5cec17	0.21574436
112	0xbd338ca5	-0.0438353
113	0xbdb1ad4a	-0.086756304
114	0x3dc3b8ee	0.09556757
115	0x3b03d626	0.0020116656
116	0x3dccc730	0.099989295
117	0x3dddfc69	0.10839159
118	0x3cc80fee	0.024421658
119	0xbd0302af	-0.03198498
120	0x3d76cbd7	0.06025299
121	0xbd353b1b	-0.04424582
122	0x3bd75492	0.006571361
123	0x3db2d704	0.08732417
124	0xbbc36906	-0.0059634475
125	0x3df48815	0.11940018
126	0x3d618ddf	0.05506694
127	0xbc8f4c21	-0.017492356
128	0xbdda5b53	-0.1066195
129	0x3d1095bb	0.035299044
130	0x3e33b658	0.17550027
131	0xbd8c8ca0	-0.068627596
132	0x3d10ab4b	0.035319608
133	0xbe190334	-0.14942628
134	0xbe0b56c6	-0.1360732
135	0x3db79d80	0.089655876
136	0x3cc09835	0.023510078
137	0x3d927fa6	0.07153253
138	0x3d580275	0.05273672
139	0xbd95ff4c	-0.07324085
140	0xbd4ae1ff	-0.049531933
141	0x3d94a96f	0.072588794
142	0x3d93cfb8	0.072173536
143	0x3b91da97	0.004451107
144	0x3db35f03	0.087583564
145	0x3cd97684	0.02654577
146	0x3c8248d1	0.015903862
147	0x3dc4ff76	0.09619038
148	0x3d10ef34	0.035384372
149	0xbcbed94f	-0.02329698
150	0xbda044c6	-0.078256175
151	0xbd10080d	-0.035163928
152	0xbd6ec37b	-0.058291893
153	0x3e0b8fc0	0.13629055
154	0xbc873621	-0.016505303
155	0x3d49ef57	0.049300518
156	0xbcae2c28	-0.02126129
157	0x3d8942c1	0.067021854
158	0x3d36a4ee	0.044590883
159	0xbccccfdb	-0.025001457
160	0x3b78f779	0.0037989302
161	0xbd3f9960	-0.04677713
162	0x3d2253e8	0.0396308
163	0x3adaa886	0.0016682304
164	0xbcb78d65	-0.02240629
165	0xbcc74f03	-0.024329668
166	0x3d9219a8	0.071338
167	0x3d916e07	0.07101064
168	0x3d49f7e1	0.04930866
169	0xbd44cb71	-0.04804558
170	0xbcb70b33	-0.022344207
171	0xbe0eaf1f	-0.13933991
172	0xbd859249	-0.06522042
173	0xbdbce94d	-0.09224186
174	0x3a5e4830	0.00084793847
175	0x3d9bc840	0.07606554
176	0x3d2c43a3	0.04205669
177	0xbd3f2383	-0.046664726
178	0x3d14ba92	0.03631074
179	0xbdc1079f	-0.09425282
180	0xbbfef3e4	-0.007780539
181	0x3d192194	0.03738554
182	0x3d63da2c	0.055627987
183	0x3a16a17c	0.0005746109
184	0x3cc4eb2e	0.024037924
185	0x3d85a8b7	0.065263204
186	0x3ded6d1f	0.11593079
187	0xbd0c75d5	-0.03429206
188	0x3c046f57	0.008083186
189	0x3da017f7	0.07817071
190	0xbd8706c3	-0.065930866
191	0x3d9e2bbe	0.07723187
192	0x3de115a7	0.10990458
193	0x3cc95f33	0.024581527
194	0x3d56a923	0.052407395
195	0x3dd95c52	0.10613312
196	0xbd2a1bb1	-0.041530315
197	0x3c2bc160	0.010483116
198	0xbd00ed3b	-0.03147624
199	0xbdd79a44	-0.10527471
200	0xbe039551	-0.12849928
201	0x3dbdf18a	0.092745855
202	0xbd17e23d	-0.037080992
203	0xbcced78d	-0.025249267
204	0xbd410615	-0.04712494
205	0xbdd719cd	-0.10502968
206	0xbd0486f9	-0.032355282
207	0xbd6b7105	-0.05748083
208	0xbb46c6bb	-0.0030330855
209	0x3c9dc805	0.019260416
210	0xbd97bf8f	-0.07409584
211	0x3e23e678	0.16005886
212	0xbcafbba3	-0.021451777
213	0x3d506220	0.05087483
214	0x3bf82009	0.0075721783
215	0xbd91678f	-0.0709983
216	0xbe223280	-0.15839577
217	0x3dfb03b7	0.12256568
218	0x3c3b7ca3	0.01144329
219	0xbcf97789	-0.030452507
220	0x3d69ceac	0.057081863
221	0x3e0944ae	0.13405105
222	0x3d2687e8	0.040656954
223	0xbcde06f7	-0.02710293
224	0x3d67e7bb	0.05661748
225	0xbcaea80c	-0.021320365
226	0xbdde3883	-0.108506225
227	0xbddc08e1	-0.10743881
228	0x3d3d804e	0.04626494
229	0x3d257764	0.040397063
230	0x3d92e019	0.071716495
231	0xbd6f48ac	-0.058418915
232	0x3aca917e	0.0015454737
233	0xbd08b7b9	-0.033378337
234	0xbd5f7bca	-0.054561414
235	0x3dbbaf08	0.09164244
236	0xbe1ae8b9	-0.15127839
237	0xbdf26acc	-0.11836776
238	0xbe0f129e	-0.13971946
239	0x3e0f9693	0.14022283
240	0x3db98333	0.090582274
241	0x3d333d32	0.043759532
242	0x3d0fcfb4	0.03511019
243	0xbdc7a506	-0.097482726
244	0x3e497c02	0.19676211
245	0x3c370330	0.011170194
246	0x3e1ba94e	0.15201303
247	0xbd491252	-0.049089737
248	0xbd5ef83b	-0.05443595
249	0xbdd6a0d2	-0.10479893
250	0x3e10a862	0.14126733
251	0xbca87cd5	-0.020567337
252	0xbe4572d4	-0.19282085
253	0x3e548650	0.20754361
254	0xbd9c4c36	-0.076317236
255	0xbcdb5cd7	-0.026777668

a2c_network.actor_mlp.2.bias f4 [64]
0	0x3cb36f87	0.021903766
1	0xbda77dc1	-0.081782825
2	0x3d49ab41	0.049235586
3	0xbd0f44c2	-0.034977682
4	0xbdff314c	-0.124605745
5	0xbdf38508	-0.11890608
6	0xbd9d8e6e	-0.07693182
7	0xbdaf8a2d	-0.08571277
8	0x3baf0527	0.0053411904
9	0xbd9f1caf	-0.07769143
10	0xbe058ff7	-0.130432
11	0xbd9b983b	-0.07597395
12	0xbd89c664	-0.06727293
13	0xbdcae63d	-0.09907196
14	0x3d7ea5e5	0.062169928
15	0x3ab0a5ad	0.001347711
16	0xb9462b77	-0.00018898943
17	0xbd94339a	-0.07236405
18	0x3cb6b483	0.022302872
19	0xbd6df396	-0.05809363
20	0xbd409e0d	-0.04702573
21	0xbcc168f3	-0.023609614
22	0x3ba5cfb6	0.0050601615
23	0xbe17527e	-0.14777562
24	0xbdc0f361	-0.09421421
25	0xbc99443b	-0.018709293
26	0xbb58c350	-0.00330754
27	0xbda1b039	-0.0789494
28	0xbcdf4bd8	-0.027257845
29	0x3d59ef5b	0.053206783
30	0xbcc034ea	-0.023462731
31	0x3cf93e4d	0.030425215
32	0xbe0cd2fb	-0.13752358
33	0xbde9542a	-0.11393006
34	0xbe02b753	-0.12765245
35	0x3d55e49d	0.052219976
36	0xbd793749	-0.06084374
37	0xbd65d956	-0.05611547
38	0xbe1951cb	-0.14972608
39	0xbd60c0e5	-0.05487146
40	0x3d7ed581	0.062215332
41	0xbcd7b9c3	-0.026333695
42	0xbe124081	-0.14282419
43	0x3cd67d2a	0.02618273
44	0xbdc8eb65	-0.09810523
45	0xbe085d4f	-0.13316844
46	0xbdc04ee6	-0.09390049
47	0xbe25fd67	-0.16209947
48	0x3c9ea0ca	0.01936378
49	0xbd30842d	-0.043094803
50	0x3d07020e	0.032960944
51	0xbbbce9e7	-0.005765188
52	0xbd24b8c6	-0.040215276
53	0xbb96f683	-0.004607023
54	0xbcd99cd1	-0.026564034
55	0x3c5cacdd	0.013468948
56	0xbd0558b3	-0.032555293
57	0xbc99cbba	-0.018773902
58	0x3cd6c0c8	0.026214972
59	0xbcfb9cc2	-0.030714396
60	0x3c9c8f77	0.019111378
61	0xbc7ab1dd	-0.015301195
62	0xbe19096d	-0.14945002
63	0xbd809362	-0.06278111

a2c_network.actor_mlp.4.weight f4 [32, 64]
0	0x3da586ee	0.080823764
1	0x3daaafef	0.08334338
2	0xbd75ab65	-0.059977908
3	0x3d4ef743	0.050528776
4	0x3c973114	0.01845602
5	0x3d5752b8	0.05256912
6	0x3d1b90af	0.037979778
7	0xbddf001e	-0.10888694
8	0xbdd32c93	-0.10311236
9	0xbdcb7697	-0.099347286
10	0x3def79b3	0.11693134
11	0x3d8af0b3	0.06784191
12	0xbda080dd	-0.07837079
13	0x3da1731a	0.07883282
14	0xbe1c1608	-0.15242779
15	0xbe1a4ff2	-0.15069559
16	0xbd614574	-0.054997876
17	0x3daa6a1f	0.08321022
18	0xbe4acca5	-0.19804628
19	0xbd313ff9	-0.0432739
20	0x3d275f9b	0.04086266
21	0x3b3cb616	0.0028795055
22	0x3d3db169	0.04631177
23	0xbd3c7d0d	-0.046017695
24	0xbd9e69bf	-0.07735013
25	0xbe905baa	-0.28194934
26	0x3db96226	0.090519235
27	0x3a914a1c	0.0011084708
28	0x3c124aa2	0.008928927
29	0xbdcc0544	-0.09961942
30	0x3da1e3e3	0.07904794
31	0xbcea6263	-0.028611368
32	0x3d966c26	0.073448464
33	0x3d393fb7	0.04522678
34	0x3ce02c6d	0.027364934
35	0x3bea2799	0.0071458337
36	0x3dd788c3	0.10524132
37	0x3c42cdf4	0.011889923
38	0xbb86d655	-0.004114906
39	0x3d36b576	0.04460665
40	0xbda186d1	-0.07887042
41	0xbbd2ec2f	-0.0064368467
42	0x3d89d551	0.0673014
43	0x3df5436c	0.1197575
44	0x3d07eeb4	0.03318663
45	0x3d5d8ab1	0.054087345
46	0x3d94df80	0.07269192
47	0x3dc4f05e	0.09616159
48	0x3de5af11	0.11215032
49	0xbc85f7b9	-0.016353475
50	0xbc8c15e4	-0.017100282
51	0xbcd0594c	-0.025433205
52	0xbdb2d754	-0.08732477
53	0xbe983086	-0.2972452
54	0xbcb9b198	-0.022667691
55	0xbdf8a0dc	-0.121400565
56	0xbd5434dd	-0.051808227
57	0x3ca75374	0.020425536
58	0xbcbbf1ce	-0.02294245
59	0x3cc37ccc	0.023863219
60	0xbda0125e	-0.07816003
61	0x3d6367d4	0.05551894
62	0x3df45606	0.1193047
63	0xbe2e8380	-0.17042351
64	0x3dd17588	0.102274954
65	0xbd360097	-0.044434156
66	0xbdde9495	-0.108681835
67	0xbe19c62a	-0.15017
68	0x3c020873	0.007936585
69	0xbc8aa0b7	-0.016922338
70	0xbdfa1697	-0.1221134
71	0x3db2bf09	0.08727843
72	0xbe0b2870	-0.13589644
73	0xbd989a05	-0.07451252
74	0x3dd80a4c	0.10548839
75	0xbc5c0471	-0.013428793
76	0x3dd04ba5	0.10170678
77	0xbc47433a	-0.012162024
78	0xbdcc94ea	-0.099893406
79	0xbdadc530	-0.08484876
80	0xbdeed554	-0.11661783
81	0xbe0e8302	-0.13917163
82	0x3d240e0e	0.040052466
83	0x3d678046	0.056518815
84	0xbd35c751	-0.044379536
85	0xbd88407d	-0.06652925
86	0x3bdb9430	0.006701015
87	0xbc9220fc	-0.017837994
88	0xbd02e350	-0.031955063
89	0xbd155f49	-0.036467824
90	0x3d9114a6	0.070840165
91	0x3d4231f4	0.04741092
92	0x3db17d30	0.08666456
93	0x3d39a7ac	0.04532592
94	0xbde11ace	-0.10991441
95	0x3da41f55	0.080137886
96	0xbc2a496b	-0.010393481
97	0x3c86026b	0.016358575
98	0xbda111fc	-0.07864758
99	0x3de73c7c	0.11290833
100	0xbd855966	-0.06511192
101	0xbb6d0819	-0.0036168157
102	0xbe0ee0c1	-0.13952924
103	0x3d40ea4f	0.047098454
104	0xbe0448f4	-0.12918454
105	0x3cb52769	0.022113519
106	0x3c982b4d	0.018575335
107	0x3c3e0425	0.011597668
108	0x3d37d736	0.044882976
109	0x3d8f6ff8	0.07003778
110	0xbd988cd8	-0.07448739
111	0xbda7bf85	-0.08190826
112	0x3bc216f3	0.005923146
113	0xbda392b3	-0.07986965
114	0xbe230c16	-0.15922579
115	0xbd86aaf5	-0.06575576
116	0xbdee5d2f	-0.11638867
117	0x3bc164e7	0.005901921
118	0x3d106a5e	0.03525769
119	0x3daa2300	0.08307457
120	0xbd8356aa	-0.06413014
121	0xbd7de519	-0.061986063
122	0x3bbd32e0	0.005773887
123	0x3d05bc2c	0.032650158
124	0x3ae972d1	0.0017810707
125	0x3cbca280	0.023026705
126	0xbd4aaed9	-0.049483154
127	0xbde4fc71	-0.11180962
128	0x3db4acaa	0.088219956
129	0x3cb711f4	0.022347428
130	0x3dead755	0.114668526
131	0x3e2d6d25	0.16936167
132	0xbe58eb41	-0.21183492
133	0xbe004287	-0.12525378
134	0x3e2e69b1	0.17032506
135	0x3d17fc48	0.03710583
136	0xbdbc669a	-0.09199257
137	0xbddaa511	-0.10676015
138	0x3dbc3b8b	0.091910444
139	0x3de49c55	0.111626305
140	0xbd2a52d7	-0.04158291
141	0x3e06fc5b	0.13182203
142	0xbc4d99be	-0.012548862
143	0x3ddd057d	0.107920624
144	0x3d8d8acd	0.0691124
145	0x3bda0f7a	0.006654677
146	0xbdf08714	-0.11744514
147	0xbe1b3ef5	-0.15160735
148	0x3e7ad826	0.24496517
149	0x3da67017	0.08126848
150	0xbdeab0c4	-0.114594966
151	0x3db50bad	0.088401176
152	0xbd7a97ca	-0.061179914
153	0x3cb62484	0.022234209
154	0xbd077c7a	-0.033077694
155	0xbd92f7b8	-0.07176155
156	0xbccc0442	-0.024904374
157	0x3d960fe7	0.07327252
158	0xbbffa824	-0.0078020263
159	0x3dbbe6ee	0.09174906
160	0x3cdb2baa	0.02675422
161	0x3d8499f1	0.064746745
162	0x3e5444fb	0.20729439
163	0x3dd9f717	0.10642832
164	0x3da491a3	0.080355905
165	0xbe163c74	-0.14671499
166	0xbdb3c03d	-0.08776901
167	0xbd5efed9	-0.05444226
168	0x3e1ad690	0.15120912
169	0x3d55d1c1	0.05220199
170	0x3dea16bc	0.114301175
171	0xbd95a1d1	-0.07306255
172	0xbd90c61e	-0.07069038
173	0x3cb8d60f	0.022563009
174	0x3e1e595f	0.1546378
175	0xbbb3dcb6	-0.0054889573
176	0x3d52ca45	0.05146243
177	0xbc0a312d	-0.008434576
178	0xbdc42918	-0.095781505
179	0xbd9109a3	-0.07081916
180	0xbdc697ef	-0.09696948
181	0xbe4647a8	-0.19363272
182	0x3ddb694b	0.107134424
183	0x3b7d7610	0.0038675107
184	0x3de8fe6b	0.113766514
185	0x3e2178f5	0.15768798
186	0xbd6d841f	-0.05798733
187	0x3b5fb129	0.0034132695
188	0x3e02da3f	0.12778567
189	0xbe4c07f9	-0.19924916
190	0x3ca3a182	0.019974474
191	0xbcd2fa02	-0.025753979
192	0xbdedac2a	-0.11605103
193	0xbdb96b7c	-0.09053704
194	0x3d7b4743	0.061347257
195	0xbe84cb51	-0.25936368
196	0xbdd374c7	-0.10325008
197	0x3cb421ea	0.021988828
198	0x3cdc4328	0.026887491
199	0x3e84e92c	0.25959146
200	0xbe009691	-0.12557437
201	0x3d6ae1fb	0.057344418
202	0xbe311db4	-0.17296487
203	0x3e322799	0.17397918
204	0xbb0d6e3d	-0.00215806
205	0xbe17fc1f	-0.1484227
206	0x3d68b4b9	0.056812976
207	0x3d9675f2	0.07346715
208	0xbe62e22e	-0.22156593
209	0x3de6b163	0.112643026
210	0x3dab0abc	0.08351657
211	0xbdc8cde4	-0.098048955
212	0x3dea3b10	0.114370465
213	0x3dd97fda	0.10620089
214	0x3d1e5be7	0.038661864
215	0x3e2ad261	0.16681816
216	0x3e5bbf3d	0.2145967
217	0x3d3dc0b3	0.04632635
218	0xbbcb0a3c	-0.0061962884
219	0x3d1efc74	0.038814977
220	0x3c296192	0.010338204
221	0x3d62fa0f	0.055414256
222	0xbe802f6b	-0.25036177
223	0xbc9a5a23	-0.018841809
224	0x3d356c23	0.04429258
225	0x3d5b1490	0.053486407
226	0x3cde0c45	0.02710546
227	0xbdf946f6	-0.12171738
228	0xbe0d850c	-0.13820285
229	0xbe270a0e	-0.1631243
230	0xbd82f135	-0.06393663
231	0xbdd76092	-0.10516466
232	0xbe05d7ed	-0.1307065
233	0x3d0fc06d	0.03509562
234	0x3d356874	0.044289067
235	0x3e5f1e08	0.217888
236	0xbe337d3e	-0.17528245
237	0x3e30cab9	0.17264833
238	0x3e214cd0	0.15751958
239	0x3d8bd15e	0.06827043
240	0xbd006957	-0.03135046
241	0xbe088c09	-0.13334669
242	0xbe0037e9	-0.12521328
243	0x3cda1f79	0.026626335
244	0xbccea3f3	-0.025224661
245	0x3e6f49a3	0.23367934
246	0xb8f29a42	-0.00011568192
247	0x3df9adce	0.12191354
248	0x3e00dbf1	0.12583901
249	0xbdd342de	-0.10315488
250	0xbe1c1382	-0.15241817
251	0x3ea51d65	0.3224899
252	0x3da62f78	0.08114523
253	0xbe0d854a	-0.13820377
254	0xbda5c16b	-0.08093532
255	0xbdc11bda	-0.094291404

a2c_network.actor_mlp.4.bias f4 [32]
0	0xbde39f5f	-0.11114382
1	0x3caee93e	0.021351453
2	0x3cf42204	0.029801376
3	0xbd2baf9f	-0.041915532
4	0xbd931335	-0.07181398
5	0x3c104be3	0.008807155
6	0x3cad5b28	0.02116163
7	0xbdc6543a	-0.09684034
8	0x3d012e9d	0.031538595
9	0xbcb70126	-0.022339415
10	0x3cf78d2c	0.030218683
11	0xbd86699f	-0.065631144
12	0xbde50fc7	-0.1118465
13	0xbd33a3e9	-0.04385749
14	0xbd9442e8	-0.07239324
15	0xbd3736a3	-0.04472984
16	0x3c705749	0.014669248
17	0x3d4ccbcb	0.04999904
18	0xbd404297	-0.046938505
19	0xbd9f0bbc	-0.0776591
20	0xbda69c88	-0.08135325
21	0x3cc63633	0.024195766
22	0xbd82900c	-0.06375131
23	0xbd29d7ac	-0.041465446
24	0xbc286caf	-0.010279818
25	0xba63b00a	-0.00086855947
26	0xbdc355b1	-0.09537829
27	0xbd74feac	-0.059813187
28	0xbbd12b3c	-0.006383328
29	0xbbad4188	-0.005287353
30	0xbda77ea0	-0.08178449
31	0xbc17ab4c	-0.009257149

a2c_network.value.weight f4 [1, 32]
0	0xbc273c58	-0.010207258
1	0x3dcb3542	0.099222675
2	0xbc2ac48b	-0.010422836
3	0x3de2036f	0.11035811
4	0x3d5b240e	0.05350118
5	0x3d7be760	0.061499953
6	0x3d4cc818	0.04999551
7	0x3a60d242	0.0008576253
8	0x3d0efd33	0.03490944
9	0x3dd99553	0.106241845
10	0x3c1d0e3e	0.009585915
11	0x3c357088	0.011074193
12	0xbc500fb9	-0.012699061
13	0x3bf3c376	0.0074390722
14	0x3b01bdab	0.0019796889
15	0x3d82046f	0.06348502
16	0xbd516566	-0.05112209
17	0x3d952700	0.07282829
18	0x3c20757a	0.009793634
19	0x3c3fbd2c	0.011702817
20	0x3cc79c7f	0.024366615
21	0x3d5b385c	0.053520545
22	0x3d9df3a4	0.077124864
23	0x3d05eb70	0.032695234
24	0x3db06fdd	0.08615086
25	0xbb75a934	-0.0037484886
26	0xbd2d5e3e	-0.042326204
27	0xbc0ca805	-0.008584981
28	0xbb581f69	-0.0032977706
29	0x3cb0a5ab	0.021563372
30	0x3b339612	0.0027402681
31	0x3d0024e0	0.031285167

a2c_network.mu.weight f4 [7, 32]
0	0xbd20ece5	-0.03928842
1	0xbaa05f9a	-0.0012235523
2	0xbe79db7f	-0.24400137
3	0xbdac0090	-0.08398545
4	0x3e81ae71	0.253284
5	0xbdec678c	-0.115431875
6	0xbe5a501f	-0.21319626
7	0xbdd88125	-0.10571507
8	0xbd4ce605	-0.05002405
9	0x3e6bfb14	0.23044997
10	0x3ce9f6a2	0.028559987
11	0x3e20fdad	0.1572177
12	0xbd9f473e	-0.0777726
13	0x3e55ae7e	0.20867345
14	0x3d499aab	0.04921977
15	0xbd764cf4	-0.060131982
16	0xbddb646c	-0.10712513
17	0xbddcd657	-0.107830696
18	0xbd86d7ac	-0.06584105
19	0xbe4fa9a9	-0.20279564
20	0x3e5a919e	0.21344611
21	0xbe0f145f	-0.13972615
22	0x3d9df2b5	0.07712308
23	0x3bb60cc3	0.0055557205
24	0xbdf0b750	-0.11753714
25	0x3e27b205	0.16376503
26	0xbe364293	-0.17798834
27	0xbe1503ef	-0.14552282
28	0xbd922661	-0.071362264
29	0xbbd792c7	-0.0065787765
30	0xbbda26a8	-0.00665744
31	0xbdeabcef	-0.114618175
32	0x3d2efb1b	0.04271994
33	0x3ddc94b2	0.10770549
34	0xbeba5a7c	-0.3639716
35	0xbd45ff45	-0.048339147
36	0x3e2ba9d0	0.16763997
37	0x3c782c9b	0.0151473535
38	0xbe7bbe4e	-0.24584314
39	0xbd3f8156	-0.046754204
40	0xbd955ead	-0.072934486
41	0xbb3688db	-0.0027852568
42	0x3ada9591	0.0016676654
43	0x3e30e5f2	0.17275217
44	0x3d8c3ae5	0.06847171
45	0x3e51fcef	0.20506643
46	0x3dc54e7c	0.0963411
47	0x3df543a4	0.11975792
48	0x3d2ebf16	0.042662703
49	0xbe824e5e	-0.25450414
50	0xbdf613ff	-0.12015533
51	0x3e0209b7	0.12699018
52	0xbd1b9513	-0.037983965
53	0xbd1e2e59	-0.03861842
54	0x3dffdbec	0.12493119
55	0xbd89ff61	-0.06738163
56	0x3c58adb1	0.013225005
57	0xbd85ff3d	-0.065428235
58	0xbc6483db	-0.013947452
59	0x3cbed32c	0.023294054
60	0xbdb40de9	-0.08791716
61	0x3e43a36c	0.19105309
62	0x3e4f176e	0.20223781
63	0xbd9fd1ac	-0.078036636
64	0xbe0bdca4	-0.13658386
65	0xbe0de4db	-0.13856833
66	0x3cfe8102	0.031067375
67	0xbdba491a	-0.09095974
68	0x3d93caf6	0.07216446
69	0xbd18c070	-0.037292898
70	0x3e2eef09	0.17083372
71	0xbe384486	-0.1799489
72	0xbba48672	-0.00502091
73	0xbedc11ba	-0.42982274
74	0x3d2b0fc9	0.0417631
75	0x3e36d0eb	0.17853133
76	0x3d685051	0.05671722
77	0xbd65118b	-0.055924933
78	0xbc8abd99	-0.01693611
79	0x3d72ffc7	0.05932596
80	0x3d81c870	0.063370585
81	0xbdecfb4c	-0.115713686
82	0x3cbfd11c	0.02341514
83	0xbe34f1ee	-0.17670414
84	0xbdfcb73a	-0.12339635
85	0x3cec3dc7	0.028838051
86	0xbd3a00ac	-0.045410797
87	0xbd53b13e	-0.051682703
88	0x3dc97605	0.098369636
89	0xbe4db9de	-0.20090434
90	0x3df665ee	0.1203116
91	0x3d4118c5	0.047142763
92	0x3e42958f	0.19002365
93	0x3e081633	0.13289718
94	0x3d4ad0ab	0.049515408
95	0x3d6772b5	0.056505878
96	0x3cf0b60d	0.029383684
97	0x3d17ef2b	0.037093323
98	0xbdace4f3	-0.08442106
99	0x3e621e1f	0.22081803
100	0xbc835184	-0.01603008
101	0x3dfd049a	0.12354393
102	0xbca248bf	-0.019810079
103	0x3d1188bf	0.0355308
104	0xbe4e7780	-0.20162773
105	0x3dd35adf	0.10320067
106	0x3e1389d8	0.14408052
107	0x3e07fba9	0.13279594
108	0xbdceeb9b	-0.10103532
109	0x3d485e08	0.0489178
110	0x3e4993e8	0.19685328
111	0xbe7856dd	-0.24251886
112	0xbe94c5fb	-0.29057297
113	0xbd73d32c	-0.05952756
114	0xbc88f9c8	-0.016720667
115	0xbe4794ef	-0.19490407
116	0xbd868994	-0.0656921
117	0xbe4b9de1	-0.19884445
118	0xbd869d32	-0.065729514
119	0xbcd1e979	-0.025624024
120	0x3e2419d1	0.16025473
121	0x3e0bca3b	0.13651364
122	0x3d9c4cb3	0.07631817
123	0x3d0b01f4	0.03393741
124	0x3cfbdb25	0.030744145
125	0x3d4d4f38	0.050124377
126	0x3dfd1a99	0.12358589
127	0x3e34c5eb	0.17653625
128	0xbe345f3f	-0.17614459
129	0x3dbd66af	0.09248101
130	0xbdf0ca0b	-0.11757287
131	0x3d3087cf	0.043098267
132	0x3e3737ea	0.17892423
133	0xbc31b8f1	-0.010847316
134	0xbd8ca0d3	-0.06866612
135	0x3d8511bd	0.06497524
136	0xbe09fef3	-0.13476162
137	0xbd62e1b6	-0.055391036
138	0x3ddfb50b	0.10923203
139	0x3d4cee38	0.05003187
140	0xbbe2d7d4	-0.0069227014
141	0x3dbbf211	0.0917703
142	0xbd89dd1e	-0.06731628
143	0xbda5981f	-0.080856554
144	0xbe5d0703	-0.21584706
145	0xbe097bbe	-0.1342611
146	0x3d818535	0.06324235
147	0xbd03e221	-0.032198075
148	0xbe248daa	-0.16069666
149	0x3d602db8	0.0547311
150	0x3cae9d12	0.021315131
151	0x3d54ac4d	0.05192213
152	0x3d57a083	0.05264331
153	0xbc3833ac	-0.011242788
154	0xbd9bbea2	-0.0760472
155	0xbe57e782	-0.21084407
156	0xbdce560e	-0.100750074
157	0x3d601882	0.054710872
158	0x3e67311a	0.22577325
159	0x3e16b45a	0.14717236
160	0x3e24f195	0.16107781
161	0x3bc526b1	0.0060165753
162	0x3de81b3a	0.11333318
163	0xbd3c85aa	-0.04602591
164	0x3d8ccc51	0.06874908
165	0xbdc3fe19	-0.0956995
166	0x3e4c7a5e	0.19968554
167	0x3e542563	0.20717387
168	0x3cdf869b	0.027285865
169	0xbe01110b	-0.12604158
170	0xbd6b0ec2	-0.05738712
171	0xbda5f0a7	-0.081025414
172	0xbe0053c1	-0.1253195
173	0xbdd18539	-0.10230488
174	0xbcf8c0d7	-0.03036539
175	0xbb9ad91e	-0.0047255894
176	0xbc4b9946	-0.01242668
177	0x3e27d99a	0.16391602
178	0x3ccc4690	0.02493599
179	0x3d7f966e	0.06239932
180	0xbd81c052	-0.0633551
181	0xbc25b5fa	-0.010114187
182	0xbd8cdf69	-0.068785496
183	0x3d2be531	0.04196662
184	0x3d7ab1eb	0.061204832
185	0xbd84aac6	-0.06477885
186	0xbc4bfad7	-0.012449942
187	0x3e810667	0.25200197
188	0xbcf2771a	-0.029597808
189	0xbd0adbf9	-0.03390119
190	0x3d688781	0.05676985
191	0x3d9fa8cf	0.077958696
192	0xbd93b1b6	-0.0721163
193	0xbd3d0127	-0.046143677
194	0xbe13e59e	-0.14443061
195	0xbdefc4e7	-0.11707478
196	0xbd2c4d87	-0.042066123
197	0x3c52d77d	0.012868759
198	0xbdbdb589	-0.09263141
199	0x3e80ee72	0.2518192
200	0x3ea9c3c1	0.3315716
201	0xbd72c3a0	-0.059268594
202	0x3cc5fec0	0.024169326
203	0xbd036837	-0.03208181
204	0x3e6e7438	0.23286521
205	0xbd9709d8	-0.073749244
206	0x3e28e7f9	0.1649474
207	0x3e38a875	0.18033011
208	0x3d30e947	0.04319122
209	0xbdb7fc55	-0.089836754
210	0x3e3ad024	0.18243462
211	0x3e84a3fe	0.25906366
212	0xbdd73431	-0.105080016
213	0x3d181ef6	0.0371389
214	0x3b323575	0.0027192507
215	0x3e217bd8	0.15769899
216	0xbcbb0520	-0.022829592
217	0xbe5f199e	-0.21787116
218	0xbd9b3838	-0.07579082
219	0x3eb4b72c	0.35296
220	0x3ebe8540	0.37211037
221	0x3e0fcda8	0.14043295
222	0x3c77550f	0.015095963
223	0xbe92a98a	-0.28644973

a2c_network.mu.bias f4 [7]
0	0xbd755bf1	-0.059902135
1	0xbdf2412b	-0.11828836
2	0x3d2b9418	0.04188928
3	0xbcbf9da8	-0.023390606
4	0xbd493558	-0.04912314
5	0xbd034e4a	-0.032057084
6	0x3d022ec4	0.03178288

exp_avg f4 [7]
0	0x3a925414	0.0011163973
1	0xbbb58b17	-0.0055402624
2	0x3813a15d	3.5197812e-05
3	0x3bf0eaa1	0.0073521887
4	0x3925fa79	0.00015828935
5	0xbb3fe810	-0.0029282607
6	0x3b9e6c6f	0.0048347036

exp_avg_sq f4 [7]
0	0x3a10e87a	0.0005527806
1	0x3a2cf77b	0.0006598157
2	0x3a1409ca	0.00056472106
3	0x3a07c194	0.00051786867
4	0x3a33924d	0.00068501086
5	0x3a101891	0.0005496825
6	0x3a14dcd3	0.00056786573

exp_avg f4 [128, 18]
0	0xbab19978	-0.0013549766
1	0xba7bb5c1	-0.00096019736
2	0x3b54a830	0.003244888
3	0xbb08dc88	-0.00208834
4	0xbb0ce290	-0.0021497346
5	0x3ac95ce2	0.0015362764
6	0xb9e3d867	-0.00043458046
7	0xb98de50e	-0.00027064275
8	0xbb0c0287	-0.002136381
9	0x3b45835e	0.0030138115
10	0xba5fa048	-0.00085306587
11	0xba777602	-0.0009439887
12	0xbb20ef16	-0.0024556569
13	0xba38cabd	-0.00070492533
14	0xb96f7ff7	-0.00022840487
15	0x3b71fa49	0.0036922863
16	0xba50810d	-0.00079538004
17	0x39cf08b3	0.00039488598
18	0xba409066	-0.0007345736
19	0xba77fd10	-0.00094600115
20	0x3b0254c2	0.0019886945
21	0xba8b5468	-0.0010630013
22	0xbad700c9	-0.0016403432
23	0x3a8617d0	0.0010230485
24	0xb833290e	-4.271516e-05
25	0x381313e7	3.5066067e-05
26	0xba92ea5f	-0.0011208764
27	0x3acc8a08	0.0015605101
28	0xb99e9e5d	-0.00030254098
29	0xba208662	-0.000612354
30	0xbad206e1	-0.0016023779
31	0xba7c35f5	-0.00096210773
32	0xb99138c0	-0.00027698837
33	0x3b068dcc	0.0020531295
34	0xba10aa91	-0.00055185804
35	0x386cd31c	5.6463396e-05
36	0xba9f43d0	-0.0012150947
37	0xba95b72c	-0.0011422387
38	0x3b37d7d1	0.002805222
39	0xbad351d0	-0.0016122404
40	0xbb01f841	-0.0019831809
41	0x3adc378d	0.0016801223
42	0x39f2efc4	0.00046336476
43	0xb987895d	-0.0002585155
44	0xba99acc6	-0.0011724464
45	0x3b1b5f01	0.002370775
46	0xb9d7dd95	-0.00041173087
47	0xba8eb9d2	-0.0010889119
48	0xbaa393f6	-0.0012480009
49	0xba3bb7e8	-0.0007160888
50	0xb9506efd	-0.00019877772
51	0x3b40e4e4	0.0029433304
52	0xba58a0b7	-0.00082636945
53	0x37e135f2	2.684721e-05
54	0x3a0236a7	0.000496725
55	0xb9971ce3	-0.00028822487
56	0xba61672f	-0.00085984444
57	0x3a5dde87	0.000846364
58	0x3a7d9a21	0.0009674151
59	0xba3e84c6	-0.00072677096
60	0x3a7b56f9	0.000958785
61	0x3a16b9ee	0.00057497516
62	0x3ab30b09	0.0013659905
63	0xbaff890c	-0.0019495799
64	0x3a79d470	0.0009530252
65	0x3a6212a8	0.0008623996
66	0x3a6cc752	0.00090323866
67	0x3ad165e5	0.0015975802
68	0x390b5628	0.00013288169
69	0xbac3bc8b	-0.001493351
70	0x39998955	0.00029284754
71	0xb9ab50de	-0.00032675912
72	0x3a015edd	0.0004935095
73	0x39da5bae	0.00041648507
74	0xbaaa8e61	-0.0013012403
75	0x3a3d1508	0.0007212912
76	0x3a65d67c	0.00087676174
77	0xba3d99c2	-0.00072326895
78	0xb9b517d8	-0.00034540775
79	0x39690cd0	0.00022225385
80	0x3a1b1a47	0.00059166964
81	0xbaa999ed	-0.001293955
82	0x39cbf4e6	0.0003890164
83	0x3a4d1e0b	0.0007824606
84	0x3a61a472	0.0008607573
85	0x3a2bf245	0.00065592333
86	0xb80ea612	-3.4010103e-05
87	0xba9d41a2	-0.001199771
88	0x399ae4b2	0.0002954356
89	0x38585a55	5.158254e-05
90	0x396b7083	0.0002245326
91	0x3a26a60e	0.00063571415
92	0xba42df39	-0.00074337755
93	0x398b8db1	0.00026617714
94	0x3a35e9b5	0.0006939427
95	0xb9e712cc	-0.00044073758
96	0xba56f27b	-0.00081995846
97	0xb909597a	-0.00013098671
98	0x38f8c646	0.00011862493
99	0xb96b74e3	-0.0002245489
100	0xb984fc11	-0.00025364806
101	0x39f323c5	0.00046375222
102	0x399dabf1	0.0003007348
103	0x394a8d7c	0.00019316928
104	0xb77cfc11	-1.5079059e-05
105	0xb9db397d	-0.00041813767
106	0x39a268a3	0.00030977008
107	0x3911fa28	0.00013921468
108	0x392ab8cd	0.00016281307
109	0x38d026e0	9.925454e-05
110	0xba0e342b	-0.0005424644
111	0x399de13b	0.00030113183
112	0x3a10ce40	0.00055238977
113	0xb98a3e48	-0.00026367814
114	0x394fd24d	0.00019819401
115	0x389d6fdb	7.507178e-05
116	0x39acd159	0.00032962373
117	0xba2da87c	-0.00066245324
118	0x39a3119b	0.000311029
119	0x3a04df4e	0.00050686754
120	0x3a48ca56	0.0007659545
121	0x3a4e616b	0.0007872793
122	0x39106df0	0.00013773865
123	0xba14e4fe	-0.00056798744
124	0x394190e4	0.0001845989
125	0x38004f25	3.0591287e-05
126	0xba0a4445	-0.0005274455
127	0xb981295b	-0.0002463561
128	0x3a4c4a20	0.0007793028
129	0xba0e7f88	-0.0005435874
130	0xb9e14ca8	-0.00042972458
131	0x39e199dc	0.00043029978
132	0x3a158634	0.0005703897
133	0xb7e4086c	-2.718364e-05
134	0xb845b415	-4.7136175e-05
135	0x39c263f0	0.00037077023
136	0x394f5da6	0.00019775945
137	0xb9b77022	-0.00034988025
138	0x391e620a	0.00015104577
139	0x3a79719c	0.00095155253
140	0x3806ff55	3.2185886e-05
141	0x3a71487c	0.00092042214
142	0xb99c45db	-0.00029806685
143	0x392e44fd	0.00016619633
144	0x39e6f879	0.00044054145
145	0x3a02d75e	0.00049911987
146	0xbac02990	-0.0014660824
147	0x3a480ecd	0.00076316
148	0x3a855819	0.001017335
149	0xba5b9fff	-0.0008378028
150	0x38c3b3c1	9.331806e-05
151	0x39595800	0.00020727515
152	0x3a29444c	0.00064570154
153	0xbad9b549	-0.0016609813
154	0x3a169219	0.0005743816
155	0x3a4bea66	0.00077787635
156	0x3a8b8b19	0.0010646313
157	0x3aab271f	0.0013057924
158	0x3922615c	0.00015485793
159	0xbac9b260	-0.0015388243
160	0x399e1705	0.0003015326
161	0x39201c9a	0.00015269444
162	0xbaf09a17	-0.0018356469
163	0xba32de17	-0.0006823255
164	0x3b814447	0.003944907
165	0xbb36916b	-0.0027857672
166	0xbb24b2f1	-0.0025131071
167	0x3b3ea562	0.0029090275
168	0x3a0a6e32	0.00052807026
169	0xbab3d6aa	-0.0013720591
170	0xbb048612	-0.0020221514
171	0x3ba15c84	0.004924359
172	0xbac8d2c0	-0.0015321597
173	0xbb0a5f31	-0.0021113867
174	0xba8d6176	-0.0010786492
175	0xba8c91c5	-0.0010724595
176	0x397b4bc1	0.00023965446
177	0x3ba08e62	0.004899786
178	0xbaa59156	-0.0012631814
179	0x39b26dc4	0.00034032587
180	0xb9cb8c7e	-0.00038823852
181	0xb9a90025	-0.000322343
182	0x3a5ff097	0.00085426256
183	0xba1d8705	-0.0006009194
184	0xba185a96	-0.0005811838
185	0x3a1ab933	0.00059022306
186	0xb86582a5	-5.4719527e-05
187	0xb9179d9a	-0.00014459193
188	0xba471cce	-0.000759554
189	0x3a9b7e6b	0.0011863237
190	0xb99797be	-0.0002891402
191	0xb9f4afc7	-0.0004667027
192	0xb9143ef4	-0.00014137832
193	0xb9e528b6	-0.00043708616
194	0xb917ad35	-0.00014465007
195	0x3aa122d5	0.0012293706
196	0xb988d679	-0.00026099736
197	0x395a77bc	0.00020834705
198	0x3af018f3	0.0018317982
199	0x3a9a172c	0.0011756173
200	0xbb805a93	-0.0039170473
201	0x3b19ca1e	0.0023466418
202	0x3ae2c2fa	0.0017300539
203	0xbb286809	-0.0025696775
204	0xbabbc1fd	-0.0014324781
205	0x3a775030	0.0009434251
206	0x3ae2eb55	0.0017312566
207	0xbb7c1672	-0.0038465527
208	0x3a1201c5	0.00055697217
209	0x3ad1909a	0.0015988529
210	0x3a2a77f0	0.00065028574
211	0x3844b73b	4.6900688e-05
212	0xba02b75a	-0.0004986428
213	0xbb817235	-0.003950382
214	0x3a59f332	0.0008314132
215	0x394fdaf7	0.00019822629
216	0x3aa08ddd	0.001224931
217	0x3a36389d	0.0006951185
218	0xbb2e6a97	-0.0026613825
219	0x3ae38330	0.0017357823
220	0x3ae6e590	0.0017616022
221	0xbae087a9	-0.0017130274
222	0xba27d7f7	-0.00064027257
223	0x3a2ce075	0.0006594726
224	0x3aa845bb	0.0012838164
225	0xbb39fb06	-0.0028378381
226	0x3a4ed3c8	0.0007889834
227	0x3abfc360	0.001463037
228	0x3a5ff592	0.0008543368
229	0x3a4c8667	0.000780201
230	0xb9005066	-0.00012236982
231	0xbb402e20	-0.0029324368
232	0x3a4d56ac	0.00078330445
233	0xb9263de9	-0.00015854057
234	0xba1dd8db	-0.00060213887
235	0xb99ca8b2	-0.00029880326
236	0x3a8fd43a	0.0010973283
237	0xba3bc4bf	-0.00071628013
238	0xba35ec46	-0.00069398095
239	0x3a83d29d	0.0010057274
240	0x3a142ebe	0.0005652717
241	0xb9fa3a9a	-0.00047727377
242	0xba25abb7	-0.0006319838
243	0x3ab9e01a	0.0014181167
244	0xb985fd76	-0.0002555658
245	0xba4d1ba4	-0.0007824248
246	0x394f467f	0.0001976732
247	0xb9aba3dc	-0.00032737746
248	0x3981388e	0.00024646934
249	0x3aa55f04	0.0012616818
250	0xb9874d73	-0.0002580691
251	0x3672870e	3.6139422e-06
252	0xb9c12cc3	-0.0003684518
253	0xb9a9356a	-0.00032273988
254	0x3a785bb6	0.0009474115
255	0xb9f660f6	-0.00046993018

exp_avg_sq f4 [128, 18]
0	0x36a3956e	4.8751745e-06
1	0x36855b4e	3.974338e-06
2	0x36995e70	4.5707493e-06
3	0x368c8d31	4.188762e-06
4	0x368c76f2	4.186172e-06
5	0x363b7c1b	2.793741e-06
6	0x36568ca6	3.1970353e-06
7	0x36a2d524	4.852789e-06
8	0x36b30f21	5.336377e-06
9	0x36a1d053	4.822426e-06
10	0x3696ffa2	4.500108e-06
11	0x36658432	3.4200607e-06
12	0x366bbdf5	3.5128298e-06
13	0x36881b4a	4.0562927e-06
14	0x363ac27a	2.782936e-06
15	0x365d1df5	3.2949004e-06
16	0x365a8abf	3.2565292e-06
17	0x361adb40	2.3075409e-06
18	0x37882365	1.6228945e-05
19	0x37698f49	1.3921243e-05
20	0x374b41fc	1.2115106e-05
21	0x3745f152	1.1798302e-05
22	0x374b2422	1.2108156e-05
23	0x37207f72	9.566416e-06
24	0x3719611d	9.142122e-06
25	0x377978b0	1.4869656e-05
26	0x3761e5dd	1.3464564e-05
27	0x37735714	1.4504203e-05
28	0x37496caa	1.2005834e-05
29	0x3759e7d7	1.2988187e-05
30	0x375d21db	1.3180509e-05
31	0x372ea5d2	1.0409816e-05
32	0x36d6d8d2	6.402938e-06
33	0x37226137	9.678587e-06
34	0x3728c918	1.0060401e-05
35	0x3725fe52	9.89398e-06
36	0x3794738f	1.7696786e-05
37	0x3781c286	1.546858e-05
38	0x375085eb	1.2428946e-05
39	0x37344e3c	1.0747051e-05
40	0x373db585	1.1307541e-05
41	0x37029bea	7.784905e-06
42	0x37002af3	7.639394e-06
43	0x37822302	1.551351e-05
44	0x378e3564	1.6952581e-05
45	0x374eacce	1.2318791e-05
46	0x37410afd	1.1506255e-05
47	0x37403edc	1.1458727e-05
48	0x37719f13	1.4401757e-05
49	0x3746692d	1.1826208e-05
50	0x36f87200	7.4042473e-06
51	0x373692c4	1.0882217e-05
52	0x372de6b7	1.0365321e-05
53	0x3764a0a7	1.3627264e-05
54	0x371062d1	8.606076e-06
55	0x36d5a470	6.3670377e-06
56	0x36a77813	4.9909663e-06
57	0x36aaa9a6	5.0861445e-06
58	0x37002677	7.63835e-06
59	0x36539c97	3.1532597e-06
60	0x3690b79f	4.3129107e-06
61	0x36a3aa1a	4.877581e-06
62	0x371fd2bf	9.526207e-06
63	0x3695212f	4.444409e-06
64	0x370707c4	8.048435e-06
65	0x36befeb5	5.692093e-06
66	0x36cd8523	6.1249752e-06
67	0x36ac78ac	5.1400475e-06
68	0x36857960	3.977839e-06
69	0x36846f85	3.946889e-06
70	0x36af6e3f	5.2282408e-06
71	0x36ac4318	5.13381e-06
72	0x36e3ac35	6.7851747e-06
73	0x36a43378	4.8935726e-06
74	0x3711b544	8.684878e-06
75	0x36d71697	6.410129e-06
76	0x370bf067	8.341019e-06
77	0x36b1a9d3	5.294781e-06
78	0x36c054be	5.731911e-06
79	0x370c27ca	8.353914e-06
80	0x36d109c1	6.229821e-06
81	0x3716f3ca	8.997458e-06
82	0x37149ca3	8.857957e-06
83	0x37160ea5	8.944106e-06
84	0x37166444	8.964042e-06
85	0x37135421	8.781471e-06
86	0x36667382	3.4339905e-06
87	0x36d0228b	6.2029044e-06
88	0x36ca6baa	6.032603e-06
89	0x36dcd439	6.581217e-06
90	0x36cf70a8	6.1821956e-06
91	0x369f3f2e	4.7459243e-06
92	0x36d2b287	6.279271e-06
93	0x36d5eb8a	6.375315e-06
94	0x36ff38b8	7.606195e-06
95	0x36aad053	5.090647e-06
96	0x3691e920	4.348476e-06
97	0x37087e57	8.1356475e-06
98	0x3723d929	9.766119e-06
99	0x36fc2456	7.5144153e-06
100	0x36eb21db	7.007487e-06
101	0x36eaa7ac	6.993263e-06
102	0x36f08d5e	7.1690147e-06
103	0x370ca092	8.382036e-06
104	0x3677913f	3.6890413e-06
105	0x36b96289	5.5249006e-06
106	0x36c0cd84	5.745971e-06
107	0x36c5b9ee	5.8927026e-06
108	0x36fa9898	7.468345e-06
109	0x36c3db2d	5.8369683e-06
110	0x36ed1ffd	7.0668743e-06
111	0x36da91f8	6.5138993e-06
112	0x370ef9bb	8.5220045e-06
113	0x36aef87f	5.214533e-06
114	0x36aba946	5.115903e-06
115	0x3724f6ec	9.832653e-06
116	0x3746fe63	1.1860949e-05
117	0x370384c2	7.839119e-06
118	0x370c58d3	8.365331e-06
119	0x36faa3c2	7.4696445e-06
120	0x3709faad	8.224201e-06
121	0x37247a12	9.803583e-06
122	0x36a37ecb	4.872539e-06
123	0x3693f231	4.409136e-06
124	0x36e87ee8	6.9289126e-06
125	0x36f950bf	7.4301784e-06
126	0x36726f4b	3.612559e-06
127	0x3632614b	2.65807e-06
128	0x36596ef3	3.24001e-06
129	0x36797f83	3.7178113e-06
130	0x3650245c	3.101558e-06
131	0x35f10519	1.7957383e-06
132	0x36085e19	2.0320351e-06
133	0x368c3179	4.1780845e-06
134	0x368963d5	4.09454e-06
135	0x3693b81f	4.402376e-06
136	0x36660289	3.4274146e-06
137	0x367491de	3.644374e-06
138	0x3689a00a	4.101549e-06
139	0x3680db88	3.840254e-06
140	0x3607847d	2.0193686e-06
141	0x3656ec78	3.2026128e-06
142	0x36522e48	3.1319378e-06
143	0x36615a6c	3.3580245e-06
144	0x36e0159d	6.6782363e-06
145	0x368197ba	3.862163e-06
146	0x36b45d6b	5.3752933e-06
147	0x36b27a05	5.3190183e-06
148	0x3694cb17	4.4343865e-06
149	0x364e2632	3.0718625e-06
150	0x3652d1a3	3.1414463e-06
151	0x3706da90	8.03791e-06
152	0x36c38536	5.8269607e-06
153	0x36d2dc9a	6.284169e-06
154	0x36dbe78d	6.5536647e-06
155	0x36b2d0fd	5.329143e-06
156	0x369c91d7	4.6661403e-06
157	0x36d7cb47	6.431164e-06
158	0x3656a8e3	3.198679e-06
159	0x3686c9fa	4.0170244e-06
160	0x368dd913	4.227398e-06
161	0x364f13b3	3.085687e-06
162	0x378f9ac7	1.7119002e-05
163	0x373417b0	1.0734351e-05
164	0x3713b465	8.803884e-06
165	0x37355a43	1.0809456e-05
166	0x372e1a94	1.0377396e-05
167	0x36cf59d0	6.1795363e-06
168	0x36b20999	5.3059307e-06
169	0x372bd334	1.0241569e-05
170	0x3740506b	1.1462816e-05
171	0x37349e43	1.0765684e-05
172	0x371d6bb9	9.38301e-06
173	0x3711e5b2	8.696154e-06
174	0x3715759b	8.908474e-06
175	0x371f7840	9.505136e-06
176	0x36fd1bc7	7.5432213e-06
177	0x37126b89	8.727316e-06
178	0x3723a227	9.753311e-06
179	0x36ecc63a	7.0564247e-06
180	0x361a31d0	2.2976783e-06
181	0x362e3c3b	2.596308e-06
182	0x36006cb6	1.9136764e-06
183	0x3617425e	2.2539384e-06
184	0x3636303d	2.7148192e-06
185	0x35b339c6	1.3353354e-06
186	0x36063fb3	2.0004634e-06
187	0x364da2b3	3.0642084e-06
188	0x362b709f	2.554654e-06
189	0x36304430	2.6265734e-06
190	0x364720b2	2.9672342e-06
191	0x36086ab8	2.0327698e-06
192	0x36231d85	2.4306075e-06
193	0x363658c7	2.7171789e-06
194	0x35e6a03f	1.7182973e-06
195	0x35f8d666	1.8539838e-06
196	0x360f36aa	2.134048e-06
197	0x361bce83	2.3217005e-06
198	0x379e4753	1.886828e-05
199	0x3783d522	1.5715665e-05
200	0x375a25e9	1.3002639e-05
201	0x37792b77	1.48516765e-05
202	0x374e2283	1.2286592e-05
203	0x3701f3fe	7.745808e-06
204	0x36ee7e96	7.1076893e-06
205	0x37553b04	1.270953e-05
206	0x37868165	1.6034299e-05
207	0x3770fd6c	1.4364119e-05
208	0x3758718a	1.2901039e-05
209	0x37309139	1.052423e-05
210	0x373c1242	1.1209924e-05
211	0x3788e502	1.6319103e-05
212	0x372e248f	1.037972e-05
213	0x37362170	1.0855831e-05
214	0x374c1bb4	1.2165798e-05
215	0x372d10aa	1.0315483e-05
216	0x36bcbf6b	5.6251206e-06
217	0x36a5748f	4.9309524e-06
218	0x36e5537f	6.834452e-06
219	0x36aaab64	5.0863473e-06
220	0x36b9f1ee	5.541594e-06
221	0x369d39bb	4.6856853e-06
222	0x36858eda	3.980339e-06
223	0x36bcfa3e	5.6319686e-06
224	0x368d48ac	4.2105876e-06
225	0x3704779b	7.895661e-06
226	0x36a97882	5.0506214e-06
227	0x36d0f597	6.2274735e-06
228	0x36b908a5	5.514436e-06
229	0x36d54160	6.3555053e-06
230	0x3624d3b3	2.456113e-06
231	0x36c89c83	5.978685e-06
232	0x368f3078	4.2673746e-06
233	0x3684fc1f	3.9632573e-06
234	0x36a3a882	4.8773954e-06
235	0x3669db8e	3.4847503e-06
236	0x36911f99	4.325015e-06
237	0x367c51d3	3.7598554e-06
238	0x36aa4a5e	5.0750523e-06
239	0x3658106f	3.2196074e-06
240	0x36369826	2.7208675e-06
241	0x36a3b4e9	4.8788393e-06
242	0x368ab752	4.134062e-06
243	0x369bd805	4.644508e-06
244	0x368dba66	4.223827e-06
245	0x36a05606	4.778386e-06
246	0x368bc840	4.165835e-06
247	0x369c03e7	4.6496166e-06
248	0x3648d63b	2.992702e-06
249	0x363838fd	2.7451308e-06
250	0x367cb5b9	3.7656703e-06
251	0x369645df	4.4784824e-06
252	0x36d58d7b	6.364365e-06
253	0x36b16e7f	5.2878745e-06
254	0x36bcfcd1	5.6322683e-06
255	0x36c60d1a	5.902385e-06
