runs/BallBalance_11-14-45-21/nn/BallBalance.pth (torch, 172255 bytes, 36 tensors)

value_mean_std.running_mean f8 [1]
0	0x3fc0cc1930879865	0.13122858876812696

value_mean_std.running_var f8 [1]
0	0x3f757755edf9ec10	0.00524076048133805

value_mean_std.count f8 []
0	0x4099040000000000	1601.0

running_mean_std.running_mean f8 [18]
0	0xbfa1ae874ec811e6	-0.034534672133336206
1	0x3fb78eb4f6a6d4dc	0.09202128431100526
2	0xbf76536b99e33c7b	-0.0054506495636835696
3	0xbfbe90a4512db3ee	-0.1193945596875918
4	0x3fa972bae6977d9b	0.0497034460529406
5	0xbf9a270ea3f47e8c	-0.02553961635305639
6	0xbfb6d468e46f3893	-0.0891786153508483
7	0xbfc178eb92db3ef5	-0.1365026919433984
8	0x3fdaf0a29488c9fe	0.4209371996431911
9	0xbfc048f8e2ea9639	-0.12722693519497044
10	0xbfcbb4c4ca25b67f	-0.2164541232154313
11	0x3fc476e8c346a1b9	0.15987882170635517
12	0xbfb74b68e94ef0fb	-0.09099441238408083
13	0xbfc51ba9ce4d57e4	-0.16490671704622095
14	0x3fbe69a87ca4e9f0	0.11879971545287282
15	0x3fc3c183e6c06645	0.15434311644712487
16	0xbfcdf100d7403d5c	-0.23391733656215308
17	0xbf437223c678cf50	-0.0005934405025471521

running_mean_std.running_var f8 [18]
0	0x3faf96bb325bc1b4	0.061696863076466185
1	0x3f8f6f7176a09d9c	0.01534927981636152
2	0x3fb9d348676cd0a6	0.10088017010713432
3	0x3fc7e7ab60ca6e82	0.18675749040709283
4	0x3f9d0b56279248cd	0.028363557973144538
5	0x3f88220c61568535	0.011783692093390566
6	0x3f88e48fd64838d0	0.01215469715773701
7	0x3ff59b5154eb1aeb	1.3504193608402442
8	0x3fe0255085af387e	0.5045549975418593
9	0x4009a5649e1e8d90	3.2057583191942243
10	0x4011d398148dd9a7	4.4566348277643675
11	0x3fe6dacb20b30462	0.714208186975281
12	0x3fec01521cb20182	0.8751612244087001
13	0x3ff3b108a7a0f4ac	1.2307211444852255
14	0x3f77ddb40557200e	0.0058266670288915755
15	0x3f792b454919ca42	0.00614478172939187
16	0x3fc3183a2dc1868c	0.14917685732057284
17	0x3fc78685354796c7	0.18379273511452807

running_mean_std.count f8 []
0	0x4089080000000000	801.0

a2c_network.sigma f4 [7]
0	0xbd9feae9	-0.078084774
1	0xbdd945d2	-0.1060902
2	0xbdb57bad	-0.0886148
3	0xbd52b6ac	-0.05144374
4	0xbdccfd44	-0.10009244
5	0xbd641b86	-0.05569031
6	0xbde7ec79	-0.113244005

a2c_network.actor_mlp.0.weight f4 [128, 18]
0	0xbe356fe5	-0.17718466
1	0xbd80b764	-0.06284979
2	0xbe457a87	-0.19285022
3	0xbd9e48b9	-0.077287145
4	0xbd0bdfa0	-0.034148812
5	0x3d83d82c	0.06437716
6	0xbe206db8	-0.15666854
7	0xbdcc6c6c	-0.09981617
8	0xbe190cc4	-0.14946276
9	0xbe491021	-0.19635059
10	0xbc22e2e0	-0.0099417865
11	0xbd7bbd9b	-0.06146012
12	0x3e1bd085	0.15216263
13	0xbcf53467	-0.029932214
14	0x3e238ae9	0.15970959
15	0xbcdd5484	-0.02701784
16	0xbde88e4c	-0.11355266
17	0x3e554a14	0.2082904
18	0xbd71170d	-0.058859874
19	0x3e8290ad	0.25501004
20	0x3df85939	0.12126393
21	0xbe19f8e8	-0.15036356
22	0x3d842898	0.06453055
23	0xbd3480c7	-0.044068124
24	0x3d869c71	0.065728076
25	0x3e3887ee	0.18020603
26	0x3e5b27f4	0.2140196
27	0xbe02bf81	-0.12768365
28	0x3e16bf92	0.14721516
29	0xbd413402	-0.04716874
30	0x3e1f6d9a	0.15569153
31	0xbdfe2d5c	-0.12410995
32	0xbe568e38	-0.2095269
33	0xbd96dee2	-0.0736673
34	0xbea10ea2	-0.31456476
35	0x3e082ded	0.1329877
36	0xbd0542c9	-0.032534394
37	0x3d76f9fb	0.060296994
38	0x3df74bac	0.1207498
39	0xbde575ab	-0.11204084
40	0x3e50f72f	0.20406793
41	0xbe350a46	-0.176797
42	0x3d2265e2	0.039647944
43	0xbe49278f	-0.19643997
44	0x3e4d937b	0.2007579
45	0xbdf1e8f0	-0.118120074
46	0x3dab3753	0.08360162
47	0xbdf19816	-0.11796586
48	0x3e231739	0.15926827
49	0xbdbeb6b7	-0.09312194
50	0xbe363122	-0.1779218
51	0xbe044573	-0.12917118
52	0x3dc8b64a	0.09800394
53	0x3cbcb657	0.023036165
54	0x3e45cd66	0.19316635
55	0xbe62301a	-0.22088662
56	0xbe8c5d82	-0.2741509
57	0xbe691936	-0.22763523
58	0xbe3bd5fe	-0.1834335
59	0x3e45c5c0	0.19313717
60	0xbdb031d4	-0.08603254
61	0x3e060585	0.13088043
62	0xbe8540b1	-0.26025918
63	0xbe1a001d	-0.15039106
64	0x3d6601ff	0.056154247
65	0xbb9d77e5	-0.0048055523
66	0x3d06f97a	0.032952763
67	0xbd30d4ac	-0.04317157
68	0x3e1d1161	0.15338661
69	0xbe3659ff	-0.17807768
70	0xbdbfb3cc	-0.093604654
71	0x3db7f199	0.08981628
72	0xbc43a78d	-0.011941803
73	0xbe0d44f7	-0.13795839
74	0x3e151908	0.1456033
75	0x3d960319	0.073248096
76	0xbe369b37	-0.17832647
77	0xbe9d3f3f	-0.30712315
78	0x3df9926d	0.121861316
79	0xbdaf0b98	-0.08547133
80	0xbe204483	-0.15651135
81	0xbe2eeffb	-0.17083733
82	0xbe526313	-0.20545606
83	0x3e011ad8	0.12607896
84	0xbcc06606	-0.023486149
85	0xbe03938a	-0.1284925
86	0xbb59ad57	-0.003321489
87	0xbe2439d4	-0.16037685
88	0xbe41e83e	-0.1893625
89	0xbe585a15	-0.21128114
90	0xbe6b9420	-0.23005724
91	0xbdf984d0	-0.12183535
92	0x3e582691	0.21108462
93	0x3ca5046a	0.020143706
94	0x3d31e4f1	0.043431226
95	0xbeb97247	-0.3622
96	0xbe199319	-0.1499752
97	0x3cbff237	0.023430927
98	0x3c2b4ab0	0.010454819
99	0xbe48610a	-0.19568267
100	0xbdbce6a0	-0.09223676
101	0xbdac1750	-0.08402884
102	0xbdb54369	-0.08850748
103	0xbcc0e9f3	-0.023549056
104	0xbbddf248	-0.006773267
105	0xbdac105c	-0.08401558
106	0xbe4e7772	-0.20162752
107	0xbe298c55	-0.16557439
108	0xbe9a34f2	-0.3011852
109	0xbe3fa6b1	-0.18715931
110	0x3de84f4e	0.11343251
111	0xbe07b013	-0.1325076
112	0x3dfbcc13	0.122947834
113	0x3d273b20	0.04082787
114	0xbe5a1c42	-0.21299842
115	0x3e64b605	0.2233506
116	0xbda1f63c	-0.079082936
117	0xbe5d93ab	-0.21638362
118	0xbe4a7fc5	-0.19775303
119	0xbe937e4c	-0.28807294
120	0xbb39d799	-0.0028357266
121	0xbb913f83	-0.00443262
122	0x3db11f91	0.08648599
123	0xbe357f29	-0.17724289
124	0x3dabdca3	0.083916925
125	0xbd182054	-0.037140206
126	0xbdafadb5	-0.08578054
127	0xbd93fadb	-0.07225581
128	0x3e360506	0.17775354
129	0x3dc4c8f6	0.09608643
130	0x3e7e205f	0.24817036
131	0xbe311df7	-0.17296587
132	0x3e339ba2	0.17539838
133	0xbe2f058c	-0.1709196
134	0x3d74e6e5	0.05979051
135	0xbdd42b90	-0.103598714
136	0x3e7040b8	0.23462188
137	0xbe4de3c3	-0.20106415
138	0x3e01831a	0.12647668
139	0x3d98db47	0.07463699
140	0xbd36cce1	-0.04462898
141	0xbdd4461c	-0.10364935
142	0x3d9da0b5	0.07696668
143	0x3c105081	0.008808256
144	0xbe03d707	-0.12874995
145	0xbe96ae3d	-0.29429808
146	0xbc8673c8	-0.01641263
147	0xbe03f886	-0.12887773
148	0xbdf35916	-0.11882226
149	0x3e472282	0.19446757
150	0x3cfdd28d	0.030984187
151	0xbdfe0ff3	-0.12405386
152	0xbe2b85c0	-0.1675024
153	0xbd4a8695	-0.049444754
154	0x3d0c4981	0.034249786
155	0x3aed11d3	0.0018086977
156	0xbd8005ae	-0.06251083
157	0xbdc8c7f8	-0.09803766
158	0xbe88b81b	-0.2670296
159	0xbc08f108	-0.008358248
160	0x3e086c54	0.13322574
161	0xbe2844fc	-0.16432565
162	0x3d5be734	0.05368729
163	0x3cec4ced	0.028845275
164	0xbcd9959c	-0.026560597
165	0x3c9ae1c4	0.018906482
166	0x3de03c1e	0.109489664
167	0x3e2f0252	0.17090729
168	0x3dbdca0d	0.09267054
169	0xbe03a906	-0.12857446
170	0xbdb45281	-0.08804799
171	0xbce2bc91	-0.027677806
172	0x3c7db8e7	0.015485979
173	0xbc5bf67d	-0.013425467
174	0x3de17240	0.110081196
175	0x3db3d9da	0.08781786
176	0x3d051a0a	0.032495536
177	0xbdd66af7	-0.10469621
178	0x3cd61723	0.02613408
179	0x3e09d2f6	0.13459381
180	0x3e218b76	0.15775856
181	0x3d27ae01	0.040937427
182	0xbe26510b	-0.16241853
183	0x3b75fadf	0.0037533564
184	0x3e1438b2	0.14474753
185	0x3e0fb39c	0.1403336
186	0xbdaaba6e	-0.0833634
187	0xbe3371cb	-0.17523877
188	0xbdd8cee3	-0.105863355
189	0xbe5bc544	-0.2146197
190	0xbd907fa4	-0.070555955
191	0x3dcbf790	0.09959328
192	0x3c47c828	0.012193717
193	0x3d752847	0.059852865
194	0xbe024f97	-0.12725674
195	0xbd3edac6	-0.046595357
196	0x3d8bf95e	0.068346724
197	0x3e8a0df3	0.26963767
198	0xbd91de13	-0.071224354
199	0xbdc5da9f	-0.09660839
200	0x3c9a9703	0.018870836
201	0xbdabd1c1	-0.08389617
202	0xbe8e811d	-0.2783288
203	0x3e66addb	0.22527258
204	0xbe1962b5	-0.1497906
205	0xbc054525	-0.008134161
206	0xbe62af44	-0.22137171
207	0x3dba3d72	0.09093751
208	0x3db6d071	0.08926476
209	0x3da277f3	0.07933035
210	0xbdd50b80	-0.10402584
211	0xbe83c467	-0.2573578
212	0xbe1120b7	-0.14172636
213	0x3da6f6e9	0.08152563
214	0x3e493ec1	0.19652845
215	0x3e8ef32c	0.279199
216	0x3ddedcc6	0.10881953
217	0x3d41373e	0.047171824
218	0x3d8940cf	0.067018144
219	0xbe64c109	-0.22339262
220	0xbe166700	-0.14687729
221	0xbeba4eb3	-0.36388168
222	0xbce0e23f	-0.027451633
223	0xbd65ccd8	-0.056103557
224	0xbd803eef	-0.06262004
225	0xbdf5abbd	-0.11995647
226	0xbdb43f1e	-0.08801101
227	0xbd86140c	-0.065467924
228	0xbe350e15	-0.17681153
229	0x3c1bcba7	0.009509004
230	0xbd85f772	-0.06541337
231	0x3e4d6bcb	0.20060651
232	0xbe178c2e	-0.14799568
233	0xbe89bd21	-0.26902106
234	0xbe0e2636	-0.13881764
235	0xbde57cbe	-0.11205433
236	0xbcdea60c	-0.027178787
237	0xbe8ff00d	-0.28112832
238	0x3d4b9e0d	0.049711276
239	0xbdf868e6	-0.12129383
240	0x3db9e10f	0.0907613
241	0x3df2e1d0	0.118594766
242	0x3e43224b	0.1905605
243	0xbe58f3e9	-0.21186794
244	0x3e184930	0.14871669
245	0xbe29947e	-0.16560552
246	0x3e0f4095	0.1398948
247	0x3ea795b1	0.32731393
248	0x3ca2bac1	0.019864442
249	0x3df067ff	0.11738586
250	0xbe2ae7fc	-0.16690058
251	0xbdfc86a6	-0.1233037
252	0x3dec0871	0.115250476
253	0xbea334ed	-0.31876317
254	0x3e079364	0.13239819
255	0x3e3b18f1	0.18271233

a2c_network.actor_mlp.0.bias f4 [128]
0	0x3d97f483	0.07419684
1	0x3d899e2e	0.067196235
2	0x3da7d57b	0.08195015
3	0x3a3a4272	0.0007105238
4	0x3c0b79a5	0.008512889
5	0xbd4dcac6	-0.050242208
6	0xbc8994b6	-0.016794544
7	0x3c8c3a38	0.017117605
8	0x3c613092	0.01374449
9	0x3d7bf207	0.061510112
10	0x3ba7de66	0.0051229475
11	0x3aa2e995	0.0012429232
12	0x3b351f46	0.0027637049
13	0x3de1ba0d	0.110218145
14	0xbc273c26	-0.010207212
15	0xba7ce7db	-0.0009647586
16	0xbd9d21bb	-0.07672449
17	0xbd0b0ff8	-0.033950776
18	0xbe27405d	-0.16333146
19	0xbde109f4	-0.109882265
20	0xbc3c4da7	-0.011493123
21	0xbd2e346a	-0.042530455
22	0xbca2be75	-0.019866208
23	0xbd8a71df	-0.067600004
24	0xbb30f7aa	-0.0027003088
25	0x3d8a6724	0.06757954
26	0xbcd39dce	-0.025832083
27	0x3d4d6830	0.05014819
28	0x3b9de609	0.004818682
29	0x3a95607e	0.0011396555
30	0x3d588e94	0.052870348
31	0xbd5d167f	-0.053976532
32	0xbddcf79e	-0.10789417
33	0x3d1541c2	0.036439665
34	0xbd77aec7	-0.060469415
35	0xbdb1e9bd	-0.0868716
36	0xbca2f106	-0.01989032
37	0xbe40ee66	-0.18840942
38	0x3d065816	0.03279885
39	0x3d6fe0ef	0.058564123
40	0xbc4c2861	-0.012460799
41	0xbcf355c2	-0.029703978
42	0xbd478802	-0.04871369
43	0xbbfaaa68	-0.0076497085
44	0xbc903152	-0.017601643
45	0xbcd9a378	-0.026567206
46	0xbdc890d5	-0.097932495
47	0x3c337f1a	0.010955596
48	0x3c0aca70	0.008471116
49	0x3d30ce5e	0.043165557
50	0xbd0cfce4	-0.034420863
51	0xbe14ea96	-0.14542612
52	0xbe57bbd9	-0.21067752
53	0xbd503d11	-0.050839487
54	0x3c6c1e30	0.014411494
55	0xbd56612f	-0.052338775
56	0xbd677587	-0.056508567
57	0x3cf13e2e	0.029448595
58	0x3d8fef09	0.07028014
59	0xbc78dcf0	-0.015189394
60	0x3d6311e1	0.055436973
61	0xbb0c37f7	-0.0021395662
62	0xbcfd8a93	-0.030949866
63	0xbc52b20a	-0.012859831
64	0xbc635d62	-0.013877245
65	0x3d342207	0.043977764
66	0x3d346697	0.04404315
67	0xbc43c760	-0.01194939
68	0x3c39efe3	0.011348697
69	0x3c814efc	0.015784733
70	0xbddd274e	-0.107985124
71	0xbdaea52e	-0.08527599
72	0xbd5c7d6c	-0.05383055
73	0x3d47dec7	0.04879644
74	0xbcb5ec7c	-0.022207491
75	0xbd7d36f1	-0.061819974
76	0x3d4adb55	0.049525578
77	0xbdda9628	-0.10673171
78	0xbdac400c	-0.084106535
79	0xbb9c9b24	-0.0047792364
80	0xbd52bf07	-0.05145171
81	0x3dd267eb	0.10273727
82	0xbc165bac	-0.00917713
83	0x3d241ed3	0.04006846
84	0xbd83e54f	-0.064402215
85	0x3b2d7fb7	0.002647383
86	0x3d1f8a00	0.038949966
87	0x3d976a88	0.07393366
88	0x3d4fab25	0.050700326
89	0x3d3fcf51	0.04682857
90	0xbd02ece3	-0.031964194
91	0xbd9306d0	-0.07179034
92	0x3daf325c	0.08554527
93	0xbd74b29c	-0.059740648
94	0xbcfd60ba	-0.030929912
95	0xbdb40b5f	-0.08791231
96	0x3daf7639	0.08567471
97	0xbdef104f	-0.116730325
98	0xbce1263a	-0.027484048
99	0x3d4835c1	0.04887939
100	0xbc95a7ef	-0.018268554
101	0x3a80b4cc	0.0009819507
102	0xbda22b51	-0.07918418
103	0x3c6da40d	0.014504445
104	0x3d1255c8	0.03572634
105	0xbd3458e7	-0.044030096
106	0x3d0715a3	0.03297962
107	0xbdc4f287	-0.09616571
108	0xbd11e258	-0.03561625
109	0x3c0d5e8f	0.008628502
110	0x3c8dc591	0.017306121
111	0xbaa00bc6	-0.001221054
112	0xbe1eb191	-0.15497424
113	0xbd0a07f0	-0.033698976
114	0xbc95a84c	-0.018268727
115	0x3da619ef	0.08110415
116	0x3d226d1a	0.03965483
117	0xbdc7e867	-0.09761124
118	0xbd177684	-0.03697826
119	0x3d2e2583	0.042516243
120	0xbda425c1	-0.080150135
121	0xbd9664c9	-0.07343442
122	0xbd8754d0	-0.066079736
123	0x3d87a42e	0.06623112
124	0xbd0b563d	-0.03401779
125	0x3c6c98cf	0.014440729
126	0x3ca9a6c5	0.020709405
127	0xbd442c57	-0.04789385

a2c_network.actor_mlp.2.weight f4 [64, 128]
0	0xbd3a1162	-0.045426734
1	0x3e283932	0.16428068
2	0x3d572ef3	0.05253501
3	0xbd40330c	-0.046923682
4	0x3c3365eb	0.010949592
5	0x3d9fdad4	0.0780541
6	0x3d134b1e	0.03596031
7	0xbc659364	-0.014012191
8	0x3c32638e	0.0108879935
9	0xbe3fb701	-0.18722154
10	0x3bbdd277	0.0057929116
11	0xbd264bb7	-0.04059955
12	0x3e61c3f4	0.22047406
13	0x3dbfbec6	0.09362559
14	0x3d1e2538	0.038609713
15	0xbd18caf2	-0.03730292
16	0x3d92a2cf	0.071599595
17	0xbdb86429	-0.09003479
18	0x3e1affa5	0.15136583
19	0xbe23ae57	-0.15984474
20	0xbd840b94	-0.06447521
21	0xbde88b22	-0.113546625
22	0xbddc4901	-0.10756112
23	0xbd018144	-0.031617418
24	0xbd9ba8b8	-0.0760054
25	0x3c802f96	0.01564769
26	0x3d0b7c4f	0.034054097
27	0x3c735be3	0.0148534505
28	0x3d7e1de6	0.062040232
29	0xbdc30286	-0.09521966
30	0x3d15994e	0.036523156
31	0x3d734da4	0.059400216
32	0x3ded85c8	0.115977824
33	0x3dece889	0.1156779
34	0xbe2699d9	-0.16269626
35	0x3d152507	0.036412265
36	0xb9c924c8	-0.00038365112
37	0x3c09ec48	0.00841815
38	0xbd8b55bd	-0.06803463
39	0x3d4417fb	0.047874432
40	0xbdd0ffbe	-0.10205029
41	0x3cadf4a7	0.021234823
42	0xbd2bc6ad	-0.04193752
43	0xbca9ad45	-0.020712504
44	0xbd058c49	-0.03260449
45	0x3c31e9d3	0.010858971
46	0xbbe7f731	-0.007079028
47	0x3bb2fea5	0.005462485
48	0x3d198cf7	0.03748795
49	0xbd8c999b	-0.068652354
50	0xbd991a18	-0.0747568
51	0xbd668550	-0.05627948
52	0xbdc02990	-0.093829274
53	0x3d8afa5a	0.06786032
54	0x3a3374e7	0.0006845728
55	0xbd83fad8	-0.06444329
56	0x3c608d0a	0.013705501
57	0x3b8b7e25	0.004256981
58	0x3cd25444	0.025674947
59	0xbd313345	-0.043261785
60	0xbc92bee9	-0.017913299
61	0x3e537b5a	0.20652524
62	0xba36f53a	-0.00069792906
63	0x3d881420	0.066444635
64	0x3dcead05	0.100915946
65	0x3d8a024f	0.067387216
66	0xbd170963	-0.036874186
67	0x3d3f6f66	0.046737097
68	0x3d8ec2e2	0.06970765
69	0x3cc4b92a	0.024014074
70	0x3d7b4d1c	0.061352834
71	0xbe039f48	-0.1285373
72	0xbde97ed6	-0.11401145
73	0x3db010d2	0.08596958
74	0x3d8072cd	0.062718965
75	0x3d5b3db7	0.053525653
76	0x3e067f14	0.13134414
77	0x3b8106a6	0.00393756
78	0x3e7d6090	0.24743867
79	0xbd001107	-0.03126624
80	0x3d825e08	0.06365591
81	0xbd34295a	-0.04398475
82	0xbdfd0adc	-0.12355587
83	0xbdbb8a86	-0.091572806
84	0xbcc2ae90	-0.023764879
85	0xbe0966aa	-0.1341807
86	0x3d6b38ac	0.057427093
87	0x3e1d023d	0.15332885
88	0xbe02f428	-0.1278845
89	0x3d13ebaf	0.036113437
90	0x3dab72e2	0.083715215
91	0x3d6789a0	0.056527734
92	0x3de592c1	0.11209632
93	0xbd2375ff	-0.03990745
94	0x3e1ad1ea	0.15119138
95	0xbd88381f	-0.06651329
96	0xbd62dae4	-0.05538453
97	0xbd66080a	-0.05616001
98	0xbd81d11d	-0.06338713
99	0x3de9d7de	0.114181265
100	0x3d13c4d3	0.036076378
101	0xbda65367	-0.081213765
102	0x3d39e479	0.045383904
103	0xbe04568e	-0.12923643
104	0x3d86c45e	0.06580423
105	0x3c9b2e73	0.018943047
106	0xbdcb4a81	-0.0992632
107	0x3e047263	0.1293426
108	0x3c5debd8	0.013544999
109	0x3c11c3d7	0.0088967895
110	0xbc959d73	-0.018263554
111	0x3d2662e1	0.040621642
112	0xbcf2eee0	-0.02965492
113	0xbe09f465	-0.13472135
114	0xbc97c714	-0.018527545
115	0xbdd04a9b	-0.1017048
116	0xbca8dea3	-0.020613974
117	0x3cb66559	0.022265123
118	0x3bdda7af	0.006764374
119	0x3cbc4f76	0.022987109
120	0x3dfc6a4a	0.123249605
121	0x3ab94012	0.0014133474
122	0xbd8f9289	-0.07010371
123	0x3d805642	0.06266452
124	0x3c7340cd	0.014846993
125	0xbd25443c	-0.040348276
126	0x3dd07362	0.101782575
127	0xbd3c4e65	-0.0459732
128	0xbe00a1d9	-0.1256174
129	0x3ce90b0c	0.02844765
130	0x3db3c2f9	0.087774225
131	0xbcc76d84	-0.024344213
132	0x3df1464d	0.11780987
133	0xbd3b2f18	-0.04569921
134	0xbd8902ef	-0.06690013
135	0x3da76057	0.08172672
136	0x3b9f961b	0.004870189
137	0x3c2cbe95	0.010543485
138	0xbc09ae26	-0.008403337
139	0xbe1ff717	-0.15621601
140	0xbcf3a871	-0.029743405
141	0x3dbe925c	0.093052596
142	0x3db99e20	0.09063363
143	0x3d6fdfe4	0.058563128
144	0x3c85a8db	0.016315868
145	0x3d52f827	0.051506188
146	0x3c2966b4	0.010339428
147	0x3b99e9fa	0.0046970816
148	0x3cc62117	0.0241857
149	0xbd3a3a0f	-0.045465525
150	0xbde65a16	-0.11247651
151	0xbdda6ee3	-0.10665681
152	0x3d0f80a4	0.03503479
153	0x3c9e7d1b	0.019346764
154	0xbc69cc69	-0.014269927
155	0x3d699203	0.057024013
156	0xbd34d9f1	-0.044153158
157	0x3d08450f	0.033268984
158	0x3b018d6c	0.0019768132
159	0xbda629b8	-0.08113426
160	0x3ccc7927	0.024960114
161	0xbdadd9a2	-0.08488776
162	0x3d677b26	0.056513928
163	0xbdae7f0c	-0.08520326
164	0xbdd1c3ef	-0.102424495
165	0xbd6d391d	-0.057915796
166	0x3d80a1c9	0.06280858
167	0x3d5674f8	0.052357644
168	0xbd0a2e5e	-0.033735625
169	0xbdf3114b	-0.11868533
170	0xbceea4ea	-0.029131372
171	0xbe20c5cb	-0.15700452
172	0xbdbfdeb1	-0.09368647
173	0xbd106001	-0.035247806
174	0xbcd51804	-0.026012428
175	0x3d8cf0ff	0.06881904
176	0xbd80f040	-0.06295824
177	0xbd357f44	-0.044310823
178	0x3d455f0a	0.04818634
179	0xbdabd2c0	-0.08389807
180	0xbcefd356	-0.029275578
181	0x3c87248c	0.01649692
182	0x3d73d8e5	0.05953302
183	0x3cabec3e	0.020986672
184	0xbd3f7483	-0.046741974
185	0x3d041040	0.03224206
186	0x3d40495d	0.046944965
187	0xbd520bb9	-0.05128071
188	0xbe000182	-0.12500575
189	0x3db14ce2	0.08657242
190	0xbc338682	-0.010957362
191	0xbd97cbe4	-0.07411936
192	0x3d9f06b5	0.07764951
193	0xbd4a3d29	-0.049374733
194	0xbc928660	-0.01788634
195	0x3e168a46	0.14701185
196	0xbc45b706	-0.012067562
197	0xbe337c55	-0.17527898
198	0x3aee8512	0.0018197617
199	0xbd8db952	-0.06920113
200	0xbdd2300a	-0.10263069
201	0xbcc4453f	-0.0239588
202	0xbca792ce	-0.020455744
203	0xbc4200b8	-0.011840992
204	0xbdb7c437	-0.08972972
205	0xbdf6d1f2	-0.12051763
206	0x3ca08000	0.019592285
207	0xbd659376	-0.056048833
208	0x3b2fbf6b	0.0026816975
209	0xbd40dbc8	-0.0470846
210	0xbdc608cb	-0.09669646
211	0xbac9a172	-0.0015383197
212	0xbe1975e2	-0.14986375
213	0xbcd726a2	-0.026263539
214	0xbd9c0ace	-0.07619248
215	0xbe07f54d	-0.13277169
216	0xbe241d16	-0.1602672
217	0x3ddf30c9	0.10897977
218	0x3d770c3a	0.060314395
219	0xbd6ede19	-0.058317278
220	0x3d210b6c	0.039317533
221	0x3c0b9e9b	0.008521701
222	0xbdc7d1bd	-0.09756801
223	0xbd976bbe	-0.07393597
224	0xbd602b63	-0.054728877
225	0xbcbb8352	-0.022889767
226	0xbde5f183	-0.11227705
227	0xbd09b3e3	-0.03361882
228	0xbc6933c0	-0.01423353
229	0xbd8bd03b	-0.06826826
230	0xbd2c6631	-0.042089645
231	0xbdee1e3c	-0.116268605
232	0x3c98932f	0.01862487
233	0x3c733f4a	0.014846632
234	0xbd911c71	-0.07085503
235	0x3b159704	0.0022825608
236	0xbe034923	-0.12820868
237	0xbd60b14b	-0.05485658
238	0xbdc2f4fb	-0.095193826
239	0x3def4f66	0.11685066
240	0x3c7ab654	0.0153022595
241	0x3d9ed380	0.07755184
242	0xbd84cf13	-0.06484809
243	0xbdc648c9	-0.096818514
244	0x3db4190e	0.08793841
245	0xbd36b94d	-0.04461031
246	0x3e19ed33	0.1503189
247	0xbd0dcc6d	-0.034618784
248	0xbd0450dd	-0.03230368
249	0xbe09284a	-0.13394275
250	0x3d7c24f9	0.061558697
251	0xbc2dd230	-0.010609195
252	0xbe3c177e	-0.18368337
253	0x3d57d4d7	0.052693214
254	0xbd78f663	-0.060781848
255	0xbbac33fb	-0.00525522

a2c_network.actor_mlp.2.bias f4 [64]
0	0xbd81ff1c	-0.063474864
1	0xbdefc29a	-0.11707039
2	0x3c8276ee	0.01592585
3	0xbd4210d3	-0.047379326
4	0xbd04ed47	-0.032452848
5	0xbdc21be4	-0.09477976
6	0xbdc66a0d	-0.09688196
7	0xbd6a5a9e	-0.057215326
8	0x3d204dc1	0.039136652
9	0x3d4614be	0.048359625
10	0xbdcfd1f1	-0.10147465
11	0xbdc594b4	-0.096475035
12	0xbd735ab2	-0.059412666
13	0xbdccc474	-0.09998408
14	0x3d9aef4d	0.07565174
15	0xbc96516d	-0.018349374
16	0xbd2496a7	-0.040182736
17	0xbd8c47fe	-0.06849669
18	0x3d995085	0.07486061
19	0xbbf94a4d	-0.0076077343
20	0xbc9677b4	-0.018367626
21	0x3c9419cd	0.018078709
22	0x3c9dbcc6	0.019255053
23	0xbe000d79	-0.1250514
24	0xbdd2cd43	-0.10293057
25	0xbd9cc448	-0.07654625
26	0x3c86a609	0.016436594
27	0xbcd635e6	-0.026148748
28	0xbc1edc1d	-0.009696034
29	0x3d98840e	0.074470624
30	0xbd88a805	-0.06672672
31	0x3d2f3fb3	0.042785358
32	0xbdf593e3	-0.11991098
33	0xbd040096	-0.03222712
34	0xbd6e5c10	-0.058193266
35	0x3b26e86c	0.0025468124
36	0xbd701887	-0.05861714
37	0x3cb503d7	0.022096558
38	0xbd85635f	-0.06513094
39	0xbd43dafd	-0.047816265
40	0x3b99ebb6	0.0046972884
41	0xbdbc1872	-0.0918435
42	0xbded926a	-0.11600192
43	0x3ccce632	0.02501211
44	0xbdaf4b84	-0.08559325
45	0xbd7d243e	-0.06180214
46	0xbdfe1f8f	-0.12408363
47	0xbdf788d2	-0.12086643
48	0x3d9768d9	0.07393045
49	0xbd845de2	-0.06463219
50	0x3d08eaa2	0.03342689
51	0xba9838e8	-0.0011613639
52	0xbc1ece90	-0.009692803
53	0x3d7064db	0.058689933
54	0xbcf5f149	-0.03002228
55	0x3c8be262	0.017075721
56	0xbd21c45f	-0.039493915
57	0xbc352e94	-0.011058468
58	0xbca1ef60	-0.019767463
59	0xbd8f83ef	-0.07007586
60	0xbd1bd99d	-0.03804933
61	0xbb3a1783	-0.0028395362
62	0xbe07da75	-0.13266928
63	0xbd893079	-0.066986986

a2c_network.actor_mlp.4.weight f4 [32, 64]
0	0x3d850671	0.06495369
1	0x3d021b48	0.0317643
2	0xbcfb44e3	-0.030672496
3	0x3d7f5beb	0.06234352
4	0xbd4331a1	-0.04765475
5	0x3d8ab982	0.06773664
6	0x3da8c2f9	0.08240313
7	0x3ce4a386	0.027910005
8	0xbdcab267	-0.09897309
9	0xbde2a015	-0.110656895
10	0x3c35dc65	0.011099909
11	0x3d3885fa	0.045049645
12	0x3da36e6e	0.07980047
13	0x3d99639d	0.07489703
14	0xbe1b857b	-0.15187638
15	0x3af893d0	0.001896495
16	0xbdb26b50	-0.087118745
17	0x3d89798e	0.06712638
18	0xbe2865b1	-0.16445042
19	0xbd87b42c	-0.06626162
20	0x3db8f03d	0.09030197
21	0x3ceafe61	0.02868575
22	0xbba8bb12	-0.0051492536
23	0x3d8b0199	0.06787414
24	0x3d049f06	0.03237822
25	0xbdc66355	-0.09686915
26	0xbcb09c3f	-0.021558879
27	0xbe55205d	-0.20813127
28	0x3cee125d	0.02906149
29	0xbe26ee1d	-0.1630177
30	0x3c8c2977	0.017109616
31	0xbe09263f	-0.13393496
32	0x3dc8cf5a	0.09805174
33	0xbd3f92e2	-0.046770938
34	0x3c4fa865	0.012674426
35	0xbc4c4a5d	-0.012468901
36	0x3e06a509	0.13148893
37	0xbda4f5f6	-0.08054726
38	0x3d90785e	0.07054208
39	0xbdd36564	-0.10322073
40	0xbcd1265e	-0.02553099
41	0xbe00c38a	-0.12574592
42	0x3e12f554	0.14351398
43	0x3e0fc2b0	0.14039111
44	0xbd90c828	-0.07069427
45	0xbca3c433	-0.019991016
46	0x3ddb901e	0.107208475
47	0x3dc915c1	0.09818602
48	0xbda13ea2	-0.078732744
49	0x3b9b2aab	0.004735311
50	0xbda5f2b8	-0.081029356
51	0x3da515b8	0.08060783
52	0xbe039ac3	-0.12852006
53	0xbe50b6d6	-0.20382246
54	0xbd34a842	-0.044105776
55	0xbe192cff	-0.14958571
56	0xbcf71e36	-0.030165773
57	0xbc7c1e52	-0.015388088
58	0xbc8109f0	-0.015751809
59	0xbcbb300c	-0.022850059
60	0xbd1fa8fd	-0.03897952
61	0xbd4a4e7f	-0.049391266
62	0x3ded0bc0	0.11574507
63	0xbdc051aa	-0.09390576
64	0x3d8c8400	0.068611145
65	0xbde51127	-0.11184912
66	0xbd6e40a1	-0.058167104
67	0xbd4547b0	-0.04816407
68	0x3dad0571	0.084483035
69	0xbd398f18	-0.04530248
70	0xbdaaf6be	-0.083478436
71	0x3d80ab49	0.0628267
72	0xbd386dd8	-0.04502663
73	0xbd9e4223	-0.07727458
74	0x3d4017e4	0.046897784
75	0xbd60386e	-0.054741316
76	0x3e1198a4	0.14218384
77	0xbd0dec86	-0.034649394
78	0xbd32de77	-0.04366919
79	0xbc766992	-0.015039818
80	0xbda95675	-0.082684435
81	0xbe0f0f24	-0.1397062
82	0x3d1e724f	0.038683232
83	0x3d25849d	0.040409673
84	0xbb722cf2	-0.003695306
85	0x3c6897cf	0.01419635
86	0xbd288df4	-0.041151002
87	0x3d4d9827	0.050193932
88	0xbd015c36	-0.03158208
89	0xbd843a33	-0.06456413
90	0x3d5e72c1	0.054308657
91	0xbc2c5dbf	-0.010520398
92	0x3e134f71	0.14385773
93	0x3d4a6eaf	0.049421962
94	0xbc50051f	-0.012696533
95	0x3de2600a	0.11053474
96	0xbda7128f	-0.08157837
97	0xbd11be75	-0.035582025
98	0xbc6e9f79	-0.014564388
99	0x3cd26128	0.025681093
100	0xbd46f115	-0.048569757
101	0x3d226ca3	0.039654385
102	0xbda48369	-0.08032877
103	0xbd3da29c	-0.046297655
104	0xbcacfaa9	-0.021115618
105	0xbde59f12	-0.11211981
106	0xbc0c2a72	-0.008555042
107	0x3ce26290	0.027634889
108	0x3d350dc9	0.0442026
109	0x3cae23d4	0.021257319
110	0xbdb3ffbd	-0.087890126
111	0xbdcc21e0	-0.09967399
112	0xbbcc903b	-0.0062427795
113	0xbd8363c2	-0.06415512
114	0xbda081ba	-0.078372434
115	0xbd1c66ff	-0.038184162
116	0xbdcb99ed	-0.099414684
117	0x3d95eae0	0.073201895
118	0xbd16a10e	-0.036774687
119	0x3e3b3cf0	0.18284965
120	0xbcb7e5e3	-0.022448486
121	0xbd9113ad	-0.07083831
122	0xbc23dd8a	-0.0100015495
123	0x3dcce38e	0.1000434
124	0x3d4c21e2	0.049837
125	0x3d62cf45	0.05537345
126	0xbd5918fc	-0.053002343
127	0xbe0ae9bb	-0.13565724
128	0x3de43ebd	0.11144779
129	0xbd939f0d	-0.07208071
130	0x3e0e3652	0.13887909
131	0x3dc8223c	0.09772155
132	0xbe6e0546	-0.23244199
133	0xbd81f3b6	-0.06345312
134	0x3e2159d8	0.15756929
135	0x3e2d9dc5	0.16954716
136	0xbe0285ff	-0.12746428
137	0xbd47a638	-0.048742503
138	0xbdadf1c4	-0.08493379
139	0x3e63ed78	0.22258556
140	0xbc22865a	-0.009919727
141	0x3e01b501	0.12666704
142	0xbd953b75	-0.07286731
143	0x3d9eae1c	0.077480525
144	0xbd77216b	-0.060334604
145	0x3c33c271	0.010971651
146	0xbd9183d4	-0.07105222
147	0xbdf9ddf7	-0.122005396
148	0x3e9b1f20	0.30297184
149	0x3d2673f7	0.040637936
150	0xbd7273af	-0.059192356
151	0x3e270303	0.16309743
152	0x3d100ad2	0.03516657
153	0x3db7c086	0.08972268
154	0x3d2141ae	0.039369278
155	0xbdce794b	-0.100817285
156	0xbc91aa2b	-0.017781338
157	0x3c6be6ec	0.014398318
158	0xbc9c526c	-0.01908227
159	0x3d8a3d5b	0.06749984
160	0x3e361432	0.17781141
161	0x3d2757a6	0.040855072
162	0x3e636eb5	0.222102
163	0x3d808477	0.06275266
164	0xbda906a8	-0.08253223
165	0xbe1aec7f	-0.15129279
166	0xbd176893	-0.036964964
167	0xbdfeded2	-0.12444843
168	0x3d4da0c8	0.05020216
169	0x3dd305ee	0.103038654
170	0x3d8c995c	0.068651885
171	0xbd2d4ac3	-0.042307626
172	0xbd75bfad	-0.05999725
173	0x3dbbe60b	0.091747366
174	0x3d358687	0.04431775
175	0xbcd1741b	-0.025568059
176	0xbde65ece	-0.11248551
177	0xbcb1f8ad	-0.021725023
178	0xbddaf819	-0.10691852
179	0xbcccd742	-0.025004987
180	0xbd3a36dc	-0.045462474
181	0xbe0fb87f	-0.14035223
182	0x3c423957	0.011854491
183	0x3d58856d	0.05286162
184	0x3e704a9a	0.23465958
185	0x3db0c3ac	0.086310714
186	0xbe25d9d9	-0.16196384
187	0x3d1c6d16	0.03818997
188	0xbcf9a670	-0.030474871
189	0xbddfc253	-0.10925736
190	0x3d4ec906	0.05048468
191	0xbc8b422a	-0.016999323
192	0xbdece4cd	-0.11567078
193	0x3d8f80a1	0.07006956
194	0xbd67077f	-0.056403633
195	0xbd878e4a	-0.06618936
196	0xbd55050c	-0.052006766
197	0xbd72202a	-0.059112705
198	0x3b5c5d1e	0.0033624838
199	0x3d177867	0.03698006
200	0xbd518610	-0.051153243
201	0x3da737e9	0.08164961
202	0xbda445f4	-0.08021155
203	0x3d502623	0.05081762
204	0x3c64d4a9	0.013966718
205	0xbdabf233	-0.08395805
206	0x3da742aa	0.08167012
207	0x3d3bba82	0.045832165
208	0xbd03e128	-0.032197148
209	0x3d64f594	0.055898264
210	0x3db5a449	0.088692255
211	0xbd2134bc	-0.039356932
212	0xbd134428	-0.03595367
213	0xbdc02948	-0.09382874
214	0x3dc2293e	0.094805226
215	0xbc6facb0	-0.014628574
216	0x3e1286d1	0.14309241
217	0x3b89944f	0.004198588
218	0xbdd2ff33	-0.10302582
219	0x3cea18e9	0.028576331
220	0xbe243ab1	-0.16038014
221	0x3da1c6a1	0.078992136
222	0xbdcfb7da	-0.10142489
223	0x3d0865f0	0.03330034
224	0xbbbd37c1	-0.0057744686
225	0xbd9f533b	-0.07779547
226	0xbe1ea316	-0.154919
227	0xbd22e249	-0.039766584
228	0xbca156ab	-0.019694647
229	0xbd58770e	-0.052847914
230	0xbe2403f0	-0.16017127
231	0xbe036a3d	-0.12833495
232	0xbe07456b	-0.13210075
233	0x3c01846e	0.007905109
234	0x3db341f5	0.08752815
235	0x3e021e51	0.12706877
236	0xbd962e29	-0.07333023
237	0x3d5b2d27	0.053509858
238	0xbd6f424d	-0.05841284
239	0xbcf2bf04	-0.029632099
240	0x3d3e1de5	0.04641523
241	0xbdcf5e36	-0.10125391
242	0xbbc3a95e	-0.005971118
243	0xbdf00bd8	-0.11721009
244	0x3c83ad50	0.016073853
245	0x3e11ebda	0.14250126
246	0xbb306d7f	-0.0026920734
247	0xbe0c8d84	-0.13725859
248	0xbd05986c	-0.032616064
249	0x3c91c4cf	0.017794041
250	0xbdd0e44c	-0.10199794
251	0x3da73103	0.08163645
252	0x3e26ed1f	0.16301392
253	0xbe7fa672	-0.24965838
254	0xbd0b4a43	-0.03400637
255	0xbc860dee	-0.016364064

a2c_network.actor_mlp.4.bias f4 [32]
0	0xbd9fa981	-0.07796002
1	0x3cbc9cf7	0.023024065
2	0xbc1f5017	-0.009723685
3	0xbcc9215e	-0.024552044
4	0xbd644ed3	-0.055739235
5	0x3d4c0d4f	0.04981738
6	0xbc9ff0a2	-0.019523922
7	0xb8d34fbb	-0.00010076115
8	0xbca17678	-0.01970981
9	0xbd165266	-0.036699675
10	0x3d2e81e4	0.042604342
11	0xbd9228c2	-0.0713668
12	0xbb177553	-0.0023110702
13	0x3c2e6d86	0.01064623
14	0xbd62c18f	-0.055360373
15	0xbd982f85	-0.07430939
16	0x3c1a79a7	0.009428418
17	0x3bdbeef3	0.0067118346
18	0xbce85ddc	-0.028365068
19	0xbd6a9de1	-0.05727947
20	0xbc9da891	-0.019245418
21	0xbc81c47e	-0.015840765
22	0xbd436990	-0.047708094
23	0xbd28efe2	-0.041244395
24	0xbcacdb8b	-0.02110078
25	0x3cdfd924	0.02732522
26	0xbdc434c6	-0.09580378
27	0xbdc0b0ae	-0.09408699
28	0xbd91d080	-0.07119846
29	0x3bf37340	0.0074295104
30	0xbd5b854f	-0.05359393
31	0xbcdb88f3	-0.0267987

a2c_network.value.weight f4 [1, 32]
0	0xbcf3315d	-0.029686624
1	0x3cbcf081	0.0230639
2	0xbd89f31f	-0.06735825
3	0xbd10ff95	-0.035399992
4	0x3be8df95	0.007106731
5	0xbcea5375	-0.028604249
6	0xbd3a4064	-0.045471564
7	0xbd55b402	-0.052173622
8	0xbc5907d0	-0.013246492
9	0x3c811882	0.015758757
10	0xbad7df90	-0.0016469825
11	0xbd145e17	-0.036222544
12	0xbd363576	-0.044484578
13	0x3ca7b8c9	0.020473855
14	0xbc35bfcf	-0.011093094
15	0xbca76929	-0.020435886
16	0x3cf42961	0.029804887
17	0xbc9778dc	-0.018490247
18	0xbd6cb2e3	-0.057787787
19	0x3ce41ae6	0.027844857
20	0xbd099e59	-0.033598278
21	0x3cf2d005	0.029640207
22	0x3b513026	0.0031919568
23	0xbd80afd1	-0.06283534
24	0xbca14466	-0.019685935
25	0x3d850d9e	0.06496738
26	0x3c0356c0	0.008016288
27	0x3bad84b0	0.0052953586
28	0xbb40eec9	-0.0029439202
29	0x3cc06138	0.023483858
30	0xbd38c362	-0.045108207
31	0xbcd50e37	-0.026007755

a2c_network.mu.weight f4 [7, 32]
0	0x3ce8c011	0.028411897
1	0xbde13e79	-0.10998244
2	0xbdfdc758	-0.123915374
3	0xbdfafbcd	-0.122550584
4	0x3c887006	0.01665498
5	0xbd93458d	-0.07191
6	0xbdd88f51	-0.105742104
7	0xbd7b1936	-0.06130334
8	0xbd0fda80	-0.035120487
9	0x3daa8c44	0.08327535
10	0xbc0ad65f	-0.008473962
11	0x3d8793b3	0.06619968
12	0xbd54c764	-0.051947966
13	0x3d2408da	0.040047504
14	0x3cd30800	0.02576065
15	0x3d6f3318	0.058398336
16	0xbd348a2e	-0.04407709
17	0xbe09950d	-0.13435765
18	0xbdcaa5bc	-0.098948926
19	0xbd30fa31	-0.04320735
20	0x3dd414b5	0.10355512
21	0xbe180e67	-0.14849244
22	0xbd3d1a3b	-0.046167593
23	0xbddf5bc0	-0.10906172
24	0xbda75ad5	-0.08171622
25	0x3d008bdf	0.03138339
26	0xbd022957	-0.031777706
27	0x3cd36d00	0.025808811
28	0xbc22d718	-0.009938978
29	0xbc76be80	-0.015060067
30	0xbc1088cf	-0.00882168
31	0xbd2ac859	-0.041694973
32	0x3e4e49d6	0.20145354
33	0x3d3b3d33	0.04571266
34	0xbe04a21d	-0.12952466
35	0xbdc5df0b	-0.09661683
36	0x3d7d07f9	0.06177518
37	0x3ca6ed86	0.020376932
38	0xbde67aff	-0.112539284
39	0xbd991879	-0.07475371
40	0xbdd47c5b	-0.103752814
41	0x3d4ee1e0	0.05050838
42	0xbd8d3f07	-0.06896787
43	0xbd098083	-0.033569824
44	0x3c83fbfb	0.016111365
45	0x3e245054	0.16046268
46	0xbd296624	-0.041357175
47	0x3e420e39	0.18950738
48	0x3c9d6bb6	0.0192164
49	0xbe440fd9	-0.1914667
50	0xbe459ac7	-0.19297324
51	0x3d97ea03	0.07417681
52	0x3da014e0	0.078164816
53	0xbc60bcd1	-0.013716892
54	0x3dac86f1	0.084241755
55	0xbdb65872	-0.08903588
56	0xbccd4ecf	-0.025061993
57	0xbcc118f1	-0.023571463
58	0x3de22d31	0.11043776
59	0xbd13e715	-0.03610905
60	0xbd787730	-0.06066054
61	0x3e5954cd	0.21223755
62	0xbcf17c95	-0.02947835
63	0x3dc4a9c7	0.09602695
64	0x3c45e44e	0.012078358
65	0xbe2fc3a4	-0.17164475
66	0x3da073df	0.07834601
67	0xbd7a44e5	-0.06110086
68	0xbd4a4da0	-0.049390435
69	0xbde1323b	-0.10995909
70	0x3e237fcb	0.15966718
71	0xbd9a7912	-0.075426236
72	0x3c80bd9b	0.015715411
73	0xbe567fa8	-0.20947134
74	0xbd620f93	-0.055190634
75	0xbcdbd5be	-0.026835319
76	0xbe0282b3	-0.1274517
77	0xbdd61f80	-0.10455227
78	0xbe0ecba5	-0.13944872
79	0x3ce274ad	0.027643526
80	0xbda8e8d8	-0.082475364
81	0x3d26e989	0.04075006
82	0xbd85fb9a	-0.0654213
83	0xbdba1a34	-0.09087029
84	0x3e030509	0.1279489
85	0xbd162919	-0.036660288
86	0xbe16c51b	-0.14723627
87	0x3dd9c1e6	0.10632686
88	0x3c4972db	0.01229545
89	0x3d0cc94e	0.034371667
90	0x3ca6656d	0.020312035
91	0xbd9a2673	-0.07526865
92	0x3dd42284	0.10358146
93	0x3d39d217	0.045366373
94	0xbd1bd7dc	-0.038047656
95	0x3e679f82	0.22619441
96	0x3c16aeec	0.009196978
97	0x3dd17ee8	0.102292836
98	0xbe34b532	-0.17647246
99	0x3da55826	0.080734536
100	0xbb1ab929	-0.00236089
101	0x3e045889	0.12924398
102	0x3dc8a21b	0.09796544
103	0x3dbd7f5f	0.0925281
104	0xbd90a8a8	-0.070634186
105	0x3d29da85	0.041468162
106	0x3e1869a6	0.14884052
107	0x3db20428	0.08692199
108	0x3e6422a8	0.22278845
109	0x3d4ff549	0.05077103
110	0x3e7727ab	0.24136226
111	0xbe49243e	-0.19642732
112	0xbe302e7a	-0.1720523
113	0xbd4f22fc	-0.050570473
114	0x3d20a54d	0.039220143
115	0xbcd4560f	-0.025919942
116	0xbd8bd90d	-0.068285085
117	0xbe032296	-0.12806162
118	0x3caa15ee	0.02076241
119	0xbd9ec740	-0.07752848
120	0x3e4c26bd	0.19936652
121	0xbe3ae6f0	-0.18252158
122	0xbe281402	-0.16413882
123	0x3e5eb784	0.21749693
124	0x3e22a69f	0.15883873
125	0x3e40da43	0.1883326
126	0x3e2b5c04	0.1673432
127	0xbe229f7c	-0.15881151
128	0xbe4adc39	-0.19810571
129	0x3e15dadb	0.14634268
130	0xbe4e8135	-0.20166476
131	0xbaf75987	-0.0018871286
132	0x3e152d4d	0.14568062
133	0xbd25512c	-0.040360615
134	0xbe052cbf	-0.1300535
135	0x3e06b82f	0.13156198
136	0xbdcbce53	-0.099514626
137	0xbe1784fb	-0.14796822
138	0x3e31b3aa	0.17353693
139	0xb9aab6d3	-0.0003256114
140	0x3d13de72	0.036100812
141	0x3d71716a	0.05894605
142	0xbdd85f5e	-0.10565065
143	0xbdc5dd04	-0.09661296
144	0xbdfd4b92	-0.123679295
145	0xbdb68821	-0.08912683
146	0x3e0a2410	0.13490319
147	0x3cd565c4	0.026049502
148	0xbe50aadc	-0.20377678
149	0x3dccdf1c	0.10003492
150	0xba974d72	-0.0011543466
151	0x3dae68be	0.08516072
152	0x3d4f6f85	0.050643463
153	0xbd2d4759	-0.04230437
154	0xbe30f515	-0.17280991
155	0xbe0ff212	-0.14057186
156	0xbe193cfd	-0.14964671
157	0x3c95f1ff	0.01830387
158	0x3e453ef1	0.19262291
159	0x3c86817a	0.016419161
160	0x3e2bfc1a	0.16795388
161	0xbd0e56cf	-0.034750756
162	0x3e1cc9f0	0.15311408
163	0x3d68fe1a	0.056882955
164	0x3bc58180	0.0060274005
165	0xbddcd9ae	-0.107837066
166	0x3d89152d	0.06693492
167	0x3e8e2684	0.2776376
168	0x3d82f9dd	0.06395314
169	0xbd7348b3	-0.059395503
170	0xbde22275	-0.110417284
171	0xbd4c6c81	-0.049908165
172	0xbd9ac87b	-0.0755777
173	0xbe46f171	-0.1942804
174	0x3c50b1e6	0.012737727
175	0x3dc83068	0.09774858
176	0xbe220818	-0.158234
177	0x3e5d1eb0	0.21593738
178	0xbb85f799	-0.004088354
179	0x3df8c570	0.12147033
180	0x3d865f84	0.06561187
181	0x3d03ca87	0.032175567
182	0xbca5c53b	-0.020235648
183	0x3e076aef	0.13224386
184	0x3d5ffeb9	0.05468628
185	0xbd6d3c4a	-0.057918824
186	0xbde9b9f2	-0.114124194
187	0x3dd0ec07	0.10201269
188	0xbdd35d41	-0.10320521
189	0xbdbe2072	-0.09283532
190	0x3c915a66	0.0177433
191	0x3dd3347b	0.10312744
192	0x3cc7cd85	0.024389992
193	0xbe0fb842	-0.14035133
194	0x3d8311cd	0.063998796
195	0x3d0d88bd	0.034554232
196	0xbdbb7424	-0.091530114
197	0xbd6091f1	-0.05482668
198	0x3c872d13	0.016500985
199	0x3e2cd070	0.16876388
200	0x3e46cc50	0.19413877
201	0xbc91d782	-0.017802957
202	0xbdb4ee83	-0.08834555
203	0xbde1608d	-0.11004744
204	0xbe335dab	-0.175162
205	0xbe10f8b8	-0.14157379
206	0xbcf6613b	-0.03007566
207	0x3d0361ff	0.03207588
208	0xbd5c4a1b	-0.05378161
209	0x3c27ec39	0.010249191
210	0x3e21db4c	0.15806311
211	0x3d945cf0	0.07244289
212	0xbdd3802f	-0.103271835
213	0x3ce78532	0.028261755
214	0xbe1e3ccd	-0.15452881
215	0x3de4886e	0.111588344
216	0xbd9dfd0e	-0.07714282
217	0xbe9085c8	-0.28227067
218	0x3cf79a67	0.030224992
219	0x3e4d77be	0.2006521
220	0x3e4e26de	0.20132014
221	0xbcfa92d5	-0.030587593
222	0xbd269929	-0.04067341
223	0xbe31d53c	-0.17366499

a2c_network.mu.bias f4 [7]
0	0xbb712eb1	-0.0036801512
1	0xbd757dcb	-0.05993442
2	0xbd3150b7	-0.043289866
3	0x3c2bfa5c	0.010496702
4	0xbd0a9e21	-0.03384221
5	0xbca788d9	-0.020450996
6	0x3d6d2b03	0.057902347

exp_avg f4 [7]
0	0x3bccca42	0.006249697
1	0x3c00ace5	0.007853721
2	0xb9a7378a	-0.00031894102
3	0x3ad0c770	0.0015928578
4	0x3cb33851	0.02187744
5	0xbc273151	-0.010204629
6	0x3bd4c073	0.0064926683

exp_avg_sq f4 [7]
0	0x3a2ddffc	0.00066328025
1	0x3a2af26d	0.00065211096
2	0x3a176d75	0.0005776503
3	0x3a107ffd	0.0005512236
4	0x3a4daaf2	0.0007845602
5	0x3a1255c1	0.00055822363
6	0x3a540993	0.0008088585

exp_avg f4 [128, 18]
0	0x396ffff4	0.00022888166
1	0x39859943	0.00025481926
2	0x39315ef5	0.0001691541
3	0xb9a02b00	-0.00030549616
4	0xba81242c	-0.0009852699
5	0x3a61d737	0.00086151384
6	0x3ac24b30	0.0014823433
7	0x39f2aa67	0.00046284797
8	0xb8cd118f	-9.778432e-05
9	0xb9e5893c	-0.0004378053
10	0x3ab4ca5a	0.0013793216
11	0xb9b8bbed	-0.0003523523
12	0xba1e4bde	-0.0006038527
13	0x39fe3edd	0.00048493492
14	0x38e664df	0.00010986043
15	0x3a7e6fd8	0.0009705997
16	0xb766853b	-1.3740088e-05
17	0x3930e213	0.00016868887
18	0x3a8ad495	0.0010591919
19	0x3adcfada	0.0016859428
20	0x3a8c45cc	0.0010701953
21	0xba76c663	-0.0009413717
22	0xbb1324d6	-0.0022452376
23	0x3b4304d8	0.0029757526
24	0x3ad8586b	0.0016505843
25	0x3aebbe8b	0.0017985863
26	0xb90542f9	-0.00012708818
27	0x39ccb997	0.00039048187
28	0x3aabbcf9	0.0013102583
29	0xba83f163	-0.0010066446
30	0xb8361e32	-4.3420303e-05
31	0xbaa5ac93	-0.0012639932
32	0xba92ea32	-0.0011208712
33	0x3b46bc54	0.0030324655
34	0xba3d9ba6	-0.0007232971
35	0x3a329402	0.0006812216
36	0x3a683ae0	0.0008858871
37	0x38aba025	8.183745e-05
38	0x3a45d48d	0.0007546626
39	0xba0d0463	-0.0005379377
40	0xba8eef06	-0.0010904975
41	0x3aaa228d	0.0012980268
42	0xb82ec8af	-4.1671734e-05
43	0x3aacb330	0.0013175961
44	0xb7b1ed3a	-2.1210511e-05
45	0x39bd58b8	0.0003611499
46	0xb89e0d08	-7.536454e-05
47	0xb93a439e	-0.00017763532
48	0xb98b5e29	-0.000265823
49	0xba4dd04d	-0.00078511686
50	0xba6f6a79	-0.0009132992
51	0x3ab0c2df	0.001348581
52	0xb9103909	-0.00013754157
53	0x3941c0ef	0.00018477788
54	0xbab9237a	-0.0014124953
55	0xbb16dafd	-0.002301871
56	0xba63109c	-0.0008661838
57	0x3ab201f3	0.0013580903
58	0x3b07dae3	0.0020729832
59	0xbb4d565a	-0.0031331987
60	0xb9e02480	-0.00042751804
61	0xbb356dda	-0.0027683885
62	0xba25199b	-0.0006298066
63	0xb913ad9f	-0.00014083691
64	0xb9fb7630	-0.00047962507
65	0x3aa83464	0.0012832996
66	0x399cfb70	0.00029941974
67	0xba624cfc	-0.00086326874
68	0x3a9d447c	0.0011998559
69	0xbb4895b7	-0.0030606815
70	0x3a8fcf4b	0.0010971812
71	0xbb0455b8	-0.0020192694
72	0x3963522b	0.00021679017
73	0x39806c33	0.00024494677
74	0x3a11e935	0.00055660616
75	0xb987709b	-0.00025833104
76	0xba067ae6	-0.00051300076
77	0x3a181374	0.00058012386
78	0xb99dfe7d	-0.00030134982
79	0xb995a34c	-0.0002854116
80	0x39a3bd45	0.000312308
81	0x3a0f13af	0.000545795
82	0xba103982	-0.00055017334
83	0xb9e7bc85	-0.0004420021
84	0x39e7c2cb	0.00044204885
85	0xbaa91389	-0.0012899499
86	0xb9c1602f	-0.0003688349
87	0x3a36ddf9	0.00069758255
88	0x38baa2f5	8.899524e-05
89	0xb9b390ed	-0.0003424952
90	0x3a434f30	0.00074504595
91	0x3a07e8e7	0.00051845465
92	0x3a539521	0.0008071233
93	0xba332560	-0.00068338774
94	0xba9b2ed4	-0.0011839517
95	0x3ade0e6e	0.0016941556
96	0xb9a02e43	-0.00030552046
97	0x3a05dd87	0.00051065575
98	0xb9a40a35	-0.00031288122
99	0x3a1d470d	0.0005999662
100	0xba3a899f	-0.0007115844
101	0xba388db2	-0.0007040157
102	0x39f1e555	0.00046137968
103	0xbadf8f8b	-0.0017056329
104	0xba8523d6	-0.0010157775
105	0x3abae32e	0.0014258379
106	0xb98f1ad0	-0.00027295062
107	0x380a1cbe	3.2928532e-05
108	0x37a21b03	1.9324483e-05
109	0x3884abf2	6.326278e-05
110	0x3998f5ee	0.0002917493
111	0xb94ac49d	-0.00019337465
112	0xbaa243a9	-0.0012379783
113	0x3a032000	0.0005002022
114	0x39f7020a	0.0004711303
115	0xb99de981	-0.00030119348
116	0x3a18ab47	0.0005823862
117	0x39529ad7	0.00020084843
118	0x3912a5d3	0.0001398542
119	0xba56b72a	-0.0008190746
120	0x38bd9611	9.040174e-05
121	0xba4343a9	-0.0007448742
122	0x39cb1d64	0.00038741075
123	0x3a853981	0.0010164232
124	0x3a0db532	0.00054057234
125	0x390caf31	0.00013416704
126	0x399e31e5	0.00030173283
127	0xba0a8db3	-0.0005285397
128	0x39d95125	0.00041449923
129	0xb7e89931	-2.772789e-05
130	0xb93e208b	-0.00018131935
131	0x38288f2b	4.0187657e-05
132	0xba19403d	-0.0005846059
133	0x3983cb5d	0.00025137785
134	0xb93d9a2e	-0.00018081881
135	0x39cf82a6	0.00039579457
136	0xba0c63a6	-0.0005355425
137	0x39d60aed	0.000408254
138	0xb83aa0a0	-4.449545e-05
139	0xbaa5922c	-0.0012632064
140	0xb9c9eca8	-0.0003851403
141	0x397a64bf	0.00023879389
142	0x397e7e57	0.00024270393
143	0xb9e21196	-0.00043119182
144	0xb911799c	-0.0001387358
145	0x3787234c	1.610969e-05
146	0xb856b274	-5.1187773e-05
147	0x3854a123	5.069481e-05
148	0xb8abf338	-8.1992184e-05
149	0x38a3bb20	7.8073004e-05
150	0x3a1dbae6	0.0006016925
151	0xb98bd717	-0.000266724
152	0xb9a26a74	-0.00030978362
153	0xb95f26ac	-0.00021281344
154	0x3a05afc2	0.00050997373
155	0xb7a382f2	-1.949209e-05
156	0x380ce894	3.3595206e-05
157	0xb7e3d828	-2.7161164e-05
158	0x396a2ff2	0.0002233384
159	0xb84fb7f9	-4.9523984e-05
160	0x38b4ab86	8.6150176e-05
161	0xb92b5ad3	-0.00016341665
162	0xba053f73	-0.0005083002
163	0xbaee0088	-0.0018158117
164	0xba08d84a	-0.0005220218
165	0x3a41a761	0.0007387307
166	0x3a9b2a93	0.001183825
167	0xbadec680	-0.0016996413
168	0xb893362d	-7.019597e-05
169	0xba7d3483	-0.0009659009
170	0xba4b4e57	-0.0007755509
171	0xb9e62847	-0.00043899028
172	0x37e4a70a	2.7257502e-05
173	0x3a91ce6c	0.0011124141
174	0xb9d59d2c	-0.00040743628
175	0x3874a88b	5.83311e-05
176	0x3a17bcc8	0.00057883235
177	0xbaf16913	-0.0018418155
178	0x3a2a914e	0.00065066374
179	0xba85076c	-0.0010149307
180	0xba1dd730	-0.000602114
181	0xbab204c0	-0.0013581738
182	0xb9b9ee30	-0.00035463413
183	0x3a35004e	0.00069046475
184	0x3a346e8a	0.00068829267
185	0xbab73bb9	-0.0013979591
186	0x341355c5	1.3721645e-07
187	0xbabb46e4	-0.0014288095
188	0xb8854558	-6.3548505e-05
189	0xb86ec550	-5.6927383e-05
190	0xb8c72e55	-9.4976895e-05
191	0x3a276fa1	0.00063871784
192	0xb99e8bc8	-0.00030240254
193	0xba1ca5e5	-0.0005975648
194	0x3a1a8ee1	0.00058959244
195	0xbaace96b	-0.0013192123
196	0x3a4f88d2	0.0007916811
197	0xba8d297b	-0.0010769808
198	0xba6e3c50	-0.0009087967
199	0xba5b8fc9	-0.00083756127
200	0xba12f238	-0.00056055514
201	0x3a64ad28	0.0008723312
202	0x3aa563ef	0.0012618284
203	0xbaf438fe	-0.0018632708
204	0xba8a2fbb	-0.0010542789
205	0xbae947ff	-0.0017797946
206	0x3a190b57	0.00058381766
207	0x39a7dfe1	0.00032019525
208	0xba3e4822	-0.00072586734
209	0x3a22018c	0.000618004
210	0x3a0c8a68	0.00053612003
211	0xb94fcdee	-0.00019817773
212	0x3a54f125	0.00081230915
213	0xbae53329	-0.001748656
214	0x3a65ef70	0.00087713357
215	0xba760378	-0.0009384672
216	0x3ad206f3	0.00160238
217	0x3b3cde1b	0.0028818909
218	0x3abb6831	0.0014298019
219	0xbade0923	-0.0016939979
220	0xbb4fde14	-0.0031718062
221	0x3b869a33	0.0041077374
222	0x3aa7f5c6	0.0012814335
223	0x3b186580	0.0023253858
224	0x39a06dd0	0.00030599395
225	0x3a381e17	0.00070235267
226	0x39cf5460	0.0003954498
227	0xbb20c2bf	-0.002453014
228	0x390d7f58	0.00013494247
229	0xbaa2fe3a	-0.0012435385
230	0xbad271ab	-0.0016055604
231	0x3b8eae11	0.0043542464
232	0xba9b5ac9	-0.0011852618
233	0x3aec7e00	0.0018042922
234	0x3b1bce76	0.0023774183
235	0x3b2026c2	0.0024437164
236	0x3ad683f4	0.0016366229
237	0xbad65894	-0.0016353303
238	0xbb702e61	-0.0036648738
239	0x3b94bc84	0.0045390744
240	0x3b1323c1	0.002245173
241	0x3b76c5fb	0.0037654627
242	0x38ccd331	9.7668155e-05
243	0x3981e99a	0.00024778844
244	0x3afba093	0.0019197635
245	0xbabd6695	-0.0014450127
246	0xba7910c0	-0.0009501092
247	0xba6f3135	-0.0009124459
248	0xbae2be1e	-0.0017299091
249	0x3ba701ae	0.005096636
250	0xba63564a	-0.0008672221
251	0x3ae5cd9d	0.0017532591
252	0xb9945eb7	-0.00028299328
253	0xba9c1b95	-0.0011910076
254	0xb8ccb4a1	-9.761123e-05
255	0x3a06802c	0.00051307934

exp_avg_sq f4 [128, 18]
0	0x367dba71	3.780846e-06
1	0x363349c4	2.6716016e-06
2	0x3685fcfe	3.993161e-06
3	0x36b54149	5.4018205e-06
4	0x36598e48	3.2418338e-06
5	0x366facf9	3.5714459e-06
6	0x3608d8ff	2.0391888e-06
7	0x369f3197	4.7443423e-06
8	0x36566219	3.1945585e-06
9	0x36a10ffb	4.8000343e-06
10	0x36d0011e	6.199013e-06
11	0x3697cd0a	4.5240204e-06
12	0x365f04a1	3.3232284e-06
13	0x367cc4a1	3.766538e-06
14	0x36116df0	2.1670676e-06
15	0x36316e6d	2.6439332e-06
16	0x36668319	3.434898e-06
17	0x36153519	2.2233637e-06
18	0x3788cc82	1.6307695e-05
19	0x37108256	8.613415e-06
20	0x37237650	9.743104e-06
21	0x372e6d8d	1.0396715e-05
22	0x3774841a	1.4574291e-05
23	0x37152731	8.890217e-06
24	0x370bb3df	8.326925e-06
25	0x3759a6e8	1.2973069e-05
26	0x370d69fe	8.428933e-06
27	0x375e3500	1.3244571e-05
28	0x3785f179	1.596728e-05
29	0x377bb3b0	1.5002603e-05
30	0x374ec1f7	1.2323718e-05
31	0x3752eaf1	1.2571677e-05
32	0x36f1c23b	7.204971e-06
33	0x37057e49	7.956821e-06
34	0x36e1d933	6.730808e-06
35	0x3716afe9	8.981654e-06
36	0x371b7fc5	9.268469e-06
37	0x36b767d7	5.4659135e-06
38	0x36ef4d4a	7.1317527e-06
39	0x36c315cb	5.81399e-06
40	0x37145c36	8.842957e-06
41	0x36801686	3.8173193e-06
42	0x36815230	3.8540675e-06
43	0x37177de4	9.029613e-06
44	0x36c1b661	5.77308e-06
45	0x36f43a92	7.278585e-06
46	0x36f471b1	7.285002e-06
47	0x37169851	8.976161e-06
48	0x370d8405	8.434993e-06
49	0x3702e689	7.8022795e-06
50	0x369910a1	4.561691e-06
51	0x3696d76b	4.4954263e-06
52	0x36a0958d	4.7857816e-06
53	0x36ca73bd	6.033543e-06
54	0x36a676e2	4.9610253e-06
55	0x364d47cd	3.0589174e-06
56	0x369081ec	4.3066593e-06
57	0x36a171ca	4.8114207e-06
58	0x3696308e	4.476001e-06
59	0x366944da	3.4759782e-06
60	0x3658ae6b	3.2288033e-06
61	0x36da8f4d	6.5135887e-06
62	0x3660974c	3.3466667e-06
63	0x36b0efb7	5.273115e-06
64	0x3705b6af	7.969952e-06
65	0x36a02fef	4.773952e-06
66	0x36a1d030	4.82241e-06
67	0x36954ab6	4.4492435e-06
68	0x364fde51	3.0974809e-06
69	0x364063a7	2.8668235e-06
70	0x364833b8	2.9832427e-06
71	0x3655e0e2	3.1870372e-06
72	0x377490d6	1.4577256e-05
73	0x36cd5201	6.1190226e-06
74	0x370e6d0b	8.489248e-06
75	0x371f3854	9.490253e-06
76	0x373ccd2d	1.1253444e-05
77	0x36c1f7c9	5.780694e-06
78	0x36efb856	7.1442146e-06
79	0x373496c2	1.0763937e-05
80	0x36e91b5c	6.947126e-06
81	0x376e812a	1.4215979e-05
82	0x375b8155	1.308353e-05
83	0x37605881	1.3372047e-05
84	0x3751ab93	1.24973185e-05
85	0x374d65ed	1.2242684e-05
86	0x3713b3aa	8.803714e-06
87	0x36f257bf	7.222377e-06
88	0x36fe5075	7.5791563e-06
89	0x36ff8634	7.6152155e-06
90	0x37abc175	2.0474874e-05
91	0x36f93a39	7.4275563e-06
92	0x373d591b	1.1286024e-05
93	0x375d41e9	1.3187972e-05
94	0x3780973d	1.5329215e-05
95	0x37105560	8.602947e-06
96	0x375929c3	1.2943931e-05
97	0x376f3311	1.42574e-05
98	0x3730f698	1.0547832e-05
99	0x37ad9d2b	2.0696394e-05
100	0x37a1d49e	1.9291703e-05
101	0x3791688d	1.7334032e-05
102	0x37708e03	1.4338179e-05
103	0x3772b389	1.4466125e-05
104	0x37809aab	1.5330812e-05
105	0x37308fc3	1.052389e-05
106	0x371b78de	9.2668615e-06
107	0x37560ff6	1.275911e-05
108	0x36afc75b	5.2386144e-06
109	0x36ad200e	5.1595334e-06
110	0x370a2cb7	8.235852e-06
111	0x372bd047	1.0240888e-05
112	0x37027681	7.776195e-06
113	0x36f63f1a	7.3387173e-06
114	0x36a38786	4.8735556e-06
115	0x36fec303	7.5924922e-06
116	0x36eeb783	7.1143163e-06
117	0x372a6d83	1.0158287e-05
118	0x37172dc2	9.010955e-06
119	0x371f791b	9.505336e-06
120	0x36bd8eb5	5.649252e-06
121	0x37133ee3	8.776525e-06
122	0x36bf1961	5.695198e-06
123	0x36925626	4.361168e-06
124	0x36cb22b6	6.0539123e-06
125	0x36b2e07b	5.3309464e-06
126	0x36e3ec65	6.792647e-06
127	0x36537d4e	3.1514387e-06
128	0x3686ba39	4.0151904e-06
129	0x36b1d61e	5.2999376e-06
130	0x36b9d787	5.5385203e-06
131	0x363e3b21	2.8346624e-06
132	0x3666060d	3.4276193e-06
133	0x36db496e	6.535257e-06
134	0x36a61884	4.9500395e-06
135	0x36cd961a	6.12695e-06
136	0x36c1f055	5.7798266e-06
137	0x36c89294	5.9775284e-06
138	0x36e1109f	6.7074575e-06
139	0x36bb528c	5.582644e-06
140	0x3682b202	3.8950247e-06
141	0x3640db17	2.8737757e-06
142	0x369d0cfe	4.680477e-06
143	0x368565f0	3.975576e-06
144	0x3684dd19	3.9596457e-06
145	0x3627500d	2.4931535e-06
146	0x36b71537	5.4562947e-06
147	0x369ffd23	4.7680383e-06
148	0x365e15b0	3.3093202e-06
149	0x36931481	4.3833284e-06
150	0x3645db69	2.9483e-06
151	0x36c9d6e6	6.0152843e-06
152	0x365ebccb	3.319047e-06
153	0x36b5838d	5.409535e-06
154	0x36a231b5	4.833763e-06
155	0x3688165e	4.0557197e-06
156	0x3689d34a	4.1075155e-06
157	0x36c34100	5.81902e-06
158	0x361a80d1	2.302277e-06
159	0x36392827	2.759052e-06
160	0x368012aa	3.81687e-06
161	0x368e0543	4.2325423e-06
162	0x363d3628	2.8194718e-06
163	0x360c8c4a	2.0943285e-06
164	0x3619c24f	2.291188e-06
165	0x36110196	2.1607607e-06
166	0x35d8d38b	1.6154821e-06
167	0x3609861a	2.0492648e-06
168	0x35de12f0	1.65458e-06
169	0x366bf299	3.515894e-06
170	0x35e4ab90	1.7037255e-06
171	0x366dcbd7	3.5434402e-06
172	0x363dbfd1	2.8274846e-06
173	0x36401199	2.8620473e-06
174	0x3643dc10	2.9185358e-06
175	0x365dee2d	3.3070203e-06
176	0x35d5cafc	1.5928813e-06
177	0x3612f09a	2.1895744e-06
178	0x35d3631a	1.5749567e-06
179	0x35e99b3e	1.7405034e-06
180	0x36708137	3.5838e-06
181	0x361d67c9	2.3455234e-06
182	0x36168c72	2.2433492e-06
183	0x36842494	3.938165e-06
184	0x3653f9da	3.1586883e-06
185	0x360babea	2.0812681e-06
186	0x36159f10	2.2295317e-06
187	0x36972aeb	4.505147e-06
188	0x360e06ab	2.116353e-06
189	0x36949b2a	4.428807e-06
190	0x36afd2d1	5.2399487e-06
191	0x365b9d9b	3.2725281e-06
192	0x3653f9d7	3.1586876e-06
193	0x36783baf	3.698962e-06
194	0x360c0430	2.0864063e-06
195	0x35ffa576	1.9047136e-06
196	0x3624df90	2.4568035e-06
197	0x360f18ef	2.1323174e-06
198	0x36fe1be2	7.573036e-06
199	0x36816201	3.8559087e-06
200	0x3698dfdd	4.556014e-06
201	0x36b523e6	5.3983995e-06
202	0x36a6f42d	4.9756113e-06
203	0x3687ef8d	4.051201e-06
204	0x3683a15b	3.9228885e-06
205	0x36e5f22d	6.852925e-06
206	0x368302c2	3.9044253e-06
207	0x36d3f968	6.3173247e-06
208	0x36f32354	7.246077e-06
209	0x36af3ced	5.222499e-06
210	0x36ad20f2	5.159637e-06
211	0x36b52b43	5.3992567e-06
212	0x3668a23d	3.466513e-06
213	0x36531cc7	3.14582e-06
214	0x3685151e	3.9661672e-06
215	0x36630269	3.3827039e-06
216	0x378035a2	1.5283764e-05
217	0x36cf924e	6.186113e-06
218	0x371ddf50	9.409923e-06
219	0x371e4c68	9.435324e-06
220	0x373dcc78	1.1312884e-05
221	0x36ddec95	6.613855e-06
222	0x37055e02	7.949306e-06
223	0x3741bc33	1.1547515e-05
224	0x3708ba77	8.149646e-06
225	0x376068e4	1.3375862e-05
226	0x3751c9b5	1.2504334e-05
227	0x37334cc5	1.0687106e-05
228	0x3748fdd7	1.1980031e-05
229	0x373aef5e	1.1142196e-05
230	0x37180749	9.061602e-06
231	0x370176a1	7.71662e-06
232	0x370c5d21	8.3663335e-06
233	0x3719957c	9.154315e-06
234	0x375eb708	1.3274846e-05
235	0x3691d04b	4.3455852e-06
236	0x36bdcab8	5.6562385e-06
237	0x36e667d7	6.8666227e-06
238	0x371b083d	9.240638e-06
239	0x36ba2e2f	5.5486084e-06
240	0x36c6dcba	5.926556e-06
241	0x373ce5ed	1.1259207e-05
242	0x36c518f6	5.8739633e-06
243	0x3729c460	1.0118907e-05
244	0x3746355a	1.18141415e-05
245	0x371c2b8a	9.308462e-06
246	0x3711e7d0	8.696647e-06
247	0x370e20ab	8.471466e-06
248	0x36d1ffc3	6.25846e-06
249	0x36e4a1bf	6.8137592e-06
250	0x36ad835b	5.1710936e-06
251	0x36cf777b	6.18299e-06
252	0x3684ddff	3.9597503e-06
253	0x360d5cfb	2.106476e-06
254	0x364ac7f5	3.0216736e-06
255	0x3689573d	4.093074e-06
