runs/BallBalance_19-15-20-49/nn/BallBalance.pth (torch, 172255 bytes, 36 tensors)

value_mean_std.running_mean f8 [1]
00000000: 361a 1a27 5bf9 c73f
0.1872972432067443

value_mean_std.running_var f8 [1]
00000000: 3f62 db6c 27b5 833f
0.00962286759333708

value_mean_std.count f8 []
00000000: 0000 0000 4080 df40
32257.0

running_mean_std.running_mean f8 [18]
00000000: f639 bd6e b940 b03f ad2c 0140 b448 af3f
00000010: 3a5e cd35 fef6 93bf 91a9 438d 12db c73f
00000020: d2f7 025d ca35 d13f ea76 bb9d afc4 8d3f
00000030: f417 1dd7 39e0 b2bf 8aa9 4359 bfbf a8bf
00000040: 78c7 ef2f 7bde ce3f 259b d16a ded3 bc3f
00000050: c309 9794 5210 d93f 4b17 4670 9314 e33f
00000060: b11a 72eb d6ae aabf 84b8 97a9 9004 bebf
00000070: 16ef 29de 7e9d b63f 922c 085d a1ca b43f
00000080: 8107 2705 1b5d a23f c1a7 b991 bb88 a33f
0.06348761514275467 0.06110156327539449 -0.01949689105398831 0.18637306115790556 0.26890811045802565 0.01453530502424934 -0.07373391629980103 -0.04833791699077768
0.24116458740860103 0.11260786159401144 0.3916212512087009 0.5962617104384916 -0.05211516975491771 -0.11725715771146566 0.08834069179459578 0.081216893399118
0.0358665889539358 0.038152562655184415

running_mean_std.running_var f8 [18]
00000000: ba03 1870 8e14 c23f 594b 09c7 baa3 953f
00000010: 0201 a1ed 95b0 ae3f 1295 9c49 24a7 cc3f
00000020: 1188 e9f3 664a b43f 7020 f82a 49a1 833f
00000030: f94a ebe7 452d 7e3f d1f3 78ea 0a32 0240
00000040: 8f3a 377d 3e45 d73f 2e70 0023 66dd fb3f
00000050: 3093 b6ff be96 0940 7c1f 190f 5a2c d93f
00000060: 7654 5f0e 711e ed3f 12bc 2d62 acbc f43f
00000070: c1f3 f8e6 263d 7b3f 0b9f c695 d402 7a3f
00000080: 774b f2b7 dda6 8b3f dec0 d52d f521 853f
0.14125233147936261 0.021132391355716738 0.05994099164718315 0.22385076135939436 0.07926028685463417 0.009584972022836008 0.007367394514136144 2.274434882942366
0.3636013243493971 1.7415524832968106 3.198606488951917 0.39333201860835465 0.9099660187445255 1.2960628352263979 0.0066501159304239174 0.006350355539701767
0.013501865554905497 0.010318675481102376

running_mean_std.count f8 []
00000000: 0000 0000 8080 cf40
16129.0

a2c_network.sigma f4 [7]
00000000: 5b62 2abd c404 66bd 8df2 f3bc d5b2 d3bd
00000010: 1f1f 5abd 54c4 c03d b380 2dbd
-0.041597705 -0.05615689 -0.029778743 -0.10336844 -0.053252336 0.094124466 -0.042359065

a2c_network.actor_mlp.0.weight f4 [128, 18]
00000000: a6ee 24be da20 5f3d 0334 46bd 6cee b7bd
00000010: abb3 11be 8394 7e3e 2a39 77be 85f7 17be
00000020: 9ff0 71bc ae92 19be 732e c63c 99c9 90be
00000030: 18eb 573e 765a 5cbe b354 8c3e 30c6 0b3e
00000040: 4efb 91bd 5a4e 0b3e cbfb a03d 537c 743e
00000050: a1de dd3d 4c6b 3bbd 241d 463e 21bb 88bd
00000060: 36a9 8c3d d811 9a3e 92c5 e83d 5be1 fbbb
00000070: 505e f43d c944 2a3d 28f3 033e 5fc7 3abe
00000080: 60bc bdbe b243 0cbe 73f5 0ebe 9bb9 2a3e
00000090: 11cf 243d 1b15 1a3e 3615 073e 247f 08bd
000000a0: e270 743e eb1d 1cbe 440e bf3c 0714 06be
000000b0: 3017 c03d ba4e 35bd 73ff 613d 5426 cfbd
000000c0: 3bf9 7a3e 2ac4 e7bd 1ee9 ddbd a107 02be
000000d0: ec17 533e 0d6b d13c ad74 3d3e 40de 36bd
000000e0: 0b7b 51be c892 95be 5560 49be 0a6f ce3d
000000f0: e7d2 3f3d 4ded 3f3e f833 70bc a492 5dbd
00000100: dae0 ca3d 223a 4abe c822 383e f487 b7bd
00000110: d7f6 013e 2f63 21be 704f cabd 5850 a53d
00000120: 1dbf 003e b9f8 5ebe 4fbd 493e 5953 413e
00000130: 6473 85be 402b ddbd 426c 5d3e f854 51bd
00000140: 1a45 cabd 1dd4 55be 610b 02be f92e 9e3d
00000150: 65e0 e2bc 0364 dcbd c590 c73d bd25 91be
00000160: db6d 59be fef7 e6bd 5d69 45be a4ee 00be
00000170: 2150 6c3e 73b2 513d 3beb 113d 3bcb 46be
00000180: ae4e 27be f95c cebd e025 b83d 7fc5 82be
00000190: 3204 d1bd d302 20be 92cc 223d fdf5 11be
000001a0: 4dec 813e d64a 77be 838d 00be 622f 68bd
000001b0: 86f7 4ebd 1dd4 5ebe 50a7 713e 29b2 2ebc
000001c0: 00fb 5f3e dc17 793d d24d 24be 9469 3b3e
000001d0: 0255 abbd 0f78 b2bd e8f1 73be c0f0 60be
000001e0: a739 a43d d0b5 86bd e401 953e 4236 7fbe
000001f0: b66c 393e 3930 30be b41e b8bd a752 aa3d
00000200: 15ac e73d 6c78 353e 8b2e 223e 8959 34be
00000210: 92d7 ae3c 174d 29be 903c 313d 4c57 2cbe
00000220: a7a9 7e3e 94d5 41be 05c7 1f3e ccc5 503d
00000230: 8cd2 863e 92ad 20be 3f46 6e3e 87c6 d23c
00000240: 3109 f53d d325 82be 4d28 783c c7b3 da3b
00000250: de79 44be 5330 383e 2fba 1a3d 7753 10be
00000260: 923c efbd 3897 1bbd 4a64 393e a440 2bba
00000270: a25b 1bbe 77c0 77bd 9430 a4be fc0a 1e3e
00000280: 5991 5e3e aa07 63be 415d a53b 8411 2d3e
00000290: 1c34 0b3e 1fc8 11bc 5f32 783e 27f7 1d3e
000002a0: ede3 e33d 4434 42bd af6e c5bd e6cd cf3d
000002b0: 55a7 46bd 9160 8bbd 8e28 673d 58b4 2b3e
000002c0: 20a6 203d e622 123c febc fabb 7dd5 aa3c
000002d0: e8fa 843a d2d6 9c3d bf20 5bbe 8ad2 f7bd
000002e0: e30a bc3e 2aa6 ea3d 58f6 f43a 1a8c 29be
000002f0: da0e 68be c6ff 71be b679 a2bd ae2a ad3d
00000300: 5ea6 f63d 1f14 d53b ff7f 7bbe 217d 25be
00000310: 58f6 31bd a7b3 383e d97d ad3d c6ff 9ebc
00000320: 24a7 b93d 0927 dd3c 5b0e 13be cb24 353e
00000330: ecfb 9bbd 3d18 31bd 978c 84be 81fb 603e
00000340: 71fe 813e 8705 e33d eb64 32be aec5 84be
00000350: b1d2 a0be 30f9 123e 6bda 373e 430f 333e
00000360: 7e80 703e 63cd 0e3a 4f6a 6abd 5229 3bbe
00000370: c907 63be c365 46be 7b59 a73d f0c4 aebc
00000380: 0e8d bebd 316c d1bd f9fd afbc 5b1e d4bd
00000390: be29 3dbe 4cfa 113e bff7 bebe 8d90 343e
000003a0: 1626 d9bd 0ada f4bd 787b e0bd d84f f0bd
000003b0: 6bd5 ffbc 711b a0be b5ee 3c3e bbde 1dbe
000003c0: dcc1 1e3e 91a3 ba3d efe1 413e 284f 27be
000003d0: 806f 4c3d 63dc 16be 6036 d63d 467a 5b3e
000003e0: b27d 6ebe bab6 d2bc 3f63 693d 47ea 6ebe
000003f0: 1a28 763d b786 88be a0d2 2e3e 0c10 0f3e
-0.16106662 0.05447469 -0.048389446 -0.08981022 -0.14228694 0.2486134 -0.241429 -0.14840515
-0.014766841 -0.1499736 0.02419207 -0.28278807 0.21085775 -0.21518883 0.2740837 0.13649821
-0.07128011 0.13604107 0.07860526 0.23875551 0.10833479 -0.045756623 0.19347054 -0.06676317
0.06868212 0.3009174 0.113658085 -0.0076867766 0.11932051 0.041569505 0.12885725 -0.18240117
-0.3705778 -0.13697699 -0.13960819 0.16672365 0.040236536 0.15047114 0.13191685 -0.033324376
0.23871186 -0.15245788 0.023322232 -0.13093577 0.09379423 -0.044264533 0.055175256 -0.101147324
0.24509136 -0.11316712 -0.10835479 -0.12698223 0.20614594 0.025563741 0.1850154 -0.044645548
-0.20457093 -0.29213548 -0.19665654 0.10079773 0.04683199 0.18742867 -0.014660828 -0.054094926
0.09906168 -0.19748738 0.17982018 -0.08961478 0.12691818 -0.15760492 -0.09878433 0.08071965
0.12572904 -0.21774568 0.19701122 0.18879451 -0.260646 -0.10799265 0.21623328 -0.051106423
-0.09876461 -0.20881696 -0.12699653 0.07723803 -0.02769489 -0.10761263 0.097444095 -0.28349105
-0.21233313 -0.112777695 -0.19278474 -0.12591034 0.23077442 0.051195573 0.035624724 -0.19413464
-0.16338608 -0.10076327 0.08991599 -0.25541303 -0.10205878 -0.15626077 0.039745875 -0.14253993
0.25375596 -0.24149641 -0.12553982 -0.056685813 -0.050529025 -0.21760602 0.23598981 -0.010662594
0.21873093 0.06081377 -0.16045311 0.18301994 -0.08365823 -0.087143056 -0.23822749 -0.21966839
0.08018809 -0.06577647 0.29103005 -0.24923041 0.18107876 -0.17205895 -0.08990231 0.08316546
0.11312119 0.17721719 0.15838067 -0.1761228 0.021343026 -0.16533314 0.043270648 -0.16830176
0.24869405 -0.1892913 0.15603264 0.050969884 0.2633251 -0.15691212 0.23268984 0.02572943
0.11964644 -0.25419483 0.015146327 0.006674263 -0.19187114 0.17987184 0.037775215 -0.1409434
-0.11681475 -0.03798601 0.18104663 -0.00065327645 -0.15171674 -0.060486283 -0.32068312 0.15433878
0.21735133 -0.22170892 0.005046517 0.16901213 0.13594097 -0.00889781 0.24237965 0.15426312
0.11127458 -0.047413126 -0.09640252 0.10146694 -0.048499424 -0.06805528 0.05643516 0.16768014
0.03922093 0.008919453 -0.007651924 0.020853752 0.0010145577 0.07658161 -0.2139921 -0.12100704
0.36727056 0.114574745 0.0018689139 -0.16557351 -0.22661915 -0.23632726 -0.07933371 0.08455406
0.12043451 0.0065026428 -0.24560545 -0.16161014 -0.043447822 0.18037282 0.08471269 -0.019409072
0.09065083 0.026996152 -0.14360945 0.17689817 -0.0761641 -0.043236006 -0.25888512 0.21970941
0.25389436 0.11085039 -0.1742131 -0.25932068 -0.31410745 0.1435287 0.17954414 0.1748629
0.23486516 0.0005447475 -0.05723029 -0.18277481 -0.22170939 -0.19374757 0.08171364 -0.021334141
-0.09304248 -0.10225714 -0.021483408 -0.10357352 -0.18472955 0.14255637 -0.3729839 0.17633267
-0.106029674 -0.1195565 -0.1096105 -0.11733979 -0.031229695 -0.31270936 0.18450435 -0.15416996
0.15503639 0.09113229 0.18933843 -0.1633879 0.049911022 -0.14732508 0.1045959 0.21433362
-0.23290136 -0.025721896 0.056979414 -0.23331557 0.060096838 -0.2666528 0.17072535 0.13970965

a2c_network.actor_mlp.0.bias f4 [128]
00000000: 7843 1ebe fdc4 b1bc ba5a cbbc 3329 4dbe
00000010: bb28 253d 5d47 b1bd 143f 213d 9fae 01be
00000020: 5a70 103d d896 2b3d b193 80bd f7ef 563d
00000030: 59b8 4c3d 220e 593c 49ce a6bd 9156 7f3b
00000040: 9239 eebc adb1 6fbd df07 d2bc ae11 853d
00000050: c361 243d 43ed 203d 61c8 833b 71dd abbd
00000060: cd6b 94bd 4d52 93bd a57a 923d 5801 51be
00000070: c855 1dbd fd16 aa3d fbbc 173d 5fae 34bb
00000080: c2a6 90bc 7b46 773d e1b6 92bb 4ec9 48bd
00000090: 0a1f 833d 230a 43bd 5e32 99bd dcb6 c1bc
000000a0: 5368 1b3b 1c60 d1bc 4928 29bd 191c 8a3d
000000b0: d730 5e3d 487b b2bd f6ef 54bd ee95 f5bb
000000c0: d63a 7abd c275 7dbd d51b 55bd 37e9 50bd
000000d0: db39 1e3d 24b3 80bc 2973 d1bd 1ed5 e63c
000000e0: d679 9dbc 6669 65bd 1f34 1f3e 6059 b3bc
000000f0: ee02 4fbd 5c3a 70bd 470d 84bd ca34 b83d
00000100: bbc4 533b b06f 473d 41df f73d 7d51 2abd
00000110: 4fa9 183d f1cf 15bd e6aa f3bd 7dce 02be
00000120: b5bf f73c 5927 83bd c9ee 5e3d 0558 24be
00000130: ead6 2abd e7d5 833d 19d2 14bc 8c00 6bbb
00000140: d3ef cbbc 42a8 d13c 27f6 5fbd 8cf1 b93d
00000150: 7c7d 223d 48ad 573d afb0 053d 5335 913d
00000160: bdd8 94bc 3e6e 95bc 5ab8 2dbe 349b fa3d
00000170: 5ca7 8c3d ebc5 bcbd bb57 64bc be4b 233e
00000180: 9f9c 40bc a927 04bd ae27 be3c 9c32 9e3d
00000190: e4e0 753d eab2 e6bd a548 aabc 644a 88bd
000001a0: f792 e2bc 6c5a 2fbd af86 13be 28ae c3bc
000001b0: 521d 08bc d096 c439 aafc 073d acb5 ec3c
000001c0: 1178 64bb 50e3 94bd f0b3 d73d cf77 11be
000001d0: aeca 703d 147d 43be f28d 91bd eca6 883d
000001e0: 3c23 bdbd 234b 773d 0f61 3fbd db23 31bd
000001f0: 5d63 e7bc f84d b3bc 7bbe d33b 9ed6 03be
-0.15455425 -0.021700377 -0.024823535 -0.20035248 0.040322047 -0.086561896 0.039366797 -0.12664269
0.035263397 0.041891903 -0.0627817 0.052474942 0.049980495 0.013247998 -0.081448145 0.003896151
-0.029080186 -0.058519054 -0.025638519 0.06497513 0.040132295 0.03928877 0.0040216898 -0.08391846
-0.07247124 -0.07193432 0.07152299 -0.20410669 -0.038411885 0.08305166 0.03704546 -0.0027569754
-0.017657641 0.06036995 -0.0044773673 -0.049020104 0.064024046 -0.04761709 -0.0748031 -0.023646764
0.0023713305 -0.025558524 -0.041298185 0.067436405 0.054245796 -0.0871492 -0.051986657 -0.0074946797
-0.061091267 -0.06187988 -0.052028496 -0.05100366 0.038629394 -0.01571042 -0.10227043 0.028177794
-0.019223135 -0.05600872 0.15547226 -0.021893203 -0.050539903 -0.058649406 -0.06447845 0.08994444
0.0032313305 0.048690498 0.12103129 -0.04158162 0.03727084 -0.03657526 -0.11897831 -0.12774082
0.03024278 -0.06403989 0.054426942 -0.16049202 -0.041708864 0.06437283 -0.009083294 -0.003585848
-0.02489463 0.025592927 -0.05467811 0.090792745 0.039670452 0.05265549 0.0326392 0.07090249
-0.018169755 -0.018241044 -0.16964856 0.12236634 0.06867859 -0.09217437 -0.013936932 0.15946862
-0.011756091 -0.032264385 0.02321228 0.07724497 0.060028926 -0.11264594 -0.020786593 -0.06654814
-0.027657969 -0.042810842 -0.14406846 -0.023886755 -0.008307772 0.00037496397 0.033199944 0.028895222
-0.0034861604 -0.07269919 0.10532367 -0.1420586 0.05878704 -0.19090682 -0.07107152 0.06672463
-0.09235236 0.06037439 -0.04672342 -0.043247085 -0.028245622 -0.021887764 0.006461916 -0.12874839

a2c_network.actor_mlp.2.weight f4 [64, 128]
00000000: fae4 eb3c 0385 db3d 414c 7f3d 3f2a 7e3d
00000010: c58c 44be 182b fdbd 9ce1 79bd 80fa 183d
00000020: be96 873d 7b98 c1bd 7900 2c3d c864 2d3d
00000030: 5112 a43d 5d2d d93d 30f3 a6bd 8e16 a5bd
00000040: 8498 e43d 524c 0dbd c7d7 6c3c aec4 48be
00000050: afab acbd 493e d9bd 1417 febc 8f65 123e
00000060: 3278 b8bd b55c a4bd c520 c2bb 3cd9 aa3d
00000070: 39f1 683d d0df f7bd aa90 6dbd 5836 463d
00000080: dcaf fb3c 02e7 a33b 8ac9 6bbc c633 a13c
00000090: 66af e5bd 185d 603e ed03 0e3d 4fca 1ebd
000000a0: c6fe 83bd 5707 5d3d 3972 a83d 2ff8 8ebd
000000b0: daba 09bd 2cbc 313d ce4c c73c 2d04 d03d
000000c0: eeb4 443d 1740 cebd cfc1 b83d cbe8 19bd
000000d0: bd75 0dbe 6f60 b33c c800 4dbd d5a5 d0bc
000000e0: 1315 19bd 79a7 dfbd d124 09bd 68e5 afbd
000000f0: 3d9b e1bc 49f1 0b3e 07a0 85bd e0be 523c
00000100: d745 a3bc 2c88 e7bd bc70 de3c 513c 763d
00000110: e37f cc3d d34c 5a3d 64f1 b53d 60a8 243d
00000120: 3261 d5bc 09ed b23c dc05 59be 00c6 ca3d
00000130: c524 b6bb e6f8 08bd f3e9 913d 399c f63d
00000140: fe4f 5bbc 3aed f4bd 22bf d0bc a9f6 20bd
00000150: 24dd 3b3c c7f0 06be 3d9f 88bd 1c5e af3d
00000160: 9715 0b3e 5f8f 00be 7133 f73d eca9 903d
00000170: 0559 93bd eca7 0b3d 13f9 bc3c a7e6 4cbd
00000180: ad0e 94bd 38b8 99bd 0d85 3cbe 5229 913d
00000190: 8bca 663d 4093 3bbd 72d0 f13d da87 313c
000001a0: a9dc 5dba e916 7abd eceb db3c e426 96bc
000001b0: 6338 d53d 4e3c 37bd d166 b8bd 7b49 93bc
000001c0: 8b01 e2ba f080 adbd cddb 77bd 5f9a 703c
000001d0: 8b67 cd3c b062 6f3d 6748 5e3d bf72 a0bd
000001e0: d0ee 423d d413 dc3b 2ad4 8bbd 1d19 9a3d
000001f0: c9a0 c33c fc97 24be bee3 a9bd f0cd d3bd
00000200: fe4f a5bd c82f d1bc 7b1f d5bc 5801 40bd
00000210: 18bf 003e ae55 67bd 5b99 babd 2430 b1bc
00000220: 4da1 123c 6704 81bd d5db b83d e320 8dbd
00000230: 2392 9abd 0aa0 95bb 4ccb 923d a6b4 ea3c
00000240: 52c7 673c 1e6f 4c3d 7c2c aa3d 7071 123e
00000250: 8d48 843d 788e ccbc cd14 23bd 9b52 c4bd
00000260: 9737 613d 50f1 8e3d 0ad7 53bd 2879 a33c
00000270: 0f7e e9bc 9053 b1bc 7db9 b43b 4224 babd
00000280: 60e6 d63d a99e 83bd fe86 be3d a493 ddbd
00000290: d44f adbd 6ee1 0fbe 0c3d bf3c d772 bf3d
000002a0: 0a7b afbc 03d8 49bd bda8 2fbd 5bf3 dabd
000002b0: 2896 b0bd dbb2 d6bc e3e8 82bd d697 a2bd
000002c0: c854 b2bd e3b9 84bd 3975 443d 5e23 b2bd
000002d0: c0ff 833d 9cfa 8fbd 9ac1 a53c 8fc7 633d
000002e0: c97a 25bd 87f6 803c c1a1 9c3d aa33 873d
000002f0: f001 6ebd d0a9 bd3c 8b4e 5c3b 9ef4 a03c
00000300: f9cd 483d 1370 b63d 2493 71bd 5f87 223d
00000310: dbb7 8ebd 8731 adbd 0b55 5d3c 24c7 4abd
00000320: 28d5 c8bd 6f56 6a3d 04a9 2bbc a32b f4bd
00000330: 41be a6bd 6cca 5abd 86fb 663d ec16 9dbd
00000340: d7ad 9b3d 223e eb3b c9e1 963b 11b1 00bd
00000350: 9615 76bd d789 3bbd 096f e4bc 3114 a9bd
00000360: 9d96 08be 68fe 833d 82fc e1bb e25a 0fbd
00000370: 368f 05bd ac79 c6bb 8948 95bd 45fa 11bd
00000380: 0348 9bbd ed3a d33c 60de 64bc 8858 0abd
00000390: c8e2 743d 7962 1bbe 690b cdbc 4328 28bd
000003a0: 894c 4c3c 7f53 1b3d c716 87bd 17cd 693d
000003b0: baa8 0fbe 00d1 c2bc 99cb 37bd 2888 213c
000003c0: 100b 093e 57cd a13d 8242 00bc 9d1a e6bd
000003d0: 7ea2 073c 7777 97bd 0aa0 523d 85a9 cabd
000003e0: 5358 9bbd 3dc8 96bd b76e 1c3c 2f8a 8e3c
000003f0: 015f 1cbd 2736 8d3d ff86 9abc e94c 88bd
0.028795708 0.10718729 0.06232858 0.062052008 -0.19194324 -0.12361735 -0.061006173 0.03734827
0.06620549 -0.094529115 0.04199264 0.04233244 0.08011306 0.106043555 -0.08151853 -0.080609426
0.111619025 -0.034496613 0.014455742 -0.19606277 -0.084311835 -0.10607583 -0.031016864 0.14296554
-0.090073004 -0.08025495 -0.0059243166 0.083422154 0.056870673 -0.12103236 -0.05799929 0.04839167
0.030723505 0.0050019035 -0.014391312 0.019678008 -0.11215095 0.21910512 0.034671713 -0.038767155
-0.064450786 0.053962078 0.08224911 -0.06980931 -0.03362546 0.043392345 0.024328616 0.101570465
0.04802411 -0.10070818 0.09021341 -0.037575524 -0.13814445 0.021896569 -0.050049573 -0.0254697
-0.037373614 -0.10920615 -0.033482376 -0.08588678 -0.027539844 0.13666262 -0.065246634 0.012862891
-0.019930763 -0.113052696 0.027153365 0.060116116 0.0998533 0.05329592 0.08883932 0.040199637
-0.026047323 0.021841543 -0.21193641 0.09901047 -0.0055585825 -0.033440493 0.071247004 0.12041516
-0.013385771 -0.1195931 -0.025481764 -0.039297733 0.011466298 -0.13177787 -0.06670997 0.08562872
0.13582455 -0.12554692 0.120703585 0.0706366 -0.071947135 0.03409569 0.023067987 -0.050024655
-0.07229362 -0.0750584 -0.1841013 0.07087959 0.056345504 -0.045794725 0.11807336 0.010835612
-0.0008463362 -0.061057005 0.026845895 -0.018329091 0.104111455 -0.044735245 -0.09003986 -0.017979374
-0.0017242891 -0.084718585 -0.060512353 0.014685242 0.025073787 0.058443725 0.054268267 -0.07834386
0.04759103 0.006716231 -0.068275765 0.07524321 0.02388038 -0.16073602 -0.082953915 -0.10342014
-0.08071898 -0.02553548 -0.026015988 -0.04687628 0.12572896 -0.056478195 -0.091112815 -0.0216294
0.00894959 -0.06299668 0.09026305 -0.06891038 -0.075474046 -0.0045661973 0.07167682 0.028650593
0.014146643 0.049910657 0.08309266 0.14301085 0.064591505 -0.024970278 -0.03981476 -0.09586068
0.054984655 0.069796205 -0.05171875 0.019955233 -0.028502492 -0.021646291 0.005515276 -0.09088947
0.10493159 -0.064267464 0.093030915 -0.10819176 -0.08462492 -0.14050838 0.02334454 0.09348076
-0.021420974 -0.04927827 -0.04288553 -0.106909476 -0.0862239 -0.026208332 -0.06392076 -0.07939117
-0.08707577 -0.064807676 0.047963355 -0.08698152 0.06445265 -0.07030222 0.020233918 0.055610236
-0.0404003 0.015742553 0.076480396 0.06601651 -0.058107316 0.023152262 0.0033616151 0.019647893
0.049024556 0.08908095 -0.058978215 0.03967988 -0.069686614 -0.08456712 0.013509045 -0.04950632
-0.09806281 0.057211336 -0.010477308 -0.119223855 -0.08141757 -0.0534157 0.056392215 -0.076703876
0.07601517 0.0071790377 0.0046045524 -0.031418864 -0.06007918 -0.04578575 -0.027884977 -0.08255804
-0.13338704 0.064450085 -0.0068965564 -0.034998782 -0.03260728 -0.006056985 -0.072892256 -0.035639066
-0.075820945 0.025784934 -0.013969034 -0.033775836 0.059786588 -0.15174283 -0.025029855 -0.04105402
0.012469419 0.037921425 -0.06596141 0.057080355 -0.14029208 -0.0237813 -0.0448719 0.009859122
0.13383126 0.079004936 -0.007828357 -0.11235545 0.008278487 -0.07395833 0.051422156 -0.098956145
-0.07585206 -0.07362411 0.009547881 0.017399875 -0.03817654 0.06895094 -0.0188632 -0.066552944

a2c_network.actor_mlp.2.bias f4 [64]
00000000: e402 03be 57e7 8ebc ce0b 82bd 27ab 953d
00000010: b083 4ebd b048 e2bd 2bdf e3bd e632 193c
00000020: dbda b43d 7dc2 ab3d 98d4 39bd 1d9b e9bd
00000030: a8ba 77bd fcc4 7e3d e54e 2e3d e9da 9e3d
00000040: 3e4a e73c 8722 abb8 627a 54bd 8acc a4bb
00000050: 58cf 48bd 854b e03c 7294 7e3c 42ef 733c
00000060: af63 29bd 41f9 e7bd 1c60 dd3d 8930 d83c
00000070: 88a6 333b bfd7 833d 6f43 0cbc 2769 993d
00000080: 9c09 c8bd ed6d 50bd 783a c2bd 8873 8e3b
00000090: 19ce adbd a387 d13c 8fa6 8b3d 73ab babd
000000a0: ad31 a83d 2154 aaba 4d78 57bd 3ec3 30ba
000000b0: 1e35 88bc 4062 cf3c 8c7e 7f3d b9b8 d73c
000000c0: ba31 dd3d 8c71 81bd bc9c 0b3e f87b 7ebd
000000d0: 60a9 d5b9 2c95 b83d 27d4 8bbd c14c e53b
000000e0: fa1f 55bd 6f56 7a3a 9971 8f3c 3b24 523d
000000f0: 3b0b ac3d 1b5f aa3c bbb2 aabd b69c d1bd
-0.12794071 -0.017444296 -0.06349908 0.07308035 -0.050418556 -0.1104902 -0.1112655 0.009350514
0.08830806 0.08386705 -0.04536876 -0.11406539 -0.060480744 0.062199578 0.04255571 0.077565975
0.028233644 -8.1603466e-05 -0.051874526 -0.005029266 -0.049025863 0.02737976 0.015538322 0.0148885865
-0.04135483 -0.11326838 0.10809347 0.02639033 0.0027412493 0.06437635 -0.008560999 0.07490759
-0.09767458 -0.050886083 -0.09483808 0.0043472685 -0.08486576 0.025577372 0.06818878 -0.091147326
0.082126 -0.0012995043 -0.052604962 -0.00067429605 -0.01662689 0.025315404 0.062376544 0.0263332
0.108005 -0.063204855 0.13634008 -0.062129945 -0.0004075272 0.09012827 -0.06827574 0.006997675
-0.05203245 0.0009549623 0.017510222 0.051304083 0.084005795 0.020797303 -0.083348714 -0.10234968

a2c_network.actor_mlp.4.weight f4 [32, 64]
00000000: 65f1 ad3d 7052 b5bc 7e15 b1bc c9a0 2d3c
00000010: 27d5 523e 3995 be3d 400b 2dbb 1e1e 2abd
00000020: f360 47bd 0a1e 36be 84b9 283d 9143 243d
00000030: 8316 9dbc bdf4 023c 30d0 c1bc bae4 1ebe
00000040: 6d8a 97bd cb7a 3a3d 30b1 14be 52a6 a2bd
00000050: 0122 d1bc ce47 87bd 2b82 c33d 842a 1ebe
00000060: 6828 ae3c 7c3e 1ebe 8b10 5abd 2024 b7bb
00000070: 1de9 5c3c 3bd4 bcbd 3925 4dbd 8166 90bd
00000080: 5dd5 ff3d b09c db3d 39a6 b4bd 94fe 2fbc
00000090: 5a6f 883d 9e45 04be 40e8 4dbd 8697 8dbd
000000a0: aba2 cfbd 0d60 ecbb c9fd ae3d eaf9 433e
000000b0: 0d60 a6bd 427e a9bd e393 c5bb 1d00 123e
000000c0: 18e1 4e3c a1ab 68bc ac1d d5bd 3fbc f9bc
000000d0: 5f7b 3fbe 0310 81be ee95 b9bd f41d 48be
000000e0: 3836 87bd 54ea d6bd 9af4 4f3d 0eb7 c8bc
000000f0: 1a49 09bd 0135 c8bd f6ad 473e c070 25bc
00000100: 8373 7f3d 9fc3 d5bc 4add 6cbe cc70 d8bd
00000110: 9eb3 ed3b 22df b8bd 46f4 6cbd 0722 263e
00000120: a5f8 4abe 15c7 2a3d 9a62 283d 7d57 09be
00000130: 94d5 853d f757 b3bb 443e 0fbe f693 d0bd
00000140: ac8c 46bd 17f8 2dbe 3212 163d 3c23 3d3e
00000150: cc66 1ebe a206 8f3d 9185 213d 4a23 cb3d
00000160: 061d 15be 9631 86bd 2757 e93d f576 313e
00000170: fcca 4a3e eef6 a63d c2e1 8a3c 8c40 293d
00000180: 9da5 be3c cc39 d8bb b72c 89bd 2777 4d3d
00000190: 14c8 083c a446 bf3d 3ea5 f2bd eb26 113d
000001a0: a51b 21be 1a45 c13c ad26 44bd 94ef 853c
000001b0: 0f7d 493d 1e5d 2a3d 674c 70bd 9544 82bd
000001c0: 7194 d03b 8c41 78bd 9029 08be 6f6b 97bd
000001d0: f1c4 83be 992f f0b9 2d6d 74bd 1212 213e
000001e0: 5bc9 f4bd 61ab 06be 910b ec3c fb29 89bd
000001f0: fcd2 ca3d 26d4 b13d 50ab c2bb ee53 acbd
00000200: ca52 013e c35b 54bd 0052 a73c 3670 bf3d
00000210: e3bf d6bd de68 c8bd dc9d ecbd bc48 523d
00000220: 0307 f3bd abb5 f63d 6c00 693c b563 7f3d
00000230: 9df4 e0bd 62b4 e43c edc7 923d 06af a33d
00000240: 48c3 943d e36b ffbd 817e 8e3d 9dbe 5bbd
00000250: 7f30 3c3d bfca a73d 096d 4d3d ae04 1a3d
00000260: a016 b5bd 9959 f4bb 1178 273d 03ec e63c
00000270: db9c 6a3d 8ad9 ce3d acb6 f1bd 393d 013e
00000280: 1325 073c 2dc7 053e 0a6d 4cbd d068 a03d
00000290: a677 52bc 4417 83bd bdff 6fbe da51 12be
000002a0: 4427 e3bc 4c14 423d 3ae2 9c3b 8643 ef3d
000002b0: 1b3a fdbd 66b6 c53c 4ca6 963d 2ea1 94bd
000002c0: 024a 3d3d 77f0 9ebd 339a 62bd a5ed 8cbd
000002d0: 6bd2 3abe 520d 7bbd a619 753d e15c ed3d
000002e0: ce56 0a3e 6ffb 723c 4fe5 40bd ff07 b2bc
000002f0: 66a7 153e cb3a 0dbe 0307 2ebc 37a7 a93d
00000300: 7c5e c4bd ca16 0e3d f87e 03be 8965 61bd
00000310: 3b87 b5bd 32b1 cabc 0c2d d9bc 59b4 af3d
00000320: 38b6 00be e8ca 693e 8790 2bbd 1147 953d
00000330: d49b 3bbd 34a3 eebc 88b1 093e 32f9 5a3d
00000340: d87c b5bb 7d47 e83c 2c8d 0e3e 5dcc c6bd
00000350: 0d77 14be d2c2 debd a815 193e 896c 97bd
00000360: 9d9a 483d c777 1ebd e728 883c 26c4 923d
00000370: 67b3 41bd 23dc e83d 980b d2bd ee83 fb3c
00000380: 175a fcbc b38f c13d b390 89be 8848 8dbd
00000390: 5f8e d53d f3fa d8bd d028 49be fcdf fdbd
000003a0: be57 0fbe 68ca 1e3e 64eb 7f3d 6515 693e
000003b0: 663a d9bd 410c f1bd acda 3c3c 071b d13d
000003c0: 81c1 a73d 47df 0bbe 1f2b 8e3d 6a34 19be
000003d0: d9a8 01bd 8c30 5f3d d838 cdbc 4c69 46bd
000003e0: 9012 f83c 35cd babd 051a 20bd 0f0f 7e3d
000003f0: 0ba7 533e a79a 07be d71f ef3d 1cfa 313d
0.08493308 -0.022134036 -0.021616694 0.010597416 0.20589124 0.09305806 -0.002640441 -0.04153263
-0.048676442 -0.17784896 0.041192546 0.0401035 -0.019175773 0.0079929205 -0.023658842 -0.1551694
-0.073994495 0.04552726 -0.14520717 -0.07941879 -0.02552891 -0.066054925 0.09546312 -0.15445906
0.021259502 -0.15453523 -0.053238433 -0.005589023 0.013483313 -0.09220167 -0.050084326 -0.07050801
0.12491868 0.10723245 -0.08820767 -0.0107418485 0.066618636 -0.12917182 -0.05027032 -0.069136664
-0.10138448 -0.0072135986 0.085444994 0.19138303 -0.08123789 -0.08276035 -0.0060295924 0.14257856
0.012626909 -0.014201076 -0.1040605 -0.03048527 -0.18699406 -0.25207528 -0.090618 -0.19542676
-0.06602138 -0.10493913 0.05077038 -0.02450135 -0.03351698 -0.09775735 0.19499955 -0.0100976825
0.06236602 -0.026094256 -0.2313129 -0.10568389 0.007254078 -0.09026934 -0.057850145 0.16223918
-0.19821413 0.041693766 0.04110966 -0.1341228 0.065348774 -0.0054731327 -0.13988596 -0.10184471
-0.048474 -0.1698917 0.036638446 0.18470472 -0.15468901 0.06983687 0.03943402 0.0991884
-0.14561853 -0.065524265 0.11393576 0.17330535 0.19803995 0.08152567 0.016953353 0.041321322
0.02327233 -0.006598687 -0.06697982 0.05016246 0.008348484 0.093396455 -0.11847924 0.035437506
-0.15733202 0.02359252 -0.047888447 0.016349591 0.04919153 0.04159271 -0.058666613 -0.06360737
0.006365352 -0.060609385 -0.13297105 -0.07393538 -0.25736192 -0.0004581183 -0.05967443 0.1572955
-0.11952468 -0.13151313 0.028814109 -0.0669746 0.09903523 0.08683042 -0.005940832 -0.08414446
0.12629238 -0.051845323 0.020424843 0.093475744 -0.10485818 -0.09785627 -0.11553547 0.051338896
-0.11866572 0.12046369 0.014221292 0.062350947 -0.10984156 0.027918044 0.07167039 0.079923674
0.072638094 -0.1247175 0.069577225 -0.05364858 0.045944687 0.081929676 0.050152812 0.03760212
-0.08842206 -0.00745697 0.04088599 0.028188711 0.057278495 0.10100086 -0.1180242 0.12621011
0.008248585 0.13064261 -0.049908675 0.078324914 -0.012845909 -0.06400922 -0.234374 -0.14289036
-0.027728684 0.047382638 0.0047877105 0.11682801 -0.12364598 0.024134826 0.07355937 -0.07257305
0.046213157 -0.07760709 -0.055322837 -0.068812646 -0.1824433 -0.061292 0.059838913 0.11589981
0.13509676 0.014830454 -0.047093686 -0.021732328 0.14614639 -0.13791959 -0.010621789 0.08283847
-0.09588334 0.034689702 -0.12841403 -0.055028472 -0.08863684 -0.024742696 -0.026510738 0.085793205
-0.12569511 0.22831309 -0.04188588 0.072889455 -0.045802906 -0.029130556 0.13446629 0.053460307
-0.005538564 0.0283544 0.1392104 -0.09706948 -0.1449854 -0.10877003 0.14949667 -0.07393748
0.048975576 -0.038688447 0.016621066 0.071663186 -0.047290232 0.11370113 -0.102561176 0.030702557
-0.030804677 0.094512366 -0.2686821 -0.068986 0.10427546 -0.1059474 -0.19644475 -0.12396237
-0.13998315 0.155069 0.062480345 0.22762068 -0.10606842 -0.11769915 0.011526745 0.10210233
0.08191205 -0.13659392 0.069418184 -0.149614 -0.031655166 0.054489657 -0.02505152 -0.048440263
0.030282289 -0.091211714 -0.039087314 0.06202608 0.2066919 -0.13242589 0.11675995 0.043451414

a2c_network.actor_mlp.4.bias f4 [32]
00000000: b831 17be 3cec a63c e3c5 af3c 7d02 f2bc
00000010: ad82 bebc 1436 ffba cb0e 0f3c 74c3 4a3d
00000020: f7f9 86bd c250 83bd 5809 a43d 936d 45bd
00000030: 737e 9abd ced9 283c 4a19 a6bd d98b a9bd
00000040: 20af fb3c c294 1dbd 6a1a b03c e021 a2bd
00000050: b8d2 673d 3414 cb3c 9e30 e5bd 0b24 ccbc
00000060: c899 1a3d d044 863a c132 2cbe 1cd7 89bd
00000070: 471d 7d3a ee6d d83c afec e5bc 8c68 553d
-0.1476506 0.020376317 0.021456664 -0.029542202 -0.02325567 -0.0019471073 0.008731554 0.049502805
-0.06590646 -0.06411888 0.08009595 -0.0482002 -0.075436495 0.010305835 -0.08110292 -0.08278627
0.030723155 -0.038471945 0.02149697 -0.079166174 0.05659744 0.024789907 -0.111909136 -0.02491953
0.037744313 0.0010243896 -0.16816236 -0.06730482 0.0009655547 0.026419606 -0.028066961 0.052101657

a2c_network.value.weight f4 [1, 32]
00000000: d2f4 c03a f49f 473e b160 cfbc bdb8 94bd
00000010: 5294 69be fd5f 973d bb26 833c 0887 87bd
00000020: d452 85bc 4141 083d f0a3 dd3d 247e 73bd
00000030: fe24 7c3c 317f d13d 5dee 83bd 6826 bebb
00000040: dafb 013e 6819 4d3d dbb5 e3bd c917 c5bc
00000050: 78f9 d9bc 035c 003e b88b 2cbd bbaf b3bd
00000060: 5315 03bd 9a53 d93d 8772 88bb 4625 21be
00000070: ce60 e9bc 8bc0 5c3e b3a3 dfbd 1aee 6d3d
0.00147214 0.19494611 -0.02531466 -0.072617985 -0.22810486 0.07391355 0.016009679 -0.06617552
-0.016274847 0.033265356 0.10822284 -0.05944647 0.015389679 0.10229338 -0.064419486 -0.005802918
0.1269373 0.050073057 -0.111186706 -0.024059193 -0.026608214 0.125351 -0.042125434 -0.08773752
-0.03200276 0.10611649 -0.0041640433 -0.15736875 -0.028488543 0.21557824 -0.10919895 0.0580884

a2c_network.mu.weight f4 [7, 32]
00000000: ffae 1e3b dc7a a6bc 0ed5 c7bb 905a 72bd
00000010: 5983 2a3d 155f 97bd 11f5 a03c 59e4 5a3c
00000020: cc55 b0bd fc76 503e 7a29 f53c ae6a 0a3e
00000030: 2d1f 0f3e 24ae 223e 6b40 01bd a81d f1bd
00000040: f2da e0bc afef 1bbe 3625 28be cdb5 a8bc
00000050: 19e9 4e3e 9ba6 6cbe 7eb1 cebc 702a 05be
00000060: 7122 14be f730 823e 652a 52be ba18 01be
00000070: cf25 06be c1cc b43d cd3f f2bc a197 1abe
00000080: a681 903e d340 11bd bb1a 66be b4d2 b6bd
00000090: 5e54 1a3e 1b92 d03d fba5 2fbe 3ba8 abbd
000000a0: 3564 48bd 8a11 3c3e 822d 86be e2f4 763e
000000b0: 67bb 703d c50b 623d b11f 3f3e 9e60 4a3e
000000c0: 3129 fbbd 9600 88bc 82f9 eebd 78bc 8e3e
000000d0: 228c 563d de0a 04be d8f0 8f3e 46ee 33bd
000000e0: e3e2 a4bd 8115 e2bd 99cb 253e 27ea fd3d
000000f0: 6b7a ccbd 188c 0c3e 7e68 2f3e 3542 cfbd
00000100: 6201 12bd 7bfb 5bbe e099 23be eac7 27be
00000110: 0e30 013d 0780 7dba d5f2 b53d bd3a 4cbe
00000120: cf9e 143e 1811 67be 5440 163c b785 403e
00000130: deef c7ba 6168 ccbd 4b43 ce3d c614 09be
00000140: 7d1c 6c3c d9a6 d2bd 44ad 3c3b 483e 2ebe
00000150: b893 453d e352 8bbd fe84 1dbe c292 233e
00000160: 47b3 0f3e fcee eebd 7737 ef3a 09c7 6d3e
00000170: 8502 173e 5e5c fb3d 72cc d6bd 4694 533e
00000180: 17fe 3f3e ce79 1e3d a257 893c 6cd6 483e
00000190: 4a01 dfbd 6e05 133e 65c6 653e 7a6c c93d
000001a0: af50 5cbe ab0f d23d c3fe 083e 4733 9b3d
000001b0: 27a0 41bd 5899 d03d 799c 2c3c 6d36 fdbd
000001c0: 995b 35be 2de1 e63d f911 4dbd 02aa 63be
000001d0: 2345 983d 6970 b1bd f0c1 91bd a435 4dbe
000001e0: 7cdb 3a3e ceaa 83bd f20b d4bd 2e8d b03d
000001f0: 9b01 603e 9bd4 b43d 7d40 773e b5d6 1fbe
00000200: 6b06 6abe 251e f53d 52a2 9abd b5cf 20bd
00000210: 2f2e 3c3e f15b 1fbd 027d cf3c 4fbb 4c3e
00000220: 865e 41be 47f0 86be 7e08 533e c373 1c3d
00000230: 2520 4abe d3c8 7b3d 44b0 46be 1f53 3bbd
00000240: 0403 12be ec0e 14bd ee4d 083e 23eb 99bd
00000250: 03dd 7e3d a86e 2d3e 6f0f eabc 0410 913c
00000260: c608 fb3d a175 d4bd 1d68 63be b84b 2fbe
00000270: b527 e6bd 75d5 cc3d a154 033d 1c91 763e
00000280: 4e70 203e 1654 993c 8d91 343d 1dca 89bd
00000290: 5344 013d 9e58 22bb 3dfd 3f3e bcb6 e33d
000002a0: 2c2d 37bc 7a7f cebd 28c3 053e 8e34 5abd
000002b0: 813a 0abe 4223 ccbd 9cf4 d5bd e127 c13d
000002c0: 2918 b4bd bda4 203d 16f1 1bbd 1391 b73d
000002d0: 0b21 6abd a0a6 9d3d be7a 573d 808a d8bd
000002e0: 0a67 5b3e 40ad 48bd 31bd 523b 37e9 14bc
000002f0: 7985 2fbd e521 763d 9ee4 383c b862 1f3e
00000300: a26a d2bd 8631 a5bd cf31 f9bd e463 e4bd
00000310: 10b7 623d c02a bc3d 6ff7 d3bd 6b72 023e
00000320: 965c 83bd 2506 9fbd a20d 293e 5ad3 acbd
00000330: 685c 343e f8a4 bbbd 5aab aa3d fdac d83c
00000340: 8683 05be a8c2 80bd 6212 003e 451f c23d
00000350: 8458 923c 8489 5e3d 774e 23be a5b3 18be
00000360: ecaf 173d 361b 47be 75f7 14bd 4b3c ef3d
00000370: fd78 913d db6d b73d b2ca 6dbd 1f6b a6bd
0.0024213193 -0.020322256 -0.006098396 -0.0591684 0.04162917 -0.07391182 0.019648107 0.013360106
-0.086101145 0.20357889 0.029927004 0.13517258 0.13976736 0.15886742 -0.031555574 -0.117732346
-0.027448151 -0.15228151 -0.16420445 -0.020594502 0.20206107 -0.2311043 -0.02523112 -0.1300447
-0.14466263 0.25427982 -0.20523985 -0.12607089 -0.1310036 0.08828116 -0.029571438 -0.15096904
0.28223914 -0.03546221 -0.22471134 -0.08926907 0.15071246 0.101841174 -0.1715316 -0.08381697
-0.04892369 0.18366066 -0.26206595 0.24116853 0.05877247 0.055187006 0.18664433 0.19763419
-0.12263716 -0.016601842 -0.116686836 0.27878165 0.052379735 -0.1289477 0.28113437 -0.043928407
-0.08051088 -0.11039258 0.16190948 0.12398177 -0.09984287 0.13725317 0.17129704 -0.1012005
-0.03564585 -0.21482651 -0.15976667 -0.16384855 0.03153997 -0.00096702616 0.08884207 -0.19944282
0.14513706 -0.22565114 0.00917061 0.18801008 -0.0015253981 -0.09980846 0.10071429 -0.1338683
0.014411089 -0.1028573 0.0028789798 -0.17015946 0.04823658 -0.06802919 -0.15382764 0.15973952
0.14033233 -0.116666764 0.0018250783 0.23220457 0.14747055 0.12273477 -0.104882136 0.2066203
0.18749271 0.03869038 0.01676542 0.19613045 -0.10888918 0.1435754 0.22438963 0.098351434
-0.21515153 0.10256895 0.13378434 0.0757814 -0.047271874 0.10185498 0.010535353 -0.123638965
-0.17710723 0.112734176 -0.05006597 -0.22232822 0.07435062 -0.08664019 -0.07117069 -0.20039994
0.18247789 -0.06429063 -0.10353841 0.08620678 0.21875612 0.08829614 0.24145694 -0.15609248
-0.22854011 0.1196864 -0.075504914 -0.039260585 0.18376993 -0.03890604 0.025328163 0.19993328
-0.18883714 -0.26355192 0.20608708 0.038196336 -0.19738825 0.061470818 -0.19403177 -0.045733567
-0.14258963 -0.036147043 0.13310978 -0.07515552 0.062222492 0.16936743 -0.028571812 0.017707832
0.12257533 -0.103739984 -0.22207685 -0.17118728 -0.11238042 0.10001651 0.03206313 0.24078792
0.15667841 0.018716853 0.04408412 -0.06728003 0.0315593 -0.0024772058 0.18748946 0.11118838
-0.011180203 -0.10082908 0.13062727 -0.053272776 -0.1349888 -0.099676624 -0.10447046 0.094314344
-0.08793671 0.039219607 -0.038071714 0.089632176 -0.05716042 0.07697797 0.05260729 -0.10573292
0.21426025 -0.04899335 0.0032156224 -0.009088806 -0.0428519 0.060090918 0.011284975 0.15565002
-0.10274245 -0.080660865 -0.12167703 -0.11151865 0.055350363 0.091878414 -0.103499286 0.1273896
-0.06414144 -0.07764844 0.16509107 -0.084387496 0.17613375 -0.09162325 0.08333464 0.026449675
-0.13038453 -0.06287128 0.12507012 0.094786204 0.017864473 0.054330364 -0.159479 -0.14912279
0.037033007 -0.19443974 -0.036368806 0.11681422 0.07103155 0.089565 -0.058054633 -0.081259005

a2c_network.mu.bias f4 [7]
00000000: bd8b db3c 3925 06be aa9b a23c 7e82 b8bc
00000010: dac9 093e e444 22bd d80a ca3d
0.02680003 -0.13100137 0.019849617 -0.022523161 0.13455907 -0.03961648 0.098653495

exp_avg f4 [7]
00000000: 7d51 703b 968d ab3c a399 053c 85ea a8b9
00000010: df6e 8b3b 4967 9cbb 8ff1 353a
0.0036669665 0.020941537 0.008154306 -0.00032218188 0.00425516 -0.0047730547 0.0006940597

exp_avg_sq f4 [7]
00000000: 0977 863a 0f34 a73a a1c9 543a bead 883a
00000010: 9cbd 763a 710b 743a 6243 803a
0.0010258864 0.0012756604 0.0008117203 0.0010427756 0.0009412409 0.0009309566 0.0009785707

exp_avg f4 [128, 18]
00000000: 36fb c4b8 1283 bd38 0451 1dbb 342e 17ba
00000010: 2bba 36bb bf0b 34bb 86bb 643a 92f7 293b
00000020: c74f eb39 f56e cbba ccd7 1b3b f210 64ba
00000030: a5fe 46ba 5832 2abb c4f9 9cbb e27c d83a
00000040: b501 26bb d8d4 ae39 d1c5 98ba 5506 f7b9
00000050: 8d76 f0b9 1888 42b9 8ede 653a 292b b03a
00000060: 640f af3a 281e c2ba aa1a b0ba d87e 8d3a
00000070: 5cf2 0eba f4e3 cb39 c3ea 54ba 4d03 e63a
00000080: e64e a63a d625 4bba 1348 ceb9 5574 93ba
00000090: e424 1d39 4165 0cba 6b04 30ba e914 1bba
000000a0: 901d 84ba 17cf 17bb 270d 5bba bdbd d33a
000000b0: 6e26 8eb8 c583 94ba ec95 2e39 4a55 b03a
000000c0: 0eb9 9539 4b7b fb37 aa64 deb9 f4b0 063a
000000d0: 9500 493b d41e c0ba c80c 0fba 6334 99b9
000000e0: acf1 2eba 7403 a038 71a1 e5b7 2af0 0439
000000f0: 51fd ab3a 610d acb9 630a afb9 649b 0d39
00000100: fd93 073a fd53 08ba 63ef a2b7 5d12 a438
00000110: 65c2 a8ba ea77 f9b9 8ec4 daba d351 c139
00000120: 9e56 0c3a 3a72 1f3a dfad 14b7 dd53 0d3b
00000130: ad4b 393b bc78 a73b d4aa f53a 3074 42bb
00000140: eb7d b1b9 7ed5 0f3b 4c58 3237 4743 06bb
00000150: b4e2 02ba 8a47 f23a a103 dbb9 27c0 26ba
00000160: 8c1e 85bb 7a4e 533b c14f 053a e36f 3a39
00000170: 6055 0bbb 9f0e 1239 4560 9bba 8795 e4ba
00000180: 4b79 6939 6fb1 f23a 95b7 cb39 874d 9dba
00000190: 9dcf bc3a f213 43ba b5b4 b6b9 e2ae 91ba
000001a0: 7c37 54bb 7e7e bb3a 790e c3ba 6b45 7e3a
000001b0: bdda 0eb9 7fec abb9 533b f33a 2eb7 a33a
000001c0: 2262 3b3b 477d bd3a 774d 48b8 2e00 59bb
000001d0: fa76 1aba 9dd2 253b 57f7 ecba 8600 573a
000001e0: 8033 af39 96b4 c03a 7790 183a c63d 84ba
000001f0: c3a5 1cb9 8513 37b9 dfb9 0e3b eba0 36b8
00000200: a60a f9b9 033c f839 b6a3 8dba 8610 23bb
00000210: 0b7d b8ba 9c69 4e3b e93d 0e3a 4ee5 caba
00000220: c95f cd3a 0800 273a 3ce1 163a 47ee 61b9
00000230: 574c e6ba e36b e13a fdd2 053b 2f64 033a
00000240: 3121 173a 2b8b 0e39 427a 5fba 882c 1d3a
00000250: 5725 57b9 e3f6 ae3a 7422 053b d1e5 713a
00000260: 55b5 6438 0251 92b9 06a0 bc3a df04 c9ba
00000270: 4126 8e39 d532 113a 7bd7 9db9 9935 b437
00000280: 4c8c 54bb cba3 a13a b700 2b39 13a9 9db9
00000290: 44bd 5f3a 20ee 9c38 a5a5 3f3a 03ee 8539
000002a0: 6bd0 5cba b117 32ba 39f1 06ba 7ed2 ca3a
000002b0: e528 85ba 2d49 983a e1f4 0f39 79d7 e939
000002c0: 9451 aa3a 52a8 5f39 e3b8 dc3a a2f5 dcba
000002d0: 477c 0d38 c3bc 9db9 cadc d7ba e7be 65ba
000002e0: 1429 e6ba 9cea 08bb 2398 ff39 b4f4 f33a
000002f0: 61b0 cab7 944f f0ba 80bb ab39 9a2e 6839
00000300: 026d f3b9 be9b 0e39 a021 13ba b549 a23a
00000310: 17b3 3b3b 216a 5bba b1f6 42b9 682a 3f38
00000320: 5ce7 aeb9 0b3a 393a dbeb a83a ef7c 293b
00000330: d49c 043b dd58 ccba 2f92 26ba e041 8a3a
00000340: f234 63b9 1a80 3eba 79e1 f5b9 7e20 a83a
00000350: 02e7 513a 3e27 2fba bda2 14bb 65fb 0b3a
00000360: f87d ceba efd2 9fb9 cd72 1bba b9fb dfb9
00000370: 7fa9 6eb9 bfb0 013b 8fa0 163b 7205 6fba
00000380: 81fb 2638 bf80 8d3a e8f4 2b3a 841c b8ba
00000390: 540c efb9 6dfa d13a 1d9f 3939 626c 1fba
000003a0: 9480 6eba c536 f938 c561 98b9 ccee 1dba
000003b0: db34 b6b9 65e5 59ba a7cf 33ba fa96 8bba
000003c0: 0ebd 5a39 dbd5 4c3a f936 7639 96de dc38
000003d0: 5b7f 3cb9 5cf2 5f3a 4e8c 023a a9aa 713a
000003e0: 31e7 9739 8cc9 1a39 f1a1 3d3b f074 4cba
000003f0: cc97 ecb9 0fdd 1cb8 a229 22ba 3ab4 1e3a
-9.3928e-05 9.036636e-05 -0.0024004588 -0.00057670777 -0.002788196 -0.0027472822 0.0008725453 0.0025934917
0.00044882132 -0.0015520739 0.0023779748 -0.0008700035 -0.00075910456 -0.0025969949 -0.0047905166 0.001651671
-0.0025330607 0.00033346447 -0.0011655634 -0.0004711623 -0.00045864694 -0.0001855198 0.000876882 0.0013440597
0.0013356027 -0.0014810013 -0.0013435681 0.0010795249 -0.00054529845 0.00038889016 -0.00081221404 0.0017548591
0.0012688308 -0.00077494734 -0.0003934508 -0.001124988 0.0001498643 -0.0005355664 -0.00067145255 -0.00059158966
-0.0010079611 -0.0023164207 -0.0008356147 0.0016154569 -6.778246e-05 -0.0011330774 0.00016649783 0.0013453152
0.0002855737 2.9978944e-05 -0.0004241814 0.00051380624 0.0030670513 -0.0014657625 -0.00054569216 -0.00029221465
-0.0006673585 7.630038e-05 -2.7374104e-05 0.00012677969 0.0013121759 -0.00032816365 -0.0003338634 0.00013504695
0.0005171893 -0.00052005035 -1.9423378e-05 7.82355e-05 -0.0012875317 -0.00047582324 -0.0016690658 0.00036872792
0.0005353483 0.000608239 -8.86197e-06 0.002156488 0.0028273866 0.005110828 0.0018742927 -0.0029671304
-0.00033853887 0.002194732 1.0630185e-05 -0.0020486878 -0.0004992888 0.0018484455 -0.0004177364 -0.00063610304
-0.0040624794 0.003224282 0.00050854316 0.00017780023 -0.0021260604 0.00013929092 -0.0011854252 -0.0017439582
0.00022265797 0.0018516014 0.00038855957 -0.0012001254 0.0014405135 -0.0007441632 -0.00034848382 -0.0011114741
-0.0032381704 0.0014304665 -0.0014881633 0.0009699675 -0.00013623662 -0.00032791865 0.0018557109 0.0012490505
0.0028592427 0.0014456891 -4.775586e-05 -0.003311168 -0.00058923627 0.0025302537 -0.0018079084 0.0008201677
0.00033416972 0.0014702256 0.0005819867 -0.0010089211 -0.0001493907 -0.00017459512 0.0021778268 -4.3542048e-05
-0.00047500915 0.00047346958 -0.0010806236 -0.0024881675 -0.0014075352 0.0031496054 0.00054260954 -0.0015479715
0.0015668805 0.0006370549 0.00057556084 -0.00021546437 -0.0017570358 0.001719829 0.0020419948 0.0005012182
0.0005765139 0.0001359402 -0.0008524993 0.00059957104 -0.00020517908 0.0013348724 0.0020314725 0.0009227666
5.4528315e-05 -0.00027907646 0.0014390952 -0.0015336535 0.00027112852 0.00055388856 -0.0003010592 2.148263e-05
-0.0032432256 0.0012332139 0.00016308097 -0.00030071344 0.00085349777 7.483014e-05 0.0007310755 0.0002554507
-0.00084233907 -0.00067936914 -0.00051476393 0.0015474109 -0.0010159282 0.0011618488 0.00013728767 0.00044601763
0.0012994283 0.00021329641 0.0016839769 -0.0016857872 3.3732762e-05 -0.00030086012 -0.0016468999 -0.00087641034
-0.001755985 -0.0020891791 0.0004875074 0.0018612356 -2.416241e-05 -0.0018334263 0.0003275536 0.00022142605
-0.0004642979 0.00013600194 -0.00056126155 0.0012381586 0.0028640681 -0.00083700015 -0.00018593181 4.5577443e-05
-0.00033360242 0.0007065839 0.0012887673 0.002586182 0.0020235078 -0.0015590448 -0.00063541805 0.0010548197
-0.0002166813 -0.00072670134 -0.00046898032 0.0012827066 0.000800714 -0.0006681568 -0.0022680007 0.000533989
-0.0015754094 -0.00030484 -0.00059298874 -0.00042721423 -0.00022760591 0.0019789187 0.0022983884 -0.0009117938
3.9811715e-05 0.0010795816 0.0006559626 -0.0014046584 -0.00045594817 0.0016020067 0.00017702249 -0.0006081519
-0.0009098139 0.00011883447 -0.00029064543 -0.0006024658 -0.00034753126 -0.00083120755 -0.0006859251 -0.0010649853
0.00020860528 0.00078138494 0.00023480867 0.00010531877 -0.00017976521 0.0008542889 0.00049800135 0.0009218851
0.00028973215 0.00014761667 0.0028935636 -0.00077994075 -0.00045126525 -3.7399175e-05 -0.00061860133 0.00060540775

exp_avg_sq f4 [128, 18]
00000000: e010 0038 2b1c 2b37 d2f5 1938 71a9 cd37
00000010: 5883 2038 3595 3b38 4fb8 4338 ea09 6438
00000020: 3914 5b37 8e39 4338 82f5 e137 793a 6e37
00000030: 6c70 c737 1eb9 d337 78a9 9638 97d1 0638
00000040: dd9a 2038 ef0f 2138 a53f e537 bdf5 3a37
00000050: 1d4f 6037 14fd a837 0e3f ae37 971a 1d38
00000060: 565a ec37 2333 b538 0df2 4537 9b00 cc37
00000070: 432a 8538 c9ec a537 3e9b a937 6536 9937
00000080: b35a 9b37 9d4e d037 333f bc38 714b cd38
00000090: 638e c637 9bef 1837 e1b1 3c37 baef 9e37
000000a0: dc58 3137 2319 d837 97e7 a537 8685 3e38
000000b0: f4d8 1237 ae7b 9937 1d4e 0a38 3175 8137
000000c0: 2387 6b37 f116 4537 5b31 5e37 7162 5c37
000000d0: 4bd5 b938 b9b4 9d38 77b1 9f37 b034 8c36
000000e0: 43d2 3137 d1d1 8037 e6bd 2a37 e106 a337
000000f0: d91b a337 69ac bf37 dbf8 c836 71c0 9437
00000100: cb12 7837 5039 ef36 a841 3d37 6353 4b37
00000110: 2111 a437 a4c5 4537 9364 c837 86f8 e637
00000120: 8fa2 af38 8824 d837 920c 8638 2ee7 9b38
00000130: 1eed 9938 42d2 d838 c339 9a38 5680 3a39
00000140: 5103 1938 9410 c838 4e98 0239 aaac 5a38
00000150: 789c 8a38 2c9f 8438 0b85 df38 3d0e a838
00000160: 36b7 8339 c689 9039 a2e4 3838 053c 4037
00000170: bfcd 5a38 15c8 1638 7d04 7238 4248 7e38
00000180: 9773 5238 77af 9638 8ec5 5137 04be 8b38
00000190: d364 1f38 8880 8b37 ffbb f637 c182 ef37
000001a0: b103 d338 9010 8138 017b 6338 8ced 4438
000001b0: 6607 8338 1824 fb37 831d 4f38 aad0 3b38
000001c0: bca5 7038 5f34 9038 c0cb 5338 c701 c438
000001d0: a31d 9c37 c043 8338 c8b7 6138 b490 ec37
000001e0: 6719 1a38 2106 0c38 d649 9f38 d630 6e38
000001f0: 218b bb38 47bd 8338 1305 1c38 ac02 5a37
00000200: 63a4 dc37 a487 f137 df17 bb37 2a4f f837
00000210: a43e f237 24db 5238 ca94 3937 b430 1a38
00000220: e48b 0d38 33a3 7e37 313e a637 7fb1 a737
00000230: c2f8 0238 9604 d037 21d7 9338 7086 3a38
00000240: 84a1 8538 dc68 9037 039c c537 6df9 6b38
00000250: 2601 ed37 35e5 7738 8a98 3b38 1d12 f038
00000260: 56f7 bd37 ff74 3238 9266 a738 2552 1538
00000270: ab89 0038 dbc1 f437 2f5d 2038 e47d f737
00000280: cc3e 5639 68b3 2d39 7711 f137 7df0 8a37
00000290: 951f 8137 13e9 b637 3321 8237 0d1f e337
000002a0: 268c aa37 e7fa 7e38 d59c 4a37 7e79 be37
000002b0: 66bd 4338 7c5a 8937 40f2 7437 4671 6b37
000002c0: 59ca ad37 651a a037 cfa9 c338 18de ad38
000002d0: a480 2e38 ed9f 6d37 885e 9f37 5309 0d38
000002e0: 1374 9637 b7ad 3138 f6f3 1538 aa81 c438
000002f0: 3cc0 8c37 9ac8 1738 6f62 8638 21fb d737
00000300: a101 a437 ed57 ad37 a50d e337 7da4 a337
00000310: 6cca 0d39 9666 1639 fc3c 9737 8633 b436
00000320: 0a1a 2637 9e8e 7137 b031 5337 e7d1 9937
00000330: 177d 8e37 d562 e737 0291 0437 56f4 8537
00000340: 8a87 9037 8b38 2537 514d 2537 72f5 3b37
00000350: 2f93 7537 f43b 3237 d830 4c38 dd0c 2d38
00000360: 9bd1 3038 f98e 4e37 c742 be37 6373 1538
00000370: e29d 8a37 79ca f837 9b31 1038 b7bc 6538
00000380: 4895 5037 5a44 f437 d83f 1638 c21d a537
00000390: da6d 9a37 a4aa a837 245e bd37 8239 7137
000003a0: 0081 8238 a29f 6738 0cbc 5f37 c5d0 1837
000003b0: 7007 0337 3873 1f37 7fd6 5e37 5921 b937
000003c0: 3046 8137 c03b 5538 8354 3237 d6e9 9237
000003d0: 28bc 1e38 6e6e 7937 e386 5937 f2d3 6937
000003e0: e5ec 4837 c657 7537 88a6 a338 aa91 a638
000003f0: 63b2 9837 5557 6b36 147f 8337 240d 8537
3.0533294e-05 1.0198953e-05 3.670698e-05 2.4516807e-05 3.8269296e-05 4.4723234e-05 4.6663274e-05 5.436867e-05
1.3058126e-05 4.6545225e-05 2.6936414e-05 1.419952e-05 2.3775e-05 2.5239362e-05 7.1841234e-05 3.2143285e-05
3.82912e-05 3.840023e-05 2.7328564e-05 1.1143679e-05 1.336986e-05 2.014501e-05 2.0771779e-05 3.745648e-05
2.8175458e-05 8.6402775e-05 1.1798472e-05 2.4318977e-05 6.349806e-05 1.9779794e-05 2.021866e-05 1.826435e-05
1.8519675e-05 2.483214e-05 8.97631e-05 9.789214e-05 2.3669743e-05 9.1156935e-06 1.1247089e-05 1.89467e-05
1.0570711e-05 2.5760912e-05 1.9777375e-05 4.5423883e-05 8.7527915e-06 1.8296614e-05 3.2974513e-05 1.543257e-05
1.40385555e-05 1.17474565e-05 1.3243723e-05 1.3135942e-05 8.861216e-05 7.5200056e-05 1.9036916e-05 4.1784588e-06
1.05989775e-05 1.5356492e-05 1.0177004e-05 1.9434317e-05 1.9444082e-05 2.2849259e-05 5.989435e-06 1.7732587e-05
1.47863275e-05 7.129427e-06 1.1280565e-05 1.2119158e-05 1.95583e-05 1.1788132e-05 2.3888691e-05 2.7533864e-05
8.374929e-05 2.5766218e-05 6.391959e-05 7.4340365e-05 7.339775e-05 0.00010338846 7.354051e-05 0.00017786151
3.648113e-05 9.539831e-05 0.00012454504 5.2136056e-05 6.609497e-05 6.3238986e-05 0.0001065825 8.013516e-05
0.0002512277 0.0002756847 4.408195e-05 1.1458066e-05 5.2166866e-05 3.5949128e-05 5.7701476e-05 6.0625614e-05
5.0175553e-05 7.18524e-05 1.25033675e-05 6.66343e-05 3.8002454e-05 1.6629943e-05 2.9413028e-05 2.8551907e-05
0.000100619516 6.154284e-05 5.4235574e-05 4.6951274e-05 6.247945e-05 2.993834e-05 4.938013e-05 4.4778608e-05
5.737481e-05 6.87621e-05 5.0496077e-05 9.346339e-05 1.861045e-05 6.259186e-05 5.381534e-05 2.8200775e-05
3.674012e-05 3.338431e-05 7.595464e-05 5.6789104e-05 8.94277e-05 6.2818224e-05 3.7198024e-05 1.2994435e-05
2.6302592e-05 2.8792601e-05 2.2303253e-05 2.9600767e-05 2.8877817e-05 5.0271992e-05 1.1061502e-05 3.676182e-05
3.3747303e-05 1.5177578e-05 1.9817702e-05 1.9990604e-05 3.122609e-05 2.4797668e-05 7.049577e-05 4.447106e-05
6.372019e-05 1.7214967e-05 2.3556879e-05 5.6260662e-05 2.8253136e-05 5.9102855e-05 4.4726337e-05 0.00011447466
2.264573e-05 4.254747e-05 7.982286e-05 3.560087e-05 3.064579e-05 2.9177338e-05 3.8233757e-05 2.9503317e-05
0.00020432024 0.000165654 2.8737571e-05 1.6562868e-05 1.5392705e-05 2.1804624e-05 1.5512667e-05 2.7074968e-05
2.0330841e-05 6.079199e-05 1.2076654e-05 2.270634e-05 4.6668014e-05 1.6373808e-05 1.4599937e-05 1.4033465e-05
2.0717433e-05 1.9085777e-05 9.329954e-05 8.290651e-05 4.160464e-05 1.4163536e-05 1.8998297e-05 3.3625704e-05
1.7935445e-05 4.2361873e-05 3.5751575e-05 9.37016e-05 1.6778817e-05 3.618803e-05 6.4079526e-05 2.5746938e-05
1.9551082e-05 2.066415e-05 2.7066862e-05 1.950771e-05 0.00013522216 0.00014343331 1.8029e-05 5.370416e-06
9.900434e-06 1.4397925e-05 1.2588149e-05 1.8336765e-05 1.6985969e-05 2.7583368e-05 7.901575e-06 1.5968613e-05
1.7229253e-05 9.847931e-06 9.852768e-06 1.1203216e-05 1.4637407e-05 1.0623586e-05 4.868288e-05 4.1258394e-05
4.215688e-05 1.2311845e-05 2.268086e-05 3.563183e-05 1.6524402e-05 2.9658187e-05 3.4378474e-05 5.477361e-05
1.2432523e-05 2.9118895e-05 3.5822246e-05 1.968339e-05 1.8409384e-05 2.0106621e-05 2.2574393e-05 1.4378109e-05
6.222911e-05 5.522336e-05 1.3335619e-05 9.108514e-06 7.80994e-06 9.503965e-06 1.3282172e-05 2.2069247e-05
1.5410682e-05 5.0838804e-05 1.0629304e-05 1.7513445e-05 3.784537e-05 1.4867268e-05 1.2965614e-05 1.393723e-05
1.1976085e-05 1.4623574e-05 7.8034645e-05 7.942629e-05 1.820288e-05 3.5068563e-06 1.5675592e-05 1.5860955e-05

exp_avg f4 [128]
00000000: b031 93ba c81e 773a 1d7f d23a d896 2bb9
00000010: 8455 86ba eb55 d137 9188 063b 2b68 673a
00000020: 2781 14ba 7306 ec3a dfbc 603a 6cb3 5ab9
00000030: 3a55 2fb9 df36 f33a 5f65 d1b9 959a bdba
00000040: 4395 d938 a37c 80ba 7431 dfb9 07cb 31ba
00000050: 1352 7aba 94d5 56b8 f2c0 f0ba 0747 6ab8
00000060: 6f4b 55ba add9 e93a 1973 3ab9 7df5 02ba
00000070: d344 0e3b b3b7 e13a b429 eb3a b6b3 d83a
00000080: 5c7a e539 1e45 e93a 926a c9b9 4b18 2c3b
00000090: 3f8a 8b3a 636d 303a 3501 073a 2621 da39
000000a0: 360f 543a 14a5 82b9 1aa8 dd39 89fd 59ba
000000b0: afee 063b f858 95b9 dac6 683a c80d 123b
000000c0: b63a bd3a 17fb f73a 7065 1139 1190 8fb9
000000d0: c67d 0cba 7b4f 363a 1195 073b 11c7 68ba
000000e0: f934 453a be31 d437 9ad6 7b3a d54a 53ba
000000f0: a6ce 74b8 65f0 903a 5354 3aba 2c90 a53a
00000100: 4116 673a 141b 833a d92d 1d3b 813c 8c3a
00000110: 2603 27bb 5cfe a63a 67dc 69ba 41f0 36b9
00000120: c57b 73ba 4ccd f139 35d4 4b3a fdf4 933a
00000130: 48e6 3d3a 12de beba 2d91 3bba 874e ffb9
00000140: e6b8 76ba 163b ce3a 09b5 7aba fe22 3c3b
00000150: 8884 53ba 8622 023a 1a5f 1f3a d6f1 b63a
00000160: 289a 513a 4b19 9b3a a16e 1a3a 6bc3 453a
00000170: 2423 523b b008 b7b7 8f2b c83a 0d94 f538
00000180: d35b a43a 2a0b fe37 9ecf 933a a4f5 513a
00000190: 6c29 bf3a 2bd1 4db9 3d31 423a 3dc1 01ba
000001a0: 4800 d539 1d57 ce3a e1e8 d5ba 1de0 ac3a
000001b0: 8df6 2c3a fc55 813a 7818 453a b9de 7b39
000001c0: 524d daba cb4b 6dba 523d 1b3b 0dfe b237
000001d0: 864d 973a f16c 5e3a 9beb a83a 579b f53a
000001e0: 7311 ad3a a4aa 903a bb3d 943a 297b fe39
000001f0: edf5 c838 6a14 4a39 36fd 4f3a 96de 58ba
-0.0011230018 0.0009426889 0.0016059611 -0.00016364024 -0.0010248874 2.495475e-05 0.0020528177 0.0008827473
-0.0005664997 0.0018007293 0.0008573066 -0.0002085694 -0.0001672105 0.0018555782 -0.00039939114 -0.0014465625
0.000103751685 -0.000980277 -0.0004257072 -0.00067822676 -0.0009548973 -5.1220486e-05 -0.0018368049 -5.5856097e-05
-0.00081365457 0.0017841362 -0.0001778122 -0.0004995687 0.0021708503 0.0017220884 0.0017941506 0.001653305
0.00043769449 0.0017797088 -0.0003841711 0.0026259597 0.0010646059 0.0006730167 0.0005150021 0.00041604898
0.0008089425 -0.00024918525 0.0004227765 -0.0008315673 0.0020589044 -0.00028485782 0.0008879729 0.0022286046
0.0014437053 0.0018919435 0.00013866066 -0.00027382423 -0.0005359318 0.00069545925 0.0020688216 -0.0008879761
0.0007522847 2.5295532e-05 0.0009606868 -0.0008060162 -5.836659e-05 0.0011057971 -0.0007107902 0.0012631468
0.0008815267 0.0010002577 0.0023983626 0.0010699184 -0.0025484054 0.00127406 -0.0008921087 -0.00017446374
-0.00092881575 0.0004612006 0.0007775457 0.0011288222 0.00072440924 -0.0014562032 -0.0007155117 -0.00048695898
-0.0009411707 0.0015734162 -0.00095637195 0.002870738 -0.000806876 0.0004964251 0.000607954 0.0013957571
0.00079956884 0.0011833099 0.0005891119 0.0007544073 0.0032064402 -2.1819345e-05 0.001527177 0.00011710087
0.0012539573 3.0284358e-05 0.0011277085 0.00080093206 0.0014584488 -0.00019628245 0.000740785 -0.0004949754
0.00040626735 0.0015742515 -0.0016320014 0.001318935 0.0006598018 0.0009867544 0.00075186 0.00024020196
-0.0016655123 -0.00090521266 0.0023687673 2.1337555e-05 0.001154349 0.00084848615 0.0012887599 0.0018738311
0.0013204053 0.0011037183 0.0011309901 0.00048538417 9.5825504e-05 0.00019271826 0.0007934155 -0.0008272914
