runs/BallBalance_11-14-50-15/nn/BallBalance.pth (torch, 172255 bytes, 36 tensors)

value_mean_std.running_mean f8 [1]
0	0x3fc11f82265d6c26	0.13377405999457997

value_mean_std.running_var f8 [1]
0	0x3f73a7ecbeb6346f	0.004798817429571319

value_mean_std.count f8 []
0	0x409c840000000000	1825.0

running_mean_std.running_mean f8 [18]
0	0x3fc79e9c7b838143	0.18452793150846433
1	0x3fb8d31b964a95bc	0.09697124881002755
2	0xbfca517215745d16	-0.205610523677685
3	0x3fc6ac5947ebcfc6	0.17713466655516025
4	0x3faf50b2247385c2	0.06116253561937014
5	0xbf63a602062b2e49	-0.002398494675935035
6	0xbfb4b2ca592a56ed	-0.08085312535180451
7	0x3fe58eb4063d203f	0.6736698266840974
8	0x3fde2aea11aa3309	0.4713692829616752
9	0xbfe44eeecf242bbf	-0.634635357449376
10	0x3fdb3eebdc3fee0d	0.42571541317713085
11	0x3fd0f5bfd99602cb	0.2649993538725936
12	0xbfa59d44ca062b2f	-0.042215490018028816
13	0xbfc1d36cfb3bb955	-0.13926470057726684
14	0x3fbc07766a68de11	0.10948886964694561
15	0x3fc27690a526f98d	0.14424331726145248
16	0xbf84222ad24bb4f9	-0.009830793898311973
17	0x3fc15cd1d9a7f4c8	0.13564513328302596

running_mean_std.running_var f8 [18]
0	0x3fba80b13ed1eb4e	0.10352618964854551
1	0x3f8d352b3db2c066	0.014261567898160087
2	0x3fc3666a8e3da4e1	0.15156299538947507
3	0x3fc9e5154a43631d	0.20230356336721736
4	0x3fa187c07ffb97d1	0.034238830206774325
5	0x3f87389908506958	0.011338420454241202
6	0x3f855893e04cdb38	0.010422854693030822
7	0x3ffc77164ff4494a	1.7790740130627278
8	0x3fdf0f623525144f	0.4853139418594922
9	0x400ca002ee1d353d	3.5781305887855113
10	0x4011ed1bdaa397ef	4.481551567301707
11	0x3fe44924b0cdd34d	0.6339286282733184
12	0x3fedcddbe5bab96b	0.9313792693044837
13	0x3ff3c51580985ba9	1.2356162093399041
14	0x3f76c947c5d53c1c	0.005563049662057142
15	0x3f7fd347f382b36f	0.007769852694917797
16	0x3fd1fca1de70cd72	0.2810444519302201
17	0x3fc8dac7110c2f67	0.19417656261827718

running_mean_std.count f8 []
0	0x408c880000000000	913.0

a2c_network.sigma f4 [7]
0	0xbdeb9dbf	-0.11504697
1	0xbce22741	-0.027606608
2	0xbe18d72c	-0.14925832
3	0x3cd67a80	0.02618146
4	0xbd694989	-0.056954894
5	0xbe0e5282	-0.13898662
6	0xbd890c91	-0.0669185

a2c_network.actor_mlp.0.weight f4 [128, 18]
0	0xbd0193f9	-0.03163526
1	0xbda6b8fb	-0.08140751
2	0xbe528d72	-0.2056177
3	0x3d59a9cc	0.053140447
4	0x3cdbbfff	0.02682495
5	0x3e4d9a6f	0.20078443
6	0xbe012d40	-0.12614918
7	0xbe05b2e5	-0.13056524
8	0xbe04e415	-0.12977631
9	0xbdc2814d	-0.094973184
10	0xbd7d3c0b	-0.06182484
11	0xbdb39588	-0.08768755
12	0x3ce6883f	0.02814114
13	0xbe58dcf9	-0.21178044
14	0x3e86c057	0.2631862
15	0x3d4b34ea	0.04961101
16	0xbb30cc4e	-0.0026977244
17	0x3d8af05e	0.06784128
18	0x3d3e5812	0.04647071
19	0x3e85f4be	0.26163286
20	0x3db41473	0.08792963
21	0xbd5c2f4d	-0.053756047
22	0x3dc7adb4	0.09749928
23	0x3d06e0fa	0.032929398
24	0x3e0cf956	0.13766989
25	0x3e48482d	0.19558783
26	0x3e70fbe1	0.23533584
27	0xbe07eff7	-0.13275133
28	0x3e018130	0.12646937
29	0xbe07d4b9	-0.13264741
30	0x3e56b554	0.20967609
31	0xbe3a331e	-0.18183562
32	0xbe3e320f	-0.18573783
33	0xbb5bb037	-0.003352178
34	0xbe5b4476	-0.21412835
35	0x3dc2c692	0.095105305
36	0xbc87a1bc	-0.016556613
37	0x3dc6044a	0.09668787
38	0x3d91b0fd	0.07113836
39	0xbd6f9596	-0.058492266
40	0x3e63ed08	0.22258389
41	0xbdd167a6	-0.102248475
42	0x3d712c43	0.058880102
43	0xbe841ed8	-0.25804782
44	0x3e2430c1	0.16034223
45	0xbde271ce	-0.11056863
46	0x3d157200	0.036485672
47	0xbe18dc43	-0.14927773
48	0x3e2eb939	0.17062844
49	0xbe48e993	-0.19620351
50	0xbe1a6653	-0.15078096
51	0xbdf88899	-0.12135429
52	0x3e002bc3	0.12516694
53	0xbc9db666	-0.019252013
54	0x3e4bf89f	0.1991906
55	0xbe81132a	-0.25209934
56	0xbda370db	-0.0798051
57	0xbe4ecc6b	-0.20195167
58	0xbdd3b181	-0.103365906
59	0x3e153844	0.14572245
60	0x3ddfafda	0.10922213
61	0x3e064ed4	0.13116008
62	0xbe4a9939	-0.19785012
63	0xbe042bd1	-0.1290734
64	0x3daa68dc	0.083207816
65	0xbd8a0a0b	-0.06740197
66	0x3d6691a5	0.05629124
67	0x3dd54e62	0.10415341
68	0x3e73c9cd	0.2380745
69	0xbdc6d530	-0.09708631
70	0xbd6bd6be	-0.05757784
71	0xbc53a355	-0.012917359
72	0x3d7d1bb6	0.061794005
73	0xbdcffd52	-0.10155739
74	0x3de58c3b	0.112083875
75	0x3e3d061e	0.18459365
76	0xbe92582d	-0.28582898
77	0xbe2c4bdc	-0.16825813
78	0x3e8e8ab0	0.27840185
79	0xbde2578d	-0.11051855
80	0xbe5ee3de	-0.21766612
81	0xbe293571	-0.16524293
82	0xbe1cac38	-0.15300071
83	0x3d04312e	0.032273464
84	0x3cedb609	0.029017465
85	0xbe14fc5c	-0.14549392
86	0x3dfe50a7	0.12417727
87	0xbd8e9ef5	-0.069639124
88	0xbd886513	-0.066599034
89	0xbe27878e	-0.16360304
90	0xbddff3c8	-0.109351695
91	0xbe5ea0d0	-0.21741033
92	0x3e7397ee	0.23788425
93	0x3e03f30f	0.12885688
94	0x3d4fd9f1	0.050744954
95	0xbe891a5b	-0.2677792
96	0xbe1221ac	-0.14270657
97	0x3d210be1	0.03931797
98	0x3d25c8a0	0.040474534
99	0xbe3f8223	-0.18701987
100	0xbe1225ff	-0.14272307
101	0xbddbe245	-0.10736517
102	0xba88e7c4	-0.0010445048
103	0xbd129f09	-0.0357962
104	0x3c990dbf	0.018683312
105	0xbdfa6ecc	-0.12228164
106	0xbe1366a3	-0.14394622
107	0xbe6a165d	-0.22860093
108	0xbe01ca25	-0.12674768
109	0xbe6bb83e	-0.23019502
110	0x3e6bc5e4	0.23024708
111	0xbd839702	-0.06425287
112	0x3e85fb0b	0.26168093
113	0x3d565d29	0.05233494
114	0xbe2f3c32	-0.17112806
115	0x3e554dc8	0.20830452
116	0x3e19122a	0.14948335
117	0xbd85feee	-0.065427646
118	0xbe92bc27	-0.28659174
119	0xbea5b715	-0.32366243
120	0x3deb3cce	0.11486207
121	0xbdf57b69	-0.11986429
122	0x3c49a51c	0.012307432
123	0xbda255ae	-0.07926498
124	0x3d9e4b45	0.077292
125	0xbe82b593	-0.25529155
126	0xbe2714ec	-0.16316575
127	0xbd8bd0b5	-0.06826917
128	0x3e5c985b	0.21542494
129	0x3daf5c69	0.08562548
130	0x3e82ef5c	0.25573242
131	0xbdad7412	-0.08469404
132	0x3db6e942	0.08931209
133	0xbe44826c	-0.19190377
134	0xbd1db01f	-0.03849804
135	0xbd58fbe7	-0.052974608
136	0x3e3a4911	0.18191935
137	0xbdbc7d27	-0.092035584
138	0x3d6b8ae8	0.05750552
139	0x3d41209b	0.047150236
140	0x3e24c71d	0.1609158
141	0xbe2b860f	-0.16750358
142	0x3e5ef6db	0.21773855
143	0xbb29d4d5	-0.0025914211
144	0xbd7ffdfb	-0.062498074
145	0xbe90160c	-0.2814182
146	0x3e147645	0.14498241
147	0xbde4b55d	-0.11167405
148	0xbd5cc937	-0.05390283
149	0x3e601ffd	0.21887203
150	0x3df6bf87	0.1204825
151	0xbd558dd4	-0.05213721
152	0xbe0b63c5	-0.13612278
153	0x3d19656f	0.03745025
154	0x3df050c5	0.117341556
155	0xbcf9d730	-0.030498117
156	0xbe05226f	-0.13001417
157	0xbd3a2f86	-0.045455478
158	0xbe526030	-0.20544505
159	0x3d90670e	0.07050906
160	0x3e2e1017	0.16998325
161	0xbe6e3689	-0.23262991
162	0x3e021f7d	0.12707324
163	0xbd953675	-0.072857775
164	0x3d21d616	0.03951081
165	0x3ba290f6	0.0049611283
166	0x3e6b7543	0.2299395
167	0x3cd7b2c6	0.026330363
168	0xbd93212e	-0.07184063
169	0x3cb13092	0.021629605
170	0xbd14904c	-0.036270425
171	0x3cfe8f3a	0.031074155
172	0x3c01bc6f	0.007918461
173	0x3cb99c66	0.022657584
174	0x3db5f5dc	0.088847846
175	0x3e12dcf2	0.14342096
176	0xbd37cab9	-0.044871066
177	0xbde89a8c	-0.113576025
178	0xbda91a42	-0.082569614
179	0x3d519388	0.051166087
180	0x3e3344c3	0.175067
181	0xbba5f2da	-0.0050643506
182	0xbe4ba1cf	-0.19885944
183	0x3d97e868	0.07417375
184	0x3e7a3494	0.2443412
185	0x3c89bb9e	0.016813096
186	0xbe2a7dff	-0.16649626
187	0xbe23e5b2	-0.1600559
188	0xbda81574	-0.08207217
189	0xbe224307	-0.15845881
190	0xbd7304cd	-0.05933075
191	0x3e7ec338	0.24879158
192	0x3cd7e8ca	0.02635612
193	0x3d351ea5	0.044218678
194	0xbdb982f3	-0.0905818
195	0xbdcddae4	-0.10051516
196	0x3d9cb185	0.07651047
197	0x3e328980	0.17435265
198	0xbe18459c	-0.14870304
199	0xbcacb8f8	-0.021084294
200	0x3e3c7e24	0.18407494
201	0xbe314066	-0.17309722
202	0xbe0bfc17	-0.13670383
203	0x3e90ceef	0.28282878
204	0xbd4c500c	-0.049881026
205	0xbca54f46	-0.020179402
206	0xbe1e707e	-0.154726
207	0x3e35d7da	0.17758122
208	0x3e4f0b9d	0.20219274
209	0x3ded3b3b	0.11583563
210	0xbe1a5b6d	-0.15073939
211	0xbe530eaa	-0.20611063
212	0xbe3474b7	-0.17622648
213	0x3e4d754b	0.20064275
214	0x3d9156bd	0.07096622
215	0x3e6ac094	0.22925025
216	0x3e5c8b39	0.21537484
217	0x3c883dc4	0.016631015
218	0x3cd9943d	0.026559943
219	0xbdec2190	-0.11529839
220	0xbe805582	-0.25065237
221	0xbe6af202	-0.22943881
222	0x3dda6c9d	0.106652476
223	0xbd72ccfc	-0.05927752
224	0xbe12bdf7	-0.14330278
225	0xbe463c0f	-0.19358848
226	0xbdd6da36	-0.10490839
227	0xbe1b54cb	-0.15169065
228	0xbd9c4585	-0.07630447
229	0x3d55431c	0.052065954
230	0x3cafe876	0.02147315
231	0x3e471d32	0.19444731
232	0xbccdfa6c	-0.025143825
233	0xbe8093e4	-0.25112832
234	0xbca5ee4d	-0.020255232
235	0xbe304433	-0.17213516
236	0x3cc2c2d6	0.023774546
237	0xbe5ee7d2	-0.2176812
238	0x3dbe5250	0.092930436
239	0xbe0e2d19	-0.13884391
240	0x3de7e50e	0.113229856
241	0x3e150169	0.14551319
242	0x3e5a1d82	0.21300319
243	0xbe3d8f6d	-0.18511744
244	0x3dddca0a	0.108295515
245	0xbe84b4da	-0.2591923
246	0x3e12d74c	0.14339942
247	0x3e7a6c4a	0.24455371
248	0xbc39f043	-0.011348787
249	0x3dd8be40	0.10583162
250	0xbd858314	-0.06519142
251	0xbe581356	-0.21101126
252	0x3e470122	0.19434026
253	0xbe85f3b9	-0.26162508
254	0x3dcbbbc8	0.09947926
255	0x3e92e763	0.2869216

a2c_network.actor_mlp.0.bias f4 [128]
0	0x3ca9df8a	0.020736475
1	0x3b997713	0.004683384
2	0xbc45bd03	-0.01206899
3	0x3d3c65a1	0.04599536
4	0xbc09b874	-0.008405793
5	0xbb899ec8	-0.0041998364
6	0x3b54c206	0.003246428
7	0x3d0bc4b7	0.03412315
8	0x3d2a56df	0.041586753
9	0x3c98367d	0.01858067
10	0xbdb70769	-0.0893696
11	0x3d75124b	0.0598319
12	0x3d86f187	0.065890364
13	0x3ddedc41	0.10881854
14	0xbcbca1bf	-0.023026345
15	0x3cd4c605	0.02597333
16	0xbd06d97e	-0.03292226
17	0x3d83e4d0	0.06440127
18	0xbd987040	-0.07443285
19	0x3badf8ef	0.005309216
20	0x3d3a340d	0.045459796
21	0x3d9d6961	0.07686115
22	0xbd258d1b	-0.04041777
23	0xbe467987	-0.19382297
24	0xbcc6147e	-0.024179693
25	0x3c666775	0.014062752
26	0xbba0eb7f	-0.004910886
27	0xbd5cda34	-0.053919032
28	0xbc69b1e9	-0.0142636085
29	0x3d4a0c84	0.049328342
30	0xbd9fcc01	-0.078025825
31	0xbdd32108	-0.103090346
32	0xbda516fc	-0.080610245
33	0xbb4cdf02	-0.0031260853
34	0xbdb198b7	-0.08671706
35	0x3b6e6350	0.0036375113
36	0x3b8bc583	0.0042654886
37	0xbe01d4f7	-0.12678896
38	0x3d515e48	0.051115304
39	0x3defa09f	0.11700558
40	0xbdc2cdef	-0.09511935
41	0xbcd19552	-0.025583897
42	0xbe14a0ad	-0.14514418
43	0xbb47596c	-0.003041829
44	0xbcb47049	-0.022026198
45	0x3bcdfa59	0.0062859473
46	0xbdc12071	-0.09430016
47	0x3ad68976	0.0016367871
48	0xbd4d325e	-0.050096862
49	0x3cba2cda	0.022726465
50	0xbde06b00	-0.10957909
51	0xbd7db020	-0.061935544
52	0xbdea23bc	-0.11432597
53	0x3d13d920	0.03609574
54	0x3e2a8d8f	0.16655563
55	0x3dc726dc	0.09724209
56	0xbe113a85	-0.1418248
57	0x3e045f29	0.12926926
58	0xbc7265d9	-0.01479479
59	0x3dd608f0	0.104509234
60	0xbd2c8730	-0.042121112
61	0x3d30c75e	0.04315888
62	0xbd7d40da	-0.061829425
63	0xbd26d7cf	-0.040733155
64	0xbcd1bb8e	-0.025602128
65	0xbd92c6dd	-0.071668364
66	0xbcf2335b	-0.029565504
67	0xbe030524	-0.1279493
68	0x3dbd2a42	0.09236576
69	0xbd165afc	-0.036707863
70	0xbdd44455	-0.10364596
71	0x3cfe1f83	0.031020885
72	0xbd8d0a0d	-0.06886683
73	0xbcf09a41	-0.029370429
74	0x3cb6f0a7	0.022331549
75	0xbe04b3bc	-0.12959188
76	0x3dcaa0e5	0.098939694
77	0xbdb549bd	-0.08851955
78	0x3c57c349	0.013169118
79	0x3dda4574	0.106577784
80	0xbe15627f	-0.14588355
81	0x3e20b406	0.15693673
82	0xbd8d52f1	-0.069005854
83	0xbd96f354	-0.0737063
84	0xbd522620	-0.05130589
85	0x3cd1bc4f	0.025602488
86	0x3cb3c3cf	0.021943955
87	0x3d495886	0.04915669
88	0xbdcc55aa	-0.099772766
89	0x3d93caa8	0.07216388
90	0xbd4e026c	-0.05029528
91	0xbd4d02ec	-0.050051615
92	0x3d4831ca	0.048875608
93	0xbdbe5508	-0.09293562
94	0xbdfbb9b6	-0.12291281
95	0xbe1414fd	-0.14461131
96	0x3d7de7e2	0.06198872
97	0xbd98c7bd	-0.07459972
98	0xbb9cd52b	-0.004786154
99	0x3e0352b6	0.1282452
100	0xbd4761ed	-0.048677374
101	0x3d0369e3	0.032083403
102	0xbd4425ec	-0.047887728
103	0x3af399f0	0.0018585306
104	0xbd108122	-0.0352794
105	0x3c9e97cd	0.019359494
106	0x3c114c54	0.008868296
107	0xbcc9aea7	-0.024619414
108	0x3bbde811	0.0057954867
109	0xbca89376	-0.020578127
110	0x3d9939e6	0.074817464
111	0xbde4ad54	-0.11165872
112	0xbbf812e1	-0.00757061
113	0xbd62e75b	-0.05539642
114	0xbde37966	-0.11107139
115	0x3c228796	0.0099200215
116	0xbd1adf86	-0.037810825
117	0xbd43e93d	-0.047829855
118	0xbdeb4325	-0.11487416
119	0x3c4e2a0c	0.012583267
120	0xbdc99479	-0.09842772
121	0xbe0bd857	-0.13656746
122	0x3ddf7b10	0.10912144
123	0x3dbc6a00	0.091999054
124	0x3d21bcde	0.03948676
125	0xbc136063	-0.008995148
126	0xbdeb36a6	-0.11485033
127	0x38ffa488	0.00012189994

a2c_network.actor_mlp.2.weight f4 [64, 128]
0	0x3c9e7e0b	0.019347211
1	0x3d9aaa35	0.07551996
2	0x3c0c4f57	0.008563838
3	0x3d384479	0.044987176
4	0x3df7e5ef	0.12104403
5	0x3d871588	0.06595904
6	0x3dc9e4af	0.09858071
7	0xbbe95f63	-0.0071219667
8	0x3d90e8b7	0.07075637
9	0xbe1d89d0	-0.15384603
10	0x3c0cbf0d	0.008590472
11	0xbd63f9c9	-0.055658136
12	0x3e3ffba8	0.18748343
13	0x3de85fb6	0.113463804
14	0x3d6268f1	0.05527586
15	0x3ba5a4eb	0.00505506
16	0xbd2dc363	-0.042422663
17	0x3c3db1f6	0.011578074
18	0x3d7bca71	0.06147236
19	0xbe162d43	-0.14665703
20	0x3c820869	0.01587315
21	0x3c3febbc	0.011713918
22	0xbda88a71	-0.082295306
23	0xbd2059ee	-0.039148264
24	0xbbb256af	-0.0054424624
25	0xbd108f59	-0.035292957
26	0x3c8f4762	0.017490093
27	0x3d89c98c	0.06727895
28	0xbcd30b2c	-0.025762163
29	0xbd9664d3	-0.073434494
30	0x3be378f3	0.0069419085
31	0xbc931164	-0.017952628
32	0x3e058d63	0.13042216
33	0x3d3e9f4d	0.04653864
34	0xbda5fd0d	-0.08104906
35	0xbccc59bf	-0.024945138
36	0x3c257696	0.010099074
37	0xbd3a7fa0	-0.04553187
38	0x3ab8f46d	0.001411093
39	0x3ca1113f	0.019661544
40	0xbdbe5953	-0.09294381
41	0x3d0fc58d	0.03510051
42	0xbd0a5888	-0.033775836
43	0x3c5fc260	0.013657182
44	0xbd7d57ea	-0.06185142
45	0x3d0fdf44	0.035125032
46	0xbcd0a754	-0.025470413
47	0xbbff8167	-0.0077974084
48	0xbd7ecdca	-0.062207974
49	0xbda5dc25	-0.0809863
50	0x3d24a58a	0.040196933
51	0xbda5b59a	-0.080912784
52	0xbdde901d	-0.10867331
53	0xbc0b2d44	-0.008494679
54	0xbd71ba97	-0.059015837
55	0xbd22dc15	-0.039760668
56	0xbdd965f8	-0.10615152
57	0x3b95f077	0.004575785
58	0xbc873b37	-0.016507728
59	0xbc44bfb6	-0.012008598
60	0xbd657323	-0.056018006
61	0x3da48d58	0.08034772
62	0xbc4aed76	-0.012385717
63	0xbcb36c2d	-0.021902168
64	0x3db97da2	0.09057166
65	0x3ca2af09	0.019858854
66	0xbd7ad92c	-0.061242267
67	0x3c672e64	0.0141101815
68	0x3df7d1f5	0.12100593
69	0xbd81aee4	-0.06332186
70	0x3d2432ee	0.040087633
71	0xbd811b66	-0.06304054
72	0xbe0500b6	-0.12988552
73	0x3d95020f	0.07275783
74	0x3db6c42c	0.089241356
75	0x3d45c8e9	0.048287306
76	0x3d85a872	0.06526269
77	0xbc332968	-0.010935165
78	0x3dbff116	0.09372155
79	0x3dac9eed	0.0842875
80	0xbbc81bb6	-0.006106819
81	0xbde87039	-0.1134953
82	0x3bfbc8a4	0.0076838303
83	0xbde06785	-0.10957245
84	0xbc340ede	-0.010989873
85	0x3d951295	0.07278935
86	0xbb9f7bdb	-0.0048670596
87	0x3d568804	0.05237581
88	0x3cd416df	0.025889812
89	0xbd8937d4	-0.067001015
90	0x3dca5dd3	0.09881177
91	0x3d214006	0.039367698
92	0xbd2a7d25	-0.041623253
93	0xbdbb3fab	-0.09143003
94	0x3d6e6a97	0.05820712
95	0xbd87326b	-0.06601413
96	0xbe1b2d96	-0.15154108
97	0xbd7d099c	-0.061776742
98	0xbd7ec1d9	-0.062196586
99	0x3e0faa97	0.14029919
100	0x3d11befd	0.03558253
101	0xbd5f8279	-0.054567788
102	0xbc608a1b	-0.013704802
103	0xbdec0091	-0.115235455
104	0x3ca390a8	0.019966438
105	0xbdaa53cc	-0.08316764
106	0xbcff7be6	-0.031187009
107	0x3d138879	0.036018822
108	0x3d0328de	0.032021396
109	0xbda09734	-0.0784134
110	0xb9cc62bf	-0.00038983484
111	0x3e1ae752	0.15127304
112	0x3c3c62bb	0.011498149
113	0xbd06de01	-0.032926563
114	0xbd3b6b17	-0.045756426
115	0xbd25a8bb	-0.040444117
116	0xbdbd313d	-0.09237907
117	0x3da04464	0.078255445
118	0x3d28e99a	0.041238405
119	0x3ca4d992	0.020123277
120	0x3d963af1	0.07335461
121	0xbd898847	-0.06715446
122	0xbbfde92d	-0.007748744
123	0x3dcecb55	0.10097376
124	0x3dc72f64	0.09725836
125	0xbd637816	-0.055534445
126	0x3d34d12d	0.044144798
127	0x3c8dab08	0.017293468
128	0xbc831639	-0.016001808
129	0xbd4e51ab	-0.050370853
130	0x3d3dea79	0.04636619
131	0xbd53e7e5	-0.051734824
132	0x3dcc1985	0.09965805
133	0xbd5484f3	-0.051884603
134	0xbca86cfd	-0.020559782
135	0xbc525606	-0.012837892
136	0xbca2c48b	-0.01986911
137	0xbba3ee3b	-0.0050027645
138	0x3dcc9656	0.09989612
139	0xbc75ff8f	-0.015014543
140	0xbda18c57	-0.07888096
141	0xbd32f37e	-0.043689243
142	0x3d959515	0.07303826
143	0x3d0d44b8	0.034489363
144	0x3cdc5638	0.026896581
145	0x3989cfa3	0.00026285378
146	0x3db46339	0.08807988
147	0x3b7faccf	0.0039012914
148	0x3c16ac1f	0.00919631
149	0x3c25a2a2	0.010109575
150	0xbdd15bb7	-0.10222571
151	0xbd79df09	-0.06100372
152	0xbd0bd0f6	-0.034134828
153	0x3d23372f	0.03984755
154	0xbda62768	-0.08112985
155	0x3e0a73f7	0.135208
156	0x3c850d16	0.016241591
157	0xbc5a25c9	-0.013314673
158	0x3cb3f44a	0.021967072
159	0xbcd8e9ba	-0.026478637
160	0x3df1a8ed	0.11799798
161	0xbd33722c	-0.043810055
162	0x3d395cb4	0.045254424
163	0xbdf2ff54	-0.11865106
164	0xbd64f365	-0.05589618
165	0xbcf80e17	-0.030280156
166	0x3d7e5d2c	0.062100574
167	0x3c8e4fef	0.0173721
168	0x3a63cb2c	0.0008689638
169	0xbdd2d7c9	-0.10295064
170	0xbca5ae88	-0.020224825
171	0xbd8a3a13	-0.06749358
172	0xbdce7846	-0.10081534
173	0xbd9313f2	-0.07181539
174	0xbd949ea6	-0.07256822
175	0x3d991d55	0.07476298
176	0xbda0b7a4	-0.07847527
177	0x3d8d34c4	0.0689483
178	0x3d4ed565	0.050496478
179	0xbd2ae241	-0.04171968
180	0x3d7fbba7	0.06243482
181	0xbda57fd2	-0.080810204
182	0x3ceb9b20	0.028760493
183	0x3d5f193b	0.05446742
184	0xbd954f47	-0.072905116
185	0xbdaa8035	-0.08325235
186	0x3d539e41	0.051664595
187	0xbc8ad002	-0.016944889
188	0xbd55e4cb	-0.052220147
189	0x3d77c857	0.060493793
190	0xbce0668d	-0.02739265
191	0xbca6ee31	-0.02037725
192	0x3dc13b1e	0.09435104
193	0x3ce05408	0.02738382
194	0xbe1dad7f	-0.15398215
195	0xbd852130	-0.06500471
196	0xbdbbd931	-0.09172285
197	0xbd9f55cb	-0.077800356
198	0x3d881c77	0.06646054
199	0xbd618282	-0.055056103
200	0xbd9c2173	-0.076235674
201	0xbd5da659	-0.05411372
202	0x3d6653e6	0.056232356
203	0xbd5d779d	-0.05406915
204	0xbce5d0b8	-0.028053626
205	0xbdb40e10	-0.08791745
206	0x3d02f8d9	0.0319756
207	0xbd837249	-0.064182825
208	0xbcb56db9	-0.022147046
209	0xbd06fca5	-0.032955784
210	0xbd85dbee	-0.06536089
211	0xbd29dbfe	-0.041469567
212	0xbd1525db	-0.036413055
213	0xbc37a9be	-0.011209903
214	0x3c11ba06	0.008894449
215	0xbdfc965c	-0.12333366
216	0xbda2f42f	-0.079567306
217	0x3d67e9d3	0.056619477
218	0x3d18e0f5	0.03732391
219	0xbd829263	-0.06375577
220	0xbc1007a4	-0.008790884
221	0x3dfbbe3b	0.12292143
222	0xbdbc48ac	-0.091935486
223	0xbd6396f4	-0.055563882
224	0xbde6ed7c	-0.11275765
225	0xbcbc6ad9	-0.023000168
226	0x3d2ddcf8	0.04244706
227	0xbdc32c25	-0.09529904
228	0x3d8f3e03	0.0699425
229	0xbd6c35cc	-0.057668492
230	0x3df274fe	0.11838721
231	0xbd9e4e21	-0.07729746
232	0x3bcdb438	0.0062775873
233	0xba809005	-0.0009808546
234	0xbd98ae15	-0.074550785
235	0x3e170af4	0.14750272
236	0xbd5f3513	-0.054493975
237	0x3cf34ab9	0.029698716
238	0xbd6514b7	-0.05592796
239	0x3cba3181	0.022728683
240	0x3db9e606	0.090770766
241	0x3e40d237	0.1883019
242	0x3bba544b	0.005686318
243	0xbd492cf4	-0.049115136
244	0x3d8898fc	0.066698045
245	0x3cac8b61	0.021062555
246	0x3ca988c5	0.0206951
247	0xbcb89867	-0.022533609
248	0xbc87a821	-0.016559662
249	0xbd83fc66	-0.064446256
250	0x3e2f3005	0.17108162
251	0x3ccbb7fa	0.024868
252	0x3bd223df	0.0064129676
253	0x3ade7da2	0.0016974697
254	0xbd840361	-0.06445957
255	0x3d15ee9b	0.036604505

a2c_network.actor_mlp.2.bias f4 [64]
0	0xbc3e6730	-0.0116212815
1	0xbda6a594	-0.0813705
2	0x3ca11334	0.019662477
3	0xbd11c56d	-0.03558867
4	0xbd4593c3	-0.04823662
5	0xbdde4128	-0.10852271
6	0xbd73e8f3	-0.05954833
7	0x3b9f8ac5	0.0048688375
8	0xbcb21e78	-0.021743044
9	0xbb99a681	-0.0046890383
10	0xbda48fd2	-0.08035244
11	0xbd650495	-0.055912573
12	0xbd922056	-0.07135074
13	0xbe263abf	-0.16233347
14	0x3d207bbe	0.03918051
15	0x3d0f9bcf	0.0350607
16	0x3cf2662c	0.029589735
17	0xbb7c8a6a	-0.003853465
18	0x3c8bd8df	0.017071186
19	0x3c299e5f	0.0103527
20	0xbdd0e3ef	-0.10199725
21	0x3c221db7	0.00989478
22	0x3d1d37cf	0.0383833
23	0xbdacb53a	-0.08433004
24	0x3c1d5336	0.009602359
25	0xbcefd730	-0.029277414
26	0xbb80f979	-0.0039359895
27	0xbd10109b	-0.035172086
28	0x3b7d68f3	0.003866729
29	0x3d79a1a8	0.060945183
30	0x3ce15e34	0.02751074
31	0x3cb0af02	0.021567825
32	0xbdaad480	-0.083413124
33	0xbd37be36	-0.044859134
34	0xbd4ccdb5	-0.050000865
35	0xbc8a9fca	-0.016921896
36	0xbc4f2b41	-0.01264459
37	0xbb883273	-0.0041564046
38	0xbe06d37d	-0.13166614
39	0xbd81e50a	-0.06342514
40	0xba208d07	-0.00061245303
41	0xbd94d04f	-0.07266294
42	0xbd925d4d	-0.07146702
43	0x3da5069f	0.080579035
44	0xbd3e5e4f	-0.04647666
45	0xbc784837	-0.015153936
46	0xbd62952a	-0.055318035
47	0xbdb23cb8	-0.087029874
48	0x3d402eac	0.04691951
49	0xbde096f1	-0.1096629
50	0xbd54e533	-0.051976394
51	0xbaaec279	-0.0013333104
52	0xbdd78ac0	-0.10524511
53	0x3db40be8	0.087913334
54	0x3ab1b912	0.0013559184
55	0x3d276f0d	0.04087739
56	0xbdc735a4	-0.09727028
57	0xbd2b50e8	-0.041825205
58	0xbbee431f	-0.007271185
59	0x3d03d37d	0.032184113
60	0xbd1c1d3d	-0.03811382
61	0x3d0b6f09	0.03404144
62	0xbd8fa4ea	-0.07013877
63	0xbde81189	-0.113314696

a2c_network.actor_mlp.4.weight f4 [32, 64]
0	0x3d9c1c4e	0.07622586
1	0x3d9caeb8	0.076505125
2	0xbd3aa915	-0.045571405
3	0x3d1f98b9	0.038964007
4	0xbc62de1b	-0.013846899
5	0x3d95cbd9	0.073142715
6	0x3dff698e	0.12471305
7	0x3c405e56	0.011741241
8	0xbe672c94	-0.22575599
9	0xbdee89cc	-0.116473764
10	0xba79d024	-0.00095296116
11	0x3d61d7a7	0.055137303
12	0xbd9f155a	-0.07767744
13	0x3e2cf115	0.1688884
14	0xbe03381a	-0.1281437
15	0xbe0565f4	-0.13027173
16	0xbe071292	-0.13190678
17	0x3e2dd998	0.16977537
18	0xbda571c4	-0.0807834
19	0xbc6ca785	-0.014444237
20	0x3ce624aa	0.028093655
21	0x3d7a9f1d	0.0611869
22	0x3df21c44	0.118217975
23	0x3dbd4ccf	0.09243166
24	0xbc380c6f	-0.011233433
25	0xbe625d39	-0.22105874
26	0x3df051e5	0.1173437
27	0xbdfbe619	-0.12299747
28	0x3d2a420b	0.04156689
29	0xbe43ab68	-0.19108355
30	0x3df7a66f	0.120922916
31	0xbe3ac15c	-0.18237823
32	0x3dc357b6	0.09538214
33	0xbc982c4a	-0.018575806
34	0x3d04be7b	0.03240822
35	0xbd573f20	-0.052550435
36	0x3c7bcb41	0.015368284
37	0x3d493051	0.049118344
38	0x3da0fe79	0.07861037
39	0x3d504ff5	0.050857503
40	0xbe364808	-0.17800915
41	0xbdb89a74	-0.090138346
42	0x3e26177f	0.162199
43	0x3e16a2dd	0.14710565
44	0x3b5dea69	0.0033861643
45	0x3db0cf6d	0.08633313
46	0x3dda762d	0.106670715
47	0x3d13f78d	0.036124755
48	0xbd8d29c3	-0.06892731
49	0x3d612b65	0.054973025
50	0xbe06898e	-0.1313841
51	0x3dd2a915	0.10286156
52	0xbe471301	-0.19440843
53	0xbe4ef69d	-0.20211263
54	0x3c829ed9	0.015944885
55	0xbe2f4bf7	-0.17118822
56	0xbe1e2e3a	-0.15447322
57	0x3cb4fca9	0.022093134
58	0xbccec1d5	-0.02523891
59	0xbd3d2bb6	-0.046184264
60	0xbe1e3890	-0.15451264
61	0x3dcd182f	0.10014378
62	0x3e44b4aa	0.19209543
63	0xbcb9769e	-0.022639569
64	0x3e1a3c66	0.15062103
65	0xbd53c626	-0.05170264
66	0xbd65d854	-0.05611451
67	0xbddd7c7e	-0.108147606
68	0x3db0144a	0.0859762
69	0xbd968b44	-0.073507816
70	0xbd9b362d	-0.075786926
71	0x3d8d4179	0.068972535
72	0xbdeb00c5	-0.11474756
73	0xbcf55ccc	-0.029951476
74	0x3d8b35bf	0.06797361
75	0x3ca0de1c	0.01963716
76	0x3e0cacdc	0.13737816
77	0xbda8d1b6	-0.08243124
78	0xbdb18850	-0.08668578
79	0xbd77126a	-0.060320295
80	0xbda97b65	-0.08275489
81	0xbdcc0c91	-0.09963334
82	0x3cffc654	0.0312225
83	0x3db902c6	0.09033732
84	0xbdbba8de	-0.09163068
85	0x3ca16d46	0.019705426
86	0xbcac2352	-0.021012936
87	0x3d1171db	0.03550897
88	0xbc848835	-0.01617823
89	0x3c93532c	0.017983995
90	0x3d2007d8	0.03906998
91	0x3cba4b3c	0.022740953
92	0x3ddedb80	0.1088171
93	0x3da0905d	0.07840035
94	0xbce68c6a	-0.028143127
95	0x3dc9d83f	0.09855699
96	0xbc0394a4	-0.008031044
97	0xbd209f03	-0.039214145
98	0xbd24e962	-0.040261634
99	0x3dbc4e76	0.09194653
100	0xbd11abc5	-0.035564203
101	0xbb8599a5	-0.0040771537
102	0xbe2e5dcd	-0.1702797
103	0x3c4ea149	0.012611696
104	0xbd681f21	-0.05667031
105	0xbda4f9ea	-0.0805548
106	0xbcf45855	-0.029827276
107	0x3ceb003c	0.028686635
108	0x3cf4cb5e	0.02988213
109	0x3dea7a3d	0.11449096
110	0xbdb1e672	-0.08686532
111	0xbde8cfb4	-0.11367741
112	0x3d32da4d	0.04366522
113	0xbdfff0a6	-0.12497072
114	0xbe5d674a	-0.21621433
115	0xbdfab0f6	-0.12240784
116	0xbe0530b7	-0.13006864
117	0x3d10d22e	0.035356693
118	0xbca4c867	-0.02011509
119	0x3ded6ba4	0.115927964
120	0xbe03faa1	-0.12888576
121	0xbd3972ad	-0.04527538
122	0xbad85486	-0.0016504682
123	0xbc0792d0	-0.008274749
124	0x3d0fbbe1	0.035091285
125	0xbb5dd57f	-0.0033849177
126	0xbd456d45	-0.04819991
127	0xbe1ac07e	-0.15112492
128	0x3d7a09d8	0.061044544
129	0x3d5f2c71	0.054485742
130	0x3d1c8a9b	0.038218122
131	0x3d864a19	0.06557102
132	0xbe09774d	-0.13424416
133	0xbe2dd6e6	-0.16976508
134	0xbd127bce	-0.0357626
135	0x3d91bcf5	0.07116119
136	0xbdca82ed	-0.09888253
137	0xbd908ab1	-0.07057703
138	0x3b08ef69	0.0020894653
139	0x3dba6691	0.09101594
140	0x3d7ff31d	0.06248771
141	0x3d54d874	0.05196424
142	0xbbbff38b	-0.00585789
143	0x3da8a211	0.08234037
144	0x3a09e24f	0.0005259858
145	0xbce235db	-0.02761357
146	0xbd315a32	-0.043298908
147	0xbd1b66e1	-0.03793991
148	0x3e1971d6	0.14984831
149	0x3b0b0c2b	0.002121697
150	0xbdb4ddea	-0.08831389
151	0x3dee7005	0.1164246
152	0xbc15124c	-0.009098601
153	0x3dd81680	0.105511665
154	0xbb8cc30e	-0.0042957133
155	0xbc5b16ec	-0.013372164
156	0xbc46df03	-0.012138131
157	0x3dcaa948	0.09895569
158	0xbd40a88b	-0.047035735
159	0x3d86a87d	0.06575105
160	0x3da42be4	0.08016184
161	0x3e0c8dd3	0.13725977
162	0x3dbdc4e8	0.092660725
163	0x3dbb0901	0.09132577
164	0xbd3c1db8	-0.04592678
165	0xbdfe1c6a	-0.12407763
166	0xbe16c63b	-0.14724056
167	0xbdd0074f	-0.10157644
168	0x3c26d12b	0.0101817055
169	0x3d8c61f6	0.06854622
170	0x3cfade7c	0.030623667
171	0x3c2e27c2	0.010629596
172	0xbdc1b833	-0.09458961
173	0x3cf3c4c8	0.029756919
174	0x3d653860	0.055961967
175	0xbd5abbc0	-0.05340171
176	0xbc89cc16	-0.016820949
177	0xbdb98c1e	-0.09059928
178	0xbe2619a7	-0.16220723
179	0xbdadf479	-0.08493895
180	0xbdfd0720	-0.123548746
181	0xbd42eee5	-0.04759111
182	0x3cbbcf5d	0.022926027
183	0xbc3ff9fe	-0.011717318
184	0x3debcdbf	0.11513852
185	0x3ddc61cd	0.107608415
186	0xbdb6890e	-0.0891286
187	0xbd4de3e5	-0.050266165
188	0x3cf237c7	0.029567612
189	0xbe2bbb8b	-0.1677076
190	0x3d977815	0.07395951
191	0x3d1a7148	0.03770569
192	0xbd5c1e82	-0.053740032
193	0x3e07bab7	0.1325482
194	0xbd13e1dd	-0.036104072
195	0xbcaa79a1	-0.02080995
196	0xbd99e7f9	-0.075149484
197	0x3dbe1a20	0.09282327
198	0x3989ef36	0.00026308902
199	0x3df53ac0	0.11974096
200	0xbe4af18f	-0.1981871
201	0x3e0610ca	0.13092342
202	0xbe1451e3	-0.14484362
203	0x3ce9d5f8	0.028544411
204	0x3dd76e27	0.10519057
205	0xbd0c9aa7	-0.034327175
206	0x3d4a400c	0.049377486
207	0x3d6d55c9	0.05794314
208	0xbda382f8	-0.07983965
209	0x3cf7cf1e	0.030250128
210	0x3e2975ce	0.16548845
211	0x3d6b1148	0.057389528
212	0x3d1528a2	0.036415704
213	0xbde489c0	-0.11159086
214	0x3e308ffd	0.17242427
215	0x3ce7ad42	0.028280858
216	0x3e09ae1e	0.13445327
217	0x3c8fc9ad	0.017552221
218	0xbc58bd1f	-0.013228684
219	0x3cc0fea7	0.023558928
220	0xbd8235d6	-0.06357925
221	0x3d4a7af7	0.049433675
222	0xbdf8f102	-0.121553436
223	0xbd1a2018	-0.037628263
224	0x3d2e98f3	0.042626332
225	0x3b7cd92d	0.0038581595
226	0xbcbba694	-0.02290658
227	0xbcd99f8e	-0.02656534
228	0x3d3a3d08	0.04546836
229	0xbdddd5d4	-0.108318
230	0xbd25eab6	-0.04050704
231	0xbd3f3b30	-0.046687305
232	0xbddde7c4	-0.108352214
233	0x3e057768	0.13033831
234	0x3de9dcb3	0.11419048
235	0x3d6a446f	0.05719417
236	0xbd84c12f	-0.06482159
237	0x3dc46384	0.095892936
238	0xbc3e347f	-0.011609196
239	0x3d4b8211	0.049684588
240	0x3cf86a27	0.030324055
241	0xbd942ec1	-0.0723548
242	0xbccb7a13	-0.024838483
243	0xbd46772d	-0.0484535
244	0x3d03deeb	0.032195013
245	0x3db970b3	0.09054699
246	0x3d9efe76	0.07763378
247	0xbd22baa5	-0.03972878
248	0x3d064386	0.03277924
249	0xbcfd0b62	-0.030889217
250	0xbbf36647	-0.007427964
251	0x3e26e83e	0.16299531
252	0x3dc228c4	0.09480432
253	0xbe094940	-0.13406849
254	0x3dc2b9c6	0.0950809
255	0x3de6b652	0.112652436

a2c_network.actor_mlp.4.bias f4 [32]
0	0x3c61035c	0.013733711
1	0x3d902cad	0.07039771
2	0x3ce38ddc	0.027777605
3	0xba980a66	-0.0011599779
4	0xbdb8b1e0	-0.09018302
5	0x3d8d4de4	0.06899622
6	0xbce5c37b	-0.028047314
7	0xbd5a54b8	-0.05330345
8	0xbd0f586e	-0.034996442
9	0xbd7580e3	-0.05993737
10	0x3da98ef5	0.0827922
11	0xbde24479	-0.110482164
12	0xbdb11fc9	-0.08648641
13	0x3d6bfa18	0.057611555
14	0xbd0fd747	-0.035117414
15	0xbb05217a	-0.0020314143
16	0x3c925f27	0.017867638
17	0x3d2c57c4	0.042075887
18	0xbd4e4626	-0.050359868
19	0xbd9e9af2	-0.07744397
20	0xbd13a7e5	-0.03604879
21	0x3d62fcae	0.055416755
22	0xbdaa95ad	-0.0832933
23	0xbdb5f17d	-0.08883951
24	0xba4390e8	-0.00074602524
25	0x3d4998b8	0.04921791
26	0xbd145b53	-0.036219906
27	0xbd8bbe21	-0.068233736
28	0x3ccdd039	0.025123702
29	0x3dac16bb	0.08402773
30	0xbda6d00f	-0.08145153
31	0xbd210952	-0.03931553

a2c_network.value.weight f4 [1, 32]
0	0x3d8ddfdf	0.06927466
1	0x3ddc19c9	0.10747106
2	0x3ac5d8a2	0.0015094469
3	0x3c5c0138	0.013428025
4	0xbbdfe317	-0.006832491
5	0x3d4a4b9a	0.049388506
6	0xba26ee3b	-0.00063678966
7	0x3c7e0bb7	0.015505723
8	0xbd1188c1	-0.03553081
9	0xbc2b08f2	-0.010439144
10	0xbced4a0f	-0.028965978
11	0xbc22f72d	-0.009946627
12	0xbcd6340d	-0.026147867
13	0x3c09b39c	0.008404639
14	0x3bcfa3d5	0.006336669
15	0x3d35242d	0.044223953
16	0xbc84a962	-0.01619405
17	0x3d247015	0.040145952
18	0xbd4ce0a9	-0.05001894
19	0x3bc3d22a	0.0059759812
20	0x3c6b95af	0.014378949
21	0x3d263b8f	0.040584143
22	0x3d015afe	0.031580918
23	0xbdd775e1	-0.105205305
24	0x3c437e3e	0.011931954
25	0x3cf6f50d	0.030146146
26	0x3d068426	0.03284087
27	0xbd18f7e5	-0.037345786
28	0xbc9d2dc8	-0.01918687
29	0x3dd6f12c	0.10495219
30	0xbce58d3c	-0.028021447
31	0x3a53f853	0.00080860144

a2c_network.mu.weight f4 [7, 32]
0	0x3d7da43b	0.0619242
1	0xbdced6af	-0.100995414
2	0xbc2cb4f6	-0.010541191
3	0xbc98c57f	-0.018648861
4	0x3e096dbf	0.13420771
5	0xbde5bb25	-0.112173356
6	0xbae123e6	-0.0017176836
7	0x3d563441	0.052295927
8	0xbd850e80	-0.06496906
9	0x3e1409a5	0.14456804
10	0x3dad1693	0.08451571
11	0x3dc729d7	0.09724777
12	0xbdf82291	-0.12115968
13	0x3dee735f	0.11643099
14	0xbd94db84	-0.07268432
15	0xbda8debf	-0.082456104
16	0xbe407f2b	-0.1879851
17	0xbdb3d355	-0.08780543
18	0xbd9af1ea	-0.07565673
19	0xbe4237b7	-0.18966566
20	0x3e32f4ec	0.17476243
21	0xbdf6320b	-0.12021264
22	0xbdc7abad	-0.097495414
23	0x3dce6c97	0.100793056
24	0xbda4ca08	-0.08046347
25	0x3e098d26	0.1343275
26	0xbe56a1d7	-0.20960175
27	0xbe796458	-0.24354684
28	0xbe4bd25e	-0.19904467
29	0xbc8a8b14	-0.01691202
30	0x3cd02321	0.025407376
31	0x3de5598b	0.111987196
32	0x3dcfbd3f	0.10143518
33	0x3cc302d6	0.023805063
34	0xbe26e425	-0.16297968
35	0xbdb7697b	-0.08955666
36	0x3dc9f110	0.09860432
37	0xbc765df6	-0.0150370505
38	0xbe034ba9	-0.12821831
39	0xbc068419	-0.0082102055
40	0xbd99ec08	-0.075157225
41	0x3df9e3b5	0.12201635
42	0xbdd8e131	-0.10589827
43	0x3e460114	0.19336349
44	0x3db57b6a	0.0886143
45	0x3e1987f3	0.14993267
46	0x3da6a6c2	0.08137275
47	0x3dfd4e1d	0.123684146
48	0x3c7f66db	0.0155884875
49	0xbdf842fc	-0.12122151
50	0xbe145d96	-0.14488825
51	0x3e1e5082	0.15460399
52	0x3be5d423	0.007013814
53	0xbd2986ef	-0.04138845
54	0x3debb15f	0.1150844
55	0xbe1b9480	-0.15193367
56	0xbd97a9f8	-0.07405466
57	0x3c8ebd85	0.017424354
58	0x3be36e73	0.006940657
59	0xbcdc4464	-0.02688808
60	0xbe24aa33	-0.16080551
61	0x3de2deee	0.11077677
62	0x3db9abc8	0.09065968
63	0xbd54afb1	-0.051925365
64	0x3d798d73	0.060925912
65	0xbe6158ef	-0.22006582
66	0xbe25cb2b	-0.16190784
67	0xbe2cedc4	-0.16887575
68	0x3c576a97	0.013147972
69	0xbdd50bbb	-0.10402628
70	0x393b5f11	0.00017869125
71	0xbe14f8ea	-0.14548078
72	0x3c1dee5f	0.009639352
73	0xbe0f77e1	-0.14010574
74	0x3d3244a5	0.043522496
75	0x3d9a69f9	0.07539744
76	0xbd910bc6	-0.07082324
77	0x3c2e107c	0.010624047
78	0xbc2718b3	-0.01019876
79	0xbcc2eaa7	-0.023793532
80	0x3c7e67c1	0.015527667
81	0xbe22b5a7	-0.15889607
82	0xbc23709e	-0.0099755805
83	0xbe57dc0a	-0.21080032
84	0x3d4ab399	0.049487684
85	0xbdad1214	-0.08450714
86	0xbe51b1d0	-0.20477986
87	0xbd51915f	-0.051164027
88	0xbc514c6c	-0.012774568
89	0xbd9b01b6	-0.07568686
90	0x3d87e700	0.06635857
91	0x3d83bc61	0.06432415
92	0x3e860b0f	0.26180312
93	0x3de887ca	0.11354025
94	0x3bf691b8	0.0075246952
95	0x3d658efc	0.056044564
96	0x3e6e72d6	0.23285994
97	0x3d00eaa0	0.031473756
98	0xbe0491d6	-0.12946257
99	0x3e5258a6	0.20541629
100	0x3dddd8b2	0.10832347
101	0x3e25d255	0.16193517
102	0x3b154163	0.002277457
103	0x3e2817cb	0.16415326
104	0xbe4eb816	-0.2018741
105	0x3e94f64b	0.29094157
106	0x3d5f9666	0.05458679
107	0x3e34ca71	0.1765535
108	0xbc5db75f	-0.013532489
109	0x3e87bba2	0.2651034
110	0x3e864b6c	0.26229417
111	0xbe058882	-0.13040355
112	0xbdc7ad08	-0.097498
113	0xbda339d2	-0.07970013
114	0xbe1f551a	-0.15559807
115	0xbddb9fb6	-0.10723822
116	0x3e0d29ac	0.13785428
117	0xbeaa811c	-0.33301628
118	0x3cd11277	0.0255215
119	0xbdb2c584	-0.08729079
120	0x3e4daf6e	0.20086452
121	0x3d722026	0.05911269
122	0xbe0d0675	-0.13771994
123	0x3e1c4ca8	0.15263617
124	0x3d88ae0c	0.06673822
125	0x3e270120	0.16309023
126	0x3e9155f4	0.2838589
127	0x3ca08366	0.019593906
128	0xbe818d5f	-0.2530317
129	0x3da473c5	0.08029894
130	0xbc8467a9	-0.01616271
131	0x3da4a0df	0.08038496
132	0x3e507406	0.2035676
133	0xbdc86d50	-0.09786475
134	0xba5736e8	-0.0008209781
135	0x3e253f2b	0.16137378
136	0xbdc19eb1	-0.09454096
137	0xbcc463ae	-0.023973312
138	0x3e5e6f3b	0.21722119
139	0x3c018beb	0.007906894
140	0xbdc6d2cc	-0.09708175
141	0x3dfc6a29	0.12324936
142	0xbe2dc765	-0.16970594
143	0xbdea92d2	-0.11453785
144	0xbe318fe5	-0.17340048
145	0xbdcbd980	-0.09953594
146	0x3e16032a	0.14649644
147	0xbd93c77e	-0.072157845
148	0xbd984415	-0.074348606
149	0x3d8bf39a	0.06833573
150	0x3b19e79b	0.0023483995
151	0x3e2e2efb	0.17010109
152	0xbc759f08	-0.014991529
153	0xbc50111c	-0.012699392
154	0xbe493429	-0.19648804
155	0xbe335cee	-0.17515919
156	0xbe376cde	-0.17912623
157	0xbd826203	-0.063663505
158	0x3e8973dc	0.26846206
159	0x3dfbff42	0.12304546
160	0x3e5639bb	0.2092046
161	0xbbf19e9e	-0.007373645
162	0x3df65dbb	0.120295964
163	0x3d4a14fd	0.049336422
164	0x3d332e8f	0.043745574
165	0xbdd0dd95	-0.101985134
166	0x3e3aa39d	0.18226476
167	0x3e113370	0.14179778
168	0xbcef5924	-0.02921731
169	0x3d0f7fb4	0.035033897
170	0xbe16940d	-0.14704914
171	0x3d030ea0	0.03199637
172	0xbca84c59	-0.020544218
173	0xbdb47568	-0.08811456
174	0x3cd5cef8	0.026099667
175	0x3d71b7b6	0.05901309
176	0xbdb36371	-0.08759201
177	0x3e4e85be	0.20168206
178	0xbcfeb707	-0.031093134
179	0x3dcc4354	0.09973779
180	0x3d9c0ca0	0.076195955
181	0xbd34baa7	-0.044123318
182	0x3db9706c	0.09054646
183	0x3d303d4d	0.04302721
184	0x3e44638b	0.19178598
185	0x3d3a79a7	0.045526173
186	0xbdc4f83c	-0.096176594
187	0x3d8cd9a7	0.068774514
188	0xbdd33292	-0.1031238
189	0x3d2ef1a6	0.042710923
190	0xbb818a00	-0.0039532185
191	0x3d80efcd	0.06295738
192	0xbd2dc852	-0.04242737
193	0xbda85e11	-0.08221067
194	0xbc9e943e	-0.019357797
195	0xbd68e9be	-0.05686354
196	0xbd56e53c	-0.05246471
197	0xbca71eb5	-0.020400384
198	0xbd7e004b	-0.062012
199	0x3de48653	0.11158433
200	0x3de789b2	0.1130556
201	0xbdb7d111	-0.08975423
202	0x3df71349	0.12064225
203	0xbdc920f0	-0.098207355
204	0x3de644ad	0.112435676
205	0xbd5cf1a3	-0.05394138
206	0x3d01e250	0.03170997
207	0x3d3e6e06	0.046491645
208	0x3cbae996	0.02281646
209	0xbe0736bf	-0.13204478
210	0x3e440280	0.19141579
211	0xbc3fd093	-0.011707443
212	0xbd3edb15	-0.04659565
213	0x3d82e7d5	0.06391875
214	0xbe17374c	-0.14767188
215	0xbd99cda7	-0.07509928
216	0xbdb22031	-0.08697546
217	0xbe4ee817	-0.20205723
218	0x3dc01318	0.09378642
219	0x3e3eb282	0.18622783
220	0x3ea75a14	0.32685912
221	0x3da28c29	0.0793689
222	0xbc26fc5d	-0.010192004
223	0xbe09f5bb	-0.13472645

a2c_network.mu.bias f4 [7]
0	0x3d021231	0.03175563
1	0xbe130ee2	-0.14361146
2	0x3cc7c807	0.024387373
3	0xbd581b32	-0.05276031
4	0x3c3322d9	0.010933601
5	0xbd79931e	-0.060931318
6	0x3de7ef64	0.11324957

exp_avg f4 [7]
0	0x3bf00f4b	0.007326042
1	0x3cacb3e3	0.02108187
2	0x3c001fac	0.007820051
3	0xbb9a35de	-0.0047061285
4	0x3bf52181	0.0074808006
5	0x3b14be12	0.0022696299
6	0xbc10b9b4	-0.008833338

exp_avg_sq f4 [7]
0	0x3a37a621	0.0007005651
1	0x3a4ff722	0.0007933249
2	0x3a0a6caa	0.00052804744
3	0x3a52386a	0.00080192706
4	0x3a1b2288	0.00059179263
5	0x3a315fd0	0.00067662913
6	0x3a317c1a	0.0006770507

exp_avg f4 [128, 18]
0	0xba7e1778	-0.0009692828
1	0x3a866ca0	0.0010255761
2	0xb99073ee	-0.00027552195
3	0xba7e87e0	-0.0009709578
4	0xbac33c66	-0.001489532
5	0xb9e66cf3	-0.00043950192
6	0xba3739ac	-0.000698949
7	0xb9b7bf62	-0.0003504707
8	0xba32a5f9	-0.0006814893
9	0xba009c35	-0.0004906089
10	0xba94ad68	-0.0011343183
11	0xba9b3bd4	-0.0011843392
12	0x3a850d11	0.0010150989
13	0xbadd700a	-0.0016894352
14	0x3aa164bf	0.001231335
15	0xb9bbaa64	-0.0003579437
16	0xb9289405	-0.0001607687
17	0x3a317c7a	0.00067705626
18	0xba37fccc	-0.00070185657
19	0x3a90553a	0.0011011728
20	0xb9bab976	-0.00035614864
21	0xb9bc1df0	-0.0003588046
22	0xb9ad1984	-0.00033016142
23	0x39f2c817	0.00046306915
24	0xba730b13	-0.00092713645
25	0xba41a927	-0.00073875714
26	0x390d625e	0.00013483452
27	0x3a28a8e9	0.0006433861
28	0xb9815990	-0.00024671527
29	0xba8dde37	-0.0010823671
30	0xb6fa3dfe	-7.4577974e-06
31	0xba109168	-0.0005514831
32	0x38bdcd3a	9.050449e-05
33	0x39c63c12	0.0003781026
34	0x389bc7b2	7.428172e-05
35	0xb9193103	-0.00014609475
36	0xba6131ee	-0.0008590509
37	0xbad1b044	-0.0015997966
38	0xba5930c2	-0.00082851585
39	0xbae8bed1	-0.0017757063
40	0xba29ed84	-0.0006482231
41	0x38cd5248	9.790488e-05
42	0xbaf629ba	-0.0018780746
43	0x3b113243	0.0022155202
44	0xba4abf2c	-0.00077341753
45	0x3a5e0820	0.00084698386
46	0x3ad34b84	0.0016120528
47	0xbadbcfba	-0.0016770281
48	0x3a937cbc	0.0011252384
49	0xbb24b0a7	-0.0025129707
50	0x3a462cfc	0.0007559804
51	0xbaa1aa6f	-0.0012334118
52	0xba4abd6f	-0.0007733916
53	0x3a2d16a6	0.0006602801
54	0x3a68b2d1	0.00088767434
55	0xb9eff04e	-0.00045764673
56	0x38b889a7	8.7994435e-05
57	0x3a807dcd	0.0009803117
58	0x3aacf154	0.001319448
59	0x398f598d	0.00027341806
60	0x38f99e76	0.00011902761
61	0x3ab951f3	0.0014138803
62	0x3a8080b8	0.0009803986
63	0xb825d7b8	-3.953997e-05
64	0x3abeace9	0.0014547381
65	0x3ae5a532	0.0017520546
66	0x3a1434db	0.0005653628
67	0xb93aceea	-0.00017815424
68	0xba829906	-0.0009963817
69	0xb9206e67	-0.00015299917
70	0x39caec25	0.00038704384
71	0xba325642	-0.00068030145
72	0x3a7036b4	0.0009163425
73	0xba190d83	-0.00058385
74	0x39ac0afa	0.00032814575
75	0x3a7e71e7	0.0009706304
76	0x3ac24a03	0.0014823083
77	0xb9e15b33	-0.00042983293
78	0x3b1b34ab	0.0023682516
79	0x3980b033	0.0002454534
80	0x39fc878f	0.00048166185
81	0xba4753a3	-0.00076037104
82	0x3913c8e4	0.0001409385
83	0x3b435d95	0.0029810418
84	0xbac5c267	-0.0015087844
85	0x3972b553	0.00023146467
86	0xba70f85c	-0.0009192282
87	0x39178f37	0.00014453834
88	0x39a2cc7d	0.00031051403
89	0xb9d683b9	-0.00040915402
90	0xba091d7f	-0.00052305305
91	0xbad9ab53	-0.0016606845
92	0xbaad9bbd	-0.0013245266
93	0xba50b30f	-0.0007961252
94	0xb94eb4c2	-0.00019713028
95	0xba6de7ba	-0.00090753625
96	0xbb1d00d6	-0.0023956797
97	0x3b6e1671	0.0036329294
98	0xb90d583d	-0.00013479679
99	0x392d179e	0.00016507364
100	0x3b884aed	0.0041593225
101	0xbabdf88d	-0.001449363
102	0x3a4af0a6	0.0007741548
103	0xba66e070	-0.00088072475
104	0x3a397aed	0.00070755073
105	0xbafd792e	-0.0019338483
106	0x38c928c3	9.592019e-05
107	0xb80e03c8	-3.385896e-05
108	0xb9c1ab3a	-0.00036939402
109	0xb9154000	-0.00014233589
110	0xba8776f5	-0.0010335135
111	0xb958fb2a	-0.00020692931
112	0xb941e5aa	-0.00018491471
113	0xb9ee4c92	-0.00045451947
114	0xbb13c2cb	-0.0022546526
115	0x3ad7b6de	0.0016457697
116	0x38cf0672	9.87173e-05
117	0x39820054	0.00024795777
118	0x3b16ae6b	0.0022992145
119	0xbab459ac	-0.0013759634
120	0x39103b84	0.00013755081
121	0xb9aef950	-0.00033373618
122	0x3a1b712d	0.0005929645
123	0xba72d755	-0.00092636544
124	0x3a1d5a1b	0.00060025015
125	0xb9186124	-0.00014532037
126	0x39d4345c	0.00040474802
127	0xba431578	-0.0007441859
128	0xb8fcc211	-0.00012052444
129	0x3a119381	0.0005553291
130	0x39a187f7	0.00030809615
131	0xb9f9b27b	-0.0004762596
132	0xb95f8eaf	-0.00021320091
133	0x39c67687	0.00037853813
134	0x39fa17c2	0.00047701417
135	0xba325bf5	-0.0006803864
136	0x3a56d4b3	0.0008195147
137	0x3a7e7850	0.0009707259
138	0xb9dabf3e	-0.00041722687
139	0x3a39fda7	0.0007094987
140	0xba43452c	-0.0007448967
141	0xb8ae3d6c	-8.308407e-05
142	0xb92c1f5d	-0.00016414882
143	0x39ae4d3b	0.00033245407
144	0x3971c73a	0.00023057769
145	0x3a356412	0.00069195137
146	0xb924d778	-0.00015720527
147	0x3a48a56d	0.0007654045
148	0x38ef6819	0.00011415798
149	0xb9ab0975	-0.00032622708
150	0xb8b50cba	-8.633123e-05
151	0xb76af125	-1.4003633e-05
152	0x3a812078	0.0009851595
153	0xba986f9f	-0.0011629945
154	0x3a343187	0.0006873835
155	0x3a52b8cc	0.0008038401
156	0xb92e204c	-0.00016605965
157	0x3ac02ada	0.0014661208
158	0xb98928da	-0.00026161113
159	0x391f1dc4	0.0001517451
160	0x38bbbbda	8.951845e-05
161	0x379c6886	1.8645322e-05
162	0x39976454	0.00028875715
163	0x39f55d27	0.00046799445
164	0x38b63678	8.688582e-05
165	0x39ee81e8	0.00045491685
166	0x39765cfd	0.00023495029
167	0x395062a1	0.00019873168
168	0xb802f9cd	-3.122706e-05
169	0xba14a83a	-0.00056708197
170	0x396b93a5	0.00022466348
171	0x39ca3804	0.00038570177
172	0xb9b7affb	-0.00035035596
173	0xb8cdfd5e	-9.822355e-05
174	0xb942da25	-0.00018582547
175	0x3a00561e	0.0004895645
176	0xb8ffa83d	-0.00012190684
177	0x39f144ca	0.00046018354
178	0x39af703d	0.00033462225
179	0xb8a228a4	-7.732332e-05
180	0x383865cb	4.396382e-05
181	0xba7bb1f2	-0.0009601406
182	0xb91b1e74	-0.00014793297
183	0xba68a0cc	-0.0008874058
184	0xba371e25	-0.0006985388
185	0x39740ce1	0.00023274451
186	0xb9054d1c	-0.00012712594
187	0x3a39301e	0.000706436
188	0xba851722	-0.0010153989
189	0x3a99d576	0.001173659
190	0x388deec3	6.767877e-05
191	0xbafd13de	-0.0019308289
192	0x3a3e74a2	0.00072653044
193	0x38399bfe	4.4252716e-05
194	0x3a26ff1f	0.00063704135
195	0x3952c6a8	0.00020101166
196	0xb9cef410	-0.00039473223
197	0x3a6a6e2b	0.0008942808
198	0xba59a845	-0.0008302967
199	0x3b15c9dc	0.0022855913
200	0x3a26e60b	0.00063666765
201	0xb857cf85	-5.1453262e-05
202	0xbac7c7c4	-0.001524203
203	0xb90fb65c	-0.00013705477
204	0x395c85a0	0.00021030614
205	0xbb5d5b43	-0.003377632
206	0x38336de1	4.277926e-05
207	0xbaa26814	-0.0012390637
208	0xbb525755	-0.003209551
209	0x39a87197	0.00032128088
210	0xba0d1e7b	-0.0005383265
211	0x3a11f32b	0.0005567546
212	0x3702340e	7.760724e-06
213	0x3aadf8f2	0.0013273044
214	0xb9ee427a	-0.00045444426
215	0x39fec415	0.00048592748
216	0x3a4e8e05	0.0007879439
217	0xbab232ff	-0.001359552
218	0xb8db2fd3	-0.00010451642
219	0x3a2d5c36	0.0006613167
220	0x3b0a57b5	0.0021109406
221	0xba174a37	-0.0005771252
222	0x3ab2e2a2	0.0013647864
223	0x3b21352f	0.002459835
224	0x39854d19	0.0002542518
225	0xba623be0	-0.0008630138
226	0x3b179997	0.0023132318
227	0x3b28fd27	0.0025785656
228	0xba59fac6	-0.0008315261
229	0xba98d008	-0.0011658678
230	0xb8de93cb	-0.000106133135
231	0xbaf0ebed	-0.0018380858
232	0x3a4cf6a9	0.00078187376
233	0xbac0ea25	-0.0014718218
234	0xb8d8a809	-0.000103309816
235	0xb9fe1d1b	-0.0004846834
236	0x38cc3913	9.738109e-05
237	0x399b34da	0.0002960328
238	0x3a8ed10b	0.001089604
239	0x3a34dcd2	0.000689936
240	0xba86cc3b	-0.0010284254
241	0x3a3334c3	0.000683617
242	0x3a4692f1	0.00075749966
243	0x395d70e4	0.00021118257
244	0x3ae03b95	0.00171076
245	0x399c701d	0.0002983817
246	0x3969059d	0.00022222703
247	0xb9495baa	-0.00019203001
248	0xba6c3646	-0.0009010773
249	0xb9b753d0	-0.00034966925
250	0x39057826	0.00012728627
251	0xba993627	-0.0011689112
252	0xba45b9e7	-0.0007542655
253	0xbab14a68	-0.0013526203
254	0xbaaee2bb	-0.0013342717
255	0xbac704eb	-0.0015183961

exp_avg_sq f4 [128, 18]
0	0x3685ec68	3.99123e-06
1	0x36071873	2.01308e-06
2	0x369a2780	4.594156e-06
3	0x369aca8a	4.6131363e-06
4	0x36459481	2.9441728e-06
5	0x3637e1da	2.7400588e-06
6	0x361c5902	2.329762e-06
7	0x367555ea	3.6557853e-06
8	0x36428b5d	2.8989373e-06
9	0x3682773f	3.888184e-06
10	0x363a044d	2.7718663e-06
11	0x364049d1	2.8653196e-06
12	0x363aead3	2.7852846e-06
13	0x36b05417	5.254998e-06
14	0x35eaaf30	1.7485345e-06
15	0x36318a2d	2.6455484e-06
16	0x36513203	3.1172538e-06
17	0x36675af0	3.4474615e-06
18	0x377b99f1	1.4996608e-05
19	0x3717f0b5	9.056345e-06
20	0x376a9550	1.3982251e-05
21	0x375cd9be	1.3163719e-05
22	0x37263ec7	9.9089875e-06
23	0x371859cc	9.0808135e-06
24	0x36dad61a	6.521831e-06
25	0x3758a666	1.2913346e-05
26	0x371eaff7	9.458504e-06
27	0x3754d8b5	1.2686641e-05
28	0x3755c4c6	1.2741604e-05
29	0x3752b989	1.2560174e-05
30	0x37527842	1.2544975e-05
31	0x37316f63	1.0575956e-05
32	0x36c8fb06	5.9896875e-06
33	0x3735bd52	1.083252e-05
34	0x3737e3c0	1.0960677e-05
35	0x3750d9bc	1.2448461e-05
36	0x36f2d594	7.237026e-06
37	0x36cf581c	6.179338e-06
38	0x37016acd	7.713866e-06
39	0x36bf0e94	5.6939407e-06
40	0x36bd0d3a	5.6341787e-06
41	0x3669ec41	3.4857223e-06
42	0x364cca29	3.0516042e-06
43	0x36ff29b0	7.6044453e-06
44	0x36bb1719	5.575723e-06
45	0x36e7331d	6.890287e-06
46	0x36cb12b1	6.0520474e-06
47	0x37048cc4	7.900588e-06
48	0x36dd279d	6.590925e-06
49	0x36dc6418	6.5681634e-06
50	0x3656fd5d	3.2035962e-06
51	0x36cdd40f	6.134163e-06
52	0x36d1cd80	6.2526087e-06
53	0x36ef9060	7.1395625e-06
54	0x36949abf	4.4287585e-06
55	0x35bf63ef	1.4259693e-06
56	0x36901c34	4.2948177e-06
57	0x3683bbe5	3.925978e-06
58	0x36605a71	3.3431245e-06
59	0x3620eba3	2.3979017e-06
60	0x35d04334	1.5516766e-06
61	0x365ec718	3.3196466e-06
62	0x36787172	3.7020914e-06
63	0x36587d28	3.2259359e-06
64	0x3631bbfd	2.648448e-06
65	0x36411779	2.8772904e-06
66	0x365ea10f	3.3174326e-06
67	0x3687c7b4	4.046562e-06
68	0x35aca785	1.2863753e-06
69	0x368a156e	4.1152152e-06
70	0x36406fda	2.8675336e-06
71	0x366dfb65	3.5462083e-06
72	0x371350f8	8.780735e-06
73	0x36b91d19	5.516817e-06
74	0x36fcbd70	7.5322387e-06
75	0x371bce09	9.286691e-06
76	0x37262d03	9.904851e-06
77	0x36beba2c	5.6841145e-06
78	0x368634d0	3.9996594e-06
79	0x3721d3e4	9.645682e-06
80	0x36cd8328	6.1247447e-06
81	0x3720d376	9.585978e-06
82	0x373320ed	1.0676898e-05
83	0x3711fe43	8.701873e-06
84	0x3727e498	1.0007199e-05
85	0x374d92f0	1.2253164e-05
86	0x36a14039	4.8056504e-06
87	0x36c5815f	5.8861183e-06
88	0x370b7e35	8.3144305e-06
89	0x36f4a58c	7.291039e-06
90	0x36dac5e6	6.5199447e-06
91	0x367c88c2	3.763053e-06
92	0x36a7309a	4.982646e-06
93	0x36e94be6	6.952777e-06
94	0x37129ccb	8.738784e-06
95	0x36b19368	5.2921714e-06
96	0x36a5988a	4.935141e-06
97	0x36f6bb12	7.353149e-06
98	0x36b04df3	5.254283e-06
99	0x370a182b	8.231068e-06
100	0x3701042a	7.689969e-06
101	0x37032c0b	7.818463e-06
102	0x36f23818	7.218692e-06
103	0x3716a387	8.978771e-06
104	0x36815e8c	3.8555063e-06
105	0x3682e873	3.9013626e-06
106	0x37102156	8.5908305e-06
107	0x36d50647	6.3486254e-06
108	0x372e23c2	1.0379534e-05
109	0x36ae0641	5.186332e-06
110	0x370c328b	8.356418e-06
111	0x373323ac	1.0677537e-05
112	0x3719e07c	9.1717775e-06
113	0x36d6e18f	6.4039555e-06
114	0x36feab69	7.5897447e-06
115	0x37270fcb	9.957653e-06
116	0x36f7810e	7.3761976e-06
117	0x3721174a	9.60177e-06
118	0x3706a730	8.025949e-06
119	0x3712b712	8.7449025e-06
120	0x3714da73	8.872349e-06
121	0x3749269e	1.1989525e-05
122	0x368054e3	3.8245794e-06
123	0x36dfce03	6.669901e-06
124	0x37289694	1.00486395e-05
125	0x3711bbf7	8.6864375e-06
126	0x3676c986	3.6774159e-06
127	0x36a61e5c	4.95072e-06
128	0x36841449	3.936268e-06
129	0x36ac9e47	5.1444254e-06
130	0x3689e4f5	4.1095723e-06
131	0x362fbd53	2.6187233e-06
132	0x362b901f	2.5564875e-06
133	0x36f631d0	7.3371702e-06
134	0x36b48b78	5.3806543e-06
135	0x36d7e661	6.434319e-06
136	0x36e1e7b5	6.732497e-06
137	0x36d28d1d	6.2749154e-06
138	0x36ddcd0d	6.6101843e-06
139	0x36bafb4d	5.572487e-06
140	0x3659b075	3.2438231e-06
141	0x367ea052	3.7942268e-06
142	0x36b09a58	5.2631767e-06
143	0x3685d5fd	3.9886204e-06
144	0x36705749	3.5813594e-06
145	0x360f57d9	2.1359795e-06
146	0x3651dfcc	3.1273694e-06
147	0x36884367	4.0609625e-06
148	0x369d47c6	4.68732e-06
149	0x3669e659	3.4853786e-06
150	0x361e04f8	2.3546727e-06
151	0x36b113b3	5.2773044e-06
152	0x364d5468	3.0596511e-06
153	0x368afe32	4.1423127e-06
154	0x369403cd	4.411186e-06
155	0x36920c5d	4.3525783e-06
156	0x3692dce1	4.3768528e-06
157	0x36bc1c34	5.60612e-06
158	0x362abd88	2.5442296e-06
159	0x3657134b	3.2048727e-06
160	0x3691e28b	4.34771e-06
161	0x36449414	2.9292469e-06
162	0x36588ba9	3.22678e-06
163	0x35d4965f	1.5838995e-06
164	0x36494bf4	2.9995545e-06
165	0x36511256	3.11541e-06
166	0x362da49e	2.5874829e-06
167	0x3609a737	2.0511923e-06
168	0x35b773b2	1.3668234e-06
169	0x36581644	3.2199468e-06
170	0x35c1c8e4	1.4438087e-06
171	0x3635e4ad	2.7104209e-06
172	0x361cd704	2.3370967e-06
173	0x360d268a	2.103307e-06
174	0x360f78a7	2.137889e-06
175	0x365563e4	3.1797617e-06
176	0x35c46f34	1.4635502e-06
177	0x36124b80	2.1799642e-06
178	0x36230f6e	2.4297874e-06
179	0x3619a619	2.2895458e-06
180	0x36d00ac2	6.2001354e-06
181	0x366daab1	3.5415108e-06
182	0x36ae587c	5.195905e-06
183	0x36cf8fa8	6.1858045e-06
184	0x36af8047	5.23034e-06
185	0x368d4cf7	4.2110873e-06
186	0x3655fcf7	3.1886718e-06
187	0x36d4b35d	6.338973e-06
188	0x36d0b00c	6.2193776e-06
189	0x36f219a7	7.2151483e-06
190	0x36c0465b	5.7302364e-06
191	0x36a02957	4.773184e-06
192	0x36a66f38	4.960133e-06
193	0x36a0e01e	4.7944623e-06
194	0x3658fe5f	3.2334572e-06
195	0x3706d41b	8.036407e-06
196	0x36aefc53	5.2149785e-06
197	0x36b83e61	5.490889e-06
198	0x36a77bd1	4.991402e-06
199	0x3656fc26	3.2035255e-06
200	0x366f0461	3.5616324e-06
201	0x3694d27e	4.4352482e-06
202	0x3658433c	3.2225644e-06
203	0x365b80ea	3.270858e-06
204	0x363cc185	2.8126826e-06
205	0x36a48015	4.9024916e-06
206	0x365b63f9	3.2691735e-06
207	0x368c1457	4.174693e-06
208	0x3692cccd	4.374981e-06
209	0x36845f12	3.944974e-06
210	0x36971250	4.5022825e-06
211	0x3682221a	3.878272e-06
212	0x36623b0d	3.3710996e-06
213	0x3680d749	3.8397598e-06
214	0x369762f3	4.51167e-06
215	0x366c2357	3.518731e-06
216	0x37236246	9.738438e-06
217	0x3686e93a	4.0206623e-06
218	0x36e1a967	6.7252436e-06
219	0x37019751	7.72423e-06
220	0x372eff08	1.0430587e-05
221	0x36d12573	6.233045e-06
222	0x368093a3	3.8318844e-06
223	0x37055b0c	7.948616e-06
224	0x36b643db	5.431922e-06
225	0x37029379	7.78294e-06
226	0x3706eb81	8.041855e-06
227	0x36ff5dc8	7.61051e-06
228	0x36fe0529	7.5703906e-06
229	0x370a6934	8.2499355e-06
230	0x36c09345	5.7391903e-06
231	0x36cdce5c	6.1334995e-06
232	0x372073b8	9.563686e-06
233	0x36ddde2a	6.6121765e-06
234	0x36ee0af8	7.0942297e-06
235	0x3661834a	3.3604033e-06
236	0x36e702fd	6.8846844e-06
237	0x36d44a8e	6.3267717e-06
238	0x36dba516	6.545927e-06
239	0x36957ccb	4.455074e-06
240	0x36875d83	4.0341997e-06
241	0x371b0e30	9.242023e-06
242	0x36c56ad7	5.8834953e-06
243	0x37128f25	8.735607e-06
244	0x36e07832	6.689713e-06
245	0x370f3fdf	8.538335e-06
246	0x36fae05e	7.4767004e-06
247	0x370a6a29	8.250158e-06
248	0x362dd550	2.5903173e-06
249	0x36c9515b	5.999738e-06
250	0x36b393dc	5.351829e-06
251	0x37046060	7.890252e-06
252	0x37149caa	8.857964e-06
253	0x36fd1858	7.5428215e-06
254	0x3709c04b	8.210608e-06
255	0x372ac3f9	1.0178418e-05
