runs/BallBalance_11-14-58-03/nn/BallBalance.pth (torch, 172255 bytes, 36 tensors)

value_mean_std.running_mean f8 [1]
00000000: 5253 ee3d 3818 c43f
0.15698912643406487

value_mean_std.running_var f8 [1]
00000000: a471 484e b8d2 7a3f
0.006548614449027577

value_mean_std.count f8 []
00000000: 0000 0000 0084 9c40
1825.0

running_mean_std.running_mean f8 [18]
00000000: bfdf c2c1 0583 c6bf 87a8 b7c1 7310 c33f
00000010: 405c c771 92a9 b2bf d7ad 54b2 92e6 c5bf
00000020: 407a 8cdb 8f4c a73f 396c 9e9b adaf 743f
00000030: f9d3 4cce f871 b4bf 436a b519 1f2d e4bf
00000040: 4700 8f32 951e e43f 7177 f6c1 eed5 d8bf
00000050: 2fba e8c2 efe8 dabf d2f2 be67 6322 ac3f
00000060: d6a6 5d92 a300 bdbf 19d5 8898 4abd bbbf
00000070: ba06 683d 9d6f c03f 5a6d da25 22d1 c23f
00000080: 998d 175c da0c d1bf 038f e258 8256 b53f
-0.17587348900792496 0.1489395805249993 -0.07289996412087962 -0.17109903056676387 0.04550599627531371 0.0050503522451448785 -0.07986407314895407 -0.6305079939005015
0.6287332522842995 -0.3880574125449732 -0.42046731981364166 0.05494986192159036 -0.11329099963554809 -0.10835710739123207 0.1284061956248957 0.14700724457075404
-0.26640948289260674 0.08335127515834632

running_mean_std.running_var f8 [18]
00000000: 0b01 8f7c 5433 b73f 77bf ff3c 43c7 a63f
00000010: c179 b1eb c45d c03f 8f79 709c a8d1 c13f
00000020: 5120 662f cdd5 a33f d661 2d7e ca38 893f
00000030: 4d71 d85a fb68 7e3f 7ebe 6f3d 81a8 f73f
00000040: 01c0 0d7b 8c87 e43f bb2a 4782 7d5e 0c40
00000050: c5f9 c191 2e26 0b40 b4ed 5672 9dad e63f
00000060: bd95 32f1 e09b ef3f 38bd b2ee d424 f53f
00000070: 08b6 0ec8 4830 7b3f 014f e5b3 acfa 793f
00000080: 74fb 941c 77b1 c03f 4be5 9bc7 330d c93f
0.0906269840334099 0.04448900336853872 0.1278616095396057 0.1392107738365209 0.03874055102920749 0.012315351462960072 0.007424337248746871 1.4786388778556154
0.6415464785950463 3.546137826725809 3.3936435115167307 0.7086932404703732 0.9877781592264722 1.321492130675166 0.006637844374308262 0.006342577571860409
0.1304158105430947 0.19571540113956085

running_mean_std.count f8 []
00000000: 0000 0000 0088 8c40
913.0

a2c_network.sigma f4 [7]
00000000: 2d05 16be 6995 cfbc 4269 16be c658 b33d
00000010: 89c0 babd e477 d8bd 7057 95bd
-0.14650412 -0.025339799 -0.1468859 0.087571666 -0.091187544 -0.10569742 -0.07292068

a2c_network.actor_mlp.0.weight f4 [128, 18]
00000000: 85b5 f9bd 10fc 3a3d 850c 4abe ef87 f9bc
00000010: 2a0f a73d 1844 c23d 900a 30be b673 77be
00000020: f720 acbd 2499 4dbe 8cf1 e03d d363 3bbe
00000030: c34e 9b3d cc35 a9bd 792a 403e 1fe8 04bd
00000040: 0d0a 58be 825e 083e d345 443d fe6c 6c3e
00000050: d8ab 0a3e 08cb babd 9d13 9d3d 6108 4abc
00000060: 32c8 ad3d 4ef0 5d3e bb93 703d b22b 68bd
00000070: 5450 c73d fc65 ccbc f320 103e f53b 93be
00000080: 6747 58be bc68 3dbe 90cc 36bd f35a 9d3d
00000090: 86b9 573d 7444 e13d e0db 133e 9932 92bd
000000a0: 135d 543e 86f8 0fbe dcc7 0b3e 934d 01be
000000b0: ae62 933d 536e 8bbd c822 9c3d f104 06be
000000c0: 6573 053e dbdd 5dbe 46b4 68be 4022 8fbe
000000d0: 6e93 673e 1ec5 b3bc ef13 a23e 4a19 63be
000000e0: 17e3 77be 26e6 4ebe 371e adbd 44df 2f3e
000000f0: 0314 273e e064 603e 8ad5 3cbe 446e b3bd
00000100: 7fab 413d f23f c5bd 4ea8 9f3d 7e4c e53b
00000110: 46a9 193e 4274 dcbd bc2f 70bd 9f7b 92bb
00000120: fcac 943d ceea 1dbe da78 0f3e 7e23 f03d
00000130: 57b5 0abe 4d0e 48be f57e 863e f86f 4c3a
00000140: 4ad7 16be 4f64 10be 1fe6 70be 15d1 fa3d
00000150: 669d 17bd ad4b 0dbe 4ff3 8cbd e907 76be
00000160: 21bc cfbd 56bd 5bbe 1d34 80be 97f9 aebd
00000170: 70c8 463e 3569 253d 303b 9c3d 3edb 79be
00000180: ebfa 58be a293 eebd 125b ce3c 1e20 5ebe
00000190: f6d3 afbd 4819 cbbd 6854 21be f3a8 0cbe
000001a0: 2f27 e9bd a684 e5bd afef 7bbe 2023 08be
000001b0: a2df 4f3c 0f6c 9cbe a03a 6d3e e961 efbd
000001c0: d7b6 4c3e 5a9c 0f3d 74dd 97bc 63a0 993e
000001d0: 9d8b 26bd 4306 a2bd 2868 4cbe 56b4 87be
000001e0: 599a 833c 1145 7bbd 448b 5dbd f7da 2abe
000001f0: 0013 543e 9e6c 31be 9b0a 10bd 4f59 76bc
00000200: b6db 133e 1e6d 173e 42fb 863e fdf9 39be
00000210: 484a e93d efe9 44be eb66 1ebd 16bc abbd
00000220: d5c8 553e 36f5 4bbe 0f5c 4a3d 79f5 003d
00000230: 21c2 6e3b 1c01 0abe 4cdf 2d3e 3cb3 19bc
00000240: 83c1 f4bb fd7a 4cbe 33a5 c33d a471 abbd
00000250: 5151 ecbd dd36 1c3e 64cf 1e3e aa55 05be
00000260: d51d a5bd 4244 903a efc5 283e d94a 09bd
00000270: 2108 81be 5688 0bbe 15d3 81be dc70 863d
00000280: cec5 5c3e f9a7 5dbe 5f2a 013e 7d79 913d
00000290: 5144 8b3d bfbf 853b c21d 4f3d 0af3 173e
000002a0: 08ef 903d 41b8 27bd 1e1c ffbd b903 a93d
000002b0: b310 8b3c b23d 0dbe b880 2e3e af0f 283e
000002c0: 2f64 f63d d30f fd3d 22ee 5cbc 0886 603d
000002d0: bbc2 483e 9ebb 52bc 9c09 59be 0f16 d8bc
000002e0: 17c4 923e 4b27 203e bf63 3b3c 7534 e3bd
000002f0: cc70 5bbe f0d2 20be 03be 35be 17c5 083e
00000300: 3883 c53d 236a 0a3e a0f5 40be 3ccf 88bc
00000310: 75a4 fabc c5c1 2b3e ec63 08be 3344 73bb
00000320: 0cb2 c83d 5b37 f6bd 7056 24be e420 1c3e
00000330: a45b 19be d5c6 02be 37ec 07be 0e2c 073e
00000340: 616c 413e 896f 1e3e 8d16 dabd 8182 89be
00000350: 0f6d 08be 4f95 b93d cf83 d93d 5be8 5f3e
00000360: 8dec a23d 0ae4 a23d ed17 ab3d 06b8 4dbe
00000370: 379d 38be ca7e 30be 8273 4e3c 58de 2fbe
00000380: d664 90bd 8bd8 93bd ac8b f8bc a821 d6bd
00000390: 32f5 5bbe a2f1 abbd 29a2 5bbd 2f74 8a3e
000003a0: 9bb8 c7bd 3b5f 7bbe 1e7d 483d 5deb 58be
000003b0: cc19 b73c 98b1 4cbe 1e1d b03d 36ef c0bd
000003c0: 6f20 e13d 0bf6 263e cc01 853d d390 f0bd
000003d0: 9ac9 063e 27bc 46be f2ae 283e 4637 423e
000003e0: 6406 04bd 3700 003e 97f8 0a3d 20bf 50be
000003f0: 1d4d 513e 873f b0be 7dba 3d3e de5e 493e
-0.12192825 0.04565054 -0.19731338 -0.030460326 0.08157189 0.09485644 -0.1719153 -0.24165234
-0.08404725 -0.2007795 0.109835714 -0.18299799 0.07583382 -0.08262214 0.18766202 -0.03244793
-0.21097584 0.13317302 0.047918152 0.23088452 0.13542116 -0.091207564 0.076697566 -0.012331099
0.0848545 0.216737 0.058734637 -0.056682296 0.09732118 -0.024950974 0.14075069 -0.2875668
-0.21120988 -0.18496984 -0.04462868 0.07683363 0.052667163 0.109993845 0.14439344 -0.07138557
0.2073863 -0.14059648 0.13650459 -0.12627248 0.07196556 -0.06808152 0.076238215 -0.13087822
0.13032301 -0.21666662 -0.22725019 -0.27955818 0.22614834 -0.021944579 0.31655833 -0.22177616
-0.24207722 -0.20204982 -0.08453029 0.17175013 0.16316228 0.21913481 -0.18440834 -0.08761266
0.047282692 -0.09631337 0.077957734 0.006997644 0.15005979 -0.10764362 -0.058639273 -0.004470303
0.07259557 -0.15421602 0.14010945 0.117255196 -0.13545738 -0.19536705 0.26268736 0.0007798667
-0.14730564 -0.14100765 -0.23525284 0.122469105 -0.03701534 -0.137984 -0.06882345 -0.24026455
-0.101433046 -0.21458945 -0.2503976 -0.08543699 0.19412398 0.040383536 0.076284766 -0.2440004
-0.21189468 -0.116492525 0.02518991 -0.21691939 -0.0858535 -0.099169314 -0.15754855 -0.13736324
-0.11384427 -0.11206941 -0.24603151 -0.13294649 0.012687596 -0.30551192 0.23166895 -0.11688597
0.19991623 0.035061218 -0.018538214 0.30005178 -0.04066049 -0.079113506 -0.19961607 -0.26504773
0.01606481 -0.061345164 -0.054087892 -0.16685091 0.20710373 -0.1732659 -0.035166364 -0.015035941
0.14439282 0.14787719 0.2636357 -0.18161769 0.11391121 -0.19229864 -0.03867237 -0.08385484
0.20877393 -0.1991776 0.0494042 0.0314841 0.0036431628 -0.13476986 0.16979712 -0.009381112
-0.0074693575 -0.19968791 0.095529936 -0.083712846 -0.115389474 0.15255304 0.155088 -0.1302096
-0.08062331 0.001100667 0.16481756 -0.033518646 -0.25201514 -0.13626227 -0.25356355 0.06564495
0.21559832 -0.21646108 0.1261382 0.0710325 0.0680014 0.004081696 0.05056549 0.14838806
0.070768416 -0.040947203 -0.12456535 0.08252663 0.016975736 -0.13793066 0.1704129 0.16412233
0.12030827 0.12356534 -0.01348451 0.054815322 0.19605534 -0.012862114 -0.21195072 -0.026377706
0.2866523 0.15639989 0.011437356 -0.1109399 -0.21429747 -0.15705466 -0.17748265 0.13356434
0.096441686 0.1351705 -0.18843699 -0.01670038 -0.030595997 0.16773136 -0.13319367 -0.0037119507
0.09799585 -0.12022277 -0.16048598 0.15246922 -0.14976364 -0.12771161 -0.13273703 0.132004
0.18889 0.15472235 -0.106488325 -0.2685738 -0.13322853 0.090616815 0.106208436 0.2186598
0.07955275 0.07953651 0.08354173 -0.2008973 -0.18028723 -0.17235866 0.012600781 -0.17174661
-0.07050483 -0.07219037 -0.030340038 -0.10455638 -0.21480253 -0.08395697 -0.053621445 0.27041766
-0.097520076 -0.24548046 0.048947446 -0.21183534 0.022351168 -0.19989622 0.08599304 -0.09420626
0.10992514 0.16304795 0.06494483 -0.11746373 0.13162842 -0.19407712 0.16472986 0.18966398
-0.032232657 0.12500082 0.03392848 -0.20385408 0.20439573 -0.34423468 0.18528171 0.19665095

a2c_network.actor_mlp.0.bias f4 [128]
00000000: 5f3f 853d 869d 8ebc a053 0e3c a671 8dbd
00000010: ced0 16bc 771a 90bc 5bd1 dbbd be30 babc
00000020: d671 4fbd a13f 59bd 0d32 22bd f3a6 493d
00000030: 56b7 853d c27e df3b 85fc 32bd 649a e83b
00000040: eb01 cfba fd54 8abd 98fb bebd d8b5 8ebd
00000050: c07a 4bbd 531f 69bc 8b73 3bbd 32cc 00be
00000060: 2b22 ccbd 66e4 c2bc c538 03bc ea1b 123b
00000070: 42d6 d2bc 405a 87bc 4bff 24bc 6a38 47bb
00000080: 93f7 ccbd c9d2 073d 3f39 fabd 9365 6dbd
00000090: 076e 92bc 9bc5 93bd 5236 acbd a08e c83d
000000a0: c5e7 77bc 6a90 043d 6b83 68bd 8a27 00bc
000000b0: 9802 a03b 04b9 0bbd d281 b3bd 14e4 b93c
000000c0: 4eae 98bb 4076 11bd 216d fdbd fbce c0bd
000000d0: 0ba7 37be 9886 fabc 8903 493d 496a 70bd
000000e0: 8751 dabd f2da f2bc 7c69 b43c 8e38 28bd
000000f0: 9b4c 343c 0937 3a3d 28e9 68bc a983 a7bc
00000100: 9d22 81bd 7195 863d 8791 48bc 472f 09bd
00000110: c94e 443d 1b3d 4dbd 0833 a4bd 114d 38bd
00000120: 50e0 f3bb 49e4 f8bc ceea 3e3c 92d4 56bd
00000130: a286 8d3d 2dbc 03bd 8542 353d 3592 5ebd
00000140: 575b 523d acc9 f63d 3957 2cbd 2f76 7d3b
00000150: 98ab 7abd 8359 58bd a4de 833d 2a85 543d
00000160: d661 72bc 6f74 1d3d 0a50 a53c 83ff 8cbd
00000170: bf4c d83d b930 6bbd 911b a5bc 072c 57bd
00000180: 916e e03c 3c64 00be 2d91 dfbc 97b6 453d
00000190: e4f0 dabc 3306 61bd 7916 383d f586 88bd
000001a0: c39b 643d 8b89 c4bd 58ad 13bc 3b95 02bc
000001b0: d758 493c 743f c6bc 874e 4abd 282c a9bd
000001c0: edb6 c6bd c640 d4bd 9b86 933c c2e1 1abd
000001d0: b02c 233d 7608 1ebe 2727 7dbd 16fc 153d
000001e0: 5153 0abd 4c3b 6dbd b045 113b 525d b3bd
000001f0: 2be8 04bd eb1e 85bd 9a49 a5bb 042d 58bd
0.06506228 -0.017409097 0.00868693 -0.06906442 -0.009205056 -0.017590744 -0.10733291 -0.02272832
-0.05064567 -0.053039197 -0.039598513 0.04923148 0.06529109 0.0068205306 -0.043697853 0.007098483
-0.0015793418 -0.067544915 -0.093253314 -0.06968278 -0.04967761 -0.01422866 -0.045764487 -0.12577894
-0.099674545 -0.02379055 -0.00800914 0.002229447 -0.025736932 -0.016522527 -0.010070632 -0.0030398616
-0.100081585 0.033160005 -0.1221795 -0.057958197 -0.01787473 -0.072154246 -0.08408798 0.097928286
-0.015130942 0.032364286 -0.056765955 -0.007821927 0.0048831217 -0.03411199 -0.08764996 0.022691764
-0.0046594506 -0.035513163 -0.1237433 -0.094144784 -0.17934816 -0.030581757 0.049075637 -0.05869511
-0.10660081 -0.029645417 0.022022955 -0.04106956 0.011004592 0.045462642 -0.014215745 -0.020448523
-0.0630543 0.065714724 -0.012241728 -0.033492353 0.047926698 -0.050107103 -0.08017546 -0.04499537
-0.0074425116 -0.030382292 0.0116526615 -0.052448817 0.06910445 -0.03216188 0.04425289 -0.054338653
0.05135664 0.120501846 -0.04207537 0.003867518 -0.0611988 -0.05281974 0.0643895 0.051884808
-0.014793834 0.038441118 0.020179767 -0.068846725 0.10561513 -0.057419512 -0.020154746 -0.052532222
0.027396472 -0.12538236 -0.027290905 0.048269834 -0.026726194 -0.054937553 0.044943307 -0.06666366
0.05581261 -0.09596547 -0.009013496 -0.00797015 0.0122892475 -0.024200179 -0.049391296 -0.08260375
-0.09702859 -0.10363917 0.01800852 -0.037812956 0.03983754 -0.15432915 -0.061804917 0.03661736
-0.033770863 -0.057917878 0.002216678 -0.08758034 -0.032447975 -0.06500038 -0.0050441744 -0.052777305

a2c_network.actor_mlp.2.weight f4 [64, 128]
00000000: a040 6c3d dbc7 0a3e 749f bb3d 9ff5 fd3c
00000010: a04c cb3d e2dd 353e 74f9 933d 297e 573d
00000020: 45b9 b33d 2b5f 26be b83f e73d 6b88 8e3b
00000030: ff9e 483e 9dd7 cf3d 4a8d c63d c9cf bb3c
00000040: 8fce 113c 7f68 fd3c 9987 1a3e 1913 953c
00000050: 7345 88bd b470 003c 43d2 babd 9d22 d7bd
00000060: d4b9 b8bc 8e1b 6cbd ee4d 373c 335e c13d
00000070: a229 673d 261f 9abd 1e6f e43d 296e 7abd
00000080: 0605 fa3d 079b 2a3d 402c 013c e3dc e73c
00000090: f6a3 18bd dd5a 06be c3a7 35bd a99f ab3d
000000a0: 5107 06be 1411 493d 972b 0abd 645d dcbd
000000b0: 298f a7bd 5c2d ab3d 037c adbd f4f0 78bd
000000c0: 4918 5bbc 3ccf 23be 8ca4 7abc f531 403d
000000d0: 867d 84bd 1d56 e13c 32b7 e03d 3034 fa3c
000000e0: 8b9a dabd ee31 193e f849 53bd 42ba 3f3d
000000f0: 2fde 72bd 8271 e93d 87ac 783d 3ee5 b93c
00000100: 8ac6 343e 4afb 763d e1ce ebbd 8a34 54bd
00000110: 53c7 7e3c cfa4 563d 9b64 053d 801f 16be
00000120: 9f68 35be 0c09 0b3e f2b5 be3d 1304 0fbb
00000130: fb7d 353e 85ee fa3c 295c 1b3e 3564 753d
00000140: 0005 e13b 14bb a0bc 1878 a73c c61b f9bd
00000150: 84ac cabc 9a02 5cbd bc4f ca3d 37d8 1f3e
00000160: 5e6a b7bd ec8c e83d a025 0a3e 9d49 103d
00000170: f5ae 853d c9b8 8bbd 5220 fe3d 9540 dabd
00000180: 4511 cabd 9c55 953d 91f5 12bd 3a61 fc3d
00000190: 213f 643d 0b64 4cbd 0f0f 71bd f504 d7bd
000001a0: a16f 863d b36a a73d 7319 b9bd 22a8 fa3d
000001b0: 0c49 f53d 693f 08bd da2b 543d b25b 7bbc
000001c0: cc67 e33d bdd4 82bd 21ae 0ebe 5261 363c
000001d0: a545 e2bd cf6e 283d 6c8d a1bc 14f5 9d3d
000001e0: 3896 a93d eca4 02bc cf27 82bc ec3d 553e
000001f0: f1ea 6f3d 3c9c 133e de6e ae3d 8c58 6e3d
00000200: 9866 0cbd c2b2 943c 046f 73bd 2776 2c3c
00000210: 1915 dd3d 0d10 80bd b7bb 2bbd c6bc 96bd
00000220: 0245 c83c d96e 2dbd cdbd 803d 8602 17bc
00000230: 239c f7bc ddd9 f7bc 58f8 e63d 71e0 073d
00000240: 9b53 323c 566d 153b 7f05 363d de97 8d3c
00000250: 98d6 e03d de33 4fba 6391 8fbd b5b1 b8bc
00000260: 51c9 de3c 9d7c a73d 5919 75bc 1bd2 5e3d
00000270: fb8e 1a3c b9da 47bd 4b37 bb3a af15 11bd
00000280: 4692 8a3d 0f19 643b 0b1d 253d b580 a1bd
00000290: 370c b8bc fe33 1dbd 168c d73c 82f1 343d
000002a0: ba85 27bc e7cf c6bd 530c 81bc 10c5 5fbd
000002b0: 2f7c 08be 63d0 693d 5c83 8dbd e497 f73c
000002c0: 3efd 6fbd 0155 383d efc2 103d d8a8 9ebd
000002d0: ceea 4d3c c487 9b3b 7e62 4d3c 8c58 d53d
000002e0: d63a 6abd af75 5ebd f3eb cc3d ba0a 4cbc
000002f0: a33b 3a3d fb22 793d 840a abbc 406a 873c
00000300: 763d 5a3c 2e90 df3c eb73 bdbd 0e58 a33c
00000310: b0aa d43c 24b0 56bd 692b b43c f1d3 20bd
00000320: 9184 87bc ef51 e0bb d312 3d3c bae5 c7bd
00000330: 47d2 c4bd a713 84bd 4d15 46bc e2b0 b2bd
00000340: a1a5 2c3d 279c dabc 4927 96bd c5ce a6bd
00000350: 3836 b6bd 114b 83bd 4419 af3c f5e8 bebc
00000360: 06b5 dbbd ebfb 5e3c 2d04 ef3b 8042 30bd
00000370: 7ed1 cdbc f483 843d 3f29 0fbe 0b14 a1bd
00000380: b613 88bd 0112 28bd 47d6 20bd 3c1e 8fbd
00000390: e07c cabb d96e 7bbd 9ef3 223d e5fb 83bd
000003a0: 2231 bebc 4af1 5ebd 9e88 8ebc df0c c13c
000003b0: a17e 05bd 3542 c33c 0dcc e5bd b289 84b9
000003c0: 1e44 733d 946f 753d 2ee6 81bc 6bc5 43bd
000003d0: 4064 233d 496c 48bd c215 3b3d 9a16 b4bd
000003e0: d8ef 9dbd 2919 72bd f02c 063d 2720 c7bc
000003f0: 2467 cbbd 49fb 1f3c 50dc 88bd 7bd3 fbbc
0.05767882 0.13552801 0.09161273 0.03100091 0.099267244 0.17760423 0.07225314 0.05261055
0.08775572 -0.16247241 0.1129145 0.0043497584 0.19591902 0.10148547 0.096949175 0.022926228
0.008899345 0.030933617 0.15090789 0.018197583 -0.066538714 0.0078393705 -0.091221355 -0.10504649
-0.022549547 -0.057643466 0.0111880135 0.09441795 0.05643619 -0.07525472 0.111540064 -0.061140213
0.122079894 0.04165175 0.007884085 0.02830357 -0.03726574 -0.13120599 -0.044349443 0.08380062
-0.13088728 0.049088553 -0.033732977 -0.1076 -0.081816025 0.08358261 -0.08470919 -0.060776666
-0.013372489 -0.15997022 -0.01529802 0.046922643 -0.06469254 0.027506882 0.10972442 0.030542463
-0.10674008 0.14960453 -0.051584214 0.04680849 -0.059293922 0.11398603 0.06071141 0.022692319
0.17653862 0.06029824 -0.115140684 -0.051807918 0.015550452 0.052403267 0.032566648 -0.14660454
-0.17715691 0.1357767 0.09312047 -0.0021822497 0.17723839 0.030631313 0.15171875 0.059910018
0.006867051 -0.019620456 0.020443007 -0.121635005 -0.024740465 -0.05371342 0.098784894 0.15609823
-0.08955835 0.11355004 0.13490915 0.035226453 0.06527511 -0.06822354 0.12408508 -0.10656849
-0.09866575 0.07291719 -0.03587872 0.12323232 0.055724267 -0.049900096 -0.05885225 -0.10498992
0.0656426 0.08174648 -0.09038057 0.122391 0.11976823 -0.033263598 0.051799633 -0.015341686
0.11103782 -0.06388233 -0.13933612 0.011131601 -0.1104844 0.0411213 -0.019720756 0.077127606
0.08280605 -0.007973891 -0.015888123 0.20824403 0.058573667 0.14415067 0.0851724 0.058189914
-0.03427753 0.018151645 -0.059432045 0.010526217 0.1079504 -0.062530614 -0.041927066 -0.073602244
0.024446968 -0.04234204 0.062862016 -0.00921691 -0.030225819 -0.030255252 0.112778366 0.03317303
0.010884191 0.0022800765 0.044438835 0.01728433 0.109784305 -0.0007904152 -0.07010152 -0.022545675
0.027195605 0.08178065 -0.014959657 0.05439959 0.009433503 -0.048792575 0.0014283446 -0.03542107
0.06766181 0.0034804975 0.0403109 -0.07885877 -0.022466762 -0.03837966 0.026311915 0.044175632
-0.010224754 -0.09707623 -0.015752947 -0.054631293 -0.13328622 0.0570835 -0.069098204 0.030223794
-0.05859112 0.04500294 0.035342153 -0.07747048 0.012568189 0.004746409 0.012535689 0.104172796
-0.057185017 -0.05431145 0.10005941 -0.012453729 0.04546703 0.060824376 -0.020879038 0.016530156
0.0133203175 0.02729043 -0.09250625 0.019939449 0.025960296 -0.052414075 0.021993356 -0.039264623
-0.016542705 -0.0068457047 0.011540133 -0.09760614 -0.0961042 -0.06449061 -0.012090039 -0.08725144
0.042150144 -0.026685787 -0.07331712 -0.08144907 -0.0889706 -0.06410802 0.021374352 -0.023304442
-0.10727887 0.013609867 0.007294199 -0.04303217 -0.025124308 0.064704806 -0.13980578 -0.07865151
-0.066443846 -0.041032795 -0.03926685 -0.069881886 -0.006179437 -0.06138501 0.039783113 -0.064445294
-0.023216788 -0.05442933 -0.017399129 0.023565708 -0.032591466 0.02383528 -0.1122056 -0.00025279593
0.059391133 0.059920862 -0.015856829 -0.047795694 0.039890528 -0.048931394 0.045675047 -0.087933734
-0.07711762 -0.059106026 0.0327577 -0.024307324 -0.09931782 0.009764501 -0.06682646 -0.03074049

a2c_network.actor_mlp.2.bias f4 [64]
00000000: 0efa c5bc cd00 a3bd c39a c53d c3b8 923c
00000010: 10d8 febd 5c4a b0bc e0f9 05bd 183e 0abd
00000020: 2b79 0d3b c580 94b9 dbd2 e9ba a75e 01bd
00000030: a28f 83bd e6b2 4bbd 361a fa3a afd9 0e3d
00000040: 4106 343c a8d5 a2bd 45f9 5a3d a256 d9bb
00000050: 236b a03b 8330 56bb 41b6 e63c 3d85 01be
00000060: d568 88bd c5f9 61bc 82f6 153d 42b2 9dbd
00000070: 29ae a3bb b7b7 ee3c da1d 08bd ca25 313c
00000080: 62c4 c6bd 3f79 3fbd 3b9d 56bd 74cc 373d
00000090: b0d4 21bd 4f0f 9cbc 0ee3 8fbd 4328 3ebd
000000a0: 9c6a da3c 1940 49bd ba55 3fbd 18ea d13c
000000b0: 8972 b1bd 3971 9ebd 4daa 0abd fb01 92bd
000000c0: 2f33 f2bb 0f3f 55bc 2bf0 0d3c 8f28 0c3d
000000d0: 038e fdbc 994e 3ebc d0b2 f83c c8da f53c
000000e0: e8f1 d2ba 1bb1 243c 9a37 2abc 6b09 76bd
000000f0: 3ed8 583d 474e 3c3d 5fda e0bd 4e37 2fbc
-0.024167087 -0.07959137 0.09648659 0.017910367 -0.124435544 -0.021519832 -0.032709002 -0.033750623
0.0021587114 -0.000283247 -0.0017839329 -0.031584408 -0.0642388 -0.049731158 0.0019081298 0.034875568
0.010987819 -0.07950908 0.05346038 -0.006632642 0.004895584 -0.0032682724 0.028163077 -0.12648483
-0.0666062 -0.01379246 0.03661204 -0.077000156 -0.0049951267 0.029140336 -0.033231594 0.010812232
-0.09705426 -0.04674649 -0.05239604 0.044872716 -0.039509475 -0.019050268 -0.07025729 -0.046425115
0.026662163 -0.049133394 -0.046712615 0.02562432 -0.08664424 -0.07736439 -0.033853818 -0.07129284
-0.0073913555 -0.013015523 0.008663218 0.034218367 -0.030951506 -0.011615419 0.030358702 0.03001155
-0.0016093822 0.010051991 -0.010389233 -0.060067575 0.0529406 0.04597309 -0.10979151 -0.010694338

a2c_network.actor_mlp.4.weight f4 [32, 64]
00000000: e94a 073e 7be9 423d 9915 9cbb 64a1 d83d
00000010: 1b82 7e3d f5e9 973d 2f95 5cbc 3b7c 783d
00000020: 4b46 17be ef9b 3fbd 42fe 5ebd 9f7a bc3d
00000030: 487a 5d3d 187f 13bb d059 1abc 4820 19be
00000040: 78ea 72bd 2427 a93d c4b5 c1bd 7484 d73c
00000050: 8cf4 ab3d 101b ba3d a39f e53d 4957 c3bc
00000060: b6f5 b03d 4c5c 3bbe 90c1 c63b d623 cfbd
00000070: 9e18 843d 62fa c8bd 1191 a43d e0ee 0dbe
00000080: 1de3 1d3e b741 793d 10a9 12bd 908d cbbd
00000090: 602f 313e 4556 c3bc e3c5 a43c e46e 1cbd
000000a0: a044 ffbd c56d a73c ece3 0a3e b623 8f3d
000000b0: 79bb 053b fdd4 bb3d b42d 9b3d bdd6 193e
000000c0: 5987 a73d 7a08 a1bd d81d bfbd 9a3f c43d
000000d0: 398f d6bd 9bb9 e8bd 78c4 54bd 6b4c b3bd
000000e0: eb7c b3bd 8b32 e1bd 7373 663d 2a32 d63b
000000f0: 44cd 2cbe 497a c3bc 17e6 7e3e 8210 a3bd
00000100: 7210 513d a231 1bbd e9fa fabd 9578 8bbd
00000110: a1f3 e23c 34c1 87bd f67e 4abd a1c1 8a3d
00000120: 87e8 06be 41a1 f53c e530 4d3d 49dc e7bc
00000130: 556f 933d 2c2c 8a3c 996d 7abd 8755 74bd
00000140: d764 72bd 649a b3bd 793a d0bb 1228 eb3d
00000150: ac4a 603d 8c7e 79bc 2350 313d f81b 733d
00000160: 1307 a03c e842 00bd d071 d03d c4fd d13d
00000170: aec3 f63d fba9 be3d c6e1 b7bc 1572 1c3e
00000180: 6dfb 023d 03ad 233d 372e 02be 941d 973d
00000190: 97da 08bb 0ab0 323d 437f d3bd b001 f33d
000001a0: 59de 83bd dd0e 1dbd 712b 1a3c a326 0b3d
000001b0: f631 cc3d 2e03 8bb8 6613 a8bd 35e4 43bd
000001c0: 06db a93d 164c 55bd ae2c 8abd 3911 c9bd
000001d0: 041f 30bd 7642 da3c 8153 62bd 15cb 053e
000001e0: 80c6 89bd 88e8 d4bd 589d 723c 721e 5c3d
000001f0: c5bf 103e 640e 363d 224d 11be 5aa2 5abd
00000200: 92f0 4b3e ea0c 71bd 0fbe d73d 79ef 023e
00000210: 57b2 50be c1f5 28be a3be f0bc dcdf d7bc
00000220: fd60 5d3b 1e91 1abe c21e d5bc 7704 5f3e
00000230: 877c 07bd 9de5 92bc 1e1b 973d 17c1 b33d
00000240: a85a 07bd d4c1 d3bd 9e88 4e3d 359e 1fbe
00000250: 7327 223e 2a9d 083e 1562 0dbe 03b9 dd3d
00000260: 3363 a1bd e905 543e 2440 dabd 1fbf 00be
00000270: 374c 5ebd efe5 273e 17ad 6bbc 3b5e bc3d
00000280: 2ae7 963d 7d51 d63d 25ef ff3d 51eb 2e3e
00000290: f0fe acbd d69b 2cbe d3e5 2bbe 576d 34be
000002a0: a007 433d 8430 ac3d 4e52 233d 4036 9fbc
000002b0: 0b40 52be 397c 133d 9b63 0f3d 3e26 74bd
000002c0: b403 66bc d842 b9bd 8cac 23be f15e 6abd
000002d0: 8cbf afbd 61bd ccbc 7b80 183d 2bee d1bc
000002e0: ac51 013e fb41 6a3e 5896 12be 2288 6ebd
000002f0: 5ff3 8abd 4d82 3cbe 9d3d fb3d ea58 303d
00000300: fc9a 33be 7233 913d 4c94 22be fbbb 28be
00000310: 852b 43bd 95d8 863d 272c 5b3c 1b19 7c3d
00000320: 0855 ebbd 96b5 1f3e 500c abbd 40c7 88bc
00000330: 4156 503d 418e e6bc 773a 753d 52b1 183e
00000340: a8f7 fcbd 6e0a f63d 2d2c 023e 66d3 803d
00000350: df4f aebc 9447 17be 147f 123e e495 633a
00000360: 28a6 d23d e83e 803d e5f6 e1bc ee37 103d
00000370: 474b b5bd af8d 2a3d f282 39be 92d0 5cbd
00000380: c0ca 9c3c f581 bb3b c438 abbc 4b63 c13c
00000390: 3f51 37bd b4cd 64bd 5332 7c3c ca57 47bd
000003a0: a945 02be c253 0bbd ee17 f03d 9986 0d3d
000003b0: cca8 c6bd b5aa ab3d d9f5 7bbd 2294 713c
000003c0: 8992 dabc 6124 35bb 523f c0bd 5278 bdbd
000003d0: 15ba 583c 166c 7c3d 4f97 033d e00c 87bb
000003e0: 78cc e63c ee21 bc3d fcdd 8ebd b6ae 4a3e
000003f0: b746 e33d e9f6 1fbe 249d 183d bf4f f43d
0.1321217 0.047585946 -0.004763317 0.10577658 0.062135797 0.07417671 -0.0134633025 0.06066535
-0.14772908 -0.04677957 -0.054441698 0.092030756 0.054071695 -0.0022506174 -0.009420827 -0.1495372
-0.059305638 0.082594186 -0.09458497 0.026308276 0.08396253 0.09087193 0.11212089 -0.023845332
0.08640616 -0.18296927 0.006065555 -0.10114257 0.06450008 -0.09813382 0.08035482 -0.13860655
0.15418668 0.060853686 -0.03580576 -0.0993911 0.17303228 -0.023844847 0.020113891 -0.03819169
-0.12464261 0.020438084 0.13563508 0.06989233 0.0020405932 0.09171484 0.075770766 0.15023322
0.081801124 -0.07862945 -0.09331864 0.095824435 -0.10476536 -0.113635264 -0.05194518 -0.0875481
-0.087640606 -0.109959684 0.056262445 0.0065367417 -0.16875178 -0.023862021 0.2489246 -0.07962133
0.051041074 -0.03788913 -0.122548886 -0.068101086 0.027704062 -0.066286474 -0.049437486 0.06775213
-0.1317464 0.029984118 0.050095458 -0.028303282 0.07198969 0.016866766 -0.061139677 -0.059651878
-0.0591782 -0.08769682 -0.0063546267 0.11482252 0.054758713 -0.015227925 0.043289315 0.059352845
0.019534623 -0.031313807 0.10177958 0.1025348 0.12049042 0.09309765 -0.022446524 0.15277894
0.03197806 0.03995992 -0.12712942 0.073786885 -0.0020882243 0.043624915 -0.103270076 0.11865556
-0.06438894 -0.038344253 0.009409771 0.033972394 0.09970467 -6.628629e-05 -0.08206825 -0.047825057
0.082937285 -0.052074514 -0.06746803 -0.09817738 -0.04299833 0.02664302 -0.055255417 0.13065751
-0.06727314 -0.10395914 0.0148080215 0.053739972 0.14135654 0.044447318 -0.1418958 -0.053377487
0.19915989 -0.058850206 0.10534298 0.12786664 -0.20380531 -0.16499998 -0.029387778 -0.026351862
0.0033779733 -0.1509442 -0.026015643 0.21779047 -0.033077743 -0.017931754 0.07378219 0.08777063
-0.03304544 -0.10339704 0.050423257 -0.15587695 0.15835361 0.13341203 -0.13806947 0.10826304
-0.07880249 0.2070538 -0.10656765 -0.12572907 -0.054271903 0.16396306 -0.01438453 0.091976605
0.0736831 0.104647614 0.12496785 0.17081954 -0.08447063 -0.16856322 -0.1678689 -0.17619835
0.047614694 0.08407691 0.039873414 -0.019435048 -0.20532243 0.03600714 0.0350071 -0.059606783
-0.014038969 -0.090459526 -0.1598379 -0.05721945 -0.085814565 -0.024992647 0.037231904 -0.025626263
0.12628812 0.22876732 -0.14315164 -0.058235295 -0.067847006 -0.18409081 0.12267611 0.043053545
-0.1753959 0.070898905 -0.15876883 -0.16477959 -0.047648925 0.065842785 0.013377226 0.06154738
-0.11490828 0.15596613 -0.08351958 -0.016696572 0.050863508 -0.028144004 0.05987021 0.14911392
-0.12351924 0.12013708 0.12712164 0.06290321 -0.02127832 -0.14773399 0.14306289 0.0008681698
0.10285598 0.062619984 -0.027583549 0.03520959 -0.08852249 0.041639026 -0.18116358 -0.053909846
0.019139647 0.005722279 -0.020901091 0.023606917 -0.044755217 -0.055860236 0.015392858 -0.048667707
-0.12721886 -0.034015425 0.11723314 0.03455219 -0.09700164 0.08382169 -0.061513755 0.01474479
-0.026681202 -0.0027640092 -0.093870774 -0.09251465 0.013227959 0.061626516 0.03212672 -0.004121408
0.02817367 0.09186159 -0.06975934 0.1979321 0.11097472 -0.15621532 0.037259236 0.11929273

a2c_network.actor_mlp.4.bias f4 [32]
00000000: f18f 3dbd b153 453d 47a8 3f3d c817 99bd
00000010: 8499 a4bd 1fac 373d 3b03 88bc e073 05bd
00000020: a11a a2bc a716 143d f49b 5f3d b0c2 b2bd
00000030: dcc6 4cbd 69f8 2f3d 25c1 95bd 42c4 63bc
00000040: fabb 593d 6376 443d bc59 80bd 2b88 9bbd
00000050: 6cbd 31bc 1520 5f3d 33a8 6ebd 3924 98bd
00000060: 4d02 8fbd f89f 7e3d 07dc 92bd 24ba b3bd
00000070: 235a 18bd 4d65 263d 92b6 dbbd 5338 b4bb
-0.04627985 0.048175517 0.04679134 -0.07475239 -0.08037093 0.04484188 -0.016603103 -0.03258121
-0.019788088 0.036154415 0.054592088 -0.0872854 -0.049994335 0.04296151 -0.0731223 -0.013901772
0.053157784 0.047964465 -0.062671155 -0.07594331 -0.010848384 0.054473955 -0.058265876 -0.07428784
-0.06982861 0.062164277 -0.07170873 -0.08775738 -0.037195336 0.04062395 -0.10728182 -0.0054998784

a2c_network.value.weight f4 [1, 32]
00000000: 5677 1ebd 121e 983d ca32 cfbc 0b4f 983b
00000010: b02d f2b9 f73f 1b3d 5376 5c3d 4f6f 31bd
00000020: 40b9 67bd 1913 59bc 0489 273d 9154 abbc
00000030: 854e 5f3c fe3d 213d 4b2e 03bd abc8 96bc
00000040: cbc9 dc3c 746c 093d bc3e 8fbd 4f5a cabc
00000050: 52f3 7838 c206 263d 75b1 14bd 17ed b6bd
00000060: ec25 5239 5b44 943c 1cde 02bb e552 85bc
00000070: 0f4c 193d 09e0 953d 547d debd eb50 063c
-0.038688026 0.074276105 -0.025292773 0.0046480945 -0.00046191877 0.0379028 0.05382378 -0.043319043
-0.056573153 -0.013249182 0.040902153 -0.020914348 0.01362956 0.03936576 -0.03202657 -0.018406233
0.026951691 0.033550695 -0.069943875 -0.024701266 5.9354417e-05 0.04053379 -0.03630205 -0.0893194
0.00020041288 0.018099 -0.0019968813 -0.016274879 0.03742605 0.07318122 -0.10863748 0.008198003

a2c_network.mu.weight f4 [7, 32]
00000000: 8dbe a239 9e94 7bbd 59a5 d6bd d395 7bbc
00000010: 882e 383d 5b23 b2bd 6f96 3a3d d734 df3c
00000020: 9682 0dbd 5cf2 143e 3eb2 ea3c 47bd 823d
00000030: dd51 1fbd 44bc 2f3d f22d 023c c602 cebd
00000040: d4cf 96bd a032 3ebe 528d 95bd 7faa 73bb
00000050: 9aec 903d 8f4f 3fbe 1dd0 21bd fd92 5c3d
00000060: aa87 09bd 3127 393d e004 fcbd 657c 9bbd
00000070: 2052 a9bd d7a7 57bd 25de 153c c8ed 4bbd
00000080: 02e4 6b3e 12e3 8c3d 9c14 fdbd dd0f 08be
00000090: 90d4 943d a75e 1a3c 3013 a2bd a017 1abd
000000a0: d147 26be 8490 dc3d 78c2 a5bd dffa 923d
000000b0: eb84 c73c a814 e73d 883f a53c 7628 253e
000000c0: c809 84bc 9dd1 f5bd 3ece 89be fe60 913d
000000d0: 4435 6e3d 54bc e53c eee0 673d a212 4bbe
000000e0: 0abc fabd 9c80 983d 6f0b 9d3d 9b68 fe3c
000000f0: 0faf 0cbd a555 753e fd52 723d 27f5 9a3c
00000100: 99d1 233b 6674 76be a4b7 8cbd c50c 02be
00000110: 4d96 a9bd c764 12be 38bd 6f3e 2c22 5fbe
00000120: 3fb8 51bd 1bee 9bbe e7e0 95bd 4122 843d
00000130: 2f9d 9ebd a5d6 33be e4f2 2cbd e503 8b3d
00000140: 7804 e53c bf49 b0bd 719f 023d 121e adbc
00000150: c6c6 dfbd 8ae9 30bd 9445 fabd 1b89 8eba
00000160: d7ff 523d c319 36be cf49 f33d e6a9 c43d
00000170: 957f b73e 79b5 b33d 85df 293d 090a d83d
00000180: d63d 3f3e fd65 8c3d a83b 98be 8cae 773e
00000190: ed38 913d e170 883e 8f4e 67bd 6c49 e63d
000001a0: f92f a7be 9017 873e d1ee 023e 193b 663e
000001b0: b701 9a3d 0207 723e 2909 9c3e 9809 60be
000001c0: 560d e4bd 2af3 41be ce5b 1dbe c236 7dbd
000001d0: cbb6 8e3d 7510 b7be f7f0 0cba 2914 02be
000001e0: 9851 883e 0c37 463d ddc3 39be 53a7 4c3e
000001f0: 1191 a13d ad35 233e 6169 8e3e a704 a7bd
00000200: e9e7 38be 1ff3 763e 9c2c 49be 66f9 1d3d
00000210: 719e 443e cefd 2e3d 951d 3e3c 5488 183e
00000220: 5650 5fbe 5eb0 25be 62bd 923e 5720 913d
00000230: 1821 b1bd 9a96 0f3e 2fb1 a2bd c7a8 82bd
00000240: c5cd 0ebe 075c 3cbe db30 033e 4944 7bbd
00000250: 1666 0bbd 9027 a73d 8e6f 73bc 2406 94bc
00000260: 9986 203e ef6d c3bd 3205 4cbe 6e2e d9bd
00000270: 500f a3bc 2743 063e 5825 733e 5352 5e3e
00000280: 381d 3d3e 8f35 ba3b dc93 543e 18ab ec3a
00000290: b84a d6bb b94e 03be eb40 973e 787d 023e
000002a0: da9d 4c3d 4a1e 43bd d60c 46bc 12ec e0bd
000002b0: f516 0cbe 2297 2abe ad43 0bbe 7d88 183e
000002c0: d163 20be 3173 543e 0bc0 ccbb 5eea 1a3e
000002d0: 51be 923c edf2 033e b525 933c 8ac7 a23d
000002e0: fa2a 383e 8864 c7bd ea13 1dbd 43c8 693d
000002f0: 4eb3 633a 91f8 e83d ec01 e4bb 2cb4 1e3e
00000300: e042 ab3d a98e 40bd 2fa6 e1bd 7e13 cbbd
00000310: 3e1d 8abd 5543 86bd d362 0f3d 2c54 0a3e
00000320: 8907 99bd 6afb 12bd ca0c b73d ac2d 55bd
00000330: 3874 fcbd 3a2d cbbd 9595 8fbd 76ac 28bd
00000340: 96c1 0bbe 91ac 46be 9822 3b3d ec68 95bd
00000350: 3a58 ea3c 9eae f4bc 1a94 63be b097 eebd
00000360: 8a13 9c3d f7c4 30be 6402 b6bd abae f83d
00000370: 446a 723e 14e5 cd3d 55f6 a73c 7bba 46bd
0.0003104102 -0.06142103 -0.10480756 -0.015355545 0.04496625 -0.0869815 0.04555362 0.027246876
-0.034548365 0.14545578 0.028649446 0.06383758 -0.03889643 0.042904153 0.0079455245 -0.10059123
-0.07363859 -0.18574 -0.07302345 -0.003718048 0.07076378 -0.18682693 -0.039505113 0.053851116
-0.033576645 0.04520339 -0.12305617 -0.07592086 -0.08267617 -0.0526503 0.009147202 -0.049787313
0.23036197 0.06879248 -0.123574466 -0.13287301 0.072671056 0.009421981 -0.07913816 -0.037620187
-0.16238333 0.10769752 -0.080937326 0.07176756 0.024355372 0.11283237 0.020171896 0.16128716
-0.016117945 -0.12002871 -0.26915163 0.07098578 0.058156267 0.028043903 0.056610994 -0.19831327
-0.12242897 0.07446405 0.076681964 0.03105574 -0.034346636 0.23958452 0.059161175 0.018915726
0.0024996756 -0.2406784 -0.06870964 -0.12700184 -0.08280621 -0.14296256 0.23412025 -0.2179038
-0.0512011 -0.30455098 -0.07318287 0.06451846 -0.07744824 -0.17562349 -0.042223826 0.06787852
0.027956232 -0.08607816 0.031890336 -0.021132503 -0.10926585 -0.04319147 -0.12220302 -0.0010874601
0.05151352 -0.17783265 0.11879312 0.09602718 0.35839525 0.087748475 0.04147293 0.10548789
0.18675932 0.0685539 -0.29733014 0.24187678 0.07090936 0.2664862 -0.056471404 0.11244473
-0.32653788 0.26385164 0.12786414 0.22483481 0.07519858 0.23635486 0.3047574 -0.2187866
-0.11135356 -0.18940416 -0.15367052 -0.0618198 0.06968459 -0.35754743 -0.0005376483 -0.12703003
0.2662475 0.04839234 -0.18141122 0.19985704 0.07888997 0.15938444 0.27814773 -0.08155184
-0.18057217 0.24116181 -0.19645923 0.038567923 0.19201066 0.042722516 0.011603733 0.14895755
-0.2180799 -0.1618056 0.28660113 0.070862465 -0.0864889 0.14022294 -0.07943951 -0.06379848
-0.13945682 -0.1839448 0.12811606 -0.06134442 -0.034032904 0.08161843 -0.01485814 -0.018069334
0.15676345 -0.095424525 -0.19923857 -0.10604559 -0.019904763 0.13111554 0.23744714 0.21711092
0.18468177 0.005682654 0.20759529 0.0018056361 -0.006539669 -0.12822999 0.29541716 0.12743175
0.049955226 -0.047636308 -0.012088021 -0.10982527 -0.13680632 -0.16659215 -0.13600035 0.14895816
-0.15663077 0.20747067 -0.0062484792 0.15128466 0.017913016 0.12885638 0.017962316 0.07948215
0.17985144 -0.09735972 -0.03834907 0.05707575 0.0008686081 0.11375535 -0.006958237 0.15498418
0.08362365 -0.04701105 -0.11018025 -0.09915827 -0.06743859 -0.06555811 0.035006355 0.13508672
-0.0747214 -0.0358843 0.08937986 -0.05204551 -0.123268545 -0.09920736 -0.070109524 -0.041180097
-0.13648066 -0.19401766 0.045687288 -0.07295403 0.028606523 -0.02986842 -0.22224465 -0.11650026
0.07620914 -0.17262636 -0.08887175 0.1214269 0.2367335 0.10053459 0.020503202 -0.048517685

a2c_network.mu.bias f4 [7]
00000000: bff6 94bc dcb1 46bc 6220 6ebd 0b5e 91bd
00000010: c6f5 01bd 5c1f fcbc 2353 0f3d
-0.018184064 -0.012127366 -0.05813635 -0.070980154 -0.03172853 -0.030776672 0.034991395

exp_avg f4 [7]
00000000: 6e62 363c 06ea 493a cd39 d6b9 0cff 863a
00000010: 418a e73b 10f4 143c 1430 f73b
0.011131866 0.0007702414 -0.00040860326 0.0010299399 0.0070660417 0.009091392 0.007543573

exp_avg_sq f4 [7]
00000000: 240d 023a 2fc9 f639 8f1c d239 ed56 e939
00000010: da54 083a 0cbf 0d3a d0a3 3a3a
0.00049610646 0.0004707067 0.000400756 0.00044505988 0.0005200632 0.00054071913 0.0007119747

exp_avg f4 [128, 18]
00000000: 073f 70bb 8709 4037 a9df 5eba 2a34 52bb
00000010: b3b7 4dba db1e c1ba 679f c0ba 7fa2 b4ba
00000020: 3384 073b c036 6dba 59de 51ba 0fc0 c1ba
00000030: 8174 30bb f5f9 cd3b 7802 a7b9 857b 9fbb
00000040: 5ad4 23ba 4c9e d1ba 1ae4 ea39 7cb8 8139
00000050: 964d 67ba 8c31 e438 38e0 81b9 ea70 ddb9
00000060: ce7a 753a cd40 8e3a 4557 0b3b 589f 5139
00000070: 1892 4a3a e2ef de3a 31e1 463a 40ac 493a
00000080: 21c3 fbb9 5c59 4a39 c47a 0dba e59e 2c39
00000090: ccbd 6c3a 091f 933a 9c57 38ba a812 073a
000000a0: af35 533a 2066 603a 2b5e a2b9 b35e 68b9
000000b0: d77b 0c3b f955 8b3a 288c aab9 bc07 2e3b
000000c0: 20af 343b d2a3 20bb facc 6c39 a72b 033b
000000d0: 8473 a4ba 8c35 1f3a da58 773a f7c3 8f37
000000e0: 3a56 cab8 628d 9a3a 2174 293a 0cd4 fcb9
000000f0: 16f8 e83a b4aa bf3a b772 d3ba 5eb1 95ba
00000100: 6777 d439 bc4d 463a 6550 e53a feaa 4ebb
00000110: b5db 12ba d213 af39 2f1e e538 ceab 583a
00000120: bb95 e53a b488 083a 7a81 9c39 9ed2 c53a
00000130: 79c6 a23a 3e60 d13a 6b09 1a3a 2e2e 8fb9
00000140: 474c 4d39 24b1 e23a e599 e8b9 9f96 423b
00000150: 0683 903b e95e aebb b1e1 8b39 6e7d 393b
00000160: 870d bfb9 f554 9939 b0e3 f7ba 1693 42ba
00000170: 0f15 a239 f73f 03bb 0240 043a 7ca9 3539
00000180: f62c ebba 6811 1ebb 200f 473b 2228 083b
00000190: b133 92ba f134 853a aecb 26ba 517f 913b
000001a0: 8b08 863a d4c1 52bb ba28 71b9 99d0 48bb
000001b0: 4057 313b d1f3 6eb9 213e 3b38 5e63 2b3b
000001c0: bbb2 483a d7da 7438 77c0 ef3a ccdd 0c3b
000001d0: 29c2 3cba a6ee 2739 9a10 863a d7c6 1a3b
000001e0: f0e0 403b 09e4 abbb 2b84 07b9 2d6b 1a3b
000001f0: dba8 573a e0ee 943a 4856 beba 0bad 48b9
00000200: 383f 4eb9 cbf5 95ba 4970 053a 24ec 3bba
00000210: eb4b 6138 1b62 d6b9 0cc2 9f39 3c1c 48ba
00000220: 303f 72b9 0ecc 3e39 6897 8aba 4f6c a33a
00000230: a686 4f38 c50d 1bbb d148 f5b9 f44c 72ba
00000240: 49cc f338 d83d f4b8 b6fc 34ba c305 0939
00000250: bd44 cc39 e9fb 2cba f894 4d3a ba81 9e3a
00000260: 55f0 be3a a078 7fb9 cd70 a83a 5558 173b
00000270: 9786 3f3a 046b 55ba a9be b8b9 170e 74ba
00000280: 9756 cfb9 7005 d2b9 aa42 8bb9 cf1f 0dba
00000290: 9390 02b9 7c5e 1439 d09c 92ba 6867 52ba
000002a0: c0c4 32b9 98f0 513a b883 a6ba 606e 5bba
000002b0: 76b9 883a 9c4e 2bbb 2f56 33bb 985e 7b3a
000002c0: 7f99 b9b9 11dc 88ba b961 b53a 4e9d 9938
000002d0: 61d0 4eba d51c 21ba f596 9c3a 5673 20ba
000002e0: 921f f2b9 b207 8e3a 8f5f 13bb fb3c 20bb
000002f0: e310 87ba b202 e13a cd28 afba 681a 0bbb
00000300: 80dc d6b9 fba9 fa3a bd13 3c3a 6b16 42ba
00000310: b22d 913a 440a b7ba 8d20 c839 a2d5 5439
00000320: 68d5 34ba 47e2 c038 bafc 3bba 73dc 54ba
00000330: cdd4 193a 1c85 cb3a 7541 d03a 91b1 00ba
00000340: 099b 983a ce32 223a 865b 64ba fb9c 833a
00000350: de04 beb9 e0b8 0e3a b619 3ab9 2142 143a
00000360: df86 81ba 1ce7 cfb9 91d4 13ba 6e68 7fba
00000370: 839e 04b9 26d2 43ba 16de 4139 0711 8339
00000380: 3e0e e23a 1636 4a39 461e 1d3a 89d6 933a
00000390: 38fd a9b9 5410 173b cb00 18ba 28e4 1ebb
000003a0: cbb0 c0b9 9568 bbba 7dfe 4c39 f0b7 b2b9
000003b0: 4739 8d39 ee52 b739 b145 d638 575a bab9
000003c0: 6193 7e3a ad60 433a 0576 85ba b8de f0b9
000003d0: 080c aa39 2955 5339 de82 0ab9 99df 28ba
000003e0: 335b 83b9 311e f3b9 487e ce39 3eeb 5db9
000003f0: a28f 33b9 f5c7 6b38 fb61 433a 39f6 9bb8
-0.003665866 1.144631e-05 -0.0008501956 -0.003207455 -0.0007847503 -0.0014733927 -0.0014695943 -0.0013781338
0.0020678162 -0.0009048991 -0.00080058497 -0.0014781969 -0.002692491 0.0062859007 -0.00031854562 -0.0048670196
-0.00062495994 -0.0015992611 0.00044801907 0.0002474225 -0.0008823512 0.00010881116 -0.00024771853 -0.00042236532
0.00093643076 0.0010853052 0.0021261733 0.00019991153 0.0007727458 0.0017008747 0.0007586657 0.0007693209
-0.00048019833 0.0001929751 -0.00053970166 0.00016462391 0.00090309675 0.0011224459 -0.0007032098 0.00051526213
0.0008057011 0.00085601397 -0.00030969208 -0.00022160522 0.002143612 0.001063048 -0.0003252935 0.0026554903
0.0027570203 -0.0024511707 0.00022583074 0.0020015032 -0.0012546633 0.0006073348 0.0009435542 1.7138182e-05
-9.6481715e-05 0.0011791403 0.0006464143 -0.00048223173 0.0017774131 0.0014623017 -0.001613221 -0.0011420657
0.00040524753 0.0007564684 0.0017495273 -0.0031535025 -0.0005602197 0.00033393368 0.00010925193 0.0008265347
0.0017515937 0.00052083586 0.00029851106 0.0015092676 0.0012418769 0.0015974117 0.0005876037 -0.00027309492
0.00019578739 0.0017295224 -0.0004436515 0.0029691828 0.0044101505 -0.0053213728 0.000266803 0.0028303522
-0.00036440438 0.00029245732 -0.0018912461 -0.000742243 0.00030914738 -0.002002714 0.00050449383 0.00017324643
-0.0017942477 -0.0024119262 0.0030374005 0.0020775874 -0.0011154321 0.0010162872 -0.0006362748 0.004440226
0.0010225935 -0.0032158988 -0.00022998723 -0.0030641912 0.0027060062 -0.00022788277 4.4642136e-05 0.0026151757
0.00076560274 5.8377944e-05 0.0018291612 0.0021494506 -0.0007200563 0.00016015265 0.0010228336 0.0023617053
0.0029430948 -0.00524569 -0.0001292384 0.0023562417 0.00082267605 0.0011362694 -0.0014521563 -0.0001913795
-0.00019669242 -0.001144105 0.0005090279 -0.00071686716 5.3714884e-05 -0.00040890355 0.0003047142 -0.0007633602
-0.00023102458 0.00018195828 -0.0010573687 0.0012468192 4.9478047e-05 -0.002365933 -0.00046784294 -0.00092430343
0.00011625194 -0.00011646346 -0.0006904112 0.00013067485 0.00038961126 -0.0006598817 0.00078423275 0.0012093105
0.0014567474 -0.00024363631 0.0012851 0.0023093421 0.0007306127 -0.0008141252 -0.00035237268 -0.0009309961
-0.0003954663 -0.00040058373 -0.00026561815 -0.0005383463 -0.00012451624 0.00014149578 -0.001118565 -0.0008026273
-0.00017048698 0.00080085685 -0.001270405 -0.0008370634 0.0010431248 -0.0026139384 -0.0027364602 0.00095889857
-0.00035400313 -0.0010441561 0.0013838328 7.324909e-05 -0.0007889327 -0.0006145959 0.0011946844 -0.0006120702
-0.0004618136 0.0010836034 -0.0022487377 -0.002445041 -0.0010304715 0.0017166941 -0.00133636 -0.0021225456
-0.00040981546 0.0019124144 0.0007174572 -0.0007403853 0.001107624 -0.0013964851 0.00038171225 0.0002029748
-0.0006898255 9.197421e-05 -0.0007171143 -0.00081200077 0.00058681966 0.0015527341 0.0015888648 -0.0004909272
0.0011642884 0.000618738 -0.0008711148 0.0010041291 -0.0003624325 0.00054444186 -0.0001774792 0.0005655606
-0.0009882114 -0.00039654307 -0.000563928 -0.0009743039 -0.00012647551 -0.0007469974 0.00018488648 0.00024998953
0.0017246676 0.0001928437 0.0005993586 0.0011279146 -0.00032422855 0.0023050504 -0.0005798458 -0.0024244878
-0.00036752815 -0.0014298136 0.0001954976 -0.0003408785 0.0002693629 0.00034966267 0.00010217296 -0.00035543993
0.0009711292 0.00074530655 -0.0010182267 -0.00045942306 0.0003243389 0.00020154253 -0.00013209457 -0.000644201
-0.00025054216 -0.00046371066 0.0003938547 -0.00021163837 -0.00017124278 5.621459e-05 0.000745326 -7.4368385e-05

exp_avg_sq f4 [128, 18]
00000000: 0eed ea36 fc25 d436 7fa2 ef36 3f4a d636
00000010: 08f0 1637 5e4a db36 b9ee f436 a0b5 1f37
00000020: 59fd 2b37 b8b3 5c37 b7d8 1537 9ca9 ef36
00000030: adb3 e036 4c90 d936 5ae1 ae36 377c f436
00000040: a601 9a36 c344 af36 8878 2c37 6bed 5037
00000050: 9add 4837 c6aa 0e37 b434 1137 3521 e736
00000060: c378 1737 e332 0837 8ad4 4737 412a 6637
00000070: 9f08 2e37 c50e 2137 6d45 0f37 feea 0b37
00000080: e44a 0c37 250f 1e37 c855 1637 c82b 1837
00000090: 23a6 8d37 8dd9 a037 3891 9137 a8f4 8637
000000a0: 9d12 6637 c63b 3137 83c1 2637 f373 8b37
000000b0: c013 8d37 7426 bd37 7a06 8237 a79d 8637
000000c0: 000f 7637 abe4 7337 1d5c 8237 ebc8 9537
000000d0: 42e7 9737 d2ef 5437 399e d336 b096 2a37
000000e0: ba0f 2037 b368 e236 c99c 1337 db19 cc36
000000f0: de80 c936 a169 0037 9b35 1a37 de89 3937
00000100: beb1 e436 b2dc fb36 1526 e336 6604 d636
00000110: 2e83 5236 15f8 ff36 a4aa d136 203f dc36
00000120: 50e8 4237 0dfc 1a37 e50f 3237 87e1 3137
00000130: f9b8 8e37 3b50 fe36 99c9 bd36 2952 7f37
00000140: 3fdd 4137 5a4e 7b37 a21c 4f37 d14a 3137
00000150: e24d 4837 fdd1 2137 d520 9336 2d36 5237
00000160: 5658 f236 82bd f836 ef3f 9637 e4c9 a637
00000170: f72c 7b37 c4d6 8e37 decd 5737 2682 2937
00000180: 6c62 8337 a0d5 6437 bb27 8d37 3a00 ac37
00000190: 92c6 7037 10fb 9037 2b02 4737 07f9 5637
000001a0: d039 7037 ac60 4737 43bb 9437 c14d 6037
000001b0: 6773 1037 184e e536 a4b0 1037 b826 0937
000001c0: d42c 8637 ff78 1937 180c 0b37 4f50 5d37
000001d0: 878c 6c37 fafb 8037 6209 2737 bd4e 2637
000001e0: 67ba 1b37 0e45 1537 47c9 6d36 1d8f 4737
000001f0: 97cb d336 5a9e cf36 1f6d 9a36 38b5 2636
00000200: ea43 8e36 ba49 5b36 09ca 5936 5176 5036
00000210: 1994 0736 4a6c c936 e293 b536 63a6 df36
00000220: f58a 9036 35d3 8436 2009 8336 e1d2 5536
00000230: ef53 1b36 9506 3136 c16e 3936 7e24 8036
00000240: dd32 a236 fd53 8a36 ea3c a836 37d2 7136
00000250: e3a8 9a36 89be 8536 99bf 5736 1f59 ac36
00000260: 31dc 9836 d65b a136 9cca 9a36 448c 8736
00000270: 4311 9c36 b2eb bc36 c5e5 6a36 3c1b 8036
00000280: 3541 6736 1a01 6f36 b95d 3037 4a01 4237
00000290: a672 2637 1ef5 1b37 6ff2 dd36 236c d436
000002a0: e5fd e936 16ba 1137 6965 f236 44df 3137
000002b0: fa5b e336 68bd ff36 c245 e736 fc7b 0b37
000002c0: 078e 1a37 740e f336 08bc 2537 9c7b db36
000002d0: 35f7 5137 489c 5437 8071 5d37 56a8 4737
000002e0: 216e 9037 72d9 3537 bca5 0537 8524 6a37
000002f0: 5964 0537 fde4 8937 6fbb 4b37 d994 4a37
00000300: 6e6e 3037 eb5e 4d37 ed65 ff36 cc2e 1137
00000310: 6e79 4a37 5074 4b37 7fa2 7036 05df 8536
00000320: 8b1b 8236 9fba 4e36 7537 8c36 8d08 3036
00000330: 0150 2d36 5ace 8736 0897 3b36 4913 7636
00000340: 0ccd 5036 574e 7036 295f 6f36 7c05 6736
00000350: 35c7 2d36 1e9e 0e36 6140 3436 dbec 5c36
00000360: ca9a 1b37 8949 fa36 eaf3 b036 4303 db36
00000370: 4ddf c336 07a7 7136 27b9 9036 d3e5 b836
00000380: c625 cd36 869f e336 fecb b336 6348 ab36
00000390: 4d98 cc36 1f0a b836 6b5b 9036 ccc3 9736
000003a0: 57f9 a536 48e7 af36 88cc 9b36 61c8 9336
000003b0: 266e bb36 df47 6736 8566 8536 efcb 6036
000003c0: 57cf 2536 f611 9636 914f c736 1026 e736
000003d0: 9573 6f36 647d 8736 a9f6 7936 f400 5a36
000003e0: b6e5 2f36 ffeb 8336 97fc 7436 a9a3 8e36
000003f0: 9680 8436 4e4a 3a36 8be5 9836 6b1f 5536
7.0013402e-06 6.3225143e-06 7.141672e-06 6.3863404e-06 8.996583e-06 6.535366e-06 7.2995576e-06 9.519426e-06
1.0251381e-05 1.3154866e-05 8.93155e-06 7.1425e-06 6.6966372e-06 6.4839023e-06 5.2118385e-06 7.286227e-06
4.5897496e-06 5.2234113e-06 1.0280062e-05 1.2453044e-05 1.1972525e-05 8.503621e-06 8.654944e-06 6.8882023e-06
9.028418e-06 8.11808e-06 1.191081e-05 1.3718906e-05 1.0373215e-05 9.599787e-06 8.539629e-06 8.339759e-06
8.362087e-06 9.42106e-06 8.960669e-06 9.0701e-06 1.6885873e-05 1.9174791e-05 1.735297e-05 1.6087972e-05
1.3713402e-05 1.0563939e-05 9.9394265e-06 1.6624084e-05 1.6817707e-05 2.2548462e-05 1.5500224e-05 1.6047457e-05
1.4666235e-05 1.453717e-05 1.5540101e-05 1.7855744e-05 1.810829e-05 1.2692022e-05 6.3067096e-06 1.0167874e-05
9.540405e-06 6.7475135e-06 8.798387e-06 6.0826837e-06 6.005269e-06 7.653988e-06 9.191596e-06 1.1058959e-05
6.8156214e-06 7.5060752e-06 6.7695605e-06 6.378209e-06 3.1368795e-06 7.6284728e-06 6.2485506e-06 6.5638596e-06
1.1617391e-05 9.2378e-06 1.06133275e-05 1.0602532e-05 1.7013854e-05 7.57913e-06 5.656108e-06 1.5218314e-05
1.1555209e-05 1.49790085e-05 1.2344828e-05 1.0567442e-05 1.19390625e-05 9.6452395e-06 4.3847635e-06 1.2529589e-05
7.2224457e-06 7.4130376e-06 1.7911165e-05 1.9882755e-05 1.4971235e-05 1.7027727e-05 1.2862931e-05 1.01034875e-05
1.5662248e-05 1.36395975e-05 1.682701e-05 2.0504103e-05 1.4351348e-05 1.7283048e-05 1.1861829e-05 1.2813375e-05
1.4318575e-05 1.18838325e-05 1.7730175e-05 1.3369544e-05 8.609938e-06 6.833823e-06 8.624196e-06 8.174851e-06
1.599492e-05 9.147682e-06 8.287861e-06 1.3191325e-05 1.4099415e-05 1.5376125e-05 9.95616e-06 9.912704e-06
9.28212e-06 8.89717e-06 3.543291e-06 1.18946455e-05 6.311991e-06 6.1875153e-06 4.602261e-06 2.484141e-06
4.239836e-06 3.2676458e-06 3.245312e-06 3.1063284e-06 2.0202772e-06 6.0028733e-06 5.411436e-06 6.665288e-06
4.307711e-06 3.9584943e-06 3.9051665e-06 3.186222e-06 2.3145656e-06 2.6378887e-06 2.7631615e-06 3.8189455e-06
4.8338975e-06 4.122498e-06 5.0138815e-06 3.603416e-06 4.6092186e-06 3.98589e-06 3.214902e-06 5.1363745e-06
4.5555867e-06 4.808865e-06 4.6131445e-06 4.0396426e-06 4.651172e-06 5.630275e-06 3.500246e-06 3.8178678e-06
3.4459638e-06 3.5614416e-06 1.0512239e-05 1.1563601e-05 9.921065e-06 9.295791e-06 6.6145362e-06 6.330681e-06
6.9734983e-06 8.686e-06 7.2239677e-06 1.0602005e-05 6.7758347e-06 7.621642e-06 6.8924573e-06 8.313913e-06
9.212184e-06 7.243647e-06 9.878546e-06 6.5410986e-06 1.2514928e-05 1.2672572e-05 1.3199053e-05 1.1900518e-05
1.721742e-05 1.0839069e-05 7.966006e-06 1.395599e-05 7.950782e-06 1.6438304e-05 1.2143383e-05 1.20747945e-05
1.0516129e-05 1.2241052e-05 7.611458e-06 8.653569e-06 1.2068411e-05 1.2126824e-05 3.5857372e-06 3.9896718e-06
3.8775083e-06 3.080502e-06 4.178781e-06 2.623102e-06 2.5825577e-06 4.047336e-06 2.7953083e-06 3.6668082e-06
3.1113768e-06 3.5808387e-06 3.5669166e-06 3.4424875e-06 2.5894963e-06 2.1251685e-06 2.6859564e-06 3.2920423e-06
9.27476e-06 7.459141e-06 5.273604e-06 6.5270883e-06 5.8374485e-06 3.6009021e-06 4.313089e-06 5.5103824e-06
6.1138735e-06 6.783698e-06 5.3583635e-06 5.104624e-06 6.097404e-06 5.4848056e-06 4.302177e-06 4.5229444e-06
4.94641e-06 5.242331e-06 4.6431705e-06 4.4042686e-06 5.5858573e-06 3.4463517e-06 3.9756437e-06 3.3497306e-06
2.4707604e-06 4.4724393e-06 5.939925e-06 6.8887675e-06 3.5681053e-06 4.037911e-06 3.7247466e-06 3.2485086e-06
2.6210741e-06 3.931578e-06 3.650586e-06 4.2509823e-06 3.948876e-06 2.775941e-06 4.5566753e-06 3.175776e-06

exp_avg f4 [128]
00000000: fea3 663a 832c d939 1956 94ba e8ce 183a
00000010: 0e8a 2aba d7b2 573a 54c0 e6b7 b65e 7b3a
00000020: a46b 5f3a 8975 7838 0e4f 07ba 9fbb f2b8
00000030: 432b bf3a c83e 2a3a 1bc4 4eba 6656 d3b9
00000040: 4455 8cba 3db0 cc3a 7be2 733a 536f 9539
00000050: 30cc 8e3a a8c8 13ba a7c4 743a 1432 71b9
00000060: 0f6a 1fba 5f4d 8bba 670a 40b9 e2fe 46b9
00000070: 339b 67ba f6ce b2ba 4830 0cba 847b 62b9
00000080: e878 ca3a 07ec 9db9 7462 0d39 2576 97b8
00000090: 7bcf 103b ba17 1c39 22d3 d639 d204 663b
000000a0: f83d d3ba 422d 213b 3514 2a3a e7db 25ba
000000b0: 4190 3f39 9c7c 80ba a0e7 91ba 69d5 0439
000000c0: 0315 fbba 7044 d2ba adf2 90ba f74b 4cba
000000d0: 6999 dfba 01cf a23a 5424 423a 436d e8b7
000000e0: 5843 c439 94aa 643a 90cc b439 98dc 873a
000000f0: 9f52 a6b8 887a 133a 9257 bf39 ffb6 223a
00000100: 9cca 0a3a 4d7d 8d39 7277 e939 358e 9d3a
00000110: bf8d 6c3a 7d39 213a ab9a bcb7 6bcf c13a
00000120: 9eb0 64b8 8379 3bba abaf a2ba 2918 04ba
00000130: e709 da38 e595 f6b8 0e36 b33a 41c4 b63a
00000140: 2674 29ba a6ec a737 4f14 a73a 5fb0 29ba
00000150: a6e6 80ba 489b 4f3a a416 f2b8 43fe fd39
00000160: 44b9 5a39 233f 9a3a 0898 9e36 1a6f 56ba
00000170: 08ce 1439 9204 8c3a 7a79 9239 9452 47ba
00000180: 0396 2039 a354 2639 350c 15bb 4edd bc3a
00000190: 2051 dbba 1c46 b939 1bc4 96b9 1bd9 ceb7
000001a0: 6be1 c13a a799 77b8 5084 753a 44ff 56b9
000001b0: c200 9cb9 7ca4 13bb 5e67 d8b9 f1f3 5d3a
000001c0: 2509 b83a 91cc 97b9 d7c3 23ba 1e52 b3b9
000001d0: 4681 7238 5114 1eba cf51 7b3a 943c fc39
000001e0: 2b00 1a3a 0227 68ba afce d7b9 158b 223a
000001f0: f040 1bba b16e 8939 a695 643a af74 0039
0.00087982405 0.0004142263 -0.0011317163 0.0005829171 -0.0006505557 0.00082282483 -2.7507696e-05 0.0009589003
0.00085228146 5.923727e-05 -0.00051616214 -0.000115744064 0.0014585037 0.00064943405 -0.00078874984 -0.00040309428
-0.0010706563 0.0015616488 0.00093034626 0.00028502438 0.0010894593 -0.0005637505 0.0009337165 -0.00023002207
-0.00060811726 -0.0010627917 -0.00018314422 -0.00018977703 -0.0008835077 -0.0013642001 -0.00053477706 -0.00021599053
0.001544741 -0.00030121228 0.00013483485 -7.222247e-05 0.0022096324 0.00014886158 0.00040974567 0.0035098088
-0.0016116491 0.0024593626 0.00064879964 -0.00063270185 0.00018268918 -0.0009802761 -0.0011131652 0.00012668002
-0.0019156042 -0.0016042124 -0.0011058651 -0.0007793302 -0.001705927 0.0012421311 0.0007405926 -2.7707434e-05
0.00037434208 0.0008722928 0.00034484686 0.0010365425 -7.930886e-05 0.00056258636 0.00036495604 0.0006207078
0.00052944734 0.00026986972 0.00044530217 0.001202053 0.00090238074 0.0006150229 -2.248337e-05 0.0014786547
-5.4523924e-05 -0.00071515905 -0.0012411972 -0.00050390005 0.000103968945 -0.00011758114 0.0013672726 0.0013943986
-0.0006464146 2.001815e-05 0.0012747141 -0.000647312 -0.0009834364 0.0007919562 -0.000115436764 0.0004844536
0.00020859117 0.0011768084 4.7264657e-06 -0.00081800076 0.00014191133 0.0010682514 0.00027937797 -0.00076035527
0.00015314673 0.00015862523 -0.0022742872 0.0014409216 -0.0016732551 0.00035338185 -0.0002875634 -2.4658211e-05
0.0014791911 -5.903249e-05 0.00093657244 -0.00020503724 -0.00029755203 -0.002252846 -0.00041275745 0.0008466831
0.0014040811 -0.00028953378 -0.0006247139 -0.00034202723 5.781769e-05 -0.0006030249 0.00095870806 0.0004811032
0.0005874659 -0.000885591 -0.00041161987 0.00062005344 -0.0005922457 0.00026213148 0.0008719809 0.000122505
